ai_predict/ai/lightning_logs/version_39/checkpoints/epoch=0-step=18.ckpt (torch, 662004 bytes, 889 tensors)

prescalers.time_idx.weight f4 [8, 1]
0	0x3ef6f209	0.48231533
1	0xbf4751a3	-0.7785894
2	0xbeb17263	-0.34657583
3	0x3e642b38	0.22282112
4	0xbf6ff72a	-0.9373652
5	0x3de7ac8c	0.113122076
6	0xbe18506c	-0.14874429
7	0xbf5147d7	-0.81750244

prescalers.time_idx.bias f4 [8]
0	0x3e6506b6	0.22365841
1	0xbf6806da	-0.90635455
2	0xbf1700fd	-0.58985883
3	0x3f25e61d	0.6480425
4	0xbf88c197	-1.0684079
5	0xbf4ba66b	-0.7955081
6	0x3e655e93	0.22399358
7	0xbeca083a	-0.394594

prescalers.T2M.weight f4 [8, 1]
0	0xbec5aa33	-0.38606414
1	0x3f2127d3	0.6295139
2	0x3f22ba7f	0.6356582
3	0x3f912b13	1.134127
4	0xbe00f0cc	-0.12591857
5	0xbe1f6a32	-0.15567854
6	0xbf9a1924	-1.2038922
7	0xbe6f6218	-0.23377264

prescalers.T2M.bias f4 [8]
0	0xbec79850	-0.38983393
1	0xbf7d2b0d	-0.98893815
2	0xbeede673	-0.4646488
3	0xbf1feb08	-0.62468004
4	0xbf06ed64	-0.5270598
5	0x3ee37354	0.44423926
6	0x3f126820	0.5719013
7	0xbda23d95	-0.07921902

prescalers.T2M_MAX.weight f4 [8, 1]
0	0x3dd40896	0.103532
1	0x3e5ad618	0.21370733
2	0xbf29d874	-0.66345906
3	0x3f7df8bf	0.9920768
4	0xbea61529	-0.3243802
5	0x3e1e171c	0.15438503
6	0x3f1eeeab	0.6208293
7	0xbe80e4da	-0.251746

prescalers.T2M_MAX.bias f4 [8]
0	0xbe84bdb0	-0.2592597
1	0xbf03468b	-0.51279515
2	0x3eb463cc	0.3523239
3	0x3ed6b099	0.41931608
4	0xbcb2f13e	-0.021843549
5	0xbf061cdc	-0.52387786
6	0xbf5b9681	-0.85776526
7	0x3dc9638b	0.098334394

prescalers.T2M_MIN.weight f4 [8, 1]
0	0x3f53ee0d	0.8278511
1	0xbf2afff4	-0.66796803
2	0xbec93f62	-0.3930617
3	0xbf408688	-0.7520528
4	0xbe502ec9	-0.20330347
5	0x3ee9320b	0.45545992
6	0xbdd64b53	-0.10463586
7	0xbf3479ec	-0.7049854

prescalers.T2M_MIN.bias f4 [8]
0	0x3f88200b	1.0634779
1	0xbeec96c9	-0.4620879
2	0x3f2b23cb	0.6685149
3	0xbed450de	-0.41467947
4	0xbf1c2511	-0.6099406
5	0x3f25bbfc	0.64739966
6	0xbe1b14dd	-0.15144677
7	0x3f0b7265	0.5447143

prescalers.PRECTOTCORR.weight f4 [8, 1]
0	0xbf23cbf5	-0.6398309
1	0xbf3e01b0	-0.74221325
2	0xbf636e9c	-0.8884065
3	0xbf205fb3	-0.62646025
4	0xbf14fdbb	-0.5819966
5	0xbdd5429c	-0.10413095
6	0xbed08051	-0.40722898
7	0x3eab3109	0.33435848

prescalers.PRECTOTCORR.bias f4 [8]
0	0x3cc974b7	0.024591787
1	0x3f86f8f2	1.0544722
2	0xbf178664	-0.5918944
3	0x3e5fecc6	0.21867666
4	0xbf7852e2	-0.9700147
5	0xbf700edc	-0.93772674
6	0x3e5553c7	0.2083274
7	0xbf5e360a	-0.8680121

prescalers.RH2M.weight f4 [8, 1]
0	0xbeba3a3a	-0.36372548
1	0x3f373ff6	0.7158197
2	0x3e0f16a7	0.13973485
3	0xbe7d0da7	-0.24712239
4	0xbf77ef74	-0.9684975
5	0x3f8b1db9	1.0868446
6	0xbce98c4a	-0.028509278
7	0x3ecfa2e3	0.4055396

prescalers.RH2M.bias f4 [8]
0	0x3f078000	0.5292969
1	0xbf050c5e	-0.51971996
2	0x3dba8142	0.09106685
3	0x3d2d46e1	0.042303924
4	0x3f49fbc6	0.788998
5	0x3f78d63a	0.97201884
6	0xbf56626b	-0.83743924
7	0x3eedd8a6	0.46454352

prescalers.ALLSKY_SFC_SW_DWN.weight f4 [8, 1]
0	0xbf2b6a21	-0.66958815
1	0xbdde469a	-0.1085331
2	0x3e96369e	0.29338545
3	0xbee47062	-0.4461699
4	0xbd2100cc	-0.0393074
5	0x3ebb5a45	0.36592308
6	0xbecfb2e0	-0.40566158
7	0xbf01906b	-0.5061099

prescalers.ALLSKY_SFC_SW_DWN.bias f4 [8]
0	0x3edb5ace	0.42842716
1	0x3ca973f2	0.02068517
2	0xbeb2a7f8	-0.34893775
3	0x3dd745ed	0.10511384
4	0xbf3999a4	-0.7250006
5	0xbf865cb3	-1.049704
6	0x3f0f8421	0.5606099
7	0x3e6fbcbb	0.23411839

prescalers.numero_casos.weight f4 [8, 1]
0	0x3f473d3f	0.7782783
1	0xbf10f52e	-0.56624115
2	0x3b4355ad	0.0029805705
3	0xbf55dd97	-0.83541244
4	0x3e05fab6	0.1308392
5	0xbf0b8c20	-0.5451069
6	0x3f82920b	1.0200819
7	0x3eb7a6c8	0.35869431

prescalers.numero_casos.bias f4 [8]
0	0x3f422e8a	0.7585226
1	0x3ebc3e94	0.36766493
2	0x3ee02942	0.43781477
3	0x3f3dfa05	0.74209625
4	0xbe41872b	-0.18899219
5	0xbdb97fc0	-0.090575695
6	0xbf5d98fc	-0.8656156
7	0x3f894b0d	1.0726029

static_variable_selection.single_variable_grns.municipio.mask f4 [16]
0	0xbe1e75ea	-0.15474668
1	0x3e1e75a4	0.15474564
2	0x3e1e7509	0.15474333
3	0x3e1e788b	0.15475671
4	0xbe1e7514	-0.1547435
5	0x3e1e7aa5	0.15476473
6	0xbe1e7644	-0.15474802
7	0x3e1e73a8	0.15473807
8	0x3e1e7714	0.15475112
9	0x3e1e710e	0.15472814
10	0x3e1e73af	0.15473817
11	0xbe1e7a19	-0.15476264
12	0xbe1e7716	-0.15475115
13	0xbe1e70c1	-0.154727
14	0x3e1e7631	0.15474774
15	0x3e1e77f1	0.15475442

static_variable_selection.single_variable_grns.municipio.norm.weight f4 [16]
0	0x3f819469	1.0123416
1	0x3f7b0a16	0.98062265
2	0x3f7f174d	0.9964493
3	0x3f87fc27	1.0623826
4	0x3f618f62	0.8810941
5	0x3f97660b	1.1828016
6	0x3f82718c	1.0190902
7	0x3f616b5c	0.8805444
8	0x3f928da0	1.144947
9	0x3f717a93	0.9432766
10	0x3f477a0f	0.7792062
11	0x3f939b96	1.1531856
12	0x3f9aa07a	1.2080224
13	0x3f456f36	0.7712282
14	0x3f80d569	1.0065128
15	0x3f9dd124	1.232945

static_variable_selection.single_variable_grns.municipio.norm.bias f4 [16]
0	0xbe1e78b8	-0.15475738
1	0x3e1e6cc7	0.15471183
2	0x3e1e873c	0.15481275
3	0x3e1e994d	0.15488167
4	0xbe1e6db9	-0.15471543
5	0x3e1e9f17	0.15490375
6	0xbe1e758d	-0.1547453
7	0x3e1e598c	0.15463847
8	0x3e1e7e0d	0.15477772
9	0x3e1e369f	0.15450524
10	0x3e1e60d3	0.15466623
11	0xbe1ed4f7	-0.15510927
12	0xbe1e8348	-0.15479767
13	0xbe1e27ec	-0.15444916
14	0x3e1e77e6	0.15475425
15	0x3e1e855d	0.15480562

encoder_variable_selection.flattened_grn.resample_norm.mask f4 [8]
0	0xbe427a90	-0.18992066
1	0x3df794e7	0.12088948
2	0xbe066c4e	-0.13127252
3	0x3e10eab6	0.14152035
4	0x3d8928e6	0.06697254
5	0xbdf40063	-0.11914136
6	0x3cd4e455	0.025987783
7	0x3e27a388	0.16370976

encoder_variable_selection.flattened_grn.resample_norm.norm.weight f4 [8]
0	0x3f525326	0.82158124
1	0x3f99c2f0	1.2012615
2	0x3f5bcbb7	0.8585772
3	0x3f9422c0	1.1573105
4	0x3f8d2e21	1.1029702
5	0x3f655093	0.8957607
6	0x3f78e582	0.972252
7	0x3f94cdd3	1.1625313

encoder_variable_selection.flattened_grn.resample_norm.norm.bias f4 [8]
0	0xbe6b649a	-0.22987595
1	0x3e1bde3e	0.15221497
2	0xbd8a93d9	-0.06766481
3	0xbe2db125	-0.16962107
4	0xbdb99ece	-0.09063493
5	0xbdca6a02	-0.09883501
6	0x3d31058e	0.043218188
7	0x3e289793	0.16464071

encoder_variable_selection.flattened_grn.fc1.weight f4 [8, 64]
0	0x3bdb8b46	0.0066999523
1	0xbe52d16d	-0.20587702
2	0xbea74d7c	-0.32676303
3	0x3ed8f82d	0.42376843
4	0x3d6db896	0.058037363
5	0xbbfad6ab	-0.007654985
6	0x3e1e8496	0.15480265
7	0xbd1d09b1	-0.03833932
8	0x3dbd5089	0.092438765
9	0xbd8abcf1	-0.06774319
10	0x3dc1fc07	0.094718985
11	0x3ea463f0	0.32107496
12	0x3cd7386e	0.026272025
13	0xbd19d103	-0.037552845
14	0xbd1ab933	-0.037774276
15	0x3e64c3cd	0.22340317
16	0xbe5e2901	-0.21695329
17	0xbe4228d5	-0.18960889
18	0x3c1aa7b4	0.009439398
19	0xbdac816e	-0.08423124
20	0xbe60e4c4	-0.21962267
21	0x3c8255b6	0.01591001
22	0x3c5a0afb	0.013308282
23	0xbe0b807c	-0.13623232
24	0x3ea7ffaf	0.3281226
25	0xbd313aea	-0.043269075
26	0x3bbaaa92	0.005696603
27	0xbefb73a4	-0.49111664
28	0xbd8082c1	-0.06274939
29	0xbdc5cefb	-0.09658619
30	0x3d96ede2	0.07369591
31	0xbe0cffaf	-0.1376941
32	0xbdbf809e	-0.09350704
33	0xbd4ca731	-0.049964134
34	0x3e3e57cf	0.18588184
35	0xbdcbb94a	-0.099474505
36	0xbdc72d73	-0.097254656
37	0x3be04875	0.006844575
38	0xbe847ebc	-0.2587794
39	0x3d941e17	0.07232302
40	0xbe0b6dc4	-0.13616091
41	0x3e806841	0.2507954
42	0x3dca49e3	0.09877374
43	0x3e0b664f	0.13613246
44	0xbd604dbf	-0.054761644
45	0xbe6d94fe	-0.23201367
46	0xbcb5e8f3	-0.022205805
47	0x3e9a87e3	0.30181798
48	0x3edc9dbe	0.43089098
49	0xbd8f23cf	-0.06989252
50	0xbe12b328	-0.14326155
51	0xbeb2ea06	-0.3494417
52	0xbebe0c98	-0.37118983
53	0x3d95b40d	0.073097326
54	0xbc8aa0f1	-0.016922446
55	0x3c91a794	0.017780103
56	0xbd519a44	-0.05117251
57	0x3cd13c96	0.025541585
58	0x3e401e31	0.18761517
59	0xbe260570	-0.16213012
60	0x3ea7389b	0.32660374
61	0xbe4ba27f	-0.19886206
62	0x3e064cbd	0.13115211
63	0x3d6ec60e	0.05829435
64	0x3f00e2d0	0.5034609
65	0xbe8cbf56	-0.27489728
66	0xbe00ff15	-0.12597306
67	0xbd974e10	-0.07387936
68	0xbd17d003	-0.03706361
69	0x3cf5c64c	0.030001782
70	0x3d5c4326	0.053774975
71	0xbf15d15d	-0.5852259
72	0x3e3053c5	0.17219456
73	0xbddcc84e	-0.107803926
74	0x3e18f3d2	0.1493676
75	0xbd09118d	-0.033464003
76	0xbd027495	-0.031849463
77	0x3df16b17	0.11788004
78	0x3eae503f	0.34045598
79	0x3ef18a0a	0.47175628
80	0xbe7980d8	-0.24365556
81	0xbd6f7cdf	-0.058468696
82	0x3e4a4340	0.19752216
83	0x3dd08a9e	0.10182689
84	0x3e3a9fe7	0.1822506
85	0x3dcdfd43	0.100580715
86	0xbbff5268	-0.007791806
87	0x3e73c19c	0.23804325
88	0x3d742284	0.05960323
89	0xbbcf88ab	-0.0063334308
90	0xbe9f78ec	-0.31146944
91	0x3d3bee38	0.04588148
92	0x3e9941d8	0.29933047
93	0xbdc18335	-0.09448854
94	0x3e446c00	0.19181824
95	0x3e9fa168	0.3117783
96	0x3eac13b6	0.33608788
97	0xbcec78c5	-0.028866181
98	0xbae5c51b	-0.0017530055
99	0xbe4c328e	-0.1994116
100	0x3dff4127	0.12463599
101	0x3eac5f81	0.33666614
102	0x3d4665e8	0.04843703
103	0xbdb2f64e	-0.08738385
104	0x3d64ff56	0.05590757
105	0xbf08c724	-0.53428864
106	0x3deeed21	0.116663225
107	0xbdb8cac8	-0.090230525
108	0x3e00121f	0.12506913
109	0x3cd62fdc	0.026145868
110	0x3e63ea30	0.22257304
111	0x3dc10330	0.09424436
112	0xbe34a673	-0.1764162
113	0x3e72568e	0.2366583
114	0xbd18eaca	-0.037333287
115	0xbd11b2fc	-0.035571083
116	0xbe98ba62	-0.298297
117	0x3e214e51	0.15752532
118	0x3ed4aece	0.41539615
119	0x3e79f1d4	0.24408656
120	0x3e8db29e	0.27675337
121	0x3ea1a082	0.3156777
122	0x3d23d920	0.04000199
123	0x3e3c1b99	0.18369903
124	0x3df7bfe4	0.12097147
125	0xbe15ea09	-0.14640059
126	0xbec33fd5	-0.38134637
127	0x3e67f009	0.2265016
128	0xbea34488	-0.31888223
129	0x3e8d4830	0.27594137
130	0x3ef5a6c3	0.47978792
131	0xbe02366b	-0.12716071
132	0x3e49518d	0.19660015
133	0x3e47d868	0.19516146
134	0xbdcd5ffd	-0.10028074
135	0x3bfa235b	0.007633609
136	0x3d7f967e	0.06239938
137	0x3d8d535f	0.069006674
138	0xbd0a9d01	-0.033841137
139	0xbe3bd521	-0.18343021
140	0x3e4181e9	0.18897213
141	0xbd88af7b	-0.06674095
142	0xbec08ccd	-0.37607422
143	0xbe057467	-0.13032685
144	0x3daf17c3	0.08549454
145	0x3ee537f9	0.44769266
146	0xbec29ff2	-0.38012654
147	0x3d8cb661	0.068707235
148	0xbed2eee1	-0.41197875
149	0x3e8c74e5	0.27432933
150	0x3ebb1f4e	0.3654732
151	0x3daeb78c	0.085311025
152	0xbda4cfb7	-0.08047431
153	0x3e0ad67d	0.13558383
154	0xbdaaa7e7	-0.08332806
155	0xbe18fb81	-0.14939691
156	0xbd23c6fc	-0.03998469
157	0x3e8f9116	0.2804038
158	0x3dd31b1e	0.103079066
159	0xbddf6639	-0.10908169
160	0xbe1682fa	-0.14698401
161	0xbe1629ab	-0.14664333
162	0xbe6c5188	-0.23077977
163	0xbe2e36c9	-0.17013086
164	0xbd4e443e	-0.05035805
165	0xbe8b23df	-0.27175805
166	0xbe86435a	-0.2622326
167	0x3da0cba9	0.07851345
168	0x3be66873	0.0070314943
169	0xbd5d5d7f	-0.054044243
170	0xbe939ed3	-0.2883211
171	0x3eaacfaf	0.33361575
172	0x3b8abea4	0.004234152
173	0x3ebd8fd4	0.37023795
174	0x3eef3a16	0.46724004
175	0xbe166bf9	-0.14689626
176	0x3d72a136	0.059235774
177	0x3d4adccf	0.049526986
178	0x3d289aa2	0.041163094
179	0xbe9b4190	-0.30323458
180	0x3e9d9d59	0.3078411
181	0xbd569abe	-0.052393667
182	0xbda2eb02	-0.079549804
183	0xbe822163	-0.25416097
184	0x3d5331e0	0.051561236
185	0x3d15b5dd	0.03655039
186	0xbd585122	-0.05281175
187	0xbe2461d8	-0.1605295
188	0xbd2177e7	-0.03942099
189	0xbefc321f	-0.4925699
190	0x3ebb4250	0.3657403
191	0xbe8535a9	-0.26017502
192	0xbee6bdb0	-0.45066595
193	0x3e3dc68a	0.18532768
194	0x3f0ad54f	0.54231733
195	0xbd8146c6	-0.06312327
196	0x3dc8d9eb	0.098071896
197	0x3ef194a3	0.47183713
198	0xbef8fac5	-0.48628822
199	0x3f0d9cdf	0.5531749
200	0x3e5eaf6c	0.21746606
201	0x3e22d547	0.15901671
202	0x3e008217	0.12549625
203	0x3e76a351	0.24085738
204	0x3ec9f82a	0.39447147
205	0xbe31c7e6	-0.17361411
206	0xbdd005e6	-0.10157375
207	0x3e9993b3	0.29995498
208	0x3f1aa099	0.604013
209	0x3e71da5a	0.23618451
210	0x3ebf45f1	0.3735805
211	0xbe85514a	-0.2603858
212	0xbe9e795f	-0.30951974
213	0x3f1905b3	0.5977432
214	0x3e8a75e5	0.2704307
215	0x3dd3ead7	0.103475265
216	0xbe4ca369	-0.19984211
217	0xbdd84657	-0.10560291
218	0xbe599b11	-0.2125056
219	0x3d941545	0.07230619
220	0x3e267753	0.16256456
221	0xbd9d6895	-0.07685963
222	0xbda5eb96	-0.08101575
223	0xbeba9e69	-0.36448982
224	0xbc3d3cc1	-0.011550129
225	0xbd674f55	-0.05647214
226	0x3e093c31	0.13401867
227	0x3ed3a0bc	0.41333568
228	0xbe3e8803	-0.18606572
229	0xbe594dfe	-0.21221158
230	0x3e6386cc	0.2221939
231	0x3e796030	0.24353099
232	0xbee8adf1	-0.45445207
233	0x3e497a09	0.19675459
234	0xbefd6462	-0.49490649
235	0xbe10eae5	-0.14152105
236	0xbccf6961	-0.025318803
237	0xbd9b5d62	-0.07586171
238	0xbc0a3788	-0.008436091
239	0xbd66dc88	-0.05636266
240	0xbee70beb	-0.4512628
241	0xbf037798	-0.5135436
242	0xbe0b073a	-0.13576975
243	0x3c8a5ede	0.01689094
244	0x3e08b490	0.13350129
245	0x3eb17bdb	0.34664807
246	0xbe9508e9	-0.2910836
247	0xbe5e5b4d	-0.21714516
248	0xbe997245	-0.29969993
249	0xbc81a73a	-0.01582681
250	0xbe9696fe	-0.29412073
251	0xbdfb9638	-0.12284511
252	0x3ea4a7fe	0.32159418
253	0x3c56dda7	0.0131143695
254	0x3eca8f49	0.39562443
255	0xbe29d90a	-0.165867

encoder_variable_selection.flattened_grn.fc1.bias f4 [8]
0	0x3d50ea82	0.051004894
1	0x3def11a6	0.11673288
2	0xbe29e755	-0.16592152
3	0xbe188d57	-0.14897667
4	0xbc714f03	-0.0147283105
5	0x3e9df35d	0.30849734
6	0x3e256d92	0.16155079
7	0x3e3653cf	0.17805408

encoder_variable_selection.flattened_grn.context.weight f4 [8, 16]
0	0x3e5496a2	0.20760587
1	0xbe994023	-0.29931745
2	0xbdfcbc87	-0.12340646
3	0xbe963426	-0.2933666
4	0x3e64df47	0.22350799
5	0xbe96dee5	-0.2946693
6	0x3eca31d6	0.39491147
7	0x3e93ac5b	0.28842434
8	0xbed3bdeb	-0.41355833
9	0xbe7225db	-0.23647253
10	0xbe0f4e0c	-0.13994616
11	0x3eb828aa	0.35968524
12	0x3db91635	0.09037439
13	0x3de3cab2	0.111226454
14	0xbf070b11	-0.5275126
15	0xbebe4273	-0.37160072
16	0x3ebd4c54	0.36972296
17	0x3e97538f	0.29555938
18	0xbedc6afa	-0.43050367
19	0xbea5bdec	-0.3237146
20	0x3eba70a0	0.3641405
21	0xbf0e1235	-0.5549653
22	0x3e9d89b4	0.30769122
23	0xbdbd514e	-0.09244023
24	0xbe85c8e0	-0.26129818
25	0xbea2c222	-0.31788737
26	0xbeaa85f7	-0.33305332
27	0x3edf94d2	0.43668228
28	0xbe614244	-0.21997935
29	0x3e05b8fb	0.13058846
30	0x3ec46f72	0.38366276
31	0x3e0aeb1a	0.13566247
32	0xbd910052	-0.07080139
33	0x3e77acfa	0.24187079
34	0x3e017b05	0.12644584
35	0x3e3f25ed	0.18666811
36	0x3981e700	0.00024776906
37	0x3d89296f	0.06697356
38	0xbc81fd91	-0.01586798
39	0x3ef11403	0.4708558
40	0xbf0f95b8	-0.5608783
41	0xbe57f0cb	-0.21087949
42	0x3f0d5530	0.5520811
43	0x3e1d1e78	0.15343654
44	0x3efd1b9b	0.49435124
45	0xbebbb7d4	-0.36663687
46	0xbf00a227	-0.50247425
47	0xbdf47446	-0.1193624
48	0x3db62757	0.08894222
49	0xbe850da0	-0.25986958
50	0xbd1a30be	-0.03764414
51	0x3e832b12	0.25618798
52	0xbdbdabfa	-0.092613176
53	0x3df075d4	0.11741224
54	0x3e146c5d	0.14494462
55	0x3e9c5820	0.30535984
56	0x3c80b229	0.015709953
57	0x3e35ca7e	0.17753026
58	0x3e521b76	0.20518288
59	0xbe22c9f6	-0.15897354
60	0xbe7369b3	-0.2377079
61	0xbec97524	-0.39347184
62	0x3e5ee7e2	0.21768144
63	0xbd91ee74	-0.071255594
64	0x3f1cbca4	0.6122534
65	0xbedbc5c2	-0.42924315
66	0xbaecec0c	-0.0018075719
67	0xbf0723e0	-0.52789116
68	0xbde8ab69	-0.11360819
69	0xbd3735f6	-0.044729196
70	0x3f0a4d1f	0.5402393
71	0xbea1916b	-0.31556258
72	0xbe237ac2	-0.15964797
73	0x3e91473f	0.2837467
74	0x3cac1301	0.021005156
75	0x3f023eda	0.50877154
76	0x3f2f9554	0.6858723
77	0x3dbe9dfe	0.09307478
78	0xbef41c70	-0.47677946
79	0xbee28069	-0.44238594
80	0x3e1f0498	0.15529096
81	0x3ec95c30	0.39328146
82	0x3e1217e6	0.14266929
83	0x3f0f7af8	0.5604701
84	0x3b71777c	0.00368449
85	0xbe4676e9	-0.19381298
86	0xbe9fbffd	-0.31201163
87	0xbec00a25	-0.3750774
88	0x3f08a4b3	0.5337631
89	0xbe1388c7	-0.14407645
90	0xbd14d2c3	-0.03633381
91	0xbec4ef06	-0.3846361
92	0x3e6436e1	0.2228656
93	0x3cd7bf44	0.02633632
94	0x3eddd75a	0.43328363
95	0xbde71558	-0.11283368
96	0x3e908b71	0.28231385
97	0xbd104a07	-0.035226848
98	0x3deb3a1d	0.114856936
99	0x3e2e2086	0.17004594
100	0x3e5aa1f7	0.21350847
101	0xbd9f752d	-0.077860214
102	0x3e97bfb6	0.2963845
103	0xbe8d281c	-0.27569664
104	0x3eb8de24	0.3610698
105	0x3e9ac1be	0.3022594
106	0xbf16f3e2	-0.58965886
107	0x3e6c0374	0.23048192
108	0x3eb6ba0e	0.35688823
109	0xbebedaab	-0.37276205
110	0xbe47f62c	-0.19527501
111	0x3e3ccea5	0.18438204
112	0xbeee187c	-0.46503055
113	0x3e98023a	0.296892
114	0x3ecc1854	0.3986231
115	0x3e387b66	0.18015823
116	0x3edfebc0	0.4373455
117	0x3e25a259	0.16175212
118	0xbeb3ac47	-0.35092375
119	0xbee14ab6	-0.44002312
120	0x3d9d3076	0.07675259
121	0xbd930b35	-0.07179872
122	0xbecc8f9e	-0.3995332
123	0x3ec9436c	0.3930925
124	0x3db2ad3c	0.08724448
125	0x3ee8a959	0.45441702
126	0x3ede49ef	0.43415782
127	0xbed4ccf6	-0.41562623

encoder_variable_selection.flattened_grn.fc2.weight f4 [8, 8]
0	0x3c57b1f0	0.013164982
1	0xbefad93b	-0.4899386
2	0xbe62d9c1	-0.22153379
3	0xbe68d527	-0.22737561
4	0x3df4ecf2	0.11959256
5	0x3f06813d	0.5254095
6	0xbe9411ad	-0.28919736
7	0x3ed630b7	0.4183404
8	0xbda4bf78	-0.08044332
9	0x3ed5cf88	0.41759896
10	0x3f0569d9	0.52114636
11	0xbe424b33	-0.18973999
12	0x3d88b691	0.06675447
13	0x3dbf335c	0.09335968
14	0x3f71b084	0.94409966
15	0x3ef112f8	0.47084785
16	0xbe189252	-0.14899567
17	0x3e804d7c	0.25059116
18	0x3ea16f20	0.31530094
19	0x3d9cdc23	0.07659175
20	0x3ee00ae2	0.43758303
21	0xbf4aac2d	-0.7916897
22	0xbd820891	-0.0634929
23	0xbdd9414a	-0.10608156
24	0x3e6be867	0.23037873
25	0xbf09a38c	-0.5376518
26	0xbf0cabcc	-0.5494964
27	0xbc4ed915	-0.012624999
28	0xbe7a4bef	-0.24443029
29	0xbdd05a2d	-0.1017345
30	0x3e18b723	0.14913611
31	0x3e14ed01	0.14543535
32	0xbe801b81	-0.25020984
33	0x3ea790cc	0.3272766
34	0xbf629c0f	-0.88519377
35	0xbee1bf73	-0.44091377
36	0xbea6da88	-0.325886
37	0xbedc9222	-0.4308024
38	0x3efe6249	0.4968436
39	0x3ef8e13c	0.4860934
40	0xbf27539f	-0.6536197
41	0x3f10d20b	0.565705
42	0x3f639c3c	0.8891027
43	0x3d798560	0.060918212
44	0xbe1541b7	-0.1457585
45	0x3f0d194e	0.55116737
46	0xbda9aabc	-0.08284518
47	0x3e664f5f	0.22491215
48	0xbe975187	-0.29554388
49	0x3f1043a1	0.56353194
50	0xbf2946a8	-0.6612344
51	0xbe3a23a8	-0.18177664
52	0x3f88c5fc	1.068542
53	0xbf844589	-1.033372
54	0xbe250bdb	-0.16117804
55	0xbf3779ee	-0.71670425
56	0xbf350989	-0.70717674
57	0x3e38b7a6	0.18038806
58	0x3f6ac3eb	0.917052
59	0x3e582307	0.21107112
60	0x3e720be3	0.23637347
61	0xbe8a4e95	-0.27013078
62	0x3d9624b0	0.07331216
63	0xbe9dbdda	-0.30808908

encoder_variable_selection.flattened_grn.fc2.bias f4 [8]
0	0x3d3ad570	0.045613706
1	0x3e0305c8	0.12795174
2	0x3da4f23b	0.08054014
3	0x3b888714	0.004166493
4	0x3d0c294d	0.034219075
5	0x3e0f4d4d	0.13994332
6	0x3d2105a4	0.03931202
7	0xbdbf0c30	-0.093284965

encoder_variable_selection.flattened_grn.gate_norm.glu.fc.weight f4 [16, 8]
0	0xbe4e4ea5	-0.20147188
1	0xbe705041	-0.23468114
2	0x3f2dd568	0.6790376
3	0x3d542240	0.051790476
4	0x3e6fec2d	0.23429938
5	0x3f131b3c	0.5746343
6	0xbe2ffbdf	-0.17185925
7	0x3e32e0c8	0.1746856
8	0xbe8568fc	-0.2605666
9	0xbee65547	-0.44986936
10	0xbebb9987	-0.3664057
11	0x3e974d9c	0.295514
12	0x3e91cf1c	0.28478324
13	0xbe3c4057	-0.18383919
14	0x3e09e347	0.13465606
15	0xbeab9491	-0.33511785
16	0xbd906920	-0.07051301
17	0x3ef04d9c	0.4693421
18	0x3dced1fb	0.10098644
19	0xbe607ed9	-0.21923389
20	0x3ec0e48d	0.3767437
21	0xbdf0453f	-0.11731958
22	0xbeb66975	-0.35627332
23	0x3d63f919	0.05565748
24	0x3d35f65c	0.0444244
25	0xbdb2adc2	-0.08724548
26	0xbe47e856	-0.19522223
27	0xbef796eb	-0.4835733
28	0xbe8bc235	-0.27296606
29	0xbd5b37fe	-0.053520195
30	0x3eb76aa1	0.3582354
31	0x3ef5a578	0.47977805
32	0xbde2bad2	-0.110707894
33	0x3e8d84e6	0.27640456
34	0xbf02d5f0	-0.5110769
35	0x3e094253	0.13404207
36	0x3e5c0291	0.21485354
37	0x3e9dea3d	0.30842772
38	0x3e3d3ca7	0.18480168
39	0xbed787e2	-0.42095858
40	0x3df316c0	0.118695736
41	0xbe9dee6e	-0.3084597
42	0xbdd27853	-0.10276856
43	0x3f06d247	0.5266461
44	0x3e05e0e0	0.13074064
45	0x3e0ecf99	0.1394638
46	0xbe6df5b7	-0.23238264
47	0x3e01a4bd	0.12660499
48	0xbea6e8ab	-0.32599387
49	0x3e9b259f	0.3030214
50	0xbec7c369	-0.39016274
51	0xbd82e5d1	-0.0639149
52	0xbf2f5f89	-0.6850515
53	0x3d8d81d2	0.06909527
54	0x3ed30a8a	0.41218978
55	0x3e39a1bc	0.18128103
56	0xbe24e8cb	-0.16104428
57	0xbd191200	-0.03737068
58	0x3edd2cc1	0.43198207
59	0x3eb2fa66	0.34956664
60	0x3e66a644	0.22524363
61	0xbde17915	-0.11009423
62	0x3e538d08	0.20659268
63	0x3e58ae37	0.21160208
64	0x3e84f8a7	0.25970957
65	0x3d3f24ce	0.04666596
66	0xbebb95a9	-0.3663762
67	0x3edc14c2	0.42984587
68	0x3e7f44f4	0.24928647
69	0x3e337645	0.17525585
70	0xbed9ed3f	-0.42563817
71	0x3bb70430	0.005585216
72	0xb8b30480	-8.536223e-05
73	0xbeb68043	-0.3564473
74	0xbd96ff20	-0.0737288
75	0x3ec44386	0.38332766
76	0xbe20b9d2	-0.15695885
77	0xbe7da139	-0.24768533
78	0xbe626c60	-0.22111654
79	0xbe8990a0	-0.26868153
80	0x3e028df3	0.12749462
81	0xbf1b4ec7	-0.6066708
82	0x3ecdd2f8	0.4020002
83	0xbf2c410e	-0.67286766
84	0xbd61f2f6	-0.055163346
85	0x3e608910	0.21927285
86	0x3ea8409e	0.328618
87	0xbea30396	-0.31838673
88	0xbe9b90d6	-0.3038394
89	0x3ee315f4	0.44352686
90	0x3eeb1158	0.4591167
91	0xbe1879a2	-0.14890149
92	0x3d87c088	0.06628519
93	0xbe420a1a	-0.18949166
94	0x3ece187b	0.40253052
95	0x3ef792fc	0.48354328
96	0xbdd9d211	-0.1063577
97	0x3ece0a62	0.40242296
98	0xbe372dfa	-0.17888632
99	0xbed1a211	-0.4094396
100	0x3d86591a	0.065599635
101	0x3b1a96b8	0.002358837
102	0x3dc19043	0.09451344
103	0xbde5a7af	-0.11213624
104	0xbee072ad	-0.4383749
105	0xbe4b83d6	-0.1987451
106	0x3e33b5e0	0.17549849
107	0xbdf6d4eb	-0.1205233
108	0x3ed45b2c	0.4147581
109	0x3c6d7fe5	0.014495824
110	0x3e6beb29	0.23038925
111	0xbe086097	-0.13318096
112	0x3d9c0d73	0.07619753
113	0x3e1ee6ac	0.15517682
114	0xbdbd6201	-0.092472084
115	0xbee1a83b	-0.44073662
116	0xbe871553	-0.26383457
117	0xbeba31b8	-0.36366057
118	0xbe972d2f	-0.2952666
119	0x3ebba966	0.36652678
120	0xbe958c9a	-0.29208833
121	0xbe7b7f23	-0.24560218
122	0x3cf010da	0.02930491
123	0x3d9e3ea2	0.0772679
124	0xbdd9834f	-0.10620748
125	0x3e5d4f41	0.21612264
126	0x3d044b17	0.032298174
127	0x3ef7d45d	0.48404208

encoder_variable_selection.flattened_grn.gate_norm.glu.fc.bias f4 [16]
0	0xbda0181b	-0.07817098
1	0x3e395084	0.1809712
2	0xbd6038b9	-0.054741595
3	0xbe39f516	-0.18159899
4	0xbda42f05	-0.08016781
5	0xbddd667b	-0.10810562
6	0x3d9e2e41	0.07723666
7	0x3e252c13	0.16130094
8	0x3d8d7636	0.069073126
9	0xbc462a6e	-0.012095077
10	0xbe4bd502	-0.19905475
11	0xbde7b49a	-0.11313744
12	0xbe3984de	-0.18117091
13	0xbe1defa6	-0.1542345
14	0x3de426f8	0.11140245
15	0xbddc67ff	-0.10762023

encoder_variable_selection.flattened_grn.gate_norm.add_norm.norm.weight f4 [8]
0	0x3f4fc6d7	0.8116278
1	0x3f80ddd9	1.0067703
2	0x3f4b66f1	0.7945395
3	0x3f8ae790	1.0851917
4	0x3f8b12dd	1.0865132
5	0x3f5f2e83	0.87180346
6	0x3f6a6869	0.9156557
7	0x3f942fcf	1.157709

encoder_variable_selection.flattened_grn.gate_norm.add_norm.norm.bias f4 [8]
0	0xbd3a2c3f	-0.045452353
1	0x3e5290d6	0.20563063
2	0xbd8e0109	-0.06933791
3	0xbe40e8cc	-0.18838805
4	0x3c23a179	0.009987229
5	0xbddf7df8	-0.109126985
6	0x3d04e070	0.032440603
7	0x3e1e13d0	0.15437245

encoder_variable_selection.single_variable_grns.time_idx.resample_norm.mask f4 [16]
0	0xbe11c3e2	-0.1423488
1	0x3de406aa	0.111340836
2	0x3d19e8b5	0.037575442
3	0xbe25a52d	-0.16176291
4	0x3d031951	0.032006565
5	0xbd356858	-0.044288963
6	0x3e53359e	0.20625922
7	0xbdf285d6	-0.118419334
8	0xbe0b4d25	-0.13603647
9	0x3df5a46b	0.11994251
10	0x3e485671	0.19564225
11	0xbe48b38e	-0.19599745
12	0x3e40d77b	0.188322
13	0x3de32b41	0.110922344
14	0x3e79c6ab	0.24392192
15	0xbddb5d88	-0.10711199

encoder_variable_selection.single_variable_grns.time_idx.resample_norm.norm.weight f4 [16]
0	0x3f5f9a51	0.87344843
1	0x3f46027d	0.77347547
2	0x3f85cc8a	1.0453045
3	0x3f584d1e	0.8449267
4	0x3f85348c	1.0406661
5	0x3f80591e	1.0027196
6	0x3f9b7862	1.2146113
7	0x3f6c4431	0.9229155
8	0x3f56f73e	0.8397101
9	0x3f911ad0	1.1336308
10	0x3f993f91	1.1972524
11	0x3f425d40	0.7592354
12	0x3f4b95ed	0.79525644
13	0x3f887286	1.065995
14	0x3f56aab1	0.83854204
15	0x3f65b2eb	0.8972613

encoder_variable_selection.single_variable_grns.time_idx.resample_norm.norm.bias f4 [16]
0	0xbdca0dee	-0.09865938
1	0xbdbf161b	-0.09330388
2	0xbd7ea5e6	-0.06216993
3	0x3e1de427	0.15419064
4	0xbd87c713	-0.06629767
5	0xbc3ad35b	-0.01140293
6	0x3e595925	0.21225412
7	0xbd90c6c9	-0.07069165
8	0x3ddedfee	0.10882555
9	0xbdec9ab1	-0.115529425
10	0xbe45589d	-0.19272085
11	0x3e3bb0f7	0.18329225
12	0xbe38d385	-0.18049438
13	0x3d8422b1	0.06451929
14	0xbe76e229	-0.24109711
15	0x3deb738f	0.114966504

encoder_variable_selection.single_variable_grns.time_idx.fc1.weight f4 [8, 8]
0	0xbf232324	-0.63725495
1	0x3e1e0a59	0.15433635
2	0x3ef2a45f	0.4739103
3	0xbf12e38b	-0.57378453
4	0x3e650920	0.22366762
5	0xbebb96d3	-0.36638507
6	0xbee30e25	-0.4434673
7	0xbe8c7efb	-0.27440628
8	0x3ebed888	0.37274575
9	0x3f130a3b	0.57437485
10	0xbf294f47	-0.6613659
11	0xbda09ad4	-0.07842031
12	0x3e9988fb	0.2998732
13	0xbc7fa412	-0.015603082
14	0x3f4afa82	0.79288495
15	0x3eab8f18	0.3350761
16	0x3f8488d8	1.0354261
17	0xbeae7b61	-0.34078506
18	0x3e9ddad3	0.30831012
19	0xbc73b896	-0.014875552
20	0xbfb131ad	-1.3843285
21	0xbe77ee03	-0.24211888
22	0x3e9135b5	0.28361288
23	0x3d84d382	0.064856544
24	0xbe298aba	-0.16556826
25	0x3f3c3124	0.7351248
26	0xbecbe095	-0.3981978
27	0x3f84835f	1.0352591
28	0x3cbd4ffc	0.023109429
29	0xbf437a15	-0.7635816
30	0x3f2662e6	0.6499466
31	0xbd9090f0	-0.07058895
32	0xbf8d60c2	-1.1045153
33	0xbc56ad68	-0.013102867
34	0xbe8e9acd	-0.2785248
35	0x3e938e99	0.2881973
36	0x3f57009c	0.83985305
37	0xbee5831a	-0.44826585
38	0x3ea2b909	0.31781796
39	0x3e94fa5e	0.29097265
40	0xbf1e3ed1	-0.618146
41	0x3f058ca5	0.5216773
42	0xbea6e33e	-0.32595247
43	0xbf4b9810	-0.79528904
44	0xbda6889f	-0.08131527
45	0x3e3eef70	0.18646026
46	0xbe2b3015	-0.1671756
47	0xbf0dc076	-0.553718
48	0xbf686252	-0.90775025
49	0xbe67b4c1	-0.22627546
50	0x3e31312d	0.17303915
51	0x3ea0bc51	0.31393674
52	0xbed7404d	-0.42041245
53	0x3f5e3fa9	0.8681589
54	0xbf1964e6	-0.59919584
55	0xbe828e56	-0.2549922
56	0xbe0ec145	-0.13940914
57	0x3efca931	0.49347833
58	0x3eb34e9b	0.3502091
59	0x3e8d6363	0.2761489
60	0x3e20f12a	0.15716997
61	0xbebbb24c	-0.36659467
62	0x3f1ec0dc	0.6201303
63	0x3f071f85	0.5278247

encoder_variable_selection.single_variable_grns.time_idx.fc1.bias f4 [8]
0	0x3d8ad568	0.06778985
1	0x3d76e763	0.06027926
2	0x3d6b7197	0.057481375
3	0x3e9cf304	0.30654156
4	0xbdc015b0	-0.093791366
5	0xbde1c25c	-0.11023399
6	0xbce8aace	-0.028401759
7	0x3dbafdbe	0.09130429

encoder_variable_selection.single_variable_grns.time_idx.fc2.weight f4 [8, 8]
0	0xbf8bc517	-1.0919522
1	0x3f02f952	0.5116168
2	0x3e999774	0.29998362
3	0xbe69aa9d	-0.2281899
4	0xbd00e58a	-0.031468906
5	0xbf519144	-0.8186228
6	0xbe8f506e	-0.2799105
7	0x3e217a85	0.15769394
8	0x3f005276	0.50125825
9	0x3e8a4258	0.2700374
10	0x3f00adc5	0.5026515
11	0x3e25a6b6	0.16176876
12	0x3e61c9f7	0.220497
13	0x3ed8d4cb	0.42349848
14	0xbeb55fda	-0.3542469
15	0x3ec14a90	0.377522
16	0x3dce06e6	0.100599095
17	0xbf076af9	-0.528976
18	0x3f257e34	0.64645696
19	0x3e72bcc5	0.23704822
20	0xbe45ee17	-0.19329105
21	0xbf09df83	-0.53856677
22	0xbd5b94c5	-0.053608675
23	0x3d9f55db	0.077800475
24	0xbf06c1f4	-0.526397
25	0x3e4aa2f1	0.1978872
26	0x3e7487e8	0.23879969
27	0xbd8e06ab	-0.069348656
28	0xbf3aa97b	-0.72914857
29	0x3d171ac0	0.036890745
30	0xbd99310d	-0.07480059
31	0xbe9dab18	-0.30794597
32	0x3e4bc81a	0.19900551
33	0x3e5a4d80	0.21318626
34	0x3f26f266	0.6521362
35	0xbe10ba79	-0.14133634
36	0xbef8d4c1	-0.48599818
37	0xbde27a1f	-0.11058449
38	0x3f4d749a	0.80256045
39	0x3eae7a6c	0.34077775
40	0x3e1c53d6	0.15266356
41	0x3dd7bd77	0.105341844
42	0x3f163e1d	0.5868853
43	0x3ec07e2e	0.37596267
44	0x3cdd0fec	0.026985131
45	0x3e6bb95f	0.23019932
46	0xbe9355b7	-0.28776333
47	0x3f6d5b05	0.9271701
48	0xbc877164	-0.016533561
49	0x3e093210	0.13398004
50	0xbed79ec3	-0.42113313
51	0x3e9fe6bc	0.31230724
52	0x3f821689	1.0163127
53	0x3e0d8b1a	0.13822594
54	0x3e9fd943	0.31220445
55	0x3e8579f2	0.260696
56	0x3de69581	0.11258984
57	0xbd250651	-0.040289227
58	0x3e9e92e6	0.3097145
59	0x3f17a97d	0.59242994
60	0x3e65fee2	0.22460511
61	0xbf37ba29	-0.7176843
62	0xbc03c850	-0.008043364
63	0x3eecdbe2	0.46261507

encoder_variable_selection.single_variable_grns.time_idx.fc2.bias f4 [8]
0	0x3dda207b	0.106507264
1	0x3c2d98f2	0.010595547
2	0x3e7705c4	0.24123293
3	0xbcf625dc	-0.03004735
4	0x3d6f3482	0.058399685
5	0x3da45f08	0.08025938
6	0x3e2f3e11	0.1711352
7	0xbe2c3f45	-0.1682101

encoder_variable_selection.single_variable_grns.time_idx.gate_norm.glu.fc.weight f4 [32, 8]
0	0xbe1ebe5c	-0.15502304
1	0xbc72c41a	-0.014817262
2	0xbd73a679	-0.059484933
3	0xbec826d3	-0.3909212
4	0x3ddbb9e0	0.10728812
5	0xbe398841	-0.18118383
6	0xbdb791fd	-0.08963392
7	0xbe3a8d01	-0.18217851
8	0x3ed0a35c	0.40749633
9	0x3e8917a0	0.26775837
10	0x3d94736b	0.07248577
11	0xbee39d43	-0.4445592
12	0xbee26651	-0.44218686
13	0x3e0324a9	0.12806953
14	0x3f0e0384	0.55474114
15	0x3e0f7c2d	0.14012213
16	0x3d850e62	0.06496884
17	0x3e133d74	0.14378911
18	0xbd1322a3	-0.035921704
19	0x3e9372d7	0.28798553
20	0xbe74ea0e	-0.2391741
21	0x3e41550e	0.18880102
22	0x3e0e5cf7	0.13902651
23	0x3ca83474	0.020532824
24	0xbd657094	-0.056015566
25	0x3ec66cb5	0.38754812
26	0x3f03b099	0.5144134
27	0xbe44e81a	-0.19229165
28	0x3eb6d5b9	0.35709932
29	0xbb8fb6a5	-0.0043857866
30	0xbe9ec7cc	-0.31011808
31	0x3eec1214	0.46107543
32	0xbe1b9413	-0.15193205
33	0x3e03b239	0.12860955
34	0xbea05f1b	-0.3132256
35	0x3e57177e	0.21005055
36	0xbe90fb8f	-0.28316924
37	0xbe740abb	-0.23832218
38	0xbe9d741f	-0.30752656
39	0x3e18068e	0.1484625
40	0x3e008b12	0.12553051
41	0x3e6359f3	0.22202282
42	0x3e9776d6	0.29582852
43	0x3df39346	0.118933246
44	0xbe593558	-0.21211755
45	0xbe487921	-0.19577457
46	0xbee973aa	-0.45596057
47	0xbe7e276e	-0.24819729
48	0x3d924b26	0.0714324
49	0x3df6dce0	0.12053847
50	0x3e11d3b0	0.14240909
51	0x3e98eacc	0.29866636
52	0x3ec3cf8a	0.38244277
53	0x3d07939d	0.03309976
54	0xbca05cba	-0.019575465
55	0xbdc74391	-0.09729684
56	0xbeb824c0	-0.35965538
57	0x3d6693c7	0.056293275
58	0xbe104f70	-0.14092803
59	0x3f074767	0.52843326
60	0x3e3d389a	0.18478623
61	0x3c3e128d	0.011601103
62	0xbef0d715	-0.47039095
63	0xbd6d474a	-0.057929315
64	0x3e89b1e4	0.26893532
65	0xbd549e0a	-0.05190853
66	0x3e9ce6ae	0.30644745
67	0x3df36009	0.118835516
68	0xbd7400f5	-0.059571225
69	0xbe9de26d	-0.30836812
70	0x3dd76ee6	0.10519199
71	0x3ec123f4	0.37722743
72	0x3d557a0d	0.05211835
73	0x3daff0f5	0.08590881
74	0xbdbf86a6	-0.09351854
75	0xbefb82aa	-0.49123126
76	0x3c9e9e17	0.019362492
77	0x3e698fd2	0.2280877
78	0x3dce6b7f	0.10079097
79	0x3cb6be3b	0.022307506
80	0x3e95e106	0.29273242
81	0xbef96c21	-0.48715308
82	0xbe91ce66	-0.28477782
83	0x3ed3c10a	0.41358215
84	0xbdbe0414	-0.092781216
85	0xbe9bbf28	-0.30419278
86	0x3ef35c1c	0.4753121
87	0xbecf399b	-0.40473637
88	0xbd4f9233	-0.050676536
89	0x3ed203e1	0.41018584
90	0xbd940aad	-0.07228599
91	0xbe2e0d0c	-0.16997164
92	0x3dcee655	0.10102526
93	0xbddb1191	-0.1069671
94	0xb9f128ac	-0.00045997405
95	0x3ef10b5e	0.47078985
96	0xbdd2b71a	-0.1028883
97	0x3e3145dd	0.17311807
98	0x3d8b32db	0.06796809
99	0xbefe6ee4	-0.49693978
100	0x3deef89f	0.116685145
101	0xbe589556	-0.21150717
102	0x3da01eff	0.07818412
103	0xbe8c6c91	-0.2742658
104	0xbedd0976	-0.4317128
105	0x3ec6e7e2	0.38848788
106	0xbec41ee4	-0.38304818
107	0xbea37d8e	-0.31931728
108	0x3e368eab	0.17827861
109	0xbec892de	-0.3917455
110	0xbe898e56	-0.26866406
111	0xbe60a83a	-0.21939173
112	0xbe3da0d1	-0.18518378
113	0xbed556be	-0.41667742
114	0xbf1add1a	-0.60493624
115	0xbea950a6	-0.33069342
116	0xbeb8572e	-0.36004013
117	0x3e0b2d15	0.13591416
118	0xbdf5c174	-0.11999789
119	0xbd8a6756	-0.06757991
120	0xbdd6d4c6	-0.10489802
121	0x3e7872ab	0.24262492
122	0x3d8fcbb4	0.07021275
123	0xbe9f22ab	-0.31081137
124	0x3e92ace2	0.28647524
125	0x3e47c5d2	0.19509056
126	0xbeb4c07c	-0.35303104
127	0xbdddd88b	-0.10832318
128	0x3ecf15b2	0.4044624
129	0x3e29098e	0.16507551
130	0x3d9c2478	0.07624143
131	0xbc2a699a	-0.010401154
132	0x3dcdddba	0.100520566
133	0x3ed1d44d	0.40982285
134	0x3dd9f082	0.10641576
135	0xbeca61ef	-0.39527842
136	0xbe33a10e	-0.17541906
137	0x3dab759b	0.08372041
138	0xbc57d2b1	-0.013172791
139	0xbe004d88	-0.12529576
140	0xbd5784b8	-0.052616805
141	0xbe725510	-0.23665261
142	0x3ed2f0c1	0.41199306
143	0xbcec5cf3	-0.028852915
144	0x3d2c700c	0.042099044
145	0x3e861458	0.26187396
146	0xbe89f0c9	-0.26941517
147	0x3ec2feeb	0.38085112
148	0x3d4425e0	0.047887683
149	0x3d91f6f2	0.07127179
150	0xbe5f412b	-0.21802203
151	0xbec18a3a	-0.3780077
152	0x3e7e1760	0.24813604
153	0x3acc0e02	0.001556814
154	0xbda127ef	-0.07868945
155	0xbd4eca54	-0.050485924
156	0x3e8d0207	0.2754061
157	0xbeb050dc	-0.3443669
158	0xbeaf06c6	-0.34184855
159	0xbdc19741	-0.094526775
160	0x3d6dc709	0.058051143
161	0x3d8fe7ad	0.070266105
162	0xbef5c606	-0.48002642
163	0xbf12a1d4	-0.5727818
164	0xbf0e1867	-0.55505985
165	0x3e2b35dc	0.16719764
166	0x3dc74abe	0.09731053
167	0xbd135c9a	-0.035976984
168	0xbdc9c056	-0.09851138
169	0xbdf2dca2	-0.118584886
170	0x3e88bb11	0.2670522
171	0xbec04aa6	-0.37556952
172	0x3e1e180a	0.15438858
173	0xbe119e0d	-0.14220448
174	0xbc41f845	-0.011838977
175	0x3e0bd364	0.13654858
176	0x3d95038f	0.072760694
177	0x3d8e142f	0.069374435
178	0x3e2e68da	0.17032185
179	0x3eaaab03	0.33333597
180	0x3e5aa54d	0.2135212
181	0x3ef7a39c	0.48367012
182	0x3e24f2ef	0.16108297
183	0xbe3aee0e	-0.18254873
184	0x3db75455	0.08951632
185	0x3db6e422	0.08930232
186	0xbd9b30f1	-0.07577694
187	0xbdc900f1	-0.09814633
188	0xbdbb398d	-0.09141836
189	0x3ea49eec	0.32152498
190	0x3e7ee6c0	0.24892712
191	0x3ebbaf50	0.3665719
192	0xbd017463	-0.031605136
193	0x3cd56b09	0.026052015
194	0x3dbe635d	0.09296296
195	0x3cf41bf8	0.029798493
196	0xbe59d5cd	-0.21272965
197	0xbe26c66a	-0.16286626
198	0x3ecf3f80	0.40478134
199	0xbde3d5da	-0.11124773
200	0xbe1b30eb	-0.1515538
201	0xbdbf49e7	-0.09340268
202	0xbf123f66	-0.5712799
203	0x3e860d60	0.2618208
204	0xbef478ee	-0.47748512
205	0x3d2f2fac	0.042770073
206	0x3e96b783	0.29436883
207	0xbf0356c2	-0.51304257
208	0x3de7f40e	0.113258466
209	0xbe2f2528	-0.17104018
210	0x3eab543e	0.3346271
211	0x3e61c0f2	0.22046259
212	0xbe2a870f	-0.16653083
213	0x3ebf67a5	0.37383762
214	0xbdaa58b9	-0.08317704
215	0x3db6b5bd	0.089213826
216	0xbe72104b	-0.23639028
217	0xbd99614e	-0.074892625
218	0xbe943177	-0.2894399
219	0xbd8aff06	-0.06786923
220	0x3ed7c82c	0.42144907
221	0xbc6eb54d	-0.014569593
222	0xbbad3b5d	-0.0052866177
223	0xbe0850ce	-0.13312075
224	0x3e87885d	0.26471224
225	0xbe8e7f54	-0.2783152
226	0xbe7ffbb0	-0.24998355
227	0x3ea8d282	0.32973105
228	0xbebcfbd5	-0.36910883
229	0xbeb1dbba	-0.3473795
230	0xbd02c419	-0.031925295
231	0xbe1fc712	-0.15603283
232	0xbee54790	-0.4478116
233	0x3e77fd33	0.24217682
234	0xbe3f0a21	-0.18656208
235	0xbefd1dbe	-0.49436754
236	0x3ea12df9	0.31480387
237	0xbe890970	-0.26765013
238	0x3d836ee8	0.06417638
239	0xbc3616d0	-0.011113837
240	0xbd28eafb	-0.04123972
241	0x3d54c9a4	0.051950112
242	0x3db6cbea	0.08925612
243	0x3ed61cf6	0.4181897
244	0x3dd7e528	0.10541755
245	0xbdd65439	-0.10465283
246	0xbeb79e9a	-0.3586319
247	0x3edd8a9a	0.43269807
248	0xbf243017	-0.6413588
249	0xbd8ac1bc	-0.06775233
250	0xbe31ea1b	-0.1737446
251	0xbdce2120	-0.10064912
252	0x3d80b446	0.062843844
253	0x3e414d3d	0.1887712
254	0x3dd1f008	0.102508605
255	0xbe669bac	-0.22520322

encoder_variable_selection.single_variable_grns.time_idx.gate_norm.glu.fc.bias f4 [32]
0	0xbde56c97	-0.112023525
1	0xbda09bdd	-0.078422286
2	0xbd0e8149	-0.034791265
3	0x3e1d4c51	0.15361144
4	0xbe104fa0	-0.14092875
5	0x3c573783	0.013135794
6	0x3e5863d6	0.21131834
7	0xbdd21811	-0.102584966
8	0x3dd90554	0.105967194
9	0xbde535f5	-0.11191932
10	0xbe54753f	-0.20747851
11	0x3e2107d5	0.15725644
12	0xbe42dae4	-0.19028813
13	0x3d45c84c	0.04828672
14	0xbe79f6ac	-0.24410504
15	0x3de4b339	0.111669965
16	0xbe0bdec4	-0.13659197
17	0x3e3dabd5	0.1852258
18	0xbe100ace	-0.14066622
19	0x3e2e28ee	0.17007801
20	0xbe3a9207	-0.18219768
21	0x3cf037b4	0.029323436
22	0xbd989c47	-0.074516825
23	0x3e0507cb	0.12991254
24	0xbe4ddf8e	-0.2010481
25	0xbe2bdac4	-0.16782671
26	0x3e4b712e	0.19867393
27	0x3e163af3	0.14670925
28	0xbe5b73df	-0.2143092
29	0xbc1f7c6f	-0.009734257
30	0x3de914c9	0.113809176
31	0x3c65d9be	0.014028965

encoder_variable_selection.single_variable_grns.time_idx.gate_norm.add_norm.norm.weight f4 [16]
0	0x3f510f71	0.81664187
1	0x3f93c75b	1.1545213
2	0x3f7f6d9e	0.9977664
3	0x3f60fb08	0.87883043
4	0x3f80d0b9	1.0063697
5	0x3f4c746e	0.7986516
6	0x3f9be246	1.2178428
7	0x3f71be4c	0.94430995
8	0x3f4522b7	0.77006096
9	0x3f8b2828	1.087163
10	0x3f967b19	1.1756316
11	0x3f2fd0bf	0.68677896
12	0x3f447fb1	0.7675734
13	0x3f7c33a9	0.9851633
14	0x3f8b478d	1.088121
15	0x3f52ac30	0.8229399

encoder_variable_selection.single_variable_grns.time_idx.gate_norm.add_norm.norm.bias f4 [16]
0	0xbde614c3	-0.11234429
1	0xbdc9fe33	-0.09862938
2	0xbcee76d6	-0.0291094
3	0x3e2e88b1	0.17044331
4	0xbd111928	-0.03542438
5	0x3c51191e	0.012762336
6	0x3e522fde	0.20526072
7	0xbd285626	-0.041097783
8	0x3de5f5e4	0.112285405
9	0xbda8b2cd	-0.082372285
10	0xbe30cd91	-0.17265917
11	0x3e4bf0b6	0.19916043
12	0xbe32f169	-0.17474903
13	0x3cf5f8a7	0.030025793
14	0xbe9aa764	-0.30205834
15	0x3dbca530	0.092111945

encoder_variable_selection.single_variable_grns.T2M.resample_norm.mask f4 [16]
0	0x3e36cec6	0.17852315
1	0xbb57f64a	-0.0032953196
2	0x3e0c8806	0.13723764
3	0xbe2aafdf	-0.16668652
4	0x3d756b44	0.05991675
5	0x3da1b42a	0.07895692
6	0xbe3293c2	-0.17439178
7	0x3e6be3c2	0.23036101
8	0xbe0b362c	-0.13594884
9	0xbc538c18	-0.012911819
10	0xbe17f0aa	-0.148379
11	0x3e780eea	0.2422444
12	0x3e196114	0.14978439
13	0x3c85ea52	0.016347084
14	0xbe5622ab	-0.20911662
15	0xbdbc3069	-0.09188921

encoder_variable_selection.single_variable_grns.T2M.resample_norm.norm.weight f4 [16]
0	0x3f997e20	1.1991615
1	0x3f806d7a	1.003341
2	0x3f92ea2c	1.1477714
3	0x3f526197	0.8218016
4	0x3f8340a0	1.0254097
5	0x3f9834ba	1.1891091
6	0x3f596349	0.8491712
7	0x3f9d6925	1.2297713
8	0x3f5d2733	0.8638794
9	0x3f84b7ae	1.0368555
10	0x3f57ecf2	0.84345925
11	0x3fa1dc9c	1.264545
12	0x3f480e77	0.7814707
13	0x3f8a8e20	1.0824623
14	0x3f4ec6b5	0.8077195
15	0x3f85292c	1.040319

encoder_variable_selection.single_variable_grns.T2M.resample_norm.norm.bias f4 [16]
0	0x3c7b37c4	0.01533312
1	0x3b239899	0.0024962781
2	0xbdb62ae3	-0.08894899
3	0x3de04387	0.1095038
4	0xbd2bf269	-0.041979227
5	0x3bc8f51d	0.0061327354
6	0x3e309133	0.17242889
7	0xbd3321b9	-0.043733332
8	0x3e151d14	0.14561874
9	0x39bf14b0	0.00036445772
10	0xbe345b61	-0.17612983
11	0x3e8a09f3	0.26960716
12	0xbe5de598	-0.21669614
13	0x3deef462	0.11667706
14	0xbe40790a	-0.18796173
15	0x3dec18cb	0.115281664

encoder_variable_selection.single_variable_grns.T2M.fc1.weight f4 [8, 8]
0	0xbda17a7b	-0.078846894
1	0xbdbdbaba	-0.09264131
2	0x3ef2138c	0.47280538
3	0x3e8ca009	0.27465847
4	0xbf5195fc	-0.81869483
5	0x3f091612	0.535493
6	0xbf85303e	-1.0405347
7	0xbe5f5778	-0.2181071
8	0xbf14adb5	-0.58077556
9	0xbdf33a19	-0.118763156
10	0x3ed138bb	0.40863594
11	0x3e2a5eb8	0.16637695
12	0xbeab8d26	-0.33506125
13	0x3ca1d14e	0.019753125
14	0xbf5540b3	-0.8330185
15	0xbe12b8ca	-0.14328304
16	0x3f5b5493	0.85675925
17	0x3fd9e73e	1.7023695
18	0x3f1089c7	0.5646023
19	0xbedbbf32	-0.42919308
20	0x3f080f85	0.5314868
21	0x3dda83b4	0.10669652
22	0x3e25d30f	0.16193794
23	0xbf0c9cb1	-0.5492659
24	0x3bb4a15e	0.0055124005
25	0xbf238050	-0.63867664
26	0xbed3fdc4	-0.41404545
27	0xbe5f0975	-0.21780951
28	0xbd67c2e2	-0.05658234
29	0xbf299f83	-0.6625902
30	0x3ef961cd	0.4870743
31	0x3c83ad86	0.016073953
32	0x3e96cd59	0.29453543
33	0x3daad965	0.08342246
34	0xbeb96d78	-0.3621633
35	0xbe6eb3bb	-0.23310749
36	0xbeff91cc	-0.49915922
37	0xbf162b37	-0.5865969
38	0x3e872e90	0.26402712
39	0x3f78378c	0.9695976
40	0x3ee7f4d9	0.4530399
41	0xbf25276b	-0.6451327
42	0x3e4cd42b	0.2000281
43	0x3e58a035	0.21154864
44	0x3cfb1673	0.030650353
45	0x3ea652f8	0.32485175
46	0x3f636315	0.8882306
47	0xbf571eba	-0.8403126
48	0x3e998be8	0.29989552
49	0x3f24d97b	0.6439435
50	0x3e3494bf	0.17634867
51	0x3f0affa1	0.5429631
52	0xbf324f3c	-0.6965215
53	0xbe9d3b82	-0.30709463
54	0xbd3650b6	-0.044510566
55	0xbf25a421	-0.64703566
56	0x3e0ababf	0.135478
57	0x3ed45ba7	0.41476175
58	0x3e4575a0	0.19283152
59	0x3f0fb7b5	0.5613969
60	0x3ec1eeab	0.37877402
61	0xbf0b8978	-0.54506636
62	0x3f32a5d0	0.6978426
63	0xbeae4d72	-0.3404346

encoder_variable_selection.single_variable_grns.T2M.fc1.bias f4 [8]
0	0xbd231c60	-0.039821982
1	0xbe1fb1d8	-0.15595186
2	0xbd621767	-0.0551981
3	0x3dfab021	0.12240625
4	0x3c011d5b	0.007880534
5	0x3e128ac4	0.14310747
6	0x3cea8c55	0.028631369
7	0xbe3b0460	-0.18263388

encoder_variable_selection.single_variable_grns.T2M.fc2.weight f4 [8, 8]
0	0x3f22bfb7	0.63573784
1	0xbb46d10a	-0.0030337
2	0x3e27c0d2	0.16382149
3	0x3c5556aa	0.013021151
4	0xbe21b8a2	-0.15793088
5	0x3e9a3eca	0.3012603
6	0xbf4044d3	-0.7510502
7	0x3f004476	0.50104463
8	0x3ccc971d	0.0249744
9	0x3dacb7ed	0.084335186
10	0xbead06e6	-0.33794326
11	0xbf50b01a	-0.8151871
12	0xbf53af33	-0.8268921
13	0xbeef9079	-0.4678991
14	0x3ed50b29	0.41610077
15	0x3e92dd15	0.28684297
16	0x3d1daf63	0.03849734
17	0x3ed3ec91	0.41391423
18	0xbe904054	-0.28174078
19	0x3eb05cf3	0.34445915
20	0x3e33ae70	0.17547011
21	0x3e3eb2d4	0.18622905
22	0xbee72176	-0.45142716
23	0xbecff476	-0.40616196
24	0x3f3ef5e2	0.7459394
25	0x3d493f15	0.049132425
26	0x3ed73e28	0.4203961
27	0x3e752f60	0.23943853
28	0x3f9a2c0b	1.2044691
29	0x3ea2dbe9	0.31808403
30	0xbf3104ae	-0.69147766
31	0x3f07d6c6	0.53062093
32	0x3e4e83e5	0.20167501
33	0xbdc69237	-0.09695857
34	0xbf62623c	-0.88431144
35	0xbcbbe49c	-0.022936158
36	0x3f2ee0ea	0.6831194
37	0x3eab7b81	0.33492664
38	0xbf6093dd	-0.8772562
39	0xbf2d62b6	-0.67728746
40	0xbd0175bb	-0.031606417
41	0x3e4cc8a9	0.19998421
42	0x3f3ef847	0.7459759
43	0xbed405c9	-0.41410664
44	0x3e02b2fe	0.12763593
45	0xc009e2cd	-2.1544678
46	0x3f1674f7	0.58772224
47	0x3d4d2b2f	0.05009001
48	0x3f1b62eb	0.6069781
49	0x3e47da76	0.1951693
50	0x3e68ae17	0.2272266
51	0xbeaa3939	-0.33246782
52	0xbf32342e	-0.6961087
53	0x3f8b4d85	1.0883032
54	0xbe36b984	-0.17844206
55	0xbda65289	-0.08121211
56	0xbf74f414	-0.95684934
57	0x3e328346	0.1743289
58	0xbeb2a57e	-0.34891886
59	0xbdf2a7c4	-0.11848405
60	0xbec5847e	-0.38577646
61	0xbe8e3e9d	-0.27782145
62	0x3e759293	0.23981695
63	0x3ebaf065	0.3651153

encoder_variable_selection.single_variable_grns.T2M.fc2.bias f4 [8]
0	0xbe4df13e	-0.20111558
1	0xbda74fb5	-0.081695
2	0xbc3c4692	-0.011491435
3	0xbe3b595b	-0.18295805
4	0x3b9875b7	0.0046527046
5	0xbddf1632	-0.10892905
6	0x3e5a2ac3	0.21305375
7	0xbce4879f	-0.0278967

encoder_variable_selection.single_variable_grns.T2M.gate_norm.glu.fc.weight f4 [32, 8]
0	0x3c9684e2	0.01837391
1	0x3d952151	0.07281745
2	0x3f0169fb	0.5055234
3	0xbe8f8103	-0.28028116
4	0x3e78a02c	0.2427985
5	0xbde25e07	-0.110530905
6	0xbdb89bb7	-0.09014075
7	0x3f0ae0cd	0.5424927
8	0xbea77477	-0.32706043
9	0xbe4981c6	-0.19678411
10	0x3daebdc9	0.085322924
11	0x3d929858	0.071579635
12	0x3d7a1fcb	0.061065476
13	0x3cd75355	0.026284853
14	0xbf05c2da	-0.52250445
15	0x3edc4fa8	0.43029523
16	0xba702110	-0.00091602
17	0x3e427f63	0.18993907
18	0x3cc7ebde	0.024404462
19	0x3edd047a	0.43167478
20	0xbc29d4e6	-0.0103657
21	0x3ec8794f	0.3915505
22	0x3daaece0	0.083459616
23	0xbd02dabe	-0.03194689
24	0xbe86252e	-0.2620024
25	0x3e052dcb	0.1300575
26	0xbe57e14b	-0.21082036
27	0xbec4d8fe	-0.38446802
28	0x3ef9fd8a	0.48826247
29	0xbe881cd2	-0.26584488
30	0xbc58e9d0	-0.013239339
31	0xbeb02fc2	-0.34411436
32	0xbe7de8c7	-0.24795829
33	0x3e6ec5ba	0.23317614
34	0xba5bdda4	-0.0008387214
35	0xbe57a0a6	-0.21057376
36	0xbe16f0fc	-0.14740366
37	0x3be312ca	0.00692973
38	0xbe4bea70	-0.1991365
39	0xbd714586	-0.058904193
40	0x3e1676ed	0.14693804
41	0xbe71dfed	-0.23620577
42	0x3e595c4d	0.21226616
43	0xbe1e74a0	-0.15474176
44	0xbe12eed3	-0.14348917
45	0xbe93c13a	-0.28858358
46	0x3da8eb99	0.08248062
47	0xbed42989	-0.4143794
48	0xbebe4464	-0.37161553
49	0xbea98ca3	-0.3311511
50	0xbd8cc12c	-0.06872782
51	0xbdbb0bdc	-0.09133121
52	0x3dfb636d	0.12274823
53	0xbf0d375b	-0.5516259
54	0xbeb4bf15	-0.35302034
55	0xbec0034e	-0.3750252
56	0xbe1a59a5	-0.15073259
57	0x3f003807	0.5008549
58	0x3d464a10	0.048410475
59	0xbd58307a	-0.052780606
60	0x3d81cfe0	0.06338477
61	0x3e9f12e9	0.31069115
62	0x3e6f840b	0.23390214
63	0xbd939af3	-0.072072886
64	0xbd728175	-0.05920549
65	0x3ea65f58	0.32494617
66	0x3e3226c5	0.17397602
67	0x3d8ec213	0.069706105
68	0x3e0da644	0.13832957
69	0xbe54eb88	-0.20792973
70	0x3e93f4cd	0.28897706
71	0xbe7b93a1	-0.24568035
72	0xbe54a4e9	-0.20766033
73	0xbebaec8d	-0.365086
74	0x3ecf5997	0.4049804
75	0xbc1e9882	-0.009679915
76	0x3c6c400e	0.014419569
77	0xbec2bf2b	-0.38036475
78	0x3e39b43b	0.18135159
79	0x3e12dafe	0.14341351
80	0xbdd28abf	-0.1028037
81	0xbdb32fbc	-0.08749339
82	0xbeffe506	-0.4997942
83	0xbde27b1a	-0.11058636
84	0xbe3765e8	-0.17909968
85	0x3d29c4dc	0.041447505
86	0xbeb30598	-0.34965205
87	0xbdc887ab	-0.097915016
88	0xbede08b4	-0.43366015
89	0xbe99fa46	-0.30073756
90	0x3e646eee	0.22307941
91	0xbedb111c	-0.4278649
92	0x3e582105	0.21106346
93	0xbe20c32e	-0.15699455
94	0x3e86ee1f	0.26353547
95	0xbbd16c9d	-0.0063911215
96	0xbd6bf92a	-0.05761067
97	0xbdf464dc	-0.119333
98	0xbefcca57	-0.49373123
99	0xbee080c2	-0.43848234
100	0xbcfa626d	-0.030564511
101	0x3e6bd261	0.23029472
102	0xbf0c11ae	-0.5471448
103	0xbd4ea44e	-0.050449662
104	0x3e839ce9	0.2570565
105	0xbdc33969	-0.095324345
106	0x3d979c0c	0.074028105
107	0xbec6e6fe	-0.38848108
108	0x3c4f2990	0.012644187
109	0x3d0fe1cb	0.035127442
110	0xbe3e7667	-0.18599854
111	0xbe9df4d0	-0.3085084
112	0xbd313bc3	-0.043269884
113	0x3e2c62b5	0.16834529
114	0xbf029a3d	-0.510166
115	0x3ed6ba85	0.41939178
116	0xbe20192b	-0.15634601
117	0x3df05ad9	0.11736078
118	0xbd87a964	-0.066241056
119	0x3e07a616	0.1324695
120	0x3da0c9e3	0.07851007
121	0x3d67d25a	0.05659709
122	0x3e8a34eb	0.26993498
123	0xbe64340c	-0.2228548
124	0x3e9b5c04	0.3034364
125	0xbf000b0b	-0.5001685
126	0x3de2a2b6	0.11066191
127	0xbe91e019	-0.28491285
128	0x3e8f99f8	0.28047156
129	0xbec47d10	-0.38376665
130	0x3dd48322	0.10376574
131	0xbe15a26e	-0.14612743
132	0x3e8b4bd5	0.27206293
133	0x3e53c690	0.20681214
134	0xbd10c0d7	-0.035340156
135	0xbc9b127c	-0.018929712
136	0x3e73a127	0.23791943
137	0x3da14211	0.07873929
138	0xbbda7c1a	-0.006667626
139	0x3e91424f	0.28370902
140	0x3f06ce45	0.5265849
141	0x3ef65fa7	0.48119852
142	0x3d48091b	0.04883681
143	0x3e0c9d0d	0.13731785
144	0xbe90d994	-0.28291
145	0xbe57f0a3	-0.2108789
146	0x3eb4a985	0.35285583
147	0x3dc3aac4	0.09554055
148	0xbe81f120	-0.25379276
149	0x3eaee6da	0.341605
150	0xbf0b1c4f	-0.5434007
151	0xbe4ac67d	-0.1980228
152	0xbe03ba0b	-0.12863939
153	0x3e0c8570	0.13722777
154	0x3e1eb525	0.15498789
155	0xbe9b125d	-0.30287448
156	0x3d9c190f	0.07621967
157	0xbedbf69d	-0.42961589
158	0xbe8a7619	-0.27043226
159	0x3f1344ca	0.5752684
160	0x3e9c9bc2	0.30587584
161	0xbea53dc8	-0.32273698
162	0xbd5abad4	-0.05340083
163	0xbe1c07fb	-0.1523742
164	0xbe221713	-0.15829115
165	0x3d03bed3	0.032164406
166	0x3c425557	0.011861167
167	0xbe8d727e	-0.27626413
168	0x3d6a9878	0.05727431
169	0x3e149a04	0.14511877
170	0x3e595ac5	0.21226032
171	0xbea32193	-0.31861553
172	0xbe0bc545	-0.13649471
173	0xbe9c3894	-0.30511916
174	0xbeea0e06	-0.45713824
175	0x3ec871b7	0.39149258
176	0xbcf524d1	-0.029924782
177	0x3ddb7bee	0.10716997
178	0x3e3f834e	0.18702433
179	0xbde55111	-0.11197103
180	0xbc907e52	-0.01763836
181	0xbf12f9aa	-0.5741221
182	0xbdc8b24f	-0.09799635
183	0xbda57dbc	-0.080806226
184	0xbea4ee78	-0.32213187
185	0xbed015dc	-0.40641677
186	0xbe338fa2	-0.1753526
187	0x3e9c958d	0.30582848
188	0x3d436c61	0.04771078
189	0x3e9f3889	0.3109782
190	0x3e19a8db	0.1500582
191	0xba1f719c	-0.0006082298
192	0xbe7065b0	-0.2347629
193	0xbcd3bef7	-0.025847895
194	0x3e0c0f23	0.13677649
195	0xbe46ccd5	-0.19414075
196	0x3e237865	0.15963896
197	0xbe8edc03	-0.2790223
198	0xbec46223	-0.38356122
199	0x3c27c72a	0.0102403555
200	0x3e934922	0.28766733
201	0xbebb5d0e	-0.36594433
202	0x3e95e3f8	0.2927549
203	0xbdfec1d2	-0.12439312
204	0x3cae902c	0.02130898
205	0x3dfb5f8a	0.12274082
206	0x3d806868	0.06269914
207	0xbdd4ca33	-0.10390129
208	0xbe9ce4f6	-0.30643433
209	0xbe21b023	-0.15789847
210	0x3e659969	0.22421803
211	0x3c864ed7	0.016395016
212	0xbc5eaa8b	-0.013590465
213	0xbc719344	-0.0147445835
214	0x3ef6f340	0.4823246
215	0xbe2457f2	-0.16049173
216	0x3e97cd46	0.296488
217	0x3d372bdc	0.044719562
218	0xbe0f9362	-0.14021066
219	0xbda36d60	-0.07979846
220	0x3ea7e189	0.32789257
221	0x3dc828d8	0.09773415
222	0xbe2705cd	-0.16310807
223	0x3dcec1c3	0.10095551
224	0xbe04c360	-0.12965155
225	0x3e743e9c	0.23852009
226	0x3eba0ef2	0.36339527
227	0xbd82bafb	-0.0638332
228	0x3ea0e924	0.31427872
229	0xbe058e8e	-0.13042662
230	0xbe3d503a	-0.18487635
231	0xbe01d889	-0.12680258
232	0x3e0bb6d9	0.1364397
233	0xbea774c6	-0.3270628
234	0xbdbe455b	-0.09290572
235	0xbc3373a6	-0.010952866
236	0xbef88fb9	-0.48547152
237	0xbdb814f9	-0.08988375
238	0x3e1d861f	0.15383194
239	0x3d9c55b6	0.076335356
240	0xbeb1866f	-0.34672877
241	0xbdbcc58f	-0.09217369
242	0x3ef85c33	0.48507842
243	0x3d7ea5cb	0.06216983
244	0x3f071f50	0.52782154
245	0xbeffad3e	-0.4993686
246	0xbe0779b2	-0.13230017
247	0xbe800d47	-0.2501013
248	0xbe312b02	-0.17301562
249	0x3dd8afbc	0.10580394
250	0xbc57af3d	-0.013164339
251	0xbe6aa4b2	-0.22914389
252	0xbe48685d	-0.19571061
253	0x3c8a9e09	0.01692106
254	0xbe48c68d	-0.19606991
255	0xbe4f6e1a	-0.20256844

encoder_variable_selection.single_variable_grns.T2M.gate_norm.glu.fc.bias f4 [32]
0	0xbdfb65bb	-0.12275263
1	0xbc5219c2	-0.012823524
2	0xbdc269b6	-0.09492819
3	0x3e0c9c6b	0.13731544
4	0xbc995d57	-0.018721266
5	0xbd0263db	-0.03183351
6	0x3e2d8c87	0.16948138
7	0xbc17b714	-0.009259958
8	0x3e074802	0.13211063
9	0x3c93424f	0.017975954
10	0xbe36044b	-0.17775075
11	0x3e894b17	0.26815102
12	0xbe5a89dd	-0.21341653
13	0x3de08ab0	0.109639525
14	0xbe4ea65a	-0.20180646
15	0x3dcf33af	0.1011728
16	0x3e94f287	0.29091284
17	0x3e4c5bfa	0.19956961
18	0x3dd94e38	0.10610622
19	0x3d931126	0.07181005
20	0x3c93c2f2	0.018037293
21	0xbdf6abf9	-0.1204452
22	0x3e2e36c6	0.17013082
23	0xbe33c905	-0.17557152
24	0xbe0c9a17	-0.13730656
25	0x3d6fd837	0.058555808
26	0xbe3436b0	-0.17598987
27	0x3c56dee3	0.013114664
28	0x3e39fbff	0.18162535
29	0xbde3b028	-0.111175835
30	0x3e73aecd	0.2379715
31	0x3cbcfa84	0.023068674

encoder_variable_selection.single_variable_grns.T2M.gate_norm.add_norm.norm.weight f4 [16]
0	0x3f98dbe6	1.1942108
1	0x3f92281e	1.1418493
2	0x3f92d4e5	1.147122
3	0x3f4e12f8	0.80497694
4	0x3f8006b2	1.0002043
5	0x3f98e413	1.1944603
6	0x3f64c69d	0.8936556
7	0x3f9d06a7	1.2267655
8	0x3f6232f7	0.88359016
9	0x3f8fdfa2	1.1240122
10	0x3f54509e	0.8293551
11	0x3f9ef42e	1.2418268
12	0x3f5b542d	0.8567532
13	0x3f8c5ff9	1.0966789
14	0x3f5306ec	0.82432437
15	0x3f869269	1.0513431

encoder_variable_selection.single_variable_grns.T2M.gate_norm.add_norm.norm.bias f4 [16]
0	0xbe03c21a	-0.12867013
1	0xbdfd937f	-0.12381648
2	0xbd765c89	-0.060146842
3	0x3dec6e2f	0.11544453
4	0xbd131e28	-0.03591743
5	0x3ccd0d66	0.025030803
6	0x3e4ca48d	0.19984646
7	0xbcad8173	-0.02117989
8	0x3e07d14e	0.13263437
9	0xbdb8c05e	-0.09021066
10	0xbe36e110	-0.17859292
11	0x3e3655f0	0.1780622
12	0xbe55af46	-0.20867643
13	0x3da737f1	0.08164967
14	0xbe34d992	-0.17661121
15	0x3dfee00b	0.124450766

encoder_variable_selection.single_variable_grns.T2M_MAX.resample_norm.mask f4 [16]
0	0xbe1f80c8	-0.1557647
1	0xbd4c5ba2	-0.049892075
2	0x3df5a2c5	0.119939364
3	0x3e1beb62	0.1522651
4	0xbe76c567	-0.2409874
5	0xbdcb7a2f	-0.09935414
6	0x3e1176f0	0.14205527
7	0xbdf0269e	-0.11726116
8	0xbe247fcd	-0.16064377
9	0xbd6cd87e	-0.05782365
10	0x3e1bd650	0.15218472
11	0xbe476057	-0.19470344
12	0xbdf97890	-0.121811986
13	0xbe02d3f4	-0.12776166
14	0x3e3beaf5	0.18351348
15	0xbe02223e	-0.12708375

encoder_variable_selection.single_variable_grns.T2M_MAX.resample_norm.norm.weight f4 [16]
0	0x3f586f6c	0.84545016
1	0x3f780b2a	0.96892035
2	0x3f8da14d	1.106485
3	0x3f93a87e	1.1535795
4	0x3f3a4e63	0.7277586
5	0x3f6a6e88	0.9157491
6	0x3f9327bf	1.1496505
7	0x3f5ca7fa	0.8619381
8	0x3f5d1c7d	0.86371595
9	0x3f8732ae	1.0562341
10	0x3f93c05b	1.1543077
11	0x3f4b08f5	0.7931054
12	0x3f617864	0.88074327
13	0x3f5db163	0.86598796
14	0x3f9646cb	1.1740354
15	0x3f8d4da6	1.1039321

encoder_variable_selection.single_variable_grns.T2M_MAX.resample_norm.norm.bias f4 [16]
0	0x3e1401d7	0.14453827
1	0x3ccf1ada	0.025281359
2	0xbe049464	-0.12947232
3	0x3e1db210	0.15399957
4	0xbe0530e1	-0.13006927
5	0xbd8738bd	-0.06602619
6	0x3e1f8608	0.15578473
7	0xbe28ef0b	-0.16497438
8	0xbdb547b6	-0.088515684
9	0x3de12404	0.109931976
10	0xbe1b001f	-0.15136765
11	0x3e580035	0.21093829
12	0x3da795a4	0.081828386
13	0x3e0ef347	0.1395999
14	0xbe37488d	-0.1789877
15	0x3df277cd	0.118392564

encoder_variable_selection.single_variable_grns.T2M_MAX.fc1.weight f4 [8, 8]
0	0xbf37cfc0	-0.71801376
1	0x3e47d0fe	0.19513318
2	0xbc222e51	-0.009898738
3	0xbc160939	-0.009157472
4	0xbf3654db	-0.7122323
5	0x3f04cdca	0.5187651
6	0xbd014eeb	-0.031569403
7	0xbf0a3a88	-0.5399556
8	0xbef00c56	-0.46884412
9	0x3f89f977	1.0779256
10	0x3f01c43c	0.50690055
11	0xbdee6577	-0.11640447
12	0x3e5b6202	0.21424106
13	0xbf460215	-0.77346927
14	0xbfa18002	-1.261719
15	0x3f81e99e	1.0149419
16	0x3e915ade	0.2838964
17	0xbf19992d	-0.5999935
18	0x3f0c5c1c	0.5482805
19	0xbda6a656	-0.08137195
20	0x3d9a889d	0.07545588
21	0xbf653511	-0.895341
22	0xbeaff65c	-0.34367645
23	0x3dfaf63c	0.12253997
24	0xbf394781	-0.7237473
25	0xbf70fdad	-0.9413708
26	0x3f44395d	0.7665003
27	0xbf81ff90	-1.0156116
28	0x3f5872d4	0.84550214
29	0x3ed43c86	0.41452426
30	0xbf75b2fe	-0.95976245
31	0x3e1067c8	0.1410209
32	0x3eb9a88c	0.36261404
33	0xbfb2c6e2	-1.3966944
34	0x3e33317a	0.17499343
35	0xbe44c986	-0.192175
36	0xbf47065a	-0.77744067
37	0x3eaff372	0.34365422
38	0xbe957f96	-0.29198903
39	0xbe047ad2	-0.12937477
40	0x3f6f398a	0.9344717
41	0xbd536949	-0.05161408
42	0xbe001014	-0.12506133
43	0xbeab91ae	-0.33509582
44	0x3d435b62	0.04769457
45	0x3e86556d	0.2623705
46	0xbee0d95a	-0.43915826
47	0x3ed81c62	0.42209154
48	0x3f84a652	1.0363257
49	0x3f0de503	0.5542757
50	0xbf479273	-0.7795784
51	0x3e73ca59	0.23807658
52	0xbf1da07e	-0.61573017
53	0x3ef915f5	0.48649564
54	0x3f07614a	0.52882826
55	0x3ea6e508	0.32596612
56	0x3fb002ef	1.3750895
57	0x3f31848e	0.6934289
58	0x3e70cd32	0.23515776
59	0x3dabae96	0.08382909
60	0xbf0b61c4	-0.54446054
61	0x3ef49e18	0.47776866
62	0x3e31db4e	0.17368814
63	0xbed1887f	-0.4092445

encoder_variable_selection.single_variable_grns.T2M_MAX.fc1.bias f4 [8]
0	0xbe28c109	-0.16479887
1	0x3cd3be3b	0.025847545
2	0xbd983512	-0.07431997
3	0x3dd903da	0.10596438
4	0x3ddf9971	0.109179385
5	0xbe2d6646	-0.16933545
6	0xbe1cd61c	-0.15316051
7	0xbdba569a	-0.09098549
