ai_predict/ai/lightning_logs/version_50/checkpoints/epoch=0-step=8.ckpt (torch, 662004 bytes, 889 tensors)

prescalers.time_idx.weight f4 [8, 1]
000000 7d 44 04 bf c1 4a 03 bf 20 b1 1b bd 38 15 24 3f
       -0.51667005 -0.5128594 -0.038010716 0.6409488
000010 24 a9 3d bf 1d 11 47 bf 72 7b 83 3c 30 37 05 3f
       -0.74086213 -0.7776049 0.016050074 0.52037334

prescalers.time_idx.bias f4 [8]
000000 22 ce 35 3e 9c 1b 7b bd bf e4 4b 3e 55 2d 83 bf
       0.17754415 -0.061305627 0.19911478 -1.0248209
000010 14 a4 dc 3c 37 3f 9d bd fb d5 71 3f 45 ea 62 bf
       0.026933707 -0.07678073 0.94467133 -0.88638717

prescalers.T2M.weight f4 [8, 1]
000000 0d 35 75 3f 6d 72 83 bf 30 b8 07 bf ae 3a c1 3e
       0.95784074 -1.0269295 -0.5301542 0.37740082
000010 75 32 00 3f f6 12 ac be fa c4 ef 3d 92 d0 27 bd
       0.5007699 -0.33608216 0.11707492 -0.040970393

prescalers.T2M.bias f4 [8]
000000 a4 65 c5 be f9 2e 01 bf 4a a5 41 bf b1 bf 25 3f
       -0.38554108 -0.504623 -0.75642836 0.6474562
000010 e4 0d 8b be 4e f9 0e bf 19 8b 63 3c c0 60 4a 3f
       -0.27159035 -0.5584916 0.013888144 0.7905388

prescalers.T2M_MAX.weight f4 [8, 1]
000000 fc 25 42 3f 66 51 b8 be 0a 62 37 3f 58 e5 97 3e
       0.7583921 -0.35999602 0.7163397 0.29667163
000010 33 c3 a2 3e 51 78 3f bf fe af 1e 3f 51 74 13 bf
       0.3178955 -0.74792963 0.6198729 -0.5759936

prescalers.T2M_MAX.bias f4 [8]
000000 7a 2f 05 3f 73 76 6e 3f 2c e1 19 3f 2f c0 3a 3f
       0.5202557 0.9314949 0.6010921 0.729495
000010 e7 c1 8c 3f 51 0c dd 3e b2 55 4f 3d 8f cf 40 bf
       1.0996674 0.4317346 0.050618835 -0.7531671

prescalers.T2M_MIN.weight f4 [8, 1]
000000 98 eb 03 bf b4 23 35 bf a0 18 3e bd 45 79 01 3f
       -0.5153136 -0.70757604 -0.046410203 0.5057567
000010 2e c6 ef bd 40 9f 8f 3f 0b 77 87 3f 60 6d c3 be
       -0.11707722 1.1220474 1.0583204 -0.38169384

prescalers.T2M_MIN.bias f4 [8]
000000 57 aa 23 3f 13 d1 58 3f 88 b2 02 3f bc 75 6e 3f
       0.6393179 0.8469402 0.5105367 0.931484
000010 2a cb 2e bf 4e 56 38 3f de 44 0e 3f 18 82 50 bf
       -0.68278754 0.7200669 0.55573833 -0.8144851

prescalers.PRECTOTCORR.weight f4 [8, 1]
000000 c2 d7 40 3e 3b 8c 5d bf 6a 4e 38 3f 73 d2 8a bf
       0.18832305 -0.865421 0.7199465 -1.0845474
000010 ea a8 94 be bc ec ec 3e e9 af 0b 3f ab f4 49 3f
       -0.2903512 0.46274364 0.5456529 0.7888896

prescalers.PRECTOTCORR.bias f4 [8]
000000 d2 06 52 bf d6 85 5f 3d b1 53 50 be 1b 26 f2 be
       -0.82041657 0.054570995 -0.20344426 -0.47294697
000010 b0 a8 40 3f 9b cb 26 3f 61 93 78 bc c0 ad fa 3e
       0.75257397 0.6515443 -0.015171857 0.48960686

prescalers.RH2M.weight f4 [8, 1]
000000 1c d9 26 3f 00 c3 df bb f5 12 11 bf 2a d7 88 be
       0.6517503 -0.0068286657 -0.5666955 -0.26726657
000010 71 4d 42 3f db 85 3a bf 3f a3 81 3e ad 0f d3 3e
       0.75899416 -0.728605 0.2531986 0.41222897

prescalers.RH2M.bias f4 [8]
000000 33 16 27 3f c2 30 ae be 7d 77 f0 be b0 5c 24 bf
       0.6526825 -0.34021574 -0.46966162 -0.6420393
000010 4c e9 85 3d 90 71 b5 3c f3 9b e4 3d bd f6 5d bf
       0.065386385 0.022148877 0.111625575 -0.8670462

prescalers.ALLSKY_SFC_SW_DWN.weight f4 [8, 1]
000000 10 30 6d bf 8c ec ff 3e 37 af 7c bf aa 4d b2 be
       -0.9265146 0.49985158 -0.98704857 -0.34824878
000010 51 ae 2b bf e9 67 5e 3f 00 29 3c 3f 95 f3 8b 3f
       -0.6706286 0.86877304 0.7350006 1.093371

prescalers.ALLSKY_SFC_SW_DWN.bias f4 [8]
000000 65 fc 50 bf 18 6d 6a 3f 36 57 0b bf 90 36 72 bf
       -0.81635123 0.91572714 -0.5442995 -0.94614506
000010 b9 b3 20 bf 08 ca 0b 3f ac d8 6c bf 2c 79 76 3d
       -0.62774235 0.5460515 -0.92518115 0.060174152

prescalers.numero_casos.weight f4 [8, 1]
000000 1e ac 13 3f 95 c0 5c bf 32 7c b0 bd 72 72 93 bd
       0.57684505 -0.86231357 -0.086174384 -0.07199563
000010 36 a8 35 bf ea 44 d3 be d8 79 4f bf 50 e0 9a 3e
       -0.70959795 -0.41263515 -0.81045294 0.30249262

prescalers.numero_casos.bias f4 [8]
000000 dc 1e 79 3f 40 80 51 bc 5f b7 21 3e 7a 7e a5 3e
       0.9731271 -0.012786925 0.15792607 0.32323056
000010 f9 7e 4d 3e 2f b9 8b bd 15 3f d3 3e d8 48 9e 3e
       0.20067967 -0.0682243 0.41259065 0.3091495

static_variable_selection.single_variable_grns.municipio.mask f4 [16]
000000 ac c5 e8 3d b9 5e e8 3d 5a d0 e8 3d b6 d7 e8 bd
       0.11365828 0.11346192 0.11367865 -0.113692686
000010 e6 bc e8 bd ba 9c e8 bd 3f e4 e8 bd 4e b5 e8 3d
       -0.113641545 -0.11358018 -0.113716595 0.11362706
000020 eb ae e8 bd b9 cd e8 bd fd 96 e8 bd 61 96 e8 3d
       -0.11361488 -0.113673635 -0.11356924 0.113568075
000030 31 fb e8 3d 16 bd e8 3d ca a5 e8 3d 54 db e8 3d
       0.11376036 0.1136419 0.11359747 0.113699585

static_variable_selection.single_variable_grns.municipio.norm.weight f4 [16]
000000 5d fa 89 3f 48 a5 6d 3f 39 97 77 3f 40 68 84 3f
       1.077953 0.92830324 0.9671512 1.0344315
000010 0d 13 83 3f 66 b1 67 3f 4a a2 81 3f 75 22 7c 3f
       1.0240189 0.90505064 1.0127652 0.9849008
000020 e1 a4 6d 3f 69 b7 8e 3f e9 ec 75 3f 9d b6 82 3f
       0.9282971 1.1149722 0.9606462 1.0211979
000030 0e f9 8e 3f 5e 29 76 3f b8 37 76 3f 78 56 89 3f
       1.1169755 0.9615687 0.9617877 1.0729513

static_variable_selection.single_variable_grns.municipio.norm.bias f4 [16]
000000 7c e3 e8 bd 2d 7f e7 bd a6 62 e9 bd 6a 02 e9 3d
       -0.11371514 -0.11303554 -0.11395769 0.113774136
000010 70 c4 e8 3d a2 77 e8 3d e4 26 e9 3d 9e 8e e8 bd
       0.113655925 0.11350943 0.11384371 -0.11355327
000020 8e a2 e8 3d be de e8 3d 78 5a e8 3d 4c 25 e8 bd
       0.1135913 0.1137061 0.113453805 -0.11335239
000030 8d 6c e9 bd f9 07 e9 bd 94 79 e8 bd 45 0f e9 bd
       -0.113976575 -0.11378474 -0.11351314 -0.113798656

encoder_variable_selection.flattened_grn.resample_norm.mask f4 [8]
000000 36 a4 b9 bd d3 cb 92 3d f0 34 ba bb 60 18 df 3c
       -0.09064524 0.07167783 -0.00568258 0.027233303
000010 42 c9 a6 bd 79 52 e0 bd e3 81 0e 3e 85 68 bd 3d
       -0.08143856 -0.109532304 0.13916735 0.09248451

encoder_variable_selection.flattened_grn.resample_norm.norm.weight f4 [8]
000000 6b 0a 68 3f 85 ca 8e 3f 52 51 95 3f 0e df 81 3f
       0.90640897 1.1155554 1.1665442 1.0146196
000010 3b bc 6b 3f 61 4a 69 3f 26 a3 91 3f ca a8 6b 3f
       0.9208409 0.9112912 1.1377914 0.92054427

encoder_variable_selection.flattened_grn.resample_norm.norm.bias f4 [8]
000000 f0 fd fa 3d 42 49 b1 bd ad bb f6 3d 9d 9a 41 3d
       0.12255466 -0.08656551 0.12047515 0.04726659
000010 98 51 8b bd fd 4b 18 3e ef 6d 0d be ac 78 a5 3d
       -0.06802672 0.14872737 -0.13811468 0.08079657

encoder_variable_selection.flattened_grn.fc1.weight f4 [8, 64]
000000 25 bc 74 bd 35 38 03 3e 9f d0 21 3d 0d 12 9d bd
       -0.05974974 0.1281441 0.039505597 -0.076694585
000010 27 65 55 3e a9 57 81 bd 49 51 8c 3e 02 bc a7 be
       0.20839368 -0.06315548 0.27405766 -0.32760626
000020 b1 52 99 3e 6a c5 be bb 00 34 98 3d 1a 17 bc 3e
       0.299459 -0.0058218734 0.07431793 0.36736375
000030 c2 6f 00 3f a3 0d 03 be 4c 6c 94 3e f5 36 ff bd
       0.5017053 -0.12798171 0.28988874 -0.12461654
000040 fe ce 3b bd ef 04 0d 3e dd 83 0d 3e f5 53 63 3e
       -0.0458517 0.13771413 0.13819833 0.22199996
000050 5c 5a 64 3e 66 f7 83 3d 87 96 1a 3e ba 0a 08 bf
       0.22300094 0.06443672 0.15096484 -0.5314137
000060 bc 3c cb be cd 10 15 be b3 e1 5c 3e d1 c1 d1 3e
       -0.39694774 -0.1455719 0.21570472 0.40968183
000070 54 91 04 3e 63 1b 65 bd fc c6 3f 3e 3b 39 84 3e
       0.12946063 -0.05593432 0.1872825 0.25824913
000080 7a 27 9c bd 5d 2b 08 3e 8a f0 78 3e a1 96 47 be
       -0.07624717 0.13297792 0.24310508 -0.19491054
000090 6f bc b7 be bb 51 44 3d ea df 4b bd 68 e4 d4 3e
       -0.3588595 0.047929507 -0.049774088 0.4158051
0000a0 bb 6c 01 be 8c 8f 9e 3e 9e f6 fb 3d 13 8b 4d be
       -0.12639134 0.30968893 0.12302898 -0.20072584
0000b0 23 10 ca bd 6b b0 1e be ad 76 82 3d e6 58 e8 bc
       -0.09866359 -0.15496986 0.06370292 -0.028362703
0000c0 f4 de 86 be c0 3d 79 3e 28 fd a6 3c 58 b5 1c 3e
       -0.26341975 0.24339962 0.020384386 0.15303552
0000d0 80 e5 29 3e e0 ad 3d be 17 ca af bd 13 e1 bd bd
       0.16591454 -0.1852336 -0.085834675 -0.09271445
0000e0 bf 11 ee 3d 59 62 02 be 66 5b 27 bd f5 66 41 3e
       0.116244785 -0.12732829 -0.04085865 0.18886931
0000f0 52 45 b1 bd 7c 53 db be 49 53 02 3e 82 b1 29 3e
       -0.086558 -0.4283713 0.12727083 0.1657162
000100 99 43 aa be ed bb fd be 11 d0 5b 3e cf 19 db bd
       -0.33254698 -0.49557438 0.2146609 -0.10698282
000110 2b b4 88 be 86 ac 64 be 09 ed a2 be 18 2c cc 3d
       -0.26699957 -0.22331437 -0.31821468 0.09969348
000120 b1 90 32 3e a2 18 8d be 1e b1 63 be ea 58 15 be
       0.17438008 -0.27557856 -0.22235534 -0.145847
000130 68 fe a3 3c 9f 06 6e be a0 d2 f9 bc b1 01 c1 3e
       0.020018771 -0.23244713 -0.030495942 0.37696603
000140 0b ec 3d bd 10 ca 81 be d8 e1 53 3e 50 c6 2e 3e
       -0.046367686 -0.25349474 0.20691621 0.17067838
000150 60 68 a3 3c 7c b6 63 be 76 6b eb 3d 4c ca 40 3b
       0.01994723 -0.22237581 0.11495106 0.0029417453
000160 af 91 65 be 5c 90 b8 3c b1 33 4f 3e ba ba 29 be
       -0.22418855 0.022529773 0.20234562 -0.16575137
000170 60 c2 73 be 44 0d 84 bd c3 46 2b 3e 46 e8 34 be
       -0.23804617 -0.06447843 0.16726212 -0.1766673
000180 17 66 3b be 24 20 43 3d 24 a7 8d bd fe ad bf bd
       -0.18300663 0.047638074 -0.06916645 -0.09359358
000190 41 c2 74 3e 49 69 d2 3e 02 64 1f 3e b4 e4 93 3d
       0.23902227 0.4109595 0.15565494 0.07221356
0001a0 07 17 7d 3e 23 07 b2 be 6e ea fd 3e 62 65 3c be
       0.24715815 -0.3477107 0.49592918 -0.1839805
0001b0 6c ec 42 be 36 1f bf 3d b8 15 15 bf 5d 71 5e be
       -0.190355 0.09332125 -0.58236265 -0.21722932
0001c0 4c 7f 95 be 82 2b 8b 3d 60 79 7f 3d a1 27 ff bd
       -0.29198682 0.06795408 0.06237161 -0.124587305
0001d0 58 47 14 be 7a 66 84 be 88 c7 69 be 6a 1f 15 3e
       -0.1448034 -0.25859433 -0.22830021 0.14562765
0001e0 8e c2 6b 3e 6c 85 2b be c0 89 5c be 82 75 53 3e
       0.23023435 -0.16750115 -0.21536922 0.20650294
0001f0 7f c4 35 be 98 78 94 be 04 65 be 3d bc ce 15 3e
       -0.17750739 -0.28998256 0.09296611 0.14629644
000200 fb fb 30 be 5c b7 03 be 21 e8 ce be 47 8c fd 3d
       -0.17283623 -0.12862915 -0.40411475 0.123802714
000210 b0 23 af bd 1d 8a ad bd 36 7d b4 3d af 79 1f 3e
       -0.08551729 -0.08473609 0.088129446 0.15573762
000220 89 fc 84 be 15 47 a6 3e 95 1c 48 3d 2d 7a 95 3e
       -0.2597392 0.32476106 0.048855383 0.29194775
000230 f6 37 8f 3d 78 bd 2f be b6 2c d9 bd cc fb f6 bd
       0.069930956 -0.1716212 -0.10604231 -0.12059745
000240 f2 4d b7 bd 50 8a c3 bc d1 69 b6 be 22 b0 95 bd
       -0.08950414 -0.023869663 -0.35627607 -0.07308985
000250 3e 97 f7 bd 4e 44 08 3f e0 5f 29 be ee 6e a0 3e
       -0.12089394 0.53229225 -0.1654048 0.31334633
000260 92 c5 f3 3b da 60 da 3d 19 ab 3f be dd c3 30 be
       0.0074393237 0.10663004 -0.18717612 -0.17262216
000270 a0 73 27 bd 06 72 75 be 7a 10 af 3d 75 a8 78 be
       -0.040881753 -0.23969278 0.085480645 -0.24283011
000280 df 25 3e bd 34 26 a7 3e d5 9e 37 3d 8c f6 93 be
       -0.046422835 0.32646334 0.04482921 -0.28899038
000290 55 9e 80 bd 3e 4f c3 3d eb 5e 3c 3e 6c 45 20 be
       -0.062801994 0.095365986 0.18395583 -0.15651482
0002a0 08 32 0a 3e d2 77 93 3c fc 2c 41 3d 75 dc 3b 3e
       0.13495648 0.01800147 0.04716204 0.18345816
0002b0 b2 8f a1 bc 2e d1 4b 3e a3 96 f5 be 71 99 18 be
       -0.01972184 0.19904014 -0.4796649 -0.14902283
0002c0 c3 fe 81 bd aa 8b 4e 3e 54 82 0b 3e 12 2d a0 3e
       -0.0634742 0.20170465 0.13623935 0.31284386
0002d0 bd 02 6a 3d 56 c3 96 be d8 94 87 bc f9 2e f8 be
       0.057131518 -0.29445904 -0.016550466 -0.48473337
0002e0 25 c5 b1 bb 88 76 be bd ee fb 65 3c 34 e4 8c 3e
       -0.005425113 -0.09299952 0.0140371155 0.27517855
0002f0 f0 d9 32 3e 67 c2 d7 3e b9 e0 61 3e ca a7 8f bd
       0.17465949 0.42140505 0.22058381 -0.07014425
000300 ae e9 a4 be 35 08 5f 3d 1f a9 4d be 13 dc 8b 3d
       -0.32209533 0.054451186 -0.20084046 0.06829085
000310 61 f9 26 be 2f 5b fd bd bc 3f 1b 3d 0c 24 aa bc
       -0.16306068 -0.123709075 0.03790258 -0.020769142
000320 9a fc 68 3d df ca f1 3e 71 ec 93 3b 0d e5 91 bd
       0.056881525 0.4722509 0.00451427 -0.07123766
000330 29 53 bf 3e 23 92 d0 bd 18 e9 05 be c2 05 bb bd
       0.37368134 -0.10184123 -0.130772 -0.091319576
000340 c7 cb f9 be 00 42 a2 bd c6 b3 e9 bd da 85 9d be
       -0.48788282 -0.07922745 -0.11411242 -0.30766183
000350 b4 96 b8 3d 7c 94 35 3e fa bd f1 3d ae 5c 42 3e
       0.09013119 0.17732424 0.11803813 0.18980667
000360 ea b8 04 3e 2c 05 47 be fc 11 d8 bb de e7 13 be
       0.12961164 -0.19435567 -0.006593941 -0.14443919
000370 1f 8d 80 3d 1d 45 20 bd 42 6d 6c bd fa 6c 33 bf
       0.06276917 -0.03912841 -0.057721384 -0.7008816
000380 d2 3c e5 3d af 65 06 be b9 97 36 3e 53 99 14 be
       0.11193241 -0.13124727 0.17831315 -0.14511614
000390 a8 2e fc 3c 72 a1 8c 3d c8 97 9f 3e e8 b2 5f 3b
       0.030783966 0.06866731 0.31170487 0.0034133736
0003a0 55 09 16 be 1a ca 21 3d 1a d5 10 3e 54 40 50 3b
       -0.14651997 0.03949938 0.14143792 0.0031776624
0003b0 02 cf 0a 3e 32 6c 14 bc dc 30 a9 3d 9f c2 0c 3e
       0.1355553 -0.009058999 0.08261272 0.13746117
0003c0 a4 5e 94 3e 21 12 3c bd cc 19 94 3e eb 13 7e 3d
       0.28978455 -0.045915727 0.2892593 0.062030714
0003d0 02 e9 0e 3e 70 9f 99 bd 71 cb ea 3e 05 2d 5c be
       0.13956073 -0.075011134 0.45858338 -0.21501549
0003e0 fb 79 ed 3b 1e 05 18 3e 78 ec c0 3d 48 18 4b 3e
       0.007247207 0.14845702 0.09420103 0.19833481
0003f0 f6 88 72 3e 50 2b 7f 3e 1a 12 54 3e bd 5c 20 bd
       0.23685059 0.24918866 0.2071003 -0.039150942

encoder_variable_selection.flattened_grn.fc1.bias f4 [8]
000000 b1 ca 89 3d 51 27 b7 3d 6c b8 ce 3d cc dc ef bc
       0.067281134 0.08943046 0.100937694 -0.029280089
000010 70 71 e3 bd cb 48 d9 3d 6f 35 f1 bd 43 07 01 be
       -0.11105621 0.10609587 -0.1177777 -0.12600426

encoder_variable_selection.flattened_grn.context.weight f4 [8, 16]
000000 2e 15 22 be 4f bd 03 bd 22 dd 9b 3e c8 e3 1c be
       -0.15828392 -0.03216296 0.30442148 -0.15321267
000010 17 af d5 3e 59 73 82 3e dc c5 f5 bd 48 88 82 3e
       0.41735145 0.25478628 -0.12000629 0.254946
000020 12 eb d9 3e 26 c4 9f 3d d1 5e b2 be 9e a8 8c be
       0.42562157 0.07801084 -0.34837964 -0.27472395
000030 61 e3 b2 3e a0 42 00 bf ea f3 5a 3e af 18 86 3e
       0.349391 -0.5010166 0.21382108 0.26190707
000040 7b 88 9b 3e 08 c0 a5 be 1b 24 c7 bd 3d 7f 82 be
       0.30377564 -0.3237307 -0.097236834 -0.254877
000050 58 b6 5a 3d c2 fe 0c bf 5e 9a 56 3e d3 06 93 bc
       0.053396553 -0.5507623 0.20957324 -0.01794759
000060 3e 69 28 3e d9 3c 98 bd 6e ca b5 be 40 24 9e bd
       0.16446397 -0.07433481 -0.35506004 -0.07721758
000070 1d 41 64 be 06 93 dc 3b d3 87 b6 3e eb d3 c5 3d
       -0.22290464 0.0067313937 0.356505 0.09659561
000080 7e 03 5f be 6a 5e 50 be 55 bf d0 3c de 5e 4e be
       -0.21778676 -0.20348516 0.02548186 -0.20153376
000090 e0 da 8d 3e d7 d8 90 3d 92 1d 9d be 6a 91 ee be
       0.2770605 0.07072609 -0.30686623 -0.46595317
0000a0 d8 b3 03 3f 30 04 7c 3e 17 b4 03 3f 2b 20 cd be
       0.51446295 0.24610972 0.5144667 -0.40063605
0000b0 d0 1f 20 bf 6b b9 d4 bd 71 d3 c9 3e 69 c6 cd be
       -0.6254854 -0.10386928 0.3941913 -0.40190437
0000c0 92 bc 86 bd e2 72 0f 3e c1 2c c4 be da 6c fb 3d
       -0.06578936 0.14008668 -0.38315395 0.12276621
0000d0 c4 cb 66 3e 9c 32 8b bd 0e ff 84 3e 67 ce 76 3e
       0.22538668 -0.06796762 0.2597584 0.24102174
0000e0 02 24 bf 3e 22 7a 7d 3d c4 ed 8e 3e ac c3 14 be
       0.3733216 0.061884053 0.27915776 -0.14527768
0000f0 f6 25 6e bd c8 60 97 be 8e a6 7e be 98 82 89 3e
       -0.05814167 -0.29566026 -0.24868223 0.26857448
000100 f4 4d 6b 3e b4 be ab 3e 77 0f b6 3e b2 7f 97 bd
       0.22978956 0.33543932 0.35558674 -0.07397403
000110 b5 db 0d 3f b5 a3 dd bd 56 5b af 3d 52 89 c5 be
       0.5541337 -0.1082224 0.08562343 -0.3858133
000120 6f eb b9 bc af f8 be bd 66 13 7c bd 50 13 78 be
       -0.022695271 -0.093247764 -0.061541937 -0.24226117
000130 bf c9 1f bf f5 cf 72 3d 5c 47 a4 3e 62 88 94 bd
       -0.62417215 0.059280355 0.32085693 -0.072525755
000140 37 06 80 3e af 3e b9 3e 5e bb b8 3e f7 fd 1f be
       0.25004742 0.36180636 0.3608045 -0.15624224
000150 9e ee 85 3e 6d 12 79 bd 2d 99 75 3e 0b 31 d1 be
       0.26158613 -0.060808588 0.23984213 -0.4085773
000160 4c e1 a3 be cc 53 e0 3e 32 22 97 be 6f 12 8e 3e
       -0.32007825 0.43813932 -0.29518276 0.2774844
000170 c2 53 c5 3e 5c 57 e2 bd 52 0d bc 3e dd c7 86 be
       0.38540465 -0.11051819 0.36728913 -0.2632436
000180 08 ce 60 be 88 14 3c 3e 3d 10 b9 3c 90 7a e0 bd
       -0.21953595 0.18367207 0.02259075 -0.10960877
000190 a2 f6 24 3e 68 22 d0 bd f1 55 cc be 0c b7 f4 be
       0.16109708 -0.101628125 -0.39909318 -0.47795904
0001a0 4a 81 f5 be 57 1d ac be 24 04 ea be 80 72 76 3e
       -0.47950202 -0.33616135 -0.45706284 0.24067116
0001b0 d2 0a ab be cf d9 dd 3e fb c6 cc 3e 8a 12 8b 3e
       -0.33406693 0.43330237 0.3999556 0.27162582
0001c0 4c ef 28 3e 42 98 ad be 01 30 5b bd a9 d9 f1 be
       0.16497535 -0.33905226 -0.053512577 -0.47236374
0001d0 74 95 e6 be fb a4 07 bf 46 02 1e 3e 7d 67 16 3f
       -0.450359 -0.52986115 0.15430555 0.5875166
0001e0 1a 6f db be 5c 4c c2 be 99 4c 2c be 12 f8 43 3e
       -0.428582 -0.37948883 -0.16826095 0.191376
0001f0 fe ba 3d be c6 db 1b 3e fe 8c d6 3d 8c 6e 3c bd
       -0.18528363 0.15220556 0.10476111 -0.046003863

encoder_variable_selection.flattened_grn.fc2.weight f4 [8, 8]
000000 3d 2a 48 be 78 41 c5 3e 73 6b 0d bf c6 81 cf 3e
       -0.19547363 0.3852651 -0.5524208 0.40528697
000010 2c 23 dd 3d 62 af d4 3d 87 fc 7d bd 1e fe d2 be
       0.10797724 0.10385014 -0.062008407 -0.412095
000020 01 dd 02 bf 60 f3 ba 3d ed 78 3e 3f 26 b1 53 3f
       -0.51118475 0.09128451 0.7440327 0.8269218
000030 04 bf 7b bd b4 d4 35 3f ae 08 ba 3e 8f b7 bd be
       -0.061461464 0.71027684 0.36334747 -0.37054107
000040 fa 74 cb 3e b5 ed 0a bc a1 15 ec be eb 39 d3 3e
       0.39737684 -0.008479525 -0.46110252 0.41255125
000050 75 0e 19 bf e8 b7 44 be 2b db f9 3e 47 18 90 bf
       -0.59787685 -0.1921078 0.48800024 -1.1257409
000060 ca 6e 86 3e 4b a3 e2 be f8 3b a9 be fa e9 18 3d
       0.262564 -0.44265208 -0.33053565 0.037332512
000070 47 16 25 be 29 a4 f5 3d e4 69 c5 be 4a 00 78 3e
       -0.1612178 0.11994202 -0.3855735 0.2421886
000080 2f 90 5a be 7f 2a f9 3d 70 9f 51 3e 91 df fd 3e
       -0.21344064 0.121663086 0.20470977 0.4958463
000090 ef fd f1 3d 05 96 28 3f e1 54 81 3d bb 37 78 3f
       0.11816012 0.6585391 0.063150175 0.9696004
0000a0 eb 01 20 3e 5e b4 22 bf 02 49 54 3e 34 67 a8 3e
       0.15625732 -0.6355647 0.20730975 0.32891238
0000b0 24 7e c4 3e 44 e8 55 3c 07 2c 68 be 29 3f 57 3e
       0.38377488 0.013055865 -0.22673045 0.21020187
0000c0 3a 54 91 3f c9 35 82 3d 06 73 d1 be 3b 16 52 be
       1.1353829 0.06357915 -0.40908068 -0.20516293
0000d0 36 9b b8 bd b9 c3 54 3d 8f ce 91 3f 9b 6f f6 be
       -0.09013979 0.05194447 1.1391162 -0.48132023
0000e0 ea df 13 bf e1 69 d9 3d ea 69 d3 3c 8c 3a 33 3e
       -0.5776354 0.10615898 0.02580734 0.17502803
0000f0 f5 49 b1 be e4 84 b8 3d 43 95 16 be c8 c0 ef be
       -0.34626737 0.09009722 -0.14705376 -0.46826768

encoder_variable_selection.flattened_grn.fc2.bias f4 [8]
000000 04 56 12 3d 46 9e 15 3e 79 e1 cb bd 45 d7 df 3d
       0.035726562 0.14611158 -0.09955115 0.10929731
000010 e2 3f 7a bd 29 61 e6 bd 04 35 dd 3d c6 b2 0c bd
       -0.06109608 -0.112490006 0.108011276 -0.03435018

encoder_variable_selection.flattened_grn.gate_norm.glu.fc.weight f4 [16, 8]
000000 9d dd 9c be 74 72 ee bb 4a 26 8c bb ce ee 1a bf
       -0.30637828 -0.0072768275 -0.0042770253 -0.6052064
000010 6a a6 93 be 19 03 b5 be 92 35 c2 be e6 07 0f 3f
       -0.288379 -0.35353926 -0.37931496 0.5587143
000020 ef 9b 2f be 7d 30 3d be f4 b4 a6 3a 3b 22 97 3e
       -0.17149328 -0.18475528 0.0012718723 0.29518303
000030 6a a6 bc 3e 0f ba 3a 3e d7 eb 8b 3e d0 0f 92 3d
       0.36845714 0.18235038 0.2732837 0.07131922
000040 07 1e fa 3e 03 76 e7 bd 36 3d a3 3e a9 3c 86 3e
       0.48851034 -0.11301806 0.31882638 0.26218155
000050 33 28 01 bf 89 2e 0b bf 79 4b 91 bd e4 1c d0 bc
       -0.50451964 -0.5436788 -0.070944734 -0.025404401
000060 5c 57 96 3e e6 c0 f2 be e6 71 81 3e 56 e5 ef 3e
       0.29363525 -0.47412795 0.2528221 0.46854657
000070 d8 d2 8e bd 50 31 95 3e fe 73 31 be a3 88 8a be
       -0.06973809 0.29139185 -0.17329404 -0.2705737
000080 da 44 89 3e 76 92 9f be 8d 5d 6a 3e d5 33 e4 bd
       0.26810342 -0.31166428 0.2288725 -0.11142699
000090 52 9c 0d be 3c 2c d9 3e c9 eb 78 3e a8 68 ce bd
       -0.13829163 0.4241656 0.24308695 -0.10078555
0000a0 fd 39 90 be fc e7 8b 3e 01 94 95 bd fd 82 92 3e
       -0.28169242 0.27325428 -0.0730362 0.2861556
0000b0 8c 7b 0d 3f 58 b0 78 bc db 49 23 3f 40 5d e7 be
       0.5526664 -0.015178762 0.6378457 -0.45188332
0000c0 a5 40 8e 3e 79 a8 47 3e 66 b6 d1 be 2c 55 d5 be
       0.27783695 0.19497861 -0.4095947 -0.41666543
0000d0 2b 4e b4 bd 25 10 34 be f3 ca ef be ec d3 e7 3d
       -0.08803972 -0.17584284 -0.46834525 0.11319718
0000e0 23 ef 91 3e 3f 84 bf 3d 5e 9f 7b bd fa 7a 79 bd
       0.2850276 0.09351396 -0.06143128 -0.060908295
0000f0 7d 9f b0 be ba d7 f7 3e a9 7c 0b 3f 87 0b 36 be
       -0.3449668 0.48406774 0.5448709 -0.17777835
000100 c2 88 e6 be 92 30 5a 3e f6 ee 48 bc ff dc 0c 3e
       -0.45026213 0.2130759 -0.012264004 0.13756178
000110 c5 75 13 be 3c b3 8d 3e 02 17 b5 3e a4 f8 c1 3e
       -0.14400394 0.27675807 0.35369116 0.3788501
000120 22 c3 dd bd 51 b0 7d 3e 60 b5 0b 3d ba 56 0a bf
       -0.10828234 0.2477429 0.03410852 -0.54038584
000130 19 ee 50 be 83 ce 86 be d9 f9 44 be fa 16 bd 3e
       -0.20403327 -0.2632943 -0.19235934 0.36931592
000140 ef 8c 47 be c6 37 e9 be b7 a7 8b be be 3f 91 3c
       -0.19487356 -0.45550364 -0.27276394 0.01773059
000150 f4 e5 29 be 37 39 b3 be c3 af d3 3e 7a 9f 77 3e
       -0.16591626 -0.3500459 0.41345033 0.24181929
000160 5e a0 ad bd df f7 4c bc 02 b7 b3 be 48 ea c6 3e
       -0.08477853 -0.012510269 -0.3510056 0.38850617
000170 2d a7 83 3e 7d c3 81 be 9c 60 90 bd 91 8f 92 3e
       0.25713482 -0.25344458 -0.07049677 0.28625157
000180 60 4d 97 3c 88 ec 18 3e e2 ce f2 3d 53 7e b5 be
       0.018469512 0.1493398 0.11855866 -0.3544794
000190 31 ae 8b 3e 1f a6 b6 3d 41 e2 b3 bd 8e 4d 7d 3e
       0.27281335 0.08918404 -0.08783389 0.24736616
0001a0 b2 54 16 3e c1 60 e9 3e 1e 56 82 be 59 5e 2b be
       0.14680746 0.4558163 -0.25456327 -0.1673521
0001b0 0b 8a 44 3d 58 89 0f 3d e4 40 6f bc ef 2d 0e be
       0.04798321 0.03504309 -0.0146028735 -0.1388471
0001c0 c3 2f fc bd 41 83 bb be 01 5c 6c 3e 55 25 76 3e
       -0.12313797 -0.36623576 0.23081972 0.24037679
0001d0 63 5b 3c be 22 fc 7c be 95 b1 40 be 20 6e a7 3c
       -0.18394236 -0.24705556 -0.18817742 0.020438254
0001e0 4a c7 8a 3e 5d db 10 3e bc c4 c4 3e 40 ac b6 3e
       0.2710517 0.1414618 0.38431346 0.3567829
0001f0 a4 ca 07 bf d4 f4 d3 be 61 1d 23 be c9 6a 3f 3e
       -0.5304358 -0.41397727 -0.15929176 0.18693079

encoder_variable_selection.flattened_grn.gate_norm.glu.fc.bias f4 [16]
000000 49 f9 f1 3d d0 2e a0 bd 84 4f e6 3d f6 74 20 3d
       0.118151255 -0.07821429 0.11245635 0.039174043
000010 00 31 ca bd 11 59 05 3e bb ac 0f be 8a 7b 93 3d
       -0.09872627 0.13022257 -0.14030735 0.072012976
000020 16 1f 11 3d 5e c4 03 be d4 9b fe 3d b0 d9 1b be
       0.035430036 -0.12867877 0.124320656 -0.1521976
000030 1b 69 d2 bd 8a 2e ba 3d de ed bb 3d 35 1d 5b 3d
       -0.102739535 0.09090908 0.09176229 0.05349465

encoder_variable_selection.flattened_grn.gate_norm.add_norm.norm.weight f4 [8]
000000 a3 c0 6b 3f 18 63 5a 3f 1a 44 81 3f a7 4b 5b 3f
       0.92090815 0.85307455 1.0098908 0.8566231
000010 a6 97 62 3f 81 73 67 3f b4 44 88 3f 3c 6d 63 3f
       0.8851265 0.9041062 1.0645967 0.88838553

encoder_variable_selection.flattened_grn.gate_norm.add_norm.norm.bias f4 [8]
000000 da 81 e1 3d 98 f7 6c bd bc 43 ea 3d 60 91 80 3c
       0.11011095 -0.05785331 0.114387006 0.01569432
000010 7f ca 80 bd 5f 7a 21 3d 38 87 94 bd 79 3e 85 3d
       -0.06288623 0.039423343 -0.072523534 0.06506056

encoder_variable_selection.single_variable_grns.time_idx.resample_norm.mask f4 [16]
000000 a4 4c 9d 3d cd f1 de bd f5 c4 29 bd 56 f3 1e 3e
       0.07680634 -0.108859636 -0.0414476 0.15522513
000010 00 8a 02 3b 2a 4d af 3d 1d 7a 36 3d 8d 01 c2 bd
       0.001991868 0.0855964 0.04455005 -0.09472952
000020 bc 4a 16 bd dc 1c 17 be 8b 30 13 be 1d 73 ee bc
       -0.036692366 -0.14757103 -0.14373986 -0.029107625
000030 e0 96 c2 3d 31 ac 10 3e 93 5f 1a 3e 30 83 03 be
       0.09501433 0.14128186 0.15075521 -0.12843013

encoder_variable_selection.single_variable_grns.time_idx.resample_norm.norm.weight f4 [16]
000000 f2 80 8b 3f af e8 69 3f 3b 27 78 3f 90 fd 95 3f
       1.0898726 0.9137067 0.9693486 1.1718006
000010 cd 25 88 3f d4 b6 87 3f 0e 94 81 3f 5e 75 6e 3f
       1.0636536 1.060267 1.0123308 0.9314784
000020 80 30 74 3f a6 bf 58 3f 4e 41 58 3f f5 7e 6d 3f
       0.95386505 0.8466743 0.8447465 0.92771846
000030 1c 13 88 3f fd 4e 93 3f 18 db 91 3f 2f 0b 72 3f
       1.0630832 1.150848 1.1394987 0.94548315

encoder_variable_selection.single_variable_grns.time_idx.resample_norm.norm.bias f4 [16]
000000 f9 02 9f 3d e0 88 99 bd df 22 63 3d 20 1a cd 3d
       0.07764239 -0.0749681 0.055453178 0.100147486
000010 94 48 85 bb 66 05 dc bd 11 e0 d0 bc eb c3 d0 3d
       -0.00406749 -0.10743217 -0.025497468 0.101936184
000020 b0 b0 d6 3d 70 25 e0 bd a6 6d 45 3d 53 7b 19 be
       0.10482919 -0.10944641 0.048200272 -0.1498845
000030 7c ee 8b 3d 0c 0c 39 3e e3 58 b0 bd 83 60 10 3e
       0.06832597 0.18071002 -0.08610704 0.14099316

encoder_variable_selection.single_variable_grns.time_idx.fc1.weight f4 [8, 8]
000000 66 36 ca bc c4 08 45 bf c3 54 46 bf 1c 77 7b 3f
       -0.024684142 -0.769665 -0.77473086 0.9822862
000010 a1 35 35 be bb 7b 6d 3f 2a 0c 52 be bf 72 46 3f
       -0.17696239 0.9276692 -0.20512453 0.7751884
000020 69 6b eb be 6b 54 9e 3f 22 74 41 3e e4 51 0a bf
       -0.45980385 1.2369512 0.18891957 -0.54031205
000030 3d 74 a3 be 0b ee e8 3e 66 63 bc be 0d 27 3f 3e
       -0.3192462 0.45494112 -0.36794585 0.1866724
000040 2e d6 cd be 07 f2 ce 3e 8a 27 20 bf 50 71 56 bd
       -0.4020247 0.40419027 -0.6256033 -0.052354157
000050 d6 f1 0f bf eb c1 8c 3e 99 69 31 be 52 02 90 3e
       -0.5622839 0.27491698 -0.17325439 0.2812677
000060 5e 5e f8 bd 20 71 bb 3c f3 81 98 3e 7a e0 a9 be
       -0.12127374 0.02288109 0.29786643 -0.33179075
000070 da d6 5c bd ef 8a 90 be 90 f4 d5 3e f4 02 25 be
       -0.053915836 -0.28230998 0.4178815 -0.16114408
000080 24 6d fb bd 2c bd 6d be 09 13 c7 3e 57 e1 e2 3e
       -0.12276676 -0.23216695 0.3888171 0.44312546
000090 4a de bb bd 25 b8 f6 be 5b 81 c6 3e 8f d9 f8 3d
       -0.09173258 -0.48187366 0.38770565 0.12150871
0000a0 0d b3 e2 be 14 73 c4 3d 99 78 64 bf 60 0b db be
       -0.4427723 0.09592262 -0.8924652 -0.42782116
0000b0 06 b6 38 3f 82 42 1f bf 6e 94 60 bf b6 c5 80 be
       0.72152746 -0.6221086 -0.87726486 -0.2515084
0000c0 28 1c 9f bd 33 f9 fe 3e 63 74 23 bc 39 0d 20 3f
       -0.07769042 0.497995 -0.009976479 0.62520176
0000d0 5e 4b 84 be 66 f2 e5 bd dd 37 01 3f 80 92 b3 b8
       -0.2583875 -0.112278745 0.50475866 -8.562673e-05
0000e0 8c fe 82 3e 69 3a 9a be 86 e7 3e 3f 6b cb a6 3e
       0.2558483 -0.30122688 0.74572027 0.3257707
0000f0 cd 4a 9f bd c6 bd 14 bf 2b 2f bd 3e 63 d5 35 3f
       -0.07777939 -0.5810207 0.3695005 0.7102873

encoder_variable_selection.single_variable_grns.time_idx.fc1.bias f4 [8]
000000 34 d7 1b bd 50 3c af bd 79 a7 b7 3c e7 77 00 be
       -0.03804703 -0.085564256 0.022418724 -0.12545739
000010 32 98 b0 3d e4 32 15 3c 78 87 66 3d 57 52 89 3d
       0.08622779 0.009106372 0.056281537 0.06705158

encoder_variable_selection.single_variable_grns.time_idx.fc2.weight f4 [8, 8]
000000 d2 be ed be 2d 6b 0c bf 1b ae 0f bf 9e 77 15 be
       -0.46434647 -0.5485104 -0.5612504 -0.14596412
000010 38 bd 54 be 6f 6a 3a 3f 13 75 1a bf 75 38 b8 be
       -0.20775306 0.72818655 -0.6033489 -0.35980573
000020 e3 59 93 bc c5 40 ac be 3c 8c a7 be 47 2a 59 be
       -0.017987197 -0.33643165 -0.32724178 -0.21207534
000030 cd 83 55 be ce da 25 3f ce 0e 8f 3d cd 36 f4 3e
       -0.2085106 0.64786994 0.06985246 0.4769806
000040 d0 64 7e ba b3 4d 97 bc 8a 94 98 be f0 5a fe 3b
       -0.0009704353 -0.018469667 -0.29800826 0.0077623054
000050 89 38 01 3f a9 b7 b8 bd 4d b0 7f bf 81 46 06 3d
       0.5047689 -0.090194054 -0.9987839 0.03278208
000060 1a 48 01 3f d1 99 96 3e e2 04 87 3d 27 5d 91 bd
       0.50500643 0.29414228 0.06592728 -0.070978455
000070 31 44 54 be 30 0f cc 3e 90 63 97 be ab 40 0f 3e
       -0.20729138 0.39855337 -0.29568148 0.13989513
000080 cb 0a ab be d6 71 40 be 4a ba 0b be e3 e4 bf 3e
       -0.33406672 -0.18793425 -0.13645282 0.37479314
000090 e9 ca 28 3f b1 4d 14 be 88 73 e3 be fa cf 82 bf
       0.65934616 -0.14482762 -0.4442408 -1.021972
0000a0 09 35 a0 3c ea 88 9a bd 13 18 c7 be 77 d0 67 be
       0.01955654 -0.075456455 -0.38885555 -0.22638117
0000b0 5f da 16 bf be da 31 be 35 0c a3 3e e5 ca 3f 3f
       -0.5892696 -0.173686 0.3184525 0.7491897
0000c0 c8 e9 cf 3c 72 b8 25 3e 70 04 20 3f be 53 5b be
       0.02538003 0.16183642 0.6250677 -0.21418664
0000d0 20 05 88 bf 00 a3 4c bf 84 b8 28 bf e4 ba fe be
       -1.0626564 -0.7993622 -0.6590655 -0.4975196
0000e0 db 41 d1 bc 5c 04 20 3f be 45 0f bf cc 6c 82 3d
       -0.025544098 0.6250665 -0.55965793 0.063684076
0000f0 cc e4 23 3f 9e a2 41 3f d1 f3 bb be d3 96 01 bf
       0.6402099 0.7563876 -0.36709455 -0.50620764

encoder_variable_selection.single_variable_grns.time_idx.fc2.bias f4 [8]
000000 cb e5 f8 3d 4b 8a 8a bd 94 d5 02 3c 99 d9 89 bd
       0.121532045 -0.067646585 0.007985491 -0.067309566
000010 64 cf d1 bd b8 1d e2 bd e2 65 5d 3b f6 08 af bb
       -0.10244635 -0.11040825 0.003378265 -0.0053416444

encoder_variable_selection.single_variable_grns.time_idx.gate_norm.glu.fc.weight f4 [32, 8]
000000 72 3d 34 3e 77 a8 dc 3e 73 d5 a0 3d 42 2f 2d be
       0.17601565 0.43097278 0.07853212 -0.16912559
000010 af e0 96 3e e7 04 da bd 99 37 c2 3e d5 86 01 3e
       0.29468295 -0.10645466 0.37933043 0.1264909
000020 d8 5b 6e 3d d5 8a 78 3d fa 91 78 3e 2c e2 32 3d
       0.058193058 0.060679276 0.24274436 0.043672726
000030 a3 4e dc be 40 65 cd be 5b a4 8a bd f2 d4 80 be
       -0.43028745 -0.4011631 -0.067696296 -0.25162464
000040 a2 6c d7 bc f7 5a a4 be 8f 72 87 be 35 49 9a be
       -0.026296917 -0.3210065 -0.2645459 -0.30133978
000050 8e e8 35 be 0b d2 19 bd 3e 77 81 bd 0e 8e c3 3c
       -0.17764494 -0.03755383 -0.06321572 0.023871448
000060 0f e6 86 3d 62 30 1d be 33 44 f7 3d 07 84 34 3e
       0.06586849 -0.15350488 0.12073555 0.1762849
000070 36 89 49 bd 62 83 c6 be 4b 04 e9 3e 8c 79 c8 3e
       -0.04920312 -0.38772112 0.45511088 0.39155233
000080 9d 65 d8 3b 53 db 18 bd 90 85 91 3d bf 71 7a bc
       0.00660391 -0.03731854 0.07105553 -0.015285908
000090 04 11 b4 be 13 c7 8f 3c 5b a6 d1 be 5b 3d 8e be
       -0.35169232 0.01755098 -0.40947232 -0.27781186
0000a0 72 ba 7d bd 2a f6 bd be 83 2a bc bd 61 fc c2 bd
       -0.061945386 -0.3710187 -0.09187796 -0.09520794
0000b0 5b e9 96 bd cb 77 bb 3d 62 e6 7a be 1c 07 c9 be
       -0.07368728 0.09153708 -0.24501947 -0.39263237
0000c0 b4 c0 dd be 85 d9 a5 bc e0 81 f6 b9 c2 f3 e4 bd
       -0.43311083 -0.020245323 -0.0004701754 -0.111793056
0000d0 25 a1 24 3e 6b a9 8e be 99 f7 08 be 2d 82 14 3e
       0.16077097 -0.2786363 -0.13375701 0.14502783
0000e0 89 59 03 bf 20 98 00 3e 67 25 02 3e a6 c5 f7 bd
       -0.51308495 0.12558031 0.1270958 -0.12098245
0000f0 2f 4f ac bd a9 9d 43 be 68 d0 a7 be 44 bd 93 be
       -0.084135406 -0.19103111 -0.3277619 -0.28855336
000100 9c e1 5b 3e f3 41 59 be 61 ec 06 3e f5 4b c4 be
       0.21472782 -0.21216564 0.13176109 -0.383392
000110 e0 7e d2 bb ad 98 34 3e 1e 72 56 bd 02 00 04 3f
       -0.006423816 0.17636366 -0.052354924 0.5156251
000120 5b 3a c8 be 42 7b b3 bc a0 15 c4 bd ee ce 0f 3e
       -0.39107022 -0.02190936 -0.09574437 0.14043781
000130 37 0d 51 3e 52 ee cb bd 41 58 08 3d c0 6e 63 be
       0.20415197 -0.09957565 0.03328729 -0.22210217
000140 38 26 91 be 7a df 19 be c7 48 75 be 74 6e 95 bd
       -0.2834947 -0.15026656 -0.23953544 -0.07296458
000150 f9 74 59 be 5a 36 17 3e 65 47 76 3e 2f cc b2 be
       -0.21236028 0.14766827 0.24050672 -0.34921405
000160 28 3f e1 be b5 6d d7 3e c8 af be be e6 6b d5 3d
       -0.43993497 0.42075887 -0.37243485 0.104209706
000170 d3 6d 61 3e 63 57 9b 3e a3 90 95 be 5a 08 b3 bc
       0.22014551 0.30340108 -0.29211912 -0.021854568
000180 86 5d c4 be 3e 3e 02 3d 31 e4 08 be cc 32 19 bd
       -0.38352603 0.03179764 -0.13368298 -0.03740196
000190 15 bb 59 3c 33 b4 a9 3d 79 70 54 3e fc 0e 03 be
       0.013289233 0.082863234 0.2074603 -0.12798685
0001a0 03 ae 8f bd 26 6d 44 bd 22 7b 93 3d 6f 86 b9 be
       -0.07015612 -0.047955655 0.0720122 -0.36235377
0001b0 d7 5c b8 bd 56 77 24 3e 0c a7 84 be de 70 7a 3e
       -0.09002083 0.16061148 -0.25908697 0.24457118
0001c0 34 70 0d be e6 f2 47 3e d8 11 c9 be fe a6 59 3e
       -0.13812333 0.19526252 -0.39271426 0.21255109
0001d0 4c d7 8a be 14 11 e3 bc c8 94 d8 bd 68 db 3a be
       -0.27117383 -0.027718104 -0.10575253 -0.1824776
0001e0 b6 73 8e be 45 45 c4 be da f9 9f 3e a9 51 76 3e
       -0.27822655 -0.38334098 0.3124531 0.24054588
0001f0 28 83 b2 3e 82 58 df bd 1d 65 41 bd 26 ae 19 be
       0.3486569 -0.109055534 -0.04721557 -0.15007839
000200 2b 20 6e be 89 ed a0 3e 96 4d 0e 3c 7a 7b 0b be
       -0.23254459 0.31431225 0.00868549 -0.13621321
000210 8f f4 36 be 57 d8 72 3e 5f 58 98 be 20 65 a4 3e
       -0.17866729 0.2371534 -0.29754922 0.32108402
000220 82 e0 19 bd 00 e2 97 be 16 eb 99 3e a8 1f 61 3e
       -0.037567623 -0.29664612 0.3006217 0.21984732
000230 54 b3 8d 3d 32 d1 8d 3e 3c de 93 be e8 ad d8 3e
       0.0691897 0.27698666 -0.2888049 0.4232018
000240 6d 77 29 bd 1b 21 c7 bd aa 25 13 3e 80 25 c0 3e
       -0.04137366 -0.09723111 0.14369836 0.3752861
000250 84 00 26 3e 9f b5 e8 bd 22 d0 ac bd f4 62 44 3e
       0.16211134 -0.113627665 -0.08438136 0.19178373
000260 7e 7e 39 be aa e9 e9 be 79 7f 8e 3e a1 81 49 be
       -0.18114659 -0.45686084 0.2783163 -0.19678356
000270 3e 6f c1 bb fa 6b c0 3e 43 80 73 be 84 62 ce 3d
       -0.0059031537 0.3758238 -0.23779397 0.10077384
000280 42 c7 65 3e 77 4e 45 3e a9 8a 7f 3e e8 d1 09 3f
       0.22439292 0.19268213 0.24955238 0.53835917
000290 ec d1 97 3e a6 dc e4 be d5 f6 9e 3d 45 3e d6 3e
       0.29652345 -0.4469959 0.07761923 0.41844383
0002a0 8d f2 ed be b0 75 9e 3e 90 40 93 3c bf 9f 1e be
       -0.46474114 0.30949163 0.017975122 -0.15490626
0002b0 6a 74 98 bd ce 48 07 3d d3 09 57 3e 68 50 26 bb
       -0.07444079 0.033028416 0.20999841 -0.0025377516
0002c0 4b 8a 36 3e 82 d5 c0 3d f2 37 b9 bd 72 52 69 3e
       0.17826192 0.094157234 -0.09043874 0.22785357
0002d0 6d ba 83 be ee 1d 31 be 56 f0 16 3e 83 a8 5c 3d
       -0.2572817 -0.17296574 0.14740118 0.053871643
0002e0 02 00 a5 3e ca 53 04 be 64 62 d6 3d 46 42 b5 be
       0.32226568 -0.12922588 0.10467985 -0.35402125
0002f0 77 0a 4a 3e bc 45 11 3e 88 21 1d 3e 7a 27 a6 bd
       0.19730555 0.14186758 0.15344822 -0.08112998
000300 d5 b7 dc 3e ac 55 94 be e7 6b 17 be f2 99 97 bd
       0.43109003 -0.28971612 -0.14787255 -0.074024096
000310 a2 ff eb bb c6 54 c4 bc 37 da a2 be 1a f3 95 be
       -0.0072021047 -0.023966204 -0.3180711 -0.29287034
000320 c8 31 21 3e 87 03 75 3e 43 80 8a 3d 10 66 cf be
       0.15741646 0.23927127 0.06762745 -0.40507555
000330 1f 40 7d be 5e fd 85 3d 19 57 a9 be 36 e5 37 3e
       -0.24731492 0.065424666 -0.33074263 0.17958531
000340 a9 d2 8d 3e 8a c5 a9 be 1a a5 a9 be 7a a3 c8 3d
       0.27699783 -0.33158523 -0.33133775 0.09796806
000350 fa 28 94 be 6d 91 89 bd 8b 9f fa 3e e8 df 22 bc
       -0.28937513 -0.06717191 0.48949847 -0.009941079
000360 7d 17 8b 3e 1f a5 08 3e 15 39 e7 be f5 92 c7 3c
       0.27166358 0.13344239 -0.45160738 0.024362067
000370 d7 86 76 bd 73 d6 ff 3c b5 f4 05 3e f0 8e 08 bc
       -0.060187187 0.031230187 0.1308163 -0.00833486
000380 be 62 50 be 0a ce 06 bd 8b f1 aa be 46 0c 94 be
       -0.20350167 -0.032911338 -0.33387408 -0.28915614
000390 57 b2 c3 3d 2a 3d 8c be 37 d3 b7 bd 17 70 8f bd
       0.095555 -0.27390414 -0.08975833 -0.07003801
0003a0 22 92 17 3e 81 98 b8 3e 9e 67 5c be 18 e0 42 be
       0.14801839 0.3605385 -0.21523902 -0.19030797
0003b0 63 7d b2 be d2 b7 09 3f d3 61 5a be b9 b7 b9 bd
       -0.34861287 0.5379611 -0.2132638 -0.090682454
0003c0 69 d8 9b 3e e9 9f c2 be 38 28 de 3e 69 a4 dc bd
       0.30438545 -0.38012627 0.4339006 -0.10773546
0003d0 ae 04 64 3e 64 2d c7 3e c9 8c ff bc cc 72 30 3c
       0.2226741 0.38901818 -0.031195061 0.010769557
0003e0 38 37 3d 3e 72 1e c2 be c0 69 42 3d 60 51 6f 3e
       0.18478096 -0.37913853 0.047464132 0.23370886
0003f0 57 1a b7 3e 7b e3 48 be d5 ec 85 3e 71 73 0a 3e
       0.35762283 -0.19618027 0.2615725 0.135206

encoder_variable_selection.single_variable_grns.time_idx.gate_norm.glu.fc.bias f4 [32]
000000 d4 f9 97 3d 26 56 9b bd d9 85 87 3d 93 5d b3 3d
       0.07420698 -0.07584791 0.06617326 0.08758082
000010 58 4b 50 bb f5 13 de bd 41 a4 24 bc c4 9b c6 3d
       -0.003178319 -0.1084365 -0.010048927 0.09697679
000020 7b 63 be 3d 3e 92 bf bd 3c f2 00 3d fa b7 15 be
       0.09296318 -0.09354065 0.031481013 -0.14620963
000030 ca 63 80 3d 9f ab 2b 3e 04 8d a0 bd c6 6d 01 3e
       0.06269033 0.16764687 -0.078393966 0.12639531
000040 cd 7c 45 3d 68 f4 80 3d ea 91 f4 bd 85 f9 15 3e
       0.048214722 0.06296617 -0.119418934 0.14645965
000050 4f 48 1e bd 2f 05 2d 3c 42 7c a5 bd 7d bf 06 bd
       -0.038643178 0.010560318 -0.08080341 -0.03289746
000060 11 2f 82 bd 31 34 02 be 1c c0 e7 bd da 2a bf bd
       -0.063566335 -0.12715222 -0.11315939 -0.09334345
000070 d6 f4 0a be ed 42 e2 bd b1 ce 96 3d a9 dc bb 3d
       -0.1356996 -0.11047921 0.07363642 0.09172947

encoder_variable_selection.single_variable_grns.time_idx.gate_norm.add_norm.norm.weight f4 [16]
000000 ce 0d 8c 3f 26 ba 58 3f 1b e9 6d 3f 75 76 94 3f
       1.0941713 0.8465904 0.92933816 1.159865
000010 d5 e2 87 3f f4 2a 85 3f fa 61 88 3f 1e 36 7a 3f
       1.0616099 1.0403733 1.06549 0.97738826
000020 86 7a 72 3f 79 78 58 3f 36 67 57 3f 5a 90 5f 3f
       0.94718206 0.84558827 0.8414186 0.8732964
000030 94 6e 88 3f a4 9a 8a 3f d2 c3 93 3f fb 6c 88 3f
       1.0658746 1.0828443 1.1544135 1.0658258

encoder_variable_selection.single_variable_grns.time_idx.gate_norm.add_norm.norm.bias f4 [16]
000000 f4 1a d1 3d f4 73 7a bd 39 b6 54 3d 23 32 e1 3d
       0.10210219 -0.061145738 0.051931594 0.10995891
000010 d4 3d 14 bb a2 3b e6 bd 84 57 82 bd ad bf a8 3d
       -0.002261986 -0.11241843 -0.063643485 0.08239684
000020 d0 f9 d8 3d 70 cc a6 bd ea 7c 21 3d eb 91 0b be
       0.10594523 -0.08144462 0.039425768 -0.13629882
000030 88 82 91 3d f2 11 d5 3d 63 f1 b9 bd 5a 26 12 3d
       0.07104975 0.104038134 -0.09079244 0.035681106

encoder_variable_selection.single_variable_grns.T2M.resample_norm.mask f4 [16]
000000 dc 1e f0 bd be 37 b4 3d b9 63 89 bc a1 81 02 be
       -0.11724636 0.087996945 -0.016771184 -0.12744762
000010 9a 02 ea 3d 18 8c 03 3e 58 60 a5 bd 5a b8 02 3e
       0.114262775 0.1284641 -0.08075017 0.12765637
000020 61 ec 0a 3e bb 05 b8 3d 75 89 e5 bd a0 e6 b4 3d
       0.13566734 0.08985468 -0.112078585 0.08833051
000030 5a 46 5f bd 72 10 94 3d 47 bf d7 bd 2e 24 df 3d
       -0.05451045 0.07229699 -0.1053453 0.108955726

encoder_variable_selection.single_variable_grns.T2M.resample_norm.norm.weight f4 [16]
000000 83 68 62 3f 80 87 8b 3f 80 c7 8d 3f 03 4e 5d 3f
       0.8844072 1.0900726 1.1076508 0.8644716
000010 92 4a 94 3f 10 ca 8e 3f 1a 12 68 3f 39 62 90 3f
       1.1585257 1.1155415 0.9065262 1.1279975
000020 5c 69 91 3f 40 1d 8c 3f 4c 78 65 3f 70 b8 88 3f
       1.1360278 1.0946426 0.89636683 1.0681286
000030 03 3b 8f 3f 5f 14 8a 3f 1d d6 65 3f a6 e9 8f 3f
       1.1189884 1.0787467 0.89779836 1.1243179

encoder_variable_selection.single_variable_grns.T2M.resample_norm.norm.bias f4 [16]
000000 04 f9 e1 3d d6 43 b6 bd 16 b5 cf 3d 01 2a cc 3d
       0.11033824 -0.088996574 0.10141961 0.09968949
000010 9f 03 b3 3d be 26 04 be 10 58 e5 bd 6e 63 af 3d
       0.08740925 -0.12905404 -0.11198437 0.085638866
000020 26 5e db bd 8d 80 b3 bd de 66 e7 3d 7a a7 ea bd
       -0.10711317 -0.087647535 0.11298917 -0.11457725
000030 e1 63 a6 3d 18 69 a7 3d e1 7d ce bd a3 bc ea 3d
       0.08124519 0.08174342 -0.10082603 0.11461761

encoder_variable_selection.single_variable_grns.T2M.fc1.weight f4 [8, 8]
000000 3d a4 35 3e ce de 36 bf 1f 20 b0 be 48 75 91 3e
       0.17738433 -0.7143372 -0.34399506 0.2840979
000010 76 63 94 3e 6c 30 3c 3e 5a ab 1f 3e 1e e4 a8 3c
       0.28982133 0.18377846 0.15592709 0.020616587
000020 c1 72 b6 be 76 6a 02 bf 44 f7 1c 3f 01 9a 62 be
       -0.35634425 -0.50943696 0.613148 -0.2212906
000030 39 59 9f 3e db e1 89 be c9 a3 81 3c 4b 16 72 3d
       0.3112276 -0.26930127 0.01582517 0.05910329
000040 46 9d 11 3d b8 4a 4c bf b0 6c 8c bf 3a 44 f1 3e
       0.03555038 -0.7980151 -1.0970669 0.47122365
000050 76 c6 0f 3e 5d b8 14 bf 35 d2 8b 3f 62 75 72 bf
       0.1404055 -0.58093816 1.0923525 -0.9471036
000060 3c 11 6c 3e a4 43 a4 be c8 d6 48 be 50 8b 6c be
       0.2305345 -0.32082856 -0.19613183 -0.23100019
000070 f7 c8 ed 3e 07 72 1d 3f 95 8e da be 1d 82 58 3d
       0.46442387 0.61502117 -0.42686906 0.05285846
000080 80 db 08 be 44 38 c2 3e 92 2e 62 3e 27 8d f3 be
       -0.13364983 0.37933552 0.22088078 -0.47568628
000090 de aa b5 3e 35 e6 cf 3e c3 cb e5 bc 7f 0d 2f 3f
       0.35481924 0.40605322 -0.028051263 0.6837997
0000a0 d8 3b 14 bf 12 92 04 3c 7f c6 c9 3b 7f a8 2a be
       -0.57903814 0.0080914665 0.006157696 -0.16665839
0000b0 3d c0 dd 3e 4c 08 ac 3e 47 d4 90 bc 80 0c 40 bd
       0.4331073 0.3360008 -0.017679347 -0.04688692
0000c0 22 ad 84 bd f0 07 43 3e 1a 53 86 3e 31 6e b4 be
       -0.06478335 0.19045997 0.26235276 -0.3524032
0000d0 c3 9f fb be a5 29 8e 3e 77 a4 cb 3e 5d 19 ef be
       -0.49145326 0.27766147 0.39773914 -0.46699038
0000e0 7b 98 17 bf e2 40 4d bf 97 aa f2 bd 2f aa b3 3e
       -0.5921704 -0.8017713 -0.11848944 0.35090777
0000f0 9c 06 0d 3f 37 13 52 3f 11 1b 57 3f 70 b3 b3 bd
       0.5508821 0.8206057 0.84025675 -0.08774459

encoder_variable_selection.single_variable_grns.T2M.fc1.bias f4 [8]
000000 41 99 9d 3d 8e 3e d6 bd 17 f0 28 be 5e 00 c4 bd
       0.076952465 -0.1046115 -0.16497837 -0.095703825
000010 82 15 c5 bd 1a 08 cc 3d 3f e0 a6 bd 04 8e e2 bd
       -0.09623243 0.09962483 -0.0814824 -0.110622436

encoder_variable_selection.single_variable_grns.T2M.fc2.weight f4 [8, 8]
000000 49 3c 32 3d aa fe 11 be 86 39 81 3e 57 ba 2d be
       0.043514524 -0.14257303 0.252392 -0.16965614
000010 d4 22 bc 3e b1 39 45 3f 0a 7a f1 be 8c d3 af 3e
       0.36745322 0.77041155 -0.4716342 0.34341085
000020 1b b5 ad be 00 62 87 3c cc 08 a0 be a5 36 b2 3e
       -0.33927235 0.016526222 -0.3125671 0.34807315
000030 a3 dd 4d 3e 1e 1c c2 be 1a cf 3c 3f d8 3e b2 3c
       0.20104079 -0.37912077 0.7375351 0.021758482
000040 8c 77 11 3d 5d c9 a4 bd 3f 10 af bd 8d 85 2d be
       0.0355144 -0.080462195 -0.085480206 -0.16945477
000050 41 ee 3f bf 8d f3 9a bd 54 6d 3f bf b2 1a bf be
       -0.7497292 -0.07565985 -0.74776196 -0.37325054
000060 06 42 05 3f 04 f7 fa 3b 2b f1 44 be 10 18 13 be
       0.5205387 0.007658841 -0.19232623 -0.14364648
000070 2c b7 a0 3e 8b 03 03 3e 0e 93 b0 3b d7 6f 7c bf
       0.3138975 0.1279432 0.005388624 -0.98608154
000080 2c 37 0b bc 85 6c bd 3e 60 89 88 3a 1a 64 20 bc
       -0.008497041 0.36996856 0.0010416918 -0.009789491
000090 c1 8d f2 3e 21 84 df 3d 25 8f 05 3f e6 0b 8e 3e
       0.47373775 0.109138735 0.52171546 0.27743453
0000a0 6e ae 95 3e 98 19 ee be 98 51 1a be cd eb 34 3f
       0.29234642 -0.465039 -0.15070188 0.70672303
0000b0 da 22 03 be ed c1 27 3f f8 16 88 bf a3 69 27 3e
       -0.12806264 0.6553028 -1.063201 0.16348891
0000c0 f8 3e e9 be 20 57 87 3e 7d a6 84 3d cd 10 10 3e
       -0.45555854 0.2643366 0.064770676 0.14068909
0000d0 09 cd bc bd f4 7d 64 3e 44 73 cb bd 7d 8e ed 3d
       -0.09218795 0.22313672 -0.099340945 0.11599443
0000e0 92 d5 82 bc 0d a5 ed 3d 15 7c 23 3f 4a a6 f8 be
       -0.015970979 0.116037466 0.6386121 -0.48564368
0000f0 ad f7 14 bf ac 63 f6 3c a7 83 14 3f d1 e5 bf bd
       -0.58190423 0.030076824 0.58013386 -0.09370006

encoder_variable_selection.single_variable_grns.T2M.fc2.bias f4 [8]
000000 f7 9f b7 3d f5 90 a3 3d fc e6 fc bd a0 60 d0 3d
       0.08966058 0.07986633 -0.12348744 0.1017468
000010 3b b3 f4 bd 15 69 fc bd ae e3 f6 3d 01 48 98 3d
       -0.11948248 -0.1232473 0.12055145 0.07435609

encoder_variable_selection.single_variable_grns.T2M.gate_norm.glu.fc.weight f4 [32, 8]
000000 82 be 0d 3e 32 a4 4c 3e 40 aa d0 be a2 24 b3 be
       0.13842204 0.1998451 -0.4075489 -0.34988886
000010 84 92 87 3e d9 46 ea bd e9 cc 0c 3e 8f 76 61 3d
       0.2647897 -0.11439294 0.13750042 0.055044707
000020 dd 9d ad be f2 3a ad 3e 95 84 61 be d9 46 a9 3e
       -0.33909503 0.33834034 -0.22023232 0.33061865
000030 11 c2 8a 3e 84 d5 87 3d 7d 2e 9a 3c 60 f4 0c 3e
       0.27101186 0.06632522 0.018820995 0.13765097
000040 55 57 75 3e c1 f7 91 be 98 11 5b 3e b6 3b 58 3e
       0.23959096 -0.28509334 0.2139343 0.21116528
000050 63 4d b5 3e ab 90 32 be 06 8c b7 3b ef 39 95 bd
       0.35410604 -0.17437999 0.005601409 -0.072864406
000060 b0 0b b1 3e 42 f4 a0 be 3d c3 94 be cc cc 9f 3d
       0.3457923 -0.31436354 -0.29055205 0.07802734
000070 36 c8 4f 3e c2 b8 02 be 52 7a b0 bd 20 9a 6a 3e
       0.20291218 -0.12765792 -0.08617081 0.22910357
000080 0d e7 1d 3e 5e 4d 9e bd c4 95 fb bd 5d 7b 6f be
       0.1542017 -0.077296 -0.12284425 -0.23386903
000090 9e 88 74 be 21 14 3f 3e ac bc 8a 3d 71 96 e0 bd
       -0.2388024 0.18660022 0.067742676 -0.109661944
0000a0 61 f9 50 be c0 89 3c 3e cf 20 52 3e 9e 9e 6c 3e
       -0.2040763 0.18411922 0.20520328 0.23107383
0000b0 95 77 57 bc 4e 26 04 3d c1 15 a5 bd 85 6a 4a bc
       -0.013151069 0.032263093 -0.0806079 -0.012354498
0000c0 8f 08 0b bd 54 a6 2a be 5e 3c fa 3e f6 c5 42 3e
       -0.03394371 -0.16665012 0.48874182 0.19020829
0000d0 2a 04 66 3e 06 02 5d 3e 35 2b 08 be 2b fc c2 3e
       0.22462526 0.21582803 -0.13297732 0.38083014
0000e0 b2 86 f3 3e 1c f7 fd be 90 18 20 be 4f 7b 86 be
       0.47563702 -0.49602592 -0.1563437 -0.26265952
0000f0 99 29 1d bd 84 60 ed 3e 58 ab 96 be 88 bb df 3e
       -0.03836975 0.46362698 -0.294276 0.43697762
000100 d0 98 8b bd 16 dc d9 be 18 2f c8 3e fc ea 0e bd
       -0.06816256 -0.42550725 0.3909843 -0.034892067
000110 39 29 a6 bd 4b c4 b6 bd 29 ae fa be d3 de d3 3e
       -0.08113331 -0.08924159 -0.48961 0.4138094
000120 82 ad f0 bd d7 eb 99 be 8b 74 4f be f2 18 bd bd
       -0.11751844 -0.30062744 -0.20259301 -0.092332736
000130 aa 8e a4 be 16 58 ea 3e 18 e0 dc bd 3a d0 db bd
       -0.32140094 0.4577033 -0.1078493 -0.107330754
000140 92 9a 0f 3e 7c 95 88 3c 28 ad cd be 0e 52 1c be
       0.14023808 0.016672842 -0.4017117 -0.15265676
000150 b4 ca 29 be 1f 3e ad bd 66 96 ff bc 90 07 1d ba
       -0.16581231 -0.08459114 -0.031199645 -0.00059902016
000160 21 be 96 be 4b e4 14 3e 14 28 95 3e 76 a2 2a be
       -0.29441932 0.14540212 0.2913214 -0.16663536
000170 02 be 4b 3e 4e 4e 8f be 42 21 69 3e 64 c8 a4 be
       0.19896701 -0.2798943 0.22766593 -0.32184136
000180 1e 25 20 be 9e 18 ef bb 6e ad 3c be f1 93 be 3d
       -0.15639159 -0.007296636 -0.18425533 0.09305561
000190 17 d3 50 3e 85 ca 77 3c b2 a4 b5 bc a8 26 5a 3e
       0.20393024 0.015123968 -0.02217326 0.21303809
0001a0 79 19 ae 3e bc 82 97 3d fe 98 a4 bd 20 59 26 be
       0.3400381 0.073979825 -0.080369934 -0.16244936
0001b0 ae 00 00 3e 92 4b 24 3e 64 68 99 be 6a 7c 81 3d
       0.1250026 0.16044453 -0.29962456 0.06322558
0001c0 6a 20 81 be 8d 03 4f bd d5 f2 ea 3e 5b be 6e bd
       -0.25220042 -0.050540496 0.4588839 -0.058287006
0001d0 c9 c1 88 3e c3 a1 82 3d b0 73 b5 bc ff d2 43 bb
       0.26710346 0.0637851 -0.02214989 -0.0029880402
0001e0 a5 0a 03 3e 06 40 b0 be 31 c5 22 3d 5e 08 64 be
       0.1279703 -0.34423846 0.039738838 -0.22268817
0001f0 20 47 97 bd ea 2b 39 3d a2 75 0d bd 7d ce a2 3e
       -0.07386613 0.045207895 -0.03453601 0.31798163
000200 b7 c2 d7 3e 72 18 d4 bb e8 06 89 be bb 6c 6e be
       0.42140743 -0.0064726407 -0.26763082 -0.23283665
000210 9e b4 1e be 17 e4 e5 bc 58 a6 7a be 83 64 f0 be
       -0.15498587 -0.028062863 -0.24477518 -0.46951684
000220 19 75 2d 3e bb 04 19 be db 9f 30 3d b4 7a eb bd
       0.169392 -0.14943211 0.0431212 -0.11498013
000230 7a b9 38 3e 8c 3f 9a 3e ca 30 99 3d 1a 4b 30 be
       0.18039504 0.30126607 0.07480009 -0.17216149
000240 23 48 be 3d d4 5e f3 3d d1 c4 f5 bd de 49 2f be
       0.09291103 0.118833214 -0.120004304 -0.17118022
000250 26 76 35 3e 3c 1e f4 3e 91 5d b7 3e 78 60 b6 3d
       0.17720851 0.47679317 0.35813573 0.08905119
000260 e6 a3 dd be c8 cd 1a 3e 3a e0 2d be 9c 95 81 be
       -0.43289107 0.15117562 -0.16980067 -0.25309455
000270 a0 c0 6d be 18 0d 26 bc 2e c1 90 3c db e3 42 3e
       -0.23218012 -0.010134958 0.01767024 0.19032232
000280 0f ff 95 3e 57 85 57 be 53 db bc 3d 04 0a 37 be
       0.29296157 -0.21046959 0.0922152 -0.17874914
000290 b9 a9 0b bd c2 49 eb 3e 42 d5 c1 3d 06 c5 fb bb
       -0.034097407 0.4595471 0.09464504 -0.007683399
0002a0 dd da 13 3e 5c 91 82 be bd 42 1c 3e 3a 38 69 bd
       0.14438958 -0.25501525 0.15259834 -0.056938387
0002b0 7e 83 a8 be 82 41 19 bd 0e 81 9f 3e fe a8 6a 3e
       -0.3291282 -0.03741599 0.31153148 0.22916028
0002c0 7b 24 ee bc dc fa aa be 9e a7 c0 3d 60 03 ec bc
       -0.02907013 -0.33394516 0.094069704 -0.028810203
0002d0 eb 33 91 3d 19 9c 96 be 6e 23 0b be bb c0 8e be
       0.07089981 -0.29415968 -0.13587734 -0.27881417
0002e0 22 4f 58 be ac 25 8a 3e 5a 09 df 3d 7c ec 81 bd
       -0.21123937 0.26981866 0.108904555 -0.06343934
0002f0 3c 0e 80 3e 9e 2c fc 3d 22 40 0b 3e d7 4f 0d 3e
       0.2501086 0.123131976 0.13598683 0.13799988
000300 57 9e 63 3c c3 26 af be 7f e1 9f 3e 94 90 06 3e
       0.013892732 -0.3420926 0.31226727 0.1314109
000310 5b e2 a8 be f7 c7 c3 3e a2 5e 95 3e 1a e6 37 3e
       -0.32985196 0.382385 0.29173762 0.1795887
000320 15 90 12 3e 02 3d a7 3e 90 59 7c 3e e3 5b f2 3e
       0.14312775 0.32663733 0.2464354 0.4733573
000330 55 c8 4d 3c b1 f7 e2 be c0 7f 1f be 70 b7 de be
       0.01255997 -0.443296 -0.15576077 -0.43499327
000340 b5 9b c8 3e 6c cf 0e 3d bf cd 3a 3e d6 95 a4 3d
       0.39181295 0.03486578 0.18242548 0.080363914
000350 c0 25 80 3d 68 ef 66 be c4 28 a1 3c a8 70 bb 3d
       0.062572 -0.22552264 0.019672759 0.09152347
000360 9c e0 89 3d 74 ce 4f bd 5c 71 be 3e 1e b4 58 be
       0.06732294 -0.050734 0.3719586 -0.21162459
000370 3d 67 8d be 71 bf 7e 3e 02 0a 8e 3e e1 9b c0 bd
       -0.27617827 0.24877717 0.2774201 -0.094047315
000380 c1 0c a5 3e 0d f3 cf 3d 47 a2 b1 3e 17 98 97 bd
       0.32236293 0.1015378 0.3469412 -0.07402056
000390 a0 46 ad 3d 87 f6 01 be ae e0 9e 3e 4f 09 d3 3d
       0.08460736 -0.12691699 0.31030792 0.1030451
0003a0 44 9f 8a bd 1e bd 6c be 78 48 b9 bc dc ba 81 3e
       -0.06768659 -0.23119017 -0.022617564 0.25337875
0003b0 1f 0b 30 be f2 58 9a bd fc 04 c7 be 2b c5 a0 3e
       -0.17191742 -0.07536496 -0.3887099 0.31400427
0003c0 c4 84 8b be 46 43 9b bd 20 ce 3f be e6 b9 48 3e
       -0.2724973 -0.07581191 -0.18730974 0.19602165
0003d0 70 8d 33 bd b4 35 2d 3d b6 69 b4 bd 79 5f 29 3d
       -0.043836057 0.042287543 -0.08809225 0.041350815
0003e0 34 fa a4 3e e6 1b f6 be 76 4f 49 3e 9d ea 84 be
       0.3222214 -0.4806816 0.19659218 -0.25960246
0003f0 82 92 7c 3c 2f fe 19 be ab bd 32 be a1 75 a3 3e
       0.01541579 -0.1503837 -0.17455165 0.3192568

encoder_variable_selection.single_variable_grns.T2M.gate_norm.glu.fc.bias f4 [32]
000000 23 9a e1 3d cd 8d bb bd d2 52 d5 3d 57 0d d3 3d
       0.11015727 -0.09157906 0.10416187 0.10305279
000010 c6 8f 89 3d 58 af 03 be bc 90 ec bd 4d 50 a3 3d
       0.06716876 -0.12859857 -0.115510434 0.079743005
000020 9e 7d ae 3d ed 07 b2 bd b2 ce e9 3d d4 ae e2 bd
       0.08520053 -0.08692918 0.11416377 -0.11068502
000030 c2 66 aa 3d 7c 29 8a 3d de c7 d1 bd 22 2e f0 3d
       0.08320381 0.06746194 -0.102432 0.11727549
000040 75 d1 e7 3d fc f0 cd bd c5 67 f4 bd 32 58 bc bd
       0.11319248 -0.1005573 -0.11933855 -0.091965094
000050 f4 b0 01 be eb 45 cc 3d 87 97 36 3e 4e 79 f4 3d
       -0.12665159 0.09974273 0.1783124 0.119371995
000060 06 c8 15 bd 4f 0f c3 bd 4b 04 1c be 86 b9 01 be
       -0.03656771 -0.09524404 -0.15236013 -0.12668428
000070 e1 60 0e be 08 e6 2a 3d 1f 38 fe bd 2c 26 a4 3d
       -0.13904144 0.04172328 -0.12413048 0.08015093

encoder_variable_selection.single_variable_grns.T2M.gate_norm.add_norm.norm.weight f4 [16]
000000 35 f1 62 3f 5b e9 8b 3f e9 d2 7b 3f ee fa 64 3f
       0.886493 1.093059 0.983687 0.8944539
000010 46 ad 6d 3f 00 c5 90 3f 0e e1 6b 3f b6 f9 91 3f
       0.9284252 1.131012 0.9214028 1.1404331
000020 8f 3d 93 3f 5f c9 8a 3f 1b 6c 63 3f 8b 57 79 3f
       1.1503161 1.0842704 0.8883683 0.97399205
000030 40 4d 87 3f aa 19 88 3f 07 cb 64 3f ff b3 73 3f
       1.057045 1.0632832 0.89372295 0.9519653

encoder_variable_selection.single_variable_grns.T2M.gate_norm.add_norm.norm.bias f4 [16]
000000 0e 36 e0 3d 09 f0 bd bd 93 4b bd 3d 5c 90 b8 3d
       0.1094781 -0.09274299 0.0924293 0.09011909
000010 24 d3 a4 3d 2d ae 05 be e9 57 c3 bd 38 aa b1 3d
       0.080480844 -0.13054724 -0.09538252 0.08675045
000020 50 11 8a 3d d6 99 aa bd ac 64 e4 3d 52 b9 04 be
       0.06741583 -0.08330123 0.11152014 -0.12961319
000030 a1 81 a3 3d 00 a1 af 3d d6 2a c5 bd 82 b6 3e bd
       0.07983709 0.0857563 -0.09627311 -0.04656077
