ai_predict/ai/lightning_logs/version_56/checkpoints/epoch=9-step=80.ckpt (torch, 662004 bytes, 889 tensors)

prescalers.time_idx.weight f4 [8, 1]
00000000: e79c 35be ea64 bbbe 6b12 8c3d 9ed4 663d
00000010: 4d78 49bc 4966 5bbf d1dd f6bd a001 04bf
-0.17735635 -0.3660043 0.068394504 0.05635511 -0.012296748 -0.8570295 -0.12054027 -0.5156498

prescalers.time_idx.bias f4 [8]
00000000: e408 febe 6e3b 8f3e 876a 743e 98b6 0cbe
00000010: de55 463e 574d 2fbf f68f 873e 3338 133f
-0.49616158 0.2797503 0.23868762 -0.13741529 0.19368693 -0.68477386 0.2647702 0.5750763

prescalers.T2M.weight f4 [8, 1]
00000000: 142a 803f 024c 38bf db64 4fbf 9fa0 35bf
00000010: 0db0 9dbe c2a1 72bd 0ba6 293e 9f6c e8be
1.0012841 -0.7199098 -0.8101327 -0.70948213 -0.3079838 -0.059236296 0.16567247 -0.4539537

prescalers.T2M.bias f4 [8]
00000000: 446d cc3e 2305 07bf e407 3ebf 57e3 613f
00000010: 98c5 b33e f127 28bf c68e aebc adad 99be
0.39927113 -0.52742213 -0.7423079 0.8823752 0.3511169 -0.65685946 -0.021308314 -0.30015317

prescalers.T2M_MAX.weight f4 [8, 1]
00000000: fa4f 49be 63e5 8ebd f10f b3be d536 723d
00000010: ae9d 233e fd07 e5bd 0bc4 a9bd f029 59bf
-0.19659415 -0.06977346 -0.349731 0.059134323 0.15978119 -0.11183164 -0.08289345 -0.84829617

prescalers.T2M_MAX.bias f4 [8]
00000000: 9c5c 8bbf 4cbd acbd 485c 98bc 87f7 4dbf
00000010: 4b92 ed3e 13e0 22bf 25b5 543e 5f2e 4abf
-1.0887637 -0.08434543 -0.01859869 -0.8045582 0.46400675 -0.6362316 0.20772226 -0.78977007

prescalers.T2M_MIN.weight f4 [8, 1]
00000000: 4af8 433f 6d87 8f3e ee15 7c3f 71e6 a63e
00000010: c108 54be f678 48be 442d 4cbf fa5e b9bd
0.76550734 0.2803301 0.9847096 0.32597688 -0.20706464 -0.19577393 -0.7975657 -0.090513185

prescalers.T2M_MIN.bias f4 [8]
00000000: affa 833f 45e1 4fbf 8164 973e c7b5 dc3e
00000010: fa6e 613e 4f62 f2bd de8d 63bf d0a5 173e
1.0310878 -0.8120311 0.29568866 0.43107435 0.2201499 -0.11835157 -0.8888835 0.14809346

prescalers.PRECTOTCORR.weight f4 [8, 1]
00000000: 14c6 d4be 5498 ae3e 2825 39bd cdbe 3abf
00000010: f268 113f ee1c 803f 2027 b7be e1e3 75be
-0.41557372 0.34100592 -0.04520145 -0.7294739 0.5680076 1.0008829 -0.35772038 -0.2401271

prescalers.PRECTOTCORR.bias f4 [8]
00000000: b909 4b3f 5082 413e c30a 923f fc7b 8f3f
00000010: a962 70bd b8f7 383f 2a59 7a3e 837e 2dbf
0.7931171 0.18897367 1.1409534 1.1209712 -0.05868784 0.7225299 0.24448076 -0.67771167

prescalers.RH2M.weight f4 [8, 1]
00000000: ae39 5c3e 2ed6 223f 6c77 d83e fff0 d9be
00000010: 6579 80bf d94c 04be e4d2 113f c9bd 1f3c
0.21506378 0.6360806 0.42278612 -0.42566678 -1.0037047 -0.1291994 0.5696242 0.009749838

prescalers.RH2M.bias f4 [8]
00000000: 5ab6 82bf 864d 1fbf 0c90 4a3f 7255 ecbe
00000010: e934 0dbe bff1 ab3e 446d 76bf 9f6b 0e3e
-1.0211899 -0.62227666 0.7912605 -0.4615894 -0.13789715 0.33582875 -0.96260476 0.13908242

prescalers.ALLSKY_SFC_SW_DWN.weight f4 [8, 1]
00000000: 8ca4 94bf 9b9f 783f 5ed8 26bf 76df 17bf
00000010: 92b1 3e3f 0043 6dbe cccc 82bf b5a0 123f
-1.1612716 0.9711854 -0.651739 -0.5932535 0.744897 -0.2317009 -1.0218749 0.5727647

prescalers.ALLSKY_SFC_SW_DWN.bias f4 [8]
00000000: 535d 1c3f e7e9 783d 4113 e13e e019 f23c
00000010: 6cd4 2a3f 7836 87be d340 8ebf 396f 3c3f
0.610799 0.06076994 0.43960002 0.029553354 0.6673038 -0.26408744 -1.1113533 0.7360721

prescalers.numero_casos.weight f4 [8, 1]
00000000: ed1d 8d3f 3f0e 99be 34dd efbe 54f3 773f
00000010: 5d75 06be f8bd 52bd 1ebd 6abf 4761 a33e
1.1024758 -0.2989368 -0.46848452 0.96855664 -0.13130708 -0.0514507 -0.9169482 0.31910154

prescalers.numero_casos.bias f4 [8]
00000000: 7782 84bf 5085 33bf 1e35 4a3e 4b18 eb3d
00000010: 6409 25bf 8f3f 09be 34e9 f53d 7c29 a5be
-1.0352315 -0.70125294 0.19746825 0.11479243 -0.64467454 -0.13403152 0.120073706 -0.32258213

static_variable_selection.single_variable_grns.municipio.mask f4 [16]
00000000: 9df2 343e 9df2 34be 9df2 34be 9df2 34be
00000010: 9df2 34be 9df2 343e 9df2 343e 9df2 343e
00000020: 9ef2 343e 9df2 34be 9df2 343e 9df2 34be
00000030: 9df2 343e 9df2 34be 9df2 34be 9df2 343e
0.17670675 -0.17670675 -0.17670675 -0.17670675 -0.17670675 0.17670675 0.17670675 0.17670675
0.17670676 -0.17670675 0.17670675 -0.17670675 0.17670675 -0.17670675 -0.17670675 0.17670675

static_variable_selection.single_variable_grns.municipio.norm.weight f4 [16]
00000000: 0000 803f 0000 803f 0000 803f 0000 803f
00000010: 0000 803f 0000 803f 0000 803f 0000 803f
00000020: 0000 803f 0000 803f 0000 803f 0000 803f
00000030: 0000 803f 0000 803f 0000 803f 0000 803f
1.0 1.0 1.0 1.0 1.0 1.0 1.0 1.0
1.0 1.0 1.0 1.0 1.0 1.0 1.0 1.0

static_variable_selection.single_variable_grns.municipio.norm.bias f4 [16]
00000000: 9df2 34be 9df2 343e 9df2 343e 9df2 343e
00000010: 9df2 343e 9df2 34be 9df2 34be 9df2 34be
00000020: 9df2 34be 9df2 343e 9df2 34be 9df2 343e
00000030: 9df2 34be 9df2 34be 9df2 34be 9df2 34be
-0.17670675 0.17670675 0.17670675 0.17670675 0.17670675 -0.17670675 -0.17670675 -0.17670675
-0.17670675 0.17670675 -0.17670675 0.17670675 -0.17670675 -0.17670675 -0.17670675 -0.17670675

encoder_variable_selection.flattened_grn.resample_norm.mask f4 [8]
00000000: 4bf2 34be fff1 343e 2af2 343e b1e6 34be
00000010: 32f2 34be d0f0 343e c8f1 343e efde 34be
-0.17670552 0.17670439 0.17670503 -0.17666127 -0.17670515 0.17669988 0.17670357 -0.17663167

encoder_variable_selection.flattened_grn.resample_norm.norm.weight f4 [8]
00000000: 69c3 523f 1f9e 963f 4c9e 963f 91c3 523f
00000010: 5ec3 523f fbc3 523f 9fc4 523f 86c3 523f
0.8232942 1.1767005 1.1767058 0.8232966 0.82329357 0.8233029 0.8233127 0.82329595

encoder_variable_selection.flattened_grn.resample_norm.norm.bias f4 [8]
00000000: 75f2 343e 35f2 34be 58f2 343e 7af1 34be
00000010: 81f2 34be 32f2 343e 64ec 343e 94ee 34be
0.17670615 -0.1767052 0.17670572 -0.17670241 -0.17670633 0.17670515 0.17668301 -0.17669135

encoder_variable_selection.flattened_grn.fc1.weight f4 [8, 64]
00000000: 1c0a c23e b4ad af3d d0ba 28bd 91c4 553e
00000010: ddc1 ddbe 937f 0e3e 6c1d 82be 7a52 a8be
00000020: 3571 a4be 78b3 2c3e 7421 533e e95f 083e
00000030: 18dc 27be aa84 763e 668f 29be 25e0 373e
00000040: 97ce b23e 26a5 d73e d724 313e f1ba 113e
00000050: a65b 90be 79b0 793d bead 8cbe f10f 183e
00000060: 439a 58bd a777 a73e 1c90 ca3a 5e03 1ebe
00000070: 58cf 93be e822 22be c962 473c 8ccd be3d
00000080: 851f 58bd 87c2 eebc b76a 13be 4d02 f1bd
00000090: 2769 9abd ae16 36be 4b30 d1be 9657 34be
000000a0: ced5 e33e 2162 e83e c472 a2be 5e3c cb3e
000000b0: ed83 c5bd 27b2 c7be 2f43 673e 5781 953d
000000c0: fefd 88be 55b6 813e 2b2c e6bd 5461 9c3e
000000d0: 8fff 0ebe 0259 1f3e 57c0 563e ac46 b4be
000000e0: d9d1 b9bd 8c82 063f f188 78bb c491 58be
000000f0: 377a a33d 2cbd 8cbe cea5 0fbe c7fb 2a3e
00000100: e45d f73b c4a6 1dbe 73ef 87be 4855 2bbe
00000110: 1b8a 463e b479 e3be 32a7 463e ff17 9b3e
00000120: 9429 373e 9e6e a5bd 2cf3 bbbe b665 133f
00000130: 2428 ed3d 6515 2bbe ad78 8abc 4d3d 9bbe
00000140: 112b b43d 25dc f53d 7f83 1bbe 0b35 8ebe
00000150: 7275 e93d 5848 11be 3fa9 f13e 3397 5abe
00000160: efd5 943d 17b7 36be a71d 233e a03a 563e
00000170: ffd0 a7bd c0e8 d1bd 666f bebe 43e4 863e
00000180: 3a18 353e 5466 293e 5bc7 c43e 3f8b 8d3e
00000190: e6f4 ec3e 4896 f13e 1610 12bf d330 a4be
000001a0: 9754 28be a2ba 57be 1e72 4f3e 6678 203e
000001b0: 61cb 163e 2de2 523d 98a4 e5bd f24a 21be
000001c0: 7a9a 823e f652 c83e 1dac d53e 193a abbe
000001d0: eb2a 273e 0e44 a5be 0804 8abe 4e78 c03e
000001e0: 8f06 29be 4599 c53e 76bd ff3e 835b d23e
000001f0: 44eb 82be fe5b 673e 887b ae3e 70d0 53be
00000200: bc96 19bf 29fb 433e 3785 243e 9838 b5bb
00000210: cec9 093f 2101 dabd 2dc0 963e ad0c a93e
00000220: 535b ae3e a821 54be 2cd3 29be faf9 523e
00000230: 1875 d83d 1557 06bf 86af 173e 9435 b0be
00000240: 6ba7 a3be ef53 dfbe 5aa6 49be e593 a0be
00000250: 20bc 5f3e b07f cebe 6f97 48bd a9e2 6ebe
00000260: b557 68bd 2e2a 12be 3802 1cbd 0620 023e
00000270: b18e 503e c817 3abe abb8 d8be 00a5 5fbd
00000280: 2142 973d b137 b23e f40b 123d 5ad8 743e
00000290: a58c f93d c8d1 303e 12f4 223e 03fd 9e3c
000002a0: c89b 7fbd 35c1 8dbe 8143 d23d 6534 883e
000002b0: 62bc 9f3e 4fba 07be 4d07 acbd 951e a23d
000002c0: 7532 c7bc 1dfe e13e a94e 8a3e ebd8 1abe
000002d0: a4da 033e 1838 72bc ebab 21be 14ea b33e
000002e0: c398 99be a587 f4be 7513 43bc a1b4 03be
000002f0: bc4b 96be 26f2 953e 5f44 0a3e 8bdb 973d
00000300: c5f0 f6bd 72db 80be cef2 973e 6cc4 823e
00000310: 647d bbbd 1c99 d93d bdf0 bcbe 091f b33e
00000320: c098 8dbe d494 d93d 3eb7 c03e a4c3 08bd
00000330: 80b5 90be 5c7b 333e 1fa4 9cbe 9135 90be
00000340: 3311 393e e5b9 c53e 6594 97be 9739 2c3e
00000350: 39f7 19be 1f01 aa3d 3db5 a33e 9d30 8dbe
00000360: deb6 48be 0cd7 a43c dc24 83be 9cd1 8fbe
00000370: 2304 05bf 21e2 233d 7278 aa3d 532c d0be
00000380: 8099 bebe 6da1 8f3e 0ce0 54be 23f3 40bc
00000390: 5a48 1f3e 9518 40be b1e8 c2be 3188 133e
000003a0: 4e00 113e 4365 69be be1b 61be 2eb7 ad3e
000003b0: 294b 1ebd 3f22 363e 77c4 37be a5ea 2ebe
000003c0: c7c0 c73e 39d6 bdbd fc5a 273f 0804 5d3e
000003d0: 2213 99be 7e7e 83be 7e0d a9bd 8ff1 69be
000003e0: 5726 b9be fb79 2d3e c8af 7b3e 68e4 2fbe
000003f0: a653 cf3e 3729 4d3e 0a28 7b3e 9cca 9d3e
0.37898338 0.08578053 -0.041193783 0.20875765 -0.43311968 0.13915853 -0.25413072 -0.32875425
-0.3211762 0.16865337 0.2061823 0.13317837 -0.16392553 0.24074045 -0.16558608 0.17956598
0.3492324 0.42118186 0.1729921 0.14231469 -0.28194922 0.060959313 -0.27476305 0.14849831
-0.05288149 0.32708475 0.0015454325 -0.15430972 -0.28869128 -0.15833628 0.012169548 0.09316549
-0.052764434 -0.029145492 -0.14396177 -0.11768017 -0.075395875 -0.17782089 -0.40857157 -0.17611536
0.44499058 0.45387366 -0.31728184 0.39694494 -0.096443035 -0.39003107 0.22584222 0.0730006
-0.2675628 0.2533442 -0.11238893 0.30543005 -0.13964675 0.15561298 0.2097181 -0.35210168
-0.090732284 0.5254295 -0.003792342 -0.21149355 0.07982295 -0.27488077 -0.14028093 0.16697608
0.0075490344 -0.15395647 -0.26549873 -0.16731751 0.1938862 -0.4442879 0.19399717 0.30291745
0.17886955 -0.08077739 -0.36708963 0.57577074 0.11579922 -0.1670738 -0.016903246 -0.30320206
0.08797277 0.1200488 -0.1518688 -0.27774844 0.11399354 -0.14187753 0.47199437 -0.2134674
0.07267367 -0.1784328 0.1592928 0.20920801 -0.0819416 -0.10249472 -0.37194365 0.26346025
0.17685023 0.16542941 0.38433346 0.276453 0.46280593 0.47184968 -0.57055795 -0.320685
-0.16438518 -0.21067289 0.20258376 0.15670928 0.1472602 0.05148523 -0.112130344 -0.15751246
0.2550848 0.39125794 0.41732875 -0.33442762 0.16324966 -0.32278484 -0.269562 0.37591785
-0.16506408 0.38593498 0.49949235 0.41085443 -0.25570118 0.22593686 0.34078622 -0.20684981
-0.5999563 0.19138779 0.16066442 -0.005530428 0.53823555 -0.106447466 0.29443493 0.33017483
0.3405405 -0.20715964 -0.16584462 0.20603171 0.10569209 -0.52476627 0.1481305 -0.34415877
-0.31963667 -0.43618724 -0.19692364 -0.31362835 0.21849108 -0.40331793 -0.048972543 -0.23328651
-0.05672427 -0.14273903 -0.038088053 0.12707528 0.20366932 -0.18173134 -0.4232839 -0.054600716
0.0738566 0.34808114 0.03565593 0.23910657 0.12185029 0.17267525 0.15913418 0.019407755
-0.062404424 -0.27686468 0.102667816 0.26602474 0.31198412 -0.13254665 -0.0839983 0.07915989
-0.024316052 0.44139186 0.27013138 -0.1512181 0.12876374 -0.014783882 -0.15788238 0.35139525
-0.2999936 -0.4775974 -0.011906494 -0.12861873 -0.29354656 0.29286307 0.13502644 0.074149214
-0.12057642 -0.25167423 0.29677433 0.25540483 -0.09154776 0.106249064 -0.3690242 0.34984615
-0.27655602 0.1062409 0.37639803 -0.033389702 -0.28263474 0.17527527 -0.30593964 -0.28165868
0.18072967 0.3861839 -0.29605404 0.16818844 -0.15035714 0.08300995 0.3197421 -0.27576151
-0.19601008 0.020122074 -0.2561406 -0.28089607 -0.5195944 0.040010575 0.08323754 -0.40658817
-0.37226486 0.28052846 -0.20788592 -0.011776718 0.15554944 -0.18759377 -0.38068154 0.14407422
0.14160272 -0.22792535 -0.21983239 0.33928818 -0.038645897 0.17786501 -0.17946039 -0.17081697
0.39014265 -0.09269375 0.65373206 0.21583569 -0.2989741 -0.25682443 -0.082545266 -0.22846054
-0.36162063 0.16941063 0.24578774 -0.17176974 0.40493506 0.20035253 0.24526992 0.3081864

encoder_variable_selection.flattened_grn.fc1.bias f4 [8]
00000000: 31f0 34be c0f1 343e 58f2 343e d6ec 34be
00000010: 2df2 343e 6ff1 34be baf1 34be 78f2 343e
-0.17669751 0.17670345 0.17670572 -0.1766847 0.17670508 -0.17670225 -0.17670336 0.1767062

encoder_variable_selection.flattened_grn.context.weight f4 [8, 16]
00000000: d0f1 1d3d 4207 b03e 4027 713c b49f d7be
00000010: 8a68 ab3e 5408 7ebe e8bf c7bd bc7c 8ebe
00000020: d82c b6be b45d 51be 60da 84bc e06c 283e
00000030: 068a fabe b07b b1bd c469 fa3e a0a2 b63d
00000040: 2a1f c2be 0418 d53e d4c3 af3e 7235 c8be
00000050: 004e 5a3d 620f c43e 0072 1ebe 00df 673d
00000060: 94ee 73be 40be 473d 0880 c1be 9cdd 16be
00000070: d849 90bd 1846 1fbe 205b e33c f036 d53e
00000080: f80d b73d 6a67 a43e 20a9 a0be 9827 c83d
00000090: e67b 853e 9a96 e9be 0636 bebe 401d 72bc
000000a0: 2cab 77be d84f 74be 3610 e93e fa6f b1be
000000b0: 78f4 823d bc7f 5e3e 34a3 eebe 400a 483c
000000c0: 5c0a d8be c037 ae3e f8d3 a7be 268d aebe
000000d0: 622d 90be e878 0abe b42d 75be 300f f4bd
000000e0: 5024 a83d 803b edbe c0a6 ad3c a28e 94be
000000f0: ecf8 c23e 2425 09be 707c efbd 4a19 d43e
00000100: 50cf 08bd e8f6 4cbe 9ab6 973e e279 e8be
00000110: 9ca9 a8be 9890 c4be a83c 92be 7041 ee3e
00000120: ac49 cbbe 18eb 89be 04f1 ac3e f4de 4f3e
00000130: 7479 433e 4c88 0a3e 60bb 2b3e 2a61 dabe
00000140: 208c 3abd a847 cebd b447 df3e 8e3d bcbe
00000150: 4241 d43e 1840 ed3d e09c 85bd 2889 3ebe
00000160: b002 f5bd c420 033e d60d b9be ae16 963e
00000170: e09a 6c3e 06bb db3e f874 c5be ec98 943e
00000180: 7ac3 a5be 1cad 14be f61b fa3e 1064 bb3d
00000190: 8035 2c3d 3837 c83e d22e b13e c416 993e
000001a0: 50be c0bd 02e6 8c3e 78bf 84be 80e6 943e
000001b0: 98fe 51be 549c b53e 1891 3a3e ee99 eabe
000001c0: 78bc eebd 30ab f53e b247 ae3e e017 57bd
000001d0: b2e7 d63e 70f7 303e e4d7 843e 4ad1 86be
000001e0: e4a7 cc3e 980b 223e 305f 123d ea83 843e
000001f0: 38fd 5b3e 0032 d9bd 380a d63e 18ca 8b3e
0.03856069 0.34380537 0.014718831 -0.4211403 0.33478194 -0.24807864 -0.097534 -0.2782954
-0.35581088 -0.20445901 -0.01621741 0.16447783 -0.4893343 -0.0866617 0.48908818 0.08917737
-0.379144 0.41619885 0.34329093 -0.39103276 0.053297043 0.38292986 -0.15473175 0.056609154
-0.23821479 0.04876542 -0.37792993 -0.14732975 -0.070453346 -0.15554082 0.027753413 0.41643476
0.08938211 0.3211015 -0.31379032 0.09773177 0.2607109 -0.45622712 -0.37150592 -0.014777482
-0.2418639 -0.23858583 0.4552018 -0.34655744 0.06394285 0.21728414 -0.4660889 0.012209475
-0.42195404 0.3402691 -0.32778907 -0.34092063 -0.28159624 -0.13522685 -0.23943216 -0.11916959
0.08210051 -0.46334457 0.021197677 -0.2901507 0.38080537 -0.13393074 -0.116936564 0.41425544
-0.033400834 -0.20016062 0.296315 -0.4540549 -0.32941902 -0.38391566 -0.28561902 0.465343
-0.39704645 -0.26937175 0.3377763 0.20299894 0.190893 0.13528556 0.16770697 -0.42652255
-0.04554379 -0.10072261 0.43609393 -0.36765712 0.41456038 0.115844905 -0.06524062 -0.18607008
-0.11963403 0.12805468 -0.36143368 0.29314178 0.23105955 0.42916125 -0.38565803 0.2902292
-0.323757 -0.14519161 0.48849458 0.09149945 0.04204321 0.3910463 0.34606034 0.2990018
-0.09411299 0.27519232 -0.2592733 0.29082108 -0.20507276 0.3547083 0.18219411 -0.45820564
-0.11657041 0.47982168 0.34039074 -0.052513003 0.41973644 0.1728189 0.2594596 -0.2633155
0.3997184 0.15824735 0.03573531 0.25881892 0.21483314 -0.1060524 0.4180467 0.27302623

encoder_variable_selection.flattened_grn.fc2.weight f4 [8, 8]
00000000: d22b 143c dff8 fd3e 00fa d8be f8fc 05bf
00000010: aad4 91be 83d6 93be b072 653f 3b76 acbe
00000020: ab96 aa3e 0ab6 763c e0d4 85bf 27d7 cf3d
00000030: a584 873f ce2f 3dbb a66a e03e 0df9 f8be
00000040: f8f3 903e e58e 453f 64ab 143f 4ddf 07bd
00000050: 0a4c bb3e 9f57 20bf d810 a2be c8d0 953f
00000060: d991 803f e349 2cbf a75a 00bf c0be e3be
00000070: e9f9 1f3e 39fc ddbe 4a49 523f f086 41bf
00000080: b9c3 75bd f996 403e 05bc 863f 5b98 403d
00000090: d224 663e ae9d 0b3f 5ab6 b8be dd17 923e
000000a0: b5d2 dcbe 917f 54be 158c 7f3e a3ce a23e
000000b0: 477a 9c3e 7333 8d3f d8fe f5be 316a 093f
000000c0: 8dba 4c3d 5515 1d3e 194c fd3e 8eb6 2c3f
000000d0: d1cd b2bb 63f8 26bf b897 a23d c74b c63d
000000e0: a44f d6be 4e76 773e d4cb d0be 5aa9 14be
000000f0: 63c9 273e 5f65 123f bfa1 893e 29f4 86bf
0.009043651 0.49603936 -0.42378235 -0.52339125 -0.28482562 -0.28874597 0.89628124 -0.33683953
0.33318076 0.01505805 -1.0455589 0.10148459 1.0587355 -0.0028867605 0.43831366 -0.4862751
0.28311133 0.77171165 0.5807402 -0.03317194 0.3658145 -0.626337 -0.31653476 1.170434
1.0044509 -0.6730024 -0.50138324 -0.44481468 0.15622677 -0.43356493 0.8214308 -0.75596523
-0.06000111 0.18807591 1.0526129 0.047020297 0.22474983 0.54537475 -0.36076623 0.2853383
-0.43129507 -0.20751788 0.24955781 0.31798276 0.3056204 1.1031326 -0.48045993 0.5367766
0.049982596 0.15340169 0.4947212 0.67466056 -0.005456664 -0.6522276 0.07939094 0.09682422
-0.41857636 0.24166223 -0.4078051 -0.14517727 0.16385417 0.5718593 0.26881215 -1.0543262

encoder_variable_selection.flattened_grn.fc2.bias f4 [8]
00000000: 16f2 34be d9f1 34be 5df2 343e 4ff2 34be
00000010: c8f0 34be 28f2 343e 3df1 34be 5f65 34be
-0.17670473 -0.17670383 0.17670579 -0.17670558 -0.17669976 0.176705 -0.1767015 -0.17616795

encoder_variable_selection.flattened_grn.gate_norm.glu.fc.weight f4 [16, 8]
00000000: df32 2abf 6f33 24bf 09c4 133f a688 23bf
00000010: 9ea8 af3c 05a0 b13e 675d eebc 9083 90be
00000020: 9a8c cf3e 4d4a 53be 8b83 773e c8fe a0be
00000030: fc6e 9a3e 6a50 9d3c 3c68 16bc 2446 28bf
00000040: 94cb b8be 85fa eb3e b7a8 f9be 33ae b8be
00000050: c867 033e da0c 193f b322 5bbe 7d5a fc3c
00000060: 0b22 f53e 3429 683e 5725 a6be 1e9f c63d
00000070: 6344 0abf 96d1 2abf 16d4 3f3e d322 5bbd
00000080: 43da 1c3e 0c40 2a3e 0b9a 1cbf 2658 85be
00000090: bfd7 9fbe e946 e5be b423 8bbe 83ac edbd
000000a0: b5e9 1b3e 9314 b43e 5a13 1f3f 3586 7abe
000000b0: 26ba 683e 0f10 30be 95b1 2abb b2e9 2bbd
000000c0: 820e 9cbe 56b4 6c3e 8f96 053f b430 15bf
000000d0: a8c8 d03e 9594 9ebd 03a8 ae3e a7f3 22be
000000e0: 82b5 d33e 5511 52be 23c8 1b3e 7af8 1c3f
000000f0: b525 abbe 77b9 d4be 8d4e 933e 089c d03d
00000100: 3021 5d3e 25b4 8ebe b582 153f 3922 f7be
00000110: 6d45 253e 323a 19be 3495 143f e838 5bbe
00000120: 2d9c 1fbd 78e1 9fbe 0e77 4cbe e938 2a3f
00000130: cfaa 73be deee 0bbf 6e67 f8be b003 3a3d
00000140: d839 213e bf8c 943c 3ef6 713d ca24 0abf
00000150: dff1 abbc 2859 443e fd9e e2be a7d6 e4bd
00000160: 653b 55be 2bba ecbe 68c7 4b3e bf73 0ebf
00000170: 3a67 28be cd65 513e a8a7 593d 28c2 12be
00000180: edbe 883d 6115 20be 0e02 abbe 3c12 e53e
00000190: ec50 fbbe 2273 80bc c100 d2be 0e70 5fbe
000001a0: 7d8c a2be 497c 69bd c15e 9f3d 9854 93be
000001b0: f56b 13be 9611 ed3e 590a 12bf 10b5 d43e
000001c0: 12fc e4bd e864 423e 0643 923e 4685 04bf
000001d0: cea2 c23d 0577 e7bd f6cc f53e ba7a 03bf
000001e0: 8d47 3a3e 254c d3bc 45bf 1c3f a442 2ebe
000001f0: 6f9c 3e3e 1409 93be d3a3 ca3e 61fd b5be
-0.66483873 -0.6414098 0.57721 -0.63880384 0.021442708 0.34692398 -0.029097272 -0.28225374
0.40536958 -0.20633812 0.24171273 -0.31444383 0.301628 0.019203383 -0.009180125 -0.65732026
-0.36092818 0.4608957 -0.48761532 -0.36070403 0.12832558 0.59785235 -0.21399955 0.030804867
0.47877535 0.22671968 -0.32450363 0.09698318 -0.540106 -0.6672605 0.18733248 -0.053500008
0.15317635 0.16625994 -0.6117255 -0.26043814 -0.3121929 -0.44780663 -0.27175677 -0.116051696
0.15225871 0.35171947 0.62138903 -0.24465258 0.2272726 -0.17193626 -0.0026045789 -0.041970916
-0.3047982 0.23115668 0.5218286 -0.5827744 0.4077809 -0.077431835 0.34112558 -0.15913258
0.41349417 -0.20514424 0.15213065 0.61316645 -0.33427206 -0.41547748 0.28770867 0.101860106
0.21594691 -0.27871814 0.5840257 -0.48268297 0.16139765 -0.14963606 0.58040166 -0.21408427
-0.0389673 -0.31226707 -0.19967291 0.6649309 -0.23795627 -0.5466136 -0.4851641 0.045413673
0.15744722 0.01813352 0.059072725 -0.53962386 -0.020989357 0.19174635 -0.44261923 -0.11173754
-0.20823438 -0.46235785 0.19900286 -0.55645365 -0.16445628 0.2044899 0.053138405 -0.14331877
0.06677041 -0.15633155 -0.33400005 0.44740474 -0.49085176 -0.0156799 -0.410162 -0.21820089
-0.3174781 -0.057003293 0.07781745 -0.28775477 -0.14396651 0.4630248 -0.5704704 0.4154439
-0.11180891 0.18983805 0.2856676 -0.5176586 0.09503709 -0.11301998 0.48007935 -0.5135914
0.18191357 -0.025793144 0.61229354 -0.17017609 0.18614362 -0.28717864 0.39578113 -0.35544875

encoder_variable_selection.flattened_grn.gate_norm.glu.fc.bias f4 [16]
00000000: 64f2 343e 42f0 34be fef1 343e 2bf1 34be
00000010: 2ef2 34be 3df1 343e b7ef 343e 5ff0 34be
00000020: faf1 343e 00f1 34be 9cf1 343e d7d3 343e
00000030: afec 34be e6ec 343e 85ed 343e b7ee 34be
0.1767059 -0.17669776 0.17670438 -0.17670123 -0.17670509 0.1767015 0.17669569 -0.1766982
0.17670432 -0.17670059 0.17670292 0.17658935 -0.17668413 0.17668495 0.17668732 -0.17669187

encoder_variable_selection.flattened_grn.gate_norm.add_norm.norm.weight f4 [8]
00000000: 479e 963f 689d 963f 509e 963f 63c4 523f
00000010: 5ec3 523f 8f9d 963f 2d9e 963f e1c3 523f
1.1767052 1.1766787 1.1767063 0.8233091 0.82329357 1.1766833 1.1767021 0.8233014

encoder_variable_selection.flattened_grn.gate_norm.add_norm.norm.bias f4 [8]
00000000: 77f2 343e 24f2 34be 6ef2 343e 76f1 34be
00000010: 84f2 34be 11f2 343e b0ee 34be 5bf1 34be
0.17670618 -0.17670494 0.17670605 -0.17670235 -0.17670637 0.17670466 -0.17669177 -0.17670195

encoder_variable_selection.single_variable_grns.time_idx.resample_norm.mask f4 [16]
00000000: 53f1 34be e8f0 343e dbc2 343e a7ef 343e
00000010: 2bef 34be e9d2 34be 3eeb 343e 6ce5 34be
00000020: ebee 34be 71eb 343e e3ea 343e a8ee 34be
00000030: f9e9 34be 68e4 34be 65ee 343e 32ef 343e
-0.17670183 0.17670023 0.17652456 0.17669545 -0.1766936 -0.17658581 0.17667863 -0.17665642
-0.17669265 0.17667939 0.17667727 -0.17669165 -0.17667378 -0.17665255 0.17669065 0.17669371

encoder_variable_selection.single_variable_grns.time_idx.resample_norm.norm.weight f4 [16]
00000000: 7fc3 523f 369e 963f de96 963f 089e 963f
00000010: e3c3 523f 9b9d 963f ed9d 963f d2e0 523f
00000020: cdc3 523f 5f9d 963f f89d 963f 01c4 523f
00000030: 0004 533f 3fc4 523f e89d 963f 2b9e 963f
0.82329553 1.1767032 1.1764791 1.1766977 0.8233015 1.1766847 1.1766945 0.823743
0.8233002 1.1766776 1.1766958 0.8233033 0.8242798 0.823307 1.1766939 1.1767019

encoder_variable_selection.single_variable_grns.time_idx.resample_norm.norm.bias f4 [16]
00000000: 43f1 343e a0f1 34be a2e8 343e a4f0 343e
00000010: 01f1 34be c5e9 343e c5f0 34be b0ef 343e
00000020: 6bf1 34be ccf0 343e d0f0 34be 07e5 343e
00000030: afc3 343e d2ea 34be c2ec 343e b1f1 343e
0.17670159 -0.17670298 0.17666867 0.17669922 -0.1767006 0.17667301 -0.17669971 0.17669559
-0.17670219 0.17669982 -0.17669988 0.17665492 0.17652772 -0.17667702 0.17668441 0.17670323

encoder_variable_selection.single_variable_grns.time_idx.fc1.weight f4 [8, 8]
00000000: 44ea 123e fd83 933f 12ef 2cbf 1738 0ebf
00000010: 8953 e73d 8747 723f 58c8 ecbd 6b93 cb3d
00000020: c9a3 6c3c 4f9e 573f ca7e 083f 09b3 e5be
00000030: c314 fc3e 6d0e c03d 5252 ae3e 1d61 2e3f
00000040: 653b 79bf 17ea 2c3e b7bf 59bf 09ed 2abd
00000050: ec46 493e b466 5fbf aa8d 9cbe ab35 2cbf
00000060: c725 973d ba48 bcbc afce 923e 16cf 7a3d
00000070: bb76 f2bd 5afb 23bd 5795 5dbe e640 473f
00000080: e693 dcbd 0c69 0d3d c5a9 56bd 2e37 34bf
00000090: 71c4 4d3f 8ddf c33e 9e06 aebe 6a6e 673d
000000a0: a4a6 313f 609c bcbd 4937 ad3f 13d4 aebe
000000b0: f2f2 773e c27d 84bf d244 82be b0fa 51bf
000000c0: 9f24 c83e 592a 34bd b8d3 1b3f 9904 debe
000000d0: df4b 463f a6a5 803f 3287 b23e b4bc 20bf
000000e0: 4e9c 08be e6d8 61be 2c6a 57bf ebbb aabe
000000f0: 474b 36bf 7c92 81be 2d3d 363f 6f89 593e
0.14347178 1.1524655 -0.6755229 -0.55554336 0.1129523 0.9464039 -0.1156165 0.09940227
0.014443346 0.84225935 0.53318465 -0.44863155 0.4923459 0.093777515 0.3404718 0.68116933
-0.97356254 0.16886173 -0.8505816 -0.04172996 0.19655961 -0.8726609 -0.3057683 -0.6726939
0.07380252 -0.022983897 0.28673312 0.06123265 -0.11839052 -0.04003463 -0.21639 0.778334
-0.10770397 0.03452401 -0.052408 -0.703967 0.8037787 0.38256493 -0.33989424 0.056501783
0.693949 -0.09209514 1.3532497 -0.34146175 0.2421377 -1.0350878 -0.2544313 -0.82023144
0.3909044 -0.0439857 0.6086993 -0.43362883 0.7745952 1.0050552 0.3486877 -0.6278794
-0.13340876 -0.22055396 -0.8414638 -0.33346495 -0.71208614 -0.2530707 0.71187097 0.21243833

encoder_variable_selection.single_variable_grns.time_idx.fc1.bias f4 [8]
00000000: 09ed 343e f8ee 343e 0cd8 34be fdef 34be
00000010: 83ef 343e 16dd 343e 2693 343e 6ded 34be
0.17668547 0.17669284 -0.1766054 -0.17669673 0.17669491 0.17662463 0.17634258 -0.17668696

encoder_variable_selection.single_variable_grns.time_idx.fc2.weight f4 [8, 8]
00000000: 886a 003f a076 4b3e bcec fdbe 8ae7 9f3e
00000010: 5557 333e 5a83 d63d 5c47 893f 4da6 babd
00000020: ac60 4ebf 1c05 dcbe d2fe f53e 5659 083d
00000030: 28db 07bf 1896 113f 4214 313e 0dac 873e
00000040: 1069 c4bc 3b00 38bf 21c0 edbc 7f92 d03e
00000050: b76a 6e3c e34b fdbe 40ba 063d b1f5 f6bc
00000060: 9fde 11bf 5767 973d 9365 933f dc2b 2c3f
00000070: cb05 bfbe 5674 303e 27c9 21be beac c5be
00000080: 6a52 2dbf 47c3 4d3f 683f 7e3f 10f8 fabe
00000090: 1fcd 82be 462e cd3e ab7a bb3e 6034 cd3d
000000a0: 46bb 003f cddd ff3d 626d f43d 8124 833e
000000b0: 2731 01be 28b9 90be 0fb2 2c3d ce68 8f3e
000000c0: 0d34 19be 73dd fdbd 5664 08bf 2a8e db3e
000000d0: f28a 203f 9424 a13c 1d67 203e a8f5 813e
000000e0: 3321 3fbf 0c61 943e d3a8 913e 2c91 4abe
000000f0: 05a9 abbe 44d8 cd3e 0329 14be 4fe1 a43e
0.50162554 0.1986947 -0.49594676 0.31231338 0.17513783 0.10474272 1.0724902 -0.091137506
-0.8061626 -0.42972648 0.48045975 0.033288322 -0.5306878 0.5686965 0.17292884 0.26498452
-0.023975879 -0.7187535 -0.029022278 0.40736768 0.01455181 -0.4947196 0.032892466 -0.030146452
-0.5698032 0.073927574 1.1515373 0.67254424 -0.37309107 0.17231879 -0.1579939 -0.38608354
-0.6770388 0.80376095 0.993155 -0.49017382 -0.2554712 0.40074366 0.36617026 0.10019755
0.50285757 0.12493477 0.119349256 0.25613788 -0.12616406 -0.28266263 0.042161997 0.28009647
-0.14961262 -0.12395754 -0.532781 0.428819 0.62712014 0.019670762 0.15664335 0.25382733
-0.74660033 0.2898029 0.28449115 -0.19781941 -0.3352739 0.4020406 -0.1446877 0.32203147

encoder_variable_selection.single_variable_grns.time_idx.fc2.bias f4 [8]
00000000: 21eb 34be 54ee 34be 02f0 34be 04e3 343e
00000010: 31ee 343e dac9 343e 44ef 343e d8d5 343e
-0.1766782 -0.1766904 -0.1766968 0.17664725 0.17668988 0.17655125 0.17669398 0.176597

encoder_variable_selection.single_variable_grns.time_idx.gate_norm.glu.fc.weight f4 [32, 8]
00000000: 304a 45be 1303 0fbe 033f 54be a4e5 e23d
00000010: d6ca cbbd 3a0c 34be 0edf ee3d cd3a 083f
00000020: 889b 963e 6855 efbe 2a8a 453e 2623 40be
00000030: 69f7 e13d ce5c 47be e457 063f fc03 aabe
00000040: 8a50 3f3e dcec 153e 388a ec3e af39 df3e
00000050: e502 6f3e b930 dc3c dca2 90be 7360 4fbe
00000060: e3c0 f43d 46b3 cbbd 104b 4ebd 21bb c83e
00000070: 1000 0f3e 262b 0b3f 32df 5fbe 343e 2f3d
00000080: fc24 6cbd 02d2 bc3c 6357 1abe 59bc bc3c
00000090: 5923 2bbd ec71 cfbe 6b82 87bd a330 3f3e
000000a0: 60e6 f1be e889 c83e 22d8 17bd 962e 8b3d
000000b0: 0bc5 453e d536 d6bd 2ced 67be 0a4f 0f3f
000000c0: bf60 9fbe 47a5 7cbd 43e9 90be ac0a 0abf
000000d0: 9356 2fbe 00fe a43c 930e a93e 0c03 ea3d
000000e0: 0381 09bf 10ef ed3e e5bd 0e3f 9c48 9b3e
000000f0: 76a5 9a3e 3e50 a1bc 2932 2cbe 821c fa3e
00000100: 2237 b5bd bfa1 cabd 685e 06bf 3ddd c2bd
00000110: d3d2 aebe 9821 f9be 540e f0bd 5139 de3d
00000120: 53df 723e ca51 49be f265 b3bd cd3a 9b3d
00000130: 5aa6 0e3f af71 283e cfe7 ebbe ee31 613e
00000140: 68c5 3c3e a2a0 64bd 6b76 4abe 22df 7fbe
00000150: 24ff 59bc 0db4 483d 4393 563c 294f dabe
00000160: 82e5 0bbf c4dd 4b3d 6ad3 c93e 0102 4c3c
00000170: ae09 15bd c8b0 553d ad01 433e e9e3 0e3f
00000180: 6ca9 003e ed3d f73e d279 b5bd d95f ca3e
00000190: f886 bfbd 7a37 9a3d 4fd2 0dbd 1d85 023f
000001a0: 4744 0f3f 4b74 d6bb bd52 f8be 93ed b6bd
000001b0: cb23 aabe 0a5f 79be f70f cebc 1c55 2f3e
000001c0: 80a3 de3e d3c0 afbd 4462 0a3e f919 e4bd
000001d0: 1767 c4be e88d 02be 4a16 ee3e f238 0d3f
000001e0: f8dd 94bd 0f8c af3e 7761 c5bd f2b5 3c3e
000001f0: 0217 f23e 7ee8 9a3e cd4b fd3d 193f 523e
00000200: 294e 03bf 3bc2 02bf 70b9 a53d f0e9 c6be
00000210: 06b4 443e 36c1 223d e70d 56be 09ad d0bd
00000220: 6977 f3be b472 06be dee3 e6bd 4e95 c33c
00000230: 7bf1 453e 6834 7cbd 5ad6 cfbe 51a8 25be
00000240: b993 833d 210a 34be c30e 8a3e 182f e53e
00000250: 7db2 7e3d 13ff f2be 294a 32bd 4ffc 323e
00000260: 80f3 3cbe 8980 a8be 190b 303e 7bd0 aebd
00000270: a591 323e e851 8ebe 8e14 063f b83b 123e
00000280: f57f e53e 67be babe 7b91 03bf e82f e9bc
00000290: 8512 05bf 6b02 d8be d7cb 12bd e3b3 cbbe
000002a0: efa9 2f3e 2f15 903e 87ed ee3e 0564 d8bd
000002b0: 7285 acbc 39b0 b23e 3ed6 f2be e31f 62bd
000002c0: 1ae1 f9bd f35b 53be 7511 10be 68d3 ddbc
000002d0: f476 353e 795a d13d 8bc4 05bf 8a50 643e
000002e0: dbcf 0c3c 2708 1f3d 9ea2 ea3d ad8e ed3e
000002f0: d7a9 cb3e dbad 25be 2b2f 333b d035 e13e
00000300: b040 aa3c 70e9 9b3d 07c0 a83c ccc5 07bf
00000310: a849 3a3e 5ec4 463d 3c8b e83e 86f8 89be
00000320: 9aba e83c 7376 4e3d 01d6 08be 3ac1 f4be
00000330: 891e 0fbe 565c 02bf c46d 28be cb28 c63d
00000340: 57e1 54be 969c dd3e 7e56 64be f516 073f
00000350: 9249 463e 4153 d7be 2748 c2bd 539d b83e
00000360: 3ce1 ea3d 54e1 03be b6d2 9bbe 3f5a c0be
00000370: 3a6a eabe 624d eebe 2232 d3bd e3c4 c0be
00000380: a8c8 84be 06ac df3e 9f23 a2be 84dc 6d3a
00000390: 28a2 033e ff98 74be f83c 453e da3f 0abf
000003a0: 5403 8bbd b87c 5f3d 9d22 313e 819a d2be
000003b0: 9e5e dbbe 1f6e 15be c6f6 0dbe aa92 adbe
000003c0: 5650 67be 347e 0b3e d077 953e b34f 253e
000003d0: 7906 e03e 9f69 033f 7db7 e53d 5340 bf3e
000003e0: b056 b6bc 3e58 313e 6b09 843d 621a d2be
000003f0: 8b03 f73c 920d 05bf a844 fabd 7f98 0d3d
-0.19266582 -0.13966016 -0.20727162 0.11078957 -0.09950797 -0.17582789 0.11663638 0.5321472
0.29415536 -0.46744847 0.19290987 -0.18763408 0.11033518 -0.19468996 0.5247786 -0.33206165
0.18683067 0.14641136 0.46199203 0.43598697 0.23340948 0.026878702 -0.28249252 -0.20251636
0.11950853 -0.09946303 -0.050364554 0.39205268 0.13964868 0.54362714 -0.21862486 0.04278393
-0.05765246 0.023049358 -0.15072398 0.02303903 -0.041781757 -0.40516603 -0.06616672 0.18670897
-0.47246075 0.39167714 -0.037071355 0.06795995 0.19313447 -0.10459677 -0.22649068 0.5597998
-0.311285 -0.06168106 -0.28302965 -0.53922534 -0.17122869 0.020140648 0.33018932 0.114263624
-0.5371248 0.46471453 0.55758506 0.30328834 0.30204362 -0.019691583 -0.1681601 0.48849875
-0.088484064 -0.09894132 -0.524878 -0.09514854 -0.3414522 -0.48658442 -0.11721483 0.10850776
0.23718004 -0.19660106 -0.08759679 0.07579575 0.5572258 0.16449617 -0.46075293 0.21991703
0.1843468 -0.055817254 -0.19771735 -0.24987462 -0.013305459 0.048999835 0.013096633 -0.4263852
-0.54647076 0.04977204 0.3941911 0.01245165 -0.036386184 0.052170545 0.19043608 0.55816513
0.1256463 0.48289433 -0.08861126 0.3952625 -0.09351915 0.075301126 -0.034624394 0.50984365
0.5596356 -0.006544625 -0.48500624 -0.089320324 -0.33230433 -0.24352661 -0.025154097 0.1712231
0.43484116 -0.085817 0.13514048 -0.111377664 -0.383599 -0.12749445 0.4650138 0.55165017
-0.072689 0.34286544 -0.096377306 0.18428782 0.4728318 0.30255502 0.123679735 0.20531882
-0.5129114 -0.5107762 0.0809201 -0.38850355 0.19209298 0.03973504 -0.20903741 -0.10189254
-0.4755204 -0.13129693 -0.11273931 0.023874905 0.19330399 -0.061573416 -0.40593225 -0.16177489
0.0642466 -0.17581989 0.26964387 0.44762492 0.06218194 -0.4746023 -0.043527756 0.1747906
-0.18452263 -0.32910565 0.17191733 -0.08535858 0.17438371 -0.27796865 0.52375114 0.14280593
0.44824186 -0.3647339 -0.5139386 -0.028465226 -0.51981384 -0.42189345 -0.035838928 -0.3978568
0.17154668 0.28141162 0.46665594 -0.10565952 -0.021059725 0.34900072 -0.4742908 -0.05520619
-0.12201138 -0.20640545 -0.1406916 -0.027078345 0.17721158 0.102223344 -0.52253026 0.22296348
0.0085944785 0.038826134 0.11456798 0.46397915 0.39778015 -0.16179602 0.0027341347 0.43986368
0.020782799 0.07612884 0.020599378 -0.5303619 0.1819216 0.048527114 0.45418727 -0.2694742
0.028409291 0.05040593 -0.13362886 -0.4780367 -0.13976492 -0.50922143 -0.16448122 0.096757494
-0.20789085 0.43283528 -0.22298619 0.52769405 0.19364002 -0.42055705 -0.09486418 0.3605753
0.11468741 -0.12878925 -0.30434197 -0.37568852 -0.4578417 -0.46543413 -0.103122965 -0.37650213
-0.2593434 0.4368593 -0.31667802 0.0009073692 0.12854826 -0.23886488 0.19261539 -0.5400368
-0.06787744 0.0545623 0.1729836 -0.41133502 -0.42845625 -0.14592789 -0.13863668 -0.33900958
-0.2258924 0.13622361 0.29192972 0.16143684 0.43754938 0.5133304 0.11216638 0.37353763
-0.022258133 0.17318818 0.06447109 -0.41035753 0.030153057 -0.5197383 -0.122201264 0.03456926

encoder_variable_selection.single_variable_grns.time_idx.gate_norm.glu.fc.bias f4 [32]
00000000: b3ef 343e d2ef 34be b7e3 343e 3bef 343e
00000010: 0fef 34be bae3 343e d8ed 34be f0ec 343e
00000020: 30f0 34be fcee 343e b8ef 34be 83d3 343e
00000030: 7976 343e 9ee8 34be 39e8 343e 2af1 343e
00000040: 34e7 34be 83e7 343e e583 323e 20d1 34be
00000050: f6e8 34be 43e0 343e 14cf 343e 86e8 343e
00000060: dae2 34be 72d0 34be 1a77 34be 149f 30be
00000070: 1dcd 34be 0394 34be 83d6 343e 7e27 34be
0.17669563 -0.17669609 0.17664991 0.17669384 -0.17669319 0.17664996 -0.17668855 0.1766851
-0.1766975 0.1766929 -0.1766957 0.1765881 0.17623319 -0.17666861 0.17666711 0.17670122
-0.17666322 0.1766644 0.17433126 -0.176579 -0.17666993 0.17663674 0.17657119 0.17666826
-0.17664662 -0.1765764 -0.17623559 -0.17248183 -0.1765637 -0.17634587 0.17659955 -0.1759319

encoder_variable_selection.single_variable_grns.time_idx.gate_norm.add_norm.norm.weight f4 [16]
00000000: fb9c 963f 429e 963f aa9d 963f 069e 963f
00000010: b9c4 523f fa9d 963f 1e9e 963f fc9d 963f
00000020: f3c3 523f 589d 963f 1e9e 963f bb9d 963f
00000030: b1ce 523f 9c9d 963f 2b9e 963f 3d9e 963f
1.1766657 1.1767046 1.1766865 1.1766975 0.82331425 1.1766961 1.1767004 1.1766963
0.82330245 1.1766768 1.1767004 1.1766886 0.82346636 1.1766849 1.1767019 1.176704

encoder_variable_selection.single_variable_grns.time_idx.gate_norm.add_norm.norm.bias f4 [16]
00000000: efe3 34be f3f1 34be 6ced 343e 30f1 343e
00000010: baef 34be 28ee 343e 7df1 34be ecee 343e
00000020: 6af1 34be 07f1 343e 6ff1 34be 62ef 34be
00000030: 91e9 343e d4ed 343e a0f0 343e 00f2 343e
-0.17665075 -0.17670421 0.17668694 0.1767013 -0.17669573 0.17668974 -0.17670245 0.17669266
-0.17670217 0.1767007 -0.17670225 -0.17669442 0.17667224 0.17668849 0.17669916 0.1767044

encoder_variable_selection.single_variable_grns.T2M.resample_norm.mask f4 [16]
00000000: 79eb 343e 0af1 343e 37eb 343e bfd1 343e
00000010: 7fed 343e 9af0 34be 80f0 34be ddf0 343e
00000020: acf1 34be 3ff0 343e a3b4 343e fee2 343e
00000030: 5b7c 333e cce6 343e dec5 343e 27ef 34be
0.1766795 0.17670074 0.17667852 0.17658137 0.17668723 -0.17669907 -0.17669868 0.17670007
-0.17670316 0.17669772 0.17647032 0.17664716 0.17527907 0.17666167 0.17653605 -0.17669354

encoder_variable_selection.single_variable_grns.T2M.resample_norm.norm.weight f4 [16]
00000000: 09c4 523f 3e9e 963f cb9d 963f 97c4 523f
00000010: 8d9d 963f bbc3 523f 86c3 523f 289e 963f
00000020: 7cc3 523f 1b9e 963f ec9b 963f d09d 963f
00000030: 74ce 523f ab99 963f 34c4 523f a4c3 523f
0.82330376 1.1767042 1.1766905 0.8233122 1.1766831 0.8232991 0.82329595 1.1767015
0.82329535 1.1767 1.1766334 1.176691 0.8234627 1.1765646 0.8233063 0.82329774

encoder_variable_selection.single_variable_grns.T2M.resample_norm.norm.bias f4 [16]
00000000: bbee 343e f5f1 34be d6eb 34be 5ef1 343e
00000010: e1ee 343e faf0 34be 85f1 34be 09f0 343e
00000020: f6f1 34be 81f1 343e 19f1 34be 68f0 34be
00000030: dbe5 343e 00f1 343e adf1 343e eff1 343e
0.17669193 -0.17670424 -0.1766809 0.176702 0.1766925 -0.1767005 -0.17670257 0.17669691
-0.17670426 0.17670251 -0.17670096 -0.17669833 0.17665808 0.17670059 0.17670317 0.17670415

encoder_variable_selection.single_variable_grns.T2M.fc1.weight f4 [8, 8]
00000000: 3280 0abf 9764 61bf 85c8 adbe a496 803f
00000010: a044 b43d 4e24 003e 4c1d 423f 6920 a8be
00000020: 3e0f ae3e 827b c6be 2633 423e 490a cabd
00000030: 78d5 96bf ac7c 203f 7522 50bf 971a 133f
00000040: 4f3b d93e bf18 683e f98e 8b3d e3a9 e2be
00000050: 48de eebe af1e 27bd 94e9 f1bd ae9b 76be
00000060: 3bcc dc3e 77de 0c3f c73d 353e f406 843d
00000070: e57b 3bbe cb5b 47be 4bac 903c 2a65 283e
00000080: df45 e1bd 29a1 49bf 11ed 01be 6106 9cbc
00000090: 2e2a 8d3f e3bf 523f b820 cdbd d553 9e3e
000000a0: 2db9 9abb 1611 73bf c621 b9bf 3b19 1cbf
000000b0: 9939 b63d 7657 ca3e 78e0 44be 05ff edbe
000000c0: 50eb 53bd 36f2 0cbf b749 e1be 7ac6 35be
000000d0: 674e 86be b155 833f 537e 633f abf3 c23d
000000e0: d4fd b63b 6a4d d63e f1c9 0c3f f2b4 9cbe
000000f0: 609f 17bd ab2d 8a3e 32c5 96be e529 28bf
-0.5410186 -0.8804411 -0.33942047 1.0045972 0.08802152 0.12513849 0.75825953 -0.32837227
0.33996004 -0.38766104 0.18964824 -0.09865243 -1.1783895 0.62690234 -0.8130258 0.5746245
0.4242806 0.2266569 0.06814379 -0.44270238 -0.46653962 -0.040800747 -0.118121296 -0.24082825
0.43124565 0.55026954 0.17699347 0.06446639 -0.18308981 -0.1946861 0.01766028 0.16444841
-0.10999655 -0.78761536 -0.1268809 -0.01904601 1.1028497 0.82324046 -0.10016006 0.30923334
-0.0047217817 -0.94947946 -1.4463432 -0.60976 0.08897705 0.39519852 -0.19226253 -0.46483627
-0.051738083 -0.55057085 -0.44001552 -0.17751494 -0.2623169 1.0260526 0.8886463 0.09519132
0.005584458 0.41855937 0.5499564 -0.306068 -0.037017226 0.26987967 -0.29447323 -0.65688926

encoder_variable_selection.single_variable_grns.T2M.fc1.bias f4 [8]
00000000: 46f1 343e d5ef 34be 64f1 34be 59ef 34be
00000010: 1fed 343e def0 34be 62ea 343e f4e3 343e
0.17670164 -0.17669614 -0.17670208 -0.17669429 0.1766858 -0.17670009 0.17667535 0.17665082

encoder_variable_selection.single_variable_grns.T2M.fc2.weight f4 [8, 8]
00000000: b2a8 343e 3413 15bf f402 fabe 08d8 273e
00000010: 371f 493e cc89 073f 1e3c af3e 73d3 8a3e
00000020: 16cc ea3d b483 073e f5a8 dd3f ac58 8abe
00000030: d450 2bbf 39cf 8cbe b6c4 873d dd7e 2bbc
00000040: 4794 99be 80ec 203f 4a00 2b3f 5544 9a3e
00000050: 04ea 2f3f e925 c03f 01ae 8e3e 92ad 19be
00000060: e747 003f 59cf 97bf d378 08be 5eb9 cbbe
00000070: 2cc5 5c3f 7647 db3e d2ad 6b3e c561 9f3d
00000080: 3ebd 203f 16ab 71bf 2d25 bdbf b1eb edbe
00000090: ab3e e43e ab85 0bbf 9930 0c3e 43b0 93bf
000000a0: 7279 61bf 8613 c13e dc07 993e 1ba0 0dbd
000000b0: c867 20bf 7dfb c43d e12e 213e 23ad 1cbf
000000c0: 04b7 033e 48d1 b2be 8cd5 55bf 28fb 513f
000000d0: 3e3b e8be 444f 333e 863d 22bd 4ca8 8d3d
000000e0: 4ba0 1e3f 511e 543e 957b 743e fd8a c63e
000000f0: 00ab eb3e 8c34 5cbf bec8 05bf a7a5 b3be
0.17642477 -0.58232427 -0.48830378 0.16391003 0.19640814 0.52944636 0.34225553 0.27114448
0.114647076 0.13233835 1.7317187 -0.27020776 -0.6692021 -0.27501848 0.066293165 -0.010467258
-0.2999594 0.6286087 0.66797316 0.30130258 0.68716455 1.5011569 0.2786713 -0.15007618
0.50109714 -1.1860152 -0.13327341 -0.3978986 0.8623836 0.42827958 0.23015526 0.0778232
0.6278876 -0.9440168 -1.477697 -0.4646888 0.44579062 -0.54500836 0.13690414 -1.1538166
-0.88075936 0.37710208 0.2988881 -0.034576517 -0.6265836 0.0961828 0.15740539 -0.61201686
0.12862784 -0.34925294 -0.8352897 0.8202386 -0.45357698 0.17510706 -0.039609455 0.06916866
0.6196334 0.2071469 0.23875268 0.38777915 0.460289 -0.8601768 -0.52259433 -0.3508732

encoder_variable_selection.single_variable_grns.T2M.fc2.bias f4 [8]
00000000: 55ed 343e b1ef 34be 17f0 34be a6ee 343e
00000010: aef0 343e 67f0 34be 4ff0 343e 15f0 343e
0.1766866 -0.1766956 -0.17669712 0.17669162 0.17669937 -0.17669831 0.17669795 0.17669709

encoder_variable_selection.single_variable_grns.T2M.gate_norm.glu.fc.weight f4 [32, 8]
00000000: 9ef0 dd3d 5450 50be 62be 33bd c53b d23e
00000010: 435d 523e 6c9d 72be 609a f43a f509 a33e
00000020: c025 fc3d fc07 a13d b4b1 b83c e17e aabe
00000030: 78bc bdbe ffcc e83e a591 bf3c bf8f a7be
00000040: ba2d e53d 7783 f13b bf49 4ebe 0091 46be
00000050: 94db 2c3e 66a6 37be b68d 3f3e cd11 9e3c
00000060: 30c5 10be 3a4f b2bc 3f78 bebe b71b 813e
00000070: 0788 f93e 19ba 6ebe 6fa4 533e 9285 b8bd
00000080: 0433 1dbe 8930 cd3d be19 f9bd 1911 053b
00000090: 2c93 0d3e b716 0fbf b568 513e e76d e63e
000000a0: dd39 bc3d df1c 7f3e ba87 7f3e f47d 90bd
000000b0: a8d6 b3be 5b64 183d 49bb 343d 5bd8 abbe
000000c0: fb0a 99be 7723 c0be a4e5 e2be af46 a1be
000000d0: 7a20 d8be 2de8 92bd d7c9 e4be b679 42be
000000e0: 7db2 da3e 50bb 8b3e 78e7 953e d2ee 093f
000000f0: b23f a53e 57aa 573e 77b2 44be df25 02bf
00000100: ada4 7dbc d905 a53e d287 133e 9596 423d
00000110: 083d e6bd 26be 073f e16b e2be 3c5d efbe
00000120: 9137 97be be40 e8be 1b6a f5be 5cac 5b3e
00000130: c86c fe3e db2a 2c3c b1e0 2bbe 41a4 8a3e
00000140: 1e2f 93bd 6850 1cbd 4dff 0a3d 614d 043d
00000150: 4939 2b3d 46ae fd3e 7f80 02bf 03f7 9a3d
00000160: ddfb f73e 1ecf cc3e 740a c4bb e175 473d
00000170: 4cf0 f5be 7543 b33e 3de0 c0be d37c 91be
00000180: f2dc 9fbe eacc 883c c520 92bd 81ba 54be
00000190: d85e 0a3f ad21 16be 3b2d 013f bf99 933e
000001a0: 5799 96be aa17 a63d b3fe c93d 9fec 3dbe
000001b0: 9405 743e d6c7 d3bd 5a6d 1cbd 9406 17be
000001c0: 8177 4cbe 0787 a2be 2d63 bebe 6f15 da3e
000001d0: 8245 d5bd 4ceb fdbe 71eb 913e 09ad e93e
000001e0: 3831 9bbd 2c30 83bd f7d5 db3e a2c3 823d
000001f0: a215 8f3e 2725 8bbb 0436 f73e 72d7 6abd
00000200: 5b40 e6bd 4aef d5be cab2 3f3d 72d9 e93e
00000210: 4854 2c3e 4cea c1be 7ba9 1a3e ff05 72bc
00000220: 9c61 37be 2e26 c93d 2ace aa3d 5bd5 723e
00000230: 419d ae3e 5ffa eb3c ffcf 963e b1f0 23bd
00000240: 65df 86be 3e96 c6bc 2e9e db3d a6af 94be
00000250: ad75 e2be 5293 f03e e4b0 82be 073c 093e
00000260: 134a 0ebf 94b9 c3bd 4da2 b6be a242 1f3e
00000270: 8aa7 d63e 5603 22be 97c8 4d3e 0030 203e
00000280: 83e0 3abe 81a9 b0be eb77 fe39 5627 4c3e
00000290: 3f05 b73e 4b51 9a3d 8439 2c3e 8994 513e
000002a0: 2a94 9fbe eda7 c6bd cce8 62be 6106 da3d
000002b0: 75a0 8ebd f135 b3be d3e9 0e3f 28f5 263e
000002c0: c832 463b 604d 0c3f e8bf da3e 8959 d53e
000002d0: c19b 823e ed4b 03bf d216 b53e 4a5d 303d
000002e0: 95ac 81bd 378c ce3e ad05 103f 3b06 8f3e
000002f0: d412 86bd 78d1 f9be 8d81 2fbd 5762 c4be
00000300: a6d6 bbbe bc59 bcbe b008 2ebe dd15 ae3d
00000310: 69c6 ebbd f82b cebe cc9d e63e 362a 3bbb
00000320: 8f0b 383e cb12 b5be 39c5 f2be 777a 823c
00000330: 6db0 ab3e 3f9b 4a3e e485 0e3f c6a8 0d3f
00000340: 21b9 c43d 169a 0cbf 09a7 e63d 92ad 2a3e
00000350: 94fa 92bd cb92 a83d 5b73 d9be 0e82 9a3e
00000360: 8827 073e 1741 20be cbb1 63be 4cbe dc3e
00000370: cba7 7d3e 3708 ca3d 7456 c83e 5ccc 21bd
00000380: d4a3 23be 628b 8b3d 63d8 4abe c303 993e
00000390: 36ff 3b3e 2079 c3bd e227 023f baba 2cbe
000003a0: 429d 463c 6ca8 113e 084d 083d eed4 fabd
000003b0: 15c3 cabe 428a 15be 4bf4 fbbe ef8d 29be
000003c0: fcab d4bd e478 d1bd a37a a3be e493 3d3c
000003d0: bdb2 e23e 8549 99be f556 23be 7f2d 083f
000003e0: ff1d 543e 85ef bc3e e910 b6bd f6bd 983e
000003f0: 3a14 c4be 8a06 e4bd fb85 de3b c5d3 86be
0.1083691 -0.20343143 -0.043882735 0.41061226 0.20543389 -0.23692864 0.001866173 0.31843534
0.12311888 0.07862851 0.022545673 -0.33299926 -0.37057853 0.454689 0.023384878 -0.32726857
0.11190362 0.007370408 -0.2014532 -0.1939125 0.16880637 -0.1793457 0.18706402 0.019295597
-0.14137721 -0.021766294 -0.37201115 0.25216457 0.48736593 -0.23313178 0.20668195 -0.090098515
-0.15351492 0.10019023 -0.12163113 0.002030438 0.13825673 -0.55894035 0.20450099 0.45005724
0.09190724 0.24913357 0.2495412 -0.07055274 -0.35124707 0.03720508 0.04412392 -0.33563504
-0.2989119 -0.37527058 -0.44315827 -0.3149924 -0.42212278 -0.0717319 -0.44685242 -0.18991742
0.427143 0.27291346 0.2927816 0.53880036 0.32275158 0.21061073 -0.19208704 -0.50839037
-0.015481156 0.32231024 0.1440728 0.047506887 -0.112421095 0.5302452 -0.4422293 -0.4675082
-0.2953458 -0.45361894 -0.47932515 0.21452469 0.49692369 0.010508264 -0.16784932 0.2707844
-0.07186721 -0.03816262 0.03393488 0.032300357 0.04180268 0.49547023 -0.5097732 0.07566645
0.48434344 0.40001768 -0.0059826914 0.048696402 -0.48034894 0.35012403 -0.3767108 -0.28415546
-0.31223255 0.016699273 -0.071351565 -0.2077427 0.5405097 -0.14661284 0.5045964 0.28828236
-0.29413864 0.08109982 0.09863033 -0.18547295 0.23830253 -0.1034085 -0.038190223 -0.14748603
-0.19967462 -0.31743643 -0.3718504 0.42594478 -0.10413648 -0.4959358 0.2849994 0.45639828
-0.07577747 -0.064056724 0.4293668 0.0638497 0.27946192 -0.0042463723 0.48283398 -0.05733437
-0.112427436 -0.41784126 0.046801366 0.4567371 0.16829026 -0.37874067 0.15103714 -0.014771937
-0.17908329 0.09821735 0.08340104 0.23714201 0.3410435 0.02880591 0.29455563 -0.040024463
-0.26342312 -0.024241563 0.1072353 -0.2904026 -0.44230404 0.46987396 -0.25525582 0.13401805
-0.5558178 -0.095568806 -0.356707 0.15552762 0.41924697 -0.15821585 0.2009605 0.1564331
-0.18249707 -0.3450432 0.00048536 0.1993688 0.3574619 0.07535037 0.16818815 0.20466818
-0.31167728 -0.09699998 -0.22159117 0.10645748 -0.069641985 -0.35002092 0.5582554 0.16304457
0.003024267 0.54805565 0.42724538 0.41669872 0.25509456 -0.5128773 0.35368973 0.043057717
-0.063317455 0.4034135 0.5625866 0.2793444 -0.0654656 -0.48792624 -0.04284816 -0.38356277
-0.366872 -0.36787212 -0.16995502 0.08500264 -0.11512453 -0.4026792 0.45042264 -0.0028559095
0.17973159 -0.353659 -0.47416094 0.015927536 0.3353304 0.19785784 0.5567305 0.5533565
0.09605623 -0.54922616 0.11262328 0.16667774 -0.071767 0.082311235 -0.42470822 0.3017735
0.13198674 -0.1564983 -0.22235791 0.43113935 0.24771039 0.09864848 0.39128458 -0.039501533
-0.15980464 0.068136945 -0.19809107 0.29885682 0.18359074 -0.09544587 0.50842106 -0.16868106
0.012122454 0.14224404 0.033276588 -0.12247644 -0.3960196 -0.14603522 -0.49209818 -0.1655805
-0.10384366 -0.10228136 -0.31929502 0.011570904 0.4427699 -0.29938903 -0.1595114 0.5319442
0.20714568 0.3690149 -0.08889944 0.2983243 -0.38296682 -0.1113406 0.006790874 -0.26333442

encoder_variable_selection.single_variable_grns.T2M.gate_norm.glu.fc.bias f4 [32]
00000000: 99eb 343e 68f1 34be 45e6 34be 9ff0 343e
00000010: d3ea 343e b1ee 34be f3f0 34be 03ef 343e
00000020: ecf0 34be abf0 343e 5bf0 34be 3eee 34be
00000030: dad4 343e 03ef 343e 47f1 343e 0df1 343e
00000040: 4ca9 343e 16ee 343e 50d9 34be 2ce7 343e
00000050: d1d8 343e c0e9 343e b1ea 343e 5ae3 343e
00000060: 48e8 343e 76ea 343e 09e7 34be 07e6 343e
00000070: 8fb7 343e c2e0 34be f9c5 343e 32d9 343e
0.17667998 -0.17670214 -0.17665966 0.17669915 0.17667703 -0.17669179 -0.1767004 0.176693
-0.1767003 0.17669933 -0.17669813 -0.17669007 0.17659321 0.176693 0.17670165 0.17670079
0.17642707 0.17668948 -0.17661023 0.1766631 0.17660834 0.17667294 0.17667653 0.17664853
0.17666733 0.17667565 -0.17666258 0.17665873 0.17648147 -0.17663863 0.17653646 0.17660978

encoder_variable_selection.single_variable_grns.T2M.gate_norm.add_norm.norm.weight f4 [16]
00000000: bbc3 523f 3e9e 963f bb9c 963f f0c8 523f
00000010: 719d 963f d5c3 523f 9ec3 523f 0d9e 963f
00000020: 7ec3 523f 2e9e 963f 62c4 523f d59d 963f
00000030: e3e6 523f 90c5 523f 72c4 523f 9ec3 523f
0.8232991 1.1767042 1.176658 0.82337856 1.1766797 0.82330066 0.8232974 1.1766983
0.8232955 1.1767023 0.82330906 1.1766917 0.82383555 0.82332706 0.82331 0.8232974

encoder_variable_selection.single_variable_grns.T2M.gate_norm.add_norm.norm.bias f4 [16]
00000000: ecef 343e faf1 34be f3db 34be 8bf1 343e
00000010: bcef 343e 09f1 34be a7f1 34be 87ec 343e
00000020: 0ef2 34be 76f1 343e 3cf1 34be 56f0 34be
00000030: f0e9 343e 10f1 343e c1f1 343e 05f2 343e
0.17669648 -0.17670432 -0.17662029 0.17670266 0.17669576 -0.17670073 -0.17670308 0.17668353
-0.17670462 0.17670235 -0.17670149 -0.17669806 0.17667365 0.17670083 0.17670347 0.17670448

encoder_variable_selection.single_variable_grns.T2M_MAX.resample_norm.mask f4 [16]
00000000: c6f0 34be 33f2 343e 58ef 34be a7ec 34be
00000010: 37f1 343e d7f1 34be 15f2 343e 26f1 34be
00000020: 25f2 34be 9ef1 343e a6ee 343e 2df1 343e
00000030: 54ef 34be fcea 34be 2fed 34be c6f1 34be
-0.17669973 0.17670517 -0.17669427 -0.176684 0.17670141 -0.1767038 0.17670472 -0.17670116
-0.17670496 0.17670295 0.17669162 0.17670126 -0.17669421 -0.17667764 -0.17668603 -0.17670354

encoder_variable_selection.single_variable_grns.T2M_MAX.resample_norm.norm.weight f4 [16]
00000000: b9c3 523f 489e 963f b1c3 523f 2c9e 963f
00000010: 3d9e 963f 72c3 523f 479e 963f b6c3 523f
00000020: 61c3 523f 479e 963f aac3 523f 2b9e 963f
00000030: 33c4 523f e49d 963f 0b9e 963f 11c4 523f
0.823299 1.1767054 0.8232985 1.176702 1.176704 0.82329476 1.1767052 0.8232988
0.82329375 1.1767052 0.8232981 1.1767019 0.82330626 1.1766934 1.1766981 0.82330424

encoder_variable_selection.single_variable_grns.T2M_MAX.resample_norm.norm.bias f4 [16]
00000000: 6bf1 343e 57f2 34be e6f0 343e 38f2 343e
00000010: ddf0 343e 13f2 34be 13f2 34be 7df1 343e
00000020: 6bf2 34be 02f2 343e e8f1 34be 83f1 34be
00000030: 62f1 343e a0f1 343e 21f2 343e 59f2 343e
0.17670219 -0.1767057 0.1767002 0.17670524 0.17670007 -0.17670469 -0.17670469 0.17670245
-0.176706 0.17670444 -0.17670405 -0.17670254 0.17670205 0.17670298 0.1767049 0.17670573

encoder_variable_selection.single_variable_grns.T2M_MAX.fc1.weight f4 [8, 8]
00000000: fef9 cabe 2c21 a43e 052f ae3e 48c5 2ebe
00000010: 0feb 60bf fd11 25bf 2900 49be b4dd 37bf
00000020: fc48 bc3d 5ce1 4d3f 29ff 62be 746c 663f
00000030: c9b3 4cbe a6ef 49bd 8370 dfbe 3884 a4be
00000040: 1212 da3e b169 69bf d8c7 97bd 525c 0b3e
00000050: f231 1dbe b15b 0fbf fc99 16bf 393a 1b3f
00000060: 6e81 30bf dca4 21bf 895f e23e d696 5a3f
00000070: 300e 973d 052d ee3d 2571 063f 2e89 a3bd
00000080: 2cf0 1a3e eba4 50be 64d5 68bf 6199 c9be
00000090: 60de 943d e1d9 873f 905c dc3e dd87 fc3e
000000a0: 30a5 273f bb82 813e b1ae a8be df13 073f
000000b0: f6e9 dcbd 6906 f03e 7153 bb3e c64b 0a3f
000000c0: bc14 653c c405 edbb 7192 a63e 800b 93bf
000000d0: a290 233d 769b 473e 737b 37bf c432 0bbe
000000e0: 368c f93e de43 d73e c6f5 45bf 72b2 7f3f
000000f0: 3614 febb 2fa9 9e3d c0c5 863f a24e 883e
-0.39643854 0.32056558 0.34020248 -0.17067444 -0.8785867 -0.6448057 -0.19628967 -0.7182267
0.09193608 0.80421996 -0.22167648 0.90009236 -0.19990458 -0.049300812 -0.43640527 -0.32132125
0.42591912 -0.911769 -0.07411164 0.13609436 -0.15351084 -0.55999285 -0.5882871 0.60635716
-0.68947494 -0.6314218 0.44213513 0.8538641 0.07375753 0.116296805 0.52516395 -0.07985149
0.15130681 -0.20375411 -0.9095061 -0.3937483 0.07268977 1.0613366 0.4303937 0.49322405
0.6548643 0.25295052 -0.3294578 0.52764696 -0.10786812 0.4687989 0.36587098 0.5402187
0.013981994 -0.0072333533 0.325336 -1.1487885 0.039932854 0.19492897 -0.71672744 -0.13593584
0.48739785 0.42043966 -0.77328146 0.9988166 -0.007753874 0.07747113 1.0529099 0.26622492

encoder_variable_selection.single_variable_grns.T2M_MAX.fc1.bias f4 [8]
00000000: 2df2 343e 15f2 34be ebf0 34be 3cf2 343e
00000010: b2f1 34be f4ef 34be c4f1 343e dbf0 34be
0.17670508 -0.17670472 -0.17670028 0.1767053 -0.17670324 -0.1766966 0.17670351 -0.17670004

encoder_variable_selection.single_variable_grns.T2M_MAX.fc2.weight f4 [8, 8]
00000000: a782 d73e f419 9d3f c7d8 25bf da87 7e3e
00000010: e80d 493f d0e2 6a3f d5dc 57bf f8d3 903e
00000020: 8385 ffbe 5e58 86bd eb5b 543f 1491 313e
00000030: 405b d8bd fecd 08bf a1f9 2e3f e1e2 883e
00000040: fdaa 683f e2d5 c63e 48f8 8a3e 878c 453e
00000050: dd2e 36bf ae1d 053f 1e14 87be e66e 093f
00000060: 5491 243e 133b 25bf 4214 173d 2ac5 2c3f
00000070: 54ea fa3d 2852 313e e86a a6be a01b f2be
00000080: 8d8a a93e a21c 963e fad6 943f 5736 4dbe
00000090: dad1 80be 2e54 d2bd f3ff 973f 04c9 933e
000000a0: f4b3 efbd f2b2 a43e 62f0 bb3d 706d e03d
000000b0: 9e7f 2b3f 99b9 1ebe 6686 11bf 2d8c 9d3e
000000c0: 911b 2ebf ef0a 1f3f d76b 7fbd e410 1ebf
000000d0: 760d 0f3f 3732 6f3e b87f c7bd 4097 323f
000000e0: cbd7 473f 8bf7 09bf 0e24 d4bc e215 6b3f
000000f0: 64d8 1abf 2ce2 33bf f849 4b3f 568b ec3d
0.42091867 1.2273545 -0.647839 0.24856511 0.78536844 0.9175234 -0.8432134 0.2828672
-0.4990655 -0.065598235 0.82952756 0.17340499 -0.105642796 -0.5343932 0.68349653 0.26735595
0.9088591 0.38835055 0.2714255 0.19291888 -0.7116526 0.5199841 -0.26382536 0.5368484
0.16071063 -0.64543265 0.036884554 0.6748835 0.12251726 0.17316496 -0.32503438 -0.472867
0.33113518 0.2931872 1.1628106 -0.2004026 -0.25160104 -0.10269962 1.1874985 0.288643
-0.11704245 0.32167774 0.09176709 0.109583735 0.66991603 -0.15500487 -0.568457 0.30771008
-0.68010813 0.6212606 -0.062358703 -0.61744523 0.55879915 0.23358999 -0.09741157 0.6976204
0.7806365 -0.53893346 -0.025896098 0.91830266 -0.60486436 -0.70266986 0.7940974 0.11550014

encoder_variable_selection.single_variable_grns.T2M_MAX.fc2.bias f4 [8]
00000000: 71f1 34be 0ff1 343e 7af1 34be 1ef2 343e
00000010: 1ce9 343e fcf1 34be 31f2 34be a4f1 343e
-0.17670228 0.17670082 -0.17670241 0.17670485 0.17667049 -0.17670435 -0.17670514 0.17670304
