ai_predict/ai/lightning_logs/version_84/checkpoints/epoch=2-step=12.ckpt (torch, 662004 bytes, 889 tensors)

prescalers.time_idx.weight f4 [8, 1]
0.8466565 -0.15132025 0.18362017 0.21235952 0.08918908 -0.12719151 -0.7070571 -0.8372061
00000000: 7bbe 583f b2f3 1abe ed06 3c3e c674 593e
00000010: c4a8 b63d 7e3e 02be b201 35bf 2453 56bf

prescalers.time_idx.bias f4 [8]
0.53231806 -0.561634 0.2863157 0.36502856 -0.37946993 -0.65130097 -0.4766372 0.7507968
00000000: ff45 083f 3fc7 0fbf f997 923e 06e5 ba3e
00000010: e249 c2be a9bb 26bf cb09 f4be 3834 403f

prescalers.T2M.weight f4 [8, 1]
0.3003174 0.8234276 0.55294275 -0.57354844 -0.24202146 -0.025873221 0.73391473 -0.6804321
00000000: 34c3 993e 27cc 523f a88d 0d3f 12d4 12bf
00000010: 79d4 77be 14f4 d3bc d6e1 3b3f cc30 2ebf

prescalers.T2M.bias f4 [8]
0.4284129 -0.11681038 0.26259646 -0.6957843 0.082674205 -0.23590235 0.48324764 0.71463066
00000000: f058 db3e 483a efbd 0b73 863e eb1e 32bf
00000010: 1851 a93d 6390 71be 3c6c f73e 09f2 363f

prescalers.T2M_MAX.weight f4 [8, 1]
-0.08447322 -0.15527898 -0.54763174 -0.9643232 -0.6319806 -0.6140387 -0.6894864 0.56204265
00000000: 4c00 adbd 7401 1fbe 9831 0cbf e3dd 76bf
00000010: 7bc9 21bf a431 1dbf 2e82 30bf 07e2 0f3f

prescalers.T2M_MAX.bias f4 [8]
-0.029770374 -0.47431144 0.9094979 0.9922096 -0.25946096 1.0235323 0.1330077 0.049202345
00000000: 00e1 f3bc f3d8 f2be dbd4 683f 7301 7e3f
00000010: 11d8 84be 1b03 833f 2c33 083e 6688 493d

prescalers.T2M_MIN.weight f4 [8, 1]
0.16740336 0.6235384 0.45283118 -0.03288771 0.03537491 -0.55261177 1.0668039 -0.4544498
00000000: c96b 2b3e 36a0 1f3f 7dd9 e73e 43b5 06bd
00000010: 48e5 103d f777 0dbf 088d 883f a5ad e8be

prescalers.T2M_MIN.bias f4 [8]
-0.14686808 -0.10497179 0.6780266 -0.4217764 -0.57587713 -0.47072464 0.8033083 -0.06185526
00000000: 9664 16be 73fb d6bd 2793 2d3f 14f3 d7be
00000010: af6c 13bf d202 f1be 9da5 4d3f f15b 7dbd

prescalers.PRECTOTCORR.weight f4 [8, 1]
-0.7250253 -0.00778709 0.73169565 -0.89501786 0.4457096 0.71713716 -0.16540183 -0.31063807
00000000: 429b 39bf d82a ffbb 6850 3b3f e41f 65bf
00000010: 0c34 e43e 4d96 373f 195f 29be f40b 9fbe

prescalers.PRECTOTCORR.bias f4 [8]
-0.40418094 -0.09745415 0.57639366 -0.13216986 -1.2064263 0.77928925 0.49470556 -0.22432047
00000000: cef0 cebe 0b96 c7bd 898e 133f 8957 07be
00000010: 2d6c 9abf 807f 473f 0c4a fd3e 44b4 65be

prescalers.RH2M.weight f4 [8, 1]
-0.37630588 0.9278718 0.9685683 0.6940395 0.65005267 -0.22577423 -0.50165266 0.35519272
00000000: 2aab c0be 0289 6d3f 18f4 773f 93ac 313f
00000010: da69 263f 5c31 67be 4f6c 00bf d2db b53e

prescalers.RH2M.bias f4 [8]
0.8022091 -0.40443027 0.95559096 0.13852003 1.0856485 0.0332309 0.82126564 0.50202703
00000000: 935d 4d3f 7c11 cfbe 9ca1 743f 32d8 0d3e
00000010: 88f6 8a3f 201d 083d 773e 523f d884 003f

prescalers.ALLSKY_SFC_SW_DWN.weight f4 [8, 1]
0.8301435 0.36381707 -0.57902765 -0.44027054 -1.2032326 0.17921828 -0.04573345 0.52523804
00000000: 4984 543f 3b46 ba3e 283b 14bf 246b e1be
00000010: 8703 9abf ff84 373e 0053 3bbd 0076 063f

prescalers.ALLSKY_SFC_SW_DWN.bias f4 [8]
-0.55582017 0.64791423 0.23213018 0.64162135 0.2439468 0.58007044 0.67852795 0.8356598
00000000: 3b4a 0ebf b5dd 253f 89b3 6d3e 4c41 243f
00000010: 31cd 793e 7f7f 143f 02b4 2d3f cded 553f

prescalers.numero_casos.weight f4 [8, 1]
-0.71624506 0.71010065 0.08925519 -0.5412951 -0.5946842 -0.64405656 -1.0253191 0.4502387
00000000: d65b 37bf 28c9 353f 6dcb b63d 5192 0abf
00000010: 393d 18bf e4e0 24bf a83d 83bf b085 e63e

prescalers.numero_casos.bias f4 [8]
0.37620568 -0.5282347 -0.15605581 0.51448244 0.9416657 0.5933205 0.847972 0.6716105
00000000: 089e c03e 643a 07bf 18cd 1fbe 1fb5 033f
00000010: 0111 713f dae3 173f b114 593f aaee 2b3f

static_variable_selection.single_variable_grns.municipio.mask f4 [16]
0.13523059 -0.13525802 0.13525337 0.13525477 0.13525644 -0.1352531 -0.13525619 -0.13525417
0.13525751 0.13525257 -0.1352543 0.13525486 0.13527597 0.13525082 -0.13525158 -0.1352543
00000000: e379 0a3e 1481 0abe dc7f 0a3e 3a80 0a3e
00000010: aa80 0a3e ca7f 0abe 9980 0abe 1280 0abe
00000020: f280 0a3e a67f 0a3e 1a80 0abe 4080 0a3e
00000030: c985 0a3e 317f 0a3e 647f 0abe 1a80 0abe

static_variable_selection.single_variable_grns.municipio.norm.weight f4 [16]
0.888518 1.1436237 0.78339547 1.1015085 1.1179109 0.84945214 1.2111437 1.0080085
1.1048329 0.96700376 1.0141135 1.0390826 1.1138352 0.7896369 0.8589479 1.0808672
00000000: ea75 633f 4362 923f 9b8c 483f 3bfe 8c3f
00000010: b417 8f3f b275 593f c206 9b3f 6c06 813f
00000020: 2a6b 8d3f 8f8d 773f 79ce 813f a900 853f
00000030: 2792 8e3f a525 4a3f 02e4 5b3f db59 8a3f

static_variable_selection.single_variable_grns.municipio.norm.bias f4 [16]
-0.135321 -0.13526808 0.13524027 0.13525712 0.13527669 -0.13524435 -0.13526772 -0.13526194
0.13542767 -0.13547759 -0.13525411 0.13527304 -0.13522053 0.13519506 -0.1352437 -0.13525176
00000000: 9791 0abe b783 0abe 6d7c 0a3e d880 0a3e
00000010: f985 0a3e 7f7d 0abe 9f83 0abe 1b82 0abe
00000020: 8dad 0a3e a3ba 0abe 0e80 0abe 0485 0a3e
00000030: 4077 0abe 9370 0a3e 537d 0abe 707f 0abe

encoder_variable_selection.flattened_grn.resample_norm.mask f4 [8]
-0.14483546 -0.044032995 -0.20443186 0.10362222 0.12775056 0.13185686 0.18912685 0.1537339
00000000: bf4f 14be f15b 34bd 9656 51be e337 d43d
00000010: 0bd1 023e 7c05 073e 78aa 413e 6b6c 1d3e

encoder_variable_selection.flattened_grn.resample_norm.norm.weight f4 [8]
0.85976505 0.955596 0.81074727 1.1085242 1.1285028 1.1357086 1.1936578 1.1667025
00000000: 9019 5c3f f1a1 743f 228d 4f3f 1fe4 8d3f
00000010: c872 903f e65e 913f c7c9 983f 8256 953f

encoder_variable_selection.flattened_grn.resample_norm.norm.bias f4 [8]
-0.13410243 0.13488303 -0.029346613 -0.11723216 -0.12319094 -0.15192889 0.18807198 0.14262447
00000000: 2652 09be c71e 0a3e 4f68 f0bc 6a17 f0bd
00000010: 884b fcbd 3f93 1bbe f195 403e 260c 123e

encoder_variable_selection.flattened_grn.fc1.weight f4 [8, 64]
0.026275003 -0.009601507 0.060334332 0.5591506 0.22665384 -0.13004017 0.022791449 0.4013848
-0.12795901 -0.08448728 -0.25827256 -0.25677168 0.028092394 -0.326112 -0.052035123 -0.2691881
-0.3341988 -0.20759901 -0.08536684 0.11678134 -0.048757188 -0.007536304 -0.063367754 -0.065674774
-0.015825154 -0.14053914 0.010983387 -0.2246426 -0.03282126 0.008608952 0.17836013 -0.016013104
-0.26708823 -0.2608116 0.23461546 -0.103406884 0.050726697 0.0008199243 0.15101734 -0.21226177
0.19092277 0.13621584 0.3000724 0.05665169 -0.11262734 0.04492594 -0.053396262 0.4209735
-0.50864124 0.30670613 -0.046162773 0.2264915 -0.122970395 0.36362165 0.17393409 -0.061185688
0.3049002 -0.13596545 -0.068590954 0.39962643 0.08585361 0.08871681 -0.027029408 0.25861537
0.22601932 0.038941704 0.21375191 -0.049549952 0.02505291 0.4992065 -0.23685247 -0.07593488
-0.011965429 0.015210126 -0.47880313 -0.048896763 -0.12422268 0.38384154 -0.13046943 -0.21918885
-0.011303553 0.0013242462 0.19476911 -0.049112223 -0.2152825 -0.22583641 0.064952955 0.1406604
0.3705505 0.18143713 0.07327461 -0.12548706 0.14221492 0.16840169 -0.08615739 0.06344374
-0.08530563 -0.35752666 -0.37130326 -0.0447558 0.08049436 -0.3275045 -0.021264203 -0.2798688
-0.12808846 0.16923282 -0.10416301 0.1623056 -0.27235955 0.019678272 -0.31335476 -0.33946782
0.22302978 -0.31059343 -0.16712396 -0.6239491 -0.074574165 -0.1043841 -0.3088538 -0.31575707
-0.15546905 0.36901018 -0.03802812 0.015196069 -0.26127318 -0.18338625 -0.034829132 -0.35488358
0.4347685 -0.2197935 0.44966665 0.11943119 -0.031692915 0.21097817 -0.5649419 0.08052551
-0.015129814 -0.27870968 -0.011259139 -0.13260366 -0.028110677 -0.1727717 -0.022436632 -0.00991705
-0.15947536 0.17245016 -0.15686272 -0.11288728 0.15574168 -0.12426887 0.28903854 0.03708236
0.1433243 -0.07895464 0.088787846 -0.023002584 -0.33148244 0.074920245 -0.20124847 0.27935922
-0.041843865 -0.16402826 -0.12798147 0.083227016 -0.07922567 -0.05455049 -0.45395738 -0.09764807
-0.03468168 0.11811821 -0.20826985 -0.08624292 -0.030806147 0.06293406 0.17684358 0.0845022
0.25341013 0.03461546 -0.24264422 -0.12887792 -0.079608604 -0.020395027 -0.025662351 -0.03253041
0.04255675 -0.047297847 -0.09197344 0.20200035 -0.16729146 -0.32274246 0.038399078 0.039955065
0.011278734 -0.30447268 -0.18790722 0.048689455 -0.03913755 0.013258661 0.14917758 0.11475155
0.15946522 -0.31865984 0.26463082 0.06363569 0.17970085 -0.6660916 0.36776692 -0.053228427
-0.24294294 -0.20751062 0.11258621 0.17403845 -0.31705177 0.17757042 0.22637695 -0.032170065
-0.05170571 0.31162634 0.06315989 -0.056903858 -0.11443156 -0.20626074 -0.18375617 -0.14908645
0.04932739 -0.13083097 0.28022292 -0.108666144 0.34550986 -0.11919293 0.15503746 -0.36127976
-0.048373763 0.22115612 0.46236384 -0.017577128 -0.099566236 -0.09883849 -0.014391741 0.08343866
-0.1678513 0.25775653 0.19603074 0.35347253 0.5941232 0.24398804 -0.15289772 -0.10549352
0.19251187 0.037064657 0.05178217 0.19236347 0.1593494 0.010415145 0.10247404 -0.0404047
00000000: ad3e d73c a44f 1dbc 2221 773d 7e24 0f3f
00000010: f217 683e 4029 05be 22b5 ba3c 4f82 cd3e
00000020: b007 03be ab07 adbd 4d3c 84be 9477 83be
00000030: 0522 e63c 27f8 a6be c822 55bd 06d3 89be
00000040: 1b1c abbe d694 54be cfd4 aebd 0e2b ef3d
00000050: 9eb5 47bd 1af3 f6bb f4c6 81bd 7f80 86bd
00000060: c1a3 81bc 7ee9 0fbe aaf3 333c b608 66be
00000070: 966f 06bd 900c 0d3c 0aa4 363e ea2d 83bc
00000080: cabf 88be 1989 85be 093f 703e fdc6 d3bd
00000090: ccc6 4f3d 30f0 563a 4aa4 1a3e 265b 59be
000000a0: 4281 433e 2a7c 0b3e 17a3 993e 9a0b 683d
000000b0: 2aa9 e6bd 4304 383d 0ab6 5abd d789 d73e
000000c0: 5036 02bf 9608 9d3e 2d15 3dbd 63ed 673e
000000d0: e7d7 fbbd 9e2c ba3e c71b 323e d89d 7abd
000000e0: e11b 9c3e 873a 0bbe 6a79 8cbd d69b cc3e
000000f0: 04d4 af3d 29b1 b53d c76c ddbc 3c69 843e
00000100: 9c71 673e 5681 1f3d c8e1 5a3e e4f4 4abd
00000110: c33b cd3c ff97 ff3e 7489 72be bf83 9bbd
00000120: a60a 44bc e433 793c af25 f5be f947 48bd
00000130: 7668 febd e186 c43e c799 05be 0b73 60be
00000140: 8a32 39bc 5492 ad3a 8e71 473e e629 49bd
00000150: 0473 5cbe a941 67be 0e06 853d 4809 103e
00000160: ccb8 bd3e a8ca 393e 0011 963d ae7f 00be
00000170: caa0 113e 7e71 2c3e 4973 b0bd cbee 813d
00000180: b8b4 aebd bc0d b7be 761b bebe dc51 37bd
00000190: 3ada a43d abae a7be 4432 aebc f74a 8fbe
000001a0: 9f29 03be 5e4b 2d3e 6b53 d5bd 7033 263e
000001b0: b672 8bbe 5434 a13c 0970 a0be bace adbe
000001c0: eb61 643e 1a06 9fbe 8b22 2bbe 21bb 1fbf
000001d0: 57ba 98bd 55c7 d5bd 1622 9ebe e9aa a1be
000001e0: 4733 1fbe e7ee bc3e 60c3 1bbd eff8 783c
000001f0: 99c5 85be 9bc9 3bbe fea8 0ebd 4db3 b5be
00000200: fa99 de3e 8c11 61be b53a e63e 5798 f43d
00000210: 6ed0 01bd a90a 583e 08a0 10bf 8fea a43d
00000220: 0ae3 77bc 09b3 8ebe 4078 38bc 41c9 07be
00000230: 5d48 e6bc 11eb 30be 07cd b7bc 1f7b 22bc
00000240: 824d 23be c696 303e 9fa0 20be 7231 e7bd
00000250: bf7a 1f3e ad80 febd dcfc 933e ace3 173d
00000260: 9bc3 123e f8b2 a1bd 67d6 b53d ea6f bcbc
00000270: 11b8 a9be c96f 993d 1414 4ebe 2c08 8f3e
00000280: 7964 2bbd 06f7 27be 930d 03be ed72 aa3d
00000290: 1141 a2bd 5670 5fbd 1a6d e8be b6fb c7bd
000002a0: 610e 0ebd f6e7 f13d b144 55be 21a0 b0bd
000002b0: 2c5d fcbc 93e3 803d 7c16 353e 7d0f ad3d
000002c0: f9be 813e f1c8 0d3d ba77 78be 93f8 03be
000002d0: d609 a3bd 7913 a7bc da39 d2bc 9b3e 05bd
000002e0: fd4f 2e3d 63bb 41bd 925c bcbd 2ed9 4e3e
000002f0: 744e 2bbe 803e a5be 5a48 1d3d eca7 233d
00000300: 70ca 383c d8e3 9bbe c06a 40be 986e 473d
00000310: b24e 20bd db3a 593c 02c2 183e dc02 eb3d
00000320: da4a 233e 6227 a3be b17d 873e 6e53 823d
00000330: 8003 383e fb84 2abf f24b bc3e 0d06 5abd
00000340: 09c6 78be aa7d 54be 9993 e63d 2337 323e
00000350: 9c54 a2be 05d5 353e 5ccf 673e c2c4 03bd
00000360: 5ec9 53bd 7d8d 9f3e f959 813d 0514 69bd
00000370: 185b eabd 0436 53be 942a 3cbe 1eaa 18be
00000380: 840b 4a3d 8ef8 05be 6179 8f3e 5b8c debd
00000390: abe6 b03e 6c1b f4bd 24c2 1e3e a9f9 b8be
000003a0: 9123 46bd c076 623e f4ba ec3e e9fd 8fbc
000003b0: 62e9 cbbd d66b cabd 56cb 6bbc e3e1 aa3d
000003c0: 36e1 2bbe aaf8 833e 48bc 483e 5afa b43e
000003d0: 7518 183f 00d8 793e 3891 1cbe fd0c d8bd
000003e0: d521 453e 1cd1 173d 8a19 543d eefa 443e
000003f0: 7d2c 233e 49a4 2a3c e9dd d13d 667f 25bd

encoder_variable_selection.flattened_grn.fc1.bias f4 [8]
0.11611861 -0.15176833 -0.08198416 0.1320462 -0.12847134 0.11707357 -0.12840705 -0.13764155
00000000: 98cf ed3d 2869 1bbe 50e7 a7bd 1e37 073e
00000010: fe8d 03be 45c4 ef3d 237d 03be e8f1 0cbe

encoder_variable_selection.flattened_grn.context.weight f4 [8, 16]
0.21614131 -0.03500915 -0.1895478 0.4124675 -0.29469025 -0.47161666 -0.39604142 0.3170706
0.07786452 0.14208816 0.07249561 -0.074894175 0.2370759 0.32398525 0.2521622 -0.5073275
-0.44560316 -0.13253826 -0.29226968 0.28548786 -0.009450022 -0.39248028 -0.19475612 -0.42156503
-0.40253106 0.3737927 0.47907677 -0.37460917 -0.11108744 -0.16918866 0.3659696 0.13683008
-0.44278356 -0.038195528 0.3582225 0.24791685 0.066295706 -0.24336877 -0.30688685 0.34085062
0.404051 0.13144493 -0.07346605 0.3340848 -0.030532708 -0.3632115 -0.26779234 0.08939495
0.095937 -0.34795153 0.4855764 0.53430873 0.279277 -0.24630828 -0.16073216 -0.20626067
-0.14993678 -0.18265559 0.23967734 0.12942724 -0.38554803 0.38263273 -0.4628043 -0.019464547
0.18313327 -0.09603501 0.19991842 0.08929512 0.25723386 0.09556763 -0.22673473 0.12005529
0.09373846 0.034314588 0.23435336 0.3271777 -0.12939759 0.5483026 -0.23486598 0.073930286
0.2840308 0.11855122 -0.27725184 -0.44007647 -0.021735094 0.28360975 0.22762318 0.363375
-0.26203403 0.27969193 0.22248103 -0.3413282 -0.17478241 0.043265373 -0.12199537 -0.38092208
-0.29831016 0.23355687 -0.19243981 0.4014838 0.22640386 0.35503113 -0.50270605 -0.14076231
0.22088471 0.29630086 -0.13301611 -0.20914657 0.24165681 -0.24642512 0.20363182 -0.18040523
-0.25701764 0.18662576 0.20609197 -0.12907669 0.21911016 -0.2422325 0.15466782 0.20342773
-0.17722203 0.040744223 -0.29810813 -0.5699019 0.21465702 -0.26556286 0.25501993 -0.027568657
00000000: 2654 5d3e c165 0fbd d218 42be f12e d33e
00000010: a4e1 96be bd77 f1be f1c5 cabe 1457 a23e
00000020: 6f77 9f3d 8f7f 113e 9478 943d 1e62 99bd
00000030: 06c4 723e 65e1 a53e 671b 813e 37e0 01bf
00000040: 1926 e4be 1cb8 07be 5fa4 95be 772b 923e
00000050: 44d4 1abc 2df3 c8be 266e 47be 5fd7 d7be
00000060: 8d18 cebe c261 bf3e 8d49 f53e c6cc bfbe
00000070: d081 e3bd cb3f 2dbe 5e60 bb3e 2f1d 0c3e
00000080: 87b4 e2be ea72 1cbd f168 b73e eadd 7d3e
00000090: 0bc6 873d aa35 79be 4620 9dbe f983 ae3e
000000a0: c6df ce3e 8099 063e 5e75 96bd 2a0d ab3e
000000b0: bb1f fabc dcf6 b9be 141c 89be b314 b73d
000000c0: 9e7a c43d b426 b2be 789d f83e 75c8 083f
000000d0: 65fd 8e3e 3d38 7cbe f996 24be ff35 53be
000000e0: 0789 19be 110a 3bbe fa6d 753e 9388 043e
000000f0: 8d66 c5be 70e8 c33e aff4 ecbe 1d74 9fbc
00000100: 4a87 3b3e 01ae c4bd 6ab7 4c3e 5ce0 b63d
00000110: 28b4 833e f6b8 c33d 262d 68be 8cdf f53d
00000120: f3f9 bf3d 748d 0c3d 54fa 6f3e d683 a73e
00000130: cd80 04be 8f5d 0c3f b580 70be c368 973d
00000140: 7c6c 913e fbca f23d f4f3 8dbe b451 e1be
00000150: cc0d b2bc 4c35 913e 0d16 693e 4a0c ba3e
00000160: 5329 86be c833 8f3e 11d2 633e 92c2 aebe
00000170: 29fa 32be 0837 313d b5d8 f9bd 3808 c3be
00000180: 1cbc 98be 8829 6f3e f10e 45be 498f cd3e
00000190: 6ad6 673e a4c6 b53e 58b1 00bf ff23 10be
000001a0: 9a2f 623e bfb4 973e 6035 08be 852a 56be
000001b0: e274 773e de56 7cbe dc84 503e 26bc 38be
000001c0: d197 83be d31a 3f3e c609 533e ae2c 04be
000001d0: 6a5e 603e cc0b 78be 3e61 1e3e 5c4f 503e
000001e0: b179 35be 6ae3 263d a1a1 98be 17e5 11bf
000001f0: 0dcf 5b3e dbf7 87be f991 823e aad7 e1bc

encoder_variable_selection.flattened_grn.fc2.weight f4 [8, 8]
-0.16366732 0.9095308 -0.27483127 -0.88405985 -0.5153914 1.2887473 0.5810749 0.2832841
0.49681053 -0.29049236 0.5920727 0.27385104 -0.11784648 0.4783218 -0.391884 -0.79460716
0.37102824 -0.32843763 -0.098690614 -0.15320107 0.5004972 -0.73036456 -0.581082 -0.35796705
0.0711607 0.7253024 -0.4388089 -0.23052289 0.5538848 -0.6058269 0.3136364 -0.4402091
-0.49747866 0.0549345 0.77907735 0.024283895 0.117493086 0.8089605 0.48871827 0.5183453
-0.02989107 -0.6556917 0.37055057 0.69972175 -0.7074944 -0.48456118 -0.546328 0.36467597
-0.19678552 -0.42907372 0.25557095 0.047714498 -0.0020021363 0.7488342 -0.5594709 0.2133523
-0.103632405 -0.47907677 0.18831643 -0.1348931 0.14983352 -0.15915737 -0.29086283 0.70241654
00000000: 6898 27be 03d7 683f afb6 8cbe bf51 62bf
00000010: b1f0 03bf acf5 a43f 53c1 143f 9d0a 913e
00000020: f35d fe3e 6abb 94be 1492 173f 3436 8c3e
00000030: 7f59 f1bd 98e6 f43e 05a5 c8be 606b 4bbf
00000040: 6af7 bd3e fa28 a8be 4e1e cabd bee0 1cbe
00000050: 9620 003f 2cf9 3abf cac1 14bf 7547 b7be
00000060: b3bc 913d 6bad 393f 8fab e0be 310e 6cbe
00000070: 65cb 0d3f 7917 1bbf f394 a03e 1663 e1be
00000080: 86b5 febe 0003 613d 9d71 473f 05ef c63c
00000090: 37a0 f03d 0918 4f3f 4839 fa3e 47b2 043f
000000a0: 1ede f4bc 69db 27bf ceb8 bd3e f720 333f
000000b0: 5a1e 35bf 6718 f8be 27dc 0bbf cfb6 ba3e
000000c0: 2582 49be 8daf dbbe 32da 823e 4770 433d
000000d0: 4636 03bb 99b3 3f3f 7c39 0fbf 0679 5a3e
000000e0: 3a3d d4bd 8d49 f5be 06d6 403e 6b21 0abe
000000f0: f56d 193e 26fa 22be f9eb 94be 92d1 333f

encoder_variable_selection.flattened_grn.fc2.bias f4 [8]
0.09032119 0.12891795 0.13965958 0.12575558 -0.04507461 0.13873631 0.09357995 -0.12945823
00000000: 51fa b83d 1103 043e ec02 0f3e 12c6 003e
00000010: 27a0 38bd e410 0e3e d8a6 bf3d b390 04be

encoder_variable_selection.flattened_grn.gate_norm.glu.fc.weight f4 [16, 8]
0.28179896 -0.16459252 -0.16376089 0.09614805 0.034667786 -0.31841043 -0.20826495 0.022120833
-0.49942538 -0.015727106 -0.424483 -0.29393864 -0.1799438 0.5443103 0.027178187 0.42958644
0.3957133 -0.19927672 0.31620896 0.17228758 -0.059472375 0.06436569 0.32223582 0.31102383
0.2213517 0.0935813 0.47465456 0.20725179 -0.5218404 -0.15259339 -0.36823392 0.00037839764
-0.04329931 -0.28557223 -0.0032940693 -0.37803346 -0.05377629 0.09917964 0.49266842 -0.07625601
-0.13981096 -0.36462507 -0.26246414 -0.007896499 -0.3173704 0.17986967 0.09514788 0.2529078
0.21702461 -0.17948495 0.33646083 0.5026375 0.14730166 -0.43239775 0.16462097 -0.1715183
-0.16280574 -0.3187445 0.22891726 -0.10870151 0.12433091 0.5480887 -0.0070046936 0.36552033
-0.09614031 -0.0011570388 0.22400106 -0.06225018 -0.25592157 0.24404609 -0.16808322 -0.1905471
-0.43594384 -0.04031032 0.40955907 0.0023467233 0.49766362 0.43466666 -0.21364295 0.45644346
-0.074452445 -0.21800524 -0.37108067 0.37510914 -0.25958326 -0.2634306 0.35926053 0.2437369
-0.14300577 0.34746644 0.27966756 -0.12459482 0.27966595 0.19335483 0.21614414 0.012502909
0.026221639 -0.5183885 -0.251987 0.35796636 -0.005803625 -0.20110317 0.46068937 0.4807425
0.12442306 0.4597031 -0.10519384 -0.33972353 0.25008157 -0.45359585 -0.043315884 0.079315394
0.19233906 -0.5823485 -0.37362605 0.13646923 0.3075968 -0.26934186 0.2668348 0.5628872
0.13416755 0.08647686 -0.5484199 -0.0041321763 -0.22269349 0.13127749 0.32222787 0.057543147
00000000: f447 903e f18a 28be efb0 27be 45e9 c43d
00000010: cfff 0d3d b106 a3be 6843 55be c036 b53c
00000020: afb4 ffbe 22d6 80bc d655 d9be 207f 96be
00000030: 3043 38be eb57 0b3f caa4 de3c c1f2 db3e
00000040: ef9a ca3e 320f 4cbe 24e6 a13e 286c 303e
00000050: 4e99 73bd 29d2 833d 18fc a43e 843e 9f3e
00000060: 05aa 623e 8da7 bf3d ec05 f33e d039 543e
00000070: 5597 05bf 7141 1cbe 2889 bcbe ac63 c639
00000080: 9e5a 31bd 8636 92be 50e1 57bb 9a8d c1be
00000090: 8744 5cbd b21e cb3d 093f fc3e 1c2c 9cbd
000000a0: 9b2a 0fbe 23b0 babe b361 86be 5160 01bc
000000b0: 607e a2be c12f 383e e4dc c23d 227d 813e
000000c0: b33b 5e3e e7ca 37be 9844 ac3e daac 003f
000000d0: 3fd6 163e 3d63 ddbe 6692 283e 7ea2 2fbe
000000e0: 8cb6 26be 7b32 a3be 4969 6a3e e69e debd
000000f0: 34a1 fe3d 8b4f 0c3f a187 e5bb 7b25 bb3e
00000100: 36e5 c4bd c8a7 97ba 8960 653e 0bfa 7ebd
00000110: 2708 83be 38e7 793e 021e 2cbe c71e 43be
00000120: 0834 dfbe 6f1c 25bd bab1 d13e 7ccb 193b
00000130: c4cd fe3e a18c de3e 38c5 5abe f5b2 e93e
00000140: 867a 98bd c43c 5fbe 49fe bdbe 4e0e c03e
00000150: 19e8 84be 60e0 86be fff0 b73e 2a96 793e
00000160: 1b70 12be 1fe7 b13e 9630 8f3e 922b ffbd
00000170: 6030 8f3e cffe 453e e454 5d3e 00d9 4c3c
00000180: c3ce d63c 1cb5 04bf 7104 81be 5e47 b73e
00000190: 562c bebb fded 4dbe 7adf eb3e e223 f63e
000001a0: 84d1 fe3d 345e eb3e de6f d7bd 3ef0 adbe
000001b0: b10a 803e b73d e8be ff6b 31bd 1c70 a23d
000001c0: 88f4 443e cb14 15bf ea4b bfbe 97be 0b3e
000001d0: 547d 9d3e 2de7 89be 929e 883e 6019 103f
000001e0: 3863 093e c81a b13d 3f65 0cbf 3567 87bb
000001f0: c309 64be 9b6d 063e 0dfb a43e 5db2 6b3d

encoder_variable_selection.flattened_grn.gate_norm.glu.fc.bias f4 [16]
-0.13162401 0.12624514 -0.015788637 -0.10524811 -0.13154441 -0.14345565 0.13829869 0.1465984
-0.11665811 0.14475241 -0.06473359 0.13401334 0.11805993 -0.13360451 0.090659216 0.1159848
00000000: 72c8 06be 6846 013e 2c57 81bc 528c d7bd
00000010: 94b3 06be 0ae6 12be 2c9e 0d3e e41d 163e
00000020: 72ea eebd fa39 143e 0b93 84bd cb3a 093e
00000030: 68c9 f13d 9fcf 08be 8aab b93d 7089 ed3d

encoder_variable_selection.flattened_grn.gate_norm.add_norm.norm.weight f4 [8]
0.8653027 1.1301919 0.8085556 1.0795146 1.1849818 0.8651447 1.1920594 1.160382
00000000: 7a84 5d3f 21aa 903f 80fd 4e3f 892d 8a3f
00000010: 7cad 973f 207a 5d3f 6795 983f 6687 943f

encoder_variable_selection.flattened_grn.gate_norm.add_norm.norm.bias f4 [8]
-0.13644527 0.12501028 -0.19348699 0.13068001 0.11557801 -0.14399725 0.19295612 0.14753297
00000000: 4fb8 0bbe b202 003e 7421 46be fbd0 053e
00000010: 2ab4 ec3d 0474 13be 4a96 453e e212 173e

encoder_variable_selection.single_variable_grns.time_idx.resample_norm.mask f4 [16]
-0.13693672 -0.13363642 0.12899703 -0.17651704 0.13563225 -0.13772781 0.061489522 0.1376671
0.13509575 -0.13862367 0.13712543 -0.13301495 0.15264486 -0.1349319 0.13081859 0.13763317
00000000: 2439 0cbe fcd7 08be cc17 043e e2c0 34be
00000010: 2ee3 0a3e 8508 0dbe 70dc 7b3d 9bf8 0c3e
00000020: 8a56 0a3e 5df3 0dbe 9c6a 0c3e 1235 08be
00000030: ef4e 1c3e 972b 0abe 4ff5 053e b6ef 0c3e

encoder_variable_selection.single_variable_grns.time_idx.resample_norm.norm.weight f4 [16]
0.859935 0.865465 1.1280041 0.80222124 1.1351068 0.86168414 1.0254707 1.1360961
1.1343551 0.8600139 1.1363292 0.8657392 1.1461866 0.86426777 1.127443 1.1347128
00000000: b324 5c3f 1d8f 5d3f 7062 903f 5f5e 4d3f
00000010: 2e4b 913f 5597 5c3f a042 833f 996b 913f
00000020: 8c32 913f df29 5c3f 3c73 913f 16a1 5d3f
00000030: 3eb6 923f a740 5d3f 0d50 903f 453e 913f

encoder_variable_selection.single_variable_grns.time_idx.resample_norm.norm.bias f4 [16]
-0.14479111 -0.1351819 -0.12944952 0.16072094 0.13506126 -0.13858993 -0.021712199 0.1337362
-0.13388692 0.14057714 -0.13625525 0.13379583 -0.14675897 0.14240237 0.12939562 0.13507874
00000000: 1f44 14be 206d 0abe 6a8e 04be 0894 243e
00000010: 804d 0a3e 85ea 0dbe c8dd b1bc 24f2 083e
00000020: a719 09be 74f3 0f3e 7f86 0bbe c601 093e
00000030: fc47 16be edd1 113e 4980 043e 1552 0a3e

encoder_variable_selection.single_variable_grns.time_idx.fc1.weight f4 [8, 8]
-0.17050277 -0.58759403 0.15622005 0.33705783 -0.61326635 -0.8793725 0.6229936 0.06855199
-0.8447686 0.5478909 0.39577502 -0.40579605 0.755044 0.45060006 0.1157724 0.3358217
0.24059077 0.026480794 -0.26828822 0.60116124 0.5640774 0.23077281 0.14409454 0.48756582
-0.39712217 0.5379082 -0.019220456 -0.5609144 -0.32731006 -0.055667754 0.104131944 -0.86763716
0.56432605 0.69354147 0.09173487 -0.121986054 0.7041812 -0.05466206 -0.17197293 0.22315933
-0.016451722 -0.72206664 0.22268018 -0.12574767 0.18423587 0.01911284 0.037274156 0.23571603
-0.2923938 -0.46815512 -0.11840373 0.12028846 -0.09191932 0.04974013 -0.6889598 0.58938664
-0.20397505 -0.4969708 0.43359247 0.78283316 -0.124876596 -1.3297969 0.06529401 -0.008094963
00000000: 4798 2ebe 906c 16bf 26f8 1f3e d892 ac3e
00000010: 06ff 1cbf 8e1e 61bf 827c 1f3f fc64 8c3d
00000020: c142 58bf 9442 0c3f 06a3 ca3e 80c4 cfbe
00000030: 904a 413f 0db5 e63e 141a ed3d d2f0 ab3e
00000040: 6d5d 763e 40ee d83c 135d 89be b4e5 193f
00000050: 6067 103f b54f 6c3e 858d 133e 3aa2 f93e
00000060: 9953 cbbe 5ab4 093f 3874 9dbc 1698 0fbf
00000070: 2f95 a7be df03 64bd 2143 d53d 781d 5ebf
00000080: ac77 103f ef8b 313f 7edf bb3d d3d3 f9bd
00000090: 3845 343f 53e5 5fbd ac19 30be e183 643e
000000a0: c3c5 86bc 5cd9 38bf 4606 643e ffc3 00be
000000b0: 54a8 3c3e 8892 9c3c c9ac 183d 8b5f 713e
000000c0: a4b4 95be 07b2 efbe a87d f2bd cc59 f63d
000000d0: 3240 bcbd 4ebc 4b3d ab5f 30bf 0be2 163f
000000e0: d6de 50be f572 febe d5ff dd3e c167 483f
000000f0: 4dbf ffbd c936 aabf deb8 853d bca0 04bc

encoder_variable_selection.single_variable_grns.time_idx.fc1.bias f4 [8]
0.1389229 -0.13841426 0.13479595 -0.13818325 -0.13427794 0.12753606 0.14138345 -0.087481365
00000000: ce41 0e3e 78bc 0dbe f307 0a3e e97f 0dbe
00000010: 2880 09be d098 023e d3c6 103e 6e29 b3bd

encoder_variable_selection.single_variable_grns.time_idx.fc2.weight f4 [8, 8]
0.19530226 0.35274953 0.19424877 0.22468969 0.12466529 0.6485467 -0.121972345 -0.88933986
-0.43715054 -0.009907441 -0.2599962 0.1269788 0.27427208 -0.5300791 -0.33590576 -0.5546544
0.48733148 -0.2787379 0.28640163 0.68774945 0.47052354 -0.04037321 0.6761853 0.0806973
-0.62574494 -0.5822625 -0.0604411 1.295612 -0.46809712 -0.018943422 -0.20258415 -0.86590874
-0.2371474 1.2323622 0.16777365 0.6778858 0.3864697 0.17575356 -0.36397693 -0.37179235
-0.07623534 -0.19786443 -0.10202084 0.9243412 -0.110582374 -0.64331347 -0.25306955 0.78487575
-0.6139692 0.40900838 -0.085020155 -0.414392 0.356019 0.37923673 0.6325917 -0.68675697
0.36660224 -0.3880896 -0.14290749 -0.006073948 -0.50227576 -0.26643953 -0.023799762 0.044083387
00000000: 51fd 473e 969b b43e 26e9 463e 0e15 663e
00000010: 8450 ff3d 2807 263f a3cc f9bd c7ab 63bf
00000020: 32d2 dfbe d252 22bc 391e 85be bb06 023e
00000030: 646d 8c3e 44b3 07bf d7fb abbe d5fd 0dbf
00000040: 8383 f93e bcb6 8ebe 3ca3 923e 5910 303f
00000050: 76e8 f03e 615e 25bd 7b1a 2d3f a044 a53d
00000060: d230 20bf 280f 15bf 1691 77bd 9dd6 a53f
00000070: 6daa efbe 3c2f 9bbc 3872 4fbe 32ac 5dbf
00000080: c5d6 72be 0bbe 9d3f dbcc 2b3e ec89 2d3f
00000090: 5bdf c53e bef8 333e 2f5b babe 915b bebe
000000a0: 4621 9cbd f99c 4abe 4df0 d0bd a0a1 6c3f
000000b0: 0379 e2bd 31b0 24bf 5592 81be 9eed 483f
000000c0: 162d 1dbf 8c69 d13e 0c1f aebd 302b d4be
000000d0: 1f48 b63e 512b c23e 88f1 213f 4ecf 2fbf
000000e0: 4ab3 bb3e aeb3 c6be 5756 12be f807 c7bb
000000f0: 2595 00bf c36a 88be b8f7 c2bc c890 343d

encoder_variable_selection.single_variable_grns.time_idx.fc2.bias f4 [8]
0.0077482066 0.1458092 0.14904487 -0.14303085 -0.1392666 -0.13537349 -0.13530137 0.13486415
00000000: abe4 fd3b 024f 153e 389f 183e ae76 12be
00000010: e79b 0ebe 599f 0abe 718c 0abe d419 0a3e

encoder_variable_selection.single_variable_grns.time_idx.gate_norm.glu.fc.weight f4 [32, 8]
0.34452328 -0.2331338 -0.010397778 0.15070577 -0.14054066 -0.28495365 0.238011 -0.012402246
-0.11984472 0.17932078 -0.45777088 -0.23884554 0.4212326 -0.3672535 0.18586732 0.31009787
-0.11161889 0.018771477 0.017108439 -0.188984 -0.050631624 -0.37731463 -0.23402527 -0.1264883
-0.2650645 -0.47007534 -0.13966438 -0.33938622 -0.5551795 0.2127277 0.12347054 -0.16195768
-0.4964139 -0.14921576 -0.22338673 -0.01933739 0.14627697 -0.0022899574 -0.30825257 -0.46429926
0.485455 -0.1994893 -0.39413074 0.33303675 0.40861607 0.21831942 0.057253443 0.17247391
-0.21960014 0.4123612 0.04295428 0.45753616 0.48593998 -0.3100741 0.087925084 -0.19086151
0.20049591 -0.37804928 0.14538841 -0.138696 0.13458776 -0.0049320953 -0.030300472 0.20959324
0.40927553 0.14910462 -0.33266506 0.4061832 -0.17005214 -0.3447063 -0.07899747 0.122545585
0.14198488 -0.41402957 0.42044255 -0.51732314 -0.46229592 0.51854104 0.00019502686 -0.34874105
0.004496018 0.032845847 0.19084717 0.44315594 0.20802407 0.0032423558 0.32715175 -0.1409429
0.123494714 -0.1901871 0.33133295 -0.13312505 -0.28957868 -0.13940725 -0.014295454 0.1638298
-0.17401831 -0.15822318 -0.18633257 0.0949279 0.4895241 -0.47623783 -0.04869447 -0.0055348435
-0.35948005 0.06550077 0.33812773 0.08981564 -0.37071744 0.33090797 -0.47803736 0.008783527
-0.33857638 -0.17500447 0.48389956 0.25549304 -0.36167496 0.38991556 -0.48157677 -0.25276226
0.10254597 -0.5186115 -0.2169507 -0.50329244 -0.3995031 -0.14863212 -0.5160104 -0.0931466
0.045680925 0.029273387 0.14613399 0.17535737 -0.3617453 0.4381743 -0.2771234 0.30012795
0.12586872 0.0013808138 -0.13556583 -0.085799076 -0.20185293 -0.4195825 0.2649447 0.01869137
0.37321872 -0.0106808 0.105266675 0.22585438 0.46811888 -0.26432472 0.43611544 0.18683074
-0.22015247 0.117331706 0.1614738 -0.38551372 -0.068205416 0.017239612 -0.13841777 0.10238649
0.054214526 -0.12781562 0.051617425 0.12682503 -0.4638987 -0.09268577 -0.4458784 0.15990736
-0.3344751 -0.06355755 0.3184356 -0.30721274 -0.11767803 0.26044798 -0.43886116 -0.26173738
0.08438985 0.06041862 -0.42314488 -0.06395225 -0.113601476 -0.22037014 -0.12965678 0.29182452
0.42669094 0.24107613 -0.12344738 0.014022541 0.17227882 0.22104618 0.07182015 0.5075678
-0.34434983 -0.23934898 -0.14953987 -0.030979682 -0.25400484 0.2693213 0.02040355 -0.30999234
-0.18402608 -0.11624041 0.5445217 0.09035966 0.14793344 -0.01421955 -0.3347546 0.20733878
-0.21105427 0.12597628 0.18229711 0.4437349 0.06815794 -0.07522386 0.2953878 -0.2117409
-0.21466996 0.08441672 0.094959386 -0.15776315 -0.095041946 0.031986557 -0.07669913 -0.04494221
0.41916722 0.50213766 -0.0076648854 0.07624137 0.0942401 -0.16585876 -0.22364175 0.455705
0.16069674 -0.35870257 -0.18199728 -0.23073564 -0.21539488 -0.14174613 -0.42695898 -0.2277733
-0.44038928 0.17170441 0.32411802 -0.3818548 -0.26337084 0.33703235 -0.27756023 0.24466932
-0.14690444 -0.40223962 -0.107343175 -0.1608946 -0.24040979 -0.15716888 -0.22232065 -0.35247922
00000000: 5b65 b03e a0ba 6ebe 715b 2abc 9d52 1a3e
00000010: e4e9 0fbe 72e5 91be 28b9 733e ca32 4bbc
00000020: 2671 f5bd de9f 373e f260 eabe ed93 74be
00000030: cdab d73e a708 bcbe 0154 3e3e 26c5 9e3e
00000040: 7298 e4bd a4c6 993c ff26 8c3c 0685 41be
00000050: 1b63 4fbd 622f c1be 52a4 6fbe 2686 01be
00000060: 89b6 87be b7ad f0be 2e04 0fbe 08c4 adbe
00000070: 3e20 0ebf 4ad5 593e 1fde fc3d 3cd8 25be
00000080: f629 febe 04cc 18be 7ebf 64be 7269 9ebc
00000090: a1c9 153e 1c13 16bb 48d3 9dbe a2b8 edbe
000000a0: 8f8d f83e ec46 4cbe 81cb c9be cb83 aa3e
000000b0: 2036 d13e 208f 5f3e 9682 6a3d 009d 303e
000000c0: dcde 60be 0221 d33e d4f0 2f3d 2e42 ea3e
000000d0: 20cd f83e 08c2 9ebe 1112 b43d 3371 43be
000000e0: cd4e 4d3e ad8f c1be b3e0 143e 5306 0ebe
000000f0: 60d1 093e 6a9d a1bb b238 f8bc 9c9f 563e
00000100: 908c d13e e2ae 183e 1353 aabe 3ff7 cf3e
00000110: 2622 2ebe 587d b0be 6dc9 a1bd 2ef9 fa3d
00000120: 7c64 113e affb d3be 3f44 d73e 4a6f 04bf
00000130: 0db2 ecbe 1bbf 043f 2080 4c39 308e b2be
00000140: 5553 933b 5e89 063d 716d 433e 56e5 e23e
00000150: 4304 553e b47d 543b 6f80 a73e 5653 10be
00000160: ccea fc3d 68c0 42be 79a4 a93e ef51 08be
00000170: a843 94be c6c0 0ebe 7b37 6abc 00c3 273e
00000180: db31 32be 4205 22be f7cd 3ebe 8f69 c23d
00000190: e7a2 fa3e 72d5 f3be da73 47bd a25d b5bb
000001a0: c50d b8be 4525 863d 141f ad3e 43f1 b73d
000001b0: adce bdbe c56c a93e 50c1 f4be c8e8 0f3c
000001c0: e259 adbe 5f34 33be afc1 f73e fccf 823e
000001d0: 762d b9be 03a3 c73e 3b91 f6be 0e6a 81be
000001e0: 9f03 d23d b9c3 04bf 5328 5ebe c6d7 00bf
000001f0: ac8b ccbe 0533 18be 4219 04bf a5c3 bebd
00000200: ec1b 3b3d bece ef3c 26a4 153e e290 333e
00000210: ae36 b9be 6258 e03e 1ee3 8dbe 5faa 993e
00000220: bbe3 003e 6cfc b43a c5d1 0abe 6db7 afbd
00000230: 89b2 4ebe 84d3 d6be d5a6 873e a51e 993c
00000240: 8616 bf3e 86fe 2ebc 0e96 d73d 5f46 673e
00000250: 47ad ef3e 9255 87be 864a df3e 8f50 3f3e
00000260: a66f 61be 9b4b f03d 6359 253e 0e62 c5be
00000270: 48af 8bbd 163a 8d3c 63bd 0dbe 02b0 d13d
00000280: 0d10 5e3d 19e2 02be cb6c 533d 6cde 013e
00000290: 2184 edbe 09d2 bdbd 2c4a e4be c1be 233e
000002a0: 5240 abbe 762a 82bd fe09 a33e fd4a 9dbe
000002b0: 2e01 f1bd 7059 853e 69b2 e0be 7102 86be
000002c0: 96d4 ac3d 8479 773d 72a6 d8be 66f9 82bd
000002d0: e4a7 e8bd b6a8 61be bfc4 04be 066a 953e
000002e0: 3c77 da3e a9dc 763e fbd1 fcbd cdbe 653c
000002f0: dc69 303e ee59 623e 7116 933d f7ef 013f
00000300: 9f4e b0be e617 75be fb20 19be 1ac9 fdbc
00000310: ec0c 82be 7be4 893e 5825 a73c 51b7 9ebe
00000320: 5571 3cbe 740f eebd c665 0b3f 7c0e b93d
00000330: dd7b 173e 1ef9 68bc f464 abbe 9e50 543e
00000340: 9c1e 58be edff 003e 18ac 3a3e 3931 e33e
00000350: 6496 8b3d f80e 9abd 123d 973e 9bd2 58be
00000360: 71d2 5bbe ace2 ac3d 117a c23d aa8c 21be
00000370: 5aa5 c2bd 5604 033d 6f14 9dbd 5315 38bd
00000380: 169d d63e 188c 003f b829 fbbb 6f24 9c3d
00000390: f400 c13d e1d6 29be 5802 65be 2a52 e93e
000003a0: b08d 243e dda7 b7be 7f5d 3abe f745 6cbe
000003b0: 7a90 5cbe e625 11be 5e9a dabe 673d 69be
000003c0: b47a e1be 48d3 2f3e ccf2 a53e 7982 c3be
000003d0: 8bd8 86be 818f ac3e 601c 8ebe 988a 7a3e
000003e0: 1e6e 16be 5af2 cdbe bdd6 dbbd 8ec1 24be
000003f0: fc2d 76be e1f0 20be 06a8 63be 2878 b4be

encoder_variable_selection.single_variable_grns.time_idx.gate_norm.glu.fc.bias f4 [32]
-0.1443227 -0.13525547 -0.1310876 0.17099887 0.13392107 -0.13863799 -0.015757293 0.13406397
-0.13328636 0.14448217 -0.13579398 0.13398352 -0.14458115 0.14899072 0.12817001 0.13499929
0.0848491 -0.13594477 -0.1309788 0.17544688 0.1338757 0.18547845 0.18444502 -0.13584723
0.13236858 0.14516051 -0.1322246 -0.13741708 -0.12972803 0.14181028 0.1305549 0.13443206
00000000: 54c9 13be 6980 0abe d43b 06be 541a 2f3e
00000010: 9b22 093e 1ef7 0dbe 7015 81bc 1148 093e
00000020: 387c 08be 22f3 133e 940d 0bbe fa32 093e
00000030: 150d 14be 0691 183e 003f 033e 413d 0a3e
00000040: 5dc5 ad3d 1b35 0bbe 4e1f 06be 59a8 333e
00000050: b616 093e 10ee 3d3e 28df 3c3e 891b 0bbe
00000060: a18b 073e f5a4 143e e365 07be 10b7 0cbe
00000070: 6dd7 04be b736 113e 2fb0 053e 8fa8 093e

encoder_variable_selection.single_variable_grns.time_idx.gate_norm.add_norm.norm.weight f4 [16]
0.8619153 0.8650665 1.1193633 1.1802739 1.1346782 0.8675232 1.1331211 0.8659781
1.1096609 0.8670698 1.1368549 0.8648766 0.8815937 0.8651133 1.1212935 1.1340615
00000000: 7ba6 5c3f 0075 5d3f 4c47 8f3f 3713 973f
00000010: 233d 913f 0016 5e3f 1d0a 913f beb0 5d3f
00000020: 5e09 8e3f 49f8 5d3f 7684 913f 8e68 5d3f
00000030: 20b0 613f 1178 5d3f 8c86 8f3f ed28 913f

encoder_variable_selection.single_variable_grns.time_idx.gate_norm.add_norm.norm.bias f4 [16]
-0.14149587 -0.13531075 -0.12808515 0.16691011 0.13444269 -0.139368 -0.16999356 0.13295953
-0.12872794 0.14128026 -0.13640907 0.13415027 0.09397793 0.143955 0.12544177 0.1347427
00000000: 4be4 10be e78e 0abe c128 03be 7cea 2a3e
00000010: 58ab 093e 7cb6 0ebe cb12 2ebe 8b26 083e
00000020: 42d1 03be c6ab 103e d2ae 0bbe b05e 093e
00000030: 8077 c03d f168 133e cf73 003e fef9 093e

encoder_variable_selection.single_variable_grns.T2M.resample_norm.mask f4 [16]
0.03495989 -0.13150685 -0.09962195 0.010661558 0.119808234 -0.08201291 0.11598795 -0.1118196
-0.1341282 0.21478875 0.14889333 -0.16290444 -0.18364441 0.17932563 -3.3847056e-05 0.1671496
00000000: 1a32 0f3d bba9 06be 9806 ccbd d1ad 2e3c
00000010: 055e f53d 62f6 a7bd 178b ed3d ad01 e5bd
00000020: e758 09be 95f1 5b3e 7e77 183e 6cd0 26be
00000030: 480d 3cbe 23a1 373e 00f7 0db8 4429 2b3e

encoder_variable_selection.single_variable_grns.T2M.resample_norm.norm.weight f4 [16]
1.0253649 0.86713797 0.8862896 0.99317205 1.1310672 1.2585244 1.1331989 0.92353916
0.8758139 1.0339917 1.1733905 0.8690529 0.82428396 1.1939156 0.98449415 1.0815126
00000000: 283f 833f c1fc 5d3f e0e3 623f 8640 7e3f
00000010: cfc6 903f 5417 a13f a90c 913f 106d 6c3f
00000020: 5735 603f d759 843f a931 963f 407a 5e3f
00000030: 4604 533f 3ad2 983f cf07 7c3f 016f 8a3f

encoder_variable_selection.single_variable_grns.T2M.resample_norm.norm.bias f4 [16]
0.022612762 -0.11678648 -0.056325868 0.025007546 0.112140566 -0.24151662 -0.19609576 0.10279838
0.13215898 0.24793203 -0.1495411 0.13377675 -0.18570319 0.18775341 0.005943246 -0.10250666
00000000: 663e b93c c02d efbd f4b5 66bd a0dc cc3c
00000010: f4a9 e53d 2250 77be 54cd 48be f587 d23d
00000020: af54 073e e5e1 7d3e 4d21 19be c6fc 083e
00000030: fa28 3ebe 6e42 403e 90bf c23b 03ef d1bd

encoder_variable_selection.single_variable_grns.T2M.fc1.weight f4 [8, 8]
-0.13315572 -0.48164338 -0.1655182 -0.6889526 0.45058066 0.42734858 0.26604173 0.24414647
0.75331956 0.28247264 0.30083197 -0.9205243 0.0643362 -0.022648146 -0.055670284 1.0294552
0.39151552 -0.29881918 -0.5754042 -0.37081704 0.20829 0.18209052 -0.17768312 -0.15179348
-0.19190532 0.17484981 -0.27784237 -0.16225947 -0.36218977 0.22799133 -0.51673853 -0.33133438
-0.4942973 0.41042283 -0.61090887 -0.16283934 -0.39904425 0.6884867 -0.17466581 -0.531937
-0.37381387 0.23290898 0.870409 0.37702936 -1.2270035 1.0473967 0.7180491 1.0890716
0.325868 -1.1987885 0.41554478 -0.32570735 -0.63475996 -0.29191506 0.21644057 -0.39376682
0.14443177 -0.03189886 1.5709124 0.4205227 -0.22795644 0.090985626 0.37858483 0.88470024
00000000: f959 08be f699 f6be 9a7d 29be 335f 30bf
00000010: 82b2 e63e 6fcd da3e 9f36 883e 8801 7a3e
00000020: 8dd9 403f 41a0 903e a606 9a3e 7ba7 6bbf
00000030: b3c2 833d 9b88 b9bc 8606 64bd 30c5 833f
00000040: b974 c83e d4fe 98be b14d 13bf bbdb bdbe
00000050: f949 553e f075 3a3e 90f2 35be c06f 1bbe
00000060: d482 44be d40b 333e 5b41 8ebe 5927 26be
00000070: f070 b9be 8f76 693e fa48 04bf a9a4 a9be
00000080: 8914 fdbe f122 d23e 8664 1cbf 5bbf 26be
00000090: 874f ccbe aa40 303f 98db 32be 062d 08bf
000000a0: 8864 bfbe b17f 6e3e 20d3 5e3f fe09 c13e
000000b0: 730e 9dbf 1811 863f 11d2 373f b366 8b3f
000000c0: 2cd8 a63e e771 99bf 49c2 d43e 1dc3 a6be
000000d0: a17f 22bf e475 95be 99a2 5d3e ce9b c9be
000000e0: ece5 133e 61a8 02bd a813 c93f c04e d73e
000000f0: 6a6d 69be ac56 ba3d dfd5 c13e b77b 623f

encoder_variable_selection.single_variable_grns.T2M.fc1.bias f4 [8]
-0.00021491363 0.15063193 -0.098575726 -0.016232362 -0.09526398 -0.14344248 -0.16774972 0.120815635
00000000: 705a 61b9 423f 1a3e 12e2 c9bd bbf9 84bc
00000010: c319 c3bd 96e2 12be 95c6 2bbe 306e f73d

encoder_variable_selection.single_variable_grns.T2M.fc2.weight f4 [8, 8]
0.62959844 -0.6890927 -0.26272056 -0.24498391 -0.5449365 0.33294034 0.8566267 -0.80734766
0.6013926 0.5516335 0.63008016 0.28242642 -1.0469227 -0.63584626 -0.15574147 0.18936066
-0.061365724 0.03987719 -0.94770914 0.04766493 -0.2525087 0.44207776 -0.064771175 0.49880758
-0.9631179 0.32491437 0.51053524 -0.71523803 -0.7788504 -0.15892479 0.0530615 0.27947634
-0.56891483 -0.85799026 -0.24225816 -0.05846287 0.6905752 -1.1724468 -0.67740893 -0.3492099
-0.66596055 0.039507456 0.11194869 0.97363573 0.3579 -0.79956746 -0.4266202 -0.5169363
0.0875527 -0.06499096 -0.29584733 -0.20431803 -0.40192774 -0.093470715 0.08733177 0.5108417
-0.7897971 0.4392109 -0.2184536 0.66292423 -0.4937148 0.05734556 0.2921238 0.9587362
00000000: 5d2d 213f 6168 30bf 4f83 86be 10dd 7abe
00000010: f580 0bbf 2877 aa3e e34b 5b3f 56ae 4ebf
00000020: def4 193f da37 0d3f ef4c 213f 329a 903e
00000030: 9001 86bf d2c6 22bf b17a 1fbe c3e7 413e
00000040: a05a 7bbd 4456 233d 119d 72bf 4d3c 433d
00000050: d248 81be 0458 e23e c0a6 84bd b563 ff3e
00000060: e58e 76bf 2d5b a63e 70b2 023f d719 37bf
00000070: bd62 47bf 2ebd 22be 0457 593d 8617 8f3e
00000080: 67a4 11bf 40a5 5bbf 8612 78be c376 6fbd
00000090: 89c9 303f bd12 96bf ac6a 2dbf a4cb b2be
000000a0: 647c 2abf 92d2 213d 5b45 e53d 3140 793f
000000b0: ab3e b73e 74b0 4cbf f66d dabe f055 04bf
000000c0: d44e b33d fb19 85bd 4d79 97be bf38 51be
000000d0: 79c9 cdbe 936d bfbd 00db b23d 86c6 023f
000000e0: 2530 4abf 40e0 e03e 4db2 5fbe 67b5 293f
000000f0: 30c8 fcbe 2ee3 6a3d 4091 953e bc6f 753f

encoder_variable_selection.single_variable_grns.T2M.fc2.bias f4 [8]
-0.14467828 0.19131707 0.16791128 -0.008719794 -0.15563583 -0.24393101 0.12040485 -0.14409916
00000000: 8b26 14be 9fe8 433e eff0 2b3e 78dd 0ebc
00000010: 005f 1fbe 0dc9 79be d196 f63d bb8e 13be

encoder_variable_selection.single_variable_grns.T2M.gate_norm.glu.fc.weight f4 [32, 8]
-0.16937843 -0.10895257 0.14919059 0.19305955 -0.24190752 0.032092616 -0.12349628 0.247375
-0.5061764 -0.058603767 -0.13448463 -0.2674643 -0.017136656 -0.12747084 -0.077941775 -0.22863784
0.2400088 -0.037171833 0.39665082 0.22945726 0.15021841 0.25253803 0.03639967 -0.3597381
0.00551057 0.15942492 0.004487847 0.114025764 0.37139335 -0.08970897 -0.16317165 0.368799
0.22580409 0.0017025 0.16741782 0.45477346 -0.44436538 -0.0980766 -0.021911714 0.27413073
0.047853477 -0.37495014 -0.32815787 -0.40099967 0.5016674 0.14545049 -0.2845652 -0.08429906
-0.15600796 -0.050578564 -0.16550641 0.103616536 -0.0006385888 0.30718607 -0.11274238 -0.30042094
-0.18625528 0.1639531 -0.039870873 0.15971573 -0.21873552 -0.09366424 -0.010159997 -0.062930316
0.034749437 0.2024013 -0.3496822 0.47746983 -0.3541094 -0.18682835 0.110587716 -0.07792496
-0.4825998 0.17248668 -0.29813516 -0.12881973 0.0989774 -0.49393922 0.5381489 0.36592287
-0.25277928 -0.18418126 0.102000974 -0.3225093 0.083501786 -0.0088236835 0.3123298 0.041958645
-0.21716113 -0.27765903 -0.057041604 0.025285238 -0.16724166 -0.24890701 0.22697927 -0.15879418
-0.075590596 0.26683405 -0.05772493 -0.26143616 -0.17746125 0.528427 0.011717079 -0.3957594
0.009548565 -0.0842932 0.009991046 0.09177855 0.24438658 0.19308366 -0.13770069 0.22602525
-0.17112911 0.033985216 -0.21910793 0.037313364 -0.25664347 -0.31774792 0.079641014 -0.29984838
-0.15918778 0.22455269 0.10607313 0.110442 -0.17119488 0.28351212 0.13254637 0.13251187
0.29799777 -0.34494507 -0.13991272 -0.2891137 0.29160064 -0.08331425 -0.01961476 0.29126394
-0.3845614 0.1619399 0.19378097 0.17083628 0.12738346 0.519141 -0.085614815 -0.27568308
-0.04794427 -0.29039907 -0.28592336 -0.17398776 0.27892154 0.38039407 0.10147023 0.30213502
0.25450528 -0.06852227 -0.46945506 0.20463371 0.06579559 -0.18515003 0.07622189 0.21293119
-0.040464286 -0.18062349 0.2466453 -0.12649575 0.06162307 0.10516391 0.198959 1.3016397e-05
-0.05279779 0.36448684 0.012524645 0.607511 -0.548299 -0.63588285 -0.0918396 0.06646685
0.19919361 -0.08354641 -0.3063823 0.21416824 0.47325248 -0.029662257 -0.12495964 -0.027522823
-0.3472017 0.2642595 -0.008964384 -0.09743645 0.41354218 0.21951596 -0.15162408 -0.32733724
-0.2192692 0.20314556 -0.012780188 -0.21233268 0.18393004 0.22751923 0.021952633 -0.011806909
-0.21239682 0.30464947 0.3478773 -0.05292943 -0.46500623 -0.06015456 -0.22740951 0.5159506
0.04488349 -0.38724637 -0.13678436 -0.1485371 0.42302516 -0.024246957 -0.2704042 -0.05188787
-0.13409473 0.44931906 0.16098426 -0.07120237 0.35366917 0.49362764 -0.068118066 -0.034651417
0.16200507 -0.39708704 0.11021623 0.031077538 0.29171258 0.12337552 0.024977358 0.29970363
-0.34203795 -0.32629815 -0.39101538 -0.37897983 0.56880057 0.3057507 0.053729203 -0.5241443
0.08436644 0.113726035 -0.39717248 0.12352748 0.05093452 0.092244 -0.03530729 -0.28541744
0.17610657 0.43491825 -0.19335991 -0.24638043 0.34616557 0.086336866 0.004425845 0.15795696
00000000: 8a71 2dbe 8622 dfbd 6bc5 183e 67b1 453e
00000010: 9bb6 77be 8c73 033d 9eeb fcbd df4f 7d3e
00000020: c794 01bf 810a 70bd 57b6 09be 15f1 88be
00000030: 2c62 8cbc b787 02be f09f 9fbd 0a20 6abe
00000040: dec4 753e 7e41 18bd d115 cb3e d8f6 6a3e
00000050: dbd2 193e aa4c 813e d217 153d 982f b8be
00000060: 0392 b43b 4940 233e ca0e 933b 5786 e93d
00000070: 4527 be3e 56b9 b7bd 7816 27be 39d3 bc3e
00000080: 3039 673e 6c26 df3a 946f 2b3e 11d8 e83e
00000090: dc83 e3be 62dc c8bd 3280 b3bc dd5a 8c3e
000000a0: 0202 443d 77f9 bfbe 4f04 a8be d44f cdbe
000000b0: 466d 003f f9f0 143e 88b2 91be fca4 acbd
000000c0: 8dc0 1fbe 782b 4fbd 837a 29be e834 d43d
000000d0: f866 27ba 7e47 9d3e 7ae5 e6bd c6d0 99be
000000e0: b4b9 3ebe 52e3 273e a44f 23bd 858c 233e
000000f0: 34fc 5fbe 09d3 bfbd 1e76 26bc 9ce1 80bd
00000100: 6d55 0e3d 4942 4f3e 8c09 b3be ed76 f43e
00000110: d44d b5be ee4f 3fbe d07b e23d 1f97 9fbd
00000120: 5217 f7be 59a0 303e 2ca5 98be 52e9 03be
00000130: aab4 ca3d 9ae5 fcbe 20c4 093f 3e5a bb3e
00000140: 496c 81be 039a 3cbe e3e5 d03d f01f a5be
00000150: fc02 ab3d 3691 10bc b1e9 9f3e d4dc 2b3d
00000160: 7d5f 5ebe 5329 8ebe 75a4 69bd fd22 cf3c
00000170: 6641 2bbe 7be1 7ebe 416d 683e f19a 22be
00000180: 3ecf 9abd 799e 883e fa70 6cbd f6da 85be
00000190: 67b8 35be fe46 073f fef8 3f3c faa0 cabe
000001a0: 9671 1c3c eaa1 acbd 7cb1 233c 64f6 bb3d
000001b0: 7a40 7a3e b9b7 453e 6901 0dbe 2a73 673e
000001c0: 783c 2fbe 1534 0b3d d45d 60be e6d5 183d
000001d0: c666 83be dbaf a2be d41a a33d ba85 99be
000001e0: 1f02 23be 24f1 653e df3c d93d 6a2f e23d
000001f0: b64d 2fbe 8028 913e 3cba 073e 31b1 073e
00000200: 2a93 983e a49c b0be 4845 0fbe b606 94be
00000210: ae4c 953e a9a0 aabd 22af a0bc 8c20 953e
00000220: 3be5 c4be 93d3 253e 856e 463e b5ef 2e3e
00000230: cf70 023e 6de6 043f d256 afbd 5526 8dbe
00000240: 3661 44bd 30af 94be 8c64 92be d929 32be
00000250: cece 8e3e 03c3 c23e a0cf cf3d 71b1 9a3e
00000260: 844e 823e 6755 8cbd 6a5c f0be 808b 513e
00000270: d7bf 863d f897 3dbe 391a 9c3d a20a 5a3e
00000280: e1bd 25bd 5df5 38be 9690 7c3e 1a88 01be
00000290: 7968 7c3d 2d60 d73d e8bb 4b3e 0061 5a37
000002a0: 7f42 58bd 059e ba3e 2b34 4d3c d785 1b3f
000002b0: 535d 0cbf 38c9 22bf 6616 bcbd c61f 883d
000002c0: 69f9 4b3e 611a abbd 24de 9cbe eb4e 5b3e
000002d0: 264e f23e 43fe f2bc d7ea ffbd 8b77 e1bc
000002e0: 6cc4 b1be 054d 873e 5adf 12bc c38c c7bd
000002f0: cdbb d33e cbc8 603e 5843 1bbe bf98 a7be
00000300: 1b88 60be 6405 503e fe63 51bc bd6d 59be
00000310: 2858 3c3e cdfa 683e 02d6 b33c c471 41bc
00000320: 8d7e 59be 04fb 9b3e f91c b23e 88cc 58bd
00000330: 4c15 eebe a164 76bd 0ade 68be 5715 043f
00000340: c0d7 373d 2845 c6be 3311 0cbe 1c1a 18be
00000350: c196 d83e 8ea1 c6bc 6b72 8abe 6088 54bd
00000360: 2150 09be 260d e63e 0fd9 243e 8cd2 91bd
00000370: 2014 b53e c3bc fc3e 7c81 8bbd a5ee 0dbd
00000380: a8e4 253e fe4e cbbe 0cb9 e13d 5296 fe3c
00000390: 5a5b 953e 4eac fc3d 519d cc3c c172 993e
000003a0: 991f afbe 8d10 a7be 2b33 c8be a509 c2be
000003b0: ea9c 113f 5b8b 9c3e 2713 5c3d 522e 06bf
000003c0: 50c8 ac3d 32e9 e83d 315a cbbe fafb fc3d
000003d0: b7a0 503d 6cea bc3d 609e 10bd 3c22 92be
000003e0: 4855 343e 9bad de3e 2400 46be 274b 7cbe
000003f0: 9d3c b13e 62d1 b03d ae06 913b 78bf 213e

encoder_variable_selection.single_variable_grns.T2M.gate_norm.glu.fc.bias f4 [32]
0.011122203 -0.10468405 0.0001871637 0.02855666 0.05973016 -0.2430054 -0.17371958 0.14607118
0.09203071 0.25292936 -0.16255793 0.14979371 -0.18266048 0.1222331 0.01647255 -0.14247803
0.004082666 -0.15463671 -0.0071658203 -0.02266331 0.083992966 0.25900134 -0.09295221 -0.112610325
0.083718024 0.17928502 -0.21737902 -0.141021 0.16135798 -0.16590907 -0.2664529 -0.13933228
00000000: e739 363c 9764 d6bd 6041 4439 a8ef e93c
00000010: 9da7 743d 68d6 78be 8ce3 31be af93 153e
00000020: 997a bc3d f57f 813e 9675 26be 8663 193e
00000030: 590b 3bbe 5955 fa3d 71f1 863c c3e5 11be
00000040: e2c7 853b 1659 1ebe 42cf eabb 68a8 b9bc
00000050: 8104 ac3d d39b 843e ba5d bebd 3ea0 e6bd
00000060: 5b74 ab3d 7e96 373e 9b98 5ebe cf67 10be
00000070: 073b 253e 11e4 29be 846c 88be 1fad 0ebe

encoder_variable_selection.single_variable_grns.T2M.gate_norm.add_norm.norm.weight f4 [16]
1.0160112 0.8434781 0.93700945 0.80708075 1.1157383 1.2273133 1.1435765 0.9389223
0.8810991 1.144463 0.99743384 0.8645454 0.82759887 1.1994339 0.9666043 1.0661317
00000000: a80c 823f 2eee 573f dadf 6f3f d89c 4e3f
00000010: 83d0 8e3f 9a18 9d3f b760 923f 365d 703f
00000020: b68f 613f c37d 923f d357 7f3f d952 5d3f
00000030: 85dd 533f 0d87 993f 6173 773f 0177 883f

encoder_variable_selection.single_variable_grns.T2M.gate_norm.add_norm.norm.bias f4 [16]
0.025324298 -0.10819636 -0.054301687 0.028993739 0.11800403 -0.2357591 -0.18597627 0.06663635
0.119595826 0.25055534 -0.15325634 0.12805638 -0.1774167 0.19240993 0.010112644 -0.08640139
00000000: e774 cf3c 0e96 ddbd 726b 5ebd 4784 ed3c
00000010: 19ac f13d d56a 71be 9070 3ebe a378 883d
00000020: a8ee f43d ca48 803e 3bef 1cbe 3621 033e
00000030: b9ac 35be 1c07 453e 81af 253c 36f3 b0bd

encoder_variable_selection.single_variable_grns.T2M_MAX.resample_norm.mask f4 [16]
-0.02902707 0.14634758 0.07940637 -0.054452084 0.17430775 -0.15011378 -0.14296876 0.12267947
0.15079921 0.1777013 -0.13939476 0.1457365 0.14450619 0.16183501 0.053022042 -0.11972025
00000000: 2eca edbc 24dc 153e cf9f a23d 2609 5fbd
00000010: bb7d 323e 6db7 19be 6766 12be 603f fb3d
00000020: 1c6b 1a3e 54f7 353e 80bd 0ebe f33b 153e
00000030: 6ef9 133e 14b8 253e a42d 593d e42f f5bd

encoder_variable_selection.single_variable_grns.T2M_MAX.resample_norm.norm.weight f4 [16]
1.1737578 1.1449821 1.1046144 0.8945064 1.1792321 0.84683245 0.8522096 1.1215926
0.8919235 0.8466678 0.85170114 1.1442485 1.1390456 1.1085619 0.9291336 0.88528675
00000000: b23d 963f c68e 923f 0164 8d3f 5ffe 643f
00000010: 14f1 963f 03ca 583f 692a 5a3f 5990 8f3f
00000020: 1955 643f 39bf 583f 1609 5a3f bc76 923f
00000030: 3fcc 913f 5be5 8d3f b3db 6d3f 27a2 623f

encoder_variable_selection.single_variable_grns.T2M_MAX.resample_norm.norm.bias f4 [16]
-0.17983782 -0.144404 -0.112229675 0.031160897 0.15871981 -0.15407833 -0.1491465 0.121139705
0.13000007 0.16323425 -0.14745215 0.14293864 0.12369378 0.17841218 0.07424274 0.11978328
00000000: 6827 38be a4de 13be acd8 e5bd 2345 ff3c
00000010: 7287 223e b6c6 1dbe dcb9 18be 1818 f83d
00000020: bd1e 053e e126 273e b2fd 16be 825e 123e
00000030: 2a53 fd3d afb1 363e 940c 983d f050 f53d

encoder_variable_selection.single_variable_grns.T2M_MAX.fc1.weight f4 [8, 8]
0.123394616 -0.568998 -0.23731236 0.36749277 -0.22150658 -1.2210807 -0.4468126 -0.19575532
-0.31254166 0.0034081193 0.34773585 0.10997343 0.75430065 -0.15419257 0.41394955 -0.23131227
-0.21368155 -0.31835726 0.3492623 -0.27056992 0.18643688 -0.26378724 -0.4924859 -0.103377365
0.8795569 -0.82602996 -0.5085754 -0.07691157 1.2253059 0.11140668 0.58967984 0.050534457
0.25410846 0.109701075 0.1666819 -1.049072 -0.37150618 0.43645015 0.47685784 0.9795758
0.36198014 -0.505341 0.44499463 -0.15600479 0.28705165 0.85649514 -0.67468476 -0.44718134
-0.00046321377 -0.6738074 -0.13748989 -0.29966438 -0.4650546 -0.33060423 -0.26793122 0.69695604
1.3036358 0.19854423 -0.656074 0.078422695 -0.25576708 0.11322177 0.16135496 -0.5180094
00000000: 51b6 fc3d daa9 11bf 0302 73be 0328 bc3e
00000010: 9fd2 62be 5f4c 9cbf 9fc4 e4be 1574 48be
00000020: 7605 a0be c15a 5f3b 6f0a b23e c039 e13d
00000030: d919 413f a8e4 1dbe 32f1 d33e 20dd 6cbe
00000040: 56cf 5abe b9ff a2be 82d2 b23e 2488 8abe
00000050: 4fe9 3e3e 1f0f 87be 1d27 fcbe 83b7 d3bd
00000060: a42a 613f b376 53bf ff31 02bf d083 9dbd
00000070: d3d6 9c3f 2f29 e43d 42f5 163f 38fd 4e3d
00000080: 811a 823e f5aa e03d a9ae 2a3e fe47 86bf
00000090: 0f36 bebe 6576 df3e b626 f43e 7bc5 7a3f
000000a0: 7655 b93e 075e 01bf 56d6 e33e b8bf 1fbe
000000b0: 6ff8 923e 4443 5b3f 24b8 2cbf f4f4 e4be
000000c0: 80db f2b9 a47e 2cbf 26ca 0cbe 9c6d 99be
000000d0: a31b eebe f544 a9be 482e 89be b66b 323f
000000e0: 8add a63f 2e4f 4b3e 77f4 27bf 149c a03d
000000f0: e7f3 82be d1e0 e73d 3c3a 253e 449c 04bf

encoder_variable_selection.single_variable_grns.T2M_MAX.fc1.bias f4 [8]
-0.1628788 0.06274077 0.05210646 -0.12285022 0.15972829 0.15903753 0.16847594 -0.1487062
00000000: b3c9 26be 3c7e 803d 956d 553d e598 fbbd
00000010: d08f 233e bcda 223e f584 2c3e 7046 18be

encoder_variable_selection.single_variable_grns.T2M_MAX.fc2.weight f4 [8, 8]
0.14455363 -0.48144758 0.2146821 -0.85427314 0.3121878 -0.26889893 0.8682088 0.11585497
-0.058230728 0.084825166 -0.18261838 0.551376 -0.3557065 -0.62964773 0.1298508 -0.36840796
0.3480546 0.06751919 -0.14678344 -0.8479225 -0.60937643 -0.5856793 0.7517721 0.6932528
-0.8838823 0.30105746 -0.3324004 0.94979906 -0.031241104 -0.12556405 0.3137731 -0.24500465
-0.03957565 1.6347624 -0.5441926 0.6618595 -0.12220387 -0.45632312 -0.08571613 0.124461725
0.92860377 -0.19301605 0.80604947 0.30052277 0.1954875 -0.74354416 -0.14991708 0.23305045
-0.29086834 0.56449527 0.024318757 -1.4450598 -0.399197 0.056816574 -0.5007714 -0.20663676
0.6604245 0.022917647 -0.27076945 0.017417971 -0.18967167 -0.86655116 -0.28255573 -0.20421088
00000000: de05 143e 4c80 f6be a0d5 5b3e a5b1 5abf
00000010: 14d7 9f3e 1fad 89be ef42 5e3f 5f45 ed3d
00000020: 5883 6ebd d1b8 ad3d 5000 3bbe fa26 0d3f
00000030: 2a1f b6be 9830 21bf 9cf7 043e f89f bcbe
00000040: 3634 b23e 8047 8a3d 664e 16be 7311 59bf
00000050: 1800 1cbf 14ef 15bf 2374 403f 0479 313f
00000060: 1c46 62bf 3424 9a3e 6330 aabe 0826 733f
00000070: 58ed ffbc dd93 00be dea6 a03e 80e2 7abe
00000080: 141a 22bd e53f d13f 3550 0bbf a06f 293f
00000090: 0646 fabd 2fa3 e9be f08b afbd cae5 fe3d
000000a0: fab8 6d3f 00a6 45be 4259 4e3f 1fde 993e
000000b0: e02d 483e e958 3ebf dd83 19be c7a4 6e3e
000000c0: b2ec 94be c382 103f 2138 c73c b8f7 b8bf
000000d0: 8d63 ccbe 7fb8 683d 8e32 00bf 9698 53be
000000e0: 9411 293f cabd bb3c 4ba2 8abe 22b0 8e3c
000000f0: 4a39 42be 4cd6 5dbf 25ab 90be a81c 51be

encoder_variable_selection.single_variable_grns.T2M_MAX.fc2.bias f4 [8]
0.07584959 0.1466621 -0.1431209 -0.13261968 0.12296788 -0.18163495 0.11307069 -0.1376469
00000000: 0857 9b3d 972e 163e 498e 12be 74cd 07be
00000010: 95d6 fb3d 83fe 39be 9b91 e73d 4ff3 0cbe
