ai_predict/ai/lightning_logs/version_48/checkpoints/epoch=0-step=8.ckpt (torch, 662004 bytes, 889 tensors)

prescalers.time_idx.weight f4 [8, 1]
000000 f9 6a 60 bf bd 16 7d bf 4b 05 96 be 51 57 83 3f
       -0.8766323 -0.9886282 -0.29300913 1.0261022
000010 86 84 fe be 59 ee 16 3e a4 86 21 bf ec fb 04 3f
       -0.49710482 0.1473936 -0.6309607 0.519469

prescalers.time_idx.bias f4 [8]
000000 ba b3 9f 3e 47 26 89 3f 1f 26 98 3e fb d4 36 3f
       0.31191808 1.0714806 0.29716584 0.7141873
000010 61 04 55 bf ae 66 8a 3d ed 0f 03 3e 80 79 75 bf
       -0.83209807 0.06757866 0.12799044 -0.9588852

prescalers.T2M.weight f4 [8, 1]
000000 bd 02 bb bb a1 f3 21 3f b1 c6 31 3f 5c 06 88 3f
       -0.0057071135 0.63262373 0.69443804 1.0626941
000010 7c f7 ee 3e 96 1f 4e 3f 46 4c 1c 3f 1c f1 61 3f
       0.4667319 0.80516946 0.61053884 0.8825853

prescalers.T2M.bias f4 [8]
000000 a7 47 80 3f c7 c2 29 3e 80 00 58 3e c2 1c 53 bf
       1.0021867 0.16578208 0.2109394 -0.82465756
000010 7a d7 89 3f 91 97 63 bf bf be 8e be 75 79 f6 be
       1.0768883 -0.88903147 -0.27879903 -0.4813954

prescalers.T2M_MAX.weight f4 [8, 1]
000000 6a 5e ec 3e 0c 85 40 bf ba a8 36 bf b3 77 27 bf
       0.46165782 -0.75203013 -0.71351206 -0.6541702
000010 78 c1 a5 bd 90 07 0d be b8 43 87 3f 6b 41 90 3e
       -0.08093542 -0.13772416 1.0567541 0.2817491

prescalers.T2M_MAX.bias f4 [8]
000000 d3 18 36 3e d6 d9 48 3f 15 48 da be 22 75 64 bf
       0.17782907 0.7845739 -0.4263312 -0.8924123
000010 db 17 eb bc a2 d1 18 3e 03 da 78 3e cb 47 5b 3f
       -0.028697899 0.14923719 0.24301915 0.8565642

prescalers.T2M_MIN.weight f4 [8, 1]
000000 d2 39 87 bf f1 7d 0d 3f 18 62 21 3e 97 7b 8d be
       -1.056452 0.55270296 0.15760076 -0.27633354
000010 b4 34 87 bf f2 aa 27 3e 0a bb 6b bd ff 00 1c be
       -1.0562959 0.16373804 -0.05755142 -0.15234755

prescalers.T2M_MIN.bias f4 [8]
000000 ce fe 60 bf b3 f2 df be f0 3f c9 3d 91 c2 5e 3f
       -0.878888 -0.43739852 0.09826648 0.87015635
000010 14 0e 2f 3f 0d 81 05 bf ec e4 70 3e 72 67 c4 bd
       0.68380857 -0.5215004 0.23524827 -0.09590043

prescalers.PRECTOTCORR.weight f4 [8, 1]
000000 bb 2a 7c 3f 88 5a 13 be f4 0d 08 3f 30 73 3a bf
       0.985027 -0.14390004 0.5314629 -0.7283201
000010 d7 23 a6 3d b2 ed f4 3e ce 3a 91 3e 2e 38 8d bf
       0.08112305 0.47837597 0.28365177 -1.103277

prescalers.PRECTOTCORR.bias f4 [8]
000000 dc 1b 7d be 84 09 5b 3f 2a 44 68 3f 78 90 8a 3f
       -0.24717659 0.85561395 0.9072901 1.0825338
000010 56 7d c3 be b3 0d d5 be 96 6b c4 be 18 40 05 3f
       -0.3818156 -0.41612014 -0.38363332 0.52050924

prescalers.RH2M.weight f4 [8, 1]
000000 c0 57 a1 3d bf 18 b4 3e f4 ac 19 bf f4 cf 86 3f
       0.07878065 0.3517513 -0.6002953 1.0532212
000010 48 4d 4b be 92 3d 4a bf f1 ae 02 be a7 c6 06 bf
       -0.19853699 -0.790002 -0.12762047 -0.5264687

prescalers.RH2M.bias f4 [8]
000000 d0 4c 51 3e 04 89 87 bf e7 56 94 3e 13 4a 17 bd
       0.20439458 -1.0588689 0.2897255 -0.036935877
000010 b2 93 dc 3e 81 cb 9c 3c 02 00 46 3e 8c 60 6d be
       0.43081433 0.019140007 0.1933594 -0.23181361

prescalers.ALLSKY_SFC_SW_DWN.weight f4 [8, 1]
000000 66 39 d7 3d fd ea 7e 3f 55 99 4f 3e 9d 38 3a 3f
       0.10508995 0.99577314 0.20273335 0.72742635
000010 a0 c1 75 bf a5 dd a2 be 26 ec 91 3e b1 54 8c 3f
       -0.95998573 -0.31809726 0.2850048 1.0963346

prescalers.ALLSKY_SFC_SW_DWN.bias f4 [8]
000000 4a 29 4f bf d0 31 a9 3e d4 f8 50 3e d4 0d 4d bf
       -0.8092238 0.33045816 0.2040742 -0.80099225
000010 c6 4a 1b bf 6b b5 0e 3f 73 3e e4 be 3c 21 0c 3f
       -0.6066097 0.5574557 -0.44578895 0.5473821

prescalers.numero_casos.weight f4 [8, 1]
000000 ae a4 06 3f 61 de 2d 3f 00 cb 20 bd bb b2 86 bf
       0.5259503 0.6791745 -0.039256096 -1.0523294
000010 7d 15 1b 3f 00 2c 57 bf 39 93 54 bf 85 8b 42 bf
       0.60579664 -0.84051514 -0.83037144 -0.7599414

prescalers.numero_casos.bias f4 [8]
000000 ac 09 cc be c6 c2 95 3e c1 c7 25 bf 9a 62 3d 3f
       -0.3985113 0.29250163 -0.64757925 0.7397858
000010 76 2f 40 3f 5b 27 73 bd 82 75 e8 be 70 75 69 bf
       0.7507242 -0.059363704 -0.4540215 -0.9119482

static_variable_selection.single_variable_grns.municipio.mask f4 [16]
000000 c2 b9 e8 3d c2 b9 e8 3d c1 b9 e8 bd c2 b9 e8 bd
       0.113635555 0.113635555 -0.11363555 -0.113635555
000010 c2 b9 e8 3d c2 b9 e8 3d c2 b9 e8 bd c1 b9 e8 bd
       0.113635555 0.113635555 -0.113635555 -0.11363555
000020 c1 b9 e8 bd c2 b9 e8 bd c1 b9 e8 bd c2 b9 e8 bd
       -0.11363555 -0.113635555 -0.11363555 -0.113635555
000030 c2 b9 e8 3d c2 b9 e8 3d c2 b9 e8 bd c2 b9 e8 3d
       0.113635555 0.113635555 -0.113635555 0.113635555

static_variable_selection.single_variable_grns.municipio.norm.weight f4 [16]
000000 00 00 80 3f 00 00 80 3f 00 00 80 3f 00 00 80 3f
       1.0 1.0 1.0 1.0
000010 00 00 80 3f 00 00 80 3f 00 00 80 3f 00 00 80 3f
       1.0 1.0 1.0 1.0
000020 00 00 80 3f 00 00 80 3f 00 00 80 3f 00 00 80 3f
       1.0 1.0 1.0 1.0
000030 00 00 80 3f 00 00 80 3f 00 00 80 3f 00 00 80 3f
       1.0 1.0 1.0 1.0

static_variable_selection.single_variable_grns.municipio.norm.bias f4 [16]
000000 c2 b9 e8 3d c1 b9 e8 3d c1 b9 e8 bd c2 b9 e8 bd
       0.113635555 0.11363555 -0.11363555 -0.113635555
000010 c2 b9 e8 3d c1 b9 e8 3d c1 b9 e8 bd c2 b9 e8 bd
       0.113635555 0.11363555 -0.11363555 -0.113635555
000020 c2 b9 e8 bd c1 b9 e8 bd c2 b9 e8 bd c1 b9 e8 bd
       -0.113635555 -0.11363555 -0.113635555 -0.11363555
000030 c2 b9 e8 3d c1 b9 e8 3d c2 b9 e8 bd c2 b9 e8 3d
       0.113635555 0.11363555 -0.113635555 0.113635555

encoder_variable_selection.flattened_grn.resample_norm.mask f4 [8]
000000 0a b8 e8 bd 02 b9 e8 3d 53 b9 e8 3d 90 b9 e8 bd
       -0.11363228 0.113634124 0.11363473 -0.11363518
000010 6f b7 e8 3d 35 b9 e8 3d f2 b7 e8 bd 1d b6 e8 3d
       0.11363112 0.113634504 -0.1136321 0.1136286

encoder_variable_selection.flattened_grn.resample_norm.norm.weight f4 [8]
000000 fb e8 62 3f 93 8b 8e 3f 99 8b 8e 3f ca e8 62 3f
       0.8863675 1.1136345 1.1136352 0.8863646
000010 8f 8b 8e 3f 96 8b 8e 3f e6 e8 62 3f 89 8b 8e 3f
       1.113634 1.1136348 0.88636625 1.1136333

encoder_variable_selection.flattened_grn.resample_norm.norm.bias f4 [8]
000000 01 b8 e8 bd 69 b8 e8 3d 8f b9 e8 3d 9b b9 e8 bd
       -0.11363221 0.113632984 0.113635175 -0.113635264
000010 ca b5 e8 3d e5 b7 e8 bd 30 b9 e8 3d 8b af e8 3d
       0.113627985 -0.113632 0.11363447 0.11361607

encoder_variable_selection.flattened_grn.fc1.weight f4 [8, 64]
000000 e7 76 8f 3e da e9 4d 3e ee 98 71 3e ff e6 b7 3e
       0.28020403 0.20108739 0.23593494 0.35918424
000010 34 f3 54 be 9e 84 26 3e b4 bb e9 bd 2c 52 03 be
       -0.207959 0.16261527 -0.11412755 -0.12824315
000020 3e fc 45 3e df da 79 3d bc 4e 82 be 5c f6 f2 bd
       0.19334504 0.060999747 -0.25450695 -0.118633956
000030 22 3e d4 bd b5 13 6c be 87 a9 47 be 31 cb d4 be
       -0.103634134 -0.23054393 -0.19498263 -0.41561273
000040 8f 00 4c bd fb 5f 8f be 67 a0 ca 3c 15 0b 63 be
       -0.04980522 -0.28002915 0.024734689 -0.22172196
000050 02 cf 89 bd 51 53 83 3e e3 7b 99 3e 90 0a 84 3e
       -0.06728937 0.25649503 0.2997733 0.2578931
000060 fa 73 45 be f5 69 9c 3d e2 93 e4 3d 6a 7f 62 be
       -0.19282523 0.07637397 0.11161019 -0.22118917
000070 84 b9 1a 3d c5 01 75 be a3 e4 e1 3d 6c 54 35 3e
       0.037774578 -0.23926456 0.11029937 0.17707986
000080 fb 10 af be 65 2f 36 3e f4 70 c8 bc a4 99 2f 3e
       -0.34192643 0.17791517 -0.024467923 0.17148453
000090 67 96 08 be 98 2f 40 be 8a e7 8a be e0 82 f1 3e
       -0.13338624 -0.18768156 -0.27129775 0.47170162
0000a0 94 00 6d 3b 61 3e 9d 3d 36 23 8c be 0e a4 c9 be
       0.0036163675 0.076779135 -0.27370614 -0.39382976
0000b0 c5 cf 43 3e 7d 73 88 3e 82 ae 9e 3e ed 74 0d 3e
       0.19122227 0.2665061 0.30992514 0.13814135
0000c0 e9 10 95 be a5 93 93 bd 5e 94 13 3e df a3 9a be
       -0.29114464 -0.07205895 0.14412066 -0.3020315
0000d0 9c 65 a4 be 71 84 fd 3d f1 2c ca 3d 4c 5b 7d 3e
       -0.32108772 0.12378777 0.09871853 0.24741858
0000e0 5d a1 99 be 65 65 83 3e 37 d1 b7 3d 9a a0 0a 3e
       -0.30005923 0.25663295 0.089754514 0.13537827
0000f0 57 65 b5 3c 85 db d0 bd 59 1a 8f bc 67 7a 58 3e
       0.02214305 -0.1019812 -0.017468618 0.21140443
000100 88 1f 6b 3e 98 23 1a bd 7d 1a 02 3d 81 69 02 3f
       0.22961247 -0.0376316 0.031763542 0.50942236
000110 bd 38 74 be 7b 57 77 3e c6 9a 94 bc 10 02 f4 3d
       -0.23849769 0.24154465 -0.018140208 0.11914456
000120 b1 13 49 3e 1d 26 32 3d 99 e8 db bd 2c 80 d4 bd
       0.19636418 0.04349338 -0.10737724 -0.10376009
000130 e4 ec 06 3e 77 b7 0b bd 1e 37 a7 bd 7b ae 69 3e
       0.13176304 -0.034110513 -0.0816481 0.22820465
000140 29 d9 b6 be b9 bf 2a 3e b8 c6 8b 3e e4 fd ac 3b
       -0.35712555 0.16674699 0.27300048 0.0052792896
000150 cb e5 9c bd cf c4 a5 3e 6f b8 e8 bc 36 65 90 3e
       -0.07661017 0.32376716 -0.028408257 0.28202218
000160 d8 c4 92 3d 75 57 ed bd dd e0 bf 3d ae f4 73 be
       0.07166451 -0.11588947 0.09369061 -0.23823807
000170 0f 86 3d 3d 67 ea 45 bd c0 da 6f 3e 4e b2 5a 3d
       0.046270426 -0.048319247 0.2342329 0.0533927
000180 29 16 99 be fc 37 3d be 93 14 3d 3e fc 1d 01 be
       -0.2989972 -0.18478388 0.1846488 -0.12609094
000190 5e 2c 83 be 3d 1f 73 be ca 73 b7 be e9 0b 96 bd
       -0.25619787 -0.23742385 -0.35830528 -0.073264904
0001a0 14 db ad bc f8 6d e5 3d 23 30 15 be 36 04 b6 3e
       -0.021222629 0.112026155 -0.14569144 0.35550088
0001b0 bd 5f a1 3d f1 84 11 bf 36 1b 5d bd 73 82 07 be
       0.07879589 -0.5684348 -0.05398103 -0.13233356
0001c0 1b 93 a9 bd 32 20 b6 3e 83 d6 4f bd f7 f6 4e be
       -0.08280011 0.35571438 -0.050741684 -0.20211397
0001d0 6a 71 60 be 35 ff 9d 3e 34 82 a5 bc 1c 62 91 3d
       -0.21918264 0.3085877 -0.020203687 0.07098791
0001e0 03 dc 92 be 4d 24 1f be ad c9 9a be 15 2a 8f 3e
       -0.2868348 -0.15541191 -0.3023199 0.27961794
0001f0 c7 ad a4 3d ef 7c dc 3d 67 d9 8e 3e 15 d3 ec bd
       0.08040958 0.10766017 0.2790024 -0.11563698
000200 a0 1b 0b be 20 8e bd be 76 ed 5b be af 38 18 be
       -0.13584757 -0.37022495 -0.21477303 -0.14865373
000210 9b ce cc 3e 0b a1 16 3d 15 6d c0 3d 80 82 e6 3e
       0.40001377 0.036774676 0.09395806 0.4502144
000220 64 ab 57 bd fe 0a 88 bc 6a 8a 4b 3e 16 93 f7 3e
       -0.052653685 -0.016606804 0.1987702 0.48354405
000230 fc 8e 12 be eb f8 cd 3e 8e 00 9e 3e 1b e3 bb bd
       -0.14312357 0.40228972 0.30859798 -0.09174176
000240 a3 4e 9a bc 78 fc 69 bd d4 38 a6 be 69 bc 85 3e
       -0.018836325 -0.05712554 -0.3246523 0.26120308
000250 4d 4a 32 3e 74 a4 59 be ac 2a 77 bd 50 d0 94 be
       0.17411156 -0.2125414 -0.06034343 -0.2906518
000260 08 ef c7 bd f9 63 96 3d 63 50 6e be 1c 95 eb 3c
       -0.097623885 0.07343287 -0.23272853 0.028757624
000270 51 08 db bc 20 d1 9b 3e d8 cd 89 3d f3 85 b6 bb
       -0.026737364 0.30432987 0.06728715 -0.005570167
000280 3e e6 30 be d3 ab 41 be 94 15 4a be f7 b7 43 3d
       -0.1727533 -0.18913202 -0.19734794 0.047782864
000290 2b 1a fd 3d 02 25 b2 3e de 97 6b 3e 91 b4 8c 3e
       0.12358507 0.3479386 0.23007151 0.2748151
0002a0 38 36 19 be d7 2f 88 3c fc 53 c0 3e e6 f4 99 bc
       -0.14962089 0.016624374 0.37564075 -0.018793534
0002b0 0a 1b d5 be e4 df 3e bc 3c 9c 1a be 32 ab f0 3d
       -0.41622192 -0.011650059 -0.15098661 0.11751403
0002c0 2b 6d 75 bd 23 18 df bd 08 cb 80 3e 59 08 d2 bd
       -0.059918564 -0.108932756 0.251549 -0.102554984
0002d0 c5 cb f0 be ff 29 bb be 54 7e ce 3d 75 d2 e5 3d
       -0.47030464 -0.36555478 0.10082689 0.11221782
0002e0 21 25 0b 3f ac 67 47 3d 5a 4d a4 3e 22 07 b0 bd
       0.5435353 0.048682854 0.32090265 -0.085951105
0002f0 77 1b 8a 3d 54 a9 6e be d5 16 81 3d 8b 5e d5 3d
       0.0674352 -0.23306781 0.06303183 0.10418423
000300 db c8 cc be a4 37 7b be a3 1d b8 bd b1 59 9f bd
       -0.3999699 -0.24532944 -0.08990028 -0.07780779
000310 5e d2 51 bd 39 51 12 bd 99 11 4c be 97 1d 82 3b
       -0.051226012 -0.03572199 -0.19928588 0.0039708125
000320 8a b7 a4 bd b8 22 7e 3d 7b dc 37 3e 08 c3 4a 3e
       -0.0804282 0.06204483 0.179552 0.19800961
000330 0c 9e 5e bd fc a4 85 3d f5 a5 99 bd ed f4 8e 3e
       -0.054349944 0.06525609 -0.07502357 0.2792124
000340 ae 9f 88 3e fd f8 0a 3e d9 f3 30 be 43 f2 a6 bd
       0.26684326 0.13571544 -0.1728052 -0.081516765
000350 15 b5 cb be f3 f4 6c bd 73 14 cc 3d ee b9 1d 3d
       -0.39786592 -0.05785079 0.09964838 0.038507394
000360 58 b7 38 bd 5f 76 69 3d 57 3a 14 be ad 55 0f be
       -0.045096725 0.056997653 -0.1447538 -0.13997526
000370 80 ea 81 be 9c 36 10 3c d0 d4 fe bc 2c bb db be
       -0.25374222 0.008802082 -0.031107336 -0.42916238
000380 cf f9 4a 3e 44 dc 96 be 8b cb 38 bd 4a a1 1e 3d
       0.19821857 -0.29464924 -0.04511599 0.038728036
000390 71 d7 c0 3d 6f a3 04 bd 3e 49 e8 bd 51 30 45 be
       0.09416092 -0.032382425 -0.11342095 -0.19256712
0003a0 74 37 c3 3d f2 85 5c 3e 7e 03 88 be 86 ce af be
       0.09532061 0.21535471 -0.26565164 -0.34337252
0003b0 b1 85 67 bd 70 36 06 be 2a 1e e0 bc 94 a3 71 be
       -0.056523982 -0.13106704 -0.027358133 -0.23597556
0003c0 84 40 f1 be c0 33 a4 3a b3 79 18 3c e6 1f ca 3e
       -0.47119534 0.001252763 0.009306359 0.39477462
0003d0 0c e3 7d 3c 43 86 10 bf 35 a2 3f bd 0f d8 af bc
       0.015496027 -0.5645487 -0.046785552 -0.02146533
0003e0 9a 89 87 3e 7a c8 63 bd 90 d9 31 3e 7c 49 14 be
       0.2647217 -0.05561111 0.1736815 -0.14481157
0003f0 0c 0e 76 3e 89 87 4e be 25 6e 3d be 08 83 c8 bd
       0.24028796 -0.2016889 -0.18499048 -0.09790617

encoder_variable_selection.flattened_grn.fc1.bias f4 [8]
000000 f2 b8 e8 3d 4a b9 e8 3d d2 b6 e8 bd 38 b9 e8 bd
       0.113634005 0.11363466 -0.11362995 -0.11363453
000010 43 b6 e8 3d a1 b8 e8 bd 9f b9 e8 3d 56 b9 e8 bd
       0.11362889 -0.1136334 0.113635294 -0.11363475

encoder_variable_selection.flattened_grn.context.weight f4 [8, 16]
000000 00 40 f7 be b0 24 62 3e 58 2b 7a be a8 64 fa 3e
       -0.48291016 0.22084308 -0.24430597 0.4890492
000010 c8 63 23 3e 6c 59 1f 3e 20 88 90 3d d0 5a 93 bd
       0.15956032 0.15561455 0.07057214 -0.071950555
000020 f8 b8 2b 3e 38 f0 99 3d f8 9f e9 3e 40 7a 82 bd
       0.16769779 0.07516521 0.4562986 -0.063709736
000030 b0 e9 a0 bd 4a b2 88 be d0 94 1b 3d 5c f6 b0 3e
       -0.07857072 -0.26698524 0.037983716 0.34562957
000040 78 80 7d 3e 00 50 02 bc 2c 28 45 be 64 ae e7 3e
       0.24756038 -0.007953644 -0.19253606 0.45250237
000050 c0 80 26 bd de ac b2 3e e4 30 10 be c0 c6 2f bd
       -0.04065013 0.34897512 -0.1408115 -0.042914152
000060 90 f2 33 bd 74 c4 47 3e a4 75 3b be 58 f2 06 3e
       -0.043932498 0.19508535 -0.18306595 0.13178384
000070 3c 81 74 be b0 1c 8e be 9c 9f c8 3e 00 55 2f bc
       -0.23877424 -0.27756262 0.39184272 -0.010701418
000080 90 9e f2 3d e0 34 db be d8 d3 6b be 00 f5 16 3b
       0.1184665 -0.42813778 -0.2303003 0.0023034215
000090 00 c5 3a be 3a 61 b0 be f4 9e f4 3e a0 ed 14 be
       -0.18239212 -0.34449178 0.47777522 -0.14543772
0000a0 b0 f3 1f bd 00 66 97 3e 78 97 69 be c4 5e d0 be
       -0.039050758 0.29570007 -0.22811687 -0.406973
0000b0 88 d0 a2 3e 68 4f 83 3e 24 f4 05 be b8 7d cf 3d
       0.31799722 0.2564652 -0.13081414 0.10131401
0000c0 4e 62 d1 3e c8 cc 24 be 8e 2f be 3e 7c 7a 26 3e
       0.40895313 -0.16093743 0.37145656 0.16257662
0000d0 32 e4 d0 3e b0 98 39 3d 78 7a 82 3e ac b6 73 3e
       0.407991 0.04531163 0.2548406 0.23800153
0000e0 88 cb e5 be 4c bc 07 be 80 49 ed bb 1a 01 d7 3e
       -0.44881845 -0.13255423 -0.007241428 0.41993028
0000f0 7a 63 df be 30 cb fa be bc b7 7d 3e 90 47 9c bd
       -0.43630582 -0.48983145 0.2477712 -0.07630837
000100 14 ae 86 3e 3e f1 e0 be c4 59 1a be f2 a6 e6 3e
       0.26304686 -0.43934053 -0.15073305 0.45049244
000110 02 60 cd 3e 82 a6 d3 3e d6 22 a4 be 00 58 3c be
       0.4011231 0.41337973 -0.32057828 -0.18392944
000120 78 af cf 3d b4 60 e2 3e 1c 78 3a 3e 50 75 03 bd
       0.1014089 0.44214404 0.1820988 -0.0320943
000130 9e bc ed be 50 1a 74 be 58 e6 c2 3d 60 75 45 bd
       -0.46432966 -0.23838162 0.09516591 -0.04820764
000140 d0 ff 72 be 54 c7 03 3e d2 78 e1 3e 60 9d b8 3d
       -0.23730397 0.12869006 0.4403749 0.09014392
000150 34 01 1b be 08 8e 30 3e d0 4c 07 3e 5c 0b 16 3e
       -0.15137178 0.1724168 0.13212895 0.14652771
000160 22 dd a8 3e 44 59 9f 3e 92 50 e2 be b4 7d 83 be
       0.3298121 0.31122792 -0.44202095 -0.2568184
000170 fc ec b8 be 54 4d d3 be e6 4f bb 3e 2a fd 80 be
       -0.36118305 -0.41269934 0.36584395 -0.2519315
000180 18 92 e8 3d 30 51 61 be 38 ed e3 3d 8a 4a 95 be
       0.1135599 -0.22003627 0.1112923 -0.2915843
000190 48 ac 89 bd 70 83 15 bd b8 19 2e 3e 60 b7 c4 bd
       -0.06722313 -0.0365023 0.17001998 -0.096052885
0001a0 e4 20 8a be 98 0b 8d bd e8 9b 05 3e 80 9b bb bb
       -0.2697822 -0.06886977 0.13047755 -0.005725324
0001b0 58 7a 92 bd 00 82 d9 bb d6 05 94 be b8 c8 7e 3e
       -0.071522415 -0.0066378117 -0.28910702 0.24881256
0001c0 c0 fe 01 3e 10 3d 59 bd d2 51 bb be ea 77 b5 3e
       0.12694836 -0.05303675 -0.3658586 0.3544305
0001d0 48 8f 17 3e e4 7b 00 be 54 b7 2d be a0 31 cd 3e
       0.14800751 -0.1254726 -0.16964465 0.40076923
0001e0 70 9a 78 be 88 a5 48 3e b2 40 ab be 12 c3 c2 be
       -0.24277663 0.19594395 -0.33447796 -0.38039452
0001f0 7c 36 7f 3e 50 22 db 3e a4 d3 9c 3e ba b6 bf 3e
       0.24923128 0.42799616 0.3063022 0.37444097

encoder_variable_selection.flattened_grn.fc2.weight f4 [8, 8]
000000 69 29 36 3f 22 3f ff bd 2f fc 72 3e dd 87 11 be
       0.71156937 -0.124632135 0.23729013 -0.14211984
000010 83 2a 08 3d 83 06 65 bf f3 f5 92 3f 4d a7 31 3e
       0.033243667 -0.8946306 1.1481308 0.17348976
000020 46 ec 94 3d b1 3f d2 be 60 46 73 bc 52 ca b7 be
       0.07271628 -0.41064218 -0.014848322 -0.35896546
000030 95 8b fd 3e 10 54 d8 be 49 c2 90 3e eb 18 36 3f
       0.49520555 -0.42251635 0.28273228 0.7113177
000040 81 e6 19 bf 75 38 56 bf 7c 8b 62 3f dc 96 19 bf
       -0.60117346 -0.83679897 0.88494086 -0.5999582
000050 bb 06 f4 3d f3 d5 f2 3d 77 6e fc be cf 74 01 3f
       0.11915346 0.11857214 -0.49303028 0.5056886
000060 fc c7 e4 be c4 32 03 3f 05 34 f0 3e 28 b2 43 3e
       -0.44683826 0.5124934 0.46914688 0.1911093
000070 99 1d 13 bf 7f 4a ce 3e e0 42 e8 3e da 55 80 3f
       -0.5746704 0.4029121 0.45363522 1.00262
000080 34 36 d3 bd 0b 07 c7 3e 0e 9e 36 bb 6c 51 49 bf
       -0.10313073 0.3887256 -0.0027865204 -0.78639865
000090 f7 e0 3f 3f a0 1d 44 bf b5 3e b9 be bb 01 53 3f
       0.74952644 -0.76607704 -0.36180654 0.82424515
0000a0 77 12 de 3d 88 61 6a be 3e fc 28 be 21 4e 24 3e
       0.10843366 -0.22888768 -0.16502473 0.16045429
0000b0 48 41 0e bf 2c 5b d5 be 25 f3 ab 3f dd fa 26 3e
       -0.5556836 -0.4167112 1.3433577 0.16306634
0000c0 29 02 02 3f 4d 93 23 3f 74 f0 e5 be ac d0 95 bd
       0.50784546 0.6389664 -0.44910014 -0.073151916
0000d0 80 58 99 be ef 29 26 be d8 e1 93 3f 5e cd 86 bf
       -0.29950333 -0.16226934 1.1553297 -1.0531423
0000e0 0b 46 83 3e b0 a1 37 3e 04 61 00 bf 31 50 e9 3e
       0.25639376 0.17932773 -0.50148034 0.45568994
0000f0 9e a9 29 be 85 18 b8 3e 42 85 e3 3e fc 59 06 be
       -0.1656861 0.35956207 0.44437605 -0.13120264

encoder_variable_selection.flattened_grn.fc2.bias f4 [8]
000000 02 b7 e8 3d e7 b8 e8 3d 62 a5 e8 bd cd b7 e8 3d
       0.11363031 0.11363392 -0.11359669 0.11363182
000010 d4 b8 e8 3d 4f b9 e8 3d 82 b9 e8 3d a6 b3 e8 bd
       0.11363378 0.1136347 0.11363508 -0.1136239

encoder_variable_selection.flattened_grn.gate_norm.glu.fc.weight f4 [16, 8]
000000 be 25 7b be 4a 8d 39 3e 79 04 4c 3e ad 28 8c be
       -0.24526116 0.18120304 0.19923581 -0.27374783
000010 f0 44 f4 be 41 89 2f bd b7 55 d2 bd 9a 2f 88 3e
       -0.47708845 -0.042855505 -0.10270255 0.26598817
000020 a1 b9 86 bd b9 7c a3 be c9 54 1a be 6e 04 63 be
       -0.06578375 -0.31931093 -0.15071405 -0.22169659
000030 a0 44 b3 3e 0c 39 ca bd ea c5 ec be f0 c3 31 be
       0.35013294 -0.09874162 -0.46244746 -0.173599
000040 d4 a5 e9 bd a5 d3 f5 3e 18 82 3e 3e be bd ff 3d
       -0.11408582 0.48013034 0.18604314 0.12487362
000050 f2 d3 6a 3c 4f a8 d9 3e 5d da b0 3e a2 42 93 3e
       0.014332758 0.42511222 0.34541598 0.28761774
000060 6a 86 13 be aa 67 90 be b0 72 85 3e 35 5e e7 3e
       -0.14406744 -0.2820409 0.26064062 0.45189062
000070 a7 e1 be bd c6 f0 f2 be 54 de 14 bf fc 1c d9 3c
       -0.093203835 -0.4744932 -0.58151746 0.026503079
000080 12 24 11 3e 81 09 15 3e 66 71 6b be f4 f1 e7 be
       0.14173916 0.14554407 -0.22992477 -0.45301783
000090 bf 56 0c be db ed 00 3e 16 da 51 be 34 e5 12 3f
       -0.13704966 0.12590735 -0.2049335 0.57380986
0000a0 b9 15 ae 3e 5f 91 df 3e 58 57 3a 3e 10 1b 33 be
       0.34000948 0.43665597 0.18197381 -0.17490792
0000b0 72 76 3d be f2 f3 52 bd 1f 7b 43 be 1d 5b 0c bf
       -0.18502215 -0.051502176 -0.19089936 -0.5482653
0000c0 eb fc b0 3e 1d 26 a3 be f5 35 c0 bd 00 18 52 be
       0.3456796 -0.31865016 -0.093852915 -0.20516968
0000d0 12 01 48 be 40 de 90 bd 94 f9 af 3e f1 7b d8 3d
       -0.19531658 -0.07073641 0.343701 0.10570515
0000e0 55 3d 9b be 83 33 55 be 0a 44 07 3f f0 ea c4 bd
       -0.3032023 -0.20820431 0.52838194 -0.09615123
0000f0 23 2d a6 3e 01 2d 81 be 2a f4 df be c7 2c 0a bf
       0.32456312 -0.25229648 -0.4374097 -0.53974575
000100 ea 8a 93 be d4 60 b1 3e 83 1a de 3d b4 5f 99 3e
       -0.2881692 0.34644186 0.108449005 0.29955828
000110 3e f4 7e 3e 44 4a 2c bb 0a 70 b1 3e 12 62 aa 3e
       0.24897859 -0.0026289383 0.34655792 0.33277947
000120 0a 84 a2 bd 2d 31 16 3f 69 69 84 be 5f 6b ac be
       -0.07935341 0.58668786 -0.25861672 -0.33675668
000130 9f 1e 94 bd db 12 f8 be da 4f bc 3e ea 56 18 bf
       -0.07232403 -0.48451886 0.36779672 -0.5950762
000140 93 3e a0 be 25 ae f0 be f3 7a 3e be 77 9d d0 3e
       -0.3129774 -0.47007862 -0.18601589 0.40745136
000150 84 1f 89 3e 25 7b c3 3d 03 06 59 be 12 a6 07 bf
       0.26781857 0.09544972 -0.211937 -0.5298778
000160 38 19 66 3e 27 ce 89 3e f3 ef 02 bf 3f f5 4b bd
       0.22470558 0.26915094 -0.51147383 -0.04979443
000170 12 a0 28 be 2e a2 63 3e 6f e4 bd bd f4 87 89 be
       -0.16467312 0.22229835 -0.09272086 -0.26861537
000180 a5 1b 05 3f b3 fe ae be 46 02 dc bd fb 71 b8 3e
       0.5199531 -0.34178695 -0.10742621 0.3602446
000190 df 7b 9a be 98 37 81 3e 8f 8c 4c be 3f 34 8e be
       -0.3017263 0.25237727 -0.19975494 -0.27774236
0001a0 c6 04 bf 3c df e5 f3 3e 87 12 22 be dd ef f9 3e
       0.023317706 0.47636315 -0.1582738 0.48815814
0001b0 a5 20 ae 3e f5 c7 0c 3f 1a 31 74 3d 9a 60 ab be
       0.3400928 0.5499261 0.05961714 -0.3347214
0001c0 63 cd b0 3e f1 97 a8 bd ac 93 64 be f6 be 20 be
       0.34531698 -0.082321055 -0.22321957 -0.15697846
0001d0 af ef a4 be bc e3 70 be c7 12 c7 3e 0a 12 4e 3c
       -0.32214114 -0.23524374 0.38881513 0.012577543
0001e0 25 2d 84 3e 65 fd a1 3e cf f2 ab be fe 91 9a 3e
       0.25815693 0.31638637 -0.33583686 0.30189508
0001f0 8c 5b 05 be 3b fa c4 3e 40 60 1c 3e d6 6a ac be
       -0.13023204 0.3847216 0.15271091 -0.3367526

encoder_variable_selection.flattened_grn.gate_norm.glu.fc.bias f4 [16]
000000 28 b6 e8 bd 06 b6 e8 bd 54 b9 e8 3d 84 b9 e8 bd
       -0.113628685 -0.11362843 0.113634735 -0.11363509
000010 17 b4 e8 3d e9 b7 e8 bd ce b8 e8 3d f1 82 e8 bd
       0.113624744 -0.11363203 0.11363374 -0.113531
000020 e6 ad e8 3d 85 b7 e8 bd d8 b7 e8 bd e7 b8 e8 3d
       0.113612935 -0.113631286 -0.113631904 0.11363392
000030 6f b7 e8 3d 3c b5 e8 3d 67 ae e8 3d 0d b1 e8 3d
       0.11363112 0.11362693 0.113613896 0.11361895

encoder_variable_selection.flattened_grn.gate_norm.add_norm.norm.weight f4 [8]
000000 f9 e8 62 3f da e8 62 3f 9a 8b 8e 3f cb e8 62 3f
       0.8863674 0.88636553 1.1136353 0.88636464
000010 96 8b 8e 3f 95 8b 8e 3f 48 e9 62 3f 77 8b 8e 3f
       1.1136348 1.1136347 0.8863721 1.1136311

encoder_variable_selection.flattened_grn.gate_norm.add_norm.norm.bias f4 [8]
000000 15 b8 e8 bd 51 b9 e8 bd 8c b9 e8 3d 96 b9 e8 bd
       -0.11363236 -0.11363471 0.11363515 -0.11363523
000010 64 b9 e8 3d e9 b7 e8 bd 4c b9 e8 3d 1b b6 e8 bd
       0.113634855 -0.11363203 0.113634676 -0.11362859

encoder_variable_selection.single_variable_grns.time_idx.resample_norm.mask f4 [16]
000000 f2 b7 e8 bd 98 b4 e8 bd c0 b8 e8 3d cb b7 e8 3d
       -0.1136321 -0.113625705 0.11363363 0.11363181
000010 e4 b6 e8 3d e4 b5 e8 bd 23 b8 e8 bd 08 b0 e8 3d
       0.113630086 -0.11362818 -0.11363246 0.113617
000020 5c b6 e8 bd 81 b0 e8 3d 64 b2 e8 bd 18 b3 e8 3d
       -0.11362907 0.113617904 -0.1136215 0.113622844
000030 c8 b6 e8 bd 77 ad e8 3d 64 b3 e8 3d 17 a7 e8 bd
       -0.11362988 0.11361211 0.11362341 -0.11359995

encoder_variable_selection.single_variable_grns.time_idx.resample_norm.norm.weight f4 [16]
000000 f4 e8 62 3f 41 e9 62 3f 93 8b 8e 3f 86 8b 8e 3f
       0.8863671 0.8863717 1.1136345 1.1136329
000010 6c 8b 8e 3f 55 ef 62 3f e6 e8 62 3f 88 8b 8e 3f
       1.1136298 0.8864644 0.88636625 1.1136332
000020 ea e8 62 3f c6 e9 62 3f 1f e9 62 3f be ed 62 3f
       0.8863665 0.8863796 0.88636965 0.88644016
000030 50 e9 62 3f 9a 8a 8e 3f 80 8b 8e 3f fb e9 62 3f
       0.88637257 1.1136048 1.1136322 0.88638276

encoder_variable_selection.single_variable_grns.time_idx.resample_norm.norm.bias f4 [16]
000000 cb b8 e8 bd 50 b6 e8 bd c8 b8 e8 3d 99 b8 e8 3d
       -0.113633715 -0.11362898 0.11363369 0.11363334
000010 69 b8 e8 3d e4 b8 e8 bd 27 b8 e8 bd df b8 e8 bd
       0.113632984 -0.1136339 -0.11363249 -0.11363386
000020 bd b8 e8 3d b3 b7 e8 3d a4 b7 e8 3d b3 b8 e8 3d
       0.11363361 0.11363163 0.11363152 0.113633536
000030 dc b8 e8 bd b2 b6 e8 3d 6e b8 e8 bd d3 b5 e8 3d
       -0.11363384 0.11362971 -0.11363302 0.11362805

encoder_variable_selection.single_variable_grns.time_idx.fc1.weight f4 [8, 8]
000000 77 7b de be 7d ab 78 3e e1 72 61 3f b4 d6 15 3e
       -0.4345357 0.24284168 0.88065916 0.14632684
000010 da c6 da 3e 18 20 1f be a2 4d 51 bf a0 5e 7f be
       0.42729837 -0.15539587 -0.81759083 -0.2493844
000020 bf e3 16 3e 56 6a 0b bf 7e 3b 1d 3f 5b a9 66 3f
       0.14735316 -0.5445913 0.614189 0.90102166
000030 12 72 d2 3d e2 b3 80 3d 8f 7a e4 bd af cc 46 bf
       0.102756634 0.0628431 -0.11156189 -0.7765607
000040 87 45 3a 3f 65 e0 d3 be 1f 54 9f 3d 54 f3 09 3f
       0.7276234 -0.41382137 0.07779717 0.53886914
000050 f4 22 01 bf 1a 64 87 bc ee be a7 be 10 fb 1e 3e
       -0.5044396 -0.016527224 -0.32762855 0.1552546
000060 da e6 91 3e c6 02 c2 be c1 e1 ed 3c 6a 9f 27 3f
       0.28496438 -0.3789274 0.029038312 0.6547762
000070 6f 3c 58 bd cf 09 ba 3e 78 40 db bd 1f bb 99 3e
       -0.05279201 0.36335608 -0.10705656 0.30025575
000080 37 da 2a 3f 00 0e 52 bf d7 8f 8e be 57 da 63 3e
       0.6673922 -0.8205261 -0.27844116 0.22251259
000090 0e 3c 61 be 97 31 ea 3c 14 9e 9f 3e c2 cd 41 3e
       -0.21995565 0.0285881 0.31175292 0.18926147
0000a0 5b bb 8f be 34 7f 50 3d f9 de 70 bd ac 0c 3e 3f
       -0.28072628 0.05090256 -0.058806393 0.74238086
0000b0 01 60 12 3e 7e 5e cc 3e 68 a6 06 be ac e7 e7 3e
       0.14294435 0.39915842 -0.13149416 0.4529394
0000c0 97 90 3e 3f 16 94 b8 bc bf 64 a6 be 16 f2 cb bd
       0.74439377 -0.02253155 -0.32498738 -0.099582836
0000d0 1e b8 35 be 2d a4 fd 3d 67 82 09 bf 59 77 a2 3e
       -0.17746016 0.1238483 -0.53714603 0.3173168
0000e0 0b 17 15 3f 9b 38 ab 3e fe ef 85 3f 5e 2b 84 bf
       0.58238286 0.33441624 1.0463865 -1.0325735
0000f0 fd 40 f2 be c5 07 28 3f c8 2e 25 3a 80 13 e5 be
       -0.47315207 0.65636855 0.00063012214 -0.4474144

encoder_variable_selection.single_variable_grns.time_idx.fc1.bias f4 [8]
000000 0b b6 e8 bd a9 b8 e8 3d 57 b8 e8 bd 0b b4 e8 3d
       -0.11362847 0.11363346 -0.11363285 0.113624655
000010 95 b8 e8 bd 7e b3 e8 3d 87 b4 e8 3d 37 b8 e8 3d
       -0.11363331 0.113623604 0.11362558 0.11363261

encoder_variable_selection.single_variable_grns.time_idx.fc2.weight f4 [8, 8]
000000 0f 79 ad be b3 41 fe bd 78 bf 68 bf b8 8a 1a bf
       -0.33881423 -0.12414875 -0.9091716 -0.6036792
000010 79 f7 d9 3d 7e 7e e4 bd 5c c8 96 bc 12 0f 1b bf
       0.10642905 -0.11156939 -0.018406086 -0.6056987
000020 bb 75 ad 3e 87 67 c1 be 3f 24 e7 3e 87 85 28 3f
       0.33878884 -0.37774298 0.4514484 0.65828747
000030 50 cb f3 bd 74 9c 04 3e da 49 76 3d c5 5f 8d 3e
       -0.11904013 0.12950307 0.060129024 0.2761213
000040 47 49 7e be 24 43 37 3f 42 96 1b 3f 71 a5 36 be
       -0.2483264 0.71586823 0.6077615 -0.17836548
000050 9b 71 18 bd 9b 6e 64 bf 05 1f f5 be 04 21 85 3d
       -0.037217718 -0.8923127 -0.4787523 0.06500438
000060 1f 99 5c 3e 3d 23 fc bd 50 0e 2f bf 66 1d 96 be
       0.21542786 -0.12311409 -0.68381214 -0.29319304
000070 04 6e db be 67 aa 20 3e 10 30 0a 3f 20 31 07 3e
       -0.42857373 0.15690003 0.5397959 0.13202333
000080 e2 3a 8b be 17 fe b4 be 08 16 0a bc a6 1b e2 3e
       -0.27193362 -0.35350105 -0.008428104 0.4416172
000090 d6 83 09 3f a4 48 d2 be 68 4c d6 be 74 60 2a bf
       0.5371679 -0.41071045 -0.41855168 -0.66553426
0000a0 29 5f a0 3d 07 31 b8 3e 4b 1d 8e bd f3 2b 35 3f
       0.0783065 0.35974905 -0.06939181 0.70770186
0000b0 b7 2f 84 3d fb 11 bc be f4 7b 64 bc 27 68 3e 3e
       0.064544134 -0.36732468 -0.013945568 0.18594418
0000c0 cb 23 9b 3e 27 55 8d be 34 fd 26 3e 9d f5 38 bf
       0.30300745 -0.2760403 0.16307527 -0.72249776
0000d0 c9 a2 8a be 50 ee 97 be 7e 89 09 3f a4 05 85 bf
       -0.2707732 -0.29674006 0.5372542 -1.0392346
0000e0 4f 89 fb 3e 90 c9 02 3f ab 33 8f 3e bb 25 50 3d
       0.49128196 0.5108881 0.27969107 0.050817233
0000f0 70 aa 92 3d 2a 8d ad bc a3 d7 19 3e 88 68 84 3e
       0.071614146 -0.021185476 0.15023665 0.25861

encoder_variable_selection.single_variable_grns.time_idx.fc2.bias f4 [8]
000000 00 b6 e8 3d 6d ab e8 3d 7f b8 e8 3d a1 b8 e8 3d
       0.11362839 0.11360822 0.11363315 0.1136334
000010 a5 b7 e8 bd d3 a2 e8 3d 0d b8 e8 bd bc b7 e8 3d
       -0.113631524 0.11359181 -0.1136323 0.113631696

encoder_variable_selection.single_variable_grns.time_idx.gate_norm.glu.fc.weight f4 [32, 8]
000000 4c 21 4f 3e 25 39 92 be 31 45 cb be 07 e8 71 3e
       0.20227545 -0.28559223 -0.39701226 0.23623668
000010 bb 7d b6 3e ea 9c 0c 3d 3d 71 8c bd 93 60 6d be
       0.356428 0.034329332 -0.06857536 -0.23181371
000020 50 0f ef bd 01 f1 d5 be e4 74 fd bd 13 26 b8 3e
       -0.116728425 -0.41785434 -0.12375811 0.35966548
000030 88 86 26 bc d3 8c c9 be 69 b8 82 bd 4b 47 c4 be
       -0.010163911 -0.39365253 -0.0638283 -0.38335642
000040 5b 60 d9 be 4f cf 97 3e 31 93 c5 3e d2 8b 2d 3e
       -0.42456326 0.2965035 0.3858886 0.16947868
000050 dc 6d 46 3c 05 3e 89 be a0 c1 d9 be 9e 12 ab 3e
       0.012111153 -0.2680513 -0.42530537 0.3341264
000060 ae eb 50 be b9 d7 b3 3d 15 15 a6 3e f3 5d 31 be
       -0.20402405 0.0878138 0.3243796 -0.17320995
000070 e2 a4 64 3e ee e2 c0 3e 10 76 d9 be e4 18 94 3d
       0.22328523 0.37673134 -0.42472887 0.0723131
000080 a7 14 8c be 40 23 3c 3e 0a ff c6 3e 84 73 77 be
       -0.27359506 0.18372822 0.38866454 -0.2416516
000090 8f 82 c9 3d 1f 4b c6 3e 5e 3e e2 be 2f ca 9a 3d
       0.09839355 0.38729188 -0.44188207 0.07558095
0000a0 9b 49 b1 bd b3 6f e8 3d 3c f8 65 be 53 96 86 be
       -0.08656617 0.1134943 -0.22457975 -0.26286563
0000b0 27 4e 78 3e a8 44 1b 3e 0d 1f c9 3e ae 46 07 3e
       0.24248563 0.15162909 0.39281502 0.13210556
0000c0 b5 57 4d be 7e e2 f9 be c7 14 dc bc b0 1c 2b 3e
       -0.20052989 -0.48805612 -0.026865376 0.16710162
0000d0 84 de 6c be 5e 85 4c 3c 5d 95 98 be c6 61 44 3d
       -0.23131758 0.012482969 -0.29801455 0.047944807
0000e0 56 e8 0f 3e dc 2b 6e 3e d6 e1 dc be f0 be 82 be
       0.14053473 0.23258919 -0.4314105 -0.255363
0000f0 05 09 dc 3e 1d ad 0e 3e 3a 48 7a bc 4b 98 91 be
       0.4297563 0.13933225 -0.015276009 -0.28436503
000100 66 6c e0 3d c6 89 dd 3e 13 d7 49 3e 17 eb 1a 3d
       0.10958175 0.43269175 0.1971095 0.037821855
000110 8c ee 81 3e f0 53 a3 3e b8 5e da be 1a fd 72 be
       0.2537731 0.31899977 -0.4265039 -0.23729363
000120 90 9a b7 3c 8f 09 49 3e 75 a9 e1 3e dd 28 04 be
       0.022412568 0.19632553 0.44074598 -0.12906213
000130 c0 12 62 bd 82 3f e8 3e b9 e1 22 be de 1a dc 3d
       -0.055193663 0.45360953 -0.15906419 0.10747312
000140 7a c9 24 be e3 39 ba be 2b 3e 39 be 7e 22 ee 3d
       -0.16092482 -0.3637229 -0.18090121 0.116276726
000150 51 f6 8a be 41 23 88 be a6 22 9b bd 42 47 f2 3e
       -0.2714105 -0.26589397 -0.07574968 0.4731999
000160 d6 e4 26 3e 05 03 91 3e 0d 79 9f 3e 96 c2 b3 3d
       0.16298231 0.28322616 0.31147042 0.08777349
000170 de 58 bc be 7d 19 87 3e 6f 4d dd be 33 66 f7 bd
       -0.3678655 0.26386634 -0.4322314 -0.1208004
000180 00 59 a2 3e 27 26 00 bf ef 5e 60 be af 2d 90 3e
       0.31708527 -0.50058216 -0.21911214 0.28159854
000190 c8 e3 90 3e f0 05 eb be 97 bc 36 bd 95 ff bd be
       0.28298783 -0.45902967 -0.044613447 -0.37109056
0001a0 57 92 5e 3d bb 3a 34 be a8 5a 28 3e 56 e8 86 3e
       0.05433878 -0.17600529 0.16440833 0.26349133
0001b0 91 27 c3 3e 3d c8 a5 3e 54 9d b4 be 2c bd ea 3e
       0.38116124 0.32379332 -0.35276282 0.45847452
0001c0 1c 1a 57 be 56 24 1b 3e 61 f8 97 be c6 88 ad bd
       -0.21006054 0.1515058 -0.29681686 -0.08473353
0001d0 79 d0 e7 3e c5 c2 0b be c4 c5 f3 3e f1 d3 fd be
       0.4527624 -0.13648517 0.4761182 -0.4957576
0001e0 57 5e d6 be 48 a4 82 3d 03 49 e9 be 8a b4 7e 3d
       -0.4186885 0.063789904 -0.45563516 0.062183894
0001f0 49 47 32 3e e7 32 21 3e a3 02 c6 be 6e eb ed 3e
       0.17410006 0.15742074 -0.38673887 0.4646868
000200 cb e0 7a bc ad 31 2a be fb 20 fc 3c f2 11 8c 3e
       -0.015312384 -0.16620512 0.030777445 0.2735744
000210 52 dd bb be 83 e1 a7 3e 90 8a b9 be 7a c3 cc 3e
       -0.36692291 0.3278924 -0.36238527 0.39992887
000220 d9 bc 83 3e 31 d2 9e 3e b9 8c 2f 3e 11 8b 84 3d
       0.25730017 0.31019738 0.17143525 0.06471837
000230 a0 37 49 3e 6e 3d 20 3c 24 cc a2 bd e5 ed 1e be
       0.19650126 0.009780271 -0.07949093 -0.15520437
000240 8a 44 80 be 11 9e 84 be 4d 5d 82 3e 28 8e 7f 3e
       -0.2505229 -0.25901845 0.25461808 0.24956572
000250 40 90 81 3e cb 61 71 be e7 c7 80 be 9a 88 76 bd
       0.25305367 -0.23572461 -0.25152513 -0.060188867
000260 41 01 76 3e 94 f1 81 bd b9 b2 b9 3d 2e 05 2f be
       0.24023916 -0.063449055 0.09067292 -0.1709182
000270 8a 38 65 bd 0a 43 d2 bd 9e 4c 0f bd 17 cf c5 be
       -0.055962123 -0.10266693 -0.034985177 -0.3863456
000280 d5 d8 97 3d 3a f9 65 3e fa 4d 80 be e1 27 02 be
       0.07414404 0.22458354 -0.2505949 -0.12710525
000290 67 8a ca be f0 45 f1 3d 7a 1a 3c 3e 41 0e cd 3e
       -0.39558718 0.11780918 0.18369475 0.40049937
0002a0 b6 b1 ec 3c 8b a1 95 bd 25 7e 2a be 26 41 4f be
       0.028893333 -0.073062025 -0.16649683 -0.20239696
0002b0 73 61 ed 3e 9f cc 8b be f8 59 2d bc 19 e3 86 be
       0.4636341 -0.2730455 -0.010580532 -0.26345137
0002c0 58 f9 80 be b6 ad dc be 34 0d 07 be ff f8 98 3e
       -0.25190234 -0.4310128 -0.1318863 0.2987747
0002d0 cc 40 8a 3e 34 7d 71 3e 02 02 1a be 14 13 b5 be
       0.2700256 0.23582917 -0.15039828 -0.35366118
0002e0 17 60 4c be 16 2d 84 3e 1c 58 eb be b4 1b ab 3d
       -0.1995853 0.25815648 -0.4596566 0.08354893
0002f0 a3 3d 3f be d4 42 89 be 8c c6 b2 3d 68 81 b5 be
       -0.18675856 -0.26808798 0.08729276 -0.35450292
000300 24 28 13 3e 93 77 64 3d fa 10 a6 be 01 19 21 3d
       0.14370781 0.055778097 -0.32434827 0.039330486
000310 7c 91 cd bd ae 5c fe bd a4 86 c5 bd 23 2c 87 3e
       -0.100375146 -0.12420021 -0.09644821 0.2640086
000320 02 b6 c3 3e 65 4a 6e 3e 20 7b e7 3c 4d 33 ca 3e
       0.38224798 0.23270567 0.028256953 0.39492264
000330 db 4f 01 3e 52 e3 b6 be cf ac 8c bd 0b 3b bc be
       0.12628119 -0.35720307 -0.06868898 -0.36763796
000340 c1 ea bc 3d 51 ed e7 3e b4 71 3c be 25 7e 58 3e
       0.09224463 0.45298246 -0.1840275 0.2114187
000350 d0 17 ea bc 23 9a 0e 3e dc 1f 49 be d2 c3 78 3d
       -0.028575808 0.13925986 -0.1964106 0.060733624
000360 fd dc 17 bd 62 01 e1 3e 53 dc eb 3d 87 55 e7 3e
       -0.037075985 0.43946368 0.11516633 0.4518244
000370 ce 4d ec be b4 ca 3c 3e c6 1b 90 3e 92 e2 b1 be
       -0.4615311 0.184367 0.2814619 -0.34743172
000380 96 41 35 be 15 97 b5 3e 02 28 5e 3d bf a4 e6 be
       -0.177008 0.3546683 0.054237373 -0.45047566
000390 b3 06 70 3d 1a 66 96 3e ef 61 e3 bd 1c ed ca 3e
       0.05860014 0.29374772 -0.11102664 0.39634025
0003a0 51 9e 46 3d d3 12 e1 bd 8a a1 8c 3d a8 de 39 be
       0.048490826 -0.109899186 0.06866749 -0.18151343
0003b0 74 62 9b be 5b 16 cc be 12 bf e5 3e 30 1c c2 3b
       -0.3034855 -0.39860806 0.44872338 0.0059237704
0003c0 31 47 05 3e b7 9c c7 be 06 84 a8 be 0b fe 5f be
       0.13015439 -0.3898675 -0.32913226 -0.21874253
0003d0 5c 2f f0 3d 5d ca b7 be 8b c6 f5 3e 6b 73 5a 3e
       0.11727783 -0.35896578 0.4800304 0.21333091
0003e0 b1 51 78 3e 30 24 35 be 7a 0e 7d 3b 2f 96 fa be
       0.24249913 -0.17689586 0.0038613365 -0.48942706
0003f0 4b 31 67 be 6c 96 6f 3e 45 77 67 3e 55 02 7e be
       -0.22577398 0.23397225 0.22604091 -0.24805577

encoder_variable_selection.single_variable_grns.time_idx.gate_norm.glu.fc.bias f4 [32]
000000 3c b7 e8 bd 2e b1 e8 bd 54 b7 e8 3d 21 b5 e8 3d
       -0.11363074 -0.11361919 0.11363092 0.113626726
000010 92 b5 e8 3d 64 b8 e8 bd 6a b6 e8 bd 9c b8 e8 bd
       0.11362757 -0.11363295 -0.11362918 -0.113633364
000020 5c b7 e8 3d 80 ae e8 3d ba b4 e8 3d e0 b7 e8 3d
       0.11363098 0.11361408 0.11362596 0.113631964
000030 73 b8 e8 bd 9f b4 e8 3d 7a b6 e8 bd 48 a2 e8 3d
       -0.11363306 0.11362576 -0.1136293 0.11359078
000040 0e b2 e8 3d 91 04 e8 bd 9f b3 e8 3d 54 ad e8 3d
       0.11362086 -0.11328996 0.11362385 0.11361185
000050 b5 b4 e8 3d 8a b4 e8 bd a8 a0 e8 bd f7 b2 e8 bd
       0.11362592 -0.1136256 -0.11358768 -0.1136226
000060 c7 4c e8 bd 56 16 e8 bd c4 ab e8 bd e7 98 e8 bd
       -0.11342769 -0.11332385 -0.11360887 -0.11357289
000070 b2 b5 e8 3d 86 9e e8 bd 88 ae e8 bd 78 9c e8 3d
       0.11362781 -0.11358361 -0.11361414 0.11357969

encoder_variable_selection.single_variable_grns.time_idx.gate_norm.add_norm.norm.weight f4 [16]
000000 15 e9 62 3f 20 e9 62 3f 92 8b 8e 3f 80 8b 8e 3f
       0.88636905 0.8863697 1.1136343 1.1136322
000010 79 8b 8e 3f fb e8 62 3f eb e8 62 3f 4c 8b 8e 3f
       1.1136314 0.8863675 0.88636655 1.113626
000020 e6 e8 62 3f 28 e9 62 3f 06 e9 62 3f fc e9 62 3f
       0.88636625 0.8863702 0.88636816 0.8863828
000030 85 8b 8e 3f 54 f1 62 3f 80 8b 8e 3f b1 e9 62 3f
       1.1136328 0.8864949 1.1136322 0.88637835

encoder_variable_selection.single_variable_grns.time_idx.gate_norm.add_norm.norm.bias f4 [16]
000000 f4 b8 e8 bd a4 b7 e8 bd 90 b8 e8 3d 57 b8 e8 3d
       -0.11363402 -0.11363152 0.113633275 0.11363285
000010 24 b8 e8 3d ff b8 e8 bd 68 b8 e8 bd f4 b8 e8 bd
       0.11363247 -0.1136341 -0.11363298 -0.11363402
000020 bf b8 e8 3d ba b7 e8 3d d4 b7 e8 3d af b8 e8 3d
       0.113633625 0.11363168 0.113631874 0.113633506
000030 f0 b8 e8 bd 81 b5 e8 3d 97 b8 e8 bd ea b6 e8 3d
       -0.11363399 0.11362744 -0.11363333 0.11363013

encoder_variable_selection.single_variable_grns.T2M.resample_norm.mask f4 [16]
000000 1a b9 e8 bd ab b7 e8 bd 0c ae e8 bd 6e b8 e8 3d
       -0.1136343 -0.11363157 -0.11361322 0.11363302
000010 a9 b7 e8 3d e7 b0 e8 bd 22 b7 e8 3d 33 b1 e8 3d
       0.113631554 -0.113618664 0.11363055 0.11361923
000020 4b b8 e8 3d ed b8 e8 3d 7c b6 e8 bd aa b7 e8 bd
       0.11363276 0.11363397 -0.11362931 -0.11363156
000030 85 b6 e8 3d c5 b7 e8 bd b3 7a e8 3d 88 b7 e8 bd
       0.11362938 -0.11363176 0.11351528 -0.11363131

encoder_variable_selection.single_variable_grns.T2M.resample_norm.norm.weight f4 [16]
000000 d7 e8 62 3f 0a e9 62 3f ca 89 8e 3f 74 8b 8e 3f
       0.88636535 0.8863684 1.11358 1.1136308
000010 44 8b 8e 3f 23 8b 8e 3f 57 e9 62 3f 68 8b 8e 3f
       1.113625 1.1136211 0.886373 1.1136293
000020 91 8b 8e 3f 8d 8b 8e 3f 31 8a 8e 3f de e8 62 3f
       1.1136342 1.1136338 1.1135923 0.8863658
000030 eb e9 62 3f 73 8b 8e 3f 80 8b 8e 3f ee e8 62 3f
       0.8863818 1.1136307 1.1136322 0.8863667

encoder_variable_selection.single_variable_grns.T2M.resample_norm.norm.bias f4 [16]
000000 ff b8 e8 bd e9 b7 e8 bd 3c b4 e8 3d c9 b8 e8 3d
       -0.1136341 -0.11363203 0.11362502 0.1136337
000010 d6 b2 e8 3d 54 b8 e8 bd 9f b5 e8 3d 49 b8 e8 bd
       0.11362235 -0.11363283 0.113627665 -0.113632746
000020 db b8 e8 3d 25 b8 e8 3d 2a b4 e8 3d a8 b8 e8 3d
       0.113633834 0.11363248 0.113624886 0.113633454
000030 5d 8b e8 bd c9 b8 e8 bd 8a b8 e8 bd 50 b8 e8 3d
       -0.113547064 -0.1136337 -0.11363323 0.1136328

encoder_variable_selection.single_variable_grns.T2M.fc1.weight f4 [8, 8]
000000 42 27 95 3d 60 91 5b bf cb 44 3b 3e 67 d7 6f 3d
       0.072828785 -0.857687 0.18287961 0.058555033
000010 1b a7 d4 3e 2d da 2c bf 07 ea e2 bd 74 8c d0 be
       0.4153374 -0.6752041 -0.110797934 -0.40732157
000020 f1 43 ca 3e d4 41 07 be b6 86 d2 3e 41 fb f9 3e
       0.3950496 -0.13208705 0.411184 0.48824504
000030 88 34 2b bf 60 c6 90 3e eb 6f 0b 3f 1d 20 dc 3d
       -0.6687703 0.28276348 0.5446765 0.107483126
000040 94 27 38 bf 74 9a b1 3e b6 46 1d bf c4 5b 16 be
       -0.7193539 0.3468815 -0.6143602 -0.14683443
000050 8d 2c 4c 3f 53 4e bd be 66 e4 e3 be 9a 64 92 3f
       0.7975548 -0.3697382 -0.44510192 1.1436951
000060 4f ea 67 bf de cc b5 3e 57 fc d3 3d aa 9c b5 3e
       -0.905919 0.35507864 0.103508644 0.35471088
000070 ca ec 44 3c e5 53 9b 3c 8d 4c cf 3d a8 92 2d be
       0.012019346 0.018960902 0.10122023 -0.16950476
000080 17 8c e5 3e 99 3a eb be 37 b2 0e 3f 98 73 29 bf
       0.44833443 -0.45943144 0.55740684 -0.6619201
000090 fa e5 c5 3e f7 b1 d7 3e e2 05 d9 3e 5c 0b 19 bf
       0.3865202 0.42127964 0.423873 -0.5978296
0000a0 10 a0 34 3f 6a 1f d9 3e 43 a3 a0 be a0 84 ac be
       0.70556736 0.4240678 -0.3137456 -0.33694935
0000b0 47 42 27 3e e4 2e 6d 3c 46 b8 82 bd 49 52 33 3e
       0.16333877 0.014476512 -0.063828036 0.17511858
0000c0 a0 2e 8b 3e cd da 39 bf 8a b8 b6 3d c2 e4 60 bf
       0.2718401 -0.7259949 0.08921917 -0.87849057
0000d0 00 05 5f be ea e4 88 be 0c 64 34 bf 67 eb 0c bf
       -0.21779251 -0.26737148 -0.7046516 -0.55046695
0000e0 8b 92 f4 be 0e eb c7 bd bb 77 49 bf 51 09 bf 3e
       -0.47768053 -0.0976163 -0.7869832 0.37311795
0000f0 83 75 39 bd b3 8f bf bc c9 73 11 bd 5e 19 d7 bd
       -0.045278084 -0.02338395 -0.035510812 -0.10502885

encoder_variable_selection.single_variable_grns.T2M.fc1.bias f4 [8]
000000 63 b7 e8 3d 1a b7 e8 bd 18 b7 e8 3d 6e ab e8 bd
       0.11363103 -0.11363049 0.11363047 -0.113608226
000010 ee b3 e8 3d fc b3 e8 3d a2 1d e6 3d 23 b7 e8 bd
       0.11362444 0.11362454 0.11236121 -0.113630556

encoder_variable_selection.single_variable_grns.T2M.fc2.weight f4 [8, 8]
000000 1a 39 ba be 7f 10 a0 3e 58 71 c7 bd 6d bc fb 3c
       -0.3637169 0.31262586 -0.097384155 0.030729497
000010 c4 6b 46 be c0 1a 13 be 0c 4f b5 bd 44 00 10 bd
       -0.19377047 -0.14365673 -0.088529676 -0.035156503
000020 84 f4 30 bf b3 c7 d2 3e 46 68 0a be 78 61 15 3f
       -0.691231 0.41167983 -0.1351634 0.5835185
000030 96 9e 2b be 9a e5 09 3e 38 ea e0 be 56 2d 8a 3f
       -0.16759714 0.13466492 -0.43928695 1.0795085
000040 0a 1d 91 bd d5 98 9a be a0 ce 82 be 0f 1e 6a be
       -0.07085617 -0.30194727 -0.25548267 -0.22863029
000050 de 64 c9 3e 98 f8 00 3a 82 df 2c 3f ec ab 9b be
       0.39334768 0.0004919856 0.67528546 -0.30404603
000060 56 cf 25 3f 48 95 f7 bd d4 fa 2d 3d 4a d0 34 bf
       0.64769495 -0.1208902 0.042475536 -0.70630324
000070 3e 88 b6 3e 4f 03 2d 3f b8 7a 46 be c4 89 bd be
       0.3565082 0.67583174 -0.19382751 -0.3701917
000080 95 35 38 be 27 0e f4 be 03 10 00 3f 38 47 cb 3e
       -0.1798919 -0.47667047 0.5002443 0.39702773
000090 3c bf 06 3f ee 14 2c 3f 0c 4d a7 3d ce 9f 0d bf
       0.5263555 0.67219436 0.081689924 -0.5532197
0000a0 39 d0 d0 3e c7 52 d2 bd 00 ae a7 bc 8a a7 8d bc
       0.4078386 -0.10269695 -0.020468712 -0.017291803
0000b0 3b e8 5a 3f 0b c9 31 3f 4f f6 0d 3f 58 b6 9e bf
       0.85510606 0.6944739 0.5545396 -1.2399397
0000c0 5f 76 9f 3e 93 e7 9f bd e0 0a 37 be 37 2a 58 3e
       0.31144997 -0.07807841 -0.17875242 0.21109854
0000d0 03 88 6f 3d d8 d5 47 bd 4c f7 bf 3e 35 03 2b 3f
       0.05847932 -0.04878792 0.3749336 0.6680177
0000e0 de 88 d2 3c ba 74 08 bf 5e 77 55 bb bb 5e 53 be
       0.025700029 -0.5330311 -0.003257237 -0.20641606
0000f0 f6 54 b4 3e 76 23 22 bb de fe 07 3f f4 57 e5 3d
       0.3522107 -0.0024740375 0.5312327 0.11198416

encoder_variable_selection.single_variable_grns.T2M.fc2.bias f4 [8]
000000 aa b6 e8 bd 47 b6 e8 bd 0d b8 e8 bd f5 b6 e8 3d
       -0.113629654 -0.11362892 -0.1136323 0.11363021
000010 b2 aa e8 3d 67 b5 e8 3d e6 2c e8 3d 13 b8 e8 3d
       0.113606825 0.11362725 0.11336689 0.11363234

encoder_variable_selection.single_variable_grns.T2M.gate_norm.glu.fc.weight f4 [32, 8]
000000 8b 27 6a 3e eb 08 40 3e b3 6a 0d 3e 18 bf 80 be
       0.22866647 0.18753402 0.13810234 -0.25145793
000010 13 7d a2 be 65 61 d7 3d 21 38 50 be 75 5c b3 be
       -0.3173605 0.105166234 -0.20333911 -0.35031477
000020 11 6b 94 3e 17 21 cf 3e 18 4c 8b ba 17 da 98 be
       0.28987935 0.40454933 -0.0010627536 -0.2985389
000030 7e 04 46 be 20 42 f2 be 23 3a 5a be c2 6c 7c 3e
       -0.19337651 -0.47316074 -0.2131124 0.24650863
000040 d8 fd 91 be 92 bb a6 be 64 22 35 3e d8 0b 57 3d
       -0.2851398 -0.3256498 0.176889 0.05250153
000050 9a d7 b5 3d e9 8b 9b bc 00 98 8a be e7 35 59 3d
       0.08879013 -0.018987613 -0.27069092 0.05302992
000060 af ad 0a be 04 87 bb 3d 36 2c 70 3e 4b 4a bb 3e
       -0.13542818 0.091566116 0.23454365 0.3658012
000070 b6 ba 94 3c 29 b8 eb 3e 9d 88 2a be ed 9b a6 3e
       0.018155437 0.4603894 -0.16653676 0.32540837
000080 f7 81 27 be 4a b6 67 3e 55 ae 2a 3e f2 cd c8 bd
       -0.16358171 0.22628132 0.16668065 -0.09804906
000090 23 40 ce 3e 80 1d f6 bd 09 fc 17 3e 4a 41 42 3c
       0.40283307 -0.120173454 0.14842238 0.011856386
0000a0 79 fb db 3d d4 67 4f bd f6 ad cf be 96 9a 3a be
       0.10741324 -0.050636128 -0.4056241 -0.18223032
0000b0 f0 b2 95 bd a6 de a8 be cd 43 08 3d f3 8a 1f bd
       -0.0730952 -0.32982367 0.033267785 -0.03895087
0000c0 91 ca 49 be 02 3f 8a be 45 88 8a be 38 84 72 3e
       -0.19706179 -0.27001196 -0.2705709 0.2368325
0000d0 d6 2d 32 3d d7 7b 23 be 4a d7 f2 be c1 bb 71 3e
       0.043500744 -0.1596521 -0.47429878 0.23606779
0000e0 a2 3f 70 bd 33 2f 00 3f 99 6c 9b be 1e 71 2d 3e
       -0.058654435 0.5007202 -0.3035629 0.16937682
0000f0 0c 31 61 3e 40 95 91 be e2 2b 46 be 1b 0c f7 be
       0.21991366 -0.2843418 -0.19352677 -0.48251423
000100 1a 97 05 be ad 58 d3 be 3c b2 49 3e 9f 42 c8 3d
       -0.13045922 -0.41278592 0.19696897 0.09778332
000110 68 58 38 3e d4 03 84 3e d4 d6 0b 3b fd 3c e9 3d
       0.18002474 0.2578417 0.0021337764 0.11388586
000120 ba 2c 95 3e 37 04 0d be 98 70 55 3e bc fd 4c 3e
       0.29135686 -0.13771139 0.20843732 0.20018667
000130 72 74 7d 3d 6d 68 62 3e 71 82 f3 be fc 74 44 bd
       0.06187863 0.22110148 -0.47560456 -0.047963127
000140 af e3 c3 3d ea fd 7d bd 0b db f8 bd 2c 0c 0f bd
       0.095649116 -0.06200973 -0.12151154 -0.034923717
000150 fd 1b be 3e c9 77 51 be ca a9 d8 bd b5 27 c2 bd
       0.37130728 -0.2045585 -0.1057926 -0.0948023
000160 5c 07 49 3d 91 51 54 be b0 9c 84 be 80 fe bf 3c
       0.049079284 -0.2073424 -0.25900793 0.023436785
000170 c0 d6 55 3e ba 82 ae 3e d6 95 40 3e 1d 7b d6 bd
       0.20882702 0.3408411 0.18807158 -0.10472701
000180 2c 9e e1 ba 75 41 35 3e 2e 79 83 be 5b 96 7e 3e
       -0.0017213277 0.17700751 -0.2567839 0.24862044
000190 33 ad 6d 3e 40 20 24 bd a3 e4 83 be c8 f7 a0 be
       0.23210602 -0.04006982 -0.25760373 -0.31439042
0001a0 66 fb e6 bb fd 4d e9 3e 3e 71 72 be 15 78 ae 3d
       -0.007049012 0.45567313 -0.23676011 0.085189976
0001b0 74 ee 08 be d7 b6 4f be da 36 b8 3e a2 2e fd be
       -0.13372213 -0.20284592 0.35979348 -0.4944964
0001c0 50 9c d5 3d d0 db 74 3a 6a 8c 81 3e 8e 43 9a be
       0.10430205 0.0009340616 0.2530244 -0.30129665
0001d0 7e 0f f4 bd f3 9f 5f bd 82 16 62 be 7a 9f e9 bd
       -0.119170174 -0.0545959 -0.22078899 -0.11407371
0001e0 47 32 bf be 4d 0e 8f 3d bf b2 fa bd ef f9 b4 3e
       -0.37343046 0.069851495 -0.12241124 0.35346934
0001f0 3f 88 d2 bd 0c 1e f1 3d 06 1c c2 3e 5b b9 56 3e
       -0.10279893 0.11773309 0.37912005 0.20969145
000200 dc cb 37 be c5 c6 37 be 88 ca 14 bc da 10 19 bc
       -0.1794886 -0.17946918 -0.00908149 -0.009342397
000210 d5 60 85 3d 3e 16 f1 3c 14 7b 75 be 02 f4 bb bc
       0.0651261 0.029429551 -0.23972732 -0.0229435
000220 1e 3a 53 be e6 74 82 bd 6f 55 16 3e 7e 5e 32 3e
       -0.20627639 -0.06369953 0.14681028 0.17418858
000230 da c8 82 be 2a 44 01 3e 83 ae d9 be 7f 11 83 3d
       -0.25543863 0.12623659 -0.42515954 0.063998215
000240 3b 19 ab bc 5e af 79 3e ae 18 01 be 7c eb a3 3d
       -0.020886054 0.24383304 -0.12607071 0.080038995
000250 30 f9 91 3d 3e be a2 bb 6a 00 81 3e cb 52 7d be
       0.07127607 -0.0049665263 0.25195628 -0.24738614
000260 f7 ba 47 be d1 c6 be be 11 d3 43 be 48 a3 34 3e
       -0.19504915 -0.3726106 -0.19123484 0.17640412
000270 6f 70 b7 bc 2d a0 38 be 68 b2 d6 be 23 f8 1e 3e
       -0.02239248 -0.18029852 -0.41932988 0.15524344
000280 86 e1 8b 3e 7e cd 51 be e7 64 6f be 24 cd 8d be
       0.27320498 -0.20488545 -0.23378335 -0.27695572
000290 65 d9 72 bd c3 ad 24 be cc d9 96 be 9e a8 a3 be
       -0.059289355 -0.1608191 -0.2946304 -0.31964582
0002a0 43 15 81 be 54 bf 9a 3d ab 90 b4 3e 82 62 7c bb
       -0.25211534 0.07556024 0.35266623 -0.0038510864
0002b0 80 b8 99 3e cd 53 fa 3d bf b5 19 3e d6 e3 71 3e
       0.30023575 0.12223015 0.15010737 0.23622069
0002c0 76 dc 3b 3e b5 df 22 bd 6e 15 ad 3e 9f 5b 3c 3e
       0.18345818 -0.039764125 0.33805412 0.18394326
0002d0 52 70 a6 bb ba df b0 be 4b b4 eb bd fa 3e f5 3d
       -0.0050793076 -0.3454569 -0.115089975 0.119749025
0002e0 66 9b 62 be a9 fc 97 be 7f 36 b7 3e 43 e3 89 be
       -0.22129592 -0.29684952 0.35783765 -0.269312
0002f0 76 8d e5 bd 6e 52 5f bc 0c e6 fe 3e 02 91 57 bc
       -0.11208622 -0.013630493 0.49784887 -0.013157131
000300 6b b6 57 3e 30 ba 8a 3e 92 d0 c9 3e ea ff 30 3e
       0.2106568 0.27095175 0.3941694 0.17285123
000310 e2 49 d6 3c 97 36 a2 3e fb 45 20 3e 85 bd a2 3c
       0.026158277 0.31682274 0.15651695 0.01986576
000320 24 87 ca be 93 9b d7 bd d2 35 83 bd 1d a5 dc 3e
       -0.3955623 -0.1052772 -0.0640675 0.4309472
000330 11 41 c2 3e 17 0f 5b be 3a ca 7c 3d e2 8b 1a 3e
       0.37940267 -0.21392475 0.061716296 0.15092424
000340 90 4a a4 bc 3a 91 a0 3e 83 98 0c 3e b6 3b 9b bd
       -0.020055085 0.313608 0.13730054 -0.07579748
000350 5c 2e cc 3c 61 f9 1b bd db 0c b6 be ad 33 f4 be
       0.02492445 -0.038079623 -0.35556683 -0.47695675
000360 72 96 40 be 33 48 ee bd 09 31 ae bd c2 64 d5 3e
       -0.1880739 -0.11634865 -0.085054465 0.41678435
000370 bd ea 9c bd 45 92 27 be a1 71 86 3c 4a 55 e0 be
       -0.0766196 -0.16364391 0.016411604 -0.4381507
000380 46 ec e2 bd 3c 74 76 be 38 04 93 3d ef 2b 88 3e
       -0.11080222 -0.24067777 0.07178539 0.2659602
000390 e9 7f b0 3e c7 2b 73 be 0e bf 2a bb d6 13 8d 3e
       0.34472588 -0.23747168 -0.002605382 0.27554196
0003a0 91 3c c9 3d fa 52 a1 bd c4 a8 5d be 3f a4 78 3e
       0.09826005 -0.07877155 -0.2164641 0.24281405
0003b0 16 84 1a 3d c0 47 30 be bb 28 ce be 58 0b 3f be
       0.037723623 -0.1721487 -0.4026545 -0.18656671
0003c0 e8 73 7a 3e c2 7d bb 3e 52 49 e2 3d 6b 77 83 3d
       0.24458277 0.36619383 0.11049141 0.064192615
0003d0 3a 37 ad bd 00 f2 ad be 46 5d bd bc b8 37 e9 3d
       -0.08457799 -0.33973694 -0.023115765 0.11387581
0003e0 b9 79 ec bd 7c 59 b7 bd fa c5 34 be 79 06 3a be
       -0.11546654 -0.08952615 -0.17653647 -0.18166532
0003f0 eb a2 82 bd 4a 57 2d be 3e d4 b2 be ba 21 b1 3d
       -0.063787304 -0.1692783 -0.34927553 0.08649011

encoder_variable_selection.single_variable_grns.T2M.gate_norm.glu.fc.bias f4 [32]
000000 b3 b8 e8 bd 53 b6 e8 bd a0 b1 e8 3d 14 b7 e8 3d
       -0.113633536 -0.113629006 0.11362004 0.113630444
000010 12 b1 e8 3d 4b b7 e8 bd 1a b5 e8 3d 33 b7 e8 bd
       0.113618985 -0.11363085 0.113626674 -0.113630675
000020 1f b8 e8 3d 2a b6 e8 3d df 9c e8 3d f5 b7 e8 3d
       0.11363243 0.1136287 0.11358046 0.11363212
000030 82 90 e8 bd 88 b6 e8 bd 4f b7 e8 bd 09 b7 e8 3d
       -0.11355688 -0.1136294 -0.11363088 0.11363036
000040 50 ae e8 bd 4c ae e8 3d 53 a6 e8 bd 2f b5 e8 3d
       -0.113613725 0.113613695 -0.11359849 0.11362683
000050 23 af e8 bd 04 ae e8 3d b5 a8 e8 bd 5b b2 e8 3d
       -0.1136153 0.11361316 -0.11360303 0.113621436
000060 bf b4 e8 3d 73 b3 e8 3d d2 b2 e8 bd 40 9f e8 bd
       0.113625996 0.11362352 -0.11362232 -0.113584995
000070 10 a7 e8 3d 95 b1 e8 3d 40 ad e8 bd 04 a0 e8 bd
       0.1135999 0.11361996 -0.1136117 -0.113586456

encoder_variable_selection.single_variable_grns.T2M.gate_norm.add_norm.norm.weight f4 [16]
000000 d2 e8 62 3f 07 e9 62 3f 5a ea 62 3f 87 8b 8e 3f
       0.88636506 0.8863682 0.8863884 1.113633
000010 82 ea 62 3f 5f 8b 8e 3f 00 e9 62 3f 74 8b 8e 3f
       0.8863908 1.1136283 0.8863678 1.1136308
000020 93 8b 8e 3f 8d 8b 8e 3f 58 e9 62 3f da e8 62 3f
       1.1136345 1.1136338 0.88637304 0.88636553
000030 b0 e9 62 3f 7d 8b 8e 3f 73 8b 8e 3f eb e8 62 3f
       0.8863783 1.1136318 1.1136307 0.88636655

encoder_variable_selection.single_variable_grns.T2M.gate_norm.add_norm.norm.bias f4 [16]
000000 30 b9 e8 bd 76 b8 e8 bd d1 b3 e8 3d d3 b8 e8 3d
       -0.11363447 -0.11363308 0.11362422 0.113633774
000010 5b a5 e8 3d 69 b8 e8 bd 8e b7 e8 3d 35 b8 e8 bd
       0.11359664 -0.113632984 0.11363135 -0.1136326
000020 d4 b8 e8 3d db b7 e8 3d 48 b6 e8 3d e8 b8 e8 3d
       0.11363378 0.11363193 0.113628924 0.11363393
000030 50 a2 e8 3d ef b8 e8 bd ae b8 e8 bd af b8 e8 3d
       0.11359084 -0.11363398 -0.1136335 0.113633506
