ai_predict/ai/lightning_logs/version_42/checkpoints/epoch=0-step=8.ckpt (torch, 662004 bytes, 889 tensors)

prescalers.time_idx.weight f4 [8, 1]
000000 9b aa ce 3e 28 9a 79 3f 77 87 c3 3e 52 33 16 3c
       0.40364537 0.9750085 0.3818929 0.009167509
000010 7f d3 69 bf 78 6e 21 bf 7f f0 2f 3f 9c 48 4e 3e
       -0.9133834 -0.63059187 0.6872634 0.20144886

prescalers.time_idx.bias f4 [8]
000000 f9 9c 66 3d 91 93 30 3d bd 2b 58 be c9 98 e8 3e
       0.056302045 0.04310948 -0.21110435 0.45429066
000010 05 bf b8 be 26 e9 18 bf 2c 20 1d 3d de a2 19 3e
       -0.36083236 -0.59730756 0.03836076 0.15003535

prescalers.T2M.weight f4 [8, 1]
000000 fe 4c aa be 6c d0 da 3e 4e f7 57 bf 41 33 0d 3f
       -0.33261865 0.42737138 -0.8436173 0.5515633
000010 cf 44 ae be c2 e5 10 3f 16 10 7f 3f db 11 07 3f
       -0.34036872 0.5660058 0.9963392 0.5276162

prescalers.T2M.bias f4 [8]
000000 4f 6b fd be 35 89 6e bf 3b d6 84 be 59 17 f4 be
       -0.49495932 -0.9317811 -0.25944695 -0.47674063
000010 b0 ed 9c 3c 56 7a 2f be eb 76 fb 3e a7 cb 0f bf
       0.019156307 -0.17136511 0.49114165 -0.56170124

prescalers.T2M_MAX.weight f4 [8, 1]
000000 4b cb b6 be 3f a7 5f 3f 25 96 43 bf 37 45 69 3f
       -0.35701975 0.8736457 -0.7640098 0.9112124
000010 4b 88 2a be c7 9d 49 3f f6 35 7f bf 00 6e 5e 3f
       -0.16653554 0.78756374 -0.9969171 0.86886597

prescalers.T2M_MAX.bias f4 [8]
000000 dd da b6 3e 22 a4 2e bf 03 47 f1 be b5 97 6b bf
       0.35713854 -0.68219197 -0.4712449 -0.9202836
000010 c5 69 21 3f 13 39 61 3f 07 2c 51 3f 56 a8 26 be
       0.63052016 0.87977713 0.81707805 -0.16275153

prescalers.T2M_MIN.weight f4 [8, 1]
000000 cf dd c9 be 23 db 1d be df 09 cc 3d 61 2c cc 3e
       -0.3942704 -0.15415625 0.0996282 0.39877608
000010 a4 76 f5 3e b7 b6 03 bf f0 4e 43 3d 2b 24 d3 3e
       0.47942078 -0.51450676 0.047682703 0.4123853

prescalers.T2M_MIN.bias f4 [8]
000000 35 09 b6 3d 9b b9 1b 3f d2 21 f4 3e 5b e8 fe 3e
       0.08888475 0.60830086 0.47682053 0.49786648
000010 d2 5a 96 bd 20 09 3c bc 63 d6 34 3f 78 da 3d 3f
       -0.07341541 -0.011476785 0.7063963 0.7416148

prescalers.PRECTOTCORR.weight f4 [8, 1]
000000 3b 9d 6d bf 48 9c 54 bf 9f 75 2c be fc 10 b4 3e
       -0.9281804 -0.83050966 -0.16841744 0.35169208
000010 74 c9 e4 3e 6c 3e 06 bf 48 1d 06 3f 3e cb 2d 3f
       0.44684947 -0.52439 0.5238843 0.6788825

prescalers.PRECTOTCORR.bias f4 [8]
000000 57 7d 7d 3e d2 c4 b1 be 4c 6c 0d bf b6 4e 73 3f
       0.24754845 -0.34720474 -0.5524337 0.9504198
000010 fb 9e 54 be e6 c4 b1 be 35 55 f9 3e 53 61 2c 3f
       -0.20763771 -0.34720534 0.4869782 0.67336005

prescalers.RH2M.weight f4 [8, 1]
000000 f3 97 75 bf d9 df 0d bd 35 5d ea 3e 23 57 12 3f
       -0.9593498 -0.034637306 0.45774236 0.5716421
000010 fd e1 20 3e 08 2c 3d 3f 3d 08 8b be 49 05 ce be
       0.15711208 0.7389531 -0.27154723 -0.40238407

prescalers.RH2M.bias f4 [8]
000000 b1 b4 01 bf 08 28 02 3f 7f 39 7d 3e 89 d5 0e bf
       -0.5066634 0.5084233 0.24728964 -0.5579458
000010 d2 ba 82 3e c4 bd 4a bf 09 be 09 3f e4 b1 0d be
       0.25533158 -0.7919581 0.53805596 -0.13837391

prescalers.ALLSKY_SFC_SW_DWN.weight f4 [8, 1]
000000 c3 c1 5a bf 8b 11 a0 3e f5 17 12 3f 47 72 7e 3d
       -0.85451907 0.31263384 0.57067806 0.062120702
000010 33 c2 d5 3e 01 3a 58 bf 84 64 29 bf 9d c5 63 3e
       0.41749725 -0.84463507 -0.66169 0.22243352

prescalers.ALLSKY_SFC_SW_DWN.bias f4 [8]
000000 9b 2c 00 3f 67 52 2b 3e 6a 52 19 3f ae 7d 0a 3f
       0.5006806 0.16730653 0.5989138 0.5409802
000010 96 7d 7a 3f ce 59 64 3f 40 28 51 3f 0b 90 f8 3d
       0.9784788 0.8919953 0.8170204 0.12136849

prescalers.numero_casos.weight f4 [8, 1]
000000 c4 67 fe 3e de ef 8f 3f 86 95 06 3f 7e ac 3c bf
       0.49688542 1.1245077 0.52571905 -0.737007
000010 3c 1c 2a bf e4 d2 26 3f fd 61 24 bf 48 23 47 3f
       -0.6644933 0.65165544 -0.6421202 0.7778821

prescalers.numero_casos.bias f4 [8]
000000 24 77 5a bd 46 25 9b 3e 6b 52 5b 3d b2 e7 17 3e
       -0.053336278 0.30301875 0.053545397 0.14834478
000010 04 72 1c 3f 9f 0a da be 93 db 6a 3f 5f 3f be be
       0.61111474 -0.42586228 0.91741294 -0.37157723

static_variable_selection.single_variable_grns.municipio.mask f4 [16]
000000 47 bf e8 3d cb bd e8 bd dc b6 e8 3d bb b6 e8 bd
       0.11364608 -0.11364325 0.11363003 -0.11362978
000010 67 cd e8 bd ea be e8 3d 15 f8 e7 3d 21 bf e8 bd
       -0.113673024 0.11364539 0.11326615 -0.1136458
000020 c2 b4 e8 3d d1 ad e8 3d 68 b4 e8 3d fb ba e8 3d
       0.11362602 0.11361278 0.11362535 0.11363789
000030 60 bb e8 bd e2 b5 e8 bd b6 be e8 3d b2 ad e8 bd
       -0.11363864 -0.113628164 0.113645 -0.11361255

static_variable_selection.single_variable_grns.municipio.norm.weight f4 [16]
000000 62 bf 8a 3f c8 fc 80 3f 00 4d 6e 3f 9b ce 7b 3f
       1.0839655 1.0077143 0.9308624 0.9836213
000010 4c a3 8d 3f 18 bc 8c 3f 3a 2c 65 3f 91 10 8b 3f
       1.1065459 1.0994902 0.8952061 1.0864431
000020 37 b4 72 3f af 62 67 3f 58 fd 62 3f 8e 93 7d 3f
       0.94806236 0.90384954 0.8866782 0.99053276
000030 f5 ff 86 3f 21 1f 73 3f e0 08 8d 3f 75 92 73 3f
       1.0546862 0.94969374 1.1018333 0.9514535

static_variable_selection.single_variable_grns.municipio.norm.bias f4 [16]
000000 11 fc e8 bd f8 be e8 3d be 89 e8 bd 18 a2 e8 3d
       -0.11376203 0.113645494 -0.11354397 0.11359042
000010 84 e5 eb 3d 8f 0b e9 bd 29 9e e6 bd b8 33 e9 3d
       0.11518386 -0.11379158 -0.112606354 0.11386818
000020 fb 6a e8 bd 6f 0f e8 bd e8 52 e8 bd 8d 71 e8 bd
       -0.1134853 -0.11331069 -0.11343938 -0.11349783
000030 9a de e8 3d 80 7e e8 3d 3b 0e e9 bd 9c ba e7 3d
       0.11370583 0.11352253 -0.11379667 0.1131489

encoder_variable_selection.flattened_grn.resample_norm.mask f4 [8]
000000 9f cb 26 3c f1 e1 c3 bd 5b 01 fe bd aa 9e cc bc
       0.010180383 -0.09564579 -0.12402602 -0.024978
000010 29 65 03 be ba 2b fb bd 5c 7b 6e 3d 1f a0 9b 3c
       -0.12831558 -0.122641996 0.058223113 0.01899725

encoder_variable_selection.flattened_grn.resample_norm.norm.weight f4 [8]
000000 ea 39 7b 3f 6a 6e 69 3f de a6 62 3f 4e 15 79 3f
       0.98135245 0.91184103 0.8853587 0.97298133
000010 76 6a 5d 3f e4 96 65 3f 7a e1 88 3f 93 ea 82 3f
       0.8649057 0.89683366 1.069381 1.0227836

encoder_variable_selection.flattened_grn.resample_norm.norm.bias f4 [8]
000000 25 1d 6f bd a1 49 e9 3c 75 2e 17 3e e0 76 59 bd
       -0.058377404 0.028477492 0.14763816 -0.053091884
000010 b9 27 a3 bd 87 9c db 3d 14 76 2d 3d fe f3 11 3e
       -0.07966561 0.107232146 0.042348936 0.14253232

encoder_variable_selection.flattened_grn.fc1.weight f4 [8, 64]
000000 3e 75 90 3c 26 cb f1 bc 2d 17 4a 3e 59 e4 da 3d
       0.01763403 -0.029515814 0.19735403 0.10688085
000010 67 84 71 3e 8f 5b eb 3c 34 16 33 bd b8 3b 42 3d
       0.23585664 0.028730182 -0.043722346 0.047420233
000020 81 7d cc 3c 71 0b af bd 0d 3e a9 3e 50 b5 6d be
       0.024962189 -0.08547104 0.33055153 -0.23213696
000030 02 54 74 3e 4f 41 2a 3d 63 ca c1 bd d3 16 1a 3e
       0.23860171 0.04156619 -0.0946243 0.15047769
000040 f3 b8 50 be c1 3e 29 be 36 87 75 bc 4b c3 dc be
       -0.20383053 -0.16527845 -0.01498585 -0.43117747
000050 6a 75 b7 3d b7 23 94 bd a6 92 62 3e 9b f5 6d bd
       0.08957942 -0.072333746 0.22126254 -0.058095556
000060 45 a9 1c be de 21 02 3e ca 7c bd be b4 4e 98 bc
       -0.15298946 0.12708232 -0.3700927 -0.018592216
000070 32 60 eb bd 62 07 16 bd 6e c1 85 be e3 db 02 3e
       -0.11492957 -0.036628135 -0.26124138 0.12779193
000080 60 d9 4f be 67 ee f6 bd 94 e4 d2 3e a8 b0 26 3e
       -0.20297766 -0.120571904 0.41190016 0.16278327
000090 8f b9 97 be 90 40 92 3e 5c 8c 6a 3c e4 9c cd 3e
       -0.29633757 0.28564882 0.014315691 0.4015876
0000a0 9f 4e a5 be 74 47 80 3e 3a 46 a0 3e 90 93 88 bd
       -0.32286546 0.25054514 0.3130358 -0.0666877
0000b0 b0 df 11 3e b7 86 96 3e 00 d4 18 bd 97 c2 2a bd
       0.14245486 0.29399654 -0.037311554 -0.04168948
0000c0 fd ec 12 3f 5b 1c 53 be d2 6e 61 be 6e ae f1 bd
       0.57392865 -0.20616286 -0.22014931 -0.11800848
0000d0 a9 15 58 bd da 62 2c be 69 58 06 3e b1 e1 c0 bd
       -0.05275503 -0.16834584 0.13119663 -0.09418047
0000e0 ca 78 14 3e 1e fe 0d be bf 5e a0 be 49 f2 9d 3e
       0.14499202 -0.1386647 -0.31322286 0.3084891
0000f0 b0 b7 3f 3e 8e 79 9f be 84 09 82 3d 9f 63 c8 3e
       0.18722415 -0.31147426 0.06349471 0.39138505
000100 1e cc be be 4f eb 6d bc 44 7d b0 3d 55 b9 fa bd
       -0.37265104 -0.014521434 0.086176425 -0.122423805
000110 64 7d e9 3d a4 aa f5 3d 7d db 63 be e8 3f 16 3e
       0.114008695 0.11995438 -0.22251697 0.14672816
000120 53 c0 0e be a3 17 51 bd 2b e9 52 be 19 20 4a be
       -0.13940553 -0.051047932 -0.20596759 -0.19738807
000130 7b a2 5a 3e 6c 36 b3 3e 6d a0 2f be bd 74 1e bc
       0.21351044 0.35002458 -0.17151041 -0.009671387
000140 87 56 90 bd 1c 88 a6 be 0f 66 91 bd 9f 0f 8c bd
       -0.07047754 -0.32525718 -0.07099544 -0.06838917
000150 c3 4f e8 3e 07 b0 55 3d 26 ac ed 3d 5b e5 87 3d
       0.45373353 0.052169826 0.116051 0.06635543
000160 a2 8e e9 3d c2 38 14 3e 8a 97 f2 3d fb 8e 09 bd
       0.11404158 0.14474776 0.1184531 -0.033583622
000170 33 e7 9a 3e a4 1c 89 3e d5 dd 90 3e bf 19 74 bd
       0.30254516 0.26779664 0.28294244 -0.059594866
000180 b9 a7 32 be 08 2b 91 3e 7c f3 98 3d 8a 76 55 3e
       -0.17446794 0.28353143 0.07468316 0.20846
000190 52 69 05 be 3d 46 15 3e a2 fb 9a bd 04 de b4 bd
       -0.13028458 0.14577575 -0.075675264 -0.088314086
0001a0 ef e6 36 3d df c6 e2 3d 9a 43 02 3e 05 ae b5 bd
       0.04465383 0.11073088 0.127211 -0.08871082
0001b0 26 36 01 3e 08 81 ba be 36 02 09 bd 66 ff b1 3e
       0.12618312 -0.36426568 -0.033449374 0.34765166
0001c0 7e 4a 5c 3d ab 9e ae 3e dc ee 72 3d a6 ed d4 bb
       0.05378198 0.3410543 0.059309825 -0.0064980565
0001d0 fe 2e a3 3d 30 cd 2d 3e 76 38 83 bd 1d 9b 6a 3e
       0.079679474 0.16972804 -0.064072534 0.22910734
0001e0 e0 b9 64 3d e8 c0 8a 3e 40 e5 3c 3e 76 e0 35 bc
       0.055841327 0.271003 0.18446827 -0.011100879
0001f0 ee 18 f4 bd dc 87 f5 bd 84 e4 86 3e 07 c6 16 3e
       -0.119188175 -0.11988804 0.2634622 0.14723979
000200 e6 74 6c bc 30 2f bc 3e bd 51 e9 3e 2d 74 21 3e
       -0.014432168 0.3675475 0.45570174 0.15766974
000210 b2 dc 7a 3d 92 ab 76 be af 9a 5a bd 41 10 bd 3e
       0.061245628 -0.24088886 -0.053370174 0.36926463
000220 d0 aa 9e 3d 62 4d 02 bd 3b 82 ff 3c 95 7d ea bd
       0.07747424 -0.03181208 0.031190028 -0.11449734
000230 9b f5 6f be d0 70 7c be fa 4a ba 3d b4 cb cc be
       -0.23433535 -0.2465241 0.09096332 -0.39999163
000240 26 f8 85 3d 97 ba d0 be f2 5f 93 3e 5f 0b 8f 3d
       0.06541471 -0.40767357 0.28784138 0.06984591
000250 26 dc 99 bd bc 0a 43 be 73 bc 95 bd a3 ac bf bd
       -0.07512693 -0.19047064 -0.073113345 -0.093591
000260 8b c0 71 3e 3c b8 f2 bc 9e 96 23 bd 22 4b b1 bd
       0.23608606 -0.029628865 -0.03993856 -0.086569086
000270 1b 0a a1 be d6 a3 d8 3e be 09 2f 3e 71 3b a8 be
       -0.31453022 0.42312497 0.1709356 -0.3285785
000280 5f db 0e 3e bc 0a 0d be f9 f0 ba bc 42 00 36 be
       0.13950871 -0.13773626 -0.022819983 -0.17773536
000290 d4 6a f6 bd 20 b6 c3 38 75 13 ed bd 60 fe df bc
       -0.120320946 9.332248e-05 -0.11575977 -0.027342975
0002a0 aa 1d 1f 3e cf 92 ad bd a2 3f 0e be f8 f5 d6 3d
       0.1553866 -0.08475267 -0.13891461 0.104961336
0002b0 a1 a0 ca 3d e2 d1 25 be 8c e7 80 3e bd cc dd 3d
       0.09893919 -0.16193345 0.25176656 0.10830066
0002c0 6d d4 b1 bc 76 29 12 3e 49 bf 61 bd a9 ba 80 3e
       -0.021707738 0.14273629 -0.055114064 0.2514241
0002d0 1d 77 a3 3d 82 0b 8c 3e 1d 15 33 be db e7 33 bd
       0.079817034 0.2735253 -0.17488523 -0.043922286
0002e0 bb 5e 89 3d b0 47 fa 3d dc cd 3c 3d 80 cd b3 3d
       0.067075215 0.122207046 0.04609476 0.087794304
0002f0 1b 2f 82 be 7a df 9e 3e 86 4f 0f be 3f 79 40 3e
       -0.25426564 0.31029874 -0.1399518 0.18796252
000300 d8 4e c0 3e 38 61 96 ba 82 fa 28 3e f8 cd b5 bc
       0.37560153 -0.0011473065 0.16501811 -0.02219294
000310 f8 eb 4e be 53 06 ea 3d 68 64 83 3d 04 08 af bd
       -0.20207202 0.114269875 0.06415635 -0.08546451
000320 dd d0 98 3e bd e3 eb bb 99 da 99 be 40 d1 a6 3d
       0.2984685 -0.0071987794 -0.3004959 0.0814538
000330 53 6c 8d be 6c 8c bc 3c f0 19 58 bd e3 ab c0 3d
       -0.27621707 0.023016177 -0.05275911 0.09407785
000340 7f 53 c0 3d d2 04 63 3e 26 bd 4e be 94 62 0c 3f
       0.093909256 0.22169808 -0.20189342 0.5483792
000350 24 12 5d 3d e7 01 c0 bd 26 14 8a be 9e bb 84 3e
       0.05397238 -0.09375363 -0.26968497 0.2592439
000360 23 fc 02 bf 64 78 82 3e 84 44 cf 3c e8 75 e7 3d
       -0.5116598 0.25482476 0.025301225 0.11301786
000370 b0 1c 7f 3e 29 33 21 bd 2a ee 52 bd ba 0b 71 3d
       0.24913287 -0.03935543 -0.051496662 0.058849074
000380 dc 7f e9 3c 46 41 09 3e a4 de 47 be c6 e1 07 3e
       0.02850335 0.13403806 -0.19518524 0.1326972
000390 fc a4 3f be 3c 82 74 3b f0 cc f6 bc d0 00 e9 bd
       -0.1871528 0.003730907 -0.030127019 -0.11377108
0003a0 2c e6 b4 3e b0 85 96 bd 78 fb 2d be 3e 0f d6 bc
       0.35331857 -0.073497176 -0.16990459 -0.026130315
0003b0 89 9c bd bd 1e dc 3c be b1 6d 16 bd 57 a2 e7 3e
       -0.09258372 -0.18443343 -0.036725704 0.45241043
0003c0 b3 5a c0 3c dd 81 7b be 9f ab 78 be c9 78 e2 3d
       0.023480749 -0.24561258 -0.24284218 0.11058194
0003d0 ec de 94 3e d9 3e 82 bd 2a 75 b9 3b 08 c1 db 3d
       0.29076326 -0.063596435 0.005659719 0.10730177
0003e0 13 78 47 3d 30 c2 8d bd 3f 23 4c 3d fe 49 83 be
       0.048698496 -0.06921804 0.0498383 -0.2564239
0003f0 f0 17 32 be 44 5a ed 3e 99 a5 82 be 54 3d 77 3e
       -0.17391944 0.4635793 -0.25516966 0.24144489

encoder_variable_selection.flattened_grn.fc1.bias f4 [8]
000000 43 3a b9 bc 56 92 02 3d b7 0f 5a 3d b8 7e ee 3a
       -0.02261079 0.031877838 0.053237643 0.0018195724
000010 fb f8 49 bd bb b3 a2 bd 06 b7 3e bd a6 37 a1 3d
       -0.049309712 -0.07944437 -0.046561264 0.07871942

encoder_variable_selection.flattened_grn.context.weight f4 [8, 16]
000000 ef 35 d5 be f5 7d a5 be 8e 4b 96 3d 67 e7 12 3e
       -0.4164271 -0.3232266 0.0733863 0.14346085
000010 22 8a 27 3e 36 b5 bb 3e 94 0a a5 3d 70 af c4 3e
       0.16361287 0.3666169 0.08058658 0.38415098
000020 8b 52 00 bf 15 5d 55 be 70 ea ea 3e fc 33 a0 be
       -0.5012595 -0.20836289 0.45881987 -0.3128966
000030 22 bb 12 3e 15 96 04 3f b5 c9 95 be d4 66 b8 3d
       0.14329198 0.51791507 -0.29255453 0.09003988
000040 e7 1b a7 be 3a e1 b4 be 3e b7 b7 be b0 89 d8 3e
       -0.32638475 -0.35328084 -0.3588199 0.42292547
000050 4f 74 35 3e e5 99 65 bd 27 e4 b9 3e ae 03 92 3e
       0.1772015 -0.05605497 0.3630688 0.28518432
000060 d5 19 8b be 10 23 e1 be 3c ec 01 bf d6 70 a2 3e
       -0.27168146 -0.43972063 -0.5075109 0.31726712
000070 11 78 74 bc e9 22 c8 bc 02 de 78 be 36 49 d5 3e
       -0.014921204 -0.024430709 -0.2430344 0.41657418
000080 3d 07 e7 bd 90 7b 08 3f 80 31 8f 3e 81 ab 74 3e
       -0.112806775 0.5331354 0.27967453 0.23893549
000090 4b 81 d6 3e 6e 9c 8b be f0 a2 30 3a 7d 4c 50 3e
       0.41895518 -0.27267784 0.0006738147 0.20341678
0000a0 e1 50 94 bd 48 67 c2 3d f8 aa 52 bd 9c 1f 92 bb
       -0.07241989 0.094923556 -0.05143258 -0.0044593345
0000b0 f7 e3 09 3f 1c 02 67 3d b3 57 be 3c b9 6e 11 3f
       0.5386347 0.056398496 0.023235178 0.56809574
0000c0 a2 d5 10 bd 03 42 4c 3b 5f 3b 91 3e 49 1f 49 be
       -0.035359986 0.0031167276 0.2836561 -0.1964084
0000d0 5a 97 1c be 3c 63 eb be a7 7a 09 3e 75 0a ea 3d
       -0.15292111 -0.45974147 0.13425694 0.11427776
0000e0 83 be bc be 8e 74 06 be e7 91 8c be 02 ec 0f be
       -0.368641 -0.131304 -0.27455065 -0.14054874
0000f0 21 8c 68 bc 1b f4 d2 be 85 a1 a5 3e de 3a d5 be
       -0.014193566 -0.41201863 0.32349792 -0.41646475
000100 3f b1 b7 3d c3 0d 88 3d 30 12 43 3d 56 fb 4f 3e
       0.08969354 0.0664325 0.047624767 0.20310721
000110 f0 07 cf be bb c9 8f 3e ef 2d 79 3e e1 0a b9 3c
       -0.40435743 0.28083596 0.24333929 0.022588195
000120 29 e9 86 3d aa 70 88 be e8 33 cc 3c 7f 0b 03 3f
       0.065874405 -0.26648456 0.024927095 0.51189417
000130 a0 71 a4 ba d3 f4 9b be 73 9c dc 3e bc ae e1 3d
       -0.001254607 -0.30460224 0.4308811 0.11019656
000140 96 60 03 3f 31 77 61 3e 09 91 f7 3d ef d0 82 bc
       0.51319253 0.22018124 0.1208821 -0.015968768
000150 5c 1c 9f 3d 1a 2a ed be 02 e7 00 3f 36 05 27 bd
       0.07769081 -0.46321183 0.5035249 -0.040776454
000160 18 00 04 3f 6e 06 d5 3e 40 56 6f bd 89 9a a0 bb
       0.51562643 0.41606468 -0.058431864 -0.0049012345
000170 59 09 eb be 91 7a f4 be 52 6d 9f 3e 88 b4 8c 3e
       -0.4590557 -0.4774976 0.31138092 0.27481484
000180 8a 18 a5 3d 67 db dc 3e d7 e1 e6 3e 14 fb 51 bb
       0.08061321 0.4313614 0.45094177 -0.0032040523
000190 6c ac 5b be 2c 16 be 3e 55 7f 69 bd ee a5 df bc
       -0.21452492 0.3712629 -0.0570062 -0.027300801
0001a0 5c 7d 55 be d5 0f 44 3e 78 21 64 be f9 28 71 3d
       -0.20848602 0.19146664 -0.22278392 0.058876965
0001b0 2e e8 f0 3e 81 1d ad be bd 08 12 3e 5d 5f 9d bb
       0.4705214 -0.33811572 0.14261146 -0.004802628
0001c0 2f d4 8e be 40 79 49 bd 35 ba 9d be d7 79 ce 3d
       -0.27896258 -0.0491879 -0.30806127 0.10081833
0001d0 df e6 d3 3e a1 bf ca be 55 36 ea be de 6c c1 3d
       0.41387078 -0.39599326 -0.45744577 0.09444593
0001e0 3b 69 65 be da 43 70 3d 02 cc a6 be b3 cc 5f 3e
       -0.22403423 0.05865846 -0.3257752 0.2185543
0001f0 b3 a0 cd bc 26 1a a4 bb 13 1c 8f be fe 87 d9 be
       -0.025101041 -0.005008 -0.27951106 -0.42486566

encoder_variable_selection.flattened_grn.fc2.weight f4 [8, 8]
000000 36 77 34 bf fb c7 70 3f 64 c4 34 3f 1f 75 ae be
       -0.704944 0.94055146 0.7061217 -0.3407373
000010 49 75 5b 3e 13 30 f8 bd a5 18 71 bc 12 1e d7 bc
       0.2143146 -0.121185444 -0.014715348 -0.026259456
000020 40 cb f0 3c c6 4e 26 3f 04 12 95 be 4c b5 ba bd
       0.029393792 0.6496395 -0.29115307 -0.09116611
000030 e2 5e 01 3f 33 d2 e8 bd 39 b8 b0 be 57 5d dc bd
       0.50535405 -0.11368217 -0.3451555 -0.10759991
000040 8d c0 50 bf 53 43 2b bd c5 1b b6 be c0 a1 2c bf
       -0.8154381 -0.041812252 -0.3556806 -0.6743431
000050 1e 08 60 3f ae 65 4a 3f 0c 7c b7 3e d7 e5 d1 be
       0.87512386 0.790614 0.35836828 -0.40995666
000060 d7 1e fc bd bd 10 1b 3e 55 45 17 3f 19 a0 32 3f
       -0.1231057 0.15143104 0.5909017 0.6977554
000070 4e a4 6a bf 1f 02 bd 3d 6b 23 80 3f bd de c1 be
       -0.9165696 0.0922892 1.0010809 -0.37865248
000080 e2 90 9f be b1 53 75 bf d7 a5 9d be 2a c5 1e be
       -0.31165224 -0.9583083 -0.30790588 -0.155049
000090 0e 5b 3b 3e ba df d0 3d b2 dc 70 3f 7b 4d 02 bd
       0.18296453 0.101989225 0.94086754 -0.031812172
0000a0 57 48 c6 be e1 5e 35 be 0b 00 c6 3e 3a 47 80 3f
       -0.38727066 -0.17711975 0.38671908 1.0021737
0000b0 2d 2b 93 be a8 94 c7 3e 1b d5 6c 3f f3 f1 05 bf
       -0.28743878 0.38980603 0.92512673 -0.5232231
0000c0 8e d0 d6 3e 8a d9 6d be 7a 1d d1 3e 26 32 61 3f
       0.4195599 -0.23227516 0.408428 0.87967145
0000d0 96 84 a5 bd 9a 62 09 be 32 0d 5d 3f e7 4a 95 bf
       -0.080819294 -0.1341652 0.8634826 -1.1663483
0000e0 de 77 c6 be c7 dc f6 3e 55 00 ff be 31 ae 22 3f
       -0.38763326 0.48215315 -0.4980494 0.63547045
0000f0 f7 b5 a5 3e 8b f5 3e be 62 dc 10 bf 50 4c 44 bd
       0.3236539 -0.18648355 -0.5658628 -0.04792434

encoder_variable_selection.flattened_grn.fc2.bias f4 [8]
000000 f4 b2 2e 3d 28 3d 9d 3d dc 3f c1 bc 68 25 26 3d
       0.04265113 0.0767768 -0.02359002 0.040563017
000010 01 c6 16 3c 4d a7 db bd d7 71 0b be 9f 7e 5c bd
       0.009202481 -0.107252695 -0.13617645 -0.053831693

encoder_variable_selection.flattened_grn.gate_norm.glu.fc.weight f4 [16, 8]
000000 5a a3 40 3e 00 6e 8f bd 0b bb 1d bf 8f cf b6 be
       0.18812314 -0.07003403 -0.6161353 -0.3570523
000010 03 f2 7a bd 5b e5 ab 3e 05 b0 50 be 33 1d a6 be
       -0.061265957 0.33573422 -0.20379646 -0.32444152
000020 95 f2 94 be 12 6a f6 bd 00 19 01 3c 94 33 21 3e
       -0.29091325 -0.1203195 0.007879496 0.15742332
000030 50 1b fa be ee 83 d5 bd e5 31 81 3e 10 d6 21 3f
       -0.48848963 -0.10425554 0.2523338 0.6321726
000040 77 43 aa be 28 a9 fd 3e 3f 9d 7f be ca 43 e3 bd
       -0.33254597 0.49543118 -0.24962328 -0.11096914
000050 87 c2 01 bf bc 7f 83 3e 19 9a d5 3e 80 4f 63 3e
       -0.5068745 0.2568339 0.4171913 0.22198296
000060 b2 cb 1b bf d9 a2 6a be 38 34 98 bd 32 a9 60 be
       -0.6085769 -0.22913684 -0.07431835 -0.21939543
000070 16 13 e4 3e a4 0d e4 3e 82 42 5a 3e 1b 5f 8d 3e
       0.4454581 0.44541657 0.21314433 0.27611622
000080 65 6b 23 3e 51 68 79 be a8 c7 01 bf 0a 3f 2d be
       0.15958937 -0.243562 -0.50695276 -0.16918579
000090 c8 7b 8e be 40 b9 f8 3e 4b a6 41 bd fa 5d 3b 3e
       -0.27828813 0.48578835 -0.04727773 0.18297568
0000a0 05 01 fc 3e ea 69 df 3e 72 2d ba be 67 0a 9a 3e
       0.49219528 0.43635494 -0.36362797 0.3008606
0000b0 a0 04 bd 3e ce 02 a4 3e ef b6 03 be 93 53 66 be
       0.3691759 0.3203339 -0.12862752 -0.22492819
0000c0 89 8c ab be 17 af 04 be 68 50 0b be 35 10 a7 3e
       -0.33505657 -0.12957416 -0.13604891 0.32629552
0000d0 7b 5f 49 3e 4b fa e3 be e5 a0 5d 3d 00 20 a6 be
       0.19665329 -0.44526896 0.05410852 -0.3244629
0000e0 c7 3c f1 3d cf 41 a8 bc 3c e4 0e be 6f 4b cb 3d
       0.117791705 -0.020539192 -0.13954252 0.09926497
0000f0 5e 76 c8 3e a9 f3 d6 3e f0 ee 78 be 79 f5 4f bc
       0.39152807 0.41982773 -0.24309897 -0.012692803
000100 2a 5c d3 3c 59 b1 3b 3d d5 2e 79 be fd 94 a8 3e
       0.025800783 0.04582343 -0.24334271 0.3292617
000110 3f c5 09 3f 28 bf 24 3f e2 c0 8e 3e 89 32 a0 3d
       0.538166 0.6435418 0.27881533 0.07822139
000120 ba dd 86 3e 9e 16 08 3d e8 88 ae be d8 81 d2 3e
       0.2634104 0.033224694 -0.34088826 0.41114688
000130 af 31 4c be 1d 3d ee 3e e1 3c 2c be a1 b6 0f bf
       -0.19940828 0.46531 -0.16820098 -0.56138045
000140 01 fe e2 3d 01 9d 0e be e5 4e 4a 3e b3 30 b5 3c
       0.11083604 -0.1392708 0.19756658 0.022117948
000150 4f f8 17 be e2 e4 ee be a4 c4 5b bd 4c 3b 05 bf
       -0.14840816 -0.46659 -0.053654328 -0.52043605
000160 91 52 a8 3e 1b 55 c8 3e 70 1b a9 be 08 3c 6f be
       0.32875493 0.3912743 -0.33028746 -0.23362744
000170 8d 74 27 bf 4c 77 52 3e 1d 05 d2 be 6c 2f 92 be
       -0.6541222 0.2055332 -0.41019526 -0.28551805
000180 3a ed 11 3d 89 c1 c0 bd 44 10 a5 bd 97 3b 68 be
       0.035626628 -0.09411914 -0.08059743 -0.22678982
000190 b3 bc b1 be 15 61 20 be 1e 43 25 bf 22 2b bd be
       -0.3471428 -0.15662034 -0.6455554 -0.3694697
0001a0 f3 98 54 bd ea d8 ce be 86 37 04 3d 30 cf 4f 3e
       -0.051903676 -0.40399867 0.032279514 0.2029388
0001b0 e6 b4 e4 3e dd 55 28 3e e3 85 2f bd 4c 24 b6 3d
       0.44669265 0.16439004 -0.042852294 0.08893642
0001c0 8f 2a 62 be 81 4f a5 3e d2 67 d2 3e 9c 56 ff 3e
       -0.22086547 0.3228722 0.41094834 0.49870765
0001d0 30 7e dd 3e d5 fd 26 3e 1c a3 f2 3e 86 50 c3 be
       0.43260336 0.16307767 0.47390068 -0.38147372
0001e0 c9 6b ed bc 21 71 39 3e 0c 07 04 3f c8 bc 3a bc
       -0.02898206 0.18109562 0.5157325 -0.011397548
0001f0 07 2c 3b 3e 5e 50 97 3e 47 7b 00 be ae 96 ed bc
       0.18278514 0.29553503 -0.12547027 -0.029002514

encoder_variable_selection.flattened_grn.gate_norm.glu.fc.bias f4 [16]
000000 d4 9e 08 be 54 5e 7b 3c f7 a8 1a 3e ba 8a 70 bd
       -0.13341838 0.015342314 0.15103517 -0.05872605
000010 cd e0 f9 bd e0 7f 0c 3e c7 e9 7d bd 86 9a 11 3e
       -0.122010805 0.13720655 -0.061990526 0.14219102
000020 ba 83 78 3c 73 61 1d bd ab cd 98 bc ed 2f a5 3d
       0.015168125 -0.038423013 -0.018652758 0.08065782
000030 cb 0e 18 bd 6a 6d 96 3c e6 33 86 bd 3d fa 8c bd
       -0.037123483 0.01836272 -0.065528676 -0.06883667

encoder_variable_selection.flattened_grn.gate_norm.add_norm.norm.weight f4 [8]
000000 5d d5 81 3f 35 25 8c 3f d2 a8 91 3f 51 ee 7b 3f
       1.0143238 1.0948855 1.1379645 0.98410517
000010 dd fa 5b 3f 3e 56 87 3f db 9f 88 3f bb 09 90 3f
       0.8592966 1.0573194 1.0673784 1.125297

encoder_variable_selection.flattened_grn.gate_norm.add_norm.norm.bias f4 [8]
000000 0b 2a 84 bd 74 2d e6 bd 2b ad 5e 3d b5 c1 29 bd
       -0.064533316 -0.11239138 0.054364365 -0.0414445
000010 ce f5 13 be 30 20 49 3d bf 57 2e 3d 59 81 05 3d
       -0.14449236 0.049102962 0.04256415 0.03259406

encoder_variable_selection.single_variable_grns.time_idx.resample_norm.mask f4 [16]
000000 56 9e 0a 3e c2 5f 3a 3d 30 b5 e6 3d a8 33 f0 bd
       0.13536963 0.045501478 0.112650275 -0.11728603
000010 c5 2a c2 bd f7 77 ec 3d 4e 2d 28 3d 2a e4 17 3e
       -0.09480814 0.11546319 0.04105883 0.14833131
000020 55 0b 06 3e a8 80 13 be 97 eb 10 be bf 9c 19 3e
       0.1309026 -0.14404547 -0.1415237 0.150012
000030 3c 0b 8d 3d 7a e6 d9 bc 06 f0 f0 bd 48 90 15 3e
       0.068869084 -0.026599158 -0.11764531 0.1460582

encoder_variable_selection.single_variable_grns.time_idx.resample_norm.norm.weight f4 [16]
000000 68 31 91 3f c7 39 85 3f 4e ef 90 3f 33 53 70 3f
       1.1343203 1.0408257 1.132303 0.9387695
000010 c2 3d 6a 3f 2b 06 91 3f 62 48 8e 3f 57 8f 93 3f
       0.91500485 1.1330007 1.111584 1.1528119
000020 7f 28 84 3f 0b b2 84 3f 9e 71 55 3f 48 d3 82 3f
       1.0324858 1.0366834 0.8337649 1.0220728
000030 b5 55 85 3f aa 20 7e 3f 1b 31 80 3f 10 5c 7f 3f
       1.0416781 0.9926859 1.0014986 0.9974985

encoder_variable_selection.single_variable_grns.time_idx.resample_norm.norm.bias f4 [16]
000000 b9 d2 8a 3c 9f 32 49 bd f4 7c 79 bd 82 09 17 3d
       0.016946184 -0.04912054 -0.06091018 0.0368743
000010 f7 7d 9b 3d e8 35 06 3d 8f 9d ac 3d dd 58 e1 3d
       0.07592385 0.032766253 0.084284894 0.110032775
000020 7b ca bd bd d5 56 bc 3c 73 f4 b7 3d d6 5d 22 be
       -0.09267136 0.022990623 0.08982172 -0.15856108
000030 2b fd e5 bd fa b4 40 bc 06 67 04 3d d8 ea 0e bd
       -0.112299286 -0.011761898 0.032324813 -0.034891933

encoder_variable_selection.single_variable_grns.time_idx.fc1.weight f4 [8, 8]
000000 58 f3 28 3e 69 c1 0c 3f 69 cb 99 bd b5 27 07 bf
       0.16499078 0.5498262 -0.075095005 -0.52794963
000010 a7 e7 45 3d 64 99 bd bd 70 b4 ba be 83 5d 83 bf
       0.048316624 -0.092577726 -0.36465788 -1.0262913
000020 f7 cd 7b 3e 69 ff 1b bf d1 a2 b0 3e ef 51 34 be
       0.24590288 -0.609366 0.3449922 -0.1760938
000030 bc 18 29 bf fd 49 87 be c4 89 3e bf 4c 42 13 bd
       -0.66053367 -0.26423636 -0.74428964 -0.035951898
000040 b3 95 04 bf fa f7 88 be f2 0b 4e 3f 86 94 5a 3e
       -0.5179092 -0.2675169 0.8048698 0.2134572
000050 36 ea 3a be ed 54 0e 3f f1 ad ae 3e b1 f1 73 bf
       -0.18253407 0.55598336 0.34117082 -0.95290667
000060 56 c0 27 bf e0 38 e8 3c 7c 80 19 3f 51 a1 41 bf
       -0.65527856 0.028347433 0.59961677 -0.75636774
000070 20 6a 2c bf 96 7f 06 bf ad f7 cd bd 84 dd 38 be
       -0.67349434 -0.5253843 -0.10057006 -0.18053252
000080 27 9d 60 3e a5 60 41 3f 52 31 65 be a3 82 79 be
       0.21934949 0.7553809 -0.22382095 -0.2436624
000090 f1 7d e5 3e 5b e3 21 bf 58 50 72 be 04 71 e4 3e
       0.44822648 -0.6323754 -0.23663461 0.44617474
0000a0 fd 23 4b 3e 30 4c e7 bc 8a 0a 47 be 48 fd c6 3e
       0.19837947 -0.028234571 -0.19437614 0.38865113
0000b0 9c a1 89 be 65 52 0e 3e 77 aa 2a bf a4 3b b1 bd
       -0.2688111 0.13898619 -0.6666636 -0.08653954
0000c0 9e e4 6a 3f 4c f7 ab 3e f1 5f 27 3f e8 ed 2a bf
       0.9175509 0.3358711 0.6538077 -0.66769266
0000d0 8c 11 04 3f b5 80 3b 3e bd 8a f2 be 08 ef 2e bf
       0.51589274 0.18310817 -0.47371474 -0.6833348
0000e0 30 17 38 bf 14 25 03 3f 4d 9a 39 bf eb 3e 27 be
       -0.7191038 0.5122845 -0.7250107 -0.16332595
0000f0 73 da 81 bf 90 23 94 be 19 85 3a be 66 06 ad 3e
       -1.014479 -0.28933382 -0.18214835 0.33793944

encoder_variable_selection.single_variable_grns.time_idx.fc1.bias f4 [8]
000000 72 9d 3d 3e 76 a5 15 be 78 82 d4 bd af 67 66 bc
       0.18517092 -0.146139 -0.103764474 -0.014062806
000010 09 c4 fb 3d 7d fd f5 3d cb af 9c bd af 67 10 3c
       0.1229325 0.1201124 -0.07650717 0.008813783

encoder_variable_selection.single_variable_grns.time_idx.fc2.weight f4 [8, 8]
000000 28 6b d1 be 8f 47 1d bf 98 15 81 3e 8b 7b 52 bc
       -0.40902066 -0.61437315 0.25211787 -0.012846838
000010 77 0b d1 3e 2c 71 94 3f 0d 8c 09 3f f0 ae 6a be
       0.4082906 1.1597037 0.53729326 -0.22918296
000020 18 9e c6 3e 2b 6c f8 be 17 68 43 3e 17 1b 04 3e
       0.3879249 -0.48520026 0.19082676 0.12900959
000030 10 66 8b 3e 50 e3 dd 3e fa 88 27 bf 10 42 11 3f
       0.27226305 0.43337488 -0.65443385 0.5674143
000040 68 95 24 bb 1e 1a 20 be f3 08 a0 bd 30 6b c3 3e
       -0.0025113467 -0.15634963 -0.07814207 0.38167715
000050 b0 3d 4d 3e 24 49 84 3f 84 0b 87 bf ea 38 20 3f
       0.20043063 1.0334821 -1.0550389 0.62586844
000060 d4 a0 f3 bc b4 37 70 3f 64 a2 29 3f 6a 60 aa bd
       -0.029739775 0.93834996 0.66263413 -0.08319171
000070 c8 cc aa 3e a7 75 e8 be dd 0f eb bd 8e da 64 3f
       0.3335936 -0.45402262 -0.11477635 0.8939599
000080 9f 4b 6d 3f 0e 82 62 be 4c a3 92 3d 45 03 e2 be
       0.92693514 -0.22119924 0.07160053 -0.4414312
000090 03 68 8c be a0 24 bb bf f8 e6 af 3e 1a f5 9a bb
       -0.27423105 -1.4620552 0.34355903 -0.0047289254
0000a0 a5 b0 e0 be 66 ba 32 3f 32 4e 13 3f 60 e8 66 3a
       -0.4388477 0.6981567 0.5754119 0.000880843
0000b0 15 4f 19 be 7a 27 27 be b2 84 c1 bd 95 01 27 be
       -0.14971574 -0.16323653 -0.09449138 -0.16309197
0000c0 75 49 dc bd d2 94 9d bd dd a7 fa 3e 3f a8 8b 3f
       -0.10756198 -0.07694401 0.48956195 1.091072
0000d0 8c a3 21 be 85 8a a6 be e9 dc 2c 3f 91 e7 c5 3e
       -0.15785044 -0.32527557 0.6752458 0.38653234
0000e0 50 1e 5f 3f 8e 34 c9 bd 0d 72 4e bf 04 48 0c 3c
       0.8715563 -0.09824477 -0.8064278 0.008562092
0000f0 db 10 11 3f 34 b4 08 bf 6e 3c 79 3e 7b ae 53 bf
       0.56666344 -0.5339997 0.24339458 -0.8268811

encoder_variable_selection.single_variable_grns.time_idx.fc2.bias f4 [8]
000000 0e 4a f5 3c 00 ce 04 3e 80 93 13 3e 57 18 18 be
       0.029942539 0.12969208 0.14411736 -0.14853035
000010 67 42 98 3d ea 43 9e bd 52 92 62 bd a8 ab 2f bc
       0.0743454 -0.07727797 -0.055315323 -0.010722078

encoder_variable_selection.single_variable_grns.time_idx.gate_norm.glu.fc.weight f4 [32, 8]
000000 fa 85 91 3c c3 e8 01 3e ba 27 3b be 47 ea 4c 3e
       0.01776408 0.12686448 -0.18276873 0.20011245
000010 b1 d6 08 be fd ed a9 3e 00 77 91 3e 88 b3 2b bb
       -0.13363148 0.33189383 0.28411102 -0.0026199538
000020 46 3a 76 be 4d 0c 81 bd 9c 62 85 3e a1 c6 81 be
       -0.24045667 -0.06301174 0.26051795 -0.25346854
000030 27 72 7f 3d 86 c5 89 be ba 14 98 bc 86 c4 b7 3e
       0.062364724 -0.2690851 -0.01856457 0.35892123
000040 1d 37 7a 3d 8c b2 2d be d0 e0 87 be cb 4c 9f 3e
       0.061087716 -0.16962641 -0.26538706 0.31113276
000050 3c 41 4e 3e 6b 7a 4a 3e 21 a3 8b 3e 9d f1 89 be
       0.20142072 0.19773261 0.27272895 -0.2694215
000060 ae 93 ad bd a4 dd 49 be 1a 30 e1 be fa de d1 3d
       -0.08475433 -0.19713455 -0.4398201 0.102476075
000070 c2 d8 ae 3e e4 78 0c be a8 a3 50 be 34 46 26 3e
       0.34149748 -0.13717991 -0.2037493 0.16237718
000080 ab 47 6b be 48 1c 5f be 31 4d 82 3e e3 fe 43 be
       -0.22976558 -0.21788132 0.25449517 -0.191402
000090 20 8a a1 be 7f be 54 be 41 af d9 3d f2 d1 41 bd
       -0.31550694 -0.20775793 0.1062913 -0.04731936
0000a0 8e 9c 7b be 72 53 a5 3e 9d 47 91 3e 49 2e 57 3e
       -0.2457144 0.32290226 0.2837495 0.2101375
0000b0 72 f6 4c be f9 5f 00 3e 43 9b ae bd 66 99 64 3e
       -0.20015886 0.1253661 -0.085257076 0.22324142
0000c0 c6 23 aa 3e 9b e2 46 3e 8a 78 bd bd 2e 8f 39 be
       0.33230418 0.1942238 -0.092515066 -0.18121025
0000d0 e6 43 99 bd 0b 14 b4 3e 0a d4 8b 3d 50 a1 b2 be
       -0.07483654 0.35171542 0.068275526 -0.34888697
0000e0 bb 12 c6 be 00 c8 bf bc 84 03 d4 3e ef 62 3d 3e
       -0.38686165 -0.023410797 0.41408932 0.18494771
0000f0 7a 6a 7a 3d 84 c1 80 bd c8 cf df bc 8c 34 96 be
       0.0611367 -0.0628691 -0.027320758 -0.29336965
000100 72 b7 b3 3d 00 fe eb bd 29 30 80 3e 72 f3 9a be
       0.08775224 -0.11523056 0.25036743 -0.3026386
000110 dd fa 8f 3e 96 46 4b 3e 9c 4a 5a 3e 97 9c d5 3e
       0.2812108 0.19851145 0.21317524 0.4172103
000120 cf 7e c7 3e 3f f1 20 be 54 cd 40 be d4 c4 b8 3e
       0.38963935 -0.15717028 -0.18828326 0.36087668
000130 4c 39 14 be b4 0b 4c be 7e 8b 33 be 27 7c 25 be
       -0.14474982 -0.1992634 -0.17533681 -0.16160642
000140 00 f8 86 be b6 a8 c2 bc 9b d9 e0 3e 2c fb 67 bd
       -0.26361084 -0.023762088 0.4391602 -0.05663602
000150 3c 1b c5 3e ca 22 be bd d4 5b 93 3d 13 3e 70 3e
       0.3849734 -0.09283979 0.07195249 0.2346118
000160 94 0b 49 be e6 d9 d2 be b3 82 c3 be ba 51 52 be
       -0.19633323 -0.41181868 -0.38185653 -0.20538989
000170 3b 74 8d bc a8 4d eb 3c b2 ff 2d be 09 df 7a bd
       -0.017267337 0.028723553 -0.16992071 -0.06124786
000180 e1 f2 0e 3f 8a d8 77 3e 1a 08 24 3e b1 1d 58 3e
       0.55839354 0.24203697 0.16018716 0.21105076
000190 39 0d 6d bd df e2 d5 be 06 26 74 3e d1 43 2c 3e
       -0.05787394 -0.4177465 0.2384263 0.16822745
0001a0 03 b9 47 3e c5 9a 03 3e 1e 91 51 be 71 13 6c be
       0.1950417 0.12852009 -0.20465514 -0.23054291
0001b0 cc e8 9a 3e 5e ad bb be 36 44 24 3d 7e 2f 66 be
       0.30255735 -0.36655706 0.040104114 -0.22479054
0001c0 f8 68 4e be 12 cf 22 3e f9 a1 8c 3d b2 2b a1 be
       -0.2015723 0.15899304 0.06866831 -0.3147865
0001d0 72 e2 c1 3d 04 b4 02 3e 14 4c 1c bd 2d fc 7d 3d
       0.09467019 0.12763983 -0.03815849 0.06200807
0001e0 cc 74 4a 3d ea cb 90 bd 7b 25 7b be a7 67 8a 3e
       0.049427792 -0.070701435 -0.24526016 0.27032205
0001f0 e3 ff 22 be 58 af ea be 0c a8 f4 3e 0d dc d7 3d
       -0.15917926 -0.45836902 0.4778446 0.10540018
000200 f0 8b b0 3d 6a f2 7a 3d 09 f5 6b 3e 45 55 42 3e
       0.08620441 0.06126634 0.23042692 0.1897784
000210 b9 09 1b be 6a 4a 49 be 9c 37 b3 be 7c e0 12 bb
       -0.15140428 -0.19657293 -0.35003364 -0.0022411635
000220 12 d7 5c bd d5 ae c3 3c f8 44 56 3e cf 5a 2f 3e
       -0.053916045 0.023887077 0.20924747 0.17124484
000230 ef db d0 3d 32 61 84 3e f2 27 ca 3c ac c7 a9 be
       0.10198199 0.25855404 0.02467725 -0.3316015
000240 fe 40 82 be fd d7 b9 bc ef c1 42 be ee 29 cf bd
       -0.2544021 -0.022685999 -0.19019292 -0.10115419
000250 5e ef a7 be 93 47 88 be f1 fc c4 3e ae 15 c3 be
       -0.3279981 -0.26617107 0.3847423 -0.38102478
000260 20 dc 30 3e bf 38 ca bd 53 79 05 be c3 bd f6 3e
       0.17271471 -0.09874105 -0.13034563 0.48191652
000270 6e d8 18 be c4 fc e5 bd f4 0c 8a be cd 15 45 3e
       -0.14926311 -0.11229852 -0.26963007 0.19246598
000280 3c 65 c6 be 38 5a ac bd 96 8b 34 be 20 ad 65 bd
       -0.3874911 -0.08415645 -0.17631373 -0.056073308
000290 91 70 32 bc de 1b 04 3e a3 55 ef 3e a0 6d ea bd
       -0.010891096 0.12901255 0.46745023 -0.114466906
0002a0 2c 89 a4 3e fe 41 6f 3e 4b 48 7e 3e c4 dc 91 be
       0.32135904 0.23365018 0.24832265 -0.28488743
0002b0 48 5c bd 3e c9 32 6d be 4f 33 62 3d 2a 88 9b be
       0.36984468 -0.23163904 0.055224713 -0.30377322
0002c0 06 bf 35 be f0 54 bd be f2 75 4f 3c 01 df 5b be
       -0.17748651 -0.36978865 0.012662398 -0.21471788
0002d0 8c c5 db 3e b9 5c 6a 3e b1 67 71 be 24 c9 1d be
       0.42924154 0.22886933 -0.23574711 -0.1540876
0002e0 41 d4 e3 bd 3c d3 d2 3e 89 2b a9 3e f8 0f 8f 3e
       -0.111244686 0.41176784 0.33041027 0.2794187
0002f0 0e 0c c4 3e b2 3a 99 3e 56 6e 02 3e cc 02 a6 3e
       0.38290447 0.29927593 0.12737402 0.3242401
000300 5a 0b 6b be 08 17 92 3e 56 1e 65 be c6 ce b0 3e
       -0.22953549 0.28533196 -0.22374853 0.34532756
000310 0f 43 bd 3d 81 a3 b4 3e 0d db 34 3e 21 c1 81 3e
       0.09241306 0.35280994 0.17661686 0.25342658
000320 e0 99 ab be 4a 94 ed 3d c8 4c cd 3d b6 a1 14 be
       -0.33515835 0.116005495 0.100244105 -0.14514813
000330 1e 23 cb be 93 88 a1 bd 19 20 36 be b6 06 be 3e
       -0.3967523 -0.078873776 -0.17785682 0.37114495
000340 78 5d 9d 3d 92 98 d7 bd 1f 54 b9 be da 33 07 bf
       0.076838434 -0.10527147 -0.36196992 -0.52813494
000350 a3 85 9c 3e 6c 70 89 3c e9 c6 35 3e b7 2c 51 3e
       0.30570707 0.01677724 0.1775166 0.20427214
000360 e1 e3 2c 3e 5b a3 3a 3e ed df 8f 3e dd fc ff 3d
       0.16883804 0.18226378 0.2810053 0.12499402
000370 07 f8 94 3e 31 9e 5e be 66 c4 d6 3e 82 10 29 be
       0.2909548 -0.21740033 0.41946715 -0.16510203
000380 69 7a 0d be c8 af 00 bc 31 82 af 3e fb 3a dd bc
       -0.13816227 -0.0078544095 0.34279016 -0.027005663
000390 70 6f 77 3e a5 6b d4 3e 6f 40 01 bf b2 5c 88 3e
       0.24163604 0.41488376 -0.5048894 0.2663322
0003a0 1f bb 54 bd 3b 73 74 3e 94 26 cc be 45 ad ee 3e
       -0.051936265 0.23872082 -0.39873183 0.4661657
0003b0 2c 45 cf bd f1 54 ac be d5 f2 36 3d 07 49 8a be
       -0.10120615 -0.33658555 0.044665176 -0.2700884
0003c0 bf a6 79 3e 37 4d 6b 3e b4 4d 92 be 0d 6d c6 be
       0.24380015 0.22978674 -0.28574908 -0.38755074
0003d0 27 a2 ce bd 05 87 85 be 02 7f d8 bd 73 18 50 3e
       -0.10089522 -0.26079574 -0.105711 0.20321827
0003e0 96 69 e0 3e f4 64 f8 be 00 91 38 3e 48 c7 b3 be
       0.43830556 -0.4851452 0.18024063 -0.35112977
0003f0 a1 99 94 be f5 d4 dd 3e ee 32 f1 be 59 56 92 bd
       -0.2902346 0.43326536 -0.4710917 -0.07145376

encoder_variable_selection.single_variable_grns.time_idx.gate_norm.glu.fc.bias f4 [32]
000000 5f ee a5 3c d6 10 ef bc 21 f6 1b bd e2 4f 59 3d
       0.020255266 -0.029182833 -0.038076524 0.053054698
000010 43 20 c1 3d 6e 07 25 3e 2c 7f a3 3d 70 1b 93 3d
       0.094299816 0.16116115 0.079832405 0.07182968
000020 b5 6c bf bd 64 4e 39 3c aa d9 04 3e 95 ee 13 be
       -0.09346906 0.011310194 0.12973657 -0.1444648
000030 ca e9 ca bd 78 e7 85 bc 78 93 39 3d 95 db d9 bd
       -0.09907873 -0.016345724 0.045306653 -0.10637585
000040 8c bb 7c bc 45 ea 5f bd b5 19 c8 bd 4d 9f 03 3e
       -0.015425574 -0.054666776 -0.09770528 0.12853737
000050 2a 59 ff bd 14 7a 96 bd f5 b2 15 be cd 7e c1 3b
       -0.124681786 -0.07347503 -0.14619048 0.0059050084
000060 8b e2 75 3d 18 0c 1f 3a 64 0f 0b be 99 d2 80 3c
       0.0600305 0.0006067171 -0.1358009 0.01572542
000070 3f ed 32 3c 14 ac b7 bb a7 1f 05 be b8 7c c3 bd
       0.010920822 -0.00560523 -0.13000356 -0.095452726

encoder_variable_selection.single_variable_grns.time_idx.gate_norm.add_norm.norm.weight f4 [16]
000000 c2 b5 70 3f 40 c7 6a 3f 31 d9 94 3f 86 99 73 3f
       0.9402734 0.9171028 1.1628782 0.95156133
000010 a5 93 66 3f b3 6a 74 3f bb ba 88 3f 69 a6 85 3f
       0.9006904 0.9547531 1.0681986 1.0441409
000020 84 26 82 3f ef 05 7a 3f 87 b1 59 3f ff 67 81 3f
       1.0168004 0.97665304 0.8503651 1.0109862
000030 0f 65 88 3f 07 d5 75 3f 5b 45 63 3f 2e 78 7f 3f
       1.0655841 0.9602818 0.88777703 0.99792755

encoder_variable_selection.single_variable_grns.time_idx.gate_norm.add_norm.norm.bias f4 [16]
000000 0e a6 ea 3b 6b ab 51 bd 8a 5e bc bd 34 34 eb 3b
       0.0071609085 -0.051188868 -0.091977194 0.007177854
000010 01 3e 7e 3d a9 56 1d 3d 9a 8f 95 3d 5a b6 94 3d
       0.06207085 0.038412724 0.073027804 0.07261343
000020 08 18 73 bd 32 75 27 3e 1f 7c 0e 3e 02 6a 0e be
       -0.05934909 0.163533 0.13914536 -0.13907626
000030 01 21 20 be 80 53 f7 bc 4e 70 f9 3b 42 38 22 bd
       -0.1563759 -0.030191183 0.0076122647 -0.039604433

encoder_variable_selection.single_variable_grns.T2M.resample_norm.mask f4 [16]
000000 e3 33 e3 3c 9a 74 7d 3d 83 16 07 3e a4 25 e3 bc
       0.027734702 0.061878778 0.13192181 -0.02772791
000010 7a 0d 9b bd be 8f ae 3d 4a c0 c8 bd 19 4f f9 bd
       -0.0757093 0.085235104 -0.09802301 -0.1217329
000020 42 36 06 3e fd 45 23 3d 39 f5 58 bc 6e bd 18 bc
       0.13106635 0.039861668 -0.013242059 -0.009322507
000030 6f d3 0b 3e de 31 e3 3c da 20 3a 3c 06 70 b3 3d
       0.13654874 0.02773374 0.0113603715 0.08761601

encoder_variable_selection.single_variable_grns.T2M.resample_norm.norm.weight f4 [16]
000000 3b 74 57 3f 96 e9 82 3f 7a e1 90 3f 5b 3e 72 3f
       0.8416173 1.0227535 1.131881 0.94626397
000010 2c 6d 6c 3f 8f 2c 8b 3f 3b 77 69 3f 5f ed 58 3f
       0.92354083 1.0872973 0.91197556 0.847372
000020 00 19 7e 3f 0e 8f 90 3f 26 51 82 3f 6c 01 67 3f
       0.99256897 1.1293657 1.0181015 0.90236545
000030 1b f8 82 3f 24 82 90 3f 99 25 84 3f 9e 87 8a 3f
       1.0231966 1.1289716 1.0323974 1.0822637

encoder_variable_selection.single_variable_grns.T2M.resample_norm.norm.bias f4 [16]
000000 99 99 f4 bd 07 f2 70 bd a3 c3 08 be 88 7f b3 3a
       -0.11943359 -0.058824565 -0.1335588 0.0013694623
000010 78 00 04 3d 46 64 b9 bd c6 15 88 3d e4 60 a1 3d
       0.03222701 -0.09052329 0.06644778 0.078798085
000020 e2 bd a5 bd c2 aa 16 3e a8 0f cb 3c 26 79 03 be
       -0.08092858 0.14713576 0.024787739 -0.12839183
000030 42 1e e9 3b 61 e4 26 3e 0a f0 6d 3d 56 81 30 bd
       0.0071142027 0.16298057 0.058090247 -0.043092094

encoder_variable_selection.single_variable_grns.T2M.fc1.weight f4 [8, 8]
000000 37 11 2d 3f 92 85 24 3f 49 99 e1 be 37 5c 74 bd
       0.6760439 0.6426631 -0.4406226 -0.059658255
000010 a2 f3 aa be aa e7 b8 3e a5 bc 33 bf 70 52 1d 3f
       -0.33389002 0.36114246 -0.70209724 0.61453915
000020 9c 3a ad be 65 f4 2f 3e a7 bd 14 3f 63 b5 42 bf
       -0.33833778 0.17183073 0.58101887 -0.76058024
000030 2a 75 91 3e 2a 58 d8 bd 0e df e7 be e2 ce 19 3f
       0.28409702 -0.10563691 -0.45287365 0.60081303
000040 e6 2a 1d 3e de 01 cc 3d 28 74 a1 be 21 a2 72 be
       0.15348396 0.09961294 -0.31533933 -0.2369466
000050 05 f6 a1 bd 48 d1 36 3e 4b 83 4f bf ed 55 66 3c
       -0.079082526 0.17853272 -0.8105971 0.014058572
000060 db 61 27 bf af c0 c2 3e f3 79 4e 3f c1 ed 7e bf
       -0.6538369 0.3803763 0.8065483 -0.99581534
000070 a1 86 05 bf e4 bd b3 3b fa 1a 9d be 0a 1e a7 3d
       -0.5215855 0.005485283 -0.30684644 0.08160026
000080 ad 82 68 bd ab 47 b0 3e ca 6b f3 be cf ea d8 be
       -0.056765247 0.34429678 -0.47543174 -0.42366645
000090 c0 81 ee 3e af e7 e3 bc dd 55 16 bf 6a 04 fe be
       0.46583366 -0.027820436 -0.58724767 -0.49612743
0000a0 96 7f d1 be e4 2d c1 be dc 79 96 be 37 ac 60 be
       -0.40917653 -0.37730324 -0.29389846 -0.21940695
0000b0 c2 69 53 3f 4d ec d5 3d 33 dc 1d 3f 1d 8a f3 be
       0.8258325 0.104454614 0.6166412 -0.4756631
0000c0 f1 c8 a4 3c 5d 6c 08 3f 5f 8e 2f 3f 33 62 1f 3e
       0.020115348 0.5329035 0.68576616 0.15564804
0000d0 d4 72 1d 3f ef df 64 3e 01 34 86 3d 77 55 f6 be
       0.6150334 0.22351049 0.06552888 -0.4811208
0000e0 b1 40 a6 bc 33 68 8f 3e 32 82 07 3d 67 3d d2 3e
       -0.02029452 0.28009185 0.03308315 0.4106247
0000f0 ab 22 ab be 90 b2 cb bc 02 bd ef bd f7 5d 52 3e
       -0.33424887 -0.024865419 -0.11705972 0.20543657

encoder_variable_selection.single_variable_grns.T2M.fc1.bias f4 [8]
000000 67 98 a5 bd 4d 7a d6 bd b5 03 49 3d c8 04 03 3e
       -0.08085709 -0.10472546 0.0490758 0.12794793
000010 37 2d 21 be 22 ef 1e bc 1a c0 04 be 7a 7c 6b bd
       -0.15739904 -0.009700568 -0.12963906 -0.057491757

encoder_variable_selection.single_variable_grns.T2M.fc2.weight f4 [8, 8]
000000 0c 22 0c bf 6e 5a 00 be f9 32 68 bf 95 71 a9 bf
       -0.5473945 -0.12534496 -0.9070278 -1.3237787
000010 d7 d3 07 bc 4b 13 a8 bd 3c ec a5 be a7 19 64 bf
       -0.008290253 -0.08206805 -0.32406795 -0.8910164
000020 e8 5f 08 bf 36 30 86 be 55 42 1b bf a6 69 78 3f
       -0.5327134 -0.26208657 -0.6064809 0.97036207
000030 86 e2 ae be f5 25 60 3e a3 47 67 be 0f 7b 2a 3e
       -0.341572 0.2188948 -0.22585921 0.16648506
000040 fa ef 9f be 55 29 01 be de 55 23 3f 85 c7 d1 3d
       -0.31237775 -0.12613423 0.638029 0.102431335
000050 dc 97 f6 3e 91 60 ce be d5 5b cd 3c 8f 00 fd be
       0.48162735 -0.4030805 0.025068203 -0.4941449
000060 03 7f f9 3e dc e3 ec 3d d3 a3 1d be 42 3c 8c be
       0.48729715 0.11566898 -0.15394525 -0.27389723
000070 e0 6a dd 3e eb 68 28 3e 7a a7 d0 3e b5 80 e4 3e
       0.43245602 0.16446273 0.40752774 0.44629446
000080 91 06 8f bd f1 08 90 be 78 b6 e2 3e 68 39 f4 3e
       -0.06983674 -0.28131822 0.44279838 0.47700047
000090 8f 08 16 3d 46 84 d1 3e 25 4d b3 be c7 ed ed 3c
       0.036629256 0.4092123 -0.35019794 0.029044045
0000a0 aa 4d 0f bf e3 8f d9 be 96 b3 bf be 52 cc 83 3e
       -0.5597788 -0.4249259 -0.374417 0.25741822
0000b0 17 dd 9c 3e e3 4a b2 bd bd 24 13 bd 45 4b 91 bd
       0.30637428 -0.0870569 -0.03592371 -0.07094435
0000c0 d7 35 12 bf 80 4a 18 3e 10 28 4b be 67 90 3e 3d
       -0.57113403 0.1487217 -0.19839501 0.04652443
0000d0 3c d2 ec bc dd 8c 1b 3f a2 3e 89 bd e4 7a 85 bf
       -0.028908841 0.60761815 -0.067013994 -1.0428128
0000e0 a2 a8 51 3e b1 af 9e 3d dc 6f 3c 3f 72 e6 b8 bd
       0.20474485 0.07748354 0.73608184 -0.09028329
0000f0 46 64 5f 3e c9 6f 88 3d a2 2b 0a 3f a7 d0 9c be
       0.21815595 0.06661946 0.5397283 -0.3062794

encoder_variable_selection.single_variable_grns.T2M.fc2.bias f4 [8]
000000 86 c6 9d bc d9 b2 0e 3e 88 ed e7 3c ff fd cd bd
       -0.019259702 0.13935412 0.028311506 -0.100582115
000010 d2 d6 a0 3d 54 7d 73 3d 77 b1 ca 3d 4d 08 bb bd
       0.07853474 0.059445694 0.0989713 -0.091324426

encoder_variable_selection.single_variable_grns.T2M.gate_norm.glu.fc.weight f4 [32, 8]
000000 d8 27 1f be 2b b4 41 3e a2 f2 35 3e 38 24 d5 be
       -0.15542543 0.18916385 0.17768338 -0.41629195
000010 04 f7 48 3e e7 48 b1 3e df 8c 60 be db b0 93 be
       0.19625479 0.34625933 -0.21928738 -0.28845868
000020 6b 67 98 bd a2 ee 4b 3e ed 52 d0 be d6 8c e6 3d
       -0.074416004 0.1991525 -0.40688267 0.11257331
000030 97 54 39 3e 76 a8 7f be b2 66 57 be be 59 4a bc
       0.18098675 -0.24966606 -0.21035269 -0.012350498
000040 8f 41 27 be 82 c1 9e be ad 74 5c be cc 9c 6c 3e
       -0.16333602 -0.3100701 -0.21528883 0.23106688
000050 e5 f9 91 be 31 e3 6d be ac e7 98 be ee 20 77 3e
       -0.28510967 -0.23231198 -0.29864252 0.24133655
000060 76 c3 94 3e a0 59 fa 3a 1b 57 3d 3e aa ce f4 3e
       0.29055375 0.0019100197 0.1849026 0.47813922
000070 8a ab 21 bd 7f f3 4a be 94 86 aa be 8e 0c 5b be
       -0.039470233 -0.19819449 -0.333058 -0.21391508
000080 1f f1 94 3d 5a 3c f3 bd bd fb 34 be 05 b9 8d be
       0.07272553 -0.118767455 -0.17674156 -0.2768022
000090 29 78 8a bd cb aa 8e 3e e5 69 72 be 4b 50 b1 3e
       -0.067612 0.2786468 -0.23673208 0.3463157
0000a0 9d ea 09 be bf 3b 49 be a4 51 8b be 58 62 84 be
       -0.13468404 -0.19651698 -0.27210724 -0.2585628
0000b0 ed 17 ac bd c6 52 8c 3e 82 d1 82 bd 3a 46 bd be
       -0.08403001 0.274069 -0.06387617 -0.3696764
0000c0 64 76 9d be a4 1b aa 3c b8 b4 74 3e 7e c9 3d 3e
       -0.30754387 0.020765133 0.23897064 0.18533894
0000d0 82 0f 82 3d aa 66 2d 3e d6 c0 a8 bd 5e ea 89 be
       0.06350614 0.16933694 -0.082399055 -0.2693662
0000e0 a8 9f b3 be 2f ba ec 3e 99 78 22 be 15 1d 61 be
       -0.35082746 0.46235797 -0.15866317 -0.2198375
0000f0 2d eb 83 3e 45 bc c8 3c b6 8c 81 3e d8 3f cf 3e
       0.25765362 0.024503836 0.25302666 0.40478396
000100 02 7a bd be 9e 67 12 be 2c 80 4a 3d d4 8f 99 3e
       -0.37007147 -0.1429734 0.04943864 0.29992545
000110 b7 8d 9a be 2b 56 99 3d 44 c1 fc 3c 60 88 99 3d
       -0.30186245 0.07487138 0.030853875 0.074967146
000120 04 03 2e be 94 de 9d 3e d8 85 a2 3e 98 d4 8d 3e
       -0.16993338 0.30833876 0.3174274 0.2770126
000130 79 b7 9b 3e dd 68 93 3e 27 47 1b 3e 94 54 3b bd
       0.30413416 0.28790942 0.15163861 -0.045734957
000140 03 a4 a2 3d 3a c3 0b be d5 bd d9 3c 34 f5 c7 be
       0.07941439 -0.13648692 0.026579777 -0.39054263
000150 e8 8f 12 3e af f7 57 3e 8f ce 20 3d a2 3d 3f 3e
       0.14312708 0.21090578 0.03925949 0.18675855
000160 dc ce e6 be 51 18 c5 3d f1 1d b4 3e f6 ea 1b bd
       -0.45079696 0.096237786 0.35179093 -0.038065873
000170 dc 71 b4 be cf 97 fc be c9 d1 cd be 79 56 bc 3c
       -0.35243118 -0.4933457 -0.40199116 0.022990452
000180 01 c6 1d 3e 92 b2 96 3e cf fb f9 be 8c 0e bb bc
       0.15407564 0.29433113 -0.48824927 -0.022834085
000190 50 d0 1a 3d 5b 90 94 bd 73 8f 82 3e 31 45 bf be
       0.03779632 -0.07254096 0.25500068 -0.37357476
0001a0 56 c5 7d be 76 05 b7 3e 80 82 2f be 91 1a 93 be
       -0.24782309 0.35746354 -0.17139626 -0.28731206
0001b0 29 2f ac bc f8 f6 99 bd e5 ab cb 3e df be 17 3e
       -0.021018581 -0.07517809 0.39779583 0.14818905
0001c0 e0 94 56 3d e8 1f 03 3e 1a c9 d5 be cc 8f 9c 3d
       0.052388072 0.1280514 -0.4175499 0.076446146
0001d0 d4 5b fe bd 1b 49 b1 3d 31 be 45 3e 45 8a 25 3c
       -0.124198586 0.08656522 0.19310834 0.010103767
0001e0 7e 3f a8 be 1e 88 4a bd e0 9c be be 18 91 2e 3e
       -0.3286094 -0.049446218 -0.3722906 0.17047536
0001f0 df 29 7a be c3 65 67 3e c3 3b 90 be 24 83 ce be
       -0.24430035 0.22597413 -0.28170595 -0.40334427
000200 c5 fe 33 3e ae 7e b5 be 7c 6e 9b be de 57 8c be
       0.17577656 -0.3544821 -0.3035773 -0.27410787
000210 16 7d 68 3e c1 f0 7b 3d 34 63 92 bc fd 11 ed bc
       0.22703966 0.061508898 -0.01786957 -0.028939242
000220 d8 6c b2 3e 65 86 03 3e 92 7a 3a 3e 1b 4a da 3e
       0.34848666 0.12844236 0.1821082 0.42634663
000230 25 c6 2a 3d d4 91 98 3e 7f 79 11 3e 12 22 12 3e
       0.04169287 0.29798758 0.14206503 0.1427081
000240 7a 0c 96 3e 74 cc 6a 3e 70 a7 ca be 17 b7 3c be
       0.29306394 0.22929555 -0.3958087 -0.18429218
000250 6a 24 98 be 8c bd d2 3e 72 a2 77 be 5e 2d 81 3e
       -0.29715282 0.41160238 -0.24183062 0.25229925
000260 a4 42 68 3e 1a e3 50 be 19 82 90 be 2c 5e db be
       0.22681671 -0.20399132 -0.28224257 -0.42845285
000270 60 1c a4 be 79 1e 71 3e 8e 63 cb bd d8 e6 03 be
       -0.32052898 0.2354678 -0.09931098 -0.12881029
000280 f5 a1 97 be 51 87 24 3e ac a4 bc 3e 79 fd 42 be
       -0.2961575 0.16067244 0.36844385 -0.19042005
000290 62 62 8c be a7 e0 c9 be e5 a9 78 3d 06 44 7e 3e
       -0.2741881 -0.3942921 0.0607089 0.24830636
0002a0 ff 89 42 3e 77 a5 19 3e c6 1b 48 bc 08 0c 1e be
       0.18997954 0.15004526 -0.012213653 -0.15434277
0002b0 0b df ca be e8 b4 82 bd 56 c2 46 be 54 9a 61 bc
       -0.39623293 -0.063821614 -0.19410071 -0.013769705
0002c0 7f cf 99 bd 1c 2f b2 bd 89 66 95 be d6 ef 12 be
       -0.0751028 -0.08700392 -0.2917979 -0.14349303
0002d0 89 cc ba 3e 11 37 6c 3d ef 03 82 be 30 71 9b 3d
       0.36484173 0.057669703 -0.25393626 0.07589948
0002e0 60 61 91 bd 4e a9 80 3d b6 14 46 be 2e f1 a4 be
       -0.07098651 0.06282292 -0.19343838 -0.32215255
0002f0 e3 eb f9 be 1b 45 bd bd 10 f8 e7 3b ac a2 90 be
       -0.4881278 -0.092416964 0.007079132 -0.2824911
000300 cd d2 cf 3d e8 c6 b3 bd 18 3e ac 3e a5 10 bc 3d
       0.10147629 -0.08778173 0.33641124 0.09182862
000310 4f 34 bb 3c 8b 4a 2a be c6 9b b0 bd fa 75 e8 be
       0.022852091 -0.16629998 -0.086234614 -0.4540251
000320 c5 7e 82 3d 38 49 f6 bd cf 45 6c 3e 90 0a 05 3f
       0.063718356 -0.12025684 0.23073505 0.5196924
000330 b6 f7 dc 3d 00 0b 45 3e 6a d8 46 be c1 71 11 3e
       0.107894346 0.19242477 -0.19418493 0.1420355
000340 64 eb bd be 73 83 10 be 78 91 3b be 06 8d 6f be
       -0.3709365 -0.14112644 -0.1831721 -0.2339364
000350 4c 22 9d be 25 f4 a5 3e 11 a8 e3 3d a8 8c eb be
       -0.3069023 0.3241283 0.111160405 -0.4600575
000360 6a f1 b8 ba bd 35 96 3e 48 37 89 3e 3a 8d f8 3e
       -0.0014110033 0.29337874 0.2679999 0.48545247
000370 90 3c 34 bd a1 73 cb 3e 50 f7 ee 3e bf 2e 74 be
       -0.04400307 0.39736655 0.4667306 -0.23845957
000380 30 32 e2 3e 13 93 4f 3e ec 02 ba bd 90 83 45 3d
       0.44178915 0.20270948 -0.090825886 0.04822117
000390 46 7b 71 be 2b 00 e2 3e ab fd 07 3e d5 ce a3 bd
       -0.23582181 0.44140753 0.1328036 -0.079984345
0003a0 b2 bb b7 be 86 17 33 3e 1f 06 25 be 06 df d7 bd
       -0.35885388 0.17489442 -0.16115616 -0.10540585
0003b0 44 01 26 3e 53 4b b5 3e 6b b7 95 3e 27 2b ad be
       0.1621142 0.3540903 0.292415 -0.33821985
0003c0 f9 1e a9 be fd 90 a7 be 60 cd 54 3d 87 ef 0d be
       -0.33031443 -0.32727805 0.051953673 -0.13860904
0003d0 2c e0 b6 be 6b d2 6a be 20 05 1c be b7 30 6e be
       -0.35717905 -0.2293183 -0.1523633 -0.2326077
0003e0 e0 41 b5 3d 6b 38 9d 3d 05 c3 66 3d 8a 56 8b 3e
       0.08850455 0.076767765 0.05633833 0.27214462
0003f0 ad 34 b2 3d c9 2a 24 be 4d 33 b9 be 84 a9 e1 3e
       0.08701453 -0.16031946 -0.36171952 0.44074643

encoder_variable_selection.single_variable_grns.T2M.gate_norm.glu.fc.bias f4 [32]
000000 35 7a bb bd 7d 14 34 bd 13 e3 08 be 0e 72 e8 3b
       -0.091541685 -0.04396485 -0.13367872 0.0070936745
000010 af ea 13 3d 9c 2d c7 bd b5 52 8a 3d 46 67 9c 3d
       0.036112484 -0.09725496 0.06754056 0.07636885
000020 58 db 8d bd cc 3f 13 3e 8a 2f e0 3c bf e8 f9 bd
       -0.06926602 0.14379805 0.027366418 -0.12202596
000030 00 79 1c 3c 07 09 26 3e d7 15 74 3d 39 6f 14 bd
       0.009550333 0.16214381 0.05959114 -0.036238883
000040 d0 4a 21 bd 28 b5 7f bd 30 d0 e4 3d e0 6c 3f 3d
       -0.039377987 -0.062428623 0.11172521 0.04673469
000050 40 a1 cd bd fe 46 da bd 92 13 1e bb 5f 4e 6b bd
       -0.100405216 -0.10658072 -0.0024120552 -0.057447787
000060 f4 3b c3 3b 46 53 1f bc 04 ec 13 bd bd ad 08 3e
       0.0059580747 -0.009724444 -0.036113754 0.13347526
000070 a2 e7 f6 3d 4b 8e 55 bc 58 5f 72 3c c9 55 00 bc
       0.12055899 -0.013034414 0.0147932395 -0.007832953

encoder_variable_selection.single_variable_grns.T2M.gate_norm.add_norm.norm.weight f4 [16]
000000 2c 07 53 3f e7 b9 67 3f aa 24 8c 3f a7 87 68 3f
       0.8243282 0.9051804 1.0948689 0.9083199
000010 31 6c 6a 3f ce da 8b 3f c3 92 5d 3f 3b ad 78 3f
       0.91571337 1.0926149 0.86552066 0.9713933
000020 af 30 7d 3f cd 55 92 3f 8d 07 80 3f 26 36 82 3f
       0.9890241 1.1432434 1.0002304 1.0172775
000030 dd d1 66 3f 35 03 5f 3f 2d d8 7f 3f 6b 6b 87 3f
       0.90163976 0.8711427 0.99939233 1.0579656

encoder_variable_selection.single_variable_grns.T2M.gate_norm.add_norm.norm.bias f4 [16]
000000 42 49 4e 3d 53 38 81 3d b1 6c df bd f2 1d c5 3c
       0.050362833 0.06309571 -0.10909403 0.02406213
000010 50 2d 60 3d 6e 32 72 bc 46 a3 7f 3d f0 e8 81 3d
       0.054730713 -0.014782531 0.06241157 0.063432574
000020 16 d6 99 bd 6d 3b 6c 3d 68 a3 6a 3c d3 23 14 be
       -0.07511537 0.05767386 0.014321186 -0.14466791
000030 77 9c 09 be 6e 25 6b bd a4 1e af 3b 8b fe 32 bd
       -0.13438593 -0.057408743 0.005344229 -0.043699782
