ai_predict/ai/lightning_logs/version_81/checkpoints/epoch=2-step=15.ckpt (torch, 662004 bytes, 889 tensors)

prescalers.time_idx.weight f4 [8, 1]
00000000: 225d fe3e 64a1 233f b6f2 fabd 0810 813f
00000010: a5f3 5bbf 1fe9 f1bd 0f36 2b3f 44bc 81bf
0.4968043 0.6391814 -0.12253325 1.0083017 -0.8591865 -0.118120424 0.6687936 -1.0135579

prescalers.time_idx.bias f4 [8]
00000000: 1e31 5a3f d1f0 4bbf eb4a b9be fd8e 0f3f
00000010: c9e3 6bbe 740e 66bc fda5 313f 4391 adbe
0.85231197 -0.7966433 -0.3618997 0.5607756 -0.23036112 -0.014041532 0.69393903 -0.33899888

prescalers.T2M.weight f4 [8, 1]
00000000: 296b 94bf c491 073e 13a4 4dbf 6c83 823f
00000010: 28da 473f 3dea e43e 6592 2dbf 358f c7bd
-1.1595203 0.13239199 -0.8032848 1.0196357 0.78067255 0.4470996 -0.67801505 -0.097441114

prescalers.T2M.bias f4 [8]
00000000: 0bd9 013f 4a77 e5be dd7d 2d3f d26f 4d3f
00000010: 0039 6a3f a70e bc3e 0a83 84bf 8e63 19bf
0.50721806 -0.44817573 0.6777018 0.8024875 0.91493225 0.3672993 -1.035249 -0.59917533

prescalers.T2M_MAX.weight f4 [8, 1]
00000000: 014d 4a3e 760f 01bf d52a 823f 66d9 47bf
00000010: 0167 073f e362 8c3f 9571 45bf 167b 3bbf
0.19755937 -0.50414217 1.0169321 -0.780661 0.52891546 1.0967678 -0.7712644 -0.7323469

prescalers.T2M_MAX.bias f4 [8]
00000000: 7f18 3abe 506f bc3e cca0 68bf e906 12bf
00000010: 5adc 0abf a6a7 233f d12d 5ebf eaed 59bd
-0.18173407 0.36803675 -0.90870357 -0.57041794 -0.5424248 0.63927686 -0.8678866 -0.05320541

prescalers.T2M_MIN.weight f4 [8, 1]
00000000: 9fec 99be be08 9abe f547 71bf 689c 043f
00000010: b7b0 7ebe 95b8 bdbe 51e3 163f c896 ce3e
-0.3006334 -0.30084795 -0.9425042 0.51801157 -0.24872099 -0.37054887 0.5894061 0.40349412

prescalers.T2M_MIN.bias f4 [8]
00000000: cb80 4b3f f806 c03e 8e46 e0bd 74fa 143f
00000010: f31b 6ebe c8aa abbe 8d62 ed3d b7ab 15bf
0.794934 0.37505317 -0.10950957 0.5819466 -0.2325285 -0.33528733 0.11591063 -0.5846514

prescalers.PRECTOTCORR.weight f4 [8, 1]
00000000: 4eab a4be 77cf b0be aef1 f9be f571 3c3f
00000010: a687 c33e ea4d 4cbf cf52 07bf 1010 ef3e
-0.32161945 -0.34533283 -0.488172 0.73611385 0.3818943 -0.7980639 -0.5286073 0.46691942

prescalers.PRECTOTCORR.bias f4 [8]
00000000: e5e1 343e 6b15 1d3e d25e 2abf 2ce1 3fbf
00000010: 5644 01bf dde4 8fbf 46b9 8b3e 4ca7 8abf
0.17664297 0.15340202 -0.66550934 -0.7495296 -0.504949 -1.1241719 0.2728979 -1.0832305

prescalers.RH2M.weight f4 [8, 1]
00000000: 5229 8dbf 1302 40bf c91f d8be 3de9 2d3e
00000010: 13b7 e83e 290b 92bf 9890 21bc f1bc 2d3f
-1.1028235 -0.75003165 -0.4221175 0.16983505 0.45452175 -1.1409656 -0.009861134 0.67866427

prescalers.RH2M.bias f4 [8]
00000000: 988f a4be c8f5 8f3e 8bae 90be 524a 11bf
00000010: 67ed 8fbd f337 3dbf 475d 4b3e ba8a c1be
-0.32140803 0.28117204 -0.28258166 -0.5675403 -0.07027703 -0.73913497 0.19859801 -0.37801152

prescalers.ALLSKY_SFC_SW_DWN.weight f4 [8, 1]
00000000: d9d0 ba3e 0d5f 96be 4558 76be f328 18bf
00000010: 14e5 17bf e3dc 653f 1a07 183f c838 793f
0.36487463 -0.29369393 -0.2405711 -0.59437484 -0.5933392 0.8979017 0.59385836 0.97352266

prescalers.ALLSKY_SFC_SW_DWN.bias f4 [8]
00000000: 5869 b8be b52f 853e af16 203f 914c 8bbf
00000010: d1aa fdbe 1fce 453f e551 663e e416 003f
-0.3601787 0.2601296 0.6253461 -1.0882741 -0.49544385 0.7726764 0.22492178 0.5003493

prescalers.numero_casos.weight f4 [8, 1]
00000000: 4788 283f e6bf fa3e 3059 763e 3655 0f3e
00000010: c485 083f 1e1b 6c3f 9b32 81be 1ec5 30bf
0.6583294 0.48974532 0.2405746 0.13997349 0.5332911 0.9222888 -0.2523392 -0.69050777

prescalers.numero_casos.bias f4 [8]
00000000: f8b3 4a3f f388 533f 8277 ad3e a5fc 13bf
00000010: 20e6 973e 4968 413e ad18 2b3e abb9 213f
0.7918086 0.8263084 0.3388024 -0.5780738 0.2966776 0.18887438 0.16708632 0.6317393

static_variable_selection.single_variable_grns.municipio.mask f4 [16]
00000000: 35fd 153e 5f02 16be 943a 163e 0533 163e
00000010: eeec 16be ff47 163e f3b3 153e 3c63 15be
00000020: 7bf7 15be 79fb 15be 0aa9 143e 960f 16be
00000030: b004 163e 6ee5 15be 9098 153e f4e4 153e
0.14647372 -0.14649342 0.14670783 0.146679 -0.14738819 0.14675902 0.14619426 -0.14588636
-0.14645188 -0.1464671 0.14517608 -0.14654383 0.14650226 -0.14638302 0.14608979 0.1463812

static_variable_selection.single_variable_grns.municipio.norm.weight f4 [16]
00000000: 538c 903f 778c 903f d08c 903f d98c 903f
00000010: e48c 903f ef8c 903f 1fe6 5e3f fde5 5e3f
00000020: 8f8b 903f 148c 903f 2ce6 5e3f c48c 903f
00000030: b38c 903f 5be7 5e3f 1bef 5e3f 93e7 5e3f
1.1292824 1.1292866 1.1292973 1.1292983 1.1292996 1.129301 0.87069887 0.87069684
1.129259 1.1292748 0.87069964 1.1292958 1.1292938 0.8707177 0.87083596 0.87072104

static_variable_selection.single_variable_grns.municipio.norm.bias f4 [16]
00000000: 0011 163e 7802 16be bfdf 163e 2fa3 163e
00000010: 6d92 16be 6ebd 163e 1480 153e dc42 15be
00000020: 9bf6 15be b8fa 15be 6f05 23be f512 16be
00000030: df1a 163e 27dc 15be 8209 16be aede 153e
0.14654922 -0.14649379 0.1473379 0.14710687 -0.14704295 0.14720699 0.14599639 -0.14576286
-0.14644854 -0.14646423 -0.15920042 -0.14655669 0.14658688 -0.14634763 -0.14652064 0.14635727

encoder_variable_selection.flattened_grn.resample_norm.mask f4 [8]
00000000: 8dfc 11be 88f1 1c3e 832e c13d 4afb 17be
00000010: 8428 2abe 0f25 ee3d c34d 1d3e 16d2 193e
-0.14256497 0.15326512 0.094326995 -0.14841953 -0.16617018 0.11628162 0.15361695 0.15021548

encoder_variable_selection.flattened_grn.resample_norm.norm.weight f4 [8]
00000000: 86c1 5c3f 9169 933f 5fb5 913f 37a0 593f
00000010: d198 503f 2e66 923f d297 923f 128f 933f
0.86232793 1.1516591 1.1383475 0.85010093 0.8148318 1.1437433 1.1452582 1.1528037

encoder_variable_selection.flattened_grn.resample_norm.norm.bias f4 [8]
00000000: 39f1 0bbe ac2b 1ebe 391c 12be 2cb8 1bbe
00000010: 33f9 1d3e 2dae 203e 5722 033e d660 1b3e
-0.13666238 -0.15446347 -0.14268579 -0.15206975 0.15427093 0.15691443 0.12806068 0.15173659

encoder_variable_selection.flattened_grn.fc1.weight f4 [8, 64]
00000000: 67b1 c03e 56f2 88be 96a5 0fbe 5210 bd3d
00000010: 9012 2f3d 389b 163e f651 043e 39cf 853e
00000020: 6f04 5abe 8cbe b3be 52da 8dbe 9c3a 7ebd
00000030: e7cc 2e3e 7a46 6f3e 1d64 6cbd a399 e4bd
00000040: 0cd0 60bd 1819 0ebe 6f02 c6bc 3e1d 41be
00000050: a23b da3e e7f4 233e 5819 f0be a9d5 873e
00000060: cefb 2e3e bf3a 62bd 9c63 7ebe d43b 9e3e
00000070: 74c7 9bbe 54ea 38be 2719 3a3e a3ab 4c3e
00000080: 67a9 edbe 9467 c6bd 980a d9bb 8f00 0cbf
00000090: 3e95 25be e258 4abe 1ce4 893e cced 673e
000000a0: c560 96be 05ca e03e 35a9 293e d52b f8bd
000000b0: f62f 253e a8d8 3b3d 7613 5f3e b32c d4be
000000c0: bb75 85be aa7a 903d aa40 3a3d 2372 a1be
000000d0: 748a b53c a26b f03e e10e 1cbd d06c a5be
000000e0: 5a29 05bd 00ea 0c3d 1147 943e fab4 08bd
000000f0: 75c6 bcbd 58a1 b63d af7b fcbd e825 193e
00000100: e7ac 073e e7f8 823e e62c 4c3e e4ec b2be
00000110: 15d2 8abe 1063 aabc 6eee ecbd b040 c5bd
00000120: ce2f bc3e 3597 56bd be19 4abd bcee bcbe
00000130: 2a32 25be d28d 993e 8b81 863e ab92 92be
00000140: b978 94bc 21d5 a83e 63dd 38bd f5aa 5dbe
00000150: a537 1c3e 38af ebbe 964d ec3e 2010 8b3e
00000160: d77d 01be 019e c73e d0d9 463d d7f4 72bd
00000170: d2b1 df3d 975c 073f 6da1 09be c827 f63d
00000180: 7646 b03e 706b 083c 117b 153e 18a8 743e
00000190: e73b 843d 4b55 973e c563 e1bd d127 07be
000001a0: d61d a8bd 75c0 663d 323d 053f 24db 7c3c
000001b0: 1870 4b3e c523 12bd 69db a93e ef65 803d
000001c0: 5e25 cc3d 9f49 053d 801a adbd 345b 0ebe
000001d0: 4217 8cbd ad77 bdbd d1ec aebe 090d 5bbe
000001e0: 6da5 70be 16e0 e03a 0207 03be 3c25 913d
000001f0: 0c4b aa3d 1932 31bd 444e 363e b005 26be
00000200: f567 7dbe 8df1 053e a4d5 9f3e 44df 3bbe
00000210: 960a dabe be3e 953e 79fe 89be a40e 80be
00000220: 7698 a2be 3ba9 8f3d 661a e4be dfe5 9ebe
00000230: ce5a 1ebe 87a3 7dbe 437c 6f3e d4bd c23d
00000240: 7d08 033e b3b5 65bd 5124 11be c0b4 b93d
00000250: f834 8abc eed1 a2bd a8a3 873e d524 303e
00000260: c1d7 febc d409 3bbf 9c77 733e e8b6 8abe
00000270: 8e8e d3bd 3510 5f3e 4397 b6be 1aee 923d
00000280: 3299 6abe a275 c0be 0c31 ea3c 9d44 653e
00000290: 6075 573e d2fd d63e 6608 3ebe d446 ea3d
000002a0: 35df 853e 6300 7f3e 180b 3e3e d39a f53e
000002b0: 3ebc 993d 26a0 773e 4967 e9bd b04c 4d3d
000002c0: e00b 173d d4c6 dd3b 3cca 94be 0e1e 263e
000002d0: 3d53 ebbb 532c 0cbe 8fe6 7dbe a77e 193b
000002e0: 968c 21bd 3926 9cbe 9fb9 f6bd 4edc 873e
000002f0: d38a aebe 74e2 aa3d 7002 71be c213 b5be
00000300: 3ec7 3fbd d859 223d 8576 413d cf6c a2be
00000310: 6ef8 893e c324 8e3c 7fe6 7c3d 58fa b7bd
00000320: 04b8 b63d 9676 b53e a632 21be bd90 34be
00000330: 347b 7e3d 8e80 bcbd c2a6 d63d a98d 0dbd
00000340: d216 513e a5b5 a43e 1634 d43d 4e78 bc3e
00000350: 5a68 d53c 8eef bebe 3ca0 a23d 4dbe 1b3e
00000360: 74b0 0ebe 9b3f 8a3d c95e 06be 87f1 aabd
00000370: df5c 8f3e 2e70 363e 03ae 78be 57d1 ac3e
00000380: 38f0 573d 1766 94be d38f 3e3e 0bba 693e
00000390: 68bd 383d 3a51 983d 7088 00be 91f5 37bc
000003a0: a559 b43d fe9a 40be c67b 9e3d 143c c13e
000003b0: 1293 c9bd d09d fcbc eb2f bcbe bbea dd3e
000003c0: 6410 053c baf4 3a3e 95ff fabd 3aba 473e
000003d0: ce34 1c3e 843c bbbd d857 f0be fcca abbd
000003e0: 4c54 1cbe de6e 00be b500 ddbd b069 25bd
000003f0: e2c7 423e 2a5c 873e acc8 05bd e631 c03d
0.37635347 -0.26747388 -0.1402801 0.092316285 0.042742312 0.14707649 0.1292189 0.2613466
-0.21290754 -0.35106313 -0.27705628 -0.062067613 0.17070352 0.23366728 -0.057712663 -0.111621164
-0.05488591 -0.1387676 -0.024171082 -0.18858811 0.4262362 0.16011392 -0.46894336 0.26530197
0.17088243 -0.055231806 -0.24842685 0.3090502 -0.30425608 -0.18058139 0.18173657 0.19987349
-0.46418306 -0.09687725 -0.0066235773 -0.5468835 -0.16170213 -0.19760469 0.26931846 0.22649306
-0.29370704 0.4390413 0.16568454 -0.12117735 0.16131577 0.045860916 0.21784768 -0.41440353
-0.26066384 0.07054646 0.045471825 -0.31532392 0.022160746 0.46957117 -0.038100127 -0.3230958
-0.03251014 0.034402847 0.2896047 -0.033375718 -0.0921754 0.08917493 -0.12328278 0.14955866
0.13249551 0.25580522 0.19939002 -0.34946358 -0.27113405 -0.02079919 -0.11568914 -0.09631479
0.36755222 -0.052390296 -0.049340956 -0.3690089 -0.16132417 0.29991013 0.26270708 -0.28627524
-0.018123971 0.32975104 -0.045133006 -0.21647246 0.15255602 -0.4603212 0.46152943 0.2716074
-0.1264566 0.38987735 0.048547566 -0.05931553 0.109225884 0.52875656 -0.13440485 0.120193064
0.34428757 0.008326396 0.14597727 0.23892248 0.06456738 0.2955726 -0.11005358 -0.13198783
-0.08208816 0.056335885 0.520465 0.015433107 0.19866979 -0.035678644 0.3317521 0.06269442
0.09968065 0.032540914 -0.0845232 -0.13901979 -0.068403736 -0.09251342 -0.34165052 -0.21391691
-0.23500605 0.0017156627 -0.12795642 0.0708718 0.08315095 -0.043260667 0.17803293 -0.16213107
-0.24746688 0.13080426 0.31217682 -0.18346888 -0.425862 0.2914943 -0.2695196 -0.2501117
-0.31756943 0.070147 -0.4455139 -0.31034753 -0.15464327 -0.24769412 0.23387246 0.09508863
0.12796207 -0.056081485 -0.1417401 0.090676785 -0.01687096 -0.07950197 0.26492047 0.1720155
-0.031108739 -0.7306187 0.23776096 -0.2709267 -0.103299245 0.21783526 -0.3566228 0.071743205
-0.22910002 -0.37589747 0.02858784 0.22389455 0.21040869 0.41990525 -0.18557891 0.11439291
0.26146856 0.24902491 0.1855892 0.47969684 0.075066075 0.24182186 -0.11396653 0.050121963
0.03687656 0.006768087 -0.29060543 0.16222402 -0.0071815536 -0.13688783 -0.24794982 0.0023421438
-0.039440714 -0.30497912 -0.12047123 0.26535267 -0.3409029 0.08343974 -0.23536086 -0.35366637
-0.04682087 0.039636463 0.04723217 -0.3172364 0.2694735 0.017351514 0.061743256 -0.08983296
0.08921817 0.35442036 -0.15741977 -0.17633338 0.062129214 -0.09204207 0.10481025 -0.034558926
0.20418862 0.32169834 0.10361497 0.36810535 0.026050735 -0.3729214 0.079407185 0.15209313
-0.13934499 0.06750413 -0.13122095 -0.08346849 0.28000543 0.1781623 -0.2428513 0.33753464
0.052719325 -0.28984138 0.18609552 0.22824876 0.045102507 0.07437368 -0.12552047 -0.011227981
0.08806161 -0.18809125 0.07738452 0.37741148 -0.098425046 -0.03083697 -0.36755309 0.43343148
0.008121584 0.18257418 -0.1225578 0.19504634 0.15254518 -0.09142402 -0.4694202 -0.083883256
-0.15266532 -0.12542292 -0.107911505 -0.040383995 0.19021562 0.26437503 -0.03266208 0.09384517

encoder_variable_selection.flattened_grn.fc1.bias f4 [8]
00000000: d554 043e dec8 fabd 86d9 13be 7e73 c3bd
00000010: 532e 09be 6ef9 0c3e 860d 073e e3c5 13be
0.12922986 -0.122453436 -0.14438447 -0.09543513 -0.13396578 0.13767025 0.13188753 -0.14430957

encoder_variable_selection.flattened_grn.context.weight f4 [8, 16]
00000000: 1c91 163e 9e97 bfbd 949a a1bd 9e2f afbc
00000010: f2f3 af3e a784 33bd c58e 9cbe 71b3 843e
00000020: da24 103f 1826 f0bb 1bf3 efbd 5302 9dbe
00000030: 5f41 be3d 1b04 a13e 33ba 89bd c138 1a3e
00000040: 9300 9c3e 2455 60be 5260 9f3e 1aa9 22be
00000050: cfda 63bd 9d60 0d3f cafd 1d3c f841 d83e
00000060: a0cb 78be 8188 9fbd 132d 203f 848b 78be
00000070: aee7 d6be 95d9 6ebe dadc 78be 26fd cf3e
00000080: 0251 c03e f403 b73e 09f8 afbe 4809 b6be
00000090: 2c36 a73d 575a 903e a0e3 0a3f 1e4f 113f
000000a0: dc0b 19bf 4f6c 96be 9b8f 3d3e bbbb b8be
000000b0: fef8 443e bbe2 933d 1783 5c3d e284 99be
000000c0: 19d0 7dbe 8fac 463e d80b 173e 363b 09bc
000000d0: 706e 7939 e1f5 b2be 31e2 683d 5dee 083f
000000e0: 2dee 1fbb f4e2 0ebe 12f8 693e 362d 02bf
000000f0: 1c8f fbbd 73f1 83be f897 ca3e 26b1 a03e
00000100: e665 d33d 2bc7 0b3f 688b 1b3f 0a59 b9bc
00000110: 6ec1 e73d e516 1b3f c730 203e a865 d23e
00000120: d7b2 333e 5ea9 c4be 0ae5 743e 4c84 eebe
00000130: 6fcf 1ebf 36a8 0abf a07c 63be 6a1d a73e
00000140: 2f63 fabd a5df ddbe c0a0 4d3e 6c03 89be
00000150: 949c 82bd 738d b33e ee19 bf3d 29af 1abf
00000160: 2c00 86be ac02 173e 825e 75be 339a 6dbe
00000170: 91f8 113f bfdd 88be 204a f9be 3295 f4be
00000180: 4155 03bf 32e9 783e 9cdd f6be 22c2 b0bd
00000190: 1d0e 9f3e 884f 12bf 141c e6be 7dd2 fabe
000001a0: 0dc9 9abe 089f c13e 32f6 00bf 5ea4 1b3f
000001b0: fd3b 623e 59c9 f93e bbd9 cb3c ed5e 1bbf
000001c0: 2912 a43d 89db 1b3f da52 b3be d9b2 51be
000001d0: 57b3 e23d fe3b 82bd 64e8 54be 62a3 a1be
000001e0: 5a75 06bf ff5d 943e b235 9f3d d409 893b
000001f0: 37f2 a3be 8cc8 0cbe 1e3a 7dbe b49e 463e
0.14703792 -0.093550906 -0.078908116 -0.02138501 0.34365803 -0.04382768 -0.30577675 0.25918153
0.5630623 -0.00732876 -0.117162906 -0.30665836 0.09289812 0.31448445 -0.06724968 0.15060712
0.30469188 -0.21907479 0.31128174 -0.1588482 -0.055628594 0.55225545 0.009643028 0.4223783
-0.24296427 -0.07789708 0.6256878 -0.24271971 -0.41973633 -0.23325188 -0.24302998 0.40622824
0.37561804 0.35745203 -0.34368923 -0.35553956 0.08164629 0.28193924 0.5425358 0.5676135
-0.5978372 -0.29379508 0.18511812 -0.36080727 0.19235608 0.0722098 0.053835955 -0.29984194
-0.24786414 0.19401763 0.14750612 -0.008375933 0.00023787632 -0.34953216 0.056856338 0.53488714
-0.0024403438 -0.13953763 0.22848538 -0.50850236 -0.12283155 -0.2577015 0.39569068 0.31385154
0.1032217 0.5460078 0.6075959 -0.022625465 0.11316191 0.6058181 0.15643607 0.41093183
0.1754869 -0.38410467 0.23915496 -0.4658531 -0.6203527 -0.5416292 -0.2221551 0.3263963
-0.12225949 -0.4333469 0.20080853 -0.26760423 -0.06377521 0.35068855 0.093311176 -0.60423523
-0.26172006 0.14747113 -0.23961833 -0.23203354 0.5701991 -0.2673168 -0.48689365 -0.47770077
-0.5130196 0.24307707 -0.4821595 -0.08630778 0.31065455 -0.57152605 -0.44943297 -0.48988715
-0.30231515 0.37816644 -0.50375664 0.6079768 0.22093196 0.4878643 0.024884095 -0.6069172
0.08011276 0.6088186 -0.35024148 -0.20478381 0.110693626 -0.06359099 -0.20791775 -0.31569964
-0.52522814 0.28977963 0.077739134 0.00418208 -0.32020733 -0.13748378 -0.24729201 0.19396478

encoder_variable_selection.flattened_grn.fc2.weight f4 [8, 8]
00000000: e4b3 8b3f b405 82bf 85fe c03d 38b7 82be
00000010: 5a53 e13c 7413 293f 3e66 88be 8dab 12bf
00000020: b0fc 883e c7c0 87bf 4fa7 09be 1a99 e3be
00000030: bbc0 133f 99d4 23bc 4587 993e 1079 303f
00000040: 13d5 18be da2e ba3e e83c 9c3f acbe c1be
00000050: 2bc1 82be c6d9 a7bd 5e2c 823e f65d 013d
00000060: a3cb 3c3e e060 cdbe de6e febe 973e 71be
00000070: 0421 e6be 383a 39be ec30 fbbe e3eb 803f
00000080: c3c8 f2be 3871 2b3f 9655 393f 3994 8a3f
00000090: 0eac 303e c4fc 083e 40fc 11bf 34af 463f
000000a0: 9f36 0f3f 1a62 8d3e 55c6 02bf ae8d 0d3e
000000b0: 4e15 063f 126a e8bd 12f2 313f 5f1e 0e3f
000000c0: 9e2f 0d3e ac24 1a3e ef6b 37bf cb03 9abe
000000d0: 643f 75be 168c 423e fff7 293f 66d9 26be
000000e0: 5803 75bf 5a40 603f b432 e13e 6be7 5bbe
000000f0: 09ec 74be 172e f8be c380 efbd 890f 073e
1.0914273 -1.015799 0.09423546 -0.2553041 0.027505565 0.6604531 -0.26640505 -0.57293016
0.26755285 -1.0605706 -0.1344273 -0.44452745 0.5771596 -0.009999418 0.29986015 0.68934727
-0.14925031 0.3636387 1.2206087 -0.37840784 -0.25538 -0.08195834 0.25424474 0.03158375
0.18437056 -0.40112972 -0.4969396 -0.23559032 -0.44947064 -0.18088615 -0.49060762 1.0071987
-0.47418794 0.66969633 0.7239622 1.0826484 0.17253134 0.13377672 -0.5702553 0.7761109
0.5594272 0.27613908 -0.5108388 0.13823578 0.5237626 -0.11348356 0.69509995 0.5551509
0.13787696 0.15053052 -0.7164907 -0.3008102 -0.23949963 0.18998751 0.66394037 -0.16293868
-0.9570823 0.8759819 0.43983996 -0.21474998 -0.23918165 -0.48472664 -0.11694481 0.1318952

encoder_variable_selection.flattened_grn.fc2.bias f4 [8]
00000000: a4a4 0d3e 807f ca3d 44cf 17be 51cc 083e
00000010: e13b 02be c655 3f3e 6fd3 093e fd03 0d3e
0.13832337 0.098876 -0.1482516 0.1335919 -0.12718154 0.18685064 0.13459562 0.13771053

encoder_variable_selection.flattened_grn.gate_norm.glu.fc.weight f4 [16, 8]
00000000: c24f 0f3f 415b 4cbe e8f2 9dbe ab98 9abe
00000010: 056c 453e 5c10 9abe 8df9 a6be eb8d c53d
00000020: 1ca8 c3be 8156 c2bd 3ca6 093d 97ec abbe
00000030: d7e8 30be 2d95 a6be 7a92 553e 0a07 a23e
00000040: 1afd ea3e e9e6 b9be 519c e23e 7fb2 113f
00000050: 294a 163f 0720 473e fb70 a63e bc0b 813d
00000060: ef68 3d3d e431 0abf af73 f23e e462 133f
00000070: c6fd 3a3e 98f8 24bf 2b56 933e 0165 813e
00000080: 50e5 eabd b15c 63be 7403 f5be 34e8 173d
00000090: 34cd 50bc 3143 683e 19a1 013e f096 073f
000000a0: 88d9 20bf 642d ba3e 1b02 353e c90b b9bd
000000b0: 0a7d 73be 6305 b73e 5c1b ca3d 0067 29bf
000000c0: ab17 8a3e af74 213f 5b74 b0be 676c 9cbe
000000d0: 6b84 ebbe d8ee 15be 8bdd 0f3f dedb 7b3e
000000e0: c130 2d3e 6f3e 08bf 4dd7 ecbe b706 633b
000000f0: 1086 8c3e b8ac 52be 0145 d43d 33ca 463c
00000100: 2197 39bd dd44 56be c58f f1bd 76ea ef3e
00000110: b2e4 02bf 6993 0b3f 64cd 1e3f 89e3 bbbe
00000120: c27c f23e f2b8 883d c962 013f 653e 913e
00000130: f0f3 dbbd dee2 573e 1652 073e 222e 203e
00000140: 53d6 b63e bf3f f2bd 1770 87be 5a5d 6b3d
00000150: 2e19 abbe 3d6d aebe 7e47 91be 9b7c 543d
00000160: f687 793e e885 63be 30d5 e5be 45dc e5be
00000170: 3c34 babe d6e7 0d3f f75a 203f 6342 9dbd
00000180: 010c bebe be07 d0bd f31e f53e f3fe 89be
00000190: 717e 9ebe e576 1fbe 50fe f13e d9fd be3e
000001a0: 7a70 e5be ad3b 0d3e 6d66 e3be 864c a9bc
000001b0: f834 46bd e7da 78be 9a6c 90bd 679d 49ba
000001c0: 5d7d f03e 9b1c ec3e d3b8 313e 28d4 d43e
000001d0: e2fe 0a3e 355e 973d 38d7 12ba 818f 8abe
000001e0: e3bb 48be c9cc 0ebf 0fb9 cd3d 321b e23b
000001f0: 9bc1 24bf f4a8 113e 30a2 a6b9 ffcf 0f3e
0.55981076 -0.19956686 -0.30849385 -0.301946 0.19279487 -0.30090606 -0.32612267 0.09646209
-0.38214195 -0.094891556 0.0336058 -0.3357894 -0.17276321 -0.32535687 0.20856658 0.31645995
0.45896226 -0.36308983 0.44259885 0.5691299 0.5870691 0.19445811 0.32508072 0.06301066
0.04624265 -0.5398238 0.47353885 0.5757277 0.1826087 -0.64441824 0.28776678 0.25272372
-0.11469519 -0.22203328 -0.47854197 0.03708668 -0.012744237 0.22681881 0.1265911 0.5296469
-0.62831926 0.36362755 0.17676584 -0.09035451 -0.23778167 0.35746297 0.098685 -0.6617279
0.26971182 0.6306867 -0.34463772 -0.30551454 -0.45999464 -0.14641893 0.5619742 0.24595591
0.1691313 -0.53220266 -0.4625801 0.0034641454 0.27446032 -0.205737 0.10364724 0.012133169
-0.045310143 -0.20924707 -0.11795 0.46858567 -0.5113021 0.54521805 0.6203215 -0.36697033
0.47360808 0.066759005 0.5054136 0.28367916 -0.10739887 0.21082637 0.13214907 0.15642598
0.3571039 -0.11828565 -0.26452705 0.057462074 -0.33417648 -0.34067717 -0.28374857 0.051876646
0.24368271 -0.2221905 -0.44889212 -0.44894615 -0.36367977 0.5543188 0.626388 -0.07678678
-0.37118533 -0.10157727 0.47875175 -0.26952323 -0.30955842 -0.15572698 0.47264338 0.37303045
-0.44812375 0.13792296 -0.44414082 -0.020666372 -0.04839036 -0.24302255 -0.07051964 -0.0007690996
0.46970645 0.46115574 0.17355661 0.41568112 0.13573793 0.073910154 -0.0005601528 -0.2706261
-0.19602923 -0.5578123 0.10045063 0.0069002146 -0.6435792 0.14224607 -0.00031782826 0.14044188

encoder_variable_selection.flattened_grn.gate_norm.glu.fc.bias f4 [16]
00000000: 1e3b 0abe c3ac 1dbe 16cd 0ebe 0527 1ebe
00000010: 2511 193e debd 393e 18d1 f53d 2a61 193e
00000020: b534 263e f77b d1bd d2ff 1abe 5d4d 173e
00000030: 2b50 27be 320f 163e c489 47be 3de2 10be
-0.13499114 -0.15397935 -0.13945422 -0.15444572 0.14947946 0.18138835 0.12002772 0.14978471
0.16231044 -0.102287225 -0.1513665 0.14775605 -0.16339175 0.14654234 -0.19486147 -0.14148803

encoder_variable_selection.flattened_grn.gate_norm.add_norm.norm.weight f4 [8]
00000000: b42c 5d3f 166a 953f e7d5 563f feed 593f
00000010: 50ca 8b3f 3eb4 933f b339 8f3f 4918 943f
0.86396337 1.1673 0.8392014 0.8512877 1.0921116 1.153938 1.1189483 1.1569911

encoder_variable_selection.flattened_grn.gate_norm.add_norm.norm.bias f4 [8]
00000000: ead7 09be d428 1fbe f469 0dbe 2ffc 1bbe
00000010: b934 203e 29a5 173e 9e23 f53d af51 1d3e
-0.13461271 -0.15542918 -0.13809949 -0.15232919 0.15645112 0.14809097 0.11969684 0.15363191

encoder_variable_selection.single_variable_grns.time_idx.resample_norm.mask f4 [16]
00000000: 1e86 113e 95f0 a73d 6b74 06be ac9c dabc
00000010: c729 19be eb9a 1e3e ec7e 173d 59c2 1cbe
00000020: e9a1 16be f2d8 26be fe79 143e 81b4 11be
00000030: 7ecb e9bc 9d8f 1a3e 80e1 173e f1a8 043e
0.14211318 0.08200184 -0.13130347 -0.026686035 -0.14957343 0.15488784 0.036986277 -0.15308513
-0.14710201 -0.16293696 0.14499661 -0.14229013 -0.028539415 0.15093847 0.14832115 0.12955071

encoder_variable_selection.single_variable_grns.time_idx.resample_norm.norm.weight f4 [16]
00000000: fdf2 913f be6d 873f fca0 5c3f 81ba 673f
00000010: fecb 593f 6c71 933f 70d7 683f eddd 573f
00000020: 4528 5a3f 0252 573f 9090 923f d8b0 5c3f
00000030: d3fb 693f 408c 933f 1c05 933f ac76 903f
1.1402279 1.0580366 0.8618314 0.9051896 0.8507689 1.1518989 0.9095373 0.84323007
0.85217696 0.8410951 1.1450367 0.8620734 0.9139988 1.1527176 1.1485934 1.1286216

encoder_variable_selection.single_variable_grns.time_idx.resample_norm.norm.bias f4 [16]
00000000: 7bc9 0b3e 3acb 343c d280 103e 0bcc ce3d
00000010: a135 1a3e 36bb 1abe 1744 48be a496 34be
00000020: 0e20 16be 759d 37be 01ab 133e 36dc 0bbe
00000030: fe73 c5bd 6b34 273e 5524 173e 00c6 4bbe
0.13651077 0.011034781 0.14111641 0.10097512 0.1505952 -0.15110478 -0.19557224 -0.1763559
-0.14660665 -0.17931159 0.14420702 -0.13658223 -0.096412644 0.1632859 0.14759953 -0.1989975

encoder_variable_selection.single_variable_grns.time_idx.fc1.weight f4 [8, 8]
00000000: b961 813e 187c 0d3e f18a adbf dc6b d43e
00000010: bc46 5e3d e0de 1c3d e927 8f3f b588 9abe
00000020: bdca 34be 74d2 24bf 31c4 76be fc34 ab3b
00000030: d47a 8c3e 8a2c 5b3f 0ffe 1cbf a2ed 753f
00000040: dbc8 dfbe 4cbe e23e 9a40 6bbe 00e2 ccbc
00000050: f2f8 af3e 3ffa 10bf c1e4 5bbf cb66 16bf
00000060: 0f6d 9bbe 5aeb f5be 0ea5 f8be b5a5 3a3e
00000070: 6ac0 9b3f a70c 3f3f 2d9a 763e 1372 ee3e
00000080: fcbc 6dbe 4314 053f bff8 23bf 81a5 e6be
00000090: 08d6 f03e 037a 9d3e 483f f7bc 5aee 6a3e
000000a0: e39c cb3d a486 16be a1ce e73d 4449 d53e
000000b0: 0c95 62be 33c4 a2bf c007 b73d 928f 9e3d
000000c0: b032 193f 7189 cdbd 064f 6c3e 64f2 1b3d
000000d0: b3f3 85be 355d babe f42e 903f 79f0 c0be
000000e0: 8868 88bf 6e21 51bd 093b 913e c56c 96be
000000f0: e388 cabe d926 47bf 81a6 a7bd c545 273f
0.2526987 0.1381687 -1.3558027 0.4148854 0.054266676 0.038298488 1.1184055 -0.30182424
-0.17655464 -0.64383626 -0.24098279 0.005224822 0.2743746 0.85614836 -0.6132516 0.96065724
-0.43707928 0.4428581 -0.22973862 -0.025010109 0.34369618 -0.56631845 -0.85895926 -0.587506
-0.30356643 -0.48031121 -0.48563427 0.18227275 1.2168095 0.7462868 0.24082251 0.46571407
-0.23216623 0.5198404 -0.6405143 -0.45048144 0.47038293 0.3075715 -0.030181542 0.22942486
0.09942033 -0.14699799 0.11318708 0.4165746 -0.2212717 -1.2716125 0.08937025 0.077422276
0.5984297 -0.100359805 0.2307702 0.03807296 -0.2616249 -0.36399236 1.1264329 -0.37683466
-1.06569 -0.05105727 0.28365353 -0.2937986 -0.3955756 -0.7779365 -0.08186055 0.65340835

encoder_variable_selection.single_variable_grns.time_idx.fc1.bias f4 [8]
00000000: 6c3d 183e c617 4bbe b902 2cbe 44c2 febd
00000010: 96b4 e03d 8217 cfbd 81df 39bd 5628 50be
0.1486718 -0.19833288 -0.16797914 -0.12439397 0.10971944 -0.10111906 -0.045379166 -0.20327887

encoder_variable_selection.single_variable_grns.time_idx.fc2.weight f4 [8, 8]
00000000: 2e67 9f3c f9fc e3be 08c2 e2be a51a 9f3f
00000010: 9dc4 70bf 51c8 5e3e 3f61 45be 67cf 22bf
00000020: 5b10 ac3f 7d9e 63bf 7cfe 5a3e 29f2 1abe
00000030: bd4f 2a3f 31d4 073e 2823 a03f 0701 0f3f
00000040: c4d1 a03e 5860 2cbf 1b64 3fbf 8371 1bbe
00000050: 3b9c 1ebe d505 2d3f 719a 7a3e cef5 1abf
00000060: 3c2f 3b3d 8410 cb3e d025 0bbf 1fa7 293d
00000070: 9dd5 273f a80f 17bf 5ea7 77be 60e4 443f
00000080: 86c0 ae3e 1eff 25be 8688 193f 1766 29bf
00000090: c509 533f bc05 32be 8a98 fd3d 279a 28be
000000a0: d5c7 4dbe bee0 843c 7c55 283f 7c61 56be
000000b0: ed6c 043f 2356 d2be 43df f5be b9d9 b83e
000000c0: 2978 19bf abd0 b2bd b84c 99be 87cb 993d
000000d0: f070 a9bf f4e4 7bbe 726e 963e cbd2 9b3e
000000e0: de03 11bf 41cd fabc da7c 963b 9fb9 01bf
000000f0: d5e5 b2be fb2b 223f 1ce9 45bf 424d e1be
0.01945838 -0.4452894 -0.4428866 1.2430006 -0.9405001 0.21756102 -0.19275378 -0.6359772
1.3442491 -0.8891371 0.2138614 -0.1513144 0.6652792 0.13264538 1.2510729 0.5586094
0.31410038 -0.6733451 -0.74762124 -0.1518002 -0.15489285 0.67587024 0.24472977 -0.6053132
0.045699343 0.39661038 -0.5435457 0.041419145 0.65560323 -0.59008265 -0.2418494 0.7691097
0.3413126 -0.162106 0.59973943 -0.661714 0.8243678 -0.17385 0.1238261 -0.16465054
-0.20095761 0.016220447 0.6575544 -0.20935625 0.5172871 -0.41081342 -0.48021898 0.3610361
-0.59948975 -0.087312065 -0.29941344 0.07509523 -1.3237591 -0.24599057 0.29381138 0.3043426
-0.56646526 -0.03061545 0.00459252 -0.5067386 -0.34940973 0.6334836 -0.7730882 -0.44004256

encoder_variable_selection.single_variable_grns.time_idx.fc2.bias f4 [8]
00000000: f2aa 173e 1a45 13be 2cd8 353e ebdd 033e
00000010: eb3c 143e fd8e 21be ca46 11be 5ec1 14be
0.14811304 -0.14381829 0.17758244 0.12877624 0.14476363 -0.15777202 -0.1418716 -0.14526889

encoder_variable_selection.single_variable_grns.time_idx.gate_norm.glu.fc.weight f4 [32, 8]
00000000: 3fa9 9e3e c6fb 46be c814 573e 6169 b1be
00000010: aaef 383e 50b4 53be 2079 bfbc c0df 01bd
00000020: 8fde 913d fc64 da3e 5e63 fb3d 2d18 e4bb
00000030: fef4 abbb cca1 6ebc c09b 753e a802 efbb
00000040: aa77 1abe 9155 003d 03c5 183e 2f33 efbe
00000050: 3804 73bd 9327 02bf 3e38 ef3e b3c5 363e
00000060: cb0d 083d 8be4 93be 471c e2be 1c06 4cbd
00000070: 5eb3 fdbe 5804 3f3d 6678 93be de94 ee3c
00000080: 7bf7 ed3e a564 c83e 4002 c13e 42a0 12bd
00000090: 8c0f 003e ef6d e4be 31ea b33d 7774 393e
000000a0: 6802 493e ba86 fcbe f7f0 edbe 73f2 1ebe
000000b0: ee63 823e 11bb be3e 29f8 acbe e673 023f
000000c0: d2a2 133e e3cf e13e 5da9 9abe 5aac bc3e
000000d0: 03a2 d63e 900c fe3e 7e86 3fbd 93d9 4fbd
000000e0: c916 9abc 1efc 0a3e b2ce a73d 3937 de3e
000000f0: 20a5 063e 03ec f13e d439 5cbe ea1b 973d
00000100: 10bd b3be ad37 003f ad51 bb3e c721 77be
00000110: 0986 ec3e 86c3 1c3d 61c7 fb3d a89e 21be
00000120: c480 13be 4adb 9b3d 8961 903e 09e4 303e
00000130: 9d6c 093f fe6c 223e 6ac4 06bf b13d 143e
00000140: b793 553e c149 cebd fef5 f0be 85f9 87bd
00000150: bc82 dcbd d3e1 2fbd f51c 573e 96e9 b9be
00000160: 625e 473e a49b c03d dd81 d1be e17d 9c3e
00000170: f687 c53d 539e 053f 3fc5 1abe 59c0 e73e
00000180: 6c87 01be cd32 66be f5cf e53e 265d 0dbe
00000190: 6ac8 10be 241e 9dbd 782f 15bd ac51 443d
000001a0: 099e ff3e 52b1 683d 553f cfbe b676 ee3c
000001b0: 0ef3 ebbb 9e7d 873d bf2e 5ebd fc49 7dbe
000001c0: 8723 da3e 5c9e 55be b6ff 7e3e 50cd 37be
000001d0: 515d a93d 5b0b 62be 4868 5dbe d144 f0be
000001e0: 6725 51be 3a1b f93d 9352 9ebe 1e5a e13e
000001f0: 6c58 9abe 138a 023f 8b7b e7bd e1e7 a43e
00000200: 783a c5bd 3da1 94be b1b4 65be ef14 cf3e
00000210: 55e2 a4bd c4fc 923e 3f4f 84be c50d 10bd
00000220: 05c7 3d3e 5b87 a83e 59c1 d53e 4af2 1abe
00000230: c616 033e e803 bcbd 2c18 c2bc 0d6a c7bd
00000240: 300a d9bc 3fa4 39bd 76ed d53d 4f71 d63d
00000250: ab48 fabd da8e b7be e4ec e53e ca85 973d
00000260: d84b 3fbe 37fe b6be bee6 dcbd d176 bc3e
00000270: 1532 433e cad5 c83d 61f2 d53e 6fe8 483e
00000280: 0438 9e3e 1faf e93e f726 a13c c651 6c3e
00000290: 9d5c 0abe bb4b 96bd c45f 463e cc78 cebd
000002a0: 5f48 b93d fb6f 813e dfe6 df3d a31f 00bf
000002b0: 9e32 54be a4e0 003d 2357 133e 0a82 50be
000002c0: a716 a53e a60f ee3d 56bf e33e 8a35 7abe
000002d0: e9a8 f5be 2df5 4e3e 4a78 193e cede 14be
000002e0: e592 88be d495 793d 7faa a9be 46af df3e
000002f0: 75a2 c33e e86d b2bd fd70 853e 452b 8d3e
00000300: 1d37 d3be 4004 f0be 7974 d9bc 90c0 4fbd
00000310: 9aa5 c2be b2ea 1ebe d6c6 513e 5aa5 db3e
00000320: ef4d 8bbd d666 c6be 10a8 833b e5ae 0cbe
00000330: b8ec bfbd 46fc ab3e 820d 9c3d 1613 5dbe
00000340: 97da 59be 490a 39be c289 3abd b5e5 103e
00000350: 8a3a a7be 027f 47be 14a0 fb3e 95cd 8fbe
00000360: c7d2 90be 8327 e63d 4758 e63e c7c2 fdbe
00000370: a556 50bd 4271 7a3b 6418 c3bd ae84 2c3d
00000380: 12be d2be dec0 253e 2612 ad3e 624e ba3e
00000390: f114 7dbe 98dd 3ebc 349f 17bd 4820 2e3e
000003a0: 3a46 a4be 2526 303e 69e4 3e3d 0170 813e
000003b0: 406a 3a3e df71 fabe ae00 aebd e7cb c63e
000003c0: 8262 37be dfb9 c63d 8ddb 21be 3dd7 fabd
000003d0: 0a0f 4fbe d9aa 65be c031 983d e0f3 db3e
000003e0: ba86 c23e 4bad d3bd e0e0 e9bd 7de3 53be
000003f0: d949 d3be 1201 df3d 8422 67be 732c 90be
0.309885 -0.19431981 0.21004021 -0.3465071 0.18060175 -0.20674253 -0.023373187 -0.031707525
0.07122528 0.4265517 0.12274812 -0.00696089 -0.005247711 -0.014564943 0.23985195 -0.007294018
-0.1508471 0.031331602 0.14918904 -0.46718737 -0.059330195 -0.50841635 0.46722597 0.17848854
0.03321628 -0.28885302 -0.441622 -0.049810514 -0.4955091 0.046635002 -0.28802794 0.02912372
0.46477875 0.39139286 0.3769703 -0.035797365 0.1250593 -0.44615123 0.08784903 0.18110834
0.19629824 -0.49321538 -0.46472904 -0.15522175 0.25466865 0.37252095 -0.3378308 0.50958097
0.1441758 0.44103917 -0.3020734 0.36850244 0.4192048 0.4961896 -0.04675912 -0.050744604
-0.018809693 0.13572738 0.08193721 0.43401507 0.13148928 0.47250375 -0.21506435 0.07378371
-0.3510518 0.50084955 0.3658575 -0.24133979 0.4619601 0.038272403 0.12293888 -0.15783179
-0.14404589 0.076101854 0.28199413 0.17274489 0.53681356 0.1586189 -0.52643454 0.14476658
0.2085713 -0.10072661 -0.47062677 -0.06639389 -0.10767123 -0.042939972 0.2100714 -0.36311024
0.19469598 0.09404686 -0.4091939 0.30564788 0.09645073 0.5219471 -0.15114306 0.45263937
-0.12649316 -0.22480316 0.4488522 -0.13805065 -0.14138952 -0.076717645 -0.036422223 0.04792945
0.4992526 0.05680973 -0.40478006 0.02910934 -0.0072006052 0.066157565 -0.0542438 -0.24735254
0.4260523 -0.2086119 0.24902233 -0.17949414 0.08269752 -0.22074644 -0.21621811 -0.46927503
-0.20424424 0.12163396 -0.30922374 0.44014066 -0.30145586 0.50991935 -0.11302861 0.3220816
-0.09630293 -0.29029265 -0.2243221 0.4044566 -0.08050982 0.2870847 -0.2584171 -0.03516938
0.18532951 0.32915768 0.41749075 -0.15131488 0.12801656 -0.091804326 -0.023693167 -0.097370245
-0.026494116 -0.045322653 0.10445683 0.10470831 -0.122208916 -0.35851175 0.44907296 0.07398565
-0.18681276 -0.35740826 -0.10786198 0.368094 0.19062074 0.09806402 0.41786483 0.19619916
0.30902112 0.4564142 0.0196719 0.23078069 -0.13511892 -0.07338663 0.19372469 -0.10081634
0.09047007 0.25280747 0.10932707 -0.50048274 -0.20722434 0.031464234 0.14388709 -0.20362106
0.32243845 0.116240785 0.44481915 -0.24434486 -0.4798043 0.20210715 0.14987293 -0.14538118
-0.26674572 0.060933903 -0.3313789 0.4368841 0.38209882 -0.08712369 0.26062766 0.27572075
-0.41252986 -0.46878242 -0.026544796 -0.05072075 -0.3801697 -0.15519217 0.20486006 0.4289959
-0.06801974 -0.38750333 0.0040178373 -0.13738592 -0.093713224 0.33590907 0.07619764 -0.21589312
-0.21274792 -0.1807033 -0.045541532 0.14150126 -0.3266185 -0.19482043 0.49145567 -0.28086534
-0.2828581 0.11238005 0.44989225 -0.49562666 -0.05086388 0.003821448 -0.095261365 0.04211872
-0.41160637 0.16186854 0.3380291 0.36387926 -0.2471502 -0.011649512 -0.037017062 0.17004502
-0.3208483 0.17202051 0.046604548 0.25280765 0.18204594 -0.48915002 -0.084962234 0.3882744
-0.17908671 0.09703421 -0.15806408 -0.12248085 -0.2022058 -0.22428454 0.07431364 0.429595
0.37993413 -0.103357874 -0.114198446 -0.20692249 -0.4126728 0.10888876 -0.2257176 -0.28158912

encoder_variable_selection.single_variable_grns.time_idx.gate_norm.glu.fc.bias f4 [32]
00000000: 24c3 073e 452b 4f3e e84a 123e d5cf c53d
00000010: 7a70 193e 6926 1abe 475e 44be b48e 2dbe
00000020: 2d8e 16be 412f 2fbe 5694 133e 5b2c 11be
00000030: f8b4 d5bd fd35 263e 44b2 163e d62c 5f3d
00000040: 2172 1dbe 414c b83d 8429 cc3d 69f3 f33d
00000050: 3dc1 103e 6078 143e b9aa 1f3e 9700 56bd
00000060: 157a 4e3e f15a 243e d4d6 133e 0d9c 38be
00000070: d382 e7bd 3a16 09be 5884 0ebe 47b9 1a3e
0.13258034 0.2023135 0.14286387 0.096587814 0.14984313 -0.15053715 -0.19176589 -0.16948968
-0.14702673 -0.1710787 0.14412054 -0.14177077 -0.10434908 0.16231532 0.1471644 0.05448612
-0.15375568 0.08998919 0.09968856 0.11911661 0.14136215 0.14499044 0.1559247 -0.052246656
0.20163758 0.16050316 0.14437419 -0.18028279 -0.113042496 -0.13387385 -0.13917673 0.1510974

encoder_variable_selection.single_variable_grns.time_idx.gate_norm.add_norm.norm.weight f4 [16]
00000000: aefe 903f 6bf2 4b3f 5618 5e3f 77c0 5e3f
00000010: f7e2 593f 00f4 923f 9f7f 5d3f 48d4 593f
00000020: 6860 5b3f 393f 5a3f d38f 933f 47e1 5b3f
00000030: 4556 5e3f 03ba 943f d746 723f 4b85 903f
1.1327722 0.79666775 0.86755884 0.8701243 0.85111946 1.1480713 0.8652286 0.8508954
0.8569398 0.8525272 1.1528267 0.8589062 0.86850387 1.1619266 0.94639343 1.1290678

encoder_variable_selection.single_variable_grns.time_idx.gate_norm.add_norm.norm.bias f4 [16]
00000000: 2c97 103e a1bd 383e 2284 0c3e c09e 043e
00000010: 772b 183e 1049 1abe 8c69 39be 90d3 2ebe
00000020: fdb5 15be 7f90 1ebe 71dc 193e 5a7d 0bbe
00000030: e595 e5bd f1b9 293e e902 1b3e 4bb1 2cbe
0.14120167 0.18041088 0.1372228 0.12951183 0.1486033 -0.15066934 -0.18106669 -0.17072892
-0.14620204 -0.15484808 0.15025498 -0.13622037 -0.11210231 0.16574837 0.15137829 -0.16864507

encoder_variable_selection.single_variable_grns.T2M.resample_norm.mask f4 [16]
00000000: 1945 383e ca1c 11be a9a7 09be c170 2b3e
00000010: 3611 1b3e e659 19be 3404 123e ef90 30be
00000020: db40 15be 5ba0 193e 9f1a 193e d250 3fbe
00000030: 0bd9 0f3e 2feb 1ebe c1ce 10be 0df5 233e
0.17995109 -0.14171138 -0.13442864 0.16742231 0.15143284 -0.149757 0.14259416 -0.17242788
-0.14575522 0.15002577 0.14951561 -0.18683174 0.14047639 -0.15519403 -0.1414137 0.16011448

encoder_variable_selection.single_variable_grns.T2M.resample_norm.norm.weight f4 [16]
00000000: 4b25 643f 2223 593f 6e2d 5d3f 2c07 893f
00000010: 1278 933f 7fad 593f 71cc 913f 2c03 583f
00000020: b66d 5a3f d270 933f d738 933f 2662 913f
00000030: f5ae 913f 2083 583f a3ca 5a3f 6c06 953f
0.89119405 0.84819233 0.86397445 1.0705314 1.1521018 0.8503036 1.1390516 0.8437984
0.85323656 1.1518805 1.1501721 1.1358078 1.1381518 0.8457508 0.8546545 1.1642585

encoder_variable_selection.single_variable_grns.T2M.resample_norm.norm.bias f4 [16]
00000000: 4507 183e 79e0 233e e016 0e3e f193 cd3d
00000010: 6991 183e 551c 18be e59b f13d a278 27be
00000020: 10fd 15be 8cc8 e9bd 6eeb 173e fcf2 11be
00000030: f6f3 0bbe 102e 1f3e 6609 163e 8f7d 25be
0.14846523 0.16003598 0.13875914 0.10037983 0.1489922 -0.14854558 0.11797313 -0.16354612
-0.14647317 -0.114152044 0.14835903 -0.14252847 -0.13667282 0.15544915 0.14652023 -0.16161178

encoder_variable_selection.single_variable_grns.T2M.fc1.weight f4 [8, 8]
00000000: c3be 0fbc efb6 99be b12f 34bd b89b 003f
00000010: b206 8ebe 76c9 d33e b961 913e 2cd6 c0be
00000020: 3620 033e 551f 6abe 580e 303e 4354 c7be
00000030: 9566 bb3e ff9b 4e3e 04bd a83c 174e abbd
00000040: a370 84be 078e a7bf 76bc 143f 2139 d43e
00000050: 4868 7ebd 2942 ec3e e8fb e6be 0afd 663f
00000060: 6eb5 1abf 8ad7 5e3f 1e23 7c3e 324c b5be
00000070: 60a3 563f ffdc 9f3e 28c4 92bf 0bfd 0ebe
00000080: fdda 78bf 585d e03e d984 593e 144f 8e3f
00000090: f43f 133e f4b9 343d 8b81 7cbf 38fe 8abf
000000a0: b60c 9ebd 8fac 0bbc 035a 89be 06d9 23bf
000000b0: 7a95 0dbe 4875 713e a089 90bd 21b4 9fbc
000000c0: 6c8a c83e 5943 7dbd 9b88 5fbd 611b 3abf
000000d0: c3d6 023e 8a55 3a3f 1b40 1fbe 6833 75bf
000000e0: 44c0 9b3e b8cb e5be 5bf8 c4bd 173f 6c3e
000000f0: 5df6 2e3e 9a54 ee3e 222f fabe e425 b1bf
-0.0087735085 -0.3002238 -0.043990795 0.5023761 -0.27739483 0.4136464 0.2839487 -0.376634
0.12805256 -0.22863515 0.17192972 -0.38931474 0.366017 0.20176695 0.020597942 -0.08364504
-0.25867185 -1.3090218 0.5810007 0.41449836 -0.06211117 0.46144226 -0.45114064 0.90229857
-0.6043309 0.87047637 0.24622771 -0.35409695 0.8384304 0.31223294 -1.1466112 -0.13963716
-0.9720915 0.43821216 0.21242084 1.1117883 0.14379865 0.04412265 -0.98635167 -1.0858831
-0.07717268 -0.008525028 -0.26826486 -0.64003026 -0.13826552 0.23579895 -0.070575 -0.019495072
0.39168108 -0.061831806 -0.054573637 -0.72698027 0.12777238 0.7278677 -0.15551798 -0.95781565
0.30420125 -0.44881988 -0.096176825 0.23070942 0.17086168 0.4654892 -0.48864084 -1.3839688

encoder_variable_selection.single_variable_grns.T2M.fc1.bias f4 [8]
00000000: 69a5 393e a578 e33d fe5d 0b3e 3d71 1c3e
00000010: 3e2c 1f3e e527 2a3e 5cae 1a3e 4831 1b3e
0.18129505 0.111069955 0.13610074 0.15277572 0.15544221 0.16616781 0.15105575 0.15155518

encoder_variable_selection.single_variable_grns.T2M.fc2.weight f4 [8, 8]
00000000: b8c5 5bba a1d4 553f d213 b53e 0bd4 21bf
00000010: 1f82 5ebf 9c9e 513f 09d7 d63e d90c 68bf
00000020: 2302 3dbf 424d 70be 974f 64bd f667 c9be
00000030: 3353 37bf 229b 0c3f 718b 5ebf 46c3 8fbe
00000040: 1acf 14bf 1216 803f e89f e73e 83ab 6abe
00000050: e4ba 143f 331e b3be 74a4 a9bc 83d2 a73e
00000060: 019b 61be b9ca e23d 97c2 6ebc fa0e ff3e
00000070: c806 aa3e 664b 82bf 7aab 8bbf 9063 49be
00000080: d0d9 aa3e 1eed 00bf f5b6 6d3f 58ee 1f3f
00000090: 3cd7 24bd 32ad 163f 5da1 ed3d fe21 823f
000000a0: 52ba 60be 37ff 773e 13c5 aabe 88e1 0b3f
000000b0: e2ae e9be 6011 773e e919 15be c084 1e3f
000000c0: fbc4 d3be 7bc6 9dbd 07ca c0bd 050e 263e
000000d0: 8b07 d83e 7e83 9c3e 8ac5 0abf cfa0 a53d
000000e0: 49b4 babe ba1a 04bf c6f7 21be bddd 283f
000000f0: 10a8 5e39 0e25 983d 2fe1 4b3f 4594 4a3e
-0.00083836494 0.8352757 0.35366684 -0.63214177 -0.869173 0.81882644 0.41960934 -0.90644604
-0.73831385 -0.23466972 -0.055739965 -0.39337128 -0.71611327 0.54924214 -0.8693152 -0.2807867
-0.5812851 1.0006735 0.45239186 -0.22916989 0.5809767 -0.34983978 -0.0207083 0.32777795
-0.22031786 0.110738225 -0.014572761 0.49816114 0.332083 -1.017926 -1.0911705 -0.19666886
0.33369303 -0.5036181 0.92857295 0.6247306 -0.040244326 0.58858025 0.11603043 1.0166624
-0.21946076 0.2421845 -0.3335348 0.5464101 -0.45641237 0.24127722 -0.14560665 0.6192131
-0.41361222 -0.07703873 -0.09413534 0.16216286 0.42193255 0.3056907 -0.5420767 0.080873124
-0.36465672 -0.5160328 -0.15817174 0.65963346 0.00021234178 0.074289426 0.7964048 0.19783123

encoder_variable_selection.single_variable_grns.T2M.fc2.bias f4 [8]
00000000: de2f 27be 4b40 1bbe f024 103e d256 103e
00000010: 2b76 173e 44fe 183e 5a93 bbbd 9851 243e
-0.16326854 -0.15161245 0.1407659 0.1409562 0.14791171 0.14940745 -0.091589645 0.1604675

encoder_variable_selection.single_variable_grns.T2M.gate_norm.glu.fc.weight f4 [32, 8]
00000000: 2fd2 d8be 2bc5 ddbe 1ebd 383e 44fb 9b3e
00000010: df4d aa3e 0858 8c3d 58bd 32be a042 9d3e
00000020: 5eaa a2be 820b 053e 6669 703e 7035 adba
00000030: 7213 923e 6daf d63d 0c39 cd3e 0803 19be
00000040: e1db 7a3e 229a dbbe bfdb 283e 4886 7e3e
00000050: 6e1a d83e 56cf fcbe a99f 463e 6fba a83d
00000060: 27b3 fe3e 1b35 773e 14ed a0bd bf15 ecbe
00000070: 900a f63d cd19 20be 2b9e c6be a9e8 323e
00000080: eb20 64be c7d5 19be 754c 633e 5e42 21be
00000090: 9ce0 ca3e 3d2c cdbe f9b5 863d 010c 3d3e
000000a0: 0784 803e 5c8e 033f 636e 043d 86ff fcbd
000000b0: e279 53be 2480 c2bd 9c48 f33e 409d e03e
000000c0: fab1 0f3d 2ea3 0cbe 2181 a23b 512a 143e
000000d0: 069e e03e ccc2 743c 02fb ad3e f0e6 13bd
000000e0: 1748 093f d0a2 733e 11fd 71be ec3b b23e
000000f0: f529 0ebf 7ce0 64be c9ab 1cbe 1088 c0bd
00000100: 82cb 033e 24ef 0a3e 76e1 88be 11ed 18be
00000110: 7206 d9be bd8b 6fbe 3af5 9bbe a673 553e
00000120: e494 07bf 5c58 6dbe 05fd 4e3e f3be 62be
00000130: eac7 693b a948 45be 8a6c 893e e907 61bc
00000140: e0d8 5fbd 8199 1e3e d980 f3bd c868 d5bd
00000150: ae34 a13d 7e66 a5be 1008 1c3d e846 3cbe
00000160: cac8 df3e f83a 033f 731c 74be 68b5 b7bb
00000170: bf13 1abe 3db0 c43d 47e3 523e db0d f03e
00000180: e7fc 613e 8e9d 0d3c 3cfb adbe 077f 02bf
00000190: 895e f8bd 4c1d bf3c 9f52 20be 99b6 b33e
000001a0: 92a9 123e 8c69 abbe 8df3 8e3e f935 ea3e
000001b0: a695 a13e 746b 793c 9f3f 063f 0ad8 593d
000001c0: b544 043e c337 ccbd d872 e43e da7d d43e
000001d0: 277d 1c3d 44ea 24be 7dfc 713e a540 5d3e
000001e0: a36a ae3e b8ab 1b3e 01ad 263e c523 5e3e
000001f0: fb2e dbbe 1498 0c3f 7b13 25be 6165 7f3d
00000200: a02b 9dbe 8cfc c5be 0afe f63e 5229 013f
00000210: 0c5c fe3e 41c6 24bc be8e e43d a21c 1bbe
00000220: cdd4 08be 760c debe 1632 0bbd 046f f13c
00000230: b5f6 13be e675 59be 3d13 143e d161 7f3d
00000240: c0dc 1b3e d2f5 1a3e c832 543e b466 033e
00000250: da56 523e f574 aebe 7440 0a3e 7c6f f6bc
00000260: 52b1 edbd 0390 57be be08 db3d 3e85 653e
00000270: 9ab1 cc3e 20ac a6bd 5682 d63e 3493 aebe
00000280: 2158 05bf 26b5 07bf 57dd 0cbe cc97 86be
00000290: eefc 84bd 7b96 343e e2cc 68bc 1043 29be
000002a0: 37b9 7e3d 6a28 cdbd 7f47 9e3e 618a a0be
000002b0: d417 1c3e d3bf 8e3d 06ed e9be 17b2 f0be
000002c0: d7f6 613e 4207 8b3e 1fee 913e af7c 423e
000002d0: 9457 dd3e 2adb d1bd e739 42be 9f86 fa3e
000002e0: 2b05 c93d 9fc4 4dbd 3589 bb3d 71e8 4a3e
000002f0: dc11 05bd 6f29 e1be 5dd5 003e e3d1 023f
00000300: ced8 8cbb 969a 04bf e5b9 be3e 2b82 c73e
00000310: 8314 f03e 3d2d 2ebd 38c9 773e 69ce 043f
00000320: 83f9 1d3e 0bad f4be 288c e93e 6caa e73e
00000330: aa81 78bd 2f25 f1be 4e5a 843e d08a d7bd
00000340: 967b d13e 292e e83e c397 e0be bc3e 04bf
00000350: 73be 20bd 65ab d13d 8502 62be 9198 94bd
00000360: 26dc f6be bd99 6f3d 8912 f23e cf55 97bd
00000370: 71a4 723e f24f 233e ba3b dd3d 3c36 623e
00000380: 4bfc 5cbe 6e7a e9bd 3686 e43e 9363 f73e
00000390: 8070 263d 1e5b 86be 1c7b c8bc afbe 0fbe
000003a0: e0b3 ea3d 2ebc d9be 8521 3a3e 62f1 e13e
000003b0: cf53 e03e af76 1c3e f2ba 263e e537 b53e
000003c0: 878c 163e 4e8a ca3a 5f7a 01bf ba55 e83b
000003d0: 884b 3e3c 99f4 33be 13c1 e1be 51da db3e
000003e0: a97a a4be 16cb 32be a0ef 53b9 cfcd 4dbe
000003f0: 4d02 ac3e a392 e1bd 743d 6a3e 1e57 36be
-0.42347857 -0.4331449 0.18040892 0.30465138 0.33262536 0.06852728 -0.17455041 0.30714893
-0.31770605 0.12992671 0.23477706 -0.0013214778 0.2853046 0.104826786 0.40082586 -0.14942563
0.2449794 -0.42891032 0.16490076 0.24855912 0.42207664 -0.49376935 0.19396843 0.082386844
0.49746057 0.24141352 -0.07857719 -0.4611034 0.120137334 -0.15634842 -0.38792548 0.17471565
-0.22278182 -0.15022956 0.22197135 -0.15747973 0.39624488 -0.40072814 0.06577677 0.1846161
0.2510073 0.513891 0.032331835 -0.12353425 -0.20651963 -0.09497097 0.47516334 0.43869972
0.03508184 -0.13734123 0.004959241 0.14469267 0.43870562 0.014939021 0.33980566 -0.03610891
0.53625625 0.23792577 -0.23631693 0.34811342 -0.5553277 -0.22351259 -0.15299906 -0.09400952
0.12870601 0.13567787 -0.26734513 -0.14934184 -0.4238773 -0.2339315 -0.3046053 0.20844898
-0.52961564 -0.23178238 0.20213707 -0.22143154 0.0035672137 -0.19265999 0.2684062 -0.013734796
-0.054650187 0.15488245 -0.1188981 -0.10420376 0.07871376 -0.32304758 0.038093626 -0.18386424
0.43707877 0.51261854 -0.23838978 -0.005606342 -0.15046595 0.09603927 0.20594512 0.4688557
0.22069131 0.008643521 -0.3398074 -0.5097508 -0.12127406 0.0233294 -0.15656517 0.35100248
0.14322498 -0.33478963 0.2792019 0.45744303 0.31559485 0.015223373 0.5244083 0.053184547
0.12916835 -0.09971573 0.4461887 0.41502267 0.038205292 -0.1610499 0.23631473 0.21606691
0.34065732 0.15202224 0.16276933 0.21693332 -0.4280928 0.5491955 -0.16120712 0.06235254
-0.30697346 -0.3866924 0.4824069 0.50453675 0.496796 -0.010057033 0.111600384 -0.15147641
-0.13362427 -0.43368882 -0.033983313 0.029471882 -0.1444958 -0.21236381 0.14460464 0.062349144
0.15220928 0.15132836 0.20722497 0.12832147 0.20540944 -0.34073606 0.1350115 -0.030082457
-0.11606087 -0.2105103 0.10695027 0.22414109 0.3997925 -0.08138299 0.41896313 -0.34096682
-0.520876 -0.53010786 -0.1375631 -0.26287687 -0.06493555 0.17635529 -0.014209004 -0.16529489
0.062188353 -0.10017474 0.30913922 -0.31355575 0.15243465 0.06970181 -0.45688647 -0.47010872
0.22066818 0.27153975 0.28501984 0.18992876 0.4323088 -0.1024688 -0.189674 0.48930833
0.09815439 -0.05023634 0.091570295 0.19815232 -0.032487735 -0.43976924 0.12581392 0.5110151
-0.004298306 -0.5179838 0.372512 0.38966498 0.4689065 -0.04252361 0.24197853 0.51877457
0.15427212 -0.4778827 0.45614743 0.4524721 -0.060670532 -0.4709868 0.25850147 -0.10524523
0.409146 0.45347717 -0.43865785 -0.51658225 -0.039244127 0.10237769 -0.22071274 -0.07255662
-0.48214835 0.058496226 0.47279766 -0.073894136 0.23695542 0.15948465 0.108024076 0.22091001
-0.21580617 -0.11400305 0.44633645 0.48318157 0.040634632 -0.26241392 -0.024472766 -0.14037584
0.1146009 -0.42526382 0.18176849 0.44129473 0.4381394 0.15279649 0.16282251 0.35394207
0.14702044 0.0015452595 -0.5057735 0.0070902975 0.011614688 -0.17573775 -0.44092616 0.4294
-0.32124832 -0.17460284 -0.00020211795 -0.20098041 0.33595505 -0.11014297 0.22875005 -0.1780667

encoder_variable_selection.single_variable_grns.T2M.gate_norm.glu.fc.bias f4 [32]
00000000: 29e1 173e 2e71 273e c023 0f3e fcf1 6a3d
00000010: 7b1a 183e c798 19be 719c 4cbe 5ef7 29be
00000020: ff0d 16be a727 06be 2e62 163e 9ea1 12be
00000030: 7c0c 0bbe 6d64 203e b1a4 153e 2a74 25be
00000040: af47 1b3e cb62 203e e215 0b3e f42b 153e
00000050: f535 1c3e 773d 1a3e a60c 9d3d dcfc 283e
00000060: 2d7e 153e 6dfe 153e 5c4f 18be bddd 0f3e
00000070: 492c 0f3e bb5f 0e3e 86bb 16be d8d4 253e
0.14831986 0.16351768 0.13978481 0.05735968 0.14853851 -0.14999686 -0.19981553 -0.1659827
-0.14653777 -0.13101064 0.1468589 -0.14319465 -0.13578981 0.1566331 0.14613606 -0.16157594
0.15164064 0.15662687 0.13582566 0.14567548 0.15254958 0.1506251 0.07668428 0.16502708
0.14598913 0.14647837 -0.14874023 0.1404943 0.13981737 0.13903706 -0.14719972 0.16194475

encoder_variable_selection.single_variable_grns.T2M.gate_norm.add_norm.norm.weight f4 [16]
00000000: 246d 913f 43aa 5e3f 1e1d 5c3f f81d 5f3f
00000010: f614 933f f6cc 593f 739f 823f 5891 593f
00000020: 2d72 5a3f 9c22 5c3f 9037 933f 0b61 913f
00000030: 6c10 913f 3e7b 583f ffdf 593f 7248 953f
1.1361432 0.8697855 0.8598193 0.87155104 1.1490772 0.8507837 1.020491 0.849874
0.8533047 0.8599031 1.1501331 1.135774 1.1333137 0.8456305 0.85107416 1.1662734

encoder_variable_selection.single_variable_grns.T2M.gate_norm.add_norm.norm.bias f4 [16]
00000000: 8f56 113e 9d5a 243e 915e 103e 8ff8 043e
00000010: 472c 173e 87a6 18be eea6 4ebe 18c1 25be
00000020: 0d1a 16be 9bd9 17be 6b85 183e 4386 10be
00000030: 7278 08be a4a8 1f3e cc35 193e 0bc6 25be
0.14193176 0.16050191 0.14098574 0.12985443 0.14762984 -0.14907275 -0.20180866 -0.1618694
-0.14658375 -0.14829104 0.14894645 -0.14113717 -0.13327196 0.15591675 0.14961928 -0.16188829

encoder_variable_selection.single_variable_grns.T2M_MAX.resample_norm.mask f4 [16]
00000000: 3055 22be 71cf 42be 3887 2abd 25ac 03be
00000010: 69ac 1ebe 4e18 193e fd2b 08be de85 1a3e
00000020: ed0e 173e df42 153e 56f8 1f3e 3b48 20be
00000030: d1d5 0d3e 75d7 f2bd 5281 18be 2e7e c7bd
-0.15852809 -0.19024445 -0.04163286 -0.12858637 -0.15495457 0.14950678 -0.1329803 0.15090129
0.14751787 0.1457629 0.15622076 -0.15652554 0.13851096 -0.118575014 -0.14893082 -0.09740864

encoder_variable_selection.single_variable_grns.T2M_MAX.resample_norm.norm.weight f4 [16]
00000000: 8d7c 943f 9e45 983f b231 8e3f e24a 923f
00000010: 6250 563f 674c 933f 38c5 5a3f f65c 913f
00000020: e5ce 923f 5119 933f e46f 953f db3f 593f
00000030: c3e6 663f 5240 653f e93a 5a3f 3511 5b3f
1.160051 1.1896245 1.1108916 1.1429102 0.83716404 1.1507691 0.8545718 1.1356494
1.1469389 1.1492101 1.1674771 0.8486306 0.90195864 0.8955127 0.8524614 0.8557313

encoder_variable_selection.single_variable_grns.T2M_MAX.resample_norm.norm.bias f4 [16]
00000000: e889 1e3e 39b7 4d3e a90d 053e 00d2 0b3e
00000010: 41fb 173e 02a5 17be 8da9 fe3d dda2 29be
00000020: f8a7 16be 10fc 1a3e 1aac 223e 9b18 14be
00000030: c00c 07be 46c2 1f3e 5c19 193e 0e18 c43d
0.15482295 0.20089425 0.12993492 0.13654327 0.1484194 -0.14809039 0.12434683 -0.16566034
-0.14712512 0.15135217 0.15885964 -0.14462511 -0.13188457 0.15601453 0.1495108 0.095749006

encoder_variable_selection.single_variable_grns.T2M_MAX.fc1.weight f4 [8, 8]
00000000: fc8c a1be 1f2f 873e 94e5 843f d19c cdbd
00000010: be65 663e 5aac 253e 845f eebe 7de1 30bf
00000020: dc95 bdbe 73f5 2f3f 02e5 39be f84a 9c3e
00000030: b10e c23c b1f3 b3be e41f 263f 66e7 29be
00000040: 0b3b 0a3f d8d1 c3be 8016 353f 3ba2 333f
00000050: 71eb 12be 5619 003e b36f 543d c078 0cbf
00000060: 77bf d4be d028 cfbe f87c 5c3f 8dd6 523d
00000070: c119 36bf 309d a23e 0387 183f 1315 eebc
00000080: 44c1 efbd d327 5bbf b373 d3be 2f75 2ebf
00000090: be13 553d b6ee 233f 4958 82bf b70e 11bd
000000a0: e1e2 b5bd 09d6 893f b575 923e 783f 0c3f
000000b0: 6a04 34be 0075 bb37 cf3f bf3e f4c9 3bbf
000000c0: 76fb 503f 463a fbbe d571 9a3f 10e4 a4be
000000d0: 99e4 89be 3af8 773e ed86 303f 3646 c23d
000000e0: 843a 03be 46af 42be 3ba9 0e3d 0f72 8e3f
000000f0: 3671 c23d f32f 823e 5c95 533c da0d 2c3d
-0.31552875 0.26403138 1.0382562 -0.10039676 0.22499749 0.16179028 -0.46557248 -0.6909407
-0.37028396 0.687339 -0.18153766 0.30525947 0.023688646 -0.3514686 0.6489241 -0.16592178
0.5399634 -0.38246036 0.7073746 0.7016942 -0.14347626 0.12509665 0.051864337 -0.5487175
-0.41552326 -0.40460825 0.8612819 0.051474143 -0.7113305 0.3176055 0.5958101 -0.029062783
-0.11706784 -0.8560764 -0.4129921 -0.6814756 0.05202078 0.6403612 -1.0183192 -0.035414424
-0.08881164 1.0768443 0.28605428 0.54784346 -0.17579809 2.234662e-05 0.3735337 -0.7335503
0.816337 -0.49067897 1.2065989 -0.32205248 -0.2693222 0.24215785 0.6895588 0.09486048
-0.1281529 -0.19012174 0.03482936 1.1128558 0.094942495 0.25427207 0.012914028 0.042005397

encoder_variable_selection.single_variable_grns.T2M_MAX.fc1.bias f4 [8]
00000000: 0b5a 183e 91d6 cfbd 35e7 1a3e 8b39 1abe
00000010: ccfb 173e b85d 08be 1aac 10be bee6 14be
0.14878099 -0.10148347 0.15127261 -0.15061013 0.14842147 -0.13317001 -0.14128152 -0.14541146

encoder_variable_selection.single_variable_grns.T2M_MAX.fc2.weight f4 [8, 8]
00000000: b13e c7bd 640f c53d 7fd0 a5be 5fd5 03bf
00000010: 702c 41be d596 0cbf 5194 73bf 62cd ba3e
00000020: 56ec 17bf cab3 943d eca6 023e e884 93be
00000030: c032 e4be 6fbe dd3e a0de 05bf fa70 803e
00000040: 1992 e83c d4f6 94be 127e 603f b42e 983e
00000050: 32f4 82be ff23 8cbe dcd9 3c3e 47c7 04bf
00000060: 965f 37bf c426 8a3d 627a 84be 4c89 313e
00000070: f25f 3bbf 7d0b 1e3e 2a5f 723c 01cd f4be
00000080: d39f fdbe 7a5b bbbe 2720 3abf f764 27bf
00000090: 4f35 463f 3626 17bf 296f 51be 39d0 883e
000000a0: 53bb 15be 27f7 47bf c80c 12bf 73a5 eb3e
000000b0: 4c3b 4ebd 8d33 423e 1184 debe b3d3 df3e
000000c0: ebd6 923d b7f0 27bf ac11 d23d e461 9bbe
000000d0: 7a35 223f ee36 3ebe bd55 47bf e853 3dbe
000000e0: bc9f c53e e9c1 1a3f 0417 ca3e fb73 56be
000000f0: 2456 003c 3d9a de3d 0f4b 093f 6fa4 efbe
-0.09728754 0.09622076 -0.32385632 -0.51497453 -0.18864608 -0.5491765 -0.9514819 0.3648482
-0.59344995 0.072608545 0.12758988 -0.28812337 -0.4456997 0.43309352 -0.52292824 0.25086194
0.028389977 -0.29094565 0.8769237 0.29723132 -0.2557693 -0.27371213 0.18442482 -0.51866573
-0.7163023 0.06745675 -0.2587462 0.17337531 -0.73193276 0.1543407 0.014793197 -0.47812656
-0.49536 -0.3659323 -0.7270531 -0.65388435 0.7742509 -0.5904268 -0.2045256 0.2672136
-0.1462224 -0.781115 -0.5705075 0.46024665 -0.05034952 0.18964978 -0.43460134 0.437162
0.071698986 -0.65601677 0.10257277 -0.30348122 0.6336285 -0.18575642 -0.778652 -0.18489039
0.3859843 0.60452133 0.39470685 -0.2094268 0.0078330375 0.10869262 0.53630155 -0.4680514

encoder_variable_selection.single_variable_grns.T2M_MAX.fc2.bias f4 [8]
00000000: 3a13 073e 5253 12be 6b55 9fbd 211e 1dbe
00000010: ef14 24be a1b3 5b3d b03e 163e 0187 1f3e
0.13190928 -0.14289597 -0.07779964 -0.15343525 -0.1602361 0.053638104 0.14672351 0.15578844
