ai_predict/ai/lightning_logs/version_21/checkpoints/epoch=1-step=16.ckpt (torch, 662004 bytes, 889 tensors)

prescalers.time_idx.weight f4 [8, 1]
0	0xbf751761	-0.957388
1	0xbf43aa1d	-0.7643145
2	0x3e482dd8	0.19548738
3	0xbeb57ac2	-0.3544522
4	0x3e33dded	0.17565127
5	0xbe91b87d	-0.28461066
6	0x3e6805e1	0.22658493
7	0x3f20d437	0.62823814

prescalers.time_idx.bias f4 [8]
0	0x3efe5989	0.49677685
1	0x3f6cc51b	0.9248826
2	0xbf0219fc	-0.508209
3	0x3e6b48b9	0.2297696
4	0xbf843ab4	-1.0330415
5	0xbf824e5b	-1.0180162
6	0x3f007d82	0.5019151
7	0x3dc41a03	0.09575274

prescalers.T2M.weight f4 [8, 1]
0	0xbf3260f9	-0.6967922
1	0xbd9d28fb	-0.07673832
2	0xbe9e792b	-0.3095182
3	0x3ef2b946	0.47406977
4	0x3f170389	0.5898977
5	0xbddb5785	-0.107100524
6	0x3ede3410	0.43399096
7	0x3e972a7d	0.29524603

prescalers.T2M.bias f4 [8]
0	0xbf156adb	-0.58366174
1	0x3eca876c	0.39556444
2	0x3db65739	0.08903355
3	0x3f596f79	0.8493572
4	0xbe76182e	-0.24032661
5	0xbf6d8b67	-0.92790836
6	0x3f7bfdbe	0.98434055
7	0xbf2f6bb4	-0.68523717

prescalers.T2M_MAX.weight f4 [8, 1]
0	0xbdb2648b	-0.08710583
1	0xbf8e0dc0	-1.1097946
2	0x3f564a05	0.83706695
3	0x3f6bb675	0.9207528
4	0x3ed8115d	0.42200747
5	0xbf62c944	-0.88588357
6	0x3ea30986	0.31843203
7	0x3f0ea199	0.5571533

prescalers.T2M_MAX.bias f4 [8]
0	0xbf1c4c7f	-0.61054224
1	0x3eef03e3	0.46682653
2	0x3f142ddd	0.5788248
3	0xbf38c50d	-0.72175676
4	0xbf22d84b	-0.63611287
5	0xbd8c0e1b	-0.06838628
6	0xbf6c64b6	-0.9234117
7	0xbd6d82dd	-0.05798613

prescalers.T2M_MIN.weight f4 [8, 1]
0	0x3dc39cc6	0.095513865
1	0x3db64e09	0.08901603
2	0x3efa1ee8	0.48851705
3	0x3f155aca	0.5834166
4	0xbda4e289	-0.08051021
5	0xbf54bf11	-0.83104044
6	0xbf32f9b8	-0.6991229
7	0xbf689c35	-0.90863353

prescalers.T2M_MIN.bias f4 [8]
0	0x3f20a6a8	0.627543
1	0x3ef916a8	0.48650098
2	0xbeb22ec1	-0.34801295
3	0x3f4450b4	0.76685643
4	0x3e2f4e51	0.17119719
5	0x3ee05e66	0.4382202
6	0x3f7b4b28	0.98161554
7	0xbe40c3f8	-0.18824756

prescalers.PRECTOTCORR.weight f4 [8, 1]
0	0xbe8fb9a5	-0.28071323
1	0x3f5706c8	0.8399472
2	0x3e2ffef7	0.17187105
3	0xbee48bee	-0.44638008
4	0xbe9f4289	-0.3110545
5	0xbf534021	-0.8251973
6	0x3e53d239	0.20685662
7	0x3f0ebd83	0.5575792

prescalers.PRECTOTCORR.bias f4 [8]
0	0x3d6ab0f4	0.057297662
1	0xbd30b73b	-0.043143492
2	0x3f24a09d	0.64307576
3	0x3ed81473	0.42203102
4	0x3f13b780	0.57701874
5	0x3df0664f	0.11738264
6	0x3f1935d5	0.59847766
7	0xbdcfb810	-0.10142529

prescalers.RH2M.weight f4 [8, 1]
0	0x3f6678c7	0.9002804
1	0x3f545e87	0.8295674
2	0xbdd2d1eb	-0.10293945
3	0xbf5da5fd	-0.86581403
4	0xbccf791a	-0.0253263
5	0x3f096042	0.536625
6	0xbf57770a	-0.84166014
7	0xbf2ee446	-0.6831707

prescalers.RH2M.bias f4 [8]
0	0x3f34cdfe	0.7062682
1	0xbe657e20	-0.22411394
2	0x3f4f839a	0.81060183
3	0x3f151042	0.5822793
4	0x3e1193c5	0.14216526
5	0xbecb6337	-0.39724132
6	0x3f91bb37	1.1385258
7	0x3f21d481	0.6321488

prescalers.ALLSKY_SFC_SW_DWN.weight f4 [8, 1]
0	0x3e3e6780	0.1859417
1	0xbe0ae1b1	-0.13562657
2	0x3f6c4e46	0.92306936
3	0x3ed4c942	0.41559798
4	0x3f58de87	0.8471455
5	0x3d23a663	0.0399536
6	0x3ea79fdb	0.32739148
7	0xbf565c4a	-0.8373457

prescalers.ALLSKY_SFC_SW_DWN.bias f4 [8]
0	0x3f86d7ee	1.0534647
1	0xbf212601	-0.62948614
2	0xbf0d6b34	-0.55241704
3	0xbf9b1076	-1.2114398
4	0x3f19051b	0.59773415
5	0x3f0eeb29	0.55827576
6	0x3f34d5dc	0.70638824
7	0xbf5c92e7	-0.86161655

prescalers.numero_casos.weight f4 [8, 1]
0	0xbe951572	-0.29117924
1	0x3e9adb74	0.30245554
2	0xbf43366e	-0.7625493
3	0x3f7d9626	0.99057233
4	0x3f741dab	0.9535777
5	0xbf43f8ff	-0.7655181
6	0xbf26d0de	-0.65162456
7	0x3f365c80	0.71234894

prescalers.numero_casos.bias f4 [8]
0	0x3f2a7e8a	0.66599333
1	0x3f389f78	0.7211833
2	0xbf113284	-0.56717706
3	0xbebc13cf	-0.36733863
4	0xbe1348f4	-0.14383298
5	0xbf1bb9be	-0.60830295
6	0xbf6c3ec9	-0.922833
7	0x3f112984	0.5670397

static_variable_selection.single_variable_grns.municipio.mask f4 [16]
0	0x3e18f52e	0.14937279
1	0x3e184ad1	0.1487229
2	0xbe194d3f	-0.14970873
3	0x3e1902e3	0.14942507
4	0xbe18ea14	-0.14933044
5	0xbe1923e9	-0.14955105
6	0x3e19193e	0.14951035
7	0xbe192519	-0.14955558
8	0x3e193c8b	0.14964502
9	0xbe1964e9	-0.149799
10	0xbe19123d	-0.14948364
11	0x3e187dc1	0.14891721
12	0xbe18e9ae	-0.14932892
13	0xbe189991	-0.14902331
14	0x3e194020	0.14965868
15	0xbe18895e	-0.14896151

static_variable_selection.single_variable_grns.municipio.norm.weight f4 [16]
0	0x3f501b7a	0.81291926
1	0x3f58c254	0.8467152
2	0x3f968f17	1.1762418
3	0x3f540a03	0.82827777
4	0x3f511cdf	0.8168468
5	0x3f91b8a1	1.1384469
6	0x3f7e9029	0.9943872
7	0x3f96ea67	1.1790284
8	0x3f96ab47	1.177102
9	0x3f934b56	1.1507366
10	0x3f8cb84e	1.0993745
11	0x3f5812c7	0.8440365
12	0x3f65e3c4	0.8980067
13	0x3f5f5585	0.8723987
14	0x3f9502b8	1.1641455
15	0x3f530078	0.8242259

static_variable_selection.single_variable_grns.municipio.norm.bias f4 [16]
0	0x3e17fca1	0.14842464
1	0x3e152634	0.14565355
2	0xbe1abddb	-0.15111487
3	0x3e185371	0.1487558
4	0xbe17fe8f	-0.148432
5	0xbe1989da	-0.14993992
6	0x3e1910c0	0.14947796
7	0xbe19b752	-0.15011337
8	0x3e19f52f	0.15034936
9	0xbe1b2d51	-0.15154006
10	0xbe195ef1	-0.14977624
11	0x3e1603a7	0.14649831
12	0xbe18574a	-0.14877048
13	0xbe16653c	-0.14687055
14	0x3e19f7f9	0.15036
15	0xbe13586d	-0.143892

encoder_variable_selection.flattened_grn.resample_norm.mask f4 [8]
0	0x3d115bfd	0.035488117
1	0x3dd08f81	0.10183621
2	0xbe284b75	-0.16435035
3	0x3de1e26e	0.11029516
4	0x3e60c839	0.21951379
5	0x3dbb7bca	0.0915447
6	0x3e6b06ce	0.22951815
7	0xbe633762	-0.22189096

encoder_variable_selection.flattened_grn.resample_norm.norm.weight f4 [8]
0	0x3f82abe9	1.0208713
1	0x3f5821e4	0.84426713
2	0x3f54b497	0.8308806
3	0x3f8ac0d4	1.0840096
4	0x3f9ef2fb	1.2417902
5	0x3f9c9242	1.2232134
6	0x3f9cc1ee	1.2246683
7	0x3f3f4944	0.7472117

encoder_variable_selection.flattened_grn.resample_norm.norm.bias f4 [8]
0	0x3d20045d	0.03906666
1	0x3db3e757	0.08784359
2	0xbe2c6ee3	-0.16839175
3	0x3de12091	0.1099254
4	0x3e154208	0.1457597
5	0xbe4feb4b	-0.20304601
6	0x3e645d3f	0.22301196
7	0xbde42dd1	-0.11141551

encoder_variable_selection.flattened_grn.fc1.weight f4 [8, 64]
0	0x3ec2ea8b	0.38069567
1	0xbc697c98	-0.014250897
2	0xbe0feeb9	-0.14055909
3	0xbdc8e4ce	-0.09809266
4	0xbee67055	-0.45007578
5	0xbe842bb3	-0.2581459
6	0xba3b7288	-0.00071505504
7	0x3d3a45fb	0.045476895
8	0xbe55c85f	-0.20877217
9	0xbce1e59d	-0.027575308
10	0x3dc34ce1	0.09536148
11	0x3f37d3d2	0.7180759
12	0x3dd1921c	0.10232946
13	0xbe922475	-0.2854344
14	0x3efaf975	0.49018446
15	0xbf219474	-0.63117146
16	0xbe40a97a	-0.1881465
17	0xbe06db16	-0.13169512
18	0x3e5b74ff	0.21431349
19	0x3dde4baa	0.108542755
20	0xbd8de13f	-0.06927728
21	0xbc62aa75	-0.013834585
22	0xbe8de17f	-0.27711102
23	0xbbfdc101	-0.007743955
24	0x3eaf7072	0.34265476
25	0x3f41dd55	0.7572835
26	0xbebbd746	-0.36687678
27	0x3c42da5e	0.011892883
28	0x3e14bab8	0.14524353
29	0x3f1bbd49	0.608357
30	0x3debc512	0.115121976
31	0x3d601bbe	0.054713957
32	0x3dae97ba	0.08525033
33	0xbedabbe6	-0.4272148
34	0x3e82e5c3	0.2556592
35	0x3e574090	0.21020722
36	0x3df08a5e	0.117451414
37	0x3e749521	0.23885013
38	0xbd661b34	-0.056178287
39	0xbf17ef5e	-0.5934962
40	0xbe88badb	-0.2670506
41	0xbda15523	-0.07877567
42	0x3d88709c	0.066621035
43	0x3d64272b	0.055701416
44	0x3e597beb	0.21238677
45	0xbd53e924	-0.051736012
46	0xbda69d60	-0.08135486
47	0x3b02ba9d	0.0019947656
48	0x3d2da016	0.042388998
49	0xbf0eb5bc	-0.55746055
50	0xbea7b31d	-0.3275384
51	0xbe0b78b0	-0.13620257
52	0x3e69f81d	0.22848554
53	0x3f25587e	0.64588153
54	0x3ea03f38	0.31298232
55	0xbf21f69f	-0.6326694
56	0x3e4991c3	0.1968451
57	0x3e4acdbe	0.19805047
58	0xbe06f61b	-0.1317982
59	0x3e1792c2	0.14802077
60	0xbe49fdd5	-0.19725735
61	0xbd3aa9cb	-0.045572083
62	0xbe122ecd	-0.14275666
63	0x3e85da1d	0.2614297
64	0xbdecc8bf	-0.11561727
65	0xbee3e232	-0.4450851
66	0x3e8491c8	0.25892472
67	0xbe042747	-0.12905608
68	0x3e86faca	0.26363212
69	0x3ed2e92a	0.41193515
70	0xbeb2e186	-0.34937686
71	0x3c9b3ad5	0.018948952
72	0x3df9a341	0.12189341
73	0xbdb85b31	-0.090017684
74	0xbf04efd5	-0.51928455
75	0x3d0bff33	0.034178924
76	0x3d715868	0.0589222
77	0xbe92e09d	-0.2868699
78	0xbe1b848b	-0.1518728
79	0xbdcf6114	-0.10125938
80	0x3f390fc1	0.72289664
81	0x3d60d878	0.05489394
82	0xbd171ec2	-0.036894567
83	0x3e0ea4ae	0.13930008
84	0x3f2a78ed	0.6659077
85	0x3e81eba9	0.25375107
86	0x3e9cef90	0.30651522
87	0xbf0724ef	-0.5279073
88	0xbd91f756	-0.07127254
89	0x3cd22d08	0.025656238
90	0x3e83ecdd	0.2576665
91	0xbe911fca	-0.28344566
92	0x3e47f4c5	0.19526966
93	0xbe23b0a6	-0.15985355
94	0xbf007f95	-0.50194675
95	0x3e2e0fec	0.16998261
96	0x3dc26058	0.09491032
97	0x3e10690b	0.1410257
98	0x3e66dc2a	0.22544923
99	0xbec18518	-0.37796855
100	0x3e90aed0	0.2825837
101	0xbd53e956	-0.0517362
102	0xbd166a60	-0.03672254
103	0x3d9b7772	0.07591142
104	0x3e98312e	0.2972502
105	0xbdd214f5	-0.102579035
106	0xbe89830f	-0.26857802
107	0xbdddfd5c	-0.1083934
108	0xbed879cf	-0.42280433
109	0x3c8b0d7e	0.016974207
110	0xbe9cf5e0	-0.30656338
111	0xbce85b27	-0.028363777
112	0xbe5be743	-0.21474938
113	0x3e45e533	0.19325714
114	0x3dd2ca74	0.10292521
115	0x3e0d12a3	0.1377664
116	0xbf07e443	-0.53082675
117	0xbea23a63	-0.3168517
118	0xbe1a05d9	-0.15041293
119	0x3e22a132	0.15881804
120	0xbd0e1bb9	-0.034694407
121	0xbe41d223	-0.18927817
122	0xbcfad772	-0.03062031
123	0x3db74dc6	0.08950381
124	0xbe706510	-0.23476052
125	0x3eb8e69f	0.3611345
126	0xbe433137	-0.19061743
127	0xbe2b62a3	-0.16736846
128	0xbdee38de	-0.1163194
129	0x3dc5ae44	0.09652379
130	0x3ed3bbb4	0.41354144
131	0x3ec2e19a	0.38062745
132	0xbd7c5348	-0.06160286
133	0x3ea3310e	0.31873363
134	0xbe00f995	-0.12595208
135	0xbe9a0cf4	-0.30088007
136	0x3e3edd0a	0.18639007
137	0xbe3fed03	-0.18742757
138	0xbb66bb41	-0.0035206827
139	0x3d746d3f	0.059674498
140	0x3e8b5cae	0.27219146
141	0x3e4430c2	0.19159225
142	0xbe80118e	-0.25013393
143	0x3d2dde66	0.042448424
144	0x3e4d28f2	0.2003515
145	0x3e8accc6	0.27109355
146	0x3ca3a132	0.019974325
147	0xbd89a307	-0.06720548
148	0x3dd2f4e3	0.10300615
149	0x3e8e6aa9	0.2781575
150	0x3d9533a1	0.07285238
151	0x3e02c59f	0.12770699
152	0xbe93e936	-0.28888863
153	0xbe848cd7	-0.25888702
154	0x3e3e6113	0.18591718
155	0x3ead6008	0.3386233
156	0xbe4d7b48	-0.2006656
157	0xbdae675b	-0.08515807
158	0xbebf6350	-0.37380457
159	0xbdc7d2f3	-0.09757032
160	0xbebfd5ff	-0.37467954
161	0x3e9afc01	0.3027039
162	0xbea6c3eb	-0.3257135
163	0xbe8ada9b	-0.27119908
164	0xbe5c8eef	-0.215389
165	0xbeb48c89	-0.3526347
166	0xbee77646	-0.45207423
167	0x3e481a20	0.19541216
168	0x3cfd9617	0.030955357
169	0x3e7c3fd5	0.24633725
170	0x3d2ac227	0.041689064
171	0xbeecaba6	-0.46224707
172	0xbe600d9f	-0.21880196
173	0x3e24feee	0.16112873
174	0xbd1d7df4	-0.038450196
175	0xbef23202	-0.47303778
176	0xbec2bf58	-0.3803661
177	0x3ed938d2	0.42426163
178	0x3e62be5f	0.22142933
179	0x3e64c67f	0.22341345
180	0xbe990a58	-0.29890704
181	0xbedbb414	-0.42910826
182	0xbe5d814b	-0.21631353
183	0x3df35fa1	0.11883474
184	0xbef0985d	-0.46991244
185	0xbe8c1f86	-0.273678
186	0x3ef15a77	0.47139332
187	0x3e0aaf9c	0.13543552
188	0x3b023f2c	0.001987408
189	0x3e1acc0a	0.15116897
190	0x3ebb8505	0.36624923
191	0xbe1b031b	-0.15137903
192	0xbdd0ce7d	-0.101956345
193	0xbe8b5fb4	-0.27221453
194	0x3c76ed0e	0.015071167
195	0xbe2f68a7	-0.17129765
196	0x3e570c33	0.21000747
197	0x3dc58fbb	0.09646555
198	0xbe9ff9ef	-0.31245372
199	0xbd816c79	-0.06319518
200	0x3bed9afe	0.0072511425
201	0x3dcdb079	0.10043425
202	0xbdc7cb76	-0.09755604
203	0xbe92c9d3	-0.28669605
204	0x3c6edebf	0.014579474
205	0x3cac3301	0.021020414
206	0xbdbb82e6	-0.09155826
207	0xbe0c59be	-0.13706109
208	0xbdfebe46	-0.124386355
209	0x3dd4b208	0.10385519
210	0xbdbfba32	-0.09361686
211	0xbdb82cc8	-0.08992916
212	0x3e6ee7bb	0.23330586
213	0x3e64acf2	0.22331598
214	0xbd4209e9	-0.047372732
215	0xbe04ace9	-0.12956585
216	0xbf0d3771	-0.5516272
217	0xbdedcbdc	-0.11611149
218	0xbd9bbc1f	-0.076042406
219	0x3c81f30e	0.015862968
220	0xbcbb757e	-0.022883173
221	0xbe4ff1f8	-0.20307148
222	0xbdf6575c	-0.12028381
223	0x3e8daa53	0.2766901
224	0x3f076540	0.5288887
225	0x3e3fea1f	0.18741654
226	0xbbf9d262	-0.0076239565
227	0xbcf82257	-0.030289812
228	0x3d8edc08	0.069755614
229	0x3dbc9a11	0.09209073
230	0xbe3f3567	-0.18672715
231	0xbdc481f0	-0.09595096
232	0x3e14226c	0.14466256
233	0x3eaba2af	0.33522555
234	0xbe6abcdf	-0.22923611
235	0xbe64d4e6	-0.2234684
236	0x3e7bfb94	0.24607688
237	0xbd0c56d1	-0.034262482
238	0xbd01f9da	-0.031732418
239	0xbdba54a1	-0.09098173
240	0xbe45df9d	-0.19323583
241	0x3e649a55	0.22324498
242	0xbd1ccce0	-0.03828132
243	0x3ea34914	0.31891692
244	0xbe22d3c4	-0.15901095
245	0xbe205b91	-0.1565993
246	0x3d593ae2	0.05303467
247	0x3d1c0256	0.038088165
248	0xbe387a7a	-0.18015471
249	0xbe552c21	-0.20817615
250	0xbe5d4e84	-0.21611983
251	0x3e3ef0e6	0.18646583
252	0x3e86c181	0.26319507
253	0xbdbec952	-0.093157426
254	0xbe2a1a39	-0.16611566
255	0xbe0fd0d2	-0.14044502

encoder_variable_selection.flattened_grn.fc1.bias f4 [8]
0	0x3e7972cd	0.243602
1	0xbe2af16c	-0.16693658
2	0xbe7178de	-0.23581263
3	0xbe17c5cc	-0.14821547
4	0xbe1311bb	-0.14362232
5	0xbd18d3e5	-0.037311453
6	0x3e15e037	0.14636312
7	0xbe10d85b	-0.14145033

encoder_variable_selection.flattened_grn.context.weight f4 [8, 16]
0	0x3ee69399	0.45034483
1	0xbee276f8	-0.4423139
2	0xbe5c6fc7	-0.21527015
3	0x3f0c10a7	0.5471291
4	0xbf0af80f	-0.5428476
5	0x3e0ca393	0.13734274
6	0xbf01804c	-0.5058639
7	0xbeba7f9a	-0.36425477
8	0x3f19df6a	0.6010653
9	0x3e946e17	0.28990242
10	0xbf1da700	-0.61582947
11	0x3e9e3c76	0.30905503
12	0xbc43f8d8	-0.011961184
13	0x3ea9effc	0.33190906
14	0xbe1a879d	-0.15090795
15	0x3f19bcda	0.6005379
16	0xbeac2ddf	-0.33628747
17	0x3cdd726a	0.027032096
18	0x3f1cc4b1	0.6123763
19	0xbeda178e	-0.42596096
20	0x3d0437df	0.032279845
21	0x3eef411f	0.4672937
22	0x3dd971e3	0.10617425
23	0x3de50c1d	0.11183951
24	0xbf067ba4	-0.5253241
25	0x3e064919	0.13113822
26	0x3f0ca0c8	0.5493283
27	0x3c99ceb2	0.018775318
28	0xbe8f64a0	-0.28006458
29	0xbe17250d	-0.14760228
30	0x3e1c94a4	0.15291077
31	0x3e249f21	0.16076328
32	0xbecba89e	-0.39777082
33	0xbedad739	-0.42742327
34	0x3f28557d	0.65755445
35	0xbf19f8d8	-0.6014533
36	0x3f01da94	0.5072415
37	0xbd9caed0	-0.0765053
38	0x3eedbe7a	0.46434385
39	0x3e970ce1	0.29502013
40	0x3e8f0776	0.2793538
41	0x3e992b28	0.29915738
42	0x3f01a601	0.50643927
43	0xbedd9ecc	-0.43285215
44	0xbe35bdef	-0.17748235
45	0x3edf7251	0.43641904
46	0x3e944811	0.28961232
47	0x3e90d604	0.2828828
48	0xbf22b718	-0.6356063
49	0x38f55500	0.00011698343
50	0x3e53beba	0.20678225
51	0x3d58e7cc	0.052955434
52	0xbe76ea95	-0.24112923
53	0xbf23c44b	-0.63971394
54	0x3f10e188	0.56594133
55	0xbf054f7d	-0.52074414
56	0x3e72a63f	0.2369623
57	0x3ced765a	0.028987098
58	0xbeb4d1b6	-0.35316247
59	0x3dd29f71	0.10284317
60	0x3d91aee2	0.071134344
61	0xbd911f91	-0.07086099
62	0xbed46c9a	-0.41489106
63	0x3ce9243a	0.028459657
64	0xbe8f0983	-0.27936944
65	0x3ea9ffee	0.3320307
66	0xbf11be9b	-0.56931466
67	0xbec11540	-0.37711525
68	0x3ecc409a	0.39893037
69	0x3dc94ebc	0.098294705
70	0x3e20970b	0.15682618
71	0x3eb5532e	0.35415024
72	0x3ecfa654	0.40556586
73	0x3e4dd180	0.20099449
74	0x3e43d85a	0.191255
75	0x3e916a89	0.28401592
76	0xbca9ae8c	-0.020713113
77	0x3dee513c	0.11636588
78	0x3eaf501e	0.34240812
79	0xbeb66f5c	-0.35631835
80	0x3db98a4a	0.0905958
81	0x3eac99c0	0.33711052
82	0x3ee2bd5a	0.4428509
83	0xbec1c8d0	-0.3784852
84	0xbf14bc05	-0.58099395
85	0xbec26adb	-0.3797215
86	0x3eb820a3	0.359624
87	0x3e4c124c	0.19928855
88	0x3e70adf6	0.23503861
89	0xbe3a6236	-0.18201527
90	0xbf01c1d6	-0.50686395
91	0x3e82a300	0.25514984
92	0x3edb9828	0.42889524
93	0xbda77fcf	-0.081786744
94	0xbb7c241c	-0.0038473671
95	0x3c319482	0.01083863
96	0xbcaeb93b	-0.02132856
97	0x3f032629	0.512301
98	0xbd6de84a	-0.058082856
99	0x3d8ffd61	0.0703075
100	0xbef4ed30	-0.4783721
101	0xbeb3c1d2	-0.3510881
102	0xbdbf97ba	-0.093551114
103	0xbd84b862	-0.06480481
104	0xbec46708	-0.38359857
105	0x3ea58d70	0.3233447
106	0x3d82026a	0.06348117
107	0x3eb48407	0.3525698
108	0xbf0a8695	-0.54111606
109	0xbf04e0a5	-0.5190528
110	0x3e655f35	0.223996
111	0xbe6afef7	-0.22948824
112	0x3b8f555c	0.0043741893
113	0x3df327ca	0.118728235
114	0xbe90f541	-0.28312114
115	0xbe3a228c	-0.18177241
116	0xbd8e4d32	-0.069483176
117	0xbea83f80	-0.32860947
118	0x3d10613b	0.035248976
119	0x3dcd9d79	0.10039801
120	0xbe80f43c	-0.25186336
121	0xbf05e617	-0.52304214
122	0xbebb57ea	-0.3659051
123	0x3f0c34ce	0.54768074
124	0x3e989fe9	0.29809502
125	0x3da258d8	0.07927102
126	0xbe7bdcb0	-0.24595904
127	0xbdcb26ad	-0.09919486

encoder_variable_selection.flattened_grn.fc2.weight f4 [8, 8]
0	0xbed8cffb	-0.42346177
1	0x3f7adb2b	0.97990674
2	0x3f76bc48	0.96381044
3	0x3ea35e9d	0.31908122
4	0x3ec26e6c	0.3797487
5	0xbf409321	-0.752245
6	0xbe067faa	-0.13134637
7	0xbd6e5f17	-0.058196153
8	0xbd804828	-0.06263763
9	0x3f5690fa	0.83814967
10	0x3f23aa3a	0.6393162
11	0xbf86daa1	-1.053547
12	0xbe8895dd	-0.26676837
13	0xbf0a075b	-0.53917474
14	0xbe2ba0e4	-0.16760594
15	0x3f0d2dcb	0.55148
16	0x3f275604	0.65365624
17	0x3e75de76	0.24010643
18	0x3e8ae6fa	0.27129346
19	0x3ebd7e64	0.3701049
20	0xbe7d8703	-0.24758534
21	0xbf089dd1	-0.5336581
22	0xbec68830	-0.38775778
23	0x3eb85ba3	0.36007413
24	0xbf35c55a	-0.7100426
25	0x3f8ec502	1.1153872
26	0x3ed124fb	0.40848526
27	0x3e82a9f8	0.255203
28	0x3cafc4a5	0.021456072
29	0x3f38d64f	0.7220201
30	0xbf0283db	-0.50982445
31	0xbd1c4207	-0.038148906
32	0x3cb7788d	0.02239635
33	0xbf168bb6	-0.5880693
34	0x3f7259ab	0.9466807
35	0x3f7df818	0.99206686
36	0x3e23849a	0.15968552
37	0x3e41f85c	0.18942398
38	0x3e6aa810	0.22915673
39	0xbf192135	-0.59816295
40	0xbead5246	-0.33851832
41	0xbe991c36	-0.29904336
42	0x3e217dfb	0.15770714
43	0x3db81398	0.08988112
44	0xbdeb0931	-0.114763625
45	0x3de1c37e	0.11023615
46	0xbf01321b	-0.5046708
47	0x3cb434da	0.021997858
48	0xbf6dc2bf	-0.92875284
49	0x3e322fb3	0.17401008
50	0xbe234a7d	-0.15946384
51	0x3e8f2143	0.27955064
52	0xbdc5422c	-0.09631762
53	0x3ad85f10	0.0016507823
54	0x3f32fd69	0.69917923
55	0x3f99f8b2	1.2029021
56	0xbe510a57	-0.204141
57	0x3f1cba8a	0.61222136
58	0xbd0b04ee	-0.03394025
59	0x3daea104	0.08526805
60	0xbe3c32a6	-0.18378696
61	0x3f2772af	0.6540937
62	0xbcb49b88	-0.02204682
63	0xbf838f8d	-1.0278183

encoder_variable_selection.flattened_grn.fc2.bias f4 [8]
0	0xbe7a1a19	-0.24424018
1	0xbbf476fa	-0.007460472
2	0xbc13aa9a	-0.009012843
3	0xbe1c0dc1	-0.15239622
4	0x3df22792	0.11823954
5	0xbe7f3e1d	-0.24926038
6	0xbe2adaab	-0.16684978
7	0x3dbc38eb	0.09190544

encoder_variable_selection.flattened_grn.gate_norm.glu.fc.weight f4 [16, 8]
0	0xbddfc8d5	-0.109269775
1	0x3ee030d7	0.43787262
2	0x3e938e59	0.2881954
3	0xbeb8c404	-0.36087048
4	0xbe9f1202	-0.31068426
5	0xbf0085c0	-0.50204086
6	0xbd42a200	-0.047517776
7	0xbe85587b	-0.26044068
8	0x3ea4ff24	0.32225907
9	0x3e6e974b	0.23299901
10	0xbe7b28b6	-0.24527249
11	0x3eafc681	0.34331134
12	0xbec6b0ec	-0.38806856
13	0xbe1681a8	-0.14697897
14	0xbf3cae8c	-0.7370384
15	0x3e54a246	0.20765027
16	0x3d43b48b	0.0477796
17	0x3f1f2915	0.6217206
18	0xbdc579ce	-0.09642373
19	0x3ddd4c72	0.108055964
20	0xbed9ce54	-0.42540228
21	0x3d9081a3	0.07055976
22	0x3eb922ec	0.36159456
23	0xbe8bd5c9	-0.27311543
24	0xbe9e1152	-0.3087259
25	0x3e582b3d	0.21110244
26	0x3e8477a9	0.25872543
27	0xbe3a0d47	-0.18169127
28	0x3eee9237	0.46595928
29	0xbd5bf63f	-0.053701635
30	0xbdbf9d12	-0.09356131
31	0x3cb8ab6d	0.02254268
32	0xbebe1a8e	-0.37129635
33	0xbecf6d66	-0.40513152
34	0xbeaaf97a	-0.3339346
35	0x3ce7b3cc	0.028283976
36	0xbdd3d599	-0.10343475
37	0x3ca56064	0.020187564
38	0xbe790b66	-0.24320754
39	0xbbcafe5f	-0.006194874
40	0xbe5a5658	-0.21322
41	0xbe597446	-0.21235761
42	0xbe0d6393	-0.13807516
43	0x3f0b007a	0.542976
44	0xbea58183	-0.32325372
45	0x3eb1b6de	0.3470983
46	0x3f29edc5	0.6637843
47	0x3e4bfdb7	0.19921003
48	0xbf00da44	-0.50333047
49	0x3d39ea50	0.045389473
50	0xbeb12793	-0.34600505
51	0xbec555a4	-0.385419
52	0x3dfd5d7b	0.123713456
53	0xbe478186	-0.19483003
54	0x3e631d06	0.2217904
55	0x3ee62790	0.4495206
56	0x3e61bd1b	0.22044794
57	0x3e82dc10	0.2555852
58	0x3e0eac61	0.13932945
59	0xbdd51114	-0.10403648
60	0xbe00af84	-0.12566954
61	0x3e4d5154	0.20050555
62	0x3dc5f571	0.09665955
63	0x3e23f2c8	0.16010582
64	0xbea01b60	-0.31270885
65	0x3cd07aab	0.025449118
66	0x3d8d3cdd	0.068963744
67	0xbe844ada	-0.25838357
68	0xbf108cf7	-0.56465095
69	0x3e36f3e7	0.17866479
70	0x3f07aa40	0.52994156
71	0xbdee0a5e	-0.11623071
72	0x3e484988	0.195593
73	0xbe0f4a8a	-0.13993278
74	0x3e2976a4	0.16549164
75	0xbe6f5d05	-0.23375328
76	0x3e614f77	0.2200297
77	0x3eac40a5	0.3364307
78	0xbeaa65a7	-0.3328068
79	0x3e8546d1	0.2603059
80	0xbe97fe94	-0.29686415
81	0x3e0b08d7	0.13577591
82	0xbe097be6	-0.1342617
83	0x3f102f73	0.563224
84	0xbde4556e	-0.11149107
85	0xbe248d46	-0.16069517
86	0xbf0ba2d5	-0.54545337
87	0x3eac6dff	0.3367767
88	0x3ae3fad0	0.0017393474
89	0xbcdf800a	-0.027282733
90	0xbe44dc69	-0.19224705
91	0xbdbcf119	-0.09225673
92	0xbd8df227	-0.069309525
93	0xbe3ae497	-0.18251263
94	0xbeb5437d	-0.35403052
95	0xbe7de05c	-0.24792618
96	0xbee17640	-0.4403553
97	0xbf2629d8	-0.649076
98	0x3e97e2c4	0.29665196
99	0xbe9dfc27	-0.3085644
100	0xbd9f3fdc	-0.07775852
101	0xbc6fe38c	-0.014641654
102	0xbce0231a	-0.027360488
103	0xbd66489e	-0.056221597
104	0x3e5f9d6c	0.21837395
105	0x3f049114	0.5178387
106	0xbdfa58f0	-0.12223995
107	0xbe896607	-0.26835653
108	0xbf01cab3	-0.5069992
109	0x3e2bec66	0.16789398
110	0xbe8c7c1a	-0.27438432
111	0x3eded542	0.43522078
112	0xbef9bd9e	-0.4877748
113	0xbec9350d	-0.39298287
114	0x3eb7f0b5	0.35925832
115	0xbdf4208e	-0.11920272
116	0x3da641f4	0.08118048
117	0x3ef71214	0.4825598
118	0xbe890e26	-0.26768607
119	0x3e97c1f3	0.2964016
120	0x3ea7f4d0	0.32803965
121	0xbe0547bc	-0.13015646
122	0xbe46483a	-0.1936349
123	0x3e64dec4	0.22350603
124	0xbedddf1e	-0.43334287
125	0xbdba8e86	-0.091092154
126	0x3f0a4152	0.5400592
127	0xbf174d1e	-0.59102046

encoder_variable_selection.flattened_grn.gate_norm.glu.fc.bias f4 [16]
0	0xbc33afb4	-0.010967184
1	0x3d8e29cf	0.06941568
2	0xbe368b9f	-0.17826699
3	0x3de03ed6	0.10949485
4	0x3e5452b5	0.20734675
5	0xbdf96fff	-0.12179565
6	0x3e7cc157	0.24683128
7	0xbe131307	-0.14362727
8	0xbe1d37ab	-0.15353267
9	0x3de07f3a	0.109617665
10	0x3e2436b9	0.160365
11	0xbe31fce9	-0.17381634
12	0x3e64a002	0.22326663
13	0x3db299c4	0.08720735
14	0x3deb0359	0.11475248
15	0xbe7bf130	-0.24603724

encoder_variable_selection.flattened_grn.gate_norm.add_norm.norm.weight f4 [8]
0	0x3f859ef2	1.0439131
1	0x3f9341f8	1.1504507
2	0x3f66df94	0.90184903
3	0x3f78cdb5	0.97188884
4	0x3f98b1e8	1.1929293
5	0x3f8a9c86	1.0829017
6	0x3f92d3f8	1.1470938
7	0x3f472881	0.7779618

encoder_variable_selection.flattened_grn.gate_norm.add_norm.norm.bias f4 [8]
0	0x3d4c6ff6	0.04991146
1	0x3d561d7f	0.052274223
2	0xbe4d9ef2	-0.20080164
3	0x3d644f8e	0.05573993
4	0x3e07fb17	0.13279377
5	0xbcb8e02f	-0.022567837
6	0x3e79c36d	0.24390955
7	0xbe5df6ed	-0.21676226

encoder_variable_selection.single_variable_grns.time_idx.resample_norm.mask f4 [16]
0	0x3d1e96d0	0.038718045
1	0xbd8210ae	-0.06350838
2	0xbda3cffa	-0.07998653
3	0xbe3d635c	-0.18494934
4	0x3d21711a	0.039414503
5	0x3e04e1e5	0.12976797
6	0x3e3f2b30	0.18668818
7	0x3e0120bf	0.12610148
8	0x3def58ca	0.11686857
9	0xbe5eff3f	-0.21777056
10	0x3e3267ac	0.1742236
11	0x3ddebfca	0.108764246
12	0x3e4382cc	0.19092864
13	0x3e7b96ec	0.24569291
14	0xbdfbbd06	-0.12291913
15	0x3b91111f	0.00442709

encoder_variable_selection.single_variable_grns.time_idx.resample_norm.norm.weight f4 [16]
0	0x3f85fc0a	1.0467541
1	0x3f691aff	0.9105682
2	0x3f6a7482	0.91584027
3	0x3f4a513e	0.79030216
4	0x3f82b09c	1.0210147
5	0x3f8cbb64	1.0994687
6	0x3f97f0c9	1.1870357
7	0x3f66a67f	0.900978
8	0x3f91f0cb	1.1401609
9	0x3f4b0789	0.7930837
10	0x3f985f58	1.1904097
11	0x3f8ad6d5	1.0846812
12	0x3f976b18	1.1829557
13	0x3f9ce657	1.2257794
14	0x3f61beac	0.8818157
15	0x3f8467fd	1.0344235

encoder_variable_selection.single_variable_grns.time_idx.resample_norm.norm.bias f4 [16]
0	0x3e0654b9	0.13118257
1	0xbe0fba32	-0.14035872
2	0xbdbda117	-0.09259241
3	0x3d4abb66	0.049495123
4	0xbd10efbe	-0.035384886
5	0xbdccc1ad	-0.09997878
6	0x3e2c1110	0.16803384
7	0x3e439516	0.1909984
8	0xbe111331	-0.14167477
9	0x3e566ac1	0.20939161
10	0xbe3838b3	-0.17990379
11	0xbd8953f0	-0.06705463
12	0xbe4e16e2	-0.20125917
13	0x3e4fce97	0.20293652
14	0x3e45d75b	0.19320433
15	0xbe3b0f9a	-0.1826767

encoder_variable_selection.single_variable_grns.time_idx.fc1.weight f4 [8, 8]
0	0x3d5cfbb0	0.053950965
1	0x3ee0373a	0.43792135
2	0x3f00be5d	0.5029047
3	0x3d88e312	0.06683935
4	0xbe594a2b	-0.21219699
5	0xbe8987c9	-0.26861408
6	0xbe79e345	-0.24403103
7	0x3d790efe	0.060805313
8	0x3fa01c98	1.2508726
9	0x3eb3cdcf	0.35117957
10	0x3e2aff85	0.16699035
11	0xbb1d7a2e	-0.0024029124
12	0x3e1ddea7	0.15416966
13	0xbf5933a9	-0.8484445
14	0x3eeb1dc3	0.45921144
15	0xbf0fe1d7	-0.5620398
16	0xbef2d7d3	-0.47430286
17	0xbe0f554a	-0.13997379
18	0xbf113d90	-0.5673456
19	0x3e2b8a39	0.16751947
20	0x3e2d5378	0.16926372
21	0x3d5f1349	0.05446175
22	0x3e456107	0.19275294
23	0xbf784aa0	-0.9698887
24	0x3dd8f212	0.10593046
25	0xbe5bb6dc	-0.21456474
26	0xbef92050	-0.48657465
27	0xbed7ba51	-0.42134336
28	0xbf5ae903	-0.855118
29	0x3e1f50f1	0.1555822
30	0x3dc68489	0.09693248
31	0x3d9805bf	0.07422971
32	0xbdfac1f6	-0.12244026
33	0xbe4de673	-0.2010744
34	0x3f415064	0.7551329
35	0x3d31bc06	0.043392204
36	0xbeceffdc	-0.4042958
37	0xbe28a33f	-0.16468523
38	0x3f420750	0.7579241
39	0xbf4b79df	-0.79482836
40	0xbeb5310d	-0.35388985
41	0xbe96c9a6	-0.2945072
42	0x3e6aa35e	0.22913882
43	0xbeae279d	-0.34014598
44	0xbfbaf598	-1.4606199
45	0x3ea7d122	0.32776743
46	0x3f38fb38	0.7225833
47	0xbeb434ce	-0.35196537
48	0xbe3d5727	-0.18490277
49	0x3f4ca32f	0.799365
50	0x3da210d9	0.0791337
51	0xbf3d49d8	-0.739408
52	0x3f6420eb	0.8911273
53	0x3f0130f9	0.5046535
54	0xbe55c182	-0.20874599
55	0x3e0dbda5	0.13841875
56	0xbf446f5f	-0.7673244
57	0x3e51061b	0.20412485
58	0x3e6f5dc6	0.23375615
59	0x3ef8f209	0.48622158
60	0x3e18fc0e	0.14939901
61	0x3f7aa85d	0.9791315
62	0xbea6114a	-0.32435066
63	0xbd55b11c	-0.052170858

encoder_variable_selection.single_variable_grns.time_idx.fc1.bias f4 [8]
0	0xbdaabe07	-0.08337026
1	0x3e03286d	0.1280839
2	0xbe347c0e	-0.17625448
3	0x3db67034	0.0890812
4	0x3e5a2af4	0.21305448
5	0x3e4bf36a	0.19917074
6	0xbd9f248d	-0.077706434
7	0xbe34a798	-0.17642057

encoder_variable_selection.single_variable_grns.time_idx.fc2.weight f4 [8, 8]
0	0x3e6e9bc9	0.23301615
1	0x3e8e2a49	0.27766636
2	0x3dd6be49	0.10485513
3	0xbef4ea09	-0.47834805
4	0xbc8d3d59	-0.017241167
5	0x3f638816	0.88879526
6	0xbf4dc214	-0.80374265
7	0x3c01a548	0.007912941
8	0xbe88c10b	-0.2670978
9	0xbf0fd281	-0.5618058
10	0x3f1fe56f	0.6245946
11	0x3dec7238	0.11545223
12	0xbf1cfc7d	-0.61322767
13	0x3f02dd16	0.511186
14	0xbf120389	-0.57036644
15	0x3d8e6a88	0.06953913
16	0x3eb7f10f	0.359261
17	0x3eda2c70	0.42612028
18	0xbe9cf971	-0.3065906
19	0xbdf017aa	-0.117232636
20	0xbede43d7	-0.43411133
21	0x3ecfaa12	0.4055944
22	0x3ecb19e6	0.39668196
23	0xbede9e66	-0.43480223
24	0x3e08e326	0.133679
25	0xbeeb8d86	-0.4600641
26	0xbe7b6766	-0.24551162
27	0xbf72b9f3	-0.94814986
28	0x3df27e0e	0.11840449
29	0xbe70e611	-0.23525263
30	0x3e68b11a	0.22723809
31	0x3e87140c	0.26382482
32	0xbf879e29	-1.0595142
33	0xbf97a800	-1.1848145
34	0x3ec8778c	0.39153707
35	0x3ec8b7e5	0.392028
36	0x3dc8f9ac	0.09813246
37	0x3e2422eb	0.16028945
38	0xbf6c4eb8	-0.92307615
39	0x3eb31a19	0.34980848
40	0x3ec35038	0.3814714
41	0xbebfbeb7	-0.3745019
42	0xbc93cebc	-0.018042915
43	0xbf137b8d	-0.576104
44	0xbedcc66a	-0.43120128
45	0xbead66bd	-0.33867446
46	0x3eb446ad	0.3521017
47	0x3f0a9555	0.5413411
48	0x3efd6fd8	0.49499393
49	0xbe440df9	-0.19145955
50	0xbe3af9f9	-0.1825942
51	0x3ed7d6ae	0.42155975
52	0xbc30ea8d	-0.010798109
53	0x3f1f2305	0.6216281
54	0x3e896464	0.26834404
55	0xbe9a0471	-0.30081514
56	0x3f5df3c1	0.86700064
57	0x3f03c042	0.5146524
58	0x3eb62b2e	0.35579818
59	0xbe160d99	-0.14653625
60	0xbedc07e1	-0.4297476
61	0x3e8b80fa	0.2724684
62	0xbe85bda5	-0.2612125
63	0xbf42d67a	-0.76108515

encoder_variable_selection.single_variable_grns.time_idx.fc2.bias f4 [8]
0	0x3e598971	0.21243836
1	0xbe3fcd66	-0.18730697
2	0x3e51b0a9	0.20477547
3	0xbddd07d6	-0.1079251
4	0x3daf4c01	0.085594185
5	0xbe46cb13	-0.19413404
6	0x3e1c346e	0.15254375
7	0x3e058114	0.1303752

encoder_variable_selection.single_variable_grns.time_idx.gate_norm.glu.fc.weight f4 [32, 8]
0	0x3ed1f364	0.41006005
1	0xbdda070e	-0.10645877
2	0x3f00013d	0.5000189
3	0xbc866582	-0.016405825
4	0xbe4d80d6	-0.20068678
5	0x3de93724	0.1138747
6	0x3eb1c489	0.34720257
7	0x3dab5d0b	0.08367356
8	0xbbbdd8fc	-0.005793689
9	0xbe0cf175	-0.13763984
10	0x3d622035	0.055206496
11	0xbdf4049c	-0.11914942
12	0xbdce2ca4	-0.10067108
13	0x3ebdc8a2	0.37067133
14	0xbe4f3c69	-0.20237888
15	0xbe311c7e	-0.17296025
16	0xbea4ae34	-0.32164156
17	0x3f03278c	0.5123222
18	0x3c9de7f6	0.019275647
19	0x3ee1eb58	0.44124866
20	0xbdd37f92	-0.103270665
21	0xbea064a8	-0.31326795
22	0x3e168464	0.1469894
23	0xbe8725f8	-0.26396155
24	0x3ee6c804	0.45074475
25	0x3e67977d	0.22616382
26	0xbc62a978	-0.01383435
27	0x3e0a251a	0.13490716
28	0xbed27be8	-0.41110158
29	0xbe053618	-0.13008916
30	0xbcc10b6f	-0.023565022
31	0xbe147882	-0.14499095
32	0xbe38991d	-0.18027158
33	0x3c691b4e	0.014227701
34	0x3e080615	0.1328357
35	0x3e91c7f8	0.28472877
36	0xbd494171	-0.049134675
37	0xbe94b01e	-0.29040617
38	0x3ea018af	0.31268832
39	0x3e03461e	0.12819716
40	0xbe5bf58f	-0.21480392
41	0xbd1ab921	-0.03777421
42	0xbea9889a	-0.3311203
43	0x3e3c1b77	0.18369852
44	0xbd9124d8	-0.070871055
45	0x3e8969a8	0.26838422
46	0x3e89279a	0.26788026
47	0xbe5afd2f	-0.21385644
48	0x3d9cedb1	0.076625235
49	0xbdc0d8b9	-0.094163366
50	0xbcd8e5ae	-0.026476707
51	0x3d85e3f6	0.06537621
52	0xbe4669bf	-0.19376276
53	0x3ec207be	0.37896532
54	0xbe9995d6	-0.29997128
55	0x3e9c8c92	0.30575997
56	0x3b7d3896	0.0038638464
57	0xbd1c408d	-0.038147498
58	0x3e1f2d05	0.15544517
59	0xbcf3dd30	-0.029768556
60	0xbf0612cd	-0.5237244
61	0xbe10baec	-0.14133805
62	0xbdd08b23	-0.10182788
63	0x3e9fa6ab	0.31181845
64	0x3e90232f	0.28151843
65	0xbce5c640	-0.028048635
66	0xbea42e26	-0.32066458
67	0x3ebca1c1	0.36842158
68	0x3e4c4c10	0.1995089
69	0xbd941f63	-0.07232549
70	0xbe131a46	-0.14365491
71	0xbe789993	-0.24277334
72	0x3d0c8734	0.034308627
73	0x3d1fa631	0.03897685
74	0x3ed444bf	0.414587
75	0xbf067613	-0.52523917
76	0x3da2dfb7	0.079528265
77	0x3f0013a8	0.50029993
78	0x3dabc475	0.083870806
79	0x3ec37d3b	0.3818148
80	0xbe25166f	-0.16121839
81	0x3db150ed	0.086580135
82	0xbe59c840	-0.21267796
83	0x3f03dbed	0.51507455
84	0x3f0ff0ba	0.56226695
85	0x3d9ab86d	0.07554708
86	0xbdb485a5	-0.08814553
87	0x3e2f86fb	0.17141335
88	0x3de10a3d	0.10988281
89	0xbe813067	-0.2523224
90	0xbe37a47f	-0.17933844
91	0x3ec9f717	0.39446327
92	0xbe1c75ed	-0.1527936
93	0x3ef13f1f	0.4711847
94	0xbd3d433c	-0.046206698
95	0xbe4af18b	-0.19818704
96	0x3ea03ba5	0.31295505
97	0xbe28b4dc	-0.16475242
98	0x3dd8787f	0.10569858
99	0x3e8e00ed	0.2773508
100	0x3e837114	0.2567221
101	0x3df407fa	0.11915584
102	0x3ec68f2d	0.3878111
103	0xbf067866	-0.52527463
104	0xbe03d8b4	-0.12875634
105	0xbd03fdbc	-0.0322244
106	0x3e0a7ea9	0.1352488
107	0xbe8e6e4b	-0.27818522
108	0x3e0b41c4	0.13599306
109	0x3e0b7a16	0.13620791
110	0xb7842f00	-1.5757512e-05
111	0xbd530341	-0.051516775
112	0xbd8295ee	-0.06376253
113	0x3ea3571e	0.31902403
114	0x3ec725b4	0.38895953
115	0xbee2b122	-0.44275767
116	0xbe87c4fa	-0.2651747
117	0xbda45978	-0.08024877
118	0xbd0df8d4	-0.03466113
119	0x3e95ec73	0.2928196
120	0x3e894226	0.2680828
121	0xbc271b88	-0.010199435
122	0x3d7112d1	0.058855835
123	0x3f0b8f16	0.54515207
124	0x3ea38a20	0.3194132
125	0x3e61b777	0.22042643
126	0xbd8c2e4f	-0.0684477
127	0xbe7862aa	-0.24256387
128	0xbea1df56	-0.31615704
129	0x3ea89d6b	0.329326
130	0xbdc86d34	-0.09786454
131	0x3dca30b4	0.09872571
132	0x3e8ca8d7	0.27472565
133	0xbeb76ee3	-0.35826787
134	0x3eaf3ca8	0.34225965
135	0xba95dd18	-0.0011433689
136	0x3e822747	0.2542059
137	0x3ec27ab1	0.3798423
138	0xbf07bcf5	-0.530227
139	0x3ef24ef1	0.47325853
140	0x3cf98487	0.030458702
141	0x3d811fa1	0.06304861
142	0xbd87aa1a	-0.06624241
143	0x3e43ec6f	0.19133161
144	0xbe55ae4a	-0.20867267
145	0x3ec2e237	0.38063213
146	0xbeec2be3	-0.46127233
147	0xbdc32fad	-0.09530578
148	0xbe55d2cf	-0.20881198
149	0x3e68d861	0.22738792
150	0xbc974dde	-0.018469747
151	0xbe17e9e5	-0.14835317
152	0x3e8529b5	0.26008382
153	0xbe8c7d11	-0.27439168
154	0x3e9434fb	0.2894667
155	0x3ecb5b85	0.3971826
156	0x3e9cfb49	0.30660465
157	0x3eaedfc2	0.3415509
158	0x3e805649	0.2506583
159	0xbe4cb378	-0.19990337
160	0xbe496db7	-0.19670759
161	0xbe4f9fd3	-0.20275812
162	0xbf0d7d44	-0.55269265
163	0x3e83537e	0.25649637
164	0xbeaf25ed	-0.34208623
165	0x3d86e8fd	0.06587408
166	0x3e98db2e	0.2985472
167	0x3debe1f8	0.115177095
168	0xbded82e9	-0.11597235
169	0xbe3fbed4	-0.18725139
170	0x3ec5c0aa	0.38623554
171	0xbd618214	-0.055055693
172	0x3cc1ab76	0.02364133
173	0xbec76dc9	-0.38950947
174	0x3eb44f12	0.35216576
175	0x37ecd000	2.823025e-05
176	0xbe9e0a73	-0.30867347
177	0x3e00046b	0.12501685
178	0x3e82dc65	0.25558773
179	0x3edec3d5	0.43508783
180	0xbe8bc947	-0.27302
181	0x3e077bb2	0.1323078
182	0x3ba9b77c	0.0051793437
183	0x3d61363f	0.054983374
184	0xbea4c31e	-0.32180113
185	0x3ce2abdd	0.027669841
186	0xbe5b81ec	-0.2143628
187	0xbd6081fa	-0.054811455
188	0x3d3ba2e0	0.045809627
189	0xbc70e50c	-0.0147030465
190	0xbc91648b	-0.017748138
191	0x3ecd91df	0.40150353
192	0x3ec3bc65	0.3822967
193	0xbd673b30	-0.05645293
194	0xbe39e231	-0.18152691
195	0x3d011084	0.03150989
196	0x3e8b5cf5	0.27219358
197	0x3eaf6dc2	0.34263426
198	0xbe4e5ce3	-0.20152621
199	0x3e3daac9	0.1852218
200	0x3ed84085	0.42236724
201	0xbec67f96	-0.38769215
202	0xbdba1d72	-0.090876475
203	0xbea52d47	-0.32261106
204	0xbd2049c6	-0.039132856
205	0x3d9e81eb	0.07739624
206	0x3dc668fb	0.09687992
207	0xbe5bc921	-0.21463443
208	0xbe0aa5ba	-0.13539782
209	0xbc7596b8	-0.014989547
210	0x3eb847fa	0.35992414
211	0xbe90ef9e	-0.28307813
212	0xbe84409e	-0.2583055
213	0x3c66e89a	0.0140935425
214	0x3e7b3810	0.24533105
215	0xbdd679ce	-0.10472451
216	0x3e691e41	0.22765447
217	0xbeb84e80	-0.3599739
218	0xbdea1358	-0.11429471
219	0x3e52d8b4	0.20590478
220	0xbe186451	-0.14882018
221	0xbefb4d45	-0.4908239
222	0x3e6a7a54	0.22898227
223	0xbe20ab1c	-0.15690273
224	0xbea83b25	-0.32857624
225	0xbe00a843	-0.12564187
226	0x3cbb9768	0.022899345
227	0x3dd29de7	0.10284024
228	0xbe8c7014	-0.2742926
229	0xbdc3f210	-0.09567654
230	0xbe7ffbbb	-0.24998371
231	0x3dbe0f89	0.09280307
232	0xbe7b913c	-0.24567121
233	0xbd51282a	-0.051063694
234	0xbeeb2246	-0.45924586
235	0x3e9320f4	0.2873608
236	0x3e0efb2f	0.13963006
237	0xbe9a4e96	-0.3013808
238	0x3e8afb13	0.2714468
239	0x3e3aa818	0.18228185
240	0x3e84dab6	0.25948113
241	0x3e2a1213	0.16608457
242	0x3f0e93ef	0.5569448
243	0xbe8869e5	-0.2664329
244	0x3c93cdfc	0.018042557
245	0x3dd32b05	0.1031094
246	0xbec5c84e	-0.38629383
247	0x3ea71c77	0.32638904
248	0x3e45d815	0.1932071
249	0xbdb577ce	-0.088607416
250	0x3cd418c2	0.025890712
251	0x3d9a5d52	0.07537331
252	0xbd1a8c06	-0.037731193
253	0xbe6716b8	-0.2256726
254	0x3e420646	0.18947706
255	0xbbc50c15	-0.006013403

encoder_variable_selection.single_variable_grns.time_idx.gate_norm.glu.fc.bias f4 [32]
0	0x3e5fd6b8	0.21859252
1	0xbe0c365c	-0.13692611
2	0xbdbcaf01	-0.09213067
3	0x3dfd0562	0.12354542
4	0xbb17d423	-0.0023167215
5	0xbdf40af8	-0.119161546
6	0x3e310bb6	0.17289624
7	0x3e48692a	0.19571367
8	0xbe2267fd	-0.15859981
9	0x3e57c4ed	0.21071215
10	0xbe3518d5	-0.17685254
11	0xbda62f20	-0.08114457
12	0xbe48226e	-0.19544384
13	0x3e5231f2	0.20526865
14	0x3e449b25	0.19199808
15	0xbe3b2458	-0.18275583
16	0x3d8f9dcb	0.070125185
17	0xbe01fd77	-0.12694345
18	0xbdfb009e	-0.12255977
19	0xbe06b3d0	-0.1315453
20	0xbc044392	-0.008072751
21	0xbddfcf44	-0.10928205
22	0x3d25b52d	0.040455986
23	0x3dd2547b	0.102700196
24	0xbd173565	-0.036916155
25	0x3def897c	0.11696145
26	0x3e37ab46	0.1793643
27	0xbe7442d8	-0.23853624
28	0x3e44c3c1	0.19215299
29	0xbe48d5b1	-0.19612767
30	0x3daac010	0.08337414
31	0x3e2af467	0.16694795

encoder_variable_selection.single_variable_grns.time_idx.gate_norm.add_norm.norm.weight f4 [16]
0	0x3f886ed2	1.065882
1	0x3f6f018e	0.9336175
2	0x3f6f4710	0.9346781
3	0x3f8299df	1.0203208
4	0x3f765748	0.9622693
5	0x3f84aa6f	1.0364512
6	0x3f975d19	1.1825286
7	0x3f97e755	1.1867472
8	0x3f868b71	1.0511304
9	0x3f4b5b0a	0.7943579
10	0x3f9290fd	1.1450497
11	0x3f7f6b8d	0.99773484
12	0x3f978ff8	1.1840811
13	0x3f7f3d77	0.9970316
14	0x3f86224d	1.0479218
15	0x3f88d637	1.0690373

encoder_variable_selection.single_variable_grns.time_idx.gate_norm.add_norm.norm.bias f4 [16]
0	0x3e056037	0.13024984
1	0xbdefcfb0	-0.11709535
2	0xbd80dddd	-0.06292317
3	0x3e6c6202	0.23084262
4	0x3c00f07b	0.007869835
5	0xbd760911	-0.06006724
6	0x3e415258	0.18879068
7	0x3e458842	0.1929026
8	0xbddbf77c	-0.10740563
9	0x3e4ec61f	0.20192765
10	0xbe18d63b	-0.14925472
11	0x3b96fdea	0.0046079056
12	0xbe48c050	-0.19604611
13	0x3e47ff0d	0.19530888
14	0x3e3d76cb	0.18502347
15	0xbe346e58	-0.17620218

encoder_variable_selection.single_variable_grns.T2M.resample_norm.mask f4 [16]
0	0xbe53153c	-0.20613569
1	0x3bf697e2	0.00752543
2	0x3d24c863	0.040230166
3	0x3e401023	0.18756156
4	0xbd83eb98	-0.0644142
5	0xbe0886fd	-0.13332744
6	0xbe3a0c18	-0.18168676
7	0xbe6dff3e	-0.23241898
8	0x3e63655c	0.22206634
9	0xbe714f1c	-0.23565334
10	0x3e4d082e	0.20022652
11	0x3d7fbe9f	0.06243765
12	0xbdf6ba5b	-0.12047263
13	0x3e75e556	0.24013266
14	0x3d43bf70	0.04778999
15	0x3e4de533	0.20106964

encoder_variable_selection.single_variable_grns.T2M.resample_norm.norm.weight f4 [16]
0	0x3f4deee9	0.8044267
1	0x3f6218c6	0.8831905
2	0x3f8093a5	1.0045058
3	0x3f96a3b2	1.1768706
4	0x3f886bc9	1.0657893
5	0x3f45a66d	0.7720707
6	0x3f518e0f	0.8185739
7	0x3f7d4d8d	0.9894646
8	0x3f9c5af2	1.2215254
9	0x3f423651	0.7586413
10	0x3f97656e	1.1827829
11	0x3f8a4a2a	1.0803883
12	0x3f59c9a0	0.8507328
13	0x3fa0089e	1.250263
14	0x3f860469	1.0470096
15	0x3f98be96	1.1933162

encoder_variable_selection.single_variable_grns.T2M.resample_norm.norm.bias f4 [16]
0	0x3e69cb6d	0.22831507
1	0xbdae3f36	-0.0850815
2	0x3d152e20	0.03642094
3	0x3e44c7d0	0.19216847
4	0xbe0c8a4b	-0.1372463
5	0xbe04d93c	-0.12973493
6	0xbe31cea1	-0.17363979
7	0x3d2c5d0a	0.042080916
8	0xbc850f40	-0.016242623
9	0x3e7496e2	0.23885682
10	0xbe3c21a4	-0.18372208
11	0xbdc6d8de	-0.09709333
12	0xbe30e425	-0.1727453
13	0x3e8125f5	0.2522427
14	0xbd9533b9	-0.07285256
15	0xbe3c6198	-0.18396604

encoder_variable_selection.single_variable_grns.T2M.fc1.weight f4 [8, 8]
0	0xbe9e40dc	-0.3090886
1	0x3f5a29ec	0.8522022
2	0x3f26ba41	0.6512795
3	0x3e489887	0.19589435
4	0x3f3de84a	0.7418257
5	0xbf4232a6	-0.75858533
6	0xbe9780bc	-0.29590404
7	0x3bbbb497	0.005728315
8	0xbeb7ae7b	-0.35875306
9	0x3dd55250	0.104160905
10	0xbf392bc6	-0.7233242
11	0xbccc8c8a	-0.024969358
12	0x3f11425f	0.567419
13	0x3eb2e2ad	0.34938565
14	0xbe858ebb	-0.26085457
15	0x3e7cde9c	0.24694294
16	0x3e96c2ff	0.29445645
17	0xbe7ad0cc	-0.24493712
18	0xbf6c7f94	-0.9238217
19	0x3f17fb8e	0.59368217
20	0x3e8a2857	0.26983902
21	0x3e2bdf1a	0.16784325
22	0xbee50346	-0.4472906
23	0xbf5c8a05	-0.861481
24	0xbf1a1e30	-0.6020231
25	0xbf7287b4	-0.94738317
26	0xbebc609e	-0.36792463
27	0xbe56eea1	-0.20989467
28	0x3e914172	0.28370243
29	0x3e8d0188	0.2754023
30	0x3f067f69	0.5253816
31	0xbe4c4ef6	-0.19951996
32	0x3f0e41b3	0.55569
33	0x3e9af47d	0.30264655
34	0xbf2662b9	-0.6499439
35	0x3f030ad3	0.5118839
36	0x3f280e4c	0.65646815
37	0x3ea13466	0.3148529
38	0xbe597bff	-0.21238707
39	0x3e2adef5	0.16686614
40	0xbf17ff42	-0.5937387
41	0x3f0c12b3	0.5471603
42	0xbe645f48	-0.22301972
43	0xbe69f9b2	-0.22849157
44	0x3e45bd4d	0.19310494
45	0xbee14960	-0.44001293
46	0xbf30ce23	-0.6906454
47	0x3f12da96	0.57364786
48	0x3df4a13e	0.11944817
49	0x3de2be3d	0.11071441
50	0x3f745052	0.9543506
51	0xbf41719a	-0.7556397
52	0xbe026622	-0.12734273
53	0xbf8b0e0d	-1.0863663
54	0x3eb1deee	0.34740394
55	0x3eda4a4b	0.42634806
56	0x3df29b56	0.11846034
57	0xbeddb4db	-0.43302044
58	0xbf7b926e	-0.9827031
59	0x3ea73daf	0.32664248
60	0x3eb37d28	0.35056424
61	0xbf53444e	-0.825261
62	0xbf4bf1e6	-0.7966598
63	0x3e254ce2	0.1614261

encoder_variable_selection.single_variable_grns.T2M.fc1.bias f4 [8]
0	0x3e478d1d	0.19487424
1	0xbda624d1	-0.08112491
2	0xbe09e332	-0.13465574
3	0x3e826565	0.25467983
4	0x3d590a8a	0.052988566
5	0x3e2317e4	0.15927082
6	0xbb9e2219	-0.004825842
7	0xbdb6782b	-0.08909639

encoder_variable_selection.single_variable_grns.T2M.fc2.weight f4 [8, 8]
0	0x3e9f18f2	0.3107372
1	0xbd5b55cb	-0.053548615
2	0xbebd4e28	-0.3697369
3	0xbe0a020d	-0.13477345
4	0xbe94ad0e	-0.2903828
5	0xbe85e16a	-0.2614854
6	0x3f003f4d	0.5009659
7	0x3e6536cb	0.22384183
8	0xbe0afdff	-0.13573454
9	0xbf32ea3d	-0.6988867
10	0xbe5c4685	-0.21511276
11	0x3fdf6a3c	1.7454295
12	0xbf64b6d3	-0.8934147
13	0xbec86932	-0.39142758
14	0x3e0d8515	0.13820298
15	0x3f1bde48	0.6088605
16	0x3f2e28ff	0.68031305
17	0x3f1664f0	0.5874777
18	0x3f4e5825	0.8060325
19	0x3e3cf566	0.18452987
20	0x3e963299	0.29335478
21	0xbf359607	-0.7093205
22	0xbe6e4d43	-0.2327166
23	0x3d87877f	0.06617641
24	0x3e360efd	0.17779155
25	0x3f5d6c2f	0.864932
26	0x3f0661dd	0.5249308
27	0x3e8e5218	0.27797008
28	0xbe43fc26	-0.19139156
29	0xbf0dfe49	-0.55466133
30	0x3f1096fa	0.5648037
31	0x3f07ab55	0.52995807
32	0x3d994060	0.07482982
33	0xbf434754	-0.76280713
34	0x3ee47205	0.4461824
35	0x3f2671b3	0.6501724
36	0x3e2ca20c	0.16858691
37	0xbf16f688	-0.58969927
38	0x3f9120a9	1.1338092
39	0xbf44dc24	-0.7689841
40	0x3f1b88ea	0.6075579
41	0xbebc5831	-0.36786035
42	0x3f324927	0.6964287
43	0xbf2f84af	-0.68561834
44	0x3f7c8ed1	0.9865542
45	0xbe1b1c1e	-0.15147445
46	0x3f84f98a	1.0388653
47	0x3d97e3dc	0.074165076
48	0x3e29cbe5	0.16581686
49	0xbf1c5f13	-0.6108257
50	0x3ee9fef4	0.45702326
51	0x3f1b0a89	0.6056295
52	0x3d5cdd03	0.05392171
53	0xbda4460f	-0.08021175
54	0x3f44575b	0.76695794
55	0xbd79b9db	-0.06096826
56	0xbf12dd24	-0.57368684
57	0x3e5ac839	0.21365441
58	0x3e077f15	0.13232072
59	0x3ed0c825	0.40777698
60	0x3de1e9b8	0.110309064
61	0xbf7cf30e	-0.9880837
62	0x3ef92589	0.4866145
63	0x3e617bc7	0.22019874

encoder_variable_selection.single_variable_grns.T2M.fc2.bias f4 [8]
0	0x3e145adc	0.14487785
1	0x3e71bc1c	0.23606914
2	0x3e0f4f80	0.1399517
3	0x3d308f5e	0.043105476
4	0x3e60726f	0.21918653
5	0x3e1cb32f	0.15302728
6	0x3e78ffed	0.24316378
7	0xbe3d8d63	-0.18510966

encoder_variable_selection.single_variable_grns.T2M.gate_norm.glu.fc.weight f4 [32, 8]
0	0x3e95ee0b	0.29283175
1	0x3e0f2f42	0.13982871
2	0xbdd0551a	-0.10172482
3	0x3a018284	0.0004940408
4	0x3ec69d2e	0.38791794
5	0x3c971074	0.018440463
6	0xbdb54ed0	-0.08852923
7	0xbdcb5079	-0.09927458
8	0xbf0db0c4	-0.5534785
9	0x3eea9892	0.45819527
10	0x3de45eef	0.1115092
11	0x3ee79171	0.4522815
12	0xbdd0e80b	-0.10200509
13	0xbe5aef70	-0.213804
14	0x3da83a1e	0.0821421
15	0xbec4de35	-0.3845078
16	0xbe9fdea6	-0.31224555
17	0xbd97a8b9	-0.07405228
18	0x3e040f85	0.12896545
19	0xbe2a1a30	-0.16611552
20	0xbeb1af81	-0.3470421
21	0x3ec8ddf3	0.39231834
22	0xbe6dcff1	-0.23223855
23	0xbdbc80c2	-0.09204246
24	0x3ea7944e	0.32730335
25	0x3d295df2	0.04134936
26	0x3cd12a7a	0.02553295
27	0x3e49fdf7	0.19725786
28	0x3e4cdb29	0.20005478
29	0x3d862a59	0.06551046
30	0x3e3ea475	0.18617423
31	0xbd69d878	-0.057091206
32	0xbe451350	-0.19245648
33	0x3e6f64b1	0.23378254
34	0xbf064625	-0.5245078
35	0x3e4362b8	0.19080627
36	0xbda28b45	-0.0793672
37	0x3e1c00c9	0.15234675
38	0x3e30a526	0.17250499
39	0xbe13693b	-0.14395611
40	0xbe0ae853	-0.13565187
41	0x3c2c32eb	0.010510187
42	0x3ed8051b	0.42191395
43	0x3d1935f9	0.037404988
44	0xbe73b3e3	-0.2379909
45	0xbe7aad90	-0.24480271
46	0xbeb3541a	-0.35025102
47	0x3daa590a	0.08317764
48	0x3ddc73c1	0.10764266
49	0x3dc6cc71	0.09706963
50	0x3dfea3fc	0.12433621
51	0x3e1be5ed	0.15224428
52	0xbd2fc286	-0.04291012
53	0x3e12da80	0.14341164
54	0xbd65d9ae	-0.0561158
55	0xbe775c0b	-0.24156205
56	0xbe30f338	-0.1728028
57	0xbc883dae	-0.016630974
58	0xbe8eaca7	-0.27866098
59	0xbdd2279a	-0.1026146
60	0x3eac81fc	0.3369292
61	0xbeabbd96	-0.3354308
62	0xbd40f443	-0.047107946
63	0x3d65b0e2	0.05607689
64	0x3e015f56	0.12634024
65	0xbe2ddf88	-0.16979802
66	0x3f05eb6e	0.5231236
67	0x3e40106b	0.18756263
68	0xbdde0f65	-0.1084278
69	0xbd6e96b9	-0.05824921
70	0xbdbcd0ed	-0.09219537
71	0x3ebdce34	0.37071383
72	0x3d24b408	0.040210754
73	0xbaccbbb4	-0.0015619905
74	0x3e8c00ee	0.2734446
75	0x3ed74961	0.4204817
76	0x3edd9a3d	0.43281737
77	0x3f1dde33	0.61667174
78	0xbdfc8ef1	-0.123319514
79	0xbcaaac6b	-0.020834168
80	0x3e1f1e02	0.15538791
81	0x3f0171fd	0.5056456
82	0x3ed3e53d	0.41385832
83	0xbea6f5bd	-0.32609358
84	0xbee4ca2c	-0.44685495
85	0xbede7ce1	-0.4345465
86	0xbd94f231	-0.07272757
87	0xbd8ddb57	-0.069266014
88	0xbee37761	-0.44427016
89	0x3eb1d7c3	0.34734926
90	0xbe69f166	-0.22845992
91	0x3d8ae4ab	0.06781896
92	0x3e7039f8	0.23459613
93	0xbdd47447	-0.10373741
94	0x3dbc87ee	0.09205614
95	0xbedf8a08	-0.43659997
96	0x3ea1eee3	0.3162757
97	0x3c9bb1a0	0.019005597
98	0xbe5c381c	-0.21505779
99	0xbe78fb29	-0.2431456
100	0x3e5ed048	0.2175914
101	0xbdeb56e4	-0.114911824
102	0xbeb5b312	-0.35488182
103	0xbd3e4678	-0.046453923
104	0x3e29cb07	0.16581355
105	0x3d13db51	0.03609783
106	0xbe6b9a40	-0.2300806
107	0xbe5037a1	-0.2033372
108	0x3d70e22d	0.058809448
109	0xbe04852f	-0.1294143
110	0x3e67312c	0.22577351
111	0x3e759ab6	0.23984799
112	0x3e3f5ad1	0.18686987
113	0xbdf50f3e	-0.11965798
114	0xbc00bffd	-0.007858274
115	0xbc0064ae	-0.007836504
116	0xbe00ef91	-0.12591387
117	0xbe039e47	-0.12853347
118	0x3e295bca	0.16538921
119	0xbec335c3	-0.38126954
120	0x3c49bc20	0.012312919
121	0x3f032b7b	0.5123822
122	0x3d145878	0.036217183
123	0xbed27c0e	-0.4111027
124	0xbe8ae286	-0.2712595
125	0xbecf88a9	-0.4053395
126	0x3e08a4af	0.13344072
127	0x3e3ef5dd	0.18648477
128	0x3efa3453	0.48868045
129	0x3e948134	0.29004824
130	0x3e7da717	0.24770771
131	0xbdd06a38	-0.101765096
132	0x3cc472e1	0.02398056
133	0xbe341e00	-0.17589569
134	0x3f0afbbe	0.5429038
135	0x3d8369af	0.06416642
136	0x3ea54bcd	0.32284394
137	0xbe1990ff	-0.14996718
138	0xbd159bf9	-0.0365257
139	0x3db2c050	0.08728087
140	0x3e454fd9	0.1926874
141	0x3e810c45	0.25204673
142	0xbba7c6c9	-0.0051201326
143	0xbe13d987	-0.14438449
144	0xbe4ddd90	-0.2010405
145	0x3eb053ef	0.34439036
146	0x3d9e6356	0.077337906
147	0xbd6b3f6a	-0.057433523
148	0xbea80e0c	-0.32823217
149	0xbeebdee2	-0.46068484
150	0x3e70eb9f	0.23527382
151	0xbed11c0a	-0.40841705
152	0x3e8b0a1a	0.27156144
153	0x3eab8332	0.33498532
154	0xbeeaf839	-0.45892504
155	0xbe2fbb81	-0.17161371
156	0xbf0654ee	-0.5247334
157	0x3d995a2c	0.07487902
158	0x3f097eda	0.53709185
159	0xbf03f6a8	-0.5154824
160	0xbe83c63e	-0.25737184
161	0x3d8e0a74	0.069355875
162	0xbe8106f6	-0.25200623
163	0xbeec43fa	-0.46145612
164	0x3d0a5d98	0.033780664
165	0xbee99f82	-0.45629507
166	0x3eaf8407	0.34280416
167	0x3e183c58	0.1486677
168	0x3ed96600	0.42460632
169	0x3ec74fe8	0.3892815
170	0x3dd3f4f8	0.103494585
171	0x3e9b50f0	0.30335188
172	0xbdd65761	-0.10465885
173	0xbd9c8471	-0.07642449
174	0x3eb6e40b	0.35720858
175	0xbf0edfe0	-0.55810356
176	0xbdffa2dd	-0.124822356
177	0xbe1b4d4d	-0.15166207
178	0x3d1339e2	0.035943873
179	0xbca385ca	-0.019961257
180	0xbe3832d7	-0.17988144
181	0xbb9332d4	-0.004492143
182	0xbe58a31c	-0.21155971
183	0xbece4c22	-0.4029246
184	0x3e091953	0.13388567
185	0x3ef18380	0.4717064
186	0x3e4dc65b	0.20095198
187	0x3eebc979	0.4605215
188	0x3e44a253	0.19202547
189	0x3e977028	0.29577756
190	0x3bf98de8	0.0076157935
191	0xbe726fe3	-0.23675494
192	0xbe5071f1	-0.20355965
193	0x3db1343c	0.08652541
194	0x3e53d4d4	0.20686656
195	0x3ee6ccfa	0.4507826
196	0xbc01d321	-0.007923872
197	0x3f02ff11	0.5117045
198	0x3e402f75	0.18768103
199	0xbe8406f1	-0.25786546
200	0x3e98c215	0.29835573
201	0xbe606fef	-0.219177
202	0x3ef9a743	0.48760423
203	0x3f1304a0	0.5742893
204	0x3de7f2df	0.11325621
205	0x3eccf329	0.40029266
206	0x3d490ceb	0.049084585
207	0xbe8622a0	-0.26198292
208	0xbe0936b3	-0.13399772
209	0xbde912bb	-0.11380526
210	0xbe61a5ca	-0.220359
211	0xbcdacc47	-0.026708735
212	0x3ea6d724	0.32586014
213	0x3da6e7ed	0.08149705
214	0xbf02e99b	-0.51137704
215	0xbdc9f001	-0.0986023
216	0x3eebfad3	0.460898
217	0x3e6c699f	0.23087166
218	0x3daccc7a	0.08437438
219	0xbe819f78	-0.25316978
220	0x3e4eeee4	0.20208317
221	0xbe5d9e3e	-0.21642396
222	0x3e058b0e	0.13041326
223	0xbe190fac	-0.14947385
224	0x3d0c462a	0.0342466
225	0xbbb380a6	-0.0054779826
226	0xbdf7c7bc	-0.12098643
227	0x3e2e9850	0.1705029
228	0x3e47d926	0.1951643
229	0xbf03e316	-0.5151838
230	0xbd1fd2ec	-0.03901951
231	0x3e6663a3	0.22498946
232	0xbe11978e	-0.1421797
233	0x3ecc765a	0.39934045
234	0x3e2989b6	0.16556439
235	0xbec8c748	-0.3921454
236	0x3db746cc	0.0894905
237	0xbe8082d6	-0.2509982
238	0x3e1f0599	0.15529479
239	0xbe7ad993	-0.2449706
240	0xbe9d0def	-0.30674693
241	0x3e3916c3	0.18075089
242	0x3e821bba	0.2541178
243	0x3ecc7b78	0.3993795
244	0x3e2ec7ce	0.17068407
245	0x3d4d4246	0.05011203
246	0xbdfa8e0d	-0.12234125
247	0x3dda07d4	0.10646024
248	0x3d66a2f7	0.05630776
249	0x3e2e2d52	0.17009476
250	0xbe181fcd	-0.14855881
251	0xbce8f3fa	-0.02843665
252	0x3b382e4c	0.0028103767
253	0x3e85c930	0.26130056
254	0x3bbd3e8b	0.005775278
255	0x3cde5038	0.02713786

encoder_variable_selection.single_variable_grns.T2M.gate_norm.glu.fc.bias f4 [32]
0	0x3e68c4dc	0.22731346
1	0xbda76a14	-0.0817453
2	0x3d59ecb5	0.053204257
3	0x3e42eed8	0.19036424
4	0xbe002358	-0.12513483
5	0xbddfd86d	-0.10929952
6	0xbe346f0a	-0.17620483
7	0x3d32970b	0.043601077
8	0xba96d136	-0.0011506442
9	0x3e73c71a	0.2380642
10	0xbe42c199	-0.19019164
11	0xbdce43da	-0.100715354
12	0xbe25f9ae	-0.16208526
13	0x3e80e6b6	0.25176018
14	0xbd8cb0b3	-0.0686964
15	0xbe41aaa8	-0.18912756
16	0xbe39f5b6	-0.18160138
17	0x3e739caa	0.23790231
18	0xbe3275bb	-0.17427723
19	0xbe4c6f80	-0.19964409
20	0xbe3302f4	-0.17481595
21	0xbe3cd1b0	-0.18439364
22	0xbe377dd3	-0.17919092
23	0xbe007e43	-0.12548165
24	0xbd82f093	-0.06393542
25	0x3dd7c057	0.10534733
26	0x3e4fdaae	0.20298263
27	0xbbd77cbe	-0.0065761497
28	0xbdd0d7a5	-0.10197381
29	0xbe750ac0	-0.23929882
30	0x3ceb2c27	0.028707577
31	0x3e3c9265	0.1841522

encoder_variable_selection.single_variable_grns.T2M.gate_norm.add_norm.norm.weight f4 [16]
0	0x3f4f2a75	0.8092416
1	0x3f6beeca	0.9216124
2	0x3f80ac8e	1.005266
3	0x3f9e093a	1.2346566
4	0x3f7ede91	0.9955836
5	0x3f514ed9	0.81760937
6	0x3f5f3008	0.87182665
7	0x3f92fb4a	1.1482937
8	0x3f9d7db9	1.2303993
9	0x3f425328	0.75908136
10	0x3f939cae	1.153219
11	0x3f8aebcb	1.0853208
12	0x3f628cb0	0.8849592
13	0x3fa0a322	1.2549784
14	0x3f80de0e	1.0067766
15	0x3f94f367	1.163678

encoder_variable_selection.single_variable_grns.T2M.gate_norm.add_norm.norm.bias f4 [16]
0	0x3e772f9a	0.24139252
1	0xbd84d7e6	-0.06486492
2	0x3d8c0616	0.06837098
3	0x3e64b1f9	0.22333516
4	0xbdd5f9bb	-0.10448023
5	0xbdb0dbb5	-0.08635656
6	0xbd9afddb	-0.0756795
7	0x3d8304dc	0.06397411
8	0x3d0cf0d0	0.034409344
9	0x3e7cd28a	0.2468969
10	0xbe1b7632	-0.15181807
11	0xbdd76cb5	-0.10518781
12	0xbe233288	-0.15937245
13	0x3e81d181	0.2535515
14	0xbd2a4152	-0.0415662
15	0xbe21abc2	-0.15788177

encoder_variable_selection.single_variable_grns.T2M_MAX.resample_norm.mask f4 [16]
0	0xbe56c6a2	-0.2097421
1	0x3c1d6275	0.0096059935
2	0xbd15639d	-0.03647195
3	0x3e675ecf	0.2259476
4	0xbe2a048d	-0.16603298
5	0x3cfcff9c	0.030883603
6	0xbda3c7a0	-0.0799706
7	0x3c421e5c	0.011848059
8	0x3de49f97	0.11163252
9	0xbe6275ee	-0.22115299
10	0x3e0cc9ca	0.13748851
11	0x3e346839	0.17617883
12	0x3e4fbc65	0.2028671
13	0xbe796608	-0.24355328
14	0x3e0c2c96	0.13688883
15	0xbde8840b	-0.1135331

encoder_variable_selection.single_variable_grns.T2M_MAX.resample_norm.norm.weight f4 [16]
0	0x3f4ac5b4	0.7920792
1	0x3f7ae420	0.9800434
2	0x3f83ee23	1.0307049
3	0x3f9d1832	1.2273009
4	0x3f57be62	0.84274876
5	0x3f81f900	1.0154114
6	0x3f60a8bc	0.8775747
7	0x3f820e47	1.0160607
8	0x3f8e9cd6	1.1141613
9	0x3f489173	0.7834694
10	0x3f909771	1.1296216
11	0x3f8d227f	1.1026152
12	0x3f98e1a9	1.1943866
13	0x3f41c904	0.7569735
14	0x3f93726c	1.1519294
15	0x3f60aba7	0.8776192

encoder_variable_selection.single_variable_grns.T2M_MAX.resample_norm.norm.bias f4 [16]
0	0x3e5d6a49	0.21622576
1	0xbd5bb5c8	-0.053640157
2	0x3da09631	0.07841147
3	0x3e5f11d0	0.21784139
4	0xbe183a9f	-0.14866112
5	0xbc7c10b4	-0.015384842
6	0xbe5d45b0	-0.21608615
7	0xbd2c5201	-0.042070393
8	0x3df87410	0.12131512
9	0x3e6407d4	0.22268611
10	0xbe178b40	-0.14799213
11	0xbe3647d0	-0.17800832
12	0xbe5892eb	-0.21149795
13	0x3e664f9e	0.22491309
14	0xbd82d096	-0.06387441
15	0xbe0d1f8e	-0.13781568

encoder_variable_selection.single_variable_grns.T2M_MAX.fc1.weight f4 [8, 8]
0	0xbf0620a9	-0.52393585
1	0xbf19c970	-0.60072994
2	0x3ea483c5	0.32131782
3	0x3ef9b2cc	0.48769224
4	0x3f2da229	0.6782556
5	0xbea221b0	-0.31666327
6	0x3e59c321	0.21265842
7	0xbc05f4a3	-0.008176002
8	0xbf40fc5c	-0.7538507
9	0x3f11a8cb	0.5689818
10	0xbddb8597	-0.107188396
11	0x3f20bc68	0.62787485
12	0x3dd668a8	0.1046918
13	0x3e80c965	0.25153652
14	0x3ecf0901	0.40436557
15	0xbed441f0	-0.41456556
16	0x3f4dd559	0.8040367
17	0xbdb4ded8	-0.088315666
18	0x3e6f7f75	0.23388465
19	0x3c227e34	0.0099177845
20	0xbf45009d	-0.7695406
21	0xbf27ac4c	-0.6549728
22	0xbd03e2c9	-0.0321987
23	0x3f36de6b	0.7143313
24	0x3ebc20de	0.36743826
25	0xbd9095ec	-0.07059845
26	0xbeb4ce0b	-0.35313448
27	0x3eee737c	0.46572483
28	0xbeab2540	-0.33426857
29	0x3f36ab77	0.71355385
30	0xbeb75365	-0.35805812
31	0x3ef62182	0.4807244
32	0x3f27b6c1	0.65513235
33	0x3eeb9027	0.46008417
34	0x3cbc4f29	0.022986965
35	0xbc10cfb4	-0.008838583
36	0x3f06e071	0.5268622
37	0x3e64dc72	0.22349718
38	0x3ee8bc83	0.45456323
39	0xbf1d6e01	-0.6149598
40	0xbf275a3f	-0.6537208
41	0xbfbf5339	-1.4947273
42	0xbd90d7f1	-0.070724376
43	0x3f4618e5	0.77381736
44	0x3f2f121e	0.6838702
45	0x3f776b48	0.96648073
46	0xbf48d605	-0.7845157
47	0x3bd364a7	0.0064512077
48	0xbeaf0b8a	-0.3418849
49	0x3f29ddfa	0.66354334
50	0x3ecd7bec	0.40133607
51	0x3f1413ca	0.57842696
52	0xbe98f34e	-0.29873127
53	0x3f063385	0.5242236
54	0x3f1f9a46	0.6234478
55	0x3f529829	0.8226343
56	0x3fb1be63	1.3886226
57	0xbf1a5c35	-0.60296947
58	0xbead1b80	-0.33810043
59	0x3eb04551	0.34427884
60	0xbee2a040	-0.44262886
61	0x3e5f9d6a	0.21837392
62	0x3eb240ae	0.34814972
63	0xbf5016d4	-0.8128483

encoder_variable_selection.single_variable_grns.T2M_MAX.fc1.bias f4 [8]
0	0x3e4d229d	0.20032735
1	0xbe3604de	-0.17775294
2	0x3e4dc7a1	0.20095684
3	0xbe46127b	-0.19342987
4	0xbcbf29a9	-0.023335295
5	0x3d1a0bbb	0.037608843
6	0x3ba43959	0.005011719
7	0xbd9c15ff	-0.07621383
