ai_predict/Ion/lstm_model.pth (torch, 55650 bytes, 10 tensors)

lstm.weight_ih_l0 f4 [128, 1]
0	0x3e385b6b	0.18003623
1	0x3dea9eae	0.11456047
2	0x3d3e1f00	0.046416283
3	0x3dc5a881	0.0965128
4	0x3e93fddc	0.28904617
5	0x3e0e6754	0.13906604
6	0x3ddc4b9a	0.10756607
7	0x3e086462	0.13319543
8	0x3adb8a90	0.0016749669
9	0x3de0ebf0	0.109825015
10	0x3d89c774	0.06727496
11	0x3daf93aa	0.085730866
12	0x3d6a39b1	0.057183925
13	0x3e00e339	0.12586679
14	0x3d8f0052	0.06982483
15	0xbd3da07f	-0.04629564
16	0x3e130ff6	0.14361557
17	0x3d98fc18	0.07469958
18	0x3d06600d	0.032806445
19	0x3deb2924	0.11482456
20	0x3d465720	0.048422933
21	0x3e0bb225	0.13642175
22	0x3db45bdf	0.088065855
23	0x3cc7de1b	0.0243979
24	0x3d862e69	0.06551821
25	0x3d2b1415	0.0417672
26	0x3ba6e0b5	0.005092705
27	0x3d1b57bc	0.037925467
28	0x3d88c65e	0.066784605
29	0x3d262b49	0.040568624
30	0x3df17496	0.11789815
31	0x3e5ae710	0.21377206
32	0x3ce89769	0.02839251
33	0x3d065826	0.03279891
34	0x3d2d796f	0.042352136
35	0x3d8a11b2	0.06741656
36	0x3d0290ca	0.031876363
37	0x3e4cf414	0.20014983
38	0xbd91a41e	-0.07111381
39	0x3d406390	0.04696995
40	0xbc89f368	-0.016839698
41	0x3c8b0fff	0.016975401
42	0x3d4d09bc	0.05005811
43	0x3cde4fa0	0.027137578
44	0xbb15c990	-0.0022855736
45	0x3d8746b8	0.066052854
46	0x3d8cf91e	0.06883453
47	0x3dedc7c1	0.11610366
48	0x3dc28442	0.094978824
49	0x3ce188b4	0.027531005
50	0x3d10671f	0.035254594
51	0xbd97a448	-0.07404381
52	0x3dcda5da	0.10041399
53	0x3d1bf850	0.038078606
54	0x3d9585bd	0.07300899
55	0xbc95b180	-0.018273115
56	0x3d789e42	0.0606978
57	0xbc3b199e	-0.011419682
58	0x3ca8d210	0.020607978
59	0x3d34db29	0.04415432
60	0x3d0fec17	0.035137262
61	0xbb395c86	-0.0028283908
62	0x3e12690d	0.14297886
63	0x3e1140f8	0.1418494
64	0xbd992b8c	-0.07479009
65	0xbda632cc	-0.081151575
66	0x3dbc742c	0.092018455
67	0x3d625bc6	0.055263303
68	0xbdaa7d53	-0.08324685
69	0x3d65496d	0.055978227
70	0xbd75f367	-0.06004658
71	0xbd9e4f12	-0.07729925
72	0xbce0807f	-0.027405022
73	0xbd80bd14	-0.06286064
74	0xbd3644fa	-0.044499375
75	0x3d8e560c	0.06950006
76	0xbcd81488	-0.026376978
77	0x3d639cb6	0.055569373
78	0x3da5566f	0.080731265
79	0xbe05b363	-0.13056712
80	0x3d6a8e8a	0.057264842
81	0xbdadb5b4	-0.08481923
82	0x3c91780a	0.017757434
83	0x3d2b5f54	0.04183896
84	0x3dc8cca9	0.09804661
85	0x3e47d150	0.1951344
86	0xbd55450e	-0.05206781
87	0x3d1fb9bc	0.03899549
88	0xbdc96207	-0.0983315
89	0x3ced3949	0.02895798
90	0x3cd4e9ac	0.02599033
91	0x3d03036a	0.031985678
92	0x3d0dd504	0.034626976
93	0xbd8a3bc6	-0.06749682
94	0x3db98205	0.090580024
95	0xbda3849d	-0.07984278
96	0x3d34d9c8	0.044153005
97	0x3dc39cef	0.09551417
98	0x3e7f36d2	0.24923256
99	0x3cc4fc36	0.024046045
100	0x3e1c773f	0.15279864
101	0xbcf62672	-0.030047629
102	0x3da3f807	0.08006292
103	0x3d33605a	0.04379306
104	0xbd81b3d5	-0.06333128
105	0x3ca6deba	0.020369876
106	0xbcbea947	-0.023274077
107	0x3ddff0e9	0.10934622
108	0x3d33800d	0.04382329
109	0x3da107d1	0.07862819
110	0x3dda4131	0.106569655
111	0x3e261162	0.16217569
112	0x3e2edcfc	0.17076486
113	0xbcd90131	-0.026489826
114	0x3d8d6987	0.06904893
115	0x3e0b949c	0.13630909
116	0x3e26b1dd	0.16278787
117	0xbd22d668	-0.039755255
118	0x3e1527bc	0.14565939
119	0x3cf124f6	0.02943657
120	0xbcd9231d	-0.026506001
121	0x3db45009	0.08804328
122	0x3cf53662	0.029933158
123	0x3dc89618	0.09794253
124	0x3c85a0c7	0.016312016
125	0x3d5e9797	0.054343786
126	0x3dd985fc	0.106212586
127	0x3d850ea5	0.06496934

lstm.weight_hh_l0 f4 [128, 32]
0	0x3e19b494	0.15010291
1	0xbea4046c	-0.32034624
2	0xbdbad875	-0.09123317
3	0x3e45f239	0.19330682
4	0xbdf56d29	-0.11983711
5	0x3d9b8334	0.075933844
6	0x3db29cf5	0.087213434
7	0xbe0be3a3	-0.13661055
8	0x3df2ed1f	0.118616335
9	0xbc2ef06b	-0.010677437
10	0xbe198813	-0.14993314
11	0x3d8cc9b3	0.068744086
12	0xbe383670	-0.17989516
13	0x3dae699a	0.08516236
14	0x3e4e7069	0.20160069
15	0xbe6c8bf1	-0.23100258
16	0xbe414e4a	-0.18877521
17	0xbe4d8cb2	-0.20073202
18	0xbd877285	-0.0661364
19	0xbe26275d	-0.16225953
20	0xbe1d7d40	-0.1537981
21	0x3e332ac3	0.17496781
22	0xbd806992	-0.06270136
23	0xbe329334	-0.17438966
24	0x3c1264e0	0.008935183
25	0xbe002d17	-0.125172
26	0xbd9ecc54	-0.07753816
27	0xbd9d8ffb	-0.07693478
28	0x3c05d7f9	0.008169168
29	0xbe0c9508	-0.13728726
30	0xbe3fa383	-0.18714719
31	0xbd7694d5	-0.06020053
32	0x3e26ba27	0.16281949
33	0xbe157fee	-0.14599583
34	0xbe32123e	-0.17389771
35	0x3c8f9098	0.017525002
36	0x3e75f672	0.24019793
37	0xbd9fb3d3	-0.077979706
38	0xbdcf9894	-0.10136524
39	0x3e4902f7	0.19630037
40	0x3e028abb	0.12748234
41	0x3e2a6694	0.16640693
42	0x3e21e8ba	0.15811434
43	0xbcfa4161	-0.030548753
44	0xbc3f7a88	-0.011686929
45	0xbe0de635	-0.13857348
46	0xbb98cf9a	-0.00466342
47	0x3e21b3a0	0.15791178
48	0xbd06ab7e	-0.03287839
49	0x3e2c4d35	0.16826327
50	0x3e9bd91a	0.30439073
51	0x3c94fd94	0.018187322
52	0xbe49e8f5	-0.19717772
53	0xbdeaad56	-0.114588425
54	0x3df8c7f8	0.12147516
55	0xbdc67103	-0.09689524
56	0x3e0f3c40	0.13987827
57	0x3e34cba8	0.17655814
58	0xbe0f52d1	-0.13996436
59	0x3d8f709b	0.070039
60	0xbe0e085d	-0.13870378
61	0xbc9a465a	-0.018832374
62	0xbe8e2967	-0.27765962
63	0x3eab38ce	0.33441776
64	0xbee7460f	-0.45170638
65	0xbea64bbc	-0.32479656
66	0x3dcb33f6	0.0992202
67	0x3edcee6c	0.4315065
68	0xbdd7f918	-0.10545558
69	0x3c87f2ca	0.016595263
70	0xbca8736c	-0.02056285
71	0xbe2135d8	-0.15743196
72	0x3e01643d	0.12635894
73	0xbeaeb9d9	-0.34126166
74	0xbf1023b1	-0.5630446
75	0x3eab4232	0.3344894
76	0xbe0195c0	-0.12654781
77	0x3ebb98ff	0.36640164
78	0x3ece9bf0	0.40353346
79	0xbe143ad6	-0.14475569
80	0xbdbdc955	-0.09266917
81	0xbe2ab8b4	-0.16672021
82	0x3da7f919	0.082018085
83	0xbde0ce89	-0.109768935
84	0xbd77ca3d	-0.060495604
85	0x3dd38429	0.10327942
86	0xbe648ef5	-0.22320159
87	0x3d7a6684	0.061132923
88	0x3c0a9366	0.008457994
89	0x3e680834	0.22659379
90	0x3d832da2	0.06405188
91	0x3ebfb8c5	0.37445655
92	0x3eb040e6	0.34424514
93	0xbea156a8	-0.31511426
94	0x3e41072d	0.18850394
95	0xbe0645dc	-0.13112587
96	0x3dc0ac14	0.09407821
97	0x3dbf8611	0.09351743
98	0x3ddd6f8e	0.10812293
99	0xbe6b33ea	-0.22969022
100	0xbdfa3afa	-0.1221828
101	0x3dfe593d	0.124193646
102	0x3e95fdc5	0.29295173
103	0x3d482cec	0.048870966
104	0xbd3c5c68	-0.045986563
105	0x3d776b23	0.060404908
106	0x3e46d6e5	0.19417913
107	0x3e9cfcdd	0.3066167
108	0x3ddb8440	0.10718584
109	0x3e3dc675	0.18532737
110	0xbd5cc91f	-0.05390274
111	0x3e2d6a2c	0.16935033
112	0x3e68a61c	0.22719616
113	0x3e99569c	0.2994889
114	0xbe4efeec	-0.20214432
115	0xbdd2e360	-0.102972746
116	0x3e88b164	0.26697838
117	0xbe174cfc	-0.14775461
118	0x3e425f9a	0.18981782
119	0xbe2cac12	-0.16862515
120	0xbddc1a22	-0.10747172
121	0xbe4f0626	-0.20217189
122	0xbde7b4c1	-0.11313773
123	0x3ceacb46	0.028661381
124	0x3d3c19b9	0.04592297
125	0x3e8d65f5	0.2761685
126	0x3dc7ab4c	0.09749469
127	0xbe5821f1	-0.21106698
128	0xbe5bd8bd	-0.21469398
129	0xbe82ef55	-0.2557322
130	0x3d9ec8d8	0.07753152
131	0x3d617a82	0.055048473
132	0xbe00cf00	-0.12578964
133	0xbda97815	-0.08274857
134	0x3d5f7072	0.054550596
135	0xbd509d4b	-0.050931256
136	0x3e49a9b9	0.1969365
137	0xbe457f96	-0.19286951
138	0xbe8833fc	-0.2660216
139	0x3e9ea8e0	0.30988216
140	0xbeda60f8	-0.42652106
141	0x3e1e21a9	0.15442528
142	0x3bc99fd1	0.006153085
143	0xbe87fd61	-0.265605
144	0x3e0b785c	0.13620132
145	0x3e5837f7	0.21115099
146	0xbd7d5c3e	-0.061855547
147	0x3df83c8a	0.12120922
148	0x3da37593	0.0798141
149	0x3e1e77e9	0.1547543
150	0xbdd19f8b	-0.102355085
151	0x3df88022	0.121338144
152	0xbd62adc6	-0.055341505
153	0x3e0383e9	0.12843288
154	0x3d38654a	0.04501847
155	0x3e8ee43f	0.27908513
156	0x3ce3417a	0.027741183
157	0xbdd6317e	-0.10458659
158	0x3dd00551	0.10157264
159	0x3e2c6f15	0.1683925
160	0xbe6df7f3	-0.23239116
161	0xbde6a66c	-0.11262211
162	0x3dc31e69	0.09527285
163	0x3cd1a71b	0.025592377
164	0x3dda23db	0.1065137
165	0x3db338e2	0.08751084
166	0xbe104e82	-0.14092448
167	0xbb336525	-0.002737352
168	0xbcc4e544	-0.024035104
169	0xbebc8939	-0.36823443
170	0xbe983893	-0.29730663
171	0x3ed39158	0.41321826
172	0xbe8e80dd	-0.2783269
173	0x3e510528	0.20412123
174	0x3e82c864	0.2554351
175	0xbea919c7	-0.3302748
176	0x3db47271	0.088108905
177	0xbda2027b	-0.07910629
178	0xbd8c37ca	-0.068465784
179	0x3dccf7bb	0.10008188
180	0xbdd2a213	-0.102848195
181	0x3e4a2c6d	0.1974351
182	0xbe559298	-0.20856702
183	0xbcff7411	-0.031183274
184	0xbd200bc5	-0.039073724
185	0x3dba6627	0.09101515
186	0x3e005cee	0.1253545
187	0x3e963a06	0.29341143
188	0x3d0b7bb4	0.03405352
189	0xbdba3a91	-0.09093202
190	0x3e0a3eb8	0.13500488
191	0x3de21ef0	0.11041057
192	0xbd9f6b5f	-0.07784151
193	0x3e13809e	0.14404532
194	0xbcd1805e	-0.025573906
195	0xbe4a9773	-0.19784336
196	0x3d7db182	0.061936863
197	0xbe1309c2	-0.14359191
198	0x3ec5833e	0.38576692
199	0x3cc239db	0.023709228
200	0xbe18f990	-0.1493895
201	0x3ec2d39f	0.3805208
202	0xbd0901ec	-0.0334491
203	0xbdc4cb8b	-0.09609135
204	0x3e41ee56	0.18938574
205	0xbe194b31	-0.1497009
206	0xbdf34c1d	-0.11879752
207	0x3dca2832	0.09870948
208	0x3d53c410	0.05170065
209	0x3bbcbda9	0.005759914
210	0xbecfadee	-0.40562385
211	0xbe94bdb7	-0.2905099
212	0xbe0011b7	-0.12506758
213	0xbe96023d	-0.29298583
214	0x3dd20458	0.10254735
215	0xbea0f3b0	-0.3143592
216	0x3df28418	0.11841601
217	0xbe4cae21	-0.199883
218	0xbdf7f6ce	-0.12107621
219	0x3bb3cf79	0.005487379
220	0xbe405525	-0.1878248
221	0x3e587228	0.21137297
222	0xbbd7ef44	-0.006589802
223	0xbd9aca74	-0.07558146
224	0xbd90c273	-0.07068338
225	0xbdc630b4	-0.09677258
226	0xbe4db75d	-0.20089479
227	0xbe11baa4	-0.14231354
228	0xbd4d5a9f	-0.05013525
229	0xbe9e92c2	-0.30971342
230	0x3d9a5aca	0.07536848
231	0xbd4bf8bd	-0.049797762
232	0xbe25777f	-0.16158865
233	0x3c757bfd	0.014983174
234	0xbde16e70	-0.110073924
235	0x3d89a732	0.06721343
236	0x3d024eed	0.03181355
237	0xbe977be3	-0.29586706
238	0xbdf88d9e	-0.12136386
239	0x3e9d933e	0.307764
240	0xbd5addd7	-0.05343422
241	0x3d2df939	0.042474005
242	0x3db232df	0.08701109
243	0x3dbc468a	0.09193142
244	0xbdccda21	-0.10002542
245	0xbe760a79	-0.24027433
246	0x3e937ef4	0.28807795
247	0x3d9bd47f	0.0760889
248	0x3ec238db	0.37934002
249	0x3e9c95eb	0.30583128
250	0x3e4f9604	0.2027207
251	0xbc5575b7	-0.013028554
252	0x3d657a54	0.056024864
253	0xbe5d6a6e	-0.21622631
254	0xbdd9525e	-0.106114134
255	0xbdf92868	-0.1216591

lstm.bias_ih_l0 f4 [128]
0	0x3ebc4c0f	0.36776778
1	0xbcc7fe86	-0.024413358
2	0x3f1501c4	0.5820582
3	0xbdcc4c2b	-0.099754654
4	0x3d0b3fdd	0.03399645
5	0x3dda2161	0.10650898
6	0xbe4b6abd	-0.19864936
7	0xbe8ce4d8	-0.27518344
8	0xbd7d96f4	-0.06191154
9	0xbce18b4c	-0.027532242
10	0x3d900101	0.070314415
11	0x3e58b931	0.21164395
12	0xbe61c575	-0.2204798
13	0x3dbdceb1	0.09267939
14	0x3f041e56	0.5160879
15	0x3f37e155	0.71828204
16	0xbcbe1b0e	-0.02320626
17	0x3e556f5d	0.20843263
18	0xbeb46184	-0.3523065
19	0xbe49411e	-0.19653746
20	0x3efd605a	0.49487573
21	0x3dd90e20	0.10598397
22	0x3e559cea	0.20860639
23	0xbee67163	-0.45008382
24	0x3ef3cc36	0.47616738
25	0xbe54244f	-0.20716976
26	0xbea741cc	-0.32667387
27	0xbf0066eb	-0.5015704
28	0x3dffa836	0.124832556
29	0xbe9e0a25	-0.30867115
30	0x3ec47bcc	0.383757
31	0x3eaa6c1f	0.33285615
32	0xbcf66c81	-0.030081036
33	0x3da98329	0.0827697
34	0x3e8e1710	0.2775197
35	0xbd890506	-0.06690411
36	0x3e40014d	0.18750496
37	0xbc3d8dd5	-0.01156946
38	0xbddf5176	-0.10904209
39	0xbdecc655	-0.11561266
40	0xbe860540	-0.2617588
41	0xbd00662f	-0.03134745
42	0x3ddd52e5	0.108068265
43	0xbdba1913	-0.09086814
44	0xb914f2a9	-0.00014204778
45	0xbdb2a17a	-0.087222055
46	0x3e64235d	0.22279115
47	0xbdca6aa3	-0.098836206
48	0x3ce3e33e	0.027818318
49	0x3eb97002	0.36218268
50	0xbd63b41e	-0.055591695
51	0x3d8bf957	0.06834667
52	0x3d675f70	0.0564875
53	0xbdf15223	-0.117832445
54	0xbea224bb	-0.31668648
55	0xbe2d06c5	-0.16897114
56	0x3d94e2a3	0.0726979
57	0xbde0dd08	-0.10979658
58	0x3e1dc128	0.15405715
59	0x3c1b7e92	0.009490626
60	0xbe1def24	-0.15423256
61	0x3d9985d0	0.07496226
62	0x3d586b9e	0.052837007
63	0xbd63d1d1	-0.05562002
64	0x3e8af665	0.2714111
65	0x3d3d1ce8	0.046170145
66	0x3e27ef32	0.1639984
67	0xbe3ee533	-0.1864212
68	0xbeb2bfaf	-0.34911868
69	0x3e8b4584	0.27201474
70	0x3e69a62c	0.22817296
71	0x3de00e21	0.10940195
72	0xbc3a0f7a	-0.011356229
73	0x3e80973f	0.25115392
74	0x3de152b9	0.11002106
75	0xbe931c21	-0.28732398
76	0x3e8de4ef	0.27713725
77	0xbee8b481	-0.45450214
78	0x3e71817a	0.23584548
79	0x391cadbc	0.0001494204
80	0x3ec4b943	0.38422593
81	0xbc817f8f	-0.015807895
82	0xbefd32a5	-0.494527
83	0xbf2547bf	-0.645626
84	0x3f1e62b4	0.6186936
85	0x3ceb5fda	0.028732229
86	0x3d2cd25d	0.042192806
87	0xbf0b0404	-0.54303
88	0xbd04ac49	-0.032390866
89	0xbe5e295f	-0.2169547
90	0xbede7695	-0.43449846
91	0xbebbe9e4	-0.36701882
92	0xbe46c7e8	-0.19412196
93	0xbcbe302e	-0.023216333
94	0x3ec06961	0.37580398
95	0xbeda4999	-0.42634276
96	0x3e953cc4	0.29147923
97	0x3cd20a46	0.025639664
98	0x3e51bb01	0.20481493
99	0x3cbe6c41	0.023244979
100	0x3e2fbe42	0.17162421
101	0x3e188786	0.14895448
102	0xbe4a9f45	-0.19787319
103	0xbe3df3b8	-0.18550003
104	0xbe8ee244	-0.27907002
105	0x3e46007b	0.19336121
106	0x3dd26a84	0.102742225
107	0x3e81e54e	0.25370258
108	0xbdcf7619	-0.10129947
109	0x3eb44999	0.352124
110	0xbdbde0ac	-0.092713684
111	0xbdc45093	-0.09585681
112	0xbdfdd44b	-0.12394007
113	0x3e434b55	0.19071706
114	0x3d6f6020	0.05844128
115	0xbe09c93c	-0.13455671
116	0xbda08e3d	-0.0783963
117	0x3f002c62	0.5006772
118	0x3ca4454a	0.02005257
119	0xbe94600d	-0.2897953
120	0x3dd2e7ea	0.1029814
121	0xbe835583	-0.25651178
122	0x3deddead	0.11614738
123	0x3d89986c	0.06718525
124	0x3dd5a8d9	0.10432596
125	0x3e6872f5	0.22700103
126	0xbc2ad113	-0.010425824
127	0x3e0b7055	0.1361707

lstm.bias_hh_l0 f4 [128]
0	0x3e932a63	0.28743276
1	0x3e114650	0.14186978
2	0x3edcbdba	0.431135
3	0xbe95918b	-0.29212603
4	0xbd11d959	-0.03560767
5	0x3e907f2e	0.2822203
6	0x3d16d8fe	0.036828034
7	0xbdc486d4	-0.09596029
8	0xbbf508bf	-0.0074778493
9	0x3e296ac3	0.16544633
10	0x3e98db29	0.29854706
11	0x3e8decd1	0.2771974
12	0xbeb619cf	-0.35566565
13	0x3cb1d3dd	0.02170747
14	0x3e891a5b	0.2677792
15	0x3ee13ed3	0.43993244
16	0x3e06c7c6	0.13162145
17	0x3e264618	0.16237676
18	0xbe1e30bd	-0.1544828
19	0xbe1f29ce	-0.15543291
20	0x3ec8dc40	0.39230537
21	0x3ed87913	0.42279872
22	0x3d860412	0.06543745
23	0xbebdfef0	-0.37108564
24	0x3e889935	0.26679388
25	0xbe2129bb	-0.15738575
26	0xbef38cbc	-0.4756831
27	0xbe95b032	-0.2923599
28	0x3d52c874	0.0514607
29	0xbedd473e	-0.43218416
30	0x3e3d2c94	0.18474036
31	0x3eaba0a9	0.3352101
32	0xbda0bb9b	-0.07848283
33	0xbde8ec63	-0.11373212
34	0x3ed6246e	0.4182467
35	0x3d0bb1c3	0.034105074
36	0x3e6d9cdd	0.2320437
37	0x3e5e31a3	0.21698622
38	0xbdd2f82f	-0.103012435
39	0xbe8f9e47	-0.28050444
40	0xbdc5138b	-0.09622868
41	0x3c47a558	0.012185417
42	0xbc4066ab	-0.011743228
43	0x3de9a185	0.114077605
44	0xbe728925	-0.23685129
45	0xbda0f511	-0.07859243
46	0x3e2d483d	0.16922088
47	0x3d911be9	0.070854016
48	0xbc5b4121	-0.013382227
49	0x3e88159e	0.26578993
50	0xbe32cdfc	-0.1746139
51	0x3eae08a1	0.33990958
52	0xbe3adc0e	-0.18248007
53	0x3e4632fa	0.19355384
54	0xbddceeaa	-0.10787709
55	0xbe5f6bf0	-0.21818519
56	0x3dadf50c	0.084940046
57	0x3d877bbd	0.06615398
58	0x3d1086f3	0.035284948
59	0x3dc7f167	0.09762841
60	0xbe6a5c94	-0.22886878
61	0xbe104b79	-0.1409129
62	0x3e5d1f55	0.21593983
63	0x3c28ba18	0.010298274
64	0x3e23bf15	0.15990861
65	0x3c2d6753	0.010583716
66	0x3e92a486	0.28641146
67	0xbddf21d7	-0.10895126
68	0xbf29f7cb	-0.6639373
69	0x3e81f09e	0.2537889
70	0x3ecde439	0.40213183
71	0x3de501e5	0.11182002
72	0xbcce29ad	-0.025166357
73	0x3bbbafd2	0.0057277465
74	0x3deea9dd	0.116534926
75	0xbeb46bfd	-0.3523864
76	0x3eafa3ea	0.34304744
77	0xbef9b92b	-0.48774084
78	0x3e35803a	0.17724696
79	0xbdb11101	-0.08645821
80	0x3f03859c	0.51375747
81	0xbea43e21	-0.3207865
82	0xbf02ecc8	-0.5114255
83	0xbf3920a1	-0.7231541
84	0x3ece0de4	0.40244973
85	0xbdca96ad	-0.098920204
86	0x3eaf6bf0	0.34262037
87	0xbeea5e86	-0.4577524
88	0xbd869f1a	-0.06573315
89	0xbeb68733	-0.35650024
90	0xbedff2d3	-0.43739948
91	0xbea52c38	-0.322603
92	0xbee1847a	-0.44046384
93	0x3c2ec23c	0.010666426
94	0x3f30f5a0	0.69124794
95	0xbef5e149	-0.4802344
96	0x3ecf204d	0.4045433
97	0x3e87429d	0.2641801
98	0x3e792822	0.24331716
99	0xbde878a7	-0.113511376
100	0x3cde6eb6	0.0271524
101	0x3eee8bd7	0.46591064
102	0x3c46ff3c	0.012145814
103	0xbe84cbc8	-0.25936723
104	0xbebed121	-0.37268928
105	0x3dc64223	0.09680583
106	0x3e864253	0.26222476
107	0x3e27cdd1	0.16387106
108	0xbb2d023a	-0.0026399032
109	0x3e5bfc17	0.21482883
110	0x3d375d22	0.044766553
111	0x3e1a5408	0.15071118
112	0xbe1fd688	-0.15609181
113	0x3e5ee70b	0.21767823
114	0x3eb580f0	0.35449934
115	0xbcef92a6	-0.029244732
116	0x3ccd715e	0.025078472
117	0x3ec5b58c	0.38615072
118	0x3c4c00a6	0.0124513265
119	0xbe9db3b7	-0.30801174
120	0x3ea57379	0.3231466
121	0xbe91c7c8	-0.28472733
122	0x3d872d86	0.0660048
123	0x3dc0eb60	0.09419894
124	0x3e218962	0.15775064
125	0x3f0993b4	0.53741
126	0x3deececb	0.116605364
127	0x3ebb951e	0.36637205

lstm.weight_ih_l1 f4 [128, 32]
0	0xbe592768	-0.21206439
1	0xbf54b715	-0.8309186
2	0xbe07fecc	-0.13280791
3	0x3faf9381	1.371689
4	0xbc5286a7	-0.012849486
5	0xbe5b912f	-0.21442102
6	0xbe0623a8	-0.1309954
7	0x3c206362	0.00978932
8	0x3f1c4b78	0.61052656
9	0xbfedde9f	-1.8583564
10	0xbf711bd6	-0.941831
11	0x3f904e00	1.1273804
12	0xc00537b5	-2.081525
13	0x3fb41ac4	1.4070668
14	0x3e9d9551	0.30777982
15	0x3e38e9f7	0.18058
16	0xbe762146	-0.2403613
17	0xbd154fcb	-0.03645305
18	0x3ee6e00a	0.45092803
19	0x3e5c7adc	0.21531242
20	0xbdcf3291	-0.10117067
21	0xbe67b9ac	-0.22629422
22	0xbf6f50eb	-0.93482846
23	0x3c421fe7	0.011848426
24	0x3ea37d93	0.31931743
25	0x3cf3d42a	0.029764254
26	0x3f197815	0.59948856
27	0x3fd0eb19	1.6321746
28	0x4001dec0	2.0292206
29	0xbe2ce46b	-0.1688401
30	0xbde978e6	-0.11400013
31	0xbd694086	-0.0569463
32	0xbeb2842b	-0.3486646
33	0xbf9f1b5d	-1.2430226
34	0xbce95f14	-0.02848772
35	0x3fd79162	1.6841242
36	0x3e6f47ee	0.23367283
37	0xbe73cba1	-0.23808147
38	0x3c8f09bc	0.017460696
39	0x3b7fd5af	0.0039037277
40	0x3f04ee8a	0.5192648
41	0xbff98aa4	-1.9495435
42	0xbf9b6ba2	-1.2142222
43	0x3f88a01a	1.0673859
44	0xc012340c	-2.2844267
45	0x3fa58ef1	1.2934247
46	0x3f0cfe26	0.550753
47	0xbe6a9e97	-0.2291206
48	0xbdd4cd8e	-0.10390769
49	0xbe9dbdfa	-0.30809003
50	0x3e2b1d91	0.16710497
51	0x3da6de62	0.08147885
52	0xbadcc596	-0.0016843553
53	0x3de25c50	0.110527635
54	0xbf8719fb	-1.0554804
55	0x3e88269c	0.26591957
56	0x3ea56025	0.32299915
57	0x3df62458	0.12018651
58	0x3ef66308	0.4812243
59	0x3fbecbda	1.490596
60	0x4002c028	2.0429783
61	0xbe80de37	-0.25169536
62	0xbe0f2072	-0.1397722
63	0xbcd3bb5b	-0.025846174
64	0xbd951c0d	-0.07280741
65	0xbf3a9a0c	-0.72891307
66	0x3d4d52c4	0.05012776
67	0x3fb9918a	1.449754
68	0x3d0577a3	0.032584798
69	0xbeefa591	-0.46806005
70	0xbc120b85	-0.008913879
71	0xbe638c34	-0.22221452
72	0x3eddc759	0.43316153
73	0xbfb0f5db	-1.3825029
74	0xbf71f12a	-0.9450861
75	0x3f2fe7a3	0.68712825
76	0xc01bcde2	-2.434441
77	0x3f8865c6	1.0656059
78	0x3e4a1df2	0.19737986
79	0x3e5342ab	0.206309
80	0xbe63550b	-0.2220041
81	0x3e6b8e12	0.23003414
82	0x3f44f17e	0.7693099
83	0x3df8b6dc	0.12144253
84	0xbd1d0763	-0.038337123
85	0xbe558378	-0.20850933
86	0xbf869d78	-1.0516806
87	0x3e85b05f	0.26111123
88	0x3f1b72d0	0.60722065
89	0x3db55e25	0.08855847
90	0x3f492e3c	0.78586173
91	0x3fd1bfd1	1.6386663
92	0x3fd7d9f1	1.6863385
93	0xbe0cc938	-0.13748634
94	0xbf13301a	-0.5749527
95	0x3de52e0c	0.11190423
96	0xbe505e8f	-0.20348571
97	0xbfa2ad94	-1.2709222
98	0xbe4e2cc9	-0.20134272
99	0x3fd4c9ba	1.6624062
100	0x3d87b3e9	0.06626112
101	0xbe24312e	-0.16034386
102	0x3d652412	0.055942602
103	0xbd8c3688	-0.068463385
104	0x3f00bc0b	0.5028693
105	0xbff5b13f	-1.9194716
106	0xbf9ef38d	-1.2418076
107	0x3fb0211d	1.3760105
108	0xbff3a9bc	-1.9036174
109	0x3fb39aac	1.4031577
110	0x3e49eecf	0.19720004
111	0x3d5cc288	0.053896457
112	0xbd2ac167	-0.04168835
113	0xbe0309f5	-0.12796767
114	0x3e94bfd9	0.29052618
115	0x3d1ffebd	0.039061297
116	0xbdf58f29	-0.11990196
117	0xbd808001	-0.06274415
118	0xbf87ccb7	-1.0609349
119	0x3e64e509	0.22352995
120	0x3eae04c9	0.33988026
121	0x3cdf3db8	0.02725111
122	0x3f1120e8	0.56690836
123	0x3fa96961	1.3235284
124	0x400050d2	2.0049329
125	0xbecf7b56	-0.40523785
126	0xbe1ff9bc	-0.1562261
127	0xbc8caf75	-0.017173508
128	0xbe93a4d1	-0.28836682
129	0xbef48f83	-0.4776574
130	0xbdcb2da3	-0.09920814
131	0x3f7c418f	0.98537534
132	0x3c71be26	0.014754808
133	0xbeea0930	-0.45710135
134	0x3d2f69dc	0.042825565
135	0x3c063f27	0.008193768
136	0x3f07090c	0.5274818
137	0xbfb90969	-1.4455997
138	0xbf6ef482	-0.9334184
139	0x3f1db427	0.61603016
140	0xc00d1fec	-2.2050734
141	0x3f93fdcc	1.1561828
142	0x3cb19139	0.021675693
143	0x3e88b0d2	0.26697403
144	0x3c3b66ac	0.011438053
145	0x3d45e13b	0.0483105
146	0x3ef015db	0.46891674
147	0xbc7b15fd	-0.015325067
148	0x3c58115f	0.013187735
149	0xbe483192	-0.1955016
150	0xbf385f9b	-0.7202088
151	0x3d346009	0.0440369
152	0x3ec1fa94	0.37886488
153	0xbd78542f	-0.06062716
154	0x3f079967	0.5296845
155	0x3f956e3a	1.1674263
156	0x3ff20dac	1.8910422
157	0xbe7a5836	-0.24447712
158	0xbecf28bb	-0.40460762
159	0x394d63d1	0.00019587508
160	0xbd97dd05	-0.07415203
161	0xbf24073e	-0.6407355
162	0xbe1ef183	-0.15521817
163	0x3f5f39bf	0.8719749
164	0x3e2bf191	0.16791369
165	0xbeaf6eee	-0.3426432
166	0xbe2937f6	-0.16525254
167	0xbe15ef6a	-0.1464211
168	0x3e8aea5e	0.27131933
169	0xbfa90d4d	-1.3207184
170	0xbf8bbec8	-1.0917597
171	0x3f45a44c	0.7720382
172	0xc0071715	-2.1107838
173	0x3f8138b9	1.0095435
174	0x3e7b0994	0.24515373
175	0x3ee99a01	0.45625308
176	0x3dc52ab5	0.09627286
177	0x3ca1b584	0.019739874
178	0x3ec83e12	0.39109856
179	0x3e5409e2	0.20706895
180	0x3dd6170c	0.104536146
181	0xbecc15f6	-0.39860505
182	0xbf750561	-0.9571133
183	0x3e7ac406	0.2448884
184	0x3e95ecee	0.29282326
185	0x3e968273	0.293964
186	0x3e8b8813	0.27252254
187	0x3fc420cd	1.532251
188	0x3fdffb67	1.7498597
189	0xbd66dcae	-0.0563628
190	0xbed2794f	-0.41108176
191	0xbcb58bf4	-0.022161461
192	0xbd930243	-0.07178166
193	0xbf3fe15f	-0.74953264
194	0xbc06a89a	-0.008218909
195	0x3fab42a8	1.3379717
196	0x3e014d58	0.1262716
197	0xbed7c3f0	-0.42141676
198	0xbe808e44	-0.2510854
199	0xbcc765bc	-0.024340503
200	0x3ea78827	0.32721063
201	0xbff9059c	-1.9454837
202	0xbf8e7964	-1.1130795
203	0x3f5da984	0.86586785
204	0xc0083277	-2.1280801
205	0x3fa3c0cf	1.2793216
206	0x3ebce021	0.36889747
207	0x3f0697d0	0.525754
208	0x3dc8fc06	0.09813695
209	0xbdec103f	-0.11526536
210	0x3ef85dcf	0.4850907
211	0xbd516d4f	-0.051129635
212	0xbe77967d	-0.241785
213	0xbe5ba7b2	-0.2145069
214	0xbf771a9e	-0.9652499
215	0x3e364097	0.17798077
216	0x3ec8dce0	0.39231014
217	0xbd1359b4	-0.03597422
218	0x3f1cfa2f	0.6131925
219	0x3fc8fb31	1.5701658
220	0x400bea0b	2.1861598
221	0xbe352280	-0.17688942
222	0xbe71b6be	-0.23604867
223	0x3dcc4dd0	0.09975779
224	0xbdce751d	-0.10080931
225	0xbf3b73d3	-0.7322361
226	0x3c64dc1a	0.013968492
227	0x3fe04dc7	1.7523736
228	0x3e0621be	0.13098809
229	0xbed9f615	-0.42570558
230	0xbd7c4c30	-0.061596096
231	0x3d508cd1	0.050915543
232	0x3ee93c17	0.45553657
233	0xc0065b00	-2.0993042
234	0xbfa178d8	-1.2615004
235	0x3f83d6c3	1.0299915
236	0xc0064cb6	-2.098432
237	0x3fcf2ce1	1.6185571
238	0x3e51921b	0.20465891
239	0x3e98473d	0.2974185
240	0x3db5b6c4	0.088727504
241	0x3ceccb66	0.028905582
242	0x3eda3fe3	0.42626867
243	0xbd4b2695	-0.04959734
244	0xbe53378c	-0.20626658
245	0x3cdccf05	0.026954183
246	0xbf936319	-1.1514617
247	0x3d9a6a93	0.07539859
248	0x3e17b874	0.14816457
249	0xbc4897f6	-0.012243262
250	0x3f0394d5	0.51398975
251	0x3faf8f6e	1.3715646
252	0x400cf8fe	2.2026973
253	0xbd860c18	-0.065452754
254	0xbe289ae2	-0.16465333
255	0x3d8f7363	0.0700443

lstm.weight_hh_l1 f4 [128, 32]
0	0x3d3e2daf	0.046430286
1	0xbcb2f446	-0.021844994
2	0x3c8f67cb	0.017505547
3	0xbe036dfc	-0.12834924
4	0x3def63a6	0.11688928
5	0x3da0aa43	0.07844975
6	0x3df8b6f6	0.12144272
7	0x3e0d1d34	0.13780671
8	0xbdbca6c3	-0.09211495
9	0xbe10ad4f	-0.14128612
10	0x3d67d277	0.0565972
11	0xbe1c337d	-0.15254016
12	0xbd763498	-0.06010875
13	0xbd295bef	-0.04134744
14	0x3c625677	0.01381456
15	0xbc99063c	-0.01867973
16	0xbc163350	-0.009167507
17	0xbdf57c51	-0.11986602
18	0x3d567c38	0.052364558
19	0x3d0e87ed	0.034797598
20	0x3e5b3426	0.21406612
21	0x3e876c17	0.26449654
22	0xbcd21c4b	-0.025648257
23	0xbdff1ca4	-0.12456635
24	0x3bdefcc0	0.0068050325
25	0x3e27aa6c	0.16373605
26	0xbd2f9f28	-0.042876393
27	0xbc98bbe5	-0.018644283
28	0xbd5728e0	-0.052529216
29	0xbde651a6	-0.11246042
30	0x3e8b86ff	0.2725143
31	0x3e1d6df6	0.15373978
32	0xbdea7a26	-0.11449079
33	0x3ca9ce81	0.020728352
34	0x3c6a5e3b	0.014304693
35	0xbea7bc61	-0.3276091
36	0x3e7b7516	0.24556383
37	0x3e30fa76	0.17283043
38	0xbe489d4d	-0.19591255
39	0x3e7bede6	0.2460247
40	0xbe5b56e8	-0.21419871
41	0x3c658e23	0.014010939
42	0x3e0135a9	0.12618126
43	0xbe3a9683	-0.18221478
44	0xbd4dbc92	-0.050228663
45	0xbd142485	-0.03616764
46	0xbe27d356	-0.16389212
47	0x3dd3a904	0.103349715
48	0xbe6dbf1e	-0.23217437
49	0xbc8d9bab	-0.017286142
50	0xbe902e1b	-0.28160176
51	0x3e88c912	0.26715904
52	0xbd89a0bb	-0.0672011
53	0x3e2a6a86	0.16642198
54	0x3d882a7d	0.06648729
55	0xbe11789a	-0.14206162
56	0x3dfe2c9f	0.124108545
57	0x3d9c2b60	0.076254606
58	0x3d036efd	0.03208827
59	0xbe83b537	-0.25724193
60	0x3d1b2427	0.037876274
61	0xbbd48439	-0.0064854887
62	0x3e81ef1c	0.25377738
63	0x3dbd92db	0.09256526
64	0xbd5d68c8	-0.054055005
65	0xbc7f7404	-0.015591625
66	0x3ddb47f5	0.10707084
67	0xbd6e7589	-0.05821756
68	0x3e012874	0.12613088
69	0xbb8f132c	-0.004366299
70	0x3c56dc49	0.0131140435
71	0x3e5ce21f	0.21570633
72	0xbe13ad66	-0.14421615
73	0xbdd3fc4d	-0.10350857
74	0xbcaeb366	-0.021325778
75	0xbd8f1554	-0.0698649
76	0xbcb3cdcd	-0.02194872
77	0x3e6d11d3	0.2315133
78	0xbce11399	-0.027475165
79	0x3dd09af2	0.101858035
80	0x3d64bd5b	0.055844646
81	0xbd3567c8	-0.044288427
82	0x3db70aec	0.0893763
83	0x3e65e62a	0.22451082
84	0x3e0d0a86	0.13773546
85	0x3de66aa0	0.11250806
86	0x3c848484	0.01617647
87	0xbe073356	-0.13203177
88	0x3ca302fe	0.019898888
89	0x3dd0b0e7	0.101899914
90	0x3dfa3d1e	0.122186884
91	0xbd89fbb7	-0.06737464
92	0xbd1e2cf2	-0.038617082
93	0xbcbfb1b2	-0.023400161
94	0x3e18747e	0.14888188
95	0x3e56f002	0.20989993
96	0xbe308a7a	-0.17240325
97	0xbe02f284	-0.12787825
98	0x3cd875cd	0.02642336
99	0x3d6ba2cb	0.0575283
100	0x3d795f94	0.060882166
101	0x3d4e213a	0.050324656
102	0xbd0ff8f4	-0.03514953
103	0xbd0a1901	-0.03371525
104	0xbe456f20	-0.19280672
105	0xbe2bebcf	-0.16789173
106	0x3e28aa9f	0.16471337
107	0xbe002070	-0.12512374
108	0x3d3fb7ce	0.04680615
109	0x3e50de84	0.20397383
110	0xbe639919	-0.22226371
111	0x3d325146	0.04353454
112	0xbd3a041c	-0.045414075
113	0xbd5ee7f2	-0.05442042
114	0xbe8107dd	-0.25201312
115	0x3dd50cfb	0.104028665
116	0x3e86452b	0.26224646
117	0xbda045d7	-0.07825821
118	0x3d9d53d5	0.07682005
119	0xbe70cb6f	-0.23515104
120	0x3e1bf385	0.15229614
121	0x3e137890	0.1440146
122	0x3cea5c01	0.028608324
123	0xbdf8c3c9	-0.12146718
124	0x3d9a48a8	0.07533389
125	0xbdcfb1df	-0.10141348
126	0x3e0ff8f3	0.1405981
127	0x3d58926c	0.052874014
128	0xbe0ddfa1	-0.13854839
129	0xbd9e61ef	-0.07733523
130	0x3dd27a6b	0.102772556
131	0x3d0f234d	0.034945775
132	0x3d71383d	0.058891524
133	0xbe510d65	-0.20415266
134	0x3e25ca38	0.16190422
135	0xbce27d34	-0.027647592
136	0x3e07ea2c	0.13272923
137	0xbe3eab3e	-0.18620011
138	0xbd8caacb	-0.06868514
139	0xbe164ce3	-0.14677767
140	0xbdf7f596	-0.12107389
141	0xbe1a3840	-0.1506052
142	0x3dfae516	0.12250726
143	0x3e02ab98	0.1276077
144	0xbdabe875	-0.08393947
145	0x3dde1d23	0.10845401
146	0x3d8bcf6f	0.06826674
147	0xbd363191	-0.044480864
148	0x3c96b408	0.018396392
149	0x3de88f27	0.11355429
150	0x3e236ac6	0.159587
151	0x390356d2	0.00012525477
152	0xbe00324a	-0.12519184
153	0x3e27f490	0.16401887
154	0xbc7b6de8	-0.015346028
155	0x3ca37087	0.019951118
156	0x3e93e587	0.28886053
157	0x3c46ff69	0.012145855
158	0xbe2ad5c3	-0.16683106
159	0x3dbf6856	0.093460724
160	0x3d9237bc	0.07139537
161	0xbe80eb66	-0.25179595
162	0x3cb2f9ee	0.021847691
163	0xbd7b2c58	-0.061321586
164	0x3dca6cc9	0.0988403
165	0x3e5c1256	0.2149137
166	0x3d9bda03	0.07609942
167	0x3e5ee525	0.21767099
168	0xbe663fa5	-0.22485216
169	0xbe6613f3	-0.22468548
170	0x3e7372a9	0.23774208
171	0xbdfbeccd	-0.123010255
172	0x3e251571	0.1612146
173	0x3e053b2d	0.13010855
174	0x3d04ece2	0.03245247
175	0x3e2c1102	0.16803363
176	0xbcd5801f	-0.02606207
177	0xbe18caff	-0.14921187
178	0xbe6524e3	-0.22377352
179	0x3ea06310	0.3132558
180	0x3d36795b	0.044549327
181	0x3e6552d5	0.22394879
182	0xbe1f9516	-0.15584216
183	0xbe7f78b8	-0.24948394
184	0x3e3124d9	0.17299213
185	0xbd486276	-0.048922025
186	0x3ca23a94	0.019803323
187	0xbe0b2457	-0.13588081
188	0x3e5d9970	0.21640563
189	0xbcc93639	-0.024561988
190	0xbd98b81a	-0.074569896
191	0x3daca7fd	0.08430479
192	0xbc8d1f55	-0.017226854
193	0xbd702b1a	-0.058634855
194	0x3c90fe6e	0.017699447
195	0xbdd8749f	-0.10569119
196	0x3c699b6c	0.014258247
197	0x3eaa9474	0.33316386
198	0xbd89630f	-0.06708347
199	0xbdc5da84	-0.09660819
200	0xbda0d546	-0.07853179
201	0xbde7e065	-0.11322097
202	0x3e1601db	0.14649145
203	0xbe2bf292	-0.16791752
204	0x3df1b989	0.11802966
205	0x3e458958	0.19290674
206	0x3b898a5c	0.004197402
207	0x3e4f969b	0.20272295
208	0xbe7a5f54	-0.24450427
209	0xbd8d14f3	-0.06888761
210	0xbd85b23c	-0.06528136
211	0x3d78205c	0.060577735
212	0x3df0799a	0.11741944
213	0x3d04898a	0.03235773
214	0xbe19c337	-0.15015875
215	0xbe1efa83	-0.1552525
216	0xbd1d1005	-0.038345356
217	0xbddb027d	-0.10693834
218	0x3cb5ecb9	0.022207605
219	0xbd626162	-0.055268653
220	0x3e15891b	0.14603083
221	0xbe51935d	-0.20466371
222	0xbd373e3b	-0.044737082
223	0x3d35546a	0.044269957
224	0xbdd66402	-0.10468294
225	0xbe94dc68	-0.29074407
226	0xbcfcdf1c	-0.030868106
227	0xbd46b815	-0.048515398
228	0x3e215ab5	0.15757258
229	0x3e19616f	0.14978574
230	0xbd647879	-0.055778954
231	0x3adcb634	0.0016838969
232	0xbe2752e6	-0.16340217
233	0xbeab268f	-0.33427855
234	0x3e8621f8	0.2619779
235	0x3b0acf81	0.002118081
236	0x3e6f7e10	0.23387933
237	0xbc96866e	-0.018374648
238	0xbe4b783d	-0.19870086
239	0x3daa09bb	0.08302637
240	0xbe7de8cb	-0.24795835
241	0xbe30ea4c	-0.17276877
242	0xbea1c3cd	-0.31594697
243	0x3e573c13	0.2101901
244	0x3debeac0	0.115193844
245	0x3e2bae08	0.16765606
246	0xbea5ed49	-0.32407597
247	0xbe95cc8e	-0.29257625
248	0x3daaa623	0.08332469
249	0x3d36bbf4	0.04461284
250	0x3e95868b	0.2920421
251	0xbd01d085	-0.031693
252	0x3e3cc3cd	0.18434067
253	0xbdb4a402	-0.088203445
254	0x3d431fbc	0.047637686
255	0x3e808087	0.2509806

lstm.bias_ih_l1 f4 [128]
0	0x3ddcf518	0.107889354
1	0x3e7d534f	0.24738811
2	0x3dfd3949	0.12364442
3	0x3e248ac2	0.16068557
4	0x3d403864	0.04692878
5	0x3e63948c	0.22224635
6	0x3e04cd51	0.12968947
7	0xbd177346	-0.036975168
8	0x3e731e2b	0.23741977
9	0x3e1027d3	0.14077692
10	0x3e83c1a9	0.25733688
11	0x3e920014	0.28515685
12	0xbdda3526	-0.106546685
13	0x3e95a407	0.29226705
14	0x3e8872db	0.26650128
15	0x3e5f7c94	0.21824867
16	0x3e7eb18d	0.24872418
17	0xbd1ea1e9	-0.03872863
18	0x3e49ba72	0.1970003
19	0x3e03012e	0.12793419
20	0x3b1e21f6	0.002412913
21	0x3d4b2c33	0.0496027
22	0x3d560f48	0.052260667
23	0x3daffa26	0.08592634
24	0x3d270d57	0.040784206
25	0x3dfde8aa	0.12397893
26	0x3dc3764b	0.09544047
27	0xbd540be6	-0.05176916
28	0x3b81d4f6	0.0039621545
29	0x3d0f1a51	0.034937207
30	0xbd0d2405	-0.03445818
31	0x3e675ab8	0.225932
32	0x3e001cc0	0.12510967
33	0x3e07d85c	0.13266128
34	0x3e238d4b	0.15971868
35	0x3e9a73f8	0.30166602
36	0x3e7b8890	0.24563813
37	0xba8f2f24	-0.0010924083
38	0x3e607376	0.21919045
39	0xbd9f2c7f	-0.07772159
40	0x3d954b5a	0.07289763
41	0xbcbd70ed	-0.023125136
42	0x3e28a3d1	0.16468741
43	0x3df70a54	0.12062517
44	0x3e136848	0.14395249
45	0x3e1364d9	0.14393939
46	0x3dace181	0.08441449
47	0x3e4ac1e1	0.19800521
48	0xbdff817b	-0.12475868
49	0x3e3f0532	0.18654326
50	0xbcb5d8a7	-0.022198034
51	0xbc4673e9	-0.012112596
52	0xbd4004f8	-0.04687974
53	0x3b8f19c7	0.0043670866
54	0xbd9e2ed8	-0.077237785
55	0x3d12208e	0.035675578
56	0x3e3022ac	0.17200726
57	0x3c0165a9	0.007897773
58	0x3daf5b6a	0.08562358
59	0x3e8160bb	0.25269112
60	0xbd41ccb5	-0.047314364
61	0x3e1d388a	0.15353599
62	0x3e672c7f	0.22575568
63	0x3d30c8b9	0.043160174
64	0xbe73e923	-0.23819403
65	0xbe59b32b	-0.21259753
66	0xbe53a874	-0.20669729
67	0xbdc83a53	-0.097767495
68	0x3e2cd8ce	0.1687958
69	0x3d14fc87	0.03637364
70	0x3d87a7b5	0.066237845
71	0x3e6a868e	0.22902891
72	0xbe60fa79	-0.21970548
73	0xbe410c8c	-0.18852443
74	0xbd47ffaa	-0.048827805
75	0xbe373128	-0.17889845
76	0xbda1257c	-0.07868478
77	0x3e01190a	0.12607208
78	0xbe528266	-0.20557556
79	0x3d9909b7	0.07472556
80	0xbe6f1148	-0.23346436
81	0xbe47b29d	-0.1950173
82	0xbe4f5376	-0.20246682
83	0x3dd023f3	0.10163107
84	0x3de8ca02	0.11366655
85	0x3e2ffb3e	0.17185685
86	0xba19f8ae	-0.0005873543
87	0xbd4b4435	-0.049625594
88	0x3e55c43d	0.2087564
89	0x3e7e105b	0.24810927
90	0xbd5e760f	-0.05431181
91	0xbe0e31ca	-0.1388618
92	0x3e22271f	0.15835236
93	0xbe04cae6	-0.12968025
94	0xbde13328	-0.109960854
95	0xbcae79a0	-0.02129823
96	0x3d19e285	0.03756954
97	0x3e353ed7	0.17699753
98	0x3e230d60	0.15923071
99	0x3db931b9	0.09042687
100	0x3eb4b2a1	0.35292533
101	0x3dbae9f3	0.091266535
102	0xbc407760	-0.011747211
103	0xbddf30e7	-0.10897999
104	0x3d669d2c	0.056302235
105	0x3da8c561	0.08240772
106	0x3d555647	0.052084234
107	0x3ca55419	0.020181702
108	0x3e782264	0.24231869
109	0x3de121f5	0.10992805
110	0x3c0a02a1	0.008423478
111	0xbe09b292	-0.13447025
112	0x3ba06e01	0.004895926
113	0x3e3494b6	0.17634854
114	0x3e3a7188	0.18207371
115	0x3e1a7a1e	0.15085647
116	0x3dc405f7	0.0957145
117	0x3df12186	0.11773972
118	0x3e166965	0.14688642
119	0x3e7e0644	0.24807078
120	0x3d1a4e98	0.03767261
121	0x3e88f10b	0.267464
122	0x3e5f75b9	0.21822251
123	0xbd43e7e4	-0.04782857
124	0x3e05884e	0.13040277
125	0xbda499e0	-0.08037162
126	0x3d8ed1c0	0.069736004
127	0x3e8b09be	0.2715587

lstm.bias_hh_l1 f4 [128]
0	0xbce7f345	-0.028314242
1	0x3e35e0c4	0.17761523
2	0x3da81d8a	0.08208759
3	0x3dffb148	0.124849856
4	0x3e8634e8	0.2621224
5	0x3befffa4	0.007324176
6	0x3e7e5b8f	0.24839614
7	0x3e039e05	0.12853248
8	0x3e49fa55	0.197244
9	0xbd502979	-0.0508208
10	0xbc236300	-0.009972334
11	0xbd0515bc	-0.03249143
12	0x3e4ef50a	0.20210662
13	0x3e70a2b4	0.23499566
14	0x3e6853b4	0.2268818
15	0x3c3a8cc5	0.011386101
16	0x3e9903f3	0.29885826
17	0x3e760320	0.2402463
18	0x3e2c94ba	0.1685361
19	0x3e94910d	0.29016915
20	0x3e2a354f	0.16621898
21	0x3e5c34a1	0.21504451
22	0x3d648e81	0.055799965
23	0x3e677ade	0.22605464
24	0x3d05ad0e	0.03263574
25	0xbcf32b21	-0.029683651
26	0x3e329f0e	0.17443487
27	0x3cb64912	0.02225164
28	0x3c9ad2eb	0.018899402
29	0xbd8b079d	-0.067885615
30	0x3d63d1d9	0.05562005
31	0x3d49c020	0.04925549
32	0x3e857781	0.26067737
33	0x3d873973	0.066027544
34	0x3da838ac	0.08213934
35	0x3cf4f983	0.029904133
36	0x3c0b7c27	0.008513487
37	0xbe410cb6	-0.18852505
38	0x3c8c9b68	0.017163947
39	0xbcf587ba	-0.029971946
40	0x3c2081c2	0.009796562
41	0x3d5405a8	0.051763207
42	0x3e173da5	0.1476961
43	0x3e121400	0.14265442
44	0x3e8489d9	0.2588642
45	0xbd96e806	-0.07368474
46	0x3e56a9f8	0.20963275
47	0x3e09ab45	0.1344424
48	0xbd1c7a50	-0.038202584
49	0x3d0d7668	0.03453675
50	0x3dba5187	0.09097581
51	0x3d66815a	0.056275703
52	0x3d99056e	0.07471739
53	0xbd305456	-0.04304918
54	0x3d36b321	0.044604424
55	0x3e1a8786	0.1509076
56	0x3e714fad	0.2356555
57	0xbd14b20c	-0.03630261
58	0x3e7e31eb	0.2482373
59	0x3c61dc29	0.0137854
60	0xbe1f375e	-0.15548465
61	0x3d640d66	0.05567684
62	0x3d949d99	0.07256622
63	0xbd767466	-0.0601696
64	0xbd963e43	-0.07336094
65	0xbe6e5f8c	-0.23278636
66	0xbde82571	-0.113352664
67	0x3db5f9cf	0.08885538
68	0x3cf0ffcf	0.029418854
69	0xbdf9c8a6	-0.12196474
70	0x3d31fdc4	0.0434549
71	0x3e0daab7	0.13834654
72	0x3dbecfc6	0.093169734
73	0xbdf3a4f3	-0.11896696
74	0x3e10a315	0.14124711
75	0xbd77ae92	-0.060469218
76	0xbd9993a3	-0.074988626
77	0x3e558b4f	0.20853923
78	0x3d9ab3f8	0.075538576
79	0xbd0dc122	-0.034608014
80	0x3d965a81	0.07341481
81	0xbe24b868	-0.1608597
82	0x3db79d2b	0.08965524
83	0x3d6909e3	0.056894194
84	0xbd178213	-0.036989283
85	0xbd3e1b9d	-0.046413053
86	0xbd4d6856	-0.05014833
87	0xbdbd68f4	-0.09248534
88	0xbd46532c	-0.048419163
89	0x3d6bda22	0.057581075
90	0x3e572aa8	0.21012366
91	0xbe4e0982	-0.20120814
92	0x3cf928da	0.030414987
93	0xbde65a70	-0.11247718
94	0x3e4553bf	0.19270228
95	0x3db32548	0.08747345
96	0x3db2eb23	0.08736255
97	0x3d82ade7	0.063808255
98	0x3e017ddd	0.1264567
99	0x3ea0c260	0.31398296
100	0x3d9ca51c	0.076486796
101	0x3a2d3ca6	0.00066084636
102	0x3c9da4cf	0.019243626
103	0xbdff2ad4	-0.12459341
104	0x3e8c8cd4	0.27451193
105	0xbd8c0a94	-0.06837955
106	0x3d45a599	0.04825363
107	0x3d7a2d4c	0.061078355
108	0x3e7b3565	0.24532087
109	0x3dfce99e	0.123492464
110	0x3ea3fd1d	0.32029048
111	0x3da60609	0.0810662
112	0x3c269a7d	0.010168669
113	0x3e180866	0.14846954
114	0x3dedad46	0.11605315
115	0x3dd4529b	0.10367318
116	0x3d2fc710	0.04291445
117	0x3d85ec0e	0.065391645
118	0x3e0a9ee2	0.13537171
119	0x3e867c44	0.26266682
120	0x3e9b2e42	0.3030873
121	0x3ea073a7	0.31338236
122	0x3e823ffe	0.25439447
123	0x3db112a5	0.08646134
124	0x3d3d943d	0.04628395
125	0xbdde7ddc	-0.108638495
126	0x3dae30e7	0.08505421
127	0xbc10f30c	-0.008847009

linear.weight f4 [2, 32]
0	0xc0e26db5	-7.075892
1	0xc0e2e5d6	-7.090556
2	0xc0e6e798	-7.2157707
3	0xc0dfec22	-6.997575
4	0x40dfbce3	6.9918075
5	0x40e3080c	7.0947323
6	0xc0e74e7a	-7.2283297
7	0x40e62843	7.1924148
8	0xc0e7fff1	-7.249993
9	0xc0e3b800	-7.116211
10	0x40e79717	7.2371936
11	0xc0e93ee3	-7.2889266
12	0x40e0c2d7	7.023784
13	0x40e493a2	7.1430216
14	0xc0e3a629	-7.114033
15	0x40e28296	7.0784407
16	0xc0e57e2a	-7.171651
17	0xc0e779e8	-7.233631
18	0xc0e8bea4	-7.2732716
19	0x40e48a87	7.14191
20	0x40e79fed	7.238272
21	0x40e6bc5d	7.2104936
22	0xc0e7df31	-7.245995
23	0xc0e7e81f	-7.247085
24	0x40e060b9	7.011807
25	0x40e353e7	7.103992
26	0x40e2d573	7.088556
27	0xc0e7eed0	-7.247902
28	0x40e8c8a6	7.274493
29	0xc0e86900	-7.2628174
30	0x40df8ef8	6.9862022
31	0x40e7c22f	7.242454
32	0xc0e627b5	-7.192347
33	0xc0e2c069	-7.0859876
34	0xc0e6b17d	-7.209166
35	0xc0e7795b	-7.233564
36	0x40e78720	7.2352448
37	0x40e641c6	7.195529
38	0xc0e4420d	-7.133063
39	0x40e20eac	7.064291
40	0xc0e47b0d	-7.140021
41	0xc0e34a28	-7.1028023
42	0x40e128e8	7.0362434
43	0xc0e1d09f	-7.0567164
44	0x40e6cfab	7.21285
45	0x40e30850	7.0947647
46	0xc0e3029e	-7.0940695
47	0x40e3c0fc	7.1173077
48	0xc0e31595	-7.0963845
49	0xc0df3ac1	-6.975922
50	0xc0e3ba07	-7.1164584
51	0x40df1833	6.971704
52	0x40e4da3b	7.1516395
53	0x40e71e16	7.2224226
54	0xc0e55126	-7.166156
55	0xc0e558d3	-7.167093
56	0x40e83417	7.2563586
57	0x40e64cf0	7.196892
58	0x40e3ed36	7.1227064
59	0xc0df653f	-6.981109
60	0x40e046e6	7.0086546
61	0xc0e7bf21	-7.242081
62	0x40e70c4e	7.220252
63	0x40de5bff	6.94873

linear.bias f4 [2]
0	0x40e03dcd	7.007544
1	0x40dbde39	6.870877
