ai_predict/ai/lightning_logs/version_35/checkpoints/epoch=0-step=8.ckpt (torch, 662004 bytes, 889 tensors)

prescalers.time_idx.weight f4 [8, 1]
00000000: 61c1 80be 302e 7fbe 44b8 edbe f9a3 5a3f
00000010: 109d 1abf 2bb7 11bf ad83 5c3f 9b6c 283f
-0.25147536 -0.24919963 -0.46429646 0.8540645 -0.6039591 -0.5692012 0.8613842 0.6579072

prescalers.time_idx.bias f4 [8]
00000000: 0a58 403f 9653 5b3f d258 f7be 9dfe 0cbf
00000010: 8ff9 3fbd e676 67bf 9da9 9d3e c1ce 36bf
0.75134337 0.85674417 -0.48309952 -0.5507601 -0.046868857 -0.904158 0.30793467 -0.7140923

prescalers.T2M.weight f4 [8, 1]
00000000: 25cd 0dbe 14d5 873d cda8 f3bd 0956 2b3f
00000010: a6cf 4b3e db59 473f a167 0c3f ca7d 8f3f
-0.13847788 0.06632438 -0.118974306 0.66928154 0.1990343 0.77871484 0.54845625 1.1210263

prescalers.T2M.bias f4 [8]
00000000: 38b5 f9be b702 2c3f 456d 33bf 6d18 c8be
00000010: c842 e03e b089 a0be 319d fbbe 765f c73e
-0.4877107 0.6719164 -0.7008861 -0.39081135 0.4380095 -0.31355047 -0.49143365 0.38940018

prescalers.T2M_MAX.weight f4 [8, 1]
00000000: b2bb 103f c97d 0cbf c0e2 98bc a984 98bd
00000010: 5ed8 713f ce78 2ebf 5a81 053f bda9 fdbe
0.565364 -0.5487943 -0.01866281 -0.07447178 0.94470775 -0.68153083 0.521505 -0.49543563

prescalers.T2M_MAX.bias f4 [8]
00000000: 0436 3b3f 8af5 4cbf ed26 64be 89d4 05be
00000010: b669 5cbf 79f9 1bbe 0113 3ebe c709 b1be
0.73129296 -0.8006216 -0.22280474 -0.13069357 -0.860988 -0.15231885 -0.18561937 -0.34577772

prescalers.T2M_MIN.weight f4 [8, 1]
00000000: bb3f c1be 3028 03be 4940 84be 8b20 e93d
00000010: d4dd f9be f50d 2f3f fd83 483f 9e50 643f
-0.37743935 -0.12808299 -0.25830296 0.1138316 -0.48802054 0.6838067 0.783264 0.8918551

prescalers.T2M_MIN.bias f4 [8]
00000000: c2a8 183f d023 7abf 3c3b 6d3f 8426 5abf
00000010: eab8 773f a21b 32bf 78e5 093e fe5c 073e
0.59632504 -0.97710896 0.9266851 -0.8521502 0.9676653 -0.69573414 0.13466442 0.13219067

prescalers.PRECTOTCORR.weight f4 [8, 1]
00000000: 2c7e 573f 4135 05bf df10 0f3f fb59 0dbf
00000010: e331 f53e 73ef c93d 6687 a1be 0600 563f
0.841769 -0.52034384 0.5588512 -0.55215424 0.47889623 0.098601244 -0.31548613 0.83593786

prescalers.PRECTOTCORR.bias f4 [8]
00000000: f24e 48bf fa8f 81bf b8d8 543f a527 403e
00000010: 5264 52bf 06d4 62be 0b06 e5be 4347 87bf
-0.7824546 -1.0122063 0.83143187 0.18765123 -0.82184327 -0.22151193 -0.44731173 -1.0568622

prescalers.RH2M.weight f4 [8, 1]
00000000: deb7 03bf 44cd 04bf 2807 413f 5bb1 2cbf
00000010: f022 91be e8ae 20bf f6df e1be de7c 163f
-0.51452434 -0.5187571 0.75401545 -0.6745812 -0.28346968 -0.62766886 -0.4411618 0.5878428

prescalers.RH2M.bias f4 [8]
00000000: 2b0f 3a3f dd4a 023f 074b 513e 9b5a b43e
00000010: ffe1 413f 1383 84be d5e0 04bf 7073 f33d
0.72679394 0.5089548 0.20438777 0.35225376 0.7573547 -0.25881252 -0.51905566 0.11887252

prescalers.ALLSKY_SFC_SW_DWN.weight f4 [8, 1]
00000000: 867d 04bf aace 5e3f 981c 283f bc3e c0be
00000010: 7f76 2e3f 1fc9 16bf 9d54 4bbf b86c fa3e
-0.51754034 0.87034094 0.6566863 -0.37547863 0.6814956 -0.58900636 -0.79425985 0.4891107

prescalers.ALLSKY_SFC_SW_DWN.bias f4 [8]
00000000: 462d 2ebf fcdb cebe 19d2 c63e 680b 7ebf
00000010: 2a81 d1bd e69c 53bf a646 9abe c75e 0cbe
-0.6803783 -0.4040221 0.38832167 -0.99236155 -0.10229714 -0.82661283 -0.30132025 -0.1370803

prescalers.numero_casos.weight f4 [8, 1]
00000000: fdd7 90be ede8 4b3f 3b4c 573f 6d5c 9a3d
00000010: 3cc5 a53d 1fe5 57bf b655 f3bc abb3 263f
-0.28289786 0.7965229 0.84100693 0.0753716 0.0809426 -0.84333986 -0.029703956 0.651179

prescalers.numero_casos.bias f4 [8]
00000000: c381 6d3f f9d8 39be c5a6 9f3d 255e 0cbf
00000010: 8389 b7be 5777 1bbf 4438 2d3f a846 2fbd
0.92776126 -0.18149175 0.07795481 -0.54831153 -0.358471 -0.60728973 0.6766398 -0.042791992

static_variable_selection.single_variable_grns.municipio.mask f4 [16]
00000000: 4c8c ea3d 1727 cfbd 2143 e9bd ddab ea3d
00000010: c39e e73d fb25 c63d 874c e9bd 0472 013e
00000020: d77f e7bd aa3b eabd 07ac e03d 5063 debd
00000030: 3f08 eabd 7b25 e4bd 869f e6bd 1741 e83d
0.11452541 -0.10114878 -0.11389757 0.114585616 0.11309578 0.09675213 -0.113915496 0.1264115
-0.113036804 -0.11437161 0.109703116 -0.10858786 -0.11427354 -0.11139961 -0.112608954 0.1134054

static_variable_selection.single_variable_grns.municipio.norm.weight f4 [16]
00000000: bfb6 8e3f 93f0 613f 4407 8f3f 481b 863f
00000010: 6add 633f a8ff 723f 50cd 803f 1544 8d3f
00000020: 2a88 5f3f 0e7a 8e3f 533b 633f 19ed 603f
00000030: c5dd 863f f9c9 633f 2b0d 623f b09b 643f
1.114952 0.8825771 1.1174092 1.0477076 0.89009726 0.9492135 1.0062656 1.1036402
0.87317145 1.1130998 0.88762397 0.8786178 1.0536429 0.8898006 0.8830134 0.8930006

static_variable_selection.single_variable_grns.municipio.norm.bias f4 [16]
00000000: bcdb e6bd d5e3 f23d 615f e73d 75a8 0cbe
00000010: 54c1 e8bd e47b f53d 85cf e43d 4f13 e53d
00000020: a6ce ea3d 9e3c e83d 26d7 d7bd 42d3 ed3d
00000030: a46c ea3d 5cd8 e83d 07f7 e93d ea7b e8bd
-0.1127238 0.11859862 0.11297489 -0.13736136 -0.113649994 0.11986521 0.11172394 0.111853234
0.11465196 0.11339687 -0.10539083 0.1161256 0.11446503 0.11369392 0.1142407 -0.1135176

encoder_variable_selection.flattened_grn.resample_norm.mask f4 [8]
00000000: ce0a 90bd 1513 193e 772f 133e 925f af3c
00000010: 31bc 513d 9523 053e f8bb 20be 3aff 8dbd
-0.07033311 0.14948685 0.14373575 0.021407876 0.051204864 0.13001855 -0.15696704 -0.06933446

encoder_variable_selection.flattened_grn.resample_norm.norm.weight f4 [8]
00000000: fbd2 7f3f 2f12 953f 8ff5 733f d3f8 963f
00000010: e6ca 8f3f 2c05 923f 5cc5 5c3f 3e19 843f
0.99931306 1.1646174 0.9529657 1.1794685 1.1233795 1.1407828 0.86238647 1.0320203

encoder_variable_selection.flattened_grn.resample_norm.norm.bias f4 [8]
00000000: 5429 52bb bf86 303e be5d 08be 2b57 33be
00000010: 6cf9 83bd 3604 b7bc 8232 1c3e 5cd3 3ebb
-0.003206809 0.17238902 -0.1331701 -0.1751372 -0.06444058 -0.022340875 0.15253642 -0.002911768

encoder_variable_selection.flattened_grn.fc1.weight f4 [8, 64]
00000000: 8245 493e ea2f e13b 22fd 40bc 9ce5 6e3e
00000010: 80a1 a3be 2f08 babe 8483 693e 06bb 063e
00000020: 5fa7 3cbe 127b 92be cb1c 183e 5522 fd3e
00000030: 185b 21be 98be 253d b5f5 173e 7a88 dd3e
00000040: dc6c 903e 5c52 b2bd 1f50 b93d cb4f 8c3d
00000050: f7cc 0e3e f540 fabe 9a50 5b3e 1928 8ebe
00000060: cc4c 5d3c 594a dabd f42b 903e 76ad b5be
00000070: 51eb f2bd 83de d43d de6f b63e f1e8 56bc
00000080: d42a 7dbe ce54 28be 70ab 903c 9540 2c3f
00000090: 34c2 9cbe 53ed 2bbe da5e b2bd d335 9c3d
000000a0: c2b9 4e3d cceb 7a3e ea81 23be bf79 cd3e
000000b0: 2232 283d b2d0 733d 7faf 87bd 99a8 e63c
000000c0: 587d 5b3e 8d75 313e 0b47 983d b1dd a13e
000000d0: 3a93 b23e 748b 20be 4a26 e8be 6679 d13e
000000e0: 5bb2 20be 7abb 883d 12ff 0fbf eaf4 893d
000000f0: 3214 9a3d 88ae fdbd a6fd 493e 1c46 61be
00000100: f99d 323e 9077 b339 2050 613e 3af4 1abe
00000110: 5307 a13d 1629 cc3b beae 25be fde3 563e
00000120: c5e5 033e 21bc 1cbd b4bc efbd 68fe 6e3e
00000130: 97e9 1a3d 20eb 313e 4351 8fbe ede4 263c
00000140: 6184 7f3d 132f 8e3d 2b2f b73e ec8c d2bc
00000150: 1a5b 8cbd eaf3 1cbc e395 253d cfcc 90bd
00000160: 393e 7cbe f490 ee3d 94d0 80be df6a db3d
00000170: 160b 843d 8bee ae3e af9e 1ebe 5c40 2c3c
00000180: 3d9f 183e f1ac 84bc 2cc6 a13e f42d 87bd
00000190: 12b4 c63d 14a9 823e 72db 053e f583 4b3d
000001a0: 4657 ae3d 3f11 47bd 2345 823d 15ac cdbc
000001b0: 05c7 c53d 765b 0cbd 3424 0d3e a0c2 2b3e
000001c0: b632 78be 1a0c 8cbe 8703 c6bd 50f6 063e
000001d0: 729e 183e e071 9e3d 083c 8ebb b7b3 f0bd
000001e0: 8e80 133d 7284 673e 77b3 813e e46a 263d
000001f0: 5d9a 80bd d350 2cbe 4483 373e 5190 d9bd
00000200: d308 4fbe 34bc 34be 47d0 c03e 765c ec3d
00000210: 0914 743d 553c 893d bbac 1d3e c213 173e
00000220: 92e2 d7bd 8b27 91be 62fd a53b 3009 babe
00000230: 8603 1cbe 91ac 9e3e 58b1 4d3e 65c8 443d
00000240: 6298 2cbc 4201 d9bd ef77 29bd 0f25 0fbe
00000250: b0b4 aa3d 322a 11be a1b9 9e3e a679 e4bd
00000260: d3f4 97bd 9855 2f3e cce1 58be 71ff 343e
00000270: bec4 26be 36d3 8d3e 4bc3 2d3e 44e1 cd3e
00000280: f08d ec3c 1277 e73d 466d f3bc ddef 073c
00000290: 1af5 1c3d e885 0abe bd3c 1b3e b1c1 9cbe
000002a0: c6d8 38bd 6672 6d3e 679e b6be e8cc b73d
000002b0: 2365 25bd 2a8e 5e3e 8f19 eb3e 26ca 0ebe
000002c0: 546d 113e 3214 203e d2eb 8bbd 6348 553e
000002d0: 1027 133e 2cc3 00be 0b31 79be 97dc a73e
000002e0: 78fe 59be 50cb 8c3e 8417 e83b e82b 883e
000002f0: 2d18 2c3f 0027 863d 2d58 ae3e 1af1 23be
00000300: 00a0 86bc f959 d0bb 917b 363e d1d8 b63c
00000310: 5672 533e 8aa8 6c3e 97ae f83d 0a9c bd3d
00000320: ff9d 06bd bc96 aabc 7ce1 b23d 61b0 113e
00000330: c9d4 3abe 3a3c 4a3e 5e0a 9e3d 33b2 66be
00000340: 96db 833d 0277 de3e e65c 28bc d238 543e
00000350: 0a7b 1d3e 3030 59be 542a 6a3e 8bbb 36bd
00000360: 3801 48bb b3ef 9b3c 5089 a3bd c156 c13e
00000370: a8b8 88be 42e9 45be 8022 c3be 7dc6 4fbe
00000380: 9157 713e f4fb b6bc 4bfb d1be d0fd ae3e
00000390: 1c0e 42bd edf8 06be f8cc 1e3e abcb 463d
000003a0: ac67 88bd 1702 93be e34f 52bd f636 dc3b
000003b0: 1eee 9bbd 4357 903e 13aa 9bbe cbd2 863e
000003c0: 194a d3be 6be3 3cbe 8cb7 2ebe eff5 2a3e
000003d0: efe1 113e 3d55 5c3e ed63 5cbd 792e 6b3e
000003e0: 8b79 3c3e ceba 2f3e 40d8 f4bd 09ae 84be
000003f0: 8f19 9a3d 8e75 0f3e 2b80 33be a6f0 4fbe
0.19655421 0.006872167 -0.011779102 0.23329777 -0.31959152 -0.3633437 0.22804075 0.13157281
-0.18423222 -0.2860952 0.14854734 0.49440256 -0.15757406 0.040464967 0.14839824 0.43268186
0.28208053 -0.08707115 0.09048485 0.06851157 0.13945375 -0.48877683 0.21417466 -0.27764967
0.013507079 -0.10658712 0.28158534 -0.35483903 -0.11861289 0.10394003 0.35632223 -0.013117061
-0.24723369 -0.164386 0.017659873 0.67286044 -0.30616915 -0.16789751 -0.08709498 0.07627454
0.05047012 0.24504012 -0.15967527 0.40131947 0.041063435 0.0595252 -0.0662527 0.028156566
0.21434534 0.17329998 0.07435425 0.3161445 0.3487795 -0.15678197 -0.45341712 0.40912932
-0.15693037 0.06676383 -0.5624858 0.06736167 0.07523383 -0.12386805 0.19725665 -0.21999401
0.17443074 0.00034230622 0.22003222 -0.15132228 0.07862725 0.0062304838 -0.1617994 0.20985408
0.12880619 -0.03826535 -0.11705914 0.23339236 0.037820425 0.1737485 -0.27991685 0.010186416
0.062382106 0.069425724 0.35778174 -0.025701962 -0.06853314 -0.009579638 0.040426146 -0.07070314
-0.24633111 0.11648741 -0.25159132 0.107137434 0.06447427 0.3416637 -0.1549022 0.010513391
0.14904495 -0.016195746 0.31596506 -0.06600562 0.097023144 0.2551962 0.13071993 0.04968639
0.0851274 -0.04860043 0.06360843 -0.02510647 0.096571006 -0.03426691 0.13783342 0.16773462
-0.24238095 -0.27352983 -0.096686415 0.13179898 0.14904192 0.07736564 -0.0043406524 -0.11753028
0.03601127 0.22609118 0.25332233 0.040629283 -0.062794425 -0.16827707 0.17921168 -0.10623229
-0.2021821 -0.17649919 0.37658903 0.11541073 0.05958942 0.067009605 0.15397923 0.14753631
-0.10541262 -0.2835048 0.005065606 -0.36335135 -0.15235719 0.30991033 0.20087183 0.048042674
-0.010534378 -0.10595943 -0.041374143 -0.1397898 0.08335245 -0.14176252 0.31001 -0.11156015
-0.074197434 0.17122495 -0.21179885 0.17675568 -0.16285989 0.27700204 0.1696903 0.40210927
0.028876275 0.11302008 -0.029715192 0.008296934 0.038319685 -0.13527644 0.15159889 -0.30616525
-0.045128606 0.23188171 -0.35667726 0.0897463 -0.040379655 0.21733919 0.45917937 -0.13944301
0.14201862 0.15632704 -0.068320885 0.20828395 0.1437037 -0.12574452 -0.24335115 0.32785484
-0.21288478 0.27498865 0.0070828814 0.26595998 0.6722439 0.065504074 0.34051648 -0.16009942
-0.016433716 -0.006358382 0.17820574 0.022320183 0.20649084 0.23111168 0.12142675 0.09258278
-0.03286552 -0.020823829 0.08734414 0.1422744 -0.18245234 0.19749537 0.07716821 -0.22528915
0.06438367 0.4345017 -0.010276055 0.207248 0.15378967 -0.21209788 0.2286771 -0.04461245
-0.0030518305 0.019035196 -0.07985175 0.377615 -0.26703382 -0.19327262 -0.3811226 -0.20290561
0.2356856 -0.022336937 -0.41012034 0.3417802 -0.047376737 -0.13180895 0.15507877 0.048534077
-0.06660399 -0.28712532 -0.051345717 0.006720419 -0.076137766 0.28191575 -0.30403194 0.26332697
-0.4126747 -0.18446128 -0.17062205 0.16695379 0.14246343 0.21516891 -0.053806234 0.22966947
0.1840574 0.17161104 -0.11955309 -0.25914028 0.07524406 0.14009687 -0.17529361 -0.20306644

encoder_variable_selection.flattened_grn.fc1.bias f4 [8]
00000000: f2b7 973c c1d2 1c3c 1ee4 1ebe 462d 23bd
00000010: 8b1f b7bc 8c14 5f3c d10b a0bc 553b 343e
0.01852033 0.009571732 -0.15516707 -0.039838098 -0.022353908 0.013615739 -0.019536885 0.17600758

encoder_variable_selection.flattened_grn.context.weight f4 [8, 16]
00000000: 1a46 8e3d e1e9 713d 4a0b f23e 281f 17bf
00000010: c284 7dbe c240 adbe c41a 993c 8b2d 103e
00000020: b34a aebe 03bb ce3d c047 923e 5c62 00bd
00000030: 9070 23bd e709 8cbd ad11 b9bd 2e8a bebd
00000040: ad61 233e c954 b33d 8391 09be 616e d1be
00000050: ac7d 7ebe 032e aabc 86fb bc3e e8c0 cc3e
00000060: 2730 d9be 088c 57bd 7502 c3be a4d8 89be
00000070: a72f d0be 78f3 fa3d f0d1 dbbe 200d 133c
00000080: da37 d83d 52f1 8b3e 20d4 bc3e cb17 203e
00000090: c2c4 98bc 9a6a bcbe 8a47 f2be 1c5c b13e
000000a0: 6b33 f3bd 879c 933e e2ec 923d bb8d 383e
000000b0: 5fb8 fdbd 11e3 fdbe 618a f13d 01ba e23c
000000c0: a8b1 92bd 80b0 e3be feef d93e 96a4 81be
000000d0: f681 f3bc 2bc8 4d3e 7288 0ebf 0f35 963e
000000e0: de56 95bd 1ac7 033f 8d1d 9ebe e4c2 adbe
000000f0: 5b8a 01bf f1ac 9e3e 1bd3 dfbd 1c6e aebe
00000100: 6c25 d6bd 9fb8 2a3e 939f 8a3e 17dd 06bd
00000110: ee98 e13e 5280 1bbf 0864 26be b184 b33c
00000120: 3024 9abe b043 9dbe 4753 a53e 3556 9c3e
00000130: 3b98 c13e a3bd 83be 96e6 57be 2a03 493e
00000140: f3c0 903e 66cf 97be 4209 743e 727c c63d
00000150: e91b ed3e 5f31 a8be dcf2 e03e d492 183f
00000160: dca8 8f3e 887a 11be ba81 2bbe 8b3b 773e
00000170: 5294 a43e 1ca4 933e 556c edbe aaa2 943e
00000180: c422 abbe 3e65 8b3e 2f8c 5a3d 9304 053f
00000190: be69 77be 928c 61be dcc4 8e3e 4224 b43e
000001a0: a57e 1bbe 9019 cb3e 46b8 9cbe 5df2 03bf
000001b0: 9c5c 64be 1358 72be 4e7c 68be fbf1 c1be
000001c0: ddef 643d 5ff6 de3e f498 1bbd 7cd2 e3be
000001d0: 1b1b f6be 56f2 b03e d824 91be 4d18 5f3e
000001e0: aa31 183f d3b7 a43e e1ac e1be 6f97 96be
000001f0: a0e5 25bb 1596 fc3e 022a 2bbe 3773 0e3c
0.069469646 0.059060935 0.47274238 -0.59031916 -0.24757674 -0.3383847 0.01868952 0.14079873
-0.34041366 0.100942634 0.28570366 -0.031343803 -0.03990227 -0.06837826 -0.090365745 -0.093036994
0.15955229 0.08756406 -0.13434415 -0.40904525 -0.24852628 -0.020773893 0.36910647 0.39990926
-0.4241955 -0.05262378 -0.38087812 -0.26923096 -0.40661356 0.12253469 -0.42933607 0.008975297
0.10557528 0.2733255 0.3688059 0.15634076 -0.018648509 -0.3680008 -0.47320205 0.34640586
-0.118750416 0.28830358 0.07174088 0.18022816 -0.123886816 -0.495873 0.11793972 0.027676584
-0.071627915 -0.44470596 0.42565912 -0.25320882 -0.029725056 0.2009589 -0.5567695 0.29337355
-0.07291959 0.5147568 -0.3088192 -0.33937752 -0.5060174 0.3099132 -0.10928937 -0.34068382
-0.104563564 0.1667199 0.2707487 -0.03292569 0.4406199 -0.60742676 -0.16249096 0.021913858
-0.30105734 -0.30715704 0.32290098 0.3053452 0.37811455 -0.2573062 -0.21084055 0.19630113
0.2827221 -0.2965042 0.23831657 0.09691705 0.46310356 -0.32850167 0.43935287 0.5959904
0.28058517 -0.14206898 -0.16748706 0.24143808 0.3214441 0.28836143 -0.46371713 0.29030353
-0.33424962 0.2722568 0.053356346 0.51960105 -0.24161431 -0.2202628 0.27884567 0.35183913
-0.1518503 0.3966794 -0.3060934 -0.5154169 -0.22300953 -0.2366641 -0.22703668 -0.3787993
0.055892814 0.4354734 -0.037987664 -0.44496524 -0.48067555 0.34559888 -0.28348422 0.21786614
0.5945078 0.32171497 -0.4407721 -0.2941241 -0.002531387 0.49333254 -0.16715243 0.008694462

encoder_variable_selection.flattened_grn.fc2.weight f4 [8, 8]
00000000: 67c8 09bf b48e 5bbf 1770 38bf 6a8b 033d
00000010: 0dc4 653f de2c d4bd 047c e53e b6a6 ccbe
00000020: f9e7 69bf aa0e a23e 9032 133e 421f ffbd
00000030: cd97 2ebd 5a09 d73e af53 c43e 1189 31bf
00000040: 969a a73e b7ce 1b3e 6bc4 d2be ca5e 923c
00000050: 49ad 203f b6aa 4abc 1961 44bf 4061 4a3f
00000060: adcf 8e3d 7544 00bf 3aad 69bd aaa4 07bf
00000070: 28a9 e8bc 5d2b aa3f 320c 91be 423a 203f
00000080: 7973 273e 03e5 533f 712a 913d 82a0 d03e
00000090: 128d 82be 7759 f53e e131 0d3f 957f c3be
000000a0: 3bfc 04bf c004 073f 61d0 8abd 05bc 47be
000000b0: efc6 97be 892b 3f3f b0bc 99be 4be2 d23e
000000c0: 367c 2dbf 81d3 eabd 3eb1 6d3e ac7b e23d
000000d0: ed3e 853f 0d2f e1be 039a f03e a7f1 0f3e
000000e0: 0471 473f 9f97 8fbe 5022 103f e586 d8bd
000000f0: 33e4 6fbc 880b cc3e 5c5e 833d 9b85 0fbf
-0.53821415 -0.8576462 -0.72046036 0.032115377 0.89752275 -0.1036012 0.4482118 -0.3997094
-0.9136959 0.31651813 0.14374757 -0.12457134 -0.042625237 0.41999322 0.38345096 -0.6934977
0.32735127 0.15215574 -0.4116548 0.017867465 0.6276441 -0.012369802 -0.7671066 0.7905464
0.06973205 -0.5010446 -0.057049967 -0.5298563 -0.028400972 1.3294483 -0.28329617 0.62588894
0.16352643 0.8277132 0.07088173 0.40747458 -0.25498253 0.4791982 0.55154234 -0.38183275
-0.51947373 0.5274162 -0.06778026 -0.19505318 -0.29643962 0.74675804 -0.3002677 0.41188273
-0.67767656 -0.114661224 0.23212144 0.11058745 1.0409828 -0.4398121 0.46992502 0.14057027
0.77906823 -0.28045365 0.56302357 -0.10572604 -0.014641809 0.39852548 0.06414482 -0.5606324

encoder_variable_selection.flattened_grn.fc2.bias f4 [8]
00000000: e42d fcbb 0051 0fbd 5105 81bd b173 623d
00000010: 2443 d3bc aeb7 893d e4af 0f3d dc3d 5bbd
-0.0076959003 -0.034989357 -0.06299842 0.055286113 -0.025788851 0.06724487 0.03507985 -0.05352579

encoder_variable_selection.flattened_grn.gate_norm.glu.fc.weight f4 [16, 8]
00000000: f156 83be 4e0f 1dbe fc32 cabe 521c 70be
00000010: 0d65 8bbe 2b0b a63e 0d53 9abe a7a6 293e
00000020: b1d3 c13d 6c4b b6bd 9dca a0be dbcd e73e
00000030: e660 b93d 0916 fa3d cfec a63e 7994 05bf
00000040: 6524 c8be 6e33 a33d 91f3 de3e de96 933e
00000050: f3a7 0d3e 3e33 05be 7ee5 f2be 3988 81be
00000060: 5cf1 cb3e 7662 afbd 0aa1 d73b 5f8f 8d3e
00000070: 2aeb 903d 3c26 afbe 682c e93e b9f1 fdbe
00000080: 296b 00bf d85d d1be 6a69 513e 0d20 1a3d
00000090: 85a9 22bc e18f 703e 1bf1 a4be 0e82 043f
000000a0: 98e9 313e cc55 02be dcc3 76be b215 9abe
000000b0: 4826 1dbe 6eda ccbe 9950 6cbd 9ce6 853e
000000c0: 03c5 08bf 20a9 7abe 4d65 043f c1ac 623e
000000d0: e3b1 b53e 5bb4 cd3e f52d e2be 1d0b dc3e
000000e0: e508 9e3e 7dc7 353d 74d3 1bbe 11d8 a5bc
000000f0: ad1c 07be 6184 e53e e022 4d3d 4d7f 2abe
00000100: 8004 36be 3418 a93d 51aa 933e 892a 03be
00000110: 2396 7b3e 4171 94be 39fa 15be 46ee 343e
00000120: 71a5 803e 958a d7be 80e9 0e3d 714c dc3e
00000130: cef4 b2be b76f 573d a8d9 7b3e 1b38 dbbc
00000140: 142b 1fbe 7479 b13e 18f6 c03b c479 503d
00000150: c1b9 65bc d1e3 87be 7ceb d83d 2bbe febd
00000160: 8614 73bd a6f9 1abf 1f93 fd3e e303 e33e
00000170: 0dfc 08bd ac45 9cbe f24d f6bd d7a6 9d3e
00000180: 003b a63e 3262 b7bd e492 debe 7652 613e
00000190: e3ee 37be 537f dc3d 0740 a13e 0177 9bbe
000001a0: 5187 8a3e 9608 ae3d 1d7e da3e 08d0 673e
000001b0: 461c 18bf cd70 213e 1c5c da3e 741c c9be
000001c0: 8bdf 03bf 1620 d1be 733f 683d a5a1 d73e
000001d0: 0d9d 1c3d d6ce c1be 6340 c1be ffb3 f9bd
000001e0: 225d 333e e8d1 11bf d365 1cbe d7ec 053f
000001f0: fe1c 46bd 8a03 d73e e521 053e 7a4b 47be
-0.2565227 -0.1533787 -0.39492023 -0.23448303 -0.27225533 0.32430395 -0.30141488 0.16567479
0.09464205 -0.08901104 -0.31404582 0.45274243 0.09051685 0.12211234 0.32602546 -0.52179676
-0.39090267 0.07968794 0.435452 0.2882604 0.13833599 -0.13007829 -0.47440714 -0.25299242
0.3983258 -0.08563702 0.0065804766 0.27648446 0.07076104 -0.34208858 0.45541692 -0.49598482
-0.50163513 -0.4089191 0.20450369 0.037628222 -0.009928112 0.23492385 -0.322152 0.5176095
0.17374265 -0.12728041 -0.24098152 -0.30094677 -0.15346634 -0.400104 -0.05769405 0.26152503
-0.53425616 -0.24478579 0.5171707 0.22136213 0.3548728 0.40176663 -0.44175687 0.4297723
0.3086616 0.0443797 -0.15217382 -0.02024463 -0.13194533 0.4482756 0.050082088 -0.16650124
-0.17775154 0.082565695 0.2884088 -0.12809195 0.24568991 -0.28992656 -0.14646234 0.17669019
0.25126222 -0.42097917 0.03489065 0.4302707 -0.34952396 0.052596774 0.24594748 -0.026760152
-0.15543777 0.34662974 0.0058887117 0.050897375 -0.014021338 -0.26540998 0.1059179 -0.124386154
-0.059345745 -0.60537183 0.49526307 0.44338903 -0.0334435 -0.30521905 -0.12026586 0.3079135
0.32466888 -0.08954276 -0.43471444 0.22004113 -0.17962222 0.10766473 0.3149416 -0.3036423
0.27056363 0.084977314 0.42674342 0.22637951 -0.5941814 0.15765686 0.426484 -0.3927952
-0.51512975 -0.40844792 0.056701135 0.42115512 0.038235713 -0.37853116 -0.37744436 -0.12192535
0.17515996 -0.56960917 -0.15273218 0.52314514 -0.048367493 0.41994888 0.13001211 -0.19462386

encoder_variable_selection.flattened_grn.gate_norm.glu.fc.bias f4 [16]
00000000: a3e2 8abb 5860 123e 9422 febd ea00 2bbe
00000010: 074c 26be 775b 0cbd 8a90 0f3e 9ad7 0c3c
00000020: 56cd 27be 349c edbc 706b 39bc fad1 f4bc
00000030: 7331 953c 0c89 08bd c3ab 4f3c 5726 01be
-0.004238443 0.14294565 -0.12408939 -0.16699567 -0.1623994 -0.034266915 0.14019981 0.008596325
-0.16386923 -0.029005148 -0.011317119 -0.02988528 0.018212056 -0.033333823 0.0126752285 -0.12612282

encoder_variable_selection.flattened_grn.gate_norm.add_norm.norm.weight f4 [8]
00000000: d4b9 653f 5ffe 953f 09d8 743f 19f7 583f
00000010: 029f 8a3f 8307 633f 5109 853f 3156 803f
0.89736676 1.1718253 0.95642143 0.8475204 1.0829775 0.88683337 1.0393468 1.0026304

encoder_variable_selection.flattened_grn.gate_norm.add_norm.norm.bias f4 [8]
00000000: 05e7 2dbd eb0b 2e3e 11fd 13be 29f0 9dbd
00000010: eec0 41bd 85e1 1d3b 3fec 193e 1562 653d
-0.042456646 0.16996734 -0.14452006 -0.077118225 -0.047303133 0.002409072 0.15031527 0.05600174

encoder_variable_selection.single_variable_grns.time_idx.resample_norm.mask f4 [16]
00000000: 746f a93d 5670 eebd a46e c93d 7713 82bd
00000010: 8338 e6bd a17d ff3d 701d 0b3e f6e1 e9bd
00000020: 1bcd 00be e2fe 553d 875d 243e 5183 f23d
00000030: 4948 f1bd bdb3 2b3e 27d1 ebbd 6f59 05be
0.08273211 -0.1164252 0.09835556 -0.06351369 -0.112412475 0.12475134 0.13585448 -0.11420052
-0.12578242 0.05224503 0.16051303 0.11841453 -0.117813654 0.16767783 -0.11514502 -0.13022397

encoder_variable_selection.single_variable_grns.time_idx.resample_norm.norm.weight f4 [16]
00000000: 8951 8b3f b126 643f ac25 8d3f 6169 903f
00000010: e666 633f 7c3b 903f cfb2 903f 08ea 5f3f
00000020: dfcd 5f3f 734c 863f 83ea 933f 6b7e 8f3f
00000030: e10a 633f 183e 953f e7c9 613f 983b 5f3f
1.0884258 0.8912154 1.1027122 1.1282159 0.88828886 1.1268153 1.1304568 0.8746648
0.8742351 1.049208 1.1555942 1.1210455 0.88688475 1.1659575 0.88198704 0.8720031

encoder_variable_selection.single_variable_grns.time_idx.resample_norm.norm.bias f4 [16]
00000000: a819 bf3d 4a03 e5bd 9034 df3d b19c 033e
00000010: 69b8 dc3d f9d6 f9bd f3a3 16be c90e e33d
00000020: 8c77 013e 5d93 99bd f60c d43c ffe0 f3bd
00000030: 7130 dcbd 58b4 82bd 9704 313d 7dac 103e
0.093310654 -0.11182268 0.108986974 0.12852742 0.10777361 -0.12199206 -0.14710979 0.110868044
0.1264326 -0.074988104 0.025885087 -0.11908149 -0.10751427 -0.06382054 0.043217268 0.14128299

encoder_variable_selection.single_variable_grns.time_idx.fc1.weight f4 [8, 8]
00000000: c136 9a3e a28b b2be 9657 88be cdd0 7c3f
00000010: da16 b63e d4d1 a5be 8d60 9dbe b4d0 503f
00000020: 13da 02be 7202 98bc b38a 46bf bcb6 fabd
00000030: b2d0 2dbf 4881 333d 9c3b 543e 310a 3d3f
00000040: 98ab 933d efb2 373e 6407 d9be 2171 aebd
00000050: 395f 163f 1a47 89be c82a e6be 3b14 53be
00000060: fab1 953f f4e7 8fbe cdb8 ad3e d65b 1a3f
00000070: a1c6 463f b10a afbe 43d5 c0be f90e a73e
00000080: 2559 613e b981 8dbe ea10 10bf 096e fbbd
00000090: 87d9 653e af5c fabe 827c 1d3e b35c a1be
000000a0: 2a6f 013d 85c7 f7be cf29 bcbe 978e 253f
000000b0: 6d16 b13e 3b7e 183f 0386 8bbd 4b3d 9a3e
000000c0: 0024 433f 65aa 73bf 599a b23e 8610 a53f
000000d0: c188 a83e c876 da3e 5924 80be 6285 153f
000000e0: d0b9 31bf 2134 953e d4b0 04bf 0827 113f
000000f0: e33f 993e d6cf ecbe d8a0 91bb 819b f8bd
0.301199 -0.34872156 -0.26629323 0.98756105 0.3556431 -0.3238665 -0.30737725 0.81568456
-0.12778501 -0.018555854 -0.7755539 -0.12241885 -0.6789657 0.043824464 0.20725864 0.73843676
0.07210463 0.17939351 -0.4238845 -0.085176714 0.5873905 -0.2681206 -0.44954515 -0.20613186
1.1694939 -0.28106654 0.33930054 0.6029638 0.77646834 -0.34187844 -0.37662706 0.3262861
0.22006662 -0.27638033 -0.5627581 -0.12276847 0.22446261 -0.48898837 0.15379527 -0.31516036
0.031600155 -0.4839441 -0.36750647 0.646707 0.34587422 0.5956761 -0.0681267 0.30124888
0.76226807 -0.95181876 0.34883383 1.2895668 0.32916835 0.42668748 -0.2502773 0.5840665
-0.6942415 0.29141334 -0.5183232 0.5670018 0.29931554 -0.46252316 -0.004444223 -0.12139035

encoder_variable_selection.single_variable_grns.time_idx.fc1.bias f4 [8]
00000000: 0e17 9c3c f0c1 133e 4afd 963c 23ce 6e3d
00000010: 2027 0bbe fcee 89bd 5649 0abe af1e bfbd
0.019053962 0.1442945 0.018431325 0.058302056 -0.13589144 -0.06735036 -0.13504538 -0.09332024

encoder_variable_selection.single_variable_grns.time_idx.fc2.weight f4 [8, 8]
00000000: 23bc 46be 3e0c d5be 814b f33e 741e b0bd
00000010: 137d 84be d552 c6be 89fd a3be 8189 7ebf
00000020: d936 403e 8cb1 303f 46d9 69bf 72f8 1cbc
00000030: 1fec 0c3f 8586 253f 61c4 52be 02ca 31bd
00000040: 8cc9 353e 7ec5 88bf 8b25 4ebe 750f 903f
00000050: fcb5 d23e ce16 38bf e4d2 333d 99eb 41be
00000060: 42c0 61be ce71 393f 196c 4a3e 34ff 49be
00000070: ef2e 913f 2f08 553f c462 e93e 0ad5 5bbd
00000080: 03ca 2cbf 16f7 72bf 2b4b 263f adbd 23be
00000090: 3891 47be fedb 72bf 900b 573f f8e5 45bf
000000a0: 76fd 593f 141d 4cbd b8e4 043f 62a4 1abf
000000b0: 7396 123f 1312 09bf c6a2 6f3f 5a9d 13bd
000000c0: 4dc1 fe3d 3433 e03e 7d95 9f3e a889 983e
000000d0: 5daf 4bbf 06d8 30bf c789 43be 7880 0d3d
000000e0: 8d02 733f fc6f 343b 1568 093f d87f e6be
000000f0: ef60 973e 6911 8bbe 80be a93f 339b 913e
-0.19407706 -0.41610903 0.47518542 -0.085995585 -0.25876674 -0.3873507 -0.3202937 -0.99428564
0.18770923 0.69020915 -0.9134716 -0.009580718 0.5504779 0.64658386 -0.20582725 -0.04340554
0.17752665 -1.068527 -0.20131509 1.1254717 0.41154468 -0.719098 0.043902293 -0.1893753
-0.22045997 0.7243928 0.19767798 -0.19726259 1.1342448 0.8321561 0.45583165 -0.053669967
-0.67495745 -0.94908273 0.6495845 -0.15990324 -0.1948899 -0.9486693 0.8400202 -0.7730403
0.85152376 -0.04983242 0.519115 -0.6040708 0.5726082 -0.53543204 0.9360775 -0.036038734
0.12439213 0.43789065 0.31168738 0.29792523 -0.7956446 -0.69079626 -0.19095527 0.034546345
0.9492577 0.0027532568 0.5367444 -0.45019412 0.29566142 -0.2716172 1.3261261 0.2843872

encoder_variable_selection.single_variable_grns.time_idx.fc2.bias f4 [8]
00000000: cd00 623d ca4c 24bd 4e6c 193b 3b67 e03c
00000010: 8348 8d3d 0e9a 21be e786 d23d a1a2 26be
0.055176545 -0.040112294 0.0023410502 0.027392974 0.06898596 -0.15781423 0.10279637 -0.16272976

encoder_variable_selection.single_variable_grns.time_idx.gate_norm.glu.fc.weight f4 [32, 8]
00000000: 5612 de3e 90fc 353e 57c4 453c 4c97 6bbe
00000010: 0ec0 573e 9b82 ed3b 1448 763e 4747 923e
00000020: 89e4 fabe 9acf f33e 8970 e3be d13b b9be
00000030: 676c febe a718 983d dc6d 7c3e 2899 8ebe
00000040: a093 41bd afe8 023e 7065 b23e a71c a43e
00000050: ebff 193e 60fc b13e 4802 44be 2b82 043e
00000060: 1099 f2be 38bf 163e 22ef 5ebd fa53 5abe
00000070: 254f c5be e2a1 f2bc 45e6 0c3d 6c58 843d
00000080: 97f4 2fbe 5796 23be 81a3 0d3e 647a 82be
00000090: 925b d9be 269d 443c d277 603e e7ad 9a3e
000000a0: deae f43e a04f 853e 3954 a6be 646c b2be
000000b0: 1931 7c3e 879c ddbe 850b 72be fb71 56be
000000c0: 0b3e 933e f6d2 43be 601f 6b3a c397 83be
000000d0: 4306 d3be ccff 74bd 50bd 49be be37 693e
000000e0: e2c3 59bd 5bba bc3e 411b d73b 4326 b03d
000000f0: 9360 b8bd 64b6 e53e ee9d a8be 1424 4fbe
00000100: bdfc 123c d6c9 d23e fa69 e1bd 1084 c43e
00000110: bc03 273e 15a2 083e 73cf 2abe 6cfb e9bd
00000120: 8c4c f33e 0caf b53e cea9 94be d45e bfbe
00000130: ac24 05be 3443 4abc 295c 5ebe 3646 e6be
00000140: eff1 63be c5ee 7dbe fce6 803d 7944 83be
00000150: 0014 8a3e e372 0d3d 6a57 833e cdc3 bbbe
00000160: 860d 32be 597a 87be 48e5 6c3e d32c 813e
00000170: 7e54 93bc 1251 77be 707a 70be 0620 093e
00000180: fca3 16bc a26f a43d f5d4 1cbe 1dd8 c7be
00000190: 3281 373e 6a8e 8dbd 1106 e93d c742 e0be
000001a0: f6b8 00bf ad05 a63e d229 c7be c196 cabe
000001b0: af3e 0a3e ddde c23d 01e1 34be 19ea 803b
000001c0: ab1f b83e b36e 2ebd 87cf 0ebc 4a14 4bbe
000001d0: 8520 3c3e 8a26 ee3d 5162 f0be 3cae c63e
000001e0: f22f 4c3e ada2 edbe 1ca7 dc3d 62e5 fdbc
000001f0: 519a a03e 031a 63be 7073 07be ec29 3abe
00000200: 5a54 d0be 7795 14be 2cb8 c5bd b54a a4bd
00000210: 8e1c d8bc 34a3 3f3e 8c01 cb3e 07cf 19bc
00000220: bd31 333e 7a79 f4be 422e 0ebd 4440 df3d
00000230: 5b98 253d bfcc 84be 20f6 1a3e 55fd 6dbd
00000240: 1162 b03e 19b5 e3be 0b64 e63e ef33 ac3b
00000250: 0f0e 8bbe 89ac 6ebe 2892 00be f006 823c
00000260: 80b9 b03e 075f 2e3d f36f 3cbe b2b0 823d
00000270: 3809 c53e fcb4 1d3e 64fb f23d e7ba 293e
00000280: bc68 ffbc 1b29 77be c32a ecbe fff2 f8be
00000290: 653a b1bd 7874 b73e f194 803e 7f4e c5bd
000002a0: ce2c 3cbe b5f2 1d3e 5821 f03e 603f 673b
000002b0: 5146 d0be 2cdb 8dbd 6608 22bd 6d11 cf3e
000002c0: 6dc2 273e b7cb 7ebe c82d 6abe 01ba 94be
000002d0: 5062 e4be b031 01bf 41d0 fe3e b2d9 2d3e
000002e0: 80c0 5abe 203a 7e3e 4c4c 983e 3c09 ed3e
000002f0: a175 15be 7171 a43e 98b2 bdbe c0ac 353e
00000300: aafe e4be 8262 7e3d d09e d0bc c134 a73d
00000310: b9ff ddbe ee46 663e be7b 2cbe 4b8b 803e
00000320: 3bb0 26be 7c65 913b a2f1 41bd 61fb 8e3e
00000330: a09e 513e fe3e 913e badf bbbd 2a3d 653d
00000340: a2aa f7bd 7584 a43e 6f32 afbd 628f 6ebe
00000350: 923c aa3d 5961 ecbd 939c 0ebd 06d8 9d3d
00000360: ba6c 043d 67f6 0e3e 9cd5 8fbd 9d87 cebe
00000370: 8226 0b3e db9c c33d 981b 043e 9c92 b0bd
00000380: 8d0d a8be 44fe 1dbd c329 3cbd a78b 0b3c
00000390: 8623 1ebe 6c2a 823e 6ef3 71be f9ea 81be
000003a0: 1763 ea3e 1660 c7be b8c7 22be f4ed 093e
000003b0: 9e76 cb3e bfb6 c63e 3176 b13e c6ea 09be
000003c0: ab36 c63e be72 e8be 6412 493e 9cef 783e
000003d0: c75a b13e 8c64 28be bed5 c0be 533c aa3e
000003e0: 7629 0b3d 58e3 dd3e 9866 cd3d 2b9e 423e
000003f0: 2805 bebe 107c bebe 0422 0fbb 1f9c d73d
0.43373364 0.17772126 0.012070737 -0.23006934 0.21069357 0.0072482354 0.24050933 0.28570005
-0.49002483 0.47619325 -0.44421795 -0.3617845 -0.4969208 0.07426577 0.24651283 -0.27851224
-0.047259927 0.12784074 0.34843016 0.3205311 0.15039031 0.3476286 -0.19141495 0.1294028
-0.47382402 0.14721382 -0.054427274 -0.21321097 -0.38536945 -0.029618207 0.03439929 0.06462178
-0.17183147 -0.15975319 0.13831903 -0.25484002 -0.42452675 0.012000358 0.21920708 0.30210802
0.47789663 0.26037312 -0.32486132 -0.3484832 0.24628104 -0.43283483 -0.23637207 -0.20941918
0.28758273 -0.19123444 0.0008969214 -0.25701723 -0.41215715 -0.05981426 -0.19701123 0.2277517
-0.053165324 0.36860928 0.006564528 0.08601048 -0.09002795 0.44865716 -0.3293299 -0.20228606
0.00897139 0.41169614 -0.110065416 0.38382006 0.16310018 0.1334308 -0.16680698 -0.11424908
0.47519338 0.35485113 -0.290358 -0.37377036 -0.1300227 -0.012345124 -0.21714844 -0.44975442
-0.22260259 -0.24798115 0.06294057 -0.25638178 0.26968384 0.034533393 0.2565263 -0.36672822
-0.17387971 -0.2646053 0.23134339 0.2522951 -0.017984625 -0.2415202 -0.23484206 0.13391122
-0.00919437 0.08029105 -0.15315612 -0.3903207 0.17920378 -0.06911929 0.1137811 -0.43800947
-0.5028223 0.32426205 -0.38899094 -0.3956814 0.13500474 0.09515164 -0.17663957 0.0039341566
0.3596166 -0.04258604 -0.008716471 -0.19831958 0.1837178 0.116284445 -0.4695001 0.38804805
0.19940165 -0.46413174 0.10774061 -0.030993167 0.31367734 -0.22177891 -0.1322763 -0.18180054
-0.40689355 -0.14510141 -0.096542686 -0.08022062 -0.026380803 0.18714601 0.39649618 -0.009387738
0.17499442 -0.4774893 -0.034712084 0.109009296 0.0404285 -0.2593746 0.15132952 -0.058102924
0.3444982 -0.44474104 0.44998202 0.0052552144 -0.27159163 -0.23308004 -0.12555754 0.015872449
0.34516525 0.042571094 -0.1840208 0.06381358 0.38483596 0.15401071 0.11864355 0.16575204
-0.03117787 -0.24136774 -0.46126375 -0.4862289 -0.08653716 0.35831046 0.25113633 -0.096341126
-0.18376467 0.15424617 0.4690044 0.0035285577 -0.40678647 -0.06926569 -0.03955879 0.40442982
0.16382761 -0.24882399 -0.22869027 -0.2904816 -0.44606256 -0.5046644 0.4976826 0.16977575
-0.21362495 0.2482686 0.2974571 0.46296108 -0.14595653 0.321178 -0.3705032 0.1774168
-0.44725543 0.062105663 -0.025466353 0.08164359 -0.43359163 0.22487995 -0.16844079 0.25106272
-0.16278164 0.0044371467 -0.04734958 0.27926162 0.20470667 0.28368372 -0.09173532 0.055966534
-0.120930925 0.32132307 -0.08554541 -0.23296884 0.08312334 -0.11542005 -0.03481729 0.07707219
0.032330252 0.13961183 -0.07023165 -0.4033784 0.13588908 0.09551402 0.12901151 -0.086217135
-0.32822838 -0.038572565 -0.045938265 0.008517182 -0.15443239 0.2542299 -0.23628017 -0.25374582
0.45778725 -0.38940495 -0.15896499 0.13469678 0.39738935 0.388113 0.34660485 -0.13468465
0.38713583 -0.4540004 0.19635922 0.24310154 0.3463957 -0.16444606 -0.37663072 0.3324915
0.033975087 0.43337512 0.10029334 0.19005649 -0.3711331 -0.37204027 -0.0021840343 0.105278246

encoder_variable_selection.single_variable_grns.time_idx.gate_norm.glu.fc.bias f4 [32]
00000000: 3d5a c63d 6325 f1bd 213f ce3d 2e1d 033e
00000010: a4f0 dd3d 23b7 fdbd 54ad 18be 8282 e13d
00000020: 7788 073e eba5 91bd bc3c 31be 919a f0bd
00000030: 70e6 d9bd 0855 90bd 7199 c03d 444b 1c3e
00000040: 212d d2bd 4fc9 fe3d 1b0b d93d 0637 0cbe
00000050: f134 e3bd 3f93 053e d49a fdbd 0572 d83d
00000060: 6fb4 f1bd 72fc 1a3d fb17 073e 591f f1bd
00000070: e02b dd3d fe8d a2bc 53da e13d 2de3 23be
0.0968518 -0.11774709 0.10070635 0.128041 0.10836914 -0.12388446 -0.1490987 0.110112205
0.13235651 -0.071117245 -0.17308325 -0.11748231 -0.106396556 -0.070474684 0.094042666 0.15263087
-0.10262514 0.1244074 0.10597821 -0.13692865 -0.11094082 0.13044451 -0.12383047 0.105686225
-0.11801993 0.037838407 0.13192742 -0.11773557 0.10799384 -0.019843098 0.1102797 -0.1600463

encoder_variable_selection.single_variable_grns.time_idx.gate_norm.add_norm.norm.weight f4 [16]
00000000: 1672 8b3f f14d 6a3f c58c 8f3f a2d0 773f
00000010: d6f9 633f 93fb 913f ebf5 903f d5a9 8c3f
00000020: 46df 603f b05d 863f f545 953f c627 913f
00000030: 4952 633f 02b6 8b3f e634 623f 7472 603f
1.0894191 0.9152518 1.1214834 0.96802723 0.89053094 1.1404899 1.1325048 1.0989329
0.8784069 1.0497341 1.1661974 1.1340263 0.8879743 1.0914919 0.88361967 0.8767464

encoder_variable_selection.single_variable_grns.time_idx.gate_norm.add_norm.norm.bias f4 [16]
00000000: 5e5f cf3d 2499 bdbd 473c 0b3e 1fe1 053e
00000010: e299 cf3d 5caf 05be 524f 17be d0cf e73d
00000020: 8120 013e e9ee abbd 6cb3 e4bc b373 00be
00000030: f228 ddbd c1f8 58bd 02b6 09be 898e 083e
0.10125612 -0.09257725 0.13597213 0.13074158 0.10136773 -0.13055176 -0.14776352 0.11318934
0.12610056 -0.08395178 -0.027917586 -0.12544136 -0.10798825 -0.052971605 -0.13448337 0.13335623

encoder_variable_selection.single_variable_grns.T2M.resample_norm.mask f4 [16]
00000000: 7116 1bbb 4cd3 44bc 63ca 703d 5028 27be
00000010: 3d3e 39bd a727 313e 89f2 8c3d 8d59 efbd
00000020: b2cc 023e 0a44 a4bd ff48 fa3c 9326 b43d
00000030: 3480 62bd e01f 07be fff0 d33d 09a5 0bbd
-0.00236645 -0.012013268 0.05878676 -0.16323972 -0.04522537 0.17300282 0.068821974 -0.11687002
0.12773398 -0.0802079 0.030552385 0.0879642 -0.055298045 -0.13195753 0.10348701 -0.034092937

encoder_variable_selection.single_variable_grns.T2M.resample_norm.norm.weight f4 [16]
00000000: 6b33 783f 5107 803f 4a3b 873f 3bfc 6c3f
00000010: 4d1d 763f 5cd5 963f 1897 943f 885b 823f
00000020: 4621 923f 399e 663f ab2f 6b3f dd35 8c3f
00000030: 4f9b 753f 5da8 6c3f 0df3 863f de0d 833f
0.9695346 1.0002233 1.0564969 0.92572373 0.9613846 1.1783862 1.160861 1.0184183
1.1416404 0.9008518 0.9186961 1.0953938 0.9594011 0.924444 1.0542923 1.0238607

encoder_variable_selection.single_variable_grns.T2M.resample_norm.norm.bias f4 [16]
00000000: 4437 6cbc 7630 513d c3fb 033e b97a 653d
00000010: bcf6 363d 417c 32be 9967 32be 11ef 733d
00000020: af25 113e 8f7c bcbd d6d1 9bbd ef86 ddbd
00000030: e5b1 a63c f43b a73d 247f 20be e785 dd3d
-0.014417473 0.051071607 0.12889008 0.05602524 0.044668898 -0.17430212 -0.17422332 0.059554163
0.14174531 -0.09203445 -0.076083824 -0.10816752 0.020348499 0.08165732 -0.156735 0.108165555

encoder_variable_selection.single_variable_grns.T2M.fc1.weight f4 [8, 8]
00000000: 621e 04bf 24e1 8cbe e0d9 ffbe 46f1 1dbe
00000010: 5b8e af3e 772a b6be 23d8 42be 62f7 13be
00000020: 5943 b9be 1636 28bf 9dfd b1be 24a2 f8be
00000030: 4c63 52be 6db3 563e c8fe 4fbf 3419 a3bf
00000040: 912e 153f 0389 70be 1ae5 b0be edcb 853e
00000050: 7583 38bd 6a98 8abf dcfa 9e3e 4c49 6dbe
00000060: a886 bb3e cd5f 2fbf 0db3 dbbe 18f7 243f
00000070: a78d 5d3f 2d10 2b3f 549d 833e 75dc 88be
00000080: 4cf8 b9be dacf fa3d 78fb 43bf 59e2 07bf
00000090: 2804 eb3e d494 b53e c467 9a3e 7223 983e
000000a0: 5206 9fbd d0f8 13bc 24b5 d53e 3bcf dabe
000000b0: 17b4 f5bd 3365 79bf 841f 49be 74ad 3f3f
000000c0: d9d5 dc3e 8032 16bd 5546 5bbf ae87 163e
000000d0: 0b01 6b3d 1be0 533f 70ef 32bf 2ee5 0abf
000000e0: dad2 a73e c213 b3bf 79ec 80bc 2e2b a23d
000000f0: ca48 a1be badc c7be 7288 37bd 80f6 95be
-0.5160886 -0.2751552 -0.49970913 -0.1542407 0.34288296 -0.35579273 -0.19027762 -0.14449838
-0.36184195 -0.6570753 -0.34763804 -0.48561203 -0.20545691 0.20966883 -0.8124814 -1.2742066
0.5827418 -0.23489766 -0.3454979 0.26132146 -0.045047242 -1.0827763 0.31050766 -0.23172492
0.36626172 -0.68505555 -0.42910042 0.64439535 0.8654427 0.6682156 0.2570597 -0.26730695
-0.36322248 0.12246676 -0.76555586 -0.53079754 0.45901608 0.3546511 0.30157292 0.29714543
-0.077648774 -0.0090314895 0.41739762 -0.4273623 -0.1199724 -0.9742004 -0.19640929 0.74874043
0.43131903 -0.036669254 -0.85654193 0.14700195 0.05737404 0.8276383 -0.698966 -0.5425595
0.32778054 -1.3990405 -0.015737759 0.07918392 -0.31500846 -0.39035589 -0.04480786 -0.29289627

encoder_variable_selection.single_variable_grns.T2M.fc1.bias f4 [8]
00000000: be33 10bd 61fd 6cbd 59b7 02be 9df3 11be
00000010: cb2b 7e3d 1871 1fbd 3794 38be edc9 ebbd
-0.035205595 -0.05785883 -0.12765254 -0.14253087 0.062053483 -0.038926214 -0.1802529 -0.11513124

encoder_variable_selection.single_variable_grns.T2M.fc2.weight f4 [8, 8]
00000000: 6293 033f e509 8bbf 196c f4ba a8eb 35be
00000010: fb27 ebbd 83e5 3abd 2a06 7abf aea1 84bf
00000020: 7be4 4ebd a08c 68bf a237 87be 721f 26be
00000030: 8caf 573d 666d 383e fd80 51be 2553 fe3d
00000040: 0cf5 15be cecb 963e 49b2 4abf 58f6 58bf
00000050: 5c05 ef3d bc65 043f c39b 40bf 5b53 36bf
00000060: 7451 84be 4efb e0bf 216b 113f 4a52 c23e
00000070: e179 6e3f 049c 24bf ac51 13be a320 dcbe
00000080: 2877 333f a4e0 f8be d1a9 8c3d 166b 9fbc
00000090: 62ea f23e 1f5c 4dbe f89c 2abd ff8e 47bf
000000a0: 0dc8 d9bc 1ff5 84be 7c43 fa3d a634 ed3e
000000b0: fc96 bcbc 1fd2 723e 5291 c83e 8968 2c3d
000000c0: 2d30 debe cacb 6c3f 553e 973c 3284 493f
000000d0: 7b23 0f3f 6d2f 093e 98a4 b7bc daa4 d63e
000000e0: d70d 38be c53c fabe e6f4 0e3d 8f22 c73e
000000f0: 6eee 76bf eeba 043f 739a 0dbe 1e04 0ebf
0.51396763 -1.0862395 -0.0018647938 -0.17765677 -0.11482235 -0.045629036 -0.97665656 -1.0361841
-0.050510865 -0.90839577 -0.26409632 -0.16222933 0.05265765 0.18010482 -0.20459361 0.12418202
-0.14644259 0.29452366 -0.7917829 -0.8475089 0.11670944 0.51717734 -0.75237674 -0.7122094
-0.25843394 -1.7576692 0.5680409 0.37953407 0.9315472 -0.6430056 -0.14386624 -0.4299365
0.70103693 -0.48608887 0.068683274 -0.019460242 0.47444445 -0.20054673 -0.041653603 -0.7795257
-0.02658465 -0.25968263 0.12219903 0.4632923 -0.023021214 0.23712967 0.3917337 0.04209188
-0.4339613 0.9249846 0.01846234 0.7871734 0.55913514 0.13396998 -0.022417352 0.41922647
-0.1797403 -0.48874488 0.034901522 0.38893554 -0.96457565 0.5184773 -0.13828449 -0.5547503

encoder_variable_selection.single_variable_grns.T2M.fc2.bias f4 [8]
00000000: eaa2 1b3e 8d9a 163e 6ad1 f33d 005e 2f3d
00000010: ba4b c23d fe47 1bbe 00e1 933d c93a 5ebd
0.15198866 0.14707394 0.11905177 0.042814255 0.094871 -0.15164182 0.0722065 -0.05425528

encoder_variable_selection.single_variable_grns.T2M.gate_norm.glu.fc.weight f4 [32, 8]
00000000: 7a37 133e 35b0 fb3d 4c6f 8dbe 463e 463e
00000010: 1e26 7d3e 6011 93be 1a0c 433e 6db7 203e
00000020: e47b 5cbd 3461 babe 84e9 d2be 4488 c4be
00000030: 6ad8 a4bd 2dc9 a83e 50a7 d23c 13aa d2be
00000040: 6640 873c 0344 c9bd b8e7 203e f0e2 39be
00000050: b5f1 d23e d8c3 debc d92f 563e f5f3 20be
00000060: ae68 b93e 1fd0 b43e f226 e33d a68d df3d
00000070: b5e3 c63d f0e0 233e c807 783e 4c51 903e
00000080: d4ee 9fbd 3e9a 4b3e 2251 a4be 69d4 33be
00000090: 1e46 423d 9d5a a13e 089d f83e 85ca 893e
000000a0: f228 aa3e ac82 49be 1e61 51bd cc59 20be
000000b0: 0881 73be 78e1 25bc 243f b0bd 3b31 19bd
000000c0: 607d 5fbe 8200 c6bd af23 40be a229 f7be
000000d0: 0f25 05bf 9468 bbbe cd46 8e3d eee4 4c3e
000000e0: fabc 69bc 38af 083d d3fa d3be 94c4 19be
000000f0: cc38 63be 3343 1fbe 9a73 5bbe 6f69 9c3d
00000100: 32a7 7cbd bafc 83be ee80 6e3e 67dc 9cbe
00000110: 1ff6 823e c25b 41be 3f04 5a3d ceb9 bebe
00000120: 06f2 1b3e 85fa 353e 6145 5e3d 64dd 883e
00000130: 25c9 95bd 9eaa 40be 0861 8abc 17f0 a63e
00000140: 4bf2 c23e 65d6 6abe 8585 20be 1643 acbe
00000150: a9b2 b9be d519 403e bb6c 7f3e 2bbf be3e
00000160: d204 55bd 7ed5 e9bd 5fdf 453e d08f e1bd
00000170: 924b 093e 6b46 a8be a958 413e 4282 b93e
00000180: 3c59 6abd 3ff7 2abe b688 123e e496 d0bd
00000190: 5770 b8be a105 c43e 927a b63b cc19 ea3d
000001a0: e184 50bc 20f5 1f3e 5c0e 7cbe f44d 113e
000001b0: 92e1 493e 242f 61be f289 993e ac5f 89be
000001c0: 0055 813e def2 20be fdc2 2d3e f3ed 5bbe
000001d0: 98a5 abbe b0b7 e1bd 70e3 64be 8c06 09be
000001e0: 8c1a a7be e461 69be 5321 f33d 4bad b63e
000001f0: 6f09 953e 85c3 173e 289c bd3e 1edc 43be
00000200: c28c 86bd 745b 4c3e 9495 d63d 4ddf 593e
00000210: 286f 833e 9749 3ebe b8cb b2bd ebc1 1f3e
00000220: d5e0 b6be 1b68 8fbe fab7 4a3d e3c5 71be
00000230: 3e00 aabe 4db5 50be 4a39 af3e acc7 8abe
00000240: 9ee2 a53e 25ce 5bbe 9d57 063c 28a9 d0be
00000250: 051a 8f3e ea3f 78bd e7d1 c63e bcf9 663e
00000260: e23d 903c 0d39 95be 383e 32be 9f51 283e
00000270: 002a 6f3d 99c2 cebe 711d 8ebe c2b0 a6be
00000280: 7849 693e e99d cd3d e43f c7be 575c 58be
00000290: fb09 6cbd eb17 163e 50be 6f3d 6c9e 76be
000002a0: f60e a13c 05cf 563e 4f3b e73e 7c7f 93be
000002b0: 018e d1be 3b2b febe eb00 38be 20d4 e2ba
000002c0: 44cb eb3d 6062 343e 2c09 fdbd 349d d53e
000002d0: 743e 033f f57c 0d3f 6112 bf3d ed36 483c
000002e0: 7046 ec3e 4c5c c23e db0d 7cbe 7f02 0bbe
000002f0: 539e 163e 4bf6 413e 15d8 c5be 5710 213d
00000300: 8430 82be 8bd8 0abe 24a7 47be 29bf e1be
00000310: 96ed 353e 18d4 2b3d 9a38 14be 025b e5bd
00000320: 5c24 953c 6926 973d 6e0e 3b3d 10fd 7bbe
00000330: c04b 843e b58f 8fbd d02a 8d3e a5ce 0dbe
00000340: b040 c33e 74f7 b73d ea25 593e 596b dc3e
00000350: 3639 afbe cbde 813d 5bc1 8cbe b21a b63e
00000360: 69fa abbd e73d e7bd 3f38 66bd 0fd5 b63e
00000370: d5de e73d 4149 903e 16ed c63d 9355 863e
00000380: 673e f6bd 0d2c 8c3c 1293 253e ac19 95bb
00000390: 5199 963e f071 3dbe f670 b63e 9965 4ebe
000003a0: a3a2 023e 73e3 8e3c 9efb 873e bf9b 863e
000003b0: 963e 393e 048d f73d 73a5 1e3d b8df 5d3c
000003c0: ff75 e73e 3439 d23d 0e54 ae3e 1291 0b3f
000003d0: 35d9 a3be f6a3 7f3e 0039 193e e99d 593d
000003e0: ce63 423e e6d6 2b3d c784 133e 4653 333e
000003f0: 6cfb 83bc 85e0 febd dc1c 5dbe b54d 533e
0.14376631 0.12289468 -0.27623975 0.19359693 0.24721572 -0.28724194 0.19047585 0.15694971
-0.05382909 -0.36402285 -0.41193783 -0.38385212 -0.0804909 0.32965985 0.025714546 -0.4114538
0.0165102 -0.09827425 0.15713394 -0.18152976 0.41200033 -0.027192995 0.2091669 -0.15718062
0.36212677 0.35315034 0.110914126 0.10915689 0.097114004 0.16003776 0.24221718 0.28187025
-0.07809225 0.19883057 -0.3209315 -0.17561497 0.04743015 0.31514445 0.48557305 0.26912323
0.33234364 -0.19678754 -0.05111801 -0.15659255 -0.2377969 -0.010124557 -0.08605793 -0.037400465
-0.2182517 -0.096680656 -0.18763612 -0.4827395 -0.5200967 -0.36603224 0.06947098 0.20009205
-0.014266247 0.033370227 -0.414023 -0.15016395 -0.22189635 -0.15552978 -0.21430817 0.07637297
-0.061682887 -0.25778753 0.2329137 -0.30636904 0.255784 -0.18882659 0.053226706 -0.37251133
0.15229043 0.17771347 0.054265384 0.26731408 -0.07313756 -0.18815085 -0.016891971 0.3260505
0.3807548 -0.22933348 -0.15675934 -0.33644933 -0.3626912 0.18759854 0.24943821 0.37255225
-0.05200655 -0.114176735 0.1932349 -0.11013758 0.13407734 -0.32866225 0.18881477 0.3623219
-0.057214007 -0.1669588 0.14309964 -0.1018503 -0.36023208 0.38285545 0.0055688107 0.114307016
-0.012726993 0.15620852 -0.24614853 0.14189893 0.19714954 -0.21990639 0.29988056 -0.26830804
0.25260162 -0.15717646 0.16968913 -0.21477489 -0.33524776 -0.11021364 -0.22352386 -0.13381404
-0.3263744 -0.22791249 0.118715905 0.35679087 0.2910876 0.14820679 0.370332 -0.19126937
-0.06569816 0.19956762 0.104777485 0.21276589 0.25670743 -0.1858276 -0.087302625 0.15601318
-0.35718408 -0.28009114 0.04949186 -0.23610644 -0.3320331 -0.20381661 0.34223396 -0.27105463
0.32399458 -0.21465357 0.0081996 -0.40754056 0.2794954 -0.06060783 0.38832018 0.22556204
0.017607633 -0.2914509 -0.17406547 0.16437386 0.058389664 -0.4038284 -0.27756837 -0.3255673
0.22781932 0.100398846 -0.38915932 -0.21128975 -0.057626706 0.14657561 0.058531106 -0.2408387
0.019660454 0.20977409 0.45162436 -0.288082 -0.40928653 -0.49642357 -0.179691 -0.001730565
0.11513379 0.17615652 -0.12355265 0.417215 0.5126717 0.55268794 0.093296774 0.012220127
0.4614749 0.37961042 -0.2461466 -0.13575171 0.14708833 0.1894161 -0.3864142 0.039322224
-0.2542764 -0.13559167 -0.19497353 -0.44091156 0.17766413 0.041950315 -0.14474717 -0.11198999
0.018205814 0.07380373 0.045668058 -0.24608254 0.25839043 -0.07009832 0.27571726 -0.1384836
0.3813529 0.08982745 0.2120587 0.4305065 -0.34223336 0.063413225 -0.2749127 0.35567242
-0.08397371 -0.11291104 -0.056205984 0.35709426 0.11321799 0.28180888 0.09713189 0.26237163
-0.12023621 0.017110849 0.16169384 -0.0045501795 0.29413846 -0.18500495 0.35633057 -0.20155944
0.12757353 0.01744244 0.26559156 0.262907 0.18090281 0.120874435 0.038732003 0.013542108
0.4520721 0.10264817 0.34048504 0.54518235 -0.32001653 0.2496489 0.1496315 0.05312911
0.18983385 0.04195299 0.1440612 0.17512235 -0.016111098 -0.124451675 -0.2159304 0.20635112

encoder_variable_selection.single_variable_grns.T2M.gate_norm.glu.fc.bias f4 [32]
00000000: e6f0 32bb a456 613d 7fff fe3d cf71 733d
00000010: 6537 2c3d 1601 24be 0e54 35be d1e1 453d
00000020: 0679 143e 2216 a9bd b65c a2bd c138 e6bd
00000030: 4223 be3c 41bd a53d 0f81 16be a1f6 1c3d
00000040: ad6a 653c 8cb8 993d 09db 96bc 29c9 b3bb
00000050: a136 fb3c 58ed fdbd 2cb1 cc3d cf89 b9bd
00000060: 45a2 0ebe 0879 db3d 9267 4abd f156 bcbd
00000070: 50ea ecbc 8049 0dbe 9598 2ebd 506a 193d
-0.0027304231 0.055014268 0.12451076 0.05943471 0.042045016 -0.16016039 -0.17707846 0.04831106
0.14499292 -0.082561746 -0.079278395 -0.11241294 0.023210172 0.08092738 -0.1469767 0.03832114
0.014002484 0.07505903 -0.018414991 -0.0054866266 0.030665698 -0.12398785 0.0999473 -0.09059488
-0.13929088 0.10716444 -0.04941518 -0.0919627 -0.028920323 -0.1379757 -0.042625982 0.037454903

encoder_variable_selection.single_variable_grns.T2M.gate_norm.add_norm.norm.weight f4 [16]
00000000: 2fe5 7c3f f416 8c3f c1ae 903f 6383 633f
00000010: 192b 803f 3f6b 973f 3bb6 953f 3c7f 5a3f
00000020: f76b 933f d379 6a3f b33a 6c3f 5cf7 793f
00000030: 2ea3 753f 507c 6e3f 276f 913f c4fa 963f
0.98787206 1.0944505 1.1303331 0.88872355 1.0013152 1.1829604 1.1696237 0.85350394
1.1517323 0.9159214 0.9227707 0.97643065 0.9595212 0.93158436 1.1362046 1.1795278

encoder_variable_selection.single_variable_grns.T2M.gate_norm.add_norm.norm.bias f4 [16]
00000000: 47d8 2ebd 3fb0 493d f4b6 123e 5b5f 483d
00000010: c52c 603b cf80 39be cfd6 34be ddf8 3c3d
00000020: 2f19 1e3e 66f4 95bd f10a 0cbe 5a3f f4bd
00000030: 7c60 583c 2c57 9e3d ced1 19be 4abb 333e
-0.042686727 0.049240347 0.14327604 0.048919063 0.0034206372 -0.18115543 -0.17660068 0.046135772
0.15439294 -0.07322006 -0.13676049 -0.11926146 0.013206597 0.077314705 -0.1502144 0.17551914

encoder_variable_selection.single_variable_grns.T2M_MAX.resample_norm.mask f4 [16]
00000000: 9ea7 043e 175c 5cbd c94d a4bc 7739 d8bd
00000010: c642 aebb e280 1d3e d289 113e 14db 463c
00000020: 46f3 91bd 8381 7bbd 1ade 133e 28a2 d43d
00000030: 9217 a23d b277 d23d 28b7 d83c c372 18be
0.12954566 -0.05379876 -0.020056622 -0.105578355 -0.0053180186 0.15381196 0.1421273 0.012137193
-0.07126479 -0.06140281 0.14440194 0.10382491 0.07914652 0.10276736 0.026454523 -0.14887528

encoder_variable_selection.single_variable_grns.T2M_MAX.resample_norm.norm.weight f4 [16]
00000000: f3c9 913f c23c 713f f9e7 7e3f 44c5 643f
00000010: 8c79 933f 3d32 583f f2fa 583f 038a 943f
00000020: 8fb2 533f d918 883f 222d 823f d721 8d3f
00000030: 551b 803f 64fc 8c3f 3f18 873f 499f 5d3f
1.1389755 0.94233334 0.9957271 0.89363503 1.1521468 0.8445166 0.8475791 1.1604618
0.82694334 1.0632583 1.0170023 1.1025952 1.0008341 1.1014524 1.0554274 0.86571175

encoder_variable_selection.single_variable_grns.T2M_MAX.resample_norm.norm.bias f4 [16]
00000000: e3a8 0a3e e4f8 44bd 2d51 ae3c 6d26 d03d
00000010: 7af0 ef3c 2053 1bbe 5727 17be 76d4 143e
00000020: fdc2 ec3c 5b98 ca3b 60ad 14be f1ee dbbd
00000030: b2b3 c3bd 366d b23c c7a3 77bd a6ec 203e
0.13540988 -0.048088923 0.021278942 0.10163579 0.029289473 -0.15168428 -0.147611 0.14534172
0.028901571 0.006182713 -0.14519262 -0.10738934 -0.095557585 0.021780591 -0.060458925 0.15715274

encoder_variable_selection.single_variable_grns.T2M_MAX.fc1.weight f4 [8, 8]
00000000: 8912 c13e df59 30be 2aad 8ebe 55a3 edbc
00000010: c70c 96bd 1ffb 653f 8c1e 3dbf 6972 d8be
00000020: 4f80 0d3f 6607 6dbe 7b38 383f efd2 823e
00000030: 6665 c7be f638 15bf 4964 dc3e fda0 893e
00000040: b01b a03c 160e 9f3e 6251 583f 1476 fdbe
00000050: a996 0ebf ad60 e03e 614d 833e 9994 7b3e
00000060: 52d3 6fbe 4cb3 a7bd 0f45 183f 6780 1e3e
00000070: 3818 753e aef9 22bf 66c9 7abd de49 74bf
00000080: 45f8 283e 875d 593e 69da 12bf 8c78 c5be
00000090: 1e57 173f e08f 4ebf f046 9dbe 323d c5be
000000a0: 1a59 cb3e c554 a43e 4a7c 373f ea68 803d
000000b0: 50c5 173e 52f2 a0bd 1f25 8a3c 73fd 16bf
000000c0: 9979 fbbe 23b3 8b3e 14e4 413f e7e7 d73e
000000d0: a1fb 5f3d 5237 c33d 6cdd ec3c 2565 0fbf
000000e0: c902 1abf aeef 193f f7e2 b7be 2a8c 20bf
000000f0: 923b 7e3f f619 173f 5ce2 663e 8b7d 1bbe
0.37709454 -0.17221783 -0.2786649 -0.029008547 -0.07326656 0.89836305 -0.73874736 -0.42274788
0.5527391 -0.23147354 0.7196118 0.25551555 -0.38944548 -0.5829004 0.43045262 0.26880637
0.019544452 0.31065434 0.8449918 -0.4950415 -0.5569864 0.43823758 0.25644973 0.24568404
-0.23420456 -0.08188495 0.59480375 0.15478669 0.2393502 -0.6366223 -0.061227225 -0.9542521
0.16500957 0.21227084 -0.5736452 -0.38568532 0.59117305 -0.80688286 -0.30718184 -0.3852325
0.39716417 0.32095924 0.71674025 0.06270011 0.14821362 -0.07858719 0.016863404 -0.5898048
-0.4911621 0.27285108 0.75738645 0.42169115 0.05468333 0.09532036 0.028914176 -0.5601371
-0.601605 0.6013135 -0.35915348 -0.62713873 0.9930965 0.5902399 0.22547287 -0.1518461

encoder_variable_selection.single_variable_grns.T2M_MAX.fc1.bias f4 [8]
00000000: 818b cabd 9e88 28be dc67 94bb 8b38 ed3d
00000010: 08f8 b43d 0e63 b63d 031c e0bd 6b44 6d3c
-0.098898895 -0.16458365 -0.0045289826 0.1158305 0.08836371 0.08905612 -0.10942843 0.014481644

encoder_variable_selection.single_variable_grns.T2M_MAX.fc2.weight f4 [8, 8]
00000000: ece3 343f 866c 463f 4248 03bf 53b9 753e
00000010: d115 a5be c78a 07bf fe74 efbe 77d3 f3be
00000020: b69c a73e c5e7 32bf 6c0c 2bbf 8b32 04bd
00000030: 9ea3 0abe 7ee2 2fbf 5af1 ad3e 2fc2 86be
00000040: f073 39bf 3935 6b3f ca4d 0dbf 9c45 a83b
00000050: 05d9 693f e6a1 2ebf b070 55be f853 69bd
00000060: eaf5 a03e d8fb 533d 7bca 473f f2bc b83e
00000070: 2926 70bd 5bc9 6a3e f086 72be ed88 0f3e
00000080: df7b fe3e 12b3 dd3d 48d8 1dbe 4fe8 a8be
00000090: b4be c8bd 7523 b5bf 90cc 293f 47d4 ccbe
000000a0: 95b7 de3c b26b cabe b969 9e3f d06c ee3e
000000b0: 862d f6be 4cfa 03bf 242b 3e3f afdb 8c3e
000000c0: efdc bfbe 8a06 193e 700b 06be 085e a03e
000000d0: b77e 813f 0ccb 69bf 59aa 6e3e 4b99 d6be
000000e0: 6112 4c3d 43d1 0abe f5f6 583f c42b 44bf
000000f0: b5df 9fbe 41b0 0ebf 191d 743f 249e 03bf
0.7066028 0.77509344 -0.5128213 0.23996477 -0.32243207 -0.5294613 -0.46768945 -0.47622272
0.32736748 -0.698849 -0.6681583 -0.032274764 -0.13538978 -0.68704975 0.339732 -0.26320025
-0.7244253 0.91878086 -0.5519682 0.005135251 0.9134677 -0.6821579 -0.20843768 -0.056964844
0.31437618 0.05175385 0.78043336 0.36081654 -0.058630142 0.22928374 -0.23684287 0.14017077
0.4970388 0.108251706 -0.15414536 -0.32989737 -0.09801999 -1.4151446 0.6632776 -0.40005705
0.027187148 -0.3953529 1.2376014 0.46567392 -0.48081607 -0.515538 0.7428458 0.27511355
-0.37473246 0.149439 -0.130903 0.3132174 1.0116795 -0.9132545 0.2330717 -0.41913828
0.049822215 -0.1355639 0.84751827 -0.7662928 -0.31225362 -0.5573769 0.953569 -0.5141318

encoder_variable_selection.single_variable_grns.T2M_MAX.fc2.bias f4 [8]
00000000: b8e8 38bd acb7 2a3e 02c4 e6bd 55e5 253d
00000010: aed2 03be 7524 28be 7882 133d da74 9fbd
-0.045143813 0.16671628 -0.11267854 0.04050191 -0.12873337 -0.16420157 0.036013097 -0.077859595
