ai_predict/ai/lightning_logs/version_9/checkpoints/epoch=2-step=24.ckpt (torch, 662004 bytes, 889 tensors)

prescalers.time_idx.weight f4 [8, 1]
00000000: b9ac 01bf 8eb4 273f 28b2 373f c093 b8be
00000010: 71a3 3fbf 5823 973d dc6a 39be 0227 5b3f
-0.5065418 0.6550988 0.7175622 -0.36050224 -0.74858767 0.07379788 -0.1810717 0.85606396

prescalers.time_idx.bias f4 [8]
00000000: 240e 353d 57aa b03e 1471 303c a870 5bbe
00000010: d1d3 b4be e60c 6abf cebf 18bf 594f 4f3f
0.04420294 0.3450496 0.010769147 -0.21429694 -0.35317853 -0.9142593 -0.5966767 0.8098045

prescalers.T2M.weight f4 [8, 1]
00000000: 9536 8f3e 9bb2 c2be e992 b1be babf ce3c
00000010: 3e31 25bf 0621 67bf 1d38 c3bd b4c4 613f
0.2797133 -0.3802689 -0.34682396 0.025237907 -0.6452826 -0.90284765 -0.09532187 0.8819077

prescalers.T2M.bias f4 [8]
00000000: e073 013f 25c9 533f b519 3b3f 79fc 25bf
00000010: f81b 593f 10cf 493f e139 38bf be48 1b3d
0.50567436 0.827288 0.730861 -0.6483837 0.848083 0.7883158 -0.71963316 0.03791117

prescalers.T2M_MAX.weight f4 [8, 1]
00000000: fd58 003d b048 ef3d e51f dd3d 0aeb afbe
00000010: c411 833f 3253 87be a4f8 0dbf 2a07 853f
0.031334866 0.11683786 0.10797099 -0.34359008 1.0239797 -0.2643066 -0.5545752 1.0392811

prescalers.T2M_MAX.bias f4 [8]
00000000: a01a 2fbf ba88 9a3e ff94 223f d4db c23e
00000010: 5290 24bf 72e6 383f 7868 373e e840 2dbf
-0.684 0.3018244 0.635086 0.3805834 -0.64282715 0.7222663 0.17910945 -0.67677164

prescalers.T2M_MIN.weight f4 [8, 1]
00000000: 5e82 353f 291b 753e 36a6 3f3f d008 f4be
00000010: df38 2e3f 8503 bebe 4d86 233f 3a99 96bd
0.7090205 0.23936142 0.7486299 -0.47662973 0.6805553 -0.3711206 0.638768 -0.073534444

prescalers.T2M_MIN.bias f4 [8]
00000000: 2f3a 1f3d b226 853f 7a9f 52bf 8423 22bf
00000010: 1a7a e63e 59dc 913e 89c7 3fbe ee3f d6bd
0.038873848 1.0402434 -0.8227459 -0.6333544 0.4501503 0.28488424 -0.1872846 -0.10461412

prescalers.PRECTOTCORR.weight f4 [8, 1]
00000000: 2868 2cbf a294 8cbe 396d 123f 6bf7 8bbc
00000010: 9ff8 523f 1bd7 3abf 6fee e83d 8b0f 313d
-0.6734643 -0.27457148 0.5719791 -0.017085752 0.82410616 -0.72984475 0.113736026 0.043227714

prescalers.PRECTOTCORR.bias f4 [8]
00000000: f86e a03e 44fe 76bf db53 48bf 9479 153f
00000010: 11fd 273f e581 19bf 87a0 11bf 3928 2a3e
0.31334662 -0.9648173 -0.78252953 0.5838864 0.65620524 -0.5996383 -0.5688557 0.16616906

prescalers.RH2M.weight f4 [8, 1]
00000000: c5b5 1cbf 194b bf3e b2b0 66bc 3ef8 49bf
00000010: 34a3 143f 1011 023f 3102 3b3f 8b27 bc3e
-0.6121486 0.37361982 -0.014080213 -0.7889441 0.5806153 0.50807285 0.7305022 0.3674892

prescalers.RH2M.bias f4 [8]
00000000: be07 82bf 9fb2 e93e 6716 103f e823 8b3e
00000010: ff04 0b3f ca5a 8fbf 354a 52be fc81 93bd
-1.0158613 0.4564409 0.56284183 0.27175832 0.543045 -1.1199582 -0.2053612 -0.07202527

prescalers.ALLSKY_SFC_SW_DWN.weight f4 [8, 1]
00000000: e48b cabe b0be 4fbe c1cb 1fbf e7c1 b23e
00000010: 0943 3ebf c521 a43e 60c4 3f3e 935e 723f
-0.39559853 -0.20287585 -0.6242028 0.3491356 -0.7432104 0.32057014 0.18727255 0.9467556

prescalers.ALLSKY_SFC_SW_DWN.bias f4 [8]
00000000: e3c4 403f b27f 6d3f 357b b93e 512e 62bf
00000010: b884 233f e61f 0fbe eb73 3bbe a2ea fe3e
0.75300425 0.9277297 0.36226812 -0.88351923 0.6387439 -0.13977012 -0.18305938 0.49788386

prescalers.numero_casos.weight f4 [8, 1]
00000000: 9c91 77be bf9e 623f 2aa8 35bf 0f9c 983f
00000010: cdbf 23bf 2ed1 443f ea2c 1dbf 7a91 c43e
-0.2417664 0.8852348 -0.70959723 1.1922625 -0.6396454 0.7688168 -0.6139666 0.3839224

prescalers.numero_casos.bias f4 [8]
00000000: 5637 693f c722 75be 65d9 acbe 7dbb 37bf
00000010: ff45 c2be e283 f33e 73b2 40bf bfe4 873f
0.9110006 -0.23939048 -0.3375961 -0.7177046 -0.37944028 0.47561556 -0.7527229 1.0616683

static_variable_selection.single_variable_grns.municipio.mask f4 [16]
00000000: eead 29be c3a2 29be 40a0 293e f4a5 293e
00000010: a798 29be 33a9 293e f3ab 293e 8bab 293e
00000020: f6a8 293e 78aa 29be 9eae 293e 3eaa 293e
00000030: a1aa 29be 8fab 293e 91ab 29be d0ab 29be
-0.16570255 -0.16565995 0.16565037 0.16567212 -0.16562138 0.1656845 0.165695 0.16569345
0.1656836 -0.16568935 0.16570517 0.16568848 -0.16568996 0.1656935 -0.16569354 -0.16569448

static_variable_selection.single_variable_grns.municipio.norm.weight f4 [16]
00000000: c62d 7e3f e320 6f3f 893c 4e3f be6c 593f
00000010: db88 603f eddd 683f 47c1 823f b981 7b3f
00000020: 5e39 5f3f 47c6 813f 8d33 8d3f 9e1f 803f
00000030: 972a 883f b270 8e3f 443b 893f 7136 843f
0.99288595 0.93409556 0.8056112 0.8493155 0.87708825 0.9096363 1.0215234 0.98244816
0.8719691 1.0138634 1.1031357 1.0009649 1.0637997 1.1128142 1.0721211 1.0329114

static_variable_selection.single_variable_grns.municipio.norm.bias f4 [16]
00000000: 31c8 293e 9e82 293e 2552 29be 578a 29be
00000010: 1c8b 1c3e 22a1 29be 35ae 29be 36aa 29be
00000020: 9c9a 29be 60aa 293e 00c9 29be c2ac 29be
00000030: eeaa 293e 6fb2 29be 0db2 293e f9b2 293e
0.16580273 0.16553733 -0.16535242 -0.16556679 0.15287441 -0.16565374 -0.16570361 -0.16568837
-0.16562885 0.16568899 -0.16580582 -0.16569808 0.16569111 -0.16571973 0.16571827 0.16572179

encoder_variable_selection.flattened_grn.resample_norm.mask f4 [8]
00000000: db1e bbbd db03 fa3d b4ab 28be 6ef8 29be
00000010: dc8a 1ebe 88b0 2fbe db61 17be 3225 3d3e
-0.091367446 0.122077666 -0.1647175 -0.16598675 -0.15482658 -0.17157185 -0.14783423 0.1847122

encoder_variable_selection.flattened_grn.resample_norm.norm.weight f4 [8]
00000000: d55a 963f a829 903f 6b76 563f 68ef 593f
00000010: aa6a 5f3f 464d 5a3f 0d94 5b3f ad33 983f
1.174647 1.1262712 0.8377444 0.8513093 0.8727213 0.8527416 0.8577278 1.189077

encoder_variable_selection.flattened_grn.resample_norm.norm.bias f4 [8]
00000000: 9f1f 0ebe 4625 cf3d cc8b 29be 971a 0a3e
00000010: 39af 16be c895 023e 1780 063e d884 3c3e
-0.1387925 0.10114531 -0.16557235 0.13486706 -0.1471528 0.1275245 0.131348 0.18410051

encoder_variable_selection.flattened_grn.fc1.weight f4 [8, 64]
00000000: e52d 6abe b20a a13e 8e06 913d 3723 93be
00000010: 607b 46be c6c4 d2be 362f c6be f70b 873d
00000020: 04bc c93e e37f 9bbe 58b5 703c 2aaf a6be
00000030: e02d 033e a10a a33c 0e9e 8abd 8939 08bd
00000040: cff6 00be 9a8a f73e a4cf 083e 4a34 873e
00000050: 7cdf e6bc f224 ba3e 7ebb 223e ec3b bfbb
00000060: 5b15 c4be b9c1 5f3e 18b0 55be 3315 5dbe
00000070: 0dcd 9bbe f0f5 b53e ba87 56be b494 c9bd
00000080: 0e2e 55bd 6832 20be 38d1 e0bd a619 033e
00000090: f8a9 823e 4d02 fabd cbcb a0be 7811 1a3e
000000a0: e81e b13d 750b 893d 6fd5 003e 1feb 053e
000000b0: 9960 7f3e a86e b0be ed7a 68be 7fee 4cbe
000000c0: 9c4a 9b3e 9d6f 033f 0abb ac3e 66f1 69be
000000d0: b764 1a3e d3ab 6abe f86d d6be 618d 043f
000000e0: be47 443e 20c9 67be 854c fcbe 6c3b 3e3c
000000f0: ce8c 13bf db75 a53e 59f6 51be d721 cc3e
00000100: c192 08be 4bd4 0e3e 6084 313e f205 5fbe
00000110: 6d7c c0bd 25d9 c53e 203f df3e 7554 fbbd
00000120: f9b2 0fbf a2b7 72be dccc 10be 8862 513e
00000130: 1a08 143e bf2c 42bd fbd0 e43d e2d3 bf3d
00000140: a80c 613c e3a4 8cbd 9a82 85be 1771 91be
00000150: 6da1 533e 5c38 cabd decf f83d 149f 753e
00000160: 05e4 463e 0d4b 2ebe 68d2 583e 1d27 ed3d
00000170: c86b 9bbe e8c7 6bbe fdf0 a43d f669 7a3e
00000180: a060 f53b 8a6a 8b3e 1815 d5bd d0d0 0bbe
00000190: c0fe 45be 48d5 933e 4bee 463d 907f 903e
000001a0: a582 853e 9d94 53bd 7a7f bbbe cd25 95bc
000001b0: ea63 9ebe c3b9 683e 8535 16bd 2f0f e6bd
000001c0: 3aa2 033d 0fc0 cbbd 5596 efbe 981b 733e
000001d0: 1fc5 2b3d d30c f9bd a4bf 553e 26e3 38be
000001e0: d66f 81bd 5f90 28be c93b 843e 4f3d 18bd
000001f0: e006 863e ae3c 05be f77e 6e3d bbce 0bbf
00000200: 1d03 19bc 4ea7 893e 2c35 88bd 3816 303d
00000210: a81c 4c3e a29d ba3e e90b 9d3e dcb1 47bc
00000220: 7380 a9be 813e 93be 85aa 03bf 7289 e93e
00000230: 813e 8dbd b6c6 113d fa30 483d 54b4 e73d
00000240: 6c93 1d3e 5ab3 4cbe cb0c 82bd c052 3ebe
00000250: e977 503d 325c d2be 8be3 acbe 5c98 b43e
00000260: 6509 dabd 31fc dabe 9fac 8e3e 07a8 1f3e
00000270: 1073 a63e 0a51 08bf 75eb b6bb 7630 fcbb
00000280: 6484 87bd 285c 653e 2cc5 f23c 1553 df3c
00000290: dada 5bbe e852 e63e 53ae a53e 7295 c8be
000002a0: 9ec4 f7bd 0bcb 5ebe 7754 e2be ce8c c53c
000002b0: 3c35 80be 5dbf 723e 3557 4eba e4fb 803d
000002c0: 78a7 04bf a462 9a3c 971f 923d 24ae 863e
000002d0: 3dcd acbe e8b0 a13d 4171 19be d443 80be
000002e0: 9268 15be 4bd7 a9be 4de3 4e3e 8c86 f6be
000002f0: d090 cb3d 1c64 ddbd e6a1 c1bd f1f4 ebbe
00000300: 91ec 75bd e18d cd3e 1fff a03e 1ec7 d7be
00000310: 7f4c edbe fc84 77be 58b8 acbe a6b5 9b3e
00000320: 09bd df3e 8c9f 2bbe ef83 3e3e e983 b6be
00000330: 8919 013e 31a9 4b3d 5148 c5be 254e 3e3e
00000340: a21d f3bd 0463 903d 7862 b83e 7a63 f93e
00000350: cc5e c13b 36ea c03d c542 113a 02ce 32be
00000360: def3 aebe 7e29 a2bc 1e89 63be 1243 35be
00000370: 68d5 983e d3f4 e63e 2c41 093c 4dbd 353d
00000380: 8dc9 03be 4759 22be 98ff 92be 2da8 893d
00000390: adc2 4e3e 9516 23bd a6f6 38bf 0dd6 823e
000003a0: 7296 9ebe f6c7 99bd d631 41bd 916f b43d
000003b0: e6ae 95be 069e 7dbe f425 c7be 6349 e5be
000003c0: ddbf 463d 724b d2bd d88a a83e d398 05be
000003d0: fc65 1a3e bf6d 98bd 1486 513d f58f ac3e
000003e0: e1f3 6fbe d414 e93d f7fe 85be a133 5e3d
000003f0: aa3a 76bd 53d2 e03d f676 84be 01b4 a53d
-0.2286907 0.31453472 0.07081328 -0.28737804 -0.19383001 -0.4116575 -0.38707894 0.06594079
0.39401257 -0.30371007 0.014691673 -0.32555515 0.12810469 0.01990253 -0.06768428 -0.033257995
-0.1259415 0.48347932 0.13360459 0.2640708 -0.028182738 0.36356312 0.15891835 -0.0058360007
-0.38297543 0.21851243 -0.20867956 -0.21590118 -0.3042988 0.35539198 -0.20950213 -0.09842816
-0.052045874 -0.15644228 -0.10977405 0.12802753 0.255203 -0.1220747 -0.31405482 0.15045726
0.08648473 0.066916384 0.12581418 0.13077973 0.24939193 -0.34459424 -0.22703142 -0.20012854
0.3033036 0.51342183 0.3373645 -0.22845992 0.15077482 -0.22917108 -0.41880774 0.5177823
0.19167992 -0.22635317 -0.4927713 0.011610847 -0.57636726 0.3231648 -0.2050413 0.39869568
-0.13337232 0.13948171 0.17335653 -0.21779612 -0.09398732 0.3864223 0.43602848 -0.12271968
-0.56132466 -0.23702863 -0.14140648 0.20447743 0.14456216 -0.047405954 0.11172672 0.09366585
0.013735928 -0.06867387 -0.26076204 -0.28406593 0.20667048 -0.09874031 0.121490225 0.23986465
0.1942292 -0.17020817 0.21174014 0.11579726 -0.30355668 -0.23025477 0.08053777 0.24454483
0.0074883252 0.2722972 -0.10404414 -0.13653874 -0.1933546 0.28873658 0.048567098 0.28222322
0.26076236 -0.0516554 -0.36620694 -0.018206501 -0.30935603 0.22727112 -0.036672134 -0.11233365
0.032137133 -0.09948742 -0.46794382 0.23740995 0.041936036 -0.12160649 0.20873886 -0.180554
-0.06320159 -0.16461323 0.25826862 -0.037167843 0.2617712 -0.13011429 0.05822655 -0.5461232
-0.009339121 0.26885456 -0.06650767 0.04298994 0.19932806 0.3644839 0.3067315 -0.012188401
-0.3310581 -0.28758624 -0.5143207 0.45612675 -0.06896687 0.035589896 0.048874833 0.11313692
0.15388268 -0.19990292 -0.06350096 -0.18586254 0.050895605 -0.41085964 -0.33767352 0.3527249
-0.10646323 -0.42770532 0.27866074 0.15591441 0.3250966 -0.53248656 -0.005582268 -0.0076962067
-0.066170484 0.22398436 0.029635035 0.027261296 -0.21470204 0.44985127 0.3235956 -0.39176518
-0.120980486 -0.21757142 -0.44205067 0.024114992 -0.25040615 0.23705812 -0.0007871271 0.06298044
-0.5181804 0.018845864 0.071349315 0.26304734 -0.33750334 0.0789507 -0.14984609 -0.2505175
-0.14590672 -0.33172068 0.20203896 -0.48149526 0.0993973 -0.1081011 -0.09454708 -0.46085313
-0.06004006 0.40147308 0.31444642 -0.42144102 -0.46347424 -0.24171823 -0.33734393 0.30412024
0.4369891 -0.16760081 0.18605016 -0.35647514 0.12607397 0.0497219 -0.38531736 0.18584497
-0.118708864 0.07050136 0.36012626 0.48708707 0.0059011932 0.09419672 0.00055412605 -0.17461398
-0.3417043 -0.019795176 -0.22220275 -0.17701367 0.29850316 0.4510866 0.008377355 0.044369984
-0.12869854 -0.15854369 -0.28710628 0.0672153 0.2019145 -0.039816458 -0.72251356 0.25553933
-0.30974156 -0.07508843 -0.047166668 0.08810342 -0.29235 -0.24767312 -0.38896143 -0.44782552
0.04852282 -0.10268296 0.3291843 -0.13046579 0.15077966 -0.074428074 0.051153257 0.3370358
-0.23432876 0.11380926 -0.26171085 0.054248456 -0.06011454 0.10977616 -0.2587201 0.08090974

encoder_variable_selection.flattened_grn.fc1.bias f4 [8]
00000000: 8448 6c3e e3ae 23be e07f 27be 4ec6 343e
00000010: 6d54 623e b3cc 6c3e 5b74 a33d 0767 0f3e
0.23074538 -0.15984683 -0.16357374 0.17653772 0.22102518 0.23124962 0.079811774 0.14004146

encoder_variable_selection.flattened_grn.context.weight f4 [8, 16]
00000000: a33d 0f3f fc19 8fbe c6e9 453e 82de 9ebe
00000010: a2d7 e23e 413c d73c 7bce 233e 26c6 a3be
00000020: 22ab b53c bf95 d23e c412 abbe feff a5be
00000030: 2ace 613c 4315 84bb 62eb f53e 62ef dc3e
00000040: 693c 28be 0f24 413e 1977 73be 59bf efbd
00000050: f777 b23e dbcf a5be d6b7 153e 4ca4 9a3e
00000060: 0f42 f4be c27e 113f 3150 23be d85a 2bbe
00000070: 2820 27be 2b79 b9be c253 e83e 4d26 91be
00000080: 6759 303e 6773 843e 2902 6e3e 4e50 433e
00000090: aea8 c73e b6fa e1be a5f5 243f 89e1 9c3c
000000a0: 31db 7ebe 9928 4e3e 67ec d63e fca6 d0be
000000b0: ffd5 babe 9f7f 30be 717c 213e 944b a7be
000000c0: bca5 a1be 1a16 b13e 9d6f 943e d12d a23e
000000d0: efb9 eabe df97 a13c 722a 343b 7b79 493e
000000e0: 50fe 483e 6347 fb3e 06dd 273e e530 753d
000000f0: 0098 183f 6b93 443e 59e9 1f3f 3303 17be
00000100: b044 d2bd 2dcb adbc 6276 383e 85e9 6fbe
00000110: bf82 2e3f 18ec 903e 3e88 aabe b6c7 0bbf
00000120: d3a6 1f3f 579c 073f 1993 43bd c618 20bf
00000130: dcaf 863e 4d8d 893e e7e0 073e be30 a1bd
00000140: 6cf9 133f 128e 173e 0a60 9c3d 66a9 75be
00000150: c071 5c3e ce89 c4be 41a9 82be d9de 0cbf
00000160: 07b9 fe3e 2bda 5cbe 0911 9f3d 7c94 cabe
00000170: f032 b53d 8d44 edbe 3822 fe3e 0863 8abe
00000180: 238e a0bc 1336 28bd b8bf 0e3f a5eb 96be
00000190: af70 cc3c 1fb0 ad3e 8fb8 b2bd e271 833e
000001a0: bee2 203e bc43 c1be 0b46 8e3e 1455 0d3f
000001b0: 80c2 763e 80e5 9b3c 54f4 5bbe 4f47 a33d
000001c0: f976 d0be 8c74 b33d f685 a63e 0677 8fbe
000001d0: 5117 a63e 0058 8a3e df2f ee3d 0429 8e3e
000001e0: 1c18 78bd 8a99 13be 525f edbc 2c94 063e
000001f0: 3a4b 17bf e07b c0bd 677a fc3d ff3a 043e
0.55953425 -0.27949512 0.19327459 -0.31029135 0.4430514 0.026273848 0.15996735 -0.31987113
0.022176329 0.41129872 -0.33412755 -0.3242187 0.0137820635 -0.004030855 0.48031145 0.43151385
-0.16429295 0.18861412 -0.23775901 -0.117064185 0.3485715 -0.32385144 0.14620909 0.30203474
-0.4770665 0.5683404 -0.1594856 -0.16733873 -0.1632086 -0.36225256 0.45376402 -0.28349534
0.17221604 0.25869295 0.23243012 0.19073603 0.3899588 -0.4413659 0.64437324 0.019150512
-0.24888302 0.20132674 0.41977236 -0.407524 -0.3649139 -0.17236184 0.15770127 -0.3267485
-0.31571758 0.34587175 0.28991404 0.3167558 -0.4584498 0.019725738 0.002749112 0.19675247
0.19628263 0.490779 0.16392908 0.059861083 0.59606934 0.1919686 0.62465435 -0.14747314
-0.10267007 -0.021215046 0.1801391 -0.23428924 0.6816825 0.28305125 -0.3330707 -0.5460161
0.6236393 0.5297293 -0.047747705 -0.625378 0.26306045 0.26865616 0.13269387 -0.07870625
0.5780246 0.1480029 0.076355055 -0.23990402 0.21527767 -0.38386387 -0.25519755 -0.5502754
0.4975054 -0.215676 0.07766921 -0.3956641 0.08847606 -0.46341363 0.49635482 -0.2702868
-0.019599026 -0.041067194 0.5576129 -0.29476658 0.024956075 0.33923432 -0.08726608 0.25672823
0.15711495 -0.3774699 0.27787814 0.55207944 0.24097633 0.019030333 -0.21479923 0.079725854
-0.4071577 0.08762464 0.3252408 -0.28020495 0.32439664 0.27020264 0.116302244 0.27765667
-0.060569867 -0.14414039 -0.028976116 0.1314246 -0.5909916 -0.09398627 0.12328034 0.1291313

encoder_variable_selection.flattened_grn.fc2.weight f4 [8, 8]
00000000: 8471 4b3f 7078 4cbe 7f52 6f3f 1c7e 953f
00000010: bc72 643e a82d 8c3e f373 18be ddca 69be
00000020: d3ff bebd 0e00 57bf be29 86bf 8f57 de3e
00000030: 3b47 033f 8950 08be 5d5f 16bf 191d 8f3f
00000040: 0ed2 22bf 52c8 a33e b990 8fbd 9c37 95be
00000050: 6628 60bf ca67 26be ac4d c63d bb20 763f
00000060: 5142 8fbc 0965 c5bd 6d54 363f d15c 493f
00000070: f427 6abf 6e99 e6bd 211f e7be ba9e ed3e
00000080: f3b6 0c3f 8df5 96bd cb76 3d3f 5261 8a3e
00000090: 2320 253f 444a 8b3e de7e 0dbe 65c6 5d3d
000000a0: ecdd 493e 700c 2bbd f3a2 97be ca9a b0be
000000b0: a0c9 0a3f 8edc d23d d9f9 883e 5545 cabe
000000c0: 4000 2ebe fce1 26bd de40 2c3f 8060 fabe
000000d0: 7e14 a5be 9f35 59bf 9b6b 4c3f e330 e43e
000000e0: 8094 f6be 4ffb e53e d38c 1f3f 4bb2 0dbe
000000f0: 8965 2cbf 25f6 b0be bd7a 5e3e a1df db3e
0.79470086 -0.19967818 0.93485254 1.167911 0.22309393 0.27378583 -0.14887981 -0.22831292
-0.09326138 -0.8398446 -1.0481489 0.43426177 0.51280564 -0.13311972 -0.5873926 1.1180755
-0.6360177 0.3198877 -0.070100255 -0.2914399 -0.87561643 -0.1625053 0.096827835 0.9614369
-0.017487677 -0.096384116 0.71222574 0.7865725 -0.91467214 -0.11259733 -0.45140937 0.4641016
0.5496666 -0.07371054 0.7400939 0.27027375 0.6450216 0.27205098 -0.13817927 0.054144282
0.19713563 -0.04175991 -0.29616508 -0.34493095 0.54213905 0.10295974 0.2675312 -0.3950602
-0.16992283 -0.04074286 0.6728648 -0.4890175 -0.32242197 -0.84847444 0.7985169 0.44568548
-0.48160172 0.44918296 0.62324256 -0.13837545 -0.6734243 -0.34562793 0.21726508 0.42944053

encoder_variable_selection.flattened_grn.fc2.bias f4 [8]
00000000: 41c2 453e a145 2b3e e21f 1d3e 1103 30be
00000010: be72 763e bbc7 063e 1fea c93d 5084 1c3e
0.19312383 0.1672578 0.15344194 -0.1718867 0.24067208 0.13162129 0.09859108 0.15284848

encoder_variable_selection.flattened_grn.gate_norm.glu.fc.weight f4 [16, 8]
00000000: bcb3 cfbd 4421 8bbd 7dd3 b6be 42d3 573e
00000010: 0ae0 dd3e a177 e3bb 5548 00be 7090 26bf
00000020: 1ec1 35be 4205 3ebe 4a8f a23e 4d5d 123f
00000030: dceb 853b 7bad 0ebe ac64 333e 820a 3ebe
00000040: 01a6 963e 7b4c 07bf 5db6 0ebe 4b2f fa3e
00000050: 842b f6bd 2425 49be 157a ca3d b301 f73d
00000060: acef 11bf 0ca2 533e 733a 9abe 9b43 c23e
00000070: e303 c3be 247f 8bbd 6454 09be d237 b83d
00000080: 18ca 7a3e 2838 a6be 6758 0cbf 6ad3 863e
00000090: 4c53 c43e c8a3 2bbe 1e0f 0dbe 8b8e 293d
000000a0: 1fbd cebe 161c e43b f1e7 f13e a9b5 b2be
000000b0: 6a76 7a3c d258 4cbc 07ca a4be 7950 f9be
000000c0: 04a9 00bf df9e ac3e e9d1 7dbe 2934 e43e
000000d0: 2d39 0b3e 01be 7abe 4be2 c2be 5ec1 923e
000000e0: 949c c33e fb5a 2e3f 42eb f73c d893 0abf
000000f0: a742 ac3e ee0d 453e 1eed d2be 6307 4bbe
00000100: b90d c2bd 5412 fcbe e3d5 c33d 01b1 8ebd
00000110: 5542 52be bed6 d63e a709 293e 423a 083e
00000120: 856a 84be 5b60 133f fb9b b3be 378d 643d
00000130: 49e1 ce3e 8239 2dbe 49bd 03bf 5dab 763e
00000140: 88e3 25bf 35c7 9f3e 4510 123f 017d 923d
00000150: f579 acbe 7815 32be b0a9 503e 99fd 133d
00000160: 8cdb 01bf 12f7 d8be 906c 2e3d 7ec1 aa3e
00000170: 6e7d 423d ebeb e23d d5a0 853e f525 3a3e
00000180: 58d9 febe 9e52 ec3e 57d7 a8be 42dd fd3e
00000190: ec57 0ebf 8dab 8f3e 92eb 4fbe 8218 1c3f
000001a0: 44a6 debe 3efc b2be dd10 323e 3c42 243d
000001b0: e778 fabe 7a71 aa3e 0b26 e03e d473 443e
000001c0: 66fb 003d 3a59 443e 06db 553e 42f8 f6bd
000001d0: a859 08bf 276a aabe a18e 2e3e 6e41 e43e
000001e0: 9d9c 183f ac39 003e ec6b f3be b158 7e3e
000001f0: 3fb9 903e c430 02be 85a1 d6be 5315 d1be
-0.101417035 -0.06793454 -0.35708228 0.21076682 0.4333499 -0.006941751 -0.12527592 -0.65064144
-0.1774945 -0.18556693 0.31749946 0.57173616 0.0040869545 -0.13933365 0.17518872 -0.18558696
0.29423526 -0.52851075 -0.13936754 0.48864207 -0.12020019 -0.19643074 0.098865665 0.12060871
-0.57006335 0.20667285 -0.30122718 0.37942204 -0.38088903 -0.068113595 -0.13411099 0.08995022
0.24491155 -0.3246472 -0.5482239 0.2633317 0.383448 -0.16761696 -0.13775298 0.041395705
-0.40378663 0.006961356 0.4724727 -0.3490422 0.015287021 -0.012472348 -0.32185385 -0.48694208
-0.502579 0.3371496 -0.24787106 0.44571045 0.1359603 -0.24486543 -0.38063273 0.28663152
0.38205397 0.68107575 0.030263547 -0.5413184 0.33644602 0.19243595 -0.4119653 -0.19827037
-0.09475274 -0.49232733 0.0956228 -0.069673546 -0.20533116 0.4196071 0.16507588 0.13303474
-0.25862518 0.575689 -0.3507994 0.055798735 0.40406254 -0.16916469 -0.514607 0.24088807
-0.6480031 0.3120667 0.57056075 0.07152749 -0.33686796 -0.17391002 0.2037723 0.03613052
-0.50725627 -0.42376 0.042584002 0.33350748 0.0474829 0.11080154 0.26099268 0.18178542
-0.49775195 0.46156782 -0.3297679 0.4958287 -0.5560291 0.2806057 -0.20304707 0.60974896
-0.43486226 -0.3495807 0.17389245 0.04010223 -0.48920366 0.332897 0.43779024 0.1918481
0.031489752 0.19174662 0.20884332 -0.1205907 -0.53261805 -0.33284113 0.17046596 0.4458117
0.5961397 0.12522 -0.47543275 0.2483852 0.28266332 -0.12713915 -0.41920105 -0.40836582

encoder_variable_selection.flattened_grn.gate_norm.glu.fc.bias f4 [16]
00000000: bc64 1abe dcb1 e43d 14a9 2cbe 4243 f33d
00000010: 9d75 13be ee14 c33d d395 fd3d ada8 413e
00000020: 4c25 3cbe df3c 143e 036d f73d 2321 d93d
00000030: ecd5 8abc ca4a 643c 6e48 083e b2e1 6e3e
-0.1507749 0.111667365 -0.16861373 0.11878063 -0.14400335 0.095254764 0.12382092 0.18912001
-0.18373603 0.14476345 0.12081339 0.106020235 -0.016947709 0.013933847 0.1330888 0.23328283

encoder_variable_selection.flattened_grn.gate_norm.add_norm.norm.weight f4 [8]
00000000: f6cc 633f 529b 8f3f 4901 543f 3491 6e3f
00000010: 2a58 593f cde0 843f b31d 603f c387 a63f
0.8898462 1.1219275 0.8281446 0.9319031 0.8490015 1.0381104 0.8754532 1.3010181

encoder_variable_selection.flattened_grn.gate_norm.add_norm.norm.bias f4 [8]
00000000: d359 f8bd 4137 943d 0553 16be 785c 65be
00000010: a5bf 27be cb57 41be f951 a93d a44a 803e
-0.121265076 0.07237101 -0.14680107 -0.22398555 -0.163817 -0.18881147 0.08267588 0.25056946

encoder_variable_selection.single_variable_grns.time_idx.resample_norm.mask f4 [16]
00000000: c881 1f3e 3788 213e 41b3 0bbe 00b4 863e
00000010: fb7e a9be 1df2 36be 4b8e 2ebe 811a 64be
00000020: 4579 48be 9df0 853e 49fd 2d3e 525c 21be
00000030: b8bf dfbd 3d5f e53d 8ab8 32be c716 223e
0.15576851 0.15774618 -0.13642599 0.26309204 -0.3310469 -0.17865796 -0.17046468 -0.22275735
-0.1957751 0.26160136 0.16991152 -0.15757874 -0.10925239 0.11199806 -0.17453209 0.15829001

encoder_variable_selection.single_variable_grns.time_idx.resample_norm.norm.weight f4 [16]
00000000: bab9 943f edaf 943f 7a79 603f 568f a03f
00000010: 321f 4c3f d75e 523f 3649 553f c527 8b3f
00000020: beb1 4f3f bde4 ac3f f507 963f 2d6d 593f
00000030: 78bf 6f3f bcc3 943f 9c40 653f 1bbe 943f
1.1619179 1.1616188 0.8768536 1.2543743 0.797351 0.82175964 0.83314836 1.0871512
0.8113059 1.3507305 1.1721178 0.84932214 0.93651533 1.1622233 0.8955171 1.1620516

encoder_variable_selection.single_variable_grns.time_idx.resample_norm.norm.bias f4 [16]
00000000: e4a6 1d3e 8c81 243e 1135 a73c 9dd2 a23d
00000010: d3fd 9c3e 643b 393e 6b8f 24be 171d 0c3e
00000020: 4763 45be c41d 1a3e c0a7 2ebe 2877 f83d
00000030: 40ed 133e 83a0 d0bd 5eef 463c 00f3 d23d
0.15395695 0.16065043 0.020411046 0.079503275 0.30662403 0.18089062 -0.16070335 0.13682972
-0.19276153 0.15050417 -0.17056179 0.12132102 0.14445972 -0.10186865 0.0121420305 0.10300255

encoder_variable_selection.single_variable_grns.time_idx.fc1.weight f4 [8, 8]
00000000: 1646 2fbe 7a38 7fbe d8c2 013f 2dd7 99be
00000010: 97f9 7f3e b8a8 a6be 088b a7bd 5c27 a53d
00000020: 102d 6c3e 0ba2 833f 548e 25bf 2968 80be
00000030: 88dd 82be 9e71 dd3c 6c52 45bf eea8 d13d
00000040: 08ea 803f 5002 e6be db06 28bf bb8a 80be
00000050: 3024 fa3e 67d4 693f 9bd6 c1be a3f3 f8be
00000060: 004f 94bf b543 20bf e8f7 4c3e 7b56 303f
00000070: b5bc 833e 5f02 0c3f 7c58 663f 31f9 7c3e
00000080: cf5e c43e fdcf 8a3e 17f2 153e 9e57 5d3d
00000090: 89e9 01bf ee5f 76be bb5a 5dbf a3ca 013e
000000a0: a480 5ebe d047 c53f 0d69 813e 0f99 cf3e
000000b0: 81bf 9dbd ed95 efbd a6f1 3dbe 5c14 683f
000000c0: 432e c2be 1b8e 2a3e 1e92 7ebf aa5a 79be
000000d0: 24f5 163f 92ce 62be ea99 b1bd 5137 4cbe
000000e0: 3c59 323e 10b7 943e bccd babe 98b1 17bd
000000f0: da11 833e c0b9 7a3f a6aa 043e ea3c 3ebe
-0.1711658 -0.24923888 0.5068793 -0.3004698 0.24997555 -0.32550597 -0.08180815 0.08064148
0.23064065 1.0283827 -0.646703 -0.25079468 -0.2555964 0.027031716 -0.7707889 0.10237299
1.0071421 -0.4492364 -0.6563546 -0.25105843 0.48855734 0.91339725 -0.37859043 -0.4862338
-1.1586609 -0.6260331 0.20016444 0.6888196 0.2572991 0.5469112 0.89978766 0.24704434
0.38353583 0.27111807 0.14643131 0.054038636 -0.5074697 -0.24060032 -0.8646657 0.12674956
-0.2172876 1.541254 0.2527546 0.40546462 -0.07702542 -0.11698518 -0.18549213 0.90656066
-0.3792592 0.16655771 -0.9944171 -0.24350992 0.58967805 -0.22149113 -0.08671935 -0.19942977
0.17416853 0.29045916 -0.36485088 -0.0370346 0.25599557 0.9793968 0.12955722 -0.18577924

encoder_variable_selection.single_variable_grns.time_idx.fc1.bias f4 [8]
00000000: ef74 1bbe bbc4 813d b62f b4bd d0f7 2cbe
00000010: d6a2 9e3d 3f2a 5c3d 1316 20be cc2e 453d
-0.15181325 0.063363515 -0.08798163 -0.16891408 0.07745902 0.053751227 -0.1563342 0.048140332

encoder_variable_selection.single_variable_grns.time_idx.fc2.weight f4 [8, 8]
00000000: a8dd 733e c6eb 38be 81d1 c2bd ec07 933f
00000010: 64e0 16bf 18ae 933e c78f 343f 75e8 34be
00000020: 5220 81bd 93ee 29be 0c0a 0cbf 81bc 06be
00000030: 5c70 893d 5969 5b3d c57d e0be e4ef b13e
00000040: ff7a 343e 2a74 64be b31a 14bf c629 993e
00000050: 03f2 c03e cbc3 69be 411e 373d 88e7 d53e
00000060: a41c b43e 945f 3abf f98a e93d 79fe 9a3e
00000070: 9532 c6be d278 10bf f115 a4be e00f d43d
00000080: d97f 913e 8e36 dabe 5c5d 28bf cead 4ebe
00000090: 541f 473d 64e0 503d 11f6 20be 1899 9d3f
000000a0: 5540 49be e35e 40bf 7fff be3e 19cc 07bf
000000b0: 8f95 1b3f 3406 bfbc 4b4d 973f 6485 04bf
000000c0: 8ac1 b4bd 382d 683e 1a90 12be 9be0 c2be
000000d0: 857e 9d3f 20e7 c73e e30f 51bd 6f2b 5ebe
000000e0: 0b25 553f 5823 873d 0482 3abe 69a5 83be
000000f0: 60bf 47bf 891a 0e3f b2f6 2dbc 3b33 903e
0.23815024 -0.1805869 -0.09512616 1.1486793 -0.5893614 0.2884376 0.70531887 -0.176668
-0.06304993 -0.16594915 -0.5470283 -0.13157846 0.06710884 0.053567264 -0.43845955 0.34753335
0.17625044 -0.22309938 -0.5785324 0.29914683 0.3768464 -0.22828595 0.044706587 0.41778207
0.351781 -0.7280209 0.1140346 0.30272272 -0.38710466 -0.5643436 -0.3204799 0.103545904
0.28417853 -0.42619747 -0.65767455 -0.20183489 0.04861386 0.050995246 -0.15718867 1.2312346
-0.19653447 -0.75144786 0.37304303 -0.53045803 0.60775083 -0.023318388 1.1820463 -0.5176604
-0.08825977 0.226735 -0.14312783 -0.38061985 1.2304236 0.39043522 -0.05104054 -0.21696256
0.8325965 0.06598538 -0.1821366 -0.25712135 -0.7802639 0.5550924 -0.010617899 0.28164086

encoder_variable_selection.single_variable_grns.time_idx.fc2.bias f4 [8]
00000000: 7cf0 31be 8556 0dbe e1dc 0cbe 5f25 02be
00000010: 7308 803d 8c2e c73d f89a 863d b25e c4bd
-0.17376894 -0.13802536 -0.13756134 -0.12709568 0.062516116 0.09725675 0.06572527 -0.09588374

encoder_variable_selection.single_variable_grns.time_idx.gate_norm.glu.fc.weight f4 [32, 8]
00000000: 628d df3c 51a5 04bf d45d a03d 7c3c 2cbe
00000010: 4f52 a9be e534 ac3e 136f 9d3d 0698 1bbe
00000020: 0e6c 02be 6bcd 9abe ccf1 1cbe 04f4 003d
00000030: bf80 e4be 9316 b03d 7acd ca3e c75e 473e
00000040: 21b1 2d3d ec4e 2a3d 4746 7e3e 713d c43e
00000050: 6dd7 6bbe 5db4 8abd 1eb6 d5be aa04 f1bd
00000060: 6d9d 8dbd 99fd d23e 116e babd c2c2 87be
00000070: 692d 903c 3c96 15bf 277a d23e 48cb 523d
00000080: e889 883d 53ba 9abc 5b1d 813e 1ddc 0bbf
00000090: 2665 823e 733f 23be 0283 603c 8006 d6be
000000a0: fd87 3c3e 1f9b 23be eb70 053e 335b c4be
000000b0: 3c99 9b3d a88b 1b3d 1504 8cbe acd3 eb3c
000000c0: 14d7 1bbe e53e d03d 88df 81bc 8d25 043f
000000d0: 4ce1 dc3b 2204 ccbe 15de fdbe b1c5 eb3e
000000e0: 8f2f a23e fd71 843e 37be 363e 9992 11be
000000f0: 48b4 c1be 38f2 52be ab5b 7b3e dc21 29be
00000100: 1958 a83d 748f 773e 4399 523e 01d5 c53e
00000110: bd58 4bbd 8088 f43d e69f 9bbe ad63 943e
00000120: bda7 863e b479 3d3d 696e 95be c9c2 883e
00000130: 9f9b f4be 18c8 503e 1074 9fbe d2db adbd
00000140: 6445 3f3e a173 0c3f 9583 053f 3f2b 4fbe
00000150: c65e 043c 657c 92be 267c dcbd 9ec9 ddbc
00000160: fe28 dabe cffa dd3e 472f 84bd 2002 8ebe
00000170: 345a ee3d ab40 573e d7c0 58be 11f7 96be
00000180: 7785 c83e e179 0abe dd4c 073e 7607 22bd
00000190: f6a5 e53d a449 033f 74a6 5abe 890b aabe
000001a0: c324 64be f3c7 ca3e 578f 2fbe 3a39 7d3e
000001b0: a677 b1be 5f2d 073f 397f 03bf e269 8b3e
000001c0: f866 edbd db1f eb3e f05b 0b3d 4431 3fbe
000001d0: c8ee 16bf 1ad7 5d3d f4d3 8ebe dce2 08be
000001e0: 8163 71be 938b 743e 654b 00be f695 b2be
000001f0: 220c f23d 32f8 55be aaf4 463e 5a59 bd3d
00000200: 3b96 34bd e6bd 08be 8c7e b43d 361e e3bc
00000210: 7b15 06bf 7f48 9e3e 43f9 01be 7b47 d1bc
00000220: c7ee e83e 37b4 a83d bf0d 8bbe 99a6 a2be
00000230: 0423 e5be 64f2 c6bc 583d 673e 68b5 a6be
00000240: 9a55 27be c842 ad3e 3cbe b6bd 369f 79bd
00000250: 3d31 55be 4dda 393e 2d5d dd3d 37ae c8be
00000260: a39a 993e 53cf e5be 6cc4 293d 57ef cdbe
00000270: 638b 9f3d d944 d8bd 6a45 e73e 8190 6abe
00000280: 3ba1 e53d f2c6 8abe cbce f73d ee18 9bbe
00000290: 764e 77be c032 c83c 26c2 11bf 6855 31be
000002a0: bcef 0e3e 7896 45bb b411 d8bd 60be b83e
000002b0: 1521 063f fe9a b7bd fa3b fc3e 7fd3 3f3d
000002c0: f1db 9fbd 7a8d eabe 5530 943e 313f 5dbd
000002d0: 1e78 873d 97fa c0bd dcc6 033e 9b21 99be
000002e0: 21ae 77be 59cf 2abd 4f10 1ebe 67e6 b0bc
000002f0: 27ad 0d3f b44f 8cbe 1aee 133e 1a6f 7ebe
00000300: c40f fb3c 256d 473e fe9b 1dbc 6251 003e
00000310: 2028 6b3e d458 03bf 06ae 99be 2482 26be
00000320: 28cc 1bbe 8464 c93d 23eb bbbe 9e42 2abe
00000330: 9e5c c1be 1b60 53be e8c5 d03e bc33 14bb
00000340: 8598 61be e790 73bd c789 c8be 501a 443e
00000350: 4a22 323c 0d17 e3bd 91d5 91be 448e d5bc
00000360: 02e8 1a3e 76ed f63e 9eac 763e ef0d 9abd
00000370: de52 5e3e 0781 41be 3609 24be 2a0d b83d
00000380: 3d07 dfbe 7b57 363e ac43 153e c618 aa3e
00000390: 9c8f 2c3e 58ba 493e ca24 c2be 4865 46be
000003a0: f4a3 883d 6658 3ebe 1f29 c23d 9f16 e0be
000003b0: a6f8 7e3e a274 9fbe 9ae9 6e3d 10e2 03bf
000003c0: a704 8abd 22c1 fe3d 56c3 e6be 3a16 ff3e
000003d0: af1f 09bf e34f 8bbe e63e 3cbd 57a1 903e
000003e0: 957e 99bd 6000 033f 3cb9 97bb 666d d53c
000003f0: 8513 a23e 8133 02bf 0af8 a7be cc7b 19bd
0.027289096 -0.5181475 0.07830396 -0.16819948 -0.3307061 0.33634105 0.07687201 -0.15194711
-0.12736532 -0.30234846 -0.15326613 0.03148271 -0.44629475 0.08598056 0.3960989 0.19469748
0.04240525 0.041579172 0.24831496 0.38328126 -0.23031397 -0.06772683 -0.41740507 -0.11768468
-0.06914792 0.41209105 -0.09103025 -0.26515776 0.017599778 -0.58432364 0.4110882 0.051463395
0.066669285 -0.018887674 0.2521771 -0.5463274 0.25467795 -0.15942173 0.01370311 -0.41801834
0.1841125 -0.15977143 0.13031356 -0.3835083 0.075975865 0.037974983 -0.27346864 0.028787456
-0.15218765 0.10168246 -0.015853658 0.516198 0.0067407247 -0.39846903 -0.49583498 0.46049264
0.3167691 0.25868216 0.17845999 -0.14216079 -0.37832856 -0.20600212 0.24546687 -0.16516823
0.08219928 0.24175817 0.20566277 0.38639072 -0.049645174 0.11940098 -0.3039543 0.28982297
0.2629985 0.046258643 -0.291858 0.2671111 -0.4777498 0.2038883 -0.31143236 -0.08489193
0.18678814 0.54863936 0.52153903 -0.20231341 0.008079236 -0.2861053 -0.10765867 -0.027073678
-0.426094 0.43355414 -0.0645433 -0.27735996 0.11638299 0.21020763 -0.21167313 -0.29485372
0.39164326 -0.13523056 0.13212915 -0.039557897 0.11213295 0.5128424 -0.2135256 -0.33211926
-0.22279648 0.39605674 -0.17144524 0.24728861 -0.34661597 0.52803606 -0.51366 0.2722922
-0.11591905 0.4592274 0.034023225 -0.18671137 -0.589581 0.054160215 -0.27896082 -0.1336779
-0.23573114 0.23881368 -0.1252876 -0.34880036 0.118187204 -0.2089546 0.1942927 0.09245558
-0.044088583 -0.1335369 0.088131994 -0.027724367 -0.52376527 0.30914685 -0.12692742 -0.02554678
0.45494673 0.08237498 -0.27158925 -0.3176773 -0.44753277 -0.024285503 0.22581995 -0.32560277
-0.16341248 0.33840013 -0.08923003 -0.06094285 -0.20819564 0.18149681 0.108087875 -0.39195415
0.3000079 -0.44884738 0.041447088 -0.40221664 0.07790258 -0.10560007 0.45170146 -0.22906686
0.11212393 -0.27104908 0.120999895 -0.30292457 -0.24151024 0.024438262 -0.5693687 -0.17317736
0.13958639 -0.00301495 -0.105502516 0.36082745 0.5239423 -0.08965109 0.49264508 0.046832558
-0.07805622 -0.45811063 0.28943124 -0.054015342 0.066147074 -0.09422796 0.12868828 -0.2990845
-0.24187519 -0.04170165 -0.15435909 -0.02159424 0.55342335 -0.2740456 0.14446297 -0.2484707
0.030647166 0.19475229 -0.009619711 0.12531045 0.22964525 -0.51307416 -0.30015582 -0.16260582
-0.15214598 0.09833625 -0.36702833 -0.16626975 -0.37765974 -0.2064213 0.4077599 -0.0022613844
-0.22030838 -0.05946436 -0.39167616 0.19150662 0.010872433 -0.11088381 -0.2848325 -0.026068814
0.15127566 0.48228043 0.24089286 -0.07522189 0.21711299 -0.18896876 -0.16019139 0.08986886
-0.4356021 0.17806809 0.14576596 0.33222026 0.16851658 0.19699991 -0.37918693 -0.19374573
0.066718966 -0.18588409 0.094804995 -0.4376726 0.2489954 -0.3114367 0.05832825 -0.5151682
-0.067391686 0.12439181 -0.45070904 0.49821645 -0.5356397 -0.27209386 -0.045958422 0.28248093
-0.07494847 0.5117245 -0.004630236 0.026053142 0.31655517 -0.5085984 -0.32806426 -0.037471578

encoder_variable_selection.single_variable_grns.time_idx.gate_norm.glu.fc.bias f4 [32]
00000000: 9484 1b3e f1c5 223e 59e0 953d 7eae 913d
00000010: 19b2 a83e 3695 323e 8012 23be 35b1 043e
00000020: 7033 3bbe 7459 333e cb12 2fbe 252b 183e
00000030: 2954 133e 6091 c9bd 4e47 b33e 4c5c 0c3e
00000040: 00c8 fa3d cf69 0c3e fdae 04be f9b2 8f3d
00000050: 7345 093d e773 2cbe b242 183e 9252 2bbe
00000060: b32a 2ebe a476 463e 7073 28be 7ca9 2ebe
00000070: 4160 37be e7c1 0c3e 7a2f 2bbe 4ea2 2fbe
0.15187293 0.15895821 0.073181815 0.0711336 0.32948378 0.17439732 -0.15925026 0.12958224
-0.1828134 0.17514592 -0.17097013 0.14860208 0.14387573 -0.09842181 0.3501534 0.13707083
0.12245178 0.13712238 -0.12957378 0.07016558 0.033513498 -0.16841088 0.14869192 -0.16730717
-0.17008476 0.19381195 -0.16450286 -0.1705684 -0.17907812 0.13745843 -0.1671733 -0.17151758

encoder_variable_selection.single_variable_grns.time_idx.gate_norm.add_norm.norm.weight f4 [16]
00000000: 6592 963f bb94 953f 48bc 613f fc7d a03f
00000010: 800f 273f 525e 543f d103 533f ab90 843f
00000020: 7b7f 513f fb73 a23f b16f 973f d342 573f
00000030: 1357 643f 8924 923f df2e 5d3f fd34 953f
1.1763426 1.1686014 0.8817792 1.2538447 0.65258026 0.8295642 0.824277 1.0356649
0.81835145 1.2691644 1.183096 0.8408634 0.89195365 1.14174 0.86399645 1.1656796

encoder_variable_selection.single_variable_grns.time_idx.gate_norm.add_norm.norm.bias f4 [16]
00000000: 0766 263e a157 2c3e 92fb c2bd 2e57 a23d
00000010: 68a4 803e cadf 353e 7155 26be e640 113e
00000020: bb35 4cbe b4b9 213e 2ca0 31be d744 ea3d
00000030: 4a2d 183e 4bde c9bd b0f2 99bd 3850 57be
0.16249858 0.16830303 -0.095206395 0.079267845 0.25125432 0.1776115 -0.16243531 0.14184913
-0.19942372 0.15793496 -0.17346257 0.114389114 0.14861026 -0.09856852 -0.07516992 -0.21026695

encoder_variable_selection.single_variable_grns.T2M.resample_norm.mask f4 [16]
00000000: e3f8 1e3e 0ae9 253e 46d1 31be 4061 e53d
00000010: 2d7e 753e ccf2 3c3e 2b93 373e 0c8e 17be
00000020: 215e 4ebe 98f7 99bc 0d66 2bbe cb3b 373e
00000030: 2c1f 203e 6598 d03d 98bb 193d 176b febd
0.1552463 0.16202179 -0.17364988 0.112001896 0.23973913 0.18451995 0.17927234 -0.1480028
-0.20153095 -0.01879482 -0.16738148 0.17893903 0.15636891 0.10185317 0.03753242 -0.124227695

encoder_variable_selection.single_variable_grns.T2M.resample_norm.norm.weight f4 [16]
00000000: c44a a43f 41fd 953f 3e30 533f 848e 8e3f
00000010: b0de 9e3f 8128 523f 99a6 963f 171f 5a3f
00000020: 1591 4b3f 9a11 8a3f 2e37 553f 74af 963f
00000030: ae99 5b3f 28bd 8e3f 9fed 8a3f 4550 643f
1.2835317 1.1717912 0.82495487 1.1137242 1.2411709 0.82093054 1.1769592 0.8520369
0.7951825 1.0786622 0.8328732 1.1772294 0.8578137 1.1151476 1.0853766 0.8918498

encoder_variable_selection.single_variable_grns.T2M.resample_norm.norm.bias f4 [16]
00000000: ed2a ddbc 7e0a 233e 8b32 2cbe fabf f93d
00000010: 4713 703e fd41 3d3e b18e 34be 8e8e 163e
00000020: 94a2 4dbe b6a0 eb3d 1d62 2cbe 9759 383e
00000030: c039 193e 805d f0bd 3db4 d2bd fd80 d93d
-0.026998008 0.15921971 -0.16816156 0.1219482 0.23444854 0.18482204 -0.17632557 0.14702818
-0.2008155 0.115052626 -0.16834302 0.18002926 0.14963436 -0.11736584 -0.10288284 0.10620306

encoder_variable_selection.single_variable_grns.T2M.fc1.weight f4 [8, 8]
00000000: daf2 acbe 8e2f 88be d7bc 2dbf 3455 39be
00000010: 54ae 88bd 6051 e33d 4785 55bf 4a1c 91be
00000020: e0ef 11bc 777c 723e 24a8 023e c5a8 833e
00000030: cc1c f4be fd38 ecbe 6602 e13d 1f0e be3e
00000040: 7686 a13e 34b8 093f af6d 413c 390f 6bbf
00000050: 0426 333e 91f1 0d3e 6bfb 54bf e16f 05bf
00000060: c653 adbe 6873 fcbd e756 0cbf bee7 25be
00000070: 0c49 c4be 9eb9 0b3e ea24 81bf 4a86 453f
00000080: d6c8 08bf 2a0f d4bd 1c20 28be db56 93be
00000090: cdf8 31bf aa92 d33e cdcc bebd f8a7 4abe
000000a0: d602 e53d c708 b9be a221 ea3e 8c65 95be
000000b0: 1857 74be 071e 2bbf 2993 733f bd0c 33bf
000000c0: e566 87be bc7f 44bf 1fa7 cf3e 8360 253e
000000d0: 7962 b6bd 08b9 f53d fac4 df3e dfe9 f63e
000000e0: 7e5c b73f 4413 2fbf 5c02 103f e34e c63e
000000f0: 3ce8 b0be 2400 c13d 2ee9 32be 5e30 8abe
-0.3377903 -0.2659878 -0.6786627 -0.18098909 -0.066738755 0.110995054 -0.8340649 -0.28341895
-0.008907288 0.23680292 0.12759453 0.25714698 -0.4767822 -0.4613723 0.109867856 0.3712015
0.31547898 0.53796697 0.011805936 -0.918201 0.1749497 0.13861682 -0.83196133 -0.5212384
-0.33852977 -0.123266995 -0.548201 -0.16201684 -0.3833698 0.13645026 -1.008939 0.77158034
-0.5343145 -0.10354455 -0.16418499 -0.28777203 -0.69520265 0.41322833 -0.093164064 -0.19790637
0.111821815 -0.3613951 0.45728785 -0.29179037 -0.23861349 -0.66842693 0.95146424 -0.6994131
-0.2644569 -0.7675741 0.4055719 0.16150098 -0.08905501 0.119981825 0.4370497 0.48225304
1.4325101 -0.6838877 0.562536 0.3873206 -0.3455218 0.09423855 -0.17471763 -0.26990026

encoder_variable_selection.single_variable_grns.T2M.fc1.bias f4 [8]
00000000: 45d2 0cbe 4fe0 7d3e 077e 503e dca7 503e
00000010: b553 34be 81fa 893d 1618 33be 814e 24bd
-0.13752086 0.24792598 0.20360576 0.20376533 -0.17610057 0.06737233 -0.17489657 -0.04011393

encoder_variable_selection.single_variable_grns.T2M.fc2.weight f4 [8, 8]
00000000: 737e 3e3f 6e2b 993e 5f19 9abe 5d32 6abf
00000010: f833 b4be 385a 3dbe c6dc 333f a225 3fbf
00000020: d62f c1bc c2a5 aabc a6d4 e7bd b3ef 7f3e
00000030: e38f fc3e f871 f2bd e11a a0be 5fb2 ebbe
00000040: 26b7 6ebf 3818 1dbf b713 f8be df4c 95bf
00000050: 823c be3d ce25 443f efa8 393e 579c 6ebe
00000060: 143f ea3e da74 0dbf cd9e 5c3f f77a 11bf
00000070: c48d 9e3d 5066 00bf b6c4 44be b096 47bf
00000080: 4c50 40be 8df1 ddbe b6d5 623e 075d c1be
00000090: 31bf edbd 5ef0 dc3e 142e dfbe 1589 37be
000000a0: 5899 82bd d617 d8bc 4142 a53d 0ad3 ecbe
000000b0: 8603 5dbf 1091 acbc 9968 80be 65e2 1e3f
000000c0: 583e 4bbf 0dd6 2b3e ef4c 4ebe cc97 a4be
000000d0: 54f5 223e 3929 a53e c031 e9bd 943a 61be
000000e0: 8c2b 1ebd 82da bebd eb09 7e3e cabb ed3e
000000f0: 5933 b7be e918 01bf ad04 f6be 8a12 a63e
0.74411696 0.29915947 -0.30097482 -0.914831 -0.351959 -0.18491447 0.7025875 -0.746668
-0.02358238 -0.020830993 -0.11319856 0.24993782 0.49328527 -0.11838144 -0.31270507 -0.46034524
-0.9324821 -0.6136508 -0.4845254 -1.1664084 0.09288885 0.76620185 0.1813085 -0.23301826
0.4575125 -0.55256426 0.8617981 -0.56828254 0.077418834 -0.50156116 -0.19215664 -0.77964306
-0.18780631 -0.4334835 0.22151837 -0.37766287 -0.116087325 0.43152136 -0.43589842 -0.17923386
-0.06376904 -0.026378553 0.080692776 -0.4625476 -0.863335 -0.021065265 -0.25079802 0.620642
-0.79392004 0.16780873 -0.20146535 -0.32147062 0.15913898 0.32258013 -0.11386442 -0.21995002
-0.03861575 -0.09319021 0.24808471 0.46432334 -0.35781363 -0.50428635 -0.48050442 0.3243602

encoder_variable_selection.single_variable_grns.T2M.fc2.bias f4 [8]
00000000: d3fa 2fbe 698d 3abe f712 2bbb 3127 143e
00000010: 174a d2bd 3a2b 2f3e 5a31 173e 5c47 18be
-0.17185526 -0.18218006 -0.0026103833 0.14468075 -0.10268038 0.17106333 0.1476492 -0.14870971

encoder_variable_selection.single_variable_grns.T2M.gate_norm.glu.fc.weight f4 [32, 8]
00000000: d13f c63e b9b1 dbbd 54e6 233e 3bb5 a5bc
00000010: 5fcd 153e b3e5 603e b450 05be 0823 d53e
00000020: 6368 c7bd 1656 25be b91e 0cbe 545d 463e
00000030: 08c6 3b3e 38e3 97be 0875 fcbd e0be e13e
00000040: d815 1a3d bee2 0cbf 9dd0 ffbd aecf bb3d
00000050: f18f a9bd caa9 3e3e 4c0f 1a3e c111 fabd
00000060: 9d0d 013f 4322 9e3e d24f 913e 6b0a 963e
00000070: b78e ed3e f916 e2be 59a2 29bd 4644 c63e
00000080: 3f7c bc3e c4ac 6bbd 986c 08bf 5152 0d3f
00000090: bdbe ff3e fa6f eabe f958 91be 9f7e 903e
000000a0: 726c 03be e348 d73e f7c4 b9be 2451 313e
000000b0: 6d34 ce3d 2ce1 423e 4c34 d83c 0f4f a43e
000000c0: b52c 303d 56aa 433e b9ef 073f a062 a2be
000000d0: 3b5f adbe e5ad ba3e 6324 173e e635 56be
000000e0: ad3f 053f 6287 61be 948b a9be 6013 5e3e
000000f0: f89a 06be f5b4 a1be cd1a 0e3d 06c7 513c
00000100: 61c0 5cbe 2b7d acbd 35b6 6a3e 57e1 c53d
00000110: c469 6cbc 2278 efbd 2548 803d b489 24be
00000120: bacf a9be f6c8 a1bb b4b7 d3be 8d12 47be
00000130: 55d6 91be 906e 253e ee93 afbe ce3a 4bbe
00000140: c7d6 233e 3f32 aabe 39f0 46be 1a56 32be
00000150: 9b61 adbe d385 afbd 2420 e93c f4e8 d63c
00000160: a039 5b3e 3e50 cb3e 288a 403d 94ca ff3e
00000170: 3297 0a3d b0b6 353e e29c 27be f880 d63e
00000180: 2e23 143e f6c9 a9bc 087b 1dbc 4b45 f13d
00000190: 4f51 54be 60d1 5bbe 68c0 babe 3c17 f03e
000001a0: 1b83 2e3d 31ed edbe 7f62 45be 33a6 e2be
000001b0: f18a 103e aa53 3bbe 2064 373c 8b04 f13d
000001c0: d3d4 76be 99b3 b83d e30a 99bc a872 113e
000001d0: df34 babe ae32 fb3e cd40 c63d 15b7 6f3e
000001e0: 3442 ae3e 16a4 f33e 8422 b23d 0f08 9d3e
000001f0: 537f 0b3d fa75 943d 2d2c b5bc 149d 94bb
00000200: 3455 3ebd 8244 bc3d d21f 9fbe 7141 e2be
00000210: d3f5 b1be aa2e 19be 096f bd3e 0246 30be
00000220: 8865 07bf 3726 6ebe fa78 e93e f38b 153d
00000230: 2885 703d 1e28 023f cf66 7d3e f211 72bb
00000240: 0034 96be fa13 80be f137 f73e 2d2b d43d
00000250: 16b2 e9be cd01 063f 345a 8cbd aec8 f0bc
00000260: 96e5 23bc 78f5 633e 01e7 b4bd b68e 94bd
00000270: 2a93 2b3d 79ae a0bc fff5 cc3d b508 d43d
00000280: 48ad cb3e c22b 933e 086e 453b 4700 b9bb
00000290: 8a2f be3e 70d0 e5bd 7f89 31be db4a 783c
000002a0: 5ebf 1bbd aa2c 9a3c a09b d83e bca2 27be
000002b0: 5988 eabe 5eb6 fd3e bb12 573e 89da 4dbd
000002c0: 5483 8d3e 016b c63e 19c2 23bb f4d9 db3e
000002d0: 51e0 43be b903 42be 477c c2bc 7b67 b63e
000002e0: ceb5 2ebe d0e2 f6be a287 1cbd 7d1c c03d
000002f0: 4f83 07bf 1b72 023f 2042 7c3e 1fb3 7ebe
00000300: 0ab8 f5be dc4f 91be 4932 4d3e b578 463d
00000310: 1824 05bf 0c9e bc3e 162d 3c3e 1167 ff3d
00000320: c63f ccbe 3d29 d73c 9f1b adbe 1620 a5be
00000330: 0bf4 36bc 0db9 783e e840 743e cef4 8dbe
00000340: db52 04bf 6e67 ff3d 85b8 833e c9c3 e3be
00000350: ebd1 353e dbe3 693e 2e6d d13e 937f bdbd
00000360: 12ab ba3c 9ddc e23e f369 0b3e ba08 193d
00000370: d7aa b93e 73e4 e4be 8916 6abe c5d8 39bd
00000380: 30b6 e23e 4726 373d 4d0c 0ebe cf5e 4abe
00000390: 28c6 c33e 5c56 6fbe a93d fdbe 3907 7bbe
000003a0: 461e 6abe f93e 98be c2dc b13e aedd 01bf
000003b0: bd73 fdbe 97b4 8e3e 37c4 d8bd d0a1 e23d
000003c0: f979 a43e 913b 3cbe 9edb 8f3e 8d4a a23e
000003d0: 65c8 d43e 9a3e 5c3e dd4b 04be 19ff 553d
000003e0: 9b55 c5be 6c0b 48bd 8c1a 5a3c 48d8 bebe
000003f0: 5bc1 c3bd 2374 083f e53a 4e3d 208d d4bd
0.38720563 -0.10727257 0.16005832 -0.020228019 0.14629124 0.21962623 -0.13019067 0.4162829
-0.09736707 -0.1614612 -0.13683595 0.1937154 0.18337262 -0.29665542 -0.123270094 0.4409094
0.037618488 -0.5503348 -0.12490962 0.09170471 -0.08279408 0.18619457 0.15044898 -0.122104175
0.504114 0.30885515 0.2838121 0.29304823 0.46397945 -0.44158152 -0.041414592 0.38723963
0.36813542 -0.05753781 -0.532907 0.5520373 0.4995021 -0.45788556 -0.28388193 0.28221604
-0.12834337 0.42047796 -0.36283085 0.17316109 0.10068593 0.19031209 0.026392125 0.32091567
0.043011386 0.19107947 0.5310016 -0.3171587 -0.33861718 0.36460796 0.14759974 -0.20918998
0.52050287 -0.220243 -0.33114302 0.21687078 -0.13145053 -0.31583372 0.034693528 0.012803799
-0.21557762 -0.084223114 0.22921069 0.09662121 -0.014429513 -0.116928354 0.062637605 -0.16068155
-0.33166295 -0.0049372865 -0.41351092 -0.1944067 -0.28483835 0.16155457 -0.3429255 -0.19846651
0.159999 -0.3324146 -0.19427575 -0.17415658 -0.3386353 -0.08570447 0.028457709 0.026234128
0.21408701 0.39709657 0.047006756 0.49959242 0.033835597 0.17745471 -0.1636844 0.4189527
0.14466545 -0.020726185 -0.0096118525 0.11780795 -0.20734142 -0.21466589 -0.3647492 0.46892726
0.0426055 -0.46470025 -0.19275855 -0.44267425 0.14115502 -0.18293634 0.011193305 0.11768445
-0.24104623 0.090186305 -0.018681949 0.14203894 -0.36368462 0.49062103 0.096803285 0.23409684
0.34034884 0.47586125 0.086979896 0.3067021 0.034056973 0.07249065 -0.022115791 -0.0045353267
-0.046467975 0.09192754 -0.31078964 -0.44190553 -0.34757861 -0.14959207 0.36998776 -0.17214206
-0.528893 -0.23256765 0.4560011 0.03651042 0.058720738 0.50842464 0.2474625 -0.0036936966
-0.29336548 -0.2501524 0.48284867 0.103597976 -0.4564368 0.523465 -0.068531424 -0.029392567
-0.010003468 0.22261608 -0.08833123 -0.072537825 0.041888393 -0.019614445 0.100078575 0.10353223
0.3978064 0.28744322 0.0030125398 -0.005645785 0.37145644 -0.11221397 -0.17337607 0.015154566
-0.0380243 0.018820126 0.42306232 -0.16370672 -0.4580715 0.49553198 0.21003239 -0.05025724
0.27639258 0.38753513 -0.0024987517 0.42939723 -0.19128539 -0.18946733 -0.0237409 0.35625824
-0.1706154 -0.4821992 -0.038215287 0.09380434 -0.52934736 0.5095536 0.246346 -0.24873017
-0.47991973 -0.2838124 0.20038714 0.04845496 -0.520082 0.3683933 0.18376574 0.1247083
-0.39892405 0.026264781 -0.33810136 -0.32251042 -0.011166583 0.24289341 0.23852885 -0.27725834
-0.5168893 0.124708995 0.25726715 -0.4448531 0.17755859 0.22840826 0.4090361 -0.092528485
0.02278665 0.4430894 0.13614635 0.037361838 0.36263153 -0.44705543 -0.22860159 -0.045372743
0.44279623 0.04471424 -0.1387188 -0.19762729 0.3823712 -0.23372787 -0.49461105 -0.24514474
-0.22863111 -0.29735544 0.34738737 -0.5072888 -0.49502364 0.27872154 -0.105843 0.110660195
0.32124308 -0.18382098 0.28097242 0.31697503 0.4155914 0.21508256 -0.12919565 0.052245233
-0.38541874 -0.048839018 0.013311993 -0.37274384 -0.09558364 0.5330221 0.050349135 -0.1037848

encoder_variable_selection.single_variable_grns.T2M.gate_norm.glu.fc.bias f4 [32]
00000000: 0d18 1c3d 1e48 223e ac91 28be f6ea d43d
00000010: 2176 703e 8d6f 3f3e 2d6f 36be ff52 0e3e
00000020: 6673 51be 122a 343e f9b9 2cbe 5572 373e
00000030: 0e8e 1a3e d965 01be 8592 d5bd fed3 e53d
00000040: dfb8 96be d718 27be 04ac 44be 1178 0a3e
00000050: d812 643e cf22 2cbe 0f62 4f3e 67a2 28be
00000060: 2c5b 47be 94a1 84bd 8364 2abe 1426 4c3e
00000070: 03ba f73d c26f 34be 7220 4e3e 9456 3fbe
0.038108874 0.15847823 -0.1646182 0.10396378 0.23482563 0.18694897 -0.17815848 0.13898848
-0.20454177 0.17594174 -0.16867818 0.17914708 0.15093252 -0.12636508 -0.10428337 0.11222075
-0.2943792 -0.1631807 -0.19206244 0.13522364 0.22272813 -0.16810153 0.2025225 -0.16468202
-0.19468373 -0.06476131 -0.16639905 0.199364 0.12096026 -0.17620757 0.20129564 -0.1868537

encoder_variable_selection.single_variable_grns.T2M.gate_norm.add_norm.norm.weight f4 [16]
00000000: 7dd2 a03f e6a0 923f 6026 4e3f 6ba6 8d3f
00000010: d760 993f 6d2e 533f af10 953f 448f 563f
00000020: fd4a 4b3f b705 8f3f 8fd7 533f 4990 943f
00000030: 262d 573f e1dd 893f c7d9 8a3f 78da 613f
1.2564236 1.1455352 0.80527306 1.1066412 1.1982678 0.82492715 1.1645716 0.83812356
0.794113 1.1173619 0.8275079 1.1606532 0.84053266 1.0770837 1.084771 0.8822398

encoder_variable_selection.single_variable_grns.T2M.gate_norm.add_norm.norm.bias f4 [16]
00000000: c63d f2bc 6138 1d3e cfbb 29be 50f2 db3d
00000010: 3f0f 4d3e 7d01 413e e946 29be e794 203e
00000020: bf19 62be f44d 013e 7b07 35be 62c4 263e
00000030: 0e4b 183e 9393 d2bd 6ddf b0bd 67f8 e93d
-0.029570471 0.15353538 -0.1657555 0.10739577 0.20025347 0.18848224 -0.16530956 0.15681802
-0.22080134 0.12627393 -0.17678635 0.16285852 0.14872381 -0.10282054 -0.08636365 0.11424332

encoder_variable_selection.single_variable_grns.T2M_MAX.resample_norm.mask f4 [16]
00000000: 03c5 d93d 8267 27be 9135 4abe 9e84 d83d
00000010: 3885 383e e7c6 433e 4e57 26be 5630 3b3e
00000020: c67a 493e 7dfe 96bd 760a 32be 76a6 2c3e
00000030: 1571 313e f9cb 20be d8b7 ec3d 52e2 3ebe
0.1063328 -0.16348079 -0.19746996 0.1057217 0.18019569 0.19118844 -0.16244242 0.18280157
0.1967574 -0.073727585 -0.17386803 0.16860375 0.17328294 -0.1570281 0.11558503 -0.18641022

encoder_variable_selection.single_variable_grns.T2M_MAX.resample_norm.norm.weight f4 [16]
00000000: 9a09 8d3f f752 533f 81a2 5a3f aea0 8f3f
00000010: ed38 963f 1898 973f cdc3 563f 0ac6 953f
00000020: 8998 983f d7df 773f ca63 523f af51 953f
00000030: 8292 963f f3c8 553f e54f 923f dd0e 513f
1.1018555 0.8254847 0.8540421 1.122091 1.1736122 1.184329 0.8389252 1.1701062
1.192155 0.9682593 0.82183516 1.1665553 1.1763461 0.8350975 1.1430632 0.81663305

encoder_variable_selection.single_variable_grns.T2M_MAX.resample_norm.norm.bias f4 [16]
00000000: 7f23 eebd ecff 2b3e fd24 44be 53b8 ff3d
00000010: b7b7 2d3e 71c5 353e ae50 27be 1e7c 2f3e
00000020: 54f7 45be d794 123e 145b 2ebe a009 293e
00000030: 53c2 273e 5e35 0cbe 6edb 10be 96a6 223e
-0.11627864 0.16796845 -0.19154735 0.12486329 0.16964613 0.17751099 -0.1633937 0.1713719
-0.1933263 0.1431459 -0.17026931 0.16507578 0.16382723 -0.13692233 -0.14146206 0.1588386

encoder_variable_selection.single_variable_grns.T2M_MAX.fc1.weight f4 [8, 8]
00000000: 5f1c 80be 3db0 87bf 5a2e c93e 0e0d 70be
00000010: 56c0 5ebf 9afc 8b3e 824a d73d 4414 b83e
00000020: f851 233e 4fbc a23f 2e8d 5bbf c432 213d
00000030: 2ac2 4c3f da82 a5be c82b 22bf e60a be3e
00000040: a157 883e a29c f6bd 7c3c c1be 18e0 a3be
00000050: dde9 83be 9afd 9a3e 62ec 1a3d e7ac a3be
00000060: 2906 bf3e cded ecbd ec48 463f 1101 333d
00000070: f8d3 b83e b076 433f b094 14bf f389 ad3e
00000080: 5e63 853e 853a ba3e 0e72 c6bd ac7e f03a
00000090: 220b 3c3e 5a52 a3be 913c 40bd 26fd 32bf
000000a0: 0179 803e a80a a43f eac5 04bf bfd2 323e
000000b0: ccbb fc3d 4d50 273f 2fec 15be 5fbf 863f
000000c0: 9b8a f23c f1b6 9e3e 8ebe 583e 38b6 79be
000000d0: 926b 2a3f be3b 903e e9b7 533e 18b8 21bf
000000e0: 7d71 a33f 3a43 8bbf 2d11 19bf 0f2d a0bf
000000f0: a30a a63f 29ac 85be a81b 60be 0b10 143f
-0.25021645 -1.0600659 0.39293176 -0.2344248 -0.8701223 0.27341157 0.10512258 0.3595296
0.15949237 1.2713717 -0.857623 0.039355054 0.7998377 -0.32326394 -0.63348055 0.3711769
0.26629356 -0.12041594 -0.37741458 -0.32006907 -0.2576436 0.30271608 0.03782309 -0.31967852
0.37309387 -0.115687944 0.7745502 0.04370219 0.3609922 0.7635298 -0.5803938 0.3389431
0.26052374 0.36372772 -0.09689723 0.0018348298 0.18363622 -0.31898767 -0.04693276 -0.69917524
0.2509232 1.2815752 -0.5186449 0.17463206 0.12340507 0.65356904 -0.14640878 1.0527152
0.029607108 0.30998948 0.21166441 -0.24385917 0.6657039 0.2817058 0.20675625 -0.6317153
1.2769009 -1.0879891 -0.59791833 -1.2513751 1.2971996 -0.2610791 -0.2188555 0.5783698

encoder_variable_selection.single_variable_grns.T2M_MAX.fc1.bias f4 [8]
00000000: e785 473e 9ca7 20be 95f4 1dbe 6c49 2abe
00000010: c297 38be e335 4e3e 946f b53d daf2 fbbd
0.19484673 -0.15688938 -0.15425332 -0.1662957 -0.18026641 0.20137744 0.088591725 -0.1230218

encoder_variable_selection.single_variable_grns.T2M_MAX.fc2.weight f4 [8, 8]
00000000: dd89 39be 5c14 59be 6625 9ebf a3e6 48bf
00000010: 9606 ba3d d771 6bbf 3905 da3e b561 d0be
00000020: c107 683f 24a5 2b3b 67e8 99be a366 32bf
00000030: 3115 0e3e 6f84 51bf 27c8 22be 11cb 5bbc
00000040: 73d6 3ebf cc6d b2be bf8c aabe 2edf cb3d
00000050: 94ca 20bf 5b2e 383b a725 f03d 2e7d 363f
00000060: 5a75 a13b fc63 9b3e 356f 0b3e 8791 493f
00000070: c047 06bf fe6b 9cbe 3d6f 913f f951 97be
00000080: 7e70 833e c9af 63bf b2a3 56be 1ea3 06bf
00000090: af09 713e f8e0 cbbe 5f83 1f3f 8310 f5be
000000a0: 42ca 7bbe 5d82 66bf cdd6 2a3e 9db4 febe
000000b0: fe82 bfbe 70b7 8a3e f453 933e 8864 28bf
000000c0: e89e aabd ff02 91be 836a e53d 4050 cf3b
000000d0: f7cf da3e 17fa 84bd 1e5c cc3d 9afe 5c3f
000000e0: 7a03 05bf ecfe 4e3f 302b 96be ff64 083f
000000f0: ece8 c73e 605b 32bd 37d0 d9be 9aae efbe
-0.18118997 -0.21199173 -1.2355163 -0.78476924 0.090832874 -0.9197058 0.4258211 -0.40699545
0.9063683 0.002619096 -0.3006012 -0.6968786 0.13875271 -0.818427 -0.15896665 -0.013415114
-0.74545974 -0.34849393 -0.33310506 0.099546775 -0.6280911 0.0028103802 0.117259316 0.7128476
0.0049273195 0.3034972 0.13616641 0.7873768 -0.5245323 -0.30551142 1.1362072 -0.29554728
0.25671762 -0.889401 -0.20960882 -0.5259265 0.2353885 -0.39820075 0.6230983 -0.4786416
-0.24588874 -0.9004267 0.16683502 -0.49747172 -0.37404627 0.27093077 0.2877499 -0.657784
-0.0833109 -0.28322598 0.11201956 0.006326705 0.4273679 -0.06493013 0.099785075 0.8632599
-0.5195843 0.8085773 -0.29329824 0.5327911 0.39044893 -0.043544173 -0.42541668 -0.46812898

encoder_variable_selection.single_variable_grns.T2M_MAX.fc2.bias f4 [8]
00000000: 8a05 183e 17bb 2b3e ab0a 31be a9f2 373e
00000010: 0cc3 253e 9798 2f3e 1d73 2a3e 374c 0d3e
0.14845863 0.16770588 -0.17289226 0.17963661 0.16187686 0.17148052 0.16645475 0.13798605
