ai_predict/ai/lightning_logs/version_7/checkpoints/epoch=2-step=24.ckpt (torch, 662004 bytes, 889 tensors)

prescalers.time_idx.weight f4 [8, 1]
000000 10 eb 11 bf 31 31 84 be be f7 89 be 70 c8 2c bf
       -0.569993 -0.2581878 -0.26946825 -0.67493343
000010 85 51 00 bf a2 2a 09 3f 0f 1a 32 bf b6 d9 00 3e
       -0.5012439 0.5358068 -0.6957101 0.1258305

prescalers.time_idx.bias f4 [8]
000000 6d b9 21 bf ae ee b8 be 50 ba c9 3e f5 d7 29 bf
       -0.6317356 -0.36119598 0.39399958 -0.6634515
000010 c0 02 8f bf 68 f2 d5 3e 00 ac 5c bf 2f 7c 25 bf
       -1.1172714 0.41786504 -0.8619995 -0.64642614

prescalers.T2M.weight f4 [8, 1]
000000 bd 20 01 bf 30 09 a0 be 2d d2 ef 3e 59 a4 13 be
       -0.5044058 -0.3125701 0.4684004 -0.14418162
000010 66 8d 6a be 3b 8c 07 3d e7 56 fb be f9 30 8f 3f
       -0.22905502 0.03309272 -0.4908974 1.118682

prescalers.T2M.bias f4 [8]
000000 7b b8 90 bf 43 c6 58 bf cb 1e 74 bf 39 32 b3 be
       -1.1306299 -0.84677523 -0.95359486 -0.34999254
000010 3b 32 4d 3f b7 37 1f bf 6d a6 1c 3e 97 e1 e3 be
       0.8015477 -0.6219439 0.15297861 -0.4450805

prescalers.T2M_MAX.weight f4 [8, 1]
000000 66 53 7a bf 08 69 54 bf 84 74 1f bf 23 02 8a 3f
       -0.97783506 -0.82972765 -0.62287164 1.0781902
000010 71 22 6e bf b7 8d 12 bf a1 81 4d 3f 23 40 18 3e
       -0.93021303 -0.5724749 0.80275923 0.14868216

prescalers.T2M_MAX.bias f4 [8]
000000 ea 75 5c 3e 4c 9f 80 bf 43 b6 3a bf a0 ec 35 be
       0.21529356 -1.0048614 -0.7293436 -0.17766047
000010 ce d7 0e bf a7 40 ae be 6e 9f b2 3e 39 41 53 3f
       -0.5579804 -0.340337 0.3488726 0.82521397

prescalers.T2M_MIN.weight f4 [8, 1]
000000 62 23 95 3e ec ac 1c 3f 6c 57 73 bf 01 01 1f 3f
       0.29128557 0.6120136 -0.9505527 0.62110907
000010 1e 85 16 bf f4 87 b5 be 18 52 69 3e 1a b9 70 3f
       -0.5879687 -0.35455287 0.22785223 0.9403244

prescalers.T2M_MIN.bias f4 [8]
000000 3d 32 0c be 43 b7 5f bf 54 d0 26 bf 56 f6 3f bf
       -0.1369104 -0.8738901 -0.65161633 -0.74985254
000010 7b 70 33 3f af c4 02 bf a8 1b 24 bf ff 05 e5 be
       0.70093507 -0.51081365 -0.641047 -0.44731137

prescalers.PRECTOTCORR.weight f4 [8, 1]
000000 7e 21 58 3f 20 1a 52 3f a1 24 e6 be 50 95 b3 3e
       0.84426105 0.82071114 -0.4494982 0.35074854
000010 e4 83 38 be 58 fd 7d bf 69 e3 5a bf 6f cc 56 be
       -0.18019062 -0.99214697 -0.8550325 -0.20976423

prescalers.PRECTOTCORR.bias f4 [8]
000000 ca fe 3b bf ac aa 5c 3e 8e 1c 1b 3f f1 ec 8c be
       -0.7343565 0.21549481 0.60590446 -0.27524522
000010 ea 51 0f bf de 95 53 3f 02 18 c7 3e cc 5f ac 3e
       -0.55984366 0.82650554 0.38885504 0.33666837

prescalers.RH2M.weight f4 [8, 1]
000000 78 f6 86 be 92 6f 03 3f 5d 27 42 bf 6a 97 ab be
       -0.26359916 0.5134212 -0.75841314 -0.33513957
000010 dd ae 93 3f b7 87 0c 3f 11 da 11 3f ed 76 da 3e
       1.1537739 0.54894584 0.5697337 0.42668858

prescalers.RH2M.bias f4 [8]
000000 14 f3 54 3f d2 4e 55 3e d6 48 ce 3d a8 94 cf 3e
       0.8318341 0.20830849 0.10072486 0.40543103
000010 00 9d 46 3e 63 77 60 3f 86 6e fa 3d dc 60 83 bf
       0.19395828 0.8768217 0.12228112 -1.0263934

prescalers.ALLSKY_SFC_SW_DWN.weight f4 [8, 1]
000000 25 f7 71 bf 3d 84 1e be 71 b7 0b be 13 79 5b bf
       -0.9451774 -0.15480132 -0.13644196 -0.8573162
000010 ad 9f 86 bf 49 38 26 bf bf 88 52 bf c1 1c cb 3e
       -1.0517479 -0.64929634 -0.8223991 0.39670375

prescalers.ALLSKY_SFC_SW_DWN.bias f4 [8]
000000 62 6c f5 3e ec 7e ca 3d 1a 89 6e be 74 43 80 bf
       0.47934252 0.0988749 -0.23294488 -1.0020585
000010 10 e6 1f 3e 72 a8 e7 3e b0 62 56 3f 84 b5 ac bd
       0.15615106 0.452457 0.83744335 -0.08433059

prescalers.numero_casos.weight f4 [8, 1]
000000 01 cf 2d 3f fa 7b 2b be da 67 15 3f dc 5c 40 bf
       0.6789399 -0.16746512 0.5836159 -0.7514169
000010 02 33 22 bf 8f ab ee 3e 92 b3 82 3d ec f8 88 bf
       -0.6335908 0.46615264 0.063819066 -1.0700965

prescalers.numero_casos.bias f4 [8]
000000 0c 58 c9 be 81 0c 56 3e 85 a4 40 bd 0f 1d c3 bd
       -0.39324987 0.20903207 -0.047031898 -0.09527027
000010 ca 3e 1d bf 2e 61 b8 bd 24 c6 9a bf e2 0d ad be
       -0.61423934 -0.090029106 -1.2091718 -0.33799654

static_variable_selection.single_variable_grns.municipio.mask f4 [16]
000000 4b cf 29 3e e0 d1 29 3e 7b 8e 29 3e e1 34 29 3e
       0.16582982 0.16583967 0.16558258 0.16524078
000010 ca f0 29 3e 2f 94 29 3e cd a9 29 be 06 9e 29 be
       0.1659576 0.16560434 -0.1656868 -0.16564187
000020 85 66 2a be 21 9f 29 3e 96 98 29 be 6b 01 2a 3e
       -0.1664067 0.16564609 -0.16562113 0.16602103
000030 af 98 28 be f8 52 28 3e c9 ba 29 be 1b d0 2a be
       -0.16464494 0.164379 -0.16575159 -0.16680948

static_variable_selection.single_variable_grns.municipio.norm.weight f4 [16]
000000 3c 6a 93 3f 95 ed 97 3f dc 41 71 3f 57 34 68 3f
       1.1516795 1.1869379 0.9424112 0.90704864
000010 93 f5 98 3f 3a a9 5a 3f d3 6f 6b 3f 61 df 5e 3f
       1.1949943 0.8541447 0.91967505 0.870596
000020 66 97 87 3f b7 c8 44 3f 3b db 50 3f a7 d2 90 3f
       1.0593078 0.76868767 0.8158452 1.1314286
000030 81 98 66 3f ce e8 53 3f 94 9f 92 3f 27 c9 9e 3f
       0.9007645 0.82777107 1.1454949 1.2405137

static_variable_selection.single_variable_grns.municipio.norm.bias f4 [16]
000000 27 a9 2a 3e 7f e2 2b 3e a4 78 29 3e 5e 28 27 3e
       0.16666089 0.1678562 0.16549927 0.16323993
000010 27 1d 2c 3e 17 cb 28 3e fb 86 29 be 24 64 29 be
       0.16807996 0.16483723 -0.16555397 -0.16542107
000020 7f b1 2b be 9a 52 29 3e fd 2d 29 be 57 16 2d 3e
       -0.16766928 0.16535416 -0.1652145 0.16903053
000030 97 0a 28 be e5 2c 34 be 29 01 2a be ea 6d 2e be
       -0.1641029 -0.17595251 -0.16602005 -0.17034116

encoder_variable_selection.flattened_grn.resample_norm.mask f4 [8]
000000 34 c8 2d bd 91 f6 94 3e b7 66 95 3d 3e d1 7f 3e
       -0.042427257 0.29094365 0.07294982 0.24982163
000010 bc 5c 0d 3d ac 1d 53 bd 05 6b 4e bc 5d 20 ad be
       0.034512267 -0.05154197 -0.012598758 -0.33813754

encoder_variable_selection.flattened_grn.resample_norm.norm.weight f4 [8]
000000 fb 8a 6c 3f b2 5a 9a 3f 84 5f 6c 3f 3c 64 34 3f
       0.9239957 1.2058928 0.92333245 0.70465446
000010 e9 db 77 3f 75 a1 6e 3f ce 4e 47 3f 3a 6e 4d 3f
       0.9681993 0.93215114 0.7785462 0.8024632

encoder_variable_selection.flattened_grn.resample_norm.norm.bias f4 [8]
000000 ed f8 4c 3e 1f 4e 89 be 27 84 15 3d 89 f8 1e be
       0.20016833 -0.26817414 0.036502983 -0.15524496
000010 f3 2c 45 3c c4 29 fe bc 0d 19 5e be f3 8b b8 3e
       0.0120346425 -0.031025775 -0.21689244 0.36044273

encoder_variable_selection.flattened_grn.fc1.weight f4 [8, 64]
000000 15 14 78 be d6 1b e4 3d 83 78 e9 be fa f1 93 be
       -0.2422641 0.11138122 -0.45599756 -0.2889555
000010 80 0c 0b 3e 42 13 61 3e bf a5 dc bd 54 05 06 3e
       0.13578987 0.21980003 -0.10773801 0.1308797
000020 e6 71 37 3e 17 e3 f8 3e a9 c7 e6 3c 3b 6c 17 3e
       0.17914543 0.48610756 0.028171377 0.1478738
000030 af f5 2d 3d b8 eb f7 3e 88 1c 68 3d 99 ac 84 bd
       0.04247063 0.48422027 0.056667835 -0.06478233
000040 3d 82 c4 bd b3 e9 be 3d f6 91 e0 3e 38 52 59 3d
       -0.095951535 0.09321918 0.4386136 0.053056926
000050 1b fd 47 3e 73 fd 7f 3e 51 ce 6c 3e 6b a6 0a be
       0.19530146 0.24999027 0.23125578 -0.13540046
000060 1b d2 f4 bd 6e 6a 88 3a 2f 5a ca 3e eb 53 3a 3e
       -0.11954137 0.0010407695 0.3952193 0.18196075
000070 ed f5 92 bd cf 3a 79 3e ab 4d 9d 3d 39 a2 9b 3e
       -0.07175813 0.2433884 0.076808296 0.30397204
000080 c2 8c 94 3e b3 fb 5b be 80 c7 a3 be 51 b4 8f 3d
       0.2901364 -0.21482734 -0.31988144 0.070168145
000090 2a 8f e7 3e 1f f5 01 bf 8a da 95 be 57 08 a9 bd
       0.45226413 -0.5076465 -0.29268295 -0.08253544
0000a0 79 b1 65 be f1 04 58 3d 90 d5 d9 3d df 5f dd be
       -0.22430982 0.052739087 0.10636437 -0.43237206
0000b0 2c e0 eb bd b0 9a 2f bf ea 59 47 3e 86 09 f1 3e
       -0.11517367 -0.6859541 0.19467893 0.47077578
0000c0 05 d8 e0 bc 55 b9 c8 be 6e 8d 14 bd ca 97 e0 3e
       -0.027446756 -0.39203897 -0.03626769 0.43865806
0000d0 c2 02 a9 bd 0b b1 be bd f3 0b af bd 2a d3 81 3e
       -0.08252479 -0.09311112 -0.08547201 0.25356418
0000e0 e8 9f a3 3d 85 fe 08 bf 89 76 c1 ba cd 87 54 bc
       0.07989484 -0.53513366 -0.0014760058 -0.012971831
0000f0 4c ef a8 3d 75 7a 6c be 41 9a 98 3e 29 8a fb 3e
       0.08248767 -0.23093589 0.29805186 0.49128845
000100 0c e9 b6 bc 90 33 36 be 1d fc 9f be 6d e7 25 3e
       -0.022327922 -0.17793107 -0.31247035 0.16201563
000110 ad c8 31 bd ff 67 c9 bd 8e b4 e8 3d 55 0f a6 3e
       -0.04340427 -0.09834289 0.11362563 0.32433572
000120 9d 12 aa 3d 71 05 e7 3e cf 71 a5 3e c7 48 f0 3e
       0.083043315 0.4512134 0.32313392 0.46930525
000130 5a d4 26 be aa 9d 99 ba ab 5f c3 bc 62 b6 c9 3d
       -0.16291943 -0.0011719961 -0.023849329 0.0984924
000140 20 43 5e be 7c b8 22 3e fc bc c4 3b 17 dc 10 3d
       -0.21705294 0.15890688 0.006003974 0.035366144
000150 6f 97 c4 3d 81 71 45 3e cf ea cf bd 3b a7 70 be
       0.09599196 0.1928158 -0.10152208 -0.23501293
000160 cc 95 65 3e 03 26 29 be 13 0d c5 3e 5f fb c1 be
       0.22420424 -0.16518407 0.38486537 -0.37887093
000170 fc ec 61 bd ca 12 1d 3e 01 18 0f bc b8 84 74 be
       -0.055157647 0.15339199 -0.00873375 -0.23878753
000180 ae c4 a3 3e 71 8a a0 be 49 e0 cb be 8b cf 69 3e
       0.31985992 -0.31355622 -0.39819553 0.22833078
000190 af 80 3a be 43 0f 5b be 4f 5a 86 be ab e1 d4 bd
       -0.18213151 -0.2139254 -0.26240775 -0.10394605
0001a0 ae d8 19 3d a2 69 c0 be 0b 60 5a be 45 6a d9 bd
       0.037560157 -0.3758059 -0.213257 -0.106159724
0001b0 e1 17 84 be ac a5 33 be 57 49 0b be 06 62 62 3e
       -0.25799468 -0.17543668 -0.13602196 0.22107705
0001c0 2c 2e e9 bd 7f 4b 01 be a2 e1 30 3e ad b7 93 3d
       -0.1138576 -0.12626456 0.17273572 0.07212768
0001d0 86 7d 0d 3d d4 56 3e be 75 70 81 bd db 95 97 3e
       0.034543537 -0.1858781 -0.063202776 0.29606518
0001e0 08 3a e6 3d 35 35 45 be a4 fe bb 3c a9 da e7 3c
       0.11241537 -0.19258578 0.02294857 0.028302507
0001f0 86 70 7f 3d b9 1b ac ba 07 00 a0 3e 9b 2c 1a 3e
       0.06236317 -0.0013130821 0.3125002 0.15056078
000200 1f 27 97 be 06 89 ee be 51 07 cf bb 32 74 9e be
       -0.29522035 -0.46588916 -0.006318011 -0.30948025
000210 3a 2d 1c bd 41 05 85 3e cc ce 13 bd 92 1c 35 bc
       -0.03812907 0.2598057 -0.03608589 -0.011054175
000220 4b 58 9c bd a8 c3 ea bd 66 71 cb bd 8b 09 79 bd
       -0.07634028 -0.114631 -0.099337384 -0.060800117
000230 b7 29 8b bc 02 52 d7 3d 63 4c 4d 3e fe d3 13 3d
       -0.016987665 0.105136886 0.2004867 0.036090843
000240 dc 0e ba be 2b 77 a3 3d d9 9b 79 3d 05 75 4f bd
       -0.36339462 0.07981714 0.060939644 -0.050648708
000250 7f ef 61 3e be 86 6d bb 4a ec 12 be 2e f7 d8 3d
       0.22064017 -0.0036243643 -0.1434795 0.10594021
000260 bd 4b 7c 3d 74 41 d6 bd 6a e4 d4 3d ae 5c f3 3d
       0.061595667 -0.10461703 0.10395129 0.118829116
000270 65 e2 ce 3c 78 0b 07 be 7b 44 7f 3c 70 8a d5 3e
       0.025254438 -0.13187969 0.015580292 0.41707182
000280 be 34 e1 3d 9f a6 e8 3e 88 6f 41 bb bb bb 81 bd
       0.10996388 0.45439622 -0.002951594 -0.06334635
000290 38 68 5e 3c 55 db 6f be 2c c1 13 3d 7f 09 3e 3d
       0.013574652 -0.23423512 0.036072895 0.046395775
0002a0 45 2c 10 3e 12 07 22 3e 53 24 4f 3e 04 5b 81 bd
       0.14079387 0.1582301 0.202287 -0.06316188
0002b0 1e 06 06 3e 08 f9 08 3e fd 59 8a bc a6 72 80 3e
       0.13088271 0.13376248 -0.016888613 0.2508747
0002c0 63 b4 de bc f3 25 d4 bc 8e ed 98 3e 24 24 8a be
       -0.027185624 -0.025897002 0.2986874 -0.26980698
0002d0 20 c6 0b 3e 30 d3 69 3c 4b f6 aa 3e 01 f4 88 3e
       0.13649797 0.014271542 0.33391032 0.2674866
0002e0 05 91 1f 3e 99 0c 03 bf 99 b8 04 be 3a 58 22 3e
       0.15582664 -0.511911 -0.12961043 0.15853968
0002f0 2d 82 12 3d 95 e4 90 3e b0 5f 3e 3e 37 2b 89 bd
       0.035768677 0.28299394 0.1859119 -0.06697696
000300 9d 68 13 3e 8f 76 90 bd b7 03 9f be 9c 76 01 bd
       0.14395376 -0.07053863 -0.31057522 -0.031607255
000310 13 e6 4a 3e 1e 48 c7 be a4 c3 4c be 96 be ee 3e
       0.19814329 -0.3892221 -0.19996506 0.4662978
000320 e9 b8 ff bd 4e ba 71 3e 20 b5 a4 3e 5b e3 b0 3e
       -0.12486441 0.23606226 0.32169437 0.34548458
000330 30 26 44 bd 3e a6 bb 3d fe c2 c9 3d 51 3c e8 be
       -0.04788798 0.091625676 0.09851645 -0.45358518
000340 3f 0f 8c 3e ba 5c 39 bd ed a7 86 3e fd 94 90 3c
       0.27355382 -0.045254447 0.26299992 0.017649168
000350 83 58 87 3e 68 23 90 3e 15 23 06 3e 15 c2 19 be
       0.26434717 0.28152013 0.1309932 -0.15015443
000360 1f 30 62 3e d1 56 72 bc 5a 4b 92 3e 56 13 6a 3d
       0.22088669 -0.014791206 0.28573114 0.057147346
000370 c2 10 ca be 1c 58 1e 3e 76 46 d5 bc cc ae 0f be
       -0.3946591 0.15463299 -0.026034575 -0.14031523
000380 8f a4 44 3e a4 9b 21 3e 05 89 2a 3d 10 09 1e 3e
       0.19203399 0.15782028 0.04163458 0.15433145
000390 99 21 cb 3d c0 2a 0e 3d 72 60 09 bd 29 70 8a be
       0.099185176 0.03470874 -0.033539243 -0.27038696
0003a0 f7 69 34 be e9 27 99 3e 1a d8 19 3d 5a 4e 90 be
       -0.17618547 0.29913262 0.037559606 -0.28184777
0003b0 1a 80 30 3e 86 b0 9b be 94 ee 15 3d 47 02 3c 3e
       0.17236367 -0.30408114 0.03660448 0.18360244
0003c0 94 80 97 be c0 b8 da be b3 9b 54 3d e4 59 8b 3e
       -0.29590285 -0.42719078 0.0519063 0.2721702
0003d0 b9 48 d4 3e 8a d7 fb 3d 92 34 02 bf 6a ef 9e 3e
       0.41461733 0.1229697 -0.50861466 0.31042033
0003e0 3d 9f 9b 3e 20 35 09 be 2a fd 99 3e a8 6e af be
       0.30394927 -0.13399172 0.3007596 -0.34264112
0003f0 85 d9 c9 3e fc 00 c5 3d b4 ab 9c 3e e9 e3 92 3e
       0.39423767 0.096193284 0.3059975 0.28689507

encoder_variable_selection.flattened_grn.fc1.bias f4 [8]
000000 7d 80 73 be 9c 2c 49 be 31 af e6 bc 11 9c 28 be
       -0.23779483 -0.19645923 -0.02815971 -0.16465785
000010 10 72 11 bb 07 46 8a be f2 1b 33 3e 31 9f 97 be
       -0.002219323 -0.27006552 0.17491129 -0.2961364

encoder_variable_selection.flattened_grn.context.weight f4 [8, 16]
000000 77 eb 00 bf 91 62 4b 3e f8 15 f4 3e 9c 78 87 3e
       -0.5035929 0.19861819 0.4767301 0.26459205
000010 67 e1 76 3e e2 d3 4d be 14 95 58 3e be 9c ba 3d
       0.24109422 -0.20100358 0.21150619 0.091119274
000020 8c 0e 08 ba 15 60 00 3f 1b 78 b5 3e 68 34 a8 3e
       -0.0005190156 0.5014661 0.35443196 0.32852483
000030 28 2f c3 be 57 6d f7 bc b3 e1 8b be e9 f2 26 be
       -0.38121915 -0.030203504 -0.27320632 -0.163036
000040 26 0b fd bc 0b 3d b9 be 5a e2 a3 3e 50 d0 4e b9
       -0.030889105 -0.36179385 0.3200863 -0.00019723293
000050 66 be ca 3e 09 47 77 be 9d 08 7c 3e f2 dd b3 3e
       0.39598387 -0.24148192 0.2461266 0.35130268
000060 46 19 00 bf e3 48 a0 3e 92 8c 5a be c2 57 03 be
       -0.50038564 0.31305608 -0.21342686 -0.12826446
000070 c9 06 90 3e 38 63 43 3e a0 ba 80 be 35 2a 1d 3f
       0.28130177 0.19080818 -0.25142384 0.6139253
000080 3a 95 0f bf f9 4a 9e 3d d4 32 bd bd fa f2 c5 3e
       -0.56087077 0.07729144 -0.0923821 0.3866194
000090 1c 89 0d 3e f1 e0 3c be ac 27 4e be 38 43 c4 bd
       0.13821834 -0.18445183 -0.20132321 -0.095831335
0000a0 f0 63 d8 be 4f 60 9d be 0e c9 11 3e f4 5b 0d 3e
       -0.42263746 -0.3073754 0.14236853 0.13804609
0000b0 64 8b c2 bd c8 10 1a bf bc 91 79 be de 0f 03 bf
       -0.09499243 -0.60181856 -0.24372 -0.51196086
0000c0 fd 00 8c bd 81 a7 bc 3e fd 8d e6 be aa 55 34 be
       -0.06836126 0.36846545 -0.45030203 -0.17610803
0000d0 35 e6 83 bd 18 85 cd 3c dd 9e 07 3f 93 55 bd bd
       -0.06440393 0.025087878 0.5297678 -0.092448376
0000e0 f1 cf f4 3e 89 49 20 bf 1f b5 74 3d 0e ab 14 bf
       0.47814897 -0.62612206 0.059743043 -0.5807351
0000f0 1b 13 ae 3d e3 8b eb be a5 e4 10 be 11 51 05 3e
       0.08499738 -0.46005163 -0.14149721 0.13019206
000100 4f f8 76 bd 08 0b 18 3f 27 c9 ca 3e 86 af 4d 3e
       -0.0602954 0.5939183 0.39606592 0.20086488
000110 c9 dd 90 3e 96 1f 46 3e f4 3d 20 3e 0c 7a f6 3e
       0.2829421 0.19347987 0.15648633 0.4813999
000120 5f b3 f1 be c0 f4 9e 3c d8 4a 84 be b2 12 73 3d
       -0.47207162 0.019403815 -0.2583835 0.059344
000130 6c 83 6e bd a4 5e 80 3e 38 5f 64 3d a8 52 02 bf
       -0.058230802 0.25072205 0.05575487 -0.50907373
000140 5e ee 2f bf b5 7b 1f be 20 99 9a be 6f 71 d2 bd
       -0.68723094 -0.15574534 -0.3019495 -0.10275542
000150 58 85 71 be a4 e0 8c bb 02 5e 37 be c5 f0 4e 3e
       -0.23586023 -0.00429924 -0.17906955 0.20209034
000160 16 a7 f1 3d 5d 55 69 bd 5f 77 09 3f 90 0e 31 3e
       0.11799447 -0.056966174 0.5369777 0.17290711
000170 05 57 95 3e ec 02 90 be 85 f1 92 3e f4 45 bb be
       0.29167953 -0.2812723 0.2869989 -0.36576807
000180 76 32 bd 3e ee 1f 24 bf 46 8c 89 3e b5 0a 26 bf
       0.3695256 -0.6411122 0.26864833 -0.6486009
000190 60 f8 0b 3f 08 e8 23 be 7b ba d0 be 1e 88 ed 3d
       0.54675865 -0.16006482 -0.40767273 0.11598228
0001a0 f0 50 df 3e 20 9e 0d 3f f0 d5 5f 3e 75 d9 a2 3e
       0.43616438 0.55319405 0.21858954 0.31806532
0001b0 96 7f 02 3f c1 a8 fc bd 7b 5a 0b 3e cd 8a ef 3c
       0.5097593 -0.12336875 0.13608734 0.02924099
0001c0 51 81 5b be a0 8f 07 3f 67 62 f7 3e 9e 3e 30 be
       -0.21436049 0.5295353 0.48317263 -0.17211387
0001d0 4f e8 26 bf e1 1a 15 3e de 4e 25 3f 7a 8b 99 3e
       -0.65198225 0.14561035 0.64573467 0.29989225
0001e0 48 89 28 bd 4a ad da be f8 3c e1 3e 5a 5e a4 be
       -0.041146547 -0.42710334 0.43991828 -0.32103235
0001f0 b1 89 24 bf 73 66 17 bf e0 32 3d 3f ba 92 d3 bd
       -0.642726 -0.591407 0.73905754 -0.1033072

encoder_variable_selection.flattened_grn.fc2.weight f4 [8, 8]
000000 a4 3f 9f be 19 9a 68 be af 48 01 3f 6b 34 b4 be
       -0.3110324 -0.22715034 0.5050153 -0.35196242
000010 f1 3b 71 3f 79 e0 a9 bf de 89 a2 be 1f ac b7 bd
       0.9423209 -1.3271629 -0.3174581 -0.08968376
000020 24 e2 9c 3c e4 34 61 3f 2f 83 8a bd a1 12 15 3f
       0.019150801 0.8797133 -0.067633025 0.5823155
000030 b7 7c 10 bf 97 71 8e be 42 b5 30 be 77 2f 8b 3f
       -0.564403 -0.27821037 -0.17256644 1.087386
000040 3e ea 42 be 7b 22 1e bf 9a 8c fe be 13 03 75 3e
       -0.19034669 -0.61771363 -0.49716645 0.23926954
000050 7c bb 09 bd de 75 1c 3f 32 15 30 be cf 77 90 3f
       -0.033626065 0.6111735 -0.17195585 1.1286563
000060 5c 06 76 bf 68 84 1e bf ca 0d ee 3d 79 4e 65 3e
       -0.96103454 -0.61920786 0.11623724 0.22393216
000070 73 b8 87 bf d3 e3 0f bf 94 b3 84 be e5 40 c5 bd
       -1.0603164 -0.5620701 -0.25918257 -0.09631518
000080 69 5f 96 be 09 04 44 bf 11 05 3d 3f 84 48 93 3f
       -0.29369667 -0.7656866 0.73835856 1.1506505
000090 85 41 ff 3e 88 ea 87 3e 7d 7b 98 bf c9 e4 cc 3f
       0.49854675 0.2654612 -1.1912686 1.600732
0000a0 18 af 4f 3f be e0 74 3f 5d 37 f6 3d 26 23 1d 3f
       0.81126547 0.9565543 0.120222785 0.6138176
0000b0 22 97 1b be 93 a8 43 bf 44 8a 31 3c 84 93 26 be
       -0.15194371 -0.764291 0.010836188 -0.1626721
0000c0 cb 15 e1 3e d8 99 bf bd f8 f0 35 be c9 25 41 be
       0.4396194 -0.09355515 -0.17767704 -0.1886207
0000d0 c6 1c ce be c6 da 08 40 14 df 23 bf e2 7e 3a 3f
       -0.40256327 2.1383529 -0.64012265 0.7284986
0000e0 52 c8 12 bf 1d df 41 3f bd 79 a6 be 5b b5 e1 be
       -0.57336915 0.7573107 -0.32514754 -0.44083676
0000f0 18 d1 c3 be 3e 19 c4 3e d6 33 3b 3f a7 8e 5d bf
       -0.38245463 0.38300508 0.7312597 -0.86545795

encoder_variable_selection.flattened_grn.fc2.bias f4 [8]
000000 72 8c 48 3e 0d 4b 93 be 23 63 81 be 20 36 84 3e
       0.19584826 -0.28768197 -0.25270948 0.25822544
000010 58 8f 0d bd 03 76 00 3c 98 f3 b9 be fb 0c 1d 3e
       -0.03456053 0.007840636 -0.3631866 0.15336983

encoder_variable_selection.flattened_grn.gate_norm.glu.fc.weight f4 [16, 8]
000000 16 fc be 3e c7 d8 1a 3e 7d 2d e3 be 16 08 e6 be
       0.373017 0.15121756 -0.44370642 -0.44928044
000010 31 a4 b9 3e 71 76 8a 3e fe 6c 45 3e 33 d5 3f 3e
       0.3625808 0.2704349 0.19279858 0.18733673
000020 e1 46 83 3e dc 92 d5 bc 10 43 20 3f 97 ee de 3e
       0.25640014 -0.026071005 0.6260233 0.43541405
000030 69 cd 98 3e c0 74 03 bf 02 8d bc 3e 3c 08 50 3e
       0.29844216 -0.5135002 0.3682633 0.20315641
000040 8d 65 cb be db 94 8c 3d 28 72 bf 3b 0c 60 03 3f
       -0.39725915 0.068643294 0.005842466 0.5131843
000050 ab b4 f6 3e 5a 39 5f be cd d2 17 be f4 23 0a bf
       0.48184714 -0.21799222 -0.14826508 -0.5396111
000060 83 2d fe bd 27 c9 42 3e b1 77 d9 3d 35 a0 69 be
       -0.124110244 0.19022046 0.106185324 -0.2281502
000070 0e 95 09 be eb d2 2b bf b0 55 10 3e 79 74 73 3e
       -0.13435766 -0.6711871 0.14095187 0.237749
000080 0d 21 fd 3e 37 27 c5 be 14 5f 2d 3f 38 d7 eb 3e
       0.49439278 -0.3850648 0.677232 0.46062636
000090 82 5c 04 3e a4 bd dc be 87 ae bc 3e c1 7b c9 be
       0.12925914 -0.43113434 0.36851904 -0.3935223
0000a0 c6 56 41 3e 9c fc 14 3f f3 6f 93 3c 94 1a 72 bd
       0.18880758 0.5819795 0.017997717 -0.059107378
0000b0 d2 ce 03 3f a3 57 f2 bd d1 b8 17 3f a6 da 39 bf
       0.5148746 -0.11833122 0.5926638 -0.72599256
0000c0 88 48 7a be ea 5c fb 3b c9 85 f0 3e 90 1f c9 3e
       -0.24441731 0.0076709883 0.4697707 0.39281893
0000d0 6b 18 86 3e 35 12 9e 3e da f5 37 3f 73 51 b9 bd
       0.26190504 0.30873266 0.71859515 -0.09048738
0000e0 73 0e c2 3e 65 d2 8a 3d 01 3d b0 be b4 75 82 3d
       0.3790165 0.06778411 -0.34421542 0.06370106
0000f0 9e 9d 87 bd 07 9f 67 be 4d 0a 5b bf e4 b4 ed 3e
       -0.0662186 -0.22619258 -0.8556259 0.4642707
000100 8a 82 03 3f 92 18 9a 3e b0 2d 2b bf a8 a3 ea be
       0.5137106 0.3009687 -0.6686659 -0.45827985
000110 04 28 87 bd 28 3b 4e 3e 0a b5 bf be 54 33 70 3d
       -0.06599429 0.20139754 -0.3744281 0.0586427
000120 54 93 87 3e ea 5d cd be da 0d a9 3e f0 04 51 3e
       0.2647959 -0.40110713 0.3301838 0.2041204
000130 45 f4 30 bf fa 52 7d 3e 02 f6 7f be ef 5c 8d be
       -0.69122726 0.24738684 -0.24996188 -0.27609965
000140 01 99 6c be f1 17 92 be 6e 8e 92 bd 92 62 53 bf
       -0.23105241 -0.2853389 -0.071560726 -0.8257228
000150 b6 47 a5 be da 83 8d be b8 9e 81 be db e1 a1 3e
       -0.32281274 -0.27639657 -0.25316405 0.31617627
000160 75 08 94 be 20 63 f8 3e a4 35 fa be 08 3e 43 3b
       -0.28912702 0.48513126 -0.4886905 0.0029791612
000170 d4 34 5d be da 38 f0 3e 3e f2 16 3e e4 67 dc be
       -0.21602184 0.46918374 0.14740846 -0.43048012
000180 e5 4c 89 3e fe db 6a bd ba d2 e1 be 67 cd 60 bd
       0.26816478 -0.057338707 -0.44106084 -0.054883387
000190 49 59 ee 3e f8 68 73 bc bd fb 38 3e 6e 2c fa be
       0.46552494 -0.0148565695 0.1806478 -0.48862022
0001a0 ef cc c7 3e 8f 07 5e be 66 fc 32 be fe 9a 18 bf
       0.3902354 -0.21682571 -0.17479095 -0.596115
0001b0 cf 0a 0e bf 68 8c 9b be 85 2a 0c bf e9 3d d8 3d
       -0.5548524 -0.3038056 -0.5475238 0.105586834
0001c0 df fe d8 3e 91 81 8e 3e 58 75 da 3e b8 87 66 3d
       0.4238195 0.27833226 0.4266765 0.056281775
0001d0 92 f7 03 bf 87 a1 24 3d e6 8d e9 be a6 bd 89 be
       -0.5154964 0.040193107 -0.45616072 -0.26902503
0001e0 5a 25 08 3f eb 9a e1 3d 36 e0 62 be 08 e2 bf bd
       0.53181994 0.110158764 -0.22155842 -0.09369284
0001f0 65 57 e3 be 87 19 6b 3d 23 7e 31 bf 30 66 55 bd
       -0.44402614 0.05739739 -0.69333094 -0.052099407

encoder_variable_selection.flattened_grn.gate_norm.glu.fc.bias f4 [16]
000000 52 35 4e 3e e8 35 49 be e8 80 82 3c 7f 17 25 be
       0.20137528 -0.1964947 0.015930608 -0.16122244
000010 93 71 14 bd 13 0c bb bd f0 e5 54 be 42 ff b4 3e
       -0.036241125 -0.09133162 -0.20790839 0.35350996
000020 57 fa 1a 3e 64 d9 9e 3c 6f 43 97 bd 21 4c 6d 3c
       0.1513456 0.01939077 -0.07385909 0.014483483
000030 66 90 4d 3e 0a 03 57 3e f1 be 05 3e 91 3f 87 3e
       0.20074615 0.20997253 0.1306112 0.26415685

encoder_variable_selection.flattened_grn.gate_norm.add_norm.norm.weight f4 [8]
000000 b3 3d 6d 3f 3a 0d a7 3f ad 9f 83 3f a8 0b 3e 3f
       0.9267227 1.3050911 1.0283104 0.74236536
000010 7e 2a 92 3f ee 76 78 3f ed bd 56 3f 70 81 a1 3f
       1.1419218 0.9705647 0.83883554 1.2617626

encoder_variable_selection.flattened_grn.gate_norm.add_norm.norm.bias f4 [8]
000000 d7 c9 51 3e 97 d2 95 be fb 02 5b bd 2b 61 26 be
       0.20487152 -0.2926223 -0.05346964 -0.16248004
000010 fe 77 23 3d 94 85 1c bd 80 35 0f be 63 14 b9 3e
       0.039909355 -0.038213328 -0.13985252 0.36148366

encoder_variable_selection.single_variable_grns.time_idx.resample_norm.mask f4 [16]
000000 74 4c bb bd 96 3a 09 3e c0 fd 75 be 28 9a 94 bc
       -0.09145442 0.13401255 -0.24022579 -0.018139914
000010 b8 67 e9 3d 00 26 5d be 41 ae 39 3d 1f 21 e3 3d
       0.11396736 -0.21596527 0.045332197 0.11090302
000020 c4 f9 fd 3d 56 cd 94 bd 65 37 8c be 21 40 1a 3d
       0.12401155 -0.07265727 -0.27386013 0.037658814
000030 98 40 6a 3e f5 79 80 be fb 98 45 3e c6 97 b2 be
       0.22876203 -0.25093046 0.19296639 -0.3488142

encoder_variable_selection.single_variable_grns.time_idx.resample_norm.norm.weight f4 [16]
000000 56 eb 5b 3f 82 e9 8a 3f 45 c0 83 3f 04 7b a7 3f
       0.8590597 1.0852511 1.0293051 1.3084416
000010 79 73 8f 3f cb 04 4b 3f ca b6 85 3f bd f2 a0 3f
       1.1207114 0.7930419 1.0446408 1.2574078
000020 aa 72 91 3f d0 f3 83 3f 99 74 22 3f d0 31 82 3f
       1.1363118 1.0308781 0.63459164 1.0171452
000030 4d c6 44 3f aa 02 39 3f 38 12 a3 3f fc 4f 2a 3f
       0.7686508 0.7226969 1.2739935 0.66528296

encoder_variable_selection.single_variable_grns.time_idx.resample_norm.norm.bias f4 [16]
000000 56 f4 e0 bc e2 6c 43 bd b0 d2 4c 3e 8d 08 ae 3e
       -0.027460258 -0.04771126 0.20002246 0.339909
000010 96 c1 18 3e 84 8f 3c be 42 9e 8b 3d b0 12 6b 3e
       0.14917597 -0.18414122 0.06817295 0.22956347
000020 98 0e 51 be 89 bc c4 bc 95 d7 1d bd 60 f3 b8 bd
       -0.20415723 -0.024015682 -0.038535673 -0.09030795
000030 1b 44 c8 be 3f 5b bd bd d4 76 76 be 37 51 a9 3e
       -0.3911446 -0.092459194 -0.24068767 0.33069775

encoder_variable_selection.single_variable_grns.time_idx.fc1.weight f4 [8, 8]
000000 c2 ed 7f 3f 7b 39 87 bf a0 e9 f0 be e5 95 59 bc
       0.99972165 -1.0564417 -0.47053242 -0.013280367
000010 8a b4 f2 be 75 05 23 bb 50 07 f0 be 8f 04 14 3f
       -0.47403365 -0.0024875079 -0.4688058 0.57819456
000020 cc cf 1f bd 85 c6 fc 3e a8 39 31 bf 13 00 b9 be
       -0.03901653 0.49370208 -0.692286 -0.3613287
000030 f5 b7 24 3f 3e 76 8c 3f 4b f1 1d bf 92 da 73 3e
       0.64343196 1.0973585 -0.6169631 0.23813847
000040 d7 d5 fa be 21 dd 78 3f 14 24 48 be 30 d1 32 bf
       -0.48991272 0.97212416 -0.19545013 -0.69850445
000050 7d 08 3c 3f 85 df 50 be 3e 6d 7f bd 05 22 dc 3e
       0.7345045 -0.20397766 -0.06236004 0.42994705
000060 1b 01 95 3e 2d 49 50 3f 2f 97 dc 3e cc 35 c0 3e
       0.29102406 0.8136166 0.43084094 0.37541044
000070 3d dd a8 3d f9 5c d3 3d 56 71 5e 3e f7 c5 30 bf
       0.08245323 0.103204675 0.21722922 -0.6905207
000080 38 97 12 3d 36 29 db 3d 5d 37 0b bf ef 1a 45 be
       0.035788745 0.1070122 -0.5438135 -0.19248556
000090 84 d3 ec be f9 07 02 3e 49 e4 66 3e c1 59 0d 3e
       -0.46255124 0.12698354 0.22548021 0.1380377
0000a0 f2 34 00 3e 1c 23 63 3d 34 f8 b4 bf a9 a5 c2 be
       0.12520197 0.055453405 -1.4138246 -0.38017014
0000b0 7e 3c 25 3e c8 42 f6 3d ce 4d 02 3e a5 0e a5 bc
       0.16136357 0.12024456 0.12724993 -0.020148585
0000c0 d3 68 04 3f 6d 3a b0 3e ef 1e 67 3e 00 9c 85 bf
       0.5172245 0.34419575 0.22570394 -1.0438232
0000d0 f4 ee 65 3e ff ac e8 3e bf 51 22 bf b8 c8 ee 3e
       0.22454435 0.45444486 -0.63405985 0.4663751
0000e0 2c 43 3e bf 56 aa 3c 3f 46 73 af 3c 63 35 ff 3e
       -0.74321246 0.7369741 0.021417271 0.49845418
0000f0 76 6a a2 3e 9d 2a ad bf d5 20 44 be 1c 57 09 3e
       0.31721848 -1.352863 -0.1915315 0.13412136

encoder_variable_selection.single_variable_grns.time_idx.fc1.bias f4 [8]
000000 53 7a a3 bc 78 d9 89 bd 58 22 56 3b 5a 8a 10 bd
       -0.01995579 -0.06730932 0.003267428 -0.035288192
000010 37 9e 5a 3e c0 05 6e be b3 65 a2 3e da 31 92 be
       0.21349417 -0.23244381 0.31718215 -0.2855366

encoder_variable_selection.single_variable_grns.time_idx.fc2.weight f4 [8, 8]
000000 97 7e af 3f 36 d3 6f bf 0e 7f 0d 3d 20 90 1e bf
       1.3710507 -0.9368166 0.034544997 -0.6193867
000010 8c 4e c2 3d 92 f5 36 3f 8c 46 99 be 6e ea 0f 3d
       0.09487638 0.7146846 -0.29936635 0.03513568
000020 ec b6 19 3f 82 78 51 bf d0 2b 6f be 91 bd d1 3e
       0.6004474 -0.81824505 -0.23356557 0.4096494
000030 fb 7c b2 3e 65 21 31 bf 5a 15 8e 3d be a2 bd 3e
       0.34860978 -0.6919158 0.06937666 0.37038225
000040 f5 e0 c7 3e 39 ca 7d bf 61 b4 16 bf fe fa c6 3e
       0.39038816 -0.9913669 -0.58868986 0.38863367
000050 9b 02 b0 be 27 8a 45 be 0d 9e b5 be 3c 51 19 3f
       -0.34376988 -0.19290982 -0.35472146 0.5988958
000060 d2 2f d6 be 91 2c 96 3f 92 e8 78 be f5 2a 9a 3e
       -0.4183336 1.173235 -0.24307469 0.301109
000070 0b 19 69 bd 3d 96 86 3e ef f8 1b bf 97 94 b3 3e
       -0.05690865 0.26286498 -0.6092672 0.35074303
000080 8c d1 3b 3e ee 68 13 3f 94 a0 50 bf 20 ed 86 3d
       0.18341655 0.57581985 -0.8149502 0.06588197
000090 6a 62 b3 be 0c ae 2a 3f 3a 95 95 3f a2 fc 36 be
       -0.3503602 0.66671824 1.1686165 -0.1786981
0000a0 58 86 a6 3e 77 a0 38 3f c1 ca a8 3e fa 20 c5 be
       0.3252437 0.7211985 0.3296719 -0.38501722
0000b0 bf 88 bd 3e c3 5d d7 3d 1f 29 4a be 23 41 5e be
       0.3701839 0.105159305 -0.19742249 -0.21704535
0000c0 7c e5 78 3e 8a b7 5c 3e 67 e5 25 3f 5b 37 0f bf
       0.24306291 0.2155439 0.64803165 -0.5594384
0000d0 d2 e1 b3 3e 98 52 33 3f ba f5 8c 3e dd c2 d5 3d
       0.35133225 0.70047903 0.27531224 0.10437558
0000e0 74 3b a8 3e 0e 92 da 3e d1 4c 41 3f 60 62 2f 3f
       0.3285786 0.42689556 0.7550784 0.68509483
0000f0 46 23 95 3d 53 a7 80 be ff 38 19 bf 54 1b 4b bf
       0.072821185 -0.25127658 -0.59852594 -0.79338574

encoder_variable_selection.single_variable_grns.time_idx.fc2.bias f4 [8]
000000 1d 77 20 be da 54 c3 3e d2 11 dc 3b 11 8e a5 be
       -0.15670438 0.38150674 0.0067159915 -0.3233495
000010 b1 19 a9 3d c5 b4 7b be 6f 17 6c be 4e f0 22 bd
       0.08256853 -0.24580677 -0.23055814 -0.039779954

encoder_variable_selection.single_variable_grns.time_idx.gate_norm.glu.fc.weight f4 [32, 8]
000000 34 ef 4d 3e f8 36 8e bd e9 08 9c bd 2e 3f 55 be
       0.2011078 -0.06944078 -0.07618887 -0.20824882
000010 bb bc 07 be 94 99 19 3e 94 d4 5c 3a 37 f7 25 be
       -0.13255589 0.14999992 0.00084240106 -0.16207586
000020 b0 79 e2 bd 24 c6 fb 3d ed 26 d4 bc 7b 44 48 bb
       -0.11058366 0.12293652 -0.025897468 -0.0030558396
000030 76 5a 2a 3d 3c 4e f4 be 5a 0e 13 be 99 c6 e7 be
       0.041590177 -0.47715938 -0.14360943 -0.45268705
000040 d8 af 27 3e 5b 91 b4 3d f7 11 72 be 85 27 8b bd
       0.16375673 0.08816787 -0.23639666 -0.06794647
000050 52 ea 6b be 5a 93 12 3e 5c 33 c9 bd 62 b3 54 3c
       -0.23038605 0.14314023 -0.09824249 0.012982221
000060 bb af cd 3e fa 76 53 3d b6 73 c3 3e 2a 4a f1 bc
       0.40173134 0.051627137 0.38174218 -0.02945431
000070 df 8f f9 3d be c9 c7 bd ac 97 dc be e5 e5 57 be
       0.12185644 -0.09755276 -0.43084466 -0.21083792
000080 4f cc 95 bd 78 ef ea 3e 2f 46 96 3c ce 88 b1 bd
       -0.073143594 0.45885825 0.018344013 -0.086686715
000090 00 4f 98 3b ee c9 e1 3d 00 de 98 be 22 da 88 3e
       0.0046480894 0.11024843 -0.29856873 0.26728922
0000a0 d7 83 cf 3d fd 60 d1 be 9a 11 d3 be d9 48 8f 3e
       0.10132568 -0.4089431 -0.41224366 0.27985266
0000b0 96 0c 86 3e 3a 7e 70 be dc 88 cf 3e 91 16 24 3e
       0.26181477 -0.23485652 0.40534103 0.16024233
0000c0 6e ef f5 bd 3a 3f 67 3e 1a 61 31 bd 89 55 e8 be
       -0.12008558 0.22582713 -0.043305494 -0.45377758
0000d0 01 4e 87 3c ba 1e 0c bf 94 a3 7d 3e c3 15 d2 be
       0.016516687 -0.54734385 0.24769431 -0.41032228
0000e0 32 e7 9c be 25 a2 36 3e a5 e1 01 3f 33 9f 65 bd
       -0.30645138 0.1783529 0.5073493 -0.056060027
0000f0 ba 8a 20 bf f6 5c 93 bd a7 51 0c bf 2f 66 94 bc
       -0.6271168 -0.07195465 -0.5481209 -0.018115131
000100 97 19 43 bd f7 40 a7 be 83 61 bc 3c 7c f8 02 3e
       -0.047631826 -0.32666752 0.022995716 0.12790102
000110 ef 3d 3e be ac 76 5f be dc 22 b4 3e 0f 38 1f 3e
       -0.18578313 -0.21822613 0.35182846 0.15548728
000120 d4 2a 40 be cb d7 8a 3e ee b6 db ba 24 a9 4e be
       -0.18766338 0.27117762 -0.0016762891 -0.2018171
000130 f0 88 3b 3e cf 6e 4d 3e 0c 31 09 3e e2 40 10 3f
       0.18313956 0.20061801 0.13397616 0.56349003
000140 a2 08 64 3e 57 c8 38 3d 2b 40 69 be 48 a6 56 3e
       0.22268918 0.045112934 -0.22778384 0.20961869
000150 2c a7 85 bd 1f f1 9e be b0 5c a6 bc d4 16 d5 bd
       -0.06526026 -0.31043336 -0.020307869 -0.10404745
000160 0a a4 a1 3d bf 06 43 be ba 09 9a be 44 67 d0 39
       0.07892616 -0.19045542 -0.30085546 0.0003974979
000170 49 09 a5 3e 41 9d ff bd 38 60 01 3e 8d 39 5e bd
       0.32233647 -0.12481166 0.12634361 -0.054254103
000180 b9 7a 1c bd 81 75 a1 be 61 2b 49 be 18 99 6e 3e
       -0.038202975 -0.3153496 -0.19645454 0.23300588
000190 8a 47 93 ba 6b 9e da 3e 99 f2 5e 3e 61 01 4a be
       -0.001123653 0.42698988 0.21772231 -0.19727089
0001a0 88 5a e0 3e 2b 0f a0 be 6d 68 28 bf ca 29 81 3e
       0.4381907 -0.31261572 -0.6578434 0.25227195
0001b0 ab 7a 0c 3f 86 b1 15 3e c5 20 01 be ab b6 c6 3c
       0.54874676 0.14618501 -0.12610157 0.024257025
0001c0 83 be 6d be 9f e2 9e 3e ff e7 a1 3c e8 83 dd bd
       -0.23217206 0.31032273 0.019763945 -0.10816175
0001d0 05 48 07 3f f9 07 8a 3e 42 63 08 3f 36 de a6 3d
       0.5284427 0.26959208 0.53276455 0.08147852
0001e0 65 39 36 3e 54 96 5e 3e 7e 16 a7 3e a8 b3 17 3e
       0.17795332 0.21737033 0.32634348 0.14814627
0001f0 fb 4e 8a 3d 97 e5 f1 be d8 47 67 be 8c 9d d9 be
       0.067533456 -0.47245476 -0.22586 -0.4250301
000200 ae 47 b1 be 52 93 30 bd 78 62 81 be 28 98 25 be
       -0.34625 -0.043109246 -0.25270438 -0.16171324
000210 20 d9 b3 bb 33 e1 e0 3e 97 11 c5 3d ff 1f 82 3e
       -0.00548853 0.43921813 0.096224956 0.25415036
000220 5b 40 8d be b6 4f dc be cf d9 f6 3d 2f 6f fc bd
       -0.27588162 -0.43029565 0.120532624 -0.12325894
000230 ee 55 c1 be 88 8d 36 be 2d 27 77 3d 31 2b f1 3d
       -0.37760872 -0.17827427 0.060340095 0.11775816
000240 c2 42 c6 be 3e d0 dc bd 51 33 d5 bd 2f e7 a0 bd
       -0.38722807 -0.107819065 -0.104101785 -0.07856595
000250 99 9b e9 bd 42 a4 8d be fe b6 b4 3e db 57 40 be
       -0.11406631 -0.2766438 0.35295862 -0.18783514
000260 84 d1 15 be f8 ff 1f 3b 88 8b e4 3e 91 23 9f bd
       -0.14630705 0.0024414044 0.44637704 -0.07770456
000270 1e c6 6c 3d 1c 13 e3 be 0d 58 66 3e 1e fd d9 bc
       0.057806127 -0.44350517 0.22494526 -0.026609953
000280 0a 85 f8 bc cd 5d af be a1 ae 70 bd ef a2 ba 3d
       -0.030336875 -0.34251252 -0.05876029 0.09113108
000290 cf d1 85 3c 7e b0 27 3f 7a 95 5c be 41 9c a5 3d
       0.016335396 0.6550368 -0.21541396 0.08086444
0002a0 fb eb 1b be 09 65 09 be 38 cd f6 bc 13 1e 85 be
       -0.15226738 -0.13417448 -0.030127153 -0.25999507
0002b0 af 0f cb be f0 80 a5 bd 18 3a e9 bd 15 7b f8 be
       -0.39660403 -0.080812335 -0.11388034 -0.48531404
0002c0 70 55 78 3e e3 4b 40 3e 20 06 37 3e 3f b8 24 3e
       0.24251342 0.18778948 0.1787343 0.1608591
0002d0 95 23 11 be ff bf 5d 3d 1c 5c 3f be a9 11 e8 3e
       -0.1417373 0.05413818 -0.1868748 0.45325974
0002e0 9b f3 69 be 44 d6 e5 3d 11 e4 1a 3f 8c d2 02 3e
       -0.22846834 0.112225085 0.6050425 0.1277563
0002f0 d8 4c 0b bf ad 52 7d 3e 21 01 e1 3b e5 c8 1b bd
       -0.5441413 0.2473857 0.0068665897 -0.038033385
000300 45 76 4e 3c bd db af 3e 54 4e 0d be e5 69 19 be
       0.01260144 0.34347335 -0.13799411 -0.14981802
000310 fd 5d c1 bb 5b bf fd bd 77 02 85 3e 08 20 a2 3e
       -0.005901097 -0.12390014 0.25978443 0.31665063
000320 f4 29 b0 3e 10 99 fd 3e 76 03 49 3e cd f7 10 3e
       0.34407008 0.4953084 0.19630226 0.14157028
000330 db ef b0 3e ba 20 b3 be d4 96 c3 be c2 26 ec bd
       0.34557995 -0.34985906 -0.3820101 -0.1153083
000340 ba 46 41 bd b7 42 a0 bd 51 97 f5 bd 6e a9 b1 be
       -0.04718659 -0.07825225 -0.11991752 -0.34699577
000350 6e 53 89 3e 90 d4 b0 3e d3 3b 98 3e 13 03 eb bd
       0.26821464 0.34537172 0.29733142 -0.11475196
000360 fd 00 d3 3e bc 2b 80 3d d6 90 9c be 96 0d 43 3e
       0.41211691 0.06258342 -0.3057925 0.19048151
000370 02 26 a5 3e dc f2 c4 be f9 3a ab 3e 7c d9 76 be
       0.3225556 -0.38466537 0.3344343 -0.24106401
000380 2f c5 91 bd 9e e6 95 3d a5 25 95 be b3 39 5a be
       -0.07117688 0.07319377 -0.29130283 -0.21311073
000390 13 69 4e 3e d1 a8 4d 3e 93 38 96 be b6 ec 0b be
       0.2015727 0.2008393 -0.29340038 -0.13664517
0003a0 90 b3 d5 be 16 32 a8 3e bd 13 20 3e 4c c9 86 be
       -0.41738558 0.32850713 0.1563253 -0.26325452
0003b0 34 98 8a be 67 2c ad 3d 96 46 0c 3e 36 d0 44 be
       -0.27069247 0.08455735 0.13698801 -0.19220051
0003c0 d8 17 be 3e bf 99 54 3e 26 3e 05 3d 82 55 5c 3e
       0.37127566 0.20761774 0.032529972 0.21516994
0003d0 b0 2a f5 3d bc 33 be be 33 f2 94 be 81 ea 73 be
       0.119710326 -0.37148845 -0.29091033 -0.23819925
0003e0 7a 04 95 be 0f b0 6d 3e 5d b5 6e be 96 4b 85 3e
       -0.29104978 0.23211692 -0.23311372 0.2603423
0003f0 81 ce 0e bd f7 e0 12 bf ba 80 9b be 87 af 40 be
       -0.034864906 -0.5737452 -0.30371648 -0.18816958

encoder_variable_selection.single_variable_grns.time_idx.gate_norm.glu.fc.bias f4 [32]
000000 21 21 49 bc 44 f8 31 bd fd 47 4a 3e 27 a9 ac 3e
       -0.012275965 -0.043449655 0.19754024 0.33722803
000010 68 84 20 3e 6d 7a 3b be c5 74 a4 3d 1e f3 79 3e
       0.15675509 -0.1830842 0.080300845 0.24409148
000020 31 d5 4d be e3 b7 12 bd c0 88 78 bd 02 aa a9 bd
       -0.20100857 -0.0358199 -0.06067729 -0.082843795
000030 0d 6c c2 be 50 58 68 bd b5 a7 62 be b7 d8 a8 3e
       -0.3797306 -0.056724846 -0.22134288 0.3297784
000040 84 65 94 be 5d 2f 04 be c1 18 95 be 8e 58 31 3d
       -0.289837 -0.12908693 -0.29120448 0.043297343
000050 4b 9f a0 bd 41 12 80 3c b0 ea 05 bd f0 47 17 3e
       -0.07842883 0.015633704 -0.03269452 0.14773536
000060 39 4a 08 be 2f 1e 17 3e c2 1a c3 be 7e 47 93 bd
       -0.13309564 0.14757608 -0.38106352 -0.071913704
000070 11 c1 ec bd 5a f5 6a bc 8a fb 9e bc e7 05 f6 3d
       -0.11560262 -0.014340723 -0.019407053 0.120128445

encoder_variable_selection.single_variable_grns.time_idx.gate_norm.add_norm.norm.weight f4 [16]
000000 c8 d8 4c 3f 18 54 62 3f 32 8f 63 3f fd 7b a5 3f
       0.8001828 0.88409567 0.88890374 1.2928463
000010 f8 03 92 3f cd 85 5a 3f c8 6b 9c 3f ce 28 ac 3f
       1.1407461 0.85360414 1.2220392 1.3449953
000020 d4 30 92 3f c2 79 97 3f 1d 51 51 3f 6e 9b 95 3f
       1.1421151 1.1834033 0.81764394 1.1688058
000030 1e ce 82 3f d5 db 74 3f 8f c9 a4 3f 37 8a 69 3f
       1.0219152 0.9564794 1.2874011 0.91226524

encoder_variable_selection.single_variable_grns.time_idx.gate_norm.add_norm.norm.bias f4 [16]
000000 b5 56 ed bd c2 00 23 be f4 f1 ee 3d 31 05 a6 3e
       -0.11588804 -0.15918258 0.11667243 0.32425836
000010 0f 8b 48 3e 51 56 38 be 47 f6 2e be 9c 58 2d 3e
       0.19584297 -0.18001677 -0.17086135 0.16928333
000020 6d 09 88 be c7 09 00 be 9c 5b 3a be ce 39 eb bd
       -0.2656969 -0.1250373 -0.18199009 -0.11485635
000030 5f c5 b9 be 26 28 2e be 79 00 95 be 24 cb 2a 3e
       -0.36283395 -0.17007503 -0.29101923 0.16679054

encoder_variable_selection.single_variable_grns.T2M.resample_norm.mask f4 [16]
000000 54 bb 3a 3e 2d 39 43 3e 87 e1 8b be 8b 0f 89 be
       0.18235523 0.1906478 -0.273205 -0.2676967
000010 cc 19 84 be 72 94 65 3e f3 04 6a 3e b7 df dc 3c
       -0.2580093 0.22419909 0.2285345 0.026962144
000020 1d b9 02 3e b5 36 58 3e ab 64 33 3e b2 d0 05 3c
       0.12765928 0.21114619 0.1751887 0.008167433
000030 5b 19 a2 3e 1a 9e 4b be aa 81 75 3e 0e 64 b7 bc
       0.3165997 -0.1988453 0.23975244 -0.022386577

encoder_variable_selection.single_variable_grns.T2M.resample_norm.norm.weight f4 [16]
000000 5c 4f 94 3f aa 2c 98 3f cd bd 39 3f 49 5c 3a 3f
       1.1586719 1.188863 0.7255524 0.72797066
000010 79 5b 3b 3f ff cd 96 3f d2 a7 9c 3f d0 b9 5f 3f
       0.7318645 1.1781615 1.2238715 0.873929
000020 ca 82 8b 3f 22 43 99 3f df 9b 5a 3f 13 3d 85 3f
       1.0899289 1.1973612 0.8539409 1.0409263
000030 81 b1 55 3f 33 aa 6e 3f 78 3d 81 3f f9 b1 90 3f
       0.83473974 0.93228453 1.0096884 1.1304313

encoder_variable_selection.single_variable_grns.T2M.resample_norm.norm.bias f4 [16]
000000 b1 2c 4d be 12 ad 45 be 9f b0 87 3e 99 32 8a 3e
       -0.2003658 -0.19304302 0.2650194 0.26991728
000010 24 34 86 3e 3b a7 73 be b5 a1 62 be 16 c5 ff bd
       0.26211655 -0.23794262 -0.22131999 -0.12488763
000020 0d 4a ce 3d 0a 31 49 3e 66 47 23 be e4 c3 94 3b
       0.10072718 0.19647613 -0.15945205 0.0045399535
000030 3c 65 b4 be bd ff bb bb cf 0c 76 be 7a 80 f8 3d
       -0.35233486 -0.0057372735 -0.24028324 0.1213388

encoder_variable_selection.single_variable_grns.T2M.fc1.weight f4 [8, 8]
000000 ee 10 03 3f 55 8e 0d 3f 75 76 2f bf 37 22 5c 3f
       0.5119771 0.55295306 -0.68540126 0.8598971
000010 c0 d5 84 be 28 f3 d5 be 5e db 9e 3e e3 6d 56 bf
       -0.25944328 -0.41787076 0.3102674 -0.83761424
000020 5c 85 d9 be 0f 64 e5 3e d7 b9 24 bf 03 54 70 3f
       -0.42484558 0.448029 -0.6434607 0.9387819
000030 23 5a 95 bb 01 05 80 bc a5 81 1d 3f e3 8c 22 3e
       -0.0045578643 -0.015627386 0.61525947 0.15874057
000040 07 1a ac be 35 b0 00 be b3 e1 8c be e0 e4 0f 3f
       -0.33613607 -0.12567218 -0.27515945 0.5620861
000050 41 03 d9 be 48 8e 9c 3e 1e 58 2a bf 18 0a 94 be
       -0.42385295 0.30577302 -0.66540706 -0.2891395
000060 a0 fa a0 3e a3 bd 46 3e 6f 32 e5 3d 9d ff f8 3e
       0.31441212 0.19408278 0.1119126 0.48632517
000070 86 81 aa 3e 20 79 dc bd 68 96 56 3f 00 aa 82 3e
       0.33301944 -0.1076529 0.8382325 0.25520325
000080 a4 b3 b5 3c 81 06 17 3f 20 b7 01 be e0 f0 08 bf
       0.022180386 0.589943 -0.12667513 -0.53492546
000090 83 c9 ba 3d f7 f0 80 3e e5 54 e1 bd 5c e7 6a bf
       0.091204666 0.25183842 -0.110025205 -0.91759276
0000a0 e0 c6 18 3e c1 24 59 be 7a ab 27 bf 10 87 12 bd
       0.14919615 -0.21205427 -0.6549603 -0.035773337
0000b0 f7 c9 84 3e 1e 4b b0 3e 0b bc 15 bf aa df 57 bf
       0.25935337 0.3443231 -0.58490056 -0.8432566
0000c0 6a b5 06 3f 95 e0 74 3e f2 62 37 3f 8d 25 84 bc
       0.52620566 0.23913796 0.71635354 -0.016131187
0000d0 fb c4 0b 3f bc 54 d6 be 1d 47 b6 3e 69 80 af 3e
       0.54597443 -0.41861522 0.3560113 0.34277657
0000e0 3d 47 ee be 34 8b b3 bf d1 ec b6 bc 84 30 a9 be
       -0.46538725 -1.4026856 -0.02232972 -0.33044827
0000f0 73 54 99 3f 00 f1 f4 3d 03 dd 02 3f 94 6a bd bc
       1.1978897 0.119600296 0.5111849 -0.02312211

encoder_variable_selection.single_variable_grns.T2M.fc1.bias f4 [8]
000000 34 1c 87 3e a8 8e 3a bd 15 5a 12 bd a6 fb 57 be
       0.26388705 -0.045546204 -0.03573044 -0.2109209
000010 aa 26 90 3e 1f 6f 5d 3e 2d 10 08 bc 16 c1 a5 3e
       0.28154498 0.2162442 -0.008304638 0.32373875

encoder_variable_selection.single_variable_grns.T2M.fc2.weight f4 [8, 8]
000000 4a 6b 0b 3e 87 80 0c 3e 4a 75 89 3e 51 2e cc be
       0.13615146 0.13720904 0.26847297 -0.39879087
000010 68 81 18 be c7 b2 1b bf 7e 5f 49 be fc ec b0 bf
       -0.14893115 -0.6081967 -0.19665334 -1.3822322
000020 d3 02 80 be 8f 6b 9c be 19 3b 61 be 35 a1 92 bd
       -0.25002155 -0.3055081 -0.219952 -0.07159654
000030 6f 5c 30 bf c4 b1 bd be 06 6e 58 3e 36 13 88 be
       -0.6889104 -0.37049687 0.2113572 -0.26577157
000040 d4 c4 b7 be 37 f5 82 3d 6e 0b ba be fc 61 b3 3d
       -0.35892355 0.06394427 -0.36336845 0.087589234
000050 2e 21 87 3d 18 6d 23 3e af 3c 08 3f bf 13 25 bf
       0.065981254 0.15959585 0.53217596 -0.64483255
000060 ef ec 25 3e d2 a5 a1 3e 0e a8 0d bd 29 05 ca 3e
       0.16203664 0.31571823 -0.034584098 0.39457062
000070 7a bb d0 3e 91 5e a7 3e 24 a3 95 3e de 3a f5 bb
       0.40768033 0.32689336 0.2922603 -0.007483824
000080 c1 11 ad 3e 6c e0 e7 3d b2 94 63 be 9b 41 27 bf
       0.33802608 0.11322102 -0.22224692 -0.6533448
000090 5d d6 a8 3d 21 84 83 bf 10 34 86 3e 10 56 cd be
       0.082440116 -1.0274698 0.26211596 -0.40104723
0000a0 e6 63 65 3e 56 2f 00 3e 70 69 dc be 7e 37 72 be
       0.2240139 0.12518057 -0.43049192 -0.23653981
0000b0 fb 03 cd be aa 03 75 3e de 5c db be e7 86 82 3f
       -0.400421 0.23927179 -0.4284429 1.0197419
0000c0 07 e0 f3 bd 62 a9 f5 be 88 87 ab bc 96 f9 02 bf
       -0.11907964 -0.4798079 -0.02093865 -0.5116209
0000d0 64 b2 7b be 87 9b 03 be ca af ef be 84 c3 ac bd
       -0.2457977 -0.12852298 -0.46813804 -0.08435729
0000e0 28 d5 de be 10 de 67 be ed 78 e9 bd 96 4c 11 3e
       -0.43522 -0.22643304 -0.11400018 0.14189371
0000f0 f7 00 8e 3e ba 2b 2d 3e 82 0d 01 3c 66 b0 1f 3f
       0.2773511 0.16911212 0.007876756 0.6237854

encoder_variable_selection.single_variable_grns.T2M.fc2.bias f4 [8]
000000 ef 4f a0 be 30 d1 b8 bd 7f 37 9c 3d 06 ec 2b be
       -0.31310984 -0.09024274 0.076277725 -0.16789255
000010 98 7f 94 be 6b cf 97 3e fc db 4a 3e b6 f7 30 3e
       -0.29003596 0.29650435 0.1981048 0.17281994

encoder_variable_selection.single_variable_grns.T2M.gate_norm.glu.fc.weight f4 [32, 8]
000000 98 c7 98 3e a2 9c a5 be ac 9f 9e bc b9 30 2b 3e
       0.29839778 -0.32346064 -0.019363247 0.16717805
000010 5d 73 97 3d fa 1c b1 bd 2d 5e 52 3e f0 77 43 3e
       0.07395051 -0.08648105 0.20543738 0.19088721
000020 87 9d de 3d 98 0c d4 be 92 5b ab bd 57 df 60 3e
       0.1086989 -0.41415858 -0.08367075 0.21960197
000030 35 73 ab 3e c6 aa d8 be d7 84 f6 3e 20 40 e1 be
       0.33486333 -0.4231779 0.48148224 -0.43994236
000040 00 00 70 be ae ee 81 bd f6 f0 ea be d7 a8 89 3e
       -0.234375 -0.06344353 -0.45886964 0.26886627
000050 df 75 b4 be 3b 10 b4 3e 1f d8 cf 3d 1a d9 fc 3e
       -0.35246179 0.35168633 0.10148644 0.49384385
000060 cc 0e 4a bc 02 31 08 3e b3 2e 90 be e2 85 09 3d
       -0.012332629 0.13299945 -0.2816063 0.033574946
000070 9d e5 94 be 8d 61 2c 3e 43 e9 2d be 08 f8 ee 3e
       -0.2908143 0.16834088 -0.16983514 0.46673608
000080 3b 29 15 bf e1 30 1b bd 25 64 ab 3d 38 17 11 3f
       -0.5826604 -0.03788841 0.083687104 0.56676054
000090 1e cb 0e bf 2f 03 0f 3f cc df ab bd 88 0b bc 3d
       -0.5577868 0.5586423 -0.08392295 0.09181887
0000a0 85 25 54 3e 7f c1 11 3e 7d 32 ff 3e 52 65 d6 3d
       0.20717438 0.14233969 0.49843207 0.10468544
0000b0 30 9b 45 3e 3e 20 ea 3d 99 d2 b6 3d aa c2 a7 be
       0.1929748 0.11431931 0.08926887 -0.32765704
0000c0 d3 7b 40 3d 31 c1 f7 be 4b 90 2b 3e d4 39 5b be
       0.046993088 -0.4838958 0.16754262 -0.21408778
0000d0 f1 d0 ba 3e 2a bd 64 be 08 2c 96 bd 7a f2 1b 3c
       0.36487535 -0.22337785 -0.07332617 0.00951826
0000e0 95 0c 9c 3e 92 8f 6a be 28 f1 84 3e 09 85 af 3e
       0.3047835 -0.2290633 0.25965238 0.34281185
0000f0 59 61 95 3e a2 d6 2c be 77 db 82 3e 95 76 77 be
       0.29175833 -0.16878751 0.25558063 -0.24166329
000100 fb 02 62 be a6 61 a8 3e aa 68 f4 3d 9f 7b 02 bd
       -0.2207145 0.32887 0.119340256 -0.031856176
000110 e4 da 2f be 7a 18 50 3e 2d e7 72 be 77 5b 04 3e
       -0.17173344 0.20321837 -0.23720999 0.12925516
000120 7c 6e f8 be c4 23 19 3f b2 24 51 3e 31 fb 00 3e
       -0.48521793 0.598202 0.20424154 0.12595822
000130 90 92 87 3c e9 22 70 3e 25 ab ff bd 1f 95 04 3f
       0.016549379 0.23450817 -0.12483815 0.5179004
000140 2b f7 e2 3e 3f 3b 8a 3d 0f df 82 3a 39 fa a9 3d
       0.443292 0.067495815 0.000998469 0.08299679
000150 f5 88 20 be ce 9f ac be f4 57 33 3e 7a d8 29 3d
       -0.15677245 -0.3371567 0.1751402 0.041466214
000160 69 14 10 be 94 cf d1 bd 5b d5 39 be b5 22 a9 3e
       -0.14070286 -0.102446705 -0.18147795 0.33034292
000170 37 65 da bb 11 fc bd 3d bf f2 90 be 13 22 cd bd
       -0.006664898 0.092765935 -0.283102 -0.10016265
000180 8e fc 8c 3e 15 28 49 3d 06 f9 93 3e 83 15 92 bc
       0.27536434 0.04911049 0.28900927 -0.017832523
000190 27 08 ff 3b a1 ec 2b 3d 05 d2 dd 3e 80 8f 3d bf
       0.0077829543 0.041973714 0.43324295 -0.7404709
0001a0 d9 5d 7f 3e 32 64 8d 3e 09 93 81 3e 59 9f 6d 3e
       0.24938144 0.27615505 0.2530749 0.23205318
0001b0 4e 7a b4 3e ec fd ef be 6b cc c6 3e c2 cb b1 3e
       0.3524956 -0.46873415 0.38827834 0.34725767
0001c0 46 6f 03 3e 04 24 92 3e 38 28 e8 3e 8e 8c 9c be
       0.12835416 0.28543103 0.45343184 -0.30575985
0001d0 c7 f3 90 3d b3 aa e7 bd 02 88 9b bd 48 59 9a be
       0.07077747 -0.11311855 -0.07594301 -0.3014624
0001e0 e2 c8 1d 3d 3c 8a 9d be 82 57 38 be 83 1d 51 be
       0.038521655 -0.30769527 -0.18002132 -0.20421414
0001f0 81 c3 78 3e 60 89 13 3f 97 c8 d8 3d b9 06 39 be
       0.24293329 0.5763149 0.105851345 -0.1806897
000200 88 3f 57 be 59 c5 00 bf 8c cd b9 3e 7f bc b7 3d
       -0.21020329 -0.5030113 0.36289632 0.089715
000210 cb bc c3 3c d8 cf 22 be b4 b0 9e 3e 19 d3 2d be
       0.023893734 -0.15899599 0.3099419 -0.16975059
000220 f7 7a 5a be 0a 06 40 be 71 75 06 3e 9d 87 c8 be
       -0.2133597 -0.18752304 0.13130738 -0.39165965
000230 8e 55 d5 3d 36 e6 31 be 04 d7 32 3e 32 a4 b4 3e
       0.10416709 -0.17372975 0.17464834 0.3528152
000240 1e c2 a6 be 33 ed 6a be 3d f4 1b bf 98 e5 91 3e
       -0.32569975 -0.22942047 -0.60919553 0.2849548
000250 2d 9d 17 bf 0e 79 86 3e f6 1c 97 be d6 18 55 3e
       -0.59224206 0.26264232 -0.29514283 0.20810255
000260 f0 51 ad 3d fe 5f 84 3e 9a 96 70 3e fe 33 2b 3e
       0.08462894 0.25854486 0.2349495 0.16719052
000270 35 df c2 3d 61 27 b6 be 1d 57 2f be 8d 6a 97 bd
       0.095152296 -0.3557692 -0.17123075 -0.0739337
000280 46 18 25 bf 29 42 8b bd 78 1c 5d be 13 53 ac 3e
       -0.64490163 -0.067997284 -0.21592891 0.3365713
000290 22 ba 19 be a6 2d 30 3f da 31 e4 be 8c b8 4c bd
       -0.1501241 0.68819654 -0.44569284 -0.049980685
0002a0 3b ba 37 3e 43 13 95 be 9c da 82 be 29 7e 65 3e
       0.17942135 -0.29116258 -0.2555741 0.22411408
0002b0 39 97 b2 be 2d e3 92 3d 4a f0 33 3f 79 af 96 be
       -0.34881 0.071722366 0.70288527 -0.2943075
0002c0 45 ce 41 3e e0 c5 87 bd b8 e1 c1 3d 45 06 f4 be
       0.18926342 -0.066295385 0.094668806 -0.47661033
0002d0 4c c3 9e 3a 06 51 cd 3d bb ff 0c 3d dd 6c e4 be
       0.0012112646 0.100252196 0.03442357 -0.44614306
0002e0 04 82 0e 3e 53 89 d5 3e e6 08 bc 3e 30 1d b2 be
       0.13916785 0.41706333 0.3672554 -0.34787893
0002f0 b4 05 06 3e 25 da 93 3e cf a4 ec 3e 6d 35 ba 3d
       0.13088113 0.2887737 0.4621949 0.090922214
000300 55 26 88 3e 75 68 09 3f e2 8b c8 3e e6 34 99 3d
       0.26591745 0.53675014 0.39169222 0.07480793
000310 2e dc 9f 3e 90 ff 25 be d3 f0 dc be c4 9e 6d be
       0.3122267 -0.1621077 -0.43152484 -0.23205096
000320 c9 a9 7a 3e 64 42 a7 bd 95 b7 10 bd 49 0d a4 be
       0.2447883 -0.0816696 -0.035331327 -0.32041386
000330 d2 7d 24 bd cd 09 1f be 30 1f ae 3d ae e6 7a bd
       -0.040159054 -0.15531082 0.08502042 -0.06125515
000340 c9 c5 a9 be 45 9d d7 be 81 c1 37 be 77 7b 8d 3e
       -0.3315871 -0.42112175 -0.1794491 0.2763326
000350 52 06 63 be 80 d1 6d 3d 0d 87 51 be e1 5f b9 3e
       -0.2217038 0.058061123 -0.20461674 0.36205962
000360 2d c6 ef bc af 1b 07 bf 37 21 a5 3e 4d 9c 0e 3e
       -0.029269302 -0.52776617 0.32251903 0.13926812
000370 bf 8f f0 3d 11 0f 93 be 75 8c b9 3e cc 69 9c 3d
       0.117461674 -0.28722432 0.36239973 0.07637367
000380 38 6a 89 3b b7 ff f3 be 46 a5 c2 3e 6d 64 d5 3d
       0.0041935705 -0.47656032 0.3801672 0.10419545
000390 d3 c8 80 3e 4d b6 99 be f1 f0 ec 3c 58 cc e4 be
       0.25153217 -0.30021897 0.028923484 -0.44687152
0003a0 13 a8 25 3e e0 a1 d6 be 69 1f da bd 85 59 14 3e
       0.16177396 -0.41920376 -0.10650522 0.14487274
0003b0 5d 39 76 3e 15 c5 c7 3e 82 c2 75 3e 5f 14 96 be
       0.2404532 0.3901755 0.2399998 -0.29312417
0003c0 04 dd 1f be d1 57 2f be d1 0d 0a 3e c0 54 bb 3e
       -0.15611655 -0.17123343 0.13481833 0.36588097
0003d0 43 d5 ac be 68 d2 dc 3d ba 19 70 3e e8 13 11 be
       -0.33756456 0.10782319 0.23447314 -0.1416775
0003e0 ee b4 dc 3e 01 dc 02 be 6a fa 58 be c3 a8 e7 be
       0.43106788 -0.12779237 -0.21189275 -0.45245942
0003f0 a1 dc 37 3e de 8c df be f8 08 eb 3d d8 ee e7 be
       0.17955257 -0.4366216 0.1147632 -0.4529941

encoder_variable_selection.single_variable_grns.T2M.gate_norm.glu.fc.bias f4 [32]
000000 84 90 47 be 11 4d 43 be 8e 85 89 3e 02 08 7e 3e
       -0.19488722 -0.19072367 0.26859707 0.24807742
000010 75 a2 8a 3e 79 7a 67 be 37 c7 5a be 27 1c 0b be
       0.2707707 -0.22605313 -0.21365057 -0.13584958
000020 48 c1 22 3e e9 53 2b 3e 78 bc 18 be 7a 51 23 bc
       0.15894043 0.16731228 -0.14915645 -0.009968156
000030 c7 70 a8 be 1e c6 8c 3c a9 cf 74 be 4d 05 79 3d
       -0.32898542 0.017184313 -0.23907341 0.06079607
000040 fe 76 59 be 1a 8f 37 bd bf 9b 7c 3e fb e9 3b be
       -0.21236798 -0.044814207 0.24668787 -0.18350975
000050 dc a4 6b 3e 49 68 1e bb 2b 91 1a be 5a e4 a5 bd
       0.23012108 -0.0024171046 -0.1509444 -0.08100195
000060 7e d8 f0 bd ef cd 10 bd 26 df b8 3c d1 3e ef bb
       -0.117600426 -0.035352644 0.022567343 -0.0073011895
000070 95 95 5f be 6a 29 4f bc b0 07 3a bd 14 4f 6b bd
       -0.21834405 -0.012644151 -0.045417488 -0.05744846

encoder_variable_selection.single_variable_grns.T2M.gate_norm.add_norm.norm.weight f4 [16]
000000 84 b9 84 3f 5a a0 96 3f 2a eb 65 3f 40 36 40 3f
       1.0369115 1.1767685 0.89811957 0.7508278
000010 85 53 42 3f 31 0f 96 3f b7 15 9d 3f 9b e0 58 3f
       0.7590869 1.1723386 1.2272252 0.8471772
000020 7e 1a 46 3f dc d3 72 3f 76 43 58 3f d8 55 87 3f
       0.77384174 0.9485452 0.8447794 1.0573072
000030 40 cf 52 3f 99 f8 2f 3f ea ef 7f 3f 72 94 7c 3f
       0.8234749 0.68738705 0.99975455 0.9866401

encoder_variable_selection.single_variable_grns.T2M.gate_norm.add_norm.norm.bias f4 [16]
000000 16 4a 42 be 0b 58 54 be 4a e1 80 3e 52 35 86 3e
       -0.18973574 -0.2073671 0.25171882 0.26212555
000010 70 13 80 3e 60 df 63 be ea 01 71 be 0d 36 3c be
       0.2501483 -0.2225318 -0.23535886 -0.18379994
000020 29 95 49 be 3d 06 c4 bc e3 d4 58 be 56 e9 86 bc
       -0.19685806 -0.023928756 -0.2117496 -0.016468685
000030 68 5e bd be f6 4f 05 be ec f7 7e be 37 dc 03 3e
       -0.3698609 -0.13018784 -0.24899262 0.12876974
