ai_predict/ai/lightning_logs/version_11/checkpoints/epoch=2-step=24.ckpt (torch, 662004 bytes, 889 tensors)

prescalers.time_idx.weight f4 [8, 1]
-0.22395943 -0.47835782 -0.42200208 -0.71357554 0.48808697 0.21352255 0.34868997 -0.56293637
00000000: 9f55 65be 51eb f4be a810 d8be e3ac 36bf
00000010: 89e6 f93e a8a5 5a3e 7e87 b23e 991c 10bf

prescalers.time_idx.bias f4 [8]
-0.9650114 -0.027008466 0.35447416 0.41646433 1.0545638 -0.8001948 -0.054179303 0.1955044
00000000: fd0a 77bf dc40 ddbc a37d b53e d03a d53e
00000010: f2fb 863f 91d9 4cbf 1eeb 5dbd 4e32 483e

prescalers.T2M.weight f4 [8, 1]
-0.44405878 -0.9014042 0.95681584 -0.39218116 -0.44949856 -0.5791867 0.6419821 0.38572535
00000000: ac5b e3be 6dc2 66bf e2f1 743f f8cb c8be
00000010: ad24 e6be 9445 14bf f058 243f cb7d c53e

prescalers.T2M.bias f4 [8]
0.6712234 -0.5093814 -0.16063978 0.36330888 0.82269347 -0.98671347 0.9506784 0.2568958
00000000: 4cd5 2b3f d266 02bf c17e 24be 9f03 ba3e
00000010: 0a9c 523f 4199 7cbf a95f 733f d987 833e

prescalers.T2M_MAX.weight f4 [8, 1]
-0.3932798 0.12783423 -0.31520882 1.0762689 -0.3098189 0.34265324 -0.45247272 0.93131423
00000000: f85b c9be fae6 023e 0d63 a1be 2ec3 893f
00000010: 95a0 9ebe 3f70 af3e 81aa e7be 9c6a 6e3f

prescalers.T2M_MAX.bias f4 [8]
-0.5085585 0.13030896 -0.5070295 -0.58320874 -0.36734417 -0.1250181 0.7558141 1.0355594
00000000: e430 02bf b66f 053e afcc 01bf 2b4d 15bf
00000010: 8914 bcbe bf04 00be 087d 413f 368d 843f

prescalers.T2M_MIN.weight f4 [8, 1]
-0.92575204 -0.29187825 0.3743518 -0.40205526 -0.61636615 0.7387158 -0.07906491 0.25338763
00000000: 16fe 6cbf 1171 95be 0aab bf3e 30da cdbe
00000010: 2cca 1dbf 7b1c 3d3f c9ec a1bd 06bc 813e

prescalers.T2M_MIN.bias f4 [8]
-0.74586886 0.16444106 0.7183477 0.24726024 -0.56534564 -1.0729008 -0.12815566 -0.7006337
00000000: 43f1 3ebf 3d63 283e a3e5 373f ca31 7d3e
00000010: 7eba 10bf d054 89bf 3d3b 03be bb5c 33bf

prescalers.PRECTOTCORR.weight f4 [8, 1]
0.085652694 -0.122876644 0.81339556 0.21466127 -0.7777897 0.35633433 0.9503791 0.31293574
00000000: ae6a af3d c0a6 fbbd b13a 503f 2ad0 5b3e
00000010: 3a1d 47bf 7471 b63e 0b4c 733f 1d39 a03e

prescalers.PRECTOTCORR.bias f4 [8]
-1.0193274 0.118956156 -0.47022268 0.37445024 0.102546625 0.7765787 0.7855979 0.6915637
00000000: 5279 82bf 499f f33d 07c1 f0be f1b7 bf3e
00000010: f703 d23d ddcd 463f f21c 493f 520a 313f

prescalers.RH2M.weight f4 [8, 1]
0.5875413 -0.46862945 -0.6935489 0.2152773 0.10481516 -0.35285044 0.98364806 -0.35088888
00000000: 1b69 163f 33f0 efbe 6c8c 31bf a771 5c3e
00000010: 55a9 d63d d0a8 b4be 5cd0 7b3f b5a7 b3be

prescalers.RH2M.bias f4 [8]
-0.9167328 0.7622886 0.56198466 0.79222447 -0.19990678 -0.61122686 0.9949757 -0.717474
00000000: 00af 6abf 5825 433f 3ade 0f3f 39cf 4a3f
00000010: 5db4 4cbe 5d79 1cbf bab6 7e3f 60ac 37bf

prescalers.ALLSKY_SFC_SW_DWN.weight f4 [8, 1]
-0.64994323 0.31199533 0.0014780973 0.036456086 0.84711784 -0.7943913 0.0027471427 -0.018139869
00000000: ae62 26bf dabd 9f3e b7bc c13a fa52 153d
00000010: b7dc 583f 3a5d 4bbf 6809 343b 109a 94bc

prescalers.ALLSKY_SFC_SW_DWN.bias f4 [8]
0.34013894 -0.54680204 -0.5866479 -0.8546164 0.58830786 -0.033727035 0.242052 -0.08687352
00000000: b126 ae3e 38fb 0bbf 8f2e 16bf 24c8 5abf
00000010: 589b 163f 5c25 0abd 7bdc 773e beea b1bd

prescalers.numero_casos.weight f4 [8, 1]
-0.7831857 -0.013351682 -0.33143806 0.41826013 -0.9919331 -0.12672715 0.7538276 0.28782916
00000000: dc7e 48bf 03c1 5abc 40b2 a9be 3126 d63e
00000010: 54ef 7dbf c3c4 01be d8fa 403f 585e 933e

prescalers.numero_casos.bias f4 [8]
0.4832454 -0.10944286 0.29154646 -0.5605534 0.8860708 -0.59148496 -0.119194224 0.9398218
00000000: f16b f73e 9423 e0bd 9445 953e 6d80 0fbf
00000010: 89d5 623f 8f6b 17bf 1a1c f4bd 2998 703f

static_variable_selection.single_variable_grns.municipio.mask f4 [16]
0.16569112 0.16565856 -0.16567683 -0.16567716 -0.16569269 0.1656896 -0.16569404 -0.16569647
-0.16569124 -0.16568698 0.16568941 -0.16568984 0.16569883 0.16568848 0.16569397 -0.16568054
00000000: efaa 293e 66a2 293e 30a7 29be 46a7 29be
00000010: 58ab 29be 89aa 293e b3ab 29be 56ac 29be
00000020: f7aa 29be d9a9 29be 7caa 293e 99aa 29be
00000030: f4ac 293e 3eaa 293e aeab 293e 29a8 29be

static_variable_selection.single_variable_grns.municipio.norm.weight f4 [16]
1.0773467 0.7984966 0.9813296 0.8245303 1.2746934 0.97078156 1.1573335 1.1607944
1.1290734 0.85284036 0.95016384 0.9524644 1.2784122 0.90795493 1.119627 0.7896059
00000000: 7fe6 893f 466a 4c3f 6b38 7b3f 6b14 533f
00000010: 2729 a33f 2485 783f 8123 943f e994 943f
00000020: 7a85 903f bf53 5a3f f03d 733f b5d4 733f
00000030: 03a3 a33f bc6f 683f f04f 8f3f 9d23 4a3f

static_variable_selection.single_variable_grns.municipio.norm.bias f4 [16]
0.16573104 0.16521508 0.16553178 -0.1651095 -0.16575153 0.16571149 -0.16578886 -0.16584001
-0.16570905 -0.16554609 0.16566046 -0.16569057 0.16588308 0.16567573 0.16578506 -0.16535823
00000000: 66b5 293e 242e 293e 2a81 293e 7712 29be
00000010: c5ba 29be 46b0 293e 8ec4 29be f7d1 29be
00000020: a2af 29be ea84 29be e5a2 293e caaa 29be
00000030: 41dd 293e e6a6 293e 8fc3 293e ab53 29be

encoder_variable_selection.flattened_grn.resample_norm.mask f4 [8]
-0.14139841 0.1823074 0.09332323 0.10268675 0.17811 -0.12679048 -0.15736997 -0.1302443
00000000: bfca 10be cbae 3a3e 4020 bf3d 6e4d d23d
00000010: 7862 363e 5dd5 01be 9825 21be c35e 05be

encoder_variable_selection.flattened_grn.resample_norm.norm.weight f4 [8]
0.93773776 1.2186263 1.1115239 1.1493078 1.2076387 1.1552418 0.840262 0.9465818
00000000: 950f 703f f2fb 9b3f 6a46 8e3f 851c 933f
00000010: e893 9a3f f7de 933f 691b 573f 2f53 723f

encoder_variable_selection.flattened_grn.resample_norm.norm.bias f4 [8]
0.083131015 -0.18037258 -0.102726154 0.15295887 0.21846333 0.1524058 -0.15955837 -0.0674526
00000000: 9840 aa3d 97b3 38be 1762 d2bd 40a1 1c3e
00000010: dab4 5f3e 4410 1c3e 4563 23be 9724 8abd

encoder_variable_selection.flattened_grn.fc1.weight f4 [8, 64]
-0.18188412 -0.2943399 0.2823927 0.105963685 0.021581044 -0.37183094 -0.49535307 0.611502
0.22932307 -0.10188154 -0.068067044 0.0969957 0.24500316 0.21009327 0.030461628 0.056878902
-0.12150974 -0.1176686 0.15508264 0.06381931 -0.054785464 -0.08156455 -0.053838767 -0.20231698
0.18435797 -0.25508946 -0.23176548 0.21866398 0.37365702 -0.2521673 0.19106306 -0.120451696
-0.008163237 -0.15124659 0.2475969 -0.0530812 -0.03552887 0.2750671 -0.03922677 -0.18433268
0.025786271 -0.40695027 0.2704588 0.16240995 -0.021435957 -0.38152844 0.027727718 -0.08534182
0.09509351 -0.016295748 -0.13228014 -0.00031692535 0.06169248 -0.14397806 -0.11550688 -0.3592457
-0.1568836 0.03170485 -0.0207517 -0.06152176 0.15910716 -0.0040211203 -0.57445276 -0.03615302
0.18427959 0.73373765 0.28575858 -0.19566274 -0.4500229 0.1949026 0.24438734 0.20145904
0.03563495 0.22197613 -0.28747243 0.19795536 -0.06751589 -0.10969167 0.1799858 -0.33624104
0.15828331 0.18005176 0.26773876 -0.07686577 0.2609455 -0.20616245 -0.05365159 -0.0038299127
0.2367745 0.119740784 0.13674474 0.1007572 0.15472943 0.046664435 0.036846716 0.12815769
0.20407946 0.11048135 0.2949889 -0.08739308 0.16721685 -0.37946582 -0.22046517 -0.2747733
-0.043309234 -0.4424831 -0.14946948 -0.40104425 0.36985934 0.091091946 -0.2279191 0.19509234
-0.2817484 -0.19220626 0.29761156 0.039654754 -0.013286262 0.051395934 -0.5616775 0.22555582
-0.26359227 0.22293283 -0.16692162 0.262844 -0.07263676 0.045760036 0.18085058 -0.29513147
-0.06000508 -0.051953256 -0.4296421 -0.099504225 -0.2388074 0.05100762 0.3143857 0.16100763
-0.30910584 0.3773744 -0.08135014 0.06108211 -0.3748618 0.2686753 -0.14453565 -0.344215
0.050940875 0.14477433 0.26415285 0.10825991 -0.06769805 -0.19450386 0.005717366 -0.19915336
0.093431935 0.061172448 -0.10712964 -0.07705339 0.3667 0.45299166 0.002566189 0.14305477
0.5507509 0.08506978 0.03948706 -0.19891547 -0.25554192 -0.13665374 0.012412247 -0.17734627
-0.027780756 -0.10304725 0.087174796 -0.25528154 -0.00081814395 0.2739726 -0.06461613 0.2584781
-0.30790645 0.25101522 0.18865106 0.34533745 -0.20407303 0.22588435 -0.38370773 -0.2222209
0.07367807 0.06909967 0.16007195 0.33431965 -0.23022348 0.3631119 -0.067199394 -0.042653985
-0.15811014 -0.11109508 -0.004679134 -0.37155932 0.21990104 -0.36143422 0.3223671 -0.07065943
-0.23595189 0.014623289 -0.017324494 -0.1862373 0.19892153 -0.095539704 0.3063453 0.112680614
-0.43010944 -0.10448416 -0.37242758 0.63814545 -0.22781284 0.2954419 0.013282375 0.1959693
0.051862314 -0.18438902 0.070462175 -0.17996632 -0.14655626 0.052981373 -0.10588753 -0.20426153
-0.046107154 -0.15540564 0.06657833 0.05772921 0.399818 0.3383174 0.18841472 0.16631177
-0.1376817 0.14949606 0.015070183 0.20046166 -0.39854226 -0.3561319 -0.26666078 -0.04552569
0.35738075 -0.31147686 -0.257657 -0.116958514 0.7929493 0.1519107 0.010665901 -0.28994417
0.15170594 -0.25364435 0.05965238 -0.17966475 0.2803219 -0.013502571 -0.3785031 0.093563415
00000000: d53f 3abe b8b3 96be c795 903e 7d03 d93d
00000010: bbca b03c a060 bebe eb9e fdbe 658b 1c3f
00000020: abd3 6a3e 45a7 d0bd bc66 8bbd aea5 c63d
00000030: 1ce2 7a3e b122 573e aa8a f93c daf9 683d
00000040: 19da f8bd 3cfc f0bd fccd 1e3e b3b3 823d
00000050: b966 60bd 510b a7bd 0a86 5cbd 2f2c 4fbe
00000060: 56c8 3c3e 169b 82be ee53 6dbe 73e9 5f3e
00000070: f94f bf3e 131c 81be 09a6 433e 61af f6bd
00000080: 19bf 05bc 63e0 1abe 0b8a 7d3e ac6b 59bd
00000090: b886 11bd 98d5 8c3e 40ac 20bd b5c1 3cbe
000000a0: bb3d d33c c95b d0be 9379 8a3e cb4e 263e
000000b0: 769a afbc b257 c3be 3d25 e33c b1c7 aebd
000000c0: 63c0 c23d a97e 85bc 7274 07be 0029 a6b9
000000d0: 41b1 7c3d fc6e 13be df8e ecbd 0def b7be
000000e0: 18a6 20be f2dc 013d 78ff a9bc 3efe 7bbd
000000f0: fdec 223e 9ac3 83bb 560f 13bf 3015 14bd
00000100: cab3 3c3e 3bd6 3b3f f34e 923e d05b 48be
00000110: 6769 e6be 8c94 473e ad40 7a3e 474b 4e3e
00000120: f4f5 113d b64d 633e 962f 93be cfb4 4a3e
00000130: c545 8abd 07a6 e0bd 334e 383e c927 acbe
00000140: 0515 223e 7d5f 383e 0e15 893e cd6b 9dbd
00000150: a69a 853e 401c 53be c5c1 5bbd 46ff 7abb
00000160: 0475 723e a83a f53d d006 0c3e ca59 ce3d
00000170: 6471 1e3e 3523 3f3d 95ec 163d c53b 033e
00000180: 35fa 503e 0c44 e23d c908 973e 25fb b2bd
00000190: e53a 2b3e 5849 c2be 9fc1 61be 16af 8cbe
000001a0: 0665 31bd 258d e2be 870e 19be ac55 cdbe
000001b0: 345e bd3e 6a8e ba3d a063 69be 49c6 473e
000001c0: 5441 90be b8d1 44be 8b60 983e 066d 223d
000001d0: 9fae 59bc 8b84 523d 19ca 0fbf 1bf8 663e
000001e0: 91f5 86be 8148 643e 80ed 2abe 7d93 863e
000001f0: 95c2 94bd e06e 3b3d e530 393e 791b 97be
00000200: e3c7 75bd f0cc 54bd 0dfa dbbe dfc8 cbbd
00000210: ed89 74be 5eed 503d 2af7 a03e 2fdf 243e
00000220: 1f43 9ebe 3837 c13e e79a a6bd 3c31 7a3d
00000230: e3ed bfbe cf8f 893e 2701 14be f33c b0be
00000240: 61a7 503d b93f 143e 0b3f 873e 5fb7 dd3d
00000250: 46a5 8abd 052c 47be be58 bb3b dcee 4bbe
00000260: 3e59 bf3d f68f 7a3d c966 dbbd 2bce 9dbd
00000270: 1ac0 bb3e 86ee e73e 822d 283b f37c 123e
00000280: 03fe 0c3f 1139 ae3d 2fbd 213d 7fb0 4bbe
00000290: 64d6 82be f5ee 0bbe bd5c 4b3c 439a 35be
000002a0: 7894 e3bc 700a d3bd b388 b23d 43b4 82be
000002b0: b678 56ba 2346 8c3e 7655 84bd 3e57 843e
000002c0: eaa5 9dbe 1185 803e be2d 413e 12d0 b03e
000002d0: 85f8 50be 3a4e 673e 5775 c4be e08d 63be
000002e0: 87e4 963d 2184 8d3d e7e9 233e f22b ab3e
000002f0: b4bf 6bbe cee9 b93e d69f 89bd f2b5 2ebd
00000300: a0e7 21be d185 e3bd 6c53 99bb 063d bebe
00000310: bd2d 613e e80d b9be 4d0d a53e e4b5 90bd
00000320: 5f9d 71be 8596 6f3c 19ec 8dbc feb4 3ebe
00000330: 16b2 4b3e 52aa c3bd 4bd9 9c3e 18c5 e63d
00000340: 4e37 dcbe cbfb d5bd d4ae bebe 805d 233f
00000350: c547 69be 2944 973e 529e 593c 2dac 483e
00000360: 946d 543d 7ad0 3cbe 794e 903d 1749 38be
00000370: d812 16be ff02 593d 90db d8bd ef29 51be
00000380: dbda 3cbd a822 1fbe 385a 883d 7775 6c3d
00000390: f2b4 cc3e f037 ad3e caef 403e a24d 2a3e
000003a0: 6efc 0cbe 7f15 193e eee8 763c d245 4d3e
000003b0: bb0d ccbe ec56 b6be c387 88be 2579 3abd
000003c0: 9cfa b63e e579 9fbe 9eeb 83be f287 efbd
000003d0: bafe 4a3f 7b8e 1b3e 08c0 2e3c 9073 94be
000003e0: cd58 1b3e acdd 81be 0e56 743d 09fa 37be
000003f0: 5a86 8f3e e339 5dbc 29cb c1be 2d9e bf3d

encoder_variable_selection.flattened_grn.fc1.bias f4 [8]
0.06503483 -0.18533902 -0.17818104 0.15626794 -0.16608612 -0.17172106 0.079712905 -0.14460702
00000000: fb30 853d 83c9 3dbe 1775 36be b404 203e
00000010: 7b12 2abe a5d7 2fbe 8540 a33d dd13 14be

encoder_variable_selection.flattened_grn.context.weight f4 [8, 16]
-0.2273559 0.5719883 -0.0054139025 -0.25889915 -0.039036803 0.31905848 0.10775463 0.33694133
-0.25706974 0.16754824 -0.4146577 0.37759066 -0.07494498 0.1528781 0.46075204 0.0077325385
-0.3986329 -0.30637938 0.21553488 -0.40414372 0.51687926 0.30567884 -0.21197858 0.20907737
-0.29181135 0.08380955 -0.064231716 0.33200416 -0.3152117 -0.35627443 -0.04646901 0.3895098
-0.05845821 0.34989733 -0.031604886 -0.6373178 -0.14409949 0.74561393 0.5894932 0.3826812
0.4085174 -0.32205063 -0.5670082 -0.23952028 -0.10905656 0.29651555 0.3398438 -0.10892777
0.4315561 -0.24449487 -0.34161866 -0.21492039 -0.5060862 0.36457112 0.37298062 -0.35508832
-0.14085482 -0.2368021 -0.22783947 -0.45220304 0.21287324 -0.15119444 0.17531988 0.19451588
0.37871832 0.00054644945 0.21391508 0.113225825 0.321376 -0.048898384 -0.75339913 0.2709006
0.49907836 -0.27053687 0.61841834 0.5694242 0.03871855 0.15844235 -0.046668034 -0.4059482
-0.48188326 -0.4306966 -0.49166536 -0.09162387 -0.018704742 -0.08613251 0.17864785 -0.23079325
-0.1202734 -0.112578794 -0.29532525 -0.3327522 0.23541385 -0.005897354 -0.11646448 0.3375602
0.09821706 -0.25887725 -0.0023813013 0.14139012 0.52443373 -0.37542203 -0.105447784 0.15111093
0.68785244 -0.1441782 -0.5674648 -0.6335435 0.13094932 0.5632578 -0.57368314 0.52330375
-0.18622188 -0.12348087 0.4437645 -0.105054855 -0.37664226 -0.5344412 0.2479173 -0.2108535
0.04168088 -0.3278464 0.6519705 -0.3149211 -0.18972833 -0.47195607 -0.29684815 -0.42741224
00000000: fccf 68be d36d 123f 1b67 b1bb 6e8e 84be
00000010: 0ee5 1fbd a25b a33e 76ae dc3d 9383 ac3e
00000020: a59e 83be c491 2b3e 044e d4be 9053 c13e
00000030: c17c 99bd 148c 1c3e b1e7 eb3e 3c61 fd3b
00000040: 9d19 ccbe c2dd 9cbe 2db5 5c3e edeb cebe
00000050: 3352 043f f081 9c3e ea10 59be 6118 563e
00000060: 4c68 95be 57a4 ab3d eb8b 83bd 73fc a93e
00000070: 6e63 a1be 9a69 b6be 4a56 3ebd d46d c73e
00000080: e071 6fbd be25 b33e 2074 01bd 4227 23bf
00000090: d18e 13be 8ee0 3e3f 07e9 163f caee c33e
000000a0: 3129 d13e d2e3 a4be 7327 11bf ce44 75be
000000b0: 0c59 dfbd e3d0 973e 0200 ae3e 8615 dfbd
000000c0: ecf4 dc3e dd5c 7abe a4e8 aebe 1714 5cbe
000000d0: dd8e 01bf 11a9 ba3e 51f7 be3e 23ce b5be
000000e0: 3f3c 10be 407c 72be c04e 69be 2887 e7be
000000f0: 71fb 593e b7d2 1abe 0e87 333e 2c2f 473e
00000100: 5ee7 c13e 9a3f 0f3a 8e0c 5b3e f1e2 e73d
00000110: 658b a43e ac49 48bd c4de 40bf 7cb3 8a3e
00000120: 3387 ff3e cf83 8abe aa50 1e3f c9c5 113f
00000130: 5897 1e3d b63e 223e fb26 3fbd 71d8 cfbe
00000140: 67b9 f6be 4484 dcbe 90bb fbbe 4ca5 bbbd
00000150: b03a 99bc 3e66 b0bd 76ef 363e 1155 6cbe
00000160: e651 f6bd b68f e6bd df34 97be 7f5e aabe
00000170: 5410 713e 973e c1bb ee84 eebd b1d4 ac3e
00000180: 0726 c93d 8f8b 84be 9b0f 1cbb 92c8 103e
00000190: 4a41 063f 5137 c0be 02f5 d7bd d3bc 1a3e
000001a0: 1917 303f 73a3 13be 6045 11bf e82f 22bf
000001b0: 9417 063e aa31 103f e6dc 12bf 3cf7 053f
000001c0: f3b0 3ebe 8ae3 fcbd 1a35 e33e 0027 d7bd
000001d0: 41d7 c0be 23d1 08bf 08de 7d3e fbe9 57be
000001e0: 92b9 2a3d 7cdb a7be 8ae7 263f 573d a1be
000001f0: 2548 42be 3aa4 f1be 7bfc 97be c7d5 dabe

encoder_variable_selection.flattened_grn.fc2.weight f4 [8, 8]
-0.9392369 0.36859283 -0.15843457 -1.2026504 0.33609995 0.77930266 0.7891579 -0.26385096
0.15637755 -1.0058863 0.5221805 0.5752365 -0.47549883 -0.23936681 0.08550343 -0.6366084
0.014662815 0.019817628 -0.29869938 0.16164169 0.33332306 0.2477482 0.09436243 0.022975003
0.61982155 -0.047533415 -0.17414181 -0.16897082 -0.14454742 -0.38846833 0.08157333 -0.26736993
0.21174115 -0.60599434 1.1907712 -0.88126105 0.34957674 -0.5807099 -0.67013174 -0.2145
-0.1705889 -0.5821778 -0.5122898 0.7203306 -0.06586029 -0.3558623 0.20151965 -0.26722342
0.060002543 0.21040985 0.25248054 -0.3554148 -0.016362239 -0.041009773 0.286964 0.8459249
0.07993958 -0.90386033 -0.67299795 -0.1505422 -0.24854185 0.07125427 -0.91054046 0.18779975
00000000: d471 70bf 33b8 bc3e ac3c 22be 73f0 99bf
00000010: 4b15 ac3e 6180 473f 4106 4a3f 7917 87be
00000020: 7021 203e e2c0 80bf 9fad 053f b342 133f
00000030: 9574 f3be 931c 75be 6c1c af3d c5f8 22bf
00000040: 4e3c 703c 9458 a23c 20ef 98be 6685 253e
00000050: 52a9 aa3e b4b1 7d3e 1741 c13d 1336 bc3c
00000060: a0ac 1e3f 66b2 42bd 3b52 32be b006 2dbe
00000070: 3d04 14be 52e5 c6be eb0f a73d b6e4 88be
00000080: acd2 583e 7222 1bbf 316b 983f 539a 61bf
00000090: b9fb b23e 67a9 14bf c18d 2bbf e3a5 5bbe
000000a0: dbae 2ebe 9b09 15bf 6d25 03bf 9667 383f
000000b0: c2e1 86bd 9533 b6be 2b5b 4e3e 82d1 88be
000000c0: 3ac5 753d ae75 573e 2145 813e eef8 b5be
000000d0: 1a0a 86bc ddf9 27bd f2ec 923e 898e 583f
000000e0: 5db7 a33d 6463 67bf 9849 2cbf bc27 1abe
000000f0: c181 7ebe c2ed 913d 2e19 69bf 944e 403e

encoder_variable_selection.flattened_grn.fc2.bias f4 [8]
-0.15839693 0.14339563 0.10956489 0.09542444 -0.1628518 0.15320824 0.09534483 -0.06573924
00000000: ce32 22be 4ed6 123e 8f63 e03d e46d c33d
00000010: 9fc2 26be 9fe2 1c3e 2644 c33d 4ba2 86bd

encoder_variable_selection.flattened_grn.gate_norm.glu.fc.weight f4 [16, 8]
0.61051476 -0.4522746 -0.07355119 0.12843995 -0.21265453 -0.041765116 0.5354773 -0.19574498
0.22562726 -0.22267267 -0.35285646 0.053755205 0.26718947 -0.12158742 0.2599393 -0.31332052
-0.13483591 -0.06970738 0.10604132 0.26788506 -0.5977066 0.44464582 0.22576103 0.3958304
0.4192246 0.24651776 0.41289252 -0.1388996 -0.089385845 0.06910445 0.04173612 -0.19216076
0.26209804 -0.63269 0.08727779 0.32490724 -0.5129441 0.20431302 0.08986971 0.07548997
-0.35747465 0.26433063 0.035028268 0.14555436 -0.15346687 0.32377928 0.25457507 -0.34548533
0.1368647 0.38421056 0.06114539 -0.105765834 0.61347294 0.070232354 -0.6604646 0.39576313
0.4330875 -0.5106261 -0.46772352 0.26275596 -0.5241993 0.3271774 0.08645629 -0.29728872
-0.4509334 -0.049357813 0.11986665 -0.37228686 0.17717607 0.11874469 0.043070614 0.10013217
-0.60546136 -0.2683493 0.21348438 -0.18610771 0.41547316 0.74118674 -0.23481236 0.56353325
0.16367944 -0.19476879 0.086525865 0.14367297 -0.1399824 0.24036348 0.41743267 -0.2938152
0.122816294 0.08258347 -0.00693234 -0.23320913 0.38454843 0.13914038 -0.093922876 -0.31408826
0.06616965 -0.6035405 -0.005209173 -0.032541838 0.09020089 -0.14331363 -0.07463424 -0.33982652
-0.20758368 0.059624076 -0.102948256 -0.20440687 0.17844681 -0.075120606 -0.07611642 -0.33511162
0.33428442 0.061886135 -0.4761094 -0.3350039 -0.08589765 0.28743464 -0.06832099 0.01281175
0.17743303 -0.30221698 0.32363647 0.16530313 0.36716583 -0.17443588 0.571846 -0.30732483
00000000: b24a 1c3f 8990 e7be 02a2 96bd c385 033e
00000010: 1cc2 59be e611 2bbd 0a15 093f 5f71 48be
00000020: d50a 673e 4e04 64be 9aa9 b4be 6b2e 5c3d
00000030: 0fcd 883e d302 f9bd c416 853e 8c6b a0be
00000040: 6d12 0abe bec2 8ebd 312c d93d 3b28 893e
00000050: 4d03 19bf 9ea8 e33e e62d 673e 48aa ca3e
00000060: 9ba4 d63e 276f 7c3e a666 d33e b23b 0ebe
00000070: ed0f b7bd a286 8d3d 7ef3 2a3d cac5 44be
00000080: b731 863e f9f7 21bf b3be b23d 3e5a a63e
00000090: 4e50 03bf 6f37 513e 9c0d b83d 7c9a 9a3d
000000a0: eb06 b7be 5856 873e cd79 0f3d 340c 153e
000000b0: 6b26 1dbe 66c6 a53e aa57 823e 74e3 b0be
000000c0: 4326 0c3e 3fb7 c43e 9773 7a3d c29b d8bd
000000d0: 900c 1d3f fbd5 8f3d 3514 29bf 77a1 ca3e
000000e0: a5bd dd3e 64b8 02bf 7579 efbe f387 863e
000000f0: ed31 06bf cc83 a73e ff0f b13d 3a36 98be
00000100: bee0 e6be 6b2b 4abd a57c f53d 629c bebe
00000110: a56d 353e 6b30 f33d d06a 303d 1812 cd3d
00000120: 84ff 1abf 1465 89be a69b 5a3e 0593 3ebe
00000130: e6b8 d43e 6abe 3d3f a772 70be b743 103f
00000140: 959b 273e 7871 47be 7934 b13d 021f 133e
00000150: 8c57 0fbe d821 763e bcb9 d53e f26e 96be
00000160: 1c87 fb3d 8621 a93d af28 e3bb 60ce 6ebe
00000170: 88e3 c43e d17a 0e3e a35a c0bd 2dd0 a0be
00000180: f483 873d a181 1abf b6b1 aabb 974a 05bd
00000190: 3fbb b83d cfc0 12be d6d9 98bd befd adbe
000001a0: d190 54be 6038 743d 89d6 d2bd 0950 51be
000001b0: c3ba 363e d5d8 99bd ede2 9bbd c093 abbe
000001c0: 5427 ab3e 517c 7d3d 9cc4 f3be a285 abbe
000001d0: 1beb afbd a22a 933e e0eb 8bbd 60e8 513c
000001e0: 01b1 353e 2fbc 9abe aeb3 a53e 3945 293e
000001f0: 29fd bb3e 529f 32be 8064 123f ae59 9dbe

encoder_variable_selection.flattened_grn.gate_norm.glu.fc.bias f4 [16]
-0.018747017 -0.1875456 -0.13352528 0.14562453 0.18467812 0.1390656 -0.16157398 -0.123779505
0.224111 -0.1435423 -0.017499235 -0.25032526 0.20331031 0.081128106 0.14887486 0.046807136
00000000: 5893 99bc f40b 40be daba 08be 991e 153e
00000010: 431c 3d3e 3667 0e3e a673 25be 1c80 fdbd
00000020: 5b7d 653e c1fc 12be 8e5a 8fbc a22a 80be
00000030: 9430 503e 7e26 a63d a772 183e d7b8 3f3d

encoder_variable_selection.flattened_grn.gate_norm.add_norm.norm.weight f4 [8]
0.7872149 0.81518686 1.0556749 0.9901873 1.0790184 1.0294741 0.81647116 1.0525506
00000000: ea86 493f 16b0 503f 5b20 873f ea7c 7d3f
00000010: 461d 8a3f cfc5 833f 4104 513f fab9 863f

encoder_variable_selection.flattened_grn.gate_norm.add_norm.norm.bias f4 [8]
0.20097268 -0.15352498 -0.09108985 0.10404833 0.1445969 0.1101754 -0.1482124 -0.037382055
00000000: c8cb 4d3e a735 1dbe 518d babd 4a17 d53d
00000010: 3611 143e a4a3 e13d fec4 17be ed1d 19bd

encoder_variable_selection.single_variable_grns.time_idx.resample_norm.mask f4 [16]
0.17168252 -0.17485487 -0.119747184 0.14361767 -0.1748775 0.121658154 -0.16508524 -0.175367
-0.15778439 0.17377241 0.23199183 0.17726773 -0.1727309 0.16497503 0.11293142 -0.19410656
00000000: 8bcd 2f3e 280d 33be 033e f5bd 8310 133e
00000010: 1613 33be e927 f93d 1b0c 29be 6893 33be
00000020: 3b92 21be 65f1 313e 448f 6d3e ac85 353e
00000030: 5ee0 30be 37ef 283e 9748 e73d dfc3 46be

encoder_variable_selection.single_variable_grns.time_idx.resample_norm.norm.weight f4 [16]
1.171482 0.8230182 0.867545 0.77944833 0.8316334 1.1509491 0.8329947 0.8168864
0.8397793 1.1721817 1.3551687 1.1628315 0.82610947 1.1423664 1.1365734 0.8133168
00000000: 1ff3 953f 52b1 523f 6e17 5e3f ed89 473f
00000010: ede5 543f 4d52 933f 243f 553f 781f 513f
00000020: c7fb 563f 0d0a 963f 2b76 ad3f aad7 943f
00000030: e97b 533f 1039 923f 3d7b 913f 8835 503f

encoder_variable_selection.single_variable_grns.time_idx.resample_norm.norm.bias f4 [16]
-0.17020096 0.17758025 0.13813603 0.1617322 -0.15618528 0.18149987 -0.17271689 -0.18637204
-0.15984568 0.17474431 -0.16547586 -0.17743087 0.17226997 -0.17899124 -0.1497846 0.17798476
00000000: 2949 2ebe 99d7 353e 8873 0d3e 209d 253e
00000010: 09ef 1fbe 1adb 393e b2dc 30be 50d8 3ebe
00000020: 96ae 23be 2cf0 323e 8172 29be 70b0 35be
00000030: 8a67 303e 7b49 37be 2261 19be a341 363e

encoder_variable_selection.single_variable_grns.time_idx.fc1.weight f4 [8, 8]
0.5469231 0.4897342 -0.47691542 -0.35892785 -0.6932319 0.2370891 -0.25106674 -0.41149595
-0.48213187 -0.05486498 -0.24258964 -0.25033638 0.33282122 0.36078817 -0.5356214 -0.459626
0.11892826 0.3305716 -0.0046126395 0.39316478 -0.239918 -0.6145803 -1.2718072 0.15448761
-0.0018388638 0.13240145 -0.47167295 -0.31876624 0.8002647 -0.55136204 0.42532277 -0.32885623
0.4079721 0.1629341 -0.03833293 -0.5022935 1.1825966 1.2635806 0.65470093 0.030575886
0.5306295 0.5951501 -0.47955093 -0.633437 -0.42139482 0.5449162 -0.09609983 0.6612003
-1.0108901 -0.44178635 -0.14770183 -0.00070238765 0.35165966 -1.0356729 -0.9580682 -0.47706142
0.33236673 0.060022596 1.228584 0.26896024 0.73950386 0.0024553447 0.32340375 0.35550094
00000000: 2703 0c3f 71be fa3e 422e f4be 64c5 b7be
00000010: a577 31bf 7cc7 723e d28b 80be 99af d2be
00000020: fdd9 f6be 1aba 60bd 6b69 78be 172c 80be
00000030: 8b67 aa3e 3ab9 b83e 7c1e 09bf 1954 ebbe
00000040: a990 f33d ae40 a93e a025 97bb e54c c93e
00000050: 10ad 75be 2255 1dbf 94ca a2bf 0032 1e3e
00000060: 0806 f1ba 3f94 073e 1e7f f1be 5435 a3be
00000070: 26de 4c3f 1026 0dbf e8c3 d93e d85f a8be
00000080: b8e1 d03e 32d8 263e fe02 1dbd 4f96 00bf
00000090: 535f 973f 02bd a13f 7b9a 273f 487a fa3c
000000a0: 56d7 073f c25b 183f b387 f5be ed28 22bf
000000b0: 10c1 d7be a17f 0b3f fdcf c4bd 6c44 293f
000000c0: d964 81bf d231 e2be 263f 17be 7020 38ba
000000d0: bc0c b43e ee90 84bf f543 75bf 6541 f4be
000000e0: f92b aa3e 41da 753d 3e42 9d3f 28b5 893e
000000f0: 2050 3d3f d9e9 203b 2d95 a53e 3804 b63e

encoder_variable_selection.single_variable_grns.time_idx.fc1.bias f4 [8]
-0.16447148 0.12900184 -0.18258356 0.028940633 -0.19169693 -0.182081 0.18517856 -0.121624745
00000000: 366b 28be 0f19 043e 2ff7 3abe e814 ed3c
00000010: 334c 44be 7173 3abe 739f 3d3e 6516 f9bd

encoder_variable_selection.single_variable_grns.time_idx.fc2.weight f4 [8, 8]
1.735 -0.81122273 1.0712714 -0.19489309 0.103309184 0.2433484 -0.82399124 0.44312856
0.45017374 1.1301275 -0.34771928 0.049587812 0.31955537 -0.19815037 -0.44789734 -0.38371179
-0.99164194 0.4015679 0.2721158 0.6131097 -0.014381601 0.27914906 0.24384822 -0.26681858
-0.75481075 0.13594612 0.13137408 0.0050843884 0.06097187 -0.24129173 -0.2906539 -0.5138856
0.26689646 0.014754473 -0.022822978 -0.23903859 -0.30255046 -0.17604032 -0.24788404 -0.3023364
-0.6303138 0.33837545 -0.06120658 -0.3931273 -0.6202922 -0.8599099 0.50489557 0.7917028
0.115318865 -0.2535186 -0.2286817 -0.87293434 -0.33592024 0.5325267 -0.05878851 0.35526022
0.49909568 0.044569746 0.30098584 0.29141968 0.35445818 -0.81868845 -0.14523073 0.60145104
00000000: 7b14 de3f 4bac 4fbf 6c1f 893f 0e92 47be
00000010: c493 d33d 5330 793e 17f1 52bf bfe1 e23e
00000020: 2c7d e63e 05a8 903f 4308 b2be 971c 4b3d
00000030: c39c a33e eee7 4abe cd52 e5be df75 c4be
00000040: 3fdc 7dbf 4f9a cd3e c352 8b3e c2f4 1c3f
00000050: cea0 6bbc a0ec 8e3e 59b3 793e 729c 88be
00000060: 473b 41bf 7635 0b3e ed86 063e f19a a63b
00000070: a4bd 793d 2e15 77be 97d0 94be 028e 03bf
00000080: a7a6 883e bfbc 713c 41f7 babc 88c6 74be
00000090: e5e7 9abe ea43 34be 50d5 7dbe d6cb 9abe
000000a0: 3f5c 21bf 8c3f ad3e c0b3 7abd fb47 c9be
000000b0: 78cb 1ebf 0e23 5cbf d640 013f 09ad 4a3f
000000c0: 4c2c ec3d 31cd 81be 892b 6abe a078 5fbf
000000d0: bdfd abbe ab53 083f 38cc 70bd abe4 b53e
000000e0: 7889 ff3e c48e 363d d11a 9a3e f634 953e
000000f0: 8b7b b53e 9195 51bf 5db7 14be b2f8 193f

encoder_variable_selection.single_variable_grns.time_idx.fc2.bias f4 [8]
-0.13096043 -0.17821667 0.153157 0.15898448 -0.08173964 0.18069814 -0.17089954 0.16570099
00000000: 7e1a 06be 6e7e 36be 30d5 1c3e d4cc 223e
00000010: 1d67 a7bd ef08 393e 4a00 2fbe 85ad 293e

encoder_variable_selection.single_variable_grns.time_idx.gate_norm.glu.fc.weight f4 [32, 8]
0.14843324 -0.17430872 -0.11609818 -0.094862625 0.51694816 -0.51412493 0.41327482 -0.24313809
0.14631449 -0.26816514 0.085914865 0.21484935 0.20548001 0.55605686 0.31833333 -0.0014396632
0.0827569 -0.11463085 0.18219925 -0.40967703 0.22550489 0.11157988 0.51539105 0.1035356
0.18863557 -0.49070936 -0.06871476 0.20262462 -0.49008268 0.26800886 0.16855133 0.14403147
0.28840548 -0.010266069 -0.19406472 0.00437331 -0.23517841 0.045130428 0.09899733 -0.15400247
-0.43357384 0.28872168 0.33508587 -0.2906033 0.0634909 0.29997694 0.096332476 0.057720006
0.3679677 0.03913725 -0.15358362 0.23492686 0.14064342 -0.20582569 -0.36433184 -0.02229243
0.42652717 0.1023637 -0.32653725 0.08519601 0.3863284 -0.44813493 0.2886537 -0.37560782
-0.21560699 0.42247483 -0.18340322 0.07153127 0.3715321 -0.33671433 -0.26258677 -0.028766923
-0.22184199 -0.4005979 0.018448565 -0.49858353 0.034474853 0.5283513 -0.023854325 0.1912782
0.021684084 -0.17185698 -0.18113099 -0.097885266 -0.12690544 0.07369225 0.012414586 0.118133955
0.14348164 -0.16806908 -0.35048974 -0.16940336 0.25666147 -0.3649137 -0.08297198 -0.51221526
-0.37926304 -0.47243556 0.2093212 -0.12076422 -0.27934244 0.5541172 -0.22215343 0.05880616
0.29461348 -0.20246622 -0.097003445 -0.16979343 0.16097248 -0.33762848 0.18510535 0.0305284
0.24261239 0.43844682 -0.19915855 0.40656018 0.38743928 0.12932593 -0.027813235 -0.4444155
-0.45175356 -0.12632598 0.20429823 -0.46082976 -0.046218984 0.03236181 -0.49046865 0.43697825
-0.07629887 0.15254514 0.53801507 0.07550359 -0.44210982 0.42083895 -0.2704392 0.41555667
0.057789207 0.005829765 -0.4608572 0.015530977 0.19659285 0.115280464 0.10704008 0.18616664
0.3454988 -0.44139448 -0.36487132 -0.13469474 0.17315903 0.36440012 0.19324325 0.11575852
0.54248923 0.19773073 -0.3549099 0.44291294 0.13385196 0.13104355 -0.1628743 -0.20513776
-0.16228776 0.2535532 -0.010428363 0.06930613 0.21367955 -0.5241592 -0.21649328 -0.17068946
-0.072613716 -0.12742013 0.009854179 0.026567794 -0.28520867 0.24549033 -0.055325877 0.24200927
0.4338678 -0.04996667 0.084858105 0.22801195 0.19498636 0.31902885 0.48713988 0.36962885
0.018887611 0.14665383 0.027086485 -0.00088221906 0.06813145 0.26331824 -0.43115565 -0.11652803
0.058951356 0.07475701 -0.084768236 -0.29459283 -0.039171506 0.3144519 0.08025088 0.42419657
-0.07955843 -0.53188276 0.14963461 -0.32616186 0.07508384 0.15830365 -0.15099484 0.19417612
-0.11911286 0.3408232 -0.09309077 -0.12266083 0.2245771 -0.46469975 -0.28636676 -0.19097218
0.08176417 -0.025118973 0.16210772 0.010078237 0.40342793 -0.27464816 0.3145875 -0.24350621
0.012447342 -0.48617002 0.37375954 0.180326 -0.2572326 -0.10456788 0.3456683 0.20278007
0.43802336 0.56266177 -0.39995125 0.047810763 0.010800894 -0.49660218 -0.11839568 -0.47748974
-0.16076382 -0.006867997 0.2956241 0.11494326 -0.43019396 0.2229777 -0.30789286 0.49622327
-0.4698055 0.047289237 0.30837184 -0.5236851 -0.13341112 -0.3208076 -0.19328356 0.16209942
00000000: e2fe 173e fc7d 32be e2c4 edbd 5647 c2bd
00000010: b756 043f b19d 03bf c298 d33e 31f9 78be
00000020: 77d3 153e f14c 89be 22f4 af3d 7801 5c3e
00000030: 5a69 523e be59 0e3f 96fc a23e 15b3 bcba
00000040: 737c a93d 94c3 eabd 7192 3a3e 30c1 d1be
00000050: c1ea 663e fe83 e43d abf0 033f 790a d43d
00000060: af29 413e 423e fbbe 53ba 8cbd d47c 4f3e
00000070: 1eec fabe 7538 893e b898 2c3e fc7c 133e
00000080: e2a9 933e 0433 28bc e7b8 46be fc4d 8f3b
00000090: 9cd2 70be afda 383d 1dbf ca3d d3b2 1dbe
000000a0: 64fd ddbe 54d3 933e 6090 ab3e f5c9 94be
000000b0: 8407 823d 9496 993e f649 c53d d06b 6c3d
000000c0: 4366 bc3e 624e 203d 0645 1dbe ab90 703e
000000d0: d404 103e f8c3 52be b489 babe 9d9e b6bc
000000e0: c561 da3e 0fa4 d13d e42f a7be 3f7b ae3d
000000f0: d6cc c53e f171 e5be 6bca 933e ab4f c0be
00000100: 14c8 5cbe 9f4e d83e 0ece 3bbe fd7e 923d
00000110: 7539 be3e d265 acbe c671 86be 9ca8 ebbc
00000120: 8c2a 63be 2b1b cdbe 7221 973c 5746 ffbe
00000130: 8135 0d3d 0842 073f 256a c3bc 6fde 433e
00000140: d2a2 b13c 47fb 2fbe 677a 39be 1278 c8bd
00000150: 80f3 01be f6eb 963d 8c66 4b3c 37f0 f13d
00000160: daec 123e 4d1a 2cbe 6473 b3be 1378 2dbe
00000170: 2269 833e f8d5 babe 37ed a9bd 8a20 03bf
00000180: c42e c2be 13e3 f1be 4c58 563e 3b53 f7bd
00000190: f905 8fbe a0da 0d3f 307c 63be bade 703d
000001a0: 94d7 963e 4e53 4fbe bea9 c6bd 54de 2dbe
000001b0: f8d5 243e a4dd acbe 428c 3d3e b216 fa3c
000001c0: 626f 783e 1a7c e03e 38f0 4bbe a828 d03e
000001d0: 715e c63e 046e 043e 95d8 e3bc 6e8a e3be
000001e0: 3e4c e7be 995b 01be 8e33 513e e1f1 ebbe
000001f0: 1e50 3dbd d18d 043d b51e fbbe 9dbb df3e
00000200: 9542 9cbd cb34 1c3e 5bbb 093f a0a1 9a3d
00000210: 385c e2be 3478 d73e 0277 8abe d8c3 d43e
00000220: 60b4 6c3d 9d07 bf3b 7af5 ebbe a475 7e3c
00000230: a34f 493e 2a18 ec3d d437 db3d 78a2 3e3e
00000240: 38e5 b03e 75fe e1be 6ad0 babe 6bed 09be
00000250: 9a50 313e a792 ba3e 8fe1 453e ce12 ed3d
00000260: 93e0 0a3f ed79 4a3e c0b6 b5be 7cc5 e23e
00000270: 7d10 093e 4830 063e 85c8 26be a20f 52be
00000280: c32e 26be bad1 813e badb 2abc 5ff0 8d3d
00000290: d0ce 5a3e 4c2f 06bf 6ab0 5dbe 38c9 2ebe
000002a0: 80b6 94bd 6c7a 02be 6c73 213c b4a4 d93c
000002b0: df06 92be d161 7b3e 639d 62bd 47d1 773e
000002c0: ec23 de3e daa9 4cbd 16ca ad3d f77b 693e
000002d0: 81aa 473e c057 a33e 666a f93e fe3f bd3e
000002e0: 31ba 9a3c 6c2c 163e 7ae4 dd3c b844 67ba
000002f0: 8088 8b3d a6d1 863e 6fc0 dcbe 3fa6 eebd
00000300: fa76 713d 341a 993d f89a adbd dfd4 96be
00000310: 4d72 20bd d7ff a03e 935a a43d 4b30 d93e
00000320: 88ef a2bd 7829 08bf d139 193e b0fe a6be
00000330: 8ec5 993d 5a1a 223e 649e 1abe 1bd6 463e
00000340: 71f1 f3bd 6180 ae3e 60a6 bebd 9a35 fbbd
00000350: 8af7 653e 20ed edbe aa9e 92be 368e 43be
00000360: f973 a73d 4ec6 cdbc 91ff 253e 311f 253c
00000370: 1b8e ce3e af9e 8cbe 9d11 a13e b159 79be
00000380: f0ef 4b3c 47eb f8be 695d bf3e 61a7 383e
00000390: feb3 83be af27 d6bd 6ffb b03e 94a5 4f3e
000003a0: 9944 e03e 9a0a 103f 69c6 ccbe 38d5 433d
000003b0: 3cf6 303c a442 febe 6f79 f2bd 8979 f4be
000003c0: 459f 24be ef0c e1bb 0b5c 973e 5f67 eb3d
000003d0: 6242 dcbe 4454 643e 22a4 9dbe fa10 fe3e
000003e0: 598a f0be 5cb2 413d eae2 9d3e 3a10 06bf
000003f0: ed9c 08be e540 a4be 20ec 45be 64fd 253e

encoder_variable_selection.single_variable_grns.time_idx.gate_norm.glu.fc.bias f4 [32]
-0.17183106 0.17249186 0.161947 0.16245934 -0.14873149 0.16899917 -0.16605084 -0.18313664
-0.15870444 0.17681907 -0.15724824 -0.16493566 0.17275248 -0.17045988 -0.141391 0.18129113
0.16501972 -0.14032602 -0.11053324 -0.17146796 -0.18113695 0.20034589 -0.061785612 0.23713534
0.1501917 0.1786567 -0.17512253 -0.15785088 0.19738539 -0.15566857 0.15588659 0.19519112
00000000: 7bf4 2fbe b5a1 303e 6fd5 253e be5b 263e
00000010: 114d 18be 1e0e 2d3e 3b09 2abe 2c88 3bbe
00000020: 6b83 22be 0f10 353e af05 21be e5e4 28be
00000030: 07e6 303e 098d 2ebe cdc8 10be 62a4 393e
00000040: eefa 283e a0b1 0fbe 405f e2bd 4c95 2fbe
00000050: f77b 39be 7927 4d3e e912 7dbd 9bd3 723e
00000060: dacb 193e c8f1 363e 5253 33be a9a3 21be
00000070: 651f 4a3e 9567 1fbe bca0 1f3e 2ee0 473e

encoder_variable_selection.single_variable_grns.time_idx.gate_norm.add_norm.norm.weight f4 [16]
1.185612 0.83277833 0.85699487 0.8258987 0.7862187 1.1748374 0.82995194 0.82268727
0.84398925 1.1830853 0.8582942 1.1724102 0.8449948 1.1445961 1.0894858 1.1138405
00000000: 22c2 973f f630 553f 0464 5b3f 196e 533f
00000010: a145 493f 1261 963f bb77 543f a29b 523f
00000020: ae0f 583f 576f 973f 2bb9 5b3f 8a11 963f
00000030: 9451 583f 2082 923f 4574 8b3f 5392 8e3f

encoder_variable_selection.single_variable_grns.time_idx.gate_norm.add_norm.norm.bias f4 [16]
-0.17804247 0.17976676 0.11107057 0.16066283 -0.12225726 0.18827519 -0.16777046 -0.2136954
-0.14833151 0.17993285 -0.16413312 -0.18759823 0.17915797 -0.17408742 -0.14562094 0.18517242
00000000: c450 36be c714 383e f878 e33d cc84 243e
00000010: 0462 fabd 36cb 403e 05cc 2bbe f8d2 5abe
00000020: 37e4 17be 5140 383e 8312 28be c019 40be
00000030: 3075 373e f943 32be a81d 15be d79d 3d3e

encoder_variable_selection.single_variable_grns.T2M.resample_norm.mask f4 [16]
-0.167375 0.16705605 0.18832181 -0.16461897 0.16591051 0.14927445 -0.17084959 0.15230997
-0.14092244 0.16922061 0.16632661 0.1698268 0.1725739 -0.16676787 -0.21410878 -0.1673842
00000000: 5a64 2bbe be10 2b3e 6fd7 403e e091 28be
00000010: 72e4 293e 67db 183e 32f3 2ebe 25f7 1b3e
00000020: f94d 10be 2b48 2d3e 8651 2a3e 14e7 2d3e
00000030: 36b7 303e 32c5 2abe 553f 5bbe c466 2bbe

encoder_variable_selection.single_variable_grns.T2M.resample_norm.norm.weight f4 [16]
0.83177626 1.1650171 1.2899419 0.83551145 1.1628838 1.0901691 0.8255407 1.149138
0.84913635 1.1682523 1.1648954 1.1694001 0.83518344 0.8396545 1.1435117 0.83038425
00000000: 4aef 543f 481f 953f d11c a53f 14e4 553f
00000010: 60d9 943f a98a 8b3f a356 533f f416 933f
00000020: 0061 593f 4b89 953f 4b1b 953f e7ae 953f
00000030: 95ce 553f 99f3 563f 975e 923f 1094 543f

encoder_variable_selection.single_variable_grns.T2M.resample_norm.norm.bias f4 [16]
-0.17033693 0.17035082 0.1481615 0.16421849 -0.16146292 0.19273524 -0.16976386 0.15250753
-0.15472512 0.16837278 -0.16364262 -0.16957687 0.16981862 -0.1706863 -0.15998067 0.17045191
00000000: ce6c 2ebe 7270 2e3e a6b7 173e e428 283e
00000010: 8956 25be 635c 453e 94d6 2dbe ef2a 1c3e
00000020: 4370 1ebe ea69 2c3e ee91 27be 8fa5 2dbe
00000030: efe4 2d3e 64c8 2ebe f9d1 23be f28a 2e3e

encoder_variable_selection.single_variable_grns.T2M.fc1.weight f4 [8, 8]
-0.08121549 -0.2405418 0.09520208 -0.52027214 -1.0905262 0.18674037 -0.3604455 0.12225081
-0.12291932 0.058274653 0.06722077 -0.55331534 -1.0332872 0.9164345 0.91840476 -0.6059148
-0.5868636 0.26275042 0.5161185 -0.46936816 0.5479024 0.05506003 0.07669452 0.65251726
0.59107405 -0.4821833 -0.9496748 0.7508978 -0.95130306 -0.4292166 -0.17383432 0.27554402
-0.004441488 0.04845665 -0.57538444 0.5782915 1.4337279 0.25495595 0.38229746 -0.08922543
-0.3542294 -0.08917735 -0.0714751 -0.8914892 -0.20391628 0.37229356 -1.1392406 -0.33330035
0.44911033 0.14682393 -0.5002952 0.16697116 -0.51585406 0.18822314 -0.46298063 -0.46259052
0.14408624 0.1443548 0.2577299 -0.42931053 -0.009388323 0.20647657 -0.7430449 0.9671006
00000000: 4f54 a6bd 9750 76be 4ff9 c23d 8e30 05bf
00000010: 5d96 8bbf de38 3f3e 508c b8be a25e fa3d
00000020: 20bd fbbd 67b1 6e3d 0bab 893d 13a6 0dbf
00000030: c142 84bf 749b 6a3f 931c 6b3f 3b1d 1bbf
00000040: b13c 16bf 3987 863e 5820 043f 0651 f0be
00000050: 5543 0c3f a086 613d 0412 9d3d 5f0b 273f
00000060: a150 173f bbe0 f6be e31d 73bf d73a 403f
00000070: 9988 73bf 47c2 dbbe a001 32be 1b14 8d3e
00000080: e789 91bb 7b7a 463d 654c 13bf e90a 143f
00000090: 6584 b73f 9689 823e 7ebc c33e d2bb b6bd
000000a0: 8e5d b5be 9da2 b6bd 8a61 92bd a338 64bf
000000b0: 6ecf 50be 439d be3e a3d2 91bf 58a6 aabe
000000c0: caf1 e53e 0359 163e 5913 00bf 7dfa 2a3e
000000d0: 030f 04bf 91bd 403e cc0b edbe aad8 ecbe
000000e0: 588b 133e bfd1 133e 2cf5 833e 97ce dbbe
000000f0: 7bd1 19bc 986e 533e 3138 3ebf e893 773f

encoder_variable_selection.single_variable_grns.T2M.fc1.bias f4 [8]
-0.16395167 -0.17019916 -0.16542771 0.16879302 -0.014771992 -0.17107993 -0.15934323 -0.17109957
00000000: f2e2 27be b048 2ebe e265 29be 14d8 2c3e
00000010: 3a06 72bc 942f 2fbe df2a 23be ba34 2fbe

encoder_variable_selection.single_variable_grns.T2M.fc2.weight f4 [8, 8]
0.68032426 -1.0193195 0.49180657 -0.9125492 -0.5491839 0.035000276 -1.0694791 0.00215938
-1.1191354 -1.0833179 -0.5672496 0.7836861 -0.14271615 -1.0887609 0.5675668 -0.5815733
-0.45157683 -0.031401884 -0.4470495 -0.21552268 0.24175443 -0.8507852 -0.19501701 -1.0937788
0.19384226 -0.2138647 -0.8912697 0.7383193 1.3172436 -0.27711847 0.46039683 -0.8419749
0.5778894 -1.0253174 0.20533851 -0.1055873 0.33926862 -0.21357755 -1.0057012 -0.34186503
0.35044545 0.25530064 -0.20697825 0.23490894 0.39570737 -0.12562035 -0.058545083 -0.017031405
-0.22975639 0.18939379 -0.3813102 -0.19948605 -0.5906944 0.023763504 -0.77260864 -0.5945822
-0.8900155 -0.3961682 -0.53827584 -0.5015373 0.31594524 -0.19184946 0.21807723 0.20536402
00000000: bb29 2e3f 1079 82bf 12ce fb3e d39c 69bf
00000010: 5197 0cbf 735c 0f3d b1e4 88bf 6284 0d3b
00000020: d43f 8fbf 29aa 8abf 4537 11bf a79f 483f
00000030: 2f24 12be 845c 8bbf 0f4c 113f fde1 14bf
00000040: 1435 e7be 439f 00bd ace3 e4be fab1 5cbe
00000050: 798e 773e 0fcd 59bf 8ab2 47be f200 8cbf
00000060: 967e 463e 59ff 5abe 402a 64bf 7e02 3d3f
00000070: 709b a83f 79e2 8dbe 22b9 eb3e ab8b 57bf
00000080: 8ff0 133f 9a3d 83bf 4244 523e 283e d8bd
00000090: 9eb4 ad3e 13b4 5abe d1ba 80bf ef08 afbe
000000a0: 966d b33e c4b6 823e 1bf2 53be f88b 703e
000000b0: 289a ca3e 9fa2 00be f8cc 6fbd 7285 8bbc
000000c0: 4245 6bbe 72f0 413e 173b c3be 1246 4cbe
000000d0: c037 17bf aeab c23c aec9 45bf 8a36 18bf
000000e0: 0ed8 63bf 8fd6 cabe 72cc 09bf c064 00bf
000000f0: 93c3 a13e 2f74 44be a34f 5f3e f24a 523e

encoder_variable_selection.single_variable_grns.T2M.fc2.bias f4 [8]
-0.14940849 0.16911885 0.19692796 0.1786641 0.16706732 0.15059483 0.16305697 0.15456142
00000000: 8afe 18be 7e2d 2d3e 7ca7 493e b9f3 363e
00000010: b213 2b3e 8835 1a3e 68f8 263e 5945 1e3e

encoder_variable_selection.single_variable_grns.T2M.gate_norm.glu.fc.weight f4 [32, 8]
0.097663045 -0.4072325 -0.18970422 0.16365588 -0.071647026 -0.0060424604 0.15407315 -0.09865751
-0.42144662 -0.21402831 0.2348568 -0.13407762 -0.21186584 0.16134135 -0.21907857 -0.01021577
-0.5044923 0.08286271 -0.30146807 0.13411678 -0.2866465 0.13647397 -0.16737522 0.41972595
-0.078061566 0.11941575 0.2919081 -0.2016734 -0.15905853 -0.060470883 0.18049634 0.20448865
0.29399925 -0.46171778 -0.22361046 -0.39876944 0.069802105 -0.047592383 0.106305584 -0.53046834
0.036244143 0.10883193 -0.036570247 0.07880881 0.5185308 0.43426 -0.10123467 0.20977178
0.46894616 0.17392361 -0.39916885 -0.22233054 0.3469399 0.5229041 -0.12331393 -0.34169337
-0.23998809 0.18579316 -0.2164748 -0.11143403 -0.5027345 -0.12636039 -0.39239994 0.34731027
0.44206026 -0.010218422 0.08939837 -0.05201513 -0.4982212 0.089111716 -0.13909411 0.02044525
-0.47786546 -0.07497561 0.42683664 0.4686324 -0.007236089 -0.33914262 -0.44831735 0.24282667
0.29988238 -0.33629578 -0.20213528 -0.32319567 -0.053081825 0.17215298 -0.13276237 -0.4558651
-0.092675045 -0.5482855 0.037082274 -0.49282986 0.42052722 0.37614423 0.06098127 -0.39547783
-0.29408458 0.14098243 0.013601721 0.20011914 0.24974956 -0.23390025 -0.5474737 -0.14055485
-0.047405757 -0.37603182 -0.10296263 -0.5427553 0.2019492 0.3433032 0.18263541 -0.076045305
0.3154158 -0.45937267 -0.3654825 -0.061564203 -0.06932408 -0.16053134 -0.11237957 -0.26824063
-0.16326737 0.5189345 0.45144936 0.4339478 -0.26949564 -0.1419901 -0.088658325 -0.084795855
0.105153024 0.04426076 0.21044728 -0.33207127 0.13562237 0.07256155 0.4848791 0.07932192
-0.015354076 -0.028642334 -0.40256712 -0.35406938 0.4685339 0.24243489 0.42449218 0.08433752
-0.012387087 -0.24065532 -0.42568994 0.18049976 -0.08197527 -0.58657545 -0.06863689 0.38327974
-0.02743942 0.0452171 0.07928855 -0.43664953 0.09241204 0.24617204 0.013827682 -0.22960788
-0.21753152 0.3306967 -0.08637613 0.47448665 0.04188146 -0.1895291 -0.19057818 0.5182185
-0.07463115 -0.20142762 0.04265564 0.08473157 0.13143097 0.05651598 0.24292368 -0.3992269
-0.0028632497 0.13131674 0.056457423 0.2028299 -0.050740253 0.40705022 0.25351933 -0.4956994
-0.16258363 0.14583819 -0.27669567 0.30841017 0.16578203 -0.51885366 -0.5123398 0.16980313
0.41448244 -0.5215854 -0.2901637 -0.24124685 -0.33493996 -0.12489879 0.48082232 -0.3082118
-0.24376558 0.083522245 0.16541906 -0.09919192 0.078190565 -0.28734428 -0.13086279 0.005755593
0.05005462 0.16064754 -0.30530202 -0.26200253 -0.029795198 -0.224487 -0.0003878753 -0.07443006
-0.42191547 0.00639146 0.51760066 0.19130267 -0.0550577 0.03465574 -0.09922407 0.37961188
-0.2230123 0.027998788 0.22372206 -0.12699547 -0.3592495 0.104777105 0.11630084 -0.16195825
-0.27968806 0.45076954 0.4298404 0.22596666 -0.18673503 -0.13569134 -0.3401388 -0.0923318
0.036890235 -0.32364684 0.2828509 -0.47432438 0.16213812 0.13174565 0.37346047 -0.3428392
-0.5054916 -0.03678581 0.066330604 -0.09871924 0.032763876 0.20900528 -0.5326278 0.42766762
00000000: 9003 c83d c780 d0be d341 42be 6895 273e
00000010: adbb 92bd d5ff c5bb 5ac5 1d3e f30c cabd
00000020: dac7 d7be 3d2a 5bbe 4d7e 703e a54b 09be
00000030: 5cf3 58be ab36 253e 2256 60be 0c60 27bc
00000040: 6826 01bf edb3 a93d 065a 9abe e955 093e
00000050: 54c3 92be d5bf 0b3e 6964 2bbe 52e6 d63e
00000060: bede 9fbd 3f90 f43d fa74 953e 7983 4ebe
00000070: 3de0 22be 51b0 77bd 08d4 383e 7965 513e
00000080: 1287 963e 4666 ecbe 24fa 64be 822b ccbe
00000090: 68f4 8e3d 3bf0 42bd beb6 d93d c6cc 07bf
000000a0: bd74 143d 46e3 de3d afca 15bd 8366 a13d
000000b0: 6fbe 043f 5457 de3e 1f54 cfbd 6ace 563e
000000c0: b619 f03e 0819 323e dc5f ccbe 9eaa 63be
000000d0: 1ba2 b13e 0bdd 053f 048c fcbd 6ff2 aebe
000000e0: 70bf 75be 9040 3e3e 92ab 5dbe 8637 e4bd
000000f0: 35b3 00bf 9e64 01be a5e8 c8be a7d2 b13e
00000100: b955 e23e 2b6b 27bc 7e16 b73d d10d 55bd
00000110: d916 ffbe 3480 b63d b06e 0ebe cc7c a73c
00000120: c8aa f4be d08c 99bd 558a da3e 96f0 ef3e
00000130: b71c edbb 1aa4 adbe da89 e5be 8ea7 783e
00000140: 2f8a 993e f62e acbe 8dfc 4ebe e779 a5be
00000150: 546c 59bd df48 303e dcf2 07be 2667 e9be
00000160: 6acc bdbd 705c 0cbf 95e3 173d 3254 fcbe
00000170: 584f d73e fa95 c03e 7fc7 793d 127c cabe
00000180: 4192 96be b35d 103e c1d9 5e3c 08ec 4c3e
00000190: 59be 7f3e 8c83 6fbe 3d27 0cbf 9ced 0fbe
000001a0: 8a2c 42bd 3e87 c0be 12de d2bd 03f2 0abf
000001b0: c5cb 4e3e 70c5 af3e c704 3b3e a4bd 9bbd
000001c0: 2e7e a13e e532 ebbe 8620 bbbe bf2a 7cbd
000001d0: c9f9 8dbd 5462 24be 4327 e6bd d656 89be
000001e0: 902f 27be e4d8 043f 5f24 e73e 682e de3e
000001f0: 55fb 89be da65 11be 7f92 b5bd 73a9 adbd
00000200: 785a d73d c54a 353d 7e7f 573e 3f05 aabe
00000210: 97e0 0a3e 269b 943d 1342 f83e 8873 a23d
00000220: aa8f 7bbc 54a3 eabc 471d cebe 9548 b5be
00000230: ade3 ef3e da40 783e 0a57 d93e 26b9 ac3d
00000240: 35f3 4abc 596e 76be 08f4 d9be eed4 383e
00000250: a6e2 a7bd cf29 16bf 7f91 8cbd 3e3d c43e
00000260: a2c8 e0bc 9135 393d 0962 a23d 8790 dfbe
00000270: 8642 bd3d 8614 7c3e 808d 623c 541e 6bbe
00000280: 95c0 5ebe 1451 a93e f8e5 b0bd eaef f23e
00000290: e58b 2b3d eb13 42be ed26 43be f8a9 043f
000002a0: 37d8 98bd 0b43 4ebe aeb7 2e3d bf87 ad3d
000002b0: d795 063e 4d7d 673d fcc0 783e 7867 ccbe
000002c0: 5ca5 3bbb e577 063e e63f 673d a4b2 4f3e
000002d0: 03d5 4fbd e368 d03e 49cd 813e 50cc fdbe
000002e0: 537c 26be 9b56 153e 0eab 8dbe f0e7 9d3e
000002f0: c4c2 293e 98d3 04bf b328 03bf dfe0 2d3e
00000300: 0b37 d43e 9f86 05bf 5690 94be 6a09 77be
00000310: 407d abbe f0ca ffbd 582e f63e f0cd 9dbe
00000320: af9d 79be b60d ab3d 9d63 293e 2225 cbbd
00000330: 6022 a03d ca1e 93be e500 06be 6a99 bc3b
00000340: 1306 4d3d ca80 243e 8c50 9cbe 3225 86be
00000350: 0f15 f4bc ecdf 65be be5b cbb9 ca6e 98bd
00000360: 4e05 d8be 746f d13b 7a81 043f d9e4 433e
00000370: 2f84 61bd 2df3 0d3d fd35 cbbd 7d5c c23e
00000380: 565d 64be b75d e53c 6517 653e 1a0b 02be
00000390: 8def b7be 6195 d63d 232f ee3d 62d8 25be
000003a0: 4633 8fbe 44cb e63e 0a14 dc3e ce63 673e
000003b0: 7837 3fbe acf2 0abe ac26 aebe 7418 bdbd
000003c0: 371a 173d 0ab5 a5be d5d1 903e a5da f2be
000003d0: 8907 263e 55e8 063e 3636 bf3e 9f88 afbe
000003e0: e667 01bf b8ac 16bd 57d8 873d 502d cabd
000003f0: 6a33 063d 7b05 563e 4c5a 08bf 40f7 da3e

encoder_variable_selection.single_variable_grns.T2M.gate_norm.glu.fc.bias f4 [32]
-0.1698476 0.16981201 0.14568497 0.1649449 -0.1601303 0.19974715 -0.17030434 0.15050614
-0.16805556 0.16828887 -0.16098565 -0.17242928 0.17137402 -0.17269403 -0.16395378 0.171629
-0.15891215 -0.16807322 0.12520342 -0.16471735 0.16124381 -0.22302781 -0.1539182 0.15667784
-0.16511022 0.16801274 0.119297005 0.16918649 0.17435162 0.17528476 -0.21094364 0.18445972
00000000: 87ec 2dbe 33e3 2d3e 712e 153e 51e7 283e
00000010: 33f9 23be 848a 4c3e 4364 2ebe 481e 1a3e
00000020: c216 2cbe eb53 2c3e 6cd9 24be 4d91 30be
00000030: ac7c 2f3e b4d6 30be 80e3 27be 83bf 2f3e
00000040: deb9 22be 631b 2cbe 5335 003e aaab 28be
00000050: 191d 253e 6761 64be bc9c 1dbe 2870 203e
00000060: a712 29be 880b 2c3e fd51 f43d 393f 2d3e
00000070: 3b89 323e d97d 333e 9c01 58be 02e3 3c3e

encoder_variable_selection.single_variable_grns.T2M.gate_norm.add_norm.norm.weight f4 [16]
0.8330898 1.1673589 1.0043997 0.8350175 1.1620774 0.8186753 0.83478737 1.1410795
0.84204984 1.1704242 1.161998 1.1820052 0.88701373 0.87855315 1.1129773 0.85535127
00000000: 6045 553f 046c 953f 2b90 803f b5c3 553f
00000010: f4be 943f b494 513f a0b4 553f e50e 923f
00000020: 9490 573f 76d0 953f 5abc 943f f24b 973f
00000030: 5513 633f dce8 603f 0a76 8e3f 4df8 5a3f

encoder_variable_selection.single_variable_grns.T2M.gate_norm.add_norm.norm.bias f4 [16]
-0.17151698 0.17073117 0.14265524 0.16244155 -0.16188276 0.18592738 -0.17246877 0.14128442
-0.14866012 0.16972522 -0.16227126 -0.17780511 0.17245688 -0.17463751 -0.15227573 0.17443243
00000000: 26a2 2fbe 27d4 2e3e 3714 123e 1457 263e
00000010: 98c4 25be bf63 3e3e a79b 30be ddac 103e
00000020: 5c3a 18be 73cc 2d3e 702a 26be 8b12 36be
00000030: 8998 303e 2dd4 32be 2bee 1bbe 6a9e 323e

encoder_variable_selection.single_variable_grns.T2M_MAX.resample_norm.mask f4 [16]
0.24251981 -0.23227389 -0.026554609 -0.1583541 -0.024876937 -0.23205546 0.19975744 -0.058317654
0.06579518 -0.18401834 0.13829131 -0.1577063 0.2196852 -0.20598145 -0.17468046 0.1721832
00000000: 1d57 783e 35d9 6dbe 0d89 d9bc 9427 22be
00000010: b8ca cbbc f29f 6dbe 378d 4c3e 7ede 6ebd
00000020: a0bf 863d 4e6f 3cbe 3d9c 0d3e c37d 21be
00000030: 28f5 603e cdec 52be 6fdf 32be cb50 303e

encoder_variable_selection.single_variable_grns.T2M_MAX.resample_norm.norm.weight f4 [16]
1.2465776 0.8905819 0.96542305 0.82819164 1.0031039 0.76763386 1.2055303 0.9468456
1.1021857 0.8218909 0.90915966 0.7993459 1.2129112 0.8019189 0.846718 1.1800493
00000000: db8f 9f3f 2dfd 633f f725 773f 5e04 543f
00000010: b565 803f a783 443f d14e 9a3f 7964 723f
00000020: 6c14 8d3f 7167 523f b0be 683f efa1 4c3f
00000030: ad40 9b3f 8f4a 4d3f 83c2 583f db0b 973f

encoder_variable_selection.single_variable_grns.T2M_MAX.resample_norm.norm.bias f4 [16]
-0.21661973 0.23051651 -0.015586121 0.15543072 -0.028282236 0.22918093 -0.12314545 -0.19629571
-0.09158161 0.18630953 -0.16172622 -0.24200192 0.21391103 -0.16608575 -0.13602936 0.19437078
00000000: 90d1 5dbe 850c 6c3e ee5c 7fbc 3b29 1f3e
00000010: 26b0 e7bc 68ae 6a3e af33 fcbd be01 49be
00000020: 248f bbbd edc7 3e3e 8f9b 25be 5acf 77be
00000030: 7e0b 5b3e 6212 2abe 484b 0bbe 2209 473e

encoder_variable_selection.single_variable_grns.T2M_MAX.fc1.weight f4 [8, 8]
-0.70293534 0.47315773 -0.22911225 -0.13455634 -0.102753766 -0.08840865 0.2639885 -1.2193726
3.7915772e-05 -0.20542248 -0.909489 0.21365355 -0.3128779 -0.8096103 0.99903566 -0.31974933
-0.118837476 0.049673785 0.005828021 -0.71153784 -0.003497335 -0.557177 0.24166653 0.011295106
-0.08130494 0.52268314 -0.4154694 0.472602 -0.7701821 -0.3614939 0.5318561 -0.31487152
-0.24134366 0.3902895 0.2492061 0.34207335 -1.168743 -0.050199553 -0.26657262 0.0035190731
-0.24381328 0.64066714 -0.8161264 0.56829494 -0.5180882 -0.12408843 -0.8411609 -0.5989827
0.3573068 0.09820057 0.20553942 -0.21160394 -0.6576828 0.4940182 -0.16190831 0.59185046
0.12533751 -0.56067306 -0.3082277 -0.33129597 0.44071963 0.3538205 0.06040607 0.2826303
00000000: 92f3 33bf bb41 f23e 679c 6abe 23c9 09be
00000010: 9170 d2bd 980f b5bd 8029 873e 6714 9cbf
00000020: c007 1f38 455a 52be 45d4 68bf ffc7 5a3e
00000030: 8831 a0be 9f42 4fbf cdc0 7f3f 2fb6 a3be
00000040: 1061 f3bd bd76 4b3d fcf8 be3b 5827 36bf
00000050: 8b33 65bb 27a3 0ebf 6e77 773e 1c0f 393c
00000060: 3483 a6bd 90ce 053f 68b8 d4be e4f8 f13e
00000070: a72a 45bf ba15 b9be b927 083f d736 a1be
00000080: cb22 77be 06d4 c73e e22f 7f3e 3d24 af3e
00000090: 5f99 95bf 0c9e 4dbd 357c 88be 40a0 663b
000000a0: 30aa 79be c302 243f a9ed 50bf c77b 113f
000000b0: 6ea1 04bf 1322 febd 5256 57bf ee56 19bf
000000c0: ebf0 b63e 611d c93d ed78 523e b4ae 58be
000000d0: e65d 28bf f4ef fc3e 4bcb 25be 8383 173f
000000e0: 7a58 003e 4588 0fbf 05d0 9dbe a09f a9be
000000f0: 01a6 e13e f627 b53e 5b6c 773d ebb4 903e

encoder_variable_selection.single_variable_grns.T2M_MAX.fc1.bias f4 [8]
0.13777825 -0.06334864 0.22102076 -0.0126803145 0.10914663 -0.11603376 -0.09561202 -0.066153206
00000000: be15 0d3e efbc 81bd 4453 623e 18c1 4fbc
00000010: 4588 df3d 1ca3 edbd 3cd0 c3bd 557b 87bd

encoder_variable_selection.single_variable_grns.T2M_MAX.fc2.weight f4 [8, 8]
0.06393218 -0.6216648 -0.006204956 0.17346416 -0.1993087 -0.13065575 0.2832582 -0.047420174
0.4316887 0.6245143 0.4888888 0.7841953 0.47406414 -0.6650547 -0.403031 -0.17069884
-0.047099143 0.3694858 -0.13456953 -0.44215536 0.01816119 0.16888607 -0.27504522 0.8074344
0.108497135 1.5942415 0.5811841 -0.87094253 -0.499027 -0.52480954 1.0356296 0.54871935
-0.32148725 -0.6123863 -1.2778579 0.47966444 0.7103068 0.10411196 -0.5644174 0.31381434
0.054122858 -0.65572417 -0.71778613 -0.36790684 -0.67988145 0.40246072 -0.56717086 -0.23278739
-0.58913726 -0.3571343 -0.817037 -0.75036174 0.15672062 0.19563405 0.2559843 0.050699096
0.17096062 -0.42860493 -0.08246662 -0.35392278 -0.121157415 0.8038923 0.22787273 0.49280798
00000000: e0ee 823d 6d25 1fbf f252 cbbb 97a0 313e
00000010: 9417 4cbe 9fca 05be 3807 913e a83b 42bd
00000020: 4d06 dd3e 2be0 1f3f a24f fa3e 06c1 483f
00000030: 89b8 f23e 0641 2abf 145a cebe adcb 2ebe
00000040: 08eb 40bd 3e2d bd3e 98cc 09be 3062 e2be
00000050: c7c6 943c 78f0 2c3e bad2 8cbe 05b4 4e3f
00000060: bf33 de3d 1b10 cc3f 7bc8 143f 17f6 5ebf
00000070: 7880 ffbe eb59 06bf 838f 843f df78 0c3f
00000080: fa99 a4be 59c5 1cbf d990 a3bf 9496 f53e
00000090: abd6 353f a738 d53d a97d 10bf 46ac a03e
000000a0: eeaf 5d3d 8add 27bf d5c0 37bf 495e bcbe
000000b0: b60c 2ebf 550f ce3e 1c32 11bf d15f 6ebe
000000c0: b3d1 16bf 4fda b6be 5629 51bf b517 40bf
000000d0: 5f7b 203e 4b54 483e 6010 833e dba9 4f3d
000000e0: 4d10 2f3e 1b72 dbbe 42e4 a8bd 5e35 b5be
000000f0: 6121 f8bd e3cb 4d3f 7857 693e 5451 fc3e

encoder_variable_selection.single_variable_grns.T2M_MAX.fc2.bias f4 [8]
-0.091123335 0.12163545 0.14279117 -0.07352741 -0.08982434 -0.17609432 0.12922692 -0.061846416
00000000: df9e babd 021c f93d d937 123e 8a95 96bd
00000010: d3f5 b7bd 1252 34be 1054 043e ab52 7dbd
