ai_predict/ai/lightning_logs/version_32/checkpoints/epoch=0-step=8.ckpt (torch, 662004 bytes, 889 tensors)

prescalers.time_idx.weight f4 [8, 1]
00000000: 804e d73d f8e2 bf3e b97d 0f3f 7ee5 8bbf
00000010: 3462 76bf cd09 16bf ef45 7f3f d292 b5be
0.105130196 0.3747785 0.5605121 -1.092941 -0.96243596 -0.58608705 0.99716085 -0.35463578

prescalers.time_idx.bias f4 [8]
00000000: 3680 0bbe d2e0 3b3f ba23 143f a5ae b3be
00000010: 6a27 843e 6e03 2abf b82f 433f 52de 9fbe
-0.13623127 0.73389924 0.57867014 -0.3509418 0.2581132 -0.66411483 0.7624469 -0.31224304

prescalers.T2M.weight f4 [8, 1]
00000000: df90 243f adf2 d8be d263 11be f460 dc3d
00000010: 1f1c f63e 57e0 a8be 489d 59bf 041a 95be
0.64283556 -0.42372647 -0.14198235 0.1076068 0.4806833 -0.32983658 -0.8500562 -0.2912141

prescalers.T2M.bias f4 [8]
00000000: f092 38bf e30e 263f ed9e 17be 3836 2b3f
00000010: 3778 22be c0a7 5aba b0e4 293f ad81 733f
-0.7209921 0.64866465 -0.14806719 0.66879606 -0.15866171 -0.0008341037 0.66364574 0.95119745

prescalers.T2M_MAX.weight f4 [8, 1]
00000000: dc29 aabd 4d8e 8e3e 3f5d 98be 53b4 a8be
00000010: b647 6dbf 239d 2abf 2962 0c3f 128e 35bf
-0.08308765 0.27842942 -0.2975864 -0.32950076 -0.9268755 -0.6664602 0.5483728 -0.7091991

prescalers.T2M_MAX.bias f4 [8]
00000000: 2c46 1bbf 154d 36be 0dd4 f1bc 63e4 9f3e
00000010: e669 89be efac 5ebf 12d4 133f 9bbf 4dbf
-0.6065395 -0.17802842 -0.029520059 0.31228933 -0.26838607 -0.86982626 0.5774547 -0.8037049

prescalers.T2M_MIN.weight f4 [8, 1]
00000000: 74c4 893e e320 03bf 3231 72be 4386 b0be
00000010: 4cc1 82be 21fa cabe fd90 0bbf a804 d3be
0.26907694 -0.51222056 -0.23651579 -0.34477434 -0.255381 -0.39643958 -0.5451811 -0.4121449

prescalers.T2M_MIN.bias f4 [8]
00000000: 691f a8bd 04b5 01be 57c4 8cbf 294e a3bd
00000010: dd59 a23e 9c65 25be 5c43 f93e 477b b83e
-0.08209116 -0.12666708 -1.0997418 -0.07973892 0.31709185 -0.16152042 0.48684204 0.36031553

prescalers.PRECTOTCORR.weight f4 [8, 1]
00000000: ed50 b8be 6e90 873f c694 863f 0453 22bc
00000010: e025 2e3f 08de e63d 017d 30bf b690 2ebf
-0.3599924 1.0590951 1.0514152 -0.009907488 0.6802654 0.11272818 -0.6894074 -0.6818956

prescalers.PRECTOTCORR.bias f4 [8]
00000000: 69b0 9a3e 1406 8c3f a1e3 603f 2f4e 5e3e
00000010: 4d73 13bf ec0d 39bf e480 543f a234 583f
0.30212715 1.0939355 0.87847334 0.21709512 -0.5759781 -0.7228687 0.8300917 0.8445531

prescalers.RH2M.weight f4 [8, 1]
00000000: 78e6 fdbe 9707 bc3e 3ff6 053f a3ef 8a3d
00000010: 13bc a1be 4559 723e 063c 80be 568e fbbe
-0.49589896 0.3672454 0.52328867 0.06783988 -0.31588802 0.23666866 -0.25045794 -0.4913203

prescalers.RH2M.bias f4 [8]
00000000: 8a07 b73e 9a29 ecbe b3f8 86bf 6b4d 7dbe
00000010: 2b39 cabe da29 183f 58a7 413f fb72 833e
0.3574794 -0.4612549 -1.0544647 -0.24736564 -0.3949674 0.5943886 0.7564597 0.2567366

prescalers.ALLSKY_SFC_SW_DWN.weight f4 [8, 1]
00000000: fb18 5f3f dae3 1abf 6033 f83e 2bd5 593e
00000010: 7eb4 dcbe c026 4d3f 34ba 923e 5716 2a3f
0.8714749 -0.60503924 0.48476696 0.21272723 -0.43106455 0.8013725 0.28657687 0.6644034

prescalers.ALLSKY_SFC_SW_DWN.bias f4 [8]
00000000: 43c3 643f 886a 133f bebc 1fbf 23d3 353f
00000010: 44df aebd e41f 1abd 51c8 413f 383f b5be
0.89360446 0.5758443 -0.6239737 0.71025294 -0.08538678 -0.03762807 0.75696284 -0.35399795

prescalers.numero_casos.weight f4 [8, 1]
00000000: bf8c 7bbf 964f 5d3f 4f9b 43bf 3691 58bf
00000010: 176c 68bf e196 76be a880 fcbd 5060 42bf
-0.98261636 0.86449564 -0.7640886 -0.84596574 -0.9078993 -0.24080993 -0.12329227 -0.7592821

prescalers.numero_casos.bias f4 [8]
00000000: 961d 913f ff51 a2be d1a1 443c cf63 983e
00000010: 50ba 943f 0b37 83bf d062 0c3f bdd5 32bf
1.1337154 -0.31703183 0.012001471 0.29763648 1.1619358 -1.0251173 0.54838276 -0.6985739

static_variable_selection.single_variable_grns.municipio.mask f4 [16]
00000000: 90ef e83d 3e99 e8bd 5042 e8bd 0726 e9bd
00000010: dc62 e8bd 528f e83d f4a6 e8bd f338 e73d
00000020: baf8 e83d 9d94 e83d 82ca e83d 87de e9bd
00000030: f3ab e83d 0929 e9bd 05d3 e7bd cfcb e8bd
0.11373818 -0.11357354 -0.11340773 -0.11384206 -0.11346981 0.11355461 -0.11359969 0.11290159
0.11375566 0.11356471 0.1136675 -0.11419397 0.11360922 -0.1138478 -0.11319546 -0.113669984

static_variable_selection.single_variable_grns.municipio.norm.weight f4 [16]
00000000: 4546 883f 9db1 763f 990e 7f3f f7fa 8e3f
00000010: 808f 633f d014 6e3f 56c9 703f bc4a 5d3f
00000020: a795 8e3f 160b 663f 83fc 883f 02ac 893f
00000030: 045a 613f a0c8 873f 94a3 6e3f ed28 8e3f
1.0646445 0.96364766 0.9963165 1.1170338 0.8889084 0.9300051 0.94057214 0.8644216
1.113942 0.89860666 1.070206 1.0755618 0.8802798 1.0608101 0.9321835 1.110624

static_variable_selection.single_variable_grns.municipio.norm.bias f4 [16]
00000000: 2892 e93d 8732 e8bd a436 e8bd 1222 eabd
00000010: 4adc e7bd d206 e83d d376 e8bd e14e e23d
00000020: 4f62 e93d cc43 e83d 0cfa e83d b6bc ecbd
00000030: d182 e83d dc70 eabd a3f2 e5bd d3ee e8bd
0.1140483 -0.11337762 -0.11338547 -0.1143228 -0.11321314 0.11329426 -0.11350789 0.11050201
0.11395704 0.11341056 0.11375818 -0.11559431 0.11353076 -0.114473075 -0.1122792 -0.11373677

encoder_variable_selection.flattened_grn.resample_norm.mask f4 [8]
00000000: a15f 0f3d 1362 a33d 96c2 fabd 4b67 213e
00000010: 5a7d e7bd 5ec6 f63d e77e d0bd 61f9 ea3d
0.03500331 0.079776905 -0.122441456 0.1576206 -0.11303206 0.12049554 -0.10180455 0.114733465

encoder_variable_selection.flattened_grn.resample_norm.norm.weight f4 [8]
00000000: d427 813f 9c8b 8b3f 9f87 5d3f b666 953f
00000010: e91c 613f 14ba 8f3f cd93 7d3f 9230 833f
1.009028 1.090198 0.86535066 1.167197 0.8793474 1.1228662 0.9905365 1.0249197

encoder_variable_selection.flattened_grn.resample_norm.norm.bias f4 [8]
00000000: 4817 9fbc e820 9d3d 0f05 2fbe bbf8 f83d
00000010: 4de8 13be 1fa6 f43d 30f9 93bd 515b 0ebe
-0.019420281 0.07672292 -0.17091773 0.121568166 -0.14444084 0.119457476 -0.07225263 -0.13902022

encoder_variable_selection.flattened_grn.fc1.weight f4 [8, 64]
00000000: dce6 39bd 99ab 90be 52f0 52be 4462 14bc
00000010: 3d93 f7bd a3e0 2e3d 2ee8 993d e46d 8b3d
00000020: d8e7 71bd 9eb0 bf3b 511a 893d edc0 4fbd
00000030: 9c14 f83d 0c93 803d 1383 45be bc85 dcbd
00000040: 576a d7be 120a a73e 677b 29be 8667 13be
00000050: 4df2 b3be ae0d 643c 8773 d93d 2158 bcbe
00000060: 09f8 2d3e e1a0 033e 030d 283e 1dc7 cdbd
00000070: 3b88 b6be f038 ecbc 8495 19bd a50a ab3d
00000080: 1716 273d 49ab 393e 2e86 4b3c cff7 9ebe
00000090: 9a5a a7be 632c 0e3e 30a3 c2bd b0cf 16be
000000a0: 3378 673e 0fc8 9d3e b190 9f3e 8ce9 69bd
000000b0: 7da5 003f 8892 a13e 55d8 73be 44fb 833e
000000c0: baa4 9bbd 023f 8cbe 143d ab3c c02e 03bf
000000d0: 9874 80be c62f 5abe d132 19bd a5b7 a13d
000000e0: 627c 18be 5e82 1abd 584c c9bd 79fd 1dbe
000000f0: c993 10be 068b a53e c999 7abe 5106 613d
00000100: 7294 d63e 0950 36be 114c 073e 0f02 abbe
00000110: 41d4 c3be cb7d 8abe e306 0a3e 3e2b 09be
00000120: 1b77 e03e b629 eabd e8af 473c 88bf ed3d
00000130: f42b 093e 5872 c2be 26d8 03be 124a 63be
00000140: 5433 163e a44b a53e 9b94 20be 5da3 ddbd
00000150: 797b e6bc 5d58 cfbe 65e4 153e e40e a1bd
00000160: 58fd a73e c6ab 0a3e f4c0 483c 6d48 5ebe
00000170: 48f3 a9bd 398c 773c c007 a6be 13f9 bf3d
00000180: 6397 383e 1d59 033d ba82 b43e 8400 bdbd
00000190: 976c c83d 6307 2f3e 94b1 d6bd 8814 b63d
000001a0: eb6b 963d 39e4 1cbe f9d7 bdbe ee00 ba3d
000001b0: f798 2b3e 059c babe 8508 3e3e 1ac7 693d
000001c0: ad85 54bc 0122 3e3e 6841 fa3c b548 233e
000001d0: 8e1f adbd 24d1 ab3e 7be0 793d bc7a 873d
000001e0: 71d0 eabe 867b d23d 18a8 28be de2f b0bd
000001f0: cad6 7ebe f201 5f3e eee0 cabc 6705 d7be
00000200: f97c 2fbe 108d f6bd 47b6 4d3e 864e 0f3e
00000210: 9dd9 b83d e6d6 243e b48b f5bd 95f9 b83e
00000220: bada 003e f3de 38be db2c a8bd 25d8 5ebd
00000230: 7845 fd3e 3c53 ccbd fbb7 393c a688 f83b
00000240: 5030 563d 7af5 343e 9fc3 91bd 383f 32bd
00000250: 9189 fa3d 0a62 89be 7f71 8ebe ddc4 aabe
00000260: b83e b13e 82b1 68be 183e b83e d354 413c
00000270: f15f 8fbe 3539 58be 5fbc c2be ece9 84be
00000280: 7319 783e 2dad 5bbe 4b4f be3d cff2 c1be
00000290: babb 12be 2962 053e 6767 f93d 2209 af3e
000002a0: f6ac b03e 947f e4bb e122 26be 9d97 083f
000002b0: 7748 11be 5a2b a5be 7640 84bd 0b8d c13d
000002c0: ccc6 f7be 6198 10bd 00f7 abb8 caee 48be
000002d0: d250 a3bd d47f 303e 670b 87be 3245 463e
000002e0: 3714 74be f1cd 67bc 9d25 0bbe 8c98 b63d
000002f0: 0424 41be a484 b6bd e6d8 9ebe 5138 f63d
00000300: e6c2 bd3d 18b4 883d 1ce3 4d3e 8363 31be
00000310: cacc 033e 873d d6bc e3f8 083e cb74 1fbe
00000320: 1bc3 c7be 7fb2 e7bd b0df cf3e ffa3 7c3e
00000330: 94b2 66be 414e a03e 4698 013d 3dec 2a3e
00000340: 4b2d 8c3e aced 4abe d78d 3a3e 5b9b 813e
00000350: c932 c63d a667 093e bad1 69be e853 813d
00000360: 9473 3abe 2d4b b13e 7b6c b8be 5fd0 7c3e
00000370: 5f51 9c3e 40bd 78ba d81f 5bbd 603d 213e
00000380: eb3b 72be 6298 1c3e 18ed 173e 3749 1f3e
00000390: acb9 793c bafd 44be 0cc8 7f3d ed9d 58be
000003a0: a410 b1bc fec6 163e 8189 a0bd 54d9 703c
000003b0: 37a6 83be c48a 973d 8804 033e 40ad 923d
000003c0: fda4 90be 816d a83d 02f6 6d3e c044 2f3d
000003d0: 0b83 663e c8e3 c23a 0536 d63d 627e 85be
000003e0: 55c4 f93e 410e 4bbe 684e 953d 5c9e 873e
000003f0: c43e 423e a575 71be 5735 9e3e 4f9d 14be
-0.04538618 -0.2825592 -0.20599487 -0.0090566315 -0.1208863 0.0426947 0.07514988 0.06808069
-0.059058994 0.005849912 0.066944726 -0.050721098 0.12113306 0.06278047 -0.19288282 -0.10767695
-0.42073318 0.3262487 -0.1655098 -0.1439496 -0.35145798 0.013919277 0.10617738 -0.36785987
0.16989149 0.12854339 0.16411214 -0.100477435 -0.3565081 -0.028835744 -0.037496105 0.0835164
0.04079255 0.18131746 0.012422128 -0.31048438 -0.3268631 0.1388412 -0.09503782 -0.14727664
0.22604446 0.30816695 0.31165078 -0.057107493 0.50252515 0.31557107 -0.23812993 0.25777638
-0.075997785 -0.2739182 0.020903148 -0.5124321 -0.25088954 -0.21307287 -0.037401978 0.078963555
-0.14891198 -0.037721984 -0.098290145 -0.15428723 -0.14118876 0.3233263 -0.24472727 0.054937664
0.4191013 -0.17803968 0.13212611 -0.33400008 -0.38247874 -0.27049097 0.1347919 -0.13395402
0.4384087 -0.11433737 0.012187935 0.11608797 0.13395673 -0.37977862 -0.12875423 -0.22196224
0.14668018 0.32284272 -0.15681688 -0.10822175 -0.028135048 -0.40497103 0.14637907 -0.07864168
0.32810473 0.13542089 0.012253035 -0.21707316 -0.08298355 0.015109115 -0.32427788 0.09373679
0.180265 0.032067407 0.35255986 -0.09228614 0.09786337 0.17092662 -0.10483089 0.08890635
0.073448025 -0.15321435 -0.37078837 0.090822086 0.1675757 -0.36447158 0.18557937 0.057074644
-0.012971324 0.18567659 0.030548766 0.15945704 -0.08453284 0.33558 0.061005097 0.066152066
-0.45862153 0.102774665 -0.16470373 -0.0860288 -0.24886623 0.21778086 -0.024765458 -0.4199631
-0.17137517 -0.12038624 0.20089065 0.13994798 0.090258814 0.16097602 -0.11989537 0.36127916
0.12583438 -0.18053798 -0.082116805 -0.05440535 0.49467063 -0.09976813 0.011335368 0.007584649
0.05229217 0.17671767 -0.0711739 -0.04351732 0.1223327 -0.2683261 -0.27820966 -0.3335332
0.34618163 -0.22723964 0.35984874 0.011800009 -0.28002885 -0.21115573 -0.3803434 -0.25959718
0.24228458 -0.2145278 0.09292468 -0.3788056 -0.14329425 0.13025726 0.121779256 0.34186655
0.3450696 -0.0069732163 -0.16224243 0.53356344 -0.141878 -0.32259637 -0.064576074 0.0945073
-0.48393857 -0.03530157 -8.199923e-05 -0.19622341 -0.079743996 0.17236263 -0.26375887 0.19362333
-0.23835836 -0.014148221 -0.13588567 0.08915815 -0.18861395 -0.08912018 -0.31024855 0.1202246
0.092656896 0.06674975 0.20106167 -0.17323117 0.1287109 -0.026152385 0.13376193 -0.15571897
-0.3901604 -0.11313342 0.40600348 0.24671935 -0.2252906 0.31309703 0.03163936 0.1669168
0.27378306 -0.19817227 0.1821817 0.2531384 0.09677655 0.13418445 -0.2283391 0.06314832
-0.18208152 0.34627667 -0.36020264 0.24688862 0.3053083 -0.00094886497 -0.053497165 0.15746069
-0.2365567 0.15292504 0.14836538 0.15555273 0.0152420215 -0.19237414 0.06244664 -0.21153994
-0.02161438 0.14724347 -0.07838727 0.014700253 -0.2571275 0.07399514 0.12794697 0.07161951
-0.28250876 0.08224011 0.23238376 0.042790174 0.22510926 0.001486891 0.10459522 -0.26072985
0.48782602 -0.19829656 0.072903454 0.26488006 0.18969256 -0.23580034 0.3090007 -0.14513133

encoder_variable_selection.flattened_grn.fc1.bias f4 [8]
00000000: 9e0b fbbd 185d f4bd ec2a 0fbe 07a6 223e
00000010: 781e efbd 8414 19bd 5658 e83d 45f5 ccbd
-0.12258075 -0.11931819 -0.13981217 0.15883647 -0.11675733 -0.03737308 0.11344974 -0.10007719

encoder_variable_selection.flattened_grn.context.weight f4 [8, 16]
00000000: 1f64 c53e e0d9 a8be 4ed4 1b3e c66c 533e
00000010: 70ee 9bbe b510 1e3e 3f89 babe a11b 8c3e
00000020: 893a 593e 01f4 fabe 4016 793e beae af3e
00000030: d51c 8dbe 6427 353d 0167 de3e 0e46 4fbe
00000040: 0ec9 e0be 2da9 c23d 67bb b13e 45cd dbbe
00000050: 124b 90be 31aa bbbe fd28 afbe 31d4 0ebd
00000060: 9c08 3d3e ab2b ecbe 48fa 19bf 0906 91be
00000070: e190 e43c b359 2cbe 440a d03e d9cf 9dbd
00000080: 850a 95be 3804 153f 448b 473d 0a34 4fbd
00000090: e0fb 91be b5b8 743e 5b0d 693e 5ed4 a2bd
000000a0: c914 0c3f 3bfd 8abe b5ad 8e3e 7202 5dbe
000000b0: 94d6 a1be d845 273e 6899 36be 3324 ce3e
000000c0: f7b6 2f3e 4c4a d83d e407 c53e eedd ac3e
000000d0: 4a35 08bf 58ed 1ebd 035e b33e 9794 b73e
000000e0: 9537 fdbe bec9 3cbe 1efc 8f3d 1c3e 49be
000000f0: ce81 563e aa6e 503e 0349 fabd a4fd c4bd
00000100: cf81 98be 51db e83e d065 0cbd 5e15 80be
00000110: ee5f aaba 3d34 adbe fc31 f53d 8233 07bf
00000120: 5dac 3d3d 8ebc 78be 7748 053d 6631 323e
00000130: 0dd2 1fbd 4894 c33e e176 b13e 9ab9 8f3e
00000140: 71d1 013f 197e a33d 84fd fe3e 642d b8bd
00000150: 2178 973e 8120 6e3e 1a08 1f3d 5c8f fa3e
00000160: 932e 703c e3d2 c8bd 3de7 b23e f17b e0be
00000170: 3435 fc3c 3dfe 0c3e 19ad 7ebd e8ac bebe
00000180: 760d e3bd a22c 063d a54f 37be 2569 46be
00000190: 448d c6be e82b adbe a8eb 4ebe cb82 6bbd
000001a0: f239 aebe dfbc d8bd aab2 da3c 267c 00bf
000001b0: cfbd c03e c645 a53e ad96 a83e d571 e5bd
000001c0: fb56 bbbe 54a0 02bf 07b0 aa3c 3aa6 1ebe
000001d0: 9e5d 203e da40 b0be da51 edbe 128f c03e
000001e0: 406a 013e dc98 783e 0893 9abc 8b1c 323e
000001f0: 4d87 dfbe 1179 50be 79ef e3bd cad9 e4be
0.3855295 -0.32978725 0.15217707 0.20646963 -0.3045535 0.1543606 -0.36432835 0.2736483
0.21213736 -0.49014285 0.24324894 0.34313005 -0.2756106 0.04422702 0.4343796 -0.20241567
-0.43903393 0.09504924 0.3471329 -0.42930046 -0.28182274 -0.36653283 -0.3421096 -0.03487033
0.18460315 -0.46127066 -0.60147524 -0.28324917 0.027901115 -0.16831093 0.40632832 -0.077056594
-0.29109588 0.5820956 0.0487168 -0.050586738 -0.28512478 0.23898585 0.22759001 -0.07950662
0.54719216 -0.27146325 0.27866903 -0.21582964 -0.31609023 0.16335237 -0.17831957 0.40261993
0.1715964 0.10561046 0.38482583 0.3376307 -0.5320631 -0.038800567 0.35032663 0.35855553
-0.49456468 -0.18436334 0.070305094 -0.19652599 0.20947954 0.20354715 -0.12220957 -0.096186906
-0.29786536 0.45479825 -0.034276783 -0.25016302 -0.001299856 -0.33828917 0.119724244 -0.5281297
0.046306957 -0.24290678 0.03253981 0.17401657 -0.03901868 0.38199067 0.3466101 0.2807129
0.5071021 0.079830356 0.49802792 -0.089930326 0.2958384 0.23254587 0.038826086 0.489375
0.014659542 -0.098058484 0.34942046 -0.4384456 0.030787088 0.13768859 -0.062176798 -0.37241292
-0.11086552 0.03275741 -0.17901476 -0.19376047 -0.38779652 -0.3382256 -0.20207083 -0.05749778
-0.34028584 -0.10582899 0.026696522 -0.50189435 0.37644812 0.32279795 0.32927456 -0.11203352
-0.36589798 -0.5102589 0.02083589 -0.15493098 0.15660712 -0.34424478 -0.4635151 0.37609154
0.12638187 0.24277061 -0.018868938 0.17393701 -0.43657914 -0.20358683 -0.1112966 -0.4469741

encoder_variable_selection.flattened_grn.fc2.weight f4 [8, 8]
00000000: e8b5 113e dc85 053b e401 2ebf 089c 003e
00000010: b98f efbe efa8 003f a8a1 8b3e 5d83 01be
00000020: 5f2e 34be d735 c73d a531 1ebe 4e5f 9cbe
00000030: be9e fa3e 14a6 84be c21e 8d3e 8412 0bbf
00000040: bef6 b0be 9113 c2be c9a0 073f 9dc9 bf3e
00000050: ffe6 2ebe 1253 423e 73e5 15be b62c d2bd
00000060: fd59 56bf d59e 1c3f c2ed 8dbf 60ee 193f
00000070: 9458 b13e 38c9 8e3e 332c 193f f9f0 543e
00000080: 08c8 43be d721 fe3e a64a ce3c cdf6 ee3d
00000090: 659e 733e 55b3 103f e413 6ebe 620d a9bd
000000a0: 4dbe bebe 19d4 243f 7237 05bf 86c3 563d
000000b0: e238 97be 01ad 353f 6128 7b3b 350e 45bd
000000c0: e051 07bf cce7 47bf 84c2 8c3d 606d f23e
000000d0: 43eb 33bf 22ed 58be e850 5ebe c68b 54bf
000000e0: 6e9d fc3e 4cb7 1bbe f091 96be bbfb 333f
000000f0: 6a82 14bf 42b8 7f3f d237 15be 5fde bebd
0.14229548 0.0020373976 -0.67971635 0.12559521 -0.4678934 0.5025777 0.2727177 -0.12647767
-0.17595814 0.09727066 -0.15448625 -0.30541462 0.48949236 -0.25907958 0.2756253 -0.5432513
-0.3456325 -0.37905553 0.52979714 0.37458506 -0.17080306 0.18977001 -0.14638309 -0.10262434
-0.8373106 0.6117986 -1.1088183 0.60129356 0.34637892 0.27887893 0.5983307 0.20795049
-0.19119275 0.49635193 0.02518208 0.11668167 0.23790891 0.5652364 -0.23249775 -0.08254506
-0.37254563 0.64386135 -0.5203773 0.05243256 -0.29535586 0.7096711 0.0038323628 -0.048109252
-0.52859306 -0.7808807 0.068730384 0.47349072 -0.70280856 -0.21184209 -0.21710551 -0.8302578
0.4933886 -0.15206641 -0.29408216 0.70305985 -0.58011496 0.9989053 -0.14572075 -0.09319758

encoder_variable_selection.flattened_grn.fc2.bias f4 [8]
00000000: b84d b83d c4fa e03b 34cb dabd 2f76 273e
00000010: 0208 cdbd 4de7 acbd e6dc 083e f5d0 2f3e
0.08999199 0.006865831 -0.10683289 0.16353677 -0.10011293 -0.084425546 0.13365516 0.17169555

encoder_variable_selection.flattened_grn.gate_norm.glu.fc.weight f4 [16, 8]
00000000: d2ec c23e 9378 c0be 0895 a3bc c4e3 393e
00000010: e6af 01be f666 dabe 5225 9f3e c335 853e
00000020: bf3b b83e 8412 a93c 5a26 cb3e 3580 e43e
00000030: 727f 12be 91b4 a3be af96 b53d 0edd 423e
00000040: 1649 17bf 1be0 4f3e c6b0 f6be fe88 d3bc
00000050: 8628 603d 029a 563e 6e3d 1dbe 4531 92be
00000060: 4205 debd 5bdf afbe e869 8abe 2602 7b3e
00000070: dc34 953d 3d4b 383e 65e8 bcbe 8b1d e13c
00000080: f29d d2be f67e 1e3f 903d 8a3d fafa b6be
00000090: d25c 77be 5953 11bf 5e55 053d 708e 20bf
000000a0: 8402 af3d 650e d2bd d8f4 e43d 9699 0a3e
000000b0: 6f8c 6ebe cd7a 5bbe e67c 823d e994 413e
000000c0: 2609 9cbe 90e8 0f3d f8d6 bd3e 0f9d a13e
000000d0: e814 3dbe 2176 8e3e 5af3 b13e fc83 01bf
000000e0: dcbe 90be 7a07 033f 3525 2a3d 407b 7b3a
000000f0: bc5b db3b ee65 62bd 7da9 7cbc d831 50be
00000100: efa1 63be e95b dbbd 0545 33be fceb 6c3d
00000110: 0ddc 493d 33ca 55be 216a 92be a465 653d
00000120: 4b56 0a3d 2180 a63e f2f2 6fbd 1aee 073f
00000130: 1ecc 40bd 9562 cfbe c243 5ebe 57c2 883d
00000140: 4a4e 3a3d 7347 d8be 3a06 f0be 6e45 0c3f
00000150: 54f0 33bd 9b65 0abe d015 aabe 69a2 ce3d
00000160: cb4f ef3d 83d8 663e b9df 3cbe 35f5 443e
00000170: 8511 bf3e d0c2 eebb a23a a7bd 5ac8 87bc
00000180: a62e a0be 7b0c f73d 5966 00bf ceb2 2f3c
00000190: 7424 5f3e b44d 133f 2941 f0be 4d8e 4e3e
000001a0: 2c8d e5ba e0e9 713c 8813 2a3f 54d1 35bd
000001b0: 8de5 073e 16c2 0ebf 80c7 ee3d a97d 6e3e
000001c0: 9dce 1ebe 9a17 b3be 6028 7f3c 201b deb9
000001d0: e0c0 1b3b fc9c af3b 2dec 5d3d 602a 6ebe
000001e0: cf84 c4be 597c 15bf 3808 a33d a8d4 25be
000001f0: 1e89 a63e ed85 523e ec20 8c3e 2e54 17bd
0.38071305 -0.3759199 -0.019968525 0.18153292 -0.12664756 -0.42656678 0.3108316 0.2601758
0.35983083 0.020638712 0.39677697 0.44629064 -0.14306429 -0.319737 0.08866631 0.19029638
-0.59095895 0.20300333 -0.48181742 -0.025822159 0.054726146 0.20957187 -0.15355465 -0.28553215
-0.108408466 -0.34350094 -0.27033925 0.24512538 0.07285473 0.17997451 -0.36896053 0.027479907
-0.41136128 0.61912477 0.06750023 -0.35738355 -0.24156502 -0.56767803 0.032552116 -0.6271734
0.08545402 -0.10256652 0.11179513 0.13535151 -0.23295759 -0.21433564 0.06371479 0.18904461
-0.3047573 0.0351339 0.3707807 0.3156514 -0.18465006 0.278245 0.34755975 -0.5059202
-0.28270614 0.51183283 0.04153939 0.0009593256 0.006694285 -0.05527299 -0.0154212685 -0.20331514
-0.22229742 -0.1071089 -0.17506798 0.05784224 0.049282122 -0.20877914 -0.28596595 0.056005135
0.0337737 0.3251963 -0.0585813 0.5309769 -0.04706966 -0.405049 -0.21705535 0.066776924
0.04548482 -0.4224201 -0.4687975 0.5479344 -0.043930367 -0.13515322 -0.33219767 0.10089571
0.11685141 0.2254353 -0.18444718 0.19234164 0.37318054 -0.007286407 -0.0816548 -0.016575027
-0.3128559 0.12062927 -0.5015617 0.010723783 0.2179125 0.5754044 -0.46924713 0.20171471
-0.0017513386 0.014765233 0.6643605 -0.044389084 0.1327116 -0.557649 0.11659145 0.23290123
-0.15508504 -0.34978944 0.015573591 -0.0004236335 0.0023766086 0.00535929 0.054180313 -0.23258352
-0.38382575 -0.58392864 0.07960552 -0.16194403 0.32526487 0.20558901 0.27368867 -0.036945514

encoder_variable_selection.flattened_grn.gate_norm.glu.fc.bias f4 [16]
00000000: 61a7 46bd a386 923d 8681 31be 5ba9 f13c
00000010: f69f 11be efd4 ec3d a2f1 b4bd ff5d 09be
00000020: 0f77 94bc 7766 01be 3c29 cb3d 1ca2 273d
00000030: 7f4f 093e 37ad eabd 79dd fbbd 5b07 333e
-0.04849947 0.07154586 -0.17334566 0.0294997 -0.14221177 0.11564051 -0.0883515 -0.13414763
-0.018123178 -0.12636743 0.09919974 0.040926084 0.13409232 -0.11458819 -0.12298102 0.17483275

encoder_variable_selection.flattened_grn.gate_norm.add_norm.norm.weight f4 [8]
00000000: 6613 8d3f f50a 833f 4aa9 583f fb89 873f
00000010: 9a93 633f deb5 8b3f aaa0 613f 1eda 893f
1.1021545 1.0237719 0.84633315 1.0588983 0.888971 1.0914876 0.8813578 1.0769689

encoder_variable_selection.flattened_grn.gate_norm.add_norm.norm.bias f4 [8]
00000000: f721 1cbd 3711 293d 138c 4fbd 3ae3 fe3d
00000010: f348 f8bd e179 c73d 7e6f 71bd 6f9c c7bd
-0.03811833 0.041276183 -0.050670695 0.12445684 -0.12123289 0.097400434 -0.058944218 -0.09746634

encoder_variable_selection.single_variable_grns.time_idx.resample_norm.mask f4 [16]
00000000: b502 e93d 6ae4 a33d 734f 0f3d 08bc b33d
00000010: efb7 ac3d 67a9 fdbd 67be d63d e282 bc3d
00000020: c181 f6bd 6773 be3d 8b9d 363e 748e e9bd
00000030: eca9 ba3d 1fc7 923d 2ec4 9bbc 80fd 013e
0.113774695 0.08002551 0.034987878 0.087760985 0.0843352 -0.123858266 0.10485535 0.092046514
-0.12036467 0.09299355 0.17833535 -0.11404124 0.09114441 0.071668856 -0.019014444 0.12694359

encoder_variable_selection.single_variable_grns.time_idx.resample_norm.norm.weight f4 [16]
00000000: 6ec6 8e3f fbc1 6d3f 15c1 813f 11f5 8a3f
00000010: 0543 8b3f 16fd 5e3f 9256 8c3f 13b4 973f
00000020: bdcb 5f3f a9eb 883f 70f2 963f f051 623f
00000030: 49ca 8a3f 54fe 8a3f 4da3 673f cef5 903f
1.1154306 0.92874116 1.0137049 1.0856038 1.0879828 0.8710493 1.0963919 1.1851829
0.87420255 1.0696918 1.1792736 0.88406277 1.0842983 1.0858865 0.9048355 1.1325014

encoder_variable_selection.single_variable_grns.time_idx.resample_norm.norm.bias f4 [16]
00000000: 38a3 e9bd d61b b53d 9618 7e3d 2b8c b53d
00000010: 4842 a53d 4782 0fbe 6675 e73d 98b5 91bd
00000020: 791b babd b8ab 1d3e 8f4c 40be 1607 ed3d
00000030: 3fca 8abd 2f31 b4bc 5e86 203e 0649 09be
-0.11408085 0.088432 0.062035166 0.088646255 0.08069283 -0.1401454 0.11301689 -0.071147144
-0.09087271 0.15397537 -0.18779205 0.11573617 -0.06776857 -0.021996109 0.15676257 -0.13406762

encoder_variable_selection.single_variable_grns.time_idx.fc1.weight f4 [8, 8]
00000000: 4ecf d4be 083c a53e 30ad 963e 3386 c9bd
00000010: a5bf 9e3e 9857 103f 8ab3 52bf 1201 f0bc
00000020: c535 c6be a6a0 2a3f 9ea5 eabd 923f 2bbe
00000030: bcd0 e73e a10a bfbd 3f71 9fbe c394 463e
00000040: 89e7 763f d72a 40be 972c b2bf ee39 08bf
00000050: 9d7d ee3c 6240 91bf c382 a23d 366d 2abe
00000060: d1b4 b23e 74d4 4b3f 5e30 1f3f 6061 8dbe
00000070: 1a5a e4be 54b5 c13c c35c 30bf 8932 efbe
00000080: f165 3bbf e3a7 5fbe 3b88 b43d 7ddd c5be
00000090: 60d2 933e afca 253e 81f4 93be 31d4 10be
000000a0: c338 b43f 88a8 fabe a810 95bd 2cf3 09bf
000000b0: 899f ae3d ae53 6e3e bdfe 82be 4cb3 0f3f
000000c0: 75dc 413f dfd0 6a3e 6978 ee3e 1779 fbbe
000000d0: d71f 12bf 6642 b43e dbc1 d6be e28e 363e
000000e0: 28ff 9cbc b8bf 83bc b01a fabe 8f5e d0be
000000f0: 2de5 523e b837 dc3e b2d9 22be 02c0 0f3e
-0.4156441 0.32272363 0.29429007 -0.098400496 0.31005588 0.5638366 -0.82305205 -0.029297385
-0.38712898 0.6665138 -0.1145737 -0.16723469 0.4527644 -0.09328199 -0.31141087 0.19392686
0.96447045 -0.18766342 -1.3919858 -0.53213394 0.029112631 -1.1347773 0.07935097 -0.16643223
0.34903577 0.7962105 0.6218318 -0.27613354 -0.44599992 0.023646034 -0.68891543 -0.46718243
-0.73202425 -0.21841387 0.088150464 -0.38645545 0.2887144 0.16190599 -0.2889748 -0.14143445
1.4079822 -0.48956704 -0.072785676 -0.53886676 0.08526523 0.23274109 -0.25584975 0.5613296
0.75727016 0.2293124 0.4657624 -0.49115822 -0.57079834 0.35206908 -0.41944775 0.17827943
-0.019164637 -0.01608263 -0.48848486 -0.40697142 0.20595236 0.4301126 -0.15903357 0.14038089

encoder_variable_selection.single_variable_grns.time_idx.fc1.bias f4 [8]
00000000: 1073 243e a04f 0e3e 9d40 343d 6d1e 00be
00000010: f554 033e c83b 58be 9657 b7bd d8f1 aa3d
0.16059518 0.13897562 0.044006933 -0.12511607 0.12825377 -0.21116555 -0.089522526 0.08346909

encoder_variable_selection.single_variable_grns.time_idx.fc2.weight f4 [8, 8]
00000000: 88b6 b93e d697 083e 5ee9 bfbd 06b5 7bbe
00000010: 9518 ae3e c416 febe 1143 f4be 695b 803f
00000020: 3cce abbe c9f7 81bc f57b 483d 3e4f ccbd
00000030: 6a99 bdbe 57e8 3e3f 58ce dabe 9933 79bf
00000040: dfe4 babe 46b7 be3e a2d8 6ebe dbd4 05bf
00000050: bbfa 04bd 92cf 4abe b9af a83e 8f7a 193e
00000060: ca91 e7be d70b 6b3e 5f64 de3e 7e1d cb3e
00000070: b4e0 f5bd f2ca 0d3f 4b6d b43f 65ce 1a3e
00000080: 2c88 f7bd 3118 063f fbd7 53be ea03 0ebf
00000090: 8183 863e 8a9d 233f 139f 80be 2aa0 90bd
000000a0: b3d5 17bf da70 66bf 0fc9 e3be 55e0 b23e
000000b0: 3e2f b9be 7463 7f3f 3fee 5a3e 36a0 ab3e
000000c0: 2ead 12bf 8ea8 f1be e356 e13e 964b fabd
000000d0: 558c 9f3e ed71 9c3e ae61 113e f4df 063c
000000e0: 70cd 01bf c874 4cbf 73a3 67be f990 293e
000000f0: e46d 02bf 0938 debe a29a e83e 7874 a1be
0.36272073 0.13339171 -0.09370683 -0.24580774 0.3400313 -0.49626744 -0.47707418 1.0027896
-0.33555782 -0.015865223 0.04894634 -0.09976052 -0.37031108 0.7457327 -0.42735553 -0.97344357
-0.3650274 0.37249202 -0.23324826 -0.52277917 -0.032465678 -0.19805744 0.32946566 0.14988159
-0.45228416 0.22953735 0.43435952 0.39670938 -0.12005749 0.55387795 1.4095854 0.15117796
-0.120865196 0.52380663 -0.20687859 -0.5547472 0.26272205 0.6391226 -0.25121364 -0.07061799
-0.59310454 -0.9001595 -0.44489333 0.34936777 -0.36168855 0.9976113 0.21379946 0.3352067
-0.572955 -0.4719891 0.44011602 -0.12221448 0.31161752 0.30555668 0.14197418 0.0082321055
-0.507041 -0.79865694 -0.22620945 0.16559209 -0.5094893 -0.43402126 0.45430475 -0.3153417

encoder_variable_selection.single_variable_grns.time_idx.fc2.bias f4 [8]
00000000: 0acd 763d 9d4a b03d 6231 0b3e 73f8 c8bd
00000010: c0a4 de3c 0ceb 17be a0b2 21be 1594 e6bd
0.060254134 0.08607981 0.13593057 -0.09813013 0.027178168 -0.14835757 -0.15790796 -0.11258713

encoder_variable_selection.single_variable_grns.time_idx.gate_norm.glu.fc.weight f4 [32, 8]
00000000: 7e21 303e 55ed 05be f212 91be 561b 163e
00000010: b53b 7cbe fe1d 833e 4a6b 26be 5976 3bbe
00000020: cad8 a1be 15e2 c93d 10cb f3be 4e55 083e
00000030: 674e 273c 81fc bfbe d520 6b3d 639c 503e
00000040: 3a76 b23e 8374 92bd 571a 173e 846e 4bbe
00000050: ade3 a03e f0f1 d4be 1dbf c3bc e6da 5fbe
00000060: a316 90bd 38b9 1abd 9926 fcbe 9c7c 3abe
00000070: 9a16 353d fa23 823e cb2f 47be 3593 bd3e
00000080: 311e adbe 2c6a 593c 99f2 adbd 3132 c23c
00000090: 692c 873e ad0d fabc 944f 24be f6a8 bd3e
000000a0: 7378 e33d 772e c23e 08c3 d2bd 5b91 d03e
000000b0: f1e1 8c3e 3da0 713e b44d 723e 0745 88be
000000c0: 2c3a 383e 1c16 9ebc 72fc b1bd bb06 7abe
000000d0: da24 003e 211a 473e e12a 4f3e 0f02 6ebe
000000e0: 985e 083f 2f81 9b3c b419 893e 7d66 91be
000000f0: 1a73 58be 9465 d1be 99b2 aabe bc02 10be
00000100: 55b4 54be 6c35 063b ae47 0ebd 0682 ff3d
00000110: 28c6 103e 4c3e 53be e970 033e bee2 053f
00000120: c33a 4abe f050 cc3d 83d8 373e a426 cabe
00000130: 5e50 88bd ea12 133e 585b 8a3e 7a9e 5f3e
00000140: 7eed cb3e a66e 9a3e 3016 8f3c 18b0 813e
00000150: 0623 073f c5df a53d a015 9a3e 0275 8e3d
00000160: 1364 df3c 6540 01bf 8d35 62be 7088 c0be
00000170: 135a 553e 5d6b 1b3e e44a 1b3e ef97 9dbd
00000180: 62c5 bfbe b3cd 99bd c724 0dbe 59d5 46be
00000190: dd07 0a3e 1840 7f3e 0863 e33e 684c b93e
000001a0: 3ecf 5dbe 01be ff3e 5722 4f3e 3aee 813d
000001b0: c930 863e b942 9fbe 56aa 503e 7e5d dd3d
000001c0: 7e41 31be a486 ddbd 52fa 253e 482a 903e
000001d0: fb6b 0cbf ea20 153e fc42 dcbe 9454 5ebe
000001e0: c2a8 a9be 6f33 06be 1ce0 c33e 8bc6 24be
000001f0: 062d 4fbe 2e6a da3e b95b 533e 572d a53d
00000200: 2deb e23e 00ec fd3e 2ba3 623e df4a a8be
00000210: 3607 ce3e 8a96 7d3e eb53 9e3e caae c7be
00000220: 511b 973e 92f2 adbe 7355 a6be 06d1 353d
00000230: 2389 233e f728 883e dff5 9dbe aae8 d2be
00000240: da44 583e 4ae5 063e 5822 153c d844 37be
00000250: d13e 7dbe 5f63 88be 3622 c13e fc1c c83d
00000260: fd24 7abe d618 8abd 90a0 20be b3b4 b23d
00000270: 417d 90be f127 443e 343e f13d 679e c2bd
00000280: 67df 7dbe 54cc e3bc 7dc8 b2bd a7bb ae3e
00000290: 0d90 903e a84d 8d3e b386 a33e 41a9 43be
000002a0: 14db 4b3e 4fa3 c3bc 7cf4 50be 4051 de3e
000002b0: cb43 7cbe b1ac cebc cd63 343d de8a 95be
000002c0: a289 e43d 3f50 b9bc 833e 23be 776f ce3e
000002d0: fa90 083e e853 b73d c0a2 f3bd baf5 d0be
000002e0: 099f 853e c603 d1be 0f1f c9bd aadb 4b3e
000002f0: 9148 683e f85b c9be fc49 f43d 3055 a5bc
00000300: 8cdd 7abe 43c2 a43e 2cab 2fbe 606c e0be
00000310: 6236 933e 421c 05bd a37a 633e 1f02 603e
00000320: 2909 2bbc 1f83 35be 3e20 b23d f18c 02bf
00000330: 8cb1 863e 75d5 5cbe adad 73be 9ca2 d3be
00000340: 24a6 8b3d c858 3ebe bac5 a43e 4a87 8e3c
00000350: c475 d93e b977 cfbe 54c3 d0be b8be b5bd
00000360: af99 503e 1105 5fbd ad29 783e 2911 fc3c
00000370: 0317 183e a923 203e f6c6 13bd b960 d6be
00000380: 91c8 b8be 367e 033e 2fd7 dfbd b071 26be
00000390: 6dc0 93be a0a6 2b3d b6f7 f53e 8835 a53d
000003a0: 1e3e 92bd d5a8 abbe 9766 ac3e 88a5 60bd
000003b0: c6f4 8bbc 2575 0e3e 9024 8c3d 0230 c23e
000003c0: 92da 89be 0e76 7a3e ba04 313e 315c be3e
000003d0: 96b6 f13c 2e7e 08be b581 093f c641 dfbc
000003e0: 9e45 3f3e 4c06 c63e 6b35 8d3e 50cd 393d
000003f0: 2b25 8a3e 6de7 c23e 785f 5f3d a99a 953d
0.17200276 -0.13078816 -0.28334767 0.14658865 -0.24632151 0.2560882 -0.16251865 -0.18306865
-0.3161071 0.09857575 -0.47615862 0.13313791 0.010211564 -0.37497333 0.057404358 0.20372157
0.34855825 -0.07151129 0.14756142 -0.19866377 0.31423703 -0.41590834 -0.02389484 -0.21860847
-0.070355676 -0.037774295 -0.49248198 -0.18211597 0.044211008 0.25418073 -0.19451825 0.37026373
-0.33812097 0.013269942 -0.084935375 0.023705574 0.2640107 -0.0305241 -0.16045982 0.3704297
0.11106958 0.37926075 -0.102911055 0.40735897 0.2751613 0.23596282 0.23662454 -0.26615164
0.17990941 -0.019297652 -0.08690728 -0.2441663 0.12514058 0.19443561 0.20231201 -0.23242973
0.5326934 0.018982498 0.26777422 -0.28398505 -0.21137658 -0.4089781 -0.33339384 -0.14063543
-0.20771916 0.002047862 -0.034736328 0.12475972 0.1413809 -0.20629233 0.1283604 0.52299106
-0.19748978 0.09976375 0.17953686 -0.39482605 -0.06655954 0.14362684 0.27022815 0.21837798
0.3982963 0.30162543 0.017466635 0.2532966 0.52787817 0.08099321 0.30094624 0.06955911
0.027269399 -0.50488883 -0.2209074 -0.37604094 0.20835142 0.15177675 0.15165287 -0.07694995
-0.3745528 -0.07509937 -0.1378356 -0.19417323 0.13479562 0.24926794 0.44411492 0.36191106
-0.21661088 0.4994965 0.20227943 0.06344266 0.26209095 -0.31105593 0.20377478 0.10808848
-0.1731014 -0.10816696 0.16208771 0.28157258 -0.54852265 0.14563337 -0.43019855 -0.21711951
-0.33136564 -0.13105558 0.3825692 -0.16091363 -0.20232019 0.42659134 0.20640458 0.080652885
0.4432005 0.49594116 0.22132556 -0.32869622 0.40239877 0.24764457 0.309234 -0.3900054
0.29513028 -0.3397413 -0.32487068 0.044388793 0.15970282 0.26593754 -0.30851647 -0.41193134
0.21120015 0.13173404 0.0091024265 -0.17897356 -0.24730994 -0.26638314 0.37721413 0.09771153
-0.24428172 -0.06743018 -0.1568625 0.08725872 -0.2822056 0.19155861 0.117794424 -0.09502869
-0.24792252 -0.027807392 -0.08729646 0.34127542 0.28234902 0.2759831 0.31938705 -0.19107534
0.1990779 -0.023881583 -0.20405763 0.43421364 -0.24635236 -0.02522883 0.04404049 -0.2920751
0.11159064 -0.022621272 -0.15941815 0.40319416 0.13336554 0.08951551 -0.118962765 -0.40812474
0.26097897 -0.4082319 -0.09820377 0.19908014 0.22683932 -0.3932798 0.11928174 -0.020182222
-0.24498576 0.3217946 -0.1715514 -0.43832684 0.28752428 -0.032497652 0.22214751 0.21875809
-0.010439196 -0.177258 0.08697556 -0.5099631 0.26307333 -0.21565802 -0.23796721 -0.41335
0.06818798 -0.18588555 0.32182103 0.017398495 0.4247266 -0.4052103 -0.40774024 -0.08874267
0.20371126 -0.05444819 0.24234648 0.030769901 0.14852528 0.15638603 -0.036078416 -0.4187067
-0.3609052 0.12841114 -0.10929715 -0.16254306 -0.28857747 0.041906953 0.4804055 0.08066851
-0.07140754 -0.33527246 0.3367202 -0.054845363 -0.01708449 0.13911875 0.06842911 0.37927252
-0.26924568 0.24459097 0.1728696 0.3717971 0.02950601 -0.13329384 0.5371354 -0.027253043
0.186789 0.3867668 0.27579817 0.045361817 0.26981482 0.3806719 0.054534405 0.0730489

encoder_variable_selection.single_variable_grns.time_idx.gate_norm.glu.fc.bias f4 [32]
00000000: 3a60 edbd 02d7 9c3d c179 833d 98ca b63d
00000010: ba6a c73d bac4 14be 685d e93d 6ddc 8dbd
00000020: 0854 b7bd cb1c 0c3e 9806 43be 3344 eb3d
00000030: c571 aebd 8e0f a0bc 2647 263e 4a0d 08be
00000040: 48ed ebbd 1ed7 e1bc 4eea d93d ba38 943d
00000050: c160 19be 09ab 4c3d 61e8 dabd a5d4 533e
00000060: 2a09 babd 0ed5 20be c319 c1bd 0261 a53d
00000070: 8965 b2bd 7644 98bd d591 8bbd 8bbd 99bd
-0.115906194 0.07658197 0.06419707 0.089253604 0.09737153 -0.1452817 0.11394769 -0.069268085
-0.089515746 0.13682859 -0.19045484 0.11487617 -0.085177936 -0.019538667 0.16238078 -0.1328632
-0.11519867 -0.027568396 0.10640393 0.07237382 -0.14978315 0.0499678 -0.10688854 0.20686586
-0.09083779 -0.15706274 -0.09428742 0.080751434 -0.087107725 -0.07434933 -0.06814925 -0.075068556

encoder_variable_selection.single_variable_grns.time_idx.gate_norm.add_norm.norm.weight f4 [16]
00000000: d223 8f3f 525b 6f3f bbc5 8d3f a4e7 933f
00000010: 8a6c 933f da5d 5b3f d165 933f 4666 953f
00000020: 62c4 603f 5df5 853f b8c6 933f 2ae3 663f
00000030: 2c0a 893f c682 8c3f 5f65 693f dd8a 8f3f
1.1182806 0.9349872 1.1075968 1.1555066 1.1517498 0.8569008 1.1515447 1.1671836
0.87799656 1.0465504 1.1545019 0.90190375 1.0706229 1.0977409 0.91170305 1.1214253

encoder_variable_selection.single_variable_grns.time_idx.gate_norm.add_norm.norm.bias f4 [16]
00000000: 28c9 03be aa1e cb3d 229c fc3d 5c7f 233e
00000010: 740f 143e 3c3e 06be c0a2 b43d 97fa cebd
00000020: cc62 cebd 3505 263e f94a 29be 206e be3d
00000030: ae48 f9bc e55d 5a3c 4e03 233e 922a f0bd
-0.12869704 0.09917958 0.123344675 0.15966552 0.1445902 -0.13109678 0.088201046 -0.1010639
-0.10077438 0.16212924 -0.16532506 0.092983484 -0.030430164 0.01332805 0.1591923 -0.1172687

encoder_variable_selection.single_variable_grns.T2M.resample_norm.mask f4 [16]
00000000: 84b3 28be 6911 05be 37de 1b3e edd4 f53d
00000010: 44fd 08be a66b 06be 5c2a a53d fcf6 0ebe
00000020: 0124 04be 4e29 16be 339e 12be 98f6 8d3d
00000030: 667a 77bd 8887 27ba b66b 1d3e 055f 12be
-0.1647473 -0.12994923 0.15221487 0.12003503 -0.13377863 -0.13127002 0.0806472 -0.13961405
-0.1290436 -0.14664194 -0.1431816 0.069318 -0.060419463 -0.000639074 0.1537312 -0.1429406

encoder_variable_selection.single_variable_grns.T2M.resample_norm.norm.weight f4 [16]
00000000: 65bd 753f 7f9b 5e3f dc90 933f 21ad 753f
00000010: 257b 5b3f 5719 903f b51c 8b3f 98a7 653f
00000020: 68fa 873f 5926 5a3f 59a7 923f 651e 763f
00000030: e933 733f fe38 803f 62b9 933f 4a20 5c3f
0.9599212 0.8695602 1.1528583 0.959673 0.8573478 1.1257733 1.0868136 0.8970885
1.0623293 0.85214764 1.145732 0.9614013 0.95001084 1.0017393 1.1540949 0.8598677

encoder_variable_selection.single_variable_grns.T2M.resample_norm.norm.bias f4 [16]
00000000: a555 18bd 1ce0 043e 4b84 0b3e c76c 0b3e
00000010: a90a 183e 094a 01be fa22 a73d f08b 05be
00000020: 6e54 bbbd 84bc 153e 90e1 13be 3604 ad3d
00000030: f841 99bd ea36 933b 0f5f 193e 7e82 0ebe
-0.037191052 0.12976116 0.13624685 0.13615714 0.14847817 -0.12625898 0.08160968 -0.13041663
-0.09146963 0.14622694 -0.14441514 0.08448069 -0.07483286 0.0044926303 0.14977668 -0.13916966

encoder_variable_selection.single_variable_grns.T2M.fc1.weight f4 [8, 8]
00000000: 2173 83be 9b29 16be 38c8 7cbf 0cdb 1e3f
00000010: f161 373d 4690 ec3d 9b1d 723d aa22 70bc
00000020: aada 213f 44ba 4e3e 2ec3 a63e 32dc 2ebe
00000030: d6f5 1b3f c3f8 f8be 02a5 8b3e 0798 ad3e
00000040: 408e 743f 6f21 443c cfe1 04bf b5f4 38be
00000050: 6692 69bf bd5e 783e f3ac 9a3e 47f0 1abe
00000060: e484 fd3e bf93 193e 9a43 c23c 760a 653e
00000070: e13b 22bf 77d9 bebe 24db ea3e 58d3 003f
00000080: 9aeb 833f 89a1 16bf 1e5d 693e a420 053d
00000090: 8550 613f 8bbc b7be 3978 cf3e 3540 1d3f
000000a0: 263a 8abe 732c 2cbe aeae 98bf 59b4 2e3d
000000b0: f60e c23e c8b0 25be b5e0 9e3f 227c 72bf
000000c0: a214 ccbe 2204 473f fba8 e13e e8a9 a0bc
000000d0: e04e 943e 7b16 a53e a44a 2dbf c4bd 993e
000000e0: be27 8a3e e3f1 87be a09e 44bf d0bf b0be
000000f0: 9322 37be f401 443f 4e15 f7be f6d1 a7be
-0.25673774 -0.14664309 -0.9874301 0.6205299 0.04477114 0.115509555 0.059110265 -0.014656702
0.6322428 0.20188242 0.32570785 -0.17076185 0.6092199 -0.4862729 0.27274328 0.3390505
0.95529556 0.011970862 -0.51907057 -0.18062098 -0.9123901 0.2425489 0.30210075 -0.15130721
0.4951545 0.14997767 0.023713876 0.22367272 -0.6337262 -0.37275288 0.45870316 0.50322485
1.0306275 -0.58840233 0.22789428 0.03250183 0.8801349 -0.35886034 0.4052141 0.614261
-0.2699749 -0.16813831 -1.1928308 0.04265246 0.3790204 -0.16180718 1.2412325 -0.9472066
-0.39859492 0.7774068 0.44074234 -0.019612268 0.28966427 0.32243714 -0.6769202 0.30027592
0.26983446 -0.26551732 -0.7680454 -0.3452134 -0.17884283 0.7656548 -0.48258442 -0.32777375

encoder_variable_selection.single_variable_grns.T2M.fc1.bias f4 [8]
00000000: 662d 0c3c e740 a1bb e4b9 d73d a647 debd
00000010: c4d5 11be 7587 0a3e 1768 12be d3c8 563d
0.008555746 -0.004921067 0.10533503 -0.108535096 -0.14241701 0.13528235 -0.1429752 0.052437615

encoder_variable_selection.single_variable_grns.T2M.fc2.weight f4 [8, 8]
00000000: a2a4 2b3f c864 28bf 1c5c e2be 9e2e 0bbe
00000010: e6a3 52bf f8e4 c0bb 1349 90be a600 36be
00000020: ed96 0bbf a350 5e3e 2620 4d3e 6398 1cbf
00000030: 039c bf3f f278 7a3e 49dd 26be a126 a2be
00000040: 1408 2b3f f780 f0be e525 d1be e30b 1abe
00000050: 5f65 073f 4c50 f13d 30da e9be 3d09 7dbf
00000060: d300 09bf 83a0 26be 099a a8be 1009 9e3d
00000070: 6a7e 173e 2d0e da3e b700 c83d 733c 423f
00000080: d1d5 033e 6dcb 68bd bfc4 d63e 3e78 883e
00000090: 463a c13d 51cf 1fbe 1e25 94be 3a7b 3cbe
000000a0: e67e 2c3e 3050 4b3e 134b 4abf d895 773f
000000b0: e705 623f 3ea9 8c3d 62a7 75be 7f76 10bf
000000c0: 9e49 c23e ff56 563e 091d cbbd dbe1 303e
000000d0: 68a3 bf3e de63 953d 2002 78be 5d2e 01bd
000000e0: 3f49 b13f a949 eebe 8090 2fbd ea1b 223d
000000f0: 844a 8f3f 799e 7f3e 58df cbbe 476c febd
0.67048085 -0.6577878 -0.442109 -0.13592002 -0.8228134 -0.00588667 -0.2818075 -0.17773685
-0.5452717 0.21710448 0.20031795 -0.61170024 1.4969486 0.244602 -0.16295351 -0.31670097
0.668092 -0.46973392 -0.40849224 -0.15043597 0.52889055 0.117828935 -0.45674276 -0.9884222
-0.5351688 -0.16272168 -0.3293002 0.07716572 0.14794317 0.4258894 0.09765761 0.7587349
0.12874533 -0.056834627 0.4194698 0.26654238 0.09434943 -0.15606429 -0.28934568 -0.18406382
0.16845283 0.19854808 -0.79020804 0.9671302 0.88290256 0.06868218 -0.23989633 -0.5643081
0.3794679 0.20931624 -0.099176474 0.17273657 0.37429357 0.07294439 -0.2421956 -0.031538356
1.3850478 -0.46540573 -0.042862415 0.039577402 1.1194615 0.24962796 -0.39818835 -0.12422996

encoder_variable_selection.single_variable_grns.T2M.fc2.bias f4 [8]
00000000: cb84 79bd 6c37 16be 8a9d 073e b68e fd3c
00000010: 578c a53d 6bb1 07be 41ef 163e 0061 873b
-0.060917657 -0.1466958 0.1324369 0.030951839 0.08083408 -0.13251273 0.14739706 0.0041314363

encoder_variable_selection.single_variable_grns.T2M.gate_norm.glu.fc.weight f4 [32, 8]
00000000: 216b b8be 1d89 023d 5523 ca3d 5a57 bb3d
00000010: 3800 7cbe 4238 e9bc f67c f43d 6e7b 25bd
00000020: b64c a5bd f4b4 84be 9441 09be ae86 02be
00000030: 228e d4be ec5e 77be fd73 ccbe 4e38 3ebe
00000040: 1443 eabd 30a7 b9bd 9d62 903e 1c7d 48be
00000050: ac8c 5e3e 1625 f93e 114c 9bbe a93f 793e
00000060: 48d6 a73e a25a 6cbe eb78 cc3e 74ed 8cbd
00000070: 0d48 01bf 05bf c0bd 2157 fdbd ca05 e43e
00000080: 1efd eb3d 30b7 30bd 3df7 843e 2d36 cbbe
00000090: 7619 48bd 3756 cdbc 0bb9 323e 009e ff3d
000000a0: 7510 2f3e 84ba 353e 8cc7 8a3e 0201 53bd
000000b0: e9e6 54bd 32dd 9bbe a478 41bc b3d1 713d
000000c0: 6e39 46be 0d72 833d a741 db3e 4598 efbe
000000d0: abe8 abbe 58ce a23e 02b2 3d3d 8f3d 7c3d
000000e0: 5414 fa3d 41db a93e ee00 223e ffda 303e
000000f0: fa56 a43c 8259 753e 0ee5 62be a9df 91be
00000100: cbe7 21be bae8 953d 9f23 bbbe 5715 58be
00000110: 9899 63bd 9007 013e 4545 ad3e 3371 04bf
00000120: 0c92 9d3e ee3d f9be f6d7 82be 3102 cfbe
00000130: 8279 85bd 8678 6abd 2ef3 91be ae9d dbbd
00000140: b9ca 01bf ecf8 d93e 20d2 9b3d 70d9 aa3e
00000150: 0fe1 dd3e 880c bfbe b3ed a03e dafb cbbc
00000160: b3ee 113e b4c2 d5bc 410f 88bd 021a 813c
00000170: 4e9c 5bbe 81b0 693e 8d69 3a3e 6190 43be
00000180: 3a6e e7be a133 a53d e67a 5c3c 075f 183e
00000190: abb0 a6bd e6bf 6c3e a9d9 1c3e 3ded 3fbe
000001a0: bbfc a0be 4074 883e 2442 573e c22e 103e
000001b0: d2ae 2dbe 6e27 7c3c d1dc 3abe 17d8 b1be
000001c0: d30a e33d 637e b0bd 02a4 a2bd 0339 c5be
000001d0: f7ae 88bd f491 903e e645 55be 95da 213e
000001e0: 2811 afbe 81f0 313e e7fa aebe 6584 343d
000001f0: 0a84 b13c 563a 1dbe b042 1bbd 38a8 7cbe
00000200: 3c7d 8dbe 5471 833e 0672 2ebd ec7a 6d3e
00000210: c323 0ebd f836 183e 53d7 efbd 9ff2 d13d
00000220: f40e 65be d2c6 82be c135 4a3e 328f 113e
00000230: c4e1 993e af27 8c3e ebcb 933e 2b8d ddbd
00000240: 802c 9dbd 725c 46be e0ec bc3e 773d 173e
00000250: 46ad eebe 7287 b93d ab5c 113e b948 e13e
00000260: e147 813e 2344 6a3e 44a6 3a3e 86d7 81be
00000270: 4cb1 2fbc 27b0 16be dee4 7cbe 0ecc 57bc
00000280: ef88 a4be 67f1 67be 1cd4 653e 34c3 cebd
00000290: fc4b 0c3d 995f c4be 45c5 81be d6fe 08be
000002a0: ee26 9abd abf6 dc3e 2d4c d13e 7b0b 98bd
000002b0: 4157 36be d9ff a23d 5855 dc3e 51d6 46bd
000002c0: 49f1 d43d 22cb 57be f2d1 4f3e 9b05 4abd
000002d0: e244 de3d 16af b93b f883 433e fd60 08be
000002e0: e9ad 4f3d 29e7 92bc 310e 81be 97ba 463e
000002f0: c159 ab3e ac24 65be 404b 1c3e fdf3 f6bd
00000300: 90bf a5bc eb0a a83e 9def e43e f1d0 163e
00000310: 73cb 4b3e e453 e5be 5969 57be 4bf8 80bd
00000320: 9917 b9bc d842 d23c 1c0e 93be 68e5 d83a
00000330: 36bd f6be 725e 2c3c 2be1 8dbd c3d3 93bd
00000340: b17f 9e3e fc0d 7fbe 7e46 13be 9fa6 de3d
00000350: 918f 273e 9c3b 5fbe 829a dc3d 488f 80bd
00000360: c89a f23c ae61 7a3d e088 1e3d 1b01 9f3e
00000370: 01b2 963c 5267 b2be 817f 0fbe b930 a83e
00000380: 03e7 4bbd 22af 043f 84a0 2a3e e544 d33e
00000390: d244 fb3d a6f0 9a3d 2895 6eba 42b4 07bf
000003a0: 7e32 b8be 1f09 733e e425 46be 6ff7 b13d
000003b0: 164f 153e 0906 67be 43c3 3bbe a4fe af3e
000003c0: 8931 fe3d bff3 ccbe 711b 2dbe 86ec e33d
000003d0: 4e5a d9bd e8e6 5ebe 19e3 4bbe 2635 c5bd
000003e0: ddce cdbc 7fed 5fbe 5f26 eabd 2609 8d3e
000003f0: b64b 52bd 4b7f 54be 6e7c a63d 0d8c 05be
-0.36019233 0.031869043 0.0987002 0.0914752 -0.24609458 -0.028469209 0.11937897 -0.040400915
-0.08071272 -0.25919306 -0.13403922 -0.12746689 -0.4151469 -0.24157304 -0.39932242 -0.18576166
-0.114385754 -0.090650916 0.28200236 -0.19578975 0.2173335 0.48661107 -0.30331472 0.2434069
0.3278067 -0.23081449 0.39936003 -0.06881228 -0.50500566 -0.09411434 -0.12370134 0.44535667
0.11522888 -0.04314345 0.25969878 -0.3968977 -0.048852406 -0.025065525 0.17453401 0.12481308
0.17096122 0.17746931 0.27105367 -0.051514633 -0.051978026 -0.30442196 -0.011808548 0.059037875
-0.19357845 0.06418238 0.42823526 -0.4679586 -0.3357595 0.31798053 0.04631234 0.061582144
0.122109085 0.3317509 0.15820667 0.1727104 0.020061005 0.23959926 -0.2215769 -0.28490952
-0.15811078 0.0731978 -0.36550614 -0.2110189 -0.0555664 0.12600541 0.3384191 -0.5173523
0.30775487 -0.4868006 -0.2555539 -0.4043136 -0.065173164 -0.057243846 -0.28505844 -0.107234344
-0.50699955 0.42572725 0.076084375 0.33369017 0.4333577 -0.37314248 0.3143135 -0.024900366
0.14251213 -0.026093818 -0.066435345 0.015759472 -0.21446344 0.22821237 0.18204327 -0.19098045
-0.45201284 0.08066488 0.013457036 0.1488 -0.081391655 0.23120078 0.15317406 -0.18742843
-0.31442818 0.26651192 0.21021324 0.14080337 -0.1696122 0.01539026 -0.18248297 -0.34735176
0.11086049 -0.08617856 -0.07941438 -0.3852006 -0.06673997 0.28236353 -0.20827445 0.15806039
-0.34192777 0.17376901 -0.34175798 0.044071574 0.021669406 -0.15354285 -0.037905395 -0.24673545
-0.2763461 0.256724 -0.04258921 0.23191422 -0.034702074 0.14864719 -0.11710992 0.102513544
-0.22368985 -0.25542313 0.19747068 0.14214781 0.30055058 0.27374026 0.28866515 -0.10817941
-0.07674503 -0.19371203 0.3689947 0.1476954 -0.46616572 0.09059037 0.14195506 0.44000795
0.25250152 0.22877555 0.18227488 -0.25359744 -0.010723423 -0.14715634 -0.24696681 -0.013171209
-0.32135722 -0.22650681 0.22444195 -0.10095826 0.03425215 -0.38354185 -0.25345817 -0.13378462
-0.075269565 0.43156943 0.4087843 -0.07424065 -0.17806722 0.07958955 0.43033862 -0.04854423
0.10397584 -0.21073583 0.20294932 -0.049321752 0.10852982 0.005666624 0.19093311 -0.13318248
0.050702963 -0.017932491 -0.2520614 0.19407116 0.33466914 -0.2237727 0.1526308 -0.12058256
-0.020232946 0.3282083 0.4471406 0.14728142 0.19901828 -0.44790566 -0.2103628 -0.06297358
-0.02259426 0.02566664 -0.28721702 0.001654786 -0.4819123 0.010520564 -0.06927713 -0.07218125
0.30956796 -0.24907678 -0.1438236 0.10871624 0.1636336 -0.21800083 0.107716575 -0.06277329
0.029614821 0.06112831 0.038704753 0.3105553 0.018395426 -0.34844452 -0.14013483 0.32849672
-0.049780857 0.5182973 0.16662794 0.412635 0.12268986 0.07565431 -0.00091012055 -0.53009427
-0.35976022 0.23733948 -0.19350392 0.08689772 0.1458095 -0.22560896 -0.18336205 0.34373963
0.12411792 -0.40029714 -0.16905 0.11129098 -0.106129274 -0.21767771 -0.1991085 -0.09629278
-0.025123054 -0.21867941 -0.114331 0.27546042 -0.051341735 -0.20751683 0.08129202 -0.13041706

encoder_variable_selection.single_variable_grns.T2M.gate_norm.glu.fc.bias f4 [32]
00000000: e771 9dbd 9a82 053e 1dfa fe3d 89dc 083e
00000010: fcba 193e 3cf8 f7bd 1920 893d 7f22 06be
00000020: 5e4d c7bd 941e 1b3e 6d5b 0dbe 2c33 bb3d
00000030: 44c3 a6bd dfcd b33d 6202 1b3e ea28 06be
00000040: 61f4 32be d83e aebd 5aa7 473d 08e2 cb3d
00000050: 1466 2abe 3941 d2bd c56e a03d 7e33 04be
00000060: 072d b2bd 4e77 2d3e b709 123e f895 1fbe
00000070: 0835 21be b917 99bd e882 163e 1f39 2f3d
-0.07687741 0.13038102 0.12450049 0.13365377 0.15012735 -0.12107894 0.06695575 -0.13099097
-0.097315535 0.15148383 -0.13804407 0.0914062 -0.08142713 0.08779501 0.15137628 -0.13101545
-0.17476036 -0.0850808 0.048743583 0.099552214 -0.16640502 -0.102663465 0.078336276 -0.12910268
-0.086999945 0.16940042 0.14261518 -0.15584552 -0.15742886 -0.07475228 0.14698374 0.042779084

encoder_variable_selection.single_variable_grns.T2M.gate_norm.add_norm.norm.weight f4 [16]
00000000: 093f 883f b4ac 5e3f da77 923f 8ea1 8f3f
00000010: 38be 593f 7847 913f ac4d 8b3f eaba 5c3f
00000020: 7a4c 863f 1c24 5b3f 2531 943f 5496 5a3f
00000030: df86 6e3f 29ea 803f d2df 943f 50bd 5d3f
1.0644237 0.86982274 1.1442826 1.1221178 0.85055876 1.1349936 1.0883079 0.8622271
1.0492089 0.85601974 1.1577498 0.8538563 0.93174547 1.007146 1.1630805 0.8661699

encoder_variable_selection.single_variable_grns.T2M.gate_norm.add_norm.norm.bias f4 [16]
00000000: a661 d5bd 5aab 003e 09af 1f3e dbc3 1a3e
00000010: e419 1b3e 819b fdbd 748a be3d 1af0 03be
00000020: cdbe bebd 16fb 1b3e ffa8 20be ec25 b53d
00000030: 1580 7bbd 22b6 9d3c 5e2a 203e cab2 09be
-0.104190156 0.12565365 0.15594114 0.15113775 0.15146595 -0.12383176 0.093037516 -0.1288456
-0.09313736 0.152325 -0.15689467 0.08845124 -0.061401445 0.019251887 0.15641162 -0.13447109

encoder_variable_selection.single_variable_grns.T2M_MAX.resample_norm.mask f4 [16]
00000000: a8e2 123e 2150 04bd d547 21be a56d e8bd
00000010: 10a5 e93d f3cc fcbd 41ee d03d ebab fa3c
00000020: d6ac 67bc 0a3d 973d 9498 8d3d 2225 c2bd
00000030: 4cae 2d3d c20d 22bb 27d8 05be 5f86 dc3d
0.14344275 -0.03230298 -0.15750058 -0.11349038 0.11408436 -0.123437785 0.10201693 0.030599555
-0.014140328 0.07384689 0.069138676 -0.09479739 0.04240255 -0.0024727439 -0.13070737 0.10767817

encoder_variable_selection.single_variable_grns.T2M_MAX.resample_norm.norm.weight f4 [16]
00000000: 5c36 6f3f 431e 703f 84d4 603f a773 923f
00000010: 947e 8f3f 51aa 5f3f f947 8e3f da7d 6a3f
00000020: 26f8 6c3f 09fa 8a3f 42e1 823f 2f3b 663f
00000030: 9ed3 7d3f 69db 753f 5f20 5d3f 321e 8e3f
0.9344232 0.93796176 0.87824273 1.1441544 1.1210504 0.8736926 1.1115714 0.91598284
0.92566144 1.0857555 1.0224993 0.89934057 0.9915103 0.9603792 0.8637752 1.1102965

encoder_variable_selection.single_variable_grns.T2M_MAX.resample_norm.norm.bias f4 [16]
00000000: 271f eabd 6044 3a3d 529c 143e feeb dfbd
00000010: 9733 063e 4003 05be 617c ea3d e7ee 09be
00000020: 926d d7bd 15c4 263e ba15 16bd 1ed3 c33d
00000030: c868 9abd 46cf 7abd 2b01 073e af4b 00be
-0.11431723 0.045475364 0.14512756 -0.10933684 0.13105617 -0.12989521 0.11449505 -0.1347004
-0.10518946 0.16285737 -0.036641814 0.09561752 -0.07539517 -0.061232828 0.1318404 -0.12528871

encoder_variable_selection.single_variable_grns.T2M_MAX.fc1.weight f4 [8, 8]
00000000: c515 24bf f447 88bf 87d9 f03e 83cc b1be
00000010: dbdf 9b3e 6d7b ac3e 5aa1 8cbe 1b6d 0cbe
00000020: 4687 46bf 95a2 a9bd 763e 0d3f f869 283f
00000030: f16b e23e 3599 fdbe 0ee9 9c3f 0764 5cbf
00000040: d76a bf3e 2188 48be a97e 8dbd 0dfa 8fbe
00000050: 649f 843e 94ce d73e c3ed a13e b69e 99be
00000060: df46 893d 23e0 e53e a658 cabf 6c92 4d3d
00000070: a7f0 983f 1cec 093f 30f4 9d3e da2d 9f3e
00000080: 47c1 333e 79af 2c3f c82c d3be f497 b6be
00000090: 80c3 9bbf 913b 153f 1d68 353e 9945 29be
000000a0: a73f 7fbe 84c8 91be 0a31 943e bf00 4d3e
000000b0: 9e01 3fbe 5a60 8dbe bb56 37bf 7646 f83e
000000c0: 9cb2 623e 72d0 823e 26b8 d2be 2ae2 233f
000000d0: 6685 eebe f4f8 b53b 9da8 ec3e bc47 02bf
000000e0: 1694 a4bf ff8f 60bf 6afc 003f b2c2 b53f
000000f0: de83 283e 39bd 3ebe bb02 cf3e f715 6fbe
-0.6409572 -1.0646958 0.4704096 -0.34726343 0.30444226 0.33687916 -0.2746685 -0.13713495
-0.7755016 -0.08282963 0.5517343 0.65786695 0.44222978 -0.4953095 1.2258623 -0.8609013
0.373862 -0.19583179 -0.06908924 -0.2812046 0.25902855 0.42149794 0.3162671 -0.300039
0.06702971 0.44897565 -1.5808303 0.050188467 1.1948441 0.538759 0.30850363 0.3108967
0.17554198 0.6745525 -0.41245103 -0.35662806 -1.2169037 0.58294016 0.17715497 -0.16530456
-0.24926625 -0.28473294 0.28943664 0.20019816 -0.1865296 -0.27612573 -0.71616715 0.48491257
0.22138447 0.25549656 -0.4115612 0.64016974 -0.4658615 0.005553359 0.46222392 -0.5089071
-1.2857692 -0.8771972 0.50385153 1.4200041 0.16456553 -0.1862687 0.4043177 -0.23348223

encoder_variable_selection.single_variable_grns.T2M_MAX.fc1.bias f4 [8]
00000000: f983 b43d e323 bd3d 359a ae3d a99b ccbd
00000010: 64a0 e5bd c840 c5bd 1752 023e 52b6 fb3d
0.08814234 0.092353605 0.085255064 -0.09990627 -0.11212233 -0.09631497 0.12726627 0.12290634

encoder_variable_selection.single_variable_grns.T2M_MAX.fc2.weight f4 [8, 8]
00000000: da04 0fbf 49e2 b3be 7d24 dfbe a5e3 1d3f
00000010: e3af 9c3d abed 50bf 4d8b 013f ba93 1cbf
00000020: a728 283f a4cc 243f 2266 e83c bf5f 2bbf
00000030: 85e5 d93d 519d c9be da1d 8b3e 3418 98bd
00000040: 64a1 73be 07ca 4d3f 4ef4 22be b4a7 a8be
00000050: 4c94 0c3e e16e 20bf a501 0ebe 0cde fbbd
00000060: b128 ec3e 4920 173e c607 cf3e dd80 323f
00000070: c9f4 aebe c334 9b3f d816 a5bb e628 543d
00000080: 6e06 833f 5a8b 313f 2048 45bd 135f 8fbd
00000090: 2fb8 0dbe 9526 37bf 09d1 083e cdb3 303f
000000a0: 32be 4a3f 85d6 6abe 476e 52be bd74 29bf
000000b0: c4fd b2bf 860c 613d fe5a 033f 5e19 a63f
000000c0: 0533 7abf 0fe7 dd3e 7d5f 473f a4ef 083e
000000d0: d072 303e 45bd 563d 4d14 f53e 9b2b 333f
000000e0: bd60 44be 5230 d9be 5c45 aabf d842 f8be
000000f0: bcd3 96be 16d1 2d3f 7e27 c23e affc 213e
-0.5586678 -0.3513358 -0.43582526 0.61675483 0.07650735 -0.8161265 0.5060318 -0.6116291
0.6568703 0.64374757 0.028369013 -0.6694297 0.106394805 -0.39377835 0.27171212 -0.074264914
-0.23792034 0.80386394 -0.15913507 -0.32940447 0.13728446 -0.6266919 -0.13867815 -0.122982115
0.46124795 0.1475841 0.40435618 0.6972788 -0.3417113 1.2125477 -0.0050381236 0.051796816
1.0236337 0.6935326 -0.048164487 -0.07000556 -0.13839792 -0.71543247 0.1336099 0.69024354
0.79196465 -0.22933395 -0.2054988 -0.66193753 -1.3983693 0.054943584 0.5131072 1.2976491
-0.977341 0.43340346 0.7788008 0.13372666 0.17231297 0.052426595 0.4786705 0.6998841
-0.19177528 -0.42419678 -1.3302417 -0.48488498 -0.29458416 0.67897165 0.37920755 0.15819047

encoder_variable_selection.single_variable_grns.T2M_MAX.fc2.bias f4 [8]
00000000: 5d75 54bd 1207 d03d b8c1 ea3d ce8e d63d
00000010: 55f3 e33d 56e9 f73d 0e6a 003e de3c 193e
-0.05186974 0.101575986 0.1146273 0.104764566 0.11130396 0.12105052 0.12540457 0.14964625
