ai_predict/ai/lightning_logs/version_97/checkpoints/epoch=14-step=90.ckpt (torch, 662004 bytes, 889 tensors)

prescalers.time_idx.weight f4 [8, 1]
0	0xbf68d6a7	-0.90952533
1	0xbe3301ba	-0.17481127
2	0x3efba11e	0.4914636
3	0xbf8d125a	-1.1021225
4	0x3e39be7c	0.1813907
5	0x3d96a4c9	0.07355649
6	0xbf360f65	-0.7111724
7	0x3f09e468	0.53864145

prescalers.time_idx.bias f4 [8]
0	0x3f15a614	0.5845654
1	0x3f4f5c73	0.8100044
2	0xbe2c6aa6	-0.16837558
3	0x3f74f048	0.9567914
4	0xbf11e830	-0.56994915
5	0xbf89803f	-1.0742263
6	0x3efdf24e	0.49598926
7	0x3e29d804	0.1658631

prescalers.T2M.weight f4 [8, 1]
0	0x3e024cd9	0.12724628
1	0x3f35f959	0.710836
2	0x3db0ad80	0.086268425
3	0x3f94b8a3	1.1618847
4	0x3f93d8ac	1.1550498
5	0xbf797170	-0.97438717
6	0xbe3d0891	-0.18460299
7	0xbf8f983c	-1.1218333

prescalers.T2M.bias f4 [8]
0	0x3e17d5ec	0.14827698
1	0x3f281932	0.65663445
2	0xbe2b5c74	-0.16734487
3	0x3e80532f	0.25063464
4	0xbeac5790	-0.33660555
5	0x3f37d4c9	0.7180906
6	0xbf412488	-0.7544637
7	0x3f26d16a	0.6516329

prescalers.T2M_MAX.weight f4 [8, 1]
0	0xbf391f07	-0.7231297
1	0xbeeee8f7	-0.46662113
2	0x3e68e8a6	0.22744998
3	0x3ec955ba	0.39323217
4	0x3f08a61a	0.5337845
5	0xbf70789b	-0.9393403
6	0x3ef996fa	0.48747998
7	0xbe81e1d6	-0.25367612

prescalers.T2M_MAX.bias f4 [8]
0	0xbf1af90d	-0.6053627
1	0xbeb0bfdd	-0.3452138
2	0xbeeff37a	-0.46865445
3	0x3d86167f	0.065472595
4	0x3f752c09	0.9577032
5	0x3f1d05fb	0.6133725
6	0xbf03789c	-0.5135591
7	0xbf419b2d	-0.75627404

prescalers.T2M_MIN.weight f4 [8, 1]
0	0xbf2897e6	-0.6585678
1	0x3ee17f78	0.44042563
2	0xbe98b95a	-0.29828912
3	0xbf6d1f17	-0.92625564
4	0x3f07a530	0.5298643
5	0x3efa8ba2	0.48934656
6	0x3f5da14b	0.8657424
7	0x3d820c1b	0.06349965

prescalers.T2M_MIN.bias f4 [8]
0	0xbf262d2e	-0.6491269
1	0xbf87533c	-1.0572276
2	0xbedda5a1	-0.43290427
3	0x3edf3a67	0.43599245
4	0x3eb2874d	0.3486885
5	0xbf1d2da8	-0.6139779
6	0xbebd243e	-0.36941713
7	0xbed35a6b	-0.4127992

prescalers.PRECTOTCORR.weight f4 [8, 1]
0	0x3f5275e4	0.82211137
1	0xbf3b8731	-0.7325316
2	0xbe6f3c2b	-0.23362796
3	0x3e8b6448	0.27224946
4	0xbf3278bf	-0.69715494
5	0x3f1ce61b	0.61288613
6	0x3f23e6bc	0.6402395
7	0xbf41e35c	-0.7573755

prescalers.PRECTOTCORR.bias f4 [8]
0	0x3f46da54	0.7767689
1	0xbf6db7b1	-0.92858416
2	0xbe4d2bfb	-0.20036308
3	0x3f68c94b	0.9093215
4	0x3f948342	1.1602557
5	0x3dbb2460	0.09137797
6	0x3f366f61	0.712637
7	0x3e8bbfc2	0.27294737

prescalers.RH2M.weight f4 [8, 1]
0	0x3e53462b	0.20632236
1	0xbe40495e	-0.18777987
2	0x3f0ac341	0.54204184
3	0x3f320d1e	0.69551265
4	0xbeeef56e	-0.46671623
5	0x3e45883b	0.19290249
6	0x3e173930	0.14767909
7	0x3e2211b8	0.15827072

prescalers.RH2M.bias f4 [8]
0	0x3f85227a	1.0401146
1	0xbea429f7	-0.32063267
2	0x3dc6b8a8	0.09703189
3	0xbe1020f4	-0.1407507
4	0xbf3b46cf	-0.7315492
5	0xbde792eb	-0.11307319
6	0xbee89e1c	-0.45433128
7	0xbee67370	-0.45009947

prescalers.ALLSKY_SFC_SW_DWN.weight f4 [8, 1]
0	0x3c9b5b4b	0.01896443
1	0xbe9deaf5	-0.3084332
2	0x3e4fdc41	0.20298864
3	0x3eedd765	0.46453395
4	0xbf408f71	-0.75218874
5	0x3f2f245b	0.6841485
6	0x3f5c7fab	0.86132306
7	0xbf3d8e07	-0.7404484

prescalers.ALLSKY_SFC_SW_DWN.bias f4 [8]
0	0xbf29c662	-0.66318333
1	0xbf48551f	-0.78254884
2	0x3f8a1dcc	1.0790343
3	0xbe8443f2	-0.25833088
4	0x3edb8296	0.42873067
5	0x3d5ec90b	0.05439095
6	0xbf30f9cd	-0.69131166
7	0x3eb5f0c2	0.35535246

prescalers.numero_casos.weight f4 [8, 1]
0	0xbeb951c7	-0.36195204
1	0x3f3fe7b2	0.74962914
2	0x3ed12b41	0.40853313
3	0xbf28a342	-0.6587411
4	0x3f325809	0.6966558
5	0xbc840a56	-0.01611821
6	0x3ea9c683	0.33159265
7	0xbeff2772	-0.49834782

prescalers.numero_casos.bias f4 [8]
0	0x3f2034d8	0.62580633
1	0xbf406c47	-0.7516522
2	0xbe619395	-0.22028954
3	0xbe65d3c1	-0.22444059
4	0xbf2c3be1	-0.6727887
5	0x3f3c86f6	0.73643434
6	0xbf326461	-0.69684416
7	0xbdc14522	-0.09437014

static_variable_selection.single_variable_grns.municipio.mask f4 [16]
0	0x3e30dbbf	0.17271326
1	0xbe30dbc8	-0.1727134
2	0x3e30dbc1	0.1727133
3	0x3e30dbbe	0.17271325
4	0xbe30dbbe	-0.17271325
5	0xbe30dbc7	-0.17271338
6	0xbe30dbbf	-0.17271326
7	0x3e30dbbe	0.17271325
8	0x3e30dbc2	0.17271331
9	0xbe30dbc2	-0.17271331
10	0x3e30dbcb	0.17271344
11	0xbe30dbc8	-0.1727134
12	0x3e30dbcb	0.17271344
13	0xbe30dbbe	-0.17271325
14	0x3e30dc37	0.17271505
15	0xbe30dbcd	-0.17271347

static_variable_selection.single_variable_grns.municipio.norm.weight f4 [16]
0	0x3f717abe	0.94327915
1	0x3f872a5e	1.0559804
2	0x3f7179a1	0.94326216
3	0x3f71c83c	0.9444616
4	0x3f71a220	0.9438801
5	0x3f87587e	1.0573881
6	0x3f717e47	0.9433331
7	0x3f718581	0.94344336
8	0x3f71b274	0.9441292
9	0x3f872ffa	1.0561516
10	0x3f873c10	1.0565205
11	0x3f873ff8	1.0566397
12	0x3f872aa0	1.0559883
13	0x3f71812e	0.9433774
14	0x3f872f8f	1.0561389
15	0x3f873caf	1.0565394

static_variable_selection.single_variable_grns.municipio.norm.bias f4 [16]
0	0x3e30db93	0.17271261
1	0xbe30dbf5	-0.17271407
2	0x3e30dbb8	0.17271316
3	0x3e30db42	0.1727114
4	0xbe30db71	-0.1727121
5	0xbe30dbdf	-0.17271374
6	0xbe30dba8	-0.17271292
7	0x3e30db4c	0.17271155
8	0x3e30dbc0	0.17271328
9	0xbe30dbd7	-0.17271362
10	0x3e30dc12	0.1727145
11	0xbe30dbe6	-0.17271385
12	0x3e30dc25	0.17271478
13	0xbe30db83	-0.17271237
14	0xbe30d892	-0.17270115
15	0xbe30dc5e	-0.17271563

encoder_variable_selection.flattened_grn.resample_norm.mask f4 [8]
0	0x3e30cc88	0.17265522
1	0xbe30d9e5	-0.1727062
2	0x3e30ffbf	0.1728506
3	0x3e30da16	0.17270693
4	0x3e30cf94	0.17266685
5	0x3e30dd40	0.172719
6	0xbe30cc8b	-0.17265527
7	0xbe30dab6	-0.17270932

encoder_variable_selection.flattened_grn.resample_norm.norm.weight f4 [8]
0	0x3f9617d8	1.1726027
1	0x3f53c960	0.8272915
2	0x3f961ec0	1.1728134
3	0x3f961ac9	1.1726924
4	0x3f9607de	1.1721151
5	0x3f961c33	1.1727356
6	0x3f53c995	0.82729465
7	0x3f53bfac	0.82714343

encoder_variable_selection.flattened_grn.resample_norm.norm.bias f4 [8]
0	0x3e30f1e0	0.17279768
1	0xbe30d91d	-0.17270322
2	0xbe30f671	-0.1728151
3	0x3e30ca2c	0.17264622
4	0x3e30d6ac	0.17269391
5	0x3e30d6c4	0.17269427
6	0x3e30d5e2	0.1726909
7	0xbe30d7ad	-0.17269774

encoder_variable_selection.flattened_grn.fc1.weight f4 [8, 64]
0	0xbe36837d	-0.17823596
1	0xbe8084e9	-0.25101402
2	0x3e35c023	0.17749076
3	0xbe8bf227	-0.27333185
4	0x3eaa047c	0.33206546
5	0x3e75ec44	0.2401591
6	0xbeb73e3a	-0.35789663
7	0x3d76f604	0.060293213
8	0x3d78ca40	0.060739756
9	0xbe66efec	-0.2255246
10	0x3def86f2	0.11695661
11	0x3e7beb2e	0.24601433
12	0x3e436e04	0.19084936
13	0xbe713ad3	-0.23557596
14	0x3e28cfac	0.1648547
15	0x3b8f7988	0.0043785013
16	0x3e571c10	0.21006799
17	0xbdc41a4a	-0.09575327
18	0x3e121984	0.14267546
19	0x3ea0de40	0.31419563
20	0xbe66116a	-0.2246758
21	0xbecaacd5	-0.39584985
22	0x3e4aff46	0.19823942
23	0x3e403d8d	0.1877348
24	0xbd2f7917	-0.04284009
25	0xbc8996ea	-0.016795594
26	0x3d0468b3	0.03232641
27	0xbe027f38	-0.12743843
28	0xbe2e96e9	-0.17049755
29	0x3e1f759b	0.15572207
30	0x3e382a9a	0.17985001
31	0x3ea8a8b1	0.329412
32	0x3e6032f0	0.21894431
33	0x3eb5cf5e	0.3550977
34	0xbce21584	-0.02759815
35	0x3c9f319a	0.019432832
36	0xbe60934a	-0.21931186
37	0xbe2e0a4e	-0.16996118
38	0xbdd63647	-0.10459571
39	0xbdb5e321	-0.08881212
40	0xbdd45148	-0.10367066
41	0x3ea739e9	0.3266137
42	0x3d458586	0.04822304
43	0xbd15f0ea	-0.036606707
44	0x3e972476	0.29520005
45	0xbed2f90d	-0.41205636
46	0x3eb7ded3	0.3591219
47	0x3cd464d3	0.025926983
48	0x3e8ab8df	0.2709417
49	0x3da54e26	0.08071546
50	0xbeca5283	-0.39516076
51	0x3eeeeb7a	0.4666403
52	0xbe994aa1	-0.2993975
53	0xbe3b3723	-0.18282752
54	0x3ed6ea66	0.41975707
55	0x3d546712	0.051856108
56	0xbf280428	-0.6563134
57	0xbd590627	-0.052984383
58	0x3ea75257	0.32680008
59	0x3e3401bc	0.17578787
60	0xbd23166a	-0.039816298
61	0xbd285ade	-0.041102283
62	0xbd3ed53d	-0.04659008
63	0xbe8c05ee	-0.27348274
64	0x3dba5e4a	0.091000155
65	0x3e9af6df	0.30266473
66	0xbd3a64ad	-0.04550617
67	0x3de17b3f	0.110098355
68	0xbec0d59b	-0.37662968
69	0xbecb95dc	-0.3976277
70	0xbc231358	-0.009953342
71	0xbe33b984	-0.17551237
72	0xbe33e16c	-0.1756646
73	0x3eef6ed9	0.46764258
74	0xbc75e3da	-0.015007937
75	0xbd62843f	-0.0553019
76	0xbe48bf44	-0.19604212
77	0x3ebcef65	0.36901394
78	0xbe1121b2	-0.1417301
79	0xbdb773e1	-0.08957649
80	0xbe12c304	-0.14332205
81	0xbd459e47	-0.04824665
82	0xbe912e4f	-0.28355643
83	0xbec6da9a	-0.38838655
84	0xbd94eb8d	-0.0727149
85	0x3e9b2cba	0.3030756
86	0xbdeced41	-0.1156869
87	0x3e16ccaf	0.14726518
88	0xbd910399	-0.07080764
89	0xbc80f93a	-0.01574384
90	0xbd449ec1	-0.048002962
91	0x3e89cb2e	0.26912826
92	0xbda2641a	-0.07929249
93	0xbe22851d	-0.15871091
94	0xbea14630	-0.3149886
95	0xbf1692c7	-0.58817714
96	0x3e3966f5	0.18105681
97	0xbe0f1ac1	-0.1397505
98	0xbeaaf379	-0.3338888
99	0xbca4903b	-0.020088306
100	0xbb3ca0e5	-0.0028782424
101	0x3e9d9db4	0.3078438
102	0xbce66e99	-0.028128909
103	0x3e0ba89d	0.1363854
104	0x3c436f39	0.011928373
105	0xbe905278	-0.2818792
106	0x3edfb7ed	0.43695012
107	0xbe0b18a3	-0.13583617
108	0xbe5be332	-0.21473387
109	0x3ece843a	0.40335256
110	0x3ea80194	0.32813704
111	0xbe0ee5ea	-0.13954893
112	0xbed71762	-0.42010027
113	0xbe52ea2f	-0.20597146
114	0x3e58fdbc	0.21190542
115	0xbdfdd96b	-0.12394985
116	0x3eb6077d	0.35552588
117	0x3e4df52f	0.20113061
118	0xbed8130d	-0.42202035
119	0x3f167b97	0.58782333
120	0x3e06615d	0.13123079
121	0x3e0770e9	0.13226666
122	0xbc9b7e0a	-0.018980999
123	0xbe9615ba	-0.2931345
124	0xbe932abe	-0.28743547
125	0x3da99e2b	0.08282121
126	0xbf121bc2	-0.57073605
127	0xbd3af472	-0.045643277
128	0xbec47c72	-0.38376194
129	0xbe1e3cb5	-0.15452845
130	0xbc570dfa	-0.013125891
131	0xbe964eb6	-0.29356927
132	0x3ee271da	0.44227487
133	0xbda9f4f4	-0.08298674
134	0xbda37c9c	-0.07982752
135	0x3db3ce18	0.08779544
136	0x3c282e0c	0.010264885
137	0x3e3f1f31	0.18664242
138	0xbbf3d173	-0.00744074
139	0x3e1c89d2	0.1528695
140	0x3c6e9a98	0.014563225
141	0xbea1702f	-0.31530902
142	0xbe6a5269	-0.22883
143	0x3dcfdc7a	0.101494744
144	0xbeee889d	-0.46588603
145	0x3e77d840	0.24203587
146	0xbe08797a	-0.1332759
147	0xbe4a7754	-0.19772083
148	0xbecfc0df	-0.40576836
149	0x3e43291c	0.1905865
150	0xbe87bfd3	-0.26513538
151	0xbdc1a2ff	-0.09454917
152	0xbe557117	-0.20843922
153	0x3ecdce05	0.40196243
154	0xbeeaf8cb	-0.4589294
155	0xbedd4650	-0.43217707
156	0x3f17f9ab	0.5936534
157	0x3dc623c1	0.09674788
158	0x3e94091a	0.28913194
159	0xbed7c9c1	-0.42146114
160	0xbe2a401d	-0.1662602
161	0xbe87fd8f	-0.26560637
162	0xbe4d3846	-0.20040998
163	0x3e1af21c	0.1513142
164	0xbed1f84d	-0.4100975
165	0x3d9d08f5	0.07667724
166	0x3eaf9430	0.34292746
167	0xbec19cc5	-0.37814918
168	0x3e07239a	0.13197175
169	0xbdff510c	-0.1246663
170	0xbd156f51	-0.036483113
171	0x3ec1e54c	0.37870252
172	0xbe2cbd84	-0.1686917
173	0x3e953fe8	0.2915032
174	0xbe090ed7	-0.13384567
175	0x3ea963ed	0.3308405
176	0xbcb6535b	-0.022256544
177	0x3d1406b4	0.036139205
178	0x3de775e8	0.11301786
179	0xbd3d56c0	-0.04622531
180	0x3c8b5371	0.017007561
181	0x3d825196	0.063632175
182	0xbe7cc15e	-0.24683139
183	0x3d54c4e4	0.051945582
184	0x3d8fc4b8	0.07019943
185	0x3ebb5236	0.3658616
186	0x3e130df8	0.14360797
187	0xbe3bc6e7	-0.18337594
188	0x3e0a4393	0.1350234
189	0x3d2e82ff	0.042605396
190	0x3e0e19b4	0.13876992
191	0xbef63c3e	-0.48092836
192	0x3c6a7ecb	0.014312456
193	0xbc4ffc5e	-0.012694446
194	0xbd8c246c	-0.068428844
195	0x3e32375b	0.17403929
196	0x3e1f7480	0.15571785
197	0xbea4ad0a	-0.32163268
198	0x3eca8cb1	0.39560464
199	0xbe1c559a	-0.1526703
200	0xbe2baac8	-0.16764367
201	0x3ea143a1	0.3149691
202	0x3e22930a	0.15876403
203	0x3ddf71fd	0.109104134
204	0x3e31a458	0.17347848
205	0x3edf5cd6	0.43625516
206	0xbcf48645	-0.029849181
207	0x3ebb7019	0.3660896
208	0xbdba37bb	-0.09092661
209	0x3e112baf	0.1417682
210	0xbe81ede4	-0.2537681
211	0xbddd5369	-0.10806925
212	0x3e9f74ee	0.31143898
213	0x3ec194a2	0.3780871
214	0xbeb870d4	-0.3602358
215	0xbd320956	-0.043465935
216	0xbe59089a	-0.21194687
217	0xbe488350	-0.19581342
218	0xbf0210d1	-0.5080691
219	0x3d02cc1d	0.03193294
220	0x3e4bb838	0.19894493
221	0xbd70765e	-0.058706634
222	0x3e609d95	0.21935113
223	0xbe547385	-0.20747192
224	0x3e5aef7f	0.21380423
225	0xbeee1fa5	-0.46508518
226	0xbef14037	-0.47119305
227	0xbd4e3fdd	-0.050353874
228	0x3dcb3fa3	0.09924247
229	0x3d3138a0	0.043266892
230	0x3ee9fc12	0.45700127
231	0xbe2af0a5	-0.16693361
232	0x3dbdea77	0.09273236
233	0xbe602594	-0.21889335
234	0x3e4bf4f0	0.19917655
235	0x3e26cb75	0.1628855
236	0x3da66401	0.08124543
237	0x3e8a61f7	0.27027866
238	0x3eb1b022	0.3470469
239	0x3e398293	0.18116216
240	0xbdc3cfeb	-0.095611416
241	0xbe4477fb	-0.19186394
242	0x3d3fe10f	0.046845492
243	0x3dcf90ac	0.10135016
244	0x3ebe2dbe	0.37144274
245	0xbea0bdb8	-0.31394744
246	0x3d5e4e00	0.054273605
247	0xbeab3d9f	-0.3344545
248	0x3e5938b3	0.21213035
249	0xbde85acd	-0.11345444
250	0x3dac6df8	0.084194124
251	0x3d10ed57	0.035382595
252	0xbe991a0d	-0.29902688
253	0x3d955be0	0.072929144
254	0xbe0fa5be	-0.1402807
255	0x3ee08010	0.43847704

encoder_variable_selection.flattened_grn.fc1.bias f4 [8]
0	0xbe30db58	-0.17271173
1	0x3e30dec2	0.17272475
2	0x3e317970	0.17331481
3	0x3e30feaa	0.17284647
4	0x3e30c678	0.1726321
5	0x3e2f57a1	0.17123272
6	0x3e30ca94	0.17264777
7	0x3e30dafe	0.17271039

encoder_variable_selection.flattened_grn.context.weight f4 [8, 16]
0	0xbea9c00a	-0.33154327
1	0xbef7ace6	-0.483741
2	0xbe784688	-0.24245656
3	0x3d895559	0.06705732
4	0x3ed1cdcb	0.4097732
5	0xbe138241	-0.14405157
6	0xbe0a6d00	-0.13518143
7	0x3ecd430c	0.40090215
8	0xbe0ee068	-0.13952792
9	0x3e94660e	0.28984112
10	0xbbddbbf7	-0.006766792
11	0xbd4df38e	-0.0502811
12	0x3e28dd3f	0.16490649
13	0xbea13db9	-0.31492403
14	0xbe5ae2a3	-0.21375518
15	0x3e4b0de6	0.1982952
16	0x3b83e2ba	0.0040248306
17	0xbe096e64	-0.13421017
18	0xbdaf1577	-0.08549016
19	0xbed561fa	-0.41676313
20	0x3f054c5a	0.5206963
21	0x3e92fb20	0.28707218
22	0x3ed31150	0.41224146
23	0xbec3e228	-0.3825848
24	0x3ccdbbea	0.025114018
25	0xbd432601	-0.047643665
26	0x3e5089f5	0.20365126
27	0xbecb2d52	-0.39683014
28	0xbea785a4	-0.32719147
29	0x3ed7125c	0.42006195
30	0x3d5ce803	0.0539322
31	0x3eb31ec0	0.34984398
32	0xbe6f80be	-0.23388955
33	0xbef2c60f	-0.47416732
34	0x3e210281	0.15723611
35	0xbe85a852	-0.2610498
36	0x3b2e42ef	0.0026590188
37	0xbcf58896	-0.029972356
38	0xbdb4427d	-0.08801744
39	0x3e4ad45a	0.19807568
40	0xbea994d8	-0.3312137
41	0xbe944edb	-0.28966412
42	0xbd82a92f	-0.063799255
43	0x3ec01e44	0.3752309
44	0xbaf88f07	-0.0018963524
45	0x3eb529b0	0.35383368
46	0xbea9e330	-0.33181143
47	0xbe1d205e	-0.15344378
48	0xbe9a1f78	-0.30102134
49	0x3ecc807a	0.3994177
50	0x3f01c75f	0.5069484
51	0xbd8e3e25	-0.06945447
52	0xbd84fa92	-0.06493105
53	0x3ec37153	0.38172397
54	0xbe954ff8	-0.29162574
55	0x3db106bb	0.08643862
56	0x3db99b02	0.090627685
57	0xbecc21ae	-0.39869446
58	0x3ebfaef0	0.37438154
59	0x3ebc6900	0.3679886
60	0xbdc0d953	-0.09416451
61	0x3eb2246a	0.34793407
62	0xbebafbf0	-0.36520338
63	0xbeebcd7c	-0.4605521
64	0xbed3871f	-0.41314027
65	0x3ef592b4	0.47963488
66	0xbebd3a4e	-0.36958545
67	0xbe546b51	-0.20744063
68	0xbe0c0d1a	-0.13676873
69	0xbc6d5219	-0.014484906
70	0xbe3e2a66	-0.18570861
71	0x3c0e8298	0.008698128
72	0xbe3ead1c	-0.18620723
73	0xbe9c62d5	-0.30544153
74	0xbee83777	-0.45354816
75	0x3e7f0f76	0.24908242
76	0xbf075975	-0.52870876
77	0xbebc700d	-0.36804238
78	0xbf03ca6f	-0.51480764
79	0x3e878847	0.2647116
80	0x3edcd31f	0.43129823
81	0x3dbf5710	0.09342778
82	0xbe4cf646	-0.20015821
83	0x3e691159	0.22760524
84	0x3ed69b2b	0.4191526
85	0x3ede5c43	0.43429765
86	0xbcff3c88	-0.031156793
87	0xbeab1083	-0.33411035
88	0xbf06c6b1	-0.5264693
89	0xbec46665	-0.3835937
90	0x3e83862c	0.25688303
91	0x3f06bda4	0.5263312
92	0xbe883c64	-0.26608574
93	0x3e99e976	0.3006093
94	0x3e04faf6	0.12986359
95	0x3eea8b16	0.4580924
96	0xbea034ba	-0.31290227
97	0xbebd89e7	-0.37019274
98	0xbecf88f0	-0.40534163
99	0xbdb439b7	-0.08800071
100	0x3e0b052b	0.1357619
101	0x3c03c7c2	0.008043231
102	0x3f048249	0.517613
103	0xbdedb034	-0.11605874
104	0x3d1147f9	0.03546903
105	0xbbdb15ae	-0.006685934
106	0xbede23a6	-0.43386573
107	0x3e9c7b60	0.30562878
108	0xbee72514	-0.45145476
109	0x3ed63e10	0.41844225
110	0xbea1c8ec	-0.31598604
111	0x3d36c2a8	0.044619232
112	0xbe9cf35e	-0.30654424
113	0xbe8d099c	-0.27546394
114	0x3edf79e2	0.43647677
115	0xbe30b986	-0.17258272
116	0xbe201952	-0.15634659
117	0x3dcfd261	0.101475485
118	0xbdb1acdb	-0.08675548
119	0x3dc4d631	0.09611166
120	0xbeb52542	-0.35379988
121	0x3c803d15	0.015654126
122	0xbe3900e7	-0.1806675
123	0xbe89e2a8	-0.26930737
124	0xbe28b7be	-0.16476342
125	0xbe5a2f35	-0.2130707
126	0x3e408fac	0.18804806
127	0xbda50e6a	-0.0805939

encoder_variable_selection.flattened_grn.fc2.weight f4 [8, 8]
0	0x3f53d985	0.82753783
1	0xbe48fe52	-0.19628266
2	0xbe3a0f9e	-0.1817002
3	0xbe9fe493	-0.31229076
4	0x3f14149a	0.57843935
5	0x3e9b2028	0.3029797
6	0xbe5b5be2	-0.2142177
7	0xbcfb617f	-0.030686138
8	0xbe13eafb	-0.14445107
9	0xbe491a2d	-0.19638892
10	0xbe17b358	-0.14814508
11	0xbf2065e8	-0.62655497
12	0xbc20c82f	-0.0098133525
13	0xbf24cb84	-0.6437304
14	0xbece0504	-0.40238202
15	0xbf1833e7	-0.59454197
16	0x3e1e08c0	0.15433025
17	0xbf17c572	-0.5928565
18	0x3f2278d7	0.63465637
19	0xbeb420c6	-0.35181254
20	0x3dbc6121	0.09198213
21	0x3f125491	0.5716029
22	0xbf1732f2	-0.5906211
23	0x3e9b973f	0.3038883
24	0xbeb334a5	-0.35001102
25	0x3e0c1f66	0.13683853
26	0xbe830160	-0.25586987
27	0x3f6ef5ce	0.9334382
28	0x3e37894d	0.1792347
29	0xbdbc44f0	-0.09192836
30	0xbeba1736	-0.36345834
31	0x3f0fd8c6	0.56190145
32	0xbec202c2	-0.3789273
33	0x3ea7585a	0.32684594
34	0xbe6e38de	-0.2326388
35	0xbf45e99d	-0.7730959
36	0xbefa8fd3	-0.48937854
37	0xbd9145a9	-0.07093365
38	0xbd362a4b	-0.044473927
39	0xbde0ff32	-0.10986175
40	0x3ec2c562	0.38041216
41	0xbf563913	-0.8368084
42	0x3cd103e1	0.025514545
43	0x3f0f8ad8	0.56071234
44	0xbe364326	-0.17799053
45	0xbf4889d7	-0.78335327
46	0xbd370ed8	-0.04469189
47	0xbebc0903	-0.36725625
48	0x3d1f97fd	0.038963307
49	0xbf26eedc	-0.6520822
50	0xbed32367	-0.41237947
51	0xbf3947a4	-0.7237494
52	0x3f11fb31	0.5702391
53	0x3e5477b0	0.20748782
54	0x3e02e1de	0.12781474
55	0x3d83435c	0.06409332
56	0x3e8da623	0.27665815
57	0x3ea00f2a	0.3126157
58	0x3f1bacae	0.60810363
59	0xbef0720c	-0.4696201
60	0xbda9e1b7	-0.08295005
61	0x3ed7a1b8	0.4211557
62	0x3e971dca	0.29514915
63	0xbcace681	-0.021106007

encoder_variable_selection.flattened_grn.fc2.bias f4 [8]
0	0xbe30d10f	-0.1726725
1	0x3e30e981	0.17276575
2	0xbe30e90d	-0.17276402
3	0x3e30e871	0.1727617
4	0x3e30e1c5	0.17273624
5	0xbe30c8f8	-0.17264163
6	0xbe30fe93	-0.17284612
7	0xbe30c627	-0.17263089

encoder_variable_selection.flattened_grn.gate_norm.glu.fc.weight f4 [16, 8]
0	0x3e9f8052	0.31152588
1	0xbe8d0766	-0.27544707
2	0xbf12dcdd	-0.5736826
3	0x3efedf7f	0.4977989
4	0xbcc2d3a0	-0.023782551
5	0x3bd04ead	0.006357035
6	0xbe988d07	-0.29795095
7	0xbdb3c1dd	-0.08777211
8	0x3d194c81	0.037426475
9	0xbe28b681	-0.1647587
10	0x3efd9950	0.4953103
11	0x3e4fbd60	0.20287085
12	0xbf1b03ea	-0.6055285
13	0xbde6019e	-0.11230777
14	0xbecf555f	-0.4049482
15	0x3f0aece4	0.54267716
16	0x3e343f07	0.17602168
17	0xbf104673	-0.56357497
18	0x3e25631b	0.16151087
19	0xbe1bde74	-0.15221578
20	0xbf2b4c8f	-0.66913694
21	0xbe714d45	-0.23564632
22	0x3ea659c2	0.32490355
23	0xbe94a66c	-0.2903322
24	0x3e3ae184	0.1825009
25	0x3e5e85a4	0.21730667
26	0x3f2af0aa	0.66773474
27	0xbe66f489	-0.2255422
28	0xbe076f17	-0.13225971
29	0xbe77ddd8	-0.2420572
30	0x3e4cde31	0.20006634
31	0xbe2fda21	-0.17173053
32	0x3dfe71ad	0.12424026
33	0x3ed657da	0.418639
34	0x3e6288d8	0.22122514
35	0xbe3f5e33	-0.18688278
36	0x3f0ac5bf	0.54207987
37	0x3f033a02	0.5126039
38	0x3e1c3fde	0.15258738
39	0xbe276ebe	-0.16350839
40	0xbd71d1f1	-0.059038106
41	0x3e9b51a3	0.3033572
42	0xbef0642a	-0.4695142
43	0x3e8929e7	0.2678978
44	0xbdbd1cc7	-0.092340045
45	0xbe283dee	-0.16429874
46	0xbe844231	-0.2583175
47	0xbe9eb961	-0.31000808
48	0x3e7bb424	0.24580437
49	0xbe784140	-0.24243641
50	0x3eb7b679	0.35881403
51	0xbf218f33	-0.6310913
52	0xbe3fbd4b	-0.18724553
53	0xbe35cd3f	-0.17754076
54	0xbd94d0f7	-0.072664194
55	0xbef346eb	-0.47515044
56	0x3ca631dd	0.020287449
57	0xbec2c468	-0.3804047
58	0xbe778cd0	-0.2417481
59	0xbe8cddcc	-0.27512968
60	0x3c933745	0.01797069
61	0xbd15bffb	-0.03656004
62	0xbeb69be8	-0.35665822
63	0x3eb7409c	0.3579148
64	0xbc0ac0a5	-0.008468782
65	0xbe96d061	-0.29455855
66	0x3e0dc274	0.13843709
67	0x3d5cd602	0.05391503
68	0xbf00dd0c	-0.5033729
69	0x3e5d9018	0.21636999
70	0xbf1e7c34	-0.6190827
71	0xbe1d7e0f	-0.15380119
72	0x3e91b4d4	0.28458273
73	0xbea13032	-0.31482083
74	0x3e6c8870	0.23098922
75	0x3d500d92	0.05079419
76	0x3ed2575b	0.41082272
77	0x3ea51fed	0.3225092
78	0x3f112dbf	0.5671043
79	0x3e6a0b6b	0.22855918
80	0x3e093482	0.13398936
81	0xbe91435f	-0.28371713
82	0xbf12dcbd	-0.5736807
83	0x3d803d13	0.06261649
84	0x3f36f115	0.7146161
85	0xbe979e26	-0.29612845
86	0x3df6fcf7	0.12059968
87	0xbe676f07	-0.22600947
88	0xbdb94371	-0.090460666
89	0xbd6f6c76	-0.058453046
90	0xbe21a36c	-0.15784997
91	0xbec7327e	-0.3890571
92	0xbe2cf09e	-0.16888663
93	0x3e97f7dd	0.29681292
94	0x3e9a64b6	0.3015496
95	0xbe3f2d8e	-0.18669721
96	0x3d9ee98a	0.07759388
97	0x3f153c87	0.5829548
98	0x3efe1178	0.49622703
99	0xbe0189ea	-0.12650266
100	0xbe419484	-0.1890431
101	0xbdd0015b	-0.101565085
102	0x3efb1bfb	0.49044785
103	0xbdc4e522	-0.09614016
104	0x3db868b4	0.090043455
105	0xbdc38fd9	-0.09548921
106	0x3dfaf59f	0.1225388
107	0xbd75399d	-0.059869397
108	0x3ea3df1b	0.32006153
109	0xbce762f6	-0.02824543
110	0xbf0a1b8b	-0.5394828
111	0x3edc7ad4	0.4306246
112	0xbe57bc13	-0.21067838
113	0xbd370801	-0.044685367
114	0xbf23eda5	-0.6403449
115	0x3e8155c4	0.25260746
116	0x3ea23c40	0.31686592
117	0xbeaee5a9	-0.34159592
118	0x3dd42b5c	0.10359833
119	0x3f00ec7d	0.5036085
120	0xbe0cfa65	-0.13767393
121	0x3c269bf9	0.010169023
122	0xbdf0a0df	-0.11749434
123	0xbdefef17	-0.11715525
124	0x3cba4323	0.022737091
125	0x3e9275bc	0.2860545
126	0x3f041c31	0.51605517
127	0xbe62891d	-0.22122617

encoder_variable_selection.flattened_grn.gate_norm.glu.fc.bias f4 [16]
0	0x3e3103e7	0.17286645
1	0xbe30d928	-0.17270339
2	0xbe310397	-0.17286526
3	0xbe30b4d9	-0.17256488
4	0x3e30db42	0.1727114
5	0x3e30d6b7	0.17269407
6	0x3e30d44f	0.1726849
7	0xbe30db5e	-0.17271182
8	0xbe307092	-0.17230442
9	0x3e310ea2	0.17290738
10	0xbe32fdc2	-0.17479613
11	0xbe30de6d	-0.17272349
12	0x3e30d9ad	0.17270537
13	0xbe3117f1	-0.17294289
14	0xbe309130	-0.17242885
15	0xbe30c939	-0.1726426

encoder_variable_selection.flattened_grn.gate_norm.add_norm.norm.weight f4 [8]
0	0x3f9624d3	1.1729988
1	0x3f53ca6a	0.82730734
2	0x3f9605aa	1.1720479
3	0x3f961a80	1.1726837
4	0x3f961add	1.1726948
5	0x3f961465	1.1724974
6	0x3f961a04	1.1726689
7	0x3f53a028	0.82666254

encoder_variable_selection.flattened_grn.gate_norm.add_norm.norm.bias f4 [8]
0	0x3e30fe98	0.1728462
1	0xbe30d340	-0.17268085
2	0xbe311cd6	-0.17296156
3	0x3e30c564	0.17262799
4	0x3e30d483	0.17268567
5	0x3e30d168	0.17267382
6	0xbe30c4f8	-0.17262638
7	0xbe30ca52	-0.17264679

encoder_variable_selection.single_variable_grns.time_idx.resample_norm.mask f4 [16]
0	0x3e30b6ca	0.17257228
1	0xbe30c6c5	-0.17263325
2	0xbe3118ed	-0.17294665
3	0xbe2f5c31	-0.17125012
4	0xbe30d892	-0.17270115
5	0xbe315cd7	-0.17320572
6	0xbe3124b5	-0.17299159
7	0xbe305bab	-0.17222469
8	0xbe3124a1	-0.17299129
9	0xbe302349	-0.1720096
10	0x3e31831f	0.17335175
11	0x3e2f591a	0.17123833
12	0xbe49e440	-0.19715977
13	0x3e31a3e7	0.1734768
14	0x3e33a0d5	0.17541821
15	0x3e2fcf55	0.17168935

encoder_variable_selection.single_variable_grns.time_idx.resample_norm.norm.weight f4 [16]
0	0x3f96170b	1.1725782
1	0x3f554180	0.8330307
2	0x3f53acca	0.8268553
3	0x3f554056	0.83301294
4	0x3f53c80d	0.8272713
5	0x3f53be79	0.82712513
6	0x3f53af10	0.82689
7	0x3f53ed93	0.82784384
8	0x3f53b29b	0.82694405
9	0x3f53f8c2	0.8280145
10	0x3f9625c0	1.173027
11	0x3f960389	1.1719829
12	0x3f957e97	1.1679257
13	0x3f9629ba	1.1731484
14	0x3f979771	1.1843091
15	0x3f960540	1.1720352

encoder_variable_selection.single_variable_grns.time_idx.resample_norm.norm.bias f4 [16]
0	0x3e310d86	0.17290315
1	0xbde6138b	-0.11234196
2	0xbe315a5d	-0.17319627
3	0xbe2ffc0b	-0.1718599
4	0x3e30d410	0.17268395
5	0x3e30c0c6	0.17261037
6	0xbe198c02	-0.14994815
7	0xbe31dd87	-0.17369662
8	0x3e319e66	0.1734558
9	0x3e2f45de	0.17116496
10	0xbe313319	-0.17304648
11	0xbe3077ea	-0.17233244
12	0xbe2ff190	-0.17181993
13	0x3e2f324f	0.17109035
14	0x3e328d7d	0.17436786
15	0xbe31253f	-0.17299365

encoder_variable_selection.single_variable_grns.time_idx.fc1.weight f4 [8, 8]
0	0x3db49c86	0.08818917
1	0x3f657477	0.89630836
2	0xbeb67acb	-0.3564056
3	0x3e3d4024	0.18481499
4	0x3f55e0ef	0.83546346
5	0x3e8ea088	0.2785685
6	0x3ec4fa66	0.3847229
7	0x3cedc09b	0.029022506
8	0xbdca6c1a	-0.098839
9	0x3ed588cc	0.4170593
10	0x3f7caab2	0.9869796
11	0x3eefc2e7	0.46828386
12	0xbd8a812f	-0.06762921
13	0x3ea358c4	0.3190366
14	0x3f704c62	0.9386655
15	0x3d8aee96	0.06783788
16	0x3c89bb7b	0.01681303
17	0x3d261560	0.04054773
18	0xbcf70ba1	-0.030156912
19	0x3ea5ea99	0.32405546
20	0xbeefecf5	-0.4686047
21	0xbf327290	-0.6970606
22	0xbeb66b7a	-0.35628873
23	0xbd42bb88	-0.047542125
24	0xbe3e3332	-0.18574217
25	0x3d96efbb	0.07369944
26	0xbea74b39	-0.32674578
27	0x3f873b9a	1.0565064
28	0xbe9fea06	-0.31233233
29	0xbd7f8513	-0.06238277
30	0xbf98204f	-1.188486
31	0x3f86794b	1.0505766
32	0x3f40369b	0.7508332
33	0xbd4296b2	-0.047506995
34	0x3c1e4fcf	0.009662583
35	0x3dafca8f	0.08583557
36	0xbe567faa	-0.20947137
37	0xbdffb786	-0.12486176
38	0x3d73a5b9	0.059484217
39	0xbe4c6b16	-0.19962725
40	0x3da3b2b2	0.07993068
41	0x3f222777	0.6334147
42	0x3f15a570	0.5845556
43	0xbf60fc21	-0.8788472
44	0x3ec9f087	0.3944132
45	0xbe912806	-0.28350848
46	0xbf062a5b	-0.5240838
47	0xbf56f973	-0.8397438
48	0xbf531e47	-0.82468075
49	0x3e0c48f6	0.13699707
50	0x3f663860	0.8992977
51	0xbf14454c	-0.5791824
52	0x3e8284c1	0.25491908
53	0xbe94a658	-0.2903316
54	0xbd2213b5	-0.039569575
55	0xbee6b6ee	-0.4506144
56	0x3eb47fd3	0.35253772
57	0xbf0da541	-0.5533028
58	0xbeb163ec	-0.34646547
59	0x3ee38df6	0.44444245
60	0xbebf70fe	-0.37390894
61	0xbf1e8604	-0.6192324
62	0xbdaa42a3	-0.08313491
63	0x3f1f8fc6	0.62328756

encoder_variable_selection.single_variable_grns.time_idx.fc1.bias f4 [8]
0	0x3e3117f2	0.1729429
1	0xbe318086	-0.17334184
2	0x3e335855	0.17514165
3	0xbe300bc7	-0.17191993
4	0x3e311e69	0.17296757
5	0xbe2e32c4	-0.17011553
6	0xbe32cc09	-0.17460646
7	0x3e2f7ddb	0.17137854

encoder_variable_selection.single_variable_grns.time_idx.fc2.weight f4 [8, 8]
0	0x3e11258d	0.1417448
1	0xbd2833c8	-0.041065007
2	0xbf3a1e0a	-0.72702086
3	0xbe974de2	-0.29551607
4	0x3e56e85f	0.2098708
5	0xbd3237b8	-0.04351017
6	0x3f74ab42	0.9557382
7	0x3e162d68	0.14665759
8	0x3eb2eb27	0.34945032
9	0xbef6f119	-0.48230818
10	0x3fa3c6b6	1.2795017
11	0x3f223b9e	0.6337222
12	0x3e6e77ae	0.23287842
13	0xbf0e8dfe	-0.5568541
14	0xbd9e8ad7	-0.07741325
15	0xbe4cd903	-0.20004658
16	0x3e901910	0.2814412
17	0xbf26f99c	-0.65224624
18	0x3ee13dd0	0.43992472
19	0x3e6424f8	0.22279727
20	0x3f0d908b	0.5529868
21	0xbe894cc3	-0.26816377
22	0xbe4883f8	-0.19581592
23	0xbd359942	-0.04433561
24	0xbe329103	-0.1743813
25	0x3f10ee6d	0.5661381
26	0xbed40734	-0.41411746
27	0x3f64ce1f	0.89377016
28	0xbf86413a	-1.0488656
29	0x3e258e5e	0.1616759
30	0x3ef3238b	0.47488055
31	0xbf2b6f36	-0.6696657
32	0x3ea89172	0.32923466
33	0xbf56da2b	-0.8392665
34	0xbe930342	-0.28713423
35	0x3f0f9398	0.56084585
36	0x3ef5143f	0.4786701
37	0xbeefa039	-0.46801928
38	0x3e73b35f	0.23798893
39	0x3e55254c	0.20815009
40	0x3e8fc2d9	0.28078344
41	0xbf385da5	-0.7201789
42	0x3f00b9b0	0.50283337
43	0xbec04daf	-0.37559268
44	0x3f9c5e6c	1.2216315
45	0xbeb371db	-0.35047802
46	0xbe99224f	-0.29908988
47	0xbede1833	-0.43377838
48	0x3e167018	0.14691198
49	0x3ea42602	0.32060248
50	0xbf4fa60c	-0.8111274
51	0xbe8b7239	-0.27235582
52	0xbf02fb2e	-0.5116452
53	0xbfd63f97	-1.6738156
54	0xbd32ec78	-0.043682545
55	0x3eb48ae6	0.3526222
56	0x3e922b94	0.28548872
57	0x3e626197	0.2210754
58	0x3e80a981	0.2512932
59	0xbf68570c	-0.90757823
60	0xbf267ba5	-0.65032417
61	0xbef7c118	-0.48389506
62	0x3e74fbe0	0.23924208
63	0xbc970dd0	-0.018439204

encoder_variable_selection.single_variable_grns.time_idx.fc2.bias f4 [8]
0	0xbe31257a	-0.17299452
1	0xbe30396f	-0.17209409
2	0xbe309031	-0.17242505
3	0x3e3025b4	0.17201883
4	0xbe306dc7	-0.17229377
5	0x3e30a389	0.17249884
6	0x3e2da37b	0.16956894
7	0xbe30bf13	-0.17260389

encoder_variable_selection.single_variable_grns.time_idx.gate_norm.glu.fc.weight f4 [32, 8]
0	0x3e295f6a	0.16540304
1	0x3d56b019	0.052414034
2	0xbeb68876	-0.35650986
3	0x3e78517a	0.24249831
4	0xbef8de8a	-0.48607284
5	0xbef44831	-0.47711328
6	0xbe5bc041	-0.21460058
7	0x3ec5c67b	0.3862799
8	0xbe9a5fd9	-0.3015125
9	0x3d39b41e	0.04533779
10	0x3f0954a3	0.5364477
11	0xbe4676d5	-0.19381268
12	0x3c9ba603	0.019000059
13	0x3e1d7374	0.15376073
14	0xbeb4dfb0	-0.3532691
15	0xbc63860d	-0.013886941
16	0xbe8b7b69	-0.27242592
17	0xbe6b804d	-0.22998162
18	0x3e18f8e5	0.14938696
19	0xbc8f1dbf	-0.017470239
20	0x3ee08aaa	0.43855792
21	0xbe07e9be	-0.1327276
22	0x3f084807	0.53234905
23	0xbd4ac71f	-0.049506303
24	0xbeff8f2c	-0.4991392
25	0x3d3181ab	0.04333655
26	0x3e84d986	0.25947207
27	0xbede9849	-0.4347556
28	0x3d4ac377	0.049502816
29	0x3e3410b8	0.17584503
30	0x3e850133	0.25977477
31	0xbd751a8d	-0.059839774
32	0xbbe4ab5e	-0.0069784364
33	0x3eaedb66	0.34151763
34	0xbd58eb99	-0.05295906
35	0x3f013363	0.50469035
36	0xbc2af19e	-0.010433583
37	0x3e0c2044	0.13684183
38	0xbf063a06	-0.52432287
39	0xbb6b1f39	-0.0035876764
40	0xbe0fa3ee	-0.14027378
41	0xbd3c7298	-0.046007723
42	0xbead2db3	-0.33823928
43	0x3f02316e	0.50856674
44	0xbebe8973	-0.3721424
45	0x3df9a2b7	0.121892385
46	0xbd4c902d	-0.049942184
47	0x3e059c80	0.13047981
48	0x3e335175	0.17511542
49	0xbd12ed37	-0.035870757
50	0x3f0e2766	0.5552887
51	0xbeb35998	-0.35029292
52	0x3eb8d361	0.3609877
53	0x3c4e820e	0.01260425
54	0xbef048c8	-0.46930528
55	0x3aaa3b3d	0.0012987625
56	0xbe805c33	-0.25070342
57	0x3e0e8f4b	0.1392185
58	0xbd30ce13	-0.043165278
59	0xbd606ec1	-0.054793123
60	0xbe37c45a	-0.17945996
61	0x3f008bd0	0.50213337
62	0xbdafed57	-0.08590191
63	0xbef0dc68	-0.47043157
64	0xbda66204	-0.08124164
65	0x3e1fbea6	0.1560007
66	0xbd6549eb	-0.055978697
67	0x3db4f5ce	0.08835946
68	0xbd5106d6	-0.05103191
69	0x3ee98556	0.4560954
70	0x3c09c5c6	0.008408969
71	0xbc5c40a1	-0.013443143
72	0xbdfce0ae	-0.12347542
73	0x3ddd67ee	0.10810839
74	0xbdb1acf2	-0.08675565
75	0xbe3d0684	-0.18459517
76	0xbed0f584	-0.40812314
77	0x3d07ea88	0.03318265
78	0x3dfa5f6c	0.122252315
79	0xbd50d3f2	-0.050983377
80	0x3e1a8b03	0.15092091
81	0x3d9dbf14	0.07702461
82	0xbe446f62	-0.19183114
83	0x3c94c359	0.018159555
84	0x3ec1264f	0.3772454
85	0x3f00171b	0.50035256
86	0x3ef46139	0.47730425
87	0x3ddb7b38	0.107168615
88	0xbec7d70d	-0.39031258
89	0x3e02b938	0.12765968
90	0x3dfaa081	0.12237645
91	0x3dad4ff0	0.084625125
92	0x3e746314	0.2386592
93	0xbdfedb57	-0.124441795
94	0x3eb1f34c	0.34755933
95	0x3e1fe6aa	0.15615335
96	0x3e3013b0	0.1719501
97	0xbec9320e	-0.39296
98	0x3db18a03	0.08668902
99	0xbcfbb66c	-0.030726634
100	0xbdb45ee5	-0.08807162
101	0x3ddc4238	0.10754818
102	0x3ea98984	0.3311273
103	0x3e1471db	0.14496557
104	0xbd9bcc65	-0.076073445
105	0x3d1f217d	0.038850296
106	0xbd56edbf	-0.052472826
107	0xbcbaba4e	-0.022793915
108	0xbe319a7e	-0.1734409
109	0x3e3562b0	0.17713428
110	0xbd3d8166	-0.046265982
111	0x3e10fbf8	0.14158618
112	0x3e3013db	0.17195074
113	0x3f0c3918	0.5477462
114	0xbea7c24d	-0.32765427
115	0x3e73a8a8	0.23794806
116	0xbdbbe2be	-0.09174107
117	0x3e287401	0.16450502
118	0xbf109333	-0.5647461
119	0x3e7cb475	0.24678214
120	0xbe6f3f8a	-0.23364082
121	0xbf089dc3	-0.53365725
122	0x3efab9a2	0.48969752
123	0xbeab2b2e	-0.3343138
124	0xbe2e3324	-0.17011696
125	0xbdfe55ae	-0.12418686
126	0xbdf29319	-0.11844463
127	0xbd8b2830	-0.067947745
128	0xbde55965	-0.11198691
129	0x3db58430	0.088631034
130	0xbe6f6aef	-0.23380636
131	0xbdced96b	-0.10100063
132	0x3e2eda22	0.17075399
133	0xbef870d4	-0.4852358
134	0x3d649e61	0.055815104
135	0xbe32cb4e	-0.17460367
136	0x3ef611ff	0.48060605
137	0xbe2c3780	-0.16818047
138	0xbe0e7067	-0.13910066
139	0x3d5d215d	0.053986896
140	0xbe88fc8a	-0.26755172
141	0xbe6be082	-0.23034862
142	0xbe36ac63	-0.17839198
143	0x3e618189	0.2202207
144	0xbef7038d	-0.48244897
145	0xbe9f453b	-0.31107506
146	0xbd7329c2	-0.059365995
147	0xbefbf135	-0.49207464
148	0x3dd4cf5a	0.10391112
149	0xbd19df57	-0.03756651
150	0xbd7c1107	-0.061539676
151	0xbe7f2514	-0.24916488
152	0x3ed92e1b	0.42417988
153	0x3e2a8d20	0.16655397
154	0x3e2eb1dc	0.17060035
155	0xbe056223	-0.13025717
156	0xbe5a55e1	-0.21321823
157	0xbe8696f3	-0.2628704
158	0x3e11130e	0.14167425
159	0x3eb6f662	0.3573485
160	0x3e4534bc	0.19258398
161	0xbe61b027	-0.22039853
162	0x3e146adf	0.14493893
163	0xbe4c7f0f	-0.19970344
164	0xbe4073c4	-0.18794161
165	0x3eeb75b5	0.4598824
166	0x3ef508e1	0.47858337
167	0x3d5744ec	0.052555963
168	0x3e9b1919	0.30292585
169	0x3dffc0dc	0.12487957
170	0x3dff586a	0.124680355
171	0x3e3d0c38	0.18461692
172	0x3ef574dd	0.47940722
173	0xbd95440d	-0.0728837
174	0x3e2ecc44	0.17070109
175	0x3cf73d19	0.0301805
176	0x3ec1d1d4	0.378554
177	0xbe01b8f4	-0.1266821
178	0xbf0be541	-0.5464669
179	0x3ee3f805	0.4452516
180	0xbe84b576	-0.25919694
181	0xbe5019cb	-0.20322339
182	0xbe9af9ee	-0.30268806
183	0x3eb37b12	0.35054833
184	0x3e8f9b93	0.2804838
185	0xbf0a1165	-0.5393279
186	0x3e345184	0.1760922
187	0x3d9d983d	0.07695053
188	0xbe9d0c48	-0.30673432
189	0xbcfb68d8	-0.030689642
190	0x3ea169f7	0.31526157
191	0x3f01f85c	0.5076959
192	0x3f08f53c	0.534992
193	0xbd583055	-0.052780468
194	0x3c68ddae	0.014213009
195	0x3e29d1e1	0.16583969
196	0xbe9ebcca	-0.3100341
197	0xbe49d604	-0.19710547
198	0x3dc63200	0.096775055
199	0xbe3e5b8b	-0.18589608
200	0xbe46554d	-0.19368477
201	0xbe555f8d	-0.20837231
202	0x3f0925dd	0.535734
203	0x3c207aa7	0.009794868
204	0x3ea57bfd	0.32321158
205	0x3d5b76e6	0.053580187
206	0x3eb60e9c	0.3555802
207	0xbefd1c07	-0.49435446
208	0xbf0671f7	-0.52517647
209	0x3e5ec95f	0.21756504
210	0xbe9e928d	-0.30971184
211	0x3f08c5b1	0.53426653
212	0x3dd61923	0.10454013
213	0xbef532ef	-0.47890422
214	0xbebc54de	-0.367835
215	0xbe3b786e	-0.18307659
216	0x3e5a7e61	0.21337272
217	0xbe13d5a8	-0.14436972
218	0x3ed67d1b	0.41892323
219	0xbcad68df	-0.02116817
220	0x3db01773	0.085982226
221	0x3e83c710	0.2573781
222	0xbdeb86d6	-0.11500327
223	0xbc962dc4	-0.01833237
224	0x3eb54e65	0.35411373
225	0xbe51f62d	-0.20504065
226	0xbe19de67	-0.15026246
227	0xbe354f96	-0.17706141
228	0x3ee825f4	0.45341456
229	0xbdd81d52	-0.105524674
230	0x3f01738f	0.50566953
231	0x3e89c1f0	0.26905775
232	0x3e8937fb	0.26800522
233	0x3d316694	0.043310717
234	0xbc8a693b	-0.01689588
235	0xbe8366e4	-0.25664437
236	0x3ec2775d	0.37981692
237	0x3efb4b42	0.49080855
238	0x3dbb67dc	0.09150669
239	0x3ddd98e4	0.10820177
240	0xbe58b833	-0.21164016
241	0x3db77afe	0.08959006
242	0x3c7b3531	0.015332506
243	0xbef521bd	-0.47877303
244	0x3f09e63c	0.53866935
245	0xbe0a21fb	-0.13489525
246	0xbdd4e4fc	-0.10395238
247	0xbcf55d20	-0.029951632
248	0x3cb0c656	0.021578949
249	0xbee3e458	-0.4451015
250	0x3e341691	0.17586733
251	0xbd268127	-0.040650513
252	0xbdc7eb55	-0.09761683
253	0xbe483b4c	-0.1955387
254	0x3ea84efd	0.32872763
255	0xbd89f53e	-0.06736229

encoder_variable_selection.single_variable_grns.time_idx.gate_norm.glu.fc.bias f4 [32]
0	0x3e311313	0.17292432
1	0xbe1eac46	-0.15495405
2	0xbe3136fe	-0.17306134
3	0xbe2fb654	-0.17159396
4	0x3e30ce7a	0.17266265
5	0x3e30cbd9	0.17265262
6	0xbe2c27f3	-0.16812114
7	0xbe319511	-0.1734202
8	0x3e314df0	0.17314887
9	0x3e2fb6b0	0.17159534
10	0xbe31318d	-0.17304058
11	0xbe308a3e	-0.17240235
12	0xbe3087c1	-0.17239286
13	0x3e2ed761	0.17074348
14	0x3e323262	0.17402032
15	0xbe30f1d2	-0.17279747
16	0x3e30e0f9	0.1727332
17	0x3e3dfbb9	0.18553056
18	0xbe30745d	-0.17231889
19	0x3e300865	0.17190702
20	0xbe30d15f	-0.17267369
21	0xbe313e85	-0.17309006
22	0x3e34f293	0.1767066
23	0x3e2f5cfb	0.17125313
24	0xbe304e53	-0.17217378
25	0xbe30e982	-0.17276576
26	0x3e3141ab	0.17310207
27	0xbe30e5e9	-0.17275204
28	0xbe33d352	-0.17561081
29	0xbe311359	-0.17292537
30	0xbe2e643d	-0.17030425
31	0xbe307749	-0.17233004

encoder_variable_selection.single_variable_grns.time_idx.gate_norm.add_norm.norm.weight f4 [16]
0	0x3f961a4c	1.1726775
1	0x3f96333f	1.1734389
2	0x3f53ba8d	0.8270653
3	0x3f96fa23	1.1795086
4	0x3f53c566	0.8272308
5	0x3f53ba4c	0.8270614
6	0x3f9615ad	1.1725365
7	0x3f53fc8a	0.8280722
8	0x3f961b4a	1.1727078
9	0x3f53eed1	0.8278628
10	0x3f9621da	1.1729081
11	0x3f93cbca	1.1546566
12	0x3f92407a	1.1425927
13	0x3f961e9d	1.1728092
14	0x3f55ad09	0.83467156
15	0x3f95675b	1.1672167

encoder_variable_selection.single_variable_grns.time_idx.gate_norm.add_norm.norm.bias f4 [16]
0	0x3e310273	0.1728609
1	0x3e34abb0	0.17643619
2	0xbe319395	-0.17341454
3	0xbe301245	-0.1719447
4	0x3e30cec7	0.1726638
5	0x3e30bb6a	0.17258993
6	0x3e33f52e	0.17573997
7	0xbe324953	-0.17410783
8	0xbe2e75b5	-0.17037089
9	0x3e2c513a	0.1682786
10	0xbe31070b	-0.17287843
11	0xbe308662	-0.17238763
12	0xbe2fe273	-0.17176227
13	0x3e2f9288	0.17145741
14	0x3e32aace	0.1744797
15	0xbe311d27	-0.17296277

encoder_variable_selection.single_variable_grns.T2M.resample_norm.mask f4 [16]
0	0xbe30d548	-0.1726886
1	0x3e30df49	0.17272677
2	0xbe30def8	-0.17272556
3	0xbe30d5d6	-0.17269072
4	0x3e30d94a	0.17270389
5	0x3e30dbee	0.17271397
6	0x3e30e47f	0.17274664
7	0xbe30dbb6	-0.17271313
8	0x3e30d617	0.17269169
9	0x3e30eb95	0.17277367
10	0xbe30dd29	-0.17271866
11	0xbe30d407	-0.17268382
12	0x3e30d416	0.17268404
13	0xbe308f5a	-0.17242184
14	0xbe30aeb5	-0.17254145
15	0x3e309584	0.17244536

encoder_variable_selection.single_variable_grns.T2M.resample_norm.norm.weight f4 [16]
0	0x3f53c91f	0.8272876
1	0x3f961c46	1.1727378
2	0x3f53c844	0.82727456
3	0x3f53ca20	0.82730293
4	0x3f53ce01	0.8273621
5	0x3f961cd4	1.1727548
6	0x3f961da7	1.1727799
7	0x3f53c957	0.82729095
8	0x3f961ab3	1.1726898
9	0x3f961f55	1.1728312
10	0x3f53c830	0.82727337
11	0x3f97456d	1.1818062
12	0x3f961afb	1.1726984
13	0x3f53d049	0.8273969
14	0x3f53ca71	0.82730776
15	0x3f961895	1.1726252

encoder_variable_selection.single_variable_grns.T2M.resample_norm.norm.bias f4 [16]
0	0x3e30dceb	0.17271774
1	0x3e30e25a	0.17273846
2	0xbe30e387	-0.17274295
3	0xbe30c8b8	-0.17264068
4	0x3e30dacb	0.17270963
5	0x3e30daa4	0.17270905
6	0x3e30dc9e	0.17271659
7	0xbe30df5d	-0.17272706
8	0x3e30e6d7	0.17275558
9	0xbe31119a	-0.1729187
10	0xbe30dd58	-0.17271936
11	0xbe30d84a	-0.17270008
12	0xbe30d745	-0.17269619
13	0x3e30bf17	0.17260395
14	0x3e30f16d	0.17279597
15	0xbe30e356	-0.17274222

encoder_variable_selection.single_variable_grns.T2M.fc1.weight f4 [8, 8]
0	0xbeb2bdc5	-0.34910408
1	0x3ddba9b9	0.107257314
2	0x3e328193	0.17432241
3	0xbf764d80	-0.96212006
4	0x3ef8b160	0.48572826
5	0xbede6db3	-0.4344307
6	0xbf5cc209	-0.86233574
7	0x3e8c383e	0.2738666
8	0x3f21c63a	0.63193095
9	0x3ea11cbc	0.31467235
10	0x3d80b6f7	0.06284898
11	0x3e301ba8	0.1719805
12	0xbf0ad0f1	-0.5422507
13	0x3e8a4cfa	0.27011853
14	0x3e94a91f	0.2903528
15	0xbe920fbc	-0.2852763
16	0x3d5b14e2	0.053486712
17	0x3e101aa8	0.14072669
18	0x3f9088e9	1.1291782
19	0x3ee54b4a	0.44784003
20	0x3de52cb0	0.11190164
21	0xbe3f6067	-0.18689118
22	0x3f2edfc0	0.68310165
23	0xbf90c59a	-1.1310303
24	0xbf3848c2	-0.7198602
25	0x3e830b1d	0.25594416
26	0xbd9885d7	-0.07447403
27	0xbea31ff4	-0.31860316
28	0xbed77b40	-0.4208622
29	0x3d95683c	0.07295272
30	0xbf1d434c	-0.6143081
31	0x3e5e7a02	0.2172623
32	0x3e67e6d0	0.22646642
33	0x3ebb57b3	0.36590347
34	0xbecec83d	-0.40387145
35	0x3deec611	0.11658872
36	0x3f3f3c23	0.74701136
37	0x3d360b03	0.044444095
38	0xbe954cbc	-0.29160106
39	0xbf7a2b70	-0.9772253
40	0xbeb1e340	-0.3474369
41	0x3f37c07f	0.717781
42	0x3e9984b2	0.2998405
43	0x3f4e8dce	0.80685127
44	0x3e52d052	0.2058728
45	0x3e2013aa	0.15632501
46	0x3d8d4961	0.068987615
47	0xbf48b922	-0.7840749
48	0xbe93e823	-0.28888044
49	0xbf6fbec7	-0.9365048
50	0xbe1acf36	-0.15118107
51	0xbf3dbce2	-0.7411634
52	0xbe052c39	-0.13005151
53	0xbf6ea3a9	-0.93218476
54	0xbe7c03b6	-0.2461079
55	0xbf4e97da	-0.8070046
56	0xbe54d820	-0.2078557
57	0xbd84ad27	-0.06478339
58	0x3f183fdd	0.5947245
59	0x3eca098a	0.39460403
60	0x3f37e37d	0.71831495
61	0x3efdbe2a	0.49559146
62	0xbf9af35f	-1.2105521
63	0x3e805db0	0.25071478

encoder_variable_selection.single_variable_grns.T2M.fc1.bias f4 [8]
0	0x3e30db76	0.17271218
1	0xbe30dd9d	-0.17272039
2	0x3e30dc29	0.17271484
3	0x3e30ccc1	0.17265607
4	0x3e30db21	0.17271091
5	0x3e30d8cb	0.172702
6	0xbe30dd7b	-0.17271988
7	0x3e30d9ca	0.1727058

encoder_variable_selection.single_variable_grns.T2M.fc2.weight f4 [8, 8]
0	0xbf1063d5	-0.5640233
1	0xbd8f20bd	-0.06988666
2	0x3d8fe57e	0.07026194
3	0xbcf3c7a9	-0.029758291
4	0xbe70fb52	-0.23533371
5	0xbf1e3509	-0.61799675
6	0xbe924fa1	-0.28576377
7	0xbfa1f020	-1.2651405
8	0x3e7be32e	0.24598381
9	0xbf2e3e46	-0.6806377
10	0x3e6ad462	0.2293258
11	0xbe8ce5d8	-0.27519107
12	0x3ef695c8	0.4816115
13	0xbe9cd9b2	-0.30634838
14	0xbee95711	-0.4557424
15	0x3df70270	0.12061012
16	0x3ea0916b	0.31360945
17	0x3f3eee96	0.74582803
18	0xbf07ea13	-0.53091544
19	0x3dfb889d	0.12281916
20	0xbdc3b876	-0.095566675
21	0xbef86573	-0.485149
22	0x3f4b48e2	0.79408085
23	0xbfa7e28b	-1.311601
24	0x3e1dbac6	0.1540328
25	0xbf156b49	-0.5836683
26	0x3c1ce27a	0.009575481
27	0xbf217ab8	-0.6307788
28	0xbe21cf79	-0.15801801
29	0xbf58dd4a	-0.8471266
30	0xbe1cef10	-0.1532557
31	0xbed4ee70	-0.41588163
32	0x3f3a0e59	0.7267814
33	0x3ae789be	0.0017664952
34	0x3d9d117a	0.07669349
35	0xbd4e4302	-0.050356872
36	0x3ecbffc2	0.39843565
37	0x3edd5603	0.43229684
38	0xbe093082	-0.1339741
39	0x3f2fa365	0.68608695
40	0xbc7743ea	-0.015091876
41	0x3ed64d4f	0.41855857
42	0x3c56f619	0.013120198
43	0xbe45702e	-0.19281074
44	0x3f5232dd	0.8210886
45	0x3e50ec92	0.20402744
46	0xbe69791f	-0.2280011
47	0xbeccea47	-0.4002249
48	0x3f55f446	0.83575857
49	0x3c65c558	0.014024101
50	0xbd73f852	-0.05956299
51	0xbf1ee332	-0.6206542
52	0xbf0d9a6f	-0.5531377
53	0xbd45a90c	-0.04825692
54	0xbda33a6b	-0.07970127
55	0xbf1fbca7	-0.62397236
56	0x3e9ac9a8	0.30231977
57	0xbebeb603	-0.3724824
58	0xbf070890	-0.5274744
59	0x3eeea4be	0.46610063
60	0xbe9616ec	-0.29314363
61	0xbf3f20fa	-0.74659693
62	0x3ebc233f	0.3674564
63	0xbeeccc87	-0.46249792

encoder_variable_selection.single_variable_grns.T2M.fc2.bias f4 [8]
0	0xbe30d873	-0.17270069
1	0x3e30e375	0.17274268
2	0xbe30d7a7	-0.17269765
3	0xbe30dbf7	-0.1727141
4	0x3e30d7bb	0.17269795
5	0x3e30dbf5	0.17271407
6	0xbe30d8bb	-0.17270176
7	0xbe30dff7	-0.17272936

encoder_variable_selection.single_variable_grns.T2M.gate_norm.glu.fc.weight f4 [32, 8]
0	0x3d547bff	0.051876064
1	0x3e14e8a0	0.14541864
2	0xbe167932	-0.1469467
3	0xbf088ba2	-0.5333806
4	0x3f0945d8	0.536222
5	0xbe924f03	-0.28575906
6	0xbe4da0e5	-0.20080908
7	0xbe062df6	-0.1310347
8	0xbe46548e	-0.19368193
9	0xbcf9205d	-0.03041094
10	0xbeadc616	-0.3394019
11	0xbe016aa3	-0.12638335
12	0x3e965cd4	0.29367697
13	0x3ea743d1	0.32668927
14	0xbe064a06	-0.13114175
15	0xbd6cb030	-0.057785213
16	0xbe487235	-0.19574817
17	0x3e1172bb	0.14203922
18	0x3d296def	0.041364606
19	0x3c9abd26	0.018889021
20	0x3e05cd9c	0.13066715
21	0xbe81e2e8	-0.25368428
22	0x3e848f22	0.25890452
23	0x3e4026cf	0.18764804
24	0x3f0ba96a	0.5455538
25	0x3eac3e03	0.3364106
26	0x3f0c2610	0.5474558
27	0x3e229b91	0.15879656
28	0x3c9c7e20	0.01910311
29	0xbe439ede	-0.19103572
30	0x3df76afa	0.12080951
31	0x3dd40c04	0.10353854
32	0x3cbd08c9	0.023075478
33	0xbdb6a256	-0.08917682
34	0xbc368540	-0.011140168
35	0xbf0a40cc	-0.5400512
36	0x3ed72a6b	0.4202455
37	0x3dee95db	0.116496764
38	0xbf002b32	-0.5006591
39	0xbedecbaa	-0.43514758
40	0xbe719939	-0.23593606
41	0x3d6bc9f4	0.057565644
42	0xbed872ec	-0.42275178
43	0xbee51db0	-0.44749212
44	0x3efe2fda	0.49645883
45	0x3ceb3fc5	0.028716931
46	0xbec60657	-0.38676712
47	0xbeaddc5f	-0.33957192
48	0x3db68b8e	0.08913337
49	0xbeab7797	-0.33489677
50	0xbe91d64e	-0.28483814
51	0xbabb1f2d	-0.0014276259
52	0x3ec55f94	0.38549483
53	0xbe949013	-0.2901617
54	0xbe763ca3	-0.24046569
55	0xbe558930	-0.20853114
56	0x3eca1c45	0.39474693
57	0xbe3249d1	-0.17410971
58	0x3e8c250e	0.2737202
59	0xbdee960a	-0.116497114
60	0x3e098e48	0.13433182
61	0xbdc302f4	-0.09522048
62	0x3e48c787	0.19607364
63	0x3ed85ea8	0.42259717
64	0xbe2ba034	-0.16760331
65	0x3dc2febb	0.09521242
66	0xbdfedd73	-0.12444582
67	0xbe013690	-0.1261847
68	0x3e0d1c0e	0.13780233
69	0x3ebe5745	0.37175956
70	0xbeb0272c	-0.34404886
71	0xbef147c5	-0.47125068
72	0xbde5cea7	-0.112210564
73	0xbe3d2bbe	-0.18473718
74	0x3de1b7c1	0.110213764
75	0xbd3005b8	-0.042974204
76	0x3ea5fa47	0.3241751
77	0x3b566b55	0.0032717783
78	0xbe01ebda	-0.12687626
79	0xbd77c6a3	-0.06049217
80	0x3ee5e66f	0.4490237
81	0x3f034b74	0.5128701
82	0x3f018d07	0.50605816
83	0x3de7bafc	0.11314961
84	0xbe9fb176	-0.3119008
85	0xbee7adfe	-0.45249933
86	0xbe00e4ea	-0.12587324
87	0x3e65d8f7	0.22446047
88	0x3ebe274e	0.37139362
89	0x3ea11089	0.31457928
90	0x3ea95dba	0.3307932
91	0xbde46f0c	-0.11153993
92	0xbeba4111	-0.36377767
93	0x3e994ff4	0.29943812
94	0x3db17f1c	0.08666822
95	0x3e1f4149	0.15552248
96	0x3da44c4b	0.08022364
97	0xbc36c424	-0.011155162
98	0x3eb2cd62	0.3492232
99	0x3ea971c4	0.3309461
100	0xbe8683e2	-0.26272494
101	0xbdb112c9	-0.08646161
102	0x3e961f31	0.29320672
103	0x3e3c9342	0.1841555
104	0xbdba3dba	-0.09093805
105	0xbec931f8	-0.39295936
106	0x3e28ea7e	0.16495702
107	0x3de2e430	0.110786796
108	0x3d41b022	0.047287114
109	0x3ec5e39a	0.3865021
110	0xbed58933	-0.41706237
111	0xbcf444ab	-0.0298179
112	0xbef66788	-0.48125863
113	0x3d6f0f35	0.058364112
114	0xbe48e49a	-0.19618455
115	0xbebf4412	-0.3735662
116	0x3e7c6923	0.24649481
117	0x3ec32fcd	0.38122407
118	0xbed7fb58	-0.42183948
119	0xbefd06be	-0.49419206
120	0x3e87ddfc	0.26536548
121	0xbdc7d9f3	-0.097583674
122	0xbe2c10f4	-0.16803342
123	0x3d03c59c	0.032170877
124	0x3cfb1ba6	0.030652832
125	0x3e04bf25	0.12963541
126	0x3d871092	0.065949574
127	0x3ec37d01	0.38181308
128	0x3ea71d94	0.32639754
129	0x3e9c6e1a	0.3055275
130	0xbd1b0e92	-0.037855692
131	0xbd481584	-0.048848644
132	0x3b9c41ec	0.0047686007
133	0x3e0ffa0e	0.14060232
134	0x3e6cb479	0.2311572
135	0x3e4d0e11	0.20024897
136	0x3cb53dc8	0.022124186
137	0xbe3ed0f7	-0.18634401
138	0x3f04045b	0.51569146
139	0x3e9eee69	0.31041268
140	0xbdfaf5a2	-0.12253882
141	0xbe054f83	-0.13018613
142	0x3e16dede	0.14733455
143	0x3e0f8c63	0.14018397
144	0x3bceb478	0.0063081346
145	0xbde30796	-0.11085431
146	0xbe36dcaf	-0.17857622
147	0x3ebc2676	0.36748093
148	0xbf0c0a7b	-0.5470349
149	0xbe979bc5	-0.2961103
150	0x3db5c62d	0.0887569
151	0xbd023724	-0.031790867
152	0xbe27c248	-0.16382706
153	0xbe7337be	-0.23751733
154	0x3e2ff7a1	0.17184307
155	0xbcbf4aa3	-0.02335102
156	0x3e145aa7	0.14487706
157	0x3e1c5b6e	0.15269253
158	0xbd0cd9ed	-0.034387518
159	0x3e2c908c	0.16852015
160	0x3da52c73	0.08065119
161	0xbcb0eab0	-0.021596283
162	0xbe19186c	-0.14950722
163	0xbe7755e3	-0.24153857
164	0x3e54e70b	0.20791261
165	0x3e94192b	0.28925452
166	0xbeeb97eb	-0.46014342
167	0xbc83545a	-0.016031433
168	0xbec7c1d5	-0.3901507
169	0x3dafc473	0.085823916
170	0x3d3c5bf7	0.045986142
171	0xbe635b9c	-0.22202915
172	0xbd3592db	-0.044329505
173	0x3f0633a4	0.5242255
174	0xbc87d1d8	-0.016579553
175	0xbf0d4ef1	-0.5519858
176	0xbea65bcb	-0.32491907
177	0xbf073cdb	-0.52827233
178	0x3d35cc62	0.044384368
179	0xbe33a997	-0.17545162
180	0x3ec7de3a	0.39036733
181	0xbe5dc93f	-0.216588
182	0xbf0c2bf9	-0.54754597
183	0xbefbe760	-0.49199963
184	0x3e9f1a3a	0.31074697
185	0x3f0b30c8	0.5437131
186	0x3f0e1878	0.55506086
187	0xbdca79ba	-0.09886499
188	0xbe560ff4	-0.20904523
189	0xbe4b73b2	-0.19868353
190	0xbc9854fb	-0.01859521
191	0x3e656227	0.22400723
192	0xbe643d8c	-0.22289103
193	0xbe80fbf9	-0.2519224
194	0x3d5cdac5	0.053919572
195	0xbeec1715	-0.4611136
196	0x3eda68b3	0.42658004
197	0x3e2a5c0f	0.1663668
198	0xbba73bb4	-0.0051035527
199	0xbf022671	-0.50839907
200	0x3e3de044	0.18542582
201	0x3c1ae17d	0.009453175
202	0xbea27a66	-0.31734008
203	0xbec994cf	-0.39371344
204	0x3ee08789	0.43853405
205	0xbdb6ec7e	-0.08931826
206	0x3e9b3f0b	0.30321535
207	0xbe8c1eb5	-0.27367178
208	0xbed9f323	-0.4256831
209	0xbe95ffb5	-0.2929665
210	0xbd0325d9	-0.032018516
211	0xbc464091	-0.012100355
212	0xbe1c0f01	-0.15240099
213	0x3e06e24f	0.13172267
214	0xbe62e234	-0.22156602
215	0xbecaae66	-0.3958618
216	0xbe625ac3	-0.22104935
217	0xbed3e03f	-0.41382024
218	0xbeaff222	-0.3436442
219	0x3e0c934f	0.13728069
220	0xbd78dd66	-0.060758017
221	0x3ec6f7e6	0.38861006
222	0xbe93264e	-0.28740162
223	0x3def152c	0.1167396
224	0x3dc343a0	0.09534383
225	0xbe902e57	-0.28160354
226	0xbf057a0f	-0.5213937
227	0xbe8d84de	-0.27640432
228	0x3e54bc86	0.20775041
229	0x3ecd5d0a	0.40110046
230	0x3e05945b	0.13044874
231	0xbe621257	-0.22077309
232	0xbd8a502d	-0.067535736
233	0xbe3bf550	-0.18355298
234	0xbe5abda0	-0.21361399
235	0x3e814e87	0.25255224
236	0xbe305188	-0.17218602
237	0x3d32f2d1	0.0436886
238	0xbe9e2790	-0.3088956
239	0x3e4de477	0.20106684
240	0xbf0771d8	-0.52908087
241	0xbf0b10e7	-0.54322666
242	0xbeecea4d	-0.46272507
243	0xbedf92b6	-0.4366662
244	0x3ee0e4ce	0.43924564
245	0x3d8bd9e2	0.06828667
246	0xbe77cc22	-0.24198964
247	0xbea869ce	-0.32893223
248	0x3f00630a	0.5015112
249	0x3e032f06	0.12810907
250	0x3e79bf11	0.24389292
251	0x3e3fb48b	0.18721215
252	0x3b5d5b01	0.0033776166
253	0x3e1d85d9	0.1538309
254	0x3d4eebc1	0.0505178
255	0x3e626acf	0.22111057

encoder_variable_selection.single_variable_grns.T2M.gate_norm.glu.fc.bias f4 [32]
0	0x3e30dc34	0.17271501
1	0x3e30df89	0.17272772
2	0xbe30df3a	-0.17272654
3	0xbe30b53b	-0.17256634
4	0x3e30d9e5	0.1727062
5	0x3e30dac6	0.17270955
6	0x3e30e1df	0.17273663
7	0xbe30dea3	-0.17272429
8	0x3e30df80	0.17272758
9	0xbe312342	-0.17298606
10	0xbe30dd72	-0.17271975
11	0xbe30d69b	-0.17269365
12	0xbe30d5f4	-0.17269117
13	0x3e30c46a	0.17262426
14	0x3e30f1e5	0.17279775
15	0xbe30e01b	-0.1727299
16	0xbe30c9c1	-0.17264463
17	0xbe30c455	-0.17262395
18	0xbe30db20	-0.1727109
19	0x3e308f7d	0.17242236
20	0x3e30d34c	0.17268103
21	0x3e30da5a	0.17270795
22	0x3e308a73	0.17240314
23	0xbe30ce19	-0.1726612
24	0x3e30c0c0	0.17261028
25	0xbe30e082	-0.17273143
26	0x3e30dbf0	0.172714
27	0x3e30cf65	0.17266615
28	0x3e2f468c	0.17116755
29	0xbe30fa20	-0.17282915
30	0x3e30cc23	0.17265372
31	0xbe30d98d	-0.17270489

encoder_variable_selection.single_variable_grns.T2M.gate_norm.add_norm.norm.weight f4 [16]
0	0x3f53c95e	0.82729137
1	0x3f961cc4	1.1727529
2	0x3f53c8ec	0.8272846
3	0x3f53c2c1	0.82719046
4	0x3f95fd6c	1.1717963
5	0x3f961b23	1.1727031
6	0x3f962374	1.172957
7	0x3f53ca11	0.82730204
8	0x3f961ad0	1.1726933
9	0x3f962a76	1.1731708
10	0x3f961c66	1.1727417
11	0x3f53cbc1	0.8273278
12	0x3f9619b6	1.1726596
13	0x3f53cb03	0.82731646
14	0x3f53dee7	0.82761997
15	0x3f53c61d	0.8272417

encoder_variable_selection.single_variable_grns.T2M.gate_norm.add_norm.norm.bias f4 [16]
0	0x3e30de96	0.1727241
1	0x3e30e4d2	0.17274788
2	0xbe30e600	-0.17275238
3	0xbe30c4fd	-0.17262645
4	0x3e30da44	0.17270762
5	0x3e30da49	0.17270769
6	0x3e30e1cb	0.17273633
7	0xbe30e4eb	-0.17274825
8	0x3e30de13	0.17272215
9	0xbe39e3a5	-0.18153246
10	0xbe30dd74	-0.17271978
11	0xbe30d66b	-0.17269294
12	0xbe30d4d5	-0.17268689
13	0x3e30c1aa	0.17261377
14	0x3e30fdfe	0.1728439
15	0xbe30e081	-0.17273141

encoder_variable_selection.single_variable_grns.T2M_MAX.resample_norm.mask f4 [16]
0	0xbe30ff12	-0.17284802
1	0xbe30cc0a	-0.17265335
2	0x3e32a62e	0.17446205
3	0x3e2eb4bd	0.17061134
4	0xbe307b8a	-0.17234626
5	0xbe30c4bd	-0.1726255
6	0x3e2e262b	0.17006747
7	0xbe31d659	-0.17366923
8	0x3e31a13e	0.17346665
9	0x3e2ffefa	0.1718711
10	0xbe30a2d7	-0.17249618
11	0xbe2fd696	-0.17171702
12	0xbe30ff59	-0.17284907
13	0xbe2ef516	-0.1708568
14	0x3e2b2399	0.16712798
15	0x3e30daa0	0.17270899

encoder_variable_selection.single_variable_grns.T2M_MAX.resample_norm.norm.weight f4 [16]
0	0x3f53bcad	0.8270977
1	0x3f53bfa1	0.8271428
2	0x3f965ae9	1.1746494
3	0x3f95b63a	1.1696236
4	0x3f53e0fe	0.82765186
5	0x3f53d534	0.827472
6	0x3f95ef00	1.1713562
7	0x3f537f7b	0.82616395
8	0x3f962ed9	1.1733047
9	0x3f95fcda	1.1717789
10	0x3f53dcba	0.82758677
11	0x3f541aaf	0.82853216
12	0x3f53cb79	0.8273235
13	0x3f5462a1	0.82962996
14	0x3f958fca	1.1684506
15	0x3f961aaa	1.1726887

encoder_variable_selection.single_variable_grns.T2M_MAX.resample_norm.norm.bias f4 [16]
0	0x3e311ef4	0.17296964
1	0x3e3194d6	0.17341933
2	0xbe31dc70	-0.17369246
3	0xbe2ff4ef	-0.17183279
4	0x3e30a80f	0.1725161
5	0x3e30d6dd	0.17269464
6	0x3e320886	0.17386064
7	0xbe318820	-0.17337084
8	0x3e31f648	0.17379105
9	0x3e2fe02e	0.17175362
10	0xbe30b523	-0.17256598
11	0xbe3055b1	-0.17220189
12	0xbe30b580	-0.17256737
13	0x3e2f921a	0.17145577
14	0xbe29fe61	-0.16600944
15	0xbe30dcee	-0.17271778

encoder_variable_selection.single_variable_grns.T2M_MAX.fc1.weight f4 [8, 8]
0	0xbecfd9d9	-0.40595892
1	0x3d2f01d7	0.042726364
2	0xbed3bfbc	-0.4135722
3	0x3f2730a2	0.6530858
4	0xbee46813	-0.44610652
5	0x3eb36d2c	0.3504423
6	0x3e7119c7	0.2354499
7	0x3f318a94	0.6935208
8	0x3e80e6bd	0.2517604
9	0x3f4fdaa5	0.81193
10	0xbee32d50	-0.44370508
11	0xbf15ffe1	-0.58593565
12	0xbf05a702	-0.5220796
13	0x3eac3f9e	0.33642286
14	0x3ede708c	0.4344524
15	0x3eb45a5c	0.3522519
16	0x3d05658c	0.032567546
17	0x3e882226	0.26588553
18	0x3f873746	1.0563743
19	0xbe3417a2	-0.1758714
20	0x3e179bee	0.14805576
21	0x3deda109	0.11602981
22	0x3f01d0cf	0.5070924
23	0x3ded9eb1	0.116025336
24	0x3dc3f61d	0.09568427
25	0xbec0a75d	-0.37627688
26	0xbf1814b1	-0.5940657
27	0xbebb2884	-0.36554348
28	0xbe842046	-0.25805873
29	0xbedee6d9	-0.43535498
30	0x3e0c4ae5	0.13700445
31	0x3ed2389d	0.41058818
32	0x3f1ce39a	0.6128479
33	0x3e459066	0.19293365
34	0x3f7cd996	0.9876951
35	0x3c15dbc9	0.009146639
36	0x3eb77a93	0.35835704
37	0xbe6361b5	-0.22205241
38	0x3e270e5f	0.16314076
39	0x3ed238d4	0.4105898
40	0xbea6a7cc	-0.32549894
41	0xbedbb4cf	-0.42911384
42	0xbe1ff586	-0.15621004
43	0xbf5a0ede	-0.85178936
44	0x3e2b68d3	0.16739206
45	0xbef435b2	-0.47697216
46	0xbdcaa331	-0.098944075
47	0xbf17b764	-0.59264207
48	0xbe88678e	-0.26641506
49	0xbf27b073	-0.65503615
50	0xbcacf28f	-0.021111755
51	0x3f78922a	0.9709803
52	0x3f38155a	0.7190758
53	0x3dbc7290	0.092015386
54	0x3ee7b5bd	0.45255843
55	0x3efacacd	0.4898285
56	0xbf81bd6d	-1.0135933
57	0x3e4a5d64	0.19762188
58	0x3ee58247	0.44825956
59	0x3edc2dbd	0.43003646
60	0x3f5d6612	0.8648387
61	0x3efc3e92	0.49266487
62	0xbce9b49e	-0.028528508
63	0x3d0fbb21	0.03509057

encoder_variable_selection.single_variable_grns.T2M_MAX.fc1.bias f4 [8]
0	0xbe30dbe5	-0.17271383
1	0x3e31063d	0.17287536
2	0x3e30ccb8	0.17265594
3	0x3e2e342e	0.17012092
4	0xbe3181fa	-0.17334738
5	0x3e31da82	0.1736851
6	0xbe2bd119	-0.16778983
7	0xbe50c565	-0.203878
