ai_predict/ai/lightning_logs/version_93/checkpoints/epoch=4-step=30.ckpt (torch, 662004 bytes, 889 tensors)

prescalers.time_idx.weight f4 [8, 1]
0.28926054 -0.19484006 1.2003654 0.647904 0.5949509 -0.08184175 0.72428787 0.5517641
00000000: f519 943e 2784 47be 93a5 993f 09dd 253f
00000010: b44e 183f a69c a7bd ee6a 393f 6940 0d3f

prescalers.time_idx.bias f4 [8]
0.6337471 -0.8072761 0.10524197 0.8845219 -0.02570044 -0.587692 0.34460834 -0.29991174
00000000: 403d 223f a6a9 4ebf 1a89 d73d 0770 623f
00000010: bb89 d2bc fc72 16bf 8170 b03e 088e 99be

prescalers.T2M.weight f4 [8, 1]
0.13239056 0.8252127 -0.35977313 0.036510095 0.4067071 -0.62102985 0.24626414 -0.9093686
00000000: 6491 073e 2441 533f 2f34 b8be 9c8b 153d
00000010: ea3b d03e d0fb 1ebf ab2c 7c3e 61cc 68bf

prescalers.T2M.bias f4 [8]
-0.5748816 -0.32072362 0.0074840533 -0.5525276 0.19348946 1.1210752 -0.092339166 -0.84820914
00000000: 712b 13bf e335 a4be ca3c f53b 7372 0dbf
00000010: 1a22 463e 647f 8f3f 511c bdbd 3c24 59bf

prescalers.T2M_MAX.weight f4 [8, 1]
-0.05413885 -0.26160574 -0.5849289 -0.15741196 -0.034026384 0.38768962 -0.60412097 0.7407592
00000000: b3c0 5dbd 30f1 85be e6bd 15bf 9a30 21be
00000010: 405f 0bbd 417f c63e aca7 1abf 65a2 3d3f

prescalers.T2M_MAX.bias f4 [8]
-0.40880218 -0.5734336 -0.81236774 -0.14480093 -0.6969183 -0.20529304 -0.7183266 -0.9651547
00000000: 854e d1be 8bcc 12bf 55f7 4fbf b246 14be
00000010: 3d69 32bf 5738 52be 41e4 37bf 6114 77bf

prescalers.T2M_MIN.weight f4 [8, 1]
0.08336004 0.17916569 0.36196002 -0.9513493 0.23688364 -0.36428338 0.0026361018 0.91370535
00000000: abb8 aa3d 3677 373e d352 b93e a18b 73bf
00000010: a091 723e 5a83 babe 73c2 2c3b 98e8 693f

prescalers.T2M_MIN.bias f4 [8]
-0.60495085 -0.7310755 0.79885197 0.6091071 0.8567844 -0.44756564 -0.3062646 -0.32369313
00000000: 0fde 1abf c427 3bbf 9081 4c3f 71ee 1b3f
00000010: 3956 5b3f 5327 e5be b7ce 9cbe 1bbb a5be

prescalers.PRECTOTCORR.weight f4 [8, 1]
0.38796848 -0.50434595 0.846071 0.15761955 0.9096879 0.2618094 -0.58624375 0.35442048
00000000: cea3 c63e d11c 01bf 1c98 583f 0567 213e
00000010: 4ee1 683f e20b 863e 1214 16bf 9a76 b53e

prescalers.PRECTOTCORR.bias f4 [8]
-0.68117183 -0.16687308 -0.7765606 0.24837556 0.32991093 0.9518617 0.58048 -0.47751522
00000000: 4761 2ebf c7e0 2abe adcc 46bf 2a56 7e3e
00000010: 16ea a83e 35ad 733f 569a 143f e07c f4be

prescalers.RH2M.weight f4 [8, 1]
-0.23860165 -0.21375464 -0.8298811 0.10347525 1.1665925 0.3651577 -0.4498538 0.5829173
00000000: fe53 74be 7fe2 5abe 1673 54bf d5ea d33d
00000010: e752 953f f3f5 ba3e 3d53 e6be 113a 153f

prescalers.RH2M.bias f4 [8]
0.34844792 0.7910243 -0.42667267 1.0400743 0.44147557 0.71877885 0.3936411 0.21802318
00000000: c467 b23e 9280 4a3f d774 dabe 2821 853f
00000010: 1609 e23e e401 383f 548b c93e 7841 5f3e

prescalers.ALLSKY_SFC_SW_DWN.weight f4 [8, 1]
0.7178652 -0.27534866 -0.6959454 -0.37865585 0.8901835 0.51162356 0.0056427903 0.44757476
00000000: 04c6 373f 80fa 8cbe 7a29 32bf 2edf c1be
00000010: 11e3 633f c3f9 023f 28e7 b83b 8528 e53e

prescalers.ALLSKY_SFC_SW_DWN.bias f4 [8]
-0.50428975 -1.1803949 -0.47160384 0.90322435 0.025009438 -1.1081213 -0.15497623 -0.48876885
00000000: 2219 01bf 2e17 97bf 0f76 f1be b639 673f
00000010: 98e0 cc3c ebd6 8dbf 17b2 1ebe e93f fabe

prescalers.numero_casos.weight f4 [8, 1]
-0.20377351 0.13097559 0.5666898 -1.1486592 -0.6820489 0.55296445 0.31805074 0.14285137
00000000: 01aa 50be 771e 063e 9512 113f 4407 93bf
00000010: c29a 2ebf 148f 0d3f 8cd7 a23e a147 123e

prescalers.numero_casos.bias f4 [8]
0.602538 0.3078567 -0.25822696 0.7983613 -0.44030505 -0.226202 -0.57465595 0.71382505
00000000: ee3f 1a3f 659f 9d3e 5336 84be 6861 4c3f
00000010: aa6f e1be 7fa1 67be a71c 13bf 3dbd 363f

static_variable_selection.single_variable_grns.municipio.mask f4 [16]
0.17203124 0.17242853 0.17109045 0.17144403 0.17236033 0.17144576 0.17225729 -0.1722072
-0.17198804 -0.17101945 -0.17015897 0.17082545 0.17299728 -0.1719662 -0.17190273 -0.17220172
00000000: f528 303e 1b91 303e 5632 2f3e 068f 2f3e
00000010: 3a7f 303e 7a8f 2f3e 3764 303e 1657 30be
00000020: a21d 30be b91f 2fbe 273e 2ebe deec 2e3e
00000030: 3326 313e e817 30be 4507 30be a655 30be

static_variable_selection.single_variable_grns.municipio.norm.weight f4 [16]
1.1311654 1.1970958 0.798336 0.7946948 1.2151091 0.7910129 1.2535999 1.2202947
1.1465331 0.7856992 0.96359074 0.801411 1.2165517 0.9714454 0.98056245 1.1799059
00000000: 07ca 903f 6f3a 993f c05f 4c3f 1e71 4b3f
00000010: b288 9b3f d27f 4a3f f675 a03f 9e32 9c3f
00000020: 99c1 923f 9523 493f e2ad 763f 4529 4d3f
00000030: f7b7 9b3f a5b0 783f 2406 7b3f 2807 973f

static_variable_selection.single_variable_grns.municipio.norm.bias f4 [16]
0.1719602 0.1721067 0.17164496 0.17176731 0.17208642 0.1717634 0.1720577 -0.17215161
-0.17198935 -0.17079762 0.17193103 0.17168273 0.17223527 -0.17179996 -0.17192784 -0.17212012
00000000: 5616 303e bd3c 303e b2c3 2f3e c5e3 2f3e
00000010: 6c37 303e bfe2 2f3e e52f 303e 8348 30be
00000020: fa1d 30be 92e5 2ebe b00e 303e 99cd 2f3e
00000030: 715e 303e 54ec 2fbe da0d 30be 4240 30be

encoder_variable_selection.flattened_grn.resample_norm.mask f4 [8]
0.15300731 -0.22068135 0.16958383 0.18662001 0.18106467 0.19003855 -0.1722259 -0.17263049
00000000: f3ad 1c3e 4bfa 61be 62a7 2d3e 5119 3f3e
00000010: 0469 393e 7799 423e fd5b 30be 0cc6 30be

encoder_variable_selection.flattened_grn.resample_norm.norm.weight f4 [8]
1.1558322 0.82861954 1.2209647 1.1862307 1.1827943 1.2505589 1.1786216 0.82851624
00000000: 4ff2 933f 6920 543f 9248 9c3f 68d6 973f
00000010: ce65 973f 5012 a03f 13dd 963f a419 543f

encoder_variable_selection.flattened_grn.resample_norm.norm.bias f4 [8]
0.15180281 0.17893186 -0.1978659 0.18860453 0.18484752 0.19022757 -0.17487767 -0.17143354
00000000: 3272 1b3e ea39 373e 5c9d 4abe 8c21 413e
00000010: ab48 3d3e 04cb 423e 2213 33be 468c 2fbe

encoder_variable_selection.flattened_grn.fc1.weight f4 [8, 64]
0.13135946 0.011340333 -0.017242175 0.41820154 0.029005714 -0.43535718 -0.21207099 -0.25085515
0.15406762 -0.037813533 -0.31782395 -0.22552197 0.23480132 0.24922767 0.26289538 0.008039099
-0.3150146 -0.22112812 -0.10019386 -0.07460997 -0.17270537 -0.25009975 -0.009397282 -0.31443784
-0.020654384 -0.033221703 0.14071077 0.123119146 0.26324064 -0.35766262 -0.35557342 0.11084179
-0.28197888 -0.07014067 0.0058351783 0.14535542 0.1301421 0.14487949 0.011429123 -0.39647084
-0.4016042 0.25300547 -0.3749655 0.51790696 0.24642706 0.058957756 -0.47393724 0.30488393
-0.116844006 -0.333274 -0.27460086 0.4612847 -0.14789735 0.02026555 0.3420697 -0.29365548
0.053656157 0.23236185 -0.15412837 0.17486262 -0.15443589 -0.27072844 0.16345438 0.31778884
-0.42401183 0.08459754 -0.027784798 -0.6120478 0.1136897 0.13051441 -0.07395972 0.2147669
0.0349691 0.17253453 -0.40336612 0.18026453 0.18438749 -0.43669173 0.12804343 -0.19549416
-0.1155333 0.06515548 0.07697071 -0.08904067 0.0900379 0.25724348 -0.23163477 0.16461255
0.276944 0.22188294 -0.69267255 -0.4641433 0.031617466 -0.19382757 0.09808201 0.24835193
0.10966305 0.117610805 0.07153115 -0.24473515 0.18431 0.04729268 0.20287825 -0.15959999
-0.035697643 -0.030973038 0.48308858 -0.12270136 -0.61925894 -0.18801783 0.21704015 -0.11492292
0.12962049 0.41797447 0.22136022 -0.03311878 0.450193 0.2667926 -0.15805762 0.070697285
-0.19879729 -0.32926714 0.10843408 -0.16402324 -0.05730331 0.13117796 0.0008666186 -0.055769134
-0.14158179 0.061075002 0.41833037 0.10685821 0.19137356 0.24969976 0.39101148 0.40086615
0.048407633 0.28588 -0.14338347 -0.03668851 -0.10835148 -0.19688264 -0.16864778 0.17191999
0.1157245 0.019647013 0.07772849 -0.07158922 0.4418875 0.20449394 0.037815254 -0.017572213
0.12442588 0.22542723 -0.34497553 -0.06556448 -0.096352294 0.18658099 0.23709919 0.044273697
-0.11902437 -0.106397465 0.14600028 -0.22355095 -0.12986228 -0.14080615 -0.11484694 0.2773059
0.30691677 -0.20207946 0.2507534 -0.045674417 0.018809186 -0.23534258 -0.04030066 -0.12823813
-0.122031294 0.1378373 0.3588089 -0.042215943 -0.054744538 -0.15181029 -0.5765903 0.157445
-0.15410471 -0.41298115 0.33056173 -0.3679927 0.22771066 0.21535917 0.14971189 -0.032471694
0.09283004 -0.11002072 0.036676083 -0.28950012 -0.19342439 -0.09187249 -0.28850803 0.015577457
0.053115193 0.1286185 -0.19737218 0.16007861 0.04925349 -0.41780064 -0.19074702 -0.2663666
-0.15451361 -0.20105901 -0.3433009 0.06982764 -0.24699154 -0.11892831 -0.112194486 -0.00403376
0.22123045 0.26658666 0.2249031 -0.5096816 0.21987396 -0.42305207 0.05077145 0.2968597
-0.15397978 0.024221119 -0.18261941 -0.33873436 -0.024412204 -0.10569177 -0.022158831 0.10709031
-0.14506969 0.33234435 0.08653485 -0.009145137 0.090692565 -0.007966512 -0.24046616 -0.0140695255
0.031213678 -0.5373573 -0.15702122 -0.11008493 -0.020395506 0.1359475 0.086197264 -0.03158334
0.23102446 0.17155996 -0.08149236 0.035459865 -0.12309402 -0.24976721 -0.07084021 0.018275041
00000000: 1883 063e cecc 393c 763f 8dbc 831e d63e
00000010: 649d ed3c 23e7 debe 2329 59be 1670 80be
00000020: e7c3 1d3e 5de2 1abd d2b9 a2be 3bef 66be
00000030: c26f 703e 8a35 7f3e 399a 863e 6db6 033c
00000040: 9849 a1be 696f 62be 7032 cdbd 1dcd 98bd
00000050: add9 30be 130d 80be 0ff7 19bc fffd a0be
00000060: 6233 a9bc 7b13 08bd 7c16 103e e425 fc3d
00000070: 7ac7 863e 8e1f b7be b80d b6be 0501 e33d
00000080: 895f 90be e9a5 8fbd 0635 bf3b 0dd8 143e
00000090: f843 053e 4a5b 143e 3741 3b3c 3afe cabe
000000a0: 119f cdbe ef89 813e 7afb bfbe 8d95 043f
000000b0: 6057 7c3e b07d 713d e7a7 f2be bf19 9c3e
000000c0: e94b efbd e4a2 aabe 7c98 8cbe 822d ec3e
000000d0: 6772 17be f003 a63c c223 af3e 035a 96be
000000e0: 8fc6 5b3d 44f0 6d3e d4d3 1dbe 300f 333e
000000f0: 7124 1ebe eb9c 8abe 9660 273e 38b5 a23e
00000100: 1418 d9be 7a41 ad3d f29c e3bc 2aaf 1cbf
00000110: 25d6 e83d 92a5 053e 3278 97bd dbeb 5b3e
00000120: c23b 0f3d e4ac 303e 0186 cebe 4497 383e
00000130: 13d0 3c3e 0f96 dfbe d11d 033e 9f2f 48be
00000140: b99c ecbd 3c70 853d d2a2 9d3d f45a b6bd
00000150: ca65 b83d 6bb5 833e aa31 6dbe 3190 283e
00000160: 9bcb 8d3e 4835 633e fd52 31bf 31a4 edbe
00000170: 5181 013d bc7a 46be 39df c83d f84f 7e3e
00000180: 0597 e03d efdd f03d ec7e 923d da9b 7abe
00000190: c3bb 3c3e f8b5 413d 51bf 4f3e 2e6e 23be
000001a0: b137 12bd 2bbb fdbc 6357 f73e da4a fbbd
000001b0: c187 1ebf bf87 40be c63f 5e3e b55c ebbd
000001c0: 3cbb 043e c000 d63e 41ac 623e 8fa7 07bd
000001d0: b27f e63e 0a99 883e dbd9 21be bdc9 903d
000001e0: 8491 4bbe b495 a8be b012 de3d b5f5 27be
000001f0: e0b6 6abd 8453 063e ca2d 633a 2d6e 64bd
00000200: d1fa 10be c829 7a3d 662f d63e 7ad8 da3d
00000210: 6ef7 433e 4bb1 7f3e a832 c83e 543e cd3e
00000220: 1547 463d dd5e 923e 1ed3 12be b146 16bd
00000230: 61e7 ddbd 9a9b 49be 01b2 2cbe cb0b 303e
00000240: f700 ed3d c6f2 a03c 1d30 9f3d 5e9d 92bd
00000250: 143f e23e dc66 513e 2be4 1a3d 9af3 8fbc
00000260: ffd2 fe3d 65d6 663e a2a0 b0be ac46 86bd
00000270: 5a54 c5bd 160f 3f3e 21ca 723e 5658 353d
00000280: 0dc3 f3bd eae6 d9bd 1981 153e 8aea 64be
00000290: 9efa 04be 7d2f 10be df34 ebbd 0afb 8d3e
000002a0: 3224 9d3e ebed 4ebe c062 803e 1915 3bbd
000002b0: b915 9a3c a5fd 70be 4e12 25bd db50 03be
000002c0: 8beb f9bd 3925 0d3e cdb5 b73e a0ea 2cbd
000002d0: cf3b 60bd 2874 1bbe 6c9b 13bf 4339 213e
000002e0: a0cd 1dbe 4472 d3be 633f a93e 8a69 bcbe
000002f0: fc2c 693e 1d87 5c3e 134e 193e 0a01 05bd
00000300: ad1d be3d 8b52 e1bd a939 163d 5c39 94be
00000310: 0b11 46be a527 bcbd 53b7 93be 9738 7f3c
00000320: 518f 593d 91b4 033e ef1b 4abe a6eb 233e
00000330: 07be 493d f7e9 d5be 3053 43be 3461 88be
00000340: d138 1ebe 6ae2 4dbe 23c5 afbe cb01 8f3d
00000350: 5aeb 7cbe b090 f3bd 39c6 e5bd a22d 84bb
00000360: 3c8a 623e 0c7e 883e 004d 663e 7e7a 02bf
00000370: a426 613e 489a d8be b9f5 4f3d fffd 973e
00000380: e0ac 1dbe 5e6b c63c 9500 3bbe 976e adbe
00000390: 1afc c7bc ed74 d8bd 7086 b5bc 2a52 db3d
000003a0: 268d 14be 0a29 aa3e 2f39 b13d 7cd5 15bc
000003b0: 06bd b93d f985 02bc c33c 76be de83 66bc
000003c0: d4b3 ff3c 3f90 09bf 2cca 20be 3574 e1bd
000003d0: 7a14 a7bc d235 0b3e 3188 b03d 885d 01bd
000003e0: ad91 6c3e 6aad 2f3e 77e5 a6bd 5d3e 113d
000003f0: b818 fcbd fac2 7fbe ac14 91bd 8ab5 953c

encoder_variable_selection.flattened_grn.fc1.bias f4 [8]
0.18006954 -0.22328706 -0.17296265 0.07445432 0.16987833 0.15921003 -0.16376027 0.07869642
00000000: 2664 383e 5da5 64be 1f1d 31be 827b 983d
00000010: 96f4 2d3e f407 233e c6b0 27be 972b a13d

encoder_variable_selection.flattened_grn.context.weight f4 [8, 16]
0.30675992 0.38553268 0.0729549 0.54741347 -0.25051183 -0.33143845 0.025960706 -0.58942634
-0.073349826 -0.58790886 -0.5425203 -0.2898821 0.5278331 0.101819254 -0.27597702 -0.30553702
0.27789882 -0.3435926 0.18455476 -0.18554388 0.09649627 -0.61820453 0.14152682 0.4798945
0.18659107 0.5710453 -0.1511495 0.22636348 -0.5079495 0.35046858 -0.29401946 -0.17803712
-0.42667454 -0.29656217 0.4495759 -0.28855038 -0.61532634 0.48953193 0.23786083 0.5466293
-0.062456843 0.24863479 0.2596172 0.32083446 0.044506934 -0.19534469 -0.43685326 -0.14369074
-0.0996186 -0.21773091 0.08794367 -0.04556802 0.06822447 0.0025724745 -0.46863177 -0.16974102
0.5359793 0.26097137 -0.004664542 -0.09792199 -0.36651343 -0.27024868 -0.23373604 -0.31312376
0.24174604 -0.029910663 -0.2617085 -0.4014004 -0.28428563 -0.43818137 -0.16127533 0.5023364
-0.17248717 0.46967903 0.20210803 0.071036376 0.0017038465 0.2033858 -0.163039 -0.34063756
0.31609645 0.055959385 0.42391062 -0.26485443 0.45748276 -0.20221815 0.25373295 -0.40940252
0.006933718 -0.34705156 -0.09099181 -0.15128672 0.054922722 -0.41780305 -0.55184853 -0.538256
0.08482494 -0.304003 -0.36476773 -0.3263501 -0.0784089 0.41868734 0.6007028 0.18939596
-0.38976815 -0.6266208 -0.08157517 0.15169896 0.35592738 -0.5988254 0.06816051 0.3598619
0.0731372 0.18569836 -0.18552822 0.10798526 -0.3222475 -0.4214654 -0.4156288 0.46223012
-0.102817945 0.032772087 0.41100153 -0.05897311 -0.28370324 0.002825812 0.11454512 0.5229263
00000000: a30f 9d3e 8a64 c53e 6169 953d 4a23 0c3f
00000010: 1643 80be 4db2 a9be 8cab d43c a5e4 16bf
00000020: 6f38 96bd 3281 16bf 9ce2 0abf 6d6b 94be
00000030: 1220 073f 9d86 d03d dc4c 8dbe 596f 9cbe
00000040: c148 8e3e 5feb afbe ecfb 3c3e 37ff 3dbe
00000050: d69f c53d a742 1ebf 68ec 103e bbb4 f53e
00000060: bb11 3f3e 0630 123f efc6 1abe d4cb 673e
00000070: fa08 02bf 9e70 b33e b889 96be 5d4f 36be
00000080: 1675 dabe ffd6 97be d02e e63e e0bc 93be
00000090: 0786 1dbf eea3 fa3e ca91 733e e6ef 0b3f
000000a0: bfd2 7fbd 1e9a 7e3e 8cec 843e 6a44 a43e
000000b0: e74c 363d 7008 48be 3bab dfbe aa23 13be
000000c0: d604 ccbd daf4 5ebe d01b b43d 88a5 3abd
000000d0: 45b9 8b3d f696 283b 81f0 efbe 97d0 2dbe
000000e0: f035 093f 0a9e 853e 04d9 98bb 538b c8bd
000000f0: a6a7 bbbe 095e 8abe 8058 6fbe c251 a0be
00000100: 468c 773e 3507 f5bc a8fe 85be 5a84 cdbe
00000110: e38d 91be 4f59 e0be 5c25 25be 1e99 003f
00000120: 7aa0 30be c579 f03e 68f5 4e3e 857b 913d
00000130: 9a53 df3a 5e44 503e b2f3 26be 0c68 aebe
00000140: 65d7 a13e ab35 653d d00a d93e 009b 87be
00000150: 2e3b ea3e 4612 4fbe 49e9 813e 359d d1be
00000160: 3e34 e33b beb0 b1be ea59 babd e8ea 1abe
00000170: a6f6 603d 48ea d5be f245 0dbf 25cb 09bf
00000180: b3b8 ad3d 48a6 9bbe d6c2 babe 5c17 a7be
00000190: d894 a0bd 305e d63e a9c7 193f 04f1 413e
000001a0: b18f c7be 396a 20bf e210 a7bd f956 1b3e
000001b0: 1d3c b63e 9f4c 19bf bd97 8b3d d23f b83e
000001c0: f5c8 953d b627 3e3e 1cfb 3dbe 6027 dd3d
000001d0: a0fd a4be 50ca d7be 4ccd d4be 6da9 ec3e
000001e0: 3792 d2bd 063c 063d cb6e d23e ca8d 71bd
000001f0: 8d41 91be 4231 393b a296 ea3d 7fde 053f

encoder_variable_selection.flattened_grn.fc2.weight f4 [8, 8]
0.07462345 0.13186339 0.8398635 0.3750756 -0.044324294 1.0164449 -0.51024103 -0.6709334
-0.0897536 -0.08707291 0.2639534 0.011049718 1.2517256 0.1062155 -0.35649878 0.2966979
0.62432325 0.7348908 -0.10602799 0.48194477 0.045997076 -0.5153934 0.23927641 -0.31247318
-0.79991764 1.0594977 0.6196812 0.06429202 -0.2647341 -0.19767578 0.20219316 -0.33723328
-0.56067485 0.10825656 -0.10488845 0.027352268 -0.51339036 0.52059716 -0.36886653 0.08245814
0.32838094 -0.3219472 0.540713 -0.13704398 -0.020505313 -0.08482478 0.2761345 -0.67115736
1.3019252 -0.25605652 -0.13727747 0.2899094 0.24911292 -0.75131536 -0.46527305 0.4943922
-0.38966167 0.40657407 0.089525156 0.0844556 -0.43251765 -0.8448025 -0.18660738 0.97009313
00000000: 2ed4 983d 3207 073e 4b01 573f e909 c03e
00000010: 648d 35bd de1a 823f 289f 02bf 4bc2 2bbf
00000020: bcd0 b7bd 4853 b2bd e624 873e e009 353c
00000030: 8b38 a03f 8387 d93d 0287 b6be cae8 973e
00000040: a6d3 1f3f ce21 3c3f 3425 d9bd 77c1 f63e
00000050: 6e67 3c3d d2f0 03bf e004 753e 7cfc 9fbe
00000060: 67c7 4cbf 9f9d 873f 6da3 1e3f 89ab 833d
00000070: 3a8b 87be 856b 4abe b90b 4f3e d7a9 acbe
00000080: 6388 0fbf 9eb5 dd3d c1cf d6bd dd11 e03c
00000090: 8d6d 03bf db45 053f 13dc bcbe d0df a83d
000000a0: 8c21 a83e 43d6 a4be 2b6c 0a3f 4255 0cbe
000000b0: c2fa a7bc 9db8 adbd 8061 8d3e f8d0 2bbf
000000c0: 7ca5 a63f d719 83be 7792 0cbe 016f 943e
000000d0: 7517 7f3e 3456 40bf 4538 eebe f920 fd3e
000000e0: bc81 c7be 7a2a d03e f758 b73d 0ff7 ac3d
000000f0: f472 ddbe fa44 58bf 0116 3fbe 0658 783f

encoder_variable_selection.flattened_grn.fc2.bias f4 [8]
0.19400819 0.16008568 0.14934999 -0.17789508 -0.20724621 -0.14742872 0.17385292 0.016281316
00000000: 15aa 463e 80ed 233e 34ef 183e 212a 36be
00000010: 5a38 54be 8ef7 16be 8006 323e 6560 853c

encoder_variable_selection.flattened_grn.gate_norm.glu.fc.weight f4 [16, 8]
-0.21883734 0.2765364 -0.033147305 0.111235365 0.23431753 -0.22117175 -0.012564209 0.47525957
-0.013800721 0.030437248 0.68039185 0.32737744 -0.6251392 0.11140173 0.16318887 -0.019150225
-0.2296651 -0.67416936 -0.15750447 0.19233926 0.060294606 -0.05082099 -0.30995438 0.07831637
-0.05692695 0.29070032 -0.5691775 -0.25222865 -0.103944875 0.049825147 0.4461742 -0.04399524
-0.007691248 0.28575078 0.15293859 -0.09718333 -0.5501525 0.5934803 0.17387144 0.091283455
0.50539064 0.027657067 0.18811269 0.13897538 0.035196025 0.019606082 -0.4609877 0.61761117
0.26817355 -0.112164915 -0.43662876 0.28064048 0.40263242 -0.2005109 -0.46542498 0.24535292
0.42836073 -0.63895476 -0.12614998 -0.17131504 -0.18923753 0.4346381 -0.024043452 -0.2125937
0.08174722 -0.4408416 -0.063218504 -0.18046463 0.3620552 -0.04755741 0.43594453 0.24140161
0.45674455 0.36945242 -0.24765636 0.1802816 -0.6496262 0.37632778 -0.2798136 -0.05595941
0.23944978 -0.2546582 0.3361934 -0.66843396 -0.11531102 0.2128891 0.1061986 -0.4153067
0.053772256 -0.118159026 -0.17345423 -0.68669456 0.267553 0.010642361 0.74905694 -0.53592545
0.3804351 -0.04116981 -0.42630005 -0.010567412 -0.4350483 0.13005458 0.5035738 0.15861881
0.17316177 -0.01921887 -0.7043294 -0.2083775 0.048595186 0.27019814 -0.20878208 0.6051191
0.42109144 -0.52172023 0.12301382 0.29523173 0.33323118 0.26818553 0.5633806 0.043444283
0.30181873 -0.22403581 -0.45869404 0.25285724 -0.18229567 -0.13123913 0.011061695 0.29509312
00000000: e516 60be 2e96 8d3e 78c5 07bd 5ecf e33d
00000010: eff0 6f3e d97a 62be 1dda 4dbc 3955 f33e
00000020: 6b1c 62bc 8957 f93c 292e 2e3f 049e a73e
00000030: 1f09 20bf 9726 e43d fc1a 273e efe0 9cbc
00000040: 542d 6bbe 5d96 2cbf da48 21be 95f4 443e
00000050: 7af7 763d ac29 50bd 57b2 9ebe 5564 a03d
00000060: 3c2c 69bd acd6 943e 9eb5 11bf 1d24 81be
00000070: 0de1 d4bd 7415 4c3d f270 e43e 5a34 34bd
00000080: dd06 fcbb ed4d 923e ef9b 1c3e 0e08 c7bd
00000090: cbd6 0cbf 53ee 173f 5b0b 323e d2f2 ba3d
000000a0: 4861 013f 1391 e23c 9da0 403e 904f 0e3e
000000b0: b529 103d ef9c a03c 9406 ecbe c41b 1e3f
000000c0: 0b4e 893e b8b6 e5bd ce8d dfbe 1cb0 8f3e
000000d0: d625 ce3e bb52 4dbe 2f4c eebe cc3d 7b3e
000000e0: 1952 db3e 8a92 23bf 762d 01be 366d 2fbe
000000f0: 7cc7 41be e388 de3e c6f6 c4bc 2ab2 59be
00000100: 166b a73d fdb5 e1be b478 81bd b8cb 38be
00000110: 4d5f b93e 8fcb 42bd 1f34 df3e fc31 773e
00000120: 6cda e93e de28 bd3e a199 7dbe bd9b 383e
00000130: e74d 26bf 09ae c03e ba43 8fbe b235 65bd
00000140: 5332 753e 8f62 82be 8b21 ac3e 7d1e 2bbf
00000150: 2f28 ecbd 9aff 593e a77e d93d 14a3 d4be
00000160: 4c40 5c3d 5cfd f1bd fc9d 31be 37cb 2fbf
00000170: b5fc 883e 4c5d 2e3c 32c2 3f3f 6932 09bf
00000180: 64c8 c23e ada1 28bd 0044 dabe f022 2dbc
00000190: a7be debe 072d 053e 36ea 003f f86c 223e
000001a0: 5251 313e e470 9dbc ee4e 34bf e960 55be
000001b0: bf0b 473d 6957 8a3e f8ca 55be 16e9 1a3f
000001c0: 4c99 d73e 758f 05bf abee fb3d 9d28 973e
000001d0: 479d aa3e 9d4f 893e b639 103f a2f2 313d
000001e0: fc87 9a3e a569 65be f2d9 eabe 8176 813e
000001f0: b7ab 3abe 8d63 06be 1d3c 353c 7216 973e

encoder_variable_selection.flattened_grn.gate_norm.glu.fc.bias f4 [16]
0.12895013 0.17753194 -0.18948725 0.18956159 0.18723036 0.18721206 -0.17427485 -0.17119728
0.10446212 -0.17277524 -0.11176251 -0.13410544 0.13463433 0.09295166 -0.16659193 0.16983606
00000000: 810b 043e efca 353e f208 42be 6f1c 423e
00000010: 51b9 3f3e 85b4 3f3e 1b75 32be 574e 2fbe
00000020: 3cf0 d53d feeb 30be bee3 e4bd f052 09be
00000030: 95dd 093e 715d be3d 1397 2abe 81e9 2d3e

encoder_variable_selection.flattened_grn.gate_norm.add_norm.norm.weight f4 [8]
1.0962383 0.8175184 0.8195534 1.2117162 1.1772168 0.73490125 0.8329493 0.8277421
00000000: 8951 8c3f e348 513f 40ce 513f 8419 9b3f
00000010: 0aaf 963f 7d22 3c3f 2a3c 553f e8e6 533f

encoder_variable_selection.flattened_grn.gate_norm.add_norm.norm.bias f4 [8]
0.11688341 0.18920307 0.18361495 0.19045128 0.18064055 0.2287056 -0.17375813 -0.17262273
00000000: 9260 ef3d 73be 413e 8f05 3c3e a905 433e
00000010: d6f9 383e cd31 6a3e a7ed 31be 03c4 30be

encoder_variable_selection.single_variable_grns.time_idx.resample_norm.mask f4 [16]
0.179686 -0.17141443 0.18150824 0.09525988 -0.18469806 -0.07843617 -0.10980757 -0.12953855
0.18655875 0.16264297 -0.17341404 0.17669608 -0.17036529 0.14897929 0.17122392 0.17085487
00000000: 9bff 373e 4487 2fbe 4cdd 393e 9d17 c33d
00000010: 7d21 3dbe 25a3 a0bd cbe2 e0bd c1a5 04be
00000020: 4209 3f3e e18b 263e 7393 31be d1ef 343e
00000030: 3d74 2ebe 078e 183e 5355 2f3e 94f4 2e3e

encoder_variable_selection.single_variable_grns.time_idx.resample_norm.norm.weight f4 [16]
1.1712426 0.8293482 1.1854017 1.2069504 0.7807424 0.9563426 1.1712841 1.1873978
1.1940739 1.1522554 0.8212216 1.1756808 0.83461654 0.7687013 0.8279216 0.84516954
00000000: 47eb 953f 2a50 543f 3ebb 973f 5a7d 9a3f
00000010: bcde 473f ded2 743f a3ec 953f a7fc 973f
00000020: 6ad7 983f 1b7d 933f 943b 523f b57c 963f
00000030: 6ea9 553f 9cc9 443f acf2 533f 085d 583f

encoder_variable_selection.single_variable_grns.time_idx.resample_norm.norm.bias f4 [16]
0.1838343 -0.17174572 -0.1737044 -0.15233731 0.15256883 0.013523023 0.18643928 0.18024874
-0.14391038 -0.15223588 0.18037526 -0.17751536 0.15467775 -0.18642744 -0.17239319 -0.1772447
00000000: 0f3f 3c3e 1cde 2fbe 91df 31be 50fe 1bbe
00000010: 013b 1c3e ab8f 5d3c f0e9 3e3e 2093 383e
00000020: 3e5d 13be b9e3 1bbe 4bb4 383e 96c6 35be
00000030: d863 1e3e d6e6 3ebe d787 30be a27f 35be

encoder_variable_selection.single_variable_grns.time_idx.fc1.weight f4 [8, 8]
-0.352902 -0.1237338 0.55257213 0.573515 0.15657166 0.4834998 0.07969877 0.004732559
-0.23220369 -0.14855117 -0.7435975 0.32833022 -0.8347204 0.049087834 -0.26999602 -0.22760239
1.2535181 0.51458484 0.09383092 0.2899708 -0.035051208 0.696762 -0.3105772 0.83645505
0.04295214 0.34516588 0.17034224 -0.08681578 -0.4715345 0.4984033 0.9567639 -0.8280377
-0.6072777 -0.24831486 -0.18575367 0.0164513 -1.0112194 -0.7310169 -0.30628735 -0.63535506
-0.30377606 0.21896334 0.20991616 -0.3868523 0.7449444 0.29204872 0.8613568 -0.09886547
0.45280316 -1.0521978 0.19793035 0.13017534 -0.6100997 -0.8301496 -0.6094487 -0.50021327
-0.49761695 -0.9069008 -0.50279456 0.256942 0.6607893 -0.2621991 -0.20501183 0.22427891
00000000: 92af b4be 2668 fdbd 5e75 0d3f e1d1 123f
00000010: 5254 203e 498d f73e 1c39 a33d 9513 9b3b
00000020: cec6 6dbe cc1d 18be 685c 3ebf e61a a83e
00000030: 3cb0 55bf 5310 493d eb3c 8abe 9a10 69be
00000040: 4873 a03f d5bb 033f 6d2a c03d 0d77 943e
00000050: db91 0fbd ff5e 323f fa03 9fbe eb21 563f
00000060: 95ee 2f3d 95b9 b03e 326e 2e3e 79cc b1bd
00000070: f86c f1be b82e ff3e 7bee 743f 47fa 53bf
00000080: 8d76 1bbf 4046 7ebe 3636 3ebe e0c4 863c
00000090: a36f 81bf ec23 3bbf b2d1 9cbe a1a6 22bf
000000a0: 8988 9bbe ed37 603e 43f4 563e 8111 c6be
000000b0: adb4 3e3f 6987 953e e181 5c3f fb79 cabd
000000c0: d1d5 e73e 6bae 86bf 41ae 4a3e af4c 053e
000000d0: 7e2f 1cbf af84 54bf d404 1cbf fa0d 00bf
000000e0: a6c7 febe a72a 68bf 25b7 00bf e78d 833e
000000f0: 7d29 293f f63e 86be 9fee 51be 5fa9 653e

encoder_variable_selection.single_variable_grns.time_idx.fc1.bias f4 [8]
-0.17024887 0.17447592 0.14549635 -0.16182326 0.17523202 -0.17986177 0.21468098 0.16837142
00000000: b855 2ebe d1a9 323e fffc 143e ffb4 25be
00000010: 0670 333e af2d 38be 55d5 5b3e 8f69 2c3e

encoder_variable_selection.single_variable_grns.time_idx.fc2.weight f4 [8, 8]
0.12827761 -0.21095623 -0.38731351 0.039899647 0.44589403 0.4733567 0.5916927 0.44080323
0.91146964 -1.1110154 -0.4081897 0.35711756 -0.3624942 0.9366 -0.52214134 0.6582686
0.37598866 -0.43817747 1.1779916 -0.0094050905 0.12539119 1.0320154 0.47500202 0.13806576
-0.018099185 -0.82730323 0.26466084 -0.044064533 -0.25809342 0.7649732 -0.17993101 -0.63666177
0.3139934 -0.8198954 1.3782326 -0.34127438 -0.5471133 1.1247466 -0.54757327 0.69108063
-0.11390988 -0.14630528 -0.036461912 -0.7225689 0.72709125 0.3415296 0.33285806 -0.27696002
-0.070623025 -0.4192423 -0.6518652 -0.32419455 -0.1825201 0.09995946 -0.05478214 -0.6184108
0.050177407 0.70890445 -0.032958925 -0.2808139 0.5918243 0.3731873 0.2609076 0.295606
00000000: 355b 033e e904 58be f54d c6be d06d 233d
00000010: 394c e43e cf5b f23e 2c79 173f f6b0 e13e
00000020: 1356 693f c135 8ebf 3efe d0be 1dd8 b63e
00000030: d798 b9be 05c5 6f3f 0eab 05bf 4a84 283f
00000040: 9681 c03e cc58 e0be 6ec8 963f cf17 1abc
00000050: 8c66 003e 1519 843f 7733 f33e 1c61 0d3e
00000060: be44 94bc 25ca 53bf a081 873e 037d 34bd
00000070: d224 84be 49d5 433f d63f 38be 44fc 22bf
00000080: bec3 a03e aae4 51bf ed69 b03f 84bb aebe
00000090: 9e0f 0cbf b2f7 8f3f c32d 0cbf a9ea 303f
000000a0: 9549 e9bd 0dd1 15be 1659 15bd 47fa 38bf
000000b0: a722 3a3f f8dc ae3e 5f6c aa3e b4cd 8dbe
000000c0: cea2 90bd eda6 d6be a3e0 26bf d4fc a5be
000000d0: 8de6 3abe 8cb7 cc3d 3d63 60bd 2c50 1ebf
000000e0: d386 4d3d c37a 353f f0ff 06bd d7c6 8fbe
000000f0: cc81 173f 6812 bf3e ae95 853e ab59 973e

encoder_variable_selection.single_variable_grns.time_idx.fc2.bias f4 [8]
0.19618052 -0.16951606 -0.14722916 -0.18340951 -0.19585821 0.16992107 -0.16990054 0.08216832
00000000: 8ce3 483e 9e95 2dbe 3ec3 16be b4cf 3bbe
00000010: 0e8f 48be caff 2d3e 68fa 2dbe dd47 a83d

encoder_variable_selection.single_variable_grns.time_idx.gate_norm.glu.fc.weight f4 [32, 8]
-0.053765003 -0.1395851 0.010887474 -0.5153931 -0.09085013 0.3611157 -0.057054505 0.094015926
-0.5344724 0.061049763 -0.08870065 0.23073992 0.48181245 -0.47406968 -0.21446425 0.5368814
-0.37204716 0.07308408 0.19478847 0.008227425 0.3085856 -0.24453905 -0.07741586 -0.18096635
-0.2845785 0.045477007 -0.028752202 -0.23650993 -0.031802136 -0.18576634 -0.49845177 0.4850015
0.14495246 -0.5358954 0.05148983 -0.38440403 -0.19242951 0.20221785 0.006193501 -0.07038978
0.016560413 -0.16952097 -0.44702405 -0.49826437 -0.37551197 0.36307126 0.43309498 0.2539509
0.01899866 -0.12947422 0.45274502 -0.26307744 -0.078346156 0.15352088 0.12089203 0.0038680662
0.40167326 0.16303964 0.2689112 -0.3711581 0.1450412 -0.1548898 -0.20295137 0.20537308
-0.28882456 0.4817968 0.20275125 -0.09289533 -0.15689361 0.032158118 0.19635302 0.10165587
0.17551158 -0.33008587 0.045716267 0.20646878 0.16471373 -0.5239907 0.12670687 -0.5415967
0.21394537 -0.23236032 0.069894016 -0.40859392 -0.08392939 0.41109923 -0.07135433 -0.34552792
0.026213454 0.5367578 -0.3034122 0.18131001 0.4164568 0.16550088 -0.34780782 0.27981922
-0.06605474 -0.5787234 0.15124843 0.13594024 0.16577056 0.21921393 0.3449158 -0.07558402
-0.13416569 0.36939836 -0.06097669 0.2080097 0.46096116 -0.02483571 -0.27891907 -0.2122095
-0.45338508 0.2630658 -0.109928116 0.13602695 0.43816733 -0.4476128 -0.43646905 0.4261897
-0.3188705 0.26852724 -0.40318614 0.015084496 0.4428038 -0.5053755 -0.5222832 0.070083976
-0.20924476 0.0048590484 -0.3689767 0.16956007 -0.1829155 -0.5543179 -0.2981942 0.36429924
-0.105066486 0.07925117 0.091035254 0.16282675 -0.30584025 0.3095576 0.17815 -0.017698737
0.11216841 -0.04715732 0.111416854 0.14401166 -0.32111606 0.06585465 0.53117675 -0.045591317
-0.2870883 -0.1102793 -0.3995525 0.18334277 0.4106108 -0.48211595 0.25014904 0.10340542
0.5541282 -0.07496774 0.059249617 -0.47850272 -0.06955942 0.14859697 0.19952515 0.19017538
0.40586084 -0.17296708 -0.052147795 -0.34815615 -0.2799377 -0.025076624 0.45452422 0.35842085
-0.03511906 0.26387575 -0.3006948 0.4611152 0.26922402 0.13744657 -0.5300101 -0.03504169
-0.02914925 0.28219765 -0.5415998 0.54591155 0.47892928 -0.057953645 0.20920661 -0.20317915
-0.066594064 0.27874908 -0.41110468 0.14933982 -0.085907474 -0.15399267 -0.3146897 0.3393758
-0.39629605 0.50317186 0.20643161 0.32614213 0.5407398 -0.053662278 -0.48935786 -0.054191455
-0.46245804 0.42474 -0.034857254 0.36188632 0.0075145187 0.18532461 0.18823229 -0.18189555
0.10775752 -0.18197478 -0.1964658 -0.44120687 -0.519179 0.06964321 -0.046739273 -0.51641375
-0.39038163 0.5507363 -0.010255063 0.18751803 0.43383965 0.06922562 -0.060051538 0.30718255
-0.025850838 -0.3626576 0.043111484 -0.012294392 -0.07841902 0.31967974 0.15213567 0.045528404
0.15358807 -0.2592139 0.54594517 0.10964151 -0.3817496 0.24399799 0.09495219 -0.20480138
0.28579307 0.11705158 0.09676096 0.08255882 0.09378586 0.14583842 0.3591934 -0.060608286
00000000: b138 5cbd 65ef 0ebe 6061 323c cdf0 03bf
00000010: a20f babd 28e4 b83e fcb1 69bd 6c8b c03d
00000020: 2fd3 08bf 510f 7a3d b0a8 b5bd 1647 6c3e
00000030: 1fb0 f63e 43b9 f2be 849c 5bbe 0f71 093f
00000040: f77c bebe 1bad 953d a176 473e 52cc 063c
00000050: effe 9d3e 7268 7abe 358c 9ebd 3e4f 39be
00000060: 46b4 91be 1946 3a3d bd89 ebbc a92f 72be
00000070: f542 02bd 8839 3ebe 1235 ffbe 1e52 f83e
00000080: 6b6e 143e 7130 09bf 00e7 523d 9bd0 c4be
00000090: 3e0c 45be 3212 4f3e daf2 ca3b 8428 90bd
000000a0: b4a9 873c e896 2dbe 56e0 e4be 821c ffbe
000000b0: 1b43 c0be 7ae4 b93e a0be dd3e da05 823e
000000c0: 14a3 9b3c e494 04be 32ce e73e 16b2 86be
000000d0: f373 a0bd 9434 1d3e 3e96 f73d 627f 7d3b
000000e0: 1ea8 cd3e ddf3 263e bbae 893e 6f08 bebe
000000f0: ae85 143e 6f9b 1ebe 7cd2 4fbe 524d 523e
00000100: d0e0 93be 12ae f63e 069e 4f3e e83f bebd
00000110: b8a8 20be 3bb8 033d c410 493e f430 d03d
00000120: 4fb9 333e 0401 a9be fb40 3b3d 8d6c 533e
00000130: b7aa 283e 4124 06bf 72bf 013e 15a6 0abf
00000140: 7f14 5b3e ddef 6dbe 9824 8f3d 3933 d1be
00000150: 2ce3 abbd 997b d23e 3822 92bd 09e9 b0be
00000160: 99bd d63c f668 093f d858 9bbe 55a9 393e
00000170: d339 d53e 1079 293e de13 b2be 7744 8f3e
00000180: b547 87bd 3727 14bf dee0 1a3e eb33 0b3e
00000190: c2bf 293e 9e79 603e ce98 b03e cbcb 9abd
000001a0: bb62 09be c821 bd3e b2c2 79bd 7f00 553e
000001b0: 1a03 ec3e 4274 cbbc 7bce 8ebe 724d 59be
000001c0: 1722 e8be 8fb0 863e fe21 e1bd a64a 0b3e
000001d0: 7857 e03e 812d e5be df78 dfbe 8935 da3e
000001e0: ff42 a3be 677c 893e 6a6e cebe f624 773c
000001f0: 2eb7 e23e 4a60 01bf 5ab4 05bf 3088 8f3d
00000200: 4244 56be a738 9f3b 84ea bcbe 28a1 2d3e
00000210: 334e 3bbe c7e7 0dbf e9ac 98be 6e85 ba3e
00000220: 192d d7bd 704e a23d b170 ba3d 0ebc 263e
00000230: 1897 9cbe 557e 9e3e f46c 363e f1fc 90bc
00000240: 8db8 e53d 0928 41bd 852e e43d cb77 133e
00000250: 5369 a4be cede 863d 33fb 073f f6bd 3abd
00000260: 3dfd 92be 1dda e1bd 2592 ccbe 35be 3b3e
00000270: 943b d23e e7d7 f6be 8913 803e 39c6 d33d
00000280: 59db 0d3f b088 99bd baaf 723d 4ffe f4be
00000290: 2b75 8ebd ce29 183e 5250 4c3e 56bd 423e
000002a0: fecc cf3e 481e 31be ed98 55bd 8641 b2be
000002b0: ff53 8fbe 7e6d cdbc 66b7 e83e f082 b73e
000002c0: 01d9 0fbd b91a 873e abf4 99be 4b17 ec3e
000002d0: bbd7 893e cbbe 0c3e beae 07bf e087 0fbd
000002e0: 68ca eebc 367c 903e 49a6 0abf dcc0 0b3f
000002f0: 3836 f53e cd60 6dbd 423a 563e 320e 50be
00000300: 7862 88bd 33b8 8e3e 507c d2be 8aec 183e
00000310: 42f0 afbd 41b0 1dbe 021f a1be aac2 ad3e
00000320: 51e7 cabe dfcf 003f cf62 533e 1afc a63e
00000330: ec6d 0a3f facc 5bbd 1d8d fabe dcf7 5dbd
00000340: 4dc7 ecbe 8577 d93e 7bc6 0ebd 2a49 b93e
00000350: 5a3c f63b bcc5 3d3e f7bf 403e d442 3abe
00000360: faaf dc3d 9957 3abe 552e 49be dee5 e1be
00000370: eae8 04bf 19a1 8e3d ae71 3fbd b133 04bf
00000380: 1ae0 c7be 0efd 0c3f da04 28bc ba04 403e
00000390: 3b20 de3e 29c6 8d3d 9af8 75bd 0847 9d3e
000003a0: 23c5 d3bc 42ae b9be ab95 303d 6b6e 49bc
000003b0: 279a a0bd 10ad a33e 74c9 1b3e fe7b 3a3d
000003c0: 3146 1d3e afb7 84be 10c3 0b3f ba8b e03d
000003d0: af74 c3be 9cda 793e 4b76 c23d 74b7 51be
000003e0: 7853 923e bdb8 ef3d 9c2a c63d 9914 a93d
000003f0: cd12 c03d ab56 153e 33e8 b73e 6540 78bd

encoder_variable_selection.single_variable_grns.time_idx.gate_norm.glu.fc.bias f4 [32]
0.17636569 -0.17172584 -0.17298983 -0.21962535 0.149994 0.027848687 0.20207809 0.17996538
-0.14832516 -0.15933646 0.1807659 -0.17764087 0.13578701 -0.18788345 -0.17259645 -0.18440847
-0.17155509 0.16898987 0.09824306 -0.17451948 0.17156826 0.26262614 -0.18143803 -0.1693171
-0.16222067 -0.16083731 -0.17616108 0.17385669 -0.16126451 0.16924196 0.17265937 0.17035308
00000000: 3599 343e e6d8 2fbe 3f24 31be 78e5 60be
00000010: 0798 193e ee22 e43c 8fed 4e3e d848 383e
00000020: 8de2 17be 1929 23be b21a 393e 7de7 35be
00000030: c00b 0b3e 8564 40be 20bd 30be 93d5 3cbe
00000040: 23ac 2fbe ae0b 2d3e a833 c93d 3cb5 32be
00000050: 97af 2f3e ef76 863e e4ca 39be 7661 2dbe
00000060: 2d1d 26be 89b2 24be 9263 34be 7d07 323e
00000070: 8622 25be c44d 2d3e 9ecd 303e 0a71 2e3e

encoder_variable_selection.single_variable_grns.time_idx.gate_norm.add_norm.norm.weight f4 [16]
1.1677632 0.82767504 1.0952315 1.2341301 1.1174403 1.0018761 1.1730899 1.1807065
0.8668066 1.1583626 0.81919533 1.1748574 0.8399083 1.0163413 1.1690149 0.8626865
00000000: 4479 953f 83e2 533f 8c30 8c3f faf7 9d3f
00000010: 4908 8f3f 7a3d 803f cf27 963f 6421 973f
00000020: 0ae7 5d3f 3a45 943f c9b6 513f ba61 963f
00000030: 3b04 573f 7917 823f 48a2 953f 06d9 5c3f

encoder_variable_selection.single_variable_grns.time_idx.gate_norm.add_norm.norm.bias f4 [16]
0.17664379 -0.17055 -0.14222273 -0.20822059 0.14264064 0.035334103 0.17260298 0.17653656
-0.14623967 -0.15655993 0.18257074 -0.17519556 0.14891455 -0.19131929 -0.17626241 -0.17834777
00000000: 1ce2 343e a9a4 2ebe d6a2 11be c737 55be
00000010: 6310 123e 7eba 103d d6be 303e 00c6 343e
00000020: dabf 15be 3f51 20be d3f3 3a3e 7766 33be
00000030: 0e7d 183e 34e9 43be 227e 34be cca0 36be

encoder_variable_selection.single_variable_grns.T2M.resample_norm.mask f4 [16]
-0.17367053 -0.0046109026 -0.18179953 -0.17843708 -0.16278341 -0.1430285 -0.16398185 -0.18140376
-0.16140553 -0.16654806 0.17913648 -0.175214 0.13254371 -0.17404129 0.17553599 0.17147487
00000000: b0d6 31be 0e17 97bb a829 3abe 36b8 36be
00000010: b2b0 26be 1076 12be dcea 27be e8c1 39be
00000020: 7e47 25be 938b 2abe 8e6f 373e 4c6b 33be
00000030: 8ab9 073e e137 32be b5bf 333e 1c97 2f3e

encoder_variable_selection.single_variable_grns.T2M.resample_norm.norm.weight f4 [16]
0.8259905 0.8070407 0.816458 0.8200722 0.8324159 0.8577908 0.83492815 0.81863487
0.8453186 0.8337517 1.1781743 0.82301366 1.1310261 0.82256716 1.1746716 1.1712925
00000000: 1d74 533f 389a 4e3f 6403 513f 40f0 513f
00000010: 3519 553f 2e98 5b3f dabd 553f 0e92 513f
00000020: cd66 583f c070 553f 6ace 963f 06b1 523f
00000030: 77c5 903f c393 523f a45b 963f eaec 953f

encoder_variable_selection.single_variable_grns.T2M.resample_norm.norm.bias f4 [16]
0.17377564 -0.1563975 -0.16979626 -0.17267708 0.15997489 0.13481845 0.16274804 0.18020453
-0.14904025 -0.16713285 0.17732973 -0.17531593 0.13825539 -0.18126334 -0.17534967 -0.17167853
00000000: 3ef2 313e ab26 20be 12df 2dbe 43d2 30be
00000010: 75d0 233e d90d 0a3e 6ca7 263e 8987 383e
00000020: 029e 18be e024 2bbe ed95 353e 0586 33be
00000030: d292 0d3e 199d 39be dd8e 33be 7fcc 2fbe

encoder_variable_selection.single_variable_grns.T2M.fc1.weight f4 [8, 8]
0.3743134 -0.48292065 0.10530697 -0.53908 0.2490496 -0.59897137 0.37399307 -0.381041
0.14005567 0.19663079 0.5564483 -0.95189005 0.14595008 1.1051614 -0.09427172 0.50082606
0.4298142 0.9802907 -0.12747677 -0.33704 0.21313097 -0.06088562 -0.1472563 -0.66268474
0.042609274 0.5719016 0.74558294 0.93174434 -0.9365565 -0.0865013 0.625977 1.0200044
0.9210706 0.67125905 0.4376151 0.61500186 -0.54873943 -0.6991494 -0.0574302 0.95566845
-0.0026251706 -0.03321139 0.4043711 0.6725136 0.059827864 -0.62557685 -0.9182031 0.9070974
-0.9050665 -0.322935 -0.22629651 -0.47627214 0.024391036 0.20267296 -0.29025573 -0.29321805
0.20763457 1.1007881 0.5650151 -0.99607474 0.040942505 -0.28171983 0.38215765 0.9588841
00000000: 02a6 bf3e 6041 f7be 2eab d73d 2601 0abf
00000010: dc06 7f3e 3056 19bf 057c bf3e ce17 c3be
00000020: c16a 0f3e 9559 493e 6573 0e3f 11af 73bf
00000030: f073 153e ee75 8d3f 8811 c1bd 2336 003f
00000040: 9b10 dc3e 55f4 7a3f 4589 02be 8290 acbe
00000050: 013f 5a3e 3363 79bd 5bca 16be b5a5 29bf
00000060: 1087 2e3d 2568 123f 86de 3e3f cc86 6e3f
00000070: 2bc2 6fbf 9827 b1bd 0740 203f 818f 823f
00000080: 48cb 6b3f a2d7 2b3f 160f e03e c370 1d3f
00000090: 307a 0cbf 75fb 32bf ee3b 6bbd b0a6 743f
000000a0: 0e0b 2cbb ab08 08bd bb09 cf3e da29 2c3f
000000b0: 100e 753d ce25 20bf 5c0f 6bbf 8937 683f
000000c0: 70b2 67bf bc57 a5be 46ba 67be f1d9 f3be
000000d0: b6cf c73c 8089 4f3e 669c 94be ad20 96be
000000e0: 289e 543e a0e6 8c3f d4a4 103f c1fe 7ebf
000000f0: 54b3 273d 953d 90be 2baa c33e 6e79 753f

encoder_variable_selection.single_variable_grns.T2M.fc1.bias f4 [8]
0.17822143 -0.15498 -0.17435113 -0.1855515 -0.16309516 -0.29118574 0.1763403 0.17028654
00000000: ae7f 363e 14b3 1ebe 1a89 32be 3601 3ebe
00000010: 6b02 27be 4c16 95be 8d92 343e 985f 2e3e

encoder_variable_selection.single_variable_grns.T2M.fc2.weight f4 [8, 8]
0.4396942 0.508778 0.61262155 -0.19992453 -0.34459016 -0.79466337 0.15021226 -0.6288038
-0.76552546 0.20254782 0.3904987 0.7810496 0.5619168 -0.28903258 -0.6255405 -0.33455625
-0.21901006 0.3014681 0.8750599 0.060652874 -0.19175093 0.6983293 -0.49749523 0.83321863
-0.50519204 -0.22680548 0.83494586 -0.39407644 0.17203191 0.20067854 0.60656947 0.32947084
-0.28074774 1.0400213 0.06598628 0.6640593 0.7551239 0.14779383 0.03994026 -0.18971816
-0.3890783 0.91240245 0.12883918 -0.949752 0.57091314 -0.9950046 0.53442883 -0.19555447
-0.024432488 -0.88771325 -0.90836704 -0.09268792 -0.22669312 -0.70073414 0.7264433 -0.49525368
-0.1475516 -0.79582727 -0.24124701 0.36421242 -0.0033295033 2.1344383 0.9756263 0.35295585
00000000: 991f e13e 463f 023f c4d4 1c3f 04b9 4cbe
00000010: 1f6e b0be 0f6f 4bbf 3ed1 193e 49f9 20bf
00000020: 7af9 43bf b268 4f3e 72ef c73e def2 473f
00000030: c8d9 0f3f 14fc 93be 6c23 20bf f54a abbe
00000040: 2c44 60be 075a 9a3e ed03 603f 266f 783d
00000050: 5b5a 44be b6c5 323f b2b7 febe d14d 553f
00000060: 4454 01bf b23f 68be 03bf 553f 63c4 c9be
00000070: 2229 303e ad7e 4d3e 2348 1b3f 67b0 a83e
00000080: 2bbe 8fbe 6b1f 853f d123 873d caff 293f
00000090: cd4f 413f 4457 173e 6698 233d 7a45 42be
000000a0: 4535 c7be 3593 693f 6bee 033e f222 73bf
000000b0: 5d27 123f 9fb8 7ebf 54d0 083f 6e3f 48be
000000c0: a426 c8bc 2d41 63bf be8a 68bf 2ad3 bdbd
000000d0: 3e22 68be 5063 33bf 30f8 393f e491 fdbe
000000e0: c417 17be 56bb 4bbf 7509 77be 0d7a ba3e
000000f0: cc33 5abb a39a 0840 a5c2 793f a1b6 b43e

encoder_variable_selection.single_variable_grns.T2M.fc2.bias f4 [8]
0.18464088 -0.18042472 0.17445727 -0.16221507 -0.122260965 0.17512976 0.1855185 -0.17384407
00000000: 8012 3d3e 42c1 38be eda4 323e b51b 26be
00000010: f563 fabd 3755 333e 90f8 3d3e 2e04 32be

encoder_variable_selection.single_variable_grns.T2M.gate_norm.glu.fc.weight f4 [32, 8]
0.18248892 0.27846602 -0.030711528 -0.17873684 0.3676224 0.07474566 -0.027597127 0.12281236
-0.17869997 -0.27975127 -0.003556164 -0.3924101 0.13951029 -0.46960184 0.5445327 0.53453094
-0.1732244 0.035800617 -0.28144094 -0.33784735 -0.35336152 -0.27204296 0.3968219 0.17637813
-0.04803912 -0.5337582 -0.2314603 0.09246384 -0.16674578 -0.5131839 -0.07625375 0.44415346
0.47251493 0.3115332 0.44022238 -0.11124036 0.012299014 0.35514143 -0.12231988 -0.07124519
0.15729459 0.13566397 -0.34921274 -0.10577905 0.16892178 0.12597951 0.024815228 0.10465904
-0.04736691 -0.15684609 -0.31307036 -0.14386491 0.46683 -0.14117196 -0.31248984 -0.38202786
0.5666135 -0.16480117 -0.014539554 0.34327465 0.5004008 0.35622174 -0.45645198 -0.4261726
-0.35446084 -0.31327927 -0.048317313 -0.09553551 -0.0055601066 0.1209738 0.41930324 -0.17174876
0.20009603 -0.051180076 -0.017211145 0.21910992 -0.060161564 -0.3750223 0.46506515 0.118186995
0.49034593 0.5114505 -0.3578216 0.55410194 0.22604066 0.54898524 0.09613722 -0.11371288
0.12287391 -0.48534915 0.5564948 -0.16260464 -0.013418466 -0.03988633 0.19492644 0.32709226
0.4568891 0.45980483 -0.09518562 -0.08141412 -0.12897187 0.37660837 -0.19159606 0.19878782
-0.3352897 -0.0073559973 -0.04079504 -0.37259632 0.19936913 -0.11200076 0.031516608 0.4726608
-0.113320574 0.03210928 -0.17206597 -0.18194097 0.02739894 -0.4495485 -0.06837608 0.10851748
0.19964598 0.05213562 -0.10886366 0.17736709 0.15559664 -0.14744061 0.22649314 0.2675492
0.20998307 0.0736328 0.39534768 -0.23959135 0.15158609 0.1108746 0.297735 0.07250887
0.24158326 0.12283841 0.015216821 0.47481787 0.30295292 0.10301609 -0.010619878 0.19809942
0.5037159 0.06799748 0.54036427 0.0025558618 0.49111876 0.23496462 0.029046746 0.1664109
0.0753562 -0.06902041 0.5297959 -0.12032882 0.0018274894 0.051808055 -0.34753126 0.06661162
0.23571253 0.34176973 0.4874859 -0.06613395 0.31158423 0.472189 0.19788378 0.16225171
0.13255078 -0.43875748 0.3309732 0.18788749 0.11648632 0.17216137 0.11768 0.3484836
0.11411164 -0.028191023 -0.18317856 0.15841359 -0.06978935 -0.20369601 -6.0332008e-05 0.03152685
0.56194544 -0.12670103 -0.6030475 -0.11808363 -0.04225045 0.3804129 0.13956217 -0.5423169
0.2793964 0.36529204 0.21338817 0.029754039 -0.47576025 -0.34176305 -0.10949249 -0.15037705
0.13721414 -0.40627244 0.2318315 -0.41073588 -0.23717089 -0.17929722 0.14560355 0.028210284
0.25762433 -0.031419516 -0.30383232 0.19280496 0.52051455 0.38166898 -0.15063603 0.0576956
-0.48580387 -0.08065381 -0.4805181 0.22102232 -0.21305007 0.14701344 0.3206756 -0.3084758
-0.20256056 -0.0559871 0.58723956 -0.4521145 -0.078814395 0.29936957 0.0611419 -0.25975835
0.56037474 0.34016892 0.36572623 0.042322304 -0.43706888 0.2580252 -0.33544245 -0.025038468
0.09445405 -0.029789224 -0.12348224 0.19070767 -0.41455257 0.17323288 0.13294837 0.37507915
-0.02623269 0.1143917 -0.09780759 -0.13212433 -0.3565916 -0.07182363 0.25637335 0.0370403
00000000: 60de 3a3e 1993 8e3e be96 fbbc ca06 37be
00000010: 0139 bc3e 4114 993d 5f13 e2bc 0c85 fb3d
00000020: 20fd 36be 8f3b 8fbe 880e 69bb fae9 c8be
00000030: c9db 0e3e a76f f0be 7f66 0b3f 05d7 083f
00000040: bd61 31be aba3 123d 0719 90be 54fa acbe
00000050: cdeb b4be 3749 8bbe 3d2c cb3e 789c 343e
00000060: abc4 44bd 61a4 08bf ee03 6dbe af5d bd3d
00000070: 68bf 2abe 0560 03bf ed2a 9cbd 1568 e33e
00000080: 7aed f13e 4881 9f3e d464 e13e fcd1 e3bd
00000090: ce81 493c 19d5 b53e d882 fabd 00e9 91bd
000000a0: d511 213e 7feb 0a3e 03cc b2be b0a2 d8bd
000000b0: d5f9 2c3e c600 013e 4e49 cb3c 7b57 d63d
000000c0: ce03 42bd 439c 20be c24a a0be 5351 13be
000000d0: 5704 ef3e 628f 10be abfe 9fbe 2899 c3be
000000e0: 950d 113f a3c1 28be 4f37 6ebc b2c1 af3e
000000f0: 441a 003f b262 b63e 13b4 e9be 4c33 dabe
00000100: e47b b5be 2466 a0be 60e8 45bd 1fa8 c3bd
00000110: 8e31 b6bb 1dc1 f73d eaae d63e e8de 2fbe
00000120: f9e5 4c3e 33a2 51bd 63fe 8cbc 5a5e 603e
00000130: f96b 76bd ec02 c0be 051d ee3e 060c f23d
00000140: 9f0e fb3e 6cee 023f 6534 b7be a0d9 0d3f
00000150: 3477 673e 4c8a 0c3f 97e3 c43d 4ce2 e8bd
00000160: 51a5 fb3d af7f f8be 7176 0e3f d581 26be
00000170: 20d9 5bbc d95f 23bd cc9a 473e a378 a73e
00000180: 5eed e93e 8a6b eb3e aef0 c2bd 72bc a6bd
00000190: 3411 04be d0d2 c03e c231 44be 098f 4b3e
000001a0: 17ab abbe 940a f1bb b318 27bd f2c4 bebe
000001b0: 6c27 4c3e a860 e5bd 8f17 013d 9900 f23e
000001c0: 9e14 e8bd 0585 033d 1032 30be bc4e 3abe
000001d0: be73 e03c 392b e6be c208 8cbd 6a3e de3d
000001e0: ff6f 4c3e 298c 553d e9f3 debd b89f 353e
000001f0: ba54 1f3e acfa 16be d1ed 673e 35fc 883e
00000200: cd05 573e cbcc 963d 036b ca3e 6f57 75be
00000210: 6239 1b3e 3912 e33d b970 983e 887f 943d
00000220: 9a61 773e b492 fb3d f94f 793c 541b f33e
00000230: a51c 9b3e 1afa d23d fffe 2dbc 93da 4a3e
00000240: 86f3 003f 4342 8b3d 5055 0a3f 3f80 273b
00000250: eb73 fb3e 919a 703e 71f3 ed3c 9e67 2a3e
00000260: 5a54 9a3d 935a 8dbd b4a0 073f f56e f6bd
00000270: 5e88 ef3a af34 543d 9eef b1be ac6b 883d
00000280: a05e 713e 71fc ae3e c097 f93e 3d71 87bd
00000290: f887 9f3e c2c2 f13e 0ca2 4a3e 5025 263e
000002a0: 64bb 073e d2a4 e0be 5275 a93e 9465 403e
000002b0: 6190 ee3d 124b 303e 3602 f13d 716c b23e
000002c0: 5db3 e93d dcf0 e6bc 2993 3bbe 2c37 223e
000002d0: b8ed 8ebd b095 50be 000d 7db8 4c22 013d
000002e0: a8db 0f3f eabd 01be 5261 1abf d5d5 f1bd
000002f0: cf0e 2dbd 7bc5 c23e 63e9 0e3e 48d5 0abf
00000300: 0c0d 8f3e 8f07 bb3e 6e82 5a3e bebe f33c
00000310: d996 f3be 91fb aebe 993d e0bd 71fc 19be
00000320: dd81 0c3e f102 d0be 3d65 6d3e f94b d2be
00000330: eddc 72be b199 37be 1919 153e 4119 e73c
00000340: 56e7 833e c0b1 00bd e98f 9bbe aa6e 453e
00000350: 7140 053f 1e6a c33e 5540 1abe 3952 6c3d
00000360: 49bb f8be d32d a5bd 7806 f6be ad53 623e
00000370: cc29 5abe b18a 163e 982f a43e 8af0 9dbe
00000380: 096c 4fbe bb52 65bd 5555 163f 8d7b e7be
00000390: 7169 a1bd f846 993e ee6f 7a3d 0cff 84be
000003a0: b874 0f3f 9f2a ae3e 7840 bb3e 275a 2d3d
000003b0: 7ec7 dfbe e11b 843e 1dbf abbe 791d cdbc
000003c0: 2071 c13d 8808 f4bc 42e4 fcbd df48 433e
000003d0: 3c40 d4be f663 313e 9e23 083e 600a c03e
000003e0: f0e5 d6bc 3246 ea3d 594f c8bd 9a4b 07be
000003f0: 2d93 b6be 4418 93bd 5e43 833e 92b7 173d

encoder_variable_selection.single_variable_grns.T2M.gate_norm.glu.fc.bias f4 [32]
0.17389078 -0.15157908 -0.16788703 -0.17296113 0.1554219 0.13711455 0.16549143 0.1891118
-0.1452932 -0.16772652 0.17916729 -0.17611003 0.10209883 -0.1815643 -0.1742971 -0.17198603
-0.17437801 0.15911295 0.16943379 0.0064000785 0.14790529 -0.15747964 -0.18038212 0.17700347
0.12236822 -0.16812679 0.17726111 0.1830212 0.056672715 0.18228205 -0.16152959 -0.17288633
00000000: 6d10 323e 8c37 1bbe 94ea 2bbe b91c 31be
00000010: eb26 1f3e c267 0c3e 9676 293e 86a6 413e
00000020: bec7 14be 80c0 2bbe a177 373e 3056 34be
00000030: 3119 d13d feeb 39be f07a 32be 1b1d 30be
00000040: 2690 32be 81ee 223e 0d80 2d3e c0b7 d13b
00000050: 7c74 173e 5842 21be 17b6 38be 6640 353e
00000060: 309c fa3d 6e29 2cbe f083 353e e969 3b3e
00000070: a621 683d 25a8 3a3e 0368 25be 1d09 31be

encoder_variable_selection.single_variable_grns.T2M.gate_norm.add_norm.norm.weight f4 [16]
0.8283743 1.1586828 0.8043004 0.80692923 0.74569523 0.94658184 0.83642036 1.1942501
0.8346367 0.8404783 1.1795868 0.8226539 1.1351762 0.83152384 0.9994404 1.1769342
00000000: 5710 543f b84f 943f a2e6 4d3f ea92 4e3f
00000010: e2e5 3e3f 3053 723f a51f 563f 30dd 983f
00000020: c0aa 553f 9629 573f b3fc 963f 7299 523f
00000030: 744d 913f bfde 543f 53db 7f3f c8a5 963f

encoder_variable_selection.single_variable_grns.T2M.gate_norm.add_norm.norm.bias f4 [16]
0.16811916 -0.16244137 -0.188388 -0.17728873 0.15232815 -0.008358822 0.14456229 0.18079674
-0.1473265 -0.16605426 0.1779292 -0.17601258 0.14300072 -0.1844419 -0.18565778 -0.1754527
00000000: 6e27 2c3e 0857 26be c9e8 40be 2d8b 35be
00000010: e9fb 1b3e 71f3 08bc 2308 143e c822 393e
00000020: c2dc 16be 210a 2abe 1233 363e a43c 34be
00000030: c86e 123e 56de 3cbe 131d 3ebe dfa9 33be

encoder_variable_selection.single_variable_grns.T2M_MAX.resample_norm.mask f4 [16]
-0.1708309 0.1678718 0.16815864 0.1543727 -0.17136617 -0.12680757 -0.10067903 -0.17743982
0.15370937 0.16581288 -0.17453937 0.17432812 -0.1633941 0.17957626 0.17064562 0.17469929
00000000: 4cee 2ebe 96e6 2b3e c731 2c3e e113 1e3e
00000010: 9d7a 2fbe d8d9 01be cf30 cebd c9b2 35be
00000020: fd65 1d3e daca 293e 73ba 32be 1283 323e
00000030: c850 27be d7e2 373e babd 2e3e 5fe4 323e

encoder_variable_selection.single_variable_grns.T2M_MAX.resample_norm.norm.weight f4 [16]
1.1728106 0.8287928 0.84485847 1.1672208 0.827612 1.0240417 1.0902082 1.1760097
1.1621215 1.1692564 0.82722646 0.82493204 0.8339523 1.1795274 1.170113 1.1735195
00000000: a81e 963f c42b 543f a548 583f 7e67 953f
00000010: 61de 533f cc13 833f f18b 8b3f 7c87 963f
00000020: 66c0 943f 32aa 953f 1dc5 533f bf2e 533f
00000030: e67d 553f c1fa 963f 43c6 953f e335 963f

encoder_variable_selection.single_variable_grns.T2M_MAX.resample_norm.norm.bias f4 [16]
0.17272098 -0.17072587 -0.16061574 0.16846588 -0.17434895 0.117677234 0.14990711 0.17546405
-0.15881456 -0.16818427 0.17446916 -0.17447537 0.1640158 -0.17673369 -0.17102769 -0.17377707
00000000: c5dd 303e c3d2 2ebe 7478 24be 5282 2c3e
00000010: 8888 32be c300 f13d 4081 193e d9ac 333e
00000020: 49a0 22be 7f38 2cbe 0ba8 323e aca9 32be
00000030: c2f3 273e adf9 34be e221 2fbe 9ef2 31be

encoder_variable_selection.single_variable_grns.T2M_MAX.fc1.weight f4 [8, 8]
-0.13588384 -0.35342467 0.25012454 0.24467406 -0.7878617 0.98376995 -0.021408172 -0.7772932
0.32766506 0.95665425 0.121757664 -0.41297194 -0.2619226 0.37358233 0.41294613 -0.35353076
-0.8222278 -0.09487871 -0.11120224 1.5218072 -0.34484243 -0.15724562 -0.95964676 0.17641881
-0.40068212 -0.026736062 -0.44074506 0.09455868 0.26341543 -1.2623756 -0.44126838 0.35864747
0.78111154 0.18576872 0.036147088 0.27441037 -0.14865443 -1.8564173 -0.9356685 -0.4658022
-0.12695158 0.10129507 -0.50493747 -1.0058068 0.5213919 0.25729507 -0.73585874 0.10015507
-0.8315695 -0.032083165 0.3838507 -0.42063996 0.25581506 -0.19424032 -0.68334883 -0.7741427
-0.956613 -0.19088583 -0.11470688 -0.057698417 0.8264461 0.4484037 -0.7509928 -0.4431624
00000000: 2225 0bbe 14f4 b4be 5310 803e d68b 7a3e
00000010: 4eb1 49bf 59d8 7b3f 3160 afbc b0fc 46bf
00000020: b7c3 a73e 4be7 743f 155c f93d 0f71 d3be
00000030: b81a 86be 2f46 bf3e ad6d d33e fc01 b5be
00000040: 857d 52bf c54f c2bd 00be e3bd 94ca c23f
00000050: 308f b0be ff04 21be 69ab 75bf 22a7 343e
00000060: 3526 cdbe 9605 dbbc 56a9 e1be fba7 c13d
00000070: 63de 863e 8695 a1bf eeed e1be a4a0 b73e
00000080: edf6 473f 283a 3e3e f80e 143d 847f 8c3e
00000090: de38 18be 159f edbf f987 6fbf a07d eebe
000000a0: 98ff 01be ca73 cf3d 9543 01bf 47be 80bf
000000b0: f179 053f 2ebc 833e 3d61 3cbf 1a1e cd3d
000000c0: bde1 54bf a369 03bd 1488 c43e 1f5e d7be
000000d0: 31fa 823e efe6 46be f3ef 2ebf 372e 46bf
000000e0: 97e4 74bf 9377 43be 71eb eabd 2d55 6cbd
000000f0: f991 533f 2b95 e53e 1041 40bf 2fe6 e2be

encoder_variable_selection.single_variable_grns.T2M_MAX.fc1.bias f4 [8]
0.17196968 -0.16128142 0.1748547 0.18706603 0.16356865 0.17119296 -0.17148744 0.18646528
00000000: d218 303e f526 25be 1c0d 333e 3d8e 3f3e
00000010: 8a7e 273e 354d 2f3e 679a 2fbe c1f0 3e3e

encoder_variable_selection.single_variable_grns.T2M_MAX.fc2.weight f4 [8, 8]
0.93237597 0.01582603 -0.06218755 -0.43725586 -0.23071213 0.26427925 0.49816677 0.1992274
0.18091533 0.22933456 -0.17965446 0.60697126 0.3818533 0.33526775 -0.21630043 -0.91877633
-0.7992405 -0.009307463 -0.13134839 -0.0528647 -0.14523283 -0.31147578 0.13699788 0.9052911
-0.3313318 -0.6399901 -0.2696447 -0.03839278 -0.5085371 0.87813675 -0.11139961 -0.5026251
-0.07466177 0.6950184 -0.3883905 0.41052324 -0.570579 0.49097902 -0.12526993 -0.30755553
-0.53464025 0.23596686 -0.36307746 0.09700648 -1.2900409 -0.14494465 -0.09192966 0.29853758
-0.08796054 -0.19392622 0.06404186 0.29894 -0.7739988 -0.07378882 0.061554246 0.46700507
-0.13454685 -0.36198735 -1.3494817 -0.2606065 0.5759792 0.108744875 -0.09244699 -0.7093025
00000000: 31b0 6e3f 97a5 813c 5fb8 7ebd 00e0 dfbe
00000010: cd3f 6cbe 9c4f 873e b70f ff3e 4402 4c3e
00000020: de41 393e aed6 6a3e 57f7 37be 7862 1b3f
00000030: 4782 c33e 37a8 ab3e dc7d 5dbe ed34 6bbf
00000040: 079b 4cbf 547e 18bc 3180 06be a888 58bd
00000050: eab7 14be c179 9fbe 2c49 0c3e 28c1 673f
00000060: 52a4 a9be 64d6 23bf df0e 8abe bf41 1dbd
00000070: 7d2f 02bf 92cd 603f 7b25 e4bd 0aac 00bf
00000080: 45e8 98bd baec 313f 1fdb c6be 1a30 d23e
00000090: 7711 12bf 9a61 fb3e c346 00be eb77 9dbe
000000a0: 2fde 08bf 4ca1 713e 4ae5 b9be 55ab c63d
000000b0: 0f20 a5bf 5f6c 14be 9e45 bcbd ebd9 983e
000000c0: a824 b4bd 9894 46be 6128 833d aa0e 993e
000000d0: c924 46bf 981e 97bd 4e20 7c3d 4a1b ef3e
000000e0: a6c6 09be 6856 b9be d1bb acbf 376e 85be
000000f0: 5f73 133f a2b5 de3d d954 bdbd d994 35bf

encoder_variable_selection.single_variable_grns.T2M_MAX.fc2.bias f4 [8]
0.17253646 0.17604482 -0.16895159 -0.17538059 0.16796464 -0.17319568 -0.16455854 -0.17396326
00000000: 66ad 303e 1845 343e a501 2dbe f896 33be
00000010: ecfe 2b3e 355a 31be 0982 28be 6d23 32be
