ai_predict/ai/lightning_logs/version_95/checkpoints/epoch=4-step=30.ckpt (torch, 662004 bytes, 889 tensors)

prescalers.time_idx.weight f4 [8, 1]
0	0xbf6f87af	-0.9356641
1	0x3f6611f7	0.8987116
2	0x3ea9771e	0.33098692
3	0xbf7eb431	-0.994937
4	0xbefd957a	-0.49528104
5	0x3ec79b6b	0.38985762
6	0xbf13810c	-0.57618785
7	0xbf5fcfb0	-0.8742628

prescalers.time_idx.bias f4 [8]
0	0x3f5b519a	0.8567139
1	0x3f1f3e6d	0.6220463
2	0x3f2de609	0.6792913
3	0x3f237c19	0.63861233
4	0xbee4f1ac	-0.4471563
5	0x3ed352b2	0.4127403
6	0x3ef0dc59	0.47043112
7	0xbc1bb531	-0.009503649

prescalers.T2M.weight f4 [8, 1]
0	0x3d646faa	0.055770554
1	0xbf2fbb83	-0.68645495
2	0xbf91d4b9	-1.1393043
3	0x3e8cf24d	0.2752861
4	0xbd9b5776	-0.07585041
5	0xbef7b812	-0.48382622
6	0xbebc24d0	-0.36746836
7	0xbe5cbe45	-0.21556957

prescalers.T2M.bias f4 [8]
0	0xbe8e6ea3	-0.27818784
1	0xbf4537b3	-0.77038115
2	0xbe40c91a	-0.18826714
3	0x3f8f951f	1.1217383
4	0xbf8ea0bf	-1.1142806
5	0x3e985d73	0.29758796
6	0x3ef09ac5	0.4699308
7	0x3f7243cc	0.946347

prescalers.T2M_MAX.weight f4 [8, 1]
0	0x3f826aba	1.018882
1	0x3f807c97	1.0038022
2	0x3db349f6	0.08754341
3	0x3f42a50b	0.76033086
4	0xbe86e72f	-0.26348254
5	0x3f469bbe	0.77581394
6	0x3f8f5b81	1.11998
7	0xbf14b8fd	-0.5809477

prescalers.T2M_MAX.bias f4 [8]
0	0xbf66bb02	-0.901291
1	0x3e4da156	0.20081076
2	0x3e07fcf2	0.13280085
3	0x3e44f130	0.1923263
4	0xbe4ba681	-0.19887735
5	0x3f8deb92	1.1087515
6	0xbe3086d4	-0.17238933
7	0xbec1622c	-0.37770212

prescalers.T2M_MIN.weight f4 [8, 1]
0	0xbe69d4d7	-0.22835098
1	0xbe99ebf4	-0.3006283
2	0x3ef983b5	0.48733297
3	0x3def36a0	0.11680341
4	0xbce454f2	-0.027872536
5	0xbf054171	-0.5205298
6	0xbf58fba4	-0.84758973
7	0xbf784212	-0.96975815

prescalers.T2M_MIN.bias f4 [8]
0	0x3e021869	0.12704624
1	0x3d2b00dc	0.041748866
2	0xbf5503b8	-0.832088
3	0xbedb8128	-0.42871976
4	0xbf2cc9c0	-0.67495346
5	0xbf7eb658	-0.99496984
6	0x3f07b2fe	0.53007495
7	0xbf343cdc	-0.70405364

prescalers.PRECTOTCORR.weight f4 [8, 1]
0	0xbf3d2b51	-0.7389422
1	0xbf66ffe5	-0.90234214
2	0xbeb30142	-0.34961897
3	0xbf5b9a6e	-0.85782516
4	0x3f828db5	1.0199496
5	0xbf25d68d	-0.64780504
6	0x3deb42af	0.11487328
7	0xbeb697fd	-0.35662833

prescalers.PRECTOTCORR.bias f4 [8]
0	0xbf34e3dc	-0.70660186
1	0xbdcb96c1	-0.099408634
2	0xbf55e082	-0.83545697
3	0x3e4253a1	0.18977214
4	0x3f0631d5	0.5241979
5	0xbe11316c	-0.14179009
6	0x3f89ab46	1.0755394
7	0xbf4c192f	-0.7972593

prescalers.RH2M.weight f4 [8, 1]
0	0xbf75f421	-0.96075636
1	0xbec536c1	-0.38518336
2	0xbd847fbc	-0.06469676
3	0x3e0b0582	0.1357632
4	0x3f68ffc0	0.91015244
5	0xbf1eefa6	-0.62084424
6	0xbe92b0d1	-0.28650525
7	0xbf91921f	-1.1372718

prescalers.RH2M.bias f4 [8]
0	0xbe3cd5e0	-0.18440962
1	0xbf86a7a4	-1.051991
2	0xbefb8e83	-0.49132165
3	0xbc737489	-0.014859327
4	0xbf8b6bbd	-1.0892254
5	0x3f622112	0.8833171
6	0xbd34c066	-0.044128798
7	0x3dcde8b6	0.10054152

prescalers.ALLSKY_SFC_SW_DWN.weight f4 [8, 1]
0	0x3ec96957	0.3933818
1	0xbda67cd7	-0.0812928
2	0xbf4c399d	-0.7977541
3	0xbefdd207	-0.495743
4	0x3e981e38	0.29710555
5	0x3e249986	0.1607419
6	0x3f152d9d	0.58272725
7	0xbf5d6a49	-0.86490303

prescalers.ALLSKY_SFC_SW_DWN.bias f4 [8]
0	0xbd6422a2	-0.05569709
1	0xbee20d54	-0.44150794
2	0xbd3907bb	-0.045173388
3	0xbd8cbf7e	-0.06872462
4	0xbf8aa45b	-1.0831407
5	0x3dd7150f	0.105020635
6	0xbee22868	-0.44171453
7	0xbf1f693d	-0.62269956

prescalers.numero_casos.weight f4 [8, 1]
0	0xbf8b6e34	-1.0893006
1	0xbf30f482	-0.6912309
2	0x3f92b51d	1.1461521
3	0xbe99d76d	-0.3004717
4	0x3e9316d8	0.28728366
5	0xbf05ca72	-0.5226203
6	0x3f4b2a3c	0.7936132
7	0xbe832396	-0.25613087

prescalers.numero_casos.bias f4 [8]
0	0xbf512eb9	-0.8171192
1	0xbdfa9371	-0.122351535
2	0xbf41dcec	-0.75727725
3	0xbe6b6e52	-0.22991303
4	0x3ef32b5b	0.47494015
5	0xbefc369c	-0.49260414
6	0xbf048020	-0.51758003
7	0xbf72bea0	-0.9482212

static_variable_selection.single_variable_grns.municipio.mask f4 [16]
0	0x3e2cdce6	0.16881141
1	0x3e2cdce6	0.16881141
2	0xbe2cdce7	-0.16881143
3	0x3e2cdce6	0.16881141
4	0x3e2cdce6	0.16881141
5	0x3e2cdce6	0.16881141
6	0xbe2cdce6	-0.16881141
7	0xbe2cdce6	-0.16881141
8	0xbe2cdce6	-0.16881141
9	0x3e2cdce6	0.16881141
10	0xbe2cdce6	-0.16881141
11	0x3e2cdce6	0.16881141
12	0x3e2cdce6	0.16881141
13	0xbe2cdce7	-0.16881143
14	0xbe2cdce6	-0.16881141
15	0x3e2cdce7	0.16881143

static_variable_selection.single_variable_grns.municipio.norm.weight f4 [16]
0	0x3f80022f	1.0000666
1	0x3f800890	1.0002613
2	0x3f7ff74f	0.9998674
3	0x3f80038a	1.000108
4	0x3f7fff7c	0.99999213
5	0x3f8005fe	1.0001829
6	0x3f80047b	1.0001367
7	0x3f8005bf	1.0001754
8	0x3f80012d	1.0000359
9	0x3f7ff2d8	0.99979925
10	0x3f80066e	1.0001962
11	0x3f7ff7f5	0.9998773
12	0x3f7fe865	0.9996398
13	0x3f7fe585	0.99959594
14	0x3f7ffcf8	0.99995375
15	0x3f7ffdf8	0.999969

static_variable_selection.single_variable_grns.municipio.norm.bias f4 [16]
0	0x3e2cdce7	0.16881143
1	0x3e2cdce6	0.16881141
2	0xbe2cdce6	-0.16881141
3	0x3e2cdce6	0.16881141
4	0x3e2cdce6	0.16881141
5	0x3e2cdce6	0.16881141
6	0xbe2cdce6	-0.16881141
7	0xbe2cdce6	-0.16881141
8	0xbe2cdce6	-0.16881141
9	0x3e2cdce6	0.16881141
10	0xbe2cdce6	-0.16881141
11	0x3e2cdce6	0.16881141
12	0x3e2cdce7	0.16881143
13	0xbe2cdce6	-0.16881141
14	0xbe2cdce6	-0.16881141
15	0x3e2cdce6	0.16881141

encoder_variable_selection.flattened_grn.resample_norm.mask f4 [8]
0	0x3e2cdcd2	0.16881111
1	0xbe2cdc38	-0.16880882
2	0xbe2cdc4a	-0.16880909
3	0x3e2cd2d1	0.16877295
4	0xbe2cdcc2	-0.16881087
5	0xbe2cdc4a	-0.16880909
6	0xbe2cd728	-0.1687895
7	0xbe2cdb44	-0.16880518

encoder_variable_selection.flattened_grn.resample_norm.norm.weight f4 [8]
0	0x3f959b9b	1.1688112
1	0x3f54c928	0.8311944
2	0x3f54c8e7	0.8311905
3	0x3f959b5a	1.1688035
4	0x3f54c8ce	0.83118904
5	0x3f54c8d6	0.8311895
6	0x3f959b57	1.1688031
7	0x3f54c91c	0.8311937

encoder_variable_selection.flattened_grn.resample_norm.norm.bias f4 [8]
0	0x3e2cdcdb	0.16881125
1	0xbe2cdcbc	-0.16881078
2	0xbe2cdc9c	-0.16881031
3	0xbe2cdc3f	-0.16880892
4	0xbe2cdcc4	-0.1688109
5	0xbe2ccf5b	-0.16875975
6	0xbe2cdc40	-0.16880894
7	0x3e2cdbb0	0.16880679

encoder_variable_selection.flattened_grn.fc1.weight f4 [8, 64]
0	0xbe86eeb4	-0.2635399
1	0xbeb379d0	-0.35053873
2	0xbe4dc2be	-0.2009382
3	0xbf00ff67	-0.50389713
4	0x3e65bff4	0.22436506
5	0xbf21e4a3	-0.63239497
6	0xbf234f50	-0.63792896
7	0xbcc2b9b0	-0.023770183
8	0x3e9c2e79	0.30504206
9	0x3e5f4fb5	0.2180775
10	0x3e354bae	0.17704651
11	0x3e851b57	0.2599742
12	0x3de5d38d	0.11221991
13	0xbda8a560	-0.08234668
14	0xbe1ee141	-0.15515615
15	0xbee3f912	-0.44525963
16	0x3e804c08	0.25058007
17	0x388cf8c0	6.7220535e-05
18	0xbf1e1455	-0.61749774
19	0x3e058d6b	0.13042228
20	0xbdc2e0e9	-0.095155545
21	0xbedc0183	-0.42969903
22	0x3e2cd677	0.16878687
23	0x3c896ebd	0.016776437
24	0x3e9af389	0.30263928
25	0x3e82aad4	0.25520957
26	0xbe654143	-0.22388177
27	0x3ecdb771	0.40179017
28	0x3ebe843b	0.3721026
29	0x3e4c5649	0.1995479
30	0x3e7a932b	0.24470203
31	0xbd7ea376	-0.062167607
32	0x3ea64b8a	0.32479507
33	0xbd2ad651	-0.041708294
34	0x3e9b610c	0.30347478
35	0x3a73fc7d	0.0009307338
36	0x3e7e4af1	0.24833275
37	0x3ec34283	0.38136682
38	0xbe6a638b	-0.22889535
39	0x3e80871d	0.25103083
40	0xbd7e3d28	-0.062070042
41	0x3e45012d	0.1923873
42	0xbd5bacfd	-0.05363177
43	0xbc626349	-0.013817617
44	0x3d53e8bb	0.05173562
45	0x3e9f758a	0.31144363
46	0x3ebe4cd6	0.37167996
47	0x3e925a9b	0.2858475
48	0x3ec42a31	0.3831344
49	0x3db40f68	0.08792001
50	0x3da859df	0.082202666
51	0xbcfdf5fe	-0.031001087
52	0x3e3c04c1	0.18361188
53	0xbeab1586	-0.3341486
54	0xbe904d95	-0.2818419
55	0x3e1c9164	0.15289837
56	0x3e67a89d	0.22622915
57	0xbeaf75d7	-0.34269592
58	0x3ef82689	0.484669
59	0x3e1f48d5	0.15555127
60	0xbc277777	-0.010221354
61	0x3eba7b6e	0.36422294
62	0x3e822d25	0.25425068
63	0xbc80528a	-0.015664358
64	0xbe270900	-0.16312027
65	0xbdcaba6d	-0.09898839
66	0xbd44d5b0	-0.04805535
67	0xbe593b74	-0.21214086
68	0x3e75714c	0.23969
69	0xbead82e1	-0.33888915
70	0xbe5cc78e	-0.21560499
71	0xbd23cf74	-0.039992765
72	0x3e6611d5	0.2246774
73	0x3e84005e	0.2578153
74	0x3e34168f	0.1758673
75	0x3c421f69	0.011848309
76	0xbdaa4172	-0.08313264
77	0x3e80e52b	0.2517484
78	0xbe59bd0d	-0.21263523
79	0xbe075c13	-0.13218717
80	0x3e8d65a3	0.27616605
81	0x3c5629e4	0.013071511
82	0x3d2eff36	0.042723857
83	0xbce9dbfb	-0.028547278
84	0xbe544940	-0.20731068
85	0xbd11e198	-0.035615534
86	0x3e2f533a	0.17121592
87	0xbda4683a	-0.08027692
88	0x3e5032d0	0.20331883
89	0x3e58f6fc	0.21187967
90	0xbe190491	-0.14943148
91	0x3ebfee56	0.37486523
92	0x3da2e034	0.079529196
93	0x3e47f011	0.19525172
94	0x3ea47c8c	0.32126272
95	0x3e8104f0	0.2519908
96	0x3e96f79b	0.29485783
97	0x3dfd36f4	0.12363997
98	0x3dffa7a6	0.12483148
99	0x3e423cc5	0.18968494
100	0xbd3ac814	-0.045600966
101	0x3ecbb479	0.39786127
102	0xbed4cd3f	-0.4156284
103	0x3eb34e36	0.35020608
104	0x3db829e8	0.08992368
105	0x3e056bbe	0.13029382
106	0x3e19ddb4	0.1502598
107	0x3d0f38b4	0.034966186
108	0x3df1e4df	0.11811232
109	0x3dc538f6	0.09630005
110	0x3e46a90c	0.19400424
111	0x3dae05a9	0.08497173
112	0xbece3c05	-0.40280166
113	0xbe245aa3	-0.160502
114	0x3dd3a6f0	0.10334575
115	0x3e2d1c7b	0.16905396
116	0xbe32ea44	-0.17472178
117	0x3bfd54e0	0.007731065
118	0xbe46e44b	-0.19423024
119	0x3e4d05bd	0.2002172
120	0x3da07a1c	0.078357905
121	0x3e6e4fe2	0.2327266
122	0x3e2e8cb9	0.17045869
123	0xbe18e62f	-0.14931558
124	0x3da358a7	0.079758935
125	0xbd90efb1	-0.070769675
126	0x3ccaa08a	0.024734754
127	0x3ef6f4b7	0.48233578
128	0x3d73acb4	0.059490874
129	0x3d719560	0.058980346
130	0x3f302ce3	0.6881849
131	0x3e6aa518	0.22914541
132	0xbe449bcb	-0.19200055
133	0xbe541fa6	-0.20715198
134	0x3e87580b	0.2643436
135	0x3eaf73f6	0.3426816
136	0xbd698f91	-0.05702168
137	0xbdb4738c	-0.08811101
138	0xbed1ba48	-0.40962434
139	0x3f24d631	0.6438933
140	0xbeec28a2	-0.4612475
141	0xbda1fcb8	-0.079095304
142	0xbd89f878	-0.06736845
143	0x3e649144	0.2232104
144	0xbdac8321	-0.08423448
145	0x3f2f4ad8	0.6847358
146	0x3dbdbaf1	0.09264172
147	0x3e8c7a67	0.27437136
148	0xbec3edef	-0.38267466
149	0x3d303fd0	0.043029606
150	0x3e052cd4	0.13005382
151	0x3da564c0	0.08075857
152	0xbe1c8bc6	-0.15287694
153	0xbd95643e	-0.0729451
154	0xbc80a4f8	-0.015703663
155	0xbed079cc	-0.40717924
156	0xbd5c1076	-0.053726636
157	0xbd111a85	-0.03542568
158	0x3e4af66f	0.1982057
159	0xbdb93a6d	-0.09044347
160	0x3c9b78ab	0.018978437
161	0xbe17a1e6	-0.14807853
162	0xbea0f0c1	-0.3143368
163	0x3c6a3903	0.014295819
164	0x3e867802	0.26263434
165	0xbed774d1	-0.4208131
166	0x3ea23c79	0.31686762
167	0xbd99d256	-0.075108215
168	0x3e2ff414	0.17182952
169	0xbe5827b0	-0.2110889
170	0xbd96d98d	-0.07365713
171	0x3f02f4fc	0.51155066
172	0xbe661edb	-0.22472708
173	0x3e349c25	0.1763769
174	0x3dc5463f	0.09632539
175	0xbec36cbe	-0.381689
176	0xbdbc7fe9	-0.092040844
177	0xbeaab147	-0.33338377
178	0x3bb7be30	0.005607389
179	0x3cf628d8	0.030048773
180	0xbec2b7e4	-0.38030922
181	0x3d9efb90	0.077628255
182	0x3e83fedd	0.25780383
183	0xbeaa53fd	-0.33267203
184	0xbde8ca88	-0.11366755
185	0x3ea2d87c	0.3180579
186	0xbe7d51a6	-0.24738178
187	0xbdb8c8b4	-0.09022656
188	0x3ee4475c	0.44585693
189	0x3e0fcb09	0.14042296
190	0xbd87b9ef	-0.06627261
191	0xbe6479e4	-0.22312123
192	0xbe350ffe	-0.17681882
193	0x3e8eb3a9	0.27871445
194	0xbe92b28b	-0.28651842
195	0xbeab3d4c	-0.33445203
196	0xbd0c6684	-0.034277454
197	0xbd37e4ac	-0.044895813
198	0x3e172481	0.14760019
199	0xbd5605d9	-0.05225167
200	0x3eb8ede7	0.36119005
201	0x3e89f7a1	0.26946738
202	0x3d17e41d	0.03708278
203	0xbde8ffee	-0.1137694
204	0x3e54cb3b	0.20780651
205	0xbd80cf16	-0.062894985
206	0xbdc71ff6	-0.09722893
207	0xbdde5139	-0.10855336
208	0x3eb77626	0.35832328
209	0x3e9b61e0	0.3034811
210	0xbe8d860b	-0.2764133
211	0xbe27f7ee	-0.16403171
212	0xbdd5a485	-0.1043177
213	0xbef90a7c	-0.4864081
214	0x3e827c05	0.25485244
215	0x3e54d2b8	0.20783508
216	0x3ee52706	0.44756335
217	0x3e651051	0.22369505
218	0xbecb2c62	-0.396823
219	0x3d189e03	0.037260067
220	0x3e96b102	0.2943192
221	0x3dabb66b	0.08384403
222	0x3e31dcf1	0.17369439
223	0xbe09275a	-0.13393918
224	0x3db1d255	0.08682696
225	0x3e671a50	0.22568631
226	0x3daab689	0.08335597
227	0x3e2bfe17	0.16796146
228	0xbbff183d	-0.007784872
229	0x3e4a5bf9	0.19761647
230	0xbee7583b	-0.45184502
231	0xbe7889df	-0.24271344
232	0x3ea5ebb5	0.32406393
233	0x3f0039b3	0.5008804
234	0x3c516937	0.012781433
235	0x3e033b70	0.12815642
236	0x3d6c8dd5	0.05775245
237	0x3e9699d1	0.29414228
238	0x3e0148dd	0.12625451
239	0x3e856c76	0.26059312
240	0x3e145d9b	0.14488833
241	0x3ea74cdf	0.32675835
242	0x3e33c5b0	0.1755588
243	0x3e9fba4b	0.31196818
244	0x3da55a56	0.08073871
245	0xbeb2dfc7	-0.34936354
246	0x3e7f2445	0.2491618
247	0x3e5d1d7d	0.2159328
248	0xbdf62562	-0.12018849
249	0xbe8aef78	-0.27135825
250	0x3dfdcd7c	0.12392709
251	0x3df1e076	0.11810391
252	0xbe4c8676	-0.19973168
253	0xbd71def8	-0.05905053
254	0x3de316ce	0.11088334
255	0x3e04f143	0.12982659

encoder_variable_selection.flattened_grn.fc1.bias f4 [8]
0	0xbe2cdc41	-0.16880895
1	0xbe2cdcc0	-0.16881084
2	0x3e2cdccd	0.16881104
3	0xbe2cdc52	-0.1688092
4	0xbe2cdc4e	-0.16880915
5	0x3e2cdc16	0.16880831
6	0x3e2cdc4a	0.16880909
7	0xbe2cdcc9	-0.16881098

encoder_variable_selection.flattened_grn.context.weight f4 [8, 16]
0	0xbef674e1	-0.48136047
1	0xbe556246	-0.2083827
2	0x3edea5bc	0.4348582
3	0xbe8af3fb	-0.27139267
4	0x3ec5ebad	0.3865637
5	0x3eb6cfb0	0.35705328
6	0xbd99b9c5	-0.07506136
7	0xbdcb54da	-0.099282935
8	0xbeb6d154	-0.3570658
9	0xbdd84986	-0.105608985
10	0x3ea47ed0	0.32128
11	0x3d895a9f	0.06706738
12	0xbdac12f5	-0.08402053
13	0x3e7bfb51	0.24607588
14	0x3e4186b5	0.18899043
15	0x3dbbfcea	0.09179099
16	0xbe8ffb8d	-0.28121606
17	0xbe1e8314	-0.1547969
18	0x3b46e3a0	0.0030348077
19	0x3dbecfa9	0.09316952
20	0xbeabcd8b	-0.33555254
21	0x3eeeaa47	0.46614286
22	0x3ecb4c6e	0.3970675
23	0x3e87bfb4	0.26513445
24	0x3da8fa6d	0.0825089
25	0x3e4e861d	0.20168348
26	0x3e57dfec	0.21081513
27	0xbeada4a4	-0.33914673
28	0xbec228a3	-0.37921628
29	0x3eaa02ec	0.33205354
30	0xbd4a0d5a	-0.04932914
31	0x3ea4b6a1	0.32170585
32	0x3ea9275e	0.33037847
33	0x3ccc002c	0.024902426
34	0xbedc9ab5	-0.43086782
35	0x3e838743	0.25689134
36	0x3e71d220	0.23615313
37	0xbde02700	-0.10944939
38	0xbe29f9fa	-0.16599265
39	0x3ee5176b	0.4474443
40	0x3db4917a	0.0881681
41	0x3a917862	0.0011098499
42	0xbeaa26cc	-0.33232725
43	0x3eeb3218	0.45936656
44	0x3eb51b89	0.3537257
45	0xbe0866fe	-0.13320538
46	0x3ebb151c	0.36539543
47	0x3e1907e7	0.14944421
48	0xbe28ba64	-0.16477352
49	0x3e5b8e0a	0.21440902
50	0xbdfb7a23	-0.12279155
51	0x3ecd7e75	0.40135542
52	0xbe62194a	-0.2207996
53	0x3e74a054	0.23889285
54	0x3e4e5258	0.20148599
55	0x3e1b5760	0.1517005
56	0xbed235b5	-0.410566
57	0x3e9a8e18	0.30186534
58	0xbe4420ba	-0.19153109
59	0xbed8461f	-0.42240998
60	0x3ebdc917	0.37067482
61	0x3e9929c0	0.29914665
62	0xbd132178	-0.03592059
63	0x3c08a918	0.008341096
64	0x3ee30707	0.443413
65	0xbe551349	-0.20808138
66	0x3eb22259	0.3479183
67	0xbef43b7c	-0.47701633
68	0x3e01f8a9	0.12692513
69	0xbe1888ee	-0.14895985
70	0x3e608437	0.21925436
71	0xbe871964	-0.2638656
72	0x3e66d1b2	0.2254093
73	0xbebed7cc	-0.37274015
74	0x3ee49d81	0.44651416
75	0x3da67954	0.0812861
76	0xbdcbbfa9	-0.09948666
77	0x3cc129fa	0.023579586
78	0x3e926065	0.28589168
79	0x3e884665	0.26616207
80	0xbe5c48e6	-0.21512184
81	0x3ecd7aef	0.40132853
82	0x3eff71e1	0.4989157
83	0x3ef4bf57	0.4780223
84	0x3ea718fa	0.32636243
85	0xbeb1d6b0	-0.34734106
86	0xbec80a82	-0.39070517
87	0x3e196464	0.14979702
88	0x3ee46f1c	0.4461602
89	0x3eecda8e	0.46260494
90	0x3e9bfdf5	0.3046719
91	0x3e9bdaaa	0.30440265
92	0x3ebf7e5f	0.374011
93	0x3c1b79b1	0.009489463
94	0x3ea36b92	0.31918007
95	0x3e967901	0.29389194
96	0x3edc2170	0.4299426
97	0xbe9a5eda	-0.3015049
98	0xbe2cdfa0	-0.16882181
99	0xbe8df8ac	-0.27728784
100	0x3de276c8	0.11057812
101	0x3ea10456	0.3144862
102	0x3eac9922	0.3371058
103	0x3e3d9a75	0.18515952
104	0x3e93cd2d	0.28867474
105	0xbe40bf10	-0.18822885
106	0x3ece4c5c	0.40292633
107	0x3e83f0df	0.25769708
108	0x3e0c6292	0.13709477
109	0xbd77ae79	-0.060469124
110	0x3eacb3fb	0.33731064
111	0x3ea08c5e	0.31357092
112	0x3ed76b81	0.42074206
113	0xbd1848e1	-0.037178878
114	0x3ea397a5	0.31951633
115	0xbe002f31	-0.12518002
116	0xbc92a405	-0.017900476
117	0x3ddc47c4	0.10755876
118	0xbe6e860c	-0.23293322
119	0xbe40e3bb	-0.18836872
120	0x3e7e8f6f	0.24859403
121	0x3e27ee32	0.16399458
122	0xbea90f82	-0.33019644
123	0xbeaf2f04	-0.34215558
124	0xbeab2811	-0.33429006
125	0x3bb138f2	0.0054083997
126	0x3eee6c4a	0.46566993
127	0x3e62cca8	0.22148383

encoder_variable_selection.flattened_grn.fc2.weight f4 [8, 8]
0	0x3e746b3f	0.23869036
1	0xbd0cb99b	-0.034356695
2	0xbee9e9fb	-0.45686325
3	0x3c9c9da7	0.019118143
4	0x3f5c3038	0.86011076
5	0x3f4d0e74	0.8010018
6	0xbef2909c	-0.47375953
7	0x3ee65e3e	0.44993776
8	0xbf7faa62	-0.9986936
9	0x3eb264cd	0.3484253
10	0x3fa767c9	1.3078548
11	0x3ea28331	0.31740716
12	0x3dddcdfc	0.10830304
13	0x3e5c5efe	0.21520612
14	0xbe7418b5	-0.2383755
15	0xbfcdfa26	-1.6091964
16	0xbf038ca1	-0.5138646
17	0x3f829d3f	1.0204238
18	0xbf638a98	-0.8888335
19	0x3eb87832	0.36029202
20	0x3f373c24	0.7157614
21	0xbf3e8806	-0.74426305
22	0xbf059de7	-0.52194065
23	0xbed5df10	-0.41771746
24	0xbf1e2d0d	-0.6178749
25	0xbf750441	-0.95709616
26	0x3f6e6dbe	0.93136203
27	0xbe633562	-0.22188333
28	0xbea9f201	-0.33192447
29	0xbf4b4311	-0.7939921
30	0x3f3e9e75	0.74460536
31	0xbf078726	-0.52940595
32	0xbe9f2229	-0.3108075
33	0xbf3edb4c	-0.7455337
34	0xbf043e7a	-0.5165783
35	0xbe514b0f	-0.20438789
36	0x3e2ea7d6	0.17056212
37	0xbf140092	-0.5781337
38	0x3e4a655d	0.1976523
39	0xbf2194b2	-0.63117516
40	0xbd542e65	-0.051802058
41	0x3f125c80	0.57172394
42	0xbe2006af	-0.1562755
43	0x3ea042cc	0.31300962
44	0x3f55420b	0.833039
45	0x3e88011c	0.26563346
46	0x3e84197f	0.25800702
47	0x3f27836d	0.65434915
48	0xbe21c22b	-0.15796725
49	0xbdfb1220	-0.122593164
50	0xbf06a35b	-0.5259301
51	0x3f3e3e63	0.74313945
52	0xbdaed709	-0.085371085
53	0x3eab4316	0.3344962
54	0x3f0ffde9	0.5624681
55	0x3f0c5056	0.5481008
56	0x3e6071c0	0.21918392
57	0x3f0ea418	0.5571914
58	0xbf45c82d	-0.7725857
59	0x3d863e45	0.06554846
60	0xbe209b6b	-0.15684287
61	0xbee3c51c	-0.4448632
62	0x3e07eb69	0.13273396
63	0xbf176950	-0.5914507

encoder_variable_selection.flattened_grn.fc2.bias f4 [8]
0	0xbe2cdca7	-0.16881047
1	0x3e2cdcb0	0.1688106
2	0x3e2cd84b	0.16879384
3	0x3e2cdcb0	0.1688106
4	0x3e2cd48f	0.1687796
5	0x3e2cdcb2	0.16881064
6	0x3e2cd965	0.16879804
7	0xbe2cdc9f	-0.16881035

encoder_variable_selection.flattened_grn.gate_norm.glu.fc.weight f4 [16, 8]
0	0xbe9329d3	-0.28742847
1	0x3f096ab0	0.5367842
2	0xbccc06c8	-0.024905577
3	0xbd44abe6	-0.048015498
4	0xbc5b0479	-0.013367766
5	0x3e81ab1c	0.2532586
6	0x3e916292	0.28395516
7	0x3dbefe1b	0.093258105
8	0xbd6d7118	-0.057969183
9	0x3e48d786	0.19613466
10	0xbea6634e	-0.32497638
11	0xbd0a4096	-0.033753
12	0x3e150275	0.14551719
13	0xbf1a4d58	-0.6027427
14	0x3e0eb92c	0.13937825
15	0x3e86b1c1	0.2630749
16	0xbdcd225b	-0.100163184
17	0xbf200ed5	-0.6252263
18	0x3d4bff0d	0.049803782
19	0xbf001212	-0.50027573
20	0x3d448320	0.047976613
21	0xbe48d5b6	-0.19612774
22	0x3ec6df1c	0.38842094
23	0x3e7dd880	0.2478962
24	0x3e7eb084	0.24872023
25	0x3f29cfc7	0.6633267
26	0x3e16a1f0	0.14710212
27	0xbe554c2b	-0.20829837
28	0x3ea77299	0.3270462
29	0xbe9eec45	-0.31039634
30	0xbefc2f0a	-0.49254638
31	0x3db5ceab	0.088773094
32	0x3f1d5b9f	0.6146793
33	0xbea0626c	-0.3132509
34	0xbe32c585	-0.1745816
35	0xbe175a0c	-0.14780444
36	0x3e79790f	0.24362586
37	0xbf0441c3	-0.51662844
38	0xbdd9a20e	-0.106266126
39	0xbca49a9b	-0.020093253
40	0x3f03761d	0.513521
41	0xbf236398	-0.63823843
42	0x3ea4af11	0.32164815
43	0x3df96e90	0.12179291
44	0x3f28bdb9	0.65914494
45	0x3ec2658b	0.37968096
46	0xbe94164a	-0.28923255
47	0xbf232ae9	-0.6373735
48	0x3e221a0e	0.15830252
49	0x3e0f6bd0	0.14005971
50	0xbe9b3cdb	-0.30319867
51	0x3f0f41e7	0.55959934
52	0x3e8b6185	0.2722284
53	0xbe62a19f	-0.22131966
54	0xbee5cdf9	-0.44883707
55	0xbee0b2f0	-0.43886518
56	0xbee89d68	-0.4543259
57	0x3ec8542b	0.39126715
58	0xbcbcecb9	-0.023062097
59	0x3e45e7e9	0.19326748
60	0x3d866d9d	0.06563876
61	0xbeda984c	-0.42694318
62	0x3e9f7e38	0.31150985
63	0xbf069e54	-0.5258534
64	0xbd3af081	-0.04563952
65	0xbe407b90	-0.18797135
66	0x3e984f4b	0.29747996
67	0x3d25e93c	0.040505633
68	0x3effdfcb	0.49975428
69	0xbd2c4cb3	-0.042065334
70	0xbf21530c	-0.63017344
71	0xbf1a5761	-0.6028958
72	0xbefcd4c2	-0.4938107
73	0xbd1362e7	-0.035982993
74	0x3eb005f1	0.34379533
75	0xbe963462	-0.2933684
76	0xbe8ca8f8	-0.27472663
77	0xbf047142	-0.5173532
78	0xbdafa348	-0.08576065
79	0x3efb15df	0.49040124
80	0xbe97fd34	-0.29685366
81	0x3f092bc6	0.5358242
82	0x3d15d6b5	0.036581714
83	0xbe3bfda2	-0.18358472
84	0x3f219967	0.631247
85	0xbe1da62b	-0.1539542
86	0xbca204c1	-0.019777657
87	0xbcdb602a	-0.026779253
88	0x3ea65fc0	0.32494926
89	0xbed59856	-0.41717786
90	0x3e981ac9	0.29707935
91	0xbed2ba77	-0.41157886
92	0xbafcaf13	-0.001927825
93	0xbe313743	-0.17306237
94	0xbded2477	-0.11579221
95	0x3e98a3a8	0.2981236
96	0xbe249bf1	-0.16075112
97	0x3da65187	0.08121019
98	0x3dc195eb	0.09452423
99	0x3f1a7c41	0.60345846
100	0xbed598f3	-0.41718253
101	0xbe53bbde	-0.20677134
102	0x3ef745c2	0.48295408
103	0x3e95e337	0.29274914
104	0xbeaccb32	-0.33748776
105	0xbe70351a	-0.23457757
106	0x3e8d80e7	0.27637407
107	0xbefd441e	-0.49466032
108	0xbeb0c213	-0.34523067
109	0x3e48af1b	0.19598047
110	0x3ea71e85	0.32640472
111	0x3ed43de5	0.41453472
112	0xbeb25cae	-0.34836334
113	0x3ea69819	0.32537916
114	0xbc6df7db	-0.014524425
115	0xbe858b95	-0.26083055
116	0x3e81af0d	0.25328866
117	0x3ea58585	0.3232843
118	0x3ef7dd2b	0.48410925
119	0xbe237755	-0.1596349
120	0x3e26e56d	0.16298456
121	0x3c5f1c17	0.013617537
122	0x3ef8e37b	0.48611054
123	0xbd0f1f95	-0.03494223
124	0x3f2592d2	0.64677155
125	0xbd3b7c08	-0.045772582
126	0xbe81014c	-0.25196302
127	0x3e1bc054	0.15210086

encoder_variable_selection.flattened_grn.gate_norm.glu.fc.bias f4 [16]
0	0x3e2cdcc6	0.16881093
1	0xbe2cdca6	-0.16881046
2	0xbe2cdc96	-0.16881022
3	0xbe2cdb1c	-0.16880459
4	0xbe2cdcc1	-0.16881086
5	0x3e2cdb84	0.16880614
6	0xbe2cdb6c	-0.16880578
7	0x3e2cd8d2	0.16879585
8	0xbe2cdbff	-0.16880797
9	0xbe2cd9ef	-0.1688001
10	0xbe2cdbea	-0.16880766
11	0x3e2cd5ec	0.1687848
12	0xbe2cd47e	-0.16877934
13	0x3e2cdc11	0.16880824
14	0x3e2cd6b5	0.16878779
15	0x3e2cd717	0.16878925

encoder_variable_selection.flattened_grn.gate_norm.add_norm.norm.weight f4 [8]
0	0x3f959b9b	1.1688112
1	0x3f54c8d3	0.83118933
2	0x3f54c8d0	0.83118916
3	0x3f54c989	0.8312002
4	0x3f54c8cc	0.8311889
5	0x3f54c8ec	0.8311908
6	0x3f959b6a	1.1688054
7	0x3f54c914	0.8311932

encoder_variable_selection.flattened_grn.gate_norm.add_norm.norm.bias f4 [8]
0	0x3e2cdcdb	0.16881125
1	0xbe2cdcbb	-0.16881077
2	0xbe2cdcb9	-0.16881074
3	0xbe2cdb71	-0.16880585
4	0xbe2cdcce	-0.16881105
5	0x3e2cdbfb	0.16880791
6	0xbe2cdc2f	-0.16880868
7	0x3e2cdc22	0.16880849

encoder_variable_selection.single_variable_grns.time_idx.resample_norm.mask f4 [16]
0	0x3e2cdc69	0.16880955
1	0xbe2cdc70	-0.16880965
2	0x3e2cdacf	0.16880344
3	0x3e2cd765	0.16879041
4	0x3e2cdbd3	0.16880731
5	0x3e2cdc91	0.16881014
6	0x3e2cdc4a	0.16880909
7	0x3e2cdc8c	0.16881007
8	0x3e2cdc23	0.1688085
9	0xbe2cdc28	-0.16880858
10	0x3e2cda07	0.16880046
11	0xbe2cdcba	-0.16881076
12	0x3e2cdc18	0.16880834
13	0xbe2cdcbc	-0.16881078
14	0xbe2cdc0f	-0.1688082
15	0x3e2cdc85	0.16880997

encoder_variable_selection.single_variable_grns.time_idx.resample_norm.norm.weight f4 [16]
0	0x3f54c8ff	0.83119196
1	0x3f54c8ea	0.8311907
2	0x3f959b8b	1.1688093
3	0x3f959b92	1.1688101
4	0x3f959b99	1.168811
5	0x3f54c8e8	0.8311906
6	0x3f54ccae	0.83124816
7	0x3f54c947	0.83119625
8	0x3f54c8eb	0.83119076
9	0x3f54c8ce	0.83118904
10	0x3f54c8f2	0.8311912
11	0x3f54c92a	0.8311945
12	0x3f959b50	1.1688023
13	0x3f54c8cf	0.8311891
14	0x3f54c8e0	0.8311901
15	0x3f959b88	1.1688089

encoder_variable_selection.single_variable_grns.time_idx.resample_norm.norm.bias f4 [16]
0	0xbe2cdaff	-0.16880415
1	0xbe2cdc6e	-0.16880962
2	0x3e2c64d1	0.16835333
3	0xbe2cdc84	-0.16880995
4	0xbe2cdcc0	-0.16881084
5	0x3e2cdcc1	0.16881086
6	0x3e2cdb78	0.16880596
7	0x3e2cdc9d	0.16881032
8	0x3e2cdca9	0.1688105
9	0x3e2cdcbe	0.16881081
10	0x3e2cdc49	0.16880907
11	0xbe2cdcc5	-0.16881092
12	0x3e2cdb63	0.16880564
13	0xbe2cdcbc	-0.16881078
14	0xbe2cdc31	-0.16880871
15	0x3e2cdc9f	0.16881035

encoder_variable_selection.single_variable_grns.time_idx.fc1.weight f4 [8, 8]
0	0x3e9ee8f6	0.3103711
1	0x3ebaed13	0.36508998
2	0x3f0319d9	0.51211315
3	0xbe3a9d78	-0.18224132
4	0xbf2602aa	-0.64847815
5	0xbe293408	-0.16523755
6	0xbfb911d2	-1.4458563
7	0xbe8d8aa7	-0.27644846
8	0x3d505861	0.050865535
9	0x3f0cc43a	0.5498692
10	0x3dda6620	0.1066401
11	0x3f6ab54f	0.91682905
12	0x3ea1cf33	0.31603393
13	0x3e983f1d	0.29735652
14	0x3f97508d	1.1821457
15	0xbd2a96ee	-0.041647844
16	0xbee9c9b8	-0.45661712
17	0x3fc33994	1.5251946
18	0xbf7299b9	-0.9476581
19	0x3f52d8d7	0.8236212
20	0x3f04bc7d	0.5185011
21	0xbe480e70	-0.19536757
22	0x3e93b472	0.28848606
23	0x3e0c7178	0.1371516
24	0x3ef39622	0.4757548
25	0x3edf0526	0.43558615
26	0x3ddacf7b	0.10684105
27	0xbf2bd6eb	-0.67124814
28	0xbd3b680b	-0.04575352
29	0x3f002f32	0.50072014
30	0xbccf3961	-0.025295915
31	0x3c947f74	0.01812718
32	0xbf10ad56	-0.5651449
33	0x3df59f5c	0.11993286
34	0xbee01a6b	-0.43770155
35	0xbe621dde	-0.22081706
36	0x3e90349f	0.28165147
37	0x3e2cd9b1	0.16879918
38	0x3f2b74d6	0.6697515
39	0x3f036619	0.51327664
40	0xbf241a1a	-0.6410233
41	0x3c8e1771	0.017345162
42	0xbf8fbbbc	-1.1229167
43	0x3d48523e	0.048906557
44	0x3eefe0d2	0.46851212
45	0xbfb03a0c	-1.3767715
46	0x3ec5500e	0.3853764
47	0xbf0f9325	-0.560839
48	0x3f370b7c	0.715019
49	0x3f3fcee1	0.7492505
50	0xbf030061	-0.51172453
51	0x3eee475d	0.4653882
52	0x3e14a09e	0.14514396
53	0x3e9dee7f	0.3084602
54	0xbe9555ea	-0.2916711
55	0x3e8a9e3b	0.27073845
56	0xbfbcb74b	-1.4743437
57	0xbf053b2b	-0.5204341
58	0xbe18bbce	-0.14915392
59	0x3ee5019e	0.44727796
60	0x3ed0b365	0.40761867
61	0x3f40995b	0.75234
62	0xbf85a510	-1.0440998
63	0x3e588744	0.2114535

encoder_variable_selection.single_variable_grns.time_idx.fc1.bias f4 [8]
0	0xbe2cdc01	-0.168808
1	0x3e2cdcb3	0.16881065
2	0x3e2cdae1	0.1688037
3	0xbe2cdc54	-0.16880924
4	0x3e2cdba0	0.16880655
5	0xbe2cd10b	-0.16876619
6	0x3e2cdcb4	0.16881067
7	0xbe2cd8af	-0.16879533

encoder_variable_selection.single_variable_grns.time_idx.fc2.weight f4 [8, 8]
0	0x3ea32822	0.31866556
1	0xbf44ab47	-0.7682385
2	0x3f54c8a9	0.83118683
3	0xbf3804df	-0.7188243
4	0xbf89b2ed	-1.0757729
5	0xbe55f4b0	-0.20894122
6	0xbecf2f5a	-0.40465814
7	0x3eb7aadd	0.35872546
8	0x3e7cea50	0.24698758
9	0xbf014c8f	-0.50507444
10	0xbde25987	-0.11052232
11	0x3e9714e8	0.29508138
12	0xbf05233e	-0.520069
13	0xbfbb559e	-1.4635503
14	0x3f952f32	1.1655028
15	0xbf845e96	-1.0341365
16	0x3f86fcfe	1.0545957
17	0x3f0bbcf1	0.54585177
18	0x3f59fc28	0.85150385
19	0xbe23599a	-0.15952149
20	0x3e5dfb4d	0.21677895
21	0xbf034751	-0.51280695
22	0xbefe7832	-0.49701077
23	0xbee5be0a	-0.4487155
24	0x3eb82b78	0.35970664
25	0xbf85d07c	-1.0454249
26	0x3eae80c4	0.34082615
27	0x3edc1a50	0.42988825
28	0xbd05584f	-0.03255492
29	0x3f31e50f	0.6949014
30	0xbf356af7	-0.7086634
31	0xbe8d5300	-0.27602386
32	0xbfa209e7	-1.2659272
33	0x3f5a8214	0.85354733
34	0xbd6ce476	-0.057835065
35	0xbf1d8ac8	-0.6153989
36	0x3e80c2f0	0.25148726
37	0x3d96bc67	0.07360154
38	0x3f0dbcdb	0.55366296
39	0xbddbf3dc	-0.10739872
40	0x3eea4f49	0.45763615
41	0xbf8c5be6	-1.0965545
42	0xbe9247f6	-0.28570527
43	0xbd21800e	-0.039428763
44	0xbd77dd66	-0.060513876
45	0xbe9396e6	-0.28826064
46	0xbf1ea76e	-0.6197423
47	0x3ec428d1	0.3831239
48	0xbddaef8a	-0.1069022
49	0x3ee4b11f	0.44666383
50	0x3efd055e	0.49418157
51	0x3f16bff8	0.5888667
52	0xbf4df49c	-0.8045137
53	0xbfbb570d	-1.4635941
54	0x3eb4732e	0.35244125
55	0xbe0eee6b	-0.13958137
56	0xbec0af48	-0.3763373
57	0xbebbd76c	-0.3668779
58	0x3e571301	0.21003343
59	0x3dbd6ae8	0.092489064
60	0xbe688095	-0.227053
61	0xbf4d0b0f	-0.80095
62	0x3bfdff42	0.0077513764
63	0xbf770035	-0.9648469

encoder_variable_selection.single_variable_grns.time_idx.fc2.bias f4 [8]
0	0xbe2cdbb8	-0.16880691
1	0x3e2cdc12	0.16880825
2	0xbe2cdbff	-0.16880797
3	0xbe2cdc80	-0.16880989
4	0x3e2cdb37	0.16880499
5	0xbe2cdca7	-0.16881047
6	0x3e2cd8f2	0.16879633
7	0x3e2cda19	0.16880073

encoder_variable_selection.single_variable_grns.time_idx.gate_norm.glu.fc.weight f4 [32, 8]
0	0x3dc6176b	0.096724354
1	0x3dd68a7c	0.104756325
2	0x3cf6a75c	0.0301091
3	0x3e221629	0.15828766
4	0xbe9363dc	-0.28787124
5	0x3efeb95f	0.49750802
6	0xbea83c98	-0.3285873
7	0xbb534351	-0.0032236169
8	0x3c49945e	0.01230344
9	0xbd87cc24	-0.066307336
10	0x3d00ebbf	0.031474825
11	0x3e872a9f	0.26399705
12	0xbedf74a2	-0.4364367
13	0x3ee5b45a	0.4486416
14	0x3dad071d	0.084486224
15	0x3d57e3c4	0.05270745
16	0x3d31f9a8	0.04345098
17	0x3e652a3c	0.22379392
18	0x3e91e09a	0.2849167
19	0x3e60db76	0.21958718
20	0xbe805c11	-0.2507024
21	0xbe18c4ba	-0.14918795
22	0xbe429b13	-0.19004469
23	0x3db701d7	0.08935898
24	0x3e80e429	0.25174072
25	0xbecabadc	-0.39595687
26	0xbcde8595	-0.027163306
27	0xbde6361b	-0.112407885
28	0x3e45ef9b	0.19329683
29	0x3ef6dd6c	0.48215806
30	0xbd2f1c80	-0.04275179
31	0x3e7a6c51	0.24455382
32	0x3d6fe778	0.058570355
33	0x3e14f194	0.1454528
34	0xbe865fe2	-0.26245028
35	0x3f0a6b9a	0.54070437
36	0xbe90bfe4	-0.282714
37	0x3ef59c86	0.4797098
38	0xbdb34ca0	-0.087548494
39	0x3d9bfaec	0.07616219
40	0xbe0c5724	-0.13705117
41	0x3d0776c9	0.033072267
42	0x3f04fb52	0.51945984
43	0xbf098609	-0.53720146
44	0xbb35e0a4	-0.0027752304
45	0xbea2a04a	-0.31762916
46	0xbc5eabbf	-0.013590752
47	0x3f0a97af	0.541377
48	0xbe6a1a1a	-0.2286152
49	0xbe3aadcf	-0.18230365
50	0x3ed17d92	0.40916115
51	0x3ba5b7a6	0.005057293
52	0xbea82931	-0.32843927
53	0xbecc9160	-0.39954662
54	0x3df93c96	0.12169759
55	0xbdf22c95	-0.118249096
56	0xbe1a3c4d	-0.15062065
57	0x3eb293a5	0.3487827
58	0x3e286432	0.16444471
59	0x3e0d11d7	0.13776337
60	0x3e21d266	0.15802917
61	0xbe96f7ae	-0.2948584
62	0x3efb000a	0.49023467
63	0x3e7f5572	0.24934939
64	0xbec7a7b0	-0.38995123
65	0x3edc7b88	0.43062997
66	0x3eae3376	0.34023637
67	0xbe620550	-0.22072339
68	0x3e01f05a	0.12689343
69	0xbf0d4a40	-0.5519142
70	0xbe2cd108	-0.16876614
71	0x3ed65602	0.41862494
72	0xbd8c7f8a	-0.06860264
73	0xbce5f4fc	-0.02807092
74	0x3d4c517b	0.049882393
75	0xbe703dc8	-0.23461068
76	0x3ea6f209	0.32606533
77	0xbec45544	-0.38346303
78	0x3f0d3069	0.55151993
79	0x3f01f999	0.5077148
80	0xbe23bf61	-0.15990974
81	0xbdf78b83	-0.120871566
82	0x3eb91a5d	0.36152926
83	0xbeaaec1b	-0.3338326
84	0x3d868a47	0.06569343
85	0xbd5daeb1	-0.054121677
86	0x3ef0efc2	0.4705792
87	0xbde25d28	-0.110529244
88	0x3e8a77fc	0.27044666
89	0xbf009ed4	-0.5024235
90	0x3e3418ef	0.17587636
91	0x3e81ce55	0.2535273
92	0xbecba76f	-0.3977618
93	0x3eb6d6d2	0.3571077
94	0xbe0547cf	-0.13015674
95	0x3cd07d3b	0.02545034
96	0xbe21c72a	-0.15798631
97	0xbe986f9b	-0.29772648
98	0x3e59dd96	0.21275935
99	0xbe887092	-0.26648384
100	0x3e9ce39c	0.30642402
101	0xbee51388	-0.44741464
102	0x3e86d7df	0.26336572
103	0x3e22d113	0.15900068
104	0x3e9b041f	0.30276582
105	0xbd4bdb8a	-0.049769916
106	0xbe2f4131	-0.17114712
107	0x3e23edbf	0.16008662
108	0xbe202b4a	-0.15641513
109	0xbe4a3e35	-0.19750293
110	0xbea72916	-0.32648534
111	0xbec15601	-0.37760928
112	0x3e87738d	0.26455346
113	0xbedf7af3	-0.4364849
114	0xbefbdfcc	-0.4919418
115	0x3d81cdf9	0.06338114
116	0xbe8c21cf	-0.27369544
117	0xbe42df66	-0.19030532
118	0xbe87caad	-0.26521817
119	0x3c870757	0.016482992
120	0xbe825d11	-0.2546163
121	0x3ecc083a	0.39850026
122	0xbe4efe5a	-0.20214215
123	0xbd0ae188	-0.03390649
124	0xbe20566b	-0.15657966
125	0xbea517fc	-0.3224486
126	0x3ec1237a	0.3772238
127	0x3d6583ea	0.056034006
128	0xbdf52c69	-0.11971361
129	0x3d849774	0.064742
130	0x3f012480	0.5044632
131	0xbedebf1d	-0.43505183
132	0xbd8f3bc2	-0.0699382
133	0x3e1cab33	0.15299682
134	0x3e983471	0.2972751
135	0xbe44befd	-0.19213481
136	0x3e9ea5c4	0.30985844
137	0xbc9f4ef1	-0.019446822
138	0xbe734600	-0.23757172
139	0x3e0e98fb	0.13925545
140	0xbe846a9f	-0.25862595
141	0x3e41bf7f	0.18920706
142	0xbe61c543	-0.22047906
143	0xbec30807	-0.38092062
144	0xbc30897d	-0.010774967
145	0xbdc77d51	-0.09740699
146	0xbe54c6d7	-0.20778976
147	0xbed1573a	-0.4088686
148	0x3e94e861	0.2908354
149	0x3d34780d	0.0440598
150	0x3d95fbfa	0.07323451
151	0x3eaa66a7	0.33281443
152	0x3ee42dba	0.44566137
153	0x3e372857	0.17886482
154	0xbd6cd55d	-0.057820667
155	0x3e6caf21	0.23113681
156	0x3d922322	0.07135607
157	0x3ef200ce	0.4726624
158	0xbe90845e	-0.28225988
159	0xbf0a0006	-0.53906286
160	0xbeaa833e	-0.33303255
161	0xbb35d04c	-0.0027742563
162	0x3e1e6f32	0.15472105
163	0xbef2089f	-0.47272202
164	0x3df9c701	0.1219616
165	0xbe9cc925	-0.3062221
166	0x3e15f41c	0.14643902
167	0xbc8b86a8	-0.017031983
168	0xbef4d13b	-0.4781588
169	0x3e96529a	0.29359895
170	0x3e2ed67c	0.17074007
171	0xbe1baf1f	-0.15203522
172	0x3e60780a	0.21920791
173	0x3e19cbfb	0.15019219
174	0x3ca4199e	0.020031746
175	0x3ec4a33e	0.38405794
176	0x3d910165	0.07080344
177	0xbeb84720	-0.35991764
178	0xbec859f3	-0.39131126
179	0x3da9e0b6	0.08294813
180	0xbe8fa95a	-0.28058892
181	0xbdce453b	-0.100717984
182	0x3e36ae22	0.17839864
183	0x3d9700ac	0.07373175
184	0xbea49d98	-0.32151484
185	0x3e7cbfab	0.2468249
186	0x3e516800	0.20449829
187	0xbe281fc7	-0.16418372
188	0xbe10f5cb	-0.14156263
189	0xbe978da6	-0.29600257
190	0x3e48594b	0.19565313
191	0x3e9a6edb	0.301627
192	0xbef9bd14	-0.48777068
193	0x3ea8b376	0.32949418
194	0xbe1d2438	-0.15345848
195	0xbed1185e	-0.40838903
196	0x3eec2bce	0.4612717
197	0xbdf37957	-0.11888378
198	0x3f07b08c	0.53003764
199	0x3d938754	0.07203546
200	0x3e29c5c7	0.16579352
201	0x3ed4e81a	0.4158333
202	0xbcb2f7b8	-0.021846637
203	0x3e3f321f	0.18671463
204	0x3d45e871	0.048317377
205	0xbe185f42	-0.14880088
206	0x3ebe21ce	0.37135166
207	0xbd11723b	-0.03550933
208	0x3cf079fc	0.029355042
209	0x3e7c3e58	0.24633157
210	0x3e593c56	0.21214423
211	0x3d586448	0.05283001
212	0x3e5b82f1	0.21436669
213	0x3d4d5002	0.05012513
214	0xbe53857a	-0.20656386
215	0xbcdc0518	-0.026857898
216	0xbd813dac	-0.06310591
217	0xbd6683bd	-0.05627798
218	0x3d6ad015	0.05732735
219	0xbebf6ce8	-0.37387776
220	0x3f03b2c5	0.51444656
221	0xbe496625	-0.19667871
222	0x3ec3a997	0.38215324
223	0x3e2c766a	0.16842046
224	0xbe41b28f	-0.18915771
225	0x3e503ae3	0.20334964
226	0xbd9d8976	-0.07692234
227	0xbf0bbe73	-0.5458748
228	0x3ee1a0ee	0.44068092
229	0xbf03439c	-0.5127504
230	0xbdb1569a	-0.08659096
231	0x3ed19ea4	0.40941346
232	0x3ef923cb	0.4866012
233	0xbf04b947	-0.5184521
234	0xbede8dcd	-0.4346756
235	0xbe4cecff	-0.20012282
236	0xbcb4724f	-0.022027163
237	0xbe251f76	-0.16125283
238	0xbf08c1fe	-0.5342101
239	0x3e037981	0.12839319
240	0xbe080c69	-0.13285984
241	0xbf011ceb	-0.5043475
242	0xbea3186f	-0.3185458
243	0xbd8e1c0f	-0.069389455
244	0xbe2ed8ee	-0.1707494
245	0x3e3f2bef	0.18669103
246	0xbe17868a	-0.14797416
247	0x3c215ac5	0.009848301
248	0x3d597b2d	0.053095985
249	0xbddea446	-0.108711764
250	0xbed230cb	-0.4105285
251	0x3e628a1c	0.22122997
252	0xbddeced5	-0.10879294
253	0xbe3357e6	-0.17514
254	0xbeb59144	-0.3546239
255	0x3cf33f4c	0.029693268

encoder_variable_selection.single_variable_grns.time_idx.gate_norm.glu.fc.bias f4 [32]
0	0xbe2cd71f	-0.16878937
1	0xbe2cdbcb	-0.1688072
2	0x3e2c5993	0.16831045
3	0xbe2cdbaa	-0.1688067
4	0xbe2cdcae	-0.16881058
5	0x3e2cdc90	0.16881013
6	0x3e2cdaff	0.16880415
7	0x3e2cdc6d	0.16880961
8	0x3e2cdca0	0.16881037
9	0x3e2cdc6f	0.16880964
10	0x3e2cd88d	0.16879483
11	0xbe2cdcb2	-0.16881064
12	0x3e2cdb74	0.1688059
13	0xbe2cdc6b	-0.16880958
14	0xbe2cdaba	-0.16880313
15	0x3e2cdc5a	0.16880932
16	0x3e2cd6a4	0.16878754
17	0xbe2cd860	-0.16879416
18	0xbe2caefc	-0.16863626
19	0xbe2ccb37	-0.16874395
20	0x3e2cdc1f	0.16880845
21	0x3e2cdc20	0.16880846
22	0xbe2cd3c8	-0.16877663
23	0x3e2cdb2f	0.16880487
24	0x3e2cdb2e	0.16880485
25	0x3e2cdc2c	0.16880864
26	0x3e2cd49f	0.16877984
27	0x3e2cdba6	0.16880664
28	0x3e2cd8aa	0.16879526
29	0xbe2cd97d	-0.1687984
30	0x3e2bf71c	0.16793483
31	0xbe2cd997	-0.16879879

encoder_variable_selection.single_variable_grns.time_idx.gate_norm.add_norm.norm.weight f4 [16]
0	0x3f959b83	1.1688083
1	0x3f54c959	0.8311973
2	0x3f959b8f	1.1688098
3	0x3f959b92	1.1688101
4	0x3f959b9a	1.1688111
5	0x3f959592	1.168627
6	0x3f959b3b	1.1687998
7	0x3f959b80	1.168808
8	0x3f959b93	1.1688102
9	0x3f54c8d8	0.83118963
10	0x3f54c92f	0.8311948
11	0x3f959b8e	1.1688097
12	0x3f959b97	1.1688107
13	0x3f54c8d0	0.83118916
14	0x3f54c8e5	0.8311904
15	0x3f959b90	1.1688099

encoder_variable_selection.single_variable_grns.time_idx.gate_norm.add_norm.norm.bias f4 [16]
0	0x3e2cdbc9	0.16880716
1	0xbe2cdaba	-0.16880313
2	0xbe2cdb91	-0.16880633
3	0xbe2cdc94	-0.16881019
4	0xbe2cdcc9	-0.16881098
5	0x3e2cdcc7	0.16881095
6	0x3e2cdc1f	0.16880845
7	0x3e2cdca0	0.16881037
8	0x3e2cdca0	0.16881037
9	0x3e2cdca8	0.16881049
10	0x3e2cda29	0.16880096
11	0xbe2cdcc5	-0.16881092
12	0x3e2cdc9e	0.16881034
13	0xbe2cdcae	-0.16881058
14	0xbe2cdc70	-0.16880965
15	0x3e2cdc85	0.16880997

encoder_variable_selection.single_variable_grns.T2M.resample_norm.mask f4 [16]
0	0x3e2cdacc	0.1688034
1	0xbe2cd515	-0.1687816
2	0x3e2ccca4	0.16874939
3	0xbe2cdaed	-0.16880389
4	0xbe2cda6a	-0.16880193
5	0x3e2cdc37	0.1688088
6	0xbe2cd9ef	-0.1688001
7	0x3e2cce29	0.16875519
8	0xbe2cda15	-0.16880067
9	0xbe2cd72f	-0.16878961
10	0xbe2c619f	-0.16834114
11	0xbe2cdb38	-0.168805
12	0x3e2cdbaf	0.16880678
13	0xbe2cdaf8	-0.16880405
14	0xbe2cdb10	-0.1688044
15	0x3e2cdb6e	0.16880581

encoder_variable_selection.single_variable_grns.T2M.resample_norm.norm.weight f4 [16]
0	0x3f959b8d	1.1688095
1	0x3f54c9c3	0.83120364
2	0x3f959b14	1.1687951
3	0x3f54cc46	0.83124197
4	0x3f54ca5f	0.83121294
5	0x3f959b89	1.168809
6	0x3f54ca0a	0.8312079
7	0x3f959b52	1.1688025
8	0x3f54c8fc	0.8311918
9	0x3f54c94f	0.8311967
10	0x3f54db3f	0.83147043
11	0x3f54c91e	0.8311938
12	0x3f959b7d	1.1688076
13	0x3f54c93b	0.83119553
14	0x3f54c931	0.83119494
15	0x3f959b78	1.168807

encoder_variable_selection.single_variable_grns.T2M.resample_norm.norm.bias f4 [16]
0	0xbe2cdbce	-0.16880724
1	0x3e2cd911	0.1687968
2	0xbe2cd53c	-0.16878217
3	0xbe2cdc27	-0.16880856
4	0xbe2cdc23	-0.1688085
5	0x3e2cdc84	0.16880995
6	0xbe2cdb38	-0.168805
7	0xbe2cc631	-0.16872479
8	0x3e2cdbdf	0.16880749
9	0x3e2cda49	0.16880144
10	0x3e2cd347	0.16877471
11	0xbe2cdbcb	-0.1688072
12	0x3e2cdc18	0.16880834
13	0xbe2cdb7d	-0.16880603
14	0xbe2cdb67	-0.1688057
15	0x3e2cdbff	0.16880797

encoder_variable_selection.single_variable_grns.T2M.fc1.weight f4 [8, 8]
0	0xbf281b96	-0.6566709
1	0x3f32cb0b	0.6984107
2	0xbe869c72	-0.26291233
3	0x3f84cb4d	1.0374542
4	0x3e162f09	0.1466638
5	0xbd70e7cc	-0.05881481
6	0x3d59708b	0.053085845
7	0x3ec1e8b0	0.3787284
8	0x3f4fd1b1	0.8117934
9	0x3facdf16	1.350558
10	0x3f318cad	0.6935528
11	0x3e094c47	0.13408004
12	0x3f1d8b8c	0.61541057
13	0x3ebb5279	0.3658636
14	0x3ef2454c	0.47318494
15	0xbedfc886	-0.43707675
16	0xbe3b06c4	-0.182643
17	0x3f8ee29b	1.1162905
18	0xbdd06243	-0.10174992
19	0xbf368c9a	-0.7130829
20	0xbf2a7c8e	-0.66596305
21	0x3e369815	0.17831452
22	0x3e38929b	0.18024676
23	0x3e313ca5	0.1730829
24	0xbe89ad17	-0.2688987
25	0xbf673eea	-0.90330374
26	0xbf7194a3	-0.94367427
27	0xbee8fac4	-0.4550382
28	0xbe881852	-0.26581055
29	0xbe9275fb	-0.28605637
30	0x3e464923	0.19363837
31	0x3e270be9	0.16313137
32	0x3e18ed89	0.14934362
33	0x3f3edb2e	0.7455319
34	0xbf89eb89	-1.0775005
35	0xbf0dfbb9	-0.55462223
36	0xbf6a111b	-0.9143235
37	0xbf2eebbe	-0.68328464
38	0xbeabf75f	-0.33587167
39	0xbf287243	-0.6579935
40	0x3ef513ca	0.4786666
41	0x3f119b36	0.5687746
42	0x3f281081	0.6565018
43	0xbe8a2521	-0.26981452
44	0xbf408178	-0.75197554
45	0x3dc9ed04	0.0985966
46	0xbd809af1	-0.06279553
47	0xbe75f353	-0.24018602
48	0xbea6e5a9	-0.32597092
49	0xbf384210	-0.71975803
50	0x3f2eea6e	0.6832646
51	0xbe25179b	-0.16122286
52	0xbe5dd913	-0.21664838
53	0xbe3f0e44	-0.18657786
54	0xbdedf59a	-0.116191104
55	0x3df030b1	0.11728037
56	0xbe6c4c3c	-0.23075956
57	0xbd1d76b8	-0.038443297
58	0x3e1d6121	0.15369083
59	0x3d8b0742	0.06788494
60	0x3f1b732d	0.6072262
61	0x3eba52eb	0.36391386
62	0xbe3c15ba	-0.18367663
63	0xbe6476ea	-0.22310987

encoder_variable_selection.single_variable_grns.T2M.fc1.bias f4 [8]
0	0x3e2cca4f	0.1687405
1	0xbe2ccf32	-0.16875914
2	0x3e2cd879	0.16879453
3	0xbe2cdbc9	-0.16880716
4	0xbe2cd9c7	-0.1687995
5	0xbe2cdb1a	-0.16880456
6	0xbe2ccc1c	-0.16874737
7	0xbe2cd4eb	-0.16878097

encoder_variable_selection.single_variable_grns.T2M.fc2.weight f4 [8, 8]
0	0xbeb9a8fb	-0.36261734
1	0xbe31d70f	-0.17367195
2	0x3ee4e1c0	0.44703484
3	0xbd262472	-0.0405621
4	0xbe875f9c	-0.26440132
5	0xbeca729e	-0.3954057
6	0xbee84404	-0.45364392
7	0xbe21ebac	-0.15812558
8	0xbe9edb17	-0.31026527
9	0x3fa42167	1.2822694
10	0xbe871ecc	-0.26390684
11	0xbf48de63	-0.78464335
12	0x3e9d5ef6	0.30736512
13	0x3dd9cb00	0.10634422
14	0x3f1897e4	0.59606767
15	0x3e717e98	0.23583448
16	0x3f01e366	0.5073761
17	0x3e3751c5	0.17902286
18	0x3e07a354	0.13245898
19	0x3f369731	0.7132445
20	0xbf169a9e	-0.5882968
21	0x3f05cbf3	0.52264327
22	0x3ef77990	0.48334932
23	0x3eaf93f0	0.34292555
24	0x3e1584db	0.14601462
25	0xbd7bcf56	-0.061477028
26	0xbea2a5b3	-0.31767043
27	0x3ef42a4c	0.4768852
28	0xbe2b4273	-0.16724567
29	0x3e8376b3	0.25676498
30	0xbf430138	-0.76173735
31	0x3eeb3c1d	0.459443
32	0x3e90a70d	0.2825245
33	0x3f395963	0.7240202
34	0xbe8da25c	-0.27662933
35	0x3bac95d0	0.0052668825
36	0xbef244e8	-0.47318196
37	0xbd1cf196	-0.03831633
38	0xbda74f4f	-0.08169424
39	0x3f2afc0e	0.66790855
40	0x3f6f1dbd	0.9340475
41	0x3c985b42	0.018598203
42	0xbee12864	-0.43976128
43	0x3de4db27	0.111746125
44	0xbeb2738f	-0.3485379
45	0x3f00b76b	0.50279874
46	0x3e43fbb1	0.19138981
47	0x3d2127d1	0.039344613
48	0xbf03ba2f	-0.5145597
49	0xbf8b4c0e	-1.0882585
50	0xbf1e4279	-0.6182018
51	0x3d85f009	0.06539924
52	0xbeec2005	-0.4611818
53	0x3d150441	0.03638101
54	0x3f209b00	0.6273651
55	0x3f6e66c5	0.93125564
56	0xbf363e00	-0.71188354
57	0x3f018d53	0.5060627
58	0x3d2e02ce	0.042483144
59	0x3f2c9808	0.6741948
60	0x3f09fbf2	0.53900063
61	0x3e440a46	0.19144544
62	0x3fa6dd3f	1.3036269
63	0xbf219273	-0.6311409

encoder_variable_selection.single_variable_grns.T2M.fc2.bias f4 [8]
0	0x3e2cdb82	0.1688061
1	0x3e2cdacf	0.16880344
2	0x3e2cdba7	0.16880666
3	0xbe2cdbcc	-0.16880721
4	0x3e2cdb2b	0.16880481
5	0x3e2cdbaa	0.1688067
6	0x3e2cda01	0.16880037
7	0xbe2cda7e	-0.16880223

encoder_variable_selection.single_variable_grns.T2M.gate_norm.glu.fc.weight f4 [32, 8]
0	0xbd469de2	-0.048490413
1	0xbef352a1	-0.47523978
2	0xbef492d4	-0.4776827
3	0xbe38671a	-0.1800808
4	0xbe8db1df	-0.27674767
5	0xbd84bf52	-0.06481804
6	0x3f03edb7	0.515346
7	0xbe00ce1e	-0.12578627
8	0x3d91ca79	0.07118697
9	0x3db8c6f3	0.090223216
10	0x3eb630a6	0.3558399
11	0x3e824068	0.25439763
12	0xbe64b08d	-0.22332974
13	0x3e979ced	0.29611912
14	0x3edff1f3	0.4373928
15	0x3e813f61	0.25243667
16	0x3f0953cd	0.53643495
17	0xbdbad0dc	-0.09121868
18	0x3dea4ac0	0.11440039
19	0xbe3ce4e6	-0.18446693
20	0x3ecbeec5	0.39830604
21	0x3da2aeab	0.079434715
22	0x3e1e11ce	0.1543648
23	0xbec34635	-0.381395
24	0x3c17b4e8	0.00925944
25	0xbdc63fd6	-0.096801445
26	0x3d93a835	0.07209817
27	0xbdd379dc	-0.10325977
28	0x3d9c5406	0.07633214
29	0xbe99ad5a	-0.3001507
30	0x3e67c518	0.22633779
31	0xbdd89e14	-0.10577026
32	0x3e96ecf3	0.29477653
33	0x3eafc806	0.34332293
34	0xbec7fefe	-0.3906173
35	0xbdd37332	-0.10324706
36	0xbd74cf48	-0.05976799
37	0xbe4e6286	-0.20154771
38	0xbf0a6a47	-0.54068416
39	0x3e2ff95b	0.17184965
40	0x3cd861ec	0.02641388
41	0x3e81cc61	0.2535124
42	0x3efdf81b	0.49603352
43	0xbe483460	-0.1955123
44	0x3e9b60ba	0.30347234
45	0x3ea9af15	0.3314139
46	0x3c5053b3	0.012715268
47	0x3ea480e0	0.32129574
48	0x3debad58	0.11507672
49	0xbee2cb3c	-0.4429568
50	0xbedd5320	-0.43227482
51	0x3d9aa487	0.07550912
52	0xbe8305e1	-0.25590423
53	0xbd2f177a	-0.042747
54	0xbe587b9f	-0.21140908
55	0xbdd04e19	-0.10171146
56	0xbee118d0	-0.43964243
57	0xbea95608	-0.3307345
58	0x3ef1c84a	0.4722312
59	0xbda60224	-0.08105877
60	0xbe4a222b	-0.19739597
61	0xbea7180e	-0.3263554
62	0xbd956b0f	-0.072958104
63	0xbe4f5247	-0.2024623
64	0x3e1775e8	0.14791071
65	0x3d90ed31	0.07076491
66	0x3e9caf60	0.3060255
67	0xbe08d043	-0.13360696
68	0x3e394645	0.18093212
69	0x3c6dc53f	0.014512359
70	0x3f02943b	0.5100743
71	0x3e0d0aea	0.13773695
72	0xbe9165f3	-0.28398094
73	0xbde72312	-0.11285986
74	0xbb1b8215	-0.0023728658
75	0x3d6cd52c	0.057820484
76	0xbd632601	-0.055456165
77	0x3c18cfb8	0.009326868
78	0xbee5ac93	-0.44858226
79	0x3d3d453c	0.046208605
80	0x3ca700ff	0.020386217
81	0xbef27e33	-0.47361907
82	0xbda6d45e	-0.081459746
83	0x3f015bc5	0.50530654
84	0xbd2f326b	-0.04277269
85	0x3b74624b	0.0037290032
86	0x3f0d2257	0.55130523
87	0x3d510eaf	0.051039394
88	0xbd329943	-0.043603193
89	0xbdef1aaf	-0.11675011
90	0xbf09fdfa	-0.5390316
91	0x3e2c7eac	0.16845196
92	0xbecd3b74	-0.40084422
93	0xbef86aca	-0.48518974
94	0x3f0b4881	0.5440751
95	0xbd596694	-0.05307634
96	0xbf0df4d4	-0.55451703
97	0x3e12e6ea	0.14345899
98	0x3de22c72	0.110436335
99	0x3f0d163f	0.5511207
100	0x3eb52c57	0.3538539
101	0x3ef0f5e9	0.47062615
102	0x3dd86de5	0.10567836
103	0xbdcae79a	-0.09907456
104	0xbe39738b	-0.18110482
105	0x3cc33b50	0.023831993
106	0xbf0c8a31	-0.54898363
107	0x3d1f20ec	0.038849756
108	0xbf0a99e7	-0.54141086
109	0xbe231b7f	-0.15928458
110	0x3dc0dfec	0.0941771
111	0x3e34b07b	0.17645447
112	0xbe55672f	-0.20840143
113	0xbed1626b	-0.408954
114	0xbdd18d14	-0.10231987
115	0xbe0c5eef	-0.1370809
116	0x3e124ec4	0.14287859
117	0xbe854380	-0.2602806
118	0xbddfffe0	-0.10937476
119	0x3d3c4a6a	0.045969404
120	0x3e3148d0	0.17312932
121	0x3ef3cfca	0.47619468
122	0xbcc7a623	-0.024371212
123	0xbdf072aa	-0.117406204
124	0xbd1a79f6	-0.037713967
125	0x3ed20b0e	0.4102406
126	0xbe92fc63	-0.2870818
127	0x3f0136ec	0.5047443
128	0xbe6e9221	-0.23297931
129	0x3e9fa8af	0.31183383
130	0x3e5f339a	0.21797028
131	0x3e0ffc50	0.14061093
132	0x3e82a5b3	0.25517043
133	0x3c66eb67	0.01409421
134	0xbece3648	-0.40275788
135	0x3efb76c6	0.49114054
136	0xbe344e48	-0.17607987
137	0xbf0058f7	-0.5013575
138	0x3eb6f835	0.35736242
139	0xbd522803	-0.05130769
140	0x3d9dc7ed	0.077041484
141	0x3c615086	0.013752108
142	0x3b9c622f	0.0047724466
143	0x3e3f12d6	0.18659529
144	0x3e4292a9	0.19001259
145	0xbee916be	-0.45525163
146	0x3e484e72	0.19561175
147	0x3ef49758	0.47771716
148	0x3e16d306	0.14728937
149	0x3da69b2a	0.08135064
150	0xbe3a6999	-0.18204345
151	0x3e7c7c87	0.24656878
152	0xbe2b9a1e	-0.1675801
153	0x3e450ff6	0.1924437
154	0x3e4e8f2e	0.20171806
155	0xbe9f5d06	-0.3112566
156	0x3e28b680	0.16475868
157	0x3dd1472c	0.10218653
158	0x3dbd4da3	0.09243324
159	0xbec56175	-0.38550916
160	0x3e791ae6	0.24326667
161	0xbd607a45	-0.054804105
162	0xbee309d6	-0.44343442
163	0xbebbbc82	-0.36667258
164	0xbddbdef7	-0.107358865
165	0x3e38095a	0.17972317
166	0x3eb23950	0.3480935
167	0xbdd9c870	-0.106339335
168	0x3d9cd6d9	0.076581664
169	0xbe16f697	-0.14742504
170	0xbe416fa9	-0.18890251
171	0xbe525746	-0.20541105
172	0x3d8adbc6	0.067802
173	0xbe85deb7	-0.2614648
174	0x3ca893e0	0.020578325
175	0x3e436e3c	0.1908502
176	0x3eb192f3	0.34682426
177	0xbdf1a7b2	-0.117995635
178	0xbdf90b44	-0.12160352
179	0xbe237adf	-0.1596484
180	0xbe8b823c	-0.27247798
181	0x3e30f6bb	0.1728162
182	0x3b2c111e	0.002625532
183	0xbea62f1c	-0.32457817
184	0x3eb29474	0.34878886
185	0xbe2c0afb	-0.16801064
186	0x3cd143a8	0.025544956
187	0xbe623eed	-0.22094317
188	0xbe4346c7	-0.19069968
189	0xbd45180a	-0.04811863
190	0x3f03f561	0.51546293
191	0x3e5e8824	0.21731621
192	0x3e945d80	0.28977585
193	0xbe8140d3	-0.2524477
194	0xbecc20a7	-0.39868662
195	0xbdb8e5c2	-0.09028198
196	0xbeb4672b	-0.3523496
197	0xbf040213	-0.51565665
198	0x3f0adf26	0.5424675
199	0xbea287e3	-0.31744298
200	0x3e9a9759	0.30193594
201	0xbed453e3	-0.4147025
202	0xbe88ff4b	-0.26757273
203	0x3e3cd930	0.18442225
204	0xbe8dd908	-0.27704644
205	0x3e33f67e	0.17574498
206	0xbe07f9a6	-0.13278827
207	0xbe93064d	-0.28715745
208	0x3eeaa5d9	0.45829657
209	0xbee9a26a	-0.45631725
210	0xbed79a93	-0.42110118
211	0xbd6c375b	-0.05766998
212	0xbeac567f	-0.3365974
213	0x3c0d53b1	0.008625911
214	0x3e9919d1	0.2990251
215	0x3e3843f1	0.17994668
216	0xbe521ad0	-0.2051804
217	0x3dcadc40	0.099052906
218	0x3e3f2e43	0.18669991
219	0xb9c5b49c	-0.00037709333
220	0xbd9727ec	-0.07380661
221	0xbe6e16e1	-0.23250915
222	0xbf0830d9	-0.53199536
223	0xbed4e5d6	-0.415816
224	0xbefbc78d	-0.49175683
225	0x3e1dcfa1	0.15411235
226	0x3e80cb27	0.25154993
227	0x3eec2531	0.46122125
228	0x3c1f051d	0.009705809
229	0x3daafe2a	0.08349259
230	0xbe4b9f59	-0.19885005
231	0x3db6781d	0.089096285
232	0x3f0b9405	0.54522735
233	0xbed9dedc	-0.4255284
234	0x3e52b404	0.20576483
235	0xbc974c53	-0.018469011
236	0xbd4fd0d3	-0.05073626
237	0xbec26796	-0.37969655
238	0x3d72de89	0.059294257
239	0x3debdf23	0.11517169
240	0xbe1e06e6	-0.15432319
241	0xbe4bd9ed	-0.19907351
242	0x3cc9b3d5	0.024621883
243	0xbd0babcd	-0.03409939
244	0xbe4a9350	-0.19782758
245	0xbec701a3	-0.38868436
246	0x3eabc39b	0.33547673
247	0xbe985a55	-0.29756418
248	0x3ebb7437	0.36612102
249	0x3c073783	0.008252981
250	0x3e3e45f4	0.18581372
251	0x3e3cb900	0.18429947
252	0x3e24c02e	0.16088936
253	0xbedbaa4d	-0.42903367
254	0xbd07b36b	-0.03313009
255	0xbecb4c47	-0.39706632

encoder_variable_selection.single_variable_grns.T2M.gate_norm.glu.fc.bias f4 [32]
0	0xbe2cdb71	-0.16880585
1	0x3e2cd587	0.16878329
2	0xbe2cc9c6	-0.16873845
3	0xbe2cdbe8	-0.16880763
4	0xbe2cdaf2	-0.16880396
5	0x3e2cdc42	0.16880897
6	0xbe2cd963	-0.16879801
7	0x3e2cd4ab	0.16878001
8	0x3e2cd81f	0.16879319
9	0x3e2cd883	0.16879468
10	0x3e2ccda3	0.16875319
11	0xbe2cdb43	-0.16880517
12	0x3e2cdbd0	0.16880727
13	0xbe2cda65	-0.16880186
14	0xbe2cda83	-0.1688023
15	0x3e2cdadf	0.16880368
16	0x3e2cd634	0.16878587
17	0x3e2cb23d	0.16864868
18	0x3e2cb047	0.1686412
19	0xbe2cd3a7	-0.16877614
20	0xbe2cd273	-0.16877155
21	0xbe2cd240	-0.16877079
22	0xbe2cd181	-0.16876794
23	0xbe2cc393	-0.1687148
24	0xbe2cd4b5	-0.16878016
25	0xbe2cc52b	-0.16872089
26	0xbe2c5a02	-0.1683121
27	0xbe2cd14d	-0.16876717
28	0x3e2cd7a2	0.16879132
29	0xbe2cd6d3	-0.16878824
30	0xbe2cd73c	-0.1687898
31	0xbe2cd1e1	-0.16876937

encoder_variable_selection.single_variable_grns.T2M.gate_norm.add_norm.norm.weight f4 [16]
0	0x3f959b88	1.1688089
1	0x3f54c951	0.83119684
2	0x3f54cf16	0.8312849
3	0x3f54c8f1	0.8311911
4	0x3f54c956	0.83119714
5	0x3f959b73	1.1688064
6	0x3f54c944	0.83119607
7	0x3f959af0	1.1687908
8	0x3f54c8e9	0.83119065
9	0x3f54c900	0.831192
10	0x3f54d0b3	0.8313095
11	0x3f54c916	0.8311933
12	0x3f959b87	1.1688088
13	0x3f54c8f9	0.8311916
14	0x3f54c8ee	0.83119094
15	0x3f959b65	1.1688048

encoder_variable_selection.single_variable_grns.T2M.gate_norm.add_norm.norm.bias f4 [16]
0	0xbe2cdb57	-0.16880547
1	0x3e2cdb56	0.16880545
2	0x3e2cd6ba	0.16878787
3	0xbe2cdc6e	-0.16880962
4	0xbe2cdc65	-0.16880949
5	0x3e2cdc9d	0.16881032
6	0xbe2cdbed	-0.1688077
7	0xbe2cc8dc	-0.16873497
8	0x3e2cdc51	0.16880919
9	0x3e2cdbd7	0.16880737
10	0x3e2cd597	0.16878353
11	0xbe2cdc25	-0.16880853
12	0x3e2cdc21	0.16880848
13	0xbe2cdc1c	-0.1688084
14	0xbe2cdc18	-0.16880834
15	0x3e2cdc26	0.16880855

encoder_variable_selection.single_variable_grns.T2M_MAX.resample_norm.mask f4 [16]
0	0xbe2cdbb1	-0.1688068
1	0xbe2cdad0	-0.16880345
2	0xbe2cdb4b	-0.16880529
3	0x3e2cdb95	0.16880639
4	0xbe2cdad3	-0.1688035
5	0x3e05bab0	0.13059497
6	0x3e2cdad7	0.16880356
7	0x3e2cda2f	0.16880105
8	0x3e2cd90a	0.16879669
9	0x3e2cc867	0.16873322
10	0x3e2cdb3f	0.16880511
11	0xbe2cdc65	-0.16880949
12	0xbe2cd946	-0.16879758
13	0x3e2cdbd3	0.16880731
14	0x3e2cd38e	0.16877577
15	0x3e2cdbff	0.16880797

encoder_variable_selection.single_variable_grns.T2M_MAX.resample_norm.norm.weight f4 [16]
0	0x3f54c8e9	0.83119065
1	0x3f54c927	0.83119434
2	0x3f54c92e	0.83119476
3	0x3f959b68	1.1688051
4	0x3f54c8fa	0.83119166
5	0x3f959b78	1.168807
6	0x3f959b19	1.1687957
7	0x3f54c960	0.83119774
8	0x3f959b8d	1.1688095
9	0x3f959b4b	1.1688017
10	0x3f959b78	1.168807
11	0x3f54c8d9	0.8311897
12	0x3f54c9bf	0.8312034
13	0x3f959b8d	1.1688095
14	0x3f54c921	0.831194
15	0x3f959b92	1.1688101

encoder_variable_selection.single_variable_grns.T2M_MAX.resample_norm.norm.bias f4 [16]
0	0x3e2cdc18	0.16880834
1	0x3e2cda95	0.16880257
2	0xbe2cd805	-0.1687928
3	0x3e2cce54	0.16875583
4	0xbe2cdc70	-0.16880965
5	0x3e2cdc79	0.16880979
6	0x3e2cdc15	0.1688083
7	0x3e2cdc89	0.16881002
8	0xbe2cdc4a	-0.16880909
9	0xbe2cceb6	-0.16875729
10	0x3e2cdb58	0.16880548
11	0xbe2cdc84	-0.16880995
12	0x3e2cdbd6	0.16880736
13	0xbe2cdc5c	-0.16880935
14	0xbe2cd69d	-0.16878743
15	0xbe2cdbe5	-0.16880758

encoder_variable_selection.single_variable_grns.T2M_MAX.fc1.weight f4 [8, 8]
0	0x3ea9099a	0.33015138
1	0xbf1cdd0a	-0.6127478
2	0x3e87286d	0.2639803
3	0x3e92fffe	0.28710932
4	0xbf814216	-1.0098293
5	0xbe8fd8bf	-0.28095052
6	0x3ceb288e	0.028705861
7	0x3f5e912a	0.8694025
8	0xbf01893a	-0.50600016
9	0xbc59f2ff	-0.013302564
10	0x3e3a54a3	0.18196349
11	0xbeacd265	-0.33754268
12	0x3e49978c	0.19686717
13	0xbdd8ba7f	-0.10582446
14	0xbf1e218a	-0.61769927
15	0x3f4e602f	0.80615515
16	0x3e970c91	0.29501775
17	0x3f91ea80	1.1399689
18	0xbef119b4	-0.47089922
19	0x3ec6aa9f	0.3880205
20	0x3e87ccfe	0.26523584
21	0x3e5dc4b2	0.21657065
22	0x3e0689eb	0.13138549
23	0x3d884faf	0.066558234
24	0x3e978819	0.29596022
25	0x3eae66b0	0.3406272
26	0xbdaffc0d	-0.08592997
27	0x3f85bec2	1.044884
28	0xbea7ae5d	-0.32750216
29	0xbe1b9d77	-0.15196787
30	0xbda2faf9	-0.079580255
31	0xbe9157c7	-0.2838728
32	0x3cd977c0	0.026546359
33	0xbf14f727	-0.58189625
34	0x3ea6e03a	0.32592946
35	0xbfbb2b4e	-1.462259
36	0x3f27527a	0.65360224
37	0xbeeb341b	-0.4593819
38	0xbc94e1bf	-0.01817405
39	0xbe28476f	-0.164335
40	0x3d1b2506	0.037877105
41	0x3ebc07ab	0.367246
42	0x3ee47c84	0.44626248
43	0xbf7ebcf4	-0.9950707
44	0xbf6117f9	-0.87927204
45	0x3bedc8bf	0.007256597
46	0x3eacc2ae	0.3374228
47	0xbf1604d7	-0.58601135
48	0xbee1a04b	-0.44067606
49	0xbec4be17	-0.38426277
50	0x3e2e68ce	0.17032167
51	0x3efeb42f	0.49746844
52	0xbedc59f8	-0.4303739
53	0xbf2c1ad4	-0.67228436
54	0xbeab1631	-0.33415368
55	0xbe13b337	-0.14423834
56	0xbf4e11d7	-0.8049597
57	0xbea15e2c	-0.3151716
58	0x3f0d12b0	0.5510664
59	0x3ebbeb9d	0.36703196
60	0x3f8216e2	1.0163233
61	0xbdde4bc7	-0.10854297
62	0x3ed070e6	0.40711135
63	0xbe652e25	-0.22380884

encoder_variable_selection.single_variable_grns.T2M_MAX.fc1.bias f4 [8]
0	0xbe2cda57	-0.16880165
1	0x3e2cdb11	0.16880442
2	0x3e2cd652	0.16878632
3	0x3e2cdc13	0.16880827
4	0xbe2cdc0c	-0.16880816
5	0x3e2cdc30	0.1688087
6	0x3e2cdb97	0.16880642
7	0x3e2cdc65	0.16880949
