ai_predict/ai/lightning_logs/version_52/checkpoints/epoch=9-step=80.ckpt (torch, 662004 bytes, 889 tensors)

prescalers.time_idx.weight f4 [8, 1]
000000 d1 1a 89 3f c4 b2 85 bf ad fc 50 3f 09 2e 7d bf
       1.0711309 -1.044518 0.8163555 -0.9889837
000010 ed 1f 0f 3f 22 d8 36 3f 50 b0 59 3e d5 7f b8 be
       0.5590809 0.7142354 0.21258664 -0.36035028

prescalers.time_idx.bias f4 [8]
000000 37 1b d4 3d 75 6b c2 3e e8 47 bc be 28 ef c2 be
       0.10356753 0.37972608 -0.3677361 -0.38073087
000010 35 80 b7 3e f7 a4 6f 3d 1b 70 34 bf 49 d6 6d 3f
       0.35840002 0.058506932 -0.7048356 0.929051

prescalers.T2M.weight f4 [8, 1]
000000 06 12 ee 3e 5a 1e 39 3e 8f d8 07 be 1d fc 7c be
       0.46498126 0.18077984 -0.13266204 -0.24705549
000010 16 1d 45 3f 4a 1d 37 bf 44 bf 13 bf 25 a3 0e bf
       0.76997507 -0.71529067 -0.57713723 -0.5571769

prescalers.T2M.bias f4 [8]
000000 af cf 38 bf 1d 5c 37 bf a4 e8 47 3f b5 1d f8 3e
       -0.721919 -0.7162493 0.78089356 0.48460165
000010 6c bc 22 3f ef 71 25 bf b8 0f 82 be 49 ea 53 3e
       0.6356876 -0.64626974 -0.25402617 0.20694841

prescalers.T2M_MAX.weight f4 [8, 1]
000000 8a 02 47 3f a0 90 31 3e 27 cf bd be 47 69 63 bf
       0.7773825 0.17340326 -0.37072107 -0.88832515
000010 8b 0d 24 3f 23 63 af 3e b3 8f d1 bb d3 73 e6 3d
       0.64083165 0.34255323 -0.006395304 0.112525605

prescalers.T2M_MAX.bias f4 [8]
000000 48 5b 49 3e 79 d1 02 bf 0d e7 b6 be 4c fa 62 3f
       0.19663727 -0.5110088 -0.35723153 0.8866317
000010 11 84 ee be f6 81 1a bd e4 b4 3b 3f 3b 2a 67 3f
       -0.46585134 -0.037721597 0.7332289 0.90298814

prescalers.T2M_MIN.weight f4 [8, 1]
000000 e6 9e 1a 3f d3 f8 34 be 96 25 08 3d d1 74 81 3e
       0.6039871 -0.17673044 0.03323897 0.25284436
000010 72 bb 02 3f 51 b2 c3 3e 1e e2 26 bf d3 e3 24 3f
       0.5106727 0.38221982 -0.6518878 0.6441013

prescalers.T2M_MIN.bias f4 [8]
000000 c9 04 96 bd 62 cf 41 bf 0f 96 81 3f d6 b8 d1 be
       -0.073251314 -0.75707066 1.0123919 -0.4096133
000010 ea 19 dd 3e 79 4c 57 bf 68 91 bc 3e 1d c4 a8 3d
       0.43183833 -0.84101063 0.36829686 0.08240531

prescalers.PRECTOTCORR.weight f4 [8, 1]
000000 54 47 9f bd 8d ed 35 3e f7 2a 36 bf a6 2c 50 bf
       -0.07777277 0.177664 -0.7115931 -0.8131813
000010 da 13 a8 bd 15 64 33 be c9 d6 b6 be 9a 65 60 3f
       -0.082069114 -0.17518647 -0.35710743 0.8765503

prescalers.PRECTOTCORR.bias f4 [8]
000000 2c 70 07 3f 06 2a 69 3e 45 5f 77 3f e7 4f cc 3d
       0.52905536 0.22769937 0.96629745 0.09976178
000010 c8 1b a9 3e 94 6b d8 be bb d5 65 3f 19 95 23 be
       0.33029008 -0.42269576 0.8977925 -0.15974845

prescalers.RH2M.weight f4 [8, 1]
000000 74 21 28 bf 9b fb 90 bc 38 de 4b bf 28 74 13 be
       -0.65676045 -0.0176981 -0.79635954 -0.14399779
000010 db de 48 bf 8a 34 03 3e ba 50 47 be 4a c2 4f bf
       -0.7846505 0.12813011 -0.19464388 -0.81155837

prescalers.RH2M.bias f4 [8]
000000 89 66 ec be df 68 85 3f 91 eb 5d bd e2 f0 7b bd
       -0.46171978 1.0422629 -0.05417973 -0.06150902
000010 6f a3 21 bf 3c 43 86 bf 7a 6c 61 3f 76 8c 7e 3f
       -0.63140005 -1.0489268 0.8805615 0.99433076

prescalers.ALLSKY_SFC_SW_DWN.weight f4 [8, 1]
000000 57 23 3a 3e 70 33 9e 3e ac 60 3a 3f 40 56 09 3f
       0.18177544 0.3089862 0.7280376 0.5364723
000010 02 75 8f 3f 6f ec 03 bd 8d 92 19 bf e0 6a 41 be
       1.1207583 -0.032207903 -0.59989244 -0.18888426

prescalers.ALLSKY_SFC_SW_DWN.bias f4 [8]
000000 13 c6 0f 3f 6e 8f 28 bf 70 62 91 3e 32 40 7a bf
       0.5616161 -0.65843856 0.28395414 -0.97754204
000010 02 ef 92 bf e1 af 3a 3f d0 86 7c be 46 01 2f bf
       -1.1479189 0.7292462 -0.24660802 -0.6836132

prescalers.numero_casos.weight f4 [8, 1]
000000 8c a4 0f 3f 50 90 00 3f 15 1e c2 3e e4 83 45 bf
       0.56110454 0.50220203 0.37913576 -0.77154374
000010 98 21 31 3f f4 46 bd be 37 e3 2d 3f 47 d2 00 3f
       0.69191885 -0.36968195 0.6792483 0.5032086

prescalers.numero_casos.bias f4 [8]
000000 7a 71 c9 3e ac 30 1f be f0 5e 1f bf e1 66 c3 3c
       0.39344388 -0.1554591 -0.6225424 0.023852767
000010 4a 93 7d bf 1d a7 8e 3e 7b 9d 7d bf 3a 11 c7 bc
       -0.9905287 0.27861872 -0.9906842 -0.024300206

static_variable_selection.single_variable_grns.municipio.mask f4 [16]
000000 9d f2 34 3e 9d f2 34 be 9d f2 34 be 9d f2 34 3e
       0.17670675 -0.17670675 -0.17670675 0.17670675
000010 9d f2 34 be 9d f2 34 3e 9d f2 34 3e 9d f2 34 3e
       -0.17670675 0.17670675 0.17670675 0.17670675
000020 9d f2 34 be 9d f2 34 be 9d f2 34 be 9d f2 34 be
       -0.17670675 -0.17670675 -0.17670675 -0.17670675
000030 9d f2 34 be 9d f2 34 3e 9d f2 34 3e 9d f2 34 be
       -0.17670675 0.17670675 0.17670675 -0.17670675

static_variable_selection.single_variable_grns.municipio.norm.weight f4 [16]
000000 00 00 80 3f 00 00 80 3f 00 00 80 3f 00 00 80 3f
       1.0 1.0 1.0 1.0
000010 00 00 80 3f 00 00 80 3f 00 00 80 3f 00 00 80 3f
       1.0 1.0 1.0 1.0
000020 00 00 80 3f 00 00 80 3f 00 00 80 3f 00 00 80 3f
       1.0 1.0 1.0 1.0
000030 00 00 80 3f 00 00 80 3f 00 00 80 3f 00 00 80 3f
       1.0 1.0 1.0 1.0

static_variable_selection.single_variable_grns.municipio.norm.bias f4 [16]
000000 9d f2 34 be 9d f2 34 3e 9d f2 34 3e 9d f2 34 be
       -0.17670675 0.17670675 0.17670675 -0.17670675
000010 9d f2 34 3e 9d f2 34 be 9d f2 34 be 9d f2 34 be
       0.17670675 -0.17670675 -0.17670675 -0.17670675
000020 9d f2 34 3e 9d f2 34 3e 9d f2 34 3e 9d f2 34 3e
       0.17670675 0.17670675 0.17670675 0.17670675
000030 9d f2 34 3e 9d f2 34 be 9d f2 34 be 9d f2 34 3e
       0.17670675 -0.17670675 -0.17670675 0.17670675

encoder_variable_selection.flattened_grn.resample_norm.mask f4 [8]
000000 42 f1 34 be 7b f2 34 3e 4d f2 34 3e 68 f2 34 3e
       -0.17670158 0.17670624 0.17670555 0.17670596
000010 82 f2 34 be 45 f2 34 3e 62 f2 34 be 60 f2 34 be
       -0.17670634 0.17670543 -0.17670587 -0.17670584

encoder_variable_selection.flattened_grn.resample_norm.norm.weight f4 [8]
000000 51 9e 96 3f 50 9e 96 3f 42 9e 96 3f 4c 9e 96 3f
       1.1767064 1.1767063 1.1767046 1.1767058
000010 5b c3 52 3f 47 9e 96 3f 43 9e 96 3f 71 c3 52 3f
       0.8232934 1.1767052 1.1767048 0.8232947

encoder_variable_selection.flattened_grn.resample_norm.norm.bias f4 [8]
000000 94 f2 34 3e 89 f2 34 be 6f f2 34 be 7f f2 34 be
       0.17670661 -0.17670645 -0.17670606 -0.1767063
000010 8b f2 34 be 76 f2 34 be 88 f2 34 3e 7a f2 34 3e
       -0.17670648 -0.17670617 0.17670643 0.17670622

encoder_variable_selection.flattened_grn.fc1.weight f4 [8, 64]
000000 36 2b 32 bb a4 b4 c0 bc f0 9f 36 be ca 10 b4 be
       -0.00271864 -0.023523636 -0.17834449 -0.3516906
000010 8d b9 ce 3d a3 2d c0 3e be 4e cb 3d 92 03 3a bc
       0.10093985 0.37534818 0.09927128 -0.01135339
000020 ab d3 8f be fb ea 4e be a5 5b 32 3e 26 2c 81 3e
       -0.28091177 -0.20206825 0.17417772 0.25228995
000030 a5 86 0f bd d8 8a 85 be 9a 2e 91 be 49 11 95 3d
       -0.035040516 -0.26082492 -0.28355867 0.072786875
000040 3e 8f c3 3e d6 8b 33 be 59 9f 0a bf 0b e5 d2 3d
       0.38195223 -0.17533812 -0.54149395 0.10297593
000050 93 4b ab 3d e0 74 3d 3e 8f 2c 5f bd 16 78 a3 3e
       0.08364024 0.18501616 -0.054485854 0.31927556
000060 85 2f 26 be 2e 73 55 be 56 4a d0 bb 01 f0 b2 be
       -0.16229065 -0.20844719 -0.006356518 -0.34948733
000070 b1 c4 41 3e c0 4c 0f be f6 8a 98 3e ea 62 1e 3f
       0.18922688 -0.13994122 0.2979352 0.6186968
000080 d7 6a 04 3d a1 c9 76 3e c0 b7 ab 3e c8 8b 4d be
       0.032328453 0.24100353 0.33538628 -0.20072854
000090 28 d1 bd bd 48 01 25 be 46 e1 a2 3e d6 ae 98 3c
       -0.09268409 -0.1611377 0.31812495 0.018638056
0000a0 c9 a0 a6 be 14 2d 2b 3e 34 19 89 be c1 ab 9a bd
       -0.32544544 0.16716415 -0.2677704 -0.07552291
0000b0 3d 76 a6 be 65 a1 20 be 5a ae 95 3d 96 89 a1 3d
       -0.32512084 -0.15686567 0.073086455 0.078875706
0000c0 a7 51 b9 3e 69 00 8a be ad 78 f6 3c 08 83 dd be
       0.36195108 -0.26953438 0.03008684 -0.4326403
0000d0 f2 2f 04 be d8 79 70 3d 90 ce 9e be dc f4 85 3d
       -0.12908915 0.05870995 -0.3101697 0.06540844
0000e0 70 e6 8a be 67 64 b0 be 86 d2 c0 be b9 23 5c 3e
       -0.27128935 -0.344516 -0.37660617 0.21498002
0000f0 c0 10 72 be 42 59 a5 bd 0d dc 0c be dd 2a 66 be
       -0.23639202 -0.08073665 -0.13755818 -0.22477289
000100 c8 a1 a0 3d f0 38 2f be 1b 16 1b 3e 57 ac cf be
       0.07843357 -0.17111564 0.15145151 -0.40561172
000110 46 34 6a 3e ad 63 c0 3e a1 a1 9c be c4 c7 b3 3e
       0.22871503 0.37576047 -0.30592063 0.35113347
000120 8e 49 8e be 61 4d 33 be c9 9a 94 3e fc f4 6b 3d
       -0.27790493 -0.17509986 0.29024342 0.057606682
000130 c9 8c 17 3e fc d0 d1 be 62 f5 02 3e 25 52 f5 3d
       0.14799799 -0.40979755 0.12788919 0.119785585
000140 c8 63 96 3e 47 af e2 3e 81 9d fd bd 0c 05 04 bf
       0.29373002 0.4427435 -0.12383557 -0.515702
000150 4c 1d ad 3e 39 1e 87 3e f6 48 a1 3e d0 8e 3e bd
       0.33811414 0.26390246 0.31500977 -0.046522915
000160 1f 0f d9 be be 17 1c bd 32 e7 62 3e 48 bd 8a be
       -0.4239435 -0.03810858 0.22158507 -0.27097535
000170 44 46 c2 bd b7 8c 41 be c3 7e 63 3e 42 08 af bd
       -0.09486058 -0.18901335 0.22216325 -0.08546497
000180 35 38 3e 3d 0b 54 aa bd 56 a1 8d 3e 67 2b 22 be
       0.046440322 -0.08316811 0.27662152 -0.15836869
000190 63 a4 36 3e 30 4c b1 be 6c 05 47 3e e2 66 9e be
       0.17836146 -0.3462844 0.19435662 -0.30937868
0001a0 e9 4e 3a 3e e6 5b 5a be 47 35 68 3b a8 9b 46 3e
       0.18194164 -0.21324119 0.0035432146 0.19395316
0001b0 18 d6 06 3f 20 31 0f be 12 93 8c 3e fb d5 f5 bd
       0.5267043 -0.13983583 0.27455956 -0.12003704
0001c0 49 46 a4 3e 61 91 6d 3d 1b 20 c1 3d ce 7c 27 be
       0.32084873 0.057999972 0.09429952 -0.16356203
0001d0 05 15 a9 be 9c b1 15 3d be b3 9c bd 39 02 84 be
       -0.3302385 0.036546335 -0.076514706 -0.25782946
0001e0 2f c2 9d 3d 59 f0 93 3e 88 90 07 3e 7a 4a b6 be
       0.07703053 0.28894308 0.13238728 -0.35603696
0001f0 1e 5e fc 3e 5d a9 70 be 55 e0 83 3e 9e 7f 4f bc
       0.49290556 -0.23502107 0.2575709 -0.012664704
000200 00 cc a4 3e 34 c6 68 bd d3 56 a7 be 0c cf 67 3d
       0.3218689 -0.056829646 -0.3268343 0.05659394
000210 f8 bb b9 3d 80 93 7b bd 47 fd fa bd 6c 8a 30 3c
       0.09069055 -0.061419964 -0.1225534 0.01077519
000220 6c 17 4c be 48 96 9c be 89 2d 6e 3e 80 e6 b7 3e
       -0.1993081 -0.30583405 0.23259558 0.35918045
000230 c5 72 a8 ba 8d 8b eb be 6c c8 ea be 40 6c 5e bd
       -0.0012851587 -0.46004906 -0.45856035 -0.054302454
000240 e6 75 b1 3e d5 70 36 be 89 60 9e be a3 0b 82 3e
       0.34660262 -0.1781648 -0.30933025 0.25399503
000250 18 e2 9e bd 67 56 8e 3e 9f bc 83 3e 95 c8 87 3e
       -0.07757968 0.27800295 0.25729844 0.2652022
000260 d2 f8 a5 3b 6e b3 5a 3e 92 ff 33 3e 42 5b 16 be
       0.005065062 0.2135751 0.17577961 -0.1468325
000270 00 06 85 bd 40 d4 14 be c0 ec b8 3e 89 b8 fa bd
       -0.06495285 -0.14534092 0.36118126 -0.122422285
000280 d5 c3 0d 3e cc 05 27 3e a9 f4 70 3e 18 f6 43 be
       0.13844235 0.16310805 0.2353083 -0.19136846
000290 9e 23 b5 3e fe 81 3a be 21 6f 92 3e a7 5e a2 3b
       0.35378736 -0.1821365 0.2860041 0.004955131
0002a0 19 0f fd 3d d4 c6 94 3d f9 bf c7 3d fc f5 a8 3d
       0.12356395 0.07264486 0.09753413 0.08250043
0002b0 86 a0 9d be be 11 b5 be 71 e1 3d 3d 71 83 a9 3e
       -0.30786532 -0.353651 0.046357576 0.33108094
0002c0 18 59 f0 bc b4 7b cf be 81 0c 0f bd 30 af b6 be
       -0.029339358 -0.40524065 -0.034924034 -0.35680532
0002d0 e7 c7 d8 be d4 07 e1 3e 0a b3 a2 be 39 7a 15 be
       -0.42340013 0.43951285 -0.3177722 -0.14597405
0002e0 75 17 c1 3e 05 84 92 bd 25 ed 91 bd 75 87 5e 3e
       0.3771321 -0.07154087 -0.0712531 0.2173136
0002f0 80 e2 47 be 59 22 be 3e 50 7d c2 3d d4 46 6b be
       -0.19519997 0.3713558 0.09496558 -0.22976238
000300 eb 42 22 3d ee 12 8f be 76 7e c5 3d de ff ad be
       0.0396146 -0.2794413 0.09643261 -0.33984274
000310 e7 e8 8d be 10 6e 1d be af 17 80 3e 1f 7e b1 be
       -0.27716753 -0.15374017 0.2501807 -0.34666535
000320 7d 76 8b 3e 01 ef a4 3e 82 29 b1 be 0e 9a fd bd
       0.27238837 0.32213596 -0.3460198 -0.12382899
000330 80 75 47 bc 9e 00 0c 3e 8b 86 16 3e 69 9b 13 3e
       -0.01217401 0.1367211 0.14699762 0.14414753
000340 a0 5e 73 be 88 53 3c 3e 24 69 9c 3d 78 47 80 bd
       -0.23766565 0.1839124 0.076372415 -0.062636316
000350 cd a9 65 3d a0 8d 35 be aa 93 7d bd af f8 5b 3e
       0.056070138 -0.17729807 -0.0619084 0.21481584
000360 05 30 2b 3e 5f 7e 0a 3e 0c b5 cf be 09 36 18 3e
       0.16717537 0.13524769 -0.40567815 0.14864363
000370 f0 50 b8 3d a5 90 84 3c 24 31 37 be 55 f1 61 3e
       0.089998126 0.016182253 -0.1788984 0.22064717
000380 05 df 11 3e c7 33 94 3d 86 c1 5f 3e 6e 48 10 3e
       0.14245231 0.07236438 0.21851167 0.1409013
000390 94 f9 d5 bd d8 15 ac 3d 42 dc 51 be 4f 05 ec 3d
       -0.10447994 0.08402604 -0.20494178 0.1152445
0003a0 ac 9e fa 3d 40 f8 e7 be cb 21 54 3e eb 0a 99 3e
       0.122372955 -0.45306587 0.20716016 0.29891142
0003b0 b5 db 88 3e 00 3e 93 3c b5 9c 80 be 7a 6d 22 3d
       0.26730123 0.0179739 -0.25119558 0.039655186
0003c0 74 b7 c1 be d6 20 64 bc 93 f9 f0 3b 3c 2d 93 3e
       -0.37835276 -0.013923844 0.0073539703 0.2874545
0003d0 65 b9 af 3d 62 6e 76 bb e5 27 c0 3d 8d b4 ac 3e
       0.08580283 -0.0037602414 0.09382609 0.337315
0003e0 9c b9 43 3d 7f c3 ad 3d cd 46 fb 3e b8 1d 96 3c
       0.047784433 0.084845535 0.49077454 0.018324718
0003f0 f6 40 0e 3e ae 66 1b 3e c5 d6 b5 bd 27 f2 1c 3e
       0.13891968 0.15175888 -0.08878855 0.15326749

encoder_variable_selection.flattened_grn.fc1.bias f4 [8]
000000 6a f2 34 3e 44 f0 34 3e 6a f2 34 3e 74 f2 34 be
       0.17670599 0.17669779 0.17670599 -0.17670614
000010 ef f1 34 be 84 f2 34 3e 68 f2 34 be 8b f2 34 3e
       -0.17670415 0.17670637 -0.17670596 0.17670648

encoder_variable_selection.flattened_grn.context.weight f4 [8, 16]
000000 70 5a 18 3d 0c b4 13 3e 80 e9 6d bd 30 91 0e be
       0.037195623 0.14424151 -0.05808401 -0.13922572
000010 0c ea a1 3e 46 c0 e0 3e 98 1c e0 be b8 74 c9 bd
       0.31623876 0.43896693 -0.43771815 -0.098367155
000020 54 ca 64 3e c8 aa c4 be 70 65 42 3d 80 76 41 bd
       0.22342807 -0.38411546 0.04746002 -0.04723215
000030 70 b1 ce be 18 34 a4 bd 40 82 70 be 60 58 1f be
       -0.4036975 -0.080177486 -0.23487186 -0.15561056
000040 f4 af e3 be b0 61 98 bd a0 b9 82 bc aa 8d 83 3e
       -0.4447018 -0.074405074 -0.015957654 0.2569402
000050 18 31 5b be 24 9a 47 3e 74 7f ee 3e 8c b3 9a be
       -0.21405447 0.19492394 0.46581614 -0.30215108
000060 36 b6 a6 3e 7e 3b e7 3e 82 20 fb 3e ac fe 08 be
       0.3256089 0.45162576 0.4904824 -0.133784
000070 d4 67 17 3e 44 60 3a 3e d8 e0 f5 be a8 9e 2e 3e
       0.14785701 0.18200785 -0.48023105 0.1705271
000080 3a cb ca 3e 20 c5 ea be ca 64 92 be d0 93 70 3e
       0.39608175 -0.4585352 -0.2859252 0.23493886
000090 e8 78 96 be 86 9e 91 3e a0 e9 96 bd 58 d8 94 3d
       -0.2938912 0.28441256 -0.07368779 0.07267827
0000a0 58 83 7e be 78 f8 a5 3e 00 61 30 3d e8 ae f8 3d
       -0.24854791 0.3241613 0.043061256 0.12142736
0000b0 14 d7 75 be 72 99 ad 3e 26 97 85 3e 80 5c 1b 3c
       -0.24007827 0.33906132 0.2609188 0.009482503
0000c0 d6 00 f7 3e 00 df 0c bd 58 09 cc be 42 41 bf 3e
       0.48242825 -0.034392357 -0.3985088 0.37354475
0000d0 fa f8 d8 3e 00 f6 a7 be fa ec de be 74 0d 8a be
       0.42377454 -0.3280487 -0.43540174 -0.2696339
0000e0 f2 77 e7 be 50 61 fd 3e 82 13 c4 3e 10 e8 e3 3e
       -0.452087 0.49488306 0.38296133 0.44512987
0000f0 e0 90 0b bd ea 49 ec 3e 90 23 37 3e dc 29 9c 3e
       -0.03407371 0.46150142 0.1788466 0.30500686
000100 88 4a 45 be d2 11 f4 be e6 1f bf be 14 da 25 3e
       -0.19266713 -0.47669846 -0.37329024 0.16196471
000110 00 08 8b be 46 b4 9d 3e 64 76 19 be b8 82 ff be
       -0.2715454 0.308016 -0.14986569 -0.49904418
000120 00 e4 f9 3a 70 ae d3 be 90 14 69 be f8 a5 b0 3d
       0.0019065142 -0.41344023 -0.2276175 0.08625406
000130 0c e9 da 3e 96 fa c8 be 20 ef b8 bd 8a f0 ca 3e
       0.42755926 -0.39253682 -0.090299845 0.39636642
000140 ec 14 8a 3e d8 de fd 3d c4 99 45 3e ac d0 48 3e
       0.26969087 0.1239602 0.19296938 0.19610852
000150 74 45 84 3e a2 d6 97 be 4e 7b a4 3e c4 07 6e 3e
       0.2583424 -0.2965594 0.32125324 0.2324515
000160 78 4e ce bd 60 6b 8e bc ce f6 98 3e b6 31 c1 be
       -0.100735605 -0.017385185 0.29875797 -0.3773324
000170 40 bd 9b 3e 38 1a 55 be a8 e1 ba 3d d0 12 f7 3e
       0.30417824 -0.20810783 0.09125072 0.4825654
000180 20 ad 8d bc f4 0c 11 3e 62 30 82 3e a0 13 b6 3d
       -0.017294466 0.14165097 0.25427538 0.08890462
000190 40 24 09 3d c8 ea e3 3e d4 ca f4 be 78 0e 9f be
       0.033481836 0.4451506 -0.47810996 -0.31065726
0001a0 d8 03 0b 3e c4 c2 2e 3e 10 c1 16 be 84 5d 50 3e
       0.13575685 0.17066485 -0.14722085 0.20348173
0001b0 d0 63 ee bd d4 2f cc 3e 98 5a f6 be a8 90 e2 3d
       -0.116401315 0.3988024 -0.48115993 0.11062747
0001c0 a2 e7 c3 be 88 78 31 3e 84 c4 62 3e fe e2 90 be
       -0.3826266 0.17331135 0.22145277 -0.2829818
0001d0 8c ad 60 3e a0 2c 29 be 68 03 e9 be c8 ac cf bd
       0.21941203 -0.1652093 -0.4551041 -0.10140377
0001e0 60 82 ce 3d a0 1a e4 be c0 a7 36 bc 2c b2 ca be
       0.10083461 -0.44551563 -0.011148393 -0.3958906
0001f0 c2 8a d0 3e d8 b6 da bd f0 1f 68 bd 08 2f 27 be
       0.40730864 -0.10679406 -0.056671083 -0.16326535

encoder_variable_selection.flattened_grn.fc2.weight f4 [8, 8]
000000 6f 5a 8e be d7 86 be 3e 7f 88 02 3f be 4e 78 3f
       -0.2780337 0.3721225 0.50989527 0.9699515
000010 82 f8 1e 3f 34 94 50 3f aa ee be 3f ba 13 2f 3f
       0.6209794 0.8147614 1.4916584 0.68389475
000020 91 2a 26 3f 39 04 ae 3e c7 26 22 3d 44 b3 0c 3f
       0.649087 0.33987597 0.039587762 0.5496104
000030 5a 20 80 3e 2d 40 0e 3f b2 e4 8a 3c b6 2a 2c be
       0.25024682 0.55566674 0.016954754 -0.16813168
000040 a4 3d 0b bf 26 ac 4f bf 21 6e ad 3f 60 6d 20 3f
       -0.5439093 -0.8112205 1.3549234 0.62666893
000050 5c ba fe bd 9c dd d2 3e 8d 31 13 bf 6a 59 29 bf
       -0.12437889 0.411847 -0.57497483 -0.6615206
000060 f7 34 b8 be d3 b9 c2 be ac c6 a7 bf 10 f5 80 be
       -0.3597791 -0.38032398 -1.3107505 -0.25186968
000070 a1 1c a3 be 28 b3 c3 3d c2 a6 d6 3c 73 38 4b 3f
       -0.3185778 0.09555656 0.026202563 0.7938301
000080 c6 b7 ef 3e 9c a8 e4 bc ef 45 00 bf 20 78 64 be
       0.46819896 -0.02791243 -0.5010671 -0.22311449
000090 0a dc 7b bf f8 61 ce 3e 0b 8a 20 bf 68 2b 30 3f
       -0.9838263 0.4030912 -0.62710637 0.6881623
0000a0 fa 27 e5 3d 73 e9 8a be b2 a0 a5 be 3e 46 52 be
       0.111892655 -0.27131233 -0.32349163 -0.20534608
0000b0 61 a7 76 be a3 92 01 bf 0f 7b e2 bd e3 a8 86 bf
       -0.24087287 -0.50614375 -0.11058628 -1.052029
0000c0 a4 46 06 bf 54 dc 4c 3f 17 0a 1a 3e 92 57 a5 3e
       -0.5245154 0.80023694 0.15042911 0.32293373
0000d0 87 c5 3b be 93 0d 8e bf 31 6f f4 3d a0 b7 33 bf
       -0.1833707 -1.1097893 0.119352706 -0.70202065
0000e0 56 76 59 3e a7 8f 41 bd fb eb 3c 3f 31 df 1a 3e
       0.21236548 -0.04725614 0.7379758 0.15124203
0000f0 da 1a e5 be 03 db c7 3e e9 a1 cf be ec f7 16 3f
       -0.4474705 0.3903428 -0.40553215 0.5897205

encoder_variable_selection.flattened_grn.fc2.bias f4 [8]
000000 f0 f1 34 3e 64 f2 34 be 69 f1 34 3e 2e f2 34 be
       0.17670417 -0.1767059 0.17670216 -0.17670509
000010 32 f2 34 be 89 f2 34 be 86 f2 34 be 68 f2 34 3e
       -0.17670515 -0.17670645 -0.1767064 0.17670596

encoder_variable_selection.flattened_grn.gate_norm.glu.fc.weight f4 [16, 8]
000000 b9 34 3a 3e 09 e0 06 be 47 2f de 3e 5e 2a 18 bf
       0.18184175 -0.131714 0.43395445 -0.5943965
000010 38 c0 c6 be 27 7a 8b be ba 7e 93 be 2b be 8e 3e
       -0.38818526 -0.27241632 -0.28807622 0.27879462
000020 e2 b8 1b bf e9 47 93 be 29 c7 63 3e 75 7b b6 bc
       -0.60828984 -0.287658 0.22243942 -0.022275666
000030 88 0a 66 be 89 e2 b1 be 66 c5 23 bf 24 fa 29 3e
       -0.22464955 -0.34743145 -0.6397308 0.16599327
000040 b8 22 7d 3e c3 cc d8 be fe 14 fd be d2 00 5d bd
       0.24720275 -0.4234372 -0.49430078 -0.05395586
000050 8c 35 55 bd 35 3f 3a be cc 2b 3e 3d 2c d5 51 be
       -0.05205302 -0.18188174 0.046428487 -0.20491475
000060 2a a6 09 be 38 44 b9 be 8b 81 09 bf ed 2c 93 3e
       -0.13442293 -0.3618486 -0.5371329 0.28745213
000070 a3 6f d2 3e 60 e9 b5 3d 23 7d ad be 5c 9e 0f 3f
       0.41100797 0.088824034 -0.33884534 0.5610101
000080 81 8e ee be bb 6b 88 be 60 a2 a2 be de 56 b2 3d
       -0.46593097 -0.26644692 -0.31764507 0.08707975
000090 6a 4b 9c be 9b 21 f6 bd d7 76 78 3e 01 d9 a9 3e
       -0.30526286 -0.120181285 0.24264084 0.33173373
0000a0 53 c9 77 bd 38 a5 70 be e4 e3 eb be 43 84 e4 bc
       -0.060494732 -0.23500526 -0.46072304 -0.027895099
0000b0 32 fa 28 3f 09 c9 31 3d 2f 68 45 be e0 27 5a 3e
       0.6600677 0.043404613 -0.19278024 0.21304274
0000c0 a9 74 06 3e 9e 9d b4 3e 32 14 a4 be 2a 59 ce 3d
       0.1313044 0.35276502 -0.32046658 0.100756004
0000d0 4d 8a cb be 9b dc 4c 3e 5b f2 6a 3e fb c1 12 be
       -0.39753953 0.2000603 0.22944014 -0.1433181
0000e0 f1 82 7b 3d 63 b4 34 be 18 7d 01 be 07 0c 89 be
       0.061404172 -0.17646937 -0.12645376 -0.2676699
0000f0 60 4b 40 be 68 8f b3 bd d5 2b 80 be 74 d3 8f be
       -0.18778753 -0.08767587 -0.2503344 -0.28091013
000100 88 f3 23 3d c5 19 ea 3d 78 e9 a8 bd 65 d5 01 3f
       0.04002717 0.114306964 -0.08247656 0.5071624
000110 c9 de fb bd 2c 1c 9b be ce 68 76 be d0 c8 ab 3e
       -0.12298352 -0.3029493 -0.24063417 0.33551645
000120 c3 00 3e 3e 0e fe 04 3f 47 18 02 bf 37 96 50 3e
       0.18554978 0.51950157 -0.50818294 0.20369802
000130 be 56 ef 3e c3 02 ff be 3a 0d 89 be 1a 3e 0b bc
       0.46745867 -0.49806795 -0.26767904 -0.008498693
000140 c9 8d 82 bd a5 1c e4 be 43 34 b8 3d c2 84 a1 be
       -0.063746996 -0.44553104 0.08994343 -0.315466
000150 bd 9a 7e be b1 62 bf 3d 51 5b 29 bf 14 92 83 3e
       -0.24863715 0.09344996 -0.6615496 0.25697386
000160 6b f9 2c 3f 18 c9 08 be 09 00 84 3e da 93 a0 3e
       0.6756808 -0.13357961 0.25781277 0.31362802
000170 e9 2d 9a be cd 3e 6d be bd 04 26 3f 31 d2 f1 be
       -0.30113152 -0.23168488 0.6485098 -0.47230676
000180 1d e1 d7 3c 29 29 c8 3e 47 14 06 bf b5 39 1c bf
       0.02635246 0.39093903 -0.5237469 -0.61025554
000190 c3 75 d6 3e 1a fc cb be 59 aa b9 bc 77 71 8b 3c
       0.4188672 -0.39840776 -0.022664236 0.017021878
0001a0 14 0c 90 be ec 91 60 be 65 3a 75 bc 76 c8 1c 3e
       -0.28134215 -0.21930665 -0.014967536 0.15310845
0001b0 e3 5a fe 3b 49 51 19 3f 87 53 a2 be a9 b4 d8 be
       0.0077622994 0.59889656 -0.3170435 -0.42325333
0001c0 02 05 15 3e ca c6 84 be b6 11 88 3e ef dc c6 3d
       0.14552692 -0.25932914 0.26576012 0.097101085
0001d0 d6 5a 1c 3f 8f a8 2d 3d 67 e1 6d be 0a 2c 4b bd
       0.61076105 0.042397078 -0.23230515 -0.049602546
0001e0 7d 24 80 3d 99 e6 e3 be e9 f1 df 3d 30 da ff bd
       0.062569596 -0.4451187 0.109348126 -0.12492788
0001f0 05 2a 3d be 41 70 66 3d 84 9d 6c 3e bf e0 9e be
       -0.1847306 0.056259397 0.23106962 -0.31030843

encoder_variable_selection.flattened_grn.gate_norm.glu.fc.bias f4 [16]
000000 90 f2 34 3e 54 f2 34 be 59 f2 34 be 6d f2 34 be
       0.17670655 -0.17670566 -0.17670573 -0.17670603
000010 65 f2 34 be 62 f1 34 be 7f f2 34 3e 74 f2 34 3e
       -0.17670591 -0.17670205 0.1767063 0.17670614
000020 31 f2 34 be ae ef 34 be 0c f1 34 be 3e f2 34 3e
       -0.17670514 -0.17669556 -0.17670077 0.17670533
000030 dd ef 34 be 48 f0 34 3e b1 f1 34 be a4 f1 34 be
       -0.17669626 0.17669785 -0.17670323 -0.17670304

encoder_variable_selection.flattened_grn.gate_norm.add_norm.norm.weight f4 [8]
000000 51 9e 96 3f 4c 9e 96 3f 73 c3 52 3f 4c 9e 96 3f
       1.1767064 1.1767058 0.8232948 1.1767058
000010 5a c3 52 3f 88 c3 52 3f de 9d 96 3f 5e c3 52 3f
       0.8232933 0.82329607 1.1766927 0.82329357

encoder_variable_selection.flattened_grn.gate_norm.add_norm.norm.bias f4 [8]
000000 98 f2 34 3e 8a f2 34 be 7f f2 34 be 7c f2 34 be
       0.17670667 -0.17670646 -0.1767063 -0.17670625
000010 94 f2 34 be 7b f2 34 be 8c f2 34 3e 8a f2 34 3e
       -0.17670661 -0.17670624 0.1767065 0.17670646

encoder_variable_selection.single_variable_grns.time_idx.resample_norm.mask f4 [16]
000000 ef f1 34 be 0a f1 34 3e 37 f2 34 3e bc ee 34 3e
       -0.17670415 0.17670074 0.17670523 0.17669195
000010 1c f2 34 be 92 f1 34 be b6 f1 34 be 07 f2 34 3e
       -0.17670482 -0.17670277 -0.1767033 0.17670451
000020 15 f2 34 be 53 f2 34 be e7 f0 34 be 9d f1 34 3e
       -0.17670472 -0.17670564 -0.17670022 0.17670293
000030 ec f0 34 3e 59 f2 34 3e e1 da 34 3e 87 f1 34 3e
       0.1767003 0.17670573 0.1766162 0.1767026

encoder_variable_selection.single_variable_grns.time_idx.resample_norm.norm.weight f4 [16]
000000 6d c3 52 3f 2d 9e 96 3f 4c 9e 96 3f 1b 9e 96 3f
       0.82329446 1.1767021 1.1767058 1.1767
000010 61 c3 52 3f 73 c3 52 3f 6e c3 52 3f 4a 9e 96 3f
       0.82329375 0.8232948 0.8232945 1.1767056
000020 64 c3 52 3f 60 c3 52 3f 86 c3 52 3f 3f 9e 96 3f
       0.8232939 0.8232937 0.82329595 1.1767043
000030 0c 9e 96 3f 4d 9e 96 3f ba 9d 96 3f e0 9d 96 3f
       1.1766982 1.176706 1.1766884 1.176693

encoder_variable_selection.single_variable_grns.time_idx.resample_norm.norm.bias f4 [16]
000000 77 f2 34 3e ef f1 34 3e 57 f2 34 3e 3a f1 34 be
       0.17670618 0.17670415 0.1767057 -0.17670146
000010 6d f2 34 3e 36 f2 34 3e fa f0 34 be 2e f2 34 be
       0.17670603 0.17670521 -0.1767005 -0.17670509
000020 78 f2 34 be 80 f2 34 be b7 f1 34 3e 6b f2 34 3e
       -0.1767062 -0.17670631 0.17670332 0.176706
000030 9e f0 34 3e 36 f2 34 be 6a f2 34 be ce dd 34 3e
       0.17669913 -0.17670521 -0.17670599 0.17662737

encoder_variable_selection.single_variable_grns.time_idx.fc1.weight f4 [8, 8]
000000 65 f5 65 bd 19 68 92 be 3a 96 49 bf 4a 48 53 3f
       -0.05614223 -0.28595045 -0.7874485 0.8253218
000010 0f f3 89 bf db 5e 91 bf c8 9e 26 bf f0 8c 03 bd
       -1.0777301 -1.1357073 -0.6508603 -0.03211683
000020 bc cd c5 3e 8d 09 26 3f c9 35 0e be f9 84 ab 3e
       0.38633525 0.64858323 -0.13887705 0.33499888
000030 9c 8d a5 3e fb 4f cf 3e 6a bd 37 bf fd 95 b2 be
       0.32334602 0.40490708 -0.717734 -0.34880057
000040 b8 89 29 be 20 68 c5 3e 27 f5 61 bf cc a3 04 3f
       -0.16556442 0.38556004 -0.882647 0.51812434
000050 d1 a7 3b 3f c9 d5 21 bf e4 f1 1c 3f 24 c5 19 bd
       0.7330294 -0.63216835 0.61306596 -0.037541524
000060 9c 28 85 3e d7 19 ef bd ff 63 db be 0f d7 44 bf
       0.26007545 -0.116748504 -0.42849728 -0.76890653
000070 b8 8f 78 3e 57 ba 13 3e 1f 27 ff be 11 4c 6a 3f
       0.24273574 0.14426552 -0.49834535 0.9152232
000080 99 1c b9 bd e3 5d d8 3e 2a 1e a8 bd ae cf 09 bd
       -0.09038658 0.4225913 -0.08208878 -0.033645324
000090 bb 71 a1 bd 58 50 80 3f b9 1e 82 bf e8 44 a4 3e
       -0.078830205 1.0024519 -1.0165626 0.3208382
0000a0 46 f1 0e bf 9a d1 46 3e 9a bc 6d 3c 88 75 09 bf
       -0.55836904 0.19415894 0.014510298 -0.53694963
0000b0 2a 79 28 bf dc 51 22 3f 0b a5 a2 be 9a 5a 98 3c
       -0.6580988 0.6340616 -0.31766543 0.01859789
0000c0 f5 a6 ec be 9d 7d 59 3f bd 56 e9 3e 12 26 2b be
       -0.46221128 0.84957296 0.4557399 -0.16713741
0000d0 4d 7b 82 3f 75 f0 17 3f 83 67 82 be 87 21 36 3f
       1.0193878 0.59351283 -0.25469598 0.7114491
0000e0 ae 9d 41 bf bd 4e 0c 3f b5 72 80 be f4 95 f5 3c
       -0.75631225 0.54807645 -0.25087515 0.02997873
0000f0 f6 e6 d6 3c f5 0f aa be 2a 0c 1b bd 8f 23 6e bc
       0.026233178 -0.332153 -0.037853397 -0.014534845

encoder_variable_selection.single_variable_grns.time_idx.fc1.bias f4 [8]
000000 88 f1 34 3e 6a f2 34 3e f0 f1 34 3e 07 f2 34 3e
       0.17670262 0.17670599 0.17670417 0.17670451
000010 46 f2 34 3e d3 f0 34 be 31 f2 34 3e a2 f0 34 3e
       0.17670545 -0.17669992 0.17670514 0.17669919

encoder_variable_selection.single_variable_grns.time_idx.fc2.weight f4 [8, 8]
000000 a5 b2 4e bf 96 b0 3a bf 89 68 9d 3e 4d 97 61 3e
       -0.8074134 -0.729257 0.30743816 0.22030373
000010 4f 3a 53 bf 0b f6 d4 3e ff 1a 39 bf d3 8b ae 3f
       -0.82510847 0.41593966 -0.7230682 1.3636421
000020 8f 0c 3c be 2e 2a 4c 3d 95 b9 83 3f 86 82 1d 3e
       -0.18364166 0.049844913 1.029101 0.15381822
000030 e3 08 9a 3e 78 fb ce 3c 1a df b9 3e 78 7a d5 3e
       0.30084905 0.025266394 0.36303025 0.41695
000040 0e d8 cb 3e 2d 4b 35 bd 1a eb 54 be 22 8d 0d bf
       0.39813274 -0.044261146 -0.20792809 -0.55293477
000050 17 9c ea be 57 c0 0c 3f b0 66 8d 3e c8 6d 00 3d
       -0.45822212 0.5498099 0.27617407 0.031354696
000060 d9 82 66 bf 76 54 8f be d9 e1 3d 3e 2c 80 99 3c
       -0.9004341 -0.27994126 0.18543185 0.018737875
000070 c0 36 61 be bf 14 2c bf 24 45 58 be dc 74 1b bf
       -0.21993542 -0.67219156 -0.21120125 -0.6072519
000080 2b dd 20 3f 08 0b 4a be 05 ea 73 be c5 0f 17 bf
       0.62837476 -0.1973077 -0.2381974 -0.5900844
000090 1f e5 c1 3d f5 55 f8 be d4 34 f8 be c8 d1 0c be
       0.094675295 -0.4850308 -0.48477805 -0.137519
0000a0 ce cd 6f 3f f4 ff 20 be 7a a6 b6 3f 1f e9 8c be
       0.9367341 -0.15722638 1.4269555 -0.27521607
0000b0 a5 77 a7 bd 57 fb f4 bd 8e 5b e0 be 5f d0 06 3e
       -0.08177117 -0.11962002 -0.4381985 0.13165425
0000c0 4c 51 10 bf aa 95 c6 bf 90 93 61 bf 0f 2f 25 be
       -0.5637405 -1.5514424 -0.8811579 -0.16131233
0000d0 f2 38 43 bf 10 83 68 3d 2b 58 30 bf 53 90 1a bd
       -0.76258767 0.056765616 -0.68884534 -0.037735295
0000e0 32 db af 3e 87 f9 10 bf 98 18 af 3f 40 1a bd bf
       0.3434692 -0.5663075 1.367938 -1.4773636
0000f0 95 84 54 bf ae 66 49 be 59 67 12 be be af 9e be
       -0.83014804 -0.19668075 -0.14297237 -0.30993456

encoder_variable_selection.single_variable_grns.time_idx.fc2.bias f4 [8]
000000 66 eb 34 be c1 f1 34 3e c1 e7 34 be 4d e9 34 be
       -0.17667922 0.17670347 -0.17666532 -0.17667122
000010 36 ec 34 be bb f1 34 be 4f f2 34 be d2 f1 34 be
       -0.17668232 -0.17670338 -0.17670558 -0.17670372

encoder_variable_selection.single_variable_grns.time_idx.gate_norm.glu.fc.weight f4 [32, 8]
000000 96 34 c2 be c0 88 39 3e 88 9c 11 bd 0c 75 b9 be
       -0.37930745 0.18118572 -0.03554967 -0.36222112
000010 f4 52 4c 3e 6e 25 06 be 20 00 05 bf 40 27 cb bd
       0.19953519 -0.13100216 -0.51953316 -0.09919596
000020 9a 54 97 be 89 27 e7 3c 6f a4 02 be 51 0b 9a 3e
       -0.29556733 0.028217094 -0.12758039 0.3008676
000030 40 ca 25 3c 38 32 79 be 6b d8 c7 be 6b 12 e5 bc
       0.010119021 -0.24335563 -0.390323 -0.027962884
000040 80 4c 1c 3a 32 82 0f 3e 22 79 ae 3e 82 17 22 be
       0.0005962327 0.1401451 0.34076792 -0.1582928
000050 77 4d 07 bf ae 79 e5 be 1e 2d 25 3e ea 8f 3f 3e
       -0.52852577 -0.44819397 0.16130492 0.18707243
000060 ef 50 b3 3e 6c fb 29 3e 87 44 73 3e 9c 14 99 3e
       0.35022685 0.16599816 0.2375661 0.29898536
000070 6a 2e e2 3e 08 55 0a 3e 50 be 1a be 48 51 93 3d
       0.44176036 0.13509 -0.15111661 0.071932375
000080 7d 0c 6e bc 34 db 86 3d dc 13 f8 be f2 60 2e 3e
       -0.014529345 0.065847784 -0.48452652 0.17029169
000090 e3 6b d6 be d2 d2 97 be 69 5d 28 be 54 7a 91 be
       -0.41879186 -0.2965303 -0.16441883 -0.2841364
0000a0 c2 db 98 be 2f c1 16 bd 7f 61 b1 bd 44 ae 00 be
       -0.29855162 -0.036805328 -0.08661174 -0.12566477
0000b0 96 08 ec 3c d5 ec 7d 3d 9a e8 d8 be 08 07 4c 3d
       0.028812688 0.06199344 -0.4236496 0.049811393
0000c0 64 8c 92 be eb d8 a0 3c bd 1b 02 bf cc ca 6c 3e
       -0.28622735 0.019634685 -0.50823575 0.23124236
0000d0 fe c3 03 3e 95 0d 02 bf dc 16 fa bd f7 d6 36 3e
       0.12867734 -0.50801975 -0.12211391 0.1785544
0000e0 13 79 16 3e 48 2f 26 3e 74 ba 59 3e ce f9 04 bf
       0.14694624 0.16228974 0.21262532 -0.5194367
0000f0 21 5e 65 3c df 73 ad 3e 18 c3 cb bd 25 50 98 3e
       0.013999493 0.33877465 -0.099493206 0.29748645
000100 a4 01 f7 3e b8 51 48 be 06 74 03 bf 97 bf 84 3d
       0.4824344 -0.19562423 -0.5134891 0.06481855
000110 23 fb d9 3e 3f 56 e2 3d b7 ec 07 3f a5 bb a6 3e
       0.42574415 0.110516064 0.53095573 0.32565036
000120 c1 8d ea 3e 01 93 98 bd 60 b5 7b 3e 6b e5 b0 3e
       0.45811275 -0.07449914 0.24580908 0.34550032
000130 0b 8a 91 3e e9 8a f4 3e 04 30 26 3e c1 1b fa 3e
       0.2842563 0.4776223 0.16229254 0.488493
000140 17 e2 fe 3e fb c8 f3 3d 2a 13 f3 bd 0b 02 2b be
       0.49781868 0.11903568 -0.1186889 -0.16699998
000150 9b bb dc 3d 0e f6 d9 3e 87 f9 35 be af 5b a0 3d
       0.107779704 0.42570537 -0.17770968 0.07829987
000160 f0 7d 7a 3d 2c 5d 67 be 16 b1 76 be c6 a7 81 be
       0.06115526 -0.22594136 -0.2409099 -0.25323313
000170 f9 a2 ca be 1a 51 18 be 2f a6 a7 bd 97 8b fe bc
       -0.39577463 -0.14874688 -0.08185994 -0.031072421
000180 e1 18 a6 bd ad f8 fa be 1a 2d 98 be 5e ed 3c 3e
       -0.08110214 -0.4901785 -0.2972191 0.18449923
000190 a4 40 03 3f e2 c1 b6 be 60 9b fb 3d 87 25 ff 3d
       0.5127051 -0.35694796 0.12285495 0.1245833
0001a0 78 7c 0b be 2b e8 36 3d ea 6f b8 3c 90 bb 46 3e
       -0.136217 0.044655006 0.022514302 0.19407487
0001b0 49 da 01 3f 96 f6 d0 be d4 3d 04 3f 65 9e 30 3e
       0.507237 -0.4081313 0.5165684 0.17247923
0001c0 c7 21 61 3e 6d 25 b3 3e 3c 31 99 3e 04 6a 83 3e
       0.21985541 0.3498949 0.29920375 0.2566682
0001d0 a9 71 8c 3d dc 9c 87 3e fa 64 0f 3f 6d ba 03 3f
       0.068576165 0.26486862 0.56013453 0.5145634
0001e0 73 67 80 bd dd 45 02 3e 1d 8d ed bd 7c a9 3c 3e
       -0.062697314 0.12721963 -0.11599181 0.18424028
0001f0 65 23 57 3e 97 4e c8 bd 3b 02 84 3d 0f 0c 9e 3e
       0.21009596 -0.09780615 0.06445738 0.30868575
000200 d3 0f 86 3d 18 8e 07 3f a6 c7 4f be b2 18 96 3d
       0.06545987 0.5295119 -0.20291004 0.07328929
000210 89 5a 0f be 46 25 76 3d 27 49 b1 3d ae 98 ff 3e
       -0.1399938 0.06009414 0.08656531 0.49921173
000220 84 dc 22 be 65 87 2e be f4 f2 04 bd 98 56 07 bf
       -0.15904433 -0.17043836 -0.03245826 -0.52866507
000230 49 0f ab 3d 1b b6 0f bf cb b3 2b 3e 41 0f 4a be
       0.08352525 -0.56137246 0.16767804 -0.19732381
000240 64 6a 8a bd 4b e0 82 be a5 6f 00 3d 1c 9d 0e 3f
       -0.06758574 -0.25561747 0.031356473 0.5570848
000250 bc 27 8f bc ff c3 00 3e 9e c8 0c 3f 09 0c 1b 3e
       -0.017475002 0.12574767 0.5499362 0.1514131
000260 64 04 04 3e e2 74 67 bd d9 ee 51 3e eb df 14 be
       0.128923 -0.056507953 0.2050127 -0.14538543
000270 c5 e3 98 3e 1f 08 af 3e 4b 33 c8 3d 95 be 06 3f
       0.29861274 0.34185883 0.09775408 0.52634555
000280 19 59 07 3e df fe a6 be 43 28 40 3d 0c df f4 be
       0.13217582 -0.32616326 0.046913397 -0.4782642
000290 d0 07 ee 3d 87 e0 0c bf 35 e9 c6 be f3 d8 bd 3d
       0.11622584 -0.550301 -0.38849798 0.092698954
0002a0 2e 53 67 3d 69 83 6d be fb c8 54 be ab d3 80 3e
       0.05647581 -0.2319466 -0.20779793 0.2516149
0002b0 20 12 cc 3e 1e 55 e0 bc af 97 5b 3e 88 3e b0 3e
       0.39857578 -0.027384337 0.21444581 0.34422708
0002c0 32 13 e7 be 24 17 f6 be d2 5a 98 be eb b5 1f be
       -0.45131832 -0.4806453 -0.2975679 -0.1559674
0002d0 be 64 93 3c 2a da 0a 3d c2 71 53 3e fc f5 03 be
       0.017992374 0.033899464 0.20648864 -0.12886804
0002e0 97 a5 35 be ee a4 0a 3f c2 ed f0 3e 9c 88 7b be
       -0.17738949 0.5415791 0.47056395 -0.24563831
0002f0 bc 2f 39 be 6e 15 12 be f9 16 93 3d 10 80 83 be
       -0.18084615 -0.14265987 0.07182116 -0.2568364
000300 75 71 41 bc fc c7 bd 3e 9e 82 1e bd 11 b8 07 bf
       -0.011806835 0.37066638 -0.038698785 -0.5301524
000310 ed 59 f3 3d 3e 22 08 bf f9 34 b3 be 19 b5 39 be
       0.11882386 -0.5317725 -0.35001352 -0.1813549
000320 05 82 89 be 61 cf a6 bd 95 b7 0d 3e 8e 43 13 3e
       -0.2685701 -0.08145023 0.13839562 0.14381239
000330 ca a7 54 3e 24 db 23 3e 9a 34 59 be a4 47 83 be
       0.20767131 0.16001564 -0.21211472 -0.25640595
000340 e4 58 f3 3c 2a 74 2a be b9 dc 3d 3e 5b 4b c7 bc
       0.029705472 -0.16645876 0.1854123 -0.024327924
000350 8e aa 7a 3e b5 c0 ab be 34 ac eb be 4d f5 44 be
       0.24479124 -0.3354546 -0.46029818 -0.192342
000360 1f 35 d1 3e 01 b8 f3 3e 9a 2c 4f be 17 23 2d 3e
       0.4086084 0.4760132 -0.20231858 0.16907917
000370 71 e0 41 3e b9 b3 cf bc 70 dd 87 bd 1c f9 ca 3e
       0.18933274 -0.025354253 -0.06634033 0.3964318
000380 50 31 6a 3c e2 34 f8 3b 9d fe 94 3e 9c 32 d7 bd
       0.014293984 0.0075746635 0.29100505 -0.105077
000390 a6 67 43 be fe b0 03 be 7c ee 02 3e 79 a0 bc 3e
       -0.19082507 -0.12860486 0.12786287 0.3684118
0003a0 67 a0 b5 bd a3 ea 7b 3e 1f a2 a0 bd 06 73 48 3c
       -0.08868485 0.24601226 -0.07843422 0.012234455
0003b0 e8 8d 9c 3d c5 12 09 3f 5c ab 99 be 6a bd 00 bf
       0.07644254 0.53544265 -0.3001355 -0.5028902
0003c0 4f d9 85 bd 93 35 15 bd 1e 35 87 bd f6 40 a7 be
       -0.06535589 -0.036428045 -0.06601928 -0.3266675
0003d0 ef f0 e9 bd 1d e5 c2 be d4 3d df be 18 62 5a bd
       -0.114229076 -0.38065425 -0.4360186 -0.053316206
0003e0 95 cc c2 bc 9b 9e d5 be 0e 72 04 bf 11 a3 bb 3e
       -0.023779193 -0.4172257 -0.51736534 0.36647847
0003f0 ad db 5d 3e b9 ad 1c 3e 0d 00 de 3e 04 ea 31 be
       0.21665831 0.15300645 0.43359414 -0.17374426

encoder_variable_selection.single_variable_grns.time_idx.gate_norm.glu.fc.bias f4 [32]
000000 fa f1 34 3e 3f f0 34 3e d2 f1 34 3e 51 ee 34 be
       0.17670432 0.17669772 0.17670372 -0.17669035
000010 2a f2 34 3e 65 f1 34 3e 78 ef 34 be b9 f1 34 be
       0.17670503 0.1767021 -0.17669475 -0.17670335
000020 5a f2 34 be 50 f2 34 be be f1 34 3e 36 f2 34 3e
       -0.17670575 -0.1767056 0.17670342 0.17670521
000030 9e ec 34 3e cf f1 34 be 39 f2 34 be a6 d9 34 be
       0.17668387 -0.17670368 -0.17670526 -0.17661151
000040 c2 dc 34 3e 94 e8 34 3e 6b f1 34 be 10 ec 34 be
       0.17662337 0.17666847 -0.17670219 -0.17668176
000050 68 ef 34 3e 4c ef 34 be b6 ef 34 3e f4 e8 34 3e
       0.17669451 -0.1766941 0.17669567 0.1766699
000060 07 f2 34 3e 37 f2 34 3e fd e9 34 be 1b f1 34 be
       0.17670451 0.17670523 -0.17667384 -0.176701
000070 9f ed 34 be a8 ef 34 3e 19 f2 34 3e 56 ee 34 be
       -0.1766877 0.17669547 0.17670478 -0.17669043

encoder_variable_selection.single_variable_grns.time_idx.gate_norm.add_norm.norm.weight f4 [16]
000000 18 9e 96 3f 45 9e 96 3f 4d 9e 96 3f 18 9e 96 3f
       1.1766996 1.176705 1.176706 1.1766996
000010 88 c3 52 3f d0 c3 52 3f 73 c3 52 3f 4d 9e 96 3f
       0.82329607 0.82330036 0.8232948 1.176706
000020 7f c3 52 3f 65 c3 52 3f 7c c3 52 3f 37 9e 96 3f
       0.82329553 0.823294 0.82329535 1.1767033
000030 4d 9e 96 3f 50 9e 96 3f 4a 9e 96 3f 4e 9e 96 3f
       1.176706 1.1767063 1.1767056 1.1767061

encoder_variable_selection.single_variable_grns.time_idx.gate_norm.add_norm.norm.bias f4 [16]
000000 7c f2 34 3e 41 f2 34 3e 68 f2 34 3e 65 f0 34 be
       0.17670625 0.17670538 0.17670596 -0.17669828
000010 53 f2 34 3e 5d f1 34 3e 06 f0 34 be a0 f1 34 be
       0.17670564 0.17670198 -0.17669687 -0.17670298
000020 75 f2 34 be 7f f2 34 be 0a f1 34 3e 6c f2 34 3e
       -0.17670615 -0.1767063 0.17670074 0.17670602
000030 40 f2 34 be 77 f2 34 be 74 f2 34 be 5a f2 34 3e
       -0.17670536 -0.17670618 -0.17670614 0.17670575

encoder_variable_selection.single_variable_grns.T2M.resample_norm.mask f4 [16]
000000 f1 f1 34 be 97 f1 34 3e 84 f1 34 be aa ea 34 3e
       -0.17670418 0.17670284 -0.17670256 0.17667642
000010 b6 ed 34 3e 46 f0 34 3e 45 cb 34 be c6 ef 34 3e
       0.17668805 0.17669782 -0.17655666 0.17669591
000020 62 f0 34 be 26 f0 34 be 63 e3 34 3e c3 ef 34 be
       -0.17669824 -0.17669734 0.17664866 -0.17669587
000030 4e f0 34 3e 7d d8 34 be 70 68 34 be b9 f1 34 3e
       0.17669794 -0.17660709 -0.17617965 0.17670335

encoder_variable_selection.single_variable_grns.T2M.resample_norm.norm.weight f4 [16]
000000 6e c3 52 3f 45 9e 96 3f 7b c3 52 3f f6 9d 96 3f
       0.8232945 1.176705 0.8232953 1.1766956
000010 06 9e 96 3f 2d 9e 96 3f 6b 9c 96 3f 27 9e 96 3f
       1.1766975 1.1767021 1.1766485 1.1767014
000020 ad c3 52 3f a7 c3 52 3f 0f 9d 96 3f bb c3 52 3f
       0.8232983 0.8232979 1.176668 0.8232991
000030 2d 9e 96 3f 0b c6 52 3f 4d c7 52 3f 45 9e 96 3f
       1.1767021 0.8233344 0.8233536 1.176705

encoder_variable_selection.single_variable_grns.T2M.resample_norm.norm.bias f4 [16]
000000 00 f2 34 3e 96 f1 34 be b2 f1 34 3e 6e ee 34 be
       0.1767044 -0.17670283 0.17670324 -0.17669079
000010 53 f1 34 3e a9 f1 34 3e 6b c3 34 be 8e f1 34 3e
       0.17670183 0.17670311 -0.17652671 0.17670271
000020 18 f2 34 be cb f1 34 be f7 f0 34 3e 9f f0 34 3e
       -0.17670476 -0.17670362 0.17670046 0.17669915
000030 c0 f1 34 be 1a f2 34 be a2 f1 34 be 13 f2 34 3e
       -0.17670345 -0.1767048 -0.176703 0.17670469

encoder_variable_selection.single_variable_grns.T2M.fc1.weight f4 [8, 8]
000000 6d b5 d4 bd 28 f2 70 be 5a 37 dd bc c5 31 0d bf
       -0.10386167 -0.23529875 -0.027003933 -0.5515407
000010 12 8a 4f be d6 c0 1b bf d9 b5 05 bf f6 f9 49 bf
       -0.20267513 -0.6084112 -0.522306 -0.78897035
000020 73 dd 88 bf a3 a5 54 be c1 30 5f bf 45 42 df be
       -1.0692581 -0.2076631 -0.8718377 -0.43605247
000030 4d a9 38 bf 80 b2 89 3f a1 54 7a 3e 6e 0c 05 bf
       -0.7213333 1.0757599 0.24446346 -0.5197209
000040 b0 2b 00 bf ba b2 d6 3e eb 33 03 bd 04 78 6c bf
       -0.5006666 0.41933233 -0.032031935 -0.9237063
000050 78 01 31 3e af 95 08 bf c2 28 85 bf ba aa 6c bd
       0.17285717 -0.533534 -1.0403063 -0.057780005
000060 f8 7d 02 be c2 fe f4 be 09 44 87 3e bc f4 b9 be
       -0.12743366 -0.47850615 0.26419094 -0.3631953
000070 b3 07 20 bf aa 6c 03 3f c7 9a a4 be 4e 56 5d bf
       -0.6251175 0.51337683 -0.32149336 -0.86459816
000080 23 3a be bd ed 9d ac bd a2 a1 be bf b6 52 17 bf
       -0.092884324 -0.084285595 -1.4893076 -0.5911058
000090 c0 d3 82 3c 41 8f dd bd 3a 88 a5 3d c9 c6 30 be
       0.01597011 -0.10818339 0.08082624 -0.1726333
0000a0 80 2c 23 be e6 4c a3 3e 7c 90 9a be 37 04 5a bf
       -0.15934944 0.31894606 -0.30188358 -0.8516268
0000b0 1e 41 1e 3e a5 49 13 bf 84 93 0c 3f a8 48 20 bf
       0.15454528 -0.5753425 0.5491259 -0.62610865
0000c0 26 d6 d0 3e e6 76 31 be 61 51 d9 3e ee cd 20 3f
       0.40788382 -0.17330512 0.424449 0.62814224
0000d0 ae e1 bd 3e b0 68 39 bf 92 21 83 3c 18 fb 50 3c
       0.37086242 -0.72425365 0.016007219 0.012755178
0000e0 e1 34 24 bf c7 a7 55 bf 48 95 09 3f bf 76 7f 3f
       -0.64143187 -0.8345913 0.5374341 0.9979057
0000f0 3d 2b 23 be 22 4b 56 be d3 04 bb be 5e 4a 70 3f
       -0.15934463 -0.20927098 -0.36527118 0.93863475

encoder_variable_selection.single_variable_grns.T2M.fc1.bias f4 [8]
000000 9e f1 34 be a3 d1 34 be 89 f1 34 3e b1 f1 34 be
       -0.17670295 -0.17658095 0.17670263 -0.17670323
000010 a2 f0 34 be 79 f0 34 be d9 ec 34 3e b8 f0 34 3e
       -0.17669919 -0.17669858 0.17668475 0.17669952

encoder_variable_selection.single_variable_grns.T2M.fc2.weight f4 [8, 8]
000000 9e 0e e5 be cc 73 fd 3d 92 29 83 3e 97 ae 06 bf
       -0.44737715 0.12375602 0.25617653 -0.5261015
000010 24 ef 0a bf a4 1e 9a 3f a3 ec 0a bf 2f b8 e1 be
       -0.5427115 1.2040601 -0.5426733 -0.44085833
000020 7f 70 fe bc 1b fb b2 be 05 89 c2 be 87 8a c9 3b
       -0.031059502 -0.34957203 -0.37995163 0.006150547
000030 3c 4d 94 bd c5 06 9d be 91 4c 8f bf 59 54 82 bf
       -0.07241294 -0.30669227 -1.1195241 -1.0181991
000040 75 36 04 bd 16 32 f4 be 8b 10 79 bf 5c 25 30 bc
       -0.032278497 -0.47694463 -0.9729087 -0.010751095
000050 7f 16 42 3e ea f3 24 3f ea f6 28 3d 5c 85 1b be
       0.18953894 0.64434683 0.0412511 -0.15187591
000060 e1 81 2d bf c6 da 03 3f 35 bd 8b be 04 a2 37 be
       -0.67776304 0.51505697 -0.2729279 -0.17932898
000070 4b 75 c2 3e 95 96 93 3b 16 96 cb be cf 30 40 bf
       0.37980112 0.0045040348 -0.39762944 -0.75074476
000080 ae 5c 18 3f d9 51 bd 3e 87 a7 6d bd 99 3a 5a be
       0.5951642 0.36976507 -0.058021095 -0.21311416
000090 47 25 af be 38 40 03 3e bf 1c d6 3e c1 1d 04 3e
       -0.34208128 0.12817466 0.41818807 0.12901975
0000a0 d5 aa 29 3f e2 63 fd 3d 98 4b 67 bf b2 23 1e bd
       0.66276294 0.12372567 -0.9034972 -0.03860826
0000b0 36 39 c7 3e f4 30 09 3f a8 04 75 be cb 20 8e be
       0.38910836 0.5359032 -0.23927557 -0.27759394
0000c0 25 42 13 bf f2 e2 9b bf 34 fb 80 3e 35 72 05 3f
       -0.57522804 -1.2178633 0.25191653 0.5212739
0000d0 12 a2 b5 3e 44 cd 8b bd 4a 64 16 3e d8 ea 91 3e
       0.35475212 -0.06826261 0.14686695 0.28499484
0000e0 2d f7 1d bd 1c de e0 bd ec 93 cc be 17 f5 e8 3e
       -0.038565803 -0.10979864 -0.39956605 0.4549949
0000f0 b9 82 a5 bd e4 e2 a4 bf 67 96 23 bf 00 8e b2 3f
       -0.08081574 -1.2881742 -0.6390137 1.3949585

encoder_variable_selection.single_variable_grns.T2M.fc2.bias f4 [8]
000000 01 f1 34 3e 33 f0 34 be 00 f1 34 3e b0 f0 34 be
       0.1767006 -0.17669754 0.17670059 -0.1766994
000010 16 f0 34 3e ee f1 34 be 53 ef 34 be 11 f0 34 3e
       0.1766971 -0.17670414 -0.1766942 0.17669703

encoder_variable_selection.single_variable_grns.T2M.gate_norm.glu.fc.weight f4 [32, 8]
000000 c3 47 f2 bd 29 47 fd be 98 7f a9 bd eb 0e bc 3b
       -0.11830094 -0.49468353 -0.0827629 0.005739083
000010 85 e7 b9 bd 37 f6 2b bc 75 8f ae 3e cc ad bb 3d
       -0.09077362 -0.010495714 0.34093824 0.091640085
000020 03 d6 37 bd d2 17 c7 3d 4b 56 3d 3d a3 1f b7 be
       -0.04488183 0.0972134 0.046224874 -0.35766324
000030 e6 0e 01 3f 37 cc c3 be 01 fb 2b be 7c f7 f4 be
       0.5041336 -0.3824174 -0.16794969 -0.47845066
000040 7f 3a 3d be c5 f6 15 3e d8 30 c8 be e5 ca d6 be
       -0.18479346 0.14644916 -0.39099765 -0.4195167
000050 72 73 f0 b8 7d 70 51 be 2a e4 25 3e 67 f6 0a 3f
       -0.00011465595 -0.20453067 0.16200319 0.5428223
000060 48 d1 0e 3f 3e 5e 32 3e f1 c5 bb bd 10 b1 bc be
       0.5578809 0.17418763 -0.09168614 -0.36853838
000070 9f 4e 90 bc 6c c1 c3 3e 66 b7 37 3e fb bb 67 be
       -0.017615614 0.38233507 0.17941055 -0.22630303
000080 a3 06 37 bb ce d8 0a bf b0 d2 50 bd dc 9e 3e 3b
       -0.002792754 -0.5423707 -0.050982177 0.0029086387
000090 8d e5 f0 bd 07 ec c0 3e 3d 00 f3 3e a9 2f fb 3d
       -0.11762533 0.37680075 0.4746112 0.1226495
0000a0 08 3d bf be e7 4b ce 3d 7e 56 78 be d7 1b d9 be
       -0.3735125 0.10073071 -0.24251744 -0.42404053
0000b0 9c 6d 32 3e 79 40 53 3e f2 05 74 bd cc f6 50 3e
       0.17424625 0.20630063 -0.059575982 0.20406646
0000c0 3c e3 d0 be 6a d9 e4 be d6 6a 00 3e f4 01 64 be
       -0.40798366 -0.44697124 0.12540755 -0.2226637
0000d0 18 33 84 3e f9 98 a4 3b a7 a5 09 3f 86 38 98 3d
       0.2582023 0.0050231186 0.5376839 0.07432656
0000e0 c0 76 1b 3e da 7a 7f bd 3f b3 40 3d df c7 77 be
       0.15182018 -0.06237302 0.047045942 -0.24197339
0000f0 31 cb 46 be 50 93 97 3e 5c 5c 8f 3e e6 3f c4 bd
       -0.19413449 0.29604578 0.28000152 -0.095825
000100 c2 77 a4 3d 29 9a 22 3e fa 10 2a 3e 27 c7 d1 3d
       0.080306545 0.1587912 0.16608039 0.102430634
000110 bd 6a 76 3c c3 fb 18 3e c1 e3 17 3e ac a4 b3 be
       0.015040097 0.1493979 0.14832975 -0.35086572
000120 31 95 05 be db b4 47 3e 41 01 0d 3f e4 b3 dd bc
       -0.13045193 0.19502585 0.5508004 -0.027063318
000130 46 f5 ca be 13 4b 9b bd 1c 92 bb 3d ef 73 3d 3e
       -0.39640254 -0.07582679 0.091587275 0.18501256
000140 ac 77 01 bf 93 ec 6d be f9 9c ad 3c 06 37 75 be
       -0.5057323 -0.23234777 0.021193014 -0.23946771
000150 99 fe 27 be 3f 94 89 3d 5b d9 3d 3e ac d4 07 bd
       -0.16405715 0.06717729 0.18539946 -0.033161804
000160 1e d5 a4 be 6f f5 2f be c6 61 58 be a4 85 f8 bd
       -0.32193846 -0.17183469 -0.21131048 -0.12134865
000170 26 d0 5c bc e4 22 9d 3d 0e 5d ef be 70 bf 01 3e
       -0.013477361 0.076726705 -0.46750683 0.12670684
000180 ea a5 8b 3d 2a 17 aa 3e ed 0a b7 3b 15 3e 0c 3f
       0.06818755 0.33220798 0.0055860193 0.5478223
000190 46 68 0d bf 3d 13 d2 be f0 fc f2 bb 44 f8 30 bd
       -0.55237234 -0.41030303 -0.0074154064 -0.043205515
0001a0 eb 6d c8 bd 8c 3e d0 3e 5e e0 48 be 06 e2 8e 3e
       -0.0978659 0.4067272 -0.1961684 0.27906817
0001b0 2e 83 d1 3e 14 09 46 3e 87 57 49 be 4b c7 e3 be
       0.40920395 0.193394 -0.19662295 -0.44487986
0001c0 f5 a5 d6 3e 03 42 21 3d 08 7e b4 3e 5b 1b 94 3e
       0.4192349 0.039369594 0.35252404 0.2892712
0001d0 19 fa 55 3e ce 1a b9 3d 8e e4 f4 bd 63 33 69 3d
       0.20896186 0.09038316 -0.11957656 0.05693377
0001e0 3d 2f a7 bc bd aa d9 be 94 28 ed 3d 5d 37 0c bf
       -0.020408267 -0.42513075 0.11580005 -0.5477198
0001f0 5d 76 cd be e8 f6 35 bd 94 6b da 3d 5b 4e c6 3e
       -0.40129367 -0.04442492 0.1066505 0.38731655
000200 9e 1a 67 3c 09 7a 0e 3e 1d d4 d3 3e 23 55 db 3e
       0.014105467 0.1391374 0.41372767 0.42838392
000210 ea 0b 77 bd e4 bb e7 be 1b 0b cb be 60 fa b2 be
       -0.060314097 -0.45260537 -0.3965691 -0.34956646
000220 47 78 70 be 36 6b ce be 9b c1 dd be 5e 34 38 3d
       -0.23483382 -0.4031617 -0.43311772 0.044971816
000230 e5 44 14 3e 90 6c a5 3d 94 2e aa 3d 19 d3 4e be
       0.14479406 0.08077347 0.08309665 -0.20197715
000240 9f 9e 05 bf dd 69 8e be a6 ba 37 3c f5 b1 b6 be
       -0.5219516 -0.27815142 0.011213934 -0.35682645
000250 66 3a 27 3e 20 23 08 3f 52 42 fe bd 26 2b e2 3e
       0.16330871 0.53178596 -0.12414993 0.44173545
000260 dc 62 54 3d 4a 5d cd be 38 1b 84 3d da 2b 6e be
       0.051852092 -0.40110236 0.06450504 -0.23258916
000270 21 42 ef be f0 59 aa 3d 8b 87 b4 bd 58 b8 0d 3e
       -0.4673014 0.083179355 -0.08814915 0.13839853
000280 59 8d 01 bf 35 07 fa bd 29 47 06 3e d1 18 08 3f
       -0.50606304 -0.12208406 0.13113083 0.53162867
000290 6d c7 ea be ee 98 9a bd 42 48 e4 bd 63 7d 49 3e
       -0.45855275 -0.075487 -0.111465946 0.19676737
0002a0 01 59 9e bc 3c 6e 40 3e a9 63 01 3f b9 24 62 3d
       -0.01932955 0.18792051 0.50542694 0.055210803
0002b0 38 05 05 3f 13 cf 92 3e c1 f7 42 3d 98 03 98 bd
       0.5196109 0.2867361 0.047599558 -0.074225605
0002c0 e5 40 19 3e d4 10 dc 3e 61 80 ef bd b3 1e ee bd
       0.14966162 0.4298159 -0.11694408 -0.11626949
0002d0 a6 e2 01 3f c5 3d 52 3e 5e 30 e6 be 4f eb 0c bf
       0.50736463 0.20531376 -0.44958776 -0.5504655
0002e0 0d c2 b4 3c 8b f0 53 3e 1a 8b 91 bd cb b1 08 3f
       0.022065187 0.20697229 -0.0710661 0.5339629
0002f0 4d 1a f0 3e 67 10 5f be 7f 62 ce be 3b 86 2d be
       0.46895066 -0.21783601 -0.40309522 -0.16945736
000300 d5 76 fc 3e d0 75 c5 bd 64 bb 1e be c4 52 24 3e
       0.49309412 -0.096416116 -0.15501171 0.16047198
000310 01 99 cf 3d 66 b6 34 3d bf fc c9 bd 4a 62 77 be
       0.10136605 0.04411926 -0.098626606 -0.24158588
000320 dc 37 54 3e 09 f0 36 3e 78 7c a2 3e 0c 9a a8 3d
       0.20724434 0.17865004 0.31735587 0.08232507
000330 a4 db a9 bd 74 f8 1a 3e 9e 86 c0 be e0 15 b3 be
       -0.08293846 0.1513384 -0.37602705 -0.34977627
000340 9a 51 94 3e ab 11 4b 3e b8 62 da 3e 09 e7 d0 be
       0.28968507 0.19830959 0.4265344 -0.40801266
000350 94 27 44 be 34 03 f4 3e b3 be ab bd c5 97 a2 be
       -0.19155723 0.47658694 -0.08385982 -0.31756416
000360 cf 32 46 3e af 2f ac 3e bd 9b 15 be 75 a8 77 3e
       0.1935532 0.3363013 -0.1461019 0.24185355
000370 d5 df f4 bd 3e 76 2f 3e 87 41 dc 3e 73 4e 9d bd
       -0.11956755 0.1713495 0.43018743 -0.076809786
000380 62 55 d2 3d 50 66 36 bd c7 55 60 be 28 4d b0 be
       0.10270192 -0.044531167 -0.21907721 -0.34433866
000390 98 d9 63 3e dd fb 4b be 12 ee de 3e eb 04 57 3d
       0.22250974 -0.19920297 0.43541008 0.052494925
0003a0 1b ca 8a be 12 ea 12 3e b3 02 50 be d9 11 e1 bd
       -0.2710732 0.14347103 -0.2031353 -0.10989732
0003b0 4a ef fc b7 d7 89 34 be 95 1d 7b 3e 1e 4c 22 3e
       -3.0152169e-05 -0.17630707 0.24523003 0.15849349
0003c0 09 98 cd bd 0c b3 86 3d 92 b5 01 3f f4 fc a5 3d
       -0.10038764 0.06577119 0.5066768 0.081048876
0003d0 bd 19 9a 3e 46 35 81 be 50 8a 4f 3d e4 89 e8 3a
       0.30097762 -0.25235957 0.050669014 0.001774129
0003e0 c3 5a a1 bd 80 bc 02 bf 6d 17 2b 3d 85 64 0b 3e
       -0.078786395 -0.5106888 0.041770387 0.13612564
0003f0 de 0d d7 be df a8 0b 3f 28 11 84 3e 94 bf 55 be
       -0.42002767 0.5455455 0.2579434 -0.20873863

encoder_variable_selection.single_variable_grns.T2M.gate_norm.glu.fc.bias f4 [32]
000000 90 f0 34 3e 4d eb 34 be 85 f1 34 3e 31 e5 34 be
       0.17669892 -0.17667885 0.17670257 -0.17665555
000010 a2 ef 34 3e a1 eb 34 3e ea eb 34 3e 08 f0 34 3e
       0.17669538 0.1766801 0.17668119 0.1766969
000020 83 f1 34 be 98 f0 34 be de ed 34 3e d6 ee 34 3e
       -0.17670254 -0.17669904 0.17668864 0.17669234
000030 c6 f0 34 be a8 f1 34 be fc f0 34 be a2 f0 34 3e
       -0.17669973 -0.1767031 -0.17670053 0.17669919
000040 5a c4 34 be f2 eb 34 3e b9 ea 34 3e 8a cf 34 3e
       -0.17653027 0.17668131 0.17667665 0.17657295
000050 f6 d5 34 3e bb d5 34 3e bd da 34 be 7d ef 34 be
       0.17659745 0.17659657 -0.17661567 -0.17669483
000060 4c ec 34 be 90 f0 34 be 33 00 29 3e 28 c1 34 be
       -0.17668265 -0.17669892 0.16503982 -0.17651808
000070 34 ec 34 3e 78 e1 34 3e 95 d5 34 be 23 ef 34 3e
       0.1766823 0.17664135 -0.176596 0.17669348

encoder_variable_selection.single_variable_grns.T2M.gate_norm.add_norm.norm.weight f4 [16]
000000 61 c3 52 3f 1c 9e 96 3f 79 c3 52 3f 62 9d 96 3f
       0.82329375 1.1767001 0.8232952 1.176678
000010 7d 9d 96 3f f8 9d 96 3f 12 c4 52 3f 3d c4 52 3f
       1.1766812 1.1766958 0.8233043 0.82330686
000020 7a c3 52 3f 6e c3 52 3f 11 d3 52 3f 80 c3 52 3f
       0.82329524 0.8232945 0.8235331 0.8232956
000030 ce 9d 96 3f a0 9a 96 3f 9d c3 52 3f 3f 9e 96 3f
       1.1766908 1.1765938 0.8232973 1.1767043

encoder_variable_selection.single_variable_grns.T2M.gate_norm.add_norm.norm.bias f4 [16]
000000 47 f2 34 3e 0e eb 34 3e 1e f2 34 3e 06 ed 34 3e
       0.17670546 0.17667791 0.17670485 0.17668542
000010 ea ef 34 3e ea f0 34 3e c9 f0 34 be a4 f1 34 3e
       0.17669645 0.17670026 -0.17669977 0.17670304
000020 42 f2 34 be 36 f2 34 be 10 f1 34 3e 9f f1 34 3e
       -0.17670539 -0.17670521 0.17670083 0.17670296
000030 c7 f1 34 be 28 f2 34 be 06 f2 34 be d6 f1 34 3e
       -0.17670356 -0.176705 -0.1767045 0.17670378

encoder_variable_selection.single_variable_grns.T2M_MAX.resample_norm.mask f4 [16]
000000 82 f1 34 be 3a f1 34 3e 31 f2 34 be 40 f0 34 3e
       -0.17670253 0.17670146 -0.17670514 0.17669773
000010 8e ef 34 be ae ee 34 3e aa f0 34 be 76 f1 34 3e
       -0.17669508 0.17669174 -0.17669931 0.17670235
000020 4f f2 34 3e 5d f2 34 3e 7e ee 34 be d4 ee 34 3e
       0.17670558 0.17670579 -0.17669103 0.1766923
000030 98 f1 34 be 5c f2 34 be 0d f2 34 be d7 f1 34 3e
       -0.17670286 -0.17670578 -0.1767046 0.1767038
