ai_predict/ai/lightning_logs/version_19/checkpoints/epoch=2-step=24.ckpt (torch, 662004 bytes, 889 tensors)

prescalers.time_idx.weight f4 [8, 1]
0	0xbc54ecca	-0.012995908
1	0x3e3c90c7	0.18414603
2	0xbf1623d3	-0.58648413
3	0x3e862e30	0.26207113
4	0x3f7a9d28	0.9789605
5	0x3f45ab32	0.7721435
6	0x3f829100	1.02005
7	0xbed237f0	-0.41058302

prescalers.time_idx.bias f4 [8]
0	0x3c39e337	0.011345676
1	0xbe17cba3	-0.14823775
2	0x3eedaecc	0.46422422
3	0xbedd19dc	-0.43183792
4	0x3de1ca6d	0.11024938
5	0xbf154eab	-0.5832316
6	0x3d0f9cc0	0.035061598
7	0x3ec2cc08	0.38046288

prescalers.T2M.weight f4 [8, 1]
0	0xbec18e57	-0.3780391
1	0xbef98188	-0.48731637
2	0xbe71dfd6	-0.23620543
3	0x3f40e1e6	0.75344694
4	0x3f8bb4da	1.0914567
5	0xbf841180	-1.031784
6	0x3f63645d	0.8882502
7	0x3e9a3508	0.30118585

prescalers.T2M.bias f4 [8]
0	0x3f10b66d	0.5652836
1	0xbe6460c7	-0.22302543
2	0xbdb81921	-0.08989168
3	0x3f2fec2c	0.68719745
4	0x3dc42191	0.09576715
5	0x3f39a2e0	0.7251415
6	0xbe47e7e4	-0.19522053
7	0x3f50f6a1	0.81626326

prescalers.T2M_MAX.weight f4 [8, 1]
0	0x3ee72016	0.45141667
1	0x3ddf4599	0.109019466
2	0x3e10f91c	0.14157528
3	0x3f5af8a0	0.8553562
4	0x3f6d3e19	0.9267288
5	0x3f0adaf8	0.5424037
6	0x3e76eb04	0.24113089
7	0xbd9efa91	-0.077626355

prescalers.T2M_MAX.bias f4 [8]
0	0x3f89d689	1.0768596
1	0xbf5ea058	-0.86963415
2	0xbe0d4cb2	-0.13798788
3	0x3e2f81ac	0.1713931
4	0xbeee8b1f	-0.46590516
5	0x3f3bf2e1	0.7341748
6	0x3f3ac081	0.7294999
7	0xbed5ce6c	-0.4175905

prescalers.T2M_MIN.weight f4 [8, 1]
0	0x3f2b9a46	0.6703228
1	0xbd1007fa	-0.035163857
2	0xbf834c1e	-1.0257604
3	0x3f055bbf	0.5209312
4	0x3d1feaf2	0.03904242
5	0xbf95851e	-1.1681249
6	0x3f116970	0.5680151
7	0xbf25aec0	-0.6471977

prescalers.T2M_MIN.bias f4 [8]
0	0x3f831dff	1.0243529
1	0xbf50bd1f	-0.81538576
2	0x3f678da9	0.9045053
3	0xbcb1a0d9	-0.021683143
4	0x3ec551cf	0.38538978
5	0x3e36c90d	0.17850132
6	0x3f2b6170	0.6694555
7	0x3ed0d1e2	0.40785128

prescalers.PRECTOTCORR.weight f4 [8, 1]
0	0x3f2b195a	0.6683556
1	0x3f330673	0.69931716
2	0x3e72179d	0.2364182
3	0xbf109f37	-0.5649294
4	0x3ec8dc9a	0.39230806
5	0x3ee02b5a	0.43783075
6	0xbf844809	-1.0334483
7	0x3f07823e	0.5293311

prescalers.PRECTOTCORR.bias f4 [8]
0	0xbf811d6e	-1.0087106
1	0xbf61af47	-0.88158077
2	0x3edf157f	0.43571088
3	0xbf29e74c	-0.66368556
4	0x3f82f8d2	1.0232184
5	0xbf4424fc	-0.76618934
6	0xbe837d5e	-0.25681585
7	0x3e7e62ca	0.24842373

prescalers.RH2M.weight f4 [8, 1]
0	0x3bf761f8	0.0075495206
1	0x3f1831ce	0.59450996
2	0x3de4f08b	0.111786924
3	0x3f704444	0.93854165
4	0x3f99a20f	1.2002581
5	0xbf325ffb	-0.69677705
6	0xbf44f602	-0.7693788
7	0x3e21352d	0.15742941

prescalers.RH2M.bias f4 [8]
0	0xbf4cec90	-0.80048466
1	0xbf145387	-0.5793995
2	0xbf94fd85	-1.1639868
3	0x3ecbe699	0.3982437
4	0x3f2c9b01	0.6742402
5	0xbf4baa13	-0.7955639
6	0x3eab84ba	0.334997
7	0x3f2c4760	0.6729641

prescalers.ALLSKY_SFC_SW_DWN.weight f4 [8, 1]
0	0xbf1e4fb3	-0.6184036
1	0xbe7d7d42	-0.24754813
2	0x3f87dcbf	1.0614241
3	0x3f128e87	0.5724873
4	0xbf06f54c	-0.52718043
5	0x3f470f67	0.7775788
6	0xbf403025	-0.7507346
7	0x3a4f3ed4	0.00079057855

prescalers.ALLSKY_SFC_SW_DWN.bias f4 [8]
0	0xbe6acbd7	-0.22929321
1	0x3d394716	0.04523381
2	0xbf49be73	-0.7880623
3	0x3f83fe6f	1.0312022
4	0x3f29152d	0.66047937
5	0x3ef017d1	0.4689317
6	0x3e4cf8bb	0.20016758
7	0x3f128b39	0.57243687

prescalers.numero_casos.weight f4 [8, 1]
0	0x3f246d26	0.6422905
1	0xbf06949e	-0.5257052
2	0xbf5fd002	-0.8742677
3	0xbf3f75f8	-0.7478938
4	0x3f250604	0.64462304
5	0xbec97d2b	-0.39353308
6	0xbf6cdb82	-0.9252244
7	0x3f3592ce	0.7092713

prescalers.numero_casos.bias f4 [8]
0	0xbf4d4fd9	-0.8019996
1	0xbf3ccb70	-0.7374792
2	0x3e2926ce	0.16518709
3	0x3e67b8bf	0.22629069
4	0x3f0218aa	0.50818884
5	0x3d83efcd	0.06442223
6	0xbed850b8	-0.42249084
7	0x3ef82218	0.4846351

static_variable_selection.single_variable_grns.municipio.mask f4 [16]
0	0xbe29b8d8	-0.16574419
1	0xbe29a900	-0.16568375
2	0xbe299fbe	-0.16564843
3	0xbe29aae3	-0.16569094
4	0xbe29ac20	-0.16569567
5	0xbe29aa71	-0.16568924
6	0xbe29ac30	-0.1656959
7	0x3e29abcc	0.16569442
8	0x3e29ac00	0.16569519
9	0xbe29ab5c	-0.16569275
10	0x3e29aae6	0.16569099
11	0x3e29a56b	0.16567008
12	0xbe29aaaa	-0.1656901
13	0xbe29a99c	-0.16568607
14	0x3e29a9da	0.165687
15	0x3e29aa42	0.16568854

static_variable_selection.single_variable_grns.municipio.norm.weight f4 [16]
0	0x3f986a2e	1.1907403
1	0x3f8325e9	1.0245944
2	0x3f526c74	0.82196736
3	0x3f901fc4	1.1259694
4	0x3f8e8040	1.1132889
5	0x3f7ee808	0.995728
6	0x3f8b323f	1.0874709
7	0x3f86fd8a	1.0546124
8	0x3fa2ac33	1.2708801
9	0x3f86b049	1.0522548
10	0x3f788014	0.9707043
11	0x3f5c1912	0.85975754
12	0x3f84e06a	1.0380986
13	0x3f760924	0.961077
14	0x3f6b8164	0.9199431
15	0x3f6b638f	0.9194879

static_variable_selection.single_variable_grns.municipio.norm.bias f4 [16]
0	0xbe29d202	-0.16584018
1	0xbe29a6bd	-0.16567512
2	0xbe298bcb	-0.16557233
3	0xbe29b1c1	-0.16571714
4	0xbe29b241	-0.16571905
5	0xbe29aace	-0.16569063
6	0xbe29b00b	-0.16571061
7	0x3e29be88	0.16576588
8	0x3e29b2d9	0.16572131
9	0xbe29b2bb	-0.16572087
10	0x3e29a61c	0.16567272
11	0x3e296cc2	0.16545394
12	0xbe29b043	-0.16571145
13	0xbe29a706	-0.1656762
14	0x3e29a1e1	0.16565658
15	0x3e29a06b	0.16565101

encoder_variable_selection.flattened_grn.resample_norm.mask f4 [8]
0	0xbe270151	-0.16309096
1	0x3e4ac972	0.19803408
2	0xbe26adac	-0.16277188
3	0x3b9ffb52	0.0048822546
4	0x3cf2a51b	0.029619744
5	0xbd953820	-0.072860956
6	0xbdfb0c92	-0.12258257
7	0x3deaade1	0.11458946

encoder_variable_selection.flattened_grn.resample_norm.norm.weight f4 [8]
0	0x3f57cd9c	0.8429811
1	0x3f958826	1.1682174
2	0x3f9407db	1.1564897
3	0x3f94d398	1.1627073
4	0x3f83c890	1.0295582
5	0x3f648c23	0.8927633
6	0x3f5b7d86	0.8573841
7	0x3f924543	1.1427387

encoder_variable_selection.flattened_grn.resample_norm.norm.bias f4 [8]
0	0xbe2d7161	-0.16937782
1	0x3e68dde3	0.22740893
2	0xbe28eaf6	-0.1649588
3	0xbde98897	-0.114030056
4	0x3cad9478	0.02118896
5	0x3dcbd4df	0.09952711
6	0xbe7d2129	-0.24719681
7	0x3cab192b	0.020886024

encoder_variable_selection.flattened_grn.fc1.weight f4 [8, 64]
0	0xbdfbcc87	-0.1229487
1	0xbd94c30f	-0.07263767
2	0xbe63ecb5	-0.22258265
3	0x3da30edd	0.07961819
4	0xbec44c9b	-0.38339695
5	0x3dcbe3d6	0.09955566
6	0xbd4a46b9	-0.049383853
7	0x3e4750a9	0.19464363
8	0x3c1f69f7	0.009729854
9	0xbee176c6	-0.4403593
10	0xbe77f931	-0.24216153
11	0x3ea8b371	0.32949403
12	0x3e90d2e6	0.28285903
13	0xbd9c1f9e	-0.07623218
14	0x3e561b36	0.20908818
15	0x3e2bed96	0.1678985
16	0x3e26c07b	0.16284363
17	0x3e8ba4fb	0.27274308
18	0xbcfdd0c8	-0.030983344
19	0x3e68bf00	0.2272911
20	0x3dc87e7e	0.097897515
21	0xbc6ea044	-0.0145645775
22	0xbe2c11ed	-0.16803713
23	0x3e80d259	0.25160483
24	0x3dfe3e13	0.124141835
25	0x3cd2e19a	0.02574234
26	0xbe2f418e	-0.17114851
27	0x3e75c97b	0.2400264
28	0x3e0d27ef	0.13784765
29	0xbe005055	-0.12530644
30	0xbda6a56e	-0.08137022
31	0xbe9ebb94	-0.31002486
32	0x3e285599	0.16438903
33	0x3ee1b45b	0.44082913
34	0xbe507a35	-0.20359118
35	0x3f0668b0	0.5250349
36	0xbe6aa781	-0.2291546
37	0x3e8b2de6	0.27183455
38	0xbcb6e3cb	-0.022325417
39	0xbec1fbf8	-0.3788755
40	0x3eb74405	0.35794082
41	0xbc010d3a	-0.007876689
42	0x3e5ba5c7	0.21449958
43	0xbe331a0c	-0.17490405
44	0xbca0fd03	-0.019651895
45	0x3ece86b0	0.40337133
46	0x3e2a191e	0.16611144
47	0xbe94a93b	-0.29035363
48	0xbe575873	-0.21029834
49	0xbe22d64b	-0.15902059
50	0x3d8e081c	0.069351405
51	0x3e77c8fd	0.24197765
52	0xbde138fe	-0.109971985
53	0xbe58cfc9	-0.21173014
54	0xbecdfbe2	-0.40231234
55	0xbcf7ca00	-0.030247688
56	0xbd119d03	-0.03555013
57	0x3d0e3eb4	0.034727767
58	0xbe667b19	-0.22507896
59	0x3dd47166	0.103731915
60	0xbe5ffaa5	-0.21872957
61	0x3e67a013	0.22619657
62	0x3ea559c4	0.32295048
63	0xbeca4838	-0.39508224
64	0x3e62a808	0.22134411
65	0xbb5a35aa	-0.0033296146
66	0x3e0c4049	0.13696398
67	0xbde5239a	-0.11188431
68	0x3e4b592c	0.19858235
69	0xbe152349	-0.14564241
70	0x3e0bc95b	0.1365103
71	0x3d9af771	0.07566727
72	0x3e96c009	0.29443386
73	0x3da7273b	0.081617795
74	0x3ee63af2	0.44966847
75	0xbd6751c9	-0.05647448
76	0xbe44d9fd	-0.19223781
77	0x3eacd914	0.33759367
78	0xbe81b97b	-0.25336823
79	0x3eb7780f	0.35833785
80	0x3f08fc4a	0.5350996
81	0xbea10a5e	-0.31453222
82	0x3e7d29b4	0.2472294
83	0xbe50d1f1	-0.20392586
84	0xbe0dee9d	-0.13860555
85	0xbeb80590	-0.35941744
86	0xbbfa6b01	-0.0076421504
87	0xbebdfa90	-0.37105227
88	0x3ece2eaf	0.40269992
89	0x3c811eec	0.015761815
90	0x3e79b885	0.24386795
91	0xbd8855f1	-0.06657017
92	0xbc79a14d	-0.015236211
93	0xbe2ff4eb	-0.17183273
94	0xbd80e0db	-0.06292888
95	0x3e7df227	0.24799405
96	0xbe5c88df	-0.21536587
97	0x3dc86089	0.097840376
98	0x3dae0ca2	0.08498503
99	0xbeb1d008	-0.34729028
100	0x3e74dd29	0.23912491
101	0xbbd769d8	-0.006573897
102	0xbe871f66	-0.26391143
103	0x3dd6fc3e	0.1049733
104	0xbd30f3c0	-0.043201208
105	0xbeb69244	-0.35658467
106	0xbf0cd40b	-0.5501105
107	0xbd812839	-0.063065
108	0x3e004c3e	0.12529084
109	0xbe0971a7	-0.13422261
110	0xbeac83d3	-0.33694324
111	0x3f35c758	0.710073
112	0x3e6dd0a7	0.23224126
113	0x3d776a18	0.060403913
114	0xbe628839	-0.22122277
115	0x3f12d283	0.57352465
116	0x3ec6a7ec	0.3879999
117	0x3ea8717d	0.32899085
118	0x3e80703e	0.25085634
119	0x3e7cca5e	0.24686572
120	0xbe8b6639	-0.27226427
121	0xbe56d6c1	-0.2098036
122	0x3e51c610	0.20485711
123	0x3daf5a8b	0.085621916
124	0x3ed0fb46	0.40816706
125	0xbea66434	-0.32498324
126	0x3d502266	0.050814055
127	0x3edef795	0.43548265
128	0x3e974974	0.29548228
129	0x3f05cd3c	0.5226629
130	0x3dd12cdb	0.102136336
131	0x3df19a97	0.11797064
132	0x3f0ee376	0.5581583
133	0xbdc9acc2	-0.09847404
134	0x3e8fd93f	0.28095433
135	0xbccdbc92	-0.025114331
136	0x3e34d89f	0.1766076
137	0xbd99c8f4	-0.07509032
138	0x3ef07c6e	0.46969932
139	0x3dd9bcb1	0.10631693
140	0xbd0e0339	-0.034671042
141	0x3dceb63b	0.100933515
142	0x3c00eeb6	0.007869413
143	0x3e1087a7	0.14114247
144	0x3eac38d6	0.33637112
145	0xbefa4ae6	-0.48885268
146	0xbd6c4f52	-0.057692833
147	0xbe5a5477	-0.21321283
148	0xbd676d76	-0.056500874
149	0x3e18187b	0.14853089
150	0x3f2ca5c3	0.6744043
151	0xbeb47db4	-0.35252154
152	0x3eb1424b	0.3462089
153	0xbe81fbb6	-0.25387353
154	0x3ebdea1b	0.3709267
155	0xbd33af05	-0.043868084
156	0x3e87e96d	0.26545277
157	0x3dfe21af	0.124087684
158	0xbeb43935	-0.35199896
159	0x3d466e2a	0.048444904
160	0xbe5318e3	-0.20614962
161	0xbf066b05	-0.5250705
162	0x3e2ebd49	0.17064394
163	0xbebb732c	-0.36611307
164	0xba0c28a0	-0.000534663
165	0xbe7f73ff	-0.24946593
166	0xbdf75a1b	-0.12077733
167	0x3eb4a112	0.35279137
168	0xbe7beb81	-0.24601556
169	0xbe7da3d8	-0.24769533
170	0xbe56309d	-0.20916982
171	0x3e78f412	0.24311855
172	0x3f160ef6	0.5861658
173	0xbec2eadd	-0.3806981
174	0xbe4874b4	-0.19575769
175	0xbcc89fde	-0.024490293
176	0xbe55d94e	-0.20883676
177	0x3e13fab3	0.14451103
178	0x3dcfd8be	0.10148762
179	0x3ea081e1	0.3134909
180	0x3e159c05	0.14610298
181	0x3e78c462	0.24293664
182	0x3ef30c3c	0.47470272
183	0x3edadf4f	0.42748496
184	0xbc903e35	-0.017607788
185	0xbee3a4a8	-0.4446156
186	0x3ec27e23	0.3798686
187	0x3e97b18e	0.2962765
188	0x3e72c09b	0.23706286
189	0xbdb11322	-0.086462274
190	0xbe282525	-0.1642042
191	0x3e40440d	0.1877596
192	0x3ecdb506	0.40177172
193	0x3e9906b8	0.29887938
194	0xbdead0bf	-0.114655964
195	0xbe50158b	-0.20320718
196	0xbd94a8f8	-0.07258791
197	0xbd4f272f	-0.050574478
198	0x3cd051b6	0.025429588
199	0xbe06be87	-0.13158618
200	0xbe0eb7b8	-0.1393727
201	0x3eaa75b1	0.33292916
202	0xbe1ef65b	-0.15523665
203	0xbc3511a5	-0.01105157
204	0xbe22cbd4	-0.15898067
205	0x3dd7408a	0.10510357
206	0x3aa6fe8d	0.0012740657
207	0x3dc86425	0.09784726
208	0x3e22fad4	0.15915996
209	0xbefa12b6	-0.488424
210	0xbdb02edb	-0.08602687
211	0x3dfeb110	0.12436116
212	0xbd2823ed	-0.041049886
213	0x3e46332b	0.19355457
214	0x3e7e77cc	0.24850386
215	0xbcc5afb2	-0.02413163
216	0x3ea4f186	0.32215518
217	0xbd4f6785	-0.050635833
218	0xbe35e887	-0.17764483
219	0x3e2e36d4	0.17013103
220	0x3de7568a	0.11295803
221	0x3edd74cb	0.43253168
222	0x3d89f3ba	0.0673594
223	0x3e0c2f82	0.13689998
224	0xbd862fa8	-0.065520585
225	0x3d8fb9fb	0.07017895
226	0x3e603a48	0.21897233
227	0x3da6de5e	0.08147882
228	0xbdd6ed6d	-0.10494504
229	0xbeb55702	-0.35417944
230	0x3e8cdbdb	0.27511486
231	0x3d4a43d2	0.049381085
232	0xbe69b72e	-0.22823784
233	0x3e5d6bff	0.21623228
234	0x3ec1dba9	0.378629
235	0xbe797a85	-0.24363144
236	0x3dbff2b1	0.093724616
237	0xbcf25d23	-0.029585427
238	0x3d5479c3	0.051873934
239	0xbbbd85b4	-0.005783761
240	0xbdf681d7	-0.12036484
241	0xbddd974d	-0.10819874
242	0xbd3086a8	-0.04309717
243	0xbd805f9c	-0.06268236
244	0x3ec60843	0.38678178
245	0xbd775f9c	-0.060393915
246	0xbe033e43	-0.1281672
247	0xbdb0ac9f	-0.08626675
248	0x3e564256	0.20923743
249	0x3f1e653d	0.6187323
250	0x3ea7953c	0.32731044
251	0xbe1df16d	-0.15424128
252	0xbcab76de	-0.020930704
253	0x3f0cdbcd	0.5502289
254	0x3de31222	0.11087443
255	0x3e40ee9b	0.18841021

encoder_variable_selection.flattened_grn.fc1.bias f4 [8]
0	0xbe4a252e	-0.19740745
1	0x3e777ba0	0.24168253
2	0x3e8a1b3d	0.26973906
3	0x3b90705e	0.0044079265
4	0xbe45977c	-0.19296068
5	0x3e2d65bd	0.16933341
6	0x3b2e14c4	0.002656267
7	0x3e85ff18	0.26171184

encoder_variable_selection.flattened_grn.context.weight f4 [8, 16]
0	0x3e82eac9	0.25569752
1	0x3eb7cb0e	0.35897106
2	0xbd81547e	-0.06314944
3	0x3ef90e34	0.4864365
4	0xbe7e0e5d	-0.24810167
5	0xbe147b52	-0.14500168
6	0x3d29f9cc	0.04149799
7	0xbe76e380	-0.24110222
8	0xbe22ea30	-0.15909648
9	0x3eee0895	0.46490923
10	0x3e26736f	0.16254972
11	0x3eaeb0aa	0.3411916
12	0xbd7cf27f	-0.0617547
13	0x3de8f653	0.113751076
14	0xbded6ace	-0.11592637
15	0x3debd6b5	0.115155615
16	0x3ed5a02e	0.4172377
17	0x3e534c04	0.20634466
18	0x3ee7d4e2	0.45279604
19	0xbeebcc43	-0.46054277
20	0xbcb8772d	-0.022517765
21	0xbe7bd621	-0.24593402
22	0x3de87049	0.11349542
23	0x3ec4abda	0.38412362
24	0x3e901aac	0.2814535
25	0x3c3120a3	0.010811004
26	0x3db4a473	0.08820429
27	0x3f099157	0.53737396
28	0xbef31eb8	-0.47484374
29	0x3e8d551a	0.2760399
30	0xbdab986a	-0.0837868
31	0xbea35dc6	-0.3190748
32	0x3e85eef4	0.2615887
33	0x3cca2c33	0.024679279
34	0x3ec40eba	0.38292485
35	0xbec1bf9a	-0.37841493
36	0x3e7c46e5	0.24636419
37	0xbbdb504e	-0.0066929227
38	0xbd985e9b	-0.074399196
39	0xbb8ec96f	-0.004357509
40	0x3e9506b7	0.29106686
41	0x3e4ce91c	0.20010799
42	0x3edbc60d	0.42924538
43	0xbe560709	-0.20901121
44	0xbeafeade	-0.34358877
45	0xbe22db6b	-0.15904014
46	0xbe78b353	-0.24287157
47	0x3c535f94	0.012901206
48	0xbc8760a5	-0.016525576
49	0xbf144712	-0.57920945
50	0x3e657ded	0.22411318
51	0x3e8bfb41	0.2734013
52	0xbf07d92f	-0.5306577
53	0xbeb72cca	-0.3577636
54	0x3ecc9ed5	0.3996493
55	0x3f0a065b	0.5391595
56	0xbe4e1045	-0.20123394
57	0xbeecf17d	-0.4627799
58	0xbe039b67	-0.1285225
59	0xbeb24f33	-0.3482605
60	0xbeb356f7	-0.35027286
61	0xbe845be6	-0.25851363
62	0xbed5d04f	-0.4176049
63	0xbe142dab	-0.14470546
64	0xbe647946	-0.22311887
65	0x3e42fad6	0.19040999
66	0x3da0b50d	0.07847033
67	0x3df3caff	0.11903953
68	0x3d5ec6c1	0.054388765
69	0x3e844787	0.2583582
70	0x3ebae1bb	0.36500344
71	0xbcadbcd4	-0.021208204
72	0xbec68b03	-0.38777933
73	0xbe95a8b1	-0.29230264
74	0xbe8dcbf1	-0.27694657
75	0x3e85b930	0.2611785
76	0xbe27211b	-0.16321222
77	0x3e918735	0.28423467
78	0x3dd3b322	0.10336901
79	0xbd31e953	-0.043435406
80	0x3ed8c035	0.42334142
81	0xbe6ef730	-0.23336482
82	0x3ee8f90f	0.45502517
83	0xbcd00f5c	-0.025397949
84	0x3e5a8982	0.21341518
85	0x3e4335ea	0.19063535
86	0x3eb2d4c1	0.34927943
87	0xbe1cdc83	-0.15318494
88	0x3eca4fb2	0.39513928
89	0x3eea72dc	0.45790756
90	0x3e3b57f0	0.18295264
91	0x3eba2df1	0.36363176
92	0x3ed30d8e	0.4122128
93	0xbe948d68	-0.29014134
94	0xbf309638	-0.68979216
95	0x3e9a6cf4	0.3016125
96	0xbe8db89a	-0.27679902
97	0xbe6cc0c9	-0.23120417
98	0xbf245c26	-0.6420311
99	0x3e49a52f	0.19691919
100	0xbe230617	-0.15920292
101	0xbda60ccc	-0.081079096
102	0x3e0585e2	0.13039353
103	0xbeaf799e	-0.34272474
104	0xbe836887	-0.25665686
105	0xbe0530df	-0.13006924
106	0x3d736335	0.059420783
107	0xbdb30acd	-0.087422945
108	0x3f1d4876	0.6143869
109	0x3e7416a0	0.23836756
110	0x3ec57e4b	0.38572916
111	0xbe39dc5b	-0.18150465
112	0xbe5e7df6	-0.21727738
113	0xbe51a9f5	-0.2047499
114	0x3e7531bb	0.23944752
115	0xbe91c9b2	-0.28474194
116	0x3ebf5409	0.373688
117	0xbf10d6f8	-0.56578016
118	0x3d848fb8	0.06472725
119	0x3f15c00b	0.5849616
120	0xbcdb8111	-0.026794942
121	0x3e9e5915	0.3092734
122	0x3ec9177c	0.3927573
123	0xbe1c9bdc	-0.1529383
124	0xbeb323a1	-0.3498812
125	0x3eafb7f0	0.3432002
126	0xbe337e20	-0.17528582
127	0xbe8e1b97	-0.27755424

encoder_variable_selection.flattened_grn.fc2.weight f4 [8, 8]
0	0x3f789fbf	0.97118753
1	0x3e6ac543	0.22926812
2	0xbf130809	-0.57434136
3	0xbf30d591	-0.69075876
4	0x3e3ed5a9	0.18636192
5	0xbe10ae5a	-0.1412901
6	0xbe136fc1	-0.143981
7	0xbe8f3796	-0.27972096
8	0x3d9d8994	0.076922566
9	0x3ec95536	0.39322823
10	0x3e617a88	0.22019398
11	0xbe2a4fb9	-0.16631974
12	0xbd8050ca	-0.06265409
13	0x3d737181	0.059434418
14	0xbc9477cf	-0.018123535
15	0xbdac989b	-0.08427545
16	0xbf9dd097	-1.2329282
17	0x3e14bfb4	0.14526254
18	0x3ef1c1a8	0.4721806
19	0x3e961d4e	0.29319233
20	0x3e9306a3	0.28716
21	0x3e694ceb	0.22783248
22	0x3ebec900	0.37262726
23	0x3e0c22a8	0.13685095
24	0xbf8e7858	-1.1130476
25	0x3ea3380a	0.31878692
26	0xbd48da06	-0.04903605
27	0xbd85d4ca	-0.06534727
28	0x3e885d6c	0.26633775
29	0x3e8c4a4f	0.27400443
30	0xbe919813	-0.28436336
31	0x3e64d812	0.2234805
32	0x3dc5032e	0.09619747
33	0xbf0ba690	-0.5455103
34	0xbd1e7f84	-0.038695827
35	0x3ea33524	0.3187648
36	0x3ef31fe9	0.47485283
37	0xbe9f9582	-0.31168753
38	0xbf062e25	-0.5241416
39	0x3e203a96	0.15647349
40	0xbe71ef9e	-0.23626563
41	0x3fc5b290	1.5445118
42	0x3ee36f22	0.44420725
43	0x3e83b6b2	0.25725323
44	0xbee2e48d	-0.44314995
45	0x3e426443	0.1898356
46	0xbe511b76	-0.20420632
47	0x3f28ed44	0.6598704
48	0x3f1709a6	0.589991
49	0x3d301c16	0.042995535
50	0x3f044bbb	0.51678056
51	0xbb9e2383	-0.0048260107
52	0x39113fd9	0.00013852063
53	0x3e67fe16	0.2265552
54	0xbe9033fd	-0.28164664
55	0xbcb2659a	-0.021776963
56	0xbe928708	-0.28618646
57	0x3f535512	0.8255168
58	0xbeabf68b	-0.33586535
59	0x3e5d312b	0.21600787
60	0x3e5f65bd	0.21816154
61	0x3f1289f9	0.5724178
62	0x3ea40a8b	0.32039294
63	0xbee04cd6	-0.4380862

encoder_variable_selection.flattened_grn.fc2.bias f4 [8]
0	0xbd2f7024	-0.042831555
1	0xba8d2b32	-0.001077032
2	0x3e66f143	0.22552972
3	0x3d61fbb4	0.055171683
4	0xbe653f5b	-0.2238745
5	0x3e5fad4f	0.21843456
6	0x3e8344e4	0.25638497
7	0x3e48e080	0.1961689

encoder_variable_selection.flattened_grn.gate_norm.glu.fc.weight f4 [16, 8]
0	0xbe8aca34	-0.27107394
1	0xbefbf561	-0.49210647
2	0xbeb07ece	-0.34471744
3	0xbe9a288c	-0.3010906
4	0xbcb90723	-0.02258641
5	0xbd390958	-0.045174927
6	0xbe38ebea	-0.18058744
7	0x3c79ad5a	0.015239084
8	0x3da5ebbb	0.08101603
9	0xbe826131	-0.25464776
10	0x3ebc7050	0.36804438
11	0x3ec34d15	0.38144746
12	0xbea374ea	-0.31925136
13	0x3f09baa2	0.53800404
14	0x3d8a2162	0.067446485
15	0x3e91493f	0.28376195
16	0x3dc0e88a	0.09419353
17	0xbdcff7c6	-0.10154681
18	0xbd8fcd6d	-0.07021604
19	0xbe5686ad	-0.20949812
20	0x3e49ddf6	0.19713578
21	0xbe6a6a96	-0.22892222
22	0x3f05a843	0.5220987
23	0xbedadbfc	-0.4274596
24	0x3ea7ae82	0.32750326
25	0xbe722b2d	-0.23649283
26	0xbeb715d2	-0.35758835
27	0x3cadcc40	0.021215558
28	0xbe45059d	-0.19240423
29	0xbd93db75	-0.072195925
30	0x3d8732de	0.06601499
31	0xbe28573f	-0.16439532
32	0x3cdb106d	0.02674123
33	0x3d813094	0.06308094
34	0xbe083782	-0.13302425
35	0x3dae4e62	0.08511044
36	0x3e3c6ccb	0.18400876
37	0xbda2074d	-0.07911549
38	0x3e3a0288	0.18165028
39	0x3e06af33	0.1315277
40	0x3e3062ed	0.17225237
41	0xbe1a1d96	-0.15050349
42	0xbe4ed04f	-0.20196651
43	0x3e8f072d	0.27935162
44	0xbc89305e	-0.016746696
45	0xbe62a533	-0.22133331
46	0xbe0db590	-0.13838792
47	0xbeb776cd	-0.35832825
48	0x3b9f4a54	0.0048611555
49	0xbe23adb2	-0.15984228
50	0x3dcd0d9d	0.10012362
51	0x3df8ad86	0.12142472
52	0xbdcdde12	-0.10052122
53	0x3ea562dc	0.32301986
54	0xbddd30ce	-0.108003244
55	0xbec381ab	-0.38184866
56	0x3e0ef950	0.13962293
57	0xbc70e2c4	-0.014702503
58	0xbe516235	-0.2044762
59	0x3ea7ee15	0.3279883
60	0x3edcbc92	0.43112618
61	0xbe75623e	-0.23963258
62	0x3dc53898	0.09629935
63	0xbe149d60	-0.14513159
64	0xbcdad3f7	-0.0267124
65	0xbca4c03e	-0.0201112
66	0xbc334ca7	-0.010943568
67	0xbde2f4c4	-0.110818416
68	0xbeecfb5c	-0.46285522
69	0x3d75197c	0.059838757
70	0xbdf4410e	-0.11926471
71	0x3e3991a8	0.1812197
72	0xbe8d6ba0	-0.27621174
73	0x3e0fba5f	0.14035939
74	0x3ebd9a54	0.37031806
75	0x3d0c8433	0.034305762
76	0xbe12c92a	-0.1433455
77	0x3f2aa40f	0.66656584
78	0xbf03c029	-0.5146509
79	0xbe24e612	-0.1610339
80	0xbe0a2524	-0.1349073
81	0x3ed4a90c	0.41535223
82	0xbe10bc98	-0.14134443
83	0x3d83eddf	0.06441855
84	0x3d491442	0.049091585
85	0x3ee62ccd	0.44956055
86	0xbdf75673	-0.12077036
87	0xbea646e4	-0.3247596
88	0xbf154f5e	-0.5832423
89	0x3f05cbdd	0.52264196
90	0x3d80cd6d	0.06289182
91	0x3ec2612b	0.37964758
92	0x3d0505e2	0.032476313
93	0xbe93c6a3	-0.28862485
94	0x3e0b87da	0.13626042
95	0xbd7099ac	-0.058740303
96	0xbee95523	-0.45572767
97	0xbe999ca5	-0.30002323
98	0x3de8a58e	0.11359702
99	0x3e9b66c7	0.3035185
100	0x3d5d20cc	0.053986356
101	0xbefe83ac	-0.49709833
102	0xbe3132a3	-0.17304473
103	0xbf1b83a7	-0.6074776
104	0xbe871aee	-0.26387733
105	0x3ec900ad	0.39258328
106	0x3e010db3	0.12602882
107	0x3d24db50	0.040248215
108	0x3ec28d20	0.37998295
109	0xbd87a22c	-0.06622729
110	0x3f263aa6	0.6493324
111	0xbe9b31ea	-0.3031152
112	0x3d59177f	0.053000923
113	0xbbaeccd7	-0.0053344774
114	0x3c87ce75	0.016577939
115	0xbe04fad4	-0.12986308
116	0x3dee1d51	0.116266854
117	0xbe2cb729	-0.16866745
118	0xbadb8799	-0.0016748785
119	0x3de2c7c0	0.110732555
120	0xbe2a8c93	-0.16655187
121	0xbee616fa	-0.44939405
122	0x3ea88d46	0.32920283
123	0x3e12baf4	0.1432913
124	0x3d4b0f0f	0.049574908
125	0xbd33ec1c	-0.043926343
126	0x3ddffb2e	0.109365806
127	0x3e33649d	0.1751885

encoder_variable_selection.flattened_grn.gate_norm.glu.fc.bias f4 [16]
0	0xbe358ff5	-0.17730696
1	0x3e672fcd	0.22576828
2	0xbe231725	-0.15926798
3	0xbdf30f2a	-0.11868127
4	0x3d735b65	0.059413332
5	0x3db9f820	0.09080529
6	0xbe75cb38	-0.24003303
7	0x3c828bc4	0.015935786
8	0xbe444c6c	-0.19169778
9	0x3d46eab8	0.04856369
10	0xbdfd22f6	-0.12360184
11	0xbe41996f	-0.18906187
12	0xbe59d7e5	-0.21273763
13	0xbe6f740c	-0.23384112
14	0xbe741e08	-0.23839581
15	0xbd64cc7f	-0.055859085

encoder_variable_selection.flattened_grn.gate_norm.add_norm.norm.weight f4 [8]
0	0x3f4eb328	0.8074212
1	0x3f99844b	1.1993498
2	0x3f757c61	0.9589291
3	0x3f4280aa	0.75977576
4	0x3f803d51	1.0018712
5	0x3f9d59da	1.2293046
6	0x3f4c694d	0.79848176
7	0x3f8fe2c1	1.1241075

encoder_variable_selection.flattened_grn.gate_norm.add_norm.norm.bias f4 [8]
0	0xbe39cce9	-0.18144573
1	0x3e611b92	0.21983173
2	0xbe0aff0c	-0.13573855
3	0xbd8202c9	-0.063481875
4	0x3c13b1dc	0.009014573
5	0xbdb12f99	-0.08651657
6	0xbdefd3bb	-0.11710306
7	0x3d2b5e40	0.04183793

encoder_variable_selection.single_variable_grns.time_idx.resample_norm.mask f4 [16]
0	0xbe0c5cec	-0.13707322
1	0x3e1df246	0.15424451
2	0x3e2a6447	0.16639815
3	0xbd83b48f	-0.06430923
4	0xbc9a0b01	-0.018804075
5	0xbe0f1d15	-0.13975938
6	0xbddda5d8	-0.10822648
7	0x3e47b7a3	0.19503646
8	0x3e6d65f3	0.23183422
9	0x3e26cb63	0.16288523
10	0x3e110995	0.14163812
11	0x3e345d95	0.17613824
12	0x3e219ba3	0.15782027
13	0xbe424203	-0.18970494
14	0xbe329580	-0.17439842
15	0xbe270917	-0.16312061

encoder_variable_selection.single_variable_grns.time_idx.resample_norm.norm.weight f4 [16]
0	0x3f57414b	0.84084004
1	0x3f8f6d55	1.120524
2	0x3f94dfb7	1.1630772
3	0x3f831d56	1.0243328
4	0x3f939945	1.1531149
5	0x3f82c831	1.0217344
6	0x3f6ea87f	0.93225855
7	0x3f9970f9	1.1987602
8	0x3f9bd53b	1.2174448
9	0x3f94d0a8	1.1626177
10	0x3f7c51e6	0.9856247
11	0x3f9212c1	1.1411973
12	0x3f92b648	1.1461878
13	0x3f4f2e47	0.8092999
14	0x3f565c4b	0.8373458
15	0x3f52ab03	0.82292193

encoder_variable_selection.single_variable_grns.time_idx.resample_norm.norm.bias f4 [16]
0	0xbdc7681d	-0.09736655
1	0x3dc34e3e	0.09536408
2	0x3e09d0eb	0.13458602
3	0xbdda1485	-0.10648445
4	0xbdc7524f	-0.09732496
5	0xbe0431c8	-0.12909615
6	0x3dd7819b	0.10522767
7	0xbe47c31f	-0.19508027
8	0x3e7b181e	0.24520919
9	0x3e18f0fa	0.14935675
10	0x3e7a82a1	0.24463893
11	0x3df5b28a	0.11996944
12	0x3e67bcac	0.22630566
13	0xbe3758f4	-0.17905027
14	0xbe29b139	-0.16571511
15	0x3e2ca284	0.1685887

encoder_variable_selection.single_variable_grns.time_idx.fc1.weight f4 [8, 8]
0	0xbd731914	-0.05935009
1	0xbdc007a1	-0.09376455
2	0x3dc77a2e	0.09740101
3	0xbf1fb659	-0.62387615
4	0xbf0ed926	-0.5580009
5	0x3d80026c	0.06250462
6	0x3ea8fb8c	0.33004415
7	0x3e2ba700	0.16762924
8	0x3f8602d2	1.0469611
9	0xbed907f8	-0.42388892
10	0x3f9383f9	1.152465
11	0x3e0733cf	0.13203357
12	0x3e89dbd6	0.26925534
13	0xbede8ab1	-0.43465188
14	0x3eb87a1e	0.36030668
15	0xbee1a6fd	-0.44072714
16	0x3e8c9589	0.27457836
17	0x3e7800b4	0.24219018
18	0xbdff3231	-0.12460745
19	0x3f4f7664	0.81040025
20	0xbdbf7499	-0.09348411
21	0xbf2b342c	-0.6687648
22	0x3f2dd9fb	0.67910737
23	0x3ca816e7	0.020518733
24	0xbf66e5fa	-0.90194666
25	0xbebb4f0e	-0.3658375
26	0xbe733773	-0.23751621
27	0xbf107be1	-0.56439024
28	0xbef64f9f	-0.4810762
29	0xbf0db213	-0.55349845
30	0x3ef43fbd	0.47704878
31	0x3f28c7d6	0.65929925
32	0x3ef2cd1a	0.47422105
33	0x3d197a7b	0.037470322
34	0x3e3091a7	0.17243062
35	0x3ef555db	0.47917065
36	0xbee5b97d	-0.4486808
37	0x3f096d3d	0.5368231
38	0x3fbe5807	1.4870614
39	0xbe6a4b88	-0.22880375
40	0xbe3d45ff	-0.18483733
41	0x3e6b69f6	0.2298964
42	0xbef034bd	-0.46915236
43	0xbf09ca67	-0.53824466
44	0x3d5ab9ef	0.053399976
45	0x3dc810dc	0.09768841
46	0x3ec4c022	0.38427836
47	0xbdf66f41	-0.12032939
48	0x3f3e5cde	0.74360454
49	0x3e3195cf	0.17342304
50	0x3dd5578c	0.10417089
51	0x3e5c1ff1	0.2149656
52	0x3ec96964	0.3933822
53	0x3e9bd7bb	0.30438027
54	0x3c74388d	0.014906061
55	0xbf643843	-0.8914835
56	0x3e9b2332	0.3030029
57	0x3f0b7f2e	0.54490936
58	0x3e560953	0.20901994
59	0xbe57896a	-0.21048513
60	0xbf4ddb49	-0.8041273
61	0x3f8c7790	1.0973988
62	0x3de9bda7	0.114131264
63	0xbf5ecc51	-0.8703051

encoder_variable_selection.single_variable_grns.time_idx.fc1.bias f4 [8]
0	0x3dcab501	0.09897805
1	0x3e32e5fb	0.17470543
2	0x3b1ac26c	0.002361442
3	0xbc91bbd7	-0.017789764
4	0x3e4d0ba5	0.20023973
5	0xbe49bb26	-0.19700298
6	0x3e108c08	0.14115918
7	0x3d73581d	0.059410203

encoder_variable_selection.single_variable_grns.time_idx.fc2.weight f4 [8, 8]
0	0xbf2571b4	-0.6462662
1	0x3f64295c	0.8912561
2	0x3e9e1beb	0.30880675
3	0xbf0b567e	-0.5442885
4	0x3ea1729d	0.31532755
5	0xbebf75a3	-0.37394437
6	0xbf1f342b	-0.62188977
7	0xbe83935f	-0.25698373
8	0xbe8c1d3e	-0.2736606
9	0xbd79abab	-0.06095473
10	0x3eb8e954	0.36115515
11	0xbf5b5963	-0.8568327
12	0xbf1a77e1	-0.6033917
13	0xbde7f10c	-0.11325273
14	0x3f23c8b9	0.63978153
15	0x3e634404	0.22193915
16	0x3ead1120	0.33802128
17	0x3f07d699	0.53061825
18	0xbf252059	-0.64502484
19	0x3e5ab863	0.213594
20	0x3ea531ac	0.3226446
21	0xbe64af0e	-0.22332403
22	0x3ef333b1	0.47500375
23	0x3eeb29e3	0.45930395
24	0xbe0102f5	-0.12598784
25	0xbf415513	-0.7552044
26	0xbec7d64d	-0.39030686
27	0xbe53d4da	-0.20686665
28	0x3e522031	0.20520093
29	0x3e7d2f55	0.24725087
30	0x3e3bd268	0.18341982
31	0x3e312a0b	0.17301194
32	0xbf2600d8	-0.6484504
33	0x3bb14bba	0.0054106386
34	0x3deac6d8	0.11463708
35	0x3e8d800b	0.27636752
36	0x3f05f0eb	0.52320737
37	0x3e751078	0.23932064
38	0x3fa8e3db	1.3194536
39	0x3d896c56	0.067101166
40	0xbf1d5dbe	-0.61471164
41	0xbe6d71f5	-0.23188002
42	0x3eaa8d8b	0.33311114
43	0xbea13d3e	-0.31492037
44	0xbe2cb0b9	-0.1686429
45	0x3f1d9fef	0.61572164
46	0x3f910aea	1.1331456
47	0x3fa9818c	1.324266
48	0xbf215f03	-0.630356
49	0x3e03e0cd	0.12878723
50	0x3e63bc2b	0.22239749
51	0xbe853810	-0.26019335
52	0x3ef11247	0.47084257
53	0x3f45e386	0.773003
54	0xbd7f30bd	-0.06230234
55	0x3e1f5e54	0.15563327
56	0x3f06e612	0.5269481
57	0xbf02e4f3	-0.511306
58	0xbe3c1e96	-0.18371043
59	0x3f8a0375	1.0782305
60	0xbeb5a6d6	-0.35478848
61	0x3d65bfad	0.056091
62	0xbfd1692c	-1.6360221
63	0xbf0570c7	-0.5212521

encoder_variable_selection.single_variable_grns.time_idx.fc2.bias f4 [8]
0	0x3e3fc7eb	0.18728606
1	0xbdbf61be	-0.09344815
2	0x3e881d03	0.26584634
3	0xbe027347	-0.12739287
4	0x3c0cd3e1	0.008595438
5	0xbe93a0dd	-0.28833666
6	0xbe23f7c8	-0.1601249
7	0xbe2c11cd	-0.16803665

encoder_variable_selection.single_variable_grns.time_idx.gate_norm.glu.fc.weight f4 [32, 8]
0	0x3e8233e1	0.25430205
1	0xbe285900	-0.16440201
2	0xbe06df09	-0.13171019
3	0xbdcb7267	-0.0993393
4	0xbdb9ee0b	-0.09078606
5	0xbef378e6	-0.47553176
6	0xbec65fa8	-0.38744855
7	0x3f0eb878	0.55750227
8	0xbe844601	-0.2583466
9	0x3d96f190	0.07370293
10	0xbecb7e0d	-0.39744607
11	0xbe0ac7cc	-0.13552779
12	0x3f1ce44c	0.61285853
13	0x3eb6e916	0.35724705
14	0x3eb86d90	0.3602109
15	0xbf17c240	-0.59280777
16	0xbec492ae	-0.38393158
17	0xbe81d065	-0.25354305
18	0xbd104e69	-0.035231028
19	0x3ea5c11a	0.32373887
20	0x3d1b92d5	0.037981827
21	0x3f1fb212	0.6238109
22	0x3e3ec04e	0.18628046
23	0xbe62ce90	-0.2214911
24	0x3e15faa2	0.1464639
25	0xbd76f473	-0.06029172
26	0xbdb44164	-0.08801535
27	0xbe5eb6a1	-0.21749355
28	0xbec272db	-0.37978253
29	0x3d9d7ed9	0.0769021
30	0xbe8334b4	-0.25626147
31	0x3da2c348	0.07947403
32	0x3ef62684	0.4807626
33	0xbd81e3a8	-0.0634225
34	0xbe1e947d	-0.15486331
35	0xbd9af81b	-0.075668536
36	0xbed80f66	-0.42199248
37	0xbe4b0997	-0.19827877
38	0xbd964d7a	-0.07338996
39	0x3e45136c	0.1924569
40	0xbe28cd9e	-0.16484687
41	0xbe5d69c7	-0.21622382
42	0x3e7f7076	0.24945244
43	0xbdb96aa7	-0.090535454
44	0x3e9ef9c1	0.31049922
45	0x3e62df5f	0.22155522
46	0x3e826ff9	0.25476053
47	0xbe13bdc4	-0.14427859
48	0x3e1aa104	0.15100485
49	0x3e2c8941	0.16849233
50	0xbe3596c9	-0.17733301
51	0xbe7773a5	-0.24165209
52	0xbea02a75	-0.31282392
53	0xbe9f9b74	-0.3117329
54	0x3e9b72b8	0.3036096
55	0x3f01ba14	0.5067456
56	0x3e273999	0.16330566
57	0xbebf69aa	-0.37385303
58	0x3ef7fd20	0.48435307
59	0x3cde1b07	0.027112497
60	0xbe8b9417	-0.2726142
61	0x3e4a77bc	0.19772238
62	0xbebd6b15	-0.3699576
63	0x3f085809	0.5325933
64	0xbe4d68ad	-0.20059462
65	0xbea29600	-0.31755066
66	0x3e27aef1	0.16375329
67	0x3e3a08b1	0.18167378
68	0x3e1cf050	0.15326047
69	0xbe4b485d	-0.19851823
70	0x3d52f1c4	0.051500097
71	0x3c62ff76	0.013854852
72	0xbe9806f6	-0.2969281
73	0xbe127c0b	-0.14305131
74	0x3d93c664	0.072155744
75	0x3e014952	0.12625626
76	0xbe27801b	-0.16357462
77	0xbbf5f8b4	-0.0075064544
78	0xbd92f09a	-0.07174797
79	0x3df6ab04	0.120443374
80	0xbea7e45d	-0.32791415
81	0x3de788e4	0.11305407
82	0x3c6c33ac	0.014416616
83	0x3e754117	0.23950611
84	0x3ef8868e	0.48540157
85	0xbdd57321	-0.1042235
86	0x3ea7b562	0.32755572
87	0xbebb7592	-0.36613137
88	0xbebbeda4	-0.36704743
89	0x3e32b39f	0.17451333
90	0xbe96750c	-0.29386175
91	0x3eac2471	0.33621553
92	0x3e3f2dde	0.1866984
93	0x3f079d86	0.52974737
94	0x3e769d3e	0.2408342
95	0xbf04004f	-0.5156297
96	0x3e06021c	0.13086742
97	0xbdc3feb6	-0.09570067
98	0x3d3c9730	0.04604262
99	0xbe691a9a	-0.22764054
100	0x3d7ca9d8	0.061685413
101	0xbe82b6fc	-0.2553023
102	0x3e0f846e	0.14015362
103	0x3ed1b369	0.40957192
104	0xbe63d9e8	-0.22251093
105	0x3dfea5d6	0.124339744
106	0xbe08f462	-0.13374475
107	0xbe46298c	-0.19351786
108	0xbec80775	-0.3906819
109	0x3cd002a1	0.025391879
110	0xbb897af8	-0.004195567
111	0x3ed36509	0.4128802
112	0xbc9d4567	-0.019198133
113	0x3d66b2a1	0.056322698
114	0x3e9e761b	0.30949482
115	0xbe26b29b	-0.1627907
116	0x3d523a12	0.05132491
117	0xbeb729ed	-0.35774174
118	0xbde6346c	-0.112404674
119	0x3eba4a1c	0.36384666
120	0xbed51c79	-0.41623285
121	0x3e0c9b3e	0.13731095
122	0xbe9144f7	-0.28372929
123	0xbd0f90c9	-0.035050187
124	0x3e16c2c7	0.14722739
125	0x3e620a22	0.22074178
126	0xbe175d31	-0.14781643
127	0xbec48e9b	-0.3839005
128	0xbea52ab3	-0.3225914
129	0x3df0c397	0.11756056
130	0xbe641460	-0.22273397
131	0x3d37fb4b	0.044917386
132	0x3e38956e	0.18025753
133	0x3e3dbd1e	0.18529174
134	0xbe3e00d7	-0.18555008
135	0x3db024e8	0.08600789
136	0x3dde03bf	0.10840558
137	0xbe9e8b0a	-0.30965453
138	0xbe664844	-0.22488505
139	0xbe732043	-0.23742776
140	0x3dcc3f6e	0.09973036
141	0x3daa0cad	0.08303199
142	0x3e831dbb	0.2560862
143	0x3de319db	0.11088916
144	0x3de7cf95	0.1131889
145	0xbe0de805	-0.1385804
146	0xbebdd32d	-0.37075177
147	0xbe1a51b0	-0.15070224
148	0x3ed9a84b	0.4251121
149	0x3ce52a9f	0.027974425
150	0xbe1b05d4	-0.15138942
151	0xbbbf2d8e	-0.005834288
152	0xbeb73f8c	-0.3579067
153	0x3e933614	0.28752196
154	0x3e7dab28	0.24772322
155	0x3ec0ca5b	0.37654385
156	0x3ee39927	0.44452783
157	0x3eb4247d	0.35184088
158	0x3e9d87be	0.30767626
159	0xbe20c943	-0.15701775
160	0xbe21c634	-0.15798265
161	0xbe93688d	-0.28790703
162	0xbdf99806	-0.12187199
163	0xbe97d2b7	-0.2965295
164	0xbeccbe84	-0.39989102
165	0xbde5f41b	-0.112282
166	0x3df09629	0.11747391
167	0xbe6ff40d	-0.23432942
168	0x3d69b227	0.057054665
169	0xbd1f0f57	-0.03883299
170	0x3e69bcc0	0.22825909
171	0xbec51246	-0.38490504
172	0xbe04cb58	-0.12968194
173	0xbf058d08	-0.5216832
174	0x3e24697a	0.16055861
175	0xbd72f2dd	-0.059313644
176	0x3e068b76	0.13139138
177	0x3dccc38e	0.099982366
178	0xbea40dd7	-0.3204181
179	0x3cee490e	0.02908757
180	0xbed87d38	-0.42283034
181	0xbeda7bf5	-0.42672697
182	0xbf1b4d05	-0.606644
183	0x3e38304e	0.17987177
184	0xbe9ed72c	-0.31023538
185	0x3ed5835a	0.41701776
186	0x3cf8fc1f	0.030393658
187	0x39dc3ee6	0.00042008533
188	0x3d068516	0.032841764
189	0x3e9e249f	0.30887315
190	0xbdb417d6	-0.08793609
191	0xbe34a43b	-0.17640774
192	0xbe4caad4	-0.19987041
193	0x3eb1f7f3	0.34759483
194	0x3e1a3c87	0.15062152
195	0xbe830732	-0.25591427
196	0xbec1714c	-0.3778175
197	0xbe81ffc2	-0.2539044
198	0xbe590ce1	-0.21196319
199	0xbdc43ad9	-0.09581537
200	0x3dfa46b2	0.12220515
201	0x3cdec06e	0.027191367
202	0x3c88c7df	0.016696868
203	0x3ef87dc6	0.48533458
204	0xbe05244e	-0.1300213
205	0x3d6f1f12	0.05837924
206	0x3e0510b2	0.1299465
207	0x3dcfd108	0.101472914
208	0x3bde3a4f	0.0067818533
209	0xbe528f7d	-0.20562549
210	0xbe0ccff6	-0.13751206
211	0x3e406c18	0.18791234
212	0x3f0dfa0a	0.55459654
213	0x3ebc3eeb	0.36766753
214	0x3e0ae4c8	0.13563836
215	0x3d213d7e	0.039365284
216	0x3d7c5663	0.061605822
217	0xbf0c3cb3	-0.5478012
218	0xbcaac74b	-0.020846983
219	0x3dd08ef3	0.101835154
220	0x3e82ad3a	0.25522786
221	0xbe951ad0	-0.2912202
222	0x3cfb40ea	0.030670602
223	0x3e1669c6	0.14688787
224	0xbd9a40b9	-0.07531876
225	0xbc82ce50	-0.015967518
226	0x3e60eafb	0.21964638
227	0xbecc8307	-0.39943716
228	0xbdabb3f8	-0.08383936
229	0xbee0b83a	-0.43890554
230	0xbe795544	-0.24348933
231	0xbe19bace	-0.15012667
232	0x3deff458	0.11716527
233	0x3db20175	0.08691684
234	0x3dce90f6	0.10086243
235	0xbece0c37	-0.40243694
236	0x3dc50c6b	0.09621509
237	0xbf03331e	-0.51249874
238	0x3dd86585	0.10566238
239	0x3ef2564b	0.4733146
240	0x3f1c95c9	0.61166054
241	0xbe5fb3ff	-0.21846007
242	0x3e5934b4	0.21211511
243	0x3d8f3599	0.06992645
244	0xbefefa1b	-0.4980019
245	0x3eb87387	0.3602564
246	0x3e773c8b	0.24144189
247	0xbe8c38e1	-0.27387145
248	0xbe44e73e	-0.19228837
249	0xbf104541	-0.56355673
250	0x3efa2626	0.4885723
251	0x3e448269	0.19190373
252	0xbe8516be	-0.25993913
253	0xbd15e3c0	-0.036594152
254	0xbda5b6c7	-0.08091503
255	0x3d8af367	0.067847066

encoder_variable_selection.single_variable_grns.time_idx.gate_norm.glu.fc.bias f4 [32]
0	0xbdc815b9	-0.09769768
1	0x3dbad603	0.09122851
2	0x3ded2a87	0.11580377
3	0xbe5eb566	-0.21748886
4	0xbdd3333d	-0.10312507
5	0xbe10751a	-0.1410717
6	0x3dffe6be	0.124951825
7	0xbe461559	-0.19344081
8	0x3e6b3901	0.22970964
9	0x3e1d4bd8	0.15360963
10	0x3e7ea175	0.24866278
11	0x3dc18e4c	0.09450969
12	0x3e69728e	0.22797605
13	0xbe366909	-0.17813505
14	0xbe2bac91	-0.16765048
15	0x3e2c7989	0.16843237
16	0x3e25fe92	0.16210392
17	0x3e693ae7	0.22776376
18	0x3e47f556	0.19527182
19	0xbbcb1513	-0.0061975806
20	0xbdee1a6f	-0.116261356
21	0xbdcf0e00	-0.10110092
22	0xbcd89916	-0.026440185
23	0x3dad48c9	0.08461148
24	0xbe165ecd	-0.14684601
25	0xbe363314	-0.17792922
26	0x3cda598a	0.026654024
27	0x3e3c7ca8	0.18406928
28	0xbda9c20e	-0.08288966
29	0xbe2acfa2	-0.16680768
30	0xbd0416a2	-0.032248147
31	0xbe2360e5	-0.15954931

encoder_variable_selection.single_variable_grns.time_idx.gate_norm.add_norm.norm.weight f4 [16]
0	0x3f8acbe2	1.084347
1	0x3f949816	1.1608913
2	0x3f95ede9	1.171323
3	0x3f8300da	1.0234635
4	0x3f906c52	1.1283057
5	0x3f51f8df	0.8202037
6	0x3f644d75	0.8918069
7	0x3f99e740	1.2023697
8	0x3f94b7cb	1.1618589
9	0x3f93bb40	1.1541519
10	0x3f7e5e48	0.9936261
11	0x3f90f013	1.1323265
12	0x3f975838	1.1823797
13	0x3f51c669	0.81943375
14	0x3f5a7d65	0.85347587
15	0x3f53c89d	0.82727987

encoder_variable_selection.single_variable_grns.time_idx.gate_norm.add_norm.norm.bias f4 [16]
0	0xbdc3373e	-0.09532021
1	0x3dad01a3	0.08447578
2	0x3e080f54	0.13287097
3	0xbdb2c85f	-0.08729624
4	0xbdc8da75	-0.09807292
5	0xbe0cbe5b	-0.1374449
6	0x3e0630c6	0.13104543
7	0xbe46148f	-0.1934378
8	0x3e747f56	0.238767
9	0x3e1aa926	0.15103588
10	0x3e80eaf4	0.25179255
11	0x3df4649a	0.11933251
12	0x3e701290	0.23444581
13	0xbe322e80	-0.17400551
14	0xbe27b029	-0.16375794
15	0x3e26f6ba	0.16305056

encoder_variable_selection.single_variable_grns.T2M.resample_norm.mask f4 [16]
0	0xbd7dd5f8	-0.061971635
1	0xbe01f7ca	-0.1269218
2	0x3d2a71df	0.041612502
3	0xbe64f5b4	-0.22359353
4	0x3dadd9f2	0.084888354
5	0xbe5525e3	-0.20815234
6	0x3e320bb1	0.17387272
7	0x3d423b72	0.047419973
8	0xbe98cbb6	-0.2984292
9	0xbe54bb6d	-0.20774622
10	0x3e9c64ee	0.30545753
11	0xbe2daca2	-0.16960385
12	0x3e849b40	0.25899696
13	0x3e538955	0.20657857
14	0xbe41d8d1	-0.18930365
15	0x3d7997d4	0.06093581

encoder_variable_selection.single_variable_grns.T2M.resample_norm.norm.weight f4 [16]
0	0x3f74d323	0.9563467
1	0x3f64601e	0.89209163
2	0x3f8d205a	1.1025498
3	0x3f81b58b	1.0133528
4	0x3f80e05c	1.0068469
5	0x3fa13a38	1.2595892
6	0x3f87d35d	1.0611378
7	0x3fa802e5	1.3125883
8	0x3f336a9a	0.70084536
9	0x3f568a95	0.8380521
10	0x3fa6eada	1.3040421
11	0x3f622e87	0.88352245
12	0x3f3ad0c4	0.729748
13	0x3f977006	1.1831062
14	0x3f90e8f6	1.1321094
15	0x3f844000	1.0332031

encoder_variable_selection.single_variable_grns.T2M.resample_norm.norm.bias f4 [16]
0	0xbd70769f	-0.058706876
1	0xbd9e5440	-0.07730913
2	0x3d12d8c6	0.035851263
3	0xbe34e45f	-0.17665242
4	0x3dddddda	0.108333305
5	0xbe475058	-0.19464242
6	0x3d84c914	0.06483665
7	0xbe76fa96	-0.24119028
8	0x3e954509	0.29154232
9	0x3e179b41	0.14805318
10	0x3e9d3a54	0.30708563
11	0xbd8deb56	-0.069296524
12	0x3e8d2190	0.2756467
13	0xbe21d88e	-0.15805265
14	0xbe054d11	-0.1301768
15	0x3e09c2c2	0.134532

encoder_variable_selection.single_variable_grns.T2M.fc1.weight f4 [8, 8]
0	0xbece1f38	-0.40258193
1	0x3da4796e	0.080309734
2	0x3f1ef82a	0.6209742
3	0x3d170590	0.03687054
4	0x3ee22d6e	0.44175285
5	0x3f6f9283	0.93582934
6	0xbe8e3b9c	-0.27779853
7	0xbd813820	-0.06309533
8	0x3d5c0fc4	0.053725973
9	0xbe127d35	-0.14305575
10	0x3e549ded	0.20763369
11	0x3ed85377	0.4225118
12	0x3eddf9b0	0.4335456
13	0xbe84cc8f	-0.25937316
14	0xbe019ff1	-0.12658669
15	0x3f28d1c2	0.65945065
16	0x3e82bca5	0.2553455
17	0x3efb7f7c	0.491207
18	0x3f126d56	0.57198083
19	0x3f46b630	0.77621746
20	0x3ebe1657	0.3712642
21	0xbf5671ad	-0.83767205
22	0x3d124cd0	0.035717785
23	0x3f90f31e	1.1324193
24	0xbf3d0088	-0.73828936
25	0xbed0e1d9	-0.40797308
26	0x3f4af37f	0.79277796
27	0x3f703255	0.938268
28	0x3f45a51d	0.7720507
29	0xbe8c4dad	-0.27403012
30	0xbf0317bf	-0.5120811
31	0x3f1ccf9c	0.61254287
32	0xbf4c3c07	-0.79779094
33	0x3dd33081	0.10311986
34	0x3dd1cc35	0.102440275
35	0x3f860a63	1.047192
36	0xbe9119ab	-0.28339896
37	0xbf27dcc4	-0.65571237
38	0xbf343b27	-0.7040276
39	0x3f445f45	0.7670787
40	0x3da59f44	0.08087018
41	0x3e8ecb5a	0.2788952
42	0xbeb903eb	-0.36135802
43	0x3ee64eab	0.44981894
44	0x3e4d8537	0.20070349
45	0xbde0b9db	-0.10972949
46	0xbf1aabd8	-0.6041846
47	0x3db709c8	0.089374125
48	0xbdfb76af	-0.122784965
49	0xbdacaadb	-0.084310256
50	0x3ebf9a06	0.37422198
51	0x3eb2dd1a	0.34934312
52	0x3e6acd48	0.22929871
53	0x3f2e3c04	0.68060327
54	0x3c292468	0.010323621
55	0xbf36b03e	-0.71362674
56	0xbe043706	-0.12911615
57	0x3c85b518	0.016321704
58	0xbf1c68eb	-0.6109759
59	0xbdd6a800	-0.10481262
60	0x3f33b34e	0.7019547
61	0xbe30365c	-0.17208236
62	0x3f54eba3	0.83172053
63	0xbe84c398	-0.25930476

encoder_variable_selection.single_variable_grns.T2M.fc1.bias f4 [8]
0	0x3c19f72d	0.00939731
1	0x3e6661d9	0.22498263
2	0x3e048c48	0.12944138
3	0xbdbb5949	-0.09147889
4	0x3e710e8a	0.23540702
5	0x3ea67351	0.32509854
6	0x3e91a281	0.28444293
7	0xbe83a24e	-0.25709766

encoder_variable_selection.single_variable_grns.T2M.fc2.weight f4 [8, 8]
0	0xbd8ec9bd	-0.06972072
1	0xbd10352f	-0.03520697
2	0x3dea7080	0.11447239
3	0xbf5ed7f0	-0.87048244
4	0x3dc76b5b	0.09737273
5	0xbf13a2d8	-0.57670355
6	0xbedb9666	-0.42888182
7	0x3e985ef6	0.2975995
8	0x3eaa8c30	0.3331008
9	0x3ecbb876	0.3978917
10	0x3db98226	0.09058027
11	0xbf3e13c3	-0.74248904
12	0x3db50104	0.08838084
13	0x3e1ce4a3	0.15321593
14	0xbe0067c6	-0.12539586
15	0xbf291c47	-0.6605877
16	0xbf219208	-0.6311345
17	0x3ec21693	0.37907848
18	0x3f1051af	0.5637464
19	0xbf0a8e62	-0.5412351
20	0xbedddce6	-0.43332595
21	0x3ea8fc9a	0.3300522
22	0xbdea1fe1	-0.11431862
23	0x3f86624a	1.0498745
24	0xbe43e03c	-0.19128507
25	0xbe2c2e40	-0.16814518
26	0x3f810e24	1.008244
27	0x3e251c3c	0.16124052
28	0x3e881455	0.26578012
29	0x3e77e60e	0.24208853
30	0xbec4987c	-0.38397586
31	0xbea93e0f	-0.3305516
32	0x3e64f653	0.2235959
33	0x3d8be0ca	0.068299845
34	0x3e1ccda7	0.15312825
35	0xbe786fb6	-0.24261364
36	0xbdb86416	-0.09003465
37	0xbeef26c5	-0.46709266
38	0x3c513a80	0.012770295
39	0xbe7e5531	-0.24837185
40	0x3de34981	0.11098004
41	0x3eb9a42e	0.36258072
42	0x3efc9ead	0.4933981
43	0x3c68d54c	0.01421101
44	0xbf1652bc	-0.5871999
45	0xbe3dd446	-0.18538007
46	0xbcce2065	-0.025161931
47	0x3e6bf068	0.23040926
48	0xbe80bd4d	-0.25144425
49	0xbf125bcd	-0.57171327
50	0x3f1861a7	0.59524006
51	0x3e4c2dae	0.199393
52	0x3e8e5a08	0.27803063
53	0x3ea022c6	0.3127653
54	0xbf0670e3	-0.52516
55	0xbc9897ce	-0.018627074
56	0x3eae5cce	0.3405518
57	0x3ecd9485	0.40152374
58	0x3d69b78a	0.057059802
59	0xbf3fbbe4	-0.74896073
60	0xbdd19261	-0.10232998
61	0xbc5509dd	-0.01300284
62	0x3e123363	0.14277415
63	0xbeae8e49	-0.3409293

encoder_variable_selection.single_variable_grns.T2M.fc2.bias f4 [8]
0	0x3dd57834	0.104233176
1	0x3e84dcd8	0.2594974
2	0xbe721e43	-0.23644356
3	0x3d6c735b	0.0577272
4	0x3e1c39f9	0.1525649
5	0xbdcd4c4c	-0.10024318
6	0xbe4e0e24	-0.20122582
7	0xbdd2b318	-0.10288066

encoder_variable_selection.single_variable_grns.T2M.gate_norm.glu.fc.weight f4 [32, 8]
0	0x3e0f0f0b	0.13970582
1	0x3e875439	0.26431444
2	0xbee6dc20	-0.45089817
3	0xbe07afe8	-0.13250697
4	0xbe742379	-0.23841657
5	0x3cc3c2bf	0.023896573
6	0xbd32b297	-0.043627348
7	0x3d536bf2	0.051616617
8	0xbf11ad8d	-0.5690544
9	0xbe14b7bf	-0.14523219
10	0x3eaa45eb	0.33256468
11	0x3ec891a5	0.39173618
12	0x3dd7de20	0.10540414
13	0xbe65a320	-0.22425508
14	0x3e04194b	0.12900274
15	0xbd19007f	-0.03735399
16	0xbd0a16cc	-0.033713147
17	0xbe016dcc	-0.1263954
18	0x3eb1a333	0.34694824
19	0x3dc89b26	0.09795217
20	0xbe9a77fb	-0.30169663
21	0x3c1852b5	0.009297063
22	0xbe597185	-0.2123471
23	0xbe8d1c1f	-0.27560517
24	0x3d84b043	0.06478932
25	0x3eb15f2a	0.34642917
26	0x3e0008a3	0.12503295
27	0x3dd92fcb	0.10604819
28	0xbe0092c1	-0.12555982
29	0x3e5b3728	0.21407759
30	0xbec253ba	-0.37954503
31	0xbe5ad8a1	-0.213717
32	0x3de656ee	0.11247049
33	0x3ee087cd	0.43853608
34	0xbf03fffb	-0.5156247
35	0x3e8449c0	0.25837517
36	0x3ee31cbb	0.44357857
37	0xbc338cda	-0.010958875
38	0xbeac8f2c	-0.3370298
39	0x3d883cef	0.06652247
40	0x3e15abed	0.14616366
41	0xbeae0da7	-0.3399479
42	0xbbfb2400	-0.0076642036
43	0x3e3ded8b	0.18547647
44	0xbe1f2880	-0.15542793
45	0xbccd8c8f	-0.025091438
46	0xbe13470c	-0.14382571
47	0x3e883c9a	0.26608735
48	0xbe46962d	-0.19393225
49	0xbe752c8a	-0.23942772
50	0xbd97b940	-0.074083805
51	0xbdaaef82	-0.08346464
52	0xbec3ee80	-0.382679
53	0x3e753d76	0.23949227
54	0x3edbb21c	0.42909324
55	0x3d46d0c3	0.048538934
56	0xbd2b27b2	-0.041785903
57	0xbdeca88c	-0.11555585
58	0x3cb2bbca	0.02181806
59	0x3f145c48	0.5795331
60	0xbe171bb1	-0.14756657
61	0x3e91a09f	0.28442857
62	0x3e4700ef	0.1943395
63	0xbe80763a	-0.250902
64	0xbe54384f	-0.20724605
65	0xbf0a14b3	-0.53937835
66	0x3ca51aff	0.020154474
67	0xbe6a9faa	-0.2291247
68	0x3e687b6d	0.22703333
69	0xbe80930c	-0.25112188
70	0x3ed1a5de	0.4094686
71	0x3e7a6a46	0.24454603
72	0xbebddbeb	-0.37081847
73	0x3cc69fa2	0.02424604
74	0xbd17e581	-0.037084106
75	0x3c87d87a	0.016582716
76	0xbd5b4f5f	-0.05354249
77	0x3ef329ee	0.47492927
78	0x3f015ec3	0.5053522
79	0x3c840b1a	0.016118575
80	0x3e31965d	0.17342515
81	0x3d8ab99a	0.06773682
82	0xbeca716a	-0.39539653
83	0xbc0efb13	-0.008726853
84	0xbe876d9a	-0.26450807
85	0xbe1ef978	-0.15524852
86	0x3f0ca2ed	0.54936105
87	0x3e0a28c5	0.13492115
88	0xbe9b9f85	-0.3039514
89	0xbd619874	-0.05507703
90	0x3f295d41	0.6615792
91	0xbe676de1	-0.22600509
92	0xbe2771c0	-0.16351986
93	0x3e124604	0.14284521
94	0x3e4e4c09	0.20146193
95	0xbe996b43	-0.29964647
96	0xbcb41df6	-0.021986943
97	0x3e4619b7	0.19345747
98	0xbe877323	-0.2645503
99	0x3db836f3	0.08994856
100	0x3ea47cec	0.32126558
101	0x3f0dcc8c	0.5539024
102	0xbe1b4949	-0.15164675
103	0x3f01e7b0	0.5074415
104	0x3e5bcb00	0.21464157
105	0xbe091918	-0.13388479
106	0xbdb0824f	-0.086186044
107	0x3ecaf76e	0.396419
108	0x3c8e9ab2	0.017407749
109	0x3d258880	0.04041338
110	0x3dc5d4af	0.09659707
111	0x3d90dcdf	0.07073378
112	0xbd9fc44d	-0.07801113
113	0x3cd6818b	0.026184818
114	0xbcc40a3c	-0.023930661
115	0x3e82c68e	0.2554211
116	0x3ea6233f	0.32448766
117	0xbe0ed4da	-0.13948384
118	0xbec5f35c	-0.3866223
119	0xbc93e9a6	-0.018055748
120	0x3dc21c6e	0.09478079
121	0xbe3bb147	-0.18329345
122	0xbea9bf7e	-0.3315391
123	0xbdbf8961	-0.09352375
124	0x3e1c1a08	0.15244305
125	0x3e5267ac	0.2054736
126	0xbdb11910	-0.086473584
127	0x3e843af2	0.25826222
128	0x3d978e0b	0.074001394
129	0x3e246e4e	0.16057703
130	0x3e1817e2	0.1485286
131	0x3e056968	0.1302849
132	0xbdb5a876	-0.08870022
133	0xbde54b1b	-0.11195966
134	0xbf06a0ef	-0.52589315
135	0xbe3f2abc	-0.18668646
136	0xbdf36e7f	-0.1188631
137	0xbe66be00	-0.22533417
138	0xbda4487e	-0.08021639
139	0xbd36b3d4	-0.04460509
140	0x3c8a902e	0.016914453
141	0xbdd764a0	-0.105172396
142	0xbe7c0908	-0.2461282
143	0x3ebd1079	0.3692663
144	0x3ea41618	0.32048106
145	0xbdc010ba	-0.0937819
146	0x3d876b8d	0.066123106
147	0x3e4f8dd7	0.20268951
148	0xbe36d3fb	-0.17854302
149	0xbef66ef5	-0.48131528
150	0xbecab11c	-0.3958825
151	0xbecad8e9	-0.39618614
152	0x3c8345f6	0.01602457
153	0xbe203c7c	-0.15648073
154	0x3e0fb307	0.14033137
155	0xbc9dde0a	-0.019270916
156	0xbd39befc	-0.045348153
157	0xbdb0a4fc	-0.08625218
158	0x3e8bcb9e	0.27303785
159	0x3e4b418b	0.19849221
160	0xbefd6f4a	-0.4949897
161	0xbdcef44b	-0.10105189
162	0x3ec4b289	0.38417462
163	0x3e2a8dff	0.1665573
164	0xbe8222b7	-0.2541711
165	0x3ea66170	0.32496214
166	0x3b8bbc2a	0.0042643743
167	0x3edc2861	0.42999557
168	0x3e0c055d	0.13673921
169	0x3e9da6bf	0.3079128
170	0xbe1ea2cf	-0.15491794
171	0xbb8910ef	-0.004182927
172	0xbe32d30b	-0.17463319
173	0x3d8f7e24	0.07006481
174	0xbe407618	-0.18795049
175	0x3c243c14	0.010024089
176	0xbec4937d	-0.38393775
177	0x3e6eec2a	0.23332277
178	0x3e8cde6a	0.27513438
179	0xbe7d0f22	-0.24712804
180	0x3e0c54d9	0.13704242
181	0xbd42e4b0	-0.047581375
182	0x3dea6fc5	0.114470996
183	0xbc8b3fe4	-0.016998239
184	0xbddb1ef6	-0.10699265
185	0xbc63cd22	-0.013903888
186	0xbe0351f7	-0.12824236
187	0x3e36746d	0.1781785
188	0x3e5c8ddf	0.21538495
189	0x3e7a195e	0.2442374
190	0xbd0597d6	-0.032615505
191	0xbe859d2b	-0.26096472
192	0x3e9ca37d	0.30593482
193	0xbe92675b	-0.2859448
194	0x3d675147	0.056473996
195	0x3d96b7e8	0.07359296
196	0xbdda5cca	-0.10662229
197	0x3eb5f8f7	0.35541508
198	0x3e541693	0.20711736
199	0x3e725626	0.23665676
200	0x3de364b2	0.111031905
201	0x3ef16a06	0.47151202
202	0x3ecc2bd1	0.3987718
203	0x3efee4c9	0.49783924
204	0xb9c18710	-0.00036912458
205	0xbe1e4ae0	-0.1545825
206	0x3ceb5519	0.028727101
207	0x3c145c9f	0.009055286
208	0x3eae56ee	0.34050697
209	0x3e4cb3a3	0.19990401
210	0xbe4ddd3a	-0.20103922
211	0xbe3ab3e7	-0.1823269
212	0xbcf7aa52	-0.030232582
213	0xbca0bbfe	-0.019620892
214	0xbe91767c	-0.2841071
215	0xbf1bf141	-0.60915
216	0x3deb2812	0.11482252
217	0x3ec06901	0.37580112
218	0xbe1e9270	-0.15485549
219	0x3d5f138c	0.054462
220	0xbe9a916b	-0.3018907
221	0x3d85e72a	0.06538232
222	0xbedab9a4	-0.42719758
223	0xbd8288cc	-0.06373748
224	0x3e259ebb	0.16173832
225	0x3f0c4c12	0.54803574
226	0x3e6f10d6	0.23346266
227	0x3ec977dd	0.3934926
228	0xbdd4c21a	-0.103885844
229	0x3dfe62d0	0.12421191
230	0xbe9cf2ab	-0.3065389
231	0xbf056795	-0.5211118
232	0xbde6f6a9	-0.112775154
233	0xbdaab252	-0.08334793
234	0x3e436919	0.1908306
235	0x3eeb802a	0.4599622
236	0xbc8cae21	-0.017172875
237	0xbe4d83fc	-0.2006988
238	0xbea76a8f	-0.32698485
239	0xbe6168e3	-0.22012667
240	0xbda3caa4	-0.07997635
241	0x3ebad66b	0.36491713
242	0xbe88a7bc	-0.2669047
243	0x3dfd6bd4	0.12374082
244	0x3eb60465	0.35550228
245	0x3e82673c	0.25469387
246	0x3e88d937	0.26728222
247	0x3d7619bc	0.060083136
248	0x3eb3499e	0.35017103
249	0x3e6d2b11	0.2316096
250	0x3db7cc72	0.08974542
251	0xbe90c164	-0.28272545
252	0x3eccee2e	0.40025467
253	0xbb4d3751	-0.0031313489
254	0xbe9d9a03	-0.30781564
255	0xbe68ace7	-0.22722207

encoder_variable_selection.single_variable_grns.T2M.gate_norm.glu.fc.bias f4 [32]
0	0xbda07d26	-0.0783637
1	0xbd8c9055	-0.06863467
2	0x3d247a32	0.040155597
3	0xbe35a9e8	-0.17740595
4	0x3daebfe4	0.08532694
5	0xbe6f31ef	-0.23358892
6	0x3d4cccb1	0.049999896
7	0xbe6436d4	-0.2228654
8	0x3e956d16	0.29184788
9	0x3e00638f	0.12537979
10	0x3e9cb69a	0.30608064
11	0xbd3a0353	-0.045413326
12	0x3e896d62	0.26841265
13	0xbe1acc66	-0.15117034
14	0xbe054a8f	-0.13016723
15	0x3e0a2003	0.13488774
16	0xbe683f4d	-0.22680397
17	0x3e115ce6	0.14195594
18	0xbe37077d	-0.1787395
19	0xbcc44ff5	-0.023963908
20	0xbca96de5	-0.020682285
21	0xbe843b63	-0.25826558
22	0xbd0fdb69	-0.035121355
23	0x3cb626b4	0.022235252
24	0x3e92ef19	0.28698042
25	0xbe87027c	-0.26369083
26	0xbe894704	-0.26811993
27	0xbdb7f909	-0.089830466
28	0xbce75f5a	-0.02824371
29	0xbe1e574a	-0.15462986
30	0xbe41c620	-0.18923235
31	0xbe512076	-0.20422539

encoder_variable_selection.single_variable_grns.T2M.gate_norm.add_norm.norm.weight f4 [16]
0	0x3f800dd0	1.0004215
1	0x3f67a3e9	0.9048448
2	0x3f6873b0	0.90801525
3	0x3f7fc356	0.99907434
4	0x3f6e5b43	0.93108004
5	0x3f6a1f73	0.9145424
6	0x3f6553b7	0.89580864
7	0x3fa7333d	1.3062512
8	0x3f33dc14	0.7025769
9	0x3f614afa	0.8800503
10	0x3fa48c4d	1.2855316
11	0x3f8fdf59	1.1240035
12	0x3f3a4cd2	0.7277347
13	0x3f9da931	1.2317258
14	0x3f958ef0	1.1684246
15	0x3f84955a	1.0358078

encoder_variable_selection.single_variable_grns.T2M.gate_norm.add_norm.norm.bias f4 [16]
0	0x3b907076	0.0044079376
1	0xbcea778b	-0.028621456
2	0x3d24251c	0.040074453
3	0xbd735fe6	-0.059417628
4	0x3df115e8	0.117717564
5	0xbe5d330a	-0.21601501
6	0x3d8941d5	0.067020096
7	0xbe7484d6	-0.23878798
8	0x3e9383a5	0.28811374
9	0x3ddb4b52	0.107077256
10	0x3e93130d	0.28725472
11	0x3dc4546d	0.095864154
12	0x3e8a81e6	0.2705223
13	0xbe4e8c53	-0.20170717
14	0xbe2a3d83	-0.16625027
15	0x3e1e210f	0.15442298

encoder_variable_selection.single_variable_grns.T2M_MAX.resample_norm.mask f4 [16]
0	0xbdf122c5	-0.1177421
1	0xbd9d9dc0	-0.07696104
2	0xbe2294da	-0.15877095
3	0x3e4409e8	0.19144404
4	0xbd0b03fa	-0.03393934
5	0x3e2fe5ca	0.17177501
6	0xbe04f6e6	-0.1298481
7	0x3e3419d8	0.17587984
8	0xbd385b81	-0.04500914
9	0xbe346366	-0.17616042
10	0xbe5bf4b4	-0.21480066
11	0x3db43099	0.08798332
12	0x3e3fb318	0.18720663
13	0xbe31ebf4	-0.17375165
14	0x3e29bf31	0.1657684
15	0xbe2a079e	-0.16604468

encoder_variable_selection.single_variable_grns.T2M_MAX.resample_norm.norm.weight f4 [16]
0	0x3f614b33	0.8800537
1	0x3f8c2339	1.0948249
2	0x3f57e1d9	0.8432899
3	0x3f9aa6a8	1.208211
4	0x3fa641c4	1.298882
5	0x3f52f88e	0.82410514
6	0x3f5d5a77	0.86466163
7	0x3f969247	1.176339
8	0x3f6866c6	0.9078182
9	0x3f547566	0.82991636
10	0x3f969a9a	1.1765931
11	0x3f9080bd	1.1289288
12	0x3f97ab69	1.1849185
13	0x3f52a6ac	0.8228557
14	0x3f54cd95	0.83126193
15	0x3f5659c6	0.83730733

encoder_variable_selection.single_variable_grns.T2M_MAX.resample_norm.norm.bias f4 [16]
0	0xbdf2a606	-0.11848073
1	0x3defb83c	0.11705062
2	0x3e2084fb	0.15675728
3	0xbe55b187	-0.20868503
4	0xbdb0d740	-0.08634806
5	0xbe0d0043	-0.13769631
6	0x3e06f05d	0.13177629
7	0xbe3836d4	-0.17989665
8	0x3e8a5417	0.2701728
9	0x3e266f53	0.16253404
10	0x3e4eea6e	0.20206615
11	0x3e05aeae	0.13054916
12	0x3e3cd5b2	0.18440893
13	0xbe329362	-0.17439035
14	0xbe2c504d	-0.16827507
15	0x3e2a6602	0.16640475

encoder_variable_selection.single_variable_grns.T2M_MAX.fc1.weight f4 [8, 8]
0	0xbf7d7351	-0.99004084
1	0x3f602dbf	0.87569803
2	0x3e77aa87	0.24186145
3	0x3f37723b	0.71658677
4	0x3f32e607	0.69882244
5	0xbe2a77d0	-0.16647267
6	0xbf02fe02	-0.51168835
7	0x3ee2cb35	0.4429566
8	0x3d8b9319	0.06815166
9	0x3da938f9	0.0826282
10	0x3ecf94cb	0.40543208
11	0xbe2f1303	-0.17097096
12	0xbedce476	-0.43143052
13	0x3f5947e1	0.84875304
14	0xbec6333e	-0.3871097
15	0xbe0769ed	-0.13224001
16	0x3ed9fdfd	0.4257659
17	0xbc06bba0	-0.008223444
18	0xbf0b575b	-0.5443017
19	0x3daa2306	0.083074614
20	0xbea9d284	-0.33168423
21	0xbdd78f68	-0.105253994
22	0xbfc3f568	-1.5309267
23	0x3e3f4b8d	0.18681164
24	0x3f4160e6	0.7553848
25	0xbbe84950	-0.0070888177
26	0xbeaa2b11	-0.33235982
27	0xbe714858	-0.23562753
28	0x3f6959e3	0.9115278
29	0xbe0881a8	-0.1333071
30	0x3e3d7128	0.18500197
31	0x3e88d96a	0.26728374
32	0xbe1403af	-0.1445453
33	0xbeb6519b	-0.35609135
34	0xbf346321	-0.7046376
35	0x3f1fea57	0.6246695
36	0x3edff0d4	0.43738425
37	0xbf1864ca	-0.5952879
38	0x3f472c76	0.77802217
39	0xbd1385c4	-0.03601624
40	0x3f0d93c4	0.553036
41	0x3e77f4c2	0.24214461
42	0x3f4dfa3c	0.8045995
43	0x3c552774	0.013009895
44	0xbecf1522	-0.4044581
45	0xbd7ab240	-0.06120515
46	0xbe13410e	-0.14380285
47	0xbf5c835e	-0.8613795
48	0xbe104e30	-0.14092326
49	0x3e45042f	0.19239877
50	0x3ecccfd4	0.4000231
51	0xbf38cdaa	-0.7218882
52	0x3e164863	0.14676051
53	0x3f45bbe4	0.77239823
54	0x3e68f358	0.22749078
55	0xbda97386	-0.082739875
56	0xbd2d47a0	-0.042304635
57	0xbe9a057a	-0.30082303
58	0x3f228a5b	0.63492364
59	0x3edebc21	0.43502906
60	0x3ea003a1	0.3125277
61	0xbe4f9310	-0.20270944
62	0xbe88a9d5	-0.26692072
63	0xbee31cb4	-0.44357836

encoder_variable_selection.single_variable_grns.T2M_MAX.fc1.bias f4 [8]
0	0xbe2f5be2	-0.17124894
1	0xbc9ea414	-0.019365348
2	0xbe3d1a12	-0.18466976
3	0xbe2188c5	-0.1577483
4	0x3d7b28f6	0.06131836
5	0x3e08e975	0.13370307
6	0x3e391655	0.18074925
7	0xbe61fa19	-0.22068061
