ai_predict/ai/lightning_logs/version_5/checkpoints/epoch=9-step=80.ckpt (torch, 662004 bytes, 889 tensors)

prescalers.time_idx.weight f4 [8, 1]
000000 52 b2 41 bf 52 5c 6c be c4 6c a9 be 38 11 6f 3f
       -0.7566272 -0.23082092 -0.33090794 0.9338565
000010 e9 b5 24 be 3d ed 7b 3f 9f 72 4d bf 8d f3 61 bf
       -0.16085018 0.9840887 -0.8025302 -0.88262254

prescalers.time_idx.bias f4 [8]
000000 b7 08 98 3e 9d 3c 35 3f fa 30 20 3f 1d a2 f4 3e
       0.2969415 0.70795614 0.6257473 0.47779933
000010 82 ab 5b bf 8a af 54 bf e2 9a 88 bf a8 79 69 3e
       -0.85808575 -0.8308035 -1.0672266 0.22800314

prescalers.T2M.weight f4 [8, 1]
000000 00 46 4a bf e3 a0 f2 3e 13 e9 b6 be 79 09 98 bf
       -0.7901306 0.47388372 -0.35724697 -1.1877891
000010 2b ac 86 3f 3c ce 39 bf 9f 2d 0f 3f e5 f2 14 3e
       1.0521291 -0.72580314 0.5592899 0.14545782

prescalers.T2M.bias f4 [8]
000000 6a f6 93 3e c8 e4 8d 3c 59 2f b8 3d 4b 21 45 bf
       0.28898937 0.017321005 0.08993406 -0.77003926
000010 0f a5 f5 be 75 b7 4f bf b8 bd 23 bf 53 f3 10 3f
       -0.47977492 -0.8113931 -0.6396136 0.56621283

prescalers.T2M_MAX.weight f4 [8, 1]
000000 68 2b 87 3f f4 b0 24 bf 56 6d 8e bf 3c c7 5b bf
       1.0560122 -0.6433251 -1.1127117 -0.8585088
000010 80 fe 33 bf b0 44 19 3f 58 76 ab be 37 32 63 bf
       -0.7031021 0.59870434 -0.33488727 -0.88748497

prescalers.T2M_MAX.bias f4 [8]
000000 5d 27 35 bf 03 f4 a7 3e 76 5f 34 bf 55 4b d5 3e
       -0.7076319 0.32803354 -0.7045816 0.41659036
000010 c8 4e c9 3e e9 55 b0 3e 21 99 47 bd e0 f0 0a bf
       0.39317918 0.34440544 -0.04873002 -0.54273796

prescalers.T2M_MIN.weight f4 [8, 1]
000000 32 d8 95 be 5a a2 1a 3e 1c 0b 85 bf 16 a1 29 3d
       -0.29266506 0.15100995 -1.0394015 0.04141339
000010 4f 3e a0 3e e5 f5 3e 3f f8 86 1c 3f c7 b4 c8 bd
       0.31297538 0.74593955 0.61143446 -0.098001055

prescalers.T2M_MIN.bias f4 [8]
000000 91 24 67 3f 32 79 9a bf cd 3a 79 bf bc 67 2b bf
       0.9029017 -1.2068236 -0.9735535 -0.6695516
000010 69 8c 4c 3c fa e4 15 bf 17 a7 29 bf 33 a4 6b 3c
       0.012484648 -0.58552516 -0.66270584 0.01438241

prescalers.PRECTOTCORR.weight f4 [8, 1]
000000 a6 ec 16 bf 3b b7 08 be bb 5f f9 3e ad f6 97 be
       -0.58954847 -0.13351147 0.4870585 -0.29680386
000010 7d 4d 97 3d ec 76 d6 be a0 80 36 bf 34 34 a0 3d
       0.073878266 -0.41887605 -0.71290016 0.07822457

prescalers.PRECTOTCORR.bias f4 [8]
000000 fc 5b 47 3f 0b 8b 58 bf f5 e1 e0 be a0 c5 f0 3e
       0.7787473 -0.8458716 -0.43922392 0.47025776
000010 f5 87 f0 be 8b d8 26 bf ea 44 9c 3e 1e b5 19 be
       -0.46978727 -0.6517417 0.30521327 -0.15010497

prescalers.RH2M.weight f4 [8, 1]
000000 38 c1 42 bf 54 e1 65 be f5 d8 35 3f 46 fe 20 3f
       -0.7607608 -0.22449237 0.71034175 0.6288799
000010 67 7d de 3e c7 a3 33 3f 1a 1d 39 bf 75 44 41 3e
       0.4345505 0.7017178 -0.7231003 0.1887377

prescalers.RH2M.bias f4 [8]
000000 7f e3 74 bf 5c 06 ea 3e 7f 18 41 3f 25 4b 56 3f
       -0.9565963 0.45707977 0.75428003 0.8370841
000010 76 8f e6 3d 84 7d 3f 3e 61 14 5d 3f 18 21 74 be
       0.11257832 0.18700224 0.8635922 -0.2384075

prescalers.ALLSKY_SFC_SW_DWN.weight f4 [8, 1]
000000 a9 be 8b 3f 0e 59 11 3f f4 73 da 3e b8 8f 4e 3e
       1.091756 0.5677651 0.4266659 0.20172012
000010 05 3a 2f be 7b 6d 65 bf 17 9d 9d 3f 92 9f 57 3f
       -0.17111976 -0.8962018 1.2313565 0.8422786

prescalers.ALLSKY_SFC_SW_DWN.bias f4 [8]
000000 41 2a 24 3f a9 05 90 be 6e 9e 2c bf f2 72 1e 3f
       0.64126974 -0.28129318 -0.67429245 0.6189414
000010 16 00 31 3f e2 36 c0 3e 46 42 52 bf d3 00 50 3f
       0.69140756 0.37541872 -0.82132375 0.8125126

prescalers.numero_casos.weight f4 [8, 1]
000000 dd 0f f8 3e c4 ba 3e 3f f0 c2 28 bf ea d7 66 bf
       0.48449603 0.7450373 -0.6592245 -0.9017321
000010 1e c3 d6 3e d0 6b b7 3f a7 d8 8f 3f ab dd 7b bf
       0.41945738 1.4329777 1.1237992 -0.98385113

prescalers.numero_casos.bias f4 [8]
000000 80 02 c6 3e ee a2 41 3d f5 30 82 be 70 21 15 3e
       0.38673782 0.047274522 -0.25427976 0.14563537
000010 44 bb 96 be 8f 13 e7 bc cc a9 40 3e 87 d8 21 3f
       -0.29439747 -0.028207568 0.18814772 0.6322102

static_variable_selection.single_variable_grns.municipio.mask f4 [16]
000000 f8 f2 34 3e ce f1 34 be 5b f6 34 3e 02 f2 34 be
       0.1767081 -0.17670366 0.17672102 -0.17670444
000010 32 f2 34 be d7 f1 34 3e b1 e9 34 3e 06 0c 35 3e
       -0.17670515 0.1767038 0.17667271 0.17680368
000020 52 fd 34 be 54 f2 34 3e 8c f4 34 3e 9d ed 34 3e
       -0.17674759 0.17670566 0.17671412 0.17668767
000030 4a f2 34 3e b2 f2 34 be f8 f2 34 be 9e f2 34 be
       0.17670551 -0.17670706 -0.1767081 -0.17670676

static_variable_selection.single_variable_grns.municipio.norm.weight f4 [16]
000000 9c 2e 85 3f 77 20 84 3f a8 56 86 3f 26 26 60 3f
       1.0404849 1.0322407 1.0495195 0.8755821
000010 ad fd 77 3f 99 27 5d 3f 35 5b 49 3f 4d 4e 87 3f
       0.96871454 0.86388546 0.78654796 1.057077
000020 09 d1 99 3f 98 5e 7e 3f 22 93 91 3f 9f 53 54 3f
       1.2016917 0.9936309 1.1373026 0.82940096
000030 bd ae 73 3f 0e ff 82 3f 14 85 88 3f bd 7a 7d 3f
       0.95188504 1.0234087 1.0665612 0.9901541

static_variable_selection.single_variable_grns.municipio.norm.bias f4 [16]
000000 7b f3 34 3e 5f fc 34 be e1 12 35 3e 71 e7 34 be
       0.17671005 -0.17674397 0.17682983 -0.17666413
000010 f3 f1 34 be b2 e1 34 3e 9a bb 34 3e e3 22 35 3e
       -0.17670421 0.17664221 0.1764969 0.1768909
000020 4f c2 43 be ef f3 34 3e a5 ff 34 3e a5 c6 34 3e
       -0.19117092 0.17671178 0.17675646 0.17653902
000030 58 ef 34 3e 1c fa 34 be 7b fa 34 be 0d f2 34 be
       0.17669427 -0.17673534 -0.17673676 -0.1767046

encoder_variable_selection.flattened_grn.resample_norm.mask f4 [8]
000000 aa e6 9d bd 75 73 8b be 34 ec a6 be 0c 34 77 3e
       -0.07710011 -0.27236524 -0.32602084 0.24140948
000010 ad ee 3d be 2d 86 11 3e 23 71 11 bc 6e 88 b4 bd
       -0.18548079 0.1421134 -0.008877072 -0.088150844

encoder_variable_selection.flattened_grn.resample_norm.norm.weight f4 [8]
000000 7e 90 86 3f 83 88 4e 3f 18 2d 93 3f 83 87 99 3f
       1.0512846 0.8067705 1.1498137 1.199448
000010 22 a8 4a 3f 4e 72 94 3f 14 4f 91 3f 50 b5 82 3f
       0.791628 1.1597383 1.1352258 1.0211582

encoder_variable_selection.flattened_grn.resample_norm.norm.bias f4 [8]
000000 f0 79 3b 3e f7 59 1e be 8d 1e 7c bd 97 91 75 be
       0.18308234 -0.15464006 -0.061552573 -0.2398132
000010 88 a6 10 be 56 6a 1a 3e ef ac 19 be 92 9e a7 3d
       -0.14126027 0.15079626 -0.15007375 0.08184542

encoder_variable_selection.flattened_grn.fc1.weight f4 [8, 64]
000000 77 7a 8b 3e 42 b0 2f be ec 1b 1c be b0 bc 3c be
       0.2724187 -0.17157081 -0.15245026 -0.18431354
000010 d4 ce ad 3d a1 61 7b bd 2b 78 ab 3e cc 6d 88 3d
       0.08486715 -0.061372403 0.33490118 0.06661567
000020 ab 44 8d bd c1 8f 80 bd 6c 97 09 3e c4 2d f1 bd
       -0.06897863 -0.06277419 0.13436669 -0.11776307
000030 37 20 1e 3f bc 5f 95 3d 4b 0d 7f bc f4 ee 42 be
       0.61767906 0.072936505 -0.015567134 -0.19036466
000040 42 f5 2f 3e b8 01 1b bf 68 86 55 bd 3c 7e c3 be
       0.17183402 -0.605495 -0.052130133 -0.38182247
000050 e6 89 37 bd 9d 6e 8b be 7c 9d 9f bd 09 c8 a9 3e
       -0.044809245 -0.2723283 -0.0779371 0.33160427
000060 3a 83 91 be b2 9c ec bc f8 a6 24 3d 67 6b e1 3e
       -0.2842043 -0.028883312 0.040198296 0.44027254
000070 b1 f0 81 be df cd 0d bc de 83 3b 3e f2 44 6a 3e
       -0.25378945 -0.0086550405 0.18312022 0.22877863
000080 27 52 2b be ea 3d dd 3e ee 28 84 3e f2 29 9f be
       -0.16730557 0.432113 0.25812477 -0.3108669
000090 ae 86 bf 3e b8 87 f9 bd a5 62 bc be d2 13 a8 3d
       0.3740744 -0.121840894 -0.3679401 0.082069054
0000a0 a4 20 51 3d 7d 90 8d be 22 6d 10 bd e9 2a 51 be
       0.05105652 -0.27649298 -0.035260327 -0.20426525
0000b0 89 4a ca be 45 b1 11 be 72 4c 1d be 7b 42 82 3e
       -0.3950999 -0.14227779 -0.15361193 0.25441346
0000c0 6c 45 cc 3c 4e 89 43 3e 30 48 8c 3e 60 28 dc 3d
       0.024935447 0.19095346 0.27398825 0.107498884
0000d0 50 fc cd bd 6c f9 27 be 1f 57 7b be bb b6 5e 3d
       -0.100578904 -0.1640374 -0.24544953 0.054373484
0000e0 23 51 d0 3c b6 b1 62 3b c4 93 2a be 43 da 8c 3e
       0.025429314 0.0034590787 -0.1665793 0.2751027
0000f0 db 02 95 bc fa b0 5e be 29 36 76 3c 09 fa a3 3c
       -0.018189838 -0.21747199 0.015027561 0.020016687
000100 0c 6e 4d 3e c8 c9 7c bd 67 d7 7f 3d da 6d 71 be
       0.20061511 -0.06171587 0.062461283 -0.23577061
000110 99 2b 21 3e fb f3 7d 3e 0b 3b 08 3e 05 56 28 3e
       0.15739287 0.24800102 0.13303773 0.16439064
000120 96 6c f2 bc d6 7c 06 3e f3 1b 36 be 29 7e 83 3e
       -0.029592793 0.13133559 -0.177841 0.2568219
000130 5f 0a a7 bd fd 80 e0 3e c3 ee 4b bd 71 49 11 be
       -0.08156275 0.4384841 -0.049788248 -0.14188172
000140 2d 32 07 3d a0 12 b8 be 7b 52 9c 3e 25 98 2d bf
       0.033006836 -0.3595171 0.30531678 -0.6781028
000150 c2 87 5b be d0 29 98 be f2 99 27 be 3f 86 6d bd
       -0.21438506 -0.297194 -0.16367319 -0.057989355
000160 a3 ca a9 be 93 01 ad bc f1 65 3d 3e 19 8c d2 bd
       -0.33162412 -0.021118915 0.18495919 -0.10280628
000170 e1 8d 01 3e ec 3d 7d 3e aa 80 1f bc ae cc 63 3d
       0.12651779 0.24730653 -0.009735266 0.05561512
000180 6f 03 ba b9 01 29 67 3c 0d a2 5b 3e dc aa c3 be
       -0.00035479243 0.014108897 0.21448536 -0.38216293
000190 8d 49 a3 3d e0 1d 9b 3e 28 bf 10 be 72 5b 8e 3e
       0.07973013 0.3029623 -0.1413542 0.27804142
0001a0 3d aa ba 3d c9 d4 08 bf 16 84 b3 3d 49 d5 46 bd
       0.091145016 -0.53449684 0.08765428 -0.04854325
0001b0 81 61 76 be 23 dc 5a bd f8 72 4b be b7 66 13 3e
       -0.24060632 -0.053432595 -0.19868076 0.14394651
0001c0 eb 10 75 bd f5 79 9e 3d 90 28 26 3e 57 bf d6 be
       -0.059830587 0.07738105 0.16226411 -0.41942856
0001d0 b3 84 f3 bd d1 64 63 be 86 df 4c 3d 84 f8 9a be
       -0.11890545 -0.22206427 0.050017856 -0.30267727
0001e0 10 b1 46 bb cf 68 ff be b9 1b a1 3e f4 e2 d2 3e
       -0.003031794 -0.4988465 0.31466463 0.41188776
0001f0 bd f5 de 3c 0a 5d 55 bd 20 7d 34 be c9 d8 e3 bc
       0.027216787 -0.052090682 -0.17625856 -0.027813332
000200 4b 2b b2 3e 12 4c ac 3d 46 e8 2f 3d f0 73 f9 3d
       0.34798655 0.08412947 0.042946123 0.121803164
000210 5e 8a d3 3c 12 4d 79 3e 26 ec 0d 3e 32 a8 ce 3e
       0.025822815 0.24345806 0.13859615 0.40362698
000220 31 0b 3f be bb 31 21 be 75 1b 8d be 47 61 8c bc
       -0.18656613 -0.15741627 -0.2756001 -0.01713623
000230 57 c0 ba 3e 43 6c 98 3d 51 3b 96 3d 11 69 85 be
       0.3647487 0.07442524 0.073355325 -0.26056722
000240 cf 78 9a 3e 29 2f ab bd c5 c1 6b 3e 53 63 96 be
       0.30170295 -0.083586045 0.23023136 -0.29372653
000250 0e 09 fb 3d 13 e8 9d 3d a3 1e 8b be b0 cb ed 3e
       0.122575864 0.0771028 -0.2717181 0.46444464
000260 25 3e 2f be fa 9d 61 3e a8 da e6 3d ac 68 b8 3e
       -0.1711355 0.2203292 0.11272174 0.36017358
000270 3a 21 1d 3d 80 06 17 3e 90 c1 72 3e 4d 95 00 3f
       0.038361765 0.14748573 0.2370665 0.50227815
000280 6b 57 c7 3d 30 4b 63 3c ef 22 9a bc 56 4a 80 3d
       0.097334705 0.013872907 -0.018815486 0.062641785
000290 a6 8c 3e bd c6 f0 12 3e 10 2c 5e be ad d0 d1 3d
       -0.04652085 0.1434966 -0.21696496 0.1024488
0002a0 d5 db 3c 3e a5 86 46 be ff 71 4a bd 36 0e 38 be
       0.18443234 -0.193873 -0.04942512 -0.17974171
0002b0 8c fe 71 3e 66 f3 30 3e 66 f3 d8 be ec f7 3c bd
       0.23632258 0.17280349 -0.42373198 -0.046134874
0002c0 61 58 0f be c9 d2 60 3e 80 fe 2f bd a1 06 b1 be
       -0.13998558 0.21955408 -0.04296732 -0.3457537
0002d0 f9 80 2e 3e df 62 c6 be ff dd 43 3e 7f bf 44 bd
       0.17041387 -0.38747308 0.19127654 -0.048034187
0002e0 72 81 9c be c4 1f a7 bd 90 bf c3 3e b4 cc 60 3d
       -0.3056751 -0.08160356 0.38232088 0.05488272
0002f0 e8 b1 1d 3e 3b 80 d3 be c9 35 b1 be 2a 4e 8a 3e
       0.15399897 -0.4130877 -0.34611347 0.2701276
000300 55 72 60 3d c0 33 93 be 34 d1 3f be 1c 42 2f 3e
       0.054796536 -0.2875042 -0.18732148 0.17115062
000310 c5 12 b3 3e d0 63 36 3e 8b 87 be 3d ce 70 96 3d
       0.34975258 0.17811513 0.093031965 0.073457345
000320 b4 a1 36 be 65 89 5d be 5d 34 f0 be 85 b5 28 3e
       -0.17835122 -0.21634443 -0.4691495 0.16475494
000330 c0 30 7b 3e 0b 07 18 3e bb f7 1a 3e 47 07 06 be
       0.24530315 0.14846437 0.15133564 -0.13088714
000340 6a 38 45 3c a3 7c 32 be ec 80 37 3e d4 53 86 be
       0.012037376 -0.17430358 0.17920274 -0.2623583
000350 4c 0a 98 bd cd 07 92 3c 59 75 c7 bd 0b 14 8a bd
       -0.07423839 0.017825985 -0.09739179 -0.06742104
000360 f7 74 ab be 2d ea ae 3d 7d 22 f7 bc 05 01 e1 3d
       -0.33487675 0.08540759 -0.030167812 0.109865226
000370 d2 89 ee be 43 cc 03 bd 9d 2c dd 3e 5b 26 a5 bd
       -0.46589524 -0.03217722 0.431981 -0.08063956
000380 c1 60 5f be 6a 44 97 3e b2 ac 04 3e 80 fa 7f be
       -0.21814252 0.29544383 0.12956503 -0.24997902
000390 a1 1a 82 3d c1 57 cf bd e8 cf 98 bc 33 72 d3 3d
       0.06352735 -0.101241596 -0.018653825 0.10324516
0003a0 bb 56 3b 3c 58 dd 18 be 0f 52 b9 3e b4 ca d8 bd
       0.011434252 -0.14928186 0.36195418 -0.105855376
0003b0 ff 49 eb 3d 77 6b 8f bd b0 d7 80 bc be c1 6c 3e
       0.11488723 -0.07002919 -0.015727848 0.23120782
0003c0 45 9c dd be 93 af 3b 3e 1f 6b a3 3e 45 c3 60 be
       -0.43283287 0.18328695 0.31917664 -0.2194949
0003d0 15 f1 94 be c0 23 25 be ee f3 b5 3e e2 65 7e bd
       -0.2909018 -0.16126919 0.35537666 -0.06210888
0003e0 a9 a7 fe bd c5 b2 14 3d 84 c0 5b 3e 75 23 04 bf
       -0.124343224 0.0363033 0.21460158 -0.51616603
0003f0 54 a4 7c bd 96 2c c0 3e 5b b3 eb 3d ef 96 ed be
       -0.061680153 0.37534016 0.11508819 -0.46404216

encoder_variable_selection.flattened_grn.fc1.bias f4 [8]
000000 ec 0d 39 be a2 d4 36 be 74 a1 1a be 2b 67 33 be
       -0.18071717 -0.1785455 -0.15100652 -0.17519824
000010 af a0 88 3e de 6b 50 3e 76 17 30 be 29 bf 36 be
       0.26685092 0.20353648 -0.1719645 -0.1784636

encoder_variable_selection.flattened_grn.context.weight f4 [8, 16]
000000 ae f3 37 bf 8d b9 3e 3f e4 95 30 bf c4 d2 3a 3f
       -0.718562 0.7450188 -0.68978715 0.7297785
000010 f8 6a 81 3d 6d 6c c8 bd fb 26 32 3d 2f 52 2a bf
       0.06319231 -0.097863056 0.043494206 -0.6653165
000020 c5 ff ca 3e 88 4b c8 3e 62 d2 1b bf ea 8e 1c bc
       0.39648262 0.39120126 -0.60867894 -0.009555558
000030 01 b1 39 bf 65 62 9d bd 09 51 04 bd 20 08 1b 3f
       -0.7253571 -0.07684783 -0.032303844 0.6055927
000040 af b6 04 bf 1d 9f 06 3f 3c 42 92 be d7 d3 b1 be
       -0.51841253 0.5258654 -0.28566158 -0.34731933
000050 3f 5e a0 3e b7 21 a8 3e be 1b cc be 3f 2b 4c 3c
       0.31321904 0.32838222 -0.39864916 0.012461483
000060 64 a2 7e 3e fc c7 a4 3e f0 be 1e 3e 0e b2 6a 3e
       0.24866635 0.32183826 0.15502524 0.22919485
000070 c9 75 d3 bc 7c e8 1c 3e d6 61 dc 3c 52 91 aa be
       -0.025813 0.15323061 0.02690212 -0.33313996
000080 18 9f 08 3f 57 a0 f0 be 46 d2 d1 3e e5 0a 50 be
       0.5336776 -0.4699733 0.40980738 -0.20316656
000090 56 32 52 bc 70 f2 07 3e ae fe a0 3d 7d 1e f0 3d
       -0.012829384 0.13276076 0.07861076 0.11724565
0000a0 e2 bd 09 be e0 9c eb be f2 a1 22 3f 2c 87 a4 3e
       -0.13451341 -0.46018124 0.6352836 0.32134378
0000b0 10 42 bd bd 65 c5 a6 be b6 09 c9 3d a9 75 c0 be
       -0.09241116 -0.32572475 0.09816305 -0.37589768
0000c0 71 8a 8e 3e 22 8c 90 3e f0 3f 05 be 54 69 11 be
       0.27839997 0.28231913 -0.13012671 -0.14200336
0000d0 44 8b c0 3e 25 51 88 bc e0 cc 1c 3e b2 c0 e1 bd
       0.3760625 -0.016640255 0.15312529 -0.11023082
0000e0 10 09 25 3e 90 5a 86 bd 32 94 3d be c7 ee bd 3d
       0.16116738 -0.06560242 -0.18513563 0.09274059
0000f0 ad 80 8a bb 37 1e b0 bc 64 4b 7b 3d 52 9b 4f be
       -0.004226765 -0.021498783 0.061351195 -0.20274094
000100 1b 96 07 3e 7d 2f 3f bf 61 23 e4 3e 65 99 0a be
       0.13240854 -0.74681836 0.44558242 -0.13535078
000110 40 28 25 bf 13 00 94 3e 25 ff df bd b8 e3 99 3e
       -0.6451454 0.28906307 -0.10937337 0.30056548
000120 3f db 13 bf f1 76 f9 be 92 b8 62 3e a2 02 37 be
       -0.5775642 -0.48723558 0.2214072 -0.17872098
000130 9d a6 b3 3e 9e 8a b7 be 51 c2 aa be ae 8d df be
       0.35088053 -0.35847944 -0.33351377 -0.4366278
000140 f4 d3 f0 bc 29 c9 c9 be 03 e9 60 be 20 ce 04 3e
       -0.029397942 -0.39411286 -0.21963887 0.12969255
000150 6a 46 1c bf f7 56 54 be 9d 2f 94 be 89 0e 88 be
       -0.61044943 -0.207363 -0.28942576 -0.2657359
000160 c0 8a 23 bd 75 79 df be 9b 5d b0 3e b2 b2 c7 bd
       -0.039927244 -0.43647352 0.34446415 -0.0975088
000170 68 08 94 be 3d 43 48 3e b9 3a 56 3c 3e 11 dc bd
       -0.28912663 0.195569 0.013075524 -0.10745476
000180 9a 39 54 be 16 c5 69 be 81 48 a0 3e af e5 58 3e
       -0.20725098 -0.22829089 0.31305316 0.21181367
000190 f1 47 b3 3c 26 90 58 be e1 13 d4 3e 70 65 4b 3d
       0.02188489 -0.21148738 0.41421416 0.049657285
0001a0 17 d0 12 bf 63 e4 09 be 9f b5 f2 3e fa 59 e5 3e
       -0.5734877 -0.13466029 0.4740419 0.4479521
0001b0 5b ff 8f 3e 34 93 54 bd 10 c2 51 be 6d a3 ff bd
       0.28124508 -0.051898196 -0.20484185 -0.12482343
0001c0 4e 39 b9 be e0 5c 2c 3e c2 42 36 3c ba fe 5f 3d
       -0.36176533 0.16832304 0.011124315 0.054686286
0001d0 54 b0 8a 3e a9 7a a9 3d 12 79 89 be 43 cc 85 3d
       0.27087653 0.08275349 -0.26850182 0.065331005
0001e0 e9 1d 53 3e 2c 89 5a 3e 0d bd 9b bc a3 ac ac 3c
       0.20616879 0.2134139 -0.019011045 0.021078413
0001f0 d6 99 6a bd f2 cf 45 3e 21 13 af be b8 74 03 3f
       -0.057275616 0.19317606 -0.34194282 0.51349974

encoder_variable_selection.flattened_grn.fc2.weight f4 [8, 8]
000000 db 4f ba be 13 ca c2 3e 74 ec 22 bf 78 2f 09 3f
       -0.3638905 0.38044795 -0.6364205 0.53588057
000010 f5 dc c5 bd f0 fd a8 be df 50 98 bc e9 e5 95 3e
       -0.09661285 -0.3300624 -0.01859325 0.2927697
000020 a3 be 1b bf 70 a8 0c be c1 b7 94 be fc c6 9f 3f
       -0.60837764 -0.13736129 -0.29046443 1.24826
000030 d7 b3 c2 3e 80 4c 2a 3f f3 0c 9a 3e e6 23 ac 3d
       0.38027832 0.6652298 0.30088004 0.084052846
000040 aa 46 59 3f 45 89 48 3d 9c 04 13 3f 3a 08 3c 3f
       0.8487345 0.048959035 0.5742891 0.7345005
000050 d7 c6 9f be e2 f9 73 3d 8b d8 61 bf 79 87 0f bd
       -0.3120639 0.05956448 -0.88221043 -0.035041306
000060 82 3e 4d 3e 01 18 2f 3f 8b ef 55 bf 37 16 86 3e
       0.20043376 0.68396 -0.8356864 0.26188824
000070 69 56 50 bf f1 03 46 3e cc 97 5d 3e 4e f0 24 3e
       -0.8138185 0.19337441 0.21639937 0.16107294
000080 1b ba e2 be 77 80 e1 3d 51 00 28 3f 65 f7 eb be
       -0.44282612 0.11010831 0.6562548 -0.46087185
000090 27 41 34 bf 23 99 77 3d eb 39 6f 3f c2 af fd 3e
       -0.70411915 0.060448777 0.9344775 0.49548155
0000a0 b6 78 fd 3e f0 c3 94 3e 64 b7 71 3e 22 99 9c bd
       0.49506158 0.29055738 0.23605114 -0.07646395
0000b0 97 0c 1f bf dd fb 91 be 57 d8 b5 3e 41 82 b9 3e
       -0.62128586 -0.2851247 0.35516617 0.36232188
0000c0 85 56 ad be c3 c8 d7 3d dc e4 42 be af dd 20 3f
       -0.33855072 0.10536339 -0.19032615 0.6283826
0000d0 f5 48 67 be c2 fa 0e bf 68 44 86 be 2f 29 6e 3e
       -0.22586425 -0.55851376 -0.26224065 0.23257898
0000e0 1d 4c 34 3e 71 7a 28 be e0 d0 66 bf db 9a 72 be
       0.1760716 -0.16452958 -0.9016247 -0.23691885
0000f0 a3 c1 b4 3e 9e 92 7f bf 0e 79 1e be 5e 16 03 3e
       0.35303983 -0.99833095 -0.15475866 0.12801501

encoder_variable_selection.flattened_grn.fc2.bias f4 [8]
000000 9f 11 1b 3e f1 66 c0 bd 04 13 29 3e 65 b5 c4 be
       0.1514344 -0.093946345 0.1651116 -0.38419643
000010 4a 10 63 be 8e 1f 42 be 41 8c 4a be 25 d8 f7 3c
       -0.22174183 -0.1895735 -0.19780065 0.030254433

encoder_variable_selection.flattened_grn.gate_norm.glu.fc.weight f4 [16, 8]
000000 e2 8c a0 3d f3 e0 8a be d7 7a 5c be e1 7c 1c bf
       0.07839371 -0.27124748 -0.21531235 -0.6112805
000010 ef a9 c2 3d 38 93 9a bc 54 5d bf 3d 81 e1 19 3d
       0.095050685 -0.018869027 0.09343973 0.037568573
000020 b6 5c 99 be 58 e9 17 bd a2 b5 b1 be 78 a7 9e 3c
       -0.29953545 -0.03708777 -0.34708887 0.019366965
000030 ff 98 f1 3d 00 d2 5f 3e bb 0d 67 3e 5c 94 37 3f
       0.1179676 0.21857452 0.22563832 0.71710753
000040 5a 9c 07 be a5 68 d2 3e 7b fb c7 3e c8 af 53 be
       -0.13243237 0.41095462 0.39059052 -0.20672524
000050 32 9b 69 3e 91 16 94 3e 84 c5 36 3f 96 d3 01 3e
       0.22813109 0.28923467 0.71395135 0.1267837
000060 52 ab 59 be 84 09 26 bf ab 24 be be 53 07 1a bc
       -0.2125676 -0.6485827 -0.3713735 -0.00940116
000070 e8 ec af 3e b0 3c d4 be 85 81 44 bd a3 bf b4 3e
       0.34360433 -0.4145255 -0.047975082 0.35302457
000080 90 56 75 be 0e 15 5a be e8 fa ba 3d 64 b7 8b 3e
       -0.23958802 -0.21297094 0.09129888 0.27288353
000090 89 6c 0d 3f 76 41 e2 be fd ec 11 bf 9d d8 a7 3e
       0.55243737 -0.44190568 -0.5700224 0.3278245
0000a0 bb 8e 6c bc 4c e9 91 3e d8 86 21 3f d6 0b 21 3f
       -0.0144383265 0.28498304 0.6309638 0.62908685
0000b0 2b 13 54 be cd 39 a4 3d e3 95 2e 3f 1e db 8e 3e
       -0.20710437 0.08018837 0.6819746 0.27901548
0000c0 1a f7 08 be 13 60 8a be fb 64 13 bf 86 aa b0 3e
       -0.13375512 -0.27026424 -0.5757596 0.345051
0000d0 32 18 18 bd a4 6f 1c 3d 93 12 a9 3e ec 01 75 be
       -0.03713245 0.038192406 0.33021984 -0.23926514
0000e0 d8 2b 50 be aa 11 b8 3e be ae f1 be 5d d9 08 bf
       -0.20329225 0.35950977 -0.4720363 -0.5345667
0000f0 21 28 4e be 31 06 01 bf c1 c3 35 bf 5c 49 61 bc
       -0.20132495 -0.5040007 -0.7100182 -0.0137504
000100 72 c9 ca 3e 79 58 a2 be 01 d4 51 3e b3 be ea 3e
       0.39606816 -0.31708124 0.2049103 0.45848617
000110 d2 ee e6 3e 5c 49 8a 3e 61 59 99 bd 40 36 1a 3e
       0.4510408 0.27009094 -0.07487751 0.15059757
000120 57 32 81 3e d8 50 31 3e 48 df 01 bf 8b 8a e0 bd
       0.2523372 0.17315996 -0.50731325 -0.10963925
000130 1d 56 1b 3f 6f 38 0c 3e b4 16 4b 3e 00 e7 88 3b
       0.60678273 0.13693403 0.1983288 0.004177928
000140 85 d3 07 3f 31 8d 35 3e 33 66 96 3e db e6 b8 3e
       0.5305713 0.17729641 0.29374847 0.3611363
000150 7e cc c4 3e 62 ed 30 3f c9 19 79 3d c1 40 80 bd
       0.38437265 0.6911222 0.060815606 -0.06262351
000160 02 ce 8f bd 6d 8f 67 be df a6 9d 3e 6b 53 bb 3e
       -0.07021715 -0.22613306 0.30791375 0.3658708
000170 dc 2f 7c 3e ea ae af 3e 2b 38 f8 3e 71 e6 18 bd
       0.24627632 0.34313136 0.48480353 -0.03732914
000180 cb 98 05 bf 9a 1f 33 3f 0d 7f be 3d 95 51 ae be
       -0.5218627 0.69970095 0.09301577 -0.34046617
000190 cc e0 b5 be 53 2c a8 be 72 bd 93 bc 99 61 d2 be
       -0.3552307 -0.32846317 -0.01803467 -0.41090086
0001a0 b3 27 a5 be b3 94 67 be 02 45 5d 3e af b9 1f bf
       -0.3225685 -0.22615318 0.21608356 -0.62392706
0001b0 5c 11 de 3c a8 31 cf be d9 0e 87 be 16 7f 34 bd
       0.027107887 -0.40467572 -0.26378515 -0.04406651
0001c0 e1 b5 64 be 50 3f 78 be d4 b0 98 3e c1 c6 64 be
       -0.22335006 -0.24242902 0.2982241 -0.22341444
0001d0 34 df 23 bf ea 1d 0b bf d4 9a 5c 3c 15 84 65 3e
       -0.64012456 -0.5434252 0.013464648 0.22413667
0001e0 37 e4 91 3e 01 3d 9f 3e 60 cc a0 3e 83 05 25 bf
       0.28494427 0.3110123 0.31405926 -0.64461535
0001f0 65 eb d8 be a2 13 6b be 16 35 ae bb b0 0f 52 bd
       -0.42367092 -0.22956708 -0.005316387 -0.051284492

encoder_variable_selection.flattened_grn.gate_norm.glu.fc.bias f4 [16]
000000 a3 6a 31 3e 68 d9 12 be 1a f3 99 3d c2 f8 55 be
       0.17325835 -0.14340746 0.07517071 -0.20895675
000010 80 9a 24 be df b0 36 3d c2 50 1a be 10 ab 00 3e
       -0.16074562 0.04460227 -0.15069869 0.12565255
000020 9e 64 3f be 11 29 52 be e6 c1 a6 bb 11 b4 01 bd
       -0.18690726 -0.20523478 -0.0050890325 -0.031665865
000030 b0 b8 84 3e 16 f7 26 3e 76 d4 3a be 7a 34 a0 3e
       0.25922155 0.16305193 -0.1824511 0.31290036

encoder_variable_selection.flattened_grn.gate_norm.add_norm.norm.weight f4 [8]
000000 30 8b a5 3f b0 6a 5e 3f e7 13 90 3f 15 0e 94 3f
       1.2933102 0.8688154 1.1256074 1.1566797
000010 6d f0 92 3f 3d 6f 94 3f b4 de a1 3f cd 17 b1 3f
       1.1479622 1.1596447 1.2646089 1.3835388

encoder_variable_selection.flattened_grn.gate_norm.add_norm.norm.bias f4 [8]
000000 36 c5 be bc 68 7f 38 be 89 b2 c5 bd 21 c3 7c be
       -0.023287397 -0.18017352 -0.096531935 -0.24683811
000010 a0 15 8e be 99 5c f3 3d 8c 49 6e be ad 03 c3 3e
       -0.27750874 0.11882896 -0.23270243 0.38088742

encoder_variable_selection.single_variable_grns.time_idx.resample_norm.mask f4 [16]
000000 b3 db a2 3e 68 37 af 3d 3d d3 8e bd 94 fc 36 be
       0.31808242 0.0855549 -0.06973884 -0.17869788
000010 45 d5 45 3e 16 8a c6 bd cb 1b a0 bd 79 8b 4b bd
       0.19319637 -0.096943066 -0.07817801 -0.04969356
000020 24 2b 2f bd 88 e9 f1 3d 1b 90 84 be 65 1e c6 bd
       -0.04276575 0.11812121 -0.25891194 -0.09673766
000030 31 83 be 3d 3c f6 26 be 1f c6 26 3d 16 88 ad 3e
       0.093023665 -0.16304868 0.040716287 0.33892888

encoder_variable_selection.single_variable_grns.time_idx.resample_norm.norm.weight f4 [16]
000000 5d dc a6 3f d8 1f 7f 3f 4b fe 67 3f f4 87 5e 3f
       1.3036 0.99657965 0.90622395 0.869262
000010 53 b8 98 3f 49 59 68 3f d8 36 6a 3f a1 80 76 3f
       1.1931251 0.9076124 0.91489935 0.9629002
000020 30 18 83 3f 5f ae 8f 3f f0 ec 45 3f cb 7a 83 3f
       1.0241756 1.1225089 0.7731466 1.0271848
000030 6c ba 8f 3f f1 41 59 3f f0 cf 85 3f 0c a0 ad 3f
       1.1228766 0.84866244 1.0454082 1.3564467

encoder_variable_selection.single_variable_grns.time_idx.resample_norm.norm.bias f4 [16]
000000 39 da 0c be 6a 8a 1b bd b3 ae 71 bd 0e de 2b be
       -0.1375512 -0.0379738 -0.059004497 -0.16783926
000010 9a 77 27 3e bf 18 a3 bb b4 b3 39 3e b1 ec 2c 3e
       0.16354218 -0.004977315 0.18134958 0.16887166
000020 d0 df a2 37 6a 99 d0 bd 61 45 23 3d 5a 52 57 3e
       1.9416126e-05 -0.101855114 0.039861087 0.21027508
000030 ce aa fb ba b6 c1 8d be 4e b4 e8 3c 38 2f d6 3d
       -0.0019200684 -0.27686852 0.028406288 0.10458225

encoder_variable_selection.single_variable_grns.time_idx.fc1.weight f4 [8, 8]
000000 b3 41 ad be 89 0a 96 3d a9 a9 cd bd f0 60 cd be
       -0.33839187 0.07326228 -0.10042126 -0.4011302
000010 7f 4f 25 3f de 4c 7d bf d8 0d 19 3f 74 a5 1a 3f
       0.64574426 -0.98945415 0.5978675 0.6040871
000020 54 bb 1e bf d2 3b 9b 3d 1e 03 1b bf 8c b7 f4 be
       -0.6200459 0.07579769 -0.6055163 -0.47796285
000030 02 73 43 bd 1b e4 c0 be ce 6e 6e 3f 17 21 7c be
       -0.047717102 -0.3767403 0.93137825 -0.24621998
000040 2b 02 01 3f ba 4a 49 be 30 70 0a 3f 92 e4 09 3f
       0.50393933 -0.19657412 0.54077435 0.53864396
000050 c0 28 9e be b7 7c 1f 3f c1 fb 85 bf 8b 7f b1 3d
       -0.30890465 0.62299675 -1.0467454 0.08666905
000060 33 66 83 bf 13 ba 0d bf 80 ba 22 3f e4 31 a7 3f
       -1.0265564 -0.5536205 0.63565826 1.30621
000070 3c 1d 8a be c1 fa 8d 3f 85 ba 0e 3f da fa 8f bf
       -0.2697543 1.1092149 0.55753356 -1.1248429
000080 b5 6b 12 bf a1 7e 8e bd c1 04 db bd 50 e8 d0 be
       -0.571956 -0.06957746 -0.10694266 -0.4080224
000090 23 06 97 3e 48 66 2c 3f 63 d7 bf 3e bf 5e d5 be
       0.2949687 0.6734357 0.37469015 -0.41673848
0000a0 14 79 c6 be b9 6a dc 3e 70 c1 6b bd 17 3a 1f 3f
       -0.3876425 0.43050173 -0.057557523 0.62198013
0000b0 ea 87 37 3f ae f2 e9 3e f5 a6 b3 bd 15 a7 50 3f
       0.71691763 0.45692962 -0.08772079 0.81504947
0000c0 38 7f 9f be 2f 68 26 bf f3 e7 2d 3c 43 50 2a 3f
       -0.31151748 -0.6500272 0.010614383 0.6652872
0000d0 96 35 66 be 0a 42 b5 be 26 d0 19 bf df f7 fe 3d
       -0.22481379 -0.35401946 -0.60083234 0.124496214
0000e0 a2 28 6a bf 10 a3 fe be 07 14 1d bf 6f d7 1a bf
       -0.9146825 -0.49733782 -0.61358684 -0.60484976
0000f0 77 45 88 bf 5c 5c 5c 3f ad 6b 31 be 7e b4 4a bf
       -1.0646199 0.8607843 -0.17326231 -0.7918166

encoder_variable_selection.single_variable_grns.time_idx.fc1.bias f4 [8]
000000 eb 46 5b bd b0 0c 39 be 6f ed 3c 3d 33 d8 83 3e
       -0.05353443 -0.18071246 0.04612487 0.25750884
000010 3e 45 ec bd 86 f5 ef bc 7a 02 c0 3e ca f4 a6 3e
       -0.115366444 -0.02929188 0.3750189 0.32608634

encoder_variable_selection.single_variable_grns.time_idx.fc2.weight f4 [8, 8]
000000 b1 f8 65 3e d1 4d be 3d bc cb 8b 3d b5 e6 27 bf
       0.2245815 0.09292186 0.068259686 -0.65586406
000010 3e df 8a 3e bc 77 00 bd 56 fe 8f bf 2c 34 69 be
       0.27123445 -0.031364188 -1.1249492 -0.22773808
000020 7d 99 8c be 2a 36 b6 3d 38 87 88 be 84 7b 92 bf
       -0.27460852 0.0889705 -0.26665664 -1.1443944
000030 d5 8c bb be 0a eb d2 3e e0 e8 25 3e 1d 71 b1 be
       -0.36630884 0.41194946 0.16202116 -0.3465661
000040 56 9a ca 3e 20 15 e9 3e 7f 40 2d bf e4 4f 76 3e
       0.39570874 0.4552393 -0.6767654 0.24053913
000050 37 ef 98 bd 0b da 1a 3f ea 76 47 3d 38 18 d9 3e
       -0.074675016 0.6048896 0.04869739 0.4240129
000060 69 c0 a1 3e 94 63 09 bf 72 68 47 bd 91 93 3b 3e
       0.3159211 -0.5366757 -0.04868359 0.18318011
000070 0e 84 fb be 55 34 1f 3e 2e 71 0d bf 93 48 be 3e
       -0.49124187 0.15547307 -0.55250823 0.37164745
000080 c5 7f 93 bf 97 28 81 bf bc c7 fd 3d b8 e8 f0 be
       -1.1523367 -1.0090512 0.12391612 -0.4705255
000090 e7 4c c6 bd 84 63 c7 3e b3 47 3c 3f 33 b5 e7 3e
       -0.09682637 0.38943112 0.73546904 0.45255432
0000a0 f6 d0 25 3e 29 21 49 3f 26 18 37 3f 21 2b 60 3f
       0.16192994 0.78566223 0.7152122 0.8756581
0000b0 a2 df 65 be 72 0d 8f bd f6 08 02 3f 67 0b 3f 3f
       -0.2244859 -0.06984986 0.50794923 0.74626774
0000c0 78 81 12 bf 5b 44 2f bf b4 da 35 bc 61 e2 fd bd
       -0.57228804 -0.6846368 -0.011099506 -0.12396694
0000d0 b4 09 09 3d b6 1f 59 be e1 d6 8a 3e 81 f1 b7 3e
       0.03345652 -0.21203503 0.27117065 0.3592644
0000e0 90 cf 68 bf bf c1 53 bf 70 1b f8 3d 83 c4 0d 3d
       -0.90941715 -0.8271751 0.12114608 0.034611236
0000f0 7a 7f 1c 3f f8 13 49 3f 17 8e 0e bf 70 cd fb be
       0.61132014 0.78546095 -0.5568556 -0.49180174

encoder_variable_selection.single_variable_grns.time_idx.fc2.bias f4 [8]
000000 ec 47 04 be de 41 4e bd ff 9c 1d be 84 b7 84 3d
       -0.12918061 -0.050355785 -0.1539192 0.06480315
000010 37 51 fa 3d 82 be 3c 3c f1 6d 41 bc e6 b3 55 3d
       0.12222522 0.01152003 -0.011805997 0.052173518

encoder_variable_selection.single_variable_grns.time_idx.gate_norm.glu.fc.weight f4 [32, 8]
000000 8a 8f a6 bd e5 af bd be 20 dc 07 3e 54 ed 87 bc
       -0.08132847 -0.3704826 0.13267565 -0.016592659
000010 98 c9 4a be 79 70 0b 3e 9f 0d d1 3d 69 b0 9d 3d
       -0.19803464 0.13617124 0.10207676 0.07699663
000020 23 bf 1e bd 19 21 48 3e cd 7d af 3e 58 c2 0d be
       -0.0387565 0.19543876 0.34275666 -0.13843668
000030 18 c1 39 3d 6c 0c 1c 3e 5f 81 43 be 0c 20 27 be
       0.045350164 0.15239114 -0.1909232 -0.16320819
000040 89 8a c6 bd b4 79 12 bf 46 e7 49 be f5 df 28 3d
       -0.09694392 -0.57216954 -0.1971713 0.041229207
000050 aa 95 54 3e 3d 25 ff 3e 80 b7 ce bc fe 28 78 3e
       0.20760217 0.49833098 -0.025233984 0.24234387
000060 e0 6d d3 be 2d 35 81 3e e9 f8 f9 be a1 d6 03 bf
       -0.41294765 0.25235882 -0.48822716 -0.5149937
000070 87 9c 2e 3f 1e 81 90 bd 61 a8 c3 3e bb 9a 06 3f
       0.6820759 -0.07055877 0.382144 0.5257985
000080 b4 64 0b 3f 31 22 e2 3c 6a e7 c2 be 78 54 08 be
       0.54450536 0.027604194 -0.3806718 -0.13313472
000090 1d 77 b6 3e c9 99 fe bc cc b7 84 3d 0b c5 03 3e
       0.3563775 -0.03107919 0.06480369 0.12868135
0000a0 ed 68 4c be 5a 61 d0 3c 8c 88 2e be c2 8b ed bd
       -0.19961901 0.025437046 -0.17044276 -0.11598922
0000b0 9a 45 61 3e 70 5a df bd e6 84 63 be 8a b6 a1 be
       0.21999207 -0.109059215 -0.22218665 -0.3158458
0000c0 e1 72 26 be 53 da b8 be 61 d5 ef 3e 69 83 30 3e
       -0.1625476 -0.36104068 0.46842483 0.17237629
0000d0 6d ff 32 be 0e c3 84 3e e3 4b 30 bc 02 40 9d be
       -0.1748025 0.25930065 -0.01076028 -0.30712897
0000e0 a6 07 b6 3e f0 92 81 3e e1 1a d4 bd bd 18 8e 3e
       0.3555271 0.25307417 -0.10356689 0.2775325
0000f0 56 d6 89 be 5c 9d 29 be 8a 4e 9e 3e cb 27 82 3e
       -0.26921338 -0.16563934 0.30919296 0.25420985
000100 58 1c 0c bf 97 fe 04 3e 3d 53 f7 3d 98 98 f8 3e
       -0.5473075 0.12987743 0.12076423 0.4855392
000110 be c3 18 3e 9a a6 58 3e 35 5f 62 3b 94 c5 2c 3e
       0.1491842 0.21157303 0.003454161 0.16872245
000120 1a db d5 bd 81 e3 e0 be f8 53 87 bd 6e de 5a 3d
       -0.10442181 -0.43923572 -0.06607813 0.05343478
000130 de ed 8f be b7 c7 13 3f e8 29 d1 be 4f 81 09 3e
       -0.28111166 0.57726616 -0.40852284 0.13428234
000140 22 d6 c3 3d 3b e9 2e 3e 36 f8 a2 bd 98 1b c1 3d
       0.09562327 0.17081158 -0.07957499 0.09429091
000150 74 2c 1c bf 5e 29 0b be da d5 0e be 2f 07 2e be
       -0.6100533 -0.13589999 -0.13948765 -0.16994928
000160 e1 84 85 be 8b 20 5d 3e 8f d2 b2 be 3c 19 94 be
       -0.2607794 0.21594445 -0.34926268 -0.28925502
000170 dd 93 f8 3e 63 65 b6 3d 32 70 8b bd 4c 86 7c 3e
       0.4855031 0.08906057 -0.06808509 0.24660605
000180 c4 23 55 3e e5 48 99 bd 46 b2 9f bd 96 57 2d be
       0.20814425 -0.07484607 -0.07797675 -0.16927943
000190 4a 79 1c 3e 4e 69 dc 3e 70 8d 82 be 96 17 6b 3d
       0.15280643 0.4304909 -0.25498533 0.05739554
0001a0 ba e5 bc 3c b4 12 96 3e 1e 14 d6 be 66 4d f4 be
       0.02305876 0.29311144 -0.41812223 -0.477153
0001b0 f6 9b aa 3e 0e de 4f 3d ad cc 18 3f e9 fb f9 3e
       0.33322114 0.050748877 0.5968731 0.48825005
0001c0 14 76 5b 3e 66 1e 80 be 19 2c cd 3d 8d df c7 bd
       0.21431762 -0.25023192 0.100181766 -0.09759436
0001d0 17 e9 bf 3d d5 20 85 3d e0 9f 0b be c7 cb 4f be
       0.0937063 0.06500403 -0.13635206 -0.20292579
0001e0 14 c6 1a 3f 76 3b 14 3f 74 02 e9 3e 20 0b 4f 3d
       0.60458493 0.5790323 0.45509684 0.05054772
0001f0 91 b0 00 bf ca 27 53 bf 37 2b af be 4a ab 3a be
       -0.5026942 -0.8248259 -0.34212658 -0.18229404
000200 58 1f 24 bf 44 af e0 bd 00 6a 88 3d 96 9b c2 be
       -0.64110327 -0.10970929 0.06660843 -0.38009328
000210 b7 ea de 3e 68 b9 87 bd 11 b6 8e 3e e7 2f 5e be
       0.43538448 -0.0662716 0.2787328 -0.21697961
000220 0c d0 e1 3d 80 e3 80 3c 72 5c 82 3e 8c 37 05 be
       0.1102601 0.01573348 0.25461155 -0.1300947
000230 cc af c1 3e b2 c5 00 bf c2 25 9d 3e 04 1a 1f 3f
       0.37829435 -0.5030166 0.3069287 0.6214907
000240 17 18 38 be 0b 15 37 be 4c d9 12 3e 6c f4 2c bd
       -0.1797794 -0.17879121 0.14340705 -0.042225286
000250 06 df e9 3e 45 c9 2d 3d 11 4d 03 3f 63 0d 19 bd
       0.45677966 0.042428274 0.5128947 -0.037366282
000260 33 99 b0 bc 86 7e d1 3e 7e 70 e7 be 87 6a b6 bd
       -0.021557426 0.40916842 -0.45203012 -0.08907037
000270 45 cd c5 bd ec 69 96 3e 90 31 51 bd 5d 90 8b be
       -0.09658293 0.29377687 -0.051072657 -0.27258578
000280 11 36 9f 3e 0c c5 0a 3f 0e e2 22 be c5 bc 6e be
       0.31095937 0.5420692 -0.15906546 -0.23314197
000290 a3 5b a4 be e9 d8 03 bf cd a7 89 be c3 25 6e 3e
       -0.32101163 -0.51502854 -0.26885834 0.23256592
0002a0 7a 3b 81 be 86 4f 39 be 15 7b ae 3c 98 6a 8a be
       -0.2524069 -0.18096742 0.021298924 -0.2703445
0002b0 28 4f 36 3d 3a ae 06 3f 2a 4e 2b be ff 33 fc bc
       0.044509083 0.526096 -0.16729036 -0.030786512
0002c0 5f 99 86 be 24 d6 27 3e 95 b0 c1 be 2a 92 81 3d
       -0.26288888 0.16390282 -0.37830034 0.06326707
0002d0 90 78 be 3e 6b 4e a8 bd 1b a5 15 be 96 e3 b2 3e
       0.37201357 -0.08218082 -0.14613764 0.3493926
0002e0 39 2e c0 be ae 71 80 3d 8f de c1 3e a5 f3 d4 be
       -0.37535265 0.06271683 0.3786511 -0.41592136
0002f0 db 63 b8 be 94 00 06 be f7 ee 95 3e 16 1d 98 bc
       -0.36013684 -0.13086158 0.29283878 -0.018568557
000300 3f aa f9 3e e2 23 ea bc f3 c3 64 3c ad a4 d9 bd
       0.487627 -0.028581563 0.013962734 -0.106271125
000310 f4 09 16 3d ac 85 36 be 1c cc 31 3e c0 4d 63 3c
       0.036630586 -0.1782443 0.17363018 0.0138735175
000320 cc d8 12 3f d7 5d 43 3e 21 e6 95 3e ff a5 3f be
       0.57362056 0.19078766 0.29277137 -0.18715666
000330 df 54 c4 be f7 0b 2f be 5b 4b 29 3e 04 08 3e be
       -0.38346002 -0.17094408 0.16532652 -0.18557745
000340 d5 70 f5 3c 9f e6 25 bf 3b bf a9 bd b7 bd 9c 3e
       0.029961029 -0.64805025 -0.082884274 0.3061349
000350 6c b9 44 be 8d 6c 83 3e 47 60 65 be 19 3b a9 be
       -0.19211358 0.25668755 -0.22400008 -0.330529
000360 50 c4 db 3d 2b 55 9a 3d ea 98 0d be 28 7f 65 3e
       0.10730803 0.07535776 -0.13827863 0.22411788
000370 15 d6 b2 be 69 73 b4 be 4e a3 83 be a3 b5 b3 be
       -0.34928957 -0.352443 -0.2571053 -0.35099515
000380 b6 58 c5 be 11 5b 8e 3e af 86 fc 3d 48 12 9b be
       -0.38544244 0.27803853 0.12330376 -0.30287385
000390 19 91 ae be 12 19 ea bd d7 1b 3a be aa be f1 3d
       -0.34095076 -0.11430563 -0.18174683 0.118039444
0003a0 2c 91 d3 3e 51 17 4a 3e a4 72 ad 3e e9 4c b0 3a
       0.41321695 0.19735457 0.33876526 0.0013450655
0003b0 2f 8c d0 be e3 03 4c be 2f ef ee be b6 71 e6 bd
       -0.40731952 -0.19923358 -0.46666858 -0.112521574
0003c0 2b bb c9 bd 33 68 6c be f0 31 04 3f 76 4a 45 3e
       -0.098501526 -0.23086624 0.516387 0.19266686
0003d0 f8 57 1e 3e a0 1e 24 3f 55 7b b9 3d 53 7c b2 3d
       0.15463245 0.6410923 0.09056727 0.08715119
0003e0 dc 43 aa be 6c a9 e4 3b 7f 2c 89 be 58 cb dd 3e
       -0.33254898 0.0069782045 -0.2679176 0.433192
0003f0 ab 52 65 3e d1 38 16 3f 54 df 1b be 3c 2e 4b 3e
       0.22394817 0.58680445 -0.15221912 0.19841856

encoder_variable_selection.single_variable_grns.time_idx.gate_norm.glu.fc.bias f4 [32]
000000 3a 96 36 be ad 0f 2b be 1c f8 cf bd 99 0d 06 3e
       -0.17830744 -0.16705199 -0.10154745 0.13091125
000010 e8 64 5e 3e b9 a4 99 bb 97 7f f5 3d 1f 59 18 3e
       0.2171818 -0.004688826 0.119872265 0.14877747
000020 09 f2 2a 3d 36 dc 56 bd 73 1f 43 3e 06 ec 4a 3e
       0.04173473 -0.052456103 0.19054966 0.19816598
000030 00 e8 22 bd 1d 0a 8f be e9 0b 9e 3c 51 55 49 bd
       -0.039772034 -0.27937403 0.019292789 -0.04915363
000040 79 af 50 be c5 7b 0f be 80 9a 2a bc 30 11 ba 3e
       -0.20379438 -0.14012058 -0.010412812 0.36341238
000050 7d 68 e5 bc ee 9f 34 be 9b 75 a2 bd 8f 39 50 be
       -0.028003925 -0.17639133 -0.07932588 -0.20334457
000060 c7 1a d4 3d d7 16 1b be 1d b9 2e be 04 fc 7d 3e
       0.1035667 -0.15145431 -0.17062803 0.24803168
000070 0d 6a 53 bd e4 66 66 3e 10 7b 24 be ba 9f 98 3e
       -0.05161481 0.22500187 -0.1606257 0.29809362

encoder_variable_selection.single_variable_grns.time_idx.gate_norm.add_norm.norm.weight f4 [16]
000000 5e 87 94 3f 07 e2 80 3f 2f d9 53 3f a3 f4 87 3f
       1.1603811 1.0068978 0.8275327 1.0621532
000010 8f d7 91 3f 33 37 64 3f 10 52 74 3f 99 a3 4f 3f
       1.1393908 0.8914673 0.9543772 0.81109005
000020 25 a5 94 3f 6a 87 8a 3f 0a 0f 3b 3f 7f 32 a2 3f
       1.1612898 1.0822575 0.7306982 1.267166
000030 06 e5 8c 3f ec d7 87 3f 18 da 5f 3f d2 43 a7 3f
       1.1007392 1.0612769 0.8744216 1.3067572

encoder_variable_selection.single_variable_grns.time_idx.gate_norm.add_norm.norm.bias f4 [16]
000000 1d 28 68 bd 52 29 9a 3d c4 12 a1 bb 1a 13 67 be
       -0.05667888 0.075274125 -0.004915567 -0.2256588
000010 b3 5c 56 3e b8 fd 81 bd 71 62 38 3e fe 28 24 bc
       0.209338 -0.06347221 0.18006302 -0.010019539
000020 00 ee 1e be ae 96 2a be 45 da 97 3d 32 94 20 3d
       -0.15520477 -0.16659042 0.074146785 0.03920383
000030 0f dc 2f bd e7 1f 82 be 22 41 0b 3e 2c 68 74 3e
       -0.042934474 -0.25414965 0.13599065 0.23867863

encoder_variable_selection.single_variable_grns.T2M.resample_norm.mask f4 [16]
000000 63 f2 34 be 4d 3d 37 be 1e 0f 31 be 4d 81 6d be
       -0.17670588 -0.17894478 -0.17290923 -0.23193856
000010 4a bb 3a 3e fb f5 39 3e d1 79 57 be 45 3b 28 3e
       0.18235508 0.1816024 -0.21042563 0.1642886
000020 13 62 30 3e fc a6 3f 3e c0 70 2e 3e 5b cb 2f be
       0.17224912 0.18716043 0.17035198 -0.17167418
000030 2d 44 64 be 6f 7a 33 be bf c0 2a be 30 38 42 3e
       -0.22291632 -0.17527173 -0.1667509 0.18966746

encoder_variable_selection.single_variable_grns.T2M.resample_norm.norm.weight f4 [16]
000000 52 c6 53 3f c5 86 54 3f 0b 8d 51 3f 2e e3 89 3f
       0.8272449 0.8301814 0.8185584 1.0772455
000010 a4 7a 97 3f e6 f0 9a 3f bf df 58 3f 89 57 96 3f
       1.1834302 1.2104766 0.8471641 1.1745464
000020 65 7d 96 3f a8 a1 98 3f 30 38 96 3f 19 69 54 3f
       1.1757017 1.1924334 1.1735897 0.82972866
000030 87 b2 90 3f 7a 75 53 3f 34 fe 52 3f b5 c1 99 3f
       1.1304482 0.8260113 0.82419133 1.201224

encoder_variable_selection.single_variable_grns.T2M.resample_norm.norm.bias f4 [16]
000000 1a 74 30 be 17 e3 20 be e9 fd 60 be 48 e0 11 bd
       -0.17231789 -0.15711628 -0.21971859 -0.035614282
000010 be a5 3a 3e 9f 12 2b be c5 f7 fb bd 1e bc 26 be
       0.18227288 -0.16706322 -0.12303118 -0.16282699
000020 94 64 36 be 98 8a 39 be 3e 19 32 be 6a 5a 30 3e
       -0.17811805 -0.18119276 -0.17392442 0.1722199
000030 89 16 bc bd 1e 2a 2b 3e 83 1b 27 3e 39 f1 3f 3e
       -0.09183986 0.16715285 0.16319089 0.18744363

encoder_variable_selection.single_variable_grns.T2M.fc1.weight f4 [8, 8]
000000 2a bb 6d be 4c 0e 7d bc 78 da e1 be 14 ab 41 3f
       -0.23215929 -0.015445303 -0.4411199 0.7565167
000010 8a c6 f5 bd 30 8e 4c bf 69 a1 8c bf 8a e2 ce be
       -0.12000759 -0.7990446 -1.0986758 -0.4040721
000020 d3 09 9e 3d ad 50 ae be 25 a2 6c bf 37 65 83 bf
       0.077167176 -0.34045926 -0.9243491 -1.0265263
000030 de d1 de bd e3 15 ef 3e ae 08 ba 3e ef 4d 1d be
       -0.10879873 0.46696386 0.36334747 -0.1536176
000040 18 4d 7c 3f de ff 1a bf b0 bf a4 bd 98 39 5b 3e
       0.98555136 -0.6054667 -0.08044374 0.21408689
000050 eb 0c 08 bf 21 12 d7 3c a0 0a 09 3f 76 df 4e bf
       -0.5314471 0.026253762 0.5353184 -0.80809724
000060 1d 9c c7 3e 82 69 92 be ef 65 8f be 4b 63 b0 3e
       0.38986292 -0.2859612 -0.28007457 0.34450755
000070 1d 91 57 3e f8 fc bb be 99 f5 83 3c 90 8f e8 3e
       0.2105145 -0.36716437 0.016108321 0.4542203
000080 08 70 a1 bf 00 59 77 3f eb a9 9c bd d3 10 3f bf
       -1.2612314 0.9662018 -0.07649597 -0.74635047
000090 49 8c 0a bf c7 21 b4 3e 11 49 9f 3b e0 72 29 be
       -0.5412031 0.3518202 0.004861005 -0.16547728
0000a0 47 fd 2a bf a6 7a b4 3c d5 f2 8d 3e 25 c1 a0 be
       -0.6679272 0.02203114 0.2772433 -0.31397358
0000b0 b1 de 01 3f b6 89 1f bf c0 84 4a 3f d7 ec bb 3e
       0.50730425 -0.62319505 0.7910881 0.36704132
0000c0 c1 4b 84 be 33 53 f8 bc a8 2f ab 3e 19 3a 12 3f
       -0.25839046 -0.03031311 0.33434796 0.571199
0000d0 a7 a7 09 3f 92 f1 2d 3f c5 f1 da 3e 97 37 48 bc
       0.5377144 0.6794673 0.4276258 -0.012220285
0000e0 2c a5 a2 be 0e 01 c1 3f 95 0c 94 3f 6a 01 f9 be
       -0.3176664 1.5078447 1.156634 -0.4863389
0000f0 69 2a cc 3d a4 3e 17 bf be ed 2e 3e d5 bf 96 3e
       0.099690266 -0.59079957 0.17082879 0.2944323

encoder_variable_selection.single_variable_grns.T2M.fc1.bias f4 [8]
000000 b8 42 44 be 14 41 24 3e 19 87 6c be 79 59 47 3e
       -0.19166076 0.1604045 -0.2309841 0.19467725
000010 a3 02 0f 3e 19 5f 4c 3e 25 24 cb be a9 ab 10 3e
       0.1396585 0.19958152 -0.39676014 0.14127983

encoder_variable_selection.single_variable_grns.T2M.fc2.weight f4 [8, 8]
000000 e3 fe b2 3e 23 c6 aa be 7f 01 5d 3f a9 4c 3b bf
       0.34960088 -0.3335429 0.8633041 -0.7316385
000010 31 b2 ad 3e 5b 86 85 3e b6 f5 12 3f 51 a4 79 be
       0.33925012 0.26079068 0.57406175 -0.24379088
000020 d8 40 1b bf fa b9 4a be c3 4c 92 3f 19 20 59 3d
       -0.6064582 -0.19797507 1.1429676 0.053009126
000030 7d cb 1e bf 05 db 20 bf 2d 4c c5 be 7b 2c 27 bf
       -0.6202925 -0.628342 -0.3853468 -0.65302247
000040 94 c6 9f bd 47 06 0b bf 69 29 82 3e 59 34 1b 3e
       -0.07801548 -0.54306453 0.25422218 0.15156688
000050 9b f3 5f be 16 60 be 3f 71 38 bb 3e 56 9f fa be
       -0.21870272 1.4873073 0.365665 -0.4894969
000060 43 4c 1e 3f 0b c2 16 3e f4 36 02 3f cf 4e ce 3e
       0.61835116 0.14722459 0.508651 0.402945
000070 aa f3 5b 3d f2 fa 1f 3f 70 25 9e 3e 6b 4c dd 3e
       0.053699173 0.6249229 0.30887938 0.43222365
000080 c6 ab c2 3e 6e 93 fb 3e dc 94 cc 3e c5 29 b5 3d
       0.38021678 0.49135917 0.3995732 0.088458575
000090 c3 a7 74 3d d4 c5 b4 bf 3c b1 1c bd fe b2 a2 3e
       0.059730303 -1.4122872 -0.03825496 0.31777185
0000a0 3b 5e 18 bf a7 4d 3d 3f 4a 42 7b bd 41 00 53 3e
       -0.59518784 0.73946613 -0.061342515 0.20605566
0000b0 f5 9b e3 bd 70 2f 4f bf de 8f aa be c6 8a 3a 3f
       -0.11113731 -0.8093176 -0.33312887 0.72868
0000c0 13 34 a5 be 31 32 17 bf fb de 67 bf 63 8a de be
       -0.32266292 -0.5906096 -0.90574616 -0.43464956
0000d0 ab 0b 42 3f 33 b7 c9 bd c5 19 7d 3e dd b2 56 bf
       0.75799054 -0.098493956 0.24716862 -0.83866674
0000e0 f5 00 a1 3e 7f 2c 96 3f d2 b3 06 be 10 ff ac be
       0.31446043 1.1732329 -0.13154534 -0.33788347
0000f0 32 a4 be 3c 1d 85 02 bf b3 a7 15 3f 54 68 df 3e
       0.023271654 -0.50984365 0.58459014 0.43634284

encoder_variable_selection.single_variable_grns.T2M.fc2.bias f4 [8]
000000 e8 a7 fc 3d 0f 59 5c 3e 3e 4b 26 be 8d 69 43 be
       0.12336713 0.21518348 -0.1623964 -0.19083233
000010 1e 08 42 be a3 03 37 3e 88 2e 2a be 16 a8 83 3d
       -0.18948409 0.17872481 -0.16619313 0.06428544

encoder_variable_selection.single_variable_grns.T2M.gate_norm.glu.fc.weight f4 [32, 8]
000000 de e1 4f be a6 c7 e3 be 26 f3 19 3e 79 e7 b1 be
       -0.20301005 -0.44488257 0.1503416 -0.34746912
000010 92 b7 56 3e ab bb b8 bc d1 6b 1c be a4 1c 3d be
       0.20968464 -0.022550425 -0.15275504 -0.18467957
000020 ec 3a d8 bd 22 91 45 be 21 d1 21 3e 58 82 8f be
       -0.105581135 -0.19293645 0.15802433 -0.28029132
000030 ad 86 89 be 2d 19 8c 3e 4b 0c 20 be 08 c9 06 3f
       -0.26860562 0.27362958 -0.1562969 0.526505
000040 e1 4b 45 3e e5 95 2b 3d c6 1b fd 3e ea 8f e9 be
       0.19267227 0.041890997 0.49435252 -0.4561761
000050 01 92 d9 3e c7 03 f7 be f9 a2 10 3d 00 0f 01 3e
       0.42494205 -0.4824507 0.035311673 0.12603378
000060 4c 94 c4 3e d2 fd 85 bd 31 de 33 3e 54 32 30 3d
       0.38394392 -0.06542553 0.17565228 0.043016747
000070 a4 3a 17 bf 11 4f c3 bd 4a 69 1d 3e e5 ba 40 3e
       -0.59073853 -0.09536565 0.15372196 0.18821295
000080 e6 bc 86 3e 0e 45 f2 be 88 f7 92 be a1 8c d6 bd
       0.26315993 -0.4731831 -0.28704476 -0.104760416
000090 1a ab e0 bd 98 ec 10 bf 08 d7 d3 bd 90 87 46 be
       -0.10970135 -0.56611013 -0.10343748 -0.1938765
0000a0 1e 52 d8 bc 89 08 6f 3e 13 e5 b7 3e 44 ad 8d 3d
       -0.026406344 0.233431 0.35916957 0.069178134
0000b0 f5 14 81 bc 6b ea 56 3d 3f d7 7e 3e 59 c7 38 3e
       -0.015757063 0.052469652 0.24886797 0.18044795
0000c0 60 c8 f8 3c c4 82 6b 3e c4 0b 86 3d fc 8e 35 3e
       0.030368984 0.22999102 0.06545213 0.17730325
0000d0 01 c9 15 3c 36 9a b4 3d fb 1e 18 be 68 af 1a be
       0.009142161 0.08818476 -0.14855568 -0.15105975
0000e0 64 5e 5b be cc e7 e7 3e 1c c8 5d 3d b0 cf 0f bf
       -0.21422726 0.45294034 0.054145917 -0.5617628
0000f0 96 cf af be 17 6e 1d 3e ec 5a 01 3e 79 cb 8b be
       -0.34338063 0.15374027 0.1263234 -0.27303675
000100 88 25 b1 be 9a 74 b3 be b0 70 aa be 0b a9 82 bd
       -0.34598947 -0.35049897 -0.332891 -0.06379899
000110 02 cb 2a 3e 9d 81 94 3e 1c b6 5d 3c 9a 78 7b 3d
       0.16679004 0.29005137 0.013532188 0.06139431
000120 22 0c 08 be 79 91 05 3e 7b f0 42 be bc f2 7f bd
       -0.13285878 0.13043775 -0.19037049 -0.06248735
000130 03 d4 eb be 26 4a 7c 3d 37 88 fc 3e c5 b5 36 bd
       -0.4606019 0.06159415 0.49322674 -0.044606943
000140 0c 28 66 3d 92 3b fe be fa 96 8f bd fe 3f e1 3d
       0.056190535 -0.49654824 -0.07011218 0.10998534
000150 11 ab 89 bc 4b d5 21 be 31 b6 8a 3e 5a b1 82 3d
       -0.016805204 -0.15804021 0.27092126 0.063814834
000160 30 99 20 3d bb d2 64 be 29 75 d0 3e e9 92 b6 bd
       0.03920859 -0.22346012 0.40714386 -0.0891474
000170 af 99 0f 3e 1a 3b 81 be b4 d5 0a bf ce da 0b bf
       0.1402347 -0.25240403 -0.54232335 -0.54630744
000180 05 69 01 3e 47 d7 ed be 63 e9 d8 3d 4a c0 e5 bb
       0.12637718 -0.46453306 0.1059139 -0.007011448
000190 bb 42 3e 3e cd 8f 49 3e f2 78 d3 3b f8 37 b5 3e
       0.18580143 0.19683762 0.006453627 0.35394263
0001a0 16 35 02 3e be ee aa be 05 89 09 be 81 56 b7 3e
       0.12715563 -0.3338527 -0.13431175 0.35808185
0001b0 75 e6 80 3e 26 66 7b 3d 0a d8 b8 be 5c 93 48 be
       0.25175825 0.061376713 -0.36102325 -0.19587463
0001c0 52 10 21 3e 34 cb c9 3e b8 d4 b2 3d 86 54 b0 3e
       0.15728882 0.39412844 0.08731979 0.34439486
0001d0 a5 e7 ee 3e 76 4a 77 be 3a 3b 89 3e 8f fd ac 3d
       0.46661106 -0.24149498 0.26803 0.084468
0001e0 ca d8 27 bd 0c de e7 3e 94 76 03 3f e7 86 58 3e
       -0.04097823 0.45286596 0.5135281 0.21145211
0001f0 60 1a 96 3e 22 c6 4e be 06 d6 58 be 6c 38 fb bc
       0.29316998 -0.20192769 -0.21175393 -0.030666552
000200 f7 49 d2 bd 42 56 67 be b2 41 09 be 55 b6 85 3d
       -0.10268014 -0.22591498 -0.13403967 0.06528918
000210 74 b9 ee bd c3 ec 89 3d 7b 21 8b 3e c7 56 70 3e
       -0.11656466 0.06734612 0.2717398 0.23470603
000220 a3 e2 01 be 06 77 93 3e 20 10 dd 3b 67 d1 55 3e
       -0.12684111 0.28801745 0.006746307 0.20880662
000230 bc ec 43 be 28 b2 91 be 70 63 9a be 09 4b 5a be
       -0.19133276 -0.28456235 -0.3015399 -0.21317686
000240 35 df fe bd a8 a8 a9 bd 18 02 11 bc 1a 90 97 3e
       -0.12444917 -0.08284122 -0.008850597 0.29602128
000250 35 3e e3 3e a5 11 dc bd dd 62 74 3e 26 0f e4 be
       0.44383398 -0.10745553 0.23865838 -0.44542807
000260 67 0d 08 bf 3f 43 aa bd 0a bb f0 bd 2c 21 d8 3e
       -0.5314545 -0.083136074 -0.11754425 0.42212808
000270 fd 1f bf bd 40 c0 80 be a8 48 96 be 53 e2 50 be
       -0.09332273 -0.25146675 -0.29352307 -0.20398836
000280 65 7d a1 bd b3 b5 08 bf 35 d9 cd be 24 d7 e5 be
       -0.07885245 -0.5340225 -0.40204778 -0.44890702
000290 9d 9b b6 be 26 13 07 3f 08 24 eb 3e cf fd 0c 3f
       -0.356656 0.52763593 0.45925927 0.5507478
0002a0 c5 e3 0b be 0b 76 86 3e d6 ce 06 3f d5 c2 8a be
       -0.13661106 0.26261935 0.52659357 -0.2710177
0002b0 1b c4 aa 3e ad 79 8f 3d 98 4b d6 3e 9e 4f c3 be
       0.33352742 0.0700563 0.41854548 -0.3814668
0002c0 bb 0d 03 bf 5e 39 2a be 18 06 a4 bc e1 d3 0b bf
       -0.51192826 -0.16623446 -0.020022437 -0.54620177
0002d0 c2 06 cb be 5a 24 0e 3f a8 93 af 3e 9b 2a 3d 3e
       -0.39653593 0.5552422 0.3429234 0.18473284
0002e0 91 1d fe 3d 8d ee ed be 54 df bc bd 0f 70 c2 3e
       0.12407983 -0.46471062 -0.09222284 0.3797612
0002f0 9a e3 db 3e 22 a7 c4 bd 7f a1 b0 be 42 c3 ea 3e
       0.42947084 -0.096021906 -0.34498212 0.45852095
000300 cf 3b 36 3e 2f 54 c5 be ed 98 71 be ca da 7c bc
       0.17796253 -0.3854079 -0.23593493 -0.015433023
000310 45 ce b1 3d 21 e9 48 3e ab 9c 34 3f 68 e5 d4 3e
       0.08681921 0.19620182 0.70551556 0.41581273
000320 3e 18 a2 3e 08 29 ea be d6 01 9b be 0e 38 e0 bd
       0.3165912 -0.4573443 -0.30274838 -0.109481916
000330 ea 46 e4 3e 96 bc 9b be 1e 04 98 be 41 cb 31 be
       0.44585353 -0.30417317 -0.2969064 -0.17362691
000340 04 e5 d8 be a1 e9 03 3f 3c 67 01 bf 10 75 d2 be
       -0.42362225 0.51528364 -0.5054815 -0.41104937
000350 29 e5 9d 3d 19 db 38 be c1 4a 43 3e 9a 21 94 bc
       0.077097245 -0.18052329 0.19071485 -0.018082429
000360 ad 96 80 bd 2a 50 a4 bd a5 67 da 3e bc b6 24 3e
       -0.06278739 -0.080231026 0.426572 0.16085333
000370 83 51 ea bd 33 21 be bc 17 51 c8 3d 77 f3 a7 be
       -0.114413284 -0.02320919 0.09781092 -0.32802936
000380 50 cc 5d 3c 4e 84 41 be 71 0b 33 be fa 57 1e 3e
       0.013537481 -0.18898126 -0.17484833 0.15463248
000390 96 62 59 3e 93 d8 60 3e b9 4a 59 bd 55 a5 9d 3e
       0.21229014 0.21957617 -0.053049777 0.307902
0003a0 02 c2 08 bd bb 9b eb be d4 0b 03 be 51 57 6c be
       -0.033388145 -0.4601725 -0.12797481 -0.23080184
0003b0 c4 e6 ba 3e e9 ce 88 be 05 8f e1 bd 9c 57 ac 3e
       0.36504185 -0.2672036 -0.11013607 0.3366059
0003c0 c0 c9 ad 3e 13 4e 97 bc 61 59 32 3b 64 c8 f2 3c
       0.33942986 -0.018469846 0.0027213919 0.02963657
0003d0 ac df 82 3e 66 6c 89 be 46 ea 9b be f7 70 7b be
       0.25561273 -0.26840514 -0.30452174 -0.24554811
0003e0 44 2d 79 be ea bb f3 3e 3b 12 11 3f 1c 03 4b 3e
       -0.24333674 0.47604305 0.5666844 0.19825405
0003f0 34 29 16 3f 5d 09 fb bd e7 25 52 be 03 52 db be
       0.5865662 -0.12257645 -0.20522271 -0.42836007

encoder_variable_selection.single_variable_grns.T2M.gate_norm.glu.fc.bias f4 [32]
000000 ca f0 31 be 5f 7c 28 be 99 43 50 be 2e 2e 00 be
       -0.1737701 -0.16453694 -0.20338286 -0.12517616
000010 80 18 36 3e 5d 64 2b be d7 cb 71 bd 34 69 27 be
       0.17782784 -0.16737504 -0.059032287 -0.16348726
000020 a0 2f 3d be 68 d3 39 be e0 21 34 be 91 cf 30 3e
       -0.18475199 -0.18147051 -0.17591047 0.1726668
000030 ee 69 e7 bd d2 e4 28 3e 87 f9 20 3e 4f 1d 3d 3e
       -0.11299501 0.16493538 0.15720187 0.18468212
000040 a7 91 34 be 64 5f 3f 3e ae ba 68 be 2a 60 c0 3d
       -0.17633687 0.18688732 -0.22727463 0.09393342
000050 70 86 45 be 83 70 7f be ee a9 32 be b9 29 2e 3e
       -0.19289565 -0.24945264 -0.17447636 0.17008103
000060 83 c2 4d be 84 ef 42 3e 7f 52 37 be c2 9f 34 3e
       -0.20093732 0.1903668 -0.17902564 0.17639068
000070 44 86 33 3e 65 18 0c 3e 49 e3 13 3e 18 7e 12 3e
       0.17531687 0.13681181 0.14442171 0.14305913

encoder_variable_selection.single_variable_grns.T2M.gate_norm.add_norm.norm.weight f4 [16]
000000 a4 95 53 3f e6 81 55 3f f9 d3 50 3f 82 d8 8d 3f
       0.8265021 0.83401334 0.81573445 1.1081698
000010 1a d5 97 3f 99 dd 96 3f 63 50 5b 3f cb 04 98 3f
       1.1861908 1.1786376 0.85669535 1.1876463
000020 60 a2 95 3f 35 c3 99 3f 73 70 96 3f 9e e9 52 3f
       1.1690178 1.2012697 1.1753067 0.8238772
000030 f2 fa 95 3f b5 cd 4c 3f 25 cf 42 3f 97 26 9b 3f
       1.1717207 0.80001384 0.7609733 1.2121152

encoder_variable_selection.single_variable_grns.T2M.gate_norm.add_norm.norm.bias f4 [16]
000000 e2 93 2c be aa 6b 14 be f6 f4 65 be 67 10 07 bd
       -0.16853288 -0.14494196 -0.22456726 -0.032974627
000010 9e cd 3b 3e 47 84 25 be ce 0e f6 bd fc 2d 32 be
       0.18340155 -0.16163741 -0.120145425 -0.17400354
000020 f1 5f 3a be 4b 11 3d be 60 03 34 be cd 6a 2d 3e
       -0.18200661 -0.18463628 -0.17579412 0.16935273
000030 87 81 16 3e 51 1b 26 3e 98 7a 24 3e 2e e5 44 3e
       0.14697848 0.16221358 0.16062391 0.1922805
