ai_predict/ai/lightning_logs/version_41/checkpoints/epoch=0-step=8.ckpt (torch, 662004 bytes, 889 tensors)

prescalers.time_idx.weight f4 [8, 1]
000000 03 6f aa be 09 6d 0c bf ad ee 28 bf 16 93 33 3f
       -0.3328782 -0.54853874 -0.6598919 0.7014631
000010 de 46 7c 3e 8b 1e 29 3f 15 a0 dc be 19 c4 52 3e
       0.24636409 0.6606223 -0.43090883 0.20582618

prescalers.time_idx.bias f4 [8]
000000 60 dd 13 3f a7 d4 13 3e 9f a2 89 3d da 7e 9d be
       0.57759666 0.14436589 0.06720471 -0.30760843
000010 0f 6b 60 3e 68 ec d1 3e c5 6b 41 bf 9e aa 83 bf
       0.2191584 0.41000676 -0.7555507 -1.0286443

prescalers.T2M.weight f4 [8, 1]
000000 81 72 49 bf 2b 78 cf 3e 60 bc 36 bf 4c 2a e1 be
       -0.78690344 0.40521368 -0.7138119 -0.43977582
000010 c5 26 4d 3f 5c ce fd be 40 41 58 3f 3d 23 a6 3d
       0.8013728 -0.49571502 0.84474564 0.0811219

prescalers.T2M.bias f4 [8]
000000 a4 29 e5 3e cb cb 75 3e a1 75 02 bf c3 3a c7 3e
       0.44758332 0.24003522 -0.5096074 0.3891202
000010 f3 52 8a 3f 0c df 7a be 4f 9a 44 3f 35 28 5a 3e
       1.0806564 -0.24499148 0.76797956 0.213044

prescalers.T2M_MAX.weight f4 [8, 1]
000000 86 cc 9c 3e 52 62 16 be a1 9f 8c 3f 92 f7 e1 3e
       0.3062479 -0.14685944 1.0986215 0.44134194
000010 a0 c3 85 3e 02 ab 14 3f 44 01 77 3f a8 e5 5b bf
       0.26125813 0.5807344 0.96486306 -0.858973

prescalers.T2M_MAX.bias f4 [8]
000000 60 1b 2a 3f ef 4a 62 bf ae 5f 4b 3f 93 11 0f bf
       0.6644802 -0.8839559 0.7944287 -0.5588619
000010 ad 6b 04 3f fe ae 10 bf 5f 16 60 bf 10 ba ec bb
       0.517268 -0.56517017 -0.87534136 -0.007224329

prescalers.T2M_MIN.weight f4 [8, 1]
000000 ea 90 8e bf 23 62 7e 3f 1b 36 8f bd 89 a4 bf be
       -1.1137974 0.99368495 -0.06992742 -0.37430218
000010 2c 55 3e be ee 92 c7 3d da 36 6e bf d0 70 94 3e
       -0.18587178 0.097448215 -0.93052447 0.2899232

prescalers.T2M_MIN.bias f4 [8]
000000 36 78 b3 3e f4 0d db be bf 3e 71 bb a4 6f cc 3e
       0.3505265 -0.42784083 -0.0036811081 0.39928925
000010 fe a5 21 3e 5e b9 2c 3f 26 fb b5 3e df 9f 57 3f
       0.15785977 0.6747035 0.35543174 0.8422832

prescalers.PRECTOTCORR.weight f4 [8, 1]
000000 1f a9 1b bf 15 6a d9 3e d2 48 de be 29 da 91 3e
       -0.60804933 0.42463747 -0.43414932 0.28486755
000010 42 85 8e bf 03 42 5c bf f9 1c b0 be 0f 47 49 bf
       -1.1134417 -0.86038226 -0.34397104 -0.7862405

prescalers.PRECTOTCORR.bias f4 [8]
000000 16 36 36 3f c9 4d 81 bf 7a 7a 2c bd d5 d1 81 be
       0.7117628 -1.0101863 -0.04210899 -0.25355402
000010 81 3d 39 3f 24 f5 aa be 98 60 31 3f 19 c3 8c 3e
       0.7235947 -0.33390152 0.69288015 0.27492598

prescalers.RH2M.weight f4 [8, 1]
000000 6d b9 b7 be e5 b6 81 bf 46 bf 88 3f a2 59 ef 3e
       -0.35883656 -1.013394 1.0683372 0.46748072
000010 7b 33 32 3f a6 8d a7 3d ea 4b f6 3e 86 55 bd be
       0.696098 0.08181314 0.48104793 -0.36979312

prescalers.RH2M.bias f4 [8]
000000 e8 e8 27 3d bd 9b 91 be 8e 9c 21 bf 08 10 f6 3e
       0.0409936 -0.2843913 -0.6312951 0.48059106
000010 d4 7b d9 bd 41 a0 1c 3f d8 c7 67 3e 72 53 44 bf
       -0.106193215 0.6118203 0.22634828 -0.7668983

prescalers.ALLSKY_SFC_SW_DWN.weight f4 [8, 1]
000000 34 85 d4 3d 4e 15 fd 3e 57 78 b6 3d 3d 19 50 3f
       0.10376969 0.49430317 0.08909672 0.8128851
000010 81 1a 2f 3f ae 8c b3 3e 99 f2 a9 be 8a b2 38 bf
       0.68399817 0.35068268 -0.331929 -0.7214743

prescalers.ALLSKY_SFC_SW_DWN.bias f4 [8]
000000 6a 88 a2 be 72 60 45 be 89 13 5a 3c 07 27 5f 3f
       -0.317447 -0.19275072 0.013310322 0.87168926
000010 66 aa 4e 3f 46 ab 6f bf 12 cf 17 bf 3c 99 13 bf
       0.8072876 -0.9362072 -0.5930034 -0.5765569

prescalers.numero_casos.weight f4 [8, 1]
000000 e7 ac 02 bf 86 0c 02 3f 43 c0 35 3f 2b 8d 3e 3f
       -0.5104508 0.5080036 0.70996493 0.74434155
000010 60 69 84 be 32 36 9f bc a7 04 1d 3f 3f 12 3f 3f
       -0.25861645 -0.019435022 0.61335224 0.74637216

prescalers.numero_casos.bias f4 [8]
000000 79 18 4a be 63 ad 32 bf 95 f3 4a 3f b2 09 ac 3e
       -0.19735898 -0.6979582 0.79277927 0.33601147
000010 b7 49 70 be 57 84 68 be bf 4b af 3e d0 50 3a 3f
       -0.2346562 -0.22706734 0.34237477 0.7277956

static_variable_selection.single_variable_grns.municipio.mask f4 [16]
000000 69 b4 af 3d f7 ec 1b 3e a5 53 ed 3d 44 58 e7 bd
       0.085793324 0.15227114 0.115882196 -0.11296132
000010 3c a1 dd bd af 42 ea bd 43 42 ea bd 1f 56 df 3d
       -0.10821769 -0.114385 -0.1143842 0.10905098
000020 fb fe 05 be 91 29 21 be ac 1d eb 3d 9b 14 d9 bd
       -0.13085549 -0.15738513 0.11480269 -0.10599633
000030 3f 72 e7 bd 39 ee d3 3d 91 99 ec 3d 2d 5f f9 bd
       -0.113010876 0.10348172 0.11552728 -0.121763565

static_variable_selection.single_variable_grns.municipio.norm.weight f4 [16]
000000 2a 6c 64 3f 35 97 8d 3f 03 70 8f 3f e7 5b 7b 3f
       0.89227545 1.106177 1.1206058 0.98187107
000010 21 e7 68 3f 65 63 86 3f 13 64 8f 3f ef ec 6b 3f
       0.90977675 1.0499083 1.1202415 0.92158407
000020 25 63 8b 3f d0 b2 8c 3f 9a 48 73 3f c0 ea 62 3f
       1.0889632 1.0992069 0.95032656 0.8863945
000030 40 09 89 3f 13 07 66 3f 3c 2f 8a 3f 07 73 8b 3f
       1.0705948 0.89854544 1.0795665 1.0894479

static_variable_selection.single_variable_grns.municipio.norm.bias f4 [16]
000000 aa 2f 92 bd 5f e4 1d be 1a dc ed bd 07 bb e8 3d
       -0.071379974 -0.15419148 -0.11614247 0.11363798
000010 0f b3 d9 3d 13 9d ed 3d e1 a3 ed 3d 42 39 d8 bd
       0.10629856 0.11602225 0.11603523 -0.10557796
000020 01 84 10 3e b1 1d 0d 3e ae 96 e7 bd ce 40 d6 3d
       0.14112855 0.13780858 -0.11308037 0.10461579
000030 2f 39 ea 3d f5 8d c7 bd 99 76 ed bd e7 cf 03 3e
       0.11436688 -0.09743873 -0.11594886 0.12872277

encoder_variable_selection.flattened_grn.resample_norm.mask f4 [8]
000000 7d 90 12 be c1 c3 a1 3d b0 46 25 3e a4 85 30 bd
       -0.1431293 0.07898665 0.16140246 -0.0430962
000010 6a 60 a6 bd f2 b5 71 bd ae 15 b8 bd de 2e c6 bd
       -0.08123858 -0.059011407 -0.0898851 -0.09676908

encoder_variable_selection.flattened_grn.resample_norm.norm.weight f4 [8]
000000 e3 b1 65 3f 8b ba 82 3f 99 08 95 3f 37 4d 78 3f
       0.8972456 1.0213178 1.1643249 0.9699282
000010 17 8b 5e 3f 49 e6 83 3f 28 2a 4d 3f 3f 45 5f 3f
       0.86930984 1.0304652 0.8014245 0.87215036

encoder_variable_selection.flattened_grn.resample_norm.norm.bias f4 [8]
000000 5c ce 09 be 13 dd ac 3c 26 0d 21 3e ac 02 27 bd
       -0.13457626 0.02110151 0.15727672 -0.040774032
000010 1a f8 a1 bd 87 a4 9f bd 5f b4 29 3e c6 ab 92 bd
       -0.0790865 -0.07795053 0.16572712 -0.071616694

encoder_variable_selection.flattened_grn.fc1.weight f4 [8, 64]
000000 7f a5 79 3e 55 f6 c8 3e c4 1e a6 3e 00 24 3c 3e
       0.24379538 0.39250436 0.32445347 0.18373108
000010 fa ef 93 3e 12 8b 01 3e 01 07 4c 3d 17 56 b7 bd
       0.28894025 0.12650707 0.049811367 -0.08951967
000020 a3 a3 9b 3e 6e 2f 36 3d 23 e3 a8 be e2 67 b5 3d
       0.30398282 0.044478826 -0.32985792 0.08857705
000030 b3 d2 9e 3e d7 ed 46 bc d6 c0 42 be 60 0e 7f 3e
       0.31020126 -0.012141666 -0.19018874 0.24907827
000040 1d 4c 41 3e 18 46 87 3c ce e6 3c 3d a9 61 94 3e
       0.18876691 0.016512915 0.04611855 0.2898076
000050 8c e8 20 3e e7 6d 7f 3d 53 6b 00 bf 72 40 ce bc
       0.1571371 0.06236067 -0.50163764 -0.025177214
000060 75 e6 cc 3d ee b7 3f 3d 3c 5f 2b 3e a0 30 77 bc
       0.10004894 0.04680627 0.16735548 -0.015087277
000070 7c f1 3e be 17 49 2d be e8 ad 05 3d b8 95 80 3e
       -0.18646806 -0.16922413 0.032636553 0.25114226
000080 ac 9f cc 3d 7b 21 ec bb 70 78 87 be 80 c3 a6 bc
       0.099913925 -0.0072061396 -0.26459074 -0.020356894
000090 ad c5 8d 3e 2e 48 2c be 7e 67 4d 3e 82 ea 10 3d
       0.27689877 -0.1682441 0.2005901 0.035379894
0000a0 b7 59 44 be df 93 e6 be 5b 00 98 be fe 61 95 be
       -0.19174848 -0.45034692 -0.2968777 -0.29176325
0000b0 dc 68 f7 be e0 a6 0b bd b6 19 22 bd 05 c7 43 be
       -0.4832219 -0.03409469 -0.0395753 -0.19118889
0000c0 0d 4a b8 be 46 73 10 bf 6b ff 5a be 51 cf 72 be
       -0.35993996 -0.56425893 -0.21386497 -0.23711897
0000d0 fb ff 41 3e ff 74 84 bd cf 7e ab bd 6e db 41 3b
       0.18945305 -0.06467628 -0.08373796 0.0029580253
0000e0 02 a6 35 3e e9 63 93 be 99 02 a6 3d ee a1 a6 3e
       0.17739108 -0.28787163 0.08105964 0.32545418
0000f0 14 d2 83 bd 33 47 6a 3e 90 ee 2f 3e 21 eb 10 3e
       -0.064365536 0.22878723 0.17180848 0.14152195
000100 ec 61 85 3e df e5 ec 3e 43 94 39 be ec 45 6a bc
       0.2605127 0.46269128 -0.18122964 -0.014298897
000110 66 8a bb 3d 83 94 57 be 8b 43 07 3e 51 3b 55 be
       0.09157257 -0.21052746 0.1320936 -0.20823409
000120 62 ae 18 3e 68 19 2e 3e 9f c0 95 3d 66 31 02 3f
       0.14910272 0.17001879 0.0731213 0.50856626
000130 6e a3 0a bd 95 e7 e1 bd c4 c1 54 3e 22 20 83 3e
       -0.033847265 -0.11030499 0.2077704 0.25610453
000140 32 bf 64 3e c9 7f 76 bd 2e 65 1a 3e fb 49 b7 be
       0.2233856 -0.06018046 0.1507766 -0.3579863
000150 a1 90 76 3e 0c f3 18 be 22 10 78 be 49 45 78 3e
       0.24078609 -0.14936465 -0.24224904 0.2424518
000160 e0 ac 3b 3e 1c ce d0 3d ec 73 a4 3d e1 e3 c5 3e
       0.18327665 0.10195562 0.08029923 0.3865042
000170 6d aa c6 3d 89 66 72 3e 50 df b3 3e ac f1 58 3e
       0.09700475 0.23671927 0.3513131 0.2118594
000180 03 d2 29 3e e7 c4 11 bf 59 ee 93 3d 19 12 76 3d
       0.1658402 -0.56941074 0.072231956 0.060075853
000190 83 e2 c8 3d 64 27 5b 3d 80 7d 89 3e 4b b1 c7 bc
       0.09808829 0.053504363 0.2685356 -0.024376532
0001a0 f0 5f 92 3e a0 50 17 be 66 f4 52 be 69 5d fe 3d
       0.2858882 -0.1477685 -0.20601043 0.1242016
0001b0 0f 0e c3 bd 14 8b 37 bc b2 ee 93 3e 74 42 58 be
       -0.09524166 -0.011202592 0.28893048 -0.211191
0001c0 7d 65 ab be 21 24 81 be 32 b4 a7 be b8 70 fa 3a
       -0.33475867 -0.25222877 -0.32754666 0.0019107079
0001d0 ba 06 12 bd 97 19 f9 be fd ab 95 be 8a 5d 90 bd
       -0.035650946 -0.48652336 -0.2923278 -0.07049091
0001e0 ad 18 8c be 04 da 9f be b2 26 41 3e f5 d6 2d 3e
       -0.27362576 -0.3122102 0.18862417 0.16976531
0001f0 12 13 5b be 5f 30 8d bd cc 16 25 3e 4e b4 dd 3e
       -0.21393993 -0.06893992 0.16121978 0.43301624
000200 cf 11 04 3e 03 9d aa bd 33 6d d4 be 61 f5 f6 bd
       0.12897418 -0.08330729 -0.41489562 -0.12058521
000210 22 f4 70 3e f8 c3 72 be 9a 98 bb 3c b2 c7 88 bc
       0.2353063 -0.23707569 0.022899915 -0.016696785
000220 a5 38 11 3f 5c 05 a6 3d 02 f5 fc 3d 34 93 e1 bd
       0.5672706 0.08106491 0.12351419 -0.11014405
000230 46 d5 42 3e 12 90 15 be 1a 91 df bd 8d 99 a1 3d
       0.1902667 -0.1460574 -0.10916348 0.078906156
000240 d3 c3 dc bd a5 c4 5f be 9c 97 90 3e c9 b4 05 3e
       -0.10779538 -0.21852358 0.2824067 0.13057245
000250 ea 9b 8a 3e 41 7d 4a be de f6 7d bc db 03 1c be
       0.27072078 -0.19774343 -0.015500752 -0.15235846
000260 78 0d cf 3b d5 ad 72 be b9 5d 4f be 39 5c da 3d
       0.0063187443 -0.23699124 -0.20250596 0.10662121
000270 e2 18 b5 bd 51 fd 52 3e ac b9 93 3d 57 58 37 be
       -0.08842637 0.20604445 0.072131485 -0.17904793
000280 4f bf b3 bc f1 89 83 be 08 5f d0 be 99 81 0a be
       -0.021941809 -0.25691178 -0.40697503 -0.13526
000290 3d 81 9c be 62 5a 8a bd fd aa a4 be 1d 91 42 be
       -0.3056735 -0.067555204 -0.32161704 -0.19000669
0002a0 d2 91 59 3e 88 62 d5 3d ec ae 78 bd 0c ca ce 3d
       0.21247032 0.10419184 -0.060713693 0.10097131
0002b0 1a 41 0f 3e 52 d1 03 be 44 79 16 3e b3 91 05 3e
       0.13989678 -0.12872818 0.14694697 0.13043861
0002c0 28 ac 40 bd 61 a3 9b bc b7 fc b8 be d8 39 d4 3d
       -0.04703918 -0.018998804 -0.36130306 0.10362595
0002d0 36 ac 52 3e 26 89 27 be 8f 56 35 be 31 df 75 3e
       0.20573506 -0.16360912 -0.177088 0.24010922
0002e0 6f a5 7c 3d e2 3c 99 bd 7f 66 f0 3d 48 ea a1 3e
       0.061681207 -0.074823156 0.117382996 0.31624055
0002f0 4d fe 8f 3d ac 9e 48 bd c5 83 8f be ce 83 88 bd
       0.07030926 -0.048979446 -0.2803022 -0.06665765
000300 06 10 a0 3c 4e fd 58 3e 26 82 c6 3d 62 fe bc 3d
       0.01953889 0.21190378 0.096927926 0.09228207
000310 1c 3e bc 3c d3 ca 84 3e 8f 3c 02 3e b9 8d de 3e
       0.022978835 0.25935993 0.12718414 0.434675
000320 f2 50 ab be d1 87 50 be 90 dd 2a 3f 87 5a 8f be
       -0.33460194 -0.2036431 0.6674433 -0.27998754
000330 dd 0f 01 be aa a5 06 be 4e 57 04 be 4e 47 f2 be
       -0.12603708 -0.13149133 -0.12923929 -0.47320026
000340 07 72 07 be 3d f3 06 3e 80 71 0e be b8 c3 90 3e
       -0.13227092 0.13178726 -0.13910484 0.28274322
000350 c3 10 6e bc d5 c4 7d 3e 1c 57 ed bd fb 9a 28 3d
       -0.0145303635 0.24782117 -0.115888804 0.041163426
000360 2c a0 7e 3e 8e 5c 27 3d b6 8c a3 3e 06 9b 6c 3d
       0.24865788 0.04085975 0.3194329 0.05776503
000370 92 1e cd bd 2a 0a d0 3d 7e 4b 2d be 65 c0 84 bd
       -0.100155964 0.10158189 -0.16923329 -0.06482009
000380 7b 0d 4b be be a1 32 3d 6c 92 18 be 11 fa aa 3e
       -0.19829361 0.04361128 -0.14899606 0.3339391
000390 2a 5a b8 be 32 8a 55 3e 57 b2 83 be 17 9d 5a bd
       -0.3600629 0.20853499 -0.25722 -0.05337247
0003a0 05 82 cf be 16 84 05 bd 39 fd 4a 3d 13 c6 0a 3d
       -0.40528885 -0.03259667 0.0495579 0.033880305
0003b0 34 d2 20 bb f4 e0 e5 be c2 06 2b be 40 6c 8b 3e
       -0.0024539353 -0.44898188 -0.16701797 0.27231026
0003c0 93 64 11 be 35 43 c4 3e 8c 5f 05 3f 68 92 39 be
       -0.14198522 0.38332525 0.5209892 -0.18122256
0003d0 8b 20 c2 be a2 08 6e 3e c7 d0 cb 3e 7c b0 83 3e
       -0.37915453 0.2324548 0.39807722 0.25720584
0003e0 85 f9 bb bd b0 62 0f 3e 04 45 c1 be 90 a2 03 be
       -0.091784514 0.1400249 -0.37747967 -0.12854981
0003f0 8d 13 7d 3e c4 01 06 3e 45 9f 46 3e 1d bb 1e be
       0.2471449 0.13086611 0.19396694 -0.15501066

encoder_variable_selection.flattened_grn.fc1.bias f4 [8]
000000 88 21 e5 3d 48 c4 18 3e c8 f8 9d 3d f2 4b 1e be
       0.11188036 0.14918625 0.07713467 -0.15458658
000010 35 9a 3f 3d d2 0f 39 bd 8f 5d 09 3e c6 88 7c 3d
       0.046777923 -0.045181103 0.13414596 0.061653875

encoder_variable_selection.flattened_grn.context.weight f4 [8, 16]
000000 96 8d 38 3e 2f df f5 be 22 e7 de be b5 19 f1 3e
       0.18022761 -0.48021838 -0.43535715 0.47089925
000010 32 10 25 be 2e cf 92 3e 69 fa 07 3f 2d 97 cb 3e
       -0.1611946 0.2867369 0.5311647 0.39763775
000020 4c 31 6b be ec 1f a6 3e 6c 25 fd be 3d 7f b5 bd
       -0.22968024 0.3244623 -0.49442613 -0.088621594
000030 2f ba d4 bc 39 f3 a3 3e e2 68 d5 be 48 81 e7 3e
       -0.025967686 0.32021502 -0.41681582 0.4521582
000040 2b bb 99 3e e5 2a 79 be 25 92 0a bf 63 cb 82 be
       0.3002561 -0.24332769 -0.5412925 -0.25545797
000050 74 c6 61 3e 14 68 15 bd da d5 67 3d 65 12 35 3e
       0.2204836 -0.03647621 0.05660043 0.17682798
000060 18 81 83 3e b2 4f 38 be 85 6b 0d bf 2e d4 08 3f
       0.25684428 -0.17999151 -0.55242187 0.5344876
000070 c4 6f 48 be 6c 1f d2 3d f4 37 e5 be 90 21 34 be
       -0.19573885 0.102598995 -0.4476925 -0.17590928
000080 c8 23 b3 3e c5 1e b7 be 72 3f 08 bd 6d 16 8a 3e
       0.34988236 -0.35765663 -0.03326363 0.26970235
000090 cf 39 53 3e 89 d4 c7 3e bc e7 f1 3d 5b 4c be be
       0.20627521 0.3902934 0.11811778 -0.3716763
0000a0 d3 c2 1a 3f fe 78 66 3e 3b 31 28 be c7 a8 e9 3e
       0.6045353 0.22507092 -0.1642503 0.4563658
0000b0 ce e7 d2 3e 77 8e f3 bd cc 22 0d be dd 80 8b be
       0.41192478 -0.118924074 -0.13782805 -0.27246752
0000c0 f3 b0 16 3f 4c 62 5d 3e 52 28 11 bd 72 dc bc be
       0.58863753 0.21619529 -0.035438843 -0.36886936
0000d0 8f 60 0c 3e 77 06 17 bf da 56 2d 3d ae 01 12 be
       0.13708709 -0.5899424 0.042319156 -0.14258453
0000e0 eb b7 c2 3e 4a 60 ef be 5e c7 26 be f2 a6 ec be
       0.38030943 -0.4675315 -0.1628699 -0.4622112
0000f0 56 32 0d bf 31 21 3e be 5f 5c bd be dc e7 c3 be
       -0.5515493 -0.18567349 -0.36984536 -0.38262832
000100 04 ea ae be 4e 0e 7e 3e 96 f4 12 3e 58 c2 45 be
       -0.34162915 0.24810144 0.14351115 -0.19312418
000110 d7 d0 5f 3e 2d 3b c4 3d c7 99 3d 3e 1a f0 f8 be
       0.2185701 0.095815994 0.18515693 -0.48620683
000120 69 b7 fb 3e 6a 44 a5 3e 24 d0 f4 be 78 e0 77 3e
       0.49163368 0.32278758 -0.4781505 0.24206722
000130 85 64 b5 bd c0 e7 d2 3e c3 44 b8 3d e0 d3 ae 3e
       -0.08857063 0.41192436 0.0899749 0.34146023
000140 00 22 a4 3e d6 a6 6b 3d ac be 3c be ec d8 4d 3e
       0.3205719 0.057532154 -0.1843211 0.2010228
000150 a6 c6 ab 3e 7f 35 c7 3e 43 8a 05 bf a9 ec 50 3e
       0.33549994 0.38908002 -0.52164096 0.20402779
000160 46 cf f5 be e1 96 b6 be f8 94 5d 3e 53 d3 e1 bd
       -0.480097 -0.35661986 0.21638858 -0.11026635
000170 db 5d 6e 3e 46 6e 00 3e 4b 77 3c bd 11 d5 a3 3e
       0.2327799 0.12542066 -0.046012204 0.31998494
000180 3c 93 06 3e 9c 53 85 bd c1 57 d0 be bf 9a af 3e
       0.13142103 -0.06510088 -0.4069195 0.3429775
000190 72 46 0b 3f 84 df 32 be 78 2f 92 3e d7 04 93 be
       0.54404366 -0.17468077 0.2855184 -0.2871463
0001a0 4f ea ed bd bd 07 3f 3e 78 87 ce be 01 55 ae be
       -0.116169564 0.18655296 -0.4033773 -0.34049228
0001b0 48 84 7b 3e fb 5f 26 be e7 d7 80 3e 3e 38 4d be
       0.2456218 -0.16247551 0.2516472 -0.20040986
0001c0 d2 b4 7a be e8 19 d4 be b2 77 7b 3d 8f 51 0d 3e
       -0.2448304 -0.41426015 0.061393447 0.13800643
0001d0 c3 fc 12 be 70 dc 37 3e f7 cc fc be be ae 9d 3e
       -0.14354233 0.17955184 -0.49375126 0.3079738
0001e0 13 d6 c2 3e 47 bc c7 be 36 00 bb be 74 d4 a1 be
       0.3805395 -0.39010832 -0.36523598 -0.316074
0001f0 84 da 4c be c0 af 03 bf cc aa 36 be 8e 18 be 3e
       -0.20005232 -0.5144005 -0.17838591 0.3712811

encoder_variable_selection.flattened_grn.fc2.weight f4 [8, 8]
000000 3c be c4 be 98 88 2a be 01 99 24 bf e6 2d 1f be
       -0.38426387 -0.16653669 -0.64295965 -0.15544853
000010 58 0a 1a bf 00 cf ce 37 f6 f0 2e 3f 8e 35 27 bf
       -0.60172033 2.4653506e-05 0.6833643 -0.6531609
000020 66 df 97 3c c3 fe 10 3f 55 3c bd 3e 4c 24 24 3e
       0.018539142 0.56638736 0.36960092 0.16029471
000030 0b 00 ee be 22 98 56 3f 44 b6 f1 3e c1 58 06 3e
       -0.46484408 0.83825886 0.4720937 0.13119794
000040 81 a6 b1 3e d2 d0 6e be f7 fc c9 be 6c 73 36 bf
       0.34697345 -0.23321846 -0.3945081 -0.7126987
000050 a8 5d da be 5a 10 9d 3d ca 66 40 3f 18 db 39 3f
       -0.4264958 0.076691344 0.75156844 0.72599936
000060 c6 ef 79 be e6 ab 05 bf 1d 36 7c be ee 49 ee 3c
       -0.24407873 -0.5221542 -0.24630018 0.029087987
000070 bd 33 29 3e 86 a4 27 3f 2a 3d 13 be d0 7c b4 3e
       0.16523643 0.6548542 -0.14378801 0.35251474
000080 0e 8a 69 3e b0 0d 24 bf ba e1 f4 be 23 97 52 3e
       0.2280657 -0.64083385 -0.47828466 0.20565467
000090 ed 81 d2 be 67 4f 00 3f 03 9c 06 bf 64 f2 99 3e
       -0.4111475 0.5012116 -0.52581805 0.30067742
0000a0 ad e5 3f bf 10 84 80 bf f0 f1 ce 3e d9 bb 80 3f
       -0.7495983 -1.0040302 0.4041896 1.0057327
0000b0 8c 99 e1 3b 48 ba 85 3d df 5a 0d be 39 18 ed be
       0.0068847593 0.06529671 -0.13804196 -0.46307543
0000c0 18 d2 9c bd 11 6e e0 3d f0 9d a7 3e 91 62 1d be
       -0.0765726 0.109584935 0.32737684 -0.15369631
0000d0 77 85 7b be d5 91 d5 3f 59 4b 9b be 30 7c 81 bd
       -0.24562632 1.668513 -0.30330923 -0.06322515
0000e0 60 19 91 be 28 84 ca bb 4e aa a7 3b bb 77 a2 bd
       -0.28339672 -0.006180305 0.0051167374 -0.07932993
0000f0 f5 4f 8a 3e 30 6a 84 3a e3 07 2d 3e 32 c1 3d be
       0.27014127 0.0010102447 0.1689754 -0.1853073

encoder_variable_selection.flattened_grn.fc2.bias f4 [8]
000000 8b d0 32 bd 4d 0f dd 3d 6a 0b 05 3e b4 a5 ed bd
       -0.043655913 0.10793934 0.12992635 -0.11603871
000010 10 98 d6 bd 57 dd 14 be 2a 0a 50 3d f9 52 49 3d
       -0.10478222 -0.1453756 0.050790943 0.049151395

encoder_variable_selection.flattened_grn.gate_norm.glu.fc.weight f4 [16, 8]
000000 d4 63 0b 3e 08 38 d3 be f0 74 d5 3e 1a ea 2a 3c
       0.136123 -0.41253686 0.4169078 0.010431791
000010 85 f8 9e be 6e f7 89 be f1 ea 18 bd c7 83 6d 3e
       -0.3104898 -0.26946586 -0.037333433 0.231948
000020 03 3a e8 3e 30 50 18 bf 66 09 3f 3d f4 9f 15 bd
       0.4535676 -0.59497356 0.046639822 -0.036529496
000030 91 fc 5a 3e bb 1c c8 be eb 3e 7f 3c 9e d3 e8 3e
       0.21385409 -0.3908442 0.015578966 0.4547395
000040 23 d8 cd be 3a 95 af bd a8 93 11 3f 9f 3f c8 be
       -0.40203962 -0.085733846 0.5686593 -0.3911104
000050 b1 14 ee be 6d 82 04 bf 56 b0 8d 3e 17 3b 1f be
       -0.4650016 -0.51761514 0.27673596 -0.15549885
000060 30 0f 14 bf 96 77 d6 bd 03 60 9f be 0b 07 11 3e
       -0.57835674 -0.10472028 -0.3112794 0.14162843
000070 f5 45 9d bd 1a 47 97 3e 29 e5 97 3e 88 26 d5 be
       -0.07679359 0.29546434 0.29667023 -0.4163096
000080 60 4c b1 be a0 b6 4e 3e ea 65 2d be 1c b1 d2 be
       -0.34628582 0.20186853 -0.16933408 -0.4115075
000090 fe 54 69 3d 0a 99 97 be 5f 81 b2 3e 5d ca d7 3d
       0.05696582 -0.29608947 0.34864327 0.105366446
0000a0 f7 32 09 bf 42 df ca be e6 c3 1e 3d b0 bd 2d be
       -0.5359339 -0.39623457 0.038761042 -0.16966891
0000b0 37 98 84 3e 31 ac b7 3e 9a 66 ab bc 16 fa d5 be
       0.2589738 0.3587356 -0.020922948 -0.41792363
0000c0 6c da b8 3e 1e 1b f4 3e d0 0f 07 3f f3 fe 1b 3d
       0.36104143 0.4767694 0.527585 0.038084935
0000d0 bb 9e dc 3e c4 08 b1 be fa f4 21 be f6 53 1a bf
       0.43089852 -0.34577 -0.15816107 -0.60284364
0000e0 db f3 b9 be ce c6 93 be 2b 3d b8 3e 4e 42 95 bd
       -0.3631886 -0.28862613 0.35984167 -0.07288037
0000f0 c5 f9 02 be 0d df b1 bd df 54 c8 be 46 d6 3b 3c
       -0.12790592 -0.08685122 -0.39127252 0.011464661
000100 54 7f 7a be fb ba 97 be 34 7e fd bd fb 90 af 3e
       -0.24462634 -0.29634842 -0.12377587 0.342903
000110 79 67 02 3d 10 7f 80 be 97 7d fc 3e 95 4c a4 bc
       0.03183696 -0.2509694 0.49314567 -0.020056048
000120 91 e1 b1 be 2d 3a 0e bf 86 b9 1e be d8 f5 f6 bd
       -0.34742406 -0.5555752 -0.15500459 -0.1205861
000130 32 49 b7 3e 49 2b 35 bd b8 3e 97 3d 1b f9 df 3e
       0.3579803 -0.044230733 0.073850095 0.4374474
000140 63 c9 f9 be cd b2 c8 3e 70 73 68 be e4 ff eb be
       -0.48786458 0.39198914 -0.22700286 -0.46093667
000150 c0 b2 b5 be 66 dd f3 be 9d 86 07 3f d6 4f e2 be
       -0.35487938 -0.4762985 0.5293978 -0.44201535
000160 b4 ae b0 3e fb 33 d2 be 5b 17 b3 3e 12 22 28 bc
       0.34508288 -0.41055283 0.34978756 -0.010262029
000170 78 ee 3d be c8 a0 9e be 5c 6b 15 3f f1 92 e9 3c
       -0.18548 -0.3098204 0.5836694 0.02851245
000180 d2 b3 25 bd 54 db f9 bc 82 db 8c 3e 09 21 b4 be
       -0.040454693 -0.030500092 0.2751122 -0.35181454
000190 d8 ce e2 3e e8 7d a0 bb 64 bd 54 3e 85 b0 7e be
       0.44298434 -0.0048978217 0.20775372 -0.24872024
0001a0 1d 89 e4 3d bd 64 1a be 8e ec 08 bf 05 bb b9 3e
       0.11158965 -0.15077491 -0.53485954 0.36275497
0001b0 10 7d 3d 3e 0f 13 7e be e9 0f 6e 3e e8 05 b0 be
       0.18504739 -0.24811958 0.23248257 -0.34379506
0001c0 b7 45 7e 3d 8c fc ca 3d 17 08 99 3d 1c 42 5d 3e
       0.062078204 0.09911451 0.07472246 0.2160725
0001d0 9b 7e cf 3e 86 07 36 3e 82 33 cd 3c 24 aa a8 be
       0.4052628 0.17776307 0.025048975 -0.32942307
0001e0 bb 8c ba 3e b4 16 d7 3e 4a b5 b3 3e f8 c4 ee 3d
       0.36435494 0.4200951 0.3509925 0.116586626
0001f0 34 75 99 3e e6 8f 98 3e d4 76 54 3d 7d 92 22 3e
       0.2997223 0.29797286 0.051871136 0.15876193

encoder_variable_selection.flattened_grn.gate_norm.glu.fc.bias f4 [16]
000000 94 4c 06 be a9 dd 27 3d 7f 51 25 3e ef 12 37 bd
       -0.1311515 0.040982876 0.1614437 -0.04469579
000010 d0 49 e0 bd 2f 66 86 bd 19 f2 1e 3e ac 6e 0d bd
       -0.109515786 -0.06562459 0.1552204 -0.034529373
000020 18 1c fb bd cf b9 a4 bb 54 4d 25 3e ba bd 85 3d
       -0.12261218 -0.005027033 0.1614278 0.06530328
000030 7a 58 53 3d 53 9b a6 bd 06 c1 14 3e 22 bf 52 3d
       0.05159805 -0.081350945 0.14526758 0.05145181

encoder_variable_selection.flattened_grn.gate_norm.add_norm.norm.weight f4 [8]
000000 9a 51 5e 3f 50 d1 94 3f 10 ac 98 3f 7b f8 79 3f
       0.86843264 1.1626377 1.1927509 0.97644776
000010 01 7f 80 3f 77 48 99 3f f1 fd 6e 3f b4 ca 55 3f
       1.0038759 1.197524 0.93356234 0.83512425

encoder_variable_selection.flattened_grn.gate_norm.add_norm.norm.bias f4 [8]
000000 1e 63 01 be 2e 44 b4 bc 1a 15 2f 3e 0a e9 7c bd
       -0.12635466 -0.022005167 0.17097893 -0.06174568
000010 2a 71 a3 bc f9 e3 22 be f2 b9 01 3d 62 fa bb bd
       -0.019951422 -0.15907277 0.031671472 -0.09178616

encoder_variable_selection.single_variable_grns.time_idx.resample_norm.mask f4 [16]
000000 81 01 fe 3d 90 80 9c 3d ad f1 31 be d0 77 83 3d
       0.124026306 0.07641709 -0.17377348 0.06419337
000010 5e 56 12 be 81 31 4f bd ea 93 85 3d b1 02 30 be
       -0.14290759 -0.05058432 0.06522353 -0.17188527
000020 04 09 78 bd a3 c2 69 3d bd 03 27 be 65 4a 01 bd
       -0.060555473 0.057070386 -0.1631002 -0.03156509
000030 51 4b 61 bd 1c 3f 88 3d 9a 93 fc 3d b5 ed ee bd
       -0.055003468 0.06652662 0.1233284 -0.11666433

encoder_variable_selection.single_variable_grns.time_idx.resample_norm.norm.weight f4 [16]
000000 c2 9f 90 3f 7d 87 8f 3f 80 4b 81 3f b4 13 8a 3f
       1.1298754 1.1213223 1.0101166 1.0787263
000010 ce a7 5a 3f 7e cb 75 3f 8a 41 88 3f 66 72 54 3f
       0.854123 0.9601363 1.0645001 0.8298706
000020 eb 5f 70 3f 7f 86 87 3f ad ce 53 3f 6e b8 77 3f
       0.9389636 1.058792 0.8273724 0.9676579
000030 e9 18 72 3f b4 b2 88 3f f0 04 90 3f 23 cd 64 3f
       0.9456926 1.0679536 1.1251507 0.89375514

encoder_variable_selection.single_variable_grns.time_idx.resample_norm.norm.bias f4 [16]
000000 95 85 08 3e 6e 1a 05 3e 94 e4 86 3d 00 46 3e bd
       0.13332208 0.12998363 0.065865666 -0.046453476
000010 30 f2 59 3d 84 d0 0f 3e 12 4b 90 bd 5f a0 1f 3e
       0.053209484 0.14044386 -0.070455685 0.1558852
000020 9c 90 fe bd 85 3f 04 3e 9d 34 97 bd 69 c5 0d be
       -0.12429926 0.12914856 -0.07383082 -0.13844837
000030 f4 83 e5 3d 64 87 69 bd 96 8f 03 be 68 24 e8 3d
       0.11206809 -0.057013884 -0.12847742 0.11335069

encoder_variable_selection.single_variable_grns.time_idx.fc1.weight f4 [8, 8]
000000 6d 0a 4a bf d6 65 f4 bd 1f dd b0 be 2b 2c 1e 3f
       -0.7892216 -0.11933486 -0.34543702 0.61786145
000010 44 8f 28 3f 3c 99 29 bd 9a 0d 0a 3f 60 4d 5f 3f
       0.65843606 -0.0414059 0.53927004 0.8722744
000020 1b c6 17 bf f4 64 a2 be 25 9e f3 3e b5 79 e0 3e
       -0.5928666 -0.31717646 0.47581592 0.43842855
000030 36 b4 f4 3e cd 9f f5 3d 06 3e 1e 3e fe 81 83 bf
       0.4779374 0.1199337 0.15453348 -1.0274045
000040 27 cf ca 3e 6b 22 be be 84 ab 08 be 49 b3 20 bf
       0.3961117 -0.37135634 -0.13346678 -0.6277357
000050 ec 08 a8 3e 70 4e 4d bf 54 b7 83 3e c6 d3 da be
       0.32819307 -0.8019781 0.25725806 -0.42739695
000060 5f e0 06 bf 7a 1f 03 3d 39 f9 5a bd 78 ac 01 bf
       -0.52686113 0.03201244 -0.053460333 -0.5065379
000070 95 bb f9 3d b9 0c 22 be 00 89 03 be a9 f1 70 be
       0.121939816 -0.15825166 -0.1284523 -0.23529686
000080 6c 5f 0d 3f 45 25 94 bf be 1a 33 3f 74 fa af be
       0.5522373 -1.1573874 0.6996268 -0.34370768
000090 b6 b9 d6 bc 5c 95 41 bf 3d 6f 9f 3e c5 0b 19 3f
       -0.0262116 -0.7561853 0.31139556 0.59783584
0000a0 4d 8c f3 3e 06 02 fb be 28 87 0d bf ee a4 16 3e
       0.47567979 -0.4902498 -0.5528436 0.14711353
0000b0 b3 9e 0e bf 7a 1b 2d bc 7e ea 11 be 2e 31 8b 3c
       -0.55710906 -0.010565633 -0.14249608 0.016991224
0000c0 f2 00 fa bd 0b 2b 75 3e 80 f1 78 bf 69 7a 51 3f
       -0.122072116 0.23942201 -0.972435 0.8182741
0000d0 08 1e 66 3c 7f 2c 9b be f3 8d 56 3e c0 71 04 bc
       0.014045246 -0.30307385 0.20952587 -0.008083761
0000e0 fb a0 9c be 11 34 13 bf dd f6 8e 3d 0c eb b2 bd
       -0.30591568 -0.5750132 0.06980679 -0.08736238
0000f0 7e 7c a9 3e 6b 05 12 bf 4c 7a 78 bd bc fa 28 3f
       0.33102793 -0.5703952 -0.060663506 0.6600759

encoder_variable_selection.single_variable_grns.time_idx.fc1.bias f4 [8]
000000 96 f8 29 bd 9f fe 3c bc b4 ed 06 3e 92 c1 d7 bc
       -0.041496836 -0.011535316 0.13176614 -0.026337419
000010 50 c5 42 3b b6 63 60 bd 7c f6 ad 3d d7 f5 5a be
       0.0029719658 -0.05478259 0.08494279 -0.21382843

encoder_variable_selection.single_variable_grns.time_idx.fc2.weight f4 [8, 8]
000000 2b 0b 38 be c7 1c 87 3e 95 1f b4 3e 33 ef 9a be
       -0.1797301 0.26389143 0.35180345 -0.3026062
000010 6d 64 cd be ce df 81 be a4 cc 2e 3f 16 f5 8a 3e
       -0.4011568 -0.25366062 0.68281007 0.2714011
000020 5a 11 c4 3e 6d b9 87 3e fa ef 83 3f de 7c 53 3f
       0.38294488 0.26508656 1.030761 0.8261241
000030 9d aa 0a 3f f7 8f 27 3f 82 14 93 bf e6 52 d1 3e
       0.54166585 0.6545405 -1.1490633 0.4088356
000040 c4 dc 0a be e8 2b f5 3e c4 85 9b 3d 2d 89 e2 be
       -0.13560778 0.4788506 0.07593873 -0.44245282
000050 c3 22 49 bf f2 40 86 3d c8 3b 3e bf 98 d4 3d 3f
       -0.7856867 0.06555356 -0.7430997 0.7415252
000060 95 6e e5 3c b3 fd e0 3c 42 d5 67 3f e2 56 bb 3f
       0.028006831 0.027464723 0.9055978 1.463589
000070 92 0e 46 be b6 22 56 bf e4 63 34 3f df 52 04 bf
       -0.19341496 -0.83646715 0.7046492 -0.5168895
000080 d7 3b 41 be 82 7d ca be d9 dc 03 3f 96 99 58 3e
       -0.18870483 -0.3954888 0.5150886 0.21152338
000090 76 db 22 3e 92 a8 aa be 86 a6 39 be 14 59 ca be
       0.1590403 -0.33331734 -0.1812993 -0.39521086
0000a0 00 5a 80 bd 26 0c dd bd 22 32 06 3e 58 dd dc be
       -0.06267166 -0.10793333 0.13105062 -0.43137622
0000b0 7e d2 3c be 51 0c 52 3e ae 36 c2 3e 22 11 0a bf
       -0.18439671 0.20512511 0.37932342 -0.5393239
0000c0 bc 20 0e 3f 89 7f 00 bf 69 70 f7 be b1 d0 64 be
       0.555187 -0.50194603 -0.4832795 -0.22345234
0000d0 48 e3 72 3b cb 80 a3 3e 16 2b a1 3e a0 87 56 3f
       0.003706174 0.319342 0.31478184 0.838007
0000e0 ed e6 36 3e c3 a9 1d 3f d7 45 3a be 43 07 1a bf
       0.17861529 0.6158716 -0.18190704 -0.6016733
0000f0 ae 59 05 3e 32 b8 98 be 79 b4 36 3e 0c 9d 69 be
       0.13022491 -0.2982803 0.17842282 -0.22813815

encoder_variable_selection.single_variable_grns.time_idx.fc2.bias f4 [8]
000000 11 41 ba 3c ca 37 44 bd 6b 7e c2 3d 95 0e 18 3e
       0.022736104 -0.047904767 0.094967686 0.14849313
000010 09 e5 07 3e 3b 65 4c 3e 8b 39 24 3e f4 ce 3b 3d
       0.13270964 0.19960491 0.16037576 0.045851663

encoder_variable_selection.single_variable_grns.time_idx.gate_norm.glu.fc.weight f4 [32, 8]
000000 bc 55 29 be 7e 45 e4 3d 32 d7 90 3d 5f e0 c9 3e
       -0.16536611 0.11146067 0.07072295 0.39428994
000010 94 45 9e bd bf 1c 08 3e 71 bf 70 3e 1c a5 56 be
       -0.07728115 0.13292216 0.23510529 -0.20961422
000020 04 35 9a 3e d6 f7 51 be 36 ad c6 3e 4c 05 aa be
       0.30118573 -0.20504698 0.38804024 -0.33207166
000030 93 ea a7 be a8 69 6b be c1 d5 de be 32 6b 9f be
       -0.32796153 -0.22989523 -0.43522456 -0.3113647
000040 fc 8f 83 be 5c 71 c7 bd d0 c4 0e be e3 9a 31 be
       -0.2569579 -0.097384185 -0.13942266 -0.17344241
000050 b6 0b d2 be 96 e2 96 3d ee a0 05 3d 1c 3b b0 be
       -0.4102456 0.073674366 0.032624178 -0.34420097
000060 86 f6 58 3d 28 3b 7e 3e 89 7b 98 be fc 71 7d be
       0.052969478 0.24827254 -0.2978175 -0.24750513
000070 24 68 a3 bc 53 17 2e 3e e9 f0 d9 bc df 0d 35 be
       -0.019947119 0.17001085 -0.026604133 -0.17681073
000080 0f 2e 40 be a0 83 3c be 6d 1c c1 3d f1 0a 58 be
       -0.1876757 -0.18409586 0.0942925 -0.21097924
000090 e9 ec 87 be 8b 75 bd 3d c0 fb b4 be 20 74 6d 3a
       -0.26547936 0.09250935 -0.3534832 0.00090581365
0000a0 04 ce 8e bd 6e b9 72 3e b9 80 a5 3d 64 57 28 be
       -0.06972888 0.23703548 0.080811925 -0.16439587
0000b0 b1 e8 bb bd d8 6e f0 bd de cf a3 3c 2a c7 28 bd
       -0.09175242 -0.11739892 0.01999658 -0.041205563
0000c0 4c 3c be be b9 42 d9 be 86 d8 e0 3d 45 e5 f1 be
       -0.37155378 -0.42433718 0.109787986 -0.4724523
0000d0 b3 c1 8c be 4e 0d 8a be 1c 60 7a 3e 05 15 49 3e
       -0.2749153 -0.26963276 0.24450725 0.19636925
0000e0 01 f2 e4 3d 54 ec 20 3e 5d fe 15 be 71 d9 d6 3d
       0.11178971 0.15715152 -0.14647813 0.104906924
0000f0 a9 f3 bc 3e 7a 0e 4a 3e 12 de 26 be af 33 60 3e
       0.36904648 0.19732085 -0.1629565 0.21894716
000100 a0 61 a7 bd f9 87 31 be 1c 73 26 3d f4 84 23 bd
       -0.08172917 -0.17337026 0.04063712 -0.039921716
000110 87 8a 75 bd 0e 0f ac be 7b 97 05 be 3c 05 f3 3d
       -0.059946563 -0.33605236 -0.13046066 0.11866233
000120 67 3e 8d bd e2 96 87 3d 1e b1 03 3f 48 93 86 be
       -0.06896668 0.066205755 0.51442134 -0.26284242
000130 46 56 a9 bd 2a 92 93 3d b0 9d 3e be 39 12 ba 3d
       -0.082684085 0.07205613 -0.1861484 0.09085507
000140 e0 b7 cb be d3 65 b4 3e 10 8b 18 3d fb 39 97 bd
       -0.39788723 0.35233936 0.037241995 -0.07384106
000150 34 88 82 be 0f 18 c9 3e 9f 61 6a be d8 42 64 be
       -0.2549454 0.39276168 -0.22888802 -0.22291124
000160 e9 e4 7f 3e d8 ec ac be f8 27 f6 be 4e c6 5e be
       0.24989666 -0.33774447 -0.4807737 -0.21755335
000170 79 dc 22 be 1d 81 a4 3e 44 71 a2 3e 8c ca b2 3c
       -0.15904416 0.32129756 0.3172704 0.021825098
000180 4d 19 ec bc 26 77 76 3e 8a 34 be 3e 27 91 04 bf
       -0.028820658 0.24068889 0.3714946 -0.51783985
000190 b0 11 9f 3d f9 46 62 be 16 8d 6d be ef ea 8d 3e
       0.077670455 -0.22097386 -0.23198351 0.27718303
0001a0 3b 45 de 3d f8 df e1 3c 08 f9 86 3e bd 32 75 be
       0.108530484 0.027572617 0.2636187 -0.23945136
0001b0 5b eb 0c 3e 80 ea b5 b9 93 af 5e be 77 15 e3 3d
       0.13761656 -0.00034697726 -0.21746664 0.110880785
0001c0 58 fa 9c 3e 53 94 0a 3d 2b 8c 12 be b5 14 73 bd
       0.30659747 0.03383286 -0.14311282 -0.05934592
0001d0 6d 60 22 be 41 7e 8a 3e 73 05 ba bd c3 b0 bc 3e
       -0.15857096 0.2704945 -0.090830706 0.36853608
0001e0 14 82 68 3e ff e5 26 3d b5 95 1a bc 29 08 7a 3e
       0.22705871 0.040746685 -0.009435107 0.24417175
0001f0 fa d9 11 be 95 5b 13 3d 72 ac 33 3e 34 85 ae be
       -0.14243308 0.03597601 0.17546251 -0.34086
000200 e7 fe 31 be a8 4b 23 be 8d f8 32 3e fc eb d1 3d
       -0.17382394 -0.1594683 0.17477627 0.102500886
000210 ad 5d 83 3d 7a a5 37 bc d4 fa c5 3e 83 3a 5b 3e
       0.064143516 -0.011208886 0.3866793 0.21409039
000220 ad b3 c3 be de 8c f2 3d fe 35 85 bd 2e 00 f9 be
       -0.3822302 0.118432745 -0.06504439 -0.4863295
000230 57 0d de be 69 20 ac 3d c7 fc 04 3e e2 84 b9 be
       -0.43369552 0.08404619 0.12987052 -0.36234194
000240 39 6a 80 3e cf ca e1 3e 2f bc 1e be ac b4 64 3d
       0.2508104 0.44100043 -0.15501474 0.055836365
000250 55 b0 4c 3e ca 7a 8f be d1 c8 aa be da 97 db 3e
       0.1998914 -0.28023368 -0.33356336 0.4288929
000260 36 35 d9 3c 36 2b 6b 3e 66 7e a3 3e fb bd ac 3e
       0.02651463 0.22965702 0.31932372 0.33738694
000270 66 20 95 3e d0 12 52 3e 02 18 e7 3c 64 61 9d 3e
       0.2912628 0.20514989 0.02820969 0.30738366
000280 4c f6 06 be 60 1a 9e 3d f1 89 42 be fb a1 96 be
       -0.13179892 0.077198744 -0.18997933 -0.29420456
000290 4a 31 86 be bd 26 50 3e 0c f5 be be ff af 89 be
       -0.2620948 0.20327277 -0.3729633 -0.26892087
0002a0 26 27 f5 3d ae 6a 73 be c0 b4 a7 bc 2e ea 84 3c
       0.119703576 -0.23771164 -0.02047193 0.016224947
0002b0 64 24 cb 3d 4a c3 1f be db 91 7c bd 50 eb b1 be
       0.0991905 -0.1560184 -0.061662536 -0.34749842
0002c0 c1 bb e7 be 24 cf 9d bd 79 be 53 3d 70 2c 05 3e
       -0.45260432 -0.077055246 0.05169532 0.13005233
0002d0 98 91 78 3b ad ee 37 3e e5 0a 88 3d b3 9b e6 be
       0.0037928578 0.17962141 0.06642703 -0.45040664
0002e0 f5 9f d3 bd 69 4f 34 be 11 f4 b9 be d9 40 70 3e
       -0.10333244 -0.17608418 -0.3631902 0.23462237
0002f0 14 4c 83 3e 56 82 b2 3e 1b 64 04 be cd 2c 0b be
       0.2564398 0.34865063 -0.12928812 -0.13591309
000300 82 23 03 3e f4 ac cd 3d 81 d5 2b 3e 60 af 89 3e
       0.12806514 0.10042754 0.16780664 0.26891613
000310 be 05 90 3e 57 59 d1 bd 3a 20 d0 3e 17 4e fe bd
       0.2812938 -0.10222118 0.40649587 -0.12417238
000320 86 8f 25 3e 89 26 dd 3e 77 44 d5 3e 37 f9 e0 3c
       0.16168031 0.43193462 0.41653797 0.027462585
000330 67 14 46 3e ce 92 80 be e0 77 3e 3d 8d be b3 be
       0.1934372 -0.25112003 0.04650104 -0.35106316
000340 98 bf ae bd d6 f7 07 3e 18 36 2d bb 7b 8b 05 3e
       -0.08532637 0.13278136 -0.0026429947 0.13041489
000350 1c e3 88 3e 21 03 d9 3e 7f c8 dd 3e 00 09 8c be
       0.2673577 0.423852 0.4331703 -0.27350616
000360 04 d8 b5 be 5e 6b 87 be 3d 75 b4 3d 22 13 cd be
       -0.3551637 -0.26449102 0.08811424 -0.4005366
000370 9d 32 0b bd c4 b1 9b 3e 72 f0 da be fe be 8d be
       -0.033983815 0.30409062 -0.4276157 -0.27684778
000380 fe 7d f4 3c 0e d9 be 3e a6 79 3d 3e 21 01 e5 be
       0.029845234 0.37274975 0.18503436 -0.44727424
000390 4f 8f ec be 1a 0f 5e bd db bd cf bd 7d 1a 65 be
       -0.46203086 -0.05421362 -0.10143634 -0.22373386
0003a0 57 f4 b5 bd 70 8f 00 3e d0 0d 40 bb a4 c3 9e 3e
       -0.08884495 0.12554717 -0.0029305108 0.31008637
0003b0 d6 f1 18 3d 85 94 5d be 38 9a 68 be 01 79 c4 bc
       0.037340008 -0.21638687 -0.2271508 -0.02398348
0003c0 1c d1 f2 3d cc 4e ab be 1c 60 b7 be 60 91 e0 3a
       0.11856291 -0.33458555 -0.35815513 0.0017133169
0003d0 60 08 3c ba 11 00 e0 bd 5a 52 9c 3e 02 82 d5 be
       -0.0007172879 -0.10937513 0.3053158 -0.4170075
0003e0 7e a7 2f 3e f4 e2 9d 3d 45 e0 cd be f6 d2 7b 3e
       0.17153737 0.077093035 -0.40210167 0.24592194
0003f0 83 64 f7 3e cd b5 35 3b a4 ea bc bd d3 d7 3f be
       0.48318872 0.002772677 -0.09224442 -0.18734674

encoder_variable_selection.single_variable_grns.time_idx.gate_norm.glu.fc.bias f4 [32]
000000 8b a5 0d 3e 28 ff fb 3d a2 41 80 3d 70 4a 2d bd
       0.13832681 0.123045266 0.062625185 -0.042307317
000010 5a 81 58 3d 8d d9 0f 3e a4 8a 93 bd e4 98 1e 3e
       0.052857734 0.14047833 -0.07204178 0.1548801
000020 2f 13 ff bd 27 db 01 3e ac 32 a2 bd 03 34 03 be
       -0.12454831 0.12681256 -0.07919821 -0.1281281
000030 07 a8 e8 3d 14 10 66 bd 48 cc 04 be 9b 5e de 3d
       0.11360174 -0.056167677 -0.12968552 0.10857888
000040 56 20 1a be 88 dc 92 3d b8 95 0c 3e fe 66 7e bd
       -0.15051398 0.07170969 0.13728988 -0.06210994
000050 64 65 7f 3c 97 fe 24 be 5d 48 bc 3d 19 eb 15 be
       0.015588138 -0.16112743 0.0919349 -0.14640464
000060 c3 be 01 be a3 fd 09 3e 53 92 43 bd ac 91 01 3e
       -0.12670426 0.13475661 -0.047746968 0.12653226
000070 f4 f4 d9 3d d7 b1 6a bd fe e5 1b be d1 e1 06 be
       0.10642424 -0.057298508 -0.15224454 -0.1317208

encoder_variable_selection.single_variable_grns.time_idx.gate_norm.add_norm.norm.weight f4 [16]
000000 d9 2d 8e 3f 8d 58 89 3f 7d 4f 83 3f 8c d7 66 3f
       1.1107742 1.0730149 1.0258633 0.9017265
000010 d7 0e 5a 3f ec 5b 73 3f b3 b5 88 3f 90 df 56 3f
       0.85178894 0.95062137 1.068045 0.8393488
000020 a3 1a 70 3f 64 31 8f 3f d1 fc 5b 3f 6b d9 7b 3f
       0.93790644 1.1186948 0.8593264 0.9837863
000030 66 c8 70 3f f6 49 91 3f 33 bd 8f 3f ea 4a 60 3f
       0.94055784 1.1350696 1.1229614 0.8761431

encoder_variable_selection.single_variable_grns.time_idx.gate_norm.add_norm.norm.bias f4 [16]
000000 13 8a 0f 3e 9a 89 04 3e 00 8a 81 3d ef ff 41 bd
       0.14017515 0.12943116 0.063251495 -0.047363218
000010 79 86 54 3d 88 27 0f 3e 6c bd 8d bd 47 68 20 3e
       0.051886056 0.13979924 -0.06920895 0.15664779
000020 42 0b ff bd 9e 85 05 3e e3 8f 2c be f0 1a 0e be
       -0.12453319 0.13039252 -0.16851763 -0.13877463
000030 f2 9e 52 3d fb ac 60 bd 97 f4 05 be 6e be f5 3d
       0.051421113 -0.054852467 -0.13081585 0.11999212

encoder_variable_selection.single_variable_grns.T2M.resample_norm.mask f4 [16]
000000 3c ae 06 3e 6b 78 2a 3c de e8 65 3d 07 7b ec 3d
       0.13152403 0.010404686 0.056130283 0.11546903
000010 9a d9 61 bd b2 d7 3a be 2d 05 75 bd d9 f1 06 3e
       -0.05513916 -0.18246344 -0.05981939 0.13178195
000020 13 3e 01 be c5 3c 04 3e b8 4b 28 be 0d 36 0d 3e
       -0.12621336 0.12913807 -0.16435134 0.1379015
000030 ca b2 66 3d a5 29 56 bd 38 7c 01 be 1e 8a 3b 3d
       0.05632285 -0.05228581 -0.12645042 0.045786016

encoder_variable_selection.single_variable_grns.T2M.resample_norm.norm.weight f4 [16]
000000 3d c1 90 3f 3e 61 56 3f 0d ca 84 3f 47 60 86 3f
       1.1308972 0.8374213 1.0374161 1.0498132
000010 3a bd 70 3f 15 17 5a 3f 91 4d 72 3f 4f dc 90 3f
       0.94038737 0.8519147 0.94649607 1.1317233
000020 aa 30 5f 3f ec 64 90 3f 9e f6 97 3f 21 f9 90 3f
       0.8718363 1.1280799 1.1872137 1.1326028
000030 20 59 87 3f ea 91 60 3f a0 c1 5f 3f a7 36 5e 3f
       1.0574074 0.8772265 0.87404823 0.8680214

encoder_variable_selection.single_variable_grns.T2M.resample_norm.norm.bias f4 [16]
000000 a5 5f 1f bd 87 a9 05 3e c0 c1 71 3d e0 11 5a bd
       -0.038909573 0.13052951 0.059022665 -0.053239703
000010 6b dc 75 3d 30 1b 0e 3e 4b 69 9d bd 69 be 12 3e
       0.06002466 0.13877559 -0.07686099 0.14330448
000020 20 1f 01 be 28 fc 01 3e 64 3d 31 be d7 2a 05 be
       -0.1260953 0.12693846 -0.17308575 -0.13004623
000030 ed ee 65 3d 6c dc 86 bd e1 0d 03 be ac e5 01 3e
       0.05613606 -0.06585011 -0.12798263 0.12685269

encoder_variable_selection.single_variable_grns.T2M.fc1.weight f4 [8, 8]
000000 f4 8f 2d 3f 3d 84 47 be b5 cc 1d bf f4 8b 96 3d
       0.6779778 -0.19484039 -0.61640483 0.07350913
000010 95 5c 58 be 1f 10 84 3d 8f 91 f9 be ef 80 54 3f
       -0.21129067 0.06448387 -0.48743865 0.8300924
000020 b7 ba e2 3e 51 29 a4 3e a9 5d c7 bf ae 48 22 3f
       0.44283077 0.32062772 -1.5575458 0.6339215
000030 8f 3f b8 3e 6a 2c 04 bf 94 d0 e9 bd 15 27 8c 3f
       0.3598599 -0.5163027 -0.11416736 1.0949427
000040 b2 2a ea bd 44 fd b1 be 60 68 6c bd 30 86 39 bf
       -0.11433925 -0.3476354 -0.057716727 -0.7247038
000050 e7 41 a7 3e d8 b7 77 bd 44 d2 61 3e f9 84 c7 be
       0.32667467 -0.06047806 0.22052866 -0.38968638
000060 d9 a3 a4 3e 6d 22 8f 3d 98 55 ad be f6 40 33 bf
       0.32156256 0.06988988 -0.33854365 -0.70021
000070 cc e8 01 bc 4a be 0c 3f 91 66 17 3e 76 f9 3c be
       -0.007929038 0.5497786 0.1478522 -0.18454537
000080 c7 f1 31 bf d2 9a f0 be 22 26 90 3f 31 a5 85 3e
       -0.6950955 -0.4699312 1.1261637 0.26102594
000090 e3 b9 3d be d8 20 0a bf 30 1c a7 bc b5 74 0c bf
       -0.18527941 -0.53956366 -0.020399183 -0.5486558
0000a0 6c e1 57 3d 91 3f 48 bf 90 ae 90 3a d0 17 4c bd
       0.052705213 -0.78221995 0.0011038352 -0.049827397
0000b0 cc 88 99 be 69 f3 02 3f 2c a8 ee 3d ed 7c 02 be
       -0.2998718 0.51152664 0.1165317 -0.12742968
0000c0 62 02 0c 3c 44 98 20 bf ad 1f 42 be c5 d6 c1 bd
       0.00854549 -0.6273234 -0.18957396 -0.09464792
0000d0 de d9 2a bf ea e8 01 3f d8 f3 ab 3a 4c 26 06 be
       -0.6673869 0.50746024 0.0013118936 -0.13100547
0000e0 dd 0c ba 3e 46 43 ca be e1 04 a8 3e fc f5 09 3e
       0.3633794 -0.3950445 0.32816222 0.13472742
0000f0 0c 23 7c bf 39 66 15 3f 62 1a 3e bf a3 aa 22 3e
       -0.9849098 0.58359104 -0.74259007 0.15885405

encoder_variable_selection.single_variable_grns.T2M.fc1.bias f4 [8]
000000 6e 0c 1f be 2f d0 39 3e 4f dc fd 3d b3 b5 90 bd
       -0.15532085 0.18145822 0.12395536 -0.070659064
000010 f4 a9 fc bd 17 18 fe bd 40 38 77 bd 80 e2 67 3d
       -0.123371035 -0.124069385 -0.06035638 0.05661249

encoder_variable_selection.single_variable_grns.T2M.fc2.weight f4 [8, 8]
000000 f4 7b fb be 21 33 c2 3e b9 64 4e 3f 91 c6 67 3e
       -0.49118006 0.37929633 0.8062244 0.22634341
000010 47 4b 20 3e 9f cd a8 be b3 3e 39 3e 86 ed 45 bc
       0.15653716 -0.32969376 0.18090324 -0.012080556
000020 03 21 30 bf ef 29 25 3f e3 40 15 bf 81 87 07 bf
       -0.6880037 0.6451711 -0.58302134 -0.5294114
000030 f1 c4 45 3f db 65 07 3f 31 54 be 3e 9b 49 86 bd
       0.77253634 0.52889794 0.37173608 -0.06557008
000040 7b dd 82 3e 15 5b eb 3e ee e1 29 3f 3f 3d 2f bf
       0.255596 0.45967928 0.66360366 -0.6845283
000050 5b c1 03 bf f4 ee 8a bf 68 be f9 3e a8 0e b2 be
       -0.5146691 -1.0854173 0.4877808 -0.34776807
000060 f2 a2 4e 3f ee a5 88 3e b3 c2 17 3c c0 e8 45 bf
       0.80717385 0.26689094 0.0092627285 -0.77308273
000070 e3 4b a8 be 77 f1 86 be a8 76 1d be 0f 52 36 bf
       -0.32870397 -0.26356098 -0.15377295 -0.7121896
000080 d4 d6 e6 bc 5e 92 1b 3e e5 8a 6f 3f 4a 57 d3 3e
       -0.02817861 0.15192553 0.9357131 0.41277534
000090 31 e6 41 3e a3 7d be be 42 d3 81 be 4f 7f 9c bf
       0.18935467 -0.37205228 -0.2535649 -1.2226351
0000a0 c9 49 83 bf bf db e7 3e 12 11 f8 3e 2e 70 49 bd
       -1.0256892 0.4528484 0.48450524 -0.04917925
0000b0 60 96 3f bf 44 57 0a bf 54 56 da be 48 95 bc ba
       -0.7483883 -0.54039407 -0.42643988 -0.0014387751
0000c0 7b d6 3a 3f e9 ce 26 3f 05 83 41 3e d4 8d 26 3f
       0.7298352 0.6515947 0.18897636 0.6506016
0000d0 dc d7 7a 3e 79 d2 1f 3f 9f 1b 85 be 56 7c 9d be
       0.24496406 0.6243053 -0.25997636 -0.30758923
0000e0 f3 d9 c5 bd 66 d5 3b bf e9 3d 0e bc 0e 05 d1 be
       -0.09660711 -0.73372495 -0.008681753 -0.4082417
0000f0 c3 8b 19 3f 3c 9c 4c 3e 14 32 49 3f 89 8e 32 be
       0.59978884 0.19981474 0.7859204 -0.17437185

encoder_variable_selection.single_variable_grns.T2M.fc2.bias f4 [8]
000000 5b 5d b3 bd cb 4c 5d bd ce fd 02 3e 78 2c fb 3d
       -0.087580405 -0.054028314 0.12792131 0.12264341
000010 ad 47 0b 3e 47 70 01 3e 14 46 07 be f6 48 05 be
       0.13601561 0.12640487 -0.13210326 -0.13016114

encoder_variable_selection.single_variable_grns.T2M.gate_norm.glu.fc.weight f4 [32, 8]
000000 1f c2 65 3e 26 e4 15 be 1f ee 43 be 1e 9e 4e 3d
       0.22437333 -0.14637813 -0.19133805 0.05044376
000010 95 f9 43 be 9d 32 20 3d e4 a1 b1 be c3 d3 8e 3d
       -0.19138177 0.03911077 -0.34693825 0.06973984
000020 69 76 52 3e f8 8d 37 3e bf 68 df 3e 33 de 4f be
       0.20552982 0.1792525 0.43634602 -0.20299606
000030 e8 90 ba 3d 8d 03 a1 bd 6a 18 6f bd d0 e5 f2 bd
       0.0910967 -0.078620054 -0.058372892 -0.118602395
000040 64 94 c9 3e 80 42 75 be 7a 16 3a 3c f0 17 fd 3c
       0.39371026 -0.23951149 0.011357898 0.030895203
000050 91 c2 a8 3e 1f cf a0 be eb 3e a5 bd 44 5a 76 3e
       0.32960942 -0.3140802 -0.08068641 0.24057871
000060 5e d1 a1 be 32 99 49 3e f1 ec 35 be 32 a0 de bd
       -0.31605047 0.19687346 -0.17766167 -0.108703986
000070 c2 70 00 3e 54 35 4b be 9c 21 99 be 01 d9 6c bd
       0.12543014 -0.19844562 -0.29908454 -0.05782414
000080 04 ef a1 bd 47 33 62 be 71 41 18 3e 66 81 c2 bd
       -0.07906917 -0.22089873 0.14868714 -0.09497337
000090 76 33 c9 bb 6e 7d d3 3e c9 5a 25 3e 09 00 e6 be
       -0.006140168 0.41306633 0.16147913 -0.44921902
0000a0 59 e0 91 3e 96 32 c5 3e e2 a1 be 3e fb b1 a6 3e
       0.28491476 0.38515157 0.37232882 0.32557663
0000b0 87 7e f2 3e 73 a2 9f 3d 3f 46 72 3e 08 35 05 bf
       0.47362158 0.077946566 0.2365961 -0.52034044
0000c0 8a d8 07 bb 2c 82 76 be a5 17 a5 be bc f6 8a 3e
       -0.0020728433 -0.24073094 -0.32244602 0.27141368
0000d0 d8 1e 02 3e c0 89 a2 3d 4a e3 9b 3e 7a 3b a1 3d
       0.12707078 0.0793643 0.30446845 0.078726724
0000e0 20 ff b0 bb 89 0b 62 be 49 87 0f be bd fb eb 3e
       -0.005401507 -0.22074713 -0.14016451 0.460905
0000f0 6e 1d 6b 3d a6 eb 22 3e 0e 6b a2 3e 39 7f f9 bb
       0.057401113 0.15910205 0.317223 -0.007614043
000100 5f 45 e8 bd 36 e8 e9 3d 5d 53 97 3d 35 22 87 be
       -0.113413565 0.11421244 0.07388947 -0.26393285
000110 d2 82 14 bd 64 d7 f1 be 4f 05 b6 3c ef ca ee 3e
       -0.036257572 -0.47234643 0.022219328 0.466392
000120 d2 dc 0b be 9f 05 e1 3d 61 f0 c4 bd 45 e4 8e 3e
       -0.13658455 0.109874 -0.09616161 0.2790853
000130 90 cc 29 3e b3 c8 e5 3e 28 74 45 bd e4 d9 aa be
       0.1658194 0.44879684 -0.04820648 -0.33369362
000140 32 0b 71 3e be e2 42 3d 46 27 85 3b fd a8 02 bf
       0.23539427 0.04757952 0.0040635196 -0.51039106
000150 8d bd b2 be c4 7d 0c bd d4 d8 0d 3e e0 21 3a be
       -0.3491024 -0.034299627 0.13852245 -0.18176985
000160 8d d0 43 be 57 50 21 be dd c2 c2 be bd ff 22 bd
       -0.19122525 -0.15753303 -0.38039294 -0.039794672
000170 40 8b b7 be 96 c5 01 bf 3c 1e a0 be 3e 9e 4f 3e
       -0.35848427 -0.5069212 -0.31273067 0.20275208
000180 c8 71 05 be dc 38 4a be 80 fb f6 3e ad 54 dc 3e
       -0.13031685 -0.19748253 0.48238754 0.43033352
000190 c3 0d cf 3d 23 58 22 be 3a 64 99 be 32 e2 43 3e
       0.10110047 -0.15853934 -0.2995928 0.19129255
0001a0 c5 b8 be 3c e7 19 2a be 9d c2 02 bf a9 30 05 be
       0.023281464 -0.16611443 -0.51078206 -0.13006844
0001b0 d9 ea fa be c0 c5 48 3a 30 f8 94 be 3b f9 e5 3e
       -0.490073 0.00076588616 -0.29095602 0.4491671
0001c0 f2 f4 fb be 39 ec 12 3e ce a9 13 3d 09 08 ca 3d
       -0.49210316 0.14347924 0.03605061 0.09864814
0001d0 d4 c5 b3 ba 5c 9a bd be 09 c9 8b bc ff aa 45 be
       -0.0013715574 -0.3703183 -0.017063634 -0.19303511
0001e0 be 12 4a 3d 5c 54 8a 3e 5b 7a 66 bd ac 63 0e 3e
       0.04933428 0.27017486 -0.05626903 0.1390521
0001f0 95 f3 74 be 8c 69 08 be 76 44 5f be 43 ae 30 3d
       -0.23921044 -0.13321513 -0.2180346 0.04313494
000200 f9 a1 de bd e9 77 6f bc 85 d8 a8 be aa 90 3d 3e
       -0.108707376 -0.014615991 -0.3297769 0.18512216
000210 56 1d ce 3e 2e 0a 1a 3c e4 52 c7 3b 86 ff 3e be
       0.40256757 0.009401841 0.0060828794 -0.18652162
000220 b2 df 9b 3d f1 1c 44 3e fa f5 23 3d b9 1a be bd
       0.07611026 0.19151665 0.040029503 -0.09282441
000230 83 76 1f be b4 9f c4 be b2 0b c3 3d 1c 5b 73 3d
       -0.15572552 -0.38403094 0.09523715 0.05941306
000240 b7 a8 5d bd 50 da 9a be 94 11 a4 3e 50 45 10 be
       -0.054115977 -0.30244684 0.3204466 -0.1408894
000250 41 e2 5e 3e 5e d1 88 3d 80 8d 64 3e 01 61 ab 3e
       0.21765997 0.066805586 0.22319603 0.33472446
000260 41 af c9 bd 6e 94 b1 bd b5 de 02 bd ba 32 f4 3d
       -0.0984788 -0.08670889 -0.03195067 0.11923738
000270 fc 7e c6 3e be 8d ae 3e 06 d4 89 3d e9 7c a1 be
       0.38768756 0.34092516 0.067298934 -0.3154061
000280 09 0d 89 3d 3b 97 77 be 07 82 20 3d af d2 ec 3d
       0.066919394 -0.24178784 0.039186504 0.11563622
000290 dc de 06 3f dc ac 08 be b7 f7 98 3e 13 6e e8 bd
       0.52683806 -0.1334719 0.2987649 -0.1134912
0002a0 cc b5 19 3d 06 86 95 3e 1c 5c e2 3e 36 a3 5b 3e
       0.03752689 0.29203814 0.442109 0.21448979
0002b0 a0 2f c6 3d 5d a6 e1 3e 91 5f 00 be b0 de 5c 3e
       0.096770525 0.44072238 -0.12536456 0.21569324
0002c0 a7 ea dd 3e 03 df b7 3e 0d af 14 3e 22 cc 52 3e
       0.43343088 0.35912332 0.14519902 0.20585683
0002d0 ad 34 c6 3e 5d e6 f0 bd fa bb 7b 3e d1 44 9a 3d
       0.38712063 -0.11762688 0.24583426 0.07532657
0002e0 96 6e cf be 5b 14 2e 3c 76 c3 a1 be dc e6 5f be
       -0.40514058 0.01062497 -0.31594437 -0.2186541
0002f0 21 d5 6e bd 76 30 cd be cd e4 e0 be 5a 34 f6 bd
       -0.058308724 -0.40076035 -0.4392456 -0.12021704
000300 7a 5c 5f 3e 57 ec de bd e8 7c 9c 3e 20 f2 ba 3e
       0.21812621 -0.10884922 0.30564046 0.36512852
000310 52 e3 21 3d 8f 10 02 3f 4c d6 03 3d 8b 48 25 be
       0.03952343 0.50806516 0.03218679 -0.16140954
000320 f8 34 6d 3e f8 43 a1 bd c1 b6 69 3e ae 30 34 be
       0.23164737 -0.07874292 0.22823621 -0.17596695
000330 55 a5 9a 3e 7d b7 db 3e 57 b5 d1 3e 2f df 84 3e
       0.30204263 0.42913428 0.40958664 0.25951526
000340 00 47 4e 3e 56 3d 93 be e2 0e e8 be c4 a5 af be
       0.20144272 -0.28757733 -0.45323855 -0.34306157
000350 be 30 31 be ca 85 a2 be ec 00 16 bd 73 2e 8e 3e
       -0.1730375 -0.31742698 -0.036621973 0.27769813
000360 f7 a6 cb 3e e9 a7 4d 3e 59 81 fd bd cc fb 34 bd
       0.39775822 0.20083584 -0.12378187 -0.044185445
000370 7f 46 71 3e 4b ce c4 3e 5c 77 55 3c 52 58 f4 be
       0.23562048 0.3843864 0.013028946 -0.47723633
000380 98 56 94 3c 4f 49 9c 3e ec 90 c0 be 48 50 3e bd
       0.018107697 0.3052468 -0.37610567 -0.04646328
000390 cb 64 81 3e f3 5b dd bd 50 a8 72 3c 1b a4 40 be
       0.2527221 -0.108085535 0.014810637 -0.18812601
0003a0 4a 4b 37 bd ed 8a 5f 3e ad a2 2c be a2 db 8f 3e
       -0.044749536 0.2183034 -0.16858931 0.28097254
0003b0 18 14 84 bd 3d 94 db 3e e4 27 38 3d a5 c5 d9 be
       -0.06449145 0.42886534 0.044959918 -0.42533603
0003c0 34 9d af be 3b 74 17 be e1 1b 0d be eb 93 07 3d
       -0.34299624 -0.14790432 -0.13780166 0.03310005
0003d0 eb 07 65 3e 0a 7d cb be 8c 91 d4 be 16 0a ed 3e
       0.22366302 -0.39743835 -0.41517293 0.46296757
0003e0 f1 2d 01 bf f1 19 08 bf ad b0 aa be 95 e8 de bd
       -0.50460726 -0.53164583 -0.33337918 -0.10884205
0003f0 34 00 e9 be 41 da f4 3d dc 03 61 bd f1 85 e5 3e
       -0.45507967 0.11955691 -0.05493532 0.44828752

encoder_variable_selection.single_variable_grns.T2M.gate_norm.glu.fc.bias f4 [32]
000000 b1 8c 54 bd bc c2 07 3e 5d 49 71 3d c4 51 52 bd
       -0.051891986 0.13257879 0.058907855 -0.05134751
000010 63 7a 73 3d f1 62 12 3e 9f e1 9f bd 02 60 0f 3e
       0.05944289 0.14295556 -0.07806706 0.14001468
000020 5a 3b 01 be e9 27 02 3e 94 59 2b be 93 51 04 be
       -0.12620297 0.12710537 -0.1673339 -0.12921743
000030 f9 c1 68 3d 51 1e 87 bd ee 90 04 be e8 0a 05 3e
       0.05682561 -0.06597579 -0.12945911 0.12992442
000040 b9 6e 07 be a4 2d 14 be db c2 82 bd 48 49 3a 3d
       -0.13225831 -0.14470536 -0.06384822 0.045480043
000050 9b fc 80 3d 8f 14 16 3e a0 68 69 bd 30 30 dd bd
       0.06298181 0.1465628 -0.056984544 -0.10800207
000060 0b c9 fd 3d 39 b5 49 3d 62 86 21 be dc de 04 3e
       0.123918615 0.049245093 -0.15773919 0.12975639
000070 7d 36 75 bd 8a e3 00 3e 4a c5 0a be da 19 0f be
       -0.059866417 0.125868 -0.13551822 -0.13974705

encoder_variable_selection.single_variable_grns.T2M.gate_norm.add_norm.norm.weight f4 [16]
000000 f6 d5 91 3f 9b 00 7b 3f c4 f9 5c 3f b1 18 85 3f
       1.1393421 0.980478 0.8631861 1.039816
000010 11 bf 71 3f 56 b2 89 3f 30 72 71 3f 1a 88 90 3f
       0.9443217 1.0757549 0.9431486 1.1291535
000020 a4 c8 5f 3f 8b 47 8f 3f ad 62 5d 3f d6 22 90 3f
       0.8741553 1.1193708 0.8647869 1.1260631
000030 dc 1c 6e 3f 47 e0 82 3f 84 15 60 3f 44 2c 5e 3f
       0.93012786 1.0224694 0.8753283 0.86786294

encoder_variable_selection.single_variable_grns.T2M.gate_norm.add_norm.norm.bias f4 [16]
000000 04 8d 76 bd 0b 78 00 3e 2d 93 82 3d 7c bd 52 bd
       -0.060193077 0.12545793 0.06375728 -0.051450238
000010 ce b2 72 3d 79 73 0b 3e b9 b4 bd bd 4d 82 12 3e
       0.059252553 0.13618268 -0.09262986 0.14307518
000020 c5 b6 fe bd 24 22 00 3e 10 3e 31 be ea 47 03 be
       -0.12437204 0.12513024 -0.17308831 -0.12820402
000030 ce fc 5d 3d b3 ff 7d bd 8f f6 fe bd 46 80 f7 3d
       0.05419617 -0.062011432 -0.12449371 0.12085013
