ai_predict/ai/lightning_logs/version_37/checkpoints/epoch=0-step=8.ckpt (torch, 662004 bytes, 889 tensors)

prescalers.time_idx.weight f4 [8, 1]
0	0x3db56832	0.08857764
1	0xbf24d5da	-0.6438881
2	0x3f58939d	0.8460024
3	0x3f29410c	0.6611488
4	0xbf2d3ff8	-0.67675734
5	0xbf308fa0	-0.68969154
6	0xbf26d908	-0.65174913
7	0x3f43e110	0.76515293

prescalers.time_idx.bias f4 [8]
0	0xbed7cf48	-0.4215033
1	0xbed15ec6	-0.4089262
2	0xbea1b70a	-0.3158496
3	0xbe4843b0	-0.1955707
4	0xbf7acea7	-0.97971576
5	0xbe6728e3	-0.22574191
6	0x3f15d711	0.5853129
7	0x3f64fb3b	0.8944585

prescalers.T2M.weight f4 [8, 1]
0	0xbf1fa908	-0.62367296
1	0x3e210e3a	0.15728083
2	0xbf346c06	-0.7047733
3	0x3f4648b6	0.774547
4	0xbf44f318	-0.7693343
5	0x3e06c4cf	0.13161014
6	0xbf43436c	-0.7627475
7	0xbf0adfce	-0.5424775

prescalers.T2M.bias f4 [8]
0	0xbf563158	-0.8366904
1	0xbf270e62	-0.6525632
2	0x3de1a215	0.11017243
3	0xbf56afe3	-0.8386213
4	0x3ddf1248	0.10892159
5	0x3efdad73	0.49546394
6	0x3f18fdde	0.5976237
7	0x3f2ccf32	0.67503655

prescalers.T2M_MAX.weight f4 [8, 1]
0	0xbf4962e4	-0.7866652
1	0xbebec85a	-0.3726223
2	0xbf464074	-0.774421
3	0x3e9d8dd5	0.30772272
4	0x3f5c510c	0.8606117
5	0x3e1351cb	0.1438667
6	0xbf2ff03b	-0.6872594
7	0xbe2cd85e	-0.16879413

prescalers.T2M_MAX.bias f4 [8]
0	0xbf64020b	-0.8906562
1	0xbf06891b	-0.52552956
2	0x3f05cdc5	0.52267104
3	0x3c2b8996	0.010469815
4	0x3f59ce9a	0.85080874
5	0x3dc7ebc0	0.097617626
6	0x3f0fbfb2	0.5615188
7	0xbc2f5094	-0.010700364

prescalers.T2M_MIN.weight f4 [8, 1]
0	0x3f87ed89	1.0619365
1	0x3c453671	0.012036906
2	0xbf74af58	-0.95580053
3	0xbe22fff7	-0.15917955
4	0x3ec1615c	0.37769592
5	0xbecfa549	-0.4055579
6	0xbd100152	-0.03515751
7	0xbf26fc51	-0.65228754

prescalers.T2M_MIN.bias f4 [8]
0	0xbd8e907b	-0.06961151
1	0x3f04e146	0.5190624
2	0xbf250956	-0.6446737
3	0xbef74496	-0.48294514
4	0x3f5e85e4	0.8692305
5	0xbec74d8f	-0.3892636
6	0x3f6575a1	0.8963261
7	0x3ecb4c45	0.39706627

prescalers.PRECTOTCORR.weight f4 [8, 1]
0	0x3ee70b94	0.4512602
1	0xbf76bb17	-0.96379226
2	0x3f73f7a5	0.9529975
3	0xbee57453	-0.4481531
4	0xbeb8f26d	-0.36122456
5	0x3e9a15de	0.30094808
6	0xbea1dd8f	-0.31614348
7	0xbf6a2817	-0.9146742

prescalers.PRECTOTCORR.bias f4 [8]
0	0xbed6247e	-0.41824716
1	0xbeb816a5	-0.35954776
2	0xbf694de8	-0.911345
3	0x3d8c80e6	0.06860523
4	0xbe93416b	-0.28760847
5	0xbf19441c	-0.5986955
6	0xbd643ea3	-0.055723798
7	0x3e0477fb	0.12936394

prescalers.RH2M.weight f4 [8, 1]
0	0xbf6c37b7	-0.92272514
1	0x3f772822	0.9654561
2	0x3bde1426	0.006777304
3	0x3f3d0b5d	0.73845464
4	0xbe8f16f5	-0.27947202
5	0x3ef7316e	0.482799
6	0x3ebb75a6	0.36613196
7	0x3f3964f3	0.7241966

prescalers.RH2M.bias f4 [8]
0	0x3f3f3aa7	0.7469887
1	0xbe127cf9	-0.14305486
2	0xbf3603b1	-0.7109938
3	0x3f6a3d08	0.91499376
4	0x3de833c5	0.11337999
5	0x3f5dcafa	0.8663784
6	0xbdd4895a	-0.1037776
7	0x3f175149	0.59108406

prescalers.ALLSKY_SFC_SW_DWN.weight f4 [8, 1]
0	0x3ec0c15f	0.3764753
1	0x3f432a29	0.76236206
2	0x3ed4dd6a	0.41575176
3	0x3f33f0ca	0.7028929
4	0x3eebeb6c	0.4607805
5	0xbf244b8f	-0.64177793
6	0x3ea77b13	0.32711086
7	0xbf061ac9	-0.5238462

prescalers.ALLSKY_SFC_SW_DWN.bias f4 [8]
0	0x3e14bf6b	0.14526145
1	0xbe5ad2b7	-0.21369444
2	0xbf0f53b0	-0.5598707
3	0xbf4b676c	-0.79454684
4	0x3f3fa8c8	0.74866915
5	0x3e81000b	0.25195345
6	0x3ceaa170	0.028641433
7	0xbf1fc5a1	-0.6241093

prescalers.numero_casos.weight f4 [8, 1]
0	0xbf08a981	-0.5338364
1	0xbebb1a3b	-0.3654345
2	0xbf0cbe62	-0.54978
3	0xbe93927d	-0.288227
4	0xbedca20f	-0.4309239
5	0xbd725123	-0.05915941
6	0x3e6758e7	0.22592507
7	0xbf8461c0	-1.0342331

prescalers.numero_casos.bias f4 [8]
0	0xbf39516c	-0.72389865
1	0xbf1d7055	-0.6149953
2	0x3f60a186	0.87746465
3	0xbeb5f062	-0.3553496
4	0xbf4eb56c	-0.8074558
5	0xbedb0954	-0.42780554
6	0x3eaeed5f	0.34165475
7	0xbf63ad07	-0.88935894

static_variable_selection.single_variable_grns.municipio.mask f4 [16]
0	0x3de8f8a9	0.11375553
1	0xbde84267	-0.1134079
2	0x3de7473a	0.11292882
3	0x3de90db2	0.11379565
4	0xbde850de	-0.11343549
5	0x3de931d6	0.113864586
6	0xbde97c0f	-0.114006154
7	0xbde8b3df	-0.11362433
8	0x3de8b91f	0.11363434
9	0x3de86470	0.11347282
10	0xbde8ade9	-0.11361296
11	0xbde8d242	-0.113682285
12	0xbde8b1d0	-0.1136204
13	0x3de8b4ed	0.11362634
14	0x3de8b01e	0.11361717
15	0xbde8dd17	-0.113702945

static_variable_selection.single_variable_grns.municipio.norm.weight f4 [16]
0	0x3f81700a	1.0112317
1	0x3f5cc0f9	0.8623195
2	0x3f5e94ca	0.86945784
3	0x3f865e35	1.04975
4	0x3f6f725f	0.9353389
5	0x3f8e448a	1.1114666
6	0x3f83e926	1.0305526
7	0x3f6519c2	0.8949243
8	0x3f6f2967	0.9342255
9	0x3f6ee776	0.9332193
10	0x3f7f47ab	0.9971873
11	0x3f8d599b	1.104297
12	0x3f6bdbb0	0.9213209
13	0x3f73d193	0.9524166
14	0x3f79717a	0.97438776
15	0x3f904308	1.1270456

static_variable_selection.single_variable_grns.municipio.norm.bias f4 [16]
0	0xbde8c956	-0.11366527
1	0x3ddb837a	0.107184365
2	0xbde5dcaa	-0.11223729
3	0xbde97417	-0.113990955
4	0x3de6107d	0.11233614
5	0xbde9db0b	-0.11418732
6	0xbde11ec6	-0.10992198
7	0x3de8a5c4	0.11359742
8	0xbde89a48	-0.11357552
9	0xbde7ad2c	-0.11312327
10	0x3de8ea68	0.113728344
11	0x3de9c3dd	0.11414311
12	0x3de8adbb	0.113612615
13	0xbde8814c	-0.113527864
14	0xbde8a10f	-0.113588445
15	0x3de9adf6	0.114101335

encoder_variable_selection.flattened_grn.resample_norm.mask f4 [8]
0	0x3d243383	0.040088188
1	0x3e0a8ac0	0.13529491
2	0x3e117900	0.14206314
3	0xbe210734	-0.15725404
4	0x3c51504b	0.012775491
5	0xbe1364b3	-0.14393882
6	0xbdfb9c18	-0.12285632
7	0x3e33cf9e	0.17559668

encoder_variable_selection.flattened_grn.resample_norm.norm.weight f4 [8]
0	0x3f92a448	1.1456385
1	0x3f904ea7	1.1274003
2	0x3f90aacf	1.1302127
3	0x3f5564f4	0.8335717
4	0x3f7e4a62	0.9933225
5	0x3f5af04a	0.855229
6	0x3f6b67e0	0.91955376
7	0x3f91aff1	1.1381818

encoder_variable_selection.flattened_grn.resample_norm.norm.bias f4 [8]
0	0x3da9c488	0.082894385
1	0xbdf9a740	-0.121901035
2	0x3e042e48	0.1290828
3	0x3e1bb739	0.15206613
4	0xbd6ced7a	-0.057843663
5	0xbe1e7918	-0.15475881
6	0xbd57fa1f	-0.05272877
7	0xbd8ea17a	-0.06964393

encoder_variable_selection.flattened_grn.fc1.weight f4 [8, 64]
0	0x3e56426b	0.20923774
1	0x3d89a12f	0.067201965
2	0xbc07d254	-0.008289892
3	0x3d41a0c8	0.047272474
4	0x3e786db3	0.24260597
5	0x3d54c0cc	0.051941678
6	0xbca00444	-0.019533284
7	0xbe27d304	-0.1638909
8	0x3eb8ca97	0.36092064
9	0xbe067b58	-0.1313299
10	0xbd77e25d	-0.06051861
11	0x3cb11c14	0.021619834
12	0xbdab8739	-0.08375401
13	0xbe35a9e1	-0.17740585
14	0xbe506b72	-0.20353487
15	0xbe6aaead	-0.22918196
16	0x3e8eb5f1	0.27873185
17	0x3e45a988	0.19302952
18	0x3dff8e36	0.124782965
19	0x3cb67ece	0.022277262
20	0xbea9686e	-0.33087486
21	0x3dbeb378	0.09311575
22	0xbef94587	-0.48685858
23	0xbe301822	-0.17196706
24	0x3eb00365	0.3437759
25	0xbe8d6b66	-0.27621
26	0x3e9b6d94	0.3035704
27	0xbc5b6d03	-0.01339269
28	0xbe0ca8b6	-0.13736233
29	0x3e20f8a2	0.15719846
30	0xbde4fa9e	-0.11180614
31	0xbe60ea0f	-0.21964286
32	0x3ebcabe0	0.3684988
33	0xbd9eb211	-0.07748807
34	0x3e382955	0.17984517
35	0xbe92cdb0	-0.28672552
36	0x3da52197	0.080630474
37	0x3ea05503	0.3131486
38	0xbea218a7	-0.31659433
39	0xbe63de74	-0.22252828
40	0xbb7f7fd0	-0.0038986094
41	0x3e9100e9	0.28321007
42	0x3eb27622	0.34855753
43	0x3e65ffc7	0.22460853
44	0x3d827702	0.06370355
45	0x3e88e622	0.26738077
46	0xbcea57cf	-0.028606324
47	0xbdfd6ecf	-0.12374651
48	0x3e8063d7	0.25076172
49	0xbe7c1056	-0.24615607
50	0xbdec0958	-0.1152522
51	0xbe4c475f	-0.19949101
52	0xbc9e9dae	-0.019362297
53	0xbe457b8d	-0.19285412
54	0xbdb08476	-0.08619015
55	0xbda76815	-0.08174149
56	0x3e015f95	0.12634118
57	0x3e174e2d	0.14775915
58	0xbdd1dbfe	-0.10247038
59	0x3e23f998	0.16013181
60	0x3e15dfda	0.14636174
61	0xbcb2e970	-0.021839827
62	0xbdd5ab60	-0.10433078
63	0x3d8e3c9e	0.069451556
64	0xbd94141e	-0.072303995
65	0x3dd1db15	0.10246865
66	0xbe666bec	-0.22502106
67	0xbe1b757d	-0.15181537
68	0x3e7c9089	0.24664511
69	0xbd5b397a	-0.05352161
70	0x3e264046	0.16235456
71	0xbd81438f	-0.06311714
72	0xbe5bb10c	-0.21454257
73	0x3ca3362e	0.019923296
74	0xbd8ffb5f	-0.07030367
75	0xbe7575ca	-0.23970714
76	0x3e48f1fa	0.19623557
77	0x3da61165	0.081087865
78	0x3e53c122	0.20679143
79	0x3e20dd55	0.15709431
80	0x3e44235c	0.19154114
81	0x3f03d6c0	0.5149956
82	0x3cc58c35	0.024114707
83	0x3b84229f	0.0040324475
84	0xbd91f55f	-0.07126879
85	0x3e8eb2a0	0.27870655
86	0x3e145c32	0.14488295
87	0x3cb333dd	0.021875316
88	0x3d829cee	0.06377588
89	0x3f246184	0.642113
90	0xbdf98e02	-0.12185289
91	0x3dafa8b0	0.085770965
92	0x3eecc2b7	0.46242306
93	0xbeed46bd	-0.46343032
94	0x3ddd7d12	0.10814871
95	0x3e50b28f	0.20380615
96	0xbec34eb2	-0.38145977
97	0xbdf78219	-0.12085361
98	0x3e620f3e	0.22076127
99	0xbe8f2df2	-0.2796474
100	0xbe15f2ee	-0.14643452
101	0x3e35317b	0.17694657
102	0xbc805bb7	-0.015668733
103	0x3d4c6d24	0.049908772
104	0xbebfd8a2	-0.37469965
105	0xbe6e9fcf	-0.2330315
106	0x3d5e2ac8	0.054240018
107	0xbcef5020	-0.029213011
108	0xbe91997d	-0.28437415
109	0x3f140540	0.5782051
110	0x3d8817b6	0.066451475
111	0x3d85386a	0.06504901
112	0x3eb33adb	0.3500584
113	0x3d857d8b	0.06518086
114	0xbd15169a	-0.036398508
115	0x3c80b208	0.015709892
116	0xbe30c5ad	-0.17262907
117	0xbe284c57	-0.16435371
118	0xbe87a36c	-0.26491868
119	0x3e101137	0.14069067
120	0xbe43df5f	-0.19128178
121	0xbd1f661f	-0.03891575
122	0xbdcdf232	-0.10055961
123	0x3e08c255	0.13355382
124	0xbeadb427	-0.33926508
125	0xbe8ef82c	-0.27923715
126	0x3eab1236	0.3341233
127	0xbc9f3a09	-0.019436853
128	0xbd2ef04f	-0.042709645
129	0x3dc733e0	0.09726691
130	0x3e429e28	0.19005644
131	0x3d9fb53e	0.07798241
132	0xbc90595a	-0.017620731
133	0x3eae794a	0.3407691
134	0xbd891142	-0.06692745
135	0xbcf69b9c	-0.030103497
136	0xbd84f7b6	-0.064925596
137	0x3e75acf5	0.23991759
138	0xbe40e551	-0.18837477
139	0x3f166576	0.5874857
140	0xbeaa8658	-0.3330562
141	0xbd9c723a	-0.076389745
142	0xbcd117b0	-0.02552399
143	0xbe0752fc	-0.1321525
144	0x3e6e563f	0.23275088
145	0xbde9826c	-0.11401829
146	0xbea55ea5	-0.3229877
147	0xbe3dacd8	-0.18522966
148	0xbdce9a5b	-0.10088035
149	0xbd041d6f	-0.032254633
150	0xbe5ad0e2	-0.21368745
151	0x3ceaea35	0.028676132
152	0x3e9b8783	0.30376825
153	0x3e26b493	0.16279821
154	0xbe7c6fb0	-0.2465198
155	0x3e947e6c	0.29002702
156	0x3e79f372	0.24409273
157	0x3eb5504f	0.35412833
158	0xbe2ed289	-0.170725
159	0xbdc3c3aa	-0.09558804
160	0x3e8362bc	0.25661266
161	0xbdb3cef8	-0.087797105
162	0x3e3ae35e	0.18250796
163	0x3c13a706	0.009011989
164	0x3eab7f17	0.334954
165	0x3e27f303	0.16401295
166	0xbe4c2e3f	-0.19939516
167	0xbe2abf38	-0.16674507
168	0xbd77ffe6	-0.06054678
169	0x3e8c4b80	0.27401352
170	0x3cd7ce0b	0.026343366
171	0x3c8dde3c	0.017317884
172	0xbe1c89a3	-0.15286879
173	0xbd8cb469	-0.06870348
174	0xbd7c5f00	-0.061614037
175	0x3e3e5cce	0.1859009
176	0xbddb1c66	-0.10698776
177	0x3e7997d9	0.24374332
178	0x3db2cd4d	0.08730564
179	0x3e363ecb	0.17797391
180	0xbe12d02a	-0.14337221
181	0x3d0d5a83	0.034510147
182	0xbd09980f	-0.03359228
183	0x3e689252	0.22712067
184	0xbe6bebe0	-0.23039198
185	0x3ebeb4e0	0.37247372
186	0xbe03ab7c	-0.12858385
187	0x3e6349bc	0.22196096
188	0x3d8a0463	0.06739118
189	0x3e6c4716	0.23073992
190	0xbab199b0	-0.0013549831
191	0x3db1ba3c	0.086780995
192	0x3e71df1c	0.23620266
193	0xbe683cd9	-0.22679462
194	0x3c154c18	0.00911238
195	0xbe6b662b	-0.22988193
196	0xbf2806fd	-0.65635663
197	0x3d720657	0.059088077
198	0x3d9df826	0.07713346
199	0xbe4c03f6	-0.19923386
200	0xbd825b81	-0.06365109
201	0xbea644c8	-0.3247435
202	0x3e2731d1	0.16327597
203	0x3d0ca29b	0.03433476
204	0x3eb49d79	0.35276392
205	0x3e429698	0.1900276
206	0xbe3eedfd	-0.18645473
207	0xbd542a55	-0.051798183
208	0xbe387107	-0.18011867
209	0xbec6b8eb	-0.38812956
210	0xbe97750d	-0.2958149
211	0x3dd4e147	0.10394531
212	0x3dfcc2c5	0.12341837
213	0x3eb1e403	0.34744272
214	0xbdd05c39	-0.1017384
215	0x3d75089f	0.059822675
216	0x3e1efe1c	0.15526623
217	0xbde9b246	-0.11410956
218	0x3dc5344d	0.09629116
219	0xbe670254	-0.22559482
220	0x3f0d6e4d	0.5524643
221	0x3e0ab528	0.13545668
222	0x3e98ddbc	0.2985667
223	0xbc57da22	-0.0131745655
224	0x3e19d6c2	0.1502333
225	0x3e92decd	0.28685609
226	0xbe8e1294	-0.2774855
227	0x3de1fe0e	0.11034785
228	0x3dcae626	0.099071786
229	0xbe4d57b9	-0.20052995
230	0x3e9c02fb	0.30471024
231	0x3e126f34	0.14300233
232	0x3ebf27cb	0.37335047
233	0xbea20ff4	-0.31652796
234	0xbe1e73c9	-0.15473856
235	0xbd036af6	-0.032084428
236	0x3e8042fd	0.25051108
237	0xbc12aa8c	-0.008951794
238	0xbf212b24	-0.6295645
239	0xbdffe094	-0.12494007
240	0x3dd24aa2	0.10268141
241	0xbe143440	-0.14473057
242	0xbe483730	-0.19552302
243	0xbe83b802	-0.25726324
244	0x3e2f0029	0.17089905
245	0xbc8ea296	-0.017411511
246	0xbc5d46d8	-0.01350566
247	0x3e8b77f4	0.27239954
248	0xbe7bbbce	-0.2458336
249	0x3dccf155	0.10006968
250	0x3ece7e1d	0.40330592
251	0xbdae7411	-0.08518232
252	0x3dd8a1b0	0.105777144
253	0x3d4900ec	0.049073145
254	0x3ec72f5c	0.3890332
255	0x3e1adc49	0.15123095

encoder_variable_selection.flattened_grn.fc1.bias f4 [8]
0	0xbe34aa23	-0.17643027
1	0x3e02fa41	0.12790777
2	0xbe1bae85	-0.15203293
3	0x3e24130a	0.16022888
4	0xbe22024c	-0.15821189
5	0x3e052bca	0.13004985
6	0x3cd846c9	0.02640094
7	0x3d99ff73	0.07519426

encoder_variable_selection.flattened_grn.context.weight f4 [8, 16]
0	0x3ef2ab5c	0.47396362
1	0xbd4139e6	-0.047174357
2	0x3f179ff0	0.5922842
3	0xbebca2d7	-0.36842987
4	0xbcde88be	-0.027164813
5	0x3e80ef60	0.2518263
6	0xbe1c82e2	-0.15284303
7	0xbe5ff533	-0.2187088
8	0x3f048a51	0.51773554
9	0x3e898471	0.26858857
10	0xbe32192a	-0.17392412
11	0xbe8e030f	-0.2773671
12	0xbeafbd98	-0.34324336
13	0xbe196ddb	-0.14983313
14	0x3e0cfde0	0.1376872
15	0xbf1e71ba	-0.6189228
16	0xbeebb610	-0.4603734
17	0xbe8ed374	-0.278957
18	0xbda63921	-0.08116365
19	0x3e19c4cb	0.15016477
20	0x3881bfc0	6.1869156e-05
21	0xbd031ce0	-0.03200996
22	0xbe99393a	-0.29926473
23	0x3cd0152e	0.025400724
24	0x3d098fae	0.03358429
25	0xbdab7332	-0.08371581
26	0x3e95cba6	0.29256934
27	0xbdc0f147	-0.0942102
28	0x3f0ec0de	0.5576304
29	0xbe75db9c	-0.24009556
30	0x3e85968e	0.26091427
31	0xbe869bd5	-0.26290765
32	0xbeabe7aa	-0.33575183
33	0x3e82ba70	0.25532866
34	0xbebcb36a	-0.36855632
35	0xbd8b8574	-0.068125635
36	0x3f09ce85	0.5383075
37	0xbe8eff48	-0.2792914
38	0xbddb37be	-0.10703991
39	0x3c6e87b8	0.014558725
40	0x3e9af6c1	0.30266383
41	0xbed7cd6e	-0.42148918
42	0x3e51deee	0.20495197
43	0x3e7ef405	0.24897774
44	0xbf0f3991	-0.55947214
45	0xbdaaf420	-0.083473444
46	0xbcb3f9ae	-0.021969642
47	0x3dbe1179	0.092806764
48	0xbe2e9495	-0.17048867
49	0x3f0699c3	0.5257837
50	0xbe14469c	-0.1448006
51	0xbee48e30	-0.4463973
52	0x3eb8a1e6	0.3606102
53	0x3ebd53e2	0.3697806
54	0x3eaf4459	0.34231833
55	0x3f050eae	0.51975524
56	0xbeb0e21d	-0.3454751
57	0xbe7be092	-0.24597386
58	0xbe22a165	-0.1588188
59	0x3e9a5c1a	0.30148393
60	0x3ec5c8a3	0.38629636
61	0x3d897180	0.067111015
62	0xbf0202b3	-0.5078537
63	0x3ed11fab	0.40844473
64	0xbe67670b	-0.22597902
65	0x3d2f1dc4	0.042752996
66	0xbd84bd53	-0.06481423
67	0x3f09f317	0.5388655
68	0xbe9bbf21	-0.30419257
69	0xbe272060	-0.16320944
70	0xbcd30a30	-0.025761694
71	0xbf0f2929	-0.5592218
72	0x3c8c580a	0.017131824
73	0xbe7c1780	-0.2461834
74	0xbe88a9c2	-0.26692015
75	0xbe840cba	-0.2579096
76	0xbea3b8d1	-0.3197694
77	0x3e94ea04	0.2908479
78	0xbeb89b32	-0.36055905
79	0x3ebe14cc	0.37125242
80	0x3ea9b63c	0.33146846
81	0x3e652e6d	0.22380991
82	0x3dcb67aa	0.09931882
83	0x3df83d77	0.121210985
84	0x3e77be9f	0.2419381
85	0xbd137dd5	-0.036008675
86	0x3ec8643b	0.3913897
87	0xbdd22d9a	-0.10262604
88	0xbe36de5e	-0.17858264
89	0x3eb28e14	0.34874022
90	0xbe0e853b	-0.13918011
91	0x3e2857bc	0.16439718
92	0x3e475bac	0.19468564
93	0xbe8a974a	-0.2706855
94	0x3eaf2318	0.34206462
95	0xbe5ff503	-0.21870808
96	0x3ede1fa8	0.43383527
97	0xbe04bd14	-0.12962753
98	0x3ed7b9b0	0.42133856
99	0x3e751637	0.23934256
100	0x3ed9c161	0.4253035
101	0xbd2cd80c	-0.042198226
102	0xbef822f5	-0.4846417
103	0xbe8ecc06	-0.27890033
104	0x3ed873ca	0.4227584
105	0xbeececd8	-0.46274447
106	0x3e2e284b	0.17007558
107	0xbc9e1678	-0.019297823
108	0x3e50d0d5	0.20392163
109	0xbce22025	-0.027603218
110	0xbcf4acae	-0.029867496
111	0x3cb7e040	0.022445798
112	0xbe195d00	-0.14976883
113	0xbed9e79c	-0.42559516
114	0x3e239aeb	0.15977065
115	0xbd9a0d42	-0.0752206
116	0x3e9ea80f	0.30987594
117	0xbef186d3	-0.47173175
118	0xbc5960f4	-0.013267744
119	0x3dac611b	0.08416959
120	0x3ed2a391	0.41140416
121	0xbe90684c	-0.28204572
122	0x3d0c2596	0.034215532
123	0x3e67b942	0.22629264
124	0xbd49384a	-0.049125947
125	0xbd0cc7b0	-0.034370124
126	0xbecbab6e	-0.39779228
127	0x3eabf511	0.33585408

encoder_variable_selection.flattened_grn.fc2.weight f4 [8, 8]
0	0xbf7b50e8	-0.9817033
1	0xbd2d1dd3	-0.04226477
2	0x3cb2515a	0.021767307
3	0x3f768902	0.9630281
4	0xbe8bcbea	-0.27304012
5	0x3effb6e6	0.49944228
6	0x3dcc6fe4	0.09982279
7	0xbe1d6b2e	-0.15372917
8	0x3f4532ee	0.7703084
9	0xbe7117e4	-0.2354427
10	0xbf4c9eec	-0.79929996
11	0x3e4f1000	0.20220947
12	0x3db4bd95	0.088252224
13	0x3eb00de0	0.34385586
14	0x3f546471	0.8296576
15	0x3f1a5d4e	0.6029862
16	0xbe9ded9d	-0.30845347
17	0x3d3a8786	0.0455394
18	0x3c564b97	0.013079545
19	0x3f16394c	0.5868118
20	0xbec96134	-0.39331973
21	0x3e4e9bd9	0.20176639
22	0xbe5c4c8e	-0.21513578
23	0x3f55686d	0.83362466
24	0xbe508a2c	-0.20365208
25	0x3f1637d5	0.5867894
26	0xbf1396d7	-0.5765204
27	0xbe80be27	-0.25145075
28	0xbe261430	-0.16218638
29	0x3f93cc9f	1.154682
30	0xbf07a3fa	-0.52984583
31	0x3f25b7af	0.64733404
32	0xbee538be	-0.44769853
33	0x3f6558a6	0.8958839
34	0x3ec469c2	0.38361937
35	0xbf1df7bb	-0.6170613
36	0xbde7121e	-0.112827525
37	0xbf1f2475	-0.62165004
38	0x3e1208d4	0.1426118
39	0xbe02190a	-0.12704864
40	0x3e9f1366	0.31069487
41	0x3eb8ce4c	0.36094892
42	0x3d20e6f2	0.039282747
43	0xbd870946	-0.06593566
44	0xbea7c6b3	-0.32768783
45	0x3f349d46	0.7055248
46	0x3ddc73d8	0.10764283
47	0xbe6982d8	-0.22803819
48	0x3e43fdc4	0.19139773
49	0xbe91dcc2	-0.28488737
50	0xbe22c574	-0.15895635
51	0x3e481e5c	0.19542831
52	0x3ed912e6	0.4239723
53	0xbe8cb94b	-0.27485117
54	0xbf1f5b51	-0.6224871
55	0xbeacaffb	-0.33728012
56	0xbf366a74	-0.71256185
57	0x3d1500b6	0.03637763
58	0xbf915b07	-1.1355904
59	0x3ee47279	0.44618586
60	0x3e0cdfa8	0.13757193
61	0x3d5eaef2	0.05436606
62	0xbf163010	-0.5866709
63	0x3ec27f49	0.37987736

encoder_variable_selection.flattened_grn.fc2.bias f4 [8]
0	0x3da58e71	0.08083809
1	0xbddb65e1	-0.10712791
2	0xbddccf5d	-0.10781739
3	0x3d9d2fd6	0.076751396
4	0xbe093b0a	-0.13401428
5	0x3b35f640	0.0027765185
6	0xbe37f9ad	-0.17966338
7	0x3e37dbf9	0.17955007

encoder_variable_selection.flattened_grn.gate_norm.glu.fc.weight f4 [16, 8]
0	0xbed717b8	-0.42010283
1	0xbe822b10	-0.2542348
2	0x3e927969	0.28608254
3	0xbe768fc1	-0.24078275
4	0xbea51a34	-0.32246554
5	0xbeb8cc36	-0.360933
6	0x3973e4e8	0.0002325956
7	0xbbbbe035	-0.0057335147
8	0x3e163307	0.14667903
9	0xbd1766ef	-0.0369634
10	0x3e9a39ed	0.3012232
11	0x3f05f2b3	0.52323455
12	0x3de2179b	0.11039659
13	0xbf17ac1c	-0.59246993
14	0x3d9c815c	0.07641861
15	0x3d89a96e	0.06721769
16	0xbcbc1200	-0.022957802
17	0x3ea0fd98	0.31443477
18	0xbdd3978f	-0.10331642
19	0xbefcb6ef	-0.49358317
20	0xbd947b77	-0.072501116
21	0x3e7a3614	0.24434692
22	0xbe1b3add	-0.15159173
23	0xbf28b3de	-0.65899456
24	0x3f1f2191	0.62160593
25	0xbe679d81	-0.22618677
26	0x3e2dd6ed	0.16976519
27	0x3e2c27d5	0.1681207
28	0xbe57d737	-0.21078192
29	0xbc9c0bf1	-0.019048663
30	0xbe8fead5	-0.2810885
31	0x3d207a52	0.039179154
32	0x3d94e442	0.07270099
33	0x3ecf6503	0.40506753
34	0x3e2c1b92	0.16807392
35	0xbda4ac4f	-0.08040678
36	0xbf090153	-0.53517646
37	0xbe3d7a13	-0.18503599
38	0xbd1b5257	-0.037920322
39	0x3ed2b61c	0.41154563
40	0x3e8e3453	0.27774295
41	0x3e9462c4	0.28981602
42	0xbe3f6ea1	-0.18694545
43	0xbee7c1b9	-0.45264986
44	0x3ec5a7bd	0.38604537
45	0xbede107e	-0.43371958
46	0x3ec6b9d1	0.38813642
47	0xbe34a8f6	-0.17642578
48	0xbf1adcf6	-0.6049341
49	0x3d3fa579	0.046788666
50	0x3ea25a8f	0.31709716
51	0x3f228c22	0.63495076
52	0xbd69a90e	-0.05704599
53	0x3dd00bf8	0.10158533
54	0x3e639659	0.22225322
55	0x3e0f93dd	0.14021249
56	0xbe7c2b23	-0.2462583
57	0x3e63d8e1	0.22250701
58	0x3e5a071e	0.21291777
59	0xbf211b8b	-0.6293265
60	0x3d00c6f4	0.031439736
61	0xbd3ba65a	-0.045812942
62	0xbeae779e	-0.34075636
63	0xbe7d92b5	-0.24762996
64	0xbe1371e6	-0.14398918
65	0xbdd2d465	-0.10294417
66	0xbe6da20e	-0.2320635
67	0x3e90f38e	0.28310817
68	0x3e89c840	0.2691059
69	0xbd4fd8f2	-0.050744005
70	0x3df427be	0.11921643
71	0x3eb8ba0e	0.36079448
72	0xbf020d7d	-0.5080183
73	0x3e917d68	0.2841599
74	0x3d4d98ae	0.050194435
75	0xbe1c9127	-0.15289746
76	0x3ea51fd7	0.32250854
77	0xbef55f96	-0.4792449
78	0xba039170	-0.00050189253
79	0x3cce3d4a	0.02517571
80	0xbee02101	-0.4377518
81	0xbee34b80	-0.4439354
82	0xbdc64459	-0.09681005
83	0xbefc7c8a	-0.49313766
84	0x3ee75c6a	0.45187694
85	0x3da24416	0.079231426
86	0xbdeb5609	-0.11491019
87	0x3e87f09a	0.26550752
88	0x3f0b4710	0.5440531
89	0xbec2c624	-0.38041794
90	0x3ef36bf8	0.4754331
91	0x3dec3546	0.115335986
92	0x3e99e7a1	0.3005953
93	0x3d878b3c	0.06618354
94	0xbc7b499e	-0.015337376
95	0x3e881543	0.2657872
96	0x3ea9d0de	0.33167166
97	0x3e2036c9	0.15645899
98	0xbf0aa42f	-0.54156774
99	0x3dc19ee7	0.09454136
100	0xbc40c346	-0.011765307
101	0x3eec7a51	0.4618707
102	0xbf19121b	-0.5979325
103	0x3e066271	0.1312349
104	0xbeea4063	-0.45752248
105	0xbe8d61b7	-0.27613613
106	0xbeeca683	-0.46220788
107	0xbd68beff	-0.056822773
108	0xbd850098	-0.06494254
109	0x3ebdef61	0.37096694
110	0x3dbc68a7	0.09199648
111	0xbdd568a4	-0.10420349
112	0xbe79290a	-0.24332061
113	0xbf114fc0	-0.56762314
114	0xbe9f5f77	-0.3112752
115	0xbd3a89a4	-0.04554142
116	0x3e62492c	0.22098225
117	0x3ecec787	0.40386602
118	0xbecc98f0	-0.39960432
119	0xbf181498	-0.59406424
120	0xbe4ea903	-0.2018166
121	0xbeb085ec	-0.34477174
122	0xbe2db5a9	-0.16963829
123	0x3e27911c	0.16363949
124	0x3ec610c2	0.3868466
125	0x3e7e6636	0.24843678
126	0xbe9590cc	-0.29212034
127	0x3dc7348e	0.09726821

encoder_variable_selection.flattened_grn.gate_norm.glu.fc.bias f4 [16]
0	0x3ba5ccb9	0.0050598052
1	0xbdf3fd45	-0.11913542
2	0x3e10ecb8	0.14152801
3	0x3e16c2d4	0.14722759
4	0x3c700d99	0.014651679
5	0xbe308dc8	-0.17241585
6	0xbd4eb8de	-0.05046927
7	0x3ce6a382	0.028154138
8	0xbd09bbe4	-0.033626452
9	0xbc979c71	-0.018507214
10	0x3e1a9af8	0.15098178
11	0x3d9b0035	0.07568399
12	0xbd5bc5c6	-0.05365541
13	0x3c76a3a7	0.015053666
14	0x3c7de267	0.015495873
15	0xbda50b85	-0.08058838

encoder_variable_selection.flattened_grn.gate_norm.add_norm.norm.weight f4 [8]
0	0x3f7835d2	0.96957123
1	0x3f7dd8aa	0.9915873
2	0x3f8e71e9	1.1128513
3	0x3f8069a6	1.0032241
4	0x3f8eb687	1.1149453
5	0x3f6a3d36	0.9149965
6	0x3f790d62	0.97286046
7	0x3f6250ac	0.88404346

encoder_variable_selection.flattened_grn.gate_norm.add_norm.norm.bias f4 [8]
0	0x3dcb853d	0.099375226
1	0xbe0fc3b9	-0.14039506
2	0x3dcbde6d	0.09954534
3	0x3e162e56	0.14666113
4	0xbd644596	-0.055730425
5	0xbe08caed	-0.1335866
6	0xbd8c891e	-0.068620905
7	0xbdae682f	-0.08515965

encoder_variable_selection.single_variable_grns.time_idx.resample_norm.mask f4 [16]
0	0x3dce31f9	0.10068125
1	0x3d24fcee	0.040280275
2	0x3cb66df3	0.022269225
3	0xbd623e2a	-0.055235066
4	0xbe29d9a2	-0.16586927
5	0x3e28d3f5	0.16487105
6	0x3a8200c8	0.0009918446
7	0xbe337896	-0.17526469
8	0xbe1f6f2f	-0.15569757
9	0xbdc52fb0	-0.09628236
10	0xbc90c433	-0.01767168
11	0x3b984bf9	0.0046477285
12	0xbde89e8e	-0.11358367
13	0x3c8eefe1	0.017448368
14	0x3e20da3b	0.15708248
15	0x3e2026dd	0.15639825

encoder_variable_selection.single_variable_grns.time_idx.resample_norm.norm.weight f4 [16]
0	0x3f800580	1.0001678
1	0x3f89eccb	1.0775388
2	0x3f858f9d	1.0434452
3	0x3f8035ad	1.001638
4	0x3f54075d	0.82823735
5	0x3f953030	1.1655331
6	0x3f7dc41b	0.9912736
7	0x3f542669	0.8287111
8	0x3f587e76	0.84567964
9	0x3f69aa08	0.9127507
10	0x3f69f79c	0.91393447
11	0x3f7ad328	0.9797845
12	0x3f5fccbb	0.8742177
13	0x3f7e51ae	0.99343383
14	0x3f8a16b9	1.0788184
15	0x3f935e76	1.1513202

encoder_variable_selection.single_variable_grns.time_idx.resample_norm.norm.bias f4 [16]
0	0xbde19fbc	-0.11016795
1	0x3b815548	0.003946934
2	0x3e324772	0.17410067
3	0x3d9c7c66	0.076409146
4	0x3d9d5b43	0.076834224
5	0xbd69818b	-0.057008307
6	0xbdafed48	-0.0859018
7	0x3d8befb0	0.06832826
8	0x3db0c7aa	0.08631833
9	0x3d95a7e4	0.07307413
10	0xbe227a67	-0.15867005
11	0xbe1ef96a	-0.15524831
12	0xbc8a14f8	-0.016855702
13	0xbdea40ba	-0.11438127
14	0x3d0e04b8	0.03467247
15	0xbd3831a0	-0.0449692

encoder_variable_selection.single_variable_grns.time_idx.fc1.weight f4 [8, 8]
0	0x3de9f10c	0.11422929
1	0xbee1013e	-0.4394626
2	0x3edb7354	0.42861426
3	0xbec8b10b	-0.39197573
4	0xbe296a70	-0.16544509
5	0xbec216c2	-0.37907988
6	0xbd867ed6	-0.06567161
7	0x3f8c17c4	1.0944753
8	0xbf0e2d51	-0.555379
9	0xbeb1fc87	-0.34762976
10	0xbe2f569a	-0.1712288
11	0x3f789c24	0.9711325
12	0xbf747b4e	-0.9550065
13	0xbde93fb8	-0.113891065
14	0xbeca2b32	-0.3948608
15	0xbed62ffc	-0.41833484
16	0x3f37ce2e	0.7179898
17	0x3eae1f6f	0.34008357
18	0x3ef7fa08	0.48432946
19	0xbf26bb4b	-0.65129536
20	0x3f056b17	0.5211653
21	0x3edc2472	0.42996556
22	0x3e6fc2dd	0.23414178
23	0x3ec0c18d	0.37647668
24	0x3d80f212	0.06296171
25	0x3f47e199	0.7807861
26	0xbdd7c640	-0.1053586
27	0xbeadb587	-0.33927557
28	0xbeb56346	-0.35427302
29	0x3f041697	0.5159697
30	0xbdf1e5e2	-0.11811425
31	0x3f550e3d	0.8322485
32	0x3cf06266	0.029343795
33	0x3dbbb5ec	0.09165558
34	0xbd6f5bfe	-0.05843734
35	0x3d6f7f00	0.058470726
36	0x3e5c444f	0.21510433
37	0xbf997e15	-1.1991602
38	0x3e8e4a0b	0.27790865
39	0x3ef85dac	0.48508966
40	0x3d4feb86	0.050761722
41	0xbe0e4d6c	-0.13896722
42	0x3cef4f89	0.02921273
43	0xbf7e321b	-0.99295205
44	0x3eb78af7	0.3584821
45	0xbedd8d8c	-0.43272054
46	0x3ef9c947	0.48786375
47	0x3f03194a	0.51210463
48	0x3e37f433	0.17964248
49	0xbe1a6d67	-0.15080796
50	0xbea925cb	-0.33036646
51	0x3f4484ea	0.7676531
52	0xbe817ab6	-0.25288934
53	0x3da0e3bb	0.07855936
54	0x3f19e360	0.6011257
55	0x3fbc7711	1.4723836
56	0xbead5ed8	-0.33861423
57	0xbd0dfa45	-0.034662504
58	0x3eb19472	0.34683567
59	0x3ea6e4f1	0.32596543
60	0xbec7a1d5	-0.38990656
61	0x3eb1d6eb	0.34734282
62	0x3fa58912	1.2932456
63	0xbe2663c2	-0.16248992

encoder_variable_selection.single_variable_grns.time_idx.fc1.bias f4 [8]
0	0xbd42aa01	-0.04752541
1	0xbe1e66e4	-0.15468937
2	0xbca7ef68	-0.0204999
3	0x3e1e051d	0.15431638
4	0xbd13df5c	-0.036101684
5	0xbd824aca	-0.06361921
6	0xbbfa1b8f	-0.00763268
7	0x3e1ccda3	0.15312819

encoder_variable_selection.single_variable_grns.time_idx.fc2.weight f4 [8, 8]
0	0x3d8a90cb	0.06765898
1	0x3f4d2983	0.80141467
2	0x3e56d789	0.20980658
3	0xbf6fae14	-0.93625
4	0x3ee84ca9	0.45370987
5	0xbdbf2550	-0.09333289
6	0xbe88d1b5	-0.26722494
7	0xbf2250bd	-0.63404447
8	0xbe92e32d	-0.28688946
9	0x3eed4609	0.46342495
10	0x3d437118	0.047715276
11	0xbe376bd5	-0.17912228
12	0xbf632c41	-0.887394
13	0x3da60aa7	0.081075005
14	0xbe578608	-0.21047223
15	0x3f0f76b2	0.5604049
16	0xbed0859e	-0.40726942
17	0x3f2d08e7	0.6759171
18	0x3d81de2b	0.06341203
19	0x3e29b641	0.1657343
20	0x3dc96c61	0.09835125
21	0xbe343d09	-0.17601408
22	0xbf37abd1	-0.71746546
23	0xbef74e63	-0.48301992
24	0xbe62afa5	-0.22137316
25	0x3e3a072a	0.18166795
26	0xbdf273cb	-0.11838492
27	0x3ed0685e	0.40704626
28	0x3f30a1f7	0.6899714
29	0x3f438c8a	0.7638632
30	0x3ea3147a	0.3185156
31	0x3ea595f8	0.3234098
32	0xbe923464	-0.28555596
33	0xbf4e2e63	-0.8053953
34	0x3e9f21de	0.31080526
35	0xbdf67e1d	-0.12035773
36	0x3f3d6ecc	0.7399719
37	0xbeb109a1	-0.3457766
38	0xbf56ff28	-0.8398309
39	0x3e17742e	0.14790413
40	0xbe956d6c	-0.29185045
41	0x3d04d1c7	0.03242662
42	0x3ebd63ba	0.36990148
43	0x3f2fbbbb	0.6864583
44	0x3eacd61f	0.3375711
45	0xbebb5a01	-0.36592105
46	0xbda30641	-0.07960177
47	0x3f5cb982	0.8622056
48	0x3ea6095b	0.32429013
49	0x3ed50585	0.41605774
50	0xbe345e4c	-0.17614096
51	0x3e98ef57	0.29870102
52	0x3efd1804	0.49432385
53	0xbf3ac668	-0.72958994
54	0xbd02f6bc	-0.031973585
55	0xbdccf694	-0.100079685
56	0x3e1e11fd	0.1543655
57	0xbec99a4a	-0.39375526
58	0xbd691bc2	-0.056911238
59	0x3df406d8	0.11915368
60	0x3ec45289	0.3834422
61	0xbd853913	-0.06505027
62	0xbde5fc95	-0.11229817
63	0x3eaad7b2	0.33367687

encoder_variable_selection.single_variable_grns.time_idx.fc2.bias f4 [8]
0	0xbda4f164	-0.08053854
1	0xbd223d30	-0.039609134
2	0xbd87b751	-0.06626762
3	0x3c83bc48	0.01608099
4	0xbc7d4da7	-0.015460408
5	0x3e209653	0.15682344
6	0xbd3794c7	-0.04481962
7	0x3ddfd7ec	0.10929856

encoder_variable_selection.single_variable_grns.time_idx.gate_norm.glu.fc.weight f4 [32, 8]
0	0xbe0a60d9	-0.13513507
1	0x3eee0e9e	0.46495527
2	0x3eca6593	0.3953062
3	0xbe869ac0	-0.2628994
4	0x3eb1ef06	0.34752673
5	0x3ebd0980	0.3692131
6	0x3d984c51	0.07436431
7	0x3ed4416e	0.4145617
8	0xbee48934	-0.44635928
9	0xbe4a68a0	-0.19766474
10	0x3e7ad350	0.24494672
11	0xbe8c856c	-0.27445543
12	0x3ea9d63c	0.3317126
13	0x3dac9196	0.08426206
14	0xbe935f6a	-0.28783733
15	0x3e56d5f9	0.20980062
16	0xbe9ed363	-0.3102065
17	0xbd6dcead	-0.05805843
18	0xbee8528d	-0.4537548
19	0x3ec55f44	0.38549244
20	0xbe81a949	-0.25324467
21	0x3e54532d	0.20734854
22	0x3eb89745	0.3605291
23	0x3e74b25e	0.23896167
24	0xbe883e3e	-0.26609987
25	0x3dc0b03a	0.094086125
26	0xbe4d8358	-0.20069635
27	0x3e3e1c22	0.1856542
28	0x3e968be7	0.29403612
29	0x3e90e9d1	0.28303388
30	0x3e8cc48d	0.27493706
31	0x3df1ca98	0.1180622
32	0xbdde8459	-0.10865087
33	0x3eb8be9e	0.3608293
34	0x3d72225d	0.059114803
35	0x3ec2b8fe	0.38031763
36	0xbd90b840	-0.07066393
37	0x3eb34050	0.35010004
38	0xbeee6e0c	-0.46568334
39	0xbe1c0959	-0.15237941
40	0x3eeed69b	0.46648106
41	0xbe53509b	-0.20636217
42	0x3e6e79c7	0.23288642
43	0xbebdbf9d	-0.37060252
44	0xbddcb012	-0.1077577
45	0xbdf889cc	-0.12135658
46	0x3ebc489a	0.3677414
47	0x3d406ef2	0.046980806
48	0xbea22f14	-0.31676543
49	0xbe80b63e	-0.2513904
50	0x3e7cd050	0.2468884
51	0xbb66da78	-0.0035225432
52	0x3e5e31ec	0.21698731
53	0xbe935178	-0.28773093
54	0x3e2a46ba	0.16628543
55	0x3b8ee54e	0.0043608313
56	0xbeec48f2	-0.46149403
57	0x3e6e956d	0.23299189
58	0xbd976717	-0.0739271
59	0x3eb875ab	0.36027274
60	0xbeca30a3	-0.39490232
61	0x3eee4f47	0.4654486
62	0x3dab359a	0.08359833
63	0x3ece6e93	0.40318736
64	0xbebc1dff	-0.36741635
65	0xbd82c052	-0.063843384
66	0x3b7c471c	0.0038494533
67	0x3e54282a	0.20718446
68	0x3eb0e378	0.34548545
69	0x3ee528da	0.4475773
70	0xbe9680e8	-0.29395223
71	0x3efc0aab	0.4922689
72	0x3e0c8337	0.1372193
73	0xbe7d6283	-0.2474461
74	0x3e882d28	0.2659695
75	0xbe8af746	-0.2714178
76	0xbe977e43	-0.29588518
77	0x3dc25271	0.09488381
78	0x3e63a9e1	0.22232772
79	0x3e78f764	0.24313122
80	0xbe29d1b1	-0.16583897
81	0xbd7a328c	-0.06108336
82	0xbdfdfc79	-0.12401671
83	0xbdee1a07	-0.11626058
84	0x3e73ce6c	0.23809212
85	0xbea3fbe9	-0.3202813
86	0x3dae9a6f	0.085255496
87	0xbe499a1e	-0.19687697
88	0x3ed1c00e	0.4096684
89	0xbe983e78	-0.2973516
90	0x3d6346dc	0.0554875
91	0xbe488f80	-0.19585991
92	0xbe409130	-0.18805385
93	0xbd21a80d	-0.039466906
94	0xbeb08074	-0.34473002
95	0xbe3180d9	-0.17334308
96	0x3ef937fd	0.48675528
97	0x3ceb4711	0.02872041
98	0x3eb149ea	0.34626704
99	0x3eb59029	0.35461548
100	0x3e90118a	0.2813838
101	0xbe86730d	-0.26259652
102	0x3ec0d586	0.37662905
103	0xbeda31de	-0.4261617
104	0xbe915e11	-0.2839208
105	0xbd341dee	-0.043973856
106	0x3e6d385e	0.23166034
107	0x3e3a5da1	0.18199779
108	0x3c4a81ef	0.01236008
109	0x3df72e39	0.12069363
110	0xbcee95d4	-0.029124178
111	0x3b2546c2	0.0025219177
112	0x3da3a7e0	0.07991004
113	0x3e4ff14a	0.20306888
114	0xbe98caaf	-0.29842135
115	0xbe943105	-0.2894365
116	0xbe3bdfd6	-0.18347105
117	0x3d53d922	0.051720746
118	0x3d42ee2f	0.04759043
119	0x3e20dcd9	0.15709247
120	0x3ef0aff7	0.4700925
121	0xbe4ff48a	-0.20308128
122	0xbe82925b	-0.25502285
123	0xbd78ba98	-0.060724825
124	0xbed7426a	-0.42042857
125	0xbe968b98	-0.29403377
126	0x3f1293e4	0.57256913
127	0xbdcd1c44	-0.10015157
128	0x3e22cdd1	0.15898825
129	0x3def1ce5	0.11675433
130	0x3e587338	0.21137702
131	0x3d727c9e	0.059200875
132	0x3d18ae33	0.037275504
133	0xbea58fc0	-0.32336235
134	0x3e1201a3	0.14258437
135	0xbe246ac5	-0.16056354
136	0x3e329c48	0.17442429
137	0xbe8ea135	-0.27857366
138	0x3eacce28	0.33751035
139	0x3e26e138	0.16296852
140	0x3e6b67d3	0.22988825
141	0x3e20fedd	0.15722223
142	0xbe500dda	-0.20317784
143	0x3e057604	0.130333
144	0xbdf3ec7d	-0.11910341
145	0xbd2c2b35	-0.042033393
146	0x3e4a134e	0.19733927
147	0x3cc57510	0.024103671
148	0x3daaa9a4	0.08333138
149	0xbe080503	-0.13283162
150	0xbcf5c0b4	-0.029999115
151	0x3bcbc0ae	0.0062180376
152	0xbea935ce	-0.33048862
153	0x3d89a51b	0.067209445
154	0x3bb45cbe	0.00550422
155	0xbe1940ba	-0.14966097
156	0xbdbbd932	-0.09172286
157	0x3e96e433	0.29470977
158	0x3e34193f	0.17587756
159	0xbd7416c0	-0.05959201
160	0xbf07518d	-0.5285881
161	0x3d575874	0.05257459
162	0xbef7696c	-0.48322618
163	0xbe9586b8	-0.29204345
164	0x3ee90620	0.45512486
165	0x3d9e3795	0.07725445
166	0xbf00f9b3	-0.5038101
167	0xbc3089c8	-0.010775037
168	0xbd8c3cc8	-0.068475306
169	0xbcc09221	-0.02350718
170	0x3e59b9d3	0.21262293
171	0x3eed3813	0.46331844
172	0x3de05a1d	0.10954688
173	0x3ebe43ff	0.37161252
174	0x3e89a2dc	0.26882064
175	0x3e659792	0.224211
176	0x3ddcc0f4	0.107789904
177	0x3f002f09	0.5007177
178	0x3eb8512d	0.35999432
179	0xbd90c1a8	-0.07068187
180	0xbe50c742	-0.20388511
181	0x3e6df04f	0.23236202
182	0x3e507653	0.20357637
183	0x3e02e34a	0.12782016
184	0x3e1977c4	0.14987093
185	0xbe87235a	-0.2639416
186	0xbeb94fbc	-0.36193645
187	0x3e1bea11	0.15226008
188	0x3de212cc	0.110387415
189	0x3eada7bb	0.3391703
190	0x3e8b458f	0.27201506
191	0x3c625df7	0.013816348
192	0xbed7ecac	-0.42172754
193	0xbe74ea0c	-0.23917407
194	0xbe89c326	-0.269067
195	0x3e4263d3	0.18983392
196	0xbdbe2aef	-0.09285533
197	0xbe3c9b3b	-0.1841859
198	0x3e2fe6e6	0.17177925
199	0xbe8ac327	-0.27102014
200	0x3e43a5ff	0.19106291
201	0xbe4174f6	-0.18892273
202	0x3e9890fc	0.29798114
203	0x3def7318	0.11691874
204	0xbcc15586	-0.023600351
205	0x3ebc1a97	0.36739036
206	0xbdd095dd	-0.10184834
207	0xbde877b8	-0.113509595
208	0x3ec576db	0.38567242
209	0x3e5ba2c2	0.21448806
210	0x3ed51e2c	0.41624582
211	0x3e12789b	0.1430382
212	0xbe899762	-0.26873308
213	0xbec76e84	-0.38951504
214	0xbe66d06a	-0.22540441
215	0xbee75201	-0.45179752
216	0xbddba976	-0.107256815
217	0x3e2a8538	0.16652381
218	0xbd876d13	-0.06612601
219	0x3e122a8a	0.1427404
220	0x3ef5f9ba	0.4804209
221	0x3e0ef91f	0.1396222
222	0xbd3d8ad4	-0.046274975
223	0x3e7d5fbb	0.2474355
224	0xbea8ae60	-0.32945538
225	0xbecc7020	-0.39929295
226	0xbed8e233	-0.42360076
227	0x3ef73c2e	0.482881
228	0xbdab83b6	-0.08374731
229	0xbe744e3f	-0.23857974
230	0xbdd470be	-0.10373066
231	0x3bf11668	0.0073574074
232	0x3e371433	0.17878799
233	0xbed1ae57	-0.40953323
234	0x3ed22475	0.4104344
235	0x3e4a46cd	0.19753571
236	0x3e6be4aa	0.23036447
237	0x3ce83f88	0.028350607
238	0xbd81ecb6	-0.06343977
239	0x3e1b1327	0.15144025
240	0x3e9fde73	0.31224403
241	0x3ec57623	0.38566694
242	0x3eff98cc	0.49921262
243	0xbe90dc72	-0.28293186
244	0x3ecc3ca0	0.39890003
245	0x3eb81255	0.35951486
246	0xbea1f0ec	-0.3162912
247	0xbe192199	-0.14954223
248	0x3e68a4b0	0.22719073
249	0xbea8d8ec	-0.32977998
250	0xbed6518d	-0.41859093
251	0x3eb92cd4	0.36167014
252	0x3d21662d	0.039404083
253	0x3e088620	0.13332415
254	0xbe1ec198	-0.15503538
255	0xbe8f0e46	-0.27940577

encoder_variable_selection.single_variable_grns.time_idx.gate_norm.glu.fc.bias f4 [32]
0	0xbdd9227c	-0.106022805
1	0x3c73cdd2	0.014880614
2	0x3e39322a	0.18085542
3	0x3d9fea80	0.07808399
4	0x3dbbdf82	0.0917349
5	0xbd980c18	-0.07424182
6	0xbdd61831	-0.10453833
7	0x3db83d37	0.08996051
8	0x3dad89fc	0.08473584
9	0x3dac4cfe	0.084131226
10	0xbe2237bb	-0.15841572
11	0xbe1de305	-0.15418632
12	0xbc8ea927	-0.017414642
13	0xbdbc9429	-0.09207947
14	0x3d3e5c1f	0.046474572
15	0xbd5814de	-0.052754276
16	0x3e1f3b1d	0.15549894
17	0x390d9a70	0.0001350434
18	0x3da3b42f	0.07993352
19	0xbccba0ad	-0.02485689
20	0x3dbc2785	0.09187225
21	0x3e1d553d	0.15364547
22	0xbdaf1231	-0.085483916
23	0x3e3f35eb	0.18672912
24	0x3e164f09	0.14678587
25	0xbd9210a0	-0.07132077
26	0xbdc2067b	-0.09473892
27	0xbd0f646a	-0.03500787
28	0x3e17d203	0.14826207
29	0xbcac040a	-0.02099802
30	0xbe181a87	-0.1485387
31	0x3e358ed7	0.1773027

encoder_variable_selection.single_variable_grns.time_idx.gate_norm.add_norm.norm.weight f4 [16]
0	0x3f8bfa75	1.0935808
1	0x3f803613	1.0016502
2	0x3f888930	1.0666866
3	0x3f600333	0.8750488
4	0x3f51c678	0.81943464
5	0x3f969efc	1.1767268
6	0x3f80fa68	1.0076418
7	0x3f58493e	0.8448676
8	0x3f8cf764	1.1012998
9	0x3f5e8caa	0.86933386
10	0x3f719634	0.94369817
11	0x3f7eb016	0.99487436
12	0x3f6a9a29	0.9164148
13	0x3f808586	1.0040748
14	0x3f8372ea	1.0269444
15	0x3f9383c0	1.1524582

encoder_variable_selection.single_variable_grns.time_idx.gate_norm.add_norm.norm.bias f4 [16]
0	0xbdd297d0	-0.10282862
1	0xbb3c8cae	-0.0028770375
2	0x3e354409	0.17701735
3	0x3d9609cb	0.073260866
4	0x3d959d53	0.07305398
5	0xbd5a7a77	-0.053339448
6	0xbdea4fb7	-0.11440986
7	0x3d704fb1	0.05866975
8	0x3d9f34d2	0.077737466
9	0x3da9fc29	0.08300049
10	0xbe23fab5	-0.16013606
11	0xbe0b2001	-0.13586427
12	0xbb295d50	-0.0025842972
13	0xbd8d3ee1	-0.06896759
14	0x3cb7a7b8	0.022418842
15	0xbca2dcc6	-0.019880664

encoder_variable_selection.single_variable_grns.T2M.resample_norm.mask f4 [16]
0	0x3e1fb4c6	0.15596303
1	0xbe0d97ac	-0.1382739
2	0xbe2a0bb9	-0.16606034
3	0xbbaa18e9	-0.005190958
4	0xbe30cb93	-0.17265157
5	0x3da888dc	0.08229229
6	0x3dca57c6	0.09880023
7	0x3d83ccac	0.064355224
8	0xbd9af74c	-0.075666994
9	0x3dcb4e12	0.09927
10	0xbe0b0a74	-0.13578206
11	0xbdf370bc	-0.11886737
12	0xbc972de6	-0.018454503
13	0xbd836cf3	-0.06417265
14	0x3e2b8ff5	0.16754134
15	0xbdab3a72	-0.08360757

encoder_variable_selection.single_variable_grns.T2M.resample_norm.norm.weight f4 [16]
0	0x3f93f2d7	1.1558484
1	0x3f7c8bd4	0.9865086
2	0x3f5594c7	0.8343014
3	0x3f6d46a8	0.9268594
4	0x3f53fadb	0.8280465
5	0x3f8af281	1.0855256
6	0x3f9090c3	1.1294178
7	0x3f8b787e	1.0896146
8	0x3f6b90d9	0.92017895
9	0x3f8ad48d	1.0846115
10	0x3f548b30	0.83024883
11	0x3f64adef	0.893279
12	0x3f7c1251	0.9846545
13	0x3f6e39cf	0.9305696
14	0x3f8d9283	1.1060337
15	0x3f69d030	0.91333294

encoder_variable_selection.single_variable_grns.T2M.resample_norm.norm.bias f4 [16]
0	0xbe149067	-0.1450821
1	0xbb7a847e	-0.0038225944
2	0x3e27263e	0.16323182
3	0x3d91488c	0.07093915
4	0x3db9f3cf	0.09079706
5	0xbdafef88	-0.08590609
6	0xbdbbcbf8	-0.09169763
7	0x3dc0b79d	0.094100215
8	0x3da0950f	0.07840931
9	0x3d9787b4	0.0739893
10	0xbe316f8b	-0.17327707
11	0xbdea60a5	-0.11444215
12	0xbc681a1c	-0.014166381
13	0xbd792161	-0.06082285
14	0x3dcaa54c	0.09894809
15	0xbda473cd	-0.080299

encoder_variable_selection.single_variable_grns.T2M.fc1.weight f4 [8, 8]
0	0x3ec41416	0.38296574
1	0x3ec19570	0.37809324
2	0x3f508c59	0.81464154
3	0x3f81a9ea	1.0129979
4	0xbf49ba49	-0.78799874
5	0xbe301591	-0.17195727
6	0xbea9ac28	-0.33139157
7	0xbd2fd1f1	-0.042924825
8	0xbcbe28bf	-0.023212789
9	0x3eaad0a2	0.333623
10	0xbefb5e37	-0.49095318
11	0x3ef9c367	0.48781893
12	0x3e1f3401	0.15547182
13	0x3d7bbf17	0.061461534
14	0x3eff55d1	0.4987016
15	0xbe4f4edb	-0.20244925
16	0x3f162eed	0.58665353
17	0x3bcf5798	0.0063275807
18	0x3e8b72c4	0.27235997
19	0xbc707e9e	-0.014678625
20	0xbf764259	-0.9619499
21	0xbece9a42	-0.40352064
22	0xbeb6ad3a	-0.35679036
23	0xbe2598e9	-0.16171612
24	0x3f47c95d	0.7804163
25	0xbcb46d9c	-0.022024922
26	0xbeee803a	-0.46582204
27	0x3f4700e5	0.7773574
28	0x3ee0e50f	0.43924758
29	0xbf80a2a8	-1.0049639
30	0xbdc32e38	-0.095303
31	0x3e9cd436	0.30630654
32	0xbf0779b7	-0.529201
33	0x3e9773ba	0.2958048
34	0xbf1cca4d	-0.61246186
35	0xbf03597b	-0.5130841
36	0x3f2c9474	0.6741402
37	0xbfa77fdc	-1.3085895
38	0x3ef5ee90	0.4803357
39	0x3ee5492a	0.44782382
40	0x3f34a912	0.7057048
41	0x3dc0aa5c	0.094074935
42	0x3f19c2b3	0.6006271
43	0x3fa532c3	1.2906116
44	0x3f1bb7a7	0.60827106
45	0x3dbb3ca0	0.09142423
46	0xbead45c7	-0.33842298
47	0x3eabbec6	0.33543986
48	0x3d90ce04	0.07070544
49	0xbf33bfd7	-0.702146
50	0xbcedb890	-0.02901867
51	0xbf2f5c36	-0.6850008
52	0x3d49ae94	0.049238756
53	0xbece7be8	-0.40328908
54	0x3df08010	0.11743176
55	0xbe326a83	-0.17423443
56	0x3f00f1e3	0.5036909
57	0x3e7a9273	0.24469928
58	0x3df30da7	0.11867838
59	0x3df7ffee	0.121093616
60	0xbebaf135	-0.3651215
61	0x3d08835b	0.033328395
62	0x3f5d434b	0.86430806
63	0xbf72216d	-0.94582254

encoder_variable_selection.single_variable_grns.T2M.fc1.bias f4 [8]
0	0xbc7c23f7	-0.015389434
1	0xbe1046a6	-0.1408945
2	0xbde2277e	-0.11042689
3	0xbe0e46c9	-0.1389419
4	0x3d07b3f4	0.0331306
5	0xbca8f56e	-0.020624842
6	0x3dbc3c5a	0.09191199
7	0x3e10e949	0.14151491

encoder_variable_selection.single_variable_grns.T2M.fc2.weight f4 [8, 8]
0	0x3f84982b	1.0358938
1	0xbc6b3322	-0.014355453
2	0xbe19188c	-0.1495077
3	0xbdb80f2e	-0.0898727
4	0xbf72ad30	-0.94795513
5	0xbe5c8497	-0.21534954
6	0x3ecac602	0.39604193
7	0x3e460db9	0.19341172
8	0x3ef3c93f	0.47614476
9	0x3e3e9732	0.18612364
10	0xbd01092d	-0.03150289
11	0x3f21ad3d	0.63154966
12	0x3de17145	0.110079326
13	0xbec3abce	-0.38217014
14	0x3dcb6c1d	0.0993273
15	0xbfb5ba1e	-1.4197423
16	0xbe9d6e99	-0.30748442
17	0xbeb3722b	-0.3504804
18	0x3f6b9881	0.9202958
19	0xbf3f404c	-0.74707484
20	0x3f16ea3d	0.5895117
21	0xbc1bc8a5	-0.009508287
22	0xbf20397e	-0.62587726
23	0xbe0ce85d	-0.13760515
24	0x3e821781	0.25408557
25	0x3e683d90	0.22679734
26	0x3e98aba3	0.29818448
27	0x3f4999a3	0.78750056
28	0x3e1ac77a	0.15115157
29	0x3efcc35b	0.49367794
30	0xbe7ba374	-0.24574071
31	0xbed89b05	-0.4230577
32	0xbf50a576	-0.81502473
33	0x3e8f7755	0.2802073
34	0xbebbcb46	-0.36678523
35	0xbd79d545	-0.060994405
36	0x3ebb4625	0.36576954
37	0xbf791f53	-0.9731342
38	0x3bd4c6ec	0.00649344
39	0x3ebbac93	0.366551
40	0x3ede8240	0.43458748
41	0xbe59266a	-0.2120606
42	0xbf893d71	-1.0721875
43	0xbeeaffe0	-0.45898342
44	0x3f1641c4	0.586941
45	0xbd61ca06	-0.055124305
46	0x3ee9dbe9	0.4567559
47	0xbf061310	-0.5237284
48	0xbe98af6d	-0.2982134
49	0xbf8b625e	-1.0889394
50	0xbe0f27ae	-0.1397998
51	0xbdc98ddd	-0.098415114
52	0xbf37092e	-0.7149838
53	0x3f19d7c3	0.6009485
54	0x3e2aefc8	0.16693032
55	0x3eb35ab7	0.35030147
56	0x3e6640e6	0.22485694
57	0x3f433656	0.76254785
58	0x3e405595	0.18782647
59	0x3f1a9c77	0.60394996
60	0xbf1edeb3	-0.6205856
61	0xbc3d9331	-0.011570738
62	0xbea89b11	-0.32930806
63	0xbe9dcb05	-0.30818954

encoder_variable_selection.single_variable_grns.T2M.fc2.bias f4 [8]
0	0xbda99729	-0.08280785
1	0x3c4423f6	0.011971464
2	0x3da4cd92	0.08047022
3	0xbdc3877e	-0.095473275
4	0x3c9e2cfa	0.019308556
5	0x3d99a344	0.075018436
6	0x3cf68a70	0.030095309
7	0xbe0ac65a	-0.13552228

encoder_variable_selection.single_variable_grns.T2M.gate_norm.glu.fc.weight f4 [32, 8]
0	0x3e35489b	0.17703478
1	0xbefbe91e	-0.49201292
2	0xbe109fcd	-0.14123459
3	0x3e41d94b	0.18930547
4	0x3e5afe62	0.21386102
5	0xbce723e6	-0.02821536
6	0x3ef2891e	0.47370237
7	0x3d8d3362	0.06894566
8	0xbde357dd	-0.11100743
9	0xbebe63f2	-0.37185627
10	0x3d8eb240	0.06967592
11	0xbe3c55d3	-0.18392114
12	0xbe2ee2bf	-0.17078684
13	0x3ea414db	0.3204716
14	0x3e050d5a	0.12993374
15	0xbc1e7980	-0.009672523
16	0xbe7d22a6	-0.24720249
17	0x3e16e085	0.14734085
18	0x3e344b65	0.17606886
19	0xbd8f604c	-0.07000789
20	0x3ea1a652	0.31572205
21	0x3e28da16	0.16489443
22	0xbe1713dc	-0.1475367
23	0xbeb5e8d8	-0.35529208
24	0xbe8af992	-0.27143532
25	0x3eb572eb	0.35439238
26	0xbd7b249f	-0.06131422
27	0x3e155d31	0.14586331
28	0x3c1f35df	0.009717434
29	0xbd1f11b1	-0.03883523
30	0xbcbbe7c1	-0.022937657
31	0xbec32507	-0.38114187
32	0x3e6b43b4	0.22975045
33	0x3b84ffc8	0.004058812
34	0xbee93f25	-0.45555988
35	0xbe822a98	-0.2542312
36	0xbdfd8734	-0.123793036
37	0x3ec2fade	0.3808202
38	0x3e7ef27d	0.2489719
39	0xbec2cd73	-0.3804737
40	0x3edc2101	0.4299393
41	0x3dde5493	0.10855975
42	0xbb581330	-0.003297042
43	0xbdb36c2f	-0.08760869
44	0xbe8878db	-0.26654705
45	0xbd239bb1	-0.0399434
46	0xbe93c98f	-0.28864715
47	0x3d95d543	0.07316067
48	0x3ee048bc	0.43805492
49	0x3b547cfc	0.003242313
50	0x3ea5b72d	0.32366315
51	0x3ec22749	0.37920597
52	0xbeb7cd1e	-0.3589868
53	0x3ce91e34	0.028456785
54	0x3e0c7ffa	0.13720694
55	0x3e7e2360	0.24818182
56	0xbe74d97e	-0.23911092
57	0x3e89720c	0.26844823
58	0x3e8c0c13	0.27352962
59	0x3defb659	0.11704702
60	0x3ea4b4a6	0.32169074
61	0xbdf66cf8	-0.12032503
62	0xbccaf862	-0.024776641
63	0xbe8fdfc4	-0.28100407
64	0x3dba36db	0.09092494
65	0xbe949bea	-0.29025203
66	0x3dd1ec48	0.10250145
67	0xbed6dd4c	-0.4196571
68	0x3eef0cbe	0.4668941
69	0x3e6b96b3	0.23006706
70	0xbef7e299	-0.48415068
71	0xbefc2a9e	-0.49251264
72	0xbed2a32a	-0.4114011
73	0x3da8d58a	0.08243854
74	0xbe89cd3b	-0.2691439
75	0xbd94f6e0	-0.0727365
76	0x3e0e6362	0.13905099
77	0x3e808cfb	0.2510756
78	0x3e723581	0.23653223
79	0xbeb3e92e	-0.3513884
80	0x3d238474	0.03992124
81	0x3e38f043	0.18060403
82	0x3eb2bcdf	0.34909722
83	0x3f09d0eb	0.5383441
84	0x3da98ea9	0.082791634
85	0xbf0030c8	-0.50074434
86	0x3e29f351	0.16596724
87	0xbe624e9c	-0.221003
88	0x3e8c801a	0.27441484
89	0xbde0c380	-0.10974789
90	0x3e267fe5	0.16259725
91	0x3edeb674	0.43498576
92	0x3dc6d59e	0.09708713
93	0xbe08535c	-0.13313049
94	0x3e78154d	0.24226876
95	0x3e08ba07	0.13352214
96	0x3d79a8b5	0.060951907
97	0xbea39ee4	-0.3195716
98	0xbe3ca8c6	-0.18423757
99	0xbd05e6ab	-0.032690685
100	0xbec62f84	-0.38708127
101	0xbe60a5ed	-0.21938296
102	0xbcb731a2	-0.022362534
103	0x3d7bc63c	0.061468348
104	0x3eb7b422	0.35879618
105	0xbdaff3b9	-0.08591408
106	0xbcf88d40	-0.03034079
107	0x3e7e82a6	0.24854526
108	0x3e3261af	0.17420076
109	0x3e623e30	0.22094035
110	0xbe5303fb	-0.20606987
111	0x3ee660e4	0.44995797
112	0xbf0f8629	-0.5606409
113	0x3b19f6f0	0.0023493133
114	0xbefd4bba	-0.49471837
115	0x3def8d44	0.11696866
116	0xbdbd7676	-0.0925111
117	0x3cf16757	0.029468222
118	0x3e470e47	0.1943904
119	0xbedf38b8	-0.4359796
120	0xbda7ba88	-0.08189875
121	0xbe3908e2	-0.18069795
122	0x3de6aad0	0.11263049
123	0xbe34f88f	-0.17672943
124	0xbe913269	-0.28358772
125	0xbec7e973	-0.39045295
126	0x3de3f621	0.1113093
127	0x3e451760	0.19247198
128	0x3ede2d7f	0.43394086
129	0x3e2323c4	0.15931612
130	0x3ed7cf94	0.42150557
131	0x3ee5a0a8	0.44849133
132	0xbee75467	-0.4518158
133	0xbe9d8915	-0.30768648
134	0x3cf6e8be	0.030140277
135	0xbe5e0edd	-0.21685357
136	0x3e77ca67	0.24198304
137	0x3e558edd	0.2085528
138	0x3da3b228	0.07992965
139	0x3e0f7b2b	0.14011829
140	0x3e1f7a94	0.15574104
141	0x3e051c41	0.1299906
142	0x3c899e79	0.016799198
143	0xbe030772	-0.12795809
144	0xbe6b4386	-0.22974977
145	0x3eca382e	0.39495987
146	0x3be97f42	0.007125766
147	0xbbb4d7cc	-0.005518889
148	0x3f08918a	0.53347075
149	0xbe4ecba0	-0.20194864
150	0xbedf893a	-0.43659383
151	0xbeb0a402	-0.34500128
152	0x3e875454	0.26431525
153	0xbeb8a3af	-0.3606238
154	0xbe5385a0	-0.20656443
155	0x3e973fd9	0.295409
156	0xbea09f4d	-0.31371537
157	0x3e843bb1	0.2582679
158	0x3de092dd	0.10965512
159	0xbdddb1e3	-0.10824945
160	0xbe1a17f2	-0.15048197
161	0xbc6acce2	-0.014331074
162	0x3d48001e	0.048828237
163	0xbea9aed9	-0.3314121
164	0xbe066067	-0.13122712
165	0x3e9aa107	0.3020098
166	0x3d19bcf7	0.037533727
167	0xbd97b53c	-0.074076146
168	0x3db4c982	0.08827497
169	0xbebdd105	-0.37073532
170	0xbd9a917d	-0.07547281
171	0xbe3ee72e	-0.18642876
172	0xbede0f4b	-0.43371043
173	0xbec0cea2	-0.37657648
174	0x3e751478	0.2393359
175	0xbdf11e3b	-0.11773344
176	0xbd61d5ae	-0.05513542
177	0x3e00e4eb	0.12587325
178	0xbe657357	-0.2240728
179	0x3e95c398	0.2925079
180	0x3e6fb0f9	0.23407353
181	0x3ea8de84	0.32982266
182	0xbf056ee7	-0.5212235
183	0x3c34f678	0.011045091
184	0xbe89ae46	-0.26890773
185	0xbeb6feea	-0.3574136
186	0x3dfd6499	0.12372703
187	0x3c358be1	0.011080713
188	0x3e7536b3	0.23946647
189	0x3e594ed1	0.21221472
190	0x3e95bbcb	0.29244837
191	0x3e9333fd	0.287506
192	0xbd958bb5	-0.073020376
193	0x3efae91b	0.4900597
194	0x3e6ee3fc	0.23329157
195	0xbebe7604	-0.37199414
196	0xbdf1b4d1	-0.11802066
197	0x3d862e7d	0.06551836
198	0x3d914f04	0.07095149
199	0x3dbdc2a0	0.092656374
200	0x3e0d074a	0.13772312
201	0x3eb3779a	0.35052186
202	0x3e232d70	0.15935302
203	0xbd42a580	-0.047521114
204	0x3ee2312f	0.4417815
205	0x3edb3c59	0.4281948
206	0xbd5adae8	-0.05343142
207	0xbea4868d	-0.32133904
208	0xbeac8bf9	-0.3370054
209	0x3e9754e3	0.2955695
210	0x3e2a2615	0.1661609
211	0xbed3aed4	-0.4134432
212	0x3daaefac	0.08346495
213	0x3ecdef9f	0.4022188
214	0xbe78cbd6	-0.24296507
215	0xbeee5f49	-0.46557072
216	0xbe28977d	-0.16464038
217	0x3e1b2217	0.15149723
218	0xbd9063d7	-0.07050293
219	0xbe74c9bd	-0.23905082
220	0x3eb21b43	0.34786424
221	0x3e78bc49	0.24290575
222	0x3e8a1d61	0.2697554
223	0x3e52e319	0.20594443
224	0xbd8ace5f	-0.067776434
225	0xbe337d14	-0.17528182
226	0xbd9feb52	-0.07808556
227	0xbeb49031	-0.3526626
228	0xbe757f0a	-0.23974243
229	0x3e48066f	0.19533704
230	0x3d307555	0.043080647
231	0xbe70aef3	-0.23504238
232	0x3e083849	0.13302721
233	0x3d923407	0.0713883
234	0x3eae0b40	0.33992958
235	0x3dcc6f09	0.09982116
236	0xbe87e513	-0.26541957
237	0xbe5a57eb	-0.213226
238	0x3cc8e14a	0.024521489
239	0x3e7ebedc	0.24877495
240	0x3ebcc726	0.36870688
241	0x3e4968db	0.19668905
242	0x3dcb3113	0.099214695
243	0xbdc44e15	-0.095852055
244	0xbcf19623	-0.029490536
245	0x3e1c0b6f	0.15238737
246	0xbe1a1e17	-0.15050541
247	0x3e0a074f	0.1347935
248	0xbdfe91e6	-0.12430172
249	0x3ea75449	0.32681492
250	0xbe952520	-0.29129887
251	0x3e1dc314	0.15406448
252	0x3ea6968e	0.3253674
253	0x3e1892fa	0.14899817
254	0x3e4076a7	0.18795262
255	0x3ded10b2	0.1157545

encoder_variable_selection.single_variable_grns.T2M.gate_norm.glu.fc.bias f4 [32]
0	0xbe18e8e6	-0.14932594
1	0xbbfe2eb1	-0.007757031
2	0x3e27c1f7	0.16382585
3	0x3c346f21	0.011012823
4	0x3db6d62e	0.0892757
5	0xbdafc9ab	-0.08583387
6	0xbdbe124d	-0.09280834
7	0x3db22faa	0.087004974
8	0x3d9d5726	0.07682638
9	0x3d97e14d	0.074160196
10	0xbe32810a	-0.17432037
11	0xbde3a8d8	-0.11116189
12	0xbc71ae3b	-0.014751012
13	0xbd817a0e	-0.06322108
14	0x3dc5d980	0.096606255
15	0xbd9ca2e4	-0.076482564
16	0xbd2fb364	-0.04289569
17	0xbe4261ab	-0.1898257
18	0x3e250bab	0.16117732
19	0xbc81d3d3	-0.015848076
20	0xbca4f9fd	-0.020138735
21	0xbd93d495	-0.07218281
22	0x3dc1f49b	0.09470483
23	0xbdcd50ca	-0.10025175
24	0x3da5388e	0.080674276
25	0x3d87ce2a	0.066311195
26	0x3e0b9383	0.1363049
27	0x3dd12698	0.10212439
28	0x3bc153d6	0.0058998866
29	0xbdd96c57	-0.10616367
30	0xbd32f075	-0.04368635
31	0x3d9b1933	0.07573166

encoder_variable_selection.single_variable_grns.T2M.gate_norm.add_norm.norm.weight f4 [16]
0	0x3f87a0b3	1.0595917
1	0x3f6e5211	0.93093973
2	0x3f567958	0.83778906
3	0x3f6c29f1	0.922515
4	0x3f59fde8	0.85153055
5	0x3f8c2afe	1.095062
6	0x3f902b63	1.126324
7	0x3f8949a8	1.0725603
8	0x3f8b9356	1.0904338
9	0x3f8947d7	1.0725049
10	0x3f5655f5	0.8372491
11	0x3f61cd00	0.8820343
12	0x3f7b9b97	0.98284286
13	0x3f6c6b5d	0.92351323
14	0x3f93a744	1.153542
15	0x3f67d762	0.90563023

encoder_variable_selection.single_variable_grns.T2M.gate_norm.add_norm.norm.bias f4 [16]
0	0xbd3d04cb	-0.04614715
1	0x3c32d827	0.010915793
2	0x3e2342e3	0.15943484
3	0x3d926c3c	0.0714955
4	0x3db2be76	0.08727734
5	0xbdb4d1fe	-0.08829115
6	0xbdbc1a7b	-0.09184738
7	0x3dba68ae	0.09101997
8	0x3d9f35c2	0.07773925
9	0x3d9634a9	0.07334263
10	0xbe29484e	-0.16531488
11	0xbde9fa09	-0.114246435
12	0xbc7974df	-0.015225618
13	0xbd895e45	-0.067074336
14	0x3d9f2d99	0.07772369
15	0xbdb9e3df	-0.09076666

encoder_variable_selection.single_variable_grns.T2M_MAX.resample_norm.mask f4 [16]
0	0x3e1c2c9b	0.1525139
1	0xbd32484e	-0.043525986
2	0xbe3a7675	-0.1820925
3	0x3e0faded	0.14031191
4	0x3db921f8	0.09039682
5	0xbdc504c7	-0.09620052
6	0xbdf18cad	-0.1179441
7	0x3d1dd008	0.038528472
8	0x3db45807	0.088058524
9	0x3d6e3ba8	0.05816236
10	0xbe22101f	-0.15826462
11	0xbe007836	-0.12545857
12	0xbd49ab34	-0.049235538
13	0xbd92763a	-0.07151456
14	0x3e541b79	0.20713605
15	0xbdc49d07	-0.09600263

encoder_variable_selection.single_variable_grns.T2M_MAX.resample_norm.norm.weight f4 [16]
0	0x3f906108	1.1279612
1	0x3f84918e	1.035692
2	0x3f5038bf	0.8133659
3	0x3f8d6ab6	1.104819
4	0x3f9344ba	1.1505349
5	0x3f677f06	0.904282
6	0x3f918025	1.1367232
7	0x3f892938	1.0715704
8	0x3f7368ea	0.9508196
9	0x3f8303f4	1.0235581
10	0x3f5d6c13	0.86493033
11	0x3f8ab3cb	1.0836118
12	0x3f74d100	0.9563141
13	0x3f693b9e	0.91106594
14	0x3f9a8d79	1.2074424
15	0x3f7cd7c4	0.9876673

encoder_variable_selection.single_variable_grns.T2M_MAX.resample_norm.norm.bias f4 [16]
0	0xbd9e6b11	-0.07735265
1	0xbe0de72c	-0.13857716
2	0x3e3aac37	0.18229757
3	0x3de6d44e	0.11270963
4	0x3db669cf	0.089069
5	0xbdc0d3b5	-0.0941538
6	0xbdf866d6	-0.121289894
7	0x3d254066	0.04034462
8	0x3e1d3e7a	0.15355864
9	0x3d9811ac	0.07425246
10	0xbd9d62ba	-0.07684846
11	0xbdec4077	-0.11535733
12	0xbd0d2829	-0.034462128
13	0xbdaf70c1	-0.08566428
14	0x3e4ba54a	0.19887272
15	0xbdbd5466	-0.09244613

encoder_variable_selection.single_variable_grns.T2M_MAX.fc1.weight f4 [8, 8]
0	0x3ee198ac	0.44061792
1	0x3e38ad36	0.18034825
2	0xbf0590f9	-0.52174336
3	0x3e950ee0	0.2911291
4	0xbda764ac	-0.081734985
5	0x3f2c0abf	0.672039
6	0x3ee39dfe	0.44456476
7	0xbe993965	-0.299266
8	0xbf0b2944	-0.5435984
9	0xbeb69404	-0.35659802
10	0x3f0dd166	0.5539764
11	0xbd1ca9b7	-0.03824779
12	0x3f0d7855	0.5526174
13	0xbb3dee66	-0.0028981208
14	0xbe7e0378	-0.2480601
15	0x3f1e7411	0.61895853
16	0x3f4396db	0.7640206
17	0xbe8bde3b	-0.27317986
18	0xbf19a6db	-0.60020226
19	0xbf063a36	-0.5243257
20	0x3b3c52f8	0.0028735977
21	0xbf07c0d7	-0.53028625
22	0x3f777452	0.96661866
23	0xbebb774d	-0.36614457
24	0x3f134935	0.5753358
25	0xbeed1cf7	-0.4631116
26	0x3effcb2f	0.49959704
27	0xbee99ac9	-0.45625904
28	0xbf3f9b17	-0.74846023
29	0x3ef50ee9	0.47862938
30	0xbead9b68	-0.33907628
31	0xbead7e8e	-0.33885616
32	0xbf201cb9	-0.6254383
33	0xbdd9ffeb	-0.106445156
34	0x3f2cf08c	0.67554545
35	0xbd0ae251	-0.03390724
36	0x3eff223f	0.49830815
37	0x3ee41ce3	0.4455329
38	0xbca16f35	-0.019706348
39	0x3e804d1a	0.25058824
40	0x3d1e0e04	0.038587585
41	0xbefe28a3	-0.49640378
42	0xbcee0222	-0.029053751
43	0x3f34d451	0.7063647
44	0x3ce35d18	0.027754351
45	0xbf1755b1	-0.5911513
46	0xbf592d7c	-0.8483503
47	0xbeafcd58	-0.34336352
48	0x3f3acd9c	0.72969985
49	0x3ddcc295	0.10779301
50	0xbe51f12c	-0.20502156
51	0xbeb8223e	-0.35963625
52	0xbe00641a	-0.12538186
53	0xbeea2cb2	-0.45737225
54	0x3ea7528b	0.32680163
55	0xbea90636	-0.3301255
56	0x3f06ad67	0.5260834
57	0xbebd2436	-0.3694169
58	0xbeba7ad9	-0.3642185
59	0xbf38848a	-0.7207724
60	0x3f1f9c86	0.6234821
61	0x3e4377f9	0.19088735
62	0xbeec5a47	-0.46162626
63	0xbefc8fb7	-0.49328396

encoder_variable_selection.single_variable_grns.T2M_MAX.fc1.bias f4 [8]
0	0xbdac6b33	-0.08418884
1	0x3e2c8e58	0.16851175
2	0xbdbeef68	-0.09323007
3	0x3db12c68	0.08651048
4	0x3e220dd8	0.15825593
5	0x3e426277	0.18982874
6	0x3cea58b4	0.02860675
7	0xbe311681	-0.17293741
