ai_predict/ai/lightning_logs/version_99/checkpoints/epoch=99-step=600.ckpt (torch, 662004 bytes, 889 tensors)

prescalers.time_idx.weight f4 [8, 1]
000000 50 94 fc be 7a a5 1f 3f da e0 31 3f 28 47 1f bd
       -0.49331903 0.6236187 0.6948372 -0.03888622
000010 d5 f3 31 bf 3a 6c c9 3e fc 18 7d be 84 a8 85 be
       -0.69512683 0.39340383 -0.24716562 -0.2610513

prescalers.time_idx.bias f4 [8]
000000 d6 96 94 3f 66 cc 0a be 77 00 58 be fb 7d 3f bf
       1.1608531 -0.13554534 -0.21093927 -0.74801606
000010 18 76 40 3e e7 89 23 bf 90 ea f7 be b9 4d 01 bf
       0.18795049 -0.638823 -0.48421144 -0.5050922

prescalers.T2M.weight f4 [8, 1]
000000 bf 9c 46 3f 25 20 82 3f 4f 8f 94 3f 88 8d d4 3e
       0.77582926 1.016606 1.1606234 0.4151423
000010 2d bf 11 bf df c2 cc be 1a 4d 57 3f 6e 55 8c 3e
       -0.56932336 -0.39992425 0.8410202 0.27408928

prescalers.T2M.bias f4 [8]
000000 cc 6f 11 3e 43 60 97 3e ec 46 12 3f d6 07 4f be
       0.14202803 0.2956563 0.5713947 -0.20217833
000010 b9 2f 2c 3e 21 39 6d 3f 61 b0 92 be ae 75 ca 3c
       0.1681508 0.92665297 -0.2865019 0.024714317

prescalers.T2M_MAX.weight f4 [8, 1]
000000 67 60 39 3f 7a 9e 8f bf 45 5e b8 3e 44 cf 19 3f
       0.72412723 -1.1220238 0.36009422 0.6008189
000010 3f fc 90 3d 5e a5 53 3e 9d 90 1c bf 09 51 2e bf
       0.07079362 0.20668551 -0.6115816 -0.680924

prescalers.T2M_MAX.bias f4 [8]
000000 dd c1 47 bf 5b 40 a2 3d 16 b7 52 bf 75 7e bf bd
       -0.78030187 0.07922431 -0.82310617 -0.09350292
000010 e3 88 9f 3e 59 ea 87 be 27 ae 30 3f 49 24 9d 3e
       0.31159124 -0.2654598 0.69015735 0.30691746

prescalers.T2M_MIN.weight f4 [8, 1]
000000 1a d0 68 3f 1a 9c 7a 3f 7c d2 e4 3e 97 36 ae be
       0.9094254 0.9789444 0.44691837 -0.34026024
000010 9a 05 27 bf 93 ea 0f 3f 57 be 52 3f 12 c1 b1 be
       -0.6524292 0.56217307 0.82321686 -0.34717613

prescalers.T2M_MIN.bias f4 [8]
000000 5d 26 b7 be f0 cf 0f 3f f0 fc d7 bd 58 45 88 3f
       -0.35771456 0.5617666 -0.10546291 1.0646162
000010 ad 92 67 3d 79 1d 55 3f be e7 3f bf fd 95 05 3d
       0.056536365 0.83248097 -0.74962986 0.032613743

prescalers.PRECTOTCORR.weight f4 [8, 1]
000000 5f 8f aa 3f 8f 09 89 be 34 40 5d bf c8 dc bc 3e
       1.3325003 -0.26765105 -0.8642609 0.36887193
000010 16 b4 f2 be 65 2f 98 3f ee 7b 7a 3f 0f 32 85 3f
       -0.4740302 1.1889464 0.9784535 1.0405902

prescalers.PRECTOTCORR.bias f4 [8]
000000 5a c3 63 3f 56 43 bb bd ad 79 de be 40 58 60 3e
       0.8896996 -0.09143703 -0.43452206 0.21908665
000010 ab 7c 2e bf f5 a4 cc 3c cf 30 88 bf 60 3a 1c 3f
       -0.6815898 0.024981001 -1.0639895 0.61026573

prescalers.RH2M.weight f4 [8, 1]
000000 61 01 31 3d d2 b4 42 3f d2 a4 4e 3f 5d fe 08 bf
       0.043214206 0.7605716 0.80720246 -0.5351313
000010 22 96 17 bf fc 0a b7 bc 4d 73 2b bf c5 ba 23 3e
       -0.5921346 -0.022344105 -0.6697281 0.15989216

prescalers.RH2M.bias f4 [8]
000000 67 31 58 3e fa a9 1d bf 1e f4 b4 bc ae 55 26 3f
       0.21112595 -0.6158749 -0.02208906 0.64974487
000010 e7 9d 0f 3e 73 6a 8d 3f 25 04 8c be 65 9b 84 3e
       0.14025079 1.1048111 -0.27346912 0.25899807

prescalers.ALLSKY_SFC_SW_DWN.weight f4 [8, 1]
000000 dc f1 e4 be fe e5 09 be c3 ba db 3e 8c b9 d8 be
       -0.44715774 -0.13466641 0.42915925 -0.4232906
000010 7a 13 9c 3e 6c 65 f9 bd 27 b3 37 3f 53 b4 a9 3d
       0.3048361 -0.12177548 0.7175774 0.08286347

prescalers.ALLSKY_SFC_SW_DWN.bias f4 [8]
000000 2e fb 24 3f 5e 1c 44 3e c4 f4 f7 3e a9 45 03 bf
       0.6444577 0.19151446 0.4842893 -0.5127817
000010 60 5a 3e ba b7 f3 20 3f 85 51 0c 3f 5e 24 0e bf
       -0.0007261392 0.6287188 0.5481189 -0.5552424

prescalers.numero_casos.weight f4 [8, 1]
000000 5f b3 9b bf 83 8b 5b be b0 bd 2b 3f 03 62 64 3e
       -1.2164115 -0.21439938 0.67086315 0.22303014
000010 38 66 09 3f 96 27 90 3e de 81 7d bf 97 52 06 3e
       0.536716 0.28155202 -0.99026287 0.13117443

prescalers.numero_casos.bias f4 [8]
000000 dd 1f 8a 3f e6 6f 28 3f 9a b7 27 bf af 3b 24 3f
       1.0790974 0.65795743 -0.6551453 0.6415357
000010 55 ff 01 3f 91 bc 5e 3f 95 3a 72 3e 64 b0 05 be
       0.5078023 0.8700648 0.2365516 -0.13055569

static_variable_selection.single_variable_grns.municipio.mask f4 [16]
000000 21 18 38 3e 07 40 38 3e aa 39 38 be eb 40 38 3e
       0.17977954 0.17993174 -0.17990747 0.17993514
000010 4e 1b 38 be 29 5e 38 3e a0 41 38 be 28 31 38 3e
       -0.17979166 0.18004669 -0.17993784 0.17987502
000020 c2 49 38 3e 7f 50 38 be be 42 38 be 53 45 38 3e
       0.17996886 -0.17999457 -0.1799421 0.17995195
000030 be 61 38 3e 2b 3a 38 3e 43 6a 38 be 32 29 38 be
       0.18006036 0.1799094 -0.18009286 -0.17984465

static_variable_selection.single_variable_grns.municipio.norm.weight f4 [16]
000000 23 33 6c 3f 1b 04 89 3f d4 61 6c 3f af d1 85 3f
       0.9226553 1.0704378 0.92336774 1.0454615
000010 90 ec 52 3f e3 ec 95 3f f2 55 7f 3f 15 29 70 3f
       0.82392216 1.1712917 0.9974052 0.93812686
000020 1b 98 83 3f 59 9d 8b 3f 5b a3 82 3f 9c f2 9a 3f
       1.0280794 1.0907394 1.0206102 1.2105289
000030 e0 00 8d 3f 55 22 49 3f 2f dd ad 3f 2e 92 43 3f
       1.1015892 0.7856801 1.3583125 0.7639493

static_variable_selection.single_variable_grns.municipio.norm.bias f4 [16]
000000 a4 3c 3a be 8f 6c 38 3e 8a 2e 38 be ad 6e 38 3e
       -0.18187195 0.18010162 -0.17986503 0.1801097
000010 fc e7 37 be ce 42 37 be 1a 3e 38 be 45 9b 37 3e
       -0.17959589 -0.17896578 -0.1799244 0.17930324
000020 5c 0a 38 be d6 6d 38 be 00 44 38 be bc 5b 38 3e
       -0.17972702 -0.18010649 -0.1799469 0.18003744
000030 b5 21 33 be f9 2a 38 3e 8f 87 38 be 12 04 38 be
       -0.17493327 0.17985143 -0.18020461 -0.17970303

encoder_variable_selection.flattened_grn.resample_norm.mask f4 [8]
000000 90 f5 9e 3e 3f 2c 2e 3e 61 1a 56 3d e0 b0 34 be
       0.31046724 0.17009066 0.05227125 -0.17645597
000010 54 34 4b be 45 e2 2e 3e 7f e2 13 3d 24 e7 26 be
       -0.1984418 0.17078502 0.036104675 -0.1629911

encoder_variable_selection.flattened_grn.resample_norm.norm.weight f4 [8]
000000 89 7c a6 3f 98 96 96 3f 76 f5 89 3f 2d 9b 52 3f
       1.3006755 1.1764708 1.0778034 0.8226803
000010 d8 45 4c 3f 2c 15 95 3f 37 13 8a 3f 89 a0 5b 3f
       0.79794073 1.1647086 1.0787114 0.8579183

encoder_variable_selection.flattened_grn.resample_norm.norm.bias f4 [8]
000000 06 9a 94 3d 3b ae ee 3d 31 b3 1c be c4 b4 34 be
       0.0725594 0.116543256 -0.15302731 -0.17647082
000010 83 f7 26 be 08 69 34 3e ee 96 c8 3d 4c b0 29 3e
       -0.16305356 0.17618191 0.097944126 0.16571158

encoder_variable_selection.flattened_grn.fc1.weight f4 [8, 64]
000000 27 0f 7e 3d 13 13 0d 3e 2e ee a3 be 4f 59 78 3e
       0.06202617 0.13776807 -0.32017654 0.24252819
000010 e1 f3 af bd 3e f3 b9 be 5e 21 1d be 13 8a 2a 3d
       -0.08591438 -0.36318392 -0.1534476 0.041635584
000020 95 fd a7 bd 27 13 8b be 49 fe 2c be 73 6d f3 bd
       -0.08202664 -0.2716305 -0.16893877 -0.1188611
000030 f1 62 45 3d db 5c fa 3d e5 c1 1f 3e eb fe 8d be
       0.04819006 0.12224742 0.15601309 -0.2773355
000040 7c 1c 79 be e7 24 bb 3e 84 f7 d9 be a2 fb a2 bd
       -0.24327272 0.36551592 -0.42571652 -0.079581514
000050 d6 e2 c7 3e 01 87 4d be 68 9e f7 3e c4 f9 b9 3d
       0.3904025 -0.20071031 0.48363042 0.09080842
000060 2d 82 f3 3e 48 56 dc 3c 7d f6 aa 3d 7f fc 0f be
       0.47560254 0.02689661 0.08347795 -0.14061163
000070 aa 15 6b bd b9 41 7f 3e 50 ca 1e 3e 97 38 33 be
       -0.057393707 0.24927415 0.15506864 -0.17502056
000080 fe 48 05 3f cb d4 f4 be f1 a1 1c bf dd 68 b2 3e
       0.520645 -0.47818598 -0.611846 0.3484563
000090 52 d7 4f be 04 32 5c 3e 23 2b e4 3e fe 30 3e 3e
       -0.20296982 0.21503454 0.4456416 0.18573377
0000a0 44 de f9 be b4 3c 1b 3e 02 20 96 3e 4f 96 fd bd
       -0.48802388 0.15159875 0.29321295 -0.12382185
0000b0 c7 7e f8 bd 36 9c c4 3e b5 08 5c be f4 b8 2e be
       -0.12133556 0.3840043 -0.21487696 -0.17062742
0000c0 11 c6 cd 3e 48 62 1e 3e e4 46 99 be d9 df 1a bb
       0.40190175 0.15467179 -0.29936898 -0.0023631959
0000d0 1d 44 8b be 1e 3e a2 bd 9f 0b a8 be f8 cb da be
       -0.27200404 -0.07922004 -0.32821366 -0.4273374
0000e0 31 12 50 be 03 2c 92 be ef e0 8d bd 56 5c 16 3e
       -0.2031944 -0.28549203 -0.06927668 0.14683661
0000f0 7a f2 b2 be 09 33 0d 3e 66 b6 c4 be 65 23 2e 3e
       -0.3495062 0.13789 -0.3842041 0.1700569
000100 92 3c 00 bf 18 bc ec bd e4 af 95 be 37 bb 30 bd
       -0.5009242 -0.115593135 -0.29235756 -0.043147292
000110 f6 92 b3 3d b6 6f 36 bc 14 ea 41 3e d2 cb 1c 3e
       0.08768265 -0.011135032 0.1893695 0.15312126
000120 b6 84 c7 3e 0d 44 70 bc 67 c1 78 be a5 2e 2a 3e
       0.38968438 -0.014664662 -0.24292527 0.16619356
000130 a4 9a ac be 91 f6 8e be 9b 2c 7a 3e ae 7c 35 bf
       -0.3371173 -0.2792249 0.24431078 -0.7089337
000140 94 bd cb 3d 5d 5b 02 3f 7a d9 db bd 86 7d 12 3d
       0.099482685 0.5092066 -0.1073484 0.03576424
000150 f0 22 e7 bc 6e f6 75 3e cd 7d ca 3b 11 2a a9 3e
       -0.028214902 0.24019787 0.0061795474 0.33039907
000160 c0 03 a0 3e d8 dd 33 be b1 0e 7c 3a 48 f9 b7 be
       0.3125286 -0.17565095 0.00096152263 -0.35932374
000170 51 bc 3e be fa 1c 68 bd 4e 95 5c 3e 8f d3 b9 bc
       -0.18626525 -0.05666826 0.2154133 -0.022683887
000180 dd 14 01 be a5 43 f7 bc f3 42 a7 3e 76 f2 2a 3e
       -0.12605615 -0.030183623 0.32668266 0.16694054
000190 00 88 48 3e 09 00 3e 3e aa 6c 21 3e c0 f5 87 be
       0.1958313 0.18554701 0.15764108 -0.2655468
0001a0 cf d4 21 be 7d 21 4d 3c 09 ad 07 be 9d 2f 0f bf
       -0.15803836 0.012520191 -0.13249601 -0.5593203
0001b0 19 2c 64 3c 86 99 85 be 0a 32 57 be 3c 5b 22 be
       0.013926529 -0.26093692 -0.21015182 -0.15855116
0001c0 43 75 48 be b8 5f e0 3e e8 bc c7 3d b3 04 1f bd
       -0.19575982 0.43823028 0.09752828 -0.03882284
0001d0 3f 26 9f be 8d 9d 6f bd ef 1b 10 3e e5 e4 8f 3d
       -0.31083867 -0.05849986 0.14073156 0.0702608
0001e0 b5 cd b0 be 0f 45 69 be 72 7b fc 3d 06 2e f5 be
       -0.34531942 -0.2278025 0.12328233 -0.47886676
0001f0 aa b8 1e 3e 20 d6 05 be 2d bc 95 be 60 35 63 3e
       0.15500131 -0.13069963 -0.2924513 0.2218833
000200 c1 b5 ee 3e 04 b8 84 3e 96 58 64 bc f7 14 30 be
       0.46623042 0.25921643 -0.013937136 -0.17195497
000210 0b 09 15 be 05 07 0b be bd 1b 3b be e0 66 1c be
       -0.14554231 -0.13576896 -0.182723 -0.15273619
000220 23 bb cf bc 1f 81 ee be 22 5b 1c be a5 f1 a6 3b
       -0.025357788 -0.46582887 -0.1526914 0.0050947242
000230 c7 27 f8 3e d8 82 2f 3e af ee f9 3a 38 af a5 3d
       0.48467848 0.17139757 0.0019068326 0.08090061
000240 5d e6 bc be 26 ab 56 3e 70 94 b1 be f6 5b a2 bd
       -0.36894503 0.20963725 -0.3468356 -0.079276964
000250 c2 d7 71 3e 6f 00 8b be 3b b3 a5 3e 57 1d c9 3e
       0.23617461 -0.27148768 0.32363304 0.39280197
000260 d6 11 2d be d4 bd 48 3d fa a1 1c be 49 ab 67 3e
       -0.16901335 0.04900916 -0.15296164 0.22623934
000270 ed 55 88 3e a8 70 27 be 4b 8e b1 bd d4 bb 63 3e
       0.26628056 -0.16351569 -0.08669718 0.2223962
000280 a3 ca d9 3e 00 97 d0 be d5 33 d6 3d 9a 6d 22 bd
       0.42537412 -0.40740204 0.10459105 -0.039655305
000290 7e 9a 9a be 15 e3 97 be 97 4f f9 bd 4a b0 96 3e
       -0.30195993 -0.29665437 -0.12173384 0.29431373
0002a0 6c 4b 72 bc 0f 79 a5 be 51 d5 25 be b5 64 83 3e
       -0.01478849 -0.32318923 -0.16194655 0.2566277
0002b0 df d8 0b 3e 08 af b7 3e 7d 70 98 3e d3 d6 51 3e
       0.13656949 0.35875726 0.29773322 0.20492105
0002c0 a2 e1 4a be bf 7a f7 3d 9b a8 8a 3e bd ab fd be
       -0.19812635 0.12083959 0.2708176 -0.49545088
0002d0 b1 21 2b be 78 e6 b4 bc a9 54 f8 3d 30 75 9f be
       -0.16712071 -0.022082552 0.12125523 -0.31144094
0002e0 52 f6 e5 3e cb d1 5e be 0f 0a 97 be 8f c7 49 3e
       0.4491449 -0.21759717 -0.29499862 0.19705032
0002f0 1f ed 9f 3e c6 cd eb 3e e8 04 c9 3e 0d 69 67 bd
       0.31235597 0.4605543 0.39261556 -0.05649667
000300 c6 fb 8d be 4a 0a db bd 5c ec b6 bc 7c 65 f4 3e
       -0.2773115 -0.10695322 -0.022329502 0.47733676
000310 e4 d8 6b 3d c3 59 76 3e b5 1e 00 bc fe c3 65 3e
       0.05757989 0.24057679 -0.007819821 0.22438046
000320 20 2a 7e 3d 8c a3 7e 3e 43 65 c5 3c 2a d7 26 3e
       0.062051892 0.24867076 0.024096137 0.16293016
000330 c1 38 ee bd 95 02 6a be 25 3f 03 be e7 85 1c be
       -0.11631919 -0.22852547 -0.12817056 -0.15285455
000340 9d c6 00 3e c4 e6 ee bd 66 82 5c 3e 99 87 a7 3e
       0.12575765 -0.11665109 0.21534118 0.3272064
000350 35 61 be bc 73 3c 55 3e 4e 38 97 be 3b 59 89 3d
       -0.023239711 0.20823841 -0.29535145 0.067064725
000360 83 3d a0 3e 34 d5 8f 3e b0 1a 36 3e e3 7c 1c be
       0.3129693 0.2809235 0.17783618 -0.15282016
000370 9e 1a a5 be 5f 3e e1 3e e8 7d 1a 3e a3 fe 68 be
       -0.3224687 0.43992898 0.15087092 -0.22753386
000380 af 53 fb be 43 d1 02 3e 46 37 61 bc e2 ce 20 3e
       -0.49087283 0.1277514 -0.013746088 0.1570392
000390 f7 14 7b 3e 5f 66 12 3d db 4e 56 3e 8b aa 8d be
       0.24519716 0.03574216 0.20928518 -0.27669176
0003a0 f5 21 12 be 03 92 c6 3e 29 54 57 3e 89 5d d4 be
       -0.14270766 0.38783273 0.21028198 -0.41477612
0003b0 b4 e7 7d 3b c7 2e 50 be fb 8a f3 bd b1 e9 1f 3e
       0.0038742842 -0.20330344 -0.11891743 0.1561649
0003c0 92 a3 5b 3d 95 94 1c bd 13 9c 9c be 7e dd 9c 3e
       0.05362279 -0.038227636 -0.30587825 0.30637735
0003d0 23 dc 33 3d e9 35 10 be 81 0a 8c be ca 37 7b 3e
       0.04391111 -0.14083065 -0.27351764 0.24533
0003e0 3f 02 ca 3d 2a d1 46 be 84 59 53 3e 3b d9 e5 be
       0.0986371 -0.19415727 0.20639616 -0.44892296
0003f0 6d fe d7 3c ea 94 94 be 95 22 32 bd fa 5e a8 bd
       0.026366437 -0.29019862 -0.04349001 -0.0822124

encoder_variable_selection.flattened_grn.fc1.bias f4 [8]
000000 fc 6c 8f 3c 07 ab 40 be 42 c8 54 3e f5 60 38 be
       0.017508022 -0.18815242 0.20779517 -0.18005736
000010 49 97 08 be 2b eb d1 3d 0f b1 97 3d b1 9a 28 be
       -0.1333896 0.10249933 0.07406818 -0.1646526

encoder_variable_selection.flattened_grn.context.weight f4 [8, 16]
000000 20 82 64 3f d5 8f 52 3e ba 79 a4 be 87 17 99 3e
       0.89261055 0.2056268 -0.3212412 0.29900762
000010 2f 44 0e bd 93 f7 91 3e 80 43 af be 8d cf 33 3f
       -0.034732994 0.28509197 -0.34231186 0.7023857
000020 31 bc dc 3d e9 50 02 bf 5d 46 f5 be 8b 0e 51 be
       0.10778082 -0.5090471 -0.47905245 -0.20415704
000030 0c aa 1e 3d 14 85 fa 3e fc 74 55 bf 0f e5 80 bd
       0.038736388 0.48929656 -0.8338163 -0.062936895
000040 0c 22 c4 be f4 78 8d be 51 54 df 3d cb 26 39 3e
       -0.38307226 -0.27631342 0.10904754 0.18081205
000050 e0 ce 8c 3e 97 09 6f 3e ef 3f df be 20 fb e8 3e
       0.27501583 0.23343502 -0.43603465 0.45504093
000060 7b f8 4e be 49 dc e1 bd 0c 84 6f bc 02 99 a5 be
       -0.20211975 -0.11028344 -0.014618885 -0.32343298
000070 76 c6 f4 bd a9 ab 71 3c 7d 62 d2 ba ca 5f 91 3e
       -0.11951916 0.0147504 -0.001605108 0.28393394
000080 c2 18 40 3e b0 18 c8 3a f4 57 18 bf d7 aa 9e 3e
       0.18759444 0.0015266147 -0.59509206 0.30989715
000090 6a 29 ca 3e 9a eb 02 3f 54 cc cd 3e 95 df ea 3e
       0.3948472 0.5114075 0.40194952 0.45873705
0000a0 51 e7 ea 3d 75 88 0c bf 6a 92 c0 be cd 7b 63 bd
       0.11469901 -0.54895717 -0.37611705 -0.055537988
0000b0 40 0e 28 3e 99 19 62 3c c6 c6 31 bf 47 a9 e8 bd
       0.16411686 0.013800048 -0.6944393 -0.11360412
0000c0 82 14 d2 3e d7 69 27 3f a0 1d 05 be 7c 69 4f 3e
       0.4103127 0.65395874 -0.12999582 0.20255083
0000d0 d6 1b 1d bf 5c 37 ab be b2 65 a5 3e 25 d5 c6 be
       -0.613706 -0.33440673 0.3230415 -0.3883449
0000e0 67 ed ad be ba 41 e5 bd 1e 68 ac 3e 97 dc 5b be
       -0.33970186 -0.11194177 0.33673185 -0.21470867
0000f0 83 39 af be 98 98 39 3e e6 c5 c7 bb 29 de 8a 3d
       -0.34223565 0.18124616 -0.0060965894 0.06780655
000100 79 d1 25 3f 79 68 a3 3e 77 05 a3 3d 6f 47 4b 3f
       0.64772755 0.31915644 0.07960027 0.79405874
000110 c4 1c c8 be 63 11 17 3f c2 8c 11 3e 5f 7a 53 3e
       -0.39084446 0.59010905 0.14213851 0.2065215
000120 f2 6b ac be a9 5c a1 be 10 b1 26 bf cf d8 f9 3e
       -0.33676106 -0.31516007 -0.65113926 0.48798224
000130 17 ee 0a 3f 7a 99 b5 3c e7 58 a2 3a 78 b8 ea 3c
       0.54269546 0.02216791 0.0012386114 0.028652415
000140 2a 7a 31 be cc 66 97 be bf 0f 80 3e 16 70 01 bf
       -0.17331758 -0.29570615 0.25012013 -0.50561655
000150 82 f0 43 be a8 4f af be d4 ef 8a 3d a1 c1 29 bf
       -0.19134715 -0.3424046 0.06784025 -0.6631108
000160 c2 90 db 3e c1 5a 85 3e e5 a5 99 3e 90 8b 45 bf
       0.4288388 0.26045802 0.3000938 -0.7716608
000170 21 7a 16 bf 13 e6 f3 be 21 78 aa 3e 79 14 0a be
       -0.58780104 -0.4763647 0.33294776 -0.13484372
000180 34 a1 87 be 4c ee fa be 98 3b 21 3f d2 46 9b bd
       -0.26490176 -0.4900993 0.6298156 -0.07581867
000190 65 8d f0 3e bc 9c 8e bc 20 54 b9 bd 73 c8 10 bf
       0.46982875 -0.017408721 -0.09049249 -0.5655586
0001a0 c1 45 fa be e9 e9 c9 3e ce 4a f2 3c 25 54 8d be
       -0.48881343 0.39436272 0.029576685 -0.2760326
0001b0 88 79 2b be 97 ef 09 3e 8c c0 83 3e 23 4a 1c be
       -0.16745579 0.13470303 0.2573284 -0.15262656
0001c0 c8 7c 2c 3f 56 69 76 be 44 ff 72 be 60 0a 82 be
       0.673779 -0.2406362 -0.23730189 -0.2539854
0001d0 bd ab e3 3d 68 13 ea 3e 52 83 74 be fd 6d 12 3f
       0.11116741 0.4571793 -0.2387822 0.5719908
0001e0 3f 74 c6 3d 93 cb 9a 3e eb bb 01 be 2d c5 e8 3e
       0.09690141 0.3023344 -0.12669341 0.45462933
0001f0 00 4f d3 3e 7a 01 59 be 65 b9 5d 3e eb e0 6b be
       0.4127121 -0.2119197 0.21652754 -0.23035018

encoder_variable_selection.flattened_grn.fc2.weight f4 [8, 8]
000000 34 dc 21 be 1e 76 96 be 96 0d 40 3f 9c d7 13 bd
       -0.15806657 -0.2938699 0.7502073 -0.036094293
000010 36 9e a2 3d ac 2e 0a 3e b2 ff 09 3f 58 92 ef 3d
       0.079403326 0.13494366 0.53905785 0.11697835
000020 b0 a3 a3 3e df 1d 2b bd 6f 67 36 bd 6c 1d dd 3e
       0.3196082 -0.041776534 -0.044532236 0.4318651
000030 26 5a 74 3e 5a 07 0b bf 37 8f 9e bd 67 4e 8d be
       0.23862514 -0.5430809 -0.0774216 -0.2759888
000040 2e 1e 17 bf e5 4a 5d 3d 75 31 2b 3f a9 86 07 3f
       -0.59030426 0.054026503 0.6687234 0.5293985
000050 1c 02 44 bf 9d ee 7e 3f 6a a9 1f bd b3 01 1e 3f
       -0.7656572 0.99582845 -0.038979925 0.6172134
000060 89 43 96 3c fd ab ab 3e 6d bb 7b bf 18 87 99 3e
       0.01834275 0.33529654 -0.98332864 0.2998588
000070 ea ab 8d be ae 24 8e be e7 31 84 3d 19 34 71 3e
       -0.27670223 -0.2776236 0.064548306 0.2355503
000080 32 7f 9a 3f dd 3b 4b 3f 5e 0b 49 3d b8 09 c3 be
       1.2070067 0.7938822 0.049083106 -0.38093352
000090 b5 55 ef 3e 3f c3 87 bc 88 af 3d bf 7d 8e 6f 3e
       0.46745077 -0.016572593 -0.74095964 0.23394199
0000a0 0d a7 8e bd 19 53 33 bf f0 0b 17 bf ef 07 52 3f
       -0.06965456 -0.7004867 -0.5900259 0.82043356
0000b0 15 61 46 bf f3 29 a6 3e be 92 ca be 15 b7 5c 3e
       -0.77491885 0.3245388 -0.3956508 0.21554215
0000c0 c0 37 c9 be 64 c8 86 bf d4 d3 73 3f a0 0e 03 bf
       -0.39300346 -1.0529904 0.952451 -0.5119419
0000d0 e8 a9 27 3f 27 bf f4 3d 60 2f d4 be fc e1 c1 3d
       0.6549363 0.11950522 -0.41442394 0.09466931
0000e0 9c 8c 97 3e e1 45 18 3f 03 4a aa 3f 3e 77 9c 3e
       0.29599464 0.59481627 1.3303837 0.30559725
0000f0 f4 ef 76 be 95 91 0d 3e fa fa ad be 23 a6 55 3e
       -0.24114972 0.13825066 -0.33980542 0.20864157

encoder_variable_selection.flattened_grn.fc2.bias f4 [8]
000000 ab a2 63 3e af 8a 31 be cd ea 06 3e 5a a2 89 be
       0.22230022 -0.1733806 0.13175507 -0.26881677
000010 8d 32 f6 bd c1 c1 3a be c0 45 b8 3e 71 89 8a 3d
       -0.120213605 -0.18237974 0.35990715 0.06764496

encoder_variable_selection.flattened_grn.gate_norm.glu.fc.weight f4 [16, 8]
000000 dd 56 0a 3f 1f 7f 40 3e fb 6c 98 3e 6b ee 63 bf
       0.5403879 0.18798493 0.29770645 -0.8903567
000010 36 df dc 3e ed da fc bd 84 6e d5 3e 66 87 24 3f
       0.43139046 -0.12346444 0.4168588 0.642691
000020 df 85 97 be 61 07 36 be 2c 9f 78 be c3 f0 c8 3e
       -0.29594323 -0.17776252 -0.24279469 0.39246187
000030 44 9e 08 be cb 87 1c be 07 83 65 be 1a 14 ac be
       -0.13341624 -0.15286176 -0.22413264 -0.33609086
000040 a7 77 e0 3e 68 e0 98 bd e7 3e 98 3e a0 d7 a5 3e
       0.43841287 -0.07464677 0.2973549 0.3239107
000050 53 19 f6 3d 36 0d f9 3c 3f 18 05 3f 7e 49 2a be
       0.12016549 0.030401807 0.5199012 -0.16629598
000060 9d 34 f5 bd 04 7c e1 3e 17 61 1a bf a5 49 b6 bc
       -0.11972926 0.4403993 -0.603044 -0.022251913
000070 a5 d4 95 3a a3 ff 5d 3e 02 4d 92 be f1 18 ac bd
       0.0011431171 0.21679549 -0.28574377 -0.08403195
000080 5e 1c 47 be 78 1e ee bc 42 6f 9c 3a b7 e6 d1 3d
       -0.19444415 -0.029067263 0.0011935013 0.102490835
000090 e5 6d 96 bc 9b 73 2b bf 5b f8 b0 3e 15 d5 49 3d
       -0.018362949 -0.66973275 0.3456448 0.049275476
0000a0 b3 7f f6 3d 34 e7 df be 8e d4 0e 3f 4d b6 ed 3d
       0.120360754 -0.4373108 0.5579308 0.11607037
0000b0 a1 36 c5 be 2b 1b b3 3e b5 96 78 bd 07 71 03 bf
       -0.3851824 0.34981665 -0.0606906 -0.5134434
0000c0 93 6c 87 be 91 5e 8f be aa fd 94 3e 62 9b 25 bc
       -0.26450023 -0.28001836 0.2909978 -0.010107847
0000d0 8e 9e f0 3d ad ba e5 3d 2d 5f d1 3e 2a 77 cd be
       0.11748992 0.11217246 0.40892926 -0.40129977
0000e0 95 9e da be 91 8d 61 bd c9 04 60 3e ab 28 30 3f
       -0.42699113 -0.05506665 0.21876825 0.68812054
0000f0 2b 23 03 be ff 45 09 3f 93 ac 2b 3e 02 02 86 3e
       -0.12806384 0.5362243 0.1676505 0.26173407
000100 36 0b e3 3e 88 1c 09 bf c8 af d0 bd 50 98 d6 be
       0.4434449 -0.5355916 -0.101897776 -0.4191308
000110 26 fa c4 3e dd 54 25 be 15 fb 49 3f 1e 44 3f 3e
       0.38472098 -0.16145654 0.78898746 0.18678328
000120 ea b8 55 bd 31 f6 95 be 55 64 27 be b2 33 0e bf
       -0.0521783 -0.29289392 -0.16346867 -0.5554763
000130 65 56 06 be 70 c0 5b 3d ca 71 17 3f a0 0f 79 be
       -0.13118894 0.05365032 0.59158003 -0.24322367
000140 37 67 05 3f 41 ea 1e bf dd 67 18 3f 8d eb 4e 3e
       0.5211062 -0.62076193 0.5953348 0.20207043
000150 51 a0 e0 bd 0e fe 8d 3e 94 71 be 3c 82 7b c0 3e
       -0.10968078 0.2773289 0.023247518 0.3759423
000160 a4 34 ee be 7b 68 9d 3e 7e a0 e8 3e 7f 49 de 3d
       -0.46524537 0.30743775 0.45434946 0.10853862
000170 3d 11 d1 3e f6 8c df 3e 68 b1 70 be f7 5d 60 3e
       0.40833464 0.43662232 -0.23505175 0.21910845
000180 41 53 c3 3e c8 86 63 be b4 1d 00 bf 6d 09 97 be
       0.38149455 -0.22219384 -0.50045323 -0.2949938
000190 d1 34 a6 be d9 8f 17 be e0 6f b7 be a4 e1 1c be
       -0.3246217 -0.14800967 -0.3582754 -0.1532045
0001a0 12 2a c3 3e 71 05 cb be 58 a9 d9 bd fe f5 b3 be
       0.38118035 -0.3965259 -0.10628003 -0.35148615
0001b0 68 65 16 be 7f 01 ed be 37 a4 ec 3e 73 49 d5 3e
       -0.14687121 -0.46290204 0.46219036 0.416576
0001c0 67 3b 11 bf f6 9f b5 3e be f1 ae 3c 8f ff 97 3c
       -0.56731266 0.35473603 0.021355506 0.018554477
0001d0 18 05 19 3e 8b 65 0b 3e 24 01 16 bd dc fa 13 bf
       0.1494335 0.13612954 -0.03662218 -0.57804656
0001e0 36 c8 31 3e f7 4a 5f be 44 eb 52 be a2 fc 99 3e
       0.1736153 -0.2180594 -0.20597559 0.30075556
0001f0 33 43 e2 3d e0 7b 08 3f 47 ac c5 be 55 15 0b 3e
       0.110479735 0.5331402 -0.38608 0.13582356

encoder_variable_selection.flattened_grn.gate_norm.glu.fc.bias f4 [16]
000000 09 ca e7 3d 74 34 89 bd 18 bf 1f be 51 ec 35 be
       0.11317832 -0.06699458 -0.1560024 -0.17765929
000010 00 a6 18 be a3 a0 1f 3e e8 3e d4 3d 39 e5 0b 3e
       -0.14907074 0.15588622 0.10363561 0.1366166
000020 20 9d 41 3e 42 ad 37 be 2a 92 2b be 2e 79 3b 3c
       0.18907595 -0.17937186 -0.16754976 0.011442466
000030 e5 ff 13 be 6e 70 79 3e b4 2b 62 bd 7d c2 a6 3d
       -0.14453085 0.24359295 -0.05521746 0.081425644

encoder_variable_selection.flattened_grn.gate_norm.add_norm.norm.weight f4 [8]
000000 29 b1 a8 3f 17 6f 95 3f d7 bc 42 3f c0 c8 51 3f
       1.3179065 1.1674527 0.76069397 0.81946945
000010 aa fb 51 3f 80 b5 94 3f e6 d2 53 3f fd 00 42 3f
       0.82024634 1.161789 0.8274368 0.7578276

encoder_variable_selection.flattened_grn.gate_norm.add_norm.norm.bias f4 [8]
000000 49 c1 b3 3d 69 2b 16 3e b1 45 e1 bd 99 59 38 be
       0.087771006 0.14664997 -0.10999621 -0.18002929
000010 69 19 3d be 19 bf 20 3e 57 19 a5 3d 00 3a 01 3e
       -0.18466724 0.15697898 0.08061474 0.12619781

encoder_variable_selection.single_variable_grns.time_idx.resample_norm.mask f4 [16]
000000 36 4b 36 bd e5 f4 57 3e 91 50 30 3e 1f 36 1b bd
       -0.04450532 0.21089514 0.17218234 -0.03789341
000010 89 74 fa bd 6a b0 58 be 8c e5 b8 3e a6 3d 25 3e
       -0.122292586 -0.21161047 0.3611263 0.16136798
000020 29 61 16 3d 89 43 ca bb 65 4c 92 be 51 57 3e be
       0.036713753 -0.0061726016 -0.2857391 -0.18587996
000030 70 61 ad be ab 22 51 bd 14 ab 55 be c0 a8 fc 3d
       -0.338634 -0.051058453 -0.20866042 0.12336874

encoder_variable_selection.single_variable_grns.time_idx.resample_norm.norm.weight f4 [16]
000000 96 a3 60 3f 09 ce 9b 3f 9c c3 97 3f 29 6c 67 3f
       0.8774961 1.2172252 1.185657 0.90399414
000010 ba f3 5c 3f 5e 4b 38 3f 39 4e ae 3f eb 37 96 3f
       0.863094 0.7199 1.3617622 1.1735815
000020 ba 06 8e 3f 28 8c 58 3f 7a 3d 43 3f b1 43 52 3f
       1.1095803 0.8458886 0.7626568 0.8213454
000030 c5 95 2d 3f 32 1b 75 3f 66 14 4d 3f db 02 92 3f
       0.67806655 0.9574462 0.8010925 1.1407121

encoder_variable_selection.single_variable_grns.time_idx.resample_norm.norm.bias f4 [16]
000000 80 58 8b be ea a6 54 3e c6 f1 3b 3e 09 c0 0c be
       -0.27215958 0.20766798 0.18353948 -0.1374513
000010 f7 58 24 be dd 76 d1 bc 29 27 b8 be c9 b2 0d be
       -0.16049562 -0.025569374 -0.35967377 -0.13837732
000020 7a ab 43 3d 1f 19 a0 be 19 3f 8c 3e 36 91 75 3e
       0.047770955 -0.31269166 0.2739189 0.23981175
000030 a1 7e bf 3e b6 45 19 3d e0 47 51 3e 76 69 1f be
       0.37401298 0.037419997 0.20437574 -0.15567574

encoder_variable_selection.single_variable_grns.time_idx.fc1.weight f4 [8, 8]
000000 2b f7 6b 3e 74 94 96 3e a6 b7 53 3e 67 a1 3f bc
       0.23043506 0.29410136 0.20675525 -0.011696196
000010 83 d5 da 3e b3 ef fb 3b 25 13 4c 3e bf 00 c9 be
       0.42741022 0.0076884865 0.19929178 -0.39258382
000020 00 93 13 bc d5 4e 17 3f 17 bf 23 bd 23 d9 ed 3e
       -0.0090072155 0.59104663 -0.03997716 0.46454725
000030 2a 9d 2d bf 51 49 4d 3f 95 17 a8 bf 74 36 b3 be
       -0.6781794 0.80189997 -1.3132197 -0.35002482
000040 ca 7d b3 be 8c 04 fc bd 82 66 07 bd ed f3 4d bd
       -0.35056907 -0.12305555 -0.033056743 -0.050281454
000050 88 bf 10 3f 20 a8 af be 95 36 2b bf 1f 22 0b 3d
       0.56542253 -0.34307957 -0.6688016 0.033968087
000060 01 e4 cb 3f 80 9b 99 bf 71 35 34 bf 7c 60 7f 3e
       1.5928956 -1.200058 -0.70394045 0.2493915
000070 69 55 0b 3f 54 21 ff bc 29 db a5 3d 96 7b c4 3e
       0.544272 -0.031143822 0.08098442 0.3837554
000080 53 28 74 3e 08 bd 22 3f 44 b8 7e 3e d7 c5 b2 3e
       0.23843507 0.6356969 0.2487498 0.34916565
000090 9a 83 99 be 2e e5 d4 3e 9f c0 6e be 12 ed c4 be
       -0.29983217 0.415811 -0.23315667 -0.3846212
0000a0 ef cb 47 3d 6e 20 9e 3e 6d b1 2e bf b3 09 eb 3e
       0.04877847 0.30884117 -0.6823948 0.45905837
0000b0 08 95 00 3e 2c 84 a1 bd 54 0b 26 be 69 6d 0a bd
       0.12556851 -0.07886538 -0.16215259 -0.033795748
0000c0 20 0f 61 be 96 94 1c 3f db 67 be 3e 6f 5c bc bd
       -0.21978426 0.61164224 0.3718861 -0.09197318
0000d0 a4 f3 a3 be ea 59 94 3e d1 26 ce be 0d d2 db be
       -0.3202182 0.2897485 -0.4026399 -0.42933694
0000e0 9f 1a c0 3e e1 31 2a bf d8 79 bb be 51 78 02 bd
       0.3752031 -0.6648236 -0.36616397 -0.031853024
0000f0 68 47 b7 3f 88 30 19 bf 0e 44 6a 3f 83 44 92 3f
       1.4318666 -0.5983968 0.91510093 1.1427158

encoder_variable_selection.single_variable_grns.time_idx.fc1.bias f4 [8]
000000 87 b1 0e 3e 8d 0c 3a bd 8c 61 d6 3e ab f2 ae 3c
       0.13934909 -0.045422126 0.41871297 0.021355947
000010 d3 e6 b3 bc 56 af 2f 3e 8a 1d 78 3e d4 f5 8d be
       -0.021960652 0.17156729 0.24230018 -0.27726614

encoder_variable_selection.single_variable_grns.time_idx.fc2.weight f4 [8, 8]
000000 24 53 2c bf 52 ba 4e bf 48 3a 5b 3e 5b 90 9b 3e
       -0.6731436 -0.8075305 0.21408951 0.30383572
000010 6f 3d 93 bb 9b 4c 01 bf 39 12 9e be 2d 57 68 3f
       -0.0044934074 -0.50507516 -0.30873278 0.9075802
000020 47 32 88 bd b2 b3 ad 3f 0b 4d bd be 94 84 be be
       -0.06650215 1.3570464 -0.36972842 -0.37210524
000030 c2 f7 ae 3e cc 55 cc 3e 76 6d 3c 3f 1b 3b ef be
       0.341734 0.39909208 0.73604524 -0.4672478
000040 68 b3 0f 3f 9e 8e 7a 3e dc 84 2e 3d 3e 92 39 3e
       0.5613313 0.24468467 0.042607173 0.18122193
000050 48 1d 4e bf 61 2d 0a 3f fd 32 a5 3c 0a 70 f6 be
       -0.8051343 0.5397549 0.020165915 -0.48132354
000060 b5 9e 22 bf e8 92 d1 be f8 d6 a1 3b 2a 4a c9 be
       -0.6352342 -0.40932393 0.0049389564 -0.39314395
000070 40 30 c9 3e 41 37 03 3e 24 3e d0 3e a8 88 b7 3e
       0.39294624 0.12814046 0.4067241 0.35846448
000080 4f 75 8a be d5 ea 5b be 03 42 fb 3e 63 a2 4e 3e
       -0.27042624 -0.214763 0.490738 0.20179133
000090 41 e1 be be bf 6a d7 3e 16 e1 42 3c c4 68 2b be
       -0.3728123 0.42073628 0.011894485 -0.16739184
0000a0 c0 bc 45 be ec 59 bd bc a0 54 3e 3f b2 bf 3e bf
       -0.19310284 -0.023114167 0.7434788 -0.74511254
0000b0 1d d5 fc 3e f7 2e 1b 3e 73 32 02 be 02 43 da 3e
       0.49381343 0.15154634 -0.12714557 0.42629248
0000c0 05 6a da be fe b7 57 bd cc b8 c7 be d8 0f 9c 3f
       -0.4265901 -0.052665703 -0.39008176 1.2192335
0000d0 95 e7 55 3e 1c b4 19 bf e8 02 83 bf 39 54 fe 3e
       0.20889123 -0.6004045 -1.0235262 0.49673632
0000e0 10 bd d4 bd 85 8a 0e be 92 7d d7 be 95 02 21 3e
       -0.10387623 -0.13920029 -0.4208799 0.15723641
0000f0 16 17 d0 be 0e 5a 7e 3f 47 27 f0 be fb 3a 26 3f
       -0.40642613 0.9935616 -0.46904966 0.6493375

encoder_variable_selection.single_variable_grns.time_idx.fc2.bias f4 [8]
000000 6e 5f 1e 3d c3 e2 dd bd 5f 4b 11 3e 75 d2 38 3e
       0.038665228 -0.10834267 0.14188908 0.18049033
000010 42 57 81 3e 1a bd 11 be 16 9c 00 3e 22 4e 23 bd
       0.25261885 -0.14232293 0.12559542 -0.039869435

encoder_variable_selection.single_variable_grns.time_idx.gate_norm.glu.fc.weight f4 [32, 8]
000000 52 1b 39 be e3 e6 3a bd c2 82 73 3d 4f a9 2a bd
       -0.18076828 -0.045630347 0.059450872 -0.04166537
000010 11 11 ec be 2a a9 71 3e f0 1d e5 bd 4d e6 58 bd
       -0.4610677 0.23599687 -0.11187351 -0.052954007
000020 8c 2c d0 be 9d ce 85 be 96 18 d9 bd 7f af fd bd
       -0.40658987 -0.26134196 -0.106003925 -0.12386989
000030 d6 5b a2 be 75 a8 ab be 0b e7 5c bd ca dc c3 be
       -0.3171069 -0.3352696 -0.053931277 -0.38254386
000040 36 63 0c 3f cd 4d 02 bf 49 5b 95 3d f7 61 a4 3d
       0.54838884 -0.50899965 0.07292802 0.08026498
000050 3b 93 5a 3e e6 4f ec be 62 28 0f 3f 4b a5 78 3e
       0.21345226 -0.46154708 0.55920994 0.24281804
000060 8a ca 10 bf 28 f2 bc 3e 24 30 ee 3d 36 a5 60 be
       -0.5655905 0.369035 0.11630276 -0.21938023
000070 73 1b 39 3e ad 31 bf 3e cb 6a d1 be 15 c8 17 bf
       0.18076877 0.37342587 -0.4090179 -0.59289676
000080 34 1d 53 3e e1 e9 05 3e 26 e7 03 bd d2 d5 48 3e
       0.20616609 0.13077499 -0.032202862 0.19612816
000090 9a 7b ef 3e 09 ba 12 3e 29 a7 bd bd b4 84 41 3c
       0.46773988 0.1432878 -0.09260399 0.011811424
0000a0 b7 21 4c 3e e9 91 0d bf e1 b7 93 bd 7c 28 1a be
       0.19934736 -0.55300766 -0.072128065 -0.15054506
0000b0 ea 3f c5 bd 26 9e a7 be 3c 96 e6 3e d1 0f 14 3f
       -0.09631331 -0.32737845 0.45036495 0.57836634
0000c0 ce 53 e9 3e 79 6d 85 3e 24 77 d1 bd c0 5e 1c 3e
       0.4557175 0.26060084 -0.102278024 0.1527052
0000d0 bf 4b 40 3e e6 96 88 3e bd d7 31 be 9c ae d5 3e
       0.18778895 0.26677626 -0.17367454 0.4173478
0000e0 29 16 eb 3c ad d1 c6 be f3 c3 02 3f ec 44 b8 3e
       0.02869709 -0.38831845 0.51080245 0.35990083
0000f0 d2 9a e8 bc e1 6f 78 3d 5d 81 03 3e 26 9a 12 3e
       -0.028394137 0.06065357 0.12842317 0.14316615
000100 a4 6f 16 3f d1 a5 62 3e 43 91 0f be b8 6b 28 be
       0.587641 0.22133566 -0.14020257 -0.16447341
000110 30 09 3b 3e aa 67 51 3e 12 ea 42 bd 3e 48 36 bc
       0.18265224 0.20449701 -0.047586508 -0.011125622
000120 17 6e 16 3e 98 d3 b6 3e 54 39 a7 bd c2 26 0c 3f
       0.14690433 0.35708308 -0.08165231 0.5474664
000130 e5 41 82 3e 9f 36 e7 bc 5c 60 6c 3d 83 dc 38 bd
       0.254409 -0.028224288 0.057709083 -0.04513217
000140 9f e4 cf be 34 25 b0 3e d7 38 00 3f f7 57 3d 3c
       -0.40604112 0.34403384 0.5008673 0.011556617
000150 3e ea d9 3d cd 60 9d 3c ab c3 55 3d 11 69 c5 bd
       0.10640381 0.019211197 0.052188557 -0.096391805
000160 e9 a0 11 3d be 90 5d bd 21 2d b6 be 36 d3 91 3e
       0.035553847 -0.054093115 -0.35581306 0.28481454
000170 87 82 86 be a4 3e e2 bd 93 df ff 3e 57 cc 69 be
       -0.2627146 -0.11047104 0.4997526 -0.22831856
000180 fa 55 a3 3e 25 6e 3c bd d9 c9 85 be 16 8d 19 bf
       0.31901532 -0.04600348 -0.2613056 -0.59980905
000190 9e c0 c6 bd 6b 9e 08 bf 3b 5b 3b 3c fe 1f a5 be
       -0.097047076 -0.53366727 0.011435325 -0.3225097
0001a0 39 e2 9e be 8c 0a bd 3e 49 a5 04 bf 9c cf 4f be
       -0.3103197 0.3692211 -0.51814705 -0.2029404
0001b0 e2 a9 fb be 74 c0 b6 3d e7 7c b8 be fb 55 40 bf
       -0.49153048 0.08923426 -0.36032793 -0.75131196
0001c0 12 88 c6 bd 15 c2 bb bd a4 f9 64 be 94 12 d7 3d
       -0.09693922 -0.091678776 -0.22360855 0.1050159
0001d0 04 08 c2 be 19 0a f5 bd da e4 0a bd e1 b4 83 3c
       -0.3789674 -0.119648166 -0.033909656 0.01607746
0001e0 ab 05 08 bd bb b5 02 be 9e a4 da 3e ce 7e 1b be
       -0.03320853 -0.12764637 0.42703718 -0.15185091
0001f0 fe 6e 10 3e 58 bb 7a be de 53 aa bd 9b 86 aa bd
       0.1410484 -0.24485528 -0.08316778 -0.08326455
000200 f9 73 f2 be 6a f1 ec 3b 63 0f 04 be 43 e4 15 bd
       -0.47354105 0.0072309272 -0.12896495 -0.03659464
000210 11 2a 51 be b6 4d 3b be e6 7a f7 bd f7 d2 07 be
       -0.20426203 -0.18291363 -0.12083988 -0.1326407
000220 95 5f 56 3e dd fb 04 3e 70 79 9b be 8c d3 34 bd
       0.20934899 0.12986703 -0.30366087 -0.04414706
000230 6e 2a af 3d 8b 9a c4 be ae c2 30 be ba 86 67 3e
       0.08553015 -0.38399157 -0.17261764 0.22609988
000240 ef 00 23 be cd 08 e4 be 80 70 f7 be 41 a8 17 bf
       -0.15918325 -0.44537964 -0.48328018 -0.5924111
000250 f5 1b 08 be c4 a3 d9 bc cd a4 0f 3f 1c 85 04 3f
       -0.13291915 -0.026567347 0.5611084 0.5176561
000260 c4 66 91 3d 80 5c 85 be e4 2c 28 be ca 36 38 be
       0.07099679 -0.26047134 -0.16423374 -0.1798965
000270 40 56 99 be 06 39 9b 3e b6 56 c7 3e 83 2d f0 3e
       -0.29948616 0.30316943 0.38933343 0.46909723
000280 d7 b0 b8 bd 71 4c 82 bd 39 60 ae bd 40 04 0d 3f
       -0.090181045 -0.06362236 -0.08514447 0.5508461
000290 1c a5 5b 3e ad 61 84 3c 56 e3 9a be 21 ba 51 3d
       0.21449703 0.016159857 -0.3025157 0.051202897
0002a0 73 8c ad 3e 02 98 bf be 91 fa ae be c5 5b 07 be
       0.33896217 -0.3742066 -0.34175542 -0.13218601
0002b0 02 08 61 3d e3 a5 59 be fe 15 58 3d 20 55 04 3f
       0.054939277 -0.21254687 0.05275535 0.5169239
0002c0 96 a0 47 be 09 c8 ed 3e 31 32 24 3e 7b 58 8f 3e
       -0.19494852 0.46441677 0.16034772 0.27997193
0002d0 5d 71 1c 3e b4 aa 8c be ff d0 15 3e 03 93 f7 be
       0.1527762 -0.27473986 0.14630507 -0.4835435
0002e0 fe 17 15 bf 52 09 08 3f 8e 6e dc 3e 5d 87 e0 3e
       -0.58239734 0.5313922 0.43053097 0.43853274
0002f0 05 26 26 3e 61 81 0d 3e 13 92 bf 3c c1 8b d9 be
       0.16225441 0.13818885 0.023385083 -0.42489436
000300 b0 58 8a be 4a bf 09 3d df 7b 25 be 4c 28 c6 3e
       -0.27020788 0.033629693 -0.16160534 0.3870262
000310 6e 45 86 3c 44 dd 2b be d2 39 ab bd 61 03 68 3e
       0.016390529 -0.16783625 -0.08360638 0.22657539
000320 94 f6 b5 be 78 af 56 3e 1f 3e 28 be be 88 04 3e
       -0.35539687 0.20965374 -0.16429947 0.12942788
000330 55 1d 0c 3f 3d 72 e9 3e 3a 5b 82 be ad 9f 64 be
       0.5473226 0.4559497 -0.25460225 -0.22326536
000340 dd a5 ca 3e d0 bb 10 bd ff 68 75 be e1 ff 72 be
       0.3957967 -0.035335362 -0.23965834 -0.23730423
000350 75 e0 7c 3e 99 4c d6 be 30 c9 32 3e 75 4d 3e be
       0.24694999 -0.41855314 0.1745956 -0.18584235
000360 1e 15 d1 bd bd 38 0a 3f 19 db 41 3e e1 c7 d3 3e
       -0.10209106 0.53992826 0.18931235 0.41363433
000370 05 51 ce 3d 5f 16 8a 3e fe 21 14 bf 85 f0 89 be
       0.10074047 0.26970193 -0.5786437 -0.26941314
000380 c4 2e ce 3b 7e fc 08 3e 0f 48 96 be e6 7f 01 bf
       0.006292196 0.13377568 -0.2935185 -0.5058578
000390 9e c3 b1 3d 82 92 99 be 89 2c 8d be 67 ad b2 3d
       0.08679889 -0.2999459 -0.2757304 0.0872448
0003a0 82 e6 02 bf 38 43 a5 3e e5 37 0a be 8c fd a2 3d
       -0.51132977 0.32277846 -0.13497885 0.079585165
0003b0 5c 54 26 3d 62 92 b8 3e 07 c3 da 3c 5e 6f 6f be
       0.040607795 0.3604918 0.026704324 -0.23382327
0003c0 7d 6e ad be 9f a8 b2 3e 4a 04 90 bd 7b a9 9e bc
       -0.33873358 0.34894273 -0.07032068 -0.019367924
0003d0 5b 6b 02 be 9a a1 4c 3e 82 8f b0 be c3 d9 a4 bd
       -0.12736265 0.19983521 -0.34484488 -0.08049347
0003e0 6c d6 f3 39 43 21 4c 3b bf 64 1e bd 6e 2e 15 be
       0.00046508329 0.0031147755 -0.038670298 -0.14568493
0003f0 be da 6e 3e 9d f9 34 be 13 bc 8a be 07 6e 85 3e
       0.23325631 -0.17673345 -0.27096614 0.26060507

encoder_variable_selection.single_variable_grns.time_idx.gate_norm.glu.fc.bias f4 [32]
000000 b2 1e 93 be 96 e8 69 3e 45 53 3f 3e bd be 0b be
       -0.28734356 0.2284263 0.18684109 -0.1364698
000010 f6 5d 17 be 9f 49 82 3d ff de c1 be 68 14 28 be
       -0.14781937 0.06361698 -0.37865445 -0.16414034
000020 4b d3 70 3d b9 b6 90 be 23 75 89 3e f4 8a 55 3e
       0.058795255 -0.28264406 0.2684718 0.20853788
000030 9a 0c b5 3e 59 65 18 3e 40 c0 44 3e 9d ba 2c be
       0.35361177 0.14882411 0.19213963 -0.16868062
000040 be 38 06 be 92 be 30 3e aa 10 86 3e 35 df 49 bc
       -0.13107583 0.17260197 0.2618459 -0.012321283
000050 f7 b9 a3 be 03 96 2a 3e 60 04 bc bd 5f f2 50 be
       -0.31977817 0.16658787 -0.09180522 -0.20404957
000060 dc 2c 9e be 48 a8 16 be 85 b0 4e be 29 08 5e be
       -0.308936 -0.14712632 -0.20184524 -0.216828
000070 f3 31 9a 3c 40 f0 87 3e 3b 31 42 be 7f 5a 1c be
       0.018822646 0.26550484 -0.18964092 -0.15268897

encoder_variable_selection.single_variable_grns.time_idx.gate_norm.add_norm.norm.weight f4 [16]
000000 40 68 74 3f 63 53 9e 3f c9 30 98 3f 31 b3 5e 3f
       0.9547157 1.2369198 1.1889888 0.86992174
000010 9d dd 55 3f 20 25 67 3f 05 ad b0 3f 7b de 96 3f
       0.8354128 0.90291023 1.3802801 1.1786646
000020 2f d0 72 3f d1 5b 65 3f 3b 8e 64 3f f8 0c 58 3f
       0.9484891 0.89593226 0.89279526 0.8439479
000030 70 9a 36 3f 0c be 80 3f 50 ed 4f 3f 08 c5 8f 3f
       0.713294 1.0057998 0.81221485 1.1232004

encoder_variable_selection.single_variable_grns.time_idx.gate_norm.add_norm.norm.bias f4 [16]
000000 4d b6 29 be fd ad 3d 3e a5 0d 3e 3e ab ef 0d be
       -0.16573448 0.18523403 0.18559892 -0.13860957
000010 9f 30 2f be c7 f7 43 3d cf 8f 85 be fa 33 c6 bd
       -0.17108391 0.04784372 -0.2608628 -0.096778825
000020 95 38 9e 3d 3c ec a7 be 8d 80 3c 3e 89 94 23 3e
       0.07725636 -0.3279742 0.18408413 0.1597463
000030 1b 45 c5 3e e8 af 5a 3d 1c 0e 60 3e 5d d2 33 be
       0.38529286 0.053390414 0.21880382 -0.17560716

encoder_variable_selection.single_variable_grns.T2M.resample_norm.mask f4 [16]
000000 57 0f 1c be 96 e7 96 3e 92 74 33 3e 84 f9 3c be
       -0.15240227 0.2947356 0.17524937 -0.18454558
000010 9a a6 85 be a4 57 86 3e fd be 28 be cb 6d 23 3e
       -0.2610367 0.2623874 -0.16479106 0.15959851
000020 ef bb 14 be df e3 1c be 1d 33 c4 3d ba 7d 5c 3d
       -0.14524816 -0.15321301 0.095800616 0.05383084
000030 8b c8 8a 3e e3 22 2a 3e 3b 2c 40 3e af 8d 5a be
       0.27106127 0.1661487 0.18766873 -0.2134311

encoder_variable_selection.single_variable_grns.T2M.resample_norm.norm.weight f4 [16]
000000 10 a6 76 3f 85 d9 58 3f 9e 9a 95 3f c0 42 4f 3f
       0.9634714 0.8470691 1.168781 0.8096123
000010 32 7d 3a 3f 13 65 a1 3f 45 8c 97 3f 94 80 8e 3f
       0.7284728 1.260897 1.1839682 1.1132989
000020 d6 f1 4d 3f af e8 46 3f 59 02 a0 3f b4 96 95 3f
       0.8044714 0.77698797 1.2500716 1.1686616
000030 45 45 94 3f d1 8b 96 3f e6 8e 4c 3f 67 23 9c 3f
       1.1583639 1.1761419 0.79905546 1.2198304

encoder_variable_selection.single_variable_grns.T2M.resample_norm.norm.bias f4 [16]
000000 59 80 55 be d2 ff 62 3e 6a d9 2c 3e 80 8c 3f be
       -0.20849742 0.221679 0.16879812 -0.1870594
000010 82 bd 73 be b4 52 7a 3e da 41 3c be 62 5d 00 be
       -0.2380276 0.24445611 -0.18384495 -0.12535623
000020 64 91 54 3e 98 a2 98 3e 0a 73 8c 3d c1 31 ec bd
       0.20758587 0.2981155 0.068578795 -0.11532927
000030 7f 6d 72 3e cd 94 2f 3e b0 86 49 3e 2a f9 44 be
       0.23674582 0.17146607 0.19680285 -0.19235674

encoder_variable_selection.single_variable_grns.T2M.fc1.weight f4 [8, 8]
000000 4a 7c dc 3e d9 60 32 3f b9 1c 6b 3f 48 5c 6b 3f
       0.43063575 0.6967903 0.918407 0.91937685
000010 c6 f1 af 3f a1 7f 4f 3e 3c 8b 18 bf fa 54 39 3e
       1.3745658 0.2026353 -0.59587455 0.18098822
000020 cf 5e dc 3e 7b 87 2e 3f cc 9a 17 3f 8a ed 31 bf
       0.43041083 0.68175477 0.59220576 -0.6950308
000030 bb 01 4d 3e dd ae d7 bd b0 18 29 3f 07 d0 8f bd
       0.20020191 -0.105313994 0.66053295 -0.070221
000040 3d 32 0d bf da 57 8a 3e ce b4 40 3f 72 c1 d7 be
       -0.5515478 0.2702015 0.75275886 -0.42139775
000050 e0 82 8a 3d 62 db ac be 3d c1 dc be ba cf a6 bf
       0.06763244 -0.33761126 -0.4311618 -1.3032143
000060 9a e9 42 bf d3 c0 a1 be 8b 67 13 bf 2b de a5 3e
       -0.761377 -0.31592426 -0.5757987 0.32396063
000070 bb a8 30 bf 46 ed 55 3f 32 be 28 3f e8 89 23 be
       -0.6900746 0.83565176 0.65915215 -0.15970576
000080 8c 3a b2 3e a3 96 b4 3e 97 ce 51 3d 69 a3 3f 3e
       0.34810293 0.35271177 0.05122241 0.1871468
000090 d9 c9 0f 3f 33 a9 33 3f 78 2c 43 be 39 ab 36 3f
       0.5616737 0.7018005 -0.19059932 0.71355015
0000a0 72 0b bd be 4c c5 4c bf 6f 7c 53 3e 6e d0 77 3f
       -0.36922795 -0.7998855 0.20652936 0.96802413
0000b0 4a f7 b9 be f0 93 f1 bd f2 7d 3e 3f a6 98 77 3e
       -0.3632148 -0.11795795 0.7441093 0.24179325
0000c0 3d be c0 3e 3f 82 b4 3c 1f fa 8c bd 13 91 d2 3e
       0.3764514 0.022034762 -0.06883644 0.41126308
0000d0 56 d3 02 bd fb d8 ce 3e ba 7f 78 bf 2a 11 9e 3e
       -0.031939827 0.40399918 -0.97069895 0.3087247
0000e0 ae a0 0d 3f 41 ae 1b be d5 17 1a 3f aa 86 92 bd
       0.553233 -0.15203191 0.60192615 -0.071545914
0000f0 3f 6a 5c be eb df 1b 3f a9 1d 7f bd 2d 82 95 3e
       -0.21524905 0.60888547 -0.062284146 0.2920088

encoder_variable_selection.single_variable_grns.T2M.fc1.bias f4 [8]
000000 36 28 74 3e 67 65 90 3e b1 45 34 be 67 41 35 be
       0.23843464 0.28202364 -0.1760471 -0.1770073
000010 b6 82 d7 3d 15 98 1c be 18 58 f6 3d 13 d7 5d 3e
       0.10522978 -0.1529239 0.12028521 0.21664076

encoder_variable_selection.single_variable_grns.T2M.fc2.weight f4 [8, 8]
000000 63 03 9a 3e 50 d9 da bd 04 e1 ea 3d 67 7c 09 3f
       0.3008071 -0.1068598 0.114686996 0.5370545
000010 61 54 ef bf 20 ea 1a be 1d 23 c2 bd 1e 49 1a bd
       -1.8697625 -0.15128374 -0.094793536 -0.037667386
000020 e0 f9 41 be 0a 37 93 bf 1e 9f 1c 3e 0a 4b ce be
       -0.18942976 -1.1501172 0.15295073 -0.40291625
000030 fa a6 37 be 1e e1 a4 3e 3e af 80 3b 67 a7 36 bf
       -0.1793479 0.32203 0.0039271405 -0.71349186
000040 4b b9 52 3f cb 1a a2 3e 5f 70 84 be 69 3f 0a bf
       0.82313985 0.31661066 -0.25866982 -0.54003006
000050 40 fc 4e be 00 07 5e be 66 7b 08 be 8d 7b 66 3f
       -0.20213413 -0.21682358 -0.13328323 0.90032274
000060 5e 80 70 bf cf 2f 9c bf 6e ba 08 bf 17 43 b1 bd
       -0.9394587 -1.220209 -0.5340947 -0.086553745
000070 b0 cd b2 3d 5e e1 40 bf b0 aa b6 3b 79 83 04 bf
       0.08730638 -0.75343883 0.0055745468 -0.5176311
000080 0b 7e c0 bf a9 6b 33 bc 19 c4 f8 bd 62 a6 82 3f
       -1.5038465 -0.010950961 -0.12146778 1.0207026
000090 be 03 96 3e ad ed 97 bd df f3 a8 3e bf 9f 18 bf
       0.2929973 -0.0741838 0.3299856 -0.59618753
0000a0 a0 81 93 be 6a a9 8b bf e7 69 52 3e 74 0d b5 bd
       -0.28809834 -1.0911076 0.20548211 -0.088404566
0000b0 28 e7 17 3e ba be 6d bc 4f 22 b3 3d cb 70 78 be
       0.14834273 -0.014510805 0.08746778 -0.24261777
0000c0 f8 92 6b bf c9 f8 99 3e a3 68 d9 3e a1 0c ae 3e
       -0.9202113 0.3007262 0.42462644 0.3399401
0000d0 1a b7 97 bf 55 3d c2 3e 76 54 ca be f4 3d 10 be
       -1.1852753 0.37937418 -0.39517564 -0.14086133
0000e0 a0 12 13 bf ed 05 6e bf c0 14 07 be 58 9d 68 be
       -0.57450294 -0.9297779 -0.13191509 -0.22716272
0000f0 b7 88 30 be 47 2b ab 3d e0 22 a2 bd 98 43 38 bd
       -0.17239653 0.08357864 -0.07916808 -0.044986337

encoder_variable_selection.single_variable_grns.T2M.fc2.bias f4 [8]
000000 bc ec 34 be ef 7e 49 be 9d e7 66 3e fb 18 9b be
       -0.17668432 -0.19677328 0.22549291 -0.30292496
000010 73 e1 68 be b2 45 b6 bd 3e e0 0f be b8 6c ff bb
       -0.22742252 -0.08900012 -0.14050385 -0.0077949427

encoder_variable_selection.single_variable_grns.T2M.gate_norm.glu.fc.weight f4 [32, 8]
000000 61 34 58 3b 53 1f fe bc 3b 4d 97 3d 8a 71 d1 bd
       0.0032990205 -0.031020796 0.073877774 -0.10226734
000010 c1 0e ac 3e de 6f 6a 3d e0 3f 20 bc 45 84 d2 3d
       0.33605006 0.05723559 -0.009780854 0.10279135
000020 7d 82 d1 bd c0 13 bb be e5 72 ba 3e a5 86 13 bf
       -0.10229967 -0.36538506 0.36415783 -0.57627326
000030 b5 7c 01 be dd 8e cc 3e 5b 15 f1 be d4 a9 e8 be
       -0.12645228 0.39952746 -0.47086605 -0.4544207
000040 77 fd fc be 7f cf 74 be 89 75 a7 be 87 ac d5 bd
       -0.49412128 -0.23907278 -0.3270686 -0.104332976
000050 0e f9 f3 3d 51 80 8c 3e c7 a8 bd bc 20 a6 55 be
       0.11912738 0.27441648 -0.023151768 -0.20864153
000060 df 8a 0a 3f 91 d0 8c 3e d0 18 83 bd bb eb ee 3e
       0.5411815 0.27502874 -0.06401217 0.46664223
000070 d1 ba f0 3d 6f 07 6a 3e 25 32 dd 3e f1 e5 03 be
       0.117543824 0.22854398 0.4320232 -0.12880684
000080 97 c6 0a 3d b7 21 e1 3e b3 88 f8 be b4 80 94 3e
       0.033880796 0.43971035 -0.48541793 0.29004443
000090 ad a3 0f 3f 2c 30 74 be f4 ae a2 3e 56 c8 1c 3f
       0.56109124 -0.23846501 0.31774104 0.6124319
0000a0 13 24 9b bc 4a 16 ad be 35 63 0d 3e ab 73 89 bd
       -0.0189381 -0.33806068 0.13807376 -0.06711515
0000b0 75 54 6d be 09 4b 1b 3e 85 a3 d3 be 19 4d 7e be
       -0.23176749 0.15165342 -0.41335693 -0.24834098
0000c0 d2 8a c2 3e b5 01 58 3e 2b 19 36 be 26 2d 43 3d
       0.37996536 0.21094401 -0.17783038 0.04765048
0000d0 17 53 da 3e bf 28 e8 3d 1f b5 05 3f 33 93 c1 3d
       0.42641518 0.11335897 0.52229494 0.09451904
0000e0 59 8b 6b be 64 64 24 be 19 82 ab 3e c3 29 88 bd
       -0.23002376 -0.16053921 0.33497694 -0.066485904
0000f0 23 37 11 be f9 30 b4 be 47 af e6 3e 53 87 e8 3d
       -0.14181189 -0.35193613 0.450556 0.11353936
000100 98 91 e9 3d a0 49 30 be 5e c3 74 3e d6 67 9f be
       0.11404723 -0.17215586 0.23902652 -0.31133908
000110 b3 77 14 bf cf c2 0c be 48 f6 19 3d 0c a7 9e be
       -0.57995147 -0.13746189 0.037588388 -0.30986822
000120 74 b7 f0 be 29 d5 1e be 02 5a 83 be 3f 8d 05 bf
       -0.47014964 -0.15511002 -0.25654608 -0.5216865
000130 48 ae b8 be fe cb 1e bf 5a 36 0f 3d e2 9a 14 bf
       -0.36070466 -0.6203002 0.034963943 -0.5804883
000140 04 65 0a 3f fe 19 63 3e 55 11 22 bf b0 a4 86 3e
       0.5406039 0.22177884 -0.63307697 0.26297522
000150 76 87 09 be 6e e1 f7 3e 4b 1f 5e bd e5 71 23 3f
       -0.1343058 0.48414177 -0.054229062 0.63845664
000160 b6 a5 6f 3e 6e 43 db 3e 9c f0 f4 be 7d c2 42 3e
       0.23403057 0.42824882 -0.4783982 0.19019504
000170 ce 98 f8 be 30 6c 92 3e 31 79 37 3e 33 c3 bc be
       -0.4855408 0.28598166 0.17917325 -0.36867675
000180 be b3 4e be 5d b1 07 bf 2c 72 14 3e a5 b5 ec be
       -0.20185754 -0.5300501 0.14496678 -0.46232334
000190 08 b0 7a be 82 6b 5a be 1d 84 a7 bd 0e 57 c0 bd
       -0.24481213 -0.21330073 -0.081794955 -0.09391604
0001a0 0b d8 11 bd 86 bc e1 3d 0a 41 01 bf 08 de 6e be
       -0.035606425 0.11022286 -0.50489867 -0.23326886
0001b0 96 2f b8 be ef 38 82 be 3d 35 1b bd fb 5a 1e be
       -0.35973805 -0.25434062 -0.03789257 -0.15464394
0001c0 86 f5 6e be 34 21 fc be 21 22 a0 bd 0b 07 e6 bb
       -0.23335847 -0.49244082 -0.078190096 -0.0070198826
0001d0 29 d3 e6 be 32 72 9f 3e ce ff f7 be 10 73 b3 be
       -0.45082977 0.31141812 -0.4843735 -0.35048723
0001e0 97 e8 b1 3e ec 18 d9 3e d7 d6 b3 3d 9d ab 19 3f
       0.34747764 0.42401826 0.08781212 0.60027486
0001f0 ac 76 0b 3f 3d 2a 59 be bd 5e bd 3e 50 0a 1c 3d
       0.54477954 -0.21207519 0.36986342 0.038095772
000200 0a eb a7 bd e7 84 be 3e 66 52 44 3e 7d 09 8b 3e
       -0.08199127 0.3721077 0.19172058 0.27155676
000210 ff d2 9a 3e 9a eb 47 3e 30 e4 c4 3e f4 a2 81 3e
       0.30239102 0.19523469 0.38455343 0.25319636
000220 b5 60 c6 be 0e 58 8d 3e 50 01 ab 3e ae d1 b2 be
       -0.38745657 0.27606243 0.3339944 -0.34925598
000230 ab 95 f1 bd b5 9c 86 be 24 24 87 bd 5e c5 14 be
       -0.11796125 -0.26291433 -0.0659869 -0.14528415
000240 b4 09 0e 3e d0 a4 d0 be 23 b4 c3 bd 59 1e f7 be
       0.13870889 -0.40750742 -0.09555843 -0.4826534
000250 6a 69 a7 be 38 0b 64 be 00 c7 56 3a 36 a1 03 bf
       -0.32697612 -0.22269905 0.00081931055 -0.51417863
000260 71 b8 a0 be 52 d1 d1 bb 2a b2 0a bd 28 fb ae 3d
       -0.31390718 -0.0064031268 -0.033861317 0.08543998
000270 93 3a 2e bf 0d 0d 02 bf c2 1a c5 3d a2 23 cf be
       -0.6805813 -0.50801164 0.09624244 -0.40456873
000280 62 e8 7e be 3d 58 a3 be 98 37 fe 3d db 32 c6 be
       -0.24893335 -0.31903258 0.124129474 -0.38710675
000290 db ef 17 bf ae 44 ae bd 35 68 11 bf 05 fc fc be
       -0.59350365 -0.08509193 -0.5679963 -0.49411026
0002a0 a1 ca 51 bd bc f6 88 be 6c e6 29 bd 9c db 5d 3e
       -0.051218633 -0.26750743 -0.041479513 0.21665806
0002b0 2c ae 16 3d fe 1a 85 be d0 14 ac bd 51 5b ca 3d
       0.036787197 -0.25997156 -0.08402407 0.098806985
0002c0 7a 4f f0 be 66 0a e3 be f6 62 a6 be ce b0 61 be
       -0.46935636 -0.4434387 -0.32497376 -0.22040102
0002d0 e2 b0 a8 3d 1c 88 96 bd dc dc e6 be c9 83 13 be
       0.08236863 -0.073501796 -0.45090377 -0.14405741
0002e0 86 52 0c 3f 3b 81 94 3e da 76 82 be d7 01 a2 3e
       0.5481342 0.29004845 -0.25481302 0.3164203
0002f0 01 96 89 3e 02 54 6a 3c a7 96 8e be 52 d7 44 3d
       0.26872256 0.014302256 -0.27849314 0.048056908
000300 6b 3f 0d be af f0 10 3f 79 5e bc bd 04 d0 56 3d
       -0.13793723 0.56617254 -0.09197707 0.052444473
000310 38 54 06 bd c6 0b e6 3d a1 5c 54 3e e0 81 c1 bd
       -0.03279516 0.11232714 0.2073846 -0.094486
000320 04 2a 37 be 33 bb e9 bd f6 29 a4 bc 57 8b bb be
       -0.17887121 -0.114126585 -0.02003954 -0.36629745
000330 f9 32 1a be 40 d3 d3 be a9 64 e3 be 84 52 6b be
       -0.15058507 -0.41372108 -0.44412735 -0.22980696
000340 8c 9b 11 bf 38 78 b8 be 03 4b bc 3e 29 f8 05 bf
       -0.5687797 -0.3602922 0.3677598 -0.5233179
000350 c6 0b a3 be 14 88 4f be 4b 80 a7 be c4 18 c8 3d
       -0.3184492 -0.20266753 -0.32715067 0.09770349
000360 fd 7a 88 bc ca 14 ad be d6 44 83 bd 36 cd b7 3e
       -0.016660208 -0.33804923 -0.06409614 0.3589875
000370 ec 12 b7 be 1f 5a 33 3e 74 93 0d bd 7f ab c2 3e
       -0.35756624 0.17514847 -0.03456445 0.38021466
000380 2d de 03 be 63 16 63 be d9 61 cb 3e 66 8a f9 bc
       -0.12877722 -0.22176509 0.3972309 -0.030461501
000390 7b 29 47 be 72 14 9c be 30 21 46 be ad 30 20 be
       -0.19449417 -0.3048435 -0.19348598 -0.15643568
0003a0 e4 43 aa bd 96 c0 de 3e 16 48 2b 3e 5c 61 06 3f
       -0.0831373 0.43506306 0.16726717 0.5249231
0003b0 92 33 72 be 45 32 a8 3e 75 cc 0f 3f c3 83 a8 3d
       -0.23652485 0.32850853 0.5617135 0.082282566
0003c0 1b 5e 8e 3d 7d bd 08 bf 84 35 26 be a6 6d 17 bf
       0.06951543 -0.53414136 -0.16231352 -0.59151685
0003d0 af be e1 bd d6 f5 77 3e 03 80 0c 3d 5e c1 4f bd
       -0.11022698 0.24214873 0.03430177 -0.05072152
0003e0 a5 f9 6e be 34 4b 38 3e a9 40 82 be eb 91 69 bd
       -0.2333742 0.17997438 -0.25439957 -0.057023924
0003f0 ec 70 e3 be 9a c8 be bd a9 0d 16 3e aa 27 04 bc
       -0.4442209 -0.093156055 0.14653648 -0.008066097

encoder_variable_selection.single_variable_grns.T2M.gate_norm.glu.fc.bias f4 [32]
000000 1a f5 4c be ef 93 6d 3e 75 58 29 3e 05 c6 40 be
       -0.20015374 0.23200963 0.1653765 -0.18825538
000010 01 77 85 be 5e 22 67 3e 31 9f 3a be 60 fe 07 be
       -0.26067355 0.22571704 -0.18224789 -0.1328063
000020 d6 fc 4d 3e f7 f9 96 3e ce 76 b2 bd d9 1e 17 3e
       0.2011598 0.29487583 -0.087140664 0.14757861
000030 60 c5 7f 3e 3d 16 36 3e 18 87 49 3e e6 66 3c be
       0.24977636 0.1778192 0.1968044 -0.18398628
000040 f8 30 34 be 18 28 81 3e 70 fc 2c 3e 94 f4 77 3e
       -0.17596805 0.25225902 0.16893172 0.24214393
000050 1d 10 7f 3e aa 34 c3 bd 2a c4 45 3e 00 18 1f bc
       0.2490849 -0.09531529 0.19313112 -0.009710312
000060 86 b3 29 be a9 49 9a 3e 60 f2 5b 3e 88 07 66 3e
       -0.16572389 0.30134323 0.21479177 0.2246381
000070 88 c5 0d be 8a f6 34 be 4f 4d 64 3e 16 13 58 3e
       -0.13844883 -0.17672172 0.22295116 0.2110103

encoder_variable_selection.single_variable_grns.T2M.gate_norm.add_norm.norm.weight f4 [16]
000000 c4 2c 5d 3f ae 2e 93 3f 01 b6 94 3f df 27 51 3f
       0.8639643 1.149862 1.1618043 0.81701463
000010 d2 3b 38 3f 0a f7 9f 3f 47 36 94 3f 82 ba 8d 3f
       0.7196628 1.2497265 1.1579064 1.1072543
000020 7c d8 4e 3f 7a e8 52 3f fd be a1 3f 91 24 91 3f
       0.8079908 0.8238598 1.263641 1.1339284
000030 3c fe 77 3f f4 db 94 3f a7 91 64 3f ca 27 98 3f
       0.96872306 1.1629624 0.8928475 1.1887143

encoder_variable_selection.single_variable_grns.T2M.gate_norm.add_norm.norm.bias f4 [16]
000000 e6 2b 78 be 87 f5 50 3e b3 a7 28 3e 00 7d 44 be
       -0.24235496 0.20406161 0.16470222 -0.19188309
000010 fa 3c 87 be 25 bd 70 3e 61 2f 32 be a3 9b d2 bd
       -0.2641371 0.23509653 -0.17400886 -0.102835916
000020 f7 2a 67 3e 49 41 91 3e 95 4b 20 bd 2e d0 a8 be
       0.22574984 0.2837012 -0.03913458 -0.32971328
000030 1c 95 8f 3e a1 08 31 3e b5 c8 4d 3e 8a a2 3d be
       0.2804345 0.17288448 0.20096095 -0.18519035

encoder_variable_selection.single_variable_grns.T2M_MAX.resample_norm.mask f4 [16]
000000 e8 6b ba bd e3 e1 23 be 66 c6 2e be ca 70 29 3e
       -0.09102613 -0.16004138 -0.1706787 0.16546932
000010 19 02 09 3e c3 64 e9 bd 08 e2 8e 3e 16 71 0f 3e
       0.13379706 -0.11396172 0.27906823 0.14007983
000020 64 58 c0 bc fc 55 a5 be f3 80 1a be ab f1 bf bd
       -0.023479648 -0.32292163 -0.15088253 -0.093722664
000030 2d 71 22 3e ee 65 94 be 33 54 e9 bd 7a 01 23 3e
       0.15863486 -0.28984016 -0.11393013 0.15918532
