ai_predict/ai/lightning_logs/version_79/checkpoints/epoch=9-step=50.ckpt (torch, 662004 bytes, 889 tensors)

prescalers.time_idx.weight f4 [8, 1]
0.42488354 0.47150856 -0.065733716 -0.5815051 -0.14352219 0.48201904 -1.049904 -0.8171372
00000000: 568a d93e 9269 f13e 669f 86bd 85dd 14bf
00000010: 7bf7 12be 33cb f63e 4163 86bf e72f 51bf

prescalers.time_idx.bias f4 [8]
0.64485097 -0.27581966 -1.0060034 0.83542013 0.45959383 -0.23556419 0.84301573 -1.1310027
00000000: f414 253f 3c38 8dbe b8c4 80bf 18de 553f
00000010: e24f eb3e bd37 71be e1cf 573f b2c4 90bf

prescalers.T2M.weight f4 [8, 1]
-1.0381892 0.1633302 0.19660063 0.67594624 -0.49115807 0.7425071 0.3339813 0.6548953
00000000: 62e3 84bf 0840 273e ad51 493e d00a 2d3f
00000010: 1279 fbbe f214 3e3f 99ff aa3e 38a7 273f

prescalers.T2M.bias f4 [8]
0.31557837 0.013369477 -0.19730723 -0.07183802 0.45858186 -0.40485615 -0.10754298 -0.22075534
00000000: 7d93 a13e a70b 5b3c e80a 4abe d01f 93bd
00000010: 3ecb ea3e 4e49 cfbe 7e3f dcbd b00d 62be

prescalers.T2M_MAX.weight f4 [8, 1]
-1.1984826 -1.2763497 -0.68134284 -1.1999404 0.500392 -0.3946492 -0.23034509 0.9881828
00000000: e167 99bf 6d5f a3bf 7c6c 2ebf a697 99bf
00000010: b119 003f 760f cabe 95df 6bbe 8cf9 7c3f

prescalers.T2M_MAX.bias f4 [8]
0.75387007 -0.464065 0.04012471 -0.65513724 0.9558839 1.0098004 0.84856737 -0.8506473
00000000: a1fd 403f ed99 edbe cf59 243d 13b7 27bf
00000010: cfb4 743f 2441 813f b63b 593f 05c4 59bf

prescalers.T2M_MIN.weight f4 [8, 1]
-0.7569965 -0.64686227 -0.42913997 0.099624485 0.21399932 -0.16120067 -0.25625765 0.33795223
00000000: 86ca 41bf c498 25bf 3cb8 dbbe ec07 cc3d
00000010: a322 5b3e ca11 25be 3434 83be 1308 ad3e

prescalers.T2M_MIN.bias f4 [8]
0.41398335 -0.11768953 -0.3770476 -0.56707716 -0.55131197 -0.55845565 0.91920114 -0.7935366
00000000: a0f5 d33e 3507 f1bd 620c c1be f82b 11bf
00000010: c822 0dbf f3f6 0ebf c450 6b3f 3725 4bbf

prescalers.PRECTOTCORR.weight f4 [8, 1]
0.3008373 -0.5568173 0.34515342 -0.5837792 -0.15758076 0.644201 0.69290084 -0.5421714
00000000: 5907 9a3e 948b 0ebf f3b7 b03e 8e72 15bf
00000010: da5c 21be 5bea 243f f361 313f bfcb 0abf

prescalers.PRECTOTCORR.bias f4 [8]
-0.729356 0.59265316 0.24130389 0.28310937 0.6982221 -0.43386567 0.71386033 -0.628861
00000000: 13b7 3abf 1eb8 173f 5e18 773e b6f3 903e
00000010: afbe 323f a423 debe 8dbf 363f 09fd 20bf

prescalers.RH2M.weight f4 [8, 1]
-0.088622406 0.8947914 -0.87740666 -0.8217993 -0.6520307 0.6790948 -0.41264147 0.40606788
00000000: aa7f b5bd 0d11 653f b99d 60bf 7061 52bf
00000010: 7ceb 26bf 28d9 2d3f be45 d3be 21e8 cf3e

prescalers.RH2M.bias f4 [8]
-0.47607163 0.58734363 0.6378566 -0.044183485 0.041771833 0.017712725 -0.98654395 -0.060463693
00000000: a9bf f3be 275c 163f 924a 233f bef9 34bd
00000010: f118 2b3d 471a 913c 258e 7cbf c7a8 77bd

prescalers.ALLSKY_SFC_SW_DWN.weight f4 [8, 1]
0.7127199 0.08852039 0.21939588 0.30763194 -0.7444313 0.10335348 0.31004366 -0.11626064
00000000: d074 363f 2e4a b53d 50a9 603e ef81 9d3e
00000010: 0d93 3ebf fdaa d33d 0bbe 9e3e 0f1a eebd

prescalers.ALLSKY_SFC_SW_DWN.bias f4 [8]
0.4858178 -0.0047533256 -0.973843 0.58564705 -0.60846204 -1.1602877 -0.60703915 -0.04886267
00000000: 1cbd f83e c9c1 9bbb c64d 79bf f7ec 153f
00000010: 2bc4 1bbf 4f84 94bf eb66 1bbf 3924 48bd

prescalers.numero_casos.weight f4 [8, 1]
-0.4640497 -0.45824218 -0.56029564 -0.3176673 -0.83453584 0.40870968 1.2459143 0.15847453
00000000: ec97 edbe b89e eabe 896f 0fbf 4aa5 a2be
00000010: 24a4 55bf 6542 d13e 1f7a 9f3f 2647 223e

prescalers.numero_casos.bias f4 [8]
0.6353666 -0.8341203 -0.10465421 0.37814698 0.65915155 0.27474368 0.42438403 -0.020566577
00000000: 63a7 223f e888 55bf f254 d6bd 7b9c c13e
00000010: 28be 283f 34ab 8c3e dd48 d93e 3d7b a8bc

static_variable_selection.single_variable_grns.municipio.mask f4 [16]
-0.17296796 0.17296891 -0.17296843 -0.17296882 -0.17296828 0.17296846 0.17296883 0.17296813
0.1729674 0.17296572 -0.17296821 -0.17296804 -0.17296785 0.17296873 -0.17296875 0.17296578
00000000: 831e 31be c31e 313e a31e 31be bd1e 31be
00000010: 991e 31be a51e 313e be1e 313e 8f1e 313e
00000020: 5e1e 313e ed1d 313e 941e 31be 891e 31be
00000030: 7c1e 31be b71e 313e b81e 31be f11d 313e

static_variable_selection.single_variable_grns.municipio.norm.weight f4 [16]
0.8191319 1.1724298 0.9619047 1.2604159 0.992633 0.9989506 1.2467781 0.74504423
0.74451613 0.8191362 0.8734179 0.6912541 0.95335114 1.0371035 1.0268841 0.9470255
00000000: a1b2 513f 2e12 963f 633f 763f 4f55 a13f
00000010: 321d 7e3f 3abb 7f3f 6d96 9f3f 38bb 3e3f
00000020: 9c98 3e3f e9b2 513f 5198 5f3f 07f6 303f
00000030: d20e 743f cfbf 843f f070 833f 4370 723f

static_variable_selection.single_variable_grns.municipio.norm.bias f4 [16]
0.17296512 -0.17297342 0.17296687 0.17297235 0.17296854 -0.17296621 -0.17297742 -0.17296344
-0.17292704 0.17298256 0.17296669 0.17296478 0.17296751 0.17294963 0.17296879 0.17297375
00000000: c51d 313e f21f 31be 3a1e 313e aa1f 313e
00000010: aa1e 313e 0e1e 31be fe20 31be 541d 31be
00000020: c913 31be 5722 313e 2e1e 313e ae1d 313e
00000030: 651e 313e b519 313e bb1e 313e 0820 313e

encoder_variable_selection.flattened_grn.resample_norm.mask f4 [8]
-0.007279951 -0.17522876 -0.103445925 0.20673126 0.17599462 -0.17536113 0.16759773 -0.18653294
00000000: a88c eebb 2b6f 33be 75db d3bd 5cb1 533e
00000010: ef37 343e de91 33be bd9e 2b3e 7e02 3fbe

encoder_variable_selection.flattened_grn.resample_norm.norm.weight f4 [8]
1.1044716 0.82588667 0.830851 1.2364777 1.1758224 0.8244679 0.8198404 0.81736976
00000000: 535f 8d3f 4f6d 533f a7b2 543f e744 9e3f
00000010: 5981 963f 5410 533f 0fe1 513f 253f 513f

encoder_variable_selection.flattened_grn.resample_norm.norm.bias f4 [8]
-0.21501061 -0.16488397 0.15214339 -0.21970442 0.17406002 -0.16703597 0.15977283 0.19243287
00000000: be2b 5cbe 58d7 28be 7acb 1b3e 32fa 60be
00000010: ca3c 323e 7a0b 2bbe 7d9b 233e 1f0d 453e

encoder_variable_selection.flattened_grn.fc1.weight f4 [8, 64]
-0.22670823 0.34605297 0.45792463 0.1720682 -0.70247036 -0.34018144 -0.2731965 0.27407524
0.0015506849 0.09210945 0.37685055 -0.2306859 0.1456844 -0.37549713 -0.12145769 0.049160574
0.22787143 0.2852742 0.25852242 0.16300985 -0.10496193 0.19611907 -0.20041741 0.22766648
0.19733658 0.47345874 -0.08237221 0.030080434 0.28928736 0.18655759 0.23092623 0.36804777
0.19683097 0.2418997 -0.16684571 0.39677364 -0.224285 -0.14037292 -0.42501298 -0.050126575
0.26649505 -0.2710806 0.14151943 0.3486888 -0.012068992 0.0049276194 0.33906263 -0.09063162
-0.36082867 -0.22635372 0.32161537 -0.012860566 0.101772085 0.1519187 0.19885977 0.31371623
-0.1528831 -0.29186517 -0.33123702 -0.17071348 0.07989807 0.39650616 0.022112828 0.3567256
-0.19651066 0.00067839934 0.09944592 -0.45337793 -0.2602665 -0.15234779 -0.56064373 -0.17431581
-0.13305388 0.23284602 0.36345187 0.4662266 -0.19352083 0.35551262 0.2776795 -0.06414484
-0.23752452 0.35933888 -0.21308784 0.07456525 -0.019133864 -0.027003128 -0.16362447 0.6200432
-0.109584816 -0.4323718 -0.21456748 -0.09802147 0.26090968 0.0111577 -0.45845458 0.28464618
0.14814092 -0.08860717 0.19764382 -0.17817305 -0.1231211 -0.14699143 0.47305167 -0.27518147
0.6902191 -0.02270536 -0.28899655 -0.5271093 -0.25938913 0.16697884 0.34500766 0.27736393
-0.21620896 -0.031382125 0.0028450203 -0.24614824 0.09926478 0.44862732 0.26513007 0.18963501
-0.270413 0.032862104 0.009735666 0.078960724 0.12506431 -0.14597598 -0.21573956 -0.42838848
0.25523007 0.5117549 -0.58864206 0.051930204 0.39929405 0.15283199 -0.12470182 -0.2223861
0.09823093 -0.36103046 -0.17002763 -0.21568811 0.2807471 -0.16826582 -0.48487157 -0.048446212
0.168221 -0.15743373 0.1100962 0.041784294 0.5095181 0.7428431 0.05169896 -0.15839104
0.16704722 -0.082205005 -0.26120707 -0.29827696 -0.3322359 -0.14938986 0.08366898 -0.3451516
-0.20283757 0.20349999 -0.014356862 -0.07584122 0.16392156 0.20160948 -0.39944524 0.19541605
-0.41516113 0.23327538 -0.08446731 0.254074 0.26317886 0.042934254 -0.35127085 -0.349091
0.46221682 -0.110146455 -0.5703279 -0.037514582 -0.015292201 -0.5896063 -0.38970694 0.0060894163
0.19207394 -0.023401577 0.26519114 0.2672544 0.6481496 0.1017739 -0.108635135 0.17850621
0.14165568 0.16400437 -0.058663357 -0.14065692 0.1353398 0.4467247 0.03918395 -0.16479957
-0.41417456 0.07599721 0.22337615 -0.02813094 -0.34696928 -0.19702171 0.38745326 0.35404104
-0.36538443 -0.11146742 -0.28096825 0.044545297 0.35073036 -0.09877676 -0.08323011 0.33651733
-0.5273601 -0.13306153 0.032314274 0.009721034 -0.004106387 -0.1928454 -0.010269691 -0.052022245
0.20985879 0.36752814 -0.04940842 -0.46218163 0.14775133 0.13710392 0.165568 -0.06287556
-0.0054504666 0.019962635 0.2266609 0.3199265 0.140632 -0.3582402 0.24600494 -0.01411852
0.3174594 0.1982073 0.2758251 -0.01824657 -0.31528425 0.10510664 0.09497248 -0.1469664
0.20462449 -0.06473483 0.22412592 0.35830092 0.22133003 -0.10567765 -0.35995105 -0.027540063
00000000: 3426 68be db2d b13e 1975 ea3e a532 303e
00000010: 19d5 33bf 432c aebe 69e0 8bbe 9753 8c3e
00000020: 5a40 cb3a e1a3 bc3d 8ef2 c03e ed38 6cbe
00000030: 4b2e 153e 2941 c0be cfbe f8bd 995c 493d
00000040: 2157 693e 760f 923e 0d5d 843e 0eec 263e
00000050: 48f6 d6bd 70d3 483e 393a 4dbe 6721 693e
00000060: 9a12 4a3e 2f69 f23e c3b2 a8bd 3e6b f63c
00000070: 791d 943e f408 3f3e ed77 6c3e c270 bc3e
00000080: 0f8e 493e 8eb4 773e 9ad9 2abe ea25 cb3e
00000090: f8aa 65be ebbd 0fbe 4d9b d9be 8651 4dbd
000000a0: 0a72 883e 14cb 8abe 78ea 103e 5787 b23e
000000b0: 05bd 45bc de77 a13b 9e99 ad3e 129d b9bd
000000c0: 89be b8be 45c9 67be c5aa a43e 20b5 52bc
000000d0: e26d d03d 9390 1b3e e5a1 4b3e 6a9f a03e
000000e0: 638d 1cbe 5a6f 95be e697 a9be 84cf 2ebe
000000f0: 99a1 a33d db02 cb3e f625 b53c bda4 b63e
00000100: 173a 49be 9cd6 313a 4daa cb3d 2721 e8be
00000110: a741 85be 0f01 1cbe 5986 0fbf d87f 32be
00000120: 473f 08be 306f 6e3e 5d16 ba3e 41b5 ee3e
00000130: 532a 46be c005 b63e 022c 8e3e 5f5e 83bd
00000140: a139 73be 44fb b73e b333 5abe aab5 983d
00000150: 9fbe 9cbc aa35 ddbc 2c8d 27be 27bb 1e3f
00000160: 016e e0bd d65f ddbe 94b7 5bbe 7bbf c8bd
00000170: f495 853e c9ce 363c 8fba eabe 25bd 913e
00000180: 41b2 173e ad77 b5bd 2463 4a3e ff72 36be
00000190: ea26 fcbd ec84 16be d433 f23e 96e4 8cbe
000001a0: 33b2 303f 9700 babc 5bf7 93be a3f0 06bf
000001b0: a7ce 84be 80fc 2a3e d8a4 b03e a502 8e3e
000001c0: e265 5dbe 8b8a 00bd 8573 3a3b 490e 7cbe
000001d0: 554b cb3d 7bb2 e53e 21bf 873e ae2f 423e
000001e0: 9373 8abe 6a9a 063d 5882 1f3c 29b6 a13d
000001f0: dc10 003e ba7a 15be d5ea 5cbe bc55 dbbe
00000200: 84ad 823e 5e02 033f 3fb1 16bf c4b4 543d
00000210: 4570 cc3e fd7f 1c3e ab63 ffbd 2fb9 63be
00000220: 4c2d c93d fcd8 b8be b91b 2ebe 58dd 5cbe
00000230: 15be 8f3e e04d 2cbe 1641 f8be 896f 46bd
00000240: 2042 2c3e 4f36 21be 1e7a e13d 0226 2b3d
00000250: c76f 023f f72a 3e3f 4ac2 533d 4331 22be
00000260: 6d0e 2b3e 195b a8bd efbc 85be c2b7 98be
00000270: d31a aabe a8f9 18be a45a ab3d b6b7 b0be
00000280: a7b4 4fbe 4d62 503e 0b39 6bbc a452 9bbd
00000290: 0edb 273e b772 4e3e 1684 ccbe 251b 483e
000002a0: 0090 d4be bedf 6e3e 32fd acbd fd15 823e
000002b0: 61bf 863e d4db 2f3d c6d9 b3be 0ebc b2be
000002c0: afa7 ec3e 7794 e1bd 0201 12bf e4a8 19bd
000002d0: 248c 7abc 70f0 16bf ab87 c7be ba89 c73b
000002e0: 08af 443e aab4 bfbc 22c7 873e 92d5 883e
000002f0: 22ed 253f d66e d03d 197c debd 55ca 363e
00000300: 300e 113e c3f0 273e fd48 70bd 5e08 10be
00000310: 8496 0a3e 1ab9 e43e 597f 203d 38c1 28be
00000320: b00e d4be 6da4 9b3d b8bc 643e db72 e6bc
00000330: f5a5 b1be 0fc0 49be 4660 c63e de44 b53e
00000340: ab13 bbbe 0849 e4bd 12db 8fbe 2175 363d
00000350: ee92 b33e 784b cabd 8c74 aabd 004c ac3e
00000360: 1201 07bf 4841 08be f95b 043d f944 1f3c
00000370: df8e 86bb 4479 45be 3542 28bc 4715 55bd
00000380: 39e5 563e a62c bc3e 7c60 4abd 12a3 ecbe
00000390: 204c 173e f864 0c3e a88a 293e e7c4 80bd
000003a0: d499 b2bb ae88 a33c cc19 683e 68cd a33e
000003b0: d601 103e 426b b7be b8e8 7b3e 5d51 67bc
000003c0: 0a8a a23e dbf6 4a3e f338 8d3e d579 95bc
000003d0: f06c a1be 2642 d73d ee80 c23d 5c7e 16be
000003e0: 1589 513e b293 84bd 4481 653e 3873 b73e
000003f0: 57a4 623e 866d d8bd 814b b8be b39b e1bc

encoder_variable_selection.flattened_grn.fc1.bias f4 [8]
-0.27014676 -0.16345933 0.29006177 -0.00055574713 0.16813745 0.17584246 -0.17293136 0.18981217
00000000: ad50 8abe e261 27be fa82 943e 8faf 11ba
00000010: 392c 2c3e 0c10 343e eb14 31be 1f5e 423e

encoder_variable_selection.flattened_grn.context.weight f4 [8, 16]
0.105958074 0.06581803 -0.679312 -0.43334383 -0.036776457 0.45822462 0.16916738 -0.21619198
-0.5459366 0.3575939 -0.7138168 0.15441704 0.36013234 0.18620686 -0.6099016 -0.20156407
0.28770515 -0.3633805 0.44917685 -0.23645133 0.41780072 0.15271623 -0.24257006 -0.37790063
0.37120533 -0.3894104 0.10767459 -0.21869445 -0.25172502 0.061983917 0.31686273 0.4518489
-0.52950394 -0.047249854 0.098297305 0.60069394 -0.04572164 -0.249905 -0.5128202 -0.060100548
0.4233333 -0.2557305 0.5246503 0.7041383 -0.7229216 -0.7548457 0.39765817 -0.45072696
-0.12514158 -0.59235185 -0.15648802 0.5361827 0.39789248 0.3652207 0.09475214 -0.5458051
-0.14576305 -0.22370934 0.16221364 0.17546086 -0.22664697 -0.06884697 0.43087408 -0.21344018
-0.37831056 -0.17762358 0.017539676 -0.19330096 0.02833415 -0.24034612 -0.19068912 0.47061417
-0.4899497 0.24297614 0.03922927 -0.44118157 0.30993408 0.08246207 -0.1303772 -0.46080023
0.24322101 -0.3356138 0.58145124 -0.12549217 0.24856196 0.26437667 -0.20915775 0.19066991
0.5674055 0.033475388 0.29508916 0.020323316 0.25151825 0.18253216 0.13418111 0.3098343
0.12805758 0.07859392 -0.12584403 0.39189693 -0.041296195 0.18701203 -0.47722343 0.54271114
0.4195276 0.20549761 0.14626084 -0.167535 0.2912513 0.54055506 -0.4104736 0.073373534
-0.08704809 0.015564101 -0.3272602 -0.28966022 0.12582467 -0.33787224 0.11757825 -0.17155266
0.6910683 -0.0062120953 -0.10946809 0.6385434 0.27256694 -0.36995405 0.47942087 -0.38791183
00000000: 8c00 d93d 9acb 863d 64e7 2dbf 3edf ddbe
00000010: e9a2 16bd 6b9c ea3e 373a 2d3e 6e61 5dbe
00000020: 80c2 0bbf 8c16 b73e b3bc 36bf 801f 1e3e
00000030: 4463 b83e 03ad 3e3e 8322 1cbf d066 4ebe
00000040: 174e 933e 020d babe 82fa e53e 4c20 72be
00000050: fae9 d53e a561 1c3e 4964 78be 317c c1be
00000060: a00e be3e cd60 c7be 7f84 dc3d 70f1 5fbe
00000070: 1ae2 80be d9e2 7d3d d53b a23e bd58 e73e
00000080: 928d 07bf 1089 41bd 1950 c93d 14c7 193f
00000090: 9d46 3bbd 19e7 7fbe 2f48 03bf fe2b 76bd
000000a0: 24bf d83e 1cef 82be 7b4f 063f 6842 343f
000000b0: 6411 39bf 913d 41bf da99 cb3e afc5 e6be
000000c0: 1d25 00be 5fa4 17bf 653e 20be 4543 093f
000000d0: 90b8 cb3e 35fe ba3e 690d c23d e2b9 0bbf
000000e0: e942 15be 1014 65be 551b 263e 03ac 333e
000000f0: 2516 68be a4ff 8cbd 879b dc3e 1090 5abe
00000100: ecb1 c1be f5e2 35be 5eaf 8f3c b0f0 45be
00000110: 051d e83c 4b1d 76be 0244 43be 57f4 f03e
00000120: b0da fabe bdce 783e dfae 203d 8de2 e1be
00000130: aeaf 9e3e e0e1 a83d 9a81 05be 02ee ebbe
00000140: ee0e 793e 92d5 abbe fdd9 143f 0581 00be
00000150: 0787 7e3e 615c 873e 732d 56be f93e 433e
00000160: 7d41 113f 7d1d 093d ed15 973e 157d a63c
00000170: 00c7 803e b6e9 3a3e c666 093e 9aa2 9e3e
00000180: 8721 033e d9f5 a03d 42dd 00be b7a6 c83e
00000190: 3326 29bd 1580 3f3e a156 f4be 1eef 0a3f
000001a0: 52cc d63e f76d 523e 67c5 153e 4c8e 2bbe
000001b0: e41e 953e d161 0a3f 9829 d2be dd44 963d
000001c0: 4546 b2bd 9200 7f3c a68e a7be 584e 94be
000001d0: 2fd8 003e 97fd acbe decc f03d 80ab 2fbe
000001e0: dae9 303f d58e cbbb ce30 e0bd 9577 233f
000001f0: e58d 8b3e 9e6a bdbe a776 f53e 619c c6be

encoder_variable_selection.flattened_grn.fc2.weight f4 [8, 8]
-0.32189578 0.3089493 -0.14137942 -0.90673816 -0.4064659 -0.45635808 -0.19417162 -0.9690027
0.67917836 -0.7736423 0.48331258 -0.08870453 0.5032296 -0.03829945 -0.3341628 -0.33056447
-0.3141975 0.49720535 0.28172508 -0.39249188 0.61085784 0.46561456 -0.27018085 0.49269244
-0.0012523301 0.027772896 -0.7404349 -0.48309097 -0.20875402 -0.44448075 -0.304181 0.24980748
0.49580437 0.5321478 -1.2467647 -0.20931007 0.12583858 -1.4806906 0.3906881 -0.343569
0.2502029 -0.35009468 0.3790922 -0.1498828 0.50799966 1.1972003 -0.47712734 -0.3216769
-0.13774225 -0.17723995 -0.5848913 -0.7914151 1.5548118 0.75056845 0.10982484 -0.11945847
-0.265204 0.2674773 1.3290867 1.3267343 0.975998 -0.45172358 0.8931196 -0.5388995
00000000: 86cf a4be 9a2e 9e3e c4c5 10be fe1f 68bf
00000010: 4c1c d0be c4a7 e9be edd4 46be 9010 78bf
00000020: a2de 2d3f 6c0d 46bf bf74 f73e b8aa b5bd
00000030: a8d3 003f e2df 1cbd 6317 abbe bf3f a9be
00000040: 7fde a0be b391 fe3e 453e 903e b2f4 c8be
00000050: 2e61 1c3f 0865 ee3e 2555 8abe 2f42 fc3e
00000060: 3a25 a4ba fc83 e33c 248d 3dbf b357 f7be
00000070: 9dc3 55be fb92 e3be 9dbd 9bbe 88cd 7f3e
00000080: 12da fd3e d73a 083f fc95 9fbf 6155 56be
00000090: d4db 003e 4587 bdbf 4508 c83e 47e8 afbe
000000a0: 981a 803e 9c3f b3be 5f18 c23e e07a 19be
000000b0: 440c 023f dc3d 993f 094a f4be d6b2 a4be
000000c0: 4e0c 0dbe 647e 35be 70bb 15bf 2e9a 4abf
000000d0: 1304 c73f 4125 403f d9eb e03d a4a6 f4bd
000000e0: d2c8 87be c9f2 883e 831f aa3f 6ed2 a93f
000000f0: 01db 793f 5048 e7be 7ca3 643f 51f5 09bf

encoder_variable_selection.flattened_grn.fc2.bias f4 [8]
-0.2999077 0.16009171 0.17645128 -0.20060344 -0.20737875 0.16296475 -0.17090797 -0.16604204
00000000: 818d 99be 15ef 233e a5af 343e fd6a 4dbe
00000010: 185b 54be 3be0 263e 8002 2fbe ed06 2abe

encoder_variable_selection.flattened_grn.gate_norm.glu.fc.weight f4 [16, 8]
0.08875458 -0.11431851 -0.4441269 0.5276601 0.1822 0.26320073 -0.559121 0.13377017
0.038438484 -0.18985671 0.18736927 0.10017155 -0.10959824 -0.4362995 -0.50598115 0.691516
-0.44412196 0.21660115 -0.41734016 0.2596746 -0.30221757 0.037213016 0.18509443 -0.063749865
-0.10701333 -0.22377239 0.5309272 -0.18671575 0.03638788 -0.6759272 -0.3427236 0.45485514
0.2802022 0.48217657 -0.010460024 -0.3116416 0.17204861 0.38733694 -0.36430013 -0.42434797
-0.32009333 -0.63319725 0.15510467 -0.087961994 0.5573483 -0.651159 0.06094004 0.6274017
-0.12642722 0.48865893 -0.35038686 -0.34664 -0.2812027 -0.27605894 -0.176756 -0.1315951
-0.37353426 0.009769526 0.36200646 -0.8159215 -0.46832094 0.4030428 -0.07706926 0.4065008
0.39552578 -0.18699013 0.62682015 0.42791957 0.17108817 -0.5141185 0.28100133 0.37117118
0.050303362 0.3498311 0.056676064 0.4211047 -0.19357029 0.38440278 0.43684146 0.22563201
0.13425362 -0.5398505 -0.0943473 -0.093324006 0.12689772 -0.06703498 0.27236697 -0.23153795
-0.10258952 0.07136179 -0.36203218 -0.047976375 0.28297967 -0.31120893 -0.13807456 -0.59668946
0.3916753 -0.13699953 -0.5938193 -0.5789534 -0.21804252 -0.2993697 0.0549224 0.49112308
0.5866307 -0.24762356 -0.20584722 0.34311196 0.23524077 0.34276202 0.21975753 0.087813675
0.21476616 -0.36429146 -0.15969667 0.16822985 -0.46704438 -0.18667479 -0.25209942 0.22528008
-0.23076627 -0.10241032 0.1456928 -0.57494646 -0.68744326 -0.107791446 0.48599783 0.23623519
00000000: f6c4 b53d d31f eabd 9a64 e3be bb14 073f
00000010: a392 3a3e 3fc2 863e 8e22 0fbf 0cfb 083e
00000020: ac71 1d3d cc69 42be bbdd 3f3e be26 cd3d
00000030: 0b75 e0bd a662 dfbe fb87 01bf 3107 313f
00000040: f463 e3be b1cc 5d3e 9cad d5be 12f4 843e
00000050: 43bc 9abe ad6c 183d 6589 3d3e 4a8f 82bd
00000060: ce29 dbbd 9724 65be d8ea 073f 6a32 3fbe
00000070: 750b 153d 9109 2dbf 7879 afbe c6e2 e83e
00000080: aa76 8f3e d9df f63e 8560 2bbc 7d8f 9fbe
00000090: 832d 303e 0751 c63e 8c85 babe 2344 d9be
000000a0: 46e3 a3be 3719 22bf c2d3 1e3e 6b25 b4bd
000000b0: 61ae 0e3f 5bb2 26bf 439c 793d 669d 203f
000000c0: 2376 01be 8131 fa3e e865 b3be cc7a b1be
000000d0: cdf9 8fbe 9957 8dbe 86ff 34be dec0 06be
000000e0: e23f bfbe 5d10 203c e958 b93e 3be0 50bf
000000f0: c3c7 efbe a05b ce3e 7dd6 9dbd df20 d03e
00000100: 5b82 ca3e 577a 3fbe 4977 203f 4618 db3e
00000110: bd31 2f3e 459d 03bf 68df 8f3e 260a be3e
00000120: e60a 4e3d 101d b33e 2925 683d 099b d73e
00000130: 4a37 46be 71d0 c43e afa9 df3e 140c 673e
00000140: c879 093e a433 0abf 2839 c1bd a820 bfbd
00000150: 7af1 013e a349 89bd af73 8b3e 4918 6dbe
00000160: 741a d2bd 2126 923d 485c b9be e082 44bd
00000170: b6e2 903e c756 9fbe 6b63 0dbe a4c0 18bf
00000180: aa89 c83e 9b49 0cbe 8b04 18bf 4a36 14bf
00000190: 8a46 5fbe fc46 99be 4ff6 603d 7c74 fb3e
000001a0: 6e2d 163f 0891 7dbe 9dc9 52be 5fac af3e
000001b0: f5e2 703e 817e af3e 1e08 613e a8d7 b33d
000001c0: a9eb 5b3e 6984 babe 8687 23be 7244 2c3e
000001d0: 7120 efbe ad27 3fbe 2d13 81be d2af 663e
000001e0: fe4d 6cbe 80bc d1bd 7e30 153e b12f 13bf
000001f0: 48fc 2fbf c3c1 dcbd b5d4 f83e a3e7 713e

encoder_variable_selection.flattened_grn.gate_norm.glu.fc.bias f4 [16]
-0.20442882 -0.16167271 0.15625302 -0.20926395 0.17500073 -0.1694125 0.17276359 0.19853088
-0.17407158 0.17388965 0.0033438704 0.106614724 0.19654648 0.14753948 0.10512382 0.17585063
00000000: ca55 51be 888d 25be cb00 203e 4a49 56be
00000010: 6433 333e 787a 2dbe f0e8 303e ae4b 4b3e
00000020: d23f 32be 2110 323e d624 5b3b d258 da3d
00000030: 7b43 493e 9714 173e 284b d73d 3012 343e

encoder_variable_selection.flattened_grn.gate_norm.add_norm.norm.weight f4 [8]
1.0772573 0.9682735 0.77172035 1.1872153 1.1777067 0.8084802 0.6633941 1.0406431
00000000: 91e3 893f c6e0 773f 778f 453f acf6 973f
00000010: 18bf 963f 8ff8 4e3f 32d4 293f cb33 853f

encoder_variable_selection.flattened_grn.gate_norm.add_norm.norm.bias f4 [8]
-0.082520366 -0.18426785 0.09157925 -0.22127372 0.17244941 -0.16285677 -0.18839975 0.2993822
00000000: 7000 a9bd b6b0 3cbe e78d bb3d 9495 62be
00000010: 9496 303e edc3 26be ddeb 40be a048 993e

encoder_variable_selection.single_variable_grns.time_idx.resample_norm.mask f4 [16]
-0.123252034 0.1938405 0.18291344 -0.18653177 0.14500399 -0.21573439 0.1518636 -0.14006834
0.19244863 0.16528063 -0.17687602 0.14187324 -0.1570436 -0.17237784 -0.12515648 -0.20180044
00000000: 906b fcbd 207e 463e a94d 3b3e 2f02 3fbe
00000010: ed7b 143e 7ae9 5cbe 2282 1b3e 136e 0fbe
00000020: 4111 453e 533f 293e fd1e 35be 3847 113e
00000030: 0ad0 20be d183 30be 0529 00be c6a4 4ebe

encoder_variable_selection.single_variable_grns.time_idx.resample_norm.norm.weight f4 [16]
0.8841111 1.1933242 1.1800022 0.810908 1.1478916 0.7791848 1.1416036 0.8593591
1.198635 0.81647944 0.8236946 1.16685 0.82883406 0.8236954 0.90636545 0.7981718
00000000: 1b55 623f d9be 983f 500a 973f ab97 4f3f
00000010: 1dee 923f a878 473f 1120 923f f5fe 5b3f
00000020: df6c 993f cc04 513f a6dd 523f 575b 953f
00000030: 782e 543f b4dd 523f 9107 683f fd54 4c3f

encoder_variable_selection.single_variable_grns.time_idx.resample_norm.norm.bias f4 [16]
-0.1393728 -0.20447019 -0.1971212 0.1907602 -0.15411049 0.24671146 0.12613042 -0.09187364
0.18999529 0.16951506 0.17402598 -0.19872755 -0.14779462 -0.18402764 -0.20570824 0.23779246
00000000: beb7 0ebe a260 51be 24da 49be a456 433e
00000010: 24cf 1dbe eea1 7c3e 5528 013e 3f28 bcbd
00000020: 208e 423e 5b95 2d3e de33 323e 3c7f 4bbe
00000030: 7957 17be be71 3cbe 2ea5 52be de7f 733e

encoder_variable_selection.single_variable_grns.time_idx.fc1.weight f4 [8, 8]
-0.6744881 0.71843755 1.4090763 0.28661758 -0.85023 -0.6440603 -0.5965935 0.3723041
0.39973027 0.23116395 0.081449136 0.32063827 0.14839578 0.36340505 0.049685914 0.121673785
-0.2329516 -0.34895834 0.34949392 -0.95371634 -0.69906855 -0.2002556 0.7442343 -0.044248678
-0.4324188 -0.16080572 0.4242304 -1.3062232 -0.10983225 0.7828672 1.1290578 0.16489476
-0.023372453 -0.17413835 -0.48500404 0.18347996 -0.1346905 0.2371976 0.34220728 0.37692854
1.4103312 -0.48515585 0.6255316 1.0432446 0.50256836 -0.7474997 0.44202778 -0.48227552
0.21417716 0.26627296 -0.31755388 0.2760617 0.28048867 -1.0075125 -0.10520825 -0.21647266
-0.6314621 -0.09512596 -0.15161823 0.55312705 0.5792256 -0.6311405 0.88952154 -0.11233015
00000000: 41ab 2cbf 86eb 373f 9d5c b43f 8abf 923e
00000010: aca8 59bf 23e1 24bf 5aba 18bf a59e be3e
00000020: 72a9 cc3e 3eb6 6c3e cece a63d b32a a43e
00000030: 10f5 173e 3a10 ba3e 7583 4b3d 1b30 f93d
00000040: dd8a 6ebe abaa b2be def0 b23e c126 74bf
00000050: 28f6 32bf ce0f 4dbe 2486 3e3f 1a3e 35bd
00000060: ff65 ddbe 41aa 24be ba34 d93e 5232 a7bf
00000070: bbef e0bd fc69 483f f784 903f 2cda 283e
00000080: 9677 bfbc 5351 32be 7352 f8be 2ce2 3b3e
00000090: 4eec 09be ede3 723e cb35 af3e c7fc c03e
000000a0: bc85 b43f 5966 f8be d722 203f 0a89 853f
000000b0: 52a8 003f 245c 3fbf 7751 e23e d1ec f6be
000000c0: 4251 5b3e ee54 883e 6c96 a2be f657 8d3e
000000d0: 369c 8f3e 2bf6 80bf 6c77 d7bd 02ab 5dbe
000000e0: 80a7 21bf 66d1 c2bd cf41 1bbe bc99 0d3f
000000f0: 2148 143f 6c92 21bf afb7 633f 5a0d e6bd

encoder_variable_selection.single_variable_grns.time_idx.fc1.bias f4 [8]
-0.17810903 -0.18822406 -0.07804399 -0.21443617 0.26520914 0.20447831 0.1544847 0.18672024
00000000: 3762 36be cfbd 40be 87d5 9fbd 2895 5bbe
00000010: 7ec9 873e c362 513e 3d31 1e3e 9733 3f3e

encoder_variable_selection.single_variable_grns.time_idx.fc2.weight f4 [8, 8]
-0.058183163 -0.82740235 0.35732508 -0.19385 0.55932033 -0.24447604 0.32310492 -0.11900199
-0.9606701 -0.018876467 0.796743 -0.25756764 0.6209356 1.1524125 0.07277946 0.18373236
-0.77910864 -0.112055786 0.043565307 -0.059837893 0.28289434 -0.36117607 -0.13080356 0.24220005
-0.109555595 -0.12457919 -0.22162692 0.47553068 0.19966696 -0.4161054 0.52148646 -0.36693093
-0.38403702 -0.5383787 0.2980691 0.41983178 -0.21544932 -0.21111184 0.05971501 -0.2600811
-0.24303506 1.0573407 0.37003145 0.118174456 -0.51073986 0.06766113 0.39521575 -0.045993168
-0.43410742 -0.69045746 -0.108809575 0.2605329 0.2998773 0.12889571 0.5308264 1.7050965
0.6332155 -0.5346424 -0.28254437 0.32045266 0.21632248 -1.018686 0.3694843 0.16885826
00000000: 7851 6ebd a4d0 53bf 50f3 b63e 9d80 46be
00000010: 9e2f 0f3f ed57 7abe 026e a53e 51b7 f3bd
00000020: 7aee 75bf d2a2 9abc 59f7 4b3f e8df 83be
00000030: a3f5 1e3f 4182 933f 660d 953d 5624 3c3e
00000040: aa73 47bf 817d e5bd 8971 323d 9418 75bd
00000050: 87d7 903e 12ec b8be 5ef1 05be 4a03 783e
00000060: af5e e0bd 6023 ffbd 2bf2 62be c278 f33e
00000070: 7f75 4c3e c40b d5be 2380 053f 5fde bbbe
00000080: 80a0 c4be 30d3 09bf 839c 983e 31f4 d63e
00000090: bf9e 5cbe b42d 58be ba97 743d 5a29 85be
000000a0: 2fde 78be f156 873f c374 bd3e 7305 f23d
000000b0: d9bf 02bf eb91 8a3d b859 ca3e 5563 3cbd
000000c0: 5443 debe d2c1 30bf 8ed7 debd 9164 853e
000000d0: 8489 993e 3dfd 033e 3de4 073f 9a40 da3f
000000e0: 691a 223f 53de 08bf a8a9 90be 5f12 a43e
000000f0: a483 5d3e 4e64 82bf 0c2d bd3e 2ee9 2c3e

encoder_variable_selection.single_variable_grns.time_idx.fc2.bias f4 [8]
-0.083438255 0.19217546 0.1697603 0.13828911 0.17763796 -0.20395485 0.18208893 -0.18568651
00000000: ade1 aabd a5c9 443e a5d5 2d3e a99b 0d3e
00000010: bae6 353e 8ad9 50be 8575 3a3e 9b24 3ebe

encoder_variable_selection.single_variable_grns.time_idx.gate_norm.glu.fc.weight f4 [32, 8]
0.0037815294 0.19457923 0.46729356 0.27199665 0.315723 -0.36074117 -0.16781554 0.24761155
0.44644174 0.005188643 0.16939865 0.23278917 -0.12586257 0.15487503 -0.37405515 -0.22614498
0.23702684 -0.3480529 0.034598235 0.27146545 -0.052404974 0.16028176 -0.45000485 0.4367039
0.0052151037 0.47157145 0.27116427 -0.5569808 0.18815775 0.09809258 0.022517502 -0.39076552
0.38546452 -0.24234736 -0.18463172 0.31603906 0.31911537 -0.09794007 -0.24533837 0.36665457
0.034257542 0.52653563 -0.48846254 0.27633536 -0.17895652 0.4618239 -0.0154012665 -0.18657911
0.23161323 0.14676225 0.084719814 0.19381946 -0.17534848 0.31741574 -0.20423137 -0.4506343
0.1460557 0.10951278 0.009166517 0.038878955 0.15026598 -0.29957733 -0.15839699 -0.13046679
-0.11604804 0.56543636 0.12915038 0.18306312 -0.21583857 0.112192355 -0.1300337 -0.27676865
-0.45647264 -0.027357396 -0.3272891 -0.14927031 0.20594212 0.3898955 0.43978643 0.08775084
0.0767384 0.08459795 0.12347261 -0.36194226 -0.2227291 0.46155086 0.5170961 -0.38243395
0.045242094 0.019448264 0.6147048 0.49384782 0.21310948 -0.2684542 -0.5944914 0.30120513
-0.08155695 -0.24661721 -0.2624464 0.064528845 0.1793109 -0.39027062 0.08515159 -0.043372888
0.2242694 -0.026560523 -0.14418496 0.05232328 0.25961483 -0.16702151 0.08349362 0.5383589
0.54332006 -0.24871142 0.03742864 0.30170536 0.50882643 -0.18331821 -0.36258608 -0.056234483
0.18191268 0.4924923 0.028191177 -0.124443546 -0.491862 0.5374938 -0.21329635 0.0069117965
-0.33808345 -0.21213832 0.21245281 -0.025910633 0.39498934 -0.14443925 -0.00040974483 -0.18522847
0.4541295 -0.5488749 0.13343452 0.006973169 0.024957776 -0.54160196 -0.40685385 -0.22760223
-0.29344627 -0.29877436 -0.0033737444 -0.18306777 -0.12669404 -0.46154648 0.62925434 -0.30969083
-0.5889687 0.1150502 -0.38113043 0.011276685 0.27289775 0.2049755 -0.21312636 -0.6129419
-0.35502526 0.28603137 -0.16663916 0.14413615 -0.17048356 0.011918996 0.06360895 -0.084401526
-0.25048402 0.40065673 0.14951964 0.3389151 -0.30303887 0.059546035 -0.40683654 -0.508072
0.3323693 -0.124914736 0.3745883 0.17480823 0.3426238 -0.27076715 0.09544674 0.5165095
0.3096111 0.11038325 0.5524804 -0.058607664 0.4096788 0.09634281 -0.16638345 0.18164948
0.23333216 -0.21042314 -0.13552898 0.23223831 0.41342455 0.13293661 -0.5309375 0.53238356
0.41977954 -0.5481066 0.51415694 -0.030127013 0.016910413 0.06909507 0.03055009 -0.07573961
0.12967716 0.47091678 -0.314042 0.023965433 0.096049584 -0.13674347 0.46263185 -0.50464314
0.07118865 0.2604942 0.009367274 -0.21725914 -0.013753771 0.05870295 0.31675318 -0.050113834
0.090121426 -0.08357781 0.17060259 -0.11250495 0.48916477 0.077196434 -0.16339211 0.22145092
0.2834257 -0.334789 0.20406716 0.46893182 0.23653929 -0.40267175 -0.46272033 0.12496705
0.18261683 0.2680769 -0.050443295 -0.33776608 -0.3044801 -0.0442583 0.033983078 -0.33374083
0.051809262 -0.3781993 0.15112442 0.15506096 0.31722873 -0.3207805 -0.39289755 -0.22317292
00000000: 89d3 773b c73f 473e 1a41 ef3e 2543 8b3e
00000010: 72a6 a13e 11b3 b8be d6d7 2bbe e28d 7d3e
00000020: 0394 e43e 7e05 aa3b d776 2d3e 4960 6e3e
00000030: 1ee2 00be 8f97 1e3e 2884 bfbe 8d92 67be
00000040: 2ab7 723e fd33 b2be e1b6 0d3d 85fd 8a3e
00000050: 99a6 56bd e720 243e 0967 e6be a797 df3e
00000060: 76e3 aa3b d071 f13e 0bd6 8a3e 4b96 0ebf
00000070: 6dac 403e c3e4 c83d a076 b83c 6b12 c8be
00000080: 9b5b c53e e829 78be 1910 3dbe dfcf a13e
00000090: 1763 a33e ce94 c8bd fb39 7bbe 26ba bb3e
000000a0: a351 0c3d 0acb 063f c317 fabe d47b 8d3e
000000b0: 6140 37be 2f74 ec3e 9855 7cbc 980e 3fbe
000000c0: 052c 6d3e d848 163e 9581 ad3d 9c78 463e
000000d0: 8d8e 33be 5184 a23e 0722 51be 8ab9 e6be
000000e0: a08f 153e 3d48 e03d 292f 163c 8a3f 1f3d
000000f0: 53df 193e 3362 99be d232 22be 1699 05be
00000100: 98aa edbd 70c0 103f ff3f 043e e674 3b3e
00000110: c904 5dbe 1bc5 e53d 8e27 05be 9fb4 8dbe
00000120: c8b6 e9be 9e1c e0bc 7092 a7be 51da 18be
00000130: 7ee2 523e 62a0 c73e b02b e13e b6b6 b33d
00000140: 0629 9d3d b141 ad3d 35df fc3d 7f50 b9be
00000150: 1913 64be 6550 ec3e 6960 043f 62ce c3be
00000160: c64f 393d f751 9f3c 4b5d 1d3f 9fd9 fc3e
00000170: 5f39 5a3e d472 89be 9730 18bf 8f37 9a3e
00000180: 5507 a7bd 3989 7cbe 605f 86be b327 843d
00000190: 479d 373e 8dd1 c7be f563 ae3d c5a7 31bd
000001a0: e1a6 653e 7495 d9bc 39a5 13be f050 563d
000001b0: 3cec 843e b007 2bbe b4fe aa3d e4d1 093f
000001c0: 0617 0b3f 35ae 7ebe c64e 193d 2079 9a3e
000001d0: 7342 023f c5b7 3bbe e2a4 b9be 2156 66bd
000001e0: 5147 3a3e f327 fc3e 2ff1 e63c 42dc febd
000001f0: 56d5 fbbe 3299 093f 5c6a 5abe 5a7c e23b
00000200: 4619 adbe ca3a 59be 3b8d 593e 8942 d4bc
00000210: 0b3c ca3e e2e7 13be 05d3 d6b9 88ac 3dbe
00000220: a983 e83e 1183 0cbf 0fa3 083e 2e7f e43b
00000230: 4074 cc3c 6da6 0abf 264f d0be 8f10 69be
00000240: 973e 96be f4f8 98be 0a1a 5dbb 1e76 3bbe
00000250: 15bc 01be d24f ecbe d016 213f cc8f 9ebe
00000260: a7c6 16bf 709f eb3d 8723 c3be d8c1 383c
00000270: 41b9 8b3e 19e5 513e cc3d 5abe c3e9 1cbf
00000280: dfc5 b5be b472 923e 75a3 2abe 6d98 133e
00000290: 3e93 2ebe e547 433c 6945 823d b5da acbd
000002a0: 713f 80be e122 cd3e ad1b 193e 4886 ad3e
000002b0: e927 9bbe 8be6 733d e14c d0be 0211 02bf
000002c0: 4f2c aa3e 4cd3 ffbd 0aca bf3e ee00 333e
000002d0: 636c af3e fea1 8abe 9579 c33d f739 043f
000002e0: 5985 9e3e 9d10 e23d 5b6f 0d3f 970e 70bd
000002f0: 6bc1 d13e 614f c53d 6c60 2abe 5202 3a3e
00000300: a0ee 6e3e 2a79 57be 1cc8 0abe e1cf 6d3e
00000310: 62ac d33e 8920 083e 85eb 07bf 4a4a 083f
00000320: 58ed d63e b750 0cbf ca9f 033f edcc f6bc
00000330: b587 8a3c b781 8d3d 2f44 fa3c 5e1d 9bbd
00000340: 17ca 043e 011c f13e 1dca a0be 2853 c43c
00000350: a5b5 c43d 7b06 0cbe 15de ec3e 4b30 01bf
00000360: 5bcb 913d 7f5f 853e 3279 193c 2e79 5ebe
00000370: 7f57 61bc 8172 703d 792d a23e 2a44 4dbd
00000380: 9591 b83d d82a abbd 72b2 2e3e ff68 e6bd
00000390: ce73 fa3e 2a19 9e3d 4350 27be 08c4 623e
000003a0: 2c1d 913e 7769 abbe fbf6 503e d517 f03e
000003b0: 5b37 723e fe2a cebe aee9 ecbe baee ff3d
000003c0: e8ff 3a3e 6041 893e a19d 4ebd adef acbe
000003d0: d1e4 9bbe 3148 35bd d731 0b3d 14e0 aabe
000003e0: f335 543d 57a3 c1be 5cc0 1a3e 4dc8 1e3e
000003f0: ce6b a23e 573d a4be de29 c9be 7187 64be

encoder_variable_selection.single_variable_grns.time_idx.gate_norm.glu.fc.bias f4 [32]
-0.12909757 0.17264272 -0.19217433 0.20024206 -0.13553303 0.22170973 0.14631264 -0.13211621
0.184263 0.171031 0.17932995 -0.22519952 -0.16783875 -0.25080737 -0.22340974 0.19238175
0.088105515 -0.16135782 -0.07985779 0.25569662 0.14723624 0.2331825 -0.18044737 -0.19682328
-0.15649751 -0.20050968 0.17374715 0.22252303 -0.17416708 -0.15698016 0.2134972 0.122490376
00000000: 2732 04be 41c9 303e 59c9 44be 410c 4d3e
00000010: 2cc9 0abe e007 633e fbd2 153e 7949 07be
00000020: 71af 3c3e c022 2f3e 45a2 373e b49a 66be
00000030: ecdd 2bbe d369 80be 86c5 64be b9ff 443e
00000040: aa70 b43d fc3a 25be 7b8c a3bd abea 823e
00000050: 19c5 163e 65c7 6e3e 32c7 38be 0b8c 49be
00000060: e240 20be 6952 4dbe c6ea 313e 14dd 633e
00000070: db58 32be 68bf 20be 039f 5a3e 3cdc fa3d

encoder_variable_selection.single_variable_grns.time_idx.gate_norm.add_norm.norm.weight f4 [16]
0.861725 1.1890539 1.1960895 0.8173426 1.1404381 0.968837 1.121842 0.83467036
1.2133987 0.81004906 0.8637019 1.1933024 0.82579195 0.8242743 1.2715328 0.8085262
00000000: 029a 5c3f eb32 983f 7619 993f 5d3d 513f
00000010: e0f9 913f b405 783f 8598 8f3f f5ac 553f
00000020: a650 9b3f 605f 4f3f 911b 5d3f 22be 983f
00000030: 1a67 533f a403 533f 96c1 a23f 93fb 4e3f

encoder_variable_selection.single_variable_grns.time_idx.gate_norm.add_norm.norm.bias f4 [16]
-0.12329419 -0.20760493 -0.19924505 0.19755709 -0.152413 0.2602187 0.11912278 -0.10133136
0.19162133 0.16801651 0.17632708 -0.2004049 -0.15393609 -0.18573257 -0.20809147 0.25415164
00000000: aa81 fcbd 6396 54be e506 4cbe 684c 4a3e
00000010: 2712 1cbe 633b 853e a5f6 f33d d186 cfbd
00000020: 6238 443e 850c 2c3e 168f 343e f136 4dbe
00000030: 6ca1 1dbe ae30 3ebe ee15 55be 2a20 823e

encoder_variable_selection.single_variable_grns.T2M.resample_norm.mask f4 [16]
0.14815255 0.17558637 -0.21126479 -0.20086783 0.16068844 -0.19186927 0.1379726 -0.14525464
0.18733314 0.16805056 0.1767039 -0.15079011 -0.15017286 -0.1749013 -0.047737468 -0.20115775
00000000: 4db5 173e eacc 333e cc55 58be 4cb0 4dbe
00000010: 838b 243e 6179 44be b048 0d3e a2bd 14be
00000020: 42d4 3f3e 7215 2c3e def1 343e b968 1abe
00000030: eac6 19be 5419 33be 5d88 43bd 4cfc 4dbe

encoder_variable_selection.single_variable_grns.T2M.resample_norm.norm.weight f4 [16]
1.1677964 1.174868 1.1714205 0.8170745 1.163148 0.7885173 1.1440175 0.8625586
1.1882234 1.1667958 1.1610944 1.1924605 0.8659957 0.8247663 1.2143489 0.7859136
00000000: 5a7a 953f 1362 963f 1bf1 953f cb2b 513f
00000010: 09e2 943f 45dc 493f 2a6f 923f a4d0 5c3f
00000020: b417 983f 9159 953f be9e 943f 8ca2 983f
00000030: e5b1 5d3f e223 533f c96f 9b3f a231 493f

encoder_variable_selection.single_variable_grns.T2M.resample_norm.norm.bias f4 [16]
-0.1848377 -0.1641465 -0.18783566 0.17757668 -0.1637962 0.017151505 0.15214227 -0.09577087
0.18777081 0.17106788 0.17622091 -0.18504061 -0.102053605 -0.18074982 -0.20090689 0.207564
00000000: 1846 3dbe 0516 28be fe57 40be a9d6 353e
00000010: 31ba 27be 5081 8c3c 2fcb 1b3e 8523 c4bd
00000020: fe46 403e 6b2c 2f3e 4173 343e 497b 3dbe
00000030: 7b01 d1bd 7b16 39be 89ba 4dbe a88b 543e

encoder_variable_selection.single_variable_grns.T2M.fc1.weight f4 [8, 8]
0.57584393 0.39544493 0.0893061 -0.26049903 0.65809333 -0.49161637 0.6822471 0.7271939
0.09887536 0.17892854 0.41826203 -0.45118356 0.05233663 -0.16947347 -0.00533236 -0.4018766
-0.53553593 0.660507 -0.07590828 0.84049344 -0.33771318 -0.054178383 0.30945 -0.22426845
0.38364375 1.2736161 0.6108637 0.27508268 -0.70709217 -0.26526973 -0.8491792 -0.37981525
0.082535855 0.09898534 0.15896717 0.20377435 -0.40215328 -0.7650379 0.28625768 0.01795554
-0.14048293 -0.52970016 -0.1882465 0.62306315 -0.7474312 -0.31677252 0.49277377 0.5490569
-0.20391859 1.2096388 0.17836203 -0.46140432 -0.19685666 0.0016761104 0.784777 -0.60766804
0.37344918 -0.5974761 -0.3368366 -0.042631403 -0.111407615 0.39779976 0.55075693 0.41634017
00000000: 826a 133f c277 ca3e 1ee6 b63d 2160 85be
00000010: ce78 283f 24b5 fbbe bfa7 2e3f 6129 3a3f
00000020: 2a7f ca3d 0b39 373e 7126 d63e 8801 e7be
00000030: ef5e 563d 748a 2dbe 14bb aebb c5c2 cdbe
00000040: e218 09bf fd16 293f cd75 9bbd 942a 573f
00000050: bee8 acbe 27ea 5dbd 3b70 9e3e a1a6 65be
00000060: f46c c43e da05 a33f 9061 1c3f a3d7 8c3e
00000070: fe03 35bf 6fd1 87be cf63 59bf 2577 c2be
00000080: 8f08 a93d d3b8 ca3d 4ac8 223e 39aa 503e
00000090: 09e7 cdbe 86d9 43bf 5e90 923e 7f17 933c
000000a0: c2da 0fbe 6e9a 07bf b1c3 40be 1181 1f3f
000000b0: a757 3fbf 0230 a2be d84c fc3e fe8e 0c3f
000000c0: 09d0 50be 72d5 9a3f 89a4 363e 303d ecbe
000000d0: cb94 49be efb0 db3a 25e7 483f 2290 1bbf
000000e0: bb34 bf3e 32f4 18bf d975 acbe 449e 2ebd
000000f0: ad29 e4bd 69ac cb3e 68fe 0c3f 8a2a d53e

encoder_variable_selection.single_variable_grns.T2M.fc1.bias f4 [8]
-0.18700849 -0.17161334 0.21814916 0.20989072 -0.19126134 -0.17158519 -0.16908851 -0.16237105
00000000: 277f 3fbe 68bb 2fbe 7e62 5f3e 98ed 563e
00000010: 03da 43be 07b4 2fbe 8a25 2dbe 9944 26be

encoder_variable_selection.single_variable_grns.T2M.fc2.weight f4 [8, 8]
0.33079553 0.24982363 -0.09420907 0.6540688 0.1591529 -0.62669337 0.6083171 -0.2260452
-0.351554 0.44102517 -0.33754036 0.45259345 0.27632755 0.603579 0.55817884 -0.5406814
0.62995523 -0.3056682 0.101057395 -0.15774983 -0.6853104 -0.33547255 0.39244562 0.31030327
0.38387302 -0.26004106 0.43485105 -0.8289078 -0.5095202 -0.22643493 -0.90973616 -0.44637528
0.2581055 0.292704 1.3133032 0.08578575 -0.11930934 0.15924866 -0.19722375 0.47143215
0.10943416 -0.23146744 -0.15878318 -1.0077081 0.7437124 0.121899165 0.17345174 -0.1638287
-0.25385913 -0.72608703 0.1420491 -0.00015132217 -0.6644507 -0.095532976 0.17216302 0.27320024
0.6371715 -0.3086705 -0.5185513 -0.022180261 -0.27666894 -0.29622555 0.8550299 0.4691721
00000000: 085e a93e c4d1 7f3e aff0 c0bd 0e71 273f
00000010: faf8 223e fa6e 20bf abba 1b3f 6578 67be
00000020: e3fe b3be 0dce e13e 17d2 acbe 54ba e73e
00000030: ce7a 8d3e 2784 1a3f cfe4 0e3f 196a 0abf
00000040: bf44 213f 8b80 9cbe 2ef7 ce3d 2c89 21be
00000050: 8170 2fbf 0fc3 abbe a2ee c83e 12e0 9e3e
00000060: 018b c43e 1a24 85be cca4 de3e 4d33 54bf
00000070: ea6f 02bf 8fde 67be 78e4 68bf 4d8b e4be
00000080: 6726 843e 4cdd 953e 521a a83f 70b0 af3d
00000090: 7558 f4bd 1512 233e 06f5 49be 8e5f f13e
000000a0: 041f e03d cd05 6dbe 0f98 22be 94fc 80bf
000000b0: f063 3e3f 45a6 f93d 559d 313e b6c2 27be
000000c0: d3f9 81be d7e0 39bf 5275 113e 3cac 1eb9
000000d0: 7119 2abf cba6 c3bd 814b 303e e7e0 8b3e
000000e0: ac1d 233f 0f0a 9ebe c7bf 04bf 61b3 b5bc
000000f0: 8da7 8dbe e0aa 97be 3de3 5a3f 5337 f03e

encoder_variable_selection.single_variable_grns.T2M.fc2.bias f4 [8]
0.16992405 -0.16507441 0.18295528 -0.18736832 0.19301142 0.14803188 0.19077973 -0.17814264
00000000: 9200 2e3e 4409 29be a158 3b3e 7bdd 3fbe
00000010: c9a4 453e ab95 173e c35b 433e 066b 36be

encoder_variable_selection.single_variable_grns.T2M.gate_norm.glu.fc.weight f4 [32, 8]
-0.054594733 0.030842716 0.4649671 -0.17709039 -0.16633555 0.16074993 0.4420837 -0.08066194
0.21109508 0.19939956 -0.012692745 0.015568478 -0.51911825 -0.3338181 -0.013034118 0.0151636265
0.08967684 -0.48702928 -0.1913035 0.059401415 -0.24583927 -0.03727615 0.37635684 -0.23543496
-0.0854156 0.30235362 -0.3299559 0.371217 0.16291201 0.47273245 -0.4283355 0.04339128
0.13704498 0.13237013 -0.124137156 -0.20682405 0.053322423 -0.37964088 0.45981863 0.09075684
0.1640882 -0.5213308 0.3198608 7.5659394e-05 -0.25069526 0.5685082 0.18036288 -0.17138916
0.1849456 -0.030291991 -0.46193305 0.111258745 -0.0794078 0.075705335 -0.32536232 0.23963732
0.015746932 -0.017675111 0.03421123 -0.06688229 0.28271988 -0.22579262 -0.090149164 -0.35835755
0.19065236 -0.0044240346 0.20458578 -0.055417463 0.3694183 0.48852396 -0.023981137 0.27474767
-0.2695987 0.28748682 0.11669673 0.19067353 0.39538112 0.5457192 0.008951048 0.5359347
0.04441523 0.17844552 -0.21844698 0.2857092 0.17321366 0.14621937 -0.21251231 -0.18161386
0.3224705 -0.25091922 -0.017411808 0.163423 -0.35901755 -0.4643335 -0.16414048 0.14964241
0.27481806 -0.14230633 0.27215308 0.2833446 0.20435977 0.3841032 -0.12343597 0.12211982
0.14931974 -0.0021626719 0.5524638 -0.054553423 -0.5347661 0.1803102 -0.09698319 -0.41664723
0.49097878 0.064576566 -0.19300331 0.051132426 -0.030620283 0.14327468 -0.12801407 0.19594723
0.20965941 -0.39697143 0.14693055 0.482268 -0.41554368 -0.09138979 -0.47302306 -0.10795459
0.1377497 -0.18309554 0.22885744 -0.1159603 -0.07459496 -0.0454773 0.4810169 0.11624859
0.3298111 -0.13441323 0.035400487 0.1763559 0.17256498 0.018616302 0.24752441 0.019537307
-0.07644714 0.29329154 -0.014320916 0.12268606 0.46634674 -0.37354726 0.2654118 0.5139246
-0.18773142 0.47092834 -0.20509934 0.1431938 0.24911773 0.37183172 -0.21597771 -0.15728347
-0.06330946 0.004147733 0.20716803 0.044286784 -0.21141241 -0.47017685 0.120136626 0.07734255
-0.43500423 0.37167308 -0.07778717 -0.12079347 0.24355413 0.09150163 0.19761942 -0.067976125
-0.20151395 -0.20730583 0.48112753 -0.22365466 -0.016107535 -0.28311992 0.2496028 -0.5490253
-0.21828786 -0.10703498 0.33375412 -0.57087445 0.20437972 -0.04810498 0.49873477 -0.5504338
0.06332436 0.1817966 0.31118497 -0.516856 -0.18972002 0.13811621 0.27163786 0.0041328585
-0.5491605 -0.014246699 -0.31067085 0.2661595 -0.0011621327 0.4656337 -0.3411528 -0.20526381
-0.07862041 -0.3440538 0.43642655 -0.1332713 -0.1873677 -0.23544827 -0.06677583 0.03901402
0.14560491 0.09521959 0.15444982 -0.20373392 -0.39934555 -0.3991683 0.32703832 0.17937113
-0.07178909 -0.3274956 0.13560311 0.2481002 -0.44586048 0.20665005 -0.3266759 0.046244103
-0.03736122 -0.32532808 -0.3715217 0.48823005 0.08449889 0.41299444 0.04901915 -0.4192258
0.10771632 0.049373623 0.16638274 -0.00040196988 0.035770945 -0.07618682 -0.09054054 0.025408225
0.28385305 -0.005809112 -0.15512922 0.18161254 -0.15265162 0.13027234 -0.09792923 0.03948508
00000000: ba9e 5fbd dda9 fc3c 2b10 ee3e 2f57 35be
00000010: de53 2abe a19b 243e cb58 e23e 1632 a5bd
00000020: 4f29 583e 662f 4c3e 3bf5 4fbc ee12 7f3c
00000030: efe4 04bf 35ea aabe 0e8d 55bc dc70 783c
00000040: 7ea8 b73d e75b f9be 11e5 43be e64e 733d
00000050: 4abd 7bbe e0ae 18bd d8b1 c03e dd15 71be
00000060: 60ee aebd 18ce 9a3e fbef a8be 2810 be3e
00000070: 68d2 263e fd09 f23e ca4e dbbe 0ebb 313d
00000080: 8555 0c3e 098c 073e 9f3b febd afc9 53be
00000090: 9d68 5a3d 4a60 c2be 596d eb3e b9de b93d
000000a0: bd06 283e ef75 05bf cbc4 a33e 54ab 9e38
000000b0: 215b 80be c189 113f 0cb1 383e a480 2fbe
000000c0: 6162 3d3e e926 f8bc 7d82 ecbe a0db e33d
000000d0: 8fa0 a2bd 660b 9b3d e495 a6be 7c63 753e
000000e0: b6ff 803c 65cb 90bc 1321 0c3d 95f9 88bd
000000f0: a9c0 903e 2e36 67be 20a0 b8bd a47a b7be
00000100: 5f3a 433e 7ef7 90bb ef7e 513e 6cfd 62bd
00000110: 6524 bd3e d01f fa3e 1774 c4bc baab 8c3e
00000120: d708 8abe 7931 933e b2fe ee3d ec3f 433e
00000130: 656f ca3e 41b4 0b3f 6ba7 123c 0433 093f
00000140: bfec 353d 6cba 363e 91b0 5fbe 7a48 923e
00000150: ec5e 313e 88ba 153e d49c 59be fcf8 39be
00000160: da1a a53e 7c78 80be 35a3 8ebc 5c58 273e
00000170: 26d1 b7be 1fbd edbe 7114 28be dc3b 193e
00000180: f4b4 8c3e c0b8 11be a657 8b3e 8b12 913e
00000190: b043 513e 2da9 c43e ffcb fcbd f519 fa3d
000001a0: 46e7 183e 9dbb 0dbb 456e 0d3f 6973 5fbd
000001b0: 6ee6 08bf 3da3 383e 1f9f c6bd c952 d5be
000001c0: 9261 fb3e b840 843d a9a2 45be 3c70 513d
000001d0: 63d7 fabc 99b6 123e 1f16 03be 64a6 483e
000001e0: f5b0 563e d73f cbbe f674 163e d5eb f63e
000001f0: 24c2 d4be 922a bbbd 1430 f2be 4c17 ddbd
00000200: 420e 0d3e 667d 3bbe 9b59 6a3e 987c edbd
00000210: 3ec5 98bd 6846 3abd d947 f63e be13 ee3d
00000220: 00dd a83e 9fa3 09be 1a00 113d a496 343e
00000230: e0b4 303e 3781 983c 0a77 7d3e b40c a03c
00000240: 5190 9cbd 4f2a 963e 46a2 6abc d442 fb3d
00000250: 00c5 ee3e 9641 bfbe 0ee4 873e 9090 033f
00000260: aa3c 40be 851d f13e 9005 52be 65a1 123e
00000270: b818 7f3e ba60 be3e 4329 5dbe eb0e 21be
00000280: 64a8 81bd b5e9 873b db23 543e 0f66 353d
00000290: 7f7c 58be 05bb f0be 310a f63d c565 9e3d
000002a0: e0b8 debe ef4b be3e e14e 9fbd 9162 f7bd
000002b0: 4166 793e 3565 bb3d bf5c 4a3e 1137 8bbd
000002c0: ac59 4ebe fb47 54be 5956 f63e ba05 65be
000002d0: f3f3 83bc 18f5 90be e097 7f3e ec8c 0cbf
000002e0: da86 5fbe 2835 dbbd d2e1 aa3e d424 12bf
000002f0: eb48 513e ba09 45bd 2a5a ff3e 3be9 0cbf
00000300: 34b0 813d e328 3a3e a353 9f3e ad50 04bf
00000310: f745 42be 566e 0d3e 1e14 8b3e ee6c 873b
00000320: c895 0cbf fd6a 69bc 4010 9fbe 0f46 883e
00000330: b452 98ba 8a67 ee3e 94ab aebe ad30 52be
00000340: bd03 a1bd d227 b0be 4d73 df3e 4678 08be
00000350: 51dd 3fbe 5a19 71be c4c1 88bd 2acd 1f3d
00000360: 7419 153e 7d02 c33d 1828 1e3e a09f 50be
00000370: 0577 ccbe ca5f ccbe 9171 a73e 11ad 373e
00000380: 2906 93bd 81ad a7be 8bdb 0a3e fb0d 7e3e
00000390: d347 e4be 129c 533e 1042 a7be 756a 3d3d
000003a0: 1408 19bd 6791 a6be 1838 bebe 4af9 f93e
000003b0: c10d ad3d 0274 d33e 4ec8 483d c4a4 d6be
000003c0: 609a dc3d ff3b 4a3d 3d60 2a3e 7cbf d2b9
000003d0: 8e84 123d d607 9cbd 526d b9bd e924 d03c
000003e0: 3055 913e 5d5a bebb 32da 1ebe a3f8 393e
000003f0: b550 1cbe 1d66 053e 1f8f c8bd 1bbb 213d

encoder_variable_selection.single_variable_grns.T2M.gate_norm.glu.fc.bias f4 [32]
-0.18418972 -0.16453724 -0.18597615 0.17690325 -0.16642942 -0.035724808 0.14605752 -0.06744871
0.1832334 0.1694798 0.17540285 -0.18143477 -0.114103444 -0.18312688 -0.1952008 0.19817655
-0.16755176 -0.1853777 0.23441167 0.17711109 -0.18713056 0.15375917 -0.16669813 -0.20723239
-0.16379699 0.17087576 -0.17064731 -0.17408656 -0.12248281 0.18265519 -0.18764643 0.18520257
00000000: 3b9c 3cbe 737c 28be 8870 3ebe 2026 353e
00000010: 796c 2abe 2d54 12bd 1a90 153e 8d22 8abd
00000020: 89a1 3b3e 1d8c 2d3e ce9c 333e 09ca 39be
00000030: 11af e9bd 9d85 3bbe b8e2 47be cbee 4a3e
00000040: b092 2bbe a7d3 3dbe 9d09 703e 9c5c 353e
00000050: 279f 3fbe 0b73 1d3e eab2 2abe ba34 54be
00000060: 66ba 27be 0efa 2e3e 2bbe 2ebe bf43 32be
00000070: 44d8 fabd f609 3b3e 6326 40be bea5 3d3e

encoder_variable_selection.single_variable_grns.T2M.gate_norm.add_norm.norm.weight f4 [16]
0.81705254 1.1596243 1.1851884 0.8107794 1.1607481 0.78443825 1.1209915 0.8436745
1.207874 1.173512 0.83157104 0.8918635 0.82645684 0.82532364 0.83480114 0.74559414
00000000: 5b2a 513f 926e 943f 41b4 973f 3d8f 4f3f
00000010: 6593 943f f2d0 483f a67c 8f3f 0dfb 573f
00000020: 9d9b 9a3f a435 963f d7e1 543f 2b51 643f
00000030: ad92 533f 6948 533f 87b5 553f 42df 3e3f

encoder_variable_selection.single_variable_grns.T2M.gate_norm.add_norm.norm.bias f4 [16]
-0.17950857 -0.13529038 -0.18766871 0.17693299 -0.16525069 0.18136887 0.14889486 -0.108357415
0.18773508 0.17356461 0.17605649 -0.18811837 -0.18186142 -0.181291 -0.20025705 0.20297101
00000000: 18d1 37be 9089 0abe 3a2c 40be ec2d 353e
00000010: 7a37 29be c3b8 393e e577 183e 7eea ddbd
00000020: a03d 403e ecba 313e 2748 343e 1aa2 40be
00000030: e139 3abe 59a4 39be 2f10 4dbe a2d7 4f3e

encoder_variable_selection.single_variable_grns.T2M_MAX.resample_norm.mask f4 [16]
-0.14475657 0.15620655 0.09372979 -0.16670482 -0.32006198 0.015731143 -0.14377686 0.0056593744
0.19827327 0.16200833 0.18692185 -0.1919879 -0.123834975 -0.18226281 0.09909541 -0.23802343
00000000: 113b 14be 9cf4 1f3e 67f5 bf3d abb4 2abe
00000010: 2adf a3be 99de 803c 3e3a 13be 4672 b93b
00000020: 2608 4b3e 83e5 253e 7168 3f3e 7a98 44be
00000030: 319d fdbd 1aa3 3abe 89f2 ca3d 6abc 73be

encoder_variable_selection.single_variable_grns.T2M_MAX.resample_norm.norm.weight f4 [16]
0.8338968 1.1541643 1.2135122 0.8039858 1.1386852 0.7258782 0.87259495 1.1573542
1.2003939 1.1602622 1.1825023 0.8051331 0.81853545 0.81667626 1.1862701 0.7698217
00000000: 437a 553f a8bb 933f 5e54 9b3f 03d2 4d3f
00000010: 70c0 913f 27d3 393f 6262 5f3f 2f24 943f
00000020: 82a6 993f 7983 943f 3c5c 973f 341d 4e3f
00000030: 8a8b 513f b211 513f b3d7 973f 0913 453f

encoder_variable_selection.single_variable_grns.T2M_MAX.resample_norm.norm.bias f4 [16]
-0.1534888 -0.23285852 -0.20002642 0.19955298 -0.1484817 0.25290087 0.10730226 -0.18825121
0.19513015 0.16286476 0.1833234 -0.19999856 -0.17429368 -0.186766 -0.21062043 0.24888912
00000000: 2b2c 1dbe 7772 6ebe bad3 4cbe 9e57 4c3e
00000010: 960b 18be 397c 813e 4ac1 db3d edc4 40be
00000020: 33d0 473e 05c6 263e 21b9 3b3e 6ccc 4cbe
00000030: 0b7a 32be 963f 3fbe e2ac 57be cadc 7e3e

encoder_variable_selection.single_variable_grns.T2M_MAX.fc1.weight f4 [8, 8]
-0.52831596 0.4396314 0.31142375 0.35041502 -0.50332195 -1.013537 -0.28957346 -0.44718894
0.40441173 -0.6298845 -0.054259636 0.65996015 -0.18136856 0.7734258 0.61353 -0.08242599
-0.8292262 0.32200277 -0.6308029 0.49134904 0.24915506 0.7720005 0.090217695 0.6524471
-0.5958206 -0.43343958 0.8503202 0.39992866 -0.120124094 -0.0788215 -0.2952807 0.3498417
0.35963875 -0.014299934 0.80980366 0.80432725 0.5489851 0.35769293 0.19717257 -0.46495658
-1.3942724 0.43092704 0.27631813 0.73226297 -0.7198627 -0.4408683 0.04775175 0.4294303
-1.0673008 -0.3080199 0.094656855 0.24327897 -0.028927516 -0.1582852 0.22309801 -0.15191336
0.6911804 0.78630894 -0.35505468 -0.18384783 -0.029090315 -0.037454933 0.10077051 -0.036568884
00000000: b73f 07bf 5e17 e13e ef72 9f3e 9969 b33e
00000010: b5d9 00bf 95bb 81bf f942 94be f3f5 e4be
00000020: 0e0f cf3e 1c40 21bf 5a3f 5ebd 26f3 283f
00000030: aeb8 39be 3cff 453f 4d10 1d3f f5ce a8bd
00000040: 2b48 54bf 8cdd a43e 4d7c 21bf 1a92 fb3e
00000050: 8122 7f3e d3a1 453f 0ec4 b83d c606 273f
00000060: b387 18bf cbeb ddbe 96ae 593f 73c3 cc3e
00000070: 9f03 f6bd 2b6d a1bd 082f 97be 741e b33e
00000080: 9222 b83e 454a 6abc 4b4f 4f3f 64e8 4d3f
00000090: 4a8a 0c3f 8723 b73e 9be7 493e ca0e eebe
000000a0: 8577 b2bf 78a2 dc3e 9279 8d3e 9675 3b3f
000000b0: ec48 38bf 7db9 e1be 5797 433d 4ade db3e
000000c0: 509d 88bf c9b4 9dbe 74db c13d 1f1e 793e
000000d0: 66f9 ecbc 8415 22be ce73 643e 2d8f 1bbe
000000e0: 33f1 303f 8b4b 493f bac9 b5be 9b42 3cbe
000000f0: d04e eebc 586a 19bd c560 ce3d 41c9 15bd

encoder_variable_selection.single_variable_grns.T2M_MAX.fc1.bias f4 [8]
-0.17428811 0.24400203 0.24729691 -0.21054555 0.2392255 -0.17567685 -0.20549443 0.15570405
00000000: 9578 32be abdb 793e 673b 7d3e 4199 57be
00000010: 88f7 743e a2e4 33be 226d 52be e270 1f3e

encoder_variable_selection.single_variable_grns.T2M_MAX.fc2.weight f4 [8, 8]
-0.6401894 -0.10147667 -0.14217061 0.07851603 0.96273893 -0.57225597 -0.2802643 0.09385107
-0.68807596 0.40431115 -0.4342543 -0.8307096 -0.23637128 0.2725527 0.4118984 0.76629496
-1.3286663 0.67027235 0.24168704 -0.4390148 0.3464206 -0.47416767 0.14559047 1.078399
-0.5519545 -0.30156434 0.4442509 0.29798332 -1.0696435 -0.18064249 0.12517664 0.11227092
-0.17540972 0.9041855 0.48547804 -0.3124986 0.11287217 -0.106997095 -0.24623075 -0.20402107
-0.8034742 0.060829446 -0.10317441 0.14710715 -0.14439082 -0.6175772 0.19462195 -0.15025228
-0.25715148 -0.3037619 -0.22210744 -0.57741314 0.023273813 0.118739575 0.1913669 -0.003972678
-0.35374907 -0.84914637 -0.37643456 0.7224317 -0.8932559 -0.4022554 0.13764264 0.42926162
00000000: 74e3 23bf 00d3 cfbd 2c95 11be 03cd a03d
00000010: 0f76 763f 5e7f 12bf cd7e 8fbe fd34 c03d
00000020: bf25 30bf df01 cf3e 9456 debe 62a9 54bf
00000030: 500b 72be 078c 8b3e 59e4 d23e e82b 443f
00000040: bd11 aabf f896 2b3f cf7c 773e 8cc6 e0be
00000050: 0a5e b13e 1bc6 f2be ab15 153e fa08 8a3f
00000060: e44c 0dbf a466 9abe db74 e33e 4591 983e
00000070: 14ea 88bf 58fa 38be 4e2e 003e 4cee e53d
00000080: 9b9e 33be b378 673f 9490 f83e d1ff 9fbe
00000090: 8629 e73d 4b21 dbbd ea23 7cbe e6ea 50be
000000a0: 7cb0 4dbf 4c28 793d 1b4d d3bd 42a3 163e
000000b0: 30db 13be 8a19 1ebf fa4a 473e bcdb 19be
000000c0: 5ca9 83be ae86 9bbe 2270 63be 59d1 13bf
000000d0: b9a8 be3c bc2d f33d aff5 433e 3d2d 82bb
000000e0: 991e b5be a861 59bf 08bc c0be 49f1 383f
000000f0: 6bac 64bf 6bf4 cdbe 31f2 0c3e 2ec8 db3e

encoder_variable_selection.single_variable_grns.T2M_MAX.fc2.bias f4 [8]
0.19658208 0.17171098 0.16771948 -0.12997803 0.046991337 0.21509016 -0.1581278 0.113768436
00000000: d04c 493e 01d5 2f3e a8be 2b3e f618 05be
00000010: fd79 403d 9840 5c3e 41ec 21be 6dff e83d
