ai_predict/ai/lightning_logs/version_33/checkpoints/epoch=0-step=8.ckpt (torch, 662004 bytes, 889 tensors)

prescalers.time_idx.weight f4 [8, 1]
0.11111686 0.38732344 0.32622313 -0.05263625 -0.046901442 -0.4888007 -0.12981366 -0.45294493
00000000: 3c91 e33d 424f c63e b806 a73e 1c99 57bd
00000010: ba1b 40bd 1644 fabe dfed 04be 66e8 e7be

prescalers.time_idx.bias f4 [8]
0.0069986302 0.33810073 -0.16636996 -0.7419576 0.45473224 -1.0650308 -0.38759282 0.7100721
00000000: c454 e53b 8a1b ad3e e35c 2abe eff0 3dbf
00000010: aad2 e83e ee52 88bf 9172 c6be 49c7 353f

prescalers.T2M.weight f4 [8, 1]
-0.09718796 -0.14160602 -0.858882 0.57041115 0.83279765 -0.72490466 0.66477334 -0.21297488
00000000: 7b0a c7bd 2b01 11be b1df 5bbf 7706 123f
00000010: 3a32 553f 5a93 39bf 962e 2a3f 1616 5abe

prescalers.T2M.bias f4 [8]
0.3692107 0.7918244 -0.5272358 -0.42252755 -0.5426172 -0.058336936 -0.79291934 0.4521739
00000000: 2f09 bd3e 01b5 4a3f edf8 06bf 8855 d8be
00000010: f6e8 0abf b6f2 6ebd c3fc 4abf 5683 e73e

prescalers.T2M_MAX.weight f4 [8, 1]
-0.60810894 0.9114958 0.25458798 0.5941684 0.54794914 0.25021228 0.47834906 -0.023615904
00000000: 07ad 1bbf ca57 693f 5b59 823e 6c1b 183f
00000010: 6546 0c3f d31b 803e 2bea f43e 2476 c1bc

prescalers.T2M_MAX.bias f4 [8]
0.03945427 0.23631674 -0.61213326 0.04384126 0.15530753 -0.99219984 0.20372032 -0.2801003
00000000: cd9a 213d 04fd 713e c4b4 1cbf e592 333d
00000010: f008 1f3e cf00 7ebf 0f9c 503e 4e69 8fbe

prescalers.T2M_MIN.weight f4 [8, 1]
0.30244997 0.12696475 1.0975444 0.28366446 0.96009773 0.24805294 -0.33187622 -0.20706432
00000000: b9da 9a3e 0c03 023e 567c 8c3f 783c 913e
00000010: f7c8 753f 9701 7e3e aeeb a9be ab08 54be

prescalers.T2M_MIN.bias f4 [8]
0.5429931 -0.4970978 0.72372836 0.11374266 -0.92329776 -0.9046538 -0.8884745 -0.57449996
00000000: 9901 0b3f 9a83 febe 4346 393f e9f1 e83d
00000010: 3e5d 6cbf 6497 67bf 1173 63bf 6e12 13bf

prescalers.PRECTOTCORR.weight f4 [8, 1]
0.17907177 0.67838293 0.8460348 0.45578524 0.7147757 0.3217656 -0.26938808 -0.83546525
00000000: 975e 373e 81aa 2d3f bd95 583f af5c e93e
00000010: 8afb 363f 76be a43e 3ced 89be 0de1 55bf

prescalers.PRECTOTCORR.bias f4 [8]
0.5977245 1.0863606 0.28651133 0.7293063 -0.13007553 -0.5762013 0.036711294 0.009522916
00000000: 7904 193f dd0d 8b3f 9db1 923e d1b3 3a3f
00000010: 8532 05be ee81 13bf 955e 163d 0106 1c3c

prescalers.RH2M.weight f4 [8, 1]
-1.1104703 0.43894118 -0.28372487 -0.28002235 -1.1021628 0.6676244 0.3573005 0.06482452
00000000: e423 8ebf e6bc e03e 6344 91be 175f 8fbe
00000010: ac13 8dbf 6fe9 2a3f 17f0 b63e b8c2 843d

prescalers.RH2M.bias f4 [8]
-0.76110935 -0.53744155 -0.962828 -0.5906578 0.156018 -0.1136182 -0.6386984 -0.09368836
00000000: 10d8 42bf c595 09bf e57b 76bf 5935 17bf
00000010: 2fc3 1f3e a9b0 e8bd bd81 23bf afdf bfbd

prescalers.ALLSKY_SFC_SW_DWN.weight f4 [8, 1]
0.8911256 -0.26055914 -0.75081336 -0.29819605 0.21621527 -0.3974669 0.20705914 0.48548654
00000000: cf20 643f 0268 85be 4e35 40bf 27ad 98be
00000010: 8967 5d3e c880 cbbe 5007 543e b191 f83e

prescalers.ALLSKY_SFC_SW_DWN.bias f4 [8]
0.9027946 0.7364837 0.858729 0.84235704 0.7775945 0.31809673 -0.63338673 0.43974036
00000000: 8c1d 673f 328a 3c3f aad5 5b3f b6a4 573f
00000010: 6f10 473f 93dd a23e a225 22bf a625 e13e

prescalers.numero_casos.weight f4 [8, 1]
0.59115255 -0.87158877 -1.0633905 -0.20606467 0.83251774 0.55959934 0.8398464 -0.23492888
00000000: c655 173f 7120 5fbf 2e1d 88bf 9e02 53be
00000010: e21f 553f e741 0f3f 2c00 573f 3291 70be

prescalers.numero_casos.bias f4 [8]
-0.14118785 -0.51446515 0.59391236 -0.08443351 -0.3568466 -0.7672596 -0.3032547 -0.46481523
00000000: 8c93 10be fdb3 03bf a40a 183f 7aeb acbd
00000010: 99b4 b6be 206b 44bf 3344 9bbe 43fc edbe

static_variable_selection.single_variable_grns.municipio.mask f4 [16]
0.11364534 0.11363423 -0.11363557 -0.11363377 -0.1136343 0.113633856 0.113636345 0.113647595
0.113527074 0.1136357 -0.11363495 -0.11363521 -0.1136359 0.113634504 -0.1136396 0.11363648
00000000: e3be e83d 10b9 e83d c4b9 e8bd d2b8 e8bd
00000010: 1ab9 e8bd deb8 e83d 2cba e83d 12c0 e83d
00000020: e280 e83d d5b9 e83d 71b9 e8bd 94b9 e8bd
00000030: f0b9 e8bd 35b9 e83d e1bb e8bd 3eba e83d

static_variable_selection.single_variable_grns.municipio.norm.weight f4 [16]
1.133173 0.87679094 0.9531207 0.90211755 0.86348546 0.9012143 1.0692259 1.1322563
0.9647283 0.9871547 0.9515823 0.965941 1.0105305 0.9742726 1.1552941 1.0482441
00000000: d00b 913f 5f75 603f b8ff 733f 2df1 663f
00000010: 620d 5d3f fbb5 663f 65dc 883f c6ed 903f
00000020: 6ff8 763f 2cb6 7c3f e69a 733f e947 773f
00000030: 1059 813f ee69 793f ade0 933f dd2c 863f

static_variable_selection.single_variable_grns.municipio.norm.bias f4 [16]
0.11368342 0.11363021 -0.1136341 -0.11363246 -0.11362297 0.1136278 0.11363842 0.113678545
0.11376639 0.11363101 -0.1136269 -0.1136344 -0.11363266 0.11363867 -0.113662034 0.11363673
00000000: dad2 e83d f5b6 e83d ffb8 e8bd 23b8 e8bd
00000010: 29b3 e8bd b1b5 e83d 43bb e83d 4cd0 e83d
00000020: 5afe e83d 60b7 e83d 38b5 e8bd 27b9 e8bd
00000030: 3db8 e8bd 64bb e83d a4c7 e8bd 60ba e83d

encoder_variable_selection.flattened_grn.resample_norm.mask f4 [8]
-0.09405189 0.112711266 0.11167692 0.11208951 -0.114298105 -0.11114289 -0.11217246 -0.11494848
00000000: 479e c0bd 2ad5 e63d deb6 e43d 2f8f e53d
00000010: 2015 eabd e29e e3bd adba e5bd 1c6a ebbd

encoder_variable_selection.flattened_grn.resample_norm.norm.weight f4 [8]
1.1209553 1.1128268 1.1131171 1.1136068 0.88557637 0.887037 0.8931293 0.8849159
00000000: 777b 8f3f 1c71 8e3f 9f7a 8e3f ab8a 8e3f
00000010: 22b5 623f db14 633f 1fa4 643f d989 623f

encoder_variable_selection.flattened_grn.resample_norm.norm.bias f4 [8]
0.108976394 0.112735204 -0.112428956 0.113348134 0.11760914 -0.1133541 0.10738455 0.11550255
00000000: 042f df3d b7e1 e63d 2741 e6bd 1123 e83d
00000010: 10dd f03d 3226 e8bd 6eec db3d 9a8c ec3d

encoder_variable_selection.flattened_grn.fc1.weight f4 [8, 64]
0.41323757 -0.04567098 0.33395597 -0.05299338 -0.1684088 0.116441414 -0.04811745 0.0027062828
-0.26253653 -0.32073683 0.007721225 -0.21143892 0.18531778 0.18986012 0.23491159 0.0126205105
0.02516903 -0.19677332 0.30357358 -0.12934864 0.32490656 0.11910322 -0.2933577 -0.20510395
-0.19590749 0.06050518 -0.027036581 0.34189492 0.08193468 0.5536997 0.05672618 -0.05182504
-0.03515546 -0.03681471 -0.13041301 -0.3988415 0.054097846 -0.006767273 -0.17184949 0.14040339
0.19783227 0.0807754 -0.09045196 -0.22891326 0.09129624 0.425245 0.52381504 -0.09016911
0.09902889 -0.12435896 0.06621328 -0.15385333 0.17532715 0.18589276 0.41626248 0.018419024
-0.23541635 -0.10155797 0.20968631 0.10419348 -0.1670085 0.26270437 -0.0953476 0.16066629
-0.14604571 -0.068491824 0.07729007 -0.22770603 0.39603686 0.0016519953 -0.08944405 -0.2839792
-0.012256496 0.24312624 0.03424993 -0.23090449 -0.22613248 -0.036075726 0.1448141 0.24198043
0.16681734 0.088267304 -0.29318395 -0.23863682 0.16282241 -0.3341909 -0.072604336 -0.07951875
-0.24121162 -0.21286766 0.18932594 0.025647141 -0.17199601 -0.21158177 -0.13502379 -0.14362168
0.0030366094 0.21849194 0.14824295 0.1360476 0.25541237 0.12427863 0.040316414 -0.21653257
-0.4430012 0.017581489 -0.18099734 -0.27757823 0.07374378 -0.018624391 0.057231855 0.20456454
0.12524348 0.24832474 0.080580115 0.028253706 0.012068704 0.17708132 -0.16545409 0.24412596
0.11637987 -0.085901596 0.31158593 0.043760538 -0.122979514 -0.26474464 -0.25918427 -0.08676044
-0.31210247 -0.06886862 -0.19439234 -0.12804297 0.029616924 -0.12514685 -0.23203135 0.3163156
0.39694616 -0.2322381 -0.105266966 -0.054819122 -0.025950188 -0.098274976 0.22386773 -0.008057369
0.14546141 -0.30586937 -0.035538837 0.060275167 0.5548991 -0.30047303 0.06239342 -0.4757049
0.101550706 0.21524855 -0.13752864 0.5105464 -0.27163717 -0.1559682 0.13172898 -0.0064704986
0.18008994 -0.20281908 -0.099617645 0.2653507 -0.1737842 0.04290459 -0.18921314 0.029473783
0.07868522 -0.5266596 -0.011924724 -0.1657094 0.114663936 0.23671827 -0.0749518 -0.1167283
0.2962552 0.055039644 0.10171058 0.019703269 -0.047186524 0.30039668 -0.2154987 0.24996561
-0.11456872 -0.21869464 0.35201752 0.06627631 -0.13395053 0.124413714 -0.18215548 -0.19836263
-0.10392296 0.15068561 -0.21036157 -0.013891004 0.07478548 0.18468753 -0.2619892 0.19879653
0.029395962 0.17935202 -0.3157438 0.16534518 0.16219388 0.013873156 0.06502571 0.34510872
-0.09844189 0.16528086 -0.12674686 -0.13154972 -0.14721124 -0.18944249 -0.1699219 -0.1273022
0.21687439 -0.054779716 0.3655165 0.36573693 -0.027588638 0.25293842 0.061199136 -0.309164
0.24310239 0.32639796 0.13309884 0.13943107 0.39713305 -0.2940672 -0.14475289 -0.15863393
-0.17348796 -0.112803854 -0.17632705 0.036100917 -0.2462297 0.17266706 -0.16035244 0.2979781
0.11736545 0.13587195 0.03478366 -0.1836785 0.1574614 0.114375755 0.09258716 -0.06414871
-0.1446938 0.019586157 -0.19592884 -0.022340156 0.0033769412 0.08699503 -0.16280146 -0.09578095
00000000: e093 d33e 7e11 3bbd 47fc aa3e 960f 59bd
00000010: 5b73 2cbe d678 ee3d ce16 45bd e45b 313b
00000020: 306b 86be 9e37 a4be 5402 fd3b 7283 58be
00000030: f2c3 3d3e b16a 423e aa8c 703e 42c6 4e3c
00000040: 482f ce3c f27e 49be ff6d 9b3e f873 04be
00000050: 275a a63e 64ec f33d fb32 96be c506 52be
00000060: f99b 48be 48d4 773d d27b ddbc da0c af3e
00000070: 5fcd a73d 43bf 0d3f b659 683d 7e46 54bd
00000080: 2cff 0fbd 05cb 16bd fd8a 05be f434 ccbe
00000090: b495 5d3d 00c0 ddbb 50f9 2fbe e8c5 0f3e
000000a0: 8b94 4a3e 936d a53d e13e b9bd 3d68 6abe
000000b0: 86f9 ba3d b6b9 d93e be18 063f 95aa b8bd
000000c0: a9cf ca3d e9af febd d49a 873d ba8b 1dbe
000000d0: f688 333e ac5a 3e3e 5b20 d53e 7ee3 963c
000000e0: fc10 71be a0fd cfbd 02b8 563e 6463 d53d
000000f0: 4704 2bbe 3081 863e 9a45 c3bd b485 243e
00000100: 028d 15be 7145 8cbd 424a 9e3d c52b 69be
00000110: 58c5 ca3e c487 d83a 712e b7bd b965 91be
00000120: 78cf 48bc 16f6 783e a849 0c3d 3a72 6cbe
00000130: 468f 67be 24c4 13bd 264a 143e b8c9 773e
00000140: 2ad2 2a3e 7dc5 b43d 351c 96be 365d 74be
00000150: ebba 263e 121b abbe 95b1 94bd bada a2bd
00000160: 2e00 77be fbf9 59be a9de 413e f419 d23c
00000170: b91f 30be e4a8 58be ad43 0abe 9011 13be
00000180: da01 473b 5abc 5f3e 00cd 173e 1050 0b3e
00000190: 69c5 823e cb85 fe3d d322 253d b7ba 5dbe
000001a0: 0ed1 e2be 0e07 903c 5e57 39be bc1e 8ebe
000001b0: fb06 973d 2e92 98bc f36b 6a3d 5e79 513e
000001c0: d43f 003e d748 7e3e 3007 a53d 5174 e73c
000001d0: d0bb 453c ce54 353e cc6c 29be 28fc 793e
000001e0: 9258 ee3d 2ded afbd 3188 9f3e 403e 333d
000001f0: afdc fbbd 9c8c 87be cdb3 84be 75af b1bd
00000200: e5cb 9fbe fe0a 8dbd c90e 47be b21d 03be
00000210: 319f f23c 7f26 00be a099 6dbe 1ef4 a13e
00000220: 873c cb3e d3cf 6dbe 3596 d7bd 048a 60bd
00000230: 7d95 d4bc 6444 c9bd 953d 653e 0e03 04bc
00000240: d6f3 143e e99a 9cbe 2c91 11bd 18e3 763d
00000250: de0d 0e3f 9ad7 99be 3e90 7f3d 988f f3be
00000260: d1f9 cf3d 1e6a 5c3e 4fd4 0cbe 2bb3 023f
00000270: 0714 8bbe 21b6 1fbe f6e3 063e 7a06 d4bb
00000280: 7f69 383e ceaf 4fbe 5604 ccbd 0cdc 873e
00000290: 7cf4 31be b9bc 2f3d 17c1 41be 0173 f13c
000002a0: b725 a13d 2ad3 06bf eb5f 43bc baaf 29be
000002b0: edd4 ea3d 4666 723e 5480 99bd 3f0f efbd
000002c0: c3ae 973e 4071 613d a34d d03d c068 a13c
000002d0: a846 41bd 98cd 993e b1ab 5cbe fcf6 7f3e
000002e0: 01a3 eabd 7df1 5fbe a43b b43e e0bb 873d
000002f0: 542a 09be 9ecc fe3d f786 3abe 931f 4bbe
00000300: 90d5 d4bd 544d 1a3e 0669 57be 1897 63bc
00000310: 2129 993d ba1e 3d3e 7323 86be 5191 4b3e
00000320: cdcf f03c 0ea8 373e 2ca9 a1be 3f50 293e
00000330: 2716 263e 3c4c 633c 332c 853d 17b2 b03e
00000340: e79b c9bd 633f 293e eec9 01be f8b4 06be
00000350: 8bbe 16be 36fd 41be 0200 2ebe 825b 02be
00000360: 5214 5e3e b260 60bd fb24 bb3e df41 bb3e
00000370: 9101 e2bc 2581 813e f2ab 7a3d be4a 9ebe
00000380: d5ef 783e a21d a73e 104b 083e 05c7 0e3e
00000390: 0655 cb3e fa8f 96be 1a3a 14be ef70 22be
000003a0: d4a6 31be b505 e7bd 148f 34be 8ede 133d
000003b0: a323 7cbe a2cf 303e 6e33 24be 9690 983e
000003c0: 4c5d f03d 0422 0b3e 5079 0e3d 3716 3cbe
000003d0: 903d 213e d63d ea3d 569e bd3d 6660 83bd
000003e0: 9d2a 14be 2673 a03c 92a1 48be b402 b7bc
000003f0: ac4f 5d3b 732a b23d 6db5 26be cd28 c4bd

encoder_variable_selection.flattened_grn.fc1.bias f4 [8]
-0.12613554 0.10913915 0.12255918 0.12879373 0.11217415 0.114850946 -0.11391451 -0.11394006
00000000: ad29 01be 5984 df3d 4f00 fb3d 81e2 033e
00000010: 90bb e53d f936 eb3d 034c e9bd 6859 e9bd

encoder_variable_selection.flattened_grn.context.weight f4 [8, 16]
-0.43409252 0.15543264 0.28212094 -4.7767535e-05 -0.262133 -0.12098223 -0.43657404 -0.04946198
-0.018207557 -0.5953016 -0.07798514 0.5072973 0.10424035 -0.3674016 0.3358059 0.35493866
0.030764028 -0.3691787 0.16631904 0.31322953 0.46752924 0.12322859 -0.14630617 0.3555281
0.0544998 0.23301056 -0.15617299 0.16502899 -0.24983858 0.24091592 -0.30204675 -0.07313083
-0.33444884 0.26763833 -0.24794826 0.32198757 -0.09192361 -0.041371796 -0.20573679 0.27178824
-0.35325226 0.00996485 -0.48261344 -0.55171543 -0.5431099 0.5689078 -0.5422847 0.006361069
-0.26158065 -0.034275513 -0.37804732 0.11969332 0.06607494 -0.12362785 -0.2659893 0.23245583
-0.11896218 -0.121941976 -0.08303888 -0.4497667 0.2955599 0.55258673 -0.5414049 -0.1391521
0.14439328 -0.42971873 0.35419738 0.41252625 -0.31571445 0.10485458 -0.13692868 0.3398328
0.20027709 -0.23557705 -0.2621449 0.4059016 0.31452835 0.41196766 -0.24324764 0.14659286
0.35214257 0.3646316 -0.4975563 0.15159085 0.18840353 -0.085771374 0.15532386 0.30182576
-0.13316862 0.29987124 -0.5260346 0.07825892 0.020930165 0.28211135 0.14418258 0.34983957
0.01782955 -0.074896224 0.29596516 0.15739042 0.019231686 -0.0037738932 -0.117870376 0.006037413
-0.09396638 0.047124207 -0.31612375 0.36096686 -0.004363085 -0.19713181 -0.16601479 -0.46847644
-0.18802463 -0.2002564 0.4459851 0.42507464 0.05636955 -0.5221416 -0.4251313 -0.5777936
-0.3084247 -0.16807379 0.01632741 0.23334481 -0.10910343 0.19268419 0.50839376 -0.45991367
00000000: 6041 debe bc29 1f3e 2872 903e 005a 48b8
00000010: 4c36 86be 88c5 f7bd a286 dfbe a598 4abd
00000020: 0428 95bc b065 18bf acb6 9fbd 3cde 013f
00000030: f77b d53d 101c bcbe c0ee ab3e 85ba b53e
00000040: d804 fc3c fe04 bdbe 8a4f 2a3e 9f5f a03e
00000050: fe5f ef3e 455f fc3d 49d1 15be c707 b63e
00000060: 2f3b 5f3d 529a 6e3e d0eb 1fbe 5cfd 283e
00000070: afd5 7fbe aab2 763e dfa5 9abe 9ec5 95bd
00000080: e13c abbe e407 893e 26e6 7dbe 8edb a43e
00000090: 7242 bcbd 7975 29bd aaac 52be d427 8b3e
000000a0: 7bdd b4be 9c43 233c 1c19 f7be 393d 0dbf
000000b0: 4009 0bbf f1a3 113f 2cd3 0abf 8470 d03b
000000c0: e6ed 85be 7b64 0cbd 6b8f c1be c521 f53d
000000d0: 4c52 873d 9930 fdbd c02f 88be e708 6e3e
000000e0: 72a2 f3bd b7bc f9bd 4a10 aabd d247 e6be
000000f0: a153 973e 5376 0d3f 8399 0abf e37d 0ebe
00000100: d5db 133e 1804 dcbe 5c59 b53e a436 d33e
00000110: 53a5 a1be ffbd d63d 0837 0cbe 91fe ad3e
00000120: 7015 4d3e 1c3b 71be db37 86be 56d2 cf3e
00000130: dc09 a13e 6ded d23e e915 79be 701c 163e
00000140: 084c b43e feb0 ba3e b3bf febe a23a 1b3e
00000150: dbec 403e e7a8 afbd 380d 1f3e e888 9a3e
00000160: 5b5d 08be b988 993e 34aa 06bf 3646 a03d
00000170: bd75 ab3c e670 903e 99a4 133e 2c1e b33e
00000180: 470f 923c 3163 99bd bf88 973e f42a 213e
00000190: c58b 9d3c 6c53 77bb 0666 f1bd 7ed5 c53b
000001a0: 7271 c0bd 5005 413d f9da a1be a6d0 b83e
000001b0: 36f8 8ebb ecdc 49be c8ff 29be 25dc efbe
000001c0: 8789 40be 0410 4dbe 2958 e43e 62a3 d93e
000001d0: c2e3 663d 12ab 05bf cfaa d9be 48ea 13bf
000001e0: d8e9 9dbe 891b 2cbe 0fc1 853c f1f1 6e3e
000001f0: 9e71 dfbd 014f 453e 1826 023f ce79 ebbe

encoder_variable_selection.flattened_grn.fc2.weight f4 [8, 8]
0.19745032 0.38419658 -0.23776464 -0.5116618 0.42368817 -0.25123575 -0.055019304 -0.35237694
0.2858691 0.3214521 -0.298852 -0.96435606 -0.46631414 0.16458412 -0.30617872 -0.064409524
0.60518044 -0.5985667 -1.3394097 -0.88410836 0.02381339 -0.44198626 0.6490762 1.1902784
-0.021075137 0.17125738 0.5207321 -0.098147 0.18464543 -1.1396264 0.42837852 0.042188007
-0.31975743 -0.19169237 -0.3714623 -0.45654714 0.3424795 0.22989878 -0.30585238 0.35308352
-0.039480496 0.45753127 0.6784492 -0.047685795 -0.085046105 -0.8917514 0.8852388 0.56432533
-0.3985051 -0.5044639 -1.1447753 0.04653499 -0.55841136 0.018208258 0.36244726 -0.13229395
0.33774263 -0.14416447 0.33190775 -0.09498966 1.0495256 -0.96594924 -0.16877697 0.048970915
00000000: 6b30 4a3e 6ab5 c43e 9378 73be 45fc 02bf
00000010: a8ed d83e f9a1 80be ec5b 61bd c06a b4be
00000020: 6f5d 923e 5f95 a43e 2103 99be 0ae0 76bf
00000030: bac0 eebe bd88 283e 75c3 9cbe 24e9 83bd
00000040: 1bed 1a3f ab3b 19bf c771 abbf ed54 62bf
00000050: 4c14 c33c 064c e2be dc29 263f 0b5b 983f
00000060: c4a5 acbc 185e 2f3e b34e 053f 4b01 c9bd
00000070: b113 3d3e 47df 91bf 6e54 db3e 55cd 2c3d
00000080: 3fb7 a3be 014b 44be 4e30 bebe 8cc0 e9be
00000090: 7959 af3e 966a 6b3e af98 9cbe 5dc7 b43e
000000a0: 4db6 21bd 8a41 ea3e d9ae 2d3f 2e52 43bd
000000b0: a72c aebd d249 64bf 039f 623f a077 103f
000000c0: dc08 ccbe 8c24 01bf ff87 92bf 799b 3e3d
000000d0: 0cf4 0ebf 7c29 953c b092 b93e 1178 07be
000000e0: 9aec ac3e da9f 13be d0ef a93e f089 c2bd
000000f0: db56 863f 7348 77bf dfd3 2cbe ba95 483d

encoder_variable_selection.flattened_grn.fc2.bias f4 [8]
0.11282138 -0.11357603 0.102212444 -0.113448106 -0.11429292 -0.11560728 -0.11309101 -0.11303428
00000000: e50e e73d 8d9a e8bd c254 d13d 7b57 e8bd
00000010: 6812 eabd 82c3 ecbd 429c e7bd 847e e7bd

encoder_variable_selection.flattened_grn.gate_norm.glu.fc.weight f4 [16, 8]
0.3898403 0.2700406 -0.2972616 0.26376393 0.356137 0.07714456 0.30948403 0.46867847
0.58353484 0.49525824 0.5219037 -0.0007353835 0.51921076 0.10013231 0.10703536 -0.07271372
0.016798079 0.124221735 0.11992671 0.08353407 0.2345531 -0.24283636 -0.09094945 -0.141302
0.5896041 0.5093333 0.22385162 0.53299457 -0.098936655 0.50077516 -0.12476725 0.37444657
0.4677771 -0.011117373 0.2511413 -0.26553243 0.09076345 -0.33043376 0.15393971 -0.2906347
-0.50132805 0.24007352 -0.3506475 0.26421157 0.30808643 -0.052174214 0.08398608 0.07930713
0.013881622 -0.09660044 0.32268187 0.22882368 0.4024016 0.11688193 0.0030338438 -0.19911811
-0.34305167 0.46655455 -0.37938726 -0.030917685 0.23018423 -0.018889975 0.30294463 0.2393643
-0.36665556 -0.17911251 -0.16551831 -0.17297754 -0.33927646 -0.043347504 0.10052938 -0.13093115
0.18019074 0.5086447 -0.32052252 0.3028686 -0.0793313 -0.3445042 0.38641444 -0.0044137845
0.08572162 0.020762462 0.12803999 -0.25718918 -0.06252059 -0.50853807 0.16484205 -0.41988242
0.5685025 -0.16487303 -0.16726103 -0.3514208 -0.33276144 0.274674 0.41584158 0.15894748
-0.011011263 0.30386263 0.28524524 0.19580716 -0.35919276 -0.42266878 -0.18224387 0.00042537507
-0.02574972 0.16301098 0.19542101 -0.402435 -0.49189937 0.03604113 0.044217054 -0.34704646
-0.3544448 -0.47547555 -0.27744874 0.28946558 -0.5014893 -0.021328855 0.22353567 -0.5474535
-0.21663538 -0.10241097 -0.5480378 -0.30819973 0.29140478 0.24879989 -0.085723065 -0.10864527
00000000: 2699 c73e c342 8a3e ac32 98be 110c 873e
00000010: 9757 b63e f8fd 9d3d b174 9e3e a0f6 ef3e
00000020: 8a62 153f 7d92 fd3e 7b9b 053f c0c6 40ba
00000030: ffea 043f 2b12 cd3d 5b35 db3d eeea 94bd
00000040: 209c 893c f767 fe3d 239c f53d e913 ab3d
00000050: b02e 703e 18aa 78be b543 babd 79b1 10be
00000060: 4bf0 163f ab63 023f 5c39 653e 5572 083f
00000070: 4d9f cabd cd32 003f f985 ffbd 76b7 bf3e
00000080: 7b80 ef3e a425 36bc 9895 803e def3 87be
00000090: 30e2 b93d 9d2e a9be 5fa2 1d3e 12ce 94be
000000a0: 0957 00bf d5d5 753e 1288 b3be bd46 873e
000000b0: 81bd 9d3e a1b4 55bd e500 ac3d c76b a23d
000000c0: be6f 633c 74d6 c5bd 8f36 a53e c150 6a3e
000000d0: 9507 ce3e cb5f ef3d 74d3 463b 9ee5 4bbe
000000e0: 78a4 afbe 3de0 ee3e 0c3f c2be 1647 fdbc
000000f0: 6ab5 6b3e 26bf 9abc 8f1b 9b3e ea1b 753e
00000100: 47ba bbbe 4569 37be a27d 29be 0621 31be
00000110: a5b5 adbe 278d 31bd 59e2 cd3d d112 06be
00000120: ec83 383e 8a36 023f 871b a4be 9811 9b3e
00000130: 7378 a2bd db62 b0be 1dd8 c53e 82a1 90bb
00000140: d18e af3d 0a16 aa3c ea1c 033e 4dae 83be
00000150: cc0a 80bd 8d2f 02bf 5bcc 283e d4fa d6be
00000160: 6189 113f 7ad4 28be 7a46 2bbe 6ded b3be
00000170: b55f aabe 12a2 8c3e 30e9 d43e 21c3 223e
00000180: 9668 34bc e293 9b3e aa0b 923e ac81 483e
00000190: 1de8 b7be 0b68 d8be 239e 3abe e004 df39
000001a0: 14f1 d2bc 5aec 263e 721c 483e f60b cebe
000001b0: 3cda fbbe dd9f 133d f11c 353d 13b0 b1be
000001c0: ca79 b5be 8871 f3be c30d 8ebe d534 943e
000001d0: 9a61 00bf dab9 aebc 89e6 643e ea25 0cbf
000001e0: aad5 5dbe d8bc d1bd 354c 0cbf 5bcc 9dbe
000001f0: 0233 953e 66c5 7e3e 938f afbd 6981 debd

encoder_variable_selection.flattened_grn.gate_norm.glu.fc.bias f4 [16]
0.09641347 0.11239835 -0.11334202 0.11304313 0.115160994 -0.11341948 0.10647646 0.121774815
0.11542552 0.11454027 -0.1146426 0.11306231 -0.112403885 -0.11376731 -0.09818827 0.11816774
00000000: 6d74 c53d 1b31 e63d dc1f e8bd 2883 e73d
00000010: 87d9 eb3d 7948 e8bd 5510 da3d 1365 f93d
00000020: 3764 ec3d 1794 ea3d bdc9 eabd 368d e73d
00000030: 0234 e6bd d6fe e8bd ef16 c9bd ee01 f23d

encoder_variable_selection.flattened_grn.gate_norm.add_norm.norm.weight f4 [8]
1.0871792 1.112874 1.1131976 1.1126171 0.8857346 0.886595 0.8872293 0.8876426
00000000: b028 8b3f a872 8e3f 427d 8e3f 3d6a 8e3f
00000010: 81bf 623f e4f7 623f 7621 633f 8c3c 633f

encoder_variable_selection.flattened_grn.gate_norm.add_norm.norm.bias f4 [8]
0.10575176 0.112802275 -0.112118155 0.11353661 0.11532517 -0.11338358 0.11318759 0.115516186
00000000: 6194 d83d e104 e73d 349e e5bd e285 e83d
00000010: 9a2f ec3d a735 e8bd e5ce e73d c093 ec3d

encoder_variable_selection.single_variable_grns.time_idx.resample_norm.mask f4 [16]
0.10604806 0.10215648 -0.108999275 -0.1138853 -0.11680483 0.12760945 0.11711257 -0.11012049
-0.113132365 -0.110915065 0.12039949 0.11514228 0.11231892 -0.11499167 0.10114471 0.10868753
00000000: ba2f d93d 6b37 d13d 033b dfbd b23c e9bd
00000010: 5f37 efbd 0dac 023e b7d8 ef3d da86 e1bd
00000020: f1b1 e7bd 7027 e3bd 0294 f63d b7cf eb3d
00000030: 7607 e63d c180 ebbd f524 cf3d 9197 de3d

encoder_variable_selection.single_variable_grns.time_idx.resample_norm.norm.weight f4 [16]
1.1047189 1.1008061 1.1378108 0.88600886 0.8824943 1.122786 1.1164997 0.8877078
0.8868702 0.8889563 1.1201973 1.1136572 1.1124082 0.8853304 1.0977098 1.105826
00000000: 6e67 8d3f 37e7 8c3f c9a3 913f 7ad1 623f
00000010: 25eb 613f 74b7 8f3f 76e9 8e3f d240 633f
00000020: ed09 633f a492 633f a062 8f3f 528c 8e3f
00000030: 6463 8e3f 03a5 623f c181 8c3f b58b 8d3f

encoder_variable_selection.single_variable_grns.time_idx.resample_norm.norm.bias f4 [16]
-0.10985079 -0.10773867 0.11600552 0.11445552 0.115734175 -0.12417948 -0.11545519 0.114312954
-0.112667575 -0.11055926 -0.11728257 -0.119221896 -0.11250879 0.11600818 0.0949966 0.107348844
00000000: 73f9 e0bd 18a6 dcbd 4d94 ed3d a867 ea3d
00000010: 0a06 ed3d d051 febd c573 ecbd e91c ea3d
00000020: 42be e6bd e56c e2bd d831 f0bd 9c2a f4bd
00000030: 026b e6bd b295 ed3d 948d c23d b6d9 db3d

encoder_variable_selection.single_variable_grns.time_idx.fc1.weight f4 [8, 8]
0.29063025 0.15255548 -0.54987687 -0.4270924 0.8490017 -0.43652052 -0.9620517 0.24762894
0.13034812 0.12237179 -0.7070207 -0.049210116 0.08967501 -0.2408186 -0.10670933 0.73268986
0.91157186 -0.22774181 0.23850189 0.22516333 -0.31149572 0.7997574 0.5884014 -0.43113127
0.43277138 -0.24024929 0.23174994 0.45920575 0.8582325 0.24359721 0.1840291 -0.15637273
0.04539091 -0.22476746 -0.8757324 -0.46511245 -0.88014734 -0.28802165 0.013830468 0.4090885
-0.4863558 -0.33506477 0.30619448 -0.60023713 -0.2069441 0.9645293 -0.38623098 1.6808099
0.3157337 0.40229946 0.09316966 0.532639 -0.13537398 0.33940044 -0.46307033 0.67504954
0.2588676 -0.24387966 1.1559095 0.4361655 -0.97146463 -0.35209247 -0.58424515 -0.6480166
00000000: 7dcd 943e 8137 1c3e bbc4 0cbf dbab dabe
00000010: 2d58 593f 9e7f dfbe 0549 76bf 7192 7d3e
00000020: fa79 053e 109e fa3d 4fff 34bf 8c90 49bd
00000030: 88a7 b73d 2799 76be 6c8a dabd 9091 3b3f
00000040: c65c 693f 2635 69be d739 743e 3791 663e
00000050: 5e7c 9fbe e7bc 4c3f 79a1 163f 3dbd dcbe
00000060: 3694 dd3e e903 76be db4f 6d3e 041d eb3e
00000070: 20b5 5b3f 8c71 793e 2072 3c3e 2c20 20be
00000080: d2eb 393d 7129 66be 0030 60bf 3823 eebe
00000090: 5651 61bf 9377 93be 3099 623c 0c74 d13e
000000a0: a103 f9be 9c8d abbe 86c5 9c3e 24a9 19bf
000000b0: 27e9 53be 64eb 763f 11c0 c5be c724 d73f
000000c0: d9a7 a13e 32fa cd3e bccf be3d 085b 083f
000000d0: 7a9f 0abe e5c5 ad3e 8e17 edbe 0cd0 2c3f
000000e0: 4b8a 843e 97bb 79be d8f4 933f 1651 df3e
000000f0: e8b1 78bf 7745 b4be 1791 15bf 6ae4 25bf

encoder_variable_selection.single_variable_grns.time_idx.fc1.bias f4 [8]
0.0048837764 0.114176854 -0.116427384 -0.11417868 -0.11177978 -0.03764715 -0.114876434 -0.11430818
00000000: 1608 a03b 8ed5 e93d 7b71 eebd 83d6 e9bd
00000010: ccec e4bd e633 1abd 5644 ebbd 681a eabd

encoder_variable_selection.single_variable_grns.time_idx.fc2.weight f4 [8, 8]
-0.30151933 0.55708116 -0.78398246 -0.13713148 -0.16747053 0.61582375 -0.27704278 -0.041052412
-0.31177518 -0.32252204 -0.93809754 0.45322946 -0.46391705 0.2914506 0.11122349 1.247345
-0.38686827 0.79058623 -0.9391688 0.47212514 -0.45286328 -0.114955716 0.20475829 -0.61662
0.61468166 0.14860997 0.22788702 -0.6472104 -1.0589544 0.14126968 -0.6521604 0.35509646
0.7553956 -0.35650638 -0.45585233 -1.1816903 0.20030995 0.08859356 -1.0529511 -0.41833365
-0.028272508 0.28761607 -0.5851124 0.1820958 1.0033123 0.42731085 -0.2501703 -0.46447963
0.32216623 -0.90367484 -0.006327545 0.39707452 -0.02474067 0.5831966 0.036295503 -0.25558823
-0.3852683 -0.22562306 0.36372817 0.037475787 0.20522848 0.16316622 0.18450327 0.102611855
00000000: be60 9abe df9c 0e3f 13b3 48bf 326c 0cbe
00000010: 657d 2bbe a0a6 1d3f 8dd8 8dbe 9326 28bd
00000020: ffa0 9fbe 9c21 a5be 2927 70bf b10d e83e
00000030: 8986 edbe 0339 953e 24c9 e33d 00a9 9f3f
00000040: 9913 c6be dc63 4a3f 5e6d 70bf 63ba f13e
00000050: b2dd e7be e76d ebbd 28ac 513e cfda 1dbf
00000060: c75b 1d3f 362d 183e 375b 693e 95af 25bf
00000070: d18b 87bf 00a9 103e fcf3 26bf 34cf b53e
00000080: 9b61 413f 0188 b6be 7a65 e9be a141 97bf
00000090: 0d1e 4d3e 8a70 b53d 1ac7 86bf d42f d6be
000000a0: bf9b e7bc 6a42 933e edc9 15bf 5277 3a3e
000000b0: 8a6c 803f 7dc8 da3e 5216 80be 46d0 edbe
000000c0: f9f2 a43e 3c57 67bf 4b57 cfbb 5a4d cb3e
000000d0: f2ac cabc 5f4c 153f 98aa 143d 76dc 82be
000000e0: e341 c5be bb09 67be 943a ba3e 3680 193d
000000f0: 6a27 523e 0c15 273e 6dee 3c3e 2a26 d23d

encoder_variable_selection.single_variable_grns.time_idx.fc2.bias f4 [8]
0.11539764 -0.11354159 0.11572756 0.11341741 0.11601359 0.11828626 -0.11131996 0.14550899
00000000: 9955 ec3d 7e88 e8bd 9202 ed3d 6347 e83d
00000010: 8898 ed3d 1140 f23d b8fb e3bd 4f00 153e

encoder_variable_selection.single_variable_grns.time_idx.gate_norm.glu.fc.weight f4 [32, 8]
0.16542384 -0.50183576 -0.0003660582 0.38578996 0.027288504 -0.17976953 0.061674386 0.1988576
-0.17460057 -0.3127716 0.24465318 0.23896614 0.47698933 0.03592528 0.18866685 0.28381792
0.2728303 -0.19872037 -0.081102125 -0.014308473 0.45034984 -0.023359708 0.07067013 0.24000128
0.030891892 -0.11672672 0.08054237 0.03478631 -0.020235375 0.45640126 0.019154817 -0.4227152
-0.017616425 0.30467144 0.21200699 0.016449546 0.13083117 0.26320723 -0.2089144 0.002080826
-0.387853 -0.43901116 -0.114999816 -0.08215299 0.012886825 -0.26721835 -0.050018094 0.09524969
0.03626521 -0.1292934 -0.12314891 0.3676472 0.46497577 -0.17954731 -0.25226444 0.33148488
-0.21467815 -0.02009183 -0.1414009 -0.49914533 -0.06777207 0.4595168 0.4926429 -0.48757383
-0.2781916 0.23362671 0.23179974 0.02152887 -0.15354775 -0.28564733 -0.46827978 0.13320301
-0.22077115 -0.4350748 0.047159918 0.34543428 -0.013754181 0.14600067 -0.089215316 0.24106394
-0.31389365 -0.025116496 -0.19296223 0.2024976 -0.041780718 -0.06606942 -0.2930153 -0.20938376
-0.33099866 -0.06951521 0.2793002 0.20768031 0.15748218 -0.112247385 0.21463028 0.34350792
-0.1698943 0.15309261 -0.1019717 -0.0020474936 0.47358024 0.24190614 0.113565624 0.4048539
0.36719564 0.18675388 0.09994994 0.16578084 0.18357131 0.41311482 0.20892602 -0.005235983
0.47573334 -0.19912189 -0.42714792 -0.12650849 -0.041161325 -0.016007503 0.4528323 -0.13368922
0.45866975 0.13656873 -0.32755625 -0.31244197 -0.10874969 0.24779949 -0.11581509 0.19279179
0.4267427 0.09041612 0.37475857 -0.41962975 -0.42730656 -0.25832745 -0.41953006 -0.30732253
-0.10799958 0.14551903 0.33199418 0.28155157 0.39120024 -0.088395216 -0.26708356 -0.059234
-0.17814083 -0.46740684 -0.22190416 -0.04204291 0.25178507 -0.042665314 0.13642545 0.48631373
0.32574686 0.3536093 0.2102256 0.12139012 0.066789396 0.43281445 0.19094218 0.31932575
-0.30205673 0.13553013 0.2888583 -0.21058503 0.29261708 -0.48150724 0.13146017 0.2061136
0.02758903 -0.24685575 0.12648582 0.105935104 0.017711028 0.36077347 0.20471689 0.38271627
0.0236633 0.06737178 -0.4921107 0.19135477 0.40871447 0.10531446 -0.2629289 -0.4454141
-0.11903098 0.21252425 -0.14617422 -0.2594493 -0.32382193 0.076567344 0.24977604 -0.1357495
0.06872874 0.32172573 -0.46793112 0.16319811 -0.39052492 0.0021051962 0.43618852 -0.42728484
0.5021217 0.22445023 -0.24467766 -0.40723786 0.20515898 0.1942164 0.15776858 -0.41345072
0.08300567 -0.24648628 -0.18010177 0.12536749 -0.109286316 0.35177344 0.37010586 -0.12313364
0.271929 -0.29582924 0.117076635 -0.003230731 0.1322213 0.1633291 0.11499848 0.36447245
-0.31160203 0.21713719 -0.20840313 0.25843894 -0.13892458 -0.21736397 -0.3091744 -0.19172402
0.18015772 -0.11885022 -0.04849129 -0.4709895 0.009548918 0.3098689 -0.0942822 -0.16547297
-0.063963965 0.42781192 -0.0400332 -0.44751963 -0.49356395 0.10342193 0.11327377 0.22601904
0.12718302 -0.31628516 0.25487804 0.44530955 -0.45816496 -0.1873961 -0.27022827 -0.097250864
00000000: de64 293e 4f78 00bf 80eb bfb9 4386 c53e
00000010: 248c df3c 8115 38be 489e 7c3d 54a1 4b3e
00000020: 7eca 32be 9923 a0be 5d86 7a3e 8ab3 743e
00000030: f237 f43e 6326 133d e231 413e 9550 913e
00000040: 6ab0 8b3e 5a7d 4bbe df18 a6bd 166e 6abc
00000050: 4194 e63e dc5c bfbc 80bb 903d e5c2 753e
00000060: fe10 fd3c 6b0e efbd 66f3 a43d 177c 0e3d
00000070: a8c4 a5bc 6dad e93e 90ea 9c3c 206e d8be
00000080: 5250 90bc e5fd 9b3e 5c18 593e 33c1 863c
00000090: 9bf8 053e 19c3 863e a8ed 55be 785e 083b
000000a0: ab94 c6be 12c6 e0be 0685 ebbd d43f a8bd
000000b0: 4323 533c d8d0 88be c6df 4cbd 4512 c33d
000000c0: d48a 143d 7d65 04be 7f35 fcbd 413c bc3e
000000d0: 4e11 ee3e 40db 37be ce28 81be 63b8 a93e
000000e0: 97d4 5bbe 9f97 a4bc 66cb 10be fa8f ffbe
000000f0: 15cc 8abd c945 eb3e b13b fc3e 47a3 f9be
00000100: 216f 8ebe d73b 6f3e e95c 6d3e 505d b03c
00000110: 9f3b 1dbe 5e40 92be 5ec2 efbe 5f66 083e
00000120: d511 62be 20c2 debe c22a 413d c3dc b03e
00000130: 3759 61bc 3381 153e 85b6 b6bd 77d9 763e
00000140: abb6 a0be 1cc1 cdbc e497 45be 885b 4f3e
00000150: 4222 2bbd 674f 87bd 1a06 96be b268 56be
00000160: a878 a9be fe5d 8ebd 7000 8f3e 26aa 543e
00000170: 0243 213e f5e1 e5bd 0ac8 5b3e 45e0 af3e
00000180: c5f8 2dbe 4fc4 1c3e 8ad6 d0bd 3e2f 06bb
00000190: 1c79 f23e 3eb6 773e 1895 e83d 0349 cf3e
000001a0: 1101 bc3e 693c 3f3e 8eb2 cc3d 74c2 293e
000001b0: 1efa 3b3e c983 d33e b4f0 553e 9c92 abbb
000001c0: 5293 f33e 9ce6 4bbe 22b3 dabe 718b 01be
000001d0: c798 28bd 2b22 83bc a3d9 e73e d4e5 08be
000001e0: c3d6 ea3e acd8 0b3e 74b5 a7be 65f8 9fbe
000001f0: 28b8 debd 26bf 7d3e 7630 edbd 366b 453e
00000200: 057e da3e 162c b93d 5be0 bf3e b6d9 d6be
00000210: edc7 dabe 7f43 84be a5cc d6be 6159 9dbe
00000220: e22e ddbd f102 153e 24fb a93e 8727 903e
00000230: 664b c83e 8d08 b5bd 2dbf 88be 5a9f 72bd
00000240: 8d6a 36be f34f efbe d83a 63be 3035 2cbd
00000250: f9e9 803e d3c1 2ebd 1db3 0b3e 1dfe f83e
00000260: 4bc8 a63e 470c b53e 6145 573e 629b f83d
00000270: e1c8 883d db99 dd3e 5986 433e aa7e a33e
00000280: 2ea7 9abe 69c8 0a3e 3ce5 933e 9aa3 57be
00000290: e8d1 953e 1e88 f6be 7f9d 063e 720f 533e
000002a0: 6402 e23c c1c7 7cbe 8085 013e 81f4 d83d
000002b0: b816 913c 4db7 b83e 4ea1 513e 63f3 c33e
000002c0: 89d9 c13c 37fa 893d eff5 fbbe 81f2 433e
000002d0: 0643 d13e 1caf d73d 9e9e 86be 510d e4be
000002e0: 84c6 f3bd f59f 593e b2ae 15be 8ad6 84be
000002f0: fdcb a5be 57cf 9c3d 4ac5 7f3e eb01 0bbe
00000300: a7c1 8c3d 3cb9 a43e ab94 efbe 681d 273e
00000310: e2f2 c7be 55f7 093b 1a54 df3e 14c5 dabe
00000320: 0c8b 003f 48d6 653e c88c 7abe 7b81 d0be
00000330: 3215 523e aae0 463e 168e 213e d0af d3be
00000340: e0fe a93d e666 7cbe 996c 38be 5660 003e
00000350: 81d1 dfbd a61b b43e 847e bd3e 7d2d fcbd
00000360: 473a 8b3e ee76 97be e0c5 ef3d acba 53bb
00000370: 0565 073e be3f 273e 5384 eb3d 229c ba3e
00000380: 4d8a 9fbe 3659 5e3e a167 55be 1c52 843e
00000390: 3f42 0ebe a994 5ebe 1b4c 9ebe 4d53 44be
000003a0: 447b 383e bf67 f3bd ce9e 46bd 8925 f1be
000003b0: 1173 1c3c 23a7 9e3e 0717 c1bd bf71 29be
000003c0: 8aff 82bd 2a0a db3e daf9 23bd 4b21 e5be
000003d0: 6ab4 fcbe e0ce d33d 14fc e73d 8971 673e
000003e0: 443c 023e 21f0 a1be 607f 823e 9dff e33e
000003f0: 9994 eabe c3e4 3fbe 5c5b 8abe 762b c7bd

encoder_variable_selection.single_variable_grns.time_idx.gate_norm.glu.fc.bias f4 [32]
-0.11091345 -0.10448014 0.115513146 0.11438411 0.11463325 -0.12272243 -0.11783432 0.114395596
-0.11330417 -0.11063104 -0.117997155 -0.11986254 -0.11287245 0.116180986 0.108194 0.108678624
0.109462515 -0.10401937 -0.10958294 -0.10193117 -0.11267774 -0.086772315 0.11242223 0.11556104
0.111287765 0.12000632 0.117455184 -0.110980816 -0.11318391 0.12391807 0.08060487 -0.115672946
00000000: 9726 e3bd aff9 d5bd 2892 ec3d 3742 ea3d
00000010: d6c4 ea3d e655 fbbd 1f53 f1bd 3d48 ea3d
00000020: 040c e8bd 8792 e2bd 7ea8 f1bd 7e7a f5bd
00000030: ac29 e7bd 4cf0 ed3d d194 dd3d e692 de3d
00000040: e22d e03d 1c08 d5bd 056d e0bd 4ac1 d0bd
00000050: 96c3 e6bd afb5 b1bd a03d e63d 44ab ec3d
00000060: d7ea e33d e0c5 f53d 588c f03d e949 e3bd
00000070: f7cc e7bd c2c8 fd3d 2b14 a53d f0e5 ecbd

encoder_variable_selection.single_variable_grns.time_idx.gate_norm.add_norm.norm.weight f4 [16]
1.1027261 1.0885304 0.89241904 0.8881655 0.8846673 1.1206328 1.1161684 1.1149224
0.88505733 0.88944167 1.1217253 1.1174505 1.1119239 0.88714516 1.1032783 1.1073734
00000000: 2126 8d3f f754 8b3f 9375 643f d05e 633f
00000010: 8e79 623f e570 8f3f 9bde 8e3f c7b5 8e3f
00000020: 1e93 623f 73b2 633f b294 8f3f 9e08 8f3f
00000030: 8653 8e3f f21b 633f 3938 8d3f 69be 8d3f

encoder_variable_selection.single_variable_grns.time_idx.gate_norm.add_norm.norm.bias f4 [16]
-0.10875636 -0.1062331 0.11681918 0.11455884 0.11658934 -0.12149825 -0.11537785 0.11394105
-0.11210448 -0.10938536 -0.11779527 -0.11989105 -0.112506464 0.11603672 0.0987944 0.107962996
00000000: a8bb debd bd90 d9bd e53e ef3d d39d ea3d
00000010: 64c6 ee3d 13d4 f8bd 394b ecbd ed59 e93d
00000020: 0997 e5bd 6e05 e0bd a63e f1bd 7089 f5bd
00000030: ca69 e6bd a9a4 ed3d b854 ca3d b41b dd3d

encoder_variable_selection.single_variable_grns.T2M.resample_norm.mask f4 [16]
-0.1377243 -0.1159524 0.11697234 0.11392129 0.1134925 -0.110943824 0.11325237 -0.11336621
0.11349494 0.11249986 -0.1124754 -0.11416645 0.112687334 -0.114155605 -0.11235544 0.10689865
00000000: 9907 0dbe 7478 edbd 328f ef3d 914f e93d
00000010: c16e e83d 8436 e3bd dcf0 e73d 8b2c e8bd
00000020: 0970 e83d 5466 e63d 8159 e6bd 1ad0 e9bd
00000030: 9ec8 e63d 6aca e9bd 9c1a e6bd aeed da3d

encoder_variable_selection.single_variable_grns.T2M.resample_norm.norm.weight f4 [16]
1.1070306 0.88195014 1.1168101 1.1139985 1.1137035 0.88841593 1.1135032 0.8866231
1.1135147 1.1129225 0.886751 0.8856874 1.1129245 0.8858181 0.8872437 1.1101068
00000000: 2eb3 8d3f 7cc7 613f a2f3 8e3f 8197 8e3f
00000010: d68d 8e3f 3a6f 633f 4687 8e3f bbf9 623f
00000020: a687 8e3f 3f74 8e3f 1d02 633f 69bc 623f
00000030: 4f74 8e3f fac4 623f 6722 633f fb17 8e3f

encoder_variable_selection.single_variable_grns.T2M.resample_norm.norm.bias f4 [16]
0.10780651 -0.11600924 0.1151319 0.1140672 0.11447893 -0.1164369 -0.11315675 0.11245546
-0.11401601 -0.113467515 -0.114440575 -0.113734916 -0.113106176 0.11451069 0.11057337 0.111505136
00000000: a9c9 dc3d 4196 edbd 46ca eb3d 109c e93d
00000010: ee73 ea3d 7876 eebd babe e7bd 0c4f e63d
00000020: 3a81 e9bd a861 e8bd d25f eabd daed e8bd
00000030: 36a4 e7bd 9584 ea3d 4a74 e23d ce5c e43d

encoder_variable_selection.single_variable_grns.T2M.fc1.weight f4 [8, 8]
-0.098345965 0.32487074 0.14717372 -0.036370274 0.0841492 -0.6113823 -0.10144834 0.33698118
0.9619816 -0.2729125 0.2861711 -0.4531821 -0.07506829 0.85238445 0.02867262 0.30319318
-0.48319754 0.39880565 0.050360035 0.8766545 -0.25496763 -0.7348831 -0.54316896 0.48811898
-0.5102871 1.3715428 -0.091267034 0.108511075 0.10017656 -0.2225212 0.56780976 0.3003152
-0.1036485 -0.72372687 0.3364888 -0.14205268 0.05773764 -0.50995374 -0.41719472 -0.5991621
-0.47595796 0.614964 0.06438306 0.24969812 0.2519338 0.23479286 -0.30864772 0.52479655
-0.3613966 0.8165603 -0.37039587 -0.43653366 -0.70879513 0.95780236 0.629997 0.48844153
0.3746876 0.5722943 0.095475644 -0.07187862 -0.8804648 -0.07523186 -1.052129 -0.3223082
00000000: 9c69 c9bd 7555 a63e b5b4 163e fff8 14bd
00000010: 6a56 ac3d 8d83 1cbf 26c4 cfbd cc88 ac3e
00000020: 6d44 763f 30bb 8bbe 0585 923e 7c07 e8be
00000030: 67bd 99bd de35 5a3f d8e2 ea3c 233c 9b3e
00000040: ab65 f7be 4130 cc3e 5346 4e3d 6e6c 603f
00000050: 1e8b 82be 4d21 3cbf 1f0d 0bbf bbea f93e
00000060: 2da2 02bf b78e af3f 36ea babd 0e3b de3d
00000070: 5e29 cd3d 99dc 63be fb5b 113f eac2 993e
00000080: aa45 d4bd 2a46 39bf 4348 ac3e 4276 11be
00000090: 4e7e 6c3d 548c 02bf 8c9a d5be b062 19bf
000000a0: c3b0 f3be 486e 1d3f 44db 833d ddb0 7f3e
000000b0: 78fd 803e 8a6d 703e 1307 9ebe 1159 063f
000000c0: fa08 b9be 190a 513f 87a4 bdbe 5781 dfbe
000000d0: 9973 35bf 8932 753f 7c47 213f 0215 fa3e
000000e0: 0ed7 bf3e e181 123f bc88 c33d 1935 93bd
000000f0: 2466 61bf 2913 9abd 2aac 86bf 9505 a5be

encoder_variable_selection.single_variable_grns.T2M.fc1.bias f4 [8]
0.11664395 -0.11389693 0.11193768 -0.11207367 -0.11164011 0.11213206 0.11380627 0.112983555
00000000: 06e3 ee3d cb42 e9bd 953f e53d e186 e5bd
00000010: 92a3 e4bd 7ea5 e53d 4313 e93d ec63 e73d

encoder_variable_selection.single_variable_grns.T2M.fc2.weight f4 [8, 8]
-0.38629335 0.57201827 0.049845804 0.65750486 0.09661301 -0.30248547 -0.24067204 -0.14309618
-0.2868575 -0.15144508 0.30529335 0.81682307 0.28265926 -0.43505305 0.51423746 0.42438135
-0.5168799 -0.5052093 0.012186738 -0.043759033 0.9180246 -1.0861722 0.012938016 -0.7915659
-0.48099196 0.16750222 -0.7755518 0.37035063 0.5391525 -0.10702117 -1.0081974 -0.692238
0.51312006 0.03226871 -0.21333279 0.30664948 1.0784043 -0.007466145 0.42268047 0.47722068
0.07550767 0.7859123 0.40226516 0.17901845 -0.43587318 0.28616014 -0.2132732 -0.016405407
-0.7617256 -0.3557891 -0.21341121 0.21075445 0.15366663 -0.25095037 -0.46881172 -0.62847674
0.89146996 0.046982374 0.00020076521 0.39858633 0.7947862 -0.9616802 -0.37291774 -0.5086778
00000000: 3ec8 c5be ca6f 123f 1d2b 4c3d 3d52 283f
00000010: 0bdd c53d 60df 9abe bb72 76be ce87 12be
00000020: fcde 92be 6b14 1bbe 694f 9c3e 511b 513f
00000030: b7b8 903e 46bf debe 11a5 033f 8348 d93e
00000040: 3e52 04bf 6655 01bf e2aa 473c ac3c 33bd
00000050: a903 6b3f b107 8bbf f9f9 533c 10a4 4abf
00000060: 9444 f6be b485 2b3e 908a 46bf 999e bd3e
00000070: e605 0a3f ea2d dbbd 9d0c 81bf 8236 31bf
00000080: d65b 033f 322c 043d e973 5abe 2901 9d3e
00000090: 2709 8a3f 90a6 f4bb 9369 d83e 4556 f43e
000000a0: c4a3 9a3d 8c31 493f b3f5 cd3e 9d50 373e
000000b0: c52a dfbe 9583 923e 4a64 5abe a264 86bc
000000c0: 7300 43bf fd29 b6be 7888 5abe 04d0 573e
000000d0: c95a 1d3e 917c 80be 1708 f0be dae3 20bf
000000e0: 6037 643f 9770 403d 8084 5239 8213 cc3e
000000f0: 1c77 4b3f ac30 76bf 13ef bebe b538 02bf

encoder_variable_selection.single_variable_grns.T2M.fc2.bias f4 [8]
-0.1131007 0.1128839 -0.068669066 -0.1135669 0.12907411 -0.1133737 -0.11327313 -0.113536246
00000000: 57a1 e7bd ad2f e73d 5ea2 8cbd c395 e8bd
00000010: 012c 043e 7830 e8bd befb e7bd b185 e8bd

encoder_variable_selection.single_variable_grns.T2M.gate_norm.glu.fc.weight f4 [32, 8]
-0.18691537 -0.18239485 0.17749712 -0.080434754 -0.093637444 -0.15355568 0.18289234 -0.40549424
-0.48022887 -0.03592381 0.41542545 0.14304873 0.21486922 -0.18278041 -0.08494475 -0.24958795
-0.15197136 0.13717586 0.003280946 -0.30348477 0.08380299 0.3231444 -0.07702081 -0.356786
-0.028954925 0.42316663 0.22841994 -0.015293682 -0.039249536 0.45354244 -0.13053513 -0.3434403
-0.18451437 0.4681521 0.22350796 -0.17224447 0.4229495 0.28679052 -0.20584905 -0.38892636
-0.07185738 -0.35551527 -0.062309906 -0.017032607 -0.21972933 0.09772905 0.2585385 -0.064318284
0.26902008 -0.035953823 0.017482957 0.15578519 0.11883444 0.13161385 -0.20270613 0.22569132
-0.2570405 -0.005755915 -0.039980233 0.22653922 0.22148764 0.37533122 -0.05562345 -0.46227038
-0.36804125 0.10149267 0.061385196 -0.36790913 -0.093409725 -0.062025778 0.069200575 0.26123974
-0.16907507 0.24980873 0.0092516355 -0.23309283 -0.33896542 0.271417 0.047693424 0.31208292
-0.14465296 0.030532002 0.25299782 -0.09758146 -0.4560329 0.06999194 0.21941924 0.2825452
-0.09965731 -0.3751855 -0.15011124 0.20795517 -0.16435608 -0.33334923 0.19162197 0.17339988
0.1728458 0.058219478 0.43070927 -0.15941721 0.10239273 0.0946336 0.4818635 -0.14445262
0.20996529 0.3191243 -0.39398238 0.13791472 0.41212314 -0.06563886 0.1804574 -0.00762011
-0.016011054 0.41712767 -0.4944588 -0.26882866 -0.27084732 0.26412553 -0.34745604 -0.17341319
0.36063322 0.3519186 -0.40672743 -0.23205623 0.19403066 -0.04108888 0.0014521494 -0.29405582
-0.30532107 0.04302214 0.000264043 -0.09149096 0.20212981 0.20650585 -0.1430118 -0.2660667
0.34735605 0.11207956 -0.104614615 -0.15874133 0.34559143 0.43283653 0.06549729 -0.08733787
-0.29854998 -0.26485944 0.3629831 0.06892133 0.078766316 -0.009785343 0.020658262 0.16699673
-0.19079503 -0.064626485 0.12580149 0.24901271 0.20120995 -0.030257609 0.26732305 0.33829385
-0.33495522 -0.46735233 0.16179419 -0.4654938 -0.4399001 0.21095975 0.20715457 -0.10980148
0.07639642 0.0622578 -0.09007313 -0.48725057 -0.41333586 0.016101088 0.06816651 0.23655462
0.23711804 -0.42549 0.110841066 0.05184075 0.08478164 0.13503422 0.4776699 0.14185265
0.15958004 0.03363628 0.18793966 0.29920712 0.16783625 0.18646178 -0.295547 0.100836955
0.2965886 -0.08677619 -0.346992 -0.12531418 0.21466127 0.3210307 0.056345407 -0.0174095
-0.27100003 -0.18154137 -0.13946664 -0.07080275 0.22213386 -0.049815156 0.30745628 0.05792367
0.31891176 -0.2676999 0.15728837 -0.4712049 0.037831806 0.2735064 -0.38108057 0.12978211
-0.45867616 0.16911831 0.010215944 -0.054615475 0.2647796 -0.08546187 -0.19014214 0.016286854
-0.03989027 0.12835388 0.13603929 -0.1496358 0.11152118 0.38469866 -0.41625372 -0.48624328
0.37615198 0.020072281 -0.25044405 0.0035062258 -0.12753989 -0.12459463 -0.43559742 -0.25577587
0.13931772 0.44051576 -0.38500848 -0.44950536 -0.25677514 0.026071683 -0.060519084 0.003767033
-0.07660041 0.17514054 -0.34877685 0.37234372 0.41185522 0.13453433 -0.017532056 -0.21391286
00000000: be66 3fbe b7c5 3abe cec1 353e faba a4bd
00000010: fdc4 bfbd b33d 1dbe 2148 3b3e f19c cfbe
00000020: 8fe0 f5be d824 13bd a5b2 d43e 5e7b 123e
00000030: ad06 5c3e ca2a 3bbe 83f7 adbd fc93 7fbe
00000040: 619e 1bbe d477 0c3e 2405 573b 5b62 9bbe
00000050: e7a0 ab3d 2f73 a53e 16bd 9dbd a8ac b6be
00000060: e132 edbc 4ca9 d83e ebe6 693e 5a92 7abc
00000070: 1fc4 20bd b736 e83e 00ab 05be 68d7 afbe
00000080: 56f1 3cbe a2b1 ef3e 45df 643e db60 30be
00000090: d68c d83e 35d6 923e 18ca 52be 5b21 c7be
000000a0: f629 93bd 1906 b6be ac38 7fbd f787 8bbc
000000b0: ba00 61be 2b26 c83d 295f 843e 4eb9 83bd
000000c0: 00bd 893e 5144 13bd 6b38 8f3c 2786 1f3e
000000d0: 795f f33d c8c5 063e 3292 4fbe a01b 673e
000000e0: d09a 83be 1d9c bcbb 50c2 23bd e6f9 673e
000000f0: a8cd 623e 6a2b c03e 6ad5 63bd b4ae ecbe
00000100: e76f bcbe 64db cf3d 0b6f 7b3d 965e bcbe
00000110: 994d bfbd be0e 7ebd 08b9 8d3d 37c1 853e
00000120: 0422 2dbe dccd 7f3e 2c94 173c e3af 6ebe
00000130: e08c adbe 2bf7 8a3e 2e5a 433d 55c9 9f3e
00000140: e81f 14be 401e fa3c ee88 813e cad8 c7bd
00000150: 257d e9be ef57 8f3d 70af 603e c4a9 903e
00000160: 2219 ccbd 5018 c0be c3b6 19be 33f2 543e
00000170: f64c 28be c0ac aabe 8d38 443e bd8f 313e
00000180: 7dfe 303e 8c77 6e3d ed85 dc3e 443e 23be
00000190: 48b3 d13d 43cf c13d d0b6 f63e 63eb 13be
000001a0: 2401 573e 4364 a33e 0fb8 c9be 8439 0d3e
000001b0: ce01 d33e ab6d 86bd d3c9 383e 1eb2 f9bb
000001c0: 9d29 83bc c291 d53e b429 fdbe e9a3 89be
000001d0: 80ac 8abe 763b 873e c2e5 b1be 3a93 31be
000001e0: eba4 b83e ad2e b43e 943e d0be 26a0 6dbe
000001f0: f9af 463e d04c 28bd 0c56 be3a 7c8e 96be
00000200: 0b53 9cbe fc37 303d 406f 8a39 9d5f bbbd
00000210: 1efb 4e3e 4576 533e af71 12be e539 88be
00000220: a7d8 b13e f889 e53d 3040 d6bd 168d 22be
00000230: 5cf1 b03e c09c dd3e 7123 863d 32de b2bd
00000240: 8bdb 98be a89b 87be ecd8 b93e a026 8d3d
00000250: 3c50 a13d b452 20bc 843b a93c 3101 2b3e
00000260: c65f 43be e45a 84bd 1bd2 003e 30fd 7e3e
00000270: fb09 4e3e cede f7bc 91de 883e da34 ad3e
00000280: 407f abbe ce48 efbe 60ad 253e 3455 eebe
00000290: 963a e1be d505 583e 5420 543e 99df e0bd
000002a0: ba75 9c3d 0902 7f3d 4378 b8bd e878 f9be
000002b0: c2a0 d3be 6ee6 833c e29a 8b3d 603b 723e
000002c0: 12cf 723e d3d9 d9be a400 e33d f756 543d
000002d0: ffa1 ad3d 6946 0a3e 2691 f43e d241 113e
000002e0: f368 233e 32c6 093d 4173 403e ad31 993e
000002f0: 44dd 2b3e d6ef 3e3e f051 97be 9b83 ce3d
00000300: 76da 973e b7b7 b1bd efa8 b1be 5c52 00be
00000310: 2ad0 5b3e 235e a43e 71ca 663d 5e9e 8ebc
00000320: 84c0 8abe fbe5 39be 58d0 0ebe 0801 91bd
00000330: 0f77 633e fa0a 4cbd e96a 9d3e 5f41 6d3d
00000340: 6748 a33e f60f 89be 3410 213e c541 f1be
00000350: 86f5 1a3d 0809 8c3e fe1c c3be 9ae5 043e
00000360: 9ad7 eabe 5a2d 2d3e c660 273c 7ab4 5fbd
00000370: 3191 873e a206 afbd 9fb4 42be 026c 853c
00000380: fb63 23bd 336f 033e e24d 0b3e 213a 19be
00000390: 3765 e43d 39f7 c43e 351f d5be e1f4 f8be
000003a0: fe96 c03e a06e a43c 343a 80be b5c8 653b
000003b0: d199 02be 782b ffbd a006 dfbe 0ef5 82be
000003c0: 4ea9 0e3e 488b e13e d51f c5be 9125 e6be
000003d0: 0878 83be 4894 d53c dce2 77bd 54e0 763b
000003e0: ade0 9cbd 0b58 333e e192 b2be d6a3 be3e
000003f0: b0de d23e 5ec3 093e 639f 8fbc f90b 5bbe

encoder_variable_selection.single_variable_grns.T2M.gate_norm.glu.fc.bias f4 [32]
0.10843914 -0.115079954 0.11472003 0.11383222 0.11468892 -0.11627673 -0.11345022 0.112879075
-0.11379663 -0.11345826 -0.11452726 -0.11386902 -0.11285334 0.11456595 0.10907393 0.11153179
-0.11211112 0.11409871 -0.11168356 -0.11355595 -0.11233526 -0.11325962 -0.11357643 0.11099505
0.11077644 -0.11366323 0.11454072 -0.104595 0.112642325 0.114310734 0.11059793 0.11191551
00000000: 5715 de3d 0aaf ebbd 56f2 ea3d de20 e93d
00000010: 06e2 ea3d 7f22 eebd 9758 e8bd 252d e73d
00000020: 350e e9bd ce5c e8bd 458d eabd 2934 e9bd
00000030: a71f e7bd 8ea1 ea3d 2762 df3d c76a e43d
00000040: 849a e5bd 96ac e93d 5aba e4bd 0690 e8bd
00000050: 0710 e6bd a9f4 e7bd c29a e8bd 5f51 e33d
00000060: c2de e23d 44c8 e8bd 5394 ea3d e735 d6bd
00000070: 05b1 e63d bf1b ea3d 2b81 e23d f533 e53d

encoder_variable_selection.single_variable_grns.T2M.gate_norm.add_norm.norm.weight f4 [16]
1.1131127 1.1116774 1.1173434 1.1141802 1.1142249 0.8882796 0.8862905 0.8865463
1.1134206 1.1046138 1.1232661 0.8869555 1.1124101 0.88565487 1.0840191 1.111009
00000000: 7a7a 8e3f 724b 8e3f 1c05 8f3f 759d 8e3f
00000010: ec9e 8e3f 4b66 633f efe3 623f b3f4 623f
00000020: 9184 8e3f fc63 8d3f 2fc7 8f3f 840f 633f
00000030: 7463 8e3f 47ba 623f 23c1 8a3f 8b35 8e3f

encoder_variable_selection.single_variable_grns.T2M.gate_norm.add_norm.norm.bias f4 [16]
-0.11513185 -0.114583015 0.1147557 0.11386717 0.1144067 -0.11710628 -0.113229476 0.11241541
-0.113653176 -0.11309677 -0.11445817 -0.11432827 -0.11311188 0.11465581 0.10893508 0.11174221
00000000: 3fca ebbd 80aa eabd 0905 eb3d 3133 e93d
00000010: 0f4e ea3d 6bd5 efbd dbe4 e7bd 0d3a e63d
00000020: ffc2 e8bd 489f e7bd 0c69 eabd f124 eabd
00000030: 34a7 e7bd aad0 ea3d 5b19 df3d 1ad9 e43d

encoder_variable_selection.single_variable_grns.T2M_MAX.resample_norm.mask f4 [16]
-0.15494987 -0.10469168 -0.113173805 -0.113524705 -0.114442416 0.11521371 0.11216991 -0.11292643
0.11384259 0.10540875 0.11590787 0.113597214 0.11306755 -0.11281666 -0.11047129 -0.11063894
00000000: 2eab 1ebe 9768 d6bd abc7 e7bd a47f e8bd
00000010: c960 eabd 2af5 eb3d 56b9 e53d f945 e7bd
00000020: 4e26 e93d 8be0 d73d 1b61 ed3d a8a5 e83d
00000030: f68f e73d 6c0c e7bd c63e e2bd ab96 e2bd

encoder_variable_selection.single_variable_grns.T2M_MAX.resample_norm.norm.weight f4 [16]
1.1107773 0.88511944 0.8902732 0.8865133 0.88449323 1.1168158 1.1096689 0.8836158
1.1150781 0.8844344 1.1159735 1.1134832 1.1131128 0.907479 1.1035023 1.117028
00000000: f32d 8e3f 3097 623f f2e8 633f 89f2 623f
00000010: 266e 623f d2f3 8e3f a109 8e3f a534 623f
00000020: e1ba 8e3f 4b6a 623f 38d8 8e3f 9e86 8e3f
00000030: 7b7a 8e3f 8b50 683f 903f 8d3f c6fa 8e3f

encoder_variable_selection.single_variable_grns.T2M_MAX.resample_norm.norm.bias f4 [16]
0.11481712 -0.1111032 0.11503478 0.11396215 0.11477237 -0.11264482 -0.11520102 0.11135777
-0.1128537 -0.11411051 -0.115235336 -0.11418996 -0.112994924 0.11477995 0.10602317 0.11179768
00000000: 3d25 eb3d 138a e3bd 5b97 eb3d fd64 e93d
00000010: c70d eb3d 54b2 e6bd 83ee ebbd 8b0f e43d
00000020: d71f e7bd c5b2 e9bd 8100 ecbd 6ddc e9bd
00000030: e269 e7bd c011 eb3d ad22 d93d 2ff6 e43d

encoder_variable_selection.single_variable_grns.T2M_MAX.fc1.weight f4 [8, 8]
-0.36324233 0.5748947 0.3620014 0.4613671 -0.106053114 -0.36335766 0.98753136 0.02380804
0.0009030425 -0.32213473 -0.35711107 -0.34153467 0.8534231 -0.0087841535 -0.5814121 1.1847947
-0.13667163 0.7403092 0.274542 -0.25759035 -0.06534431 0.11805542 0.5752411 0.491455
0.0038286438 0.1927514 -0.22334817 0.349558 0.59399015 0.3095049 0.00916685 0.3377568
0.11461419 -0.20866807 -0.15577467 0.24726579 0.29577968 -0.5635035 -0.2717491 -0.8636685
0.14461614 0.04763375 -1.1938381 0.18714927 1.0864203 -0.36056268 0.5770973 0.6031183
0.4604742 0.2753579 0.11598332 0.28463927 -0.5241156 -0.598243 -0.006778748 0.2893684
-0.3684109 -0.21011668 -0.86328983 -0.11788638 -0.1205208 -0.61962605 -0.8257264 0.2607637
00000000: e6fa b9be 4d2c 133f 3f58 b93e 4f38 ec3e
00000010: 6032 d9bd 040a babe dbce 7c3f 1409 c33c
00000020: 28ba 6c3a d8ee a4be 43d7 b6be a2dd aebe
00000030: f079 5a3f 69eb 0fbc 6cd7 14bf 5aa7 973f
00000040: a6f3 0bbe e784 3d3f c590 8c3e e2e2 83be
00000050: 3dd3 85bd 0ac7 f13d 0043 133f fd9f fb3e
00000060: fce9 7a3b 9f60 453e 62b5 64be 44f9 b23e
00000070: bd0f 183f 6d77 9e3e 8e30 163c 76ee ac3e
00000080: d8ba ea3d 15ad 55be 6583 1fbe 3e33 7d3e
00000090: 6f70 973e c441 10bf b322 8bbe 6119 5dbf
000000a0: 4116 143e 9b1b 433d b0cf 98bf 0fa4 3f3e
000000b0: d20f 8b3f ac9b b8be a6bc 133f f665 1a3f
000000c0: 46c3 eb3e b6fb 8c3e aa88 ed3d 3dbc 913e
000000d0: 712c 06bf 7426 19bf 4220 debb 1828 943e
000000e0: 5aa0 bcbe d428 57be 9000 5dbf 6a6e f1bd
000000f0: 9cd3 f6bd d09f 1ebf ce62 53bf d282 853e

encoder_variable_selection.single_variable_grns.T2M_MAX.fc1.bias f4 [8]
-0.11570998 -0.11503756 -0.113315485 0.11321785 0.113751434 -0.11373967 0.11517359 -0.112972245
00000000: 5bf9 ecbd d098 ebbd f311 e8bd c3de e73d
00000010: 83f6 e83d 58f0 e8bd 22e0 eb3d fe5d e7bd

encoder_variable_selection.single_variable_grns.T2M_MAX.fc2.weight f4 [8, 8]
-1.2971561 0.43625078 0.13431287 -0.31320304 0.39488503 -0.0023330399 0.48800486 -0.7515532
0.046329398 0.6542537 0.42457616 -0.019962478 0.065707415 -0.28985026 -0.10246205 -0.7672032
0.36733124 0.18885124 0.4533502 -0.024861798 -0.3033332 -0.40886432 -1.1881992 0.04044144
0.18252678 -0.28026223 -0.24469605 0.2610273 -0.7314959 -0.12141143 1.2386105 1.5417324
0.058637626 0.07507964 -0.049253996 -0.10463682 -0.18733415 0.28968623 -0.16974124 0.36914232
0.17325938 0.4506335 -0.42603728 0.53546864 -0.18335432 0.27905434 -0.38445553 0.3899373
0.008611784 -0.06425098 1.1036128 -0.7501411 -0.42429796 0.7679472 -0.5876897 0.060798634
0.18905123 -0.2895315 0.48377636 -0.033169944 0.38332158 -0.15012379 0.04223812 -0.568324
00000000: 3609 a6bf 435c df3e 5089 093e 265c a0be
00000010: 5f2e ca3e eae5 18bb c6db f93e ca65 40bf
00000020: e5c3 3d3d 2c7d 273f 0c62 d93e 5a88 a3bc
00000030: 9c91 863d 4167 94be a0d7 d1bd 6e67 44bf
00000040: d712 bc3e 3862 413e 841d e83e f8aa cbbc
00000050: 7d4e 9bbe aa56 d1be e916 98bf eca5 253d
00000060: 4de8 3a3e 887e 8fbe 9a91 7abe 5fa5 853e
00000070: 5143 3bbf 8ea6 f8bd ca8a 9e3f 7d57 c53f
00000080: 022e 703d 5bc3 993d 8fbe 49bd d44b d6bd
00000090: 86d4 3fbe c151 943e a6d0 2dbe 3900 bd3e
000000a0: e86a 313e 6fb9 e63e 8f21 dabe 7914 093f
000000b0: 3cc1 3bbe 36e0 8e3e 5bd7 c4be dda5 c73e
000000c0: 7118 0d3c 0596 83bd 2f43 8d3f 3f09 40bf
000000d0: 953d d9be 3098 443f d572 16bf fd07 793d
000000e0: a596 413e 793d 94be 89b1 f73e 35dd 07bd
000000f0: ba42 c43e 0dba 19be e101 2d3d af7d 11bf

encoder_variable_selection.single_variable_grns.T2M_MAX.fc2.bias f4 [8]
0.11435181 -0.11545742 -0.11482905 -0.0931284 -0.11408207 -0.114265114 -0.113776475 0.122907
00000000: 4831 ea3d f174 ecbd 7e2b ebbd 1aba bebd
00000010: dca3 e9bd d403 eabd a403 e9bd aab6 fb3d
