ai_predict/ai/lightning_logs/version_30/checkpoints/epoch=9-step=80.ckpt (torch, 662004 bytes, 889 tensors)

prescalers.time_idx.weight f4 [8, 1]
000000 92 6d 4a 3e 48 96 a9 3e 21 47 44 bf 8a 04 df 3e
       0.1976836 0.33122468 -0.76671034 0.4355815
000010 6d 84 a9 bd c4 15 84 be 9a 4f 3a 3f 6b b8 0d bf
       -0.08277211 -0.25797856 0.7277771 -0.55359524

prescalers.time_idx.bias f4 [8]
000000 04 66 80 be 95 2f 3d bf f0 d4 95 be 43 b8 39 3f
       -0.25077832 -0.7390073 -0.2926402 0.72546786
000010 e2 e1 9d 3e 8f a0 2f 3f ee 78 d6 be b6 c7 69 bd
       0.30836397 0.6860437 -0.41889137 -0.057075225

prescalers.T2M.weight f4 [8, 1]
000000 8f b6 51 bf a7 55 c8 be f2 6e 0f bf aa d8 01 3e
       -0.8191919 -0.39127848 -0.56028664 0.12680307
000010 e2 7e 4b bf c7 9c 2a bf 9e b7 43 be ca b0 5b bf
       -0.7949048 -0.66645473 -0.19113013 -0.85816634

prescalers.T2M.bias f4 [8]
000000 f9 7b 9c 3e 51 3a 92 be 89 6c 1e bf 17 17 4d be
       0.30563334 -0.28560117 -0.6188436 -0.2002834
000010 9b fe 8b 3e 98 4f 2e bf 03 c0 d3 3e 97 70 ad be
       0.27342686 -0.680902 0.4135743 -0.33874962

prescalers.T2M_MAX.weight f4 [8, 1]
000000 eb ab c2 be f4 47 5a bd c9 36 2e bf 02 7a 9e be
       -0.38021788 -0.053291276 -0.68052346 -0.3095246
000010 14 f8 54 bf a5 05 c6 be 95 a1 e9 be 9c 51 8d be
       -0.8319104 -0.3867618 -0.4563109 -0.27601326

prescalers.T2M_MAX.bias f4 [8]
000000 fb ce 6a 3e 7d 59 63 be 12 8d 2f bd 10 28 4e bf
       0.2293052 -0.22202106 -0.042859145 -0.8052988
000010 ac 76 44 3f 2c 8e ea be 0e d2 23 3f 4f 2e 18 3f
       0.7674358 -0.45811594 0.63992393 0.5944566

prescalers.T2M_MIN.weight f4 [8, 1]
000000 e4 60 88 bc a3 7e f9 3e 72 28 4a bd c2 09 b7 bc
       -0.016647764 0.4872943 -0.049354978 -0.02234352
000010 2e 4a d0 3e 75 e4 01 3f 1d b3 1b 3e 81 99 51 3f
       0.40681595 0.5073922 0.15205045 0.81874853

prescalers.T2M_MIN.bias f4 [8]
000000 8c 85 03 bf 59 54 7c bd a5 aa 54 3e 36 18 30 bf
       -0.5137565 -0.061603878 0.2076822 -0.6878694
000010 2d 9f ad 3e bc c4 83 bf a8 b7 b3 be 3f 31 5c 3f
       0.33910504 -1.0294414 -0.35101056 0.86012644

prescalers.PRECTOTCORR.weight f4 [8, 1]
000000 ef 48 bb be 79 16 1e bf d0 33 c0 3e a0 a1 aa 3e
       -0.3657908 -0.6175304 0.3753953 0.33326435
000010 ba cc ad 3e 76 85 8f bf 95 c4 1e bf ac d0 80 3f
       0.33945256 -1.1212604 -0.6201871 1.0063682

prescalers.PRECTOTCORR.bias f4 [8]
000000 10 48 ea be ff 36 84 bf 5e 9f 13 3f 57 90 55 3e
       -0.45758104 -1.0329283 0.5766505 0.20855843
000010 7e 6d 92 be 6b ca 59 3d 09 87 f4 be 8e 72 f5 3e
       -0.2859916 0.053171556 -0.47759274 0.4793896

prescalers.RH2M.weight f4 [8, 1]
000000 0c bb 9d 3e f0 e8 21 3f fb d2 3a 3d f0 9d 2b bf
       0.30806768 0.6324606 0.045611363 -0.6703787
000010 8d 3d c6 3e ec 2c 1e bf dc 44 45 bd 9e b8 fb bd
       0.38718835 -0.61787295 -0.048161373 -0.12291072

prescalers.RH2M.bias f4 [8]
000000 fa cd 8d 3f fe 97 8c be 65 27 eb bd ac 93 68 3f
       1.1078484 -0.2745971 -0.11482123 0.9085033
000010 64 8f 98 be bf a7 47 bd d8 a3 4f 3f 5a 55 07 3f
       -0.29796898 -0.04874396 0.8110938 0.5286461

prescalers.ALLSKY_SFC_SW_DWN.weight f4 [8, 1]
000000 51 22 95 3f 4f a1 45 3f 32 63 67 bf 20 87 44 3f
       1.1651098 0.7719926 -0.90385735 0.76768684
000010 14 35 0b 3f 6f 2f 23 3f eb a8 94 bf f2 9f e6 be
       0.54377866 0.6374425 -1.161405 -0.45043904

prescalers.ALLSKY_SFC_SW_DWN.bias f4 [8]
000000 22 a7 0a bf 5b 8f a1 3e 2a f5 2b 3e a4 28 76 3f
       -0.54161274 0.31554684 0.16792741 0.9615576
000010 cf 8c 42 3f 56 83 bb be 8d 34 70 3e 1b b7 0c 3e
       0.75996107 -0.3662364 0.23457547 0.13741724

prescalers.numero_casos.weight f4 [8, 1]
000000 fc 59 0c 3f ec 52 1a bf 5b d8 56 bf 8a d4 4d be
       0.54824805 -0.6028278 -0.8392388 -0.20100608
000010 e9 7b 1b bf 5f d8 98 be 8f f3 57 bf 4d 45 1b bf
       -0.60735947 -0.29852578 -0.84356016 -0.6065262

prescalers.numero_casos.bias f4 [8]
000000 fc b0 79 bf 71 fe 66 bf 2e ae 19 be c1 fb b3 3e
       -0.9753568 -0.90231997 -0.1500785 0.3515301
000010 3e 32 3b bf ca 1d 4f 3f 56 5a 6f bf 00 4d b8 bc
       -0.7312354 0.8090483 -0.93497217 -0.022497654

static_variable_selection.single_variable_grns.municipio.mask f4 [16]
000000 9d f2 34 3e 9d f2 34 be 9d f2 34 be 9d f2 34 be
       0.17670675 -0.17670675 -0.17670675 -0.17670675
000010 9d f2 34 3e 9e f2 34 3e 9d f2 34 3e 9c f2 34 3e
       0.17670675 0.17670676 0.17670675 0.17670673
000020 9d f2 34 3e 9d f2 34 be 9d f2 34 3e 9e f2 34 be
       0.17670675 -0.17670675 0.17670675 -0.17670676
000030 9d f2 34 be 9d f2 34 be 9d f2 34 3e 9d f2 34 3e
       -0.17670675 -0.17670675 0.17670675 0.17670675

static_variable_selection.single_variable_grns.municipio.norm.weight f4 [16]
000000 00 00 80 3f 00 00 80 3f 00 00 80 3f 00 00 80 3f
       1.0 1.0 1.0 1.0
000010 00 00 80 3f 00 00 80 3f 00 00 80 3f 00 00 80 3f
       1.0 1.0 1.0 1.0
000020 00 00 80 3f 00 00 80 3f 00 00 80 3f 00 00 80 3f
       1.0 1.0 1.0 1.0
000030 00 00 80 3f 00 00 80 3f 00 00 80 3f 00 00 80 3f
       1.0 1.0 1.0 1.0

static_variable_selection.single_variable_grns.municipio.norm.bias f4 [16]
000000 9d f2 34 be 9c f2 34 3e 9d f2 34 3e 9c f2 34 3e
       -0.17670675 0.17670673 0.17670675 0.17670673
000010 9d f2 34 be 9c f2 34 be 9d f2 34 be 94 f2 34 be
       -0.17670675 -0.17670673 -0.17670675 -0.17670661
000020 96 f2 34 3e 9d f2 34 3e 9c f2 34 be 9d f2 34 3e
       0.17670664 0.17670675 -0.17670673 0.17670675
000030 9d f2 34 3e 9c f2 34 3e 9c f2 34 be 9d f2 34 be
       0.17670675 0.17670673 -0.17670673 -0.17670675

encoder_variable_selection.flattened_grn.resample_norm.mask f4 [8]
000000 37 ae 34 3e ad e2 34 3e 3c ea 34 3e 51 e8 34 be
       0.17644583 0.17664595 0.17667478 -0.17666747
000010 0e d8 34 be 46 e9 34 3e 99 ea 34 be ff db 34 be
       -0.17660543 0.17667112 -0.17667617 -0.17662047

encoder_variable_selection.flattened_grn.resample_norm.norm.weight f4 [8]
000000 9c 98 96 3f f5 9c 96 3f f6 9d 96 3f 1c c5 52 3f
       1.1765323 1.176665 1.1766956 0.82332015
000010 ed 33 53 3f f8 9d 96 3f d4 c3 52 3f a6 c4 52 3f
       0.8250111 1.1766958 0.8233006 0.8233131

encoder_variable_selection.flattened_grn.resample_norm.norm.bias f4 [8]
000000 a8 c2 34 be 55 e3 34 be 43 f0 34 3e 2b ed 34 3e
       -0.1765238 -0.17664845 0.17669778 0.17668597
000010 7f ed 34 3e 1c ef 34 3e 2d f1 34 be 69 ef 34 be
       0.17668723 0.17669338 -0.17670126 -0.17669453

encoder_variable_selection.flattened_grn.fc1.weight f4 [8, 64]
000000 7d 3c 85 be 24 db 70 3e 41 4f 23 be 57 22 55 be
       -0.2602271 0.23521096 -0.15948202 -0.20813881
000010 ae 7f 4f 3d 61 26 09 bf 03 2c 85 be 81 49 9c 3d
       0.050658874 -0.53574187 -0.2601014 0.07631207
000020 d9 a5 f9 bd d2 10 68 3e 9a d4 a7 bd 9b a8 55 be
       -0.12189836 0.22662666 -0.081948474 -0.20865099
000030 8a fe aa be 5a 6d 20 3e 6d cf 40 bc 92 81 85 3e
       -0.33397323 0.15666714 -0.011768204 0.26075417
000040 8f fa 97 3d 93 6f bd 3e d5 69 6a 3d a9 3b 5b 3e
       0.07420837 0.36999187 0.057229836 0.21409477
000050 f3 bc de be 99 73 75 3e 99 30 ae bd b8 15 58 3d
       -0.43503532 0.23969878 -0.08505363 0.052755088
000060 cb 85 37 3e e3 97 4e 3e a8 5b 84 be 6a a0 c6 3e
       0.17922132 0.20175128 -0.25851178 0.3879426
000070 1d 05 87 be 8a bc 67 3d 34 2e eb 3e bf 0b 20 be
       -0.2637109 0.05657629 0.45933688 -0.15629481
000080 bc 29 03 3e 90 52 0a 3f d8 45 9d be 48 2e 0e bd
       0.12808889 0.5403223 -0.3071735 -0.034712106
000090 20 99 3e 3d b5 be 99 be 54 60 dd 3d 4e f9 df bd
       0.04653275 -0.3002831 0.10809389 -0.10936223
0000a0 b9 a5 d0 be 47 f1 c6 3d bf c5 0d be 62 93 a9 be
       -0.40751436 0.09713989 -0.13844965 -0.33120257
0000b0 af d9 d2 3d eb ac 46 bc 31 6b a3 be 98 06 a8 be
       0.10295426 -0.012126188 -0.31917718 -0.3281753
0000c0 df 05 ca 3e 05 af 08 be 19 e8 4f be 1d 22 9b be
       0.39457604 -0.13348015 -0.20303382 -0.30299464
0000d0 59 b4 2d bd 06 7b d2 3e 64 4d 3a be f0 e2 83 bd
       -0.04240832 0.41109484 -0.18193585 -0.06439769
0000e0 53 9f 1d 3d 49 e8 0f 3e b8 3b 63 bd cf 3f 9a be
       0.03848202 0.14053454 -0.055476874 -0.30126807
0000f0 ea 1b a2 3c 92 02 9d bd 59 a4 a6 3d bd 13 4a 3e
       0.019788701 -0.07666506 0.081368156 0.19734092
000100 c4 cb a0 3e 73 57 f0 be bd d4 11 3e 57 56 28 bd
       0.3140546 -0.46941718 0.1424131 -0.041097965
000110 34 34 b5 be 01 a0 8d bd b7 ce a7 be 7e 7d e1 3d
       -0.3539139 -0.06915284 -0.32774898 0.11010264
000120 ce bf 01 be 96 2d 13 3f 4b c0 5f 3d 72 ee 07 3f
       -0.12670824 0.57491434 0.054626744 0.53098214
000130 f2 88 98 be fe b3 49 be 2e cc 8a be c0 78 0b 3f
       -0.2979198 -0.19697568 -0.27108902 0.54481125
000140 91 4d a5 be b2 ba d0 3c d2 d7 86 be 76 be f9 3e
       -0.3228574 0.025479648 -0.26336533 0.48778123
000150 12 96 8a be 4b 62 a1 3e 26 6a ac bd eb 85 de bd
       -0.2706762 0.31520304 -0.08418684 -0.108653866
000160 34 39 9c 3e 97 a7 e0 bd ed fb 81 be 89 09 7d bd
       0.30512393 -0.10969465 -0.25387517 -0.06177667
000170 92 bd 7a 3d ad bb 6a 3e 76 bb 7e 3e 16 e7 11 be
       0.061215945 0.22923155 0.24876198 -0.14248309
000180 04 35 59 be fd 92 d2 be 71 3a 9c bd b7 a1 a4 be
       -0.2121163 -0.41127768 -0.07628334 -0.3215463
000190 99 71 47 3e 72 b4 e9 3d 02 bb 00 3f d0 b5 51 be
       0.19476928 0.1141137 0.5028535 -0.20479512
0001a0 69 34 d6 be aa 62 0d bc 31 6f 77 be f6 f6 95 be
       -0.4183686 -0.00862948 -0.2416351 -0.2928998
0001b0 76 0c 95 3e 71 04 69 3e 38 11 f4 bd bd 4c 13 be
       0.2911107 0.227556 -0.11917347 -0.14384742
0001c0 79 a0 0f 3e 98 3c 5b be 7d 29 86 be c0 5e 3b be
       0.14026059 -0.21409833 -0.26203528 -0.18297863
0001d0 b8 cf a4 be 4a 4a eb 3d 33 9d 2c bb 42 75 89 be
       -0.32189727 0.11488779 -0.0026338815 -0.26847273
0001e0 4c d2 cf 3e d9 f0 9d 3e e5 33 71 bd c7 bd 9a bd
       0.4059013 0.30847815 -0.05888738 -0.075557284
0001f0 f5 f3 be bb 4c 7c b8 be ae 63 e7 bd 32 e6 f4 be
       -0.005827422 -0.3603233 -0.11298309 -0.47831875
000200 36 ae 93 bd 74 ed 13 3e 32 5f 50 3e 84 86 c2 3d
       -0.072109625 0.1444605 0.20348814 0.09498313
000210 65 d8 2c be 66 a2 93 be 75 11 52 be c4 e8 6c 3e
       -0.16879423 -0.28834838 -0.20514472 0.23135668
000220 42 81 8e be 7f 73 9d 3e a8 ed ab 3e bd 31 ac be
       -0.2783299 0.3075218 0.33579755 -0.33631697
000230 80 b4 0d be 4e 0f 01 3f cd da 83 be ae 80 01 3d
       -0.13838387 0.5041398 -0.2575287 0.03161686
000240 b1 66 89 bd ec f5 3a 3e 54 c9 02 bd 7b 2c 84 3e
       -0.0670904 0.18257874 -0.031930283 0.25815186
000250 de b2 82 be ca a0 41 3e ed 6b ab be cb 17 2e bf
       -0.2552709 0.18908992 -0.33480778 -0.68005055
000260 ef e3 8c 3e 3f ed c6 3d e6 c5 5a be 5f 7a 9d 3e
       0.2751765 0.0971322 -0.21364555 0.30757424
000270 2e a4 fa bd f8 a5 b4 3d 9d ca 91 3e a0 de 87 3d
       -0.12238346 0.088207185 0.28474894 0.06634259
000280 be 45 d8 3e a4 18 6a 3e 9b c1 7f be b4 63 3c 3e
       0.4224071 0.22860962 -0.24976198 0.18397409
000290 4e 23 ad be 0f b8 18 3d 7d 83 c4 be 7c 7f 1a be
       -0.33815998 0.037284907 -0.38381568 -0.15087694
0002a0 1d ad 2f bd 21 15 b2 bc 89 f4 50 3e dd 03 80 be
       -0.042889703 -0.02173859 0.20405783 -0.25002947
0002b0 7d 8e dd 3e 38 b3 83 be 03 8c 97 3d 40 31 d0 bd
       0.43272772 -0.2572267 0.07399752 -0.10165644
0002c0 4c be b0 3d c7 56 1d bf a5 e3 19 3e 86 17 90 be
       0.08630046 -0.61460537 0.15028246 -0.28142947
0002d0 c4 f9 c4 be 96 67 9b 3e 44 0d 63 be 6d 54 10 be
       -0.38471806 0.30352467 -0.22173029 -0.14094706
0002e0 30 57 64 3e 16 76 6b 3e 55 73 05 3f 86 29 83 be
       0.22298884 0.22994265 0.5212911 -0.25617617
0002f0 83 da 99 be ff c4 3b 3d d8 99 13 3f c0 cf da be
       -0.30049524 0.045842167 0.5765662 -0.42736626
000300 0a 2d 48 bd 7d f8 34 be 56 7e a3 3e 8b 6c ad 3d
       -0.048871078 -0.17672916 0.31932324 0.084679686
000310 84 75 5a 3e 47 25 5d 3e e0 84 fc be 18 a3 c0 3c
       0.21333891 0.21596251 -0.49320126 0.02351527
000320 6f 5f ab bd a1 53 db 3c 23 2d 88 3d d7 6c 97 be
       -0.08367812 0.026773276 0.06649234 -0.29575226
000330 ae 7e 70 3d 5d b5 f3 3e 51 50 94 3e 67 17 c3 3e
       0.05871456 0.47599307 0.28967527 0.38103792
000340 3a ce be 3e dc 6b 8c be 51 90 5d bd 2f 54 4c 3e
       0.37266713 -0.2742604 -0.05409271 0.19953988
000350 60 ac 8d 3e c3 88 bb 3d 7d c8 09 3e dc fb 96 3e
       0.27670574 0.091569446 0.13455386 0.29489028
000360 c4 ae 00 3e c5 10 85 3e 77 61 d1 3e 89 39 64 be
       0.12566668 0.25989357 0.40894672 -0.22287573
000370 62 ea 27 3e f5 c3 8d 3d ec 37 88 3d 9b 56 eb 3c
       0.16398004 0.069221415 0.06651291 0.02872782
000380 1f 2b e3 3c 22 33 67 be 5f 5b dd 3e b8 26 96 3e
       0.027730523 -0.225781 0.43233773 0.29326415
000390 b0 ff ce 3e 08 d3 b3 bd ea c3 9b be 1b 5d 25 3e
       0.4042945 -0.087804854 -0.30422908 0.16148798
0003a0 16 26 ae 3e 50 71 d3 3d 9f 46 05 bf 59 58 e6 be
       0.34013432 0.10324347 -0.52060884 -0.4498928
0003b0 ad 0a 44 3e 66 0e 88 be d4 10 67 be 1e 56 58 3d
       0.19144697 -0.26573485 -0.22565013 0.052816503
0003c0 28 f2 b2 bd 66 74 76 3e 5d 71 1e 3e 4c e7 46 3e
       -0.08737594 0.2406784 0.15472932 0.1942417
0003d0 5d 85 f7 3e 39 f5 68 bd 7b e9 c1 bd fb b5 fa bd
       0.48343936 -0.056874488 -0.09468361 -0.12241741
0003e0 a0 34 d4 ba 89 bd ca 3d fc a1 eb be d6 16 db be
       -0.001619 0.09899432 -0.46022022 -0.4279086
0003f0 44 97 1c be 2d 55 46 bf 8a 29 3f be d2 f8 8f be
       -0.15292078 -0.7747372 -0.1866819 -0.28119522

encoder_variable_selection.flattened_grn.fc1.bias f4 [8]
000000 65 e8 34 be 1b f0 34 be 7f ec 34 be f8 a8 34 3e
       -0.17666776 -0.17669718 -0.17668341 0.17642581
000010 87 e8 34 3e b2 e7 34 be 63 eb 34 be 77 d9 34 3e
       0.17666827 -0.1766651 -0.17667918 0.17661081

encoder_variable_selection.flattened_grn.context.weight f4 [8, 16]
000000 88 03 02 be 30 83 0c bd ea 65 a1 be 06 31 f0 3e
       -0.1269666 -0.034304798 -0.31523067 0.46912402
000010 6c 70 a9 be ee dc b0 3e 14 dd 41 be 5a 96 e7 be
       -0.33093584 0.34543556 -0.18931991 -0.45231897
000020 80 90 9b bc 44 fb 0b be 9c 01 d2 3e f0 bb ff 3d
       -0.018989801 -0.13670069 0.41016853 0.12487018
000030 2c ea 49 be d2 04 89 be 30 8e a7 3e 28 0f c5 3d
       -0.19718236 -0.2676149 0.32725668 0.096220315
000040 28 af 62 3e ba 46 f4 be 82 84 90 3e 34 18 f9 3e
       0.2213713 -0.4771021 0.28226095 0.48651278
000050 04 66 4c 3e e6 b4 e2 3e 20 7c 20 3e 34 ac da 3e
       0.19960791 0.4427864 0.1567235 0.42709506
000060 30 d8 58 3e f8 6c 54 be e8 73 62 3e fa 4b fd be
       0.21176219 -0.20744693 0.22114527 -0.49472028
000070 d8 a6 02 3e 60 81 30 bd c0 83 5d bc 56 ea d0 3e
       0.12758958 -0.04309213 -0.013520181 0.40803784
000080 08 70 e9 be 28 13 b8 bd de bc b6 3e 78 f3 ee 3d
       -0.45593286 -0.08988029 0.3569097 0.11667532
000090 34 89 b8 3e 6a 50 d8 3e 18 f5 0e 3e 48 57 45 be
       0.36042178 0.4224885 0.13960683 -0.19271576
0000a0 48 50 f1 be 92 ce a9 be 08 4d e8 be 14 d5 83 3e
       -0.47131562 -0.33165413 -0.4537127 0.25748503
0000b0 f0 b2 cc bd c6 2e c3 be 88 ca 3c be c4 a9 7e 3e
       -0.09995067 -0.38121623 -0.18436635 0.24869448
0000c0 c6 ff cd be 20 1b f0 bd dc 6c f7 be b4 ca 7f 3e
       -0.40234202 -0.11723924 -0.4832524 0.24979669
0000d0 30 5b c9 bd ac 23 5f 3e c0 52 40 bc 5c 75 47 3e
       -0.09831846 0.21790951 -0.011738479 0.19478363
0000e0 6c e3 08 3e e8 e7 ae be b0 8a d2 be 8c cf af be
       0.13368005 -0.34161305 -0.41121435 -0.34338033
0000f0 80 b3 96 3e 18 3e 80 bd 60 ab 35 3d 0c cd 60 be
       0.29433823 -0.062618434 0.04435289 -0.21953219
000100 40 e4 54 bc 20 ee 48 3d 8c 3c b9 be ce 48 d6 3e
       -0.012993872 0.04905522 -0.36179006 0.4185242
000110 54 89 1e be 88 9a b7 be be 3a c5 be ac 40 60 be
       -0.15482074 -0.35860085 -0.3852138 -0.2189967
000120 1a 44 a4 3e 1c 7a 84 3e 48 ea 99 3d 2c 4e 5e 3e
       0.32083207 0.25874412 0.07515389 0.21709508
000130 88 eb 50 3e 20 ba 96 bd 9a ef d0 be 80 d5 a5 be
       0.20402348 -0.07359719 -0.408078 -0.3238945
000140 a8 d8 ea 3e 18 3e 74 be a8 f0 6b be 76 f8 80 be
       0.4586842 -0.23851812 -0.23041022 -0.2518956
000150 f2 33 cd 3e c0 90 37 3e 48 e6 c1 bd 24 cb c3 3e
       0.40078694 0.17926311 -0.09467751 0.38240921
000160 a8 24 82 3d 9c 35 70 be 80 98 d3 3e bc fd e6 3e
       0.06354648 -0.2345795 0.41327286 0.4511546
000170 50 ff b2 3e 00 b1 8f bb 10 94 12 bd 92 8e 8a 3e
       0.34960413 -0.0043851137 -0.035785735 0.27061898
000180 98 2c ac 3d 96 1f b1 be 7e c8 d6 3e b4 93 db be
       0.08406943 -0.3459441 0.41949838 -0.42886126
000190 3a 63 90 3e a8 25 01 be e0 bb 7c bd 80 e8 94 bc
       0.28200704 -0.12612021 -0.06170261 -0.01817727
0001a0 24 06 f4 be a2 50 c2 be 96 57 a4 3e c8 0f e6 3e
       -0.47660935 -0.37952143 0.32098073 0.44933915
0001b0 f0 dd 14 3e 0e 8c cb be 72 33 a8 be b0 9d e3 3e
       0.14537787 -0.3975529 -0.3285175 0.44456244
0001c0 70 36 a7 3d 60 0d 61 3d e8 dc 6a be ea 4e f1 3e
       0.0816468 0.054944396 -0.22935832 0.4713052
0001d0 d8 02 88 be 2a 89 de 3e 60 fc 61 3d 7c 25 9f be
       -0.2656467 0.43464023 0.055172324 -0.31083286
0001e0 62 28 d7 be 50 09 c2 bd a2 09 d7 3e a0 28 eb bc
       -0.42022997 -0.094744325 0.41999537 -0.028705895
0001f0 dc 57 b8 be da 7e a7 3e 22 b4 9b 3e 20 f2 57 be
       -0.3600453 0.32713968 0.30410868 -0.21088457

encoder_variable_selection.flattened_grn.fc2.weight f4 [8, 8]
000000 bc 12 2c bb 49 65 40 3e c5 25 10 3f cc 05 50 3f
       -0.0026256284 0.18788637 0.5630763 0.81258845
000010 65 7d b8 bd 4f 1c fe 3d 2b ec ea 3e a7 53 62 3f
       -0.09008292 0.12407743 0.45883307 0.88408893
000020 1c 2d f1 3e c6 cb 28 3e 87 27 6f be ac d9 96 be
       0.47104728 0.16483983 -0.23354922 -0.29462945
000030 37 a6 f4 be 73 36 2b bf cc 68 73 be 27 b0 43 be
       -0.47783062 -0.6687996 -0.23770446 -0.19110166
000040 23 97 04 bf 99 ac 52 bf ee bc 81 bf 9d 1c f3 be
       -0.51793116 -0.82294613 -1.0135782 -0.47482768
000050 62 d1 5f 3f 37 40 50 bf 8d fb a5 bf ec 36 58 bc
       0.8742887 -0.81347984 -1.2967392 -0.013196688
000060 0d a8 e2 be a8 bb 9f bd 27 36 04 bf e7 f1 12 3f
       -0.44268838 -0.077994645 -0.5164513 0.57400364
000070 e7 93 d7 3e c6 36 b8 3d 74 a5 bc 3e 2e ac 36 be
       0.42105028 0.08994822 0.3684498 -0.17839119
000080 59 f2 19 be 92 b1 0f 3e 17 16 03 3e e1 5c 18 bf
       -0.15033855 0.14032581 0.12801395 -0.5951672
000090 0f 80 30 3f e9 61 20 bd 8a 6c 8c 3e a5 f2 3c be
       0.689454 -0.039155874 0.2742656 -0.18451937
0000a0 d9 56 de be f4 59 1d bf 89 74 1a 3f af 96 bd be
       -0.43425635 -0.6146538 0.6033407 -0.37029025
0000b0 92 bb 32 3e 76 b9 a5 be a0 fe d0 be b9 78 80 be
       0.17454365 -0.32368058 -0.40819263 -0.25092104
0000c0 f6 9e 08 3f 5e a5 76 be b7 0e 27 be 68 a9 d0 3e
       0.53367555 -0.2408652 -0.16314207 0.40754247
0000d0 03 2a 82 3e 18 ba 6c bf 8d c2 9b 3d c5 75 95 be
       0.25422677 -0.92471457 0.07605467 -0.29191414
0000e0 07 fe ca be f0 eb 97 bf 84 65 18 bf d1 64 88 3e
       -0.39646932 -1.1868877 -0.595299 0.26639417
0000f0 1f 89 1b be c4 1d 2e bf 81 38 f7 bd 0d 97 a3 bf
       -0.15189026 -0.6801417 -0.12071324 -1.2780472

encoder_variable_selection.flattened_grn.fc2.bias f4 [8]
000000 22 d5 34 3e 8a d6 34 3e 14 ef 34 3e cf 4b 34 be
       0.17659429 0.17659965 0.17669326 -0.17607044
000010 70 de 34 be 14 b1 34 3e 08 e3 34 be e3 e4 34 3e
       -0.17662978 0.17645675 -0.1766473 0.17665438

encoder_variable_selection.flattened_grn.gate_norm.glu.fc.weight f4 [16, 8]
000000 06 4f 1e 3f 78 db b1 3e 45 68 e2 be 9d fb 30 3e
       0.6183933 0.34737754 -0.44220176 0.17283483
000010 d4 a7 88 bd 7d ac 82 be af a2 03 bf 6c 55 03 3f
       -0.06672636 -0.25522223 -0.5142011 0.5130222
000020 e8 b0 a5 3e 12 65 17 bf 23 5e 30 3e c6 3c 57 3e
       0.3236153 -0.59138596 0.1722341 0.21019277
000030 72 25 ed bd 9c ef 22 be 3d 82 12 3e 1c 53 cc 3e
       -0.11579408 -0.15911716 0.14307494 0.39907157
000040 83 e0 a8 3d 52 26 54 3d 64 eb 88 3e ef 39 08 3c
       0.08245947 0.051794358 0.2674209 0.008314594
000050 32 b2 c5 3d 7b 2d 3a 3d 5a 09 87 3e 46 67 e8 3c
       0.09653129 0.04545353 0.26374322 0.028369557
000060 e5 7b 0c bf e9 94 d1 3e 31 3b 11 3d f9 a7 27 bf
       -0.5487655 0.40933922 0.03545684 -0.6549068
000070 00 6d c8 3e 02 8f e9 3d bb 93 0b 3f 3f 38 96 be
       0.3914566 0.1140423 0.54522294 -0.29339787
000080 56 e4 a7 bd 10 39 f1 3e 1b 97 32 3e 56 ba 19 bf
       -0.081978485 0.47113848 0.17440455 -0.6004995
000090 c6 46 17 3f 58 10 1c bf f9 0f 06 bc 52 55 88 bd
       0.59092367 -0.6096244 -0.008182519 -0.066568986
0000a0 80 02 de be 49 73 00 3f 64 24 a7 3e 58 69 03 3d
       -0.43361282 0.5017591 0.3264495 0.032082886
0000b0 9c 5b a2 be b3 8d ad bb 06 dc 30 3e 1b 94 f8 be
       -0.31710517 -0.005296433 0.17271432 -0.48550496
0000c0 b4 64 3a 3e 9f b8 82 be 84 df 1f bf 41 9e 53 3e
       0.18202478 -0.2553148 -0.6245043 0.20665838
0000d0 4f 01 e1 bd 47 25 c2 3d 11 f3 fa 3d bd c6 5a 3e
       -0.10986578 0.09479766 0.122533925 0.21364875
0000e0 29 1c f6 3e ac 84 8c bd c8 b3 02 bf 3d 7e 06 be
       0.4806836 -0.06861243 -0.51055574 -0.13134094
0000f0 69 af 2b bf 57 5d c2 3e 8c b1 14 bf 88 22 b2 bd
       -0.6706453 0.37961838 -0.58083415 -0.086979926
000100 2a 04 17 be 3d 84 0f 3e f0 f2 1b 3f 50 ba a2 be
       -0.14747682 0.14015289 0.6091757 -0.3178277
000110 22 cf db 3e 6b e0 e5 3e ef f1 f8 3e 2c c4 9c 3e
       0.42931467 0.4489778 0.4862208 0.30618417
000120 ab ea 83 be b8 5d 63 3e 1c 0a 1f bf 6a 53 dd 3d
       -0.25764975 0.2220372 -0.621248 0.108069256
000130 e7 03 e8 3e 23 dc 99 be fa 71 2b 3f bc 18 a2 3e
       0.45315477 -0.30050763 0.6697079 0.31659496
000140 8f 5d 6c be e9 46 e4 3c 2c 40 af be 1b 66 91 be
       -0.23082565 0.027865844 -0.34228647 -0.28398213
000150 9a c3 93 be e1 97 ad 3e ab 21 13 3e ac aa 9b bc
       -0.2886017 0.33904937 0.14368312 -0.019002281
000160 cc 54 60 3e 44 9d 8b 3e c1 de cc 3e 7c 1f dc bc
       0.21907347 0.27268422 0.40013698 -0.026870482
000170 26 f0 28 bd c4 66 21 bf 22 ca ac 3e 31 40 39 be
       -0.04124465 -0.6304743 0.33747965 -0.18090893
000180 c0 68 94 3e 83 ac 1d 3e 6d f4 e7 bd c2 db 23 bf
       0.28986168 0.15397839 -0.113259174 -0.640072
000190 5f 60 4e 3d 54 fc 08 bd 20 e5 05 be db c2 75 3e
       0.050384875 -0.033443764 -0.13075686 0.24000113
0001a0 10 e0 44 3e 07 85 82 be 28 8a 82 be 06 03 22 bf
       0.19226098 -0.25492117 -0.2549603 -0.63285863
0001b0 95 f5 4e be c4 40 c4 3d bc 5f 92 be d1 5b a5 3e
       -0.2021087 0.095826656 -0.28588665 0.32296613
0001c0 d3 a4 57 be 49 69 14 be ac 08 f3 bd 62 c8 ec 3d
       -0.21058969 -0.14493288 -0.118668884 0.115616575
0001d0 e9 8f 81 be 63 9a 66 be 9d ff 66 3e c3 47 da 3d
       -0.25305107 -0.22519831 0.22558446 0.10658219
0001e0 83 cc 1b bf 48 01 15 bf 55 dd 98 3e 7e c5 7c bd
       -0.60858935 -0.5820508 0.29856363 -0.06171178
0001f0 27 e6 55 be e9 7e e4 bd 91 4b 8e 3e 51 a6 7a 3e
       -0.20888577 -0.11157019 0.27792028 0.24477507

encoder_variable_selection.flattened_grn.gate_norm.glu.fc.bias f4 [16]
000000 92 c4 34 be 9e d2 34 be 0f ef 34 3e 24 e3 34 3e
       -0.1765311 -0.17658469 0.17669319 0.17664772
000010 0b d6 34 3e 70 e2 34 3e 5d f0 34 be e2 e8 34 be
       0.17659776 0.17664504 -0.17669816 -0.17666963
000020 7f b3 34 3e 67 67 34 3e 4f e0 34 be 21 e1 34 3e
       0.17646597 0.1761757 -0.17663692 0.17664005
000030 3d 9c 34 3e 5d 72 31 be 28 71 34 be c3 e4 34 3e
       0.17637725 -0.17328782 -0.1762129 0.1766539

encoder_variable_selection.flattened_grn.gate_norm.add_norm.norm.weight f4 [8]
000000 1c 9d 96 3f 43 9d 96 3f ee 9d 96 3f 28 cc 52 3f
       1.1766696 1.1766742 1.1766946 0.8234277
000010 1d 9d 96 3f 26 9e 96 3f b7 c3 52 3f 88 c5 52 3f
       1.1766697 1.1767013 0.8232989 0.8233266

encoder_variable_selection.flattened_grn.gate_norm.add_norm.norm.bias f4 [8]
000000 5a e7 34 be 7b ea 34 be 54 ef 34 3e 16 ee 34 3e
       -0.17666379 -0.17667572 0.17669421 0.17668948
000010 92 ee 34 3e 1d f0 34 3e 2e f1 34 be d1 ee 34 be
       0.17669132 0.17669721 -0.17670128 -0.17669226

encoder_variable_selection.single_variable_grns.time_idx.resample_norm.mask f4 [16]
000000 d0 01 34 3e 90 1b 34 be ab b8 34 3e 40 81 34 3e
       0.17578816 -0.1758864 0.1764857 0.1762743
000010 85 ac 34 be 3b ea 30 be a7 7f 33 3e 4e b8 34 be
       -0.17643936 -0.17276852 0.17529164 -0.17648432
000020 53 1c 34 be 11 b3 34 3e 3d 88 34 be 61 93 33 3e
       -0.1758893 0.17646433 -0.17630096 0.1753669
000030 26 1c 23 3e 1c 0e 33 be cb dd 28 3e 54 9e 31 3e
       0.15928707 -0.17485851 0.16490857 0.17345554

encoder_variable_selection.single_variable_grns.time_idx.resample_norm.norm.weight f4 [16]
000000 b7 92 96 3f bc da 52 3f 2f 9b 96 3f 65 98 96 3f
       1.1763524 0.8236501 1.1766108 1.1765257
000010 17 ca 52 3f b8 96 95 3f 4d 83 96 3f b0 cb 52 3f
       0.82339615 1.1686621 1.175882 0.8234205
000020 fb e2 52 3f 3e 99 96 3f 82 d2 52 3f 89 81 96 3f
       0.82377595 1.1765516 0.8235246 1.1758281
000030 eb a4 95 3f c9 e5 52 3f 53 7d 96 3f b7 22 53 3f
       1.1690954 0.82381874 1.1756996 0.82474846

encoder_variable_selection.single_variable_grns.time_idx.resample_norm.norm.bias f4 [16]
000000 17 a2 34 be ab 76 34 3e 36 cd 34 be d0 b4 34 be
       -0.17639957 0.17623393 -0.17656407 -0.176471
000010 95 da 34 3e e7 99 34 be 58 19 34 3e fa ca 34 be
       0.17661507 -0.17636834 0.17587793 -0.17655554
000020 26 91 34 be c9 d4 34 3e e2 af 34 be 25 21 34 3e
       -0.17633495 0.17659296 -0.17645219 0.17590769
000030 10 df 31 be 87 b3 34 3e 8b b2 34 be 5c cb 34 3e
       -0.17370248 0.17646609 -0.17646234 0.176557

encoder_variable_selection.single_variable_grns.time_idx.fc1.weight f4 [8, 8]
000000 df 11 de 3d a9 b3 5f bf 23 47 a4 3e 2f ea 47 be
       0.108432524 -0.87383515 0.32085523 -0.19522928
000010 10 81 20 3e fa 6c c4 be 12 6c d5 bd 5a 08 05 bc
       0.15674233 -0.38364393 -0.104210034 -0.008119667
000020 cf 67 18 bc 39 de a8 bd 75 3d 71 bf 25 5f c8 3e
       -0.009302094 -0.082455106 -0.942344 0.3913509
000030 94 1e 65 3f c6 1e cd 3e e2 9c 1b be c2 07 11 bf
       0.89499784 0.4006254 -0.15196565 -0.5665246
000040 ab 63 21 be 23 ad 32 3f 6a b0 01 3f 10 ce 1d be
       -0.15760677 0.69795436 0.5065981 -0.15410638
000050 66 46 1a bf 01 ee e2 be e7 ad 8a 3f d6 40 07 3e
       -0.6026367 -0.44322208 1.0834321 0.13208327
000060 57 c8 6e 3e 0d d7 17 3f be 9c 03 3f 76 18 df bd
       0.23318611 0.59312516 0.51411045 -0.108933374
000070 98 14 26 bf cb 21 56 3f 0f fb ac be 63 85 c8 bd
       -0.64875174 0.83645314 -0.33785293 -0.097910665
000080 a4 36 a7 3e e9 b7 d0 3e 7a f5 37 3f a5 43 67 3f
       0.32658875 0.40765312 0.7185894 0.9033759
000090 7a ff 68 be 12 94 a7 be 71 f0 e7 3e 1b 97 0f be
       -0.22753707 -0.32730156 0.4530063 -0.14022486
0000a0 6b 73 86 3e 94 50 94 3f 0c 54 0b be dc ca 37 be
       0.26259932 1.158709 -0.1360628 -0.17948478
0000b0 5b 9c b4 3d eb 54 aa 3e a1 d2 fb be 52 7f 0a 3e
       0.08818885 0.33267912 -0.49184135 0.13525131
0000c0 10 58 c3 be a0 ea 1f 3e db 3f 55 bd 25 d5 89 be
       -0.38153124 0.15616846 -0.05206285 -0.2692043
0000d0 db 8f 90 3e 7f 67 0f bf a3 b9 b2 3e cf 77 18 bf
       0.28234753 -0.560173 0.34907255 -0.59557813
0000e0 76 02 17 bf 8b 11 be 3e 57 27 ec 3d f0 00 01 3e
       -0.5898813 0.3712276 0.11530941 0.12598014
0000f0 bb f3 3d be b0 a4 9a be 14 0e 9a 3b 68 12 97 bb
       -0.18550007 -0.30203772 0.0047013853 -0.0046103485

encoder_variable_selection.single_variable_grns.time_idx.fc1.bias f4 [8]
000000 63 b5 34 3e a5 bc 34 3e 4c bc 33 be 32 04 34 be
       0.17647319 0.17650087 -0.17552298 -0.17579725
000010 65 6f 34 be 77 50 34 be 48 a1 34 be 96 72 31 3e
       -0.17620619 -0.1760882 -0.17639649 0.17328867

encoder_variable_selection.single_variable_grns.time_idx.fc2.weight f4 [8, 8]
000000 ea af 94 be 42 e4 b7 bd df 8a f6 3e b4 84 9a bd
       -0.29040462 -0.089790836 0.48152825 -0.07544842
000010 07 06 7a 3e 37 df c5 3e 31 36 02 bf 97 43 44 3e
       0.24416362 0.38646862 -0.5086394 0.19166408
000020 87 97 9f bd bb a3 f3 be a8 b9 7c be 3b 5c 8f 3e
       -0.077925734 -0.47585854 -0.24680197 0.28000054
000030 e9 9d a6 be 4f c6 73 bf b6 63 85 3f e7 3e 8c 3f
       -0.3254235 -0.9522447 1.0421054 1.0956696
000040 d0 a6 24 be 85 d9 2c 3f f3 b0 5b bf b6 ec a3 3e
       -0.16079259 0.6751941 -0.8581688 0.32016534
000050 7c 07 9d bc 97 77 23 be d6 46 e0 3d ba 07 f8 be
       -0.019168608 -0.15963589 0.10951011 -0.48443395
000060 21 31 35 bf e9 26 84 bf 34 ae 03 3f ed c5 aa be
       -0.7077809 -1.0324374 0.5143769 -0.3335413
000070 76 44 e1 3e 98 2d 0a 3f 3c 48 60 3e c7 ab 15 bf
       0.43997544 0.5397582 0.21902555 -0.58465236
000080 e3 48 67 be 99 7b 69 be 25 4f c0 be 37 c8 82 3c
       -0.22586398 -0.22801055 -0.37560382 0.01596461
000090 0e 62 e5 be 8d 70 da bd c5 95 e8 be 8c 2c d3 bb
       -0.44801372 -0.106659986 -0.45426765 -0.0064445194
0000a0 2f 78 1d 3e 4d 16 16 3f 43 62 5d bb 22 63 70 bf
       0.15377878 0.5862778 -0.0033780492 -0.93901265
0000b0 24 fd df 3e 95 73 c8 be cc c7 34 3e 02 5a 70 bf
       0.43747818 -0.39150682 0.17654341 -0.9388734
0000c0 8a e2 9e bc 9d ab e3 bd 24 e2 92 3d c7 54 ec be
       -0.019395132 -0.11116717 0.07172039 -0.4615843
0000d0 7b 6a a5 be 9e cd d2 3e 49 1e 10 3d de 4f f0 3d
       -0.323078 0.41172498 0.035185132 0.117339835
0000e0 05 5f 3d 3f 11 54 47 3f 32 38 93 bf 8d 6f a4 be
       0.73973113 0.7786265 -1.1501524 -0.32116356
0000f0 5a e9 34 3d 7b ba a3 3e 3c 67 7e bf fc 40 79 be
       0.044167854 0.3197821 -0.99376273 -0.24341196

encoder_variable_selection.single_variable_grns.time_idx.fc2.bias f4 [8]
000000 f5 4d 34 be ed b3 33 be 10 b5 30 3e 7b b4 34 be
       -0.17607863 -0.17549105 0.1725657 -0.17646973
000010 f0 b2 33 3e 25 85 34 3e 1c a4 34 be 7f fa 33 3e
       0.17548728 0.17628916 -0.17640728 0.17576025

encoder_variable_selection.single_variable_grns.time_idx.gate_norm.glu.fc.weight f4 [32, 8]
000000 1a 3b 65 be 95 44 f3 3d 2d f6 c6 be d0 33 b0 3d
       -0.22385827 0.11878315 -0.38859692 0.086036325
000010 47 81 38 be c2 8b 00 bf 3e e2 60 be 80 c9 06 3e
       -0.18018065 -0.50213253 -0.21961305 0.13162804
000020 2f af 28 be f4 97 38 be 29 43 92 3e 81 18 84 bd
       -0.16473077 -0.18026716 0.28566864 -0.06449986
000030 37 f5 a1 be b7 90 0a 3e 28 4c 04 bf ac c0 90 3b
       -0.31632397 0.13531767 -0.51678705 0.0044174995
000040 2c ce 2f 3e 70 ae e8 3e 10 5a ee be 90 5b 56 be
       0.17168492 0.45445585 -0.46553087 -0.20933366
000050 fb 63 28 3d 82 33 1d be 0a 63 a7 be 09 9f 05 3e
       0.041110974 -0.1535168 -0.32692748 0.13048948
000060 a3 20 f4 3d 14 89 40 3e cc 49 01 bf b8 f0 9f be
       0.119202875 0.18802291 -0.5050323 -0.3123834
000070 b4 70 ab 3e 80 3b f7 3d d3 9c a0 3d 8e 74 2f bd
       0.33484423 0.120718956 0.07842412 -0.042835765
000080 53 38 2c 3e cd 12 4e 3e 35 fd f9 3d 0e c1 a6 3e
       0.16818361 0.2012436 0.122064985 0.32569164
000090 0b 94 19 3e 2b 1d e4 3d 56 2d f9 3d ee 7a 80 3e
       0.1499788 0.11138376 0.1216685 0.25093788
0000a0 92 c1 b0 be 12 44 51 3d 27 b0 33 3e 2a 7a 46 be
       -0.34522682 0.051090308 0.17547666 -0.1938254
0000b0 a3 7b c6 3d 3b 02 e3 be de 56 be be 9b 61 54 be
       0.096915506 -0.4433764 -0.3717565 -0.20740359
0000c0 96 41 eb bc af 2c 55 3e c5 e4 8c 3e c9 1b 30 be
       -0.028717797 0.20817827 0.27518287 -0.17198099
0000d0 b1 27 04 bf 2e ad 53 3d c1 41 48 be 05 63 8c 3e
       -0.51623064 0.05167883 -0.19556333 0.27419296
0000e0 8a 15 d4 be c1 39 0d 3f c7 3e fc 3d 4f c2 4b 3e
       -0.41422683 0.5516625 0.12316661 0.19898342
0000f0 43 c6 09 be d6 a2 70 3d 6b 44 a7 3e cd 90 1d 3c
       -0.13454537 0.058749042 0.32669386 0.009617043
000100 ce 61 74 3e 21 59 d8 3e e9 10 10 bf 34 44 1f 3e
       0.23865435 0.422555 -0.562758 0.15553361
000110 ba 15 29 3e d3 2c fd be cf f5 c1 3e fe 33 d5 be
       0.16512194 -0.4944826 0.3788285 -0.4164123
000120 09 49 97 3e 44 78 03 be 17 f2 08 be d7 f0 da 3d
       0.2954791 -0.12838846 -0.133736 0.10690468
000130 13 06 b6 be a1 d0 0f 3f f4 2b 6d 3e ea 0b 50 3e
       -0.3555151 0.5617772 0.23161298 0.20317045
000140 54 7b 37 3e a1 69 e2 3e a3 50 99 bd 17 8e c7 bb
       0.1791814 0.44221213 -0.07486083 -0.0060899365
000150 8c 8f 2c 3e 75 39 9d be 0d 3b 0f 3e 7c 70 de be
       0.16851634 -0.307079 0.1398737 -0.43445194
000160 db fe a1 3e 5c d3 81 3d 61 78 03 3f 28 f9 f6 bd
       0.31639752 0.06339142 0.5135556 -0.120592415
000170 bf 15 43 bd 7f d8 79 3e b0 83 90 3e 1d 1e c9 3e
       -0.04762816 0.24398993 0.2822547 0.39280787
000180 14 13 cd be 97 61 ad bc 8a 35 69 be 67 37 c9 3e
       -0.40053618 -0.021164699 -0.2277433 0.3930008
000190 e8 fd 3a be 72 07 40 3e 00 e3 c7 3e 03 03 34 be
       -0.1826092 0.1875284 0.39040375 -0.17579274
0001a0 da 6b 0b be df 1d b8 3d d4 db 6a 3e 12 6f 98 3d
       -0.13615361 0.089900725 0.2293542 0.0744306
0001b0 3f a2 b3 3d 90 fd 24 be f5 72 08 3d 12 c5 b5 3e
       0.0877118 -0.16112351 0.033312757 0.35501915
0001c0 68 df 17 3e 87 7d 3d be 18 af a9 be 19 3f d2 bc
       0.14831316 -0.18504916 -0.33141398 -0.025664853
0001d0 38 15 a0 3d aa e0 bb be 18 1d 87 bd 45 e2 b1 3d
       0.07816547 -0.36694843 -0.06597346 0.086857356
0001e0 e2 ef c3 3e 0d 51 01 bf 06 ee 43 3e ac f9 32 be
       0.38268954 -0.505143 0.19133767 -0.17478055
0001f0 b0 50 f4 be f3 17 a2 3e 66 f9 49 be ee df 00 3f
       -0.4771781 0.31658897 -0.19724044 0.5034169
000200 65 92 c3 3e 05 6d c6 be a1 d8 48 be 60 d3 ce 3e
       0.38197628 -0.3875505 -0.19613887 0.4039564
000210 22 a4 c4 be 7e 62 9d 3e a4 19 1a 3e fe d3 a1 3b
       -0.38406473 0.30739206 0.15048844 0.0049386015
000220 9a f2 78 be c5 ce ed 3d a4 af f9 bd df a1 87 be
       -0.24311295 0.11611704 -0.12191704 -0.26490685
000230 fb a5 d7 bc f5 7b 2f be 5f b9 ed bd e5 35 d7 bd
       -0.026324263 -0.1713713 -0.11607622 -0.105083264
000240 29 1a db bd 79 95 4b bd 5b 20 f0 3c 44 7d a7 3e
       -0.10698349 -0.049703095 0.029312303 0.32712758
000250 d0 5c d6 be 75 13 29 be ae cf 70 3d de c2 3f be
       -0.41867685 -0.16511329 0.05879181 -0.1872668
000260 fd cf 91 3d 81 07 01 be ce 64 bc 3e fc 2c 4d 3e
       0.07119749 -0.12600519 0.36795658 0.20036691
000270 58 6a 2f 3d ae 04 94 be 6e cb a5 be ad 15 bf 3e
       0.042826027 -0.2890982 -0.32381767 0.37321225
000280 d1 a0 ec bc 5e 72 ff bd ea 56 e0 be ee 4a 2f 3e
       -0.028885277 -0.12472986 -0.4381631 0.17118427
000290 0a 29 bf 3e 44 62 e6 bd 7a db 08 bf 81 80 52 be
       0.37335998 -0.112492114 -0.53459895 -0.20556833
0002a0 24 53 9f 3e a4 9c f9 3e cb f1 0d bf 93 1c c5 3e
       0.3111812 0.4875232 -0.5544707 0.38498363
0002b0 71 86 06 bd e1 36 c3 3e 02 70 b2 3e a4 19 55 bd
       -0.032843057 0.38127807 0.3485108 -0.052026406
0002c0 52 b4 e7 3e e2 3d c9 bd ea 81 f4 3e 56 a8 93 3e
       0.4525476 -0.09826256 0.47755367 0.28839368
0002d0 a7 d7 2a bc b3 f3 e1 bd 6c 9d e8 bd e8 ca 2e 3e
       -0.010427392 -0.1103281 -0.11358151 0.1706959
0002e0 b1 b8 2e be bd b5 fe 3e c8 da 4b bd ee 4c 94 3c
       -0.17062642 0.4974803 -0.049769193 0.01810309
0002f0 e4 15 26 3d bf 4b b0 be f2 7d ec 3d 0b 9f b5 be
       0.04054822 -0.3443279 0.1154746 -0.35472903
000300 94 99 15 be ec 1e 92 be 9c 62 fc 3e b2 96 fa 3e
       -0.14609367 -0.28539217 0.49293983 0.48943096
000310 72 45 16 be a4 18 94 3e 58 5f 2d be ba 14 3a 3e
       -0.14674929 0.2892505 -0.16930902 0.18171969
000320 cf 7a 00 3f 07 a7 dd be a3 a8 80 3e ef 80 db bd
       0.5018739 -0.43291494 0.2512866 -0.107179515
000330 ec 2c 0d bf 19 c7 e1 3e 39 d8 eb bd b1 e2 a1 bd
       -0.5514667 0.44097212 -0.115158506 -0.07904566
000340 83 47 63 bd e9 f6 3d 3c 85 40 b9 3d 01 a5 55 be
       -0.05548812 0.0115945125 0.09045509 -0.20863725
000350 5c 6c 41 be 90 39 c1 bd 67 ca 60 3c 4c e6 06 3e
       -0.18888992 -0.09434807 0.0137201315 0.13173789
000360 ad 08 7b 3e 72 a7 4e 3d 40 9c 8d 3e 6d c0 85 3e
       0.24515028 0.050452657 0.27658272 0.26123372
000370 01 ab b4 bd 05 98 00 3e 94 6f 4d 3e da db 2d 3d
       -0.08821679 0.12557991 0.20062095 0.042445995
000380 ba a0 dd be fa d4 9e 3d 9f 1e 5a be 41 1f 9b 3d
       -0.43286687 0.07755466 -0.21300744 0.075743206
000390 72 f2 59 3e 74 3f 4b be 86 86 eb 3e 37 f5 73 bd
       0.21283892 -0.19848424 0.4600107 -0.059560027
0003a0 6d 04 90 be 1f 84 ba 3e ce 13 26 3e 12 75 75 be
       -0.28128377 0.36428925 0.16218492 -0.2397044
0003b0 07 0f bb 3e 61 6e 6e be a8 05 86 bd 16 7a 63 3d
       0.36534902 -0.23284294 -0.065440476 0.055536352
0003c0 cf ac f4 be e3 be fd 3e 3a 08 00 bf 25 ce 91 be
       -0.47788092 0.49559698 -0.5001255 -0.28477588
0003d0 56 6c e1 3e 68 9c 98 be f5 17 f9 3d 25 fa 47 3e
       0.44027966 -0.29806828 0.121627726 0.19529016
0003e0 62 6f 1a 3e 29 a3 69 be 94 6a e7 3d 7c 55 e0 3d
       0.15081552 -0.22816147 0.11299625 0.10953805
0003f0 0b 52 01 bf 48 6a d3 3e fd 87 e8 3d d9 25 df 3e
       -0.5051581 0.41292024 0.11354063 0.43583563

encoder_variable_selection.single_variable_grns.time_idx.gate_norm.glu.fc.bias f4 [32]
000000 f2 55 34 be 31 a7 33 3e 2c 8e 34 be bc 91 34 be
       -0.1761091 0.17544247 -0.1763236 -0.17633718
000010 96 be 34 3e 4b 41 34 be cf 92 33 3e 18 a3 34 be
       0.17650828 -0.17603032 0.17536472 -0.1764034
000020 37 56 34 be 6f c3 34 3e 31 77 34 be 95 56 33 3e
       -0.17611013 0.17652677 -0.17623593 0.17513497
000030 5f 69 30 be 56 83 34 3e 2a 30 34 be 04 b1 34 3e
       -0.17227696 0.17628226 -0.17596498 0.17645651
000040 7a 97 2b 3e ca 63 23 3e 28 0a 31 3e 61 b5 17 3e
       0.16757002 0.15956035 0.1728903 0.14815284
000050 03 ff 33 be 13 29 23 be 31 d1 2a 3e 53 f5 33 be
       -0.17577748 -0.15933637 0.16681363 -0.17574053
000060 e3 eb 32 3e 6f 54 30 3e 92 b9 24 3e bd 13 22 3e
       0.17472796 0.17219709 0.16086414 0.15827842
000070 05 02 00 3e 3e 27 32 be 4d a7 2d be b4 7a 33 3e
       0.1250077 -0.17397782 -0.16958351 0.17527276

encoder_variable_selection.single_variable_grns.time_idx.gate_norm.add_norm.norm.weight f4 [16]
000000 56 90 96 3f 90 d6 52 3f 16 9b 96 3f 6f 96 96 3f
       1.1762798 0.82358646 1.1766078 1.1764659
000010 b7 c7 52 3f ce 5d 96 3f d8 57 53 3f d3 c7 52 3f
       0.8233599 1.1747377 0.82555914 0.8233616
000020 28 17 53 3f 7a 99 96 3f a7 d3 52 3f 50 89 96 3f
       0.8245721 1.1765587 0.82354206 1.1760654
000030 a4 63 53 3f 95 df 52 3f 74 75 96 3f 4b 8a 96 3f
       0.82573915 0.8237241 1.1754594 1.1760954

encoder_variable_selection.single_variable_grns.time_idx.gate_norm.add_norm.norm.bias f4 [16]
000000 7c 90 34 be 01 9c 34 3e a5 ca 34 be 6a a3 34 be
       -0.17633241 0.17637636 -0.17655428 -0.17640463
000010 c9 df 34 3e dc 81 34 be 65 39 2c 3e c5 d5 34 be
       0.17663492 -0.17627662 0.1681877 -0.17659672
000020 4e 9b 34 be 0d d4 34 3e 66 b6 34 be 2f 00 34 3e
       -0.17637369 0.17659016 -0.17647704 0.17578195
000030 db 19 34 be 32 b6 34 3e 20 b3 34 be 9e d1 34 3e
       -0.17587988 0.17647627 -0.17646456 0.17658088

encoder_variable_selection.single_variable_grns.T2M.resample_norm.mask f4 [16]
000000 75 c8 34 3e 2e 67 34 be 68 d0 34 3e dc b7 34 3e
       0.17654593 -0.17617485 0.17657626 0.17648262
000010 f1 e1 34 be 32 a0 30 3e b4 ac 33 3e 7b aa 34 3e
       -0.17664315 0.1724861 0.1754635 0.17643158
000020 1b 8c 34 be 9e 6a 34 3e 03 fa 31 be 25 83 34 be
       -0.17631571 0.17618796 -0.17380528 -0.17628153
000030 b3 8b 34 be 20 b8 34 3e 48 98 34 3e 97 cc 34 be
       -0.17631416 0.17648363 0.17636216 -0.1765617

encoder_variable_selection.single_variable_grns.T2M.resample_norm.norm.weight f4 [16]
000000 38 97 96 3f 91 18 53 3f 7e 9b 96 3f 69 92 96 3f
       1.1764898 0.8245936 1.1766202 1.1763431
000010 72 c6 52 3f 28 8d 96 3f 7f f2 52 3f bd 8d 96 3f
       0.82334054 1.1761827 0.8240127 1.1762005
000020 cb cc 52 3f d0 9b 96 3f b3 7c 96 3f 22 91 94 3f
       0.8234374 1.17663 1.1756805 1.1606791
000030 ea d6 52 3f 67 9c 96 3f 0a 05 53 3f 34 d4 52 3f
       0.8235918 1.176648 0.82429564 0.82355046

encoder_variable_selection.single_variable_grns.T2M.resample_norm.norm.bias f4 [16]
000000 99 be 34 be 83 b6 34 3e c9 dc 34 be 2a b3 34 be
       -0.17650832 0.17647748 -0.17662348 -0.1764647
000010 15 e6 34 3e 8c 70 34 be 59 a5 2c be 40 df 34 be
       0.17665894 -0.17621058 -0.1685995 -0.17663288
000020 f0 c8 34 be cc dd 34 3e 13 d2 34 be 8e 44 33 be
       -0.17654777 0.17662734 -0.17658262 -0.1750662
000030 25 bb 34 be bf d3 34 3e 9c bd 32 be df d9 34 3e
       -0.17649515 0.176589 -0.17455143 0.17661236

encoder_variable_selection.single_variable_grns.T2M.fc1.weight f4 [8, 8]
000000 89 e0 6d bf e9 de c3 3c 17 ce 37 3e 18 40 a1 be
       -0.9292074 0.023910003 0.17949711 -0.31494212
000010 fd ba 8d 3e 76 71 7f bd 72 3b ca 3e c1 55 49 3f
       0.27681723 -0.062364064 0.39498478 0.78646475
000020 b2 fd 3e bf cd 2d 12 3f fe ec 15 3f 90 01 26 3f
       -0.7460586 0.57101136 0.58564746 0.64846134
000030 1f 0a 85 bd a3 70 87 3e 04 11 88 3d 09 0b 11 3e
       -0.06496071 0.26453122 0.066438705 0.14164366
000040 96 dd 07 bf 45 2a d7 3e 79 b4 b9 3e 4a db b9 3d
       -0.5307249 0.42024437 0.36270502 0.09075029
000050 07 eb f8 3e 80 7e 03 3f 0d 64 51 3f a4 80 c1 3e
       0.48616812 0.513649 0.8179329 0.37793458
000060 ac 9b bd 3e ad 6e f9 be fd 21 11 3f 1a 99 a2 be
       0.3703283 -0.4871725 0.56692487 -0.31757432
000070 c6 83 8b be 3a 1b 5d bf f9 4e f2 bd 6b c1 41 3f
       -0.27248973 -0.8636967 -0.11831469 0.7568576
000080 3a 2e f3 be d9 7b f7 3d 9a 00 87 3d b9 bb 99 bf
       -0.47496206 0.12084169 0.065919116 -1.2010413
000090 ae 04 26 bf 51 f0 92 bc 12 5f 2b bf c1 1d 05 3f
       -0.6485089 -0.017936857 -0.6694194 0.51998526
0000a0 8f fd e5 bd 81 0d 8a be 8b 43 7f bf 45 9b 47 3f
       -0.11230003 -0.26963428 -0.9971244 0.779713
0000b0 97 56 9c 3f 37 b1 dc bd 06 ca 7d 3d 14 f6 f6 3e
       1.2213925 -0.107759885 0.061960243 0.48234618
0000c0 ce 0d c7 be 84 d9 c6 be f9 73 26 bf ba f8 d8 3e
       -0.3887772 -0.38837826 -0.6502071 0.42377263
0000d0 f5 26 a7 bd 94 43 61 be f9 29 32 be 6e 30 5c 3e
       -0.08161727 -0.21998435 -0.17398824 0.2150285
0000e0 12 17 2a be c4 05 05 bf 43 10 17 3f 3d e5 8e 3e
       -0.16610363 -0.5196192 0.5900919 0.2790927
0000f0 b5 4a b9 3e 84 e2 1b 3f 9d e6 2e 3f 17 cb 87 3f
       0.3618981 0.6089251 0.6832064 1.0608853

encoder_variable_selection.single_variable_grns.T2M.fc1.bias f4 [8]
000000 cc f7 33 be b3 d3 34 be 1d 6c 34 be 0e b2 34 3e
       -0.17574996 -0.17658882 -0.17619367 0.17646047
000010 e4 a2 34 be 99 a8 34 3e 79 e6 34 be 07 2c 33 be
       -0.17640263 0.1764244 -0.17666043 -0.17497264

encoder_variable_selection.single_variable_grns.T2M.fc2.weight f4 [8, 8]
000000 7b 5e b0 3e ad d4 6f be 95 fd 3e bf 9f 8b 31 be
       0.34447083 -0.23420973 -0.74605685 -0.17338417
000010 5b e5 99 be ba d1 2f be cb 62 a2 3d e6 b6 1e bf
       -0.30057797 -0.17169848 0.079289995 -0.6199783
000020 0b 5e 1c be c9 af 8f bf bf 89 c9 3d 6e 7e 68 3f
       -0.1527025 -1.122552 0.09840726 0.90817916
000030 63 56 08 bf d5 18 e3 3e 8c 11 80 bf c0 1a 7e be
       -0.53256816 0.44354883 -1.0005355 -0.24814892
000040 82 f3 e1 be 06 e5 ef be f5 6e 6f 3f 7a ff ff 3e
       -0.44131094 -0.4685442 0.9352868 0.499996
000050 fe 52 3c be c0 6a df 3e 3c c7 a3 be 94 31 2a 3f
       -0.18391034 0.4363613 -0.3198794 0.664819
000060 10 72 b0 bc 3e 98 5d bf aa ad e7 3e cc 5e a1 3d
       -0.021538764 -0.8656043 0.45249683 0.07879409
000070 fc ae d6 be 20 49 63 be e7 60 79 bf 79 c7 a1 3e
       -0.41930377 -0.22195864 -0.97413486 0.31597498
000080 72 66 99 bd 85 aa 60 be 99 61 45 be 7d 02 95 be
       -0.07490243 -0.21940048 -0.19275512 -0.2910346
000090 5a 38 e0 3c 1f 68 95 be 6f 12 1a 3f 0c cf ee be
       0.02737062 -0.29181 0.6018438 -0.4664234
0000a0 70 e7 1b 3e ed e4 bf 3e 60 ca 7d bf 62 28 a3 3e
       0.15225005 0.37479344 -0.99136925 0.31866747
0000b0 16 06 70 bf 6d c6 de be 85 20 5a 3f cf 9c a8 be
       -0.93759286 -0.43510762 0.8520587 -0.32932135
0000c0 19 96 ea 3e b7 c6 37 bf 49 ec 34 3f 14 02 7b bf
       0.4581764 -0.7178759 0.7067304 -0.98050046
0000d0 06 59 5a 3f 28 68 5f 3e 94 9b 6a 3d 55 51 c2 be
       0.8529209 0.21817076 0.057277277 -0.37952676
0000e0 94 28 ff be 7c 23 62 3f eb 9d dd bc 13 27 37 3e
       -0.49835646 0.88335395 -0.02705284 0.17886
0000f0 bd 39 00 3f c3 11 99 bf 3e 2f 3d 3f 85 9c 80 bf
       0.500881 -1.1958545 0.7390021 -1.0047766

encoder_variable_selection.single_variable_grns.T2M.fc2.bias f4 [8]
000000 55 2d 33 be 0d dc 34 3e 3e c8 34 be 51 7e 32 3e
       -0.17497762 0.17662068 -0.17654511 0.17430998
000010 31 c6 33 3e c5 a8 34 be 70 c2 34 3e 4d a9 34 be
       0.17556073 -0.17642505 0.17652297 -0.17642708

encoder_variable_selection.single_variable_grns.T2M.gate_norm.glu.fc.weight f4 [32, 8]
000000 58 c3 72 3e f5 e5 34 3e 42 38 23 3e 83 02 86 3d
       0.2370733 0.17665847 0.1593943 0.06543448
000010 4b 1c 7b be b6 ee 9a bd 64 45 d4 be a4 bc 07 be
       -0.24522512 -0.07565062 -0.4145919 -0.13255554
000020 1c cc 1d 3e bd bb 4c be e7 33 21 bb 06 41 0f 3e
       0.15409893 -0.19993491 -0.0024597587 0.13989648
000030 91 88 07 3f 78 95 05 3f 21 71 e9 3e c9 85 9b 3d
       0.5294276 0.52181196 0.45594123 0.07593877
000040 d7 fb 40 3e 35 49 35 3e e8 eb 95 3d e2 4c 90 3c
       0.1884607 0.17703708 0.07320386 0.017614786
000050 89 36 c4 3e dd a4 52 3e 55 da 0a bf 62 ad 07 3f
       0.38322857 0.20570703 -0.542394 0.52998936
000060 02 6e 43 3b db 55 36 3e db 84 b1 3e 68 f0 8c 3e
       0.0029820208 0.17806189 0.34671673 0.27527165
000070 46 ad f7 be 3f cf 11 bd ff b7 41 be 07 04 65 bd
       -0.48374385 -0.035598036 -0.18917845 -0.055912044
000080 c3 5d c6 bd 3e ba ee 3d 9d e1 8e 3e 7d ba 8c be
       -0.096858524 0.11656617 0.27906504 -0.2748603
000090 1e bd 6f 3e 66 c5 8d 3e 99 21 ca 3d 6e fd 0c 3e
       0.23411986 0.27689666 0.098696895 0.13768551
0000a0 e6 78 e2 3e 61 82 05 bf 7b de 24 3d 89 1d e2 bd
       0.44232863 -0.5215207 0.040251236 -0.1104079
0000b0 cd 16 a0 3e f9 6c c9 bc 5d 01 d3 3d 15 b7 02 3f
       0.31267396 -0.024588095 0.103029944 0.5106061
0000c0 c2 c4 66 be eb 30 fe 3e 4b fc 9f 3e 21 b6 30 3e
       -0.22535995 0.49646696 0.31247172 0.17256977
0000d0 c2 4e f4 be c1 28 07 bf a9 5b a0 be 5a 52 c1 3d
       -0.47716337 -0.5279656 -0.3131993 0.094395354
0000e0 bc 1e b4 3e 85 51 d4 3a 7b 39 2d bd 4a 3e 7c 3e
       0.35179698 0.0016198611 -0.042291146 0.24633136
0000f0 1b cc af 3d 14 97 0e bd 65 0e 0c be f9 ac 2e 3d
       0.08583852 -0.034812048 -0.13677366 0.04264543
000100 91 0a 49 be 76 01 1c 3e 23 63 8f 3c 90 d5 c6 bd
       -0.19632937 0.15234932 0.017503327 -0.097087026
000110 f8 a3 01 3f 88 37 ca be 3a 30 6a be 49 75 be 3e
       0.5064082 -0.39495492 -0.2286996 0.37198856
000120 b7 a3 4e be 1a 75 41 3e 78 63 10 be d2 24 37 be
       -0.2017964 0.18892327 -0.14100444 -0.1788514
000130 da 23 1d be ce 62 0c be d9 05 76 3e 24 37 2c 3e
       -0.15345708 -0.13709566 0.24025668 0.1681791
000140 32 5f c3 3d 8d 17 15 be 87 d1 35 3e ef 1a 01 3f
       0.095396414 -0.14559765 0.1775571 0.5043172
000150 0f d9 95 3e 8b b8 ec 3c 74 96 e7 be 54 b7 5b bd
       0.29267165 0.02889659 -0.45231974 -0.053641632
000160 28 b2 f9 be 6c c3 9e be 84 54 ad be 58 7b de bd
       -0.48768735 -0.3100847 -0.33853543 -0.1086337
000170 dc c0 12 3c 0f ad 8e 3e d1 70 af 3e b3 b2 36 3e
       0.008957114 0.27866408 0.3426576 0.17841606
000180 3a 88 78 3c 47 29 cb 3e 8e 6b 07 bf af a3 a4 3e
       0.015169198 0.3967993 -0.5289849 0.3215613
000190 dd f1 6a 3e df f1 3f be 62 14 93 3e 63 f1 53 3e
       0.22943826 -0.1874461 0.28726488 0.2069755
0001a0 c8 fe df bd 9b b7 cd 3d 44 17 73 3e 8e 79 12 be
       -0.109372675 0.100447856 0.23739344 -0.14304182
0001b0 26 90 40 3e d6 f0 4b be f1 09 0c 3f a2 53 f0 be
       0.18804988 -0.1991609 0.5470267 -0.46938807
0001c0 70 70 2f be 56 d7 f4 bd 06 d4 83 3e 86 df 0c 3d
       -0.17132735 -0.119551346 0.257477 0.034392856
0001d0 56 d3 c2 3d bc 74 37 be d9 30 6a be 13 82 10 3e
       0.095129654 -0.17915624 -0.22870196 0.1411212
0001e0 11 9e 8d 3e a1 55 02 3e fe 4b f7 be 9d 41 96 bd
       0.27659658 0.12727977 -0.48300165 -0.073367335
0001f0 d1 45 fd 3b 6d 8f bf 3e 16 89 2f 3e 31 08 e3 be
       0.00772927 0.37414113 0.17142138 -0.44342187
000200 86 2d 71 3e 33 e5 c9 be 00 89 d5 be 5e fa c4 be
       0.23552522 -0.39432678 -0.41706085 -0.38472265
000210 73 da 22 be 48 7d fa 3e e9 3a 94 3e 3b 17 ad be
       -0.15903644 0.48923707 0.28951195 -0.33806786
000220 b1 a7 9e 3e c7 83 91 be aa 36 fc be ca 39 1e 3e
       0.30987313 -0.2842085 -0.49260455 0.15451732
000230 07 d2 0a be aa af ad 3e 3b 05 11 3e ec 02 b4 3e
       -0.13556682 0.33923084 0.14162152 0.3515848
000240 08 24 36 be 5a e7 97 3d c6 6e ed 3e 98 fd b4 3e
       -0.17787182 0.07417174 0.46373576 0.35349727
000250 f2 ac 4a be 52 eb 06 bf ec e5 79 be ab c8 08 bf
       -0.19792536 -0.5270282 -0.24404114 -0.53431195
000260 d7 0a e0 be 66 d1 9e bd 40 72 0e 3f c0 5b 73 3d
       -0.4375827 -0.07754783 0.5564308 0.05941367
000270 79 03 71 be c5 f9 d9 3b b7 35 05 3e 46 65 18 be
       -0.23536481 0.0066520893 0.13008772 -0.14882383
000280 d1 b9 cf 3e 3f 79 24 3d e5 56 a6 bd 93 38 fa 3d
       0.40571454 0.04015469 -0.081220426 0.12217822
000290 3c 85 df 3d 98 b6 33 3e 4c 5b 0c 3d 24 1b a5 3d
       0.10914084 0.17550123 0.034266755 0.08061817
0002a0 0a c1 04 bf 8a 99 4e 3e 03 9b 1c 3d b9 03 80 3e
       -0.51857054 0.20175758 0.03823377 0.2500284
0002b0 6e 80 df be 94 a6 38 bd ee e1 af be 49 0b ca be
       -0.43652672 -0.045080736 -0.34352058 -0.39461735
0002c0 c0 36 c8 be 16 6b bc 3e 13 b1 d1 3e 84 c0 67 3e
       -0.3910427 0.3680045 0.4095541 0.22632033
0002d0 59 aa 52 3e a5 e7 8d 3d c8 10 07 bd 9c 0a b9 bc
       0.20572795 0.06928948 -0.03297499 -0.022588067
0002e0 d6 b7 a1 3e 8a bb 7d bd e9 dc f8 be 50 ff 3e 3e
       0.31585568 -0.06194643 -0.4860604 0.18652081
0002f0 43 26 f8 3d ee 03 0c 3e 94 c5 0d 3e ff 73 26 bd
       0.12116673 0.13673374 0.13844901 -0.040637966
000300 3e f4 bb 3e f4 ad e9 3d 1b f8 bf bb 72 81 ed be
       0.3670978 0.11410132 -0.005858434 -0.4638782
000310 37 7f 90 3e 04 35 c4 3b cc d4 2a 3e f5 45 c3 be
       0.28222057 0.0059877653 0.16682738 -0.3813931
000320 c9 17 36 3e b2 9a b2 3c 49 bf 69 be 43 06 f1 3d
       0.17782511 0.02180228 -0.22826876 0.117687725
000330 fc 35 20 be 27 eb 20 be 02 52 1a be 9d 00 3b bd
       -0.15645593 -0.15714704 -0.15070346 -0.04565488
000340 5c 3f 8b 3c 92 fe 8f be 6e ec ad be 5c b6 82 be
       0.016997986 -0.2812391 -0.33969444 -0.25529754
000350 55 6d 37 be 6a c5 24 3d b6 84 0d bc 41 58 de 3e
       -0.179128 0.04022733 -0.008637598 0.43426707
000360 a5 9a 97 be 2d a7 0c bf 95 36 94 be 8e e2 52 3e
       -0.29610172 -0.5494259 -0.28947893 0.20594236
000370 70 ee ca ba 09 71 c8 3e 21 81 d1 3e e6 b7 cc 3e
       -0.0015482437 0.3914874 0.4091883 0.39984053
000380 ae a4 0f be ec c6 65 be d4 58 fa 3e e1 dd ec be
       -0.14027664 -0.22439164 0.48895895 -0.4626303
000390 97 6b ef be da 81 d6 3e 39 88 e0 bd 91 0e 6e 3c
       -0.46761772 0.41895944 -0.109634824 0.01452984
0003a0 19 3c b3 3e a1 2f 93 3e 0e c5 3c 3e cf 2a 06 3f
       0.35006788 0.28747275 0.18434545 0.5240907
0003b0 54 3c ae be 96 37 74 be 1a 71 59 be ed a6 bb bd
       -0.34030402 -0.2384933 -0.21234551 -0.09162698
0003c0 e4 c2 51 be b9 5c c5 3e 09 f2 94 3d 18 45 19 be
       -0.20484501 0.38547304 0.07272727 -0.14967763
0003d0 74 11 03 3f 6b 68 c9 3d 06 06 09 3e 10 64 0e bf
       0.51198506 0.09834369 0.13381204 -0.55621433
0003e0 1b a6 71 bd 2a 78 10 3e 0e c5 08 3f ee c8 64 3e
       -0.0589963 0.14108339 0.5342568 0.22342274
0003f0 51 00 b7 3d 2e 7e e7 be 3e 21 40 be 20 c4 bd be
       0.08935607 -0.45213455 -0.18762681 -0.37063694

encoder_variable_selection.single_variable_grns.T2M.gate_norm.glu.fc.bias f4 [32]
000000 73 c2 34 be c2 55 34 3e ae cb 34 be 92 a6 34 be
       -0.17652301 0.17610839 -0.17655823 -0.17641667
000010 99 d9 34 3e c1 16 34 be 4c f2 2d 3e 8f d3 34 be
       0.17661132 -0.17586805 0.1698696 -0.17658828
000020 82 a6 34 be 27 d0 34 3e 91 af 34 be aa 42 2e be
       -0.17641643 0.17657529 -0.17645098 -0.17017618
000030 3c a4 34 be 05 98 34 3e 85 3b 33 be f4 bd 34 3e
       -0.17640775 0.17636116 -0.17503174 0.17650586
000040 a3 71 14 3e 85 2c 32 be 68 b0 32 3e 5e 81 30 3e
       0.14496474 -0.17399795 0.17450106 0.1723685
000050 8b 37 31 be 91 9c 22 3e 0f a1 33 3e 37 20 34 be
       -0.17306344 0.15880038 0.17541908 -0.17590414
000060 d2 1d 2c 3e 40 92 34 be 5d 7b 33 be b7 ef 10 be
       0.1680825 -0.17633915 -0.17527528 -0.14153944
000070 5d 4f 32 3e 43 d7 2e be 3b 55 34 be 98 01 34 be
       0.17413087 -0.17074303 -0.17610638 -0.17578733

encoder_variable_selection.single_variable_grns.T2M.gate_norm.add_norm.norm.weight f4 [16]
000000 29 95 96 3f cb fd 52 3f eb 9b 96 3f 0e 95 96 3f
       1.176427 0.8241851 1.1766332 1.1764238
000010 df c5 52 3f 35 94 96 3f 37 7e 96 3f b6 d5 52 3f
       0.8233318 1.1763979 1.1757268 0.82357347
000020 49 cb 52 3f b5 99 96 3f 4c e1 52 3f 8f 31 53 3f
       0.8234144 1.1765658 0.82375026 0.82497495
000030 18 da 52 3f 50 9c 96 3f 10 ca 52 3f d3 cc 52 3f
       0.82364035 1.1766453 0.8233957 0.82343787

encoder_variable_selection.single_variable_grns.T2M.gate_norm.add_norm.norm.bias f4 [16]
000000 0d a0 34 be a8 c1 34 3e 2f de 34 be f6 b4 34 be
       -0.1763918 0.17651999 -0.17662881 -0.17647156
000010 46 e7 34 3e d4 a8 34 be 56 56 33 be 47 e1 34 be
       0.17666349 -0.17642528 -0.17513403 -0.17664061
000020 53 cb 34 be d2 df 34 3e ca c9 34 be 4f df 32 3e
       -0.17655687 0.17663506 -0.17655101 0.17467998
000030 3f b0 34 be f3 d1 34 3e a0 8c 34 be c2 dd 34 3e
       -0.17645358 0.17658214 -0.17631769 0.17662719

encoder_variable_selection.single_variable_grns.T2M_MAX.resample_norm.mask f4 [16]
000000 62 cc 34 3e 5e bc 34 be ef dc 34 3e 46 81 34 3e
       0.17656091 -0.17649981 0.17662404 0.17627439
000010 88 d5 34 3e b5 cc 34 be 7f b1 34 be cd cf 34 3e
       0.1765958 -0.17656215 -0.17645834 0.17657395
000020 6e d5 34 be 52 e0 34 3e d7 e2 34 be 62 03 34 3e
       -0.17659542 0.17663696 -0.17664658 0.17579415
000030 37 e5 34 be a1 8c 33 be d7 0a 34 be 4e d7 34 3e
       -0.17665564 -0.17534114 -0.1758226 0.17660257
