ai_predict/ai/lightning_logs/version_26/checkpoints/epoch=1-step=16.ckpt (torch, 662004 bytes, 889 tensors)

prescalers.time_idx.weight f4 [8, 1]
000000 94 fe 55 3c 67 90 3a bf c7 63 1a 3f 9a 03 cc bd
       0.013061184 -0.7287659 0.603085 -0.099616244
000010 c3 5e 81 3e 00 8a 55 3f 4d 7c e1 be 90 42 63 be
       0.2526761 0.83413696 -0.44040146 -0.2219336

prescalers.time_idx.bias f4 [8]
000000 fb 09 63 3f 8e ad 12 3f ac 1e 36 bf 84 d2 1c 3f
       0.88687104 0.57296073 -0.7114055 0.6125872
000010 f8 9b 13 3e 13 89 e6 3e 24 d4 51 bf f6 c9 50 bd
       0.14414966 0.45026454 -0.81964326 -0.050973855

prescalers.T2M.weight f4 [8, 1]
000000 e0 56 02 be 3b ee 1e bf a0 21 50 3f 9c 82 df be
       -0.12728453 -0.6208226 0.8130131 -0.43654335
000010 ef d8 39 bf af bc 7f be 35 af ce bd 25 70 60 3f
       -0.7259664 -0.24974321 -0.10092012 0.8767112

prescalers.T2M.bias f4 [8]
000000 80 c4 25 be 28 fb 2f 3f a5 f4 38 bf e4 cb ee be
       -0.1618824 0.6874261 -0.722483 -0.4663993
000010 8a 9b 37 be a9 eb 3f 3f a9 70 82 bf 3e 79 ab be
       -0.17930427 0.74968964 -1.0190631 -0.33490938

prescalers.T2M_MAX.weight f4 [8, 1]
000000 94 ab 4d bf 96 b9 11 be a7 a4 23 3f 60 d8 a3 be
       -0.8033993 -0.14230952 0.63923115 -0.3200102
000010 d9 be 7f bf 2e 8d 08 3e 02 d2 9b be 57 26 36 3d
       -0.99900585 0.13335106 -0.3043366 0.044470157

prescalers.T2M_MAX.bias f4 [8]
000000 73 05 00 3f cc 81 8f 3e ac f9 03 be f3 17 0b 3f
       0.50008315 0.28028715 -0.12888211 0.5433342
000010 c0 55 38 bf c7 4f 03 3f 54 84 a7 ba b3 fe 8c be
       -0.72005844 0.51293606 -0.0012780526 -0.2753807

prescalers.T2M_MIN.weight f4 [8, 1]
000000 f2 24 32 bf 51 58 5b bf 85 3d 2e bf 86 ac a5 be
       -0.69587624 -0.85681635 -0.6806262 -0.32358187
000010 4f 51 48 3f 56 2e 49 3f 8b 5c 04 bf 3b c8 dd 3e
       0.7824907 0.7858633 -0.5170371 0.43316826

prescalers.T2M_MIN.bias f4 [8]
000000 14 5d 1a bf 04 1e 6f 3f 63 e5 26 bf 61 1f 0d bf
       -0.60298276 0.93405175 -0.65193766 -0.55126005
000010 bc cf d9 3d bf 76 79 bf b2 31 a2 3e 99 1f f1 3d
       0.10635325 -0.9744682 0.3167854 0.11773605

prescalers.PRECTOTCORR.weight f4 [8, 1]
000000 02 dc 65 be 42 35 14 3f 56 76 35 bf 8a 1d 68 3f
       -0.22447208 0.57893765 -0.7088369 0.90670073
000010 29 5b 47 3f f0 60 08 bf 8b 04 fd be 05 5f 7c be
       0.77873474 -0.53272915 -0.4941753 -0.24645622

prescalers.PRECTOTCORR.bias f4 [8]
000000 df f4 33 bf 8e 6f 6d 3f 1f 4a ba 3c 5e ad 5c 3f
       -0.7029552 0.92748344 0.022740422 0.8620204
000010 da e3 09 3f 77 d0 a0 bf f7 e0 f8 be 47 8b 8f bc
       0.538633 -1.2563618 -0.48609135 -0.017522467

prescalers.RH2M.weight f4 [8, 1]
000000 90 75 48 3e 3e eb b6 3e c9 e5 5a bf 84 c4 98 be
       0.19576097 0.3572635 -0.85506874 -0.2983743
000010 4e 0d 54 3f 1b 0c 51 3d c7 a1 22 bf 99 ac 10 bf
       0.828328 0.051036935 -0.635281 -0.56513363

prescalers.RH2M.bias f4 [8]
000000 ec ae 3e 3e fd 52 ae be 07 11 8a be d5 df 9e 3e
       0.18621415 -0.3404769 -0.26966116 0.31030145
000010 38 05 82 bf 5a b5 c9 bd 47 70 81 3e f1 9c 91 bd
       -1.0157843 -0.09849043 0.25280973 -0.07110012

prescalers.ALLSKY_SFC_SW_DWN.weight f4 [8, 1]
000000 8b 44 48 bf 77 7e 6d bf cd f8 86 3f df 7e 28 bf
       -0.7822959 -0.92771095 1.0544678 -0.6581859
000010 34 a4 83 3f e4 0d 47 3f 48 00 ac be 60 1e 35 bc
       1.0284486 0.7775557 -0.33593965 -0.011054605

prescalers.ALLSKY_SFC_SW_DWN.bias f4 [8]
000000 76 23 4a 3f 8e 8c 25 bf c2 fe 1f bf 6c 10 80 bf
       0.7896036 -0.64667594 -0.62498105 -1.0005012
000010 f1 40 b9 3d d9 8a e7 3e 4e be 0c 3f b1 6b f1 3e
       0.0904559 0.4522312 0.5497788 0.47152475

prescalers.numero_casos.weight f4 [8, 1]
000000 e0 94 7e 3f 51 e1 5d bf ef 0c 6a bf 91 5b 22 bf
       0.99445915 -0.8667193 -0.91425985 -0.6342097
000010 b6 6c 9d 3e c8 45 5e bf 68 3c 6e bd 71 95 df 3e
       0.30747002 -0.8682523 -0.058163077 0.43668702

prescalers.numero_casos.bias f4 [8]
000000 6b d7 a9 be ea e3 35 3f 6e b1 b0 3e 9c 26 ff bd
       -0.33172163 0.71050894 0.34510368 -0.12458536
000010 82 a0 27 bf fa 0b 25 bf 9d c4 e4 bd e1 e1 86 bf
       -0.6547929 -0.644714 -0.111703135 -1.0537683

static_variable_selection.single_variable_grns.municipio.mask f4 [16]
000000 0e 9b 18 be af 1c 19 3e 9b d2 18 3e da 82 19 be
       -0.14902899 0.14952348 0.1492409 -0.14991322
000010 56 2a 19 be 3c 2c 19 be ad 3b 1a 3e fc 23 19 3e
       -0.14957556 -0.1495828 0.15061827 0.14955133
000020 c7 cb 18 3e 64 69 05 be cb 04 19 be c3 d4 17 3e
       0.14921485 -0.13028485 -0.14943235 0.14827256
000030 aa af 19 be 58 88 19 3e 60 49 19 be 70 20 1b be
       -0.15008417 0.14993417 -0.14969397 -0.15149093

static_variable_selection.single_variable_grns.municipio.norm.weight f4 [16]
000000 28 f6 5c 3f 64 ef 8f 3f 17 cf 75 3f 83 cd 8f 3f
       0.86313105 1.1244931 0.9601912 1.1234592
000010 58 66 95 3f 00 2f 89 3f 19 37 92 3f 22 47 92 3f
       1.1671858 1.0717468 1.1423064 1.1427958
000020 7f 7e 5d 3f 1f 07 5b 3f b3 9f 68 3f 14 b4 5c 3f
       0.8652114 0.8555774 0.9086868 0.8621228
000030 1f 2d 8e 3f a6 9e 90 3f 74 17 96 3f 77 d5 8e 3f
       1.110752 1.1298416 1.1725907 1.1158894

static_variable_selection.single_variable_grns.municipio.norm.bias f4 [16]
000000 ef 43 17 3e 9f dd 1a be 44 9a 18 be 87 68 1a 3e
       0.14772008 -0.15123604 -0.14902598 0.15078937
000010 db 8d 19 3e dc 3c 19 3e ca 29 22 be 33 d7 19 be
       0.1499552 0.14964622 -0.15836254 -0.15023498
000020 3e c0 17 be cf 3d 05 3e 8c de 18 3e 36 9f 10 be
       -0.14819428 0.1301186 0.14928645 -0.14123234
000030 9c ac 1a 3e d6 02 1d be 68 18 1a 3e 6a 9a 1c 3e
       0.15104908 -0.15333113 0.15048373 0.1529328

encoder_variable_selection.flattened_grn.resample_norm.mask f4 [8]
000000 72 d1 c7 bd 4c f9 70 3d fc a6 24 3e 26 91 2b be
       -0.097567454 0.058831498 0.16079324 -0.16754588
000010 07 77 37 be 9b d2 38 be c0 fb e2 bd b1 4f 52 3e
       -0.17916499 -0.1804909 -0.11083174 0.20538212

encoder_variable_selection.flattened_grn.resample_norm.norm.weight f4 [8]
000000 22 45 65 3f 0c bd 87 3f 66 1f 90 3f f5 2c 57 3f
       0.89558613 1.0604568 1.1259582 0.84052974
000010 59 93 69 3f ec c7 45 3f 1f 9a 6c 3f 81 aa 90 3f
       0.9124046 0.7725818 0.9242267 1.1302034

encoder_variable_selection.flattened_grn.resample_norm.norm.bias f4 [8]
000000 37 35 cf bd fd ae e8 3d b9 32 ab bc 56 11 17 bc
       -0.10117572 0.11361501 -0.02089821 -0.009220442
000010 31 34 48 bd 28 d4 3f 3e a9 d2 e4 bd d6 65 65 be
       -0.0488779 0.18733275 -0.11172993 -0.22402129

encoder_variable_selection.flattened_grn.fc1.weight f4 [8, 64]
000000 f2 58 74 3e ee e8 9e bd f9 dd 44 be 84 cb 42 3d
       0.23862055 -0.077592716 -0.19225301 0.04755737
000010 3e 73 57 3d dc bf d0 bd 42 b5 a5 3c df 38 f6 3e
       0.052600138 -0.10192844 0.020228032 0.48090264
000020 4c 72 a3 3d c7 1f a1 3d 78 08 4b be 65 7b 5a 3d
       0.07980785 0.07867389 -0.1982745 0.053340334
000030 60 11 fc bd 27 29 a0 3e 71 09 25 3d af 51 da bd
       -0.123080015 0.31281397 0.040292207 -0.10660111
000040 2a 22 62 bd 69 8f d6 3c de b0 84 3e 4f fb 13 be
       -0.055208363 0.02619143 0.2591619 -0.14451335
000050 cc d2 63 be 82 4d 03 3e a4 ea 8c bd 1d 19 3f be
       -0.22248381 0.12822536 -0.06880692 -0.18661924
000060 04 8e 87 be d9 d5 b7 3d 0d cb 69 bd 6a d2 ed bb
       -0.26475537 0.08976335 -0.05707841 -0.0072577493
000070 1b 4e 2f be 78 90 dd bb e8 df 88 3e f0 d3 56 be
       -0.17119639 -0.006761607 0.26733327 -0.20979285
000080 c0 63 15 be 20 dc 5e 3d 79 c5 6b bd a0 d7 c3 3e
       -0.14588833 0.054409146 -0.05756137 0.38250446
000090 cd 2b e7 3d fc e8 4c be 89 c2 d3 bd ef 52 74 3e
       0.11287651 -0.20010751 -0.10339839 0.23859762
0000a0 be 72 74 3e ae cf 5a 3d 10 12 94 bd 27 c6 38 be
       0.23871896 0.053420715 -0.07230008 -0.18044339
0000b0 60 4d d5 3d 5c 43 bb 3d 36 37 42 bd 89 f3 1f be
       0.10415149 0.09143707 -0.047415935 -0.15620245
0000c0 14 ab 42 be 91 72 08 be 87 d7 8b bd 58 a7 9b be
       -0.19010574 -0.13324954 -0.06828218 -0.3040111
0000d0 df 64 99 3e cf 90 2c 3e fc fc b1 3d 0c 6c 26 be
       0.2995977 0.16852115 0.08690831 -0.16252154
0000e0 8c 00 b5 bd 1d 1b be 3d 15 07 f4 3d b7 5c 9e 3e
       -0.08837995 0.09282515 0.11915413 0.3093011
0000f0 58 43 f6 bc 1e 64 ce 3e 7f 23 71 3e 66 c2 7b bc
       -0.030061409 0.40310758 0.23548697 -0.015366172
000100 a6 9b 87 be ee 0a 88 3d bc c4 ec 3c 69 9b ab be
       -0.26485938 0.0664271 0.028902404 -0.33517006
000110 d7 33 d9 be 84 c0 d2 be b7 12 3b 3e 1a 09 47 3e
       -0.42422363 -0.41162503 0.18268858 0.19437066
000120 b1 09 15 3f 18 07 aa bd 26 7a 00 3d c8 59 0f 3e
       0.5821791 -0.08302134 0.03136649 0.13999093
000130 d6 93 09 3f 67 b9 ca bc a1 17 7f 3e db 3e 39 3d
       0.53741205 -0.02474661 0.24911357 0.04522596
000140 d0 b8 21 3e 19 a5 07 bf 26 d9 23 3d cf 17 85 be
       0.15793157 -0.52986294 0.04000201 -0.25994727
000150 a4 a6 8c 3e cd d1 a1 be 3c 8e 8b bd 78 1e 9a 3e
       0.27470887 -0.31605378 -0.068142384 0.3010137
000160 47 e6 ef 3d c8 2e 40 be 21 fc 86 3e 55 1e 84 3e
       0.11713844 -0.18767846 0.26364234 0.25804392
000170 a3 59 7f be d4 62 ba 3e 06 ac 25 be aa 2e ee 3d
       -0.24936537 0.36403525 -0.16178903 0.11629994
000180 64 58 da 3e cc 34 24 be ae f3 df bd 3c cc 55 3d
       0.42645562 -0.16035765 -0.1093515 0.052196726
000190 fe 31 a5 bd a7 42 86 3e ea 64 6b 3e 59 ec 10 be
       -0.08066176 0.26222727 0.22987714 -0.1415266
0001a0 78 b7 26 3e b6 62 2a 3e 2d 7b 51 be f7 53 a6 be
       0.16280925 0.16639218 -0.20457144 -0.32485935
0001b0 58 d7 55 be 26 2e 83 bd 8b 35 c5 bd 50 70 95 be
       -0.20882928 -0.064052865 -0.09629353 -0.2918725
0001c0 0c 74 30 be 84 e9 1c 3e d9 fe fa 3e 9b 2d 39 3e
       -0.17231768 0.15323454 0.49022558 0.18083803
0001d0 e3 8a 65 be 08 1a bc bd 6d 6f 9a bd 78 e7 af be
       -0.22416262 -0.091846526 -0.07540784 -0.34356284
0001e0 e3 9f 37 3d 93 96 c7 be 3e f8 a3 be 84 32 46 3e
       0.044830214 -0.38982067 -0.3202533 0.19355208
0001f0 88 e4 5e be 16 cd 23 3f 4a e3 06 3b 39 62 91 3d
       -0.21766865 0.6398481 0.0020582252 0.070988126
000200 70 fd 24 be 56 fa 38 3e c8 ad 50 3e d4 eb e8 ba
       -0.16112304 0.18064246 0.20378792 -0.0017770478
000210 58 07 f6 be a3 cb 5f be a4 58 31 bc ec 60 26 3e
       -0.48052478 -0.21855025 -0.010824356 0.1624791
000220 bc a4 c5 3e ad 94 57 3c 9a 1d 8d 3e bf 3c 48 3e
       0.38602245 0.013158006 0.27561647 0.19554423
000230 ce f1 91 bc 4c ba 07 be d2 f5 b9 3e 7c 31 b0 be
       -0.017815497 -0.1325466 0.3632036 -0.34412754
000240 9e 36 d6 3d 93 3f a5 bd af b4 8b 3c 78 18 67 3d
       0.10459636 -0.080687664 0.01705393 0.05641982
000250 57 b1 2e 3e ce 9a 2a bd 41 3d 22 3d fa 35 fa 3e
       0.17059837 -0.04165154 0.039609198 0.48869306
000260 a2 fa 4e be e9 52 07 be 84 bb cf ba fe 1a 04 3f
       -0.20212796 -0.13215221 -0.0015848731 0.51603687
000270 a1 b2 e8 3d 73 65 96 bd ce 0a c0 3e 96 98 7a 3c
       0.11362196 -0.07343569 0.37508243 0.015295168
000280 52 e2 b6 3d 33 53 13 3c 0b 1d 2a be a6 8d 02 bd
       0.08929886 0.008992004 -0.16612642 -0.031873368
000290 40 8b 9b 3c 97 d8 6e 3e 59 e8 9c 3e 41 4d c9 bd
       0.018987298 0.2332481 0.30646017 -0.09829188
0002a0 a0 67 fb bc 8f 0c 6b 3e 80 36 be 3d e0 6e 36 3c
       -0.03068906 0.2295401 0.09287739 0.011134833
0002b0 82 d8 33 3e ba 82 7e be 3a 5b ae bc c2 08 73 bd
       0.1756306 -0.24854556 -0.021283735 -0.059334524
0002c0 5c 37 8c 3e 22 6c 65 3d ab f1 cc 3d e3 e5 a1 3b
       0.27385986 0.056011327 0.10007032 0.0049407347
0002d0 f8 9c c2 be 82 d9 06 be 2d 73 7a 3d 2b 2f 6d be
       -0.38010383 -0.1316891 0.061144996 -0.23162524
0002e0 02 90 1a 3e bf 11 0e 3e 58 25 d4 3e 5d ee 7b be
       0.15093997 0.13873957 0.4143474 -0.24602647
0002f0 88 03 ab be 02 7d 51 3e 1c fb a8 3e e0 d3 d1 3d
       -0.33401132 0.20457843 0.3300408 0.1024549
000300 1e 56 cb 3d 20 ea 7c be be c1 bf bc 82 d8 f4 bd
       0.09928535 -0.24698687 -0.023407813 -0.11955358
000310 74 21 28 3e ff fa cc bd b6 c9 bb 3c 44 c6 5e be
       0.16419011 -0.10008811 0.022923332 -0.2175532
000320 5a 8b 85 3e 97 25 92 3e b6 66 37 be c9 7a a7 3e
       0.2608288 0.28544304 -0.17910275 0.32710865
000330 1d c7 15 be 2d f4 77 3e ea 3c 12 3b d7 48 c8 be
       -0.14626737 0.2421424 0.002231414 -0.39118072
000340 ae 69 76 bd 64 16 d2 3e a3 1d da 3e 2a 63 1f 3e
       -0.060159378 0.41032708 0.42600736 0.15565172
000350 e0 bf b7 3c 70 5b 30 be 5d 76 41 3d 56 80 b7 be
       0.02243036 -0.1722238 0.04723202 -0.358401
000360 84 1f 9f 3d 6b 33 39 be 9f 36 c8 bd 7d 4d ba 3d
       0.07769683 -0.1808602 -0.09776043 0.09096811
000370 56 e0 c3 bc ef 4b 65 be ec a4 25 be c4 c6 80 bd
       -0.023910683 -0.22392248 -0.16176194 -0.062879115
000380 d6 85 aa bd 73 1b c7 bd 51 81 4e 3e 0c ff d9 bd
       -0.083263084 -0.097220324 0.20166518 -0.106443495
000390 b0 78 32 3e 9b c9 c5 be b8 ce 80 3d d3 8c ce 3e
       0.17428851 -0.38630375 0.062894285 0.40341815
0003a0 1c 10 e0 bd 32 36 52 be 12 9e 58 3d ba a8 87 3e
       -0.109405726 -0.20528486 0.052885123 0.26495916
0003b0 5f 70 17 be 34 5d 86 be 39 b9 81 3e b9 ef 51 3e
       -0.1478896 -0.26242983 0.25336626 0.20501603
0003c0 1f 56 9b 3d e1 49 de bd f6 e2 bf bb a6 04 8e be
       0.07584786 -0.10853935 -0.0058559133 -0.2773792
0003d0 b6 b6 8b 3b a4 53 28 be b7 f2 a0 3e 97 53 d4 bd
       0.004263724 -0.16438156 0.31435177 -0.10367506
0003e0 aa b8 e0 3e 4b 11 6f be 32 e5 32 be cf 5f 16 be
       0.43890887 -0.2334644 -0.17470244 -0.14684986
0003f0 33 5c af 3d 81 77 39 be 56 31 4b bd 82 01 b5 3d
       0.085625075 -0.18111993 -0.049607597 0.08838178

encoder_variable_selection.flattened_grn.fc1.bias f4 [8]
000000 6c 43 5a 3c 29 46 45 be dd 67 ff bd d3 e3 cf 3d
       0.013321739 -0.19265045 -0.12470982 0.10150876
000010 4f 6c 69 3e b6 ea ef bd 45 75 cc 3d ff 68 04 be
       0.22795223 -0.117146894 0.09983305 -0.12930678

encoder_variable_selection.flattened_grn.context.weight f4 [8, 16]
000000 68 c8 0d 3e ee a2 c1 3d b0 73 8f 3d 9a 0a 59 bd
       0.1384598 0.094549045 0.070044875 -0.052988626
000010 ce b2 66 3e b0 c7 02 3e 20 b1 01 be 45 05 00 be
       0.22529146 0.12771487 -0.12665224 -0.1250201
000020 c6 a6 04 be 01 77 60 3e 68 13 13 3f 9d 3d ab be
       -0.12954244 0.21920396 0.57451487 -0.33445445
000030 a2 f4 5f 3e 2e 8b 7c 3e 52 c2 61 be 3c 89 a6 3e
       0.21870664 0.24662468 -0.22046784 0.32526577
000040 a9 5e b2 3e 1f a8 ce 3e a3 fd 39 be e8 f7 2a bd
       0.34837845 0.4036264 -0.18163161 -0.041740328
000050 be 2d 19 be f8 15 63 be 91 7c 90 3c dc 50 b7 3e
       -0.14958856 -0.22176349 0.017637523 0.35803878
000060 1d 26 39 3c a8 59 88 3e 2d 5c 1b 3e a2 8a 29 3d
       0.011300591 0.26630902 0.15171881 0.041391976
000070 58 be 6e 3e b1 68 1e 3f 92 c2 00 be 20 b3 1f 3e
       0.23314798 0.61878496 -0.12574223 0.15595675
000080 de 00 ef 3d 7a 83 58 3d f2 77 ae bd 9a 7b b4 be
       0.11670087 0.05285976 -0.085189715 -0.3525055
000090 55 73 78 be b5 46 37 3e 99 7a 6a 3e e6 cc cc 3e
       -0.24262746 0.17898066 0.2289833 0.40000075
0000a0 72 99 90 3c 6e ae 79 be e3 ba 2e be f4 c0 ef 3e
       0.017651293 -0.24382946 -0.17063479 0.468269
0000b0 76 70 d8 3e 43 d1 b3 3e 44 88 b4 be 12 6a b2 3e
       0.422733 0.35120592 -0.35260212 0.3484655
0000c0 c3 cf b1 3e a5 f0 5e 3e 3e b5 fd be c0 01 49 be
       0.34728822 0.21771486 -0.4955234 -0.19629574
0000d0 6e 20 6e 3c 22 7c e1 3e 80 7e d4 3e 9b 39 b3 3d
       0.014534099 0.44040018 0.41502762 0.08751222
0000e0 8e 37 fd be 4d 12 13 be 5b dc 97 3d f0 83 fc 3d
       -0.49456447 -0.1436245 0.07415076 0.123298526
0000f0 d3 92 a1 be 5d 70 b6 bc 93 be ab 3e 38 75 ea be
       -0.3155733 -0.022270376 0.33543834 -0.45792556
000100 ce a2 b9 3e 13 10 b0 be fb 4c 4e be ab e9 ec 3e
       0.36257023 -0.34387264 -0.20146553 0.46272025
000110 f1 5a 93 3e 64 be 19 3e 95 33 a3 3d a9 e0 95 be
       0.2878032 0.15014035 0.07968823 -0.29272965
000120 14 6a a2 be 2c 0a bc 3e 90 5a 01 3e 5f d1 19 bf
       -0.31721556 0.3672651 0.12632203 -0.600851
000130 0e a9 16 be 22 dd ee be 4b c6 b9 bc 46 8a 61 bd
       -0.14712927 -0.46653086 -0.022677561 -0.05506351
000140 89 f6 60 3b 19 07 07 3e 70 ee 61 3b 19 56 5b 3e
       0.0034326634 0.13186301 0.0034474395 0.21419562
000150 8b fa 94 be 0f 53 19 3e ad 57 b6 3d 57 9b 12 3f
       -0.290974 0.1497309 0.089034416 0.5726828
000160 fa 5a 15 3f 9b 34 af 3d cc c2 17 bf e3 11 d8 bd
       0.58341944 0.085549556 -0.5928161 -0.105502866
000170 f4 32 96 be c9 d8 d0 3e a8 43 4b 3d 73 bf d8 3d
       -0.2933575 0.40790394 0.04962507 0.10583391
000180 98 57 1b 3f 3b d2 3f be 71 d3 ed be d3 19 d1 bd
       0.6068053 -0.1873254 -0.4645038 -0.10210004
000190 81 80 50 3e 68 2f 09 3f 4e c2 e5 be f3 e1 6b 3e
       0.2036152 0.5358796 -0.44874805 0.23035412
0001a0 c0 ce bb be 09 c8 91 3e b6 49 f5 3e 87 1a c0 be
       -0.36681175 0.28472927 0.479078 -0.3752024
0001b0 10 59 a2 3e 83 11 9e be b1 8d 39 3e 21 9d d7 3e
       0.31708574 -0.30872735 0.18120457 0.42112067
0001c0 5a fa a5 be 23 bf 63 3e 6c 58 b2 3e 94 95 16 bf
       -0.32417566 0.22240882 0.34833086 -0.5882199
0001d0 01 1d 34 be b9 81 22 3e ac 78 30 3e 5b fe be bd
       -0.17589189 0.15869798 0.17233533 -0.09325858
0001e0 14 a6 9e be 44 5e 03 bf c7 49 d8 bd e3 6b fa 3d
       -0.30986083 -0.5131571 -0.10560947 0.12227609
0001f0 09 b5 95 be 9d 60 29 3f 1d b5 87 be f2 38 29 bf
       -0.2923968 0.66163045 -0.26505366 -0.66102517

encoder_variable_selection.flattened_grn.fc2.weight f4 [8, 8]
000000 b0 9e 25 3e df 61 f3 be cf bf ff be a4 5b 4c 3f
       0.16173816 -0.47535607 -0.49951026 0.7982733
000010 da c7 ac bd 3e 5a d5 3e d7 25 b5 3e 08 47 0e bf
       -0.08436556 0.41670412 0.35380432 -0.55577135
000020 4b e7 d5 be 6d 0c 3f bf 31 28 a2 3d a2 da ad 3e
       -0.41778025 -0.74628335 0.07917822 0.33955866
000030 41 72 4b 3f ed 56 17 3f 51 4c e9 be c3 62 47 3e
       0.7947121 0.59117013 -0.45566037 0.19471268
000040 53 5c 80 be c1 10 0d 3e da c7 be 3d 3a 22 19 3d
       -0.25070438 0.13775922 0.093154624 0.037386157
000050 62 78 1b bf a0 59 45 bd 30 4e 1c be 1d a4 46 bf
       -0.60730565 -0.048181176 -0.15264201 -0.77594167
000060 b6 ee 10 bf 8f e5 04 bf 7d 6f 15 3f a0 c8 85 be
       -0.56614244 -0.5191278 0.5837324 -0.26129627
000070 b7 45 10 bf 24 03 1e 3e 3b 45 bc 3e 03 25 a3 3e
       -0.56356376 0.15430886 0.3677157 0.31864175
000080 76 95 8a 3e b9 53 88 be 12 30 e7 3e 09 d8 72 3e
       0.27067155 -0.26626375 0.45153862 0.23715223
000090 12 9a db 3e d9 7f 85 be 59 60 49 3f a6 c6 53 3e
       0.42890984 -0.26074103 0.7866264 0.20681247
0000a0 ee 61 fc be 4f 57 14 bf 34 82 89 3e 1b 0c 42 3f
       -0.49293464 -0.5794572 0.2685715 0.7579972
0000b0 af 77 45 be 47 05 af 3e 7f 77 90 3e 72 08 5a 3f
       -0.19283937 0.34183714 0.28216168 0.85169137
0000c0 3d 4e 01 3f dc df 83 3f 0b 2c 5a bd a0 8e 6b bf
       0.5051001 1.0302691 -0.05326466 -0.92014503
0000d0 1a 4e c7 be a0 70 42 3e 34 20 cb 3c 16 41 b5 bd
       -0.38926774 0.18988276 0.02479563 -0.08850305
0000e0 fa 38 9f bd f5 f9 0c 3f c9 e3 cf 3e 7a f4 a4 3e
       -0.07774539 0.55068904 0.40603474 0.3221777
0000f0 39 1b 97 bf 11 9b df 3d 41 e8 fa 3d 1c 49 07 3f
       -1.1805183 0.109182484 0.1225133 0.5284593

encoder_variable_selection.flattened_grn.fc2.bias f4 [8]
000000 e8 bd 18 3e 34 fa 1b 3e a3 0c 2c be 61 3d e3 bc
       0.14916193 0.15232164 -0.16801696 -0.027739229
000010 57 dd 07 3e 61 69 45 be 8a 3e 34 be 4c 37 3f be
       0.13268028 -0.1927848 -0.17601982 -0.18673438

encoder_variable_selection.flattened_grn.gate_norm.glu.fc.weight f4 [16, 8]
000000 ef 87 4a bd 21 46 a1 be 22 65 dc 3e b0 c6 7e 3d
       -0.049446043 -0.31498817 0.43045908 0.062201202
000010 26 be aa 3e 75 1a 3e 3d a5 34 a3 bc de c7 8b bd
       0.33348197 0.04641195 -0.019922564 -0.06825231
000020 8c f6 6c be 38 ae 08 3f 82 d0 e5 be ff 72 24 3e
       -0.23140925 0.53390837 -0.4488564 0.16059493
000030 a0 94 0a 3f 80 85 8b 3c ec 80 e5 be 10 1d 8a 3e
       0.54133034 0.017031431 -0.44824922 0.26975298
000040 d3 19 fd 3c 93 3c 9e 3e 81 b0 9f be 90 de 8d 3e
       0.030896103 0.3090559 -0.3118935 0.27708864
000050 05 bb 1d bf c7 84 82 be ae 11 7d 3e 77 26 9b 3d
       -0.61613494 -0.25491926 0.24713776 0.07575696
000060 90 a8 be 3e 92 06 7b be 88 7a af 3e 4a e3 17 3e
       0.37237978 -0.24514225 0.3427317 0.14832798
000070 1f 08 c5 3c 24 c0 61 3e 00 c7 98 3e 39 e2 19 bf
       0.024051724 0.22045952 0.29839325 -0.60110813
000080 85 6e 10 3e a1 6f 51 be 1b 83 0f 3e 73 1e 8e 3d
       0.1410466 -0.2045274 0.14014857 0.069394015
000090 04 9c 50 3e 26 e3 f3 be 77 be ac 3e a3 f9 b4 be
       0.20372015 -0.47634238 0.33739063 -0.35346708
0000a0 5a 09 3f be b8 f4 b3 3d 7c 3c 51 3c 99 10 62 be
       -0.18655911 0.08786911 0.012770768 -0.22076644
0000b0 17 ff d5 3e c4 31 2e be db 4a 02 3f f2 07 5c be
       0.4179618 -0.17011172 0.5089547 -0.21487406
0000c0 4b ea 29 3d 44 13 90 be c8 2b b3 bc e6 af 63 be
       0.041483205 -0.28139699 -0.021871462 -0.22235069
0000d0 32 d6 83 3e 05 1a 17 bf 68 cc 95 3e 29 ad cf 3d
       0.25749356 -0.5902408 0.29257512 0.101404496
0000e0 ab c2 6b be 8d e9 16 bf ce 3f a4 3d 77 bf 6b bc
       -0.23023479 -0.5895012 0.08019982 -0.0143889105
0000f0 a4 3a 6f bd 7a a9 89 3e c5 c3 b5 be 65 3c 4f 3f
       -0.058405533 0.26887113 -0.35500923 0.8095153
000100 27 9f 57 be de 9e a4 be e7 6e b7 bc fb 73 b5 3d
       -0.21056806 -0.32152456 -0.02239175 0.08860012
000110 95 f8 aa be 98 fb 6e 3e 31 c5 ec 3d cd 42 c9 3e
       -0.33392778 0.23338163 0.11561049 0.39308777
000120 e8 21 11 be aa 2c e2 bd e9 97 bd be 73 69 ba 3d
       -0.1417309 -0.11043675 -0.3702996 0.09102144
000130 81 06 33 3f a7 5b 90 3e 6e 2a 14 be f9 32 d5 be
       0.699318 0.28194925 -0.1446931 -0.41640452
000140 b2 7c 28 be c7 47 4f 3d 16 07 fe 3c 5e 62 dc 3c
       -0.16453817 0.05060556 0.031009238 0.026902374
000150 02 cd 00 bf 38 16 81 be 6f cb 91 3e 9e bc 11 3f
       -0.5031282 -0.25212264 0.2847552 0.5692843
000160 f5 44 35 be f3 d1 de be e9 ca 46 3e 40 57 85 bd
       -0.17702086 -0.43519554 0.19413342 -0.06510782
000170 50 df ad 3e 2f 28 82 be 3c 0c 9e be ba 0b 6f bc
       0.33959436 -0.25421283 -0.3086871 -0.014590198
000180 88 76 71 be b7 a8 bd 3e 8a 7c 8b be 80 4e 0f 3f
       -0.23580372 0.37042782 -0.27243453 0.55979156
000190 15 f8 e8 3e 5a fa e4 3e 64 89 12 3f 5c 39 05 3f
       0.45501772 0.44722253 0.5724089 0.5204065
0001a0 52 fc e2 3e 0c e5 bd 3e cd 8e 40 3e a8 54 51 3e
       0.4433313 0.3708881 0.18804474 0.2044245
0001b0 dd d2 44 be 36 54 03 bf f9 71 29 3f 19 09 9d be
       -0.19221063 -0.5130037 0.66189533 -0.30671003
0001c0 d6 ee f9 be c2 57 5f 3d 4c 4b 64 be 6a a3 1b bf
       -0.4881503 0.05452705 -0.22294348 -0.60796225
0001d0 ca eb 55 be 8a 48 d2 be d7 48 46 3e 1f 2e 0c bf
       -0.20890728 -0.41070968 0.19363724 -0.54757875
0001e0 ae f1 bb 3e 05 f2 e6 3e cb e1 79 be ec fc 2e bd
       0.36707824 0.4510652 -0.2440254 -0.042721674
0001f0 bf c4 ed be 28 df 05 3e f4 b8 0c 3e 05 dc 7a bd
       -0.46439168 0.13073409 0.13742429 -0.061244983

encoder_variable_selection.flattened_grn.gate_norm.glu.fc.bias f4 [16]
000000 1f d2 c9 bd 9f 4a 3d 3e 33 19 16 bd 4e fb 06 3e
       -0.098545305 0.18485497 -0.036645126 0.13181803
000010 20 1f 76 bd 6a ed 5c 3e 9c e7 14 be b2 26 4c be
       -0.060088277 0.21574941 -0.14541477 -0.19936636
000020 26 4c 21 be 7c 0a 3d 3e 06 97 bb bd 7e 8c e6 bd
       -0.15751705 0.1846103 -0.09159665 -0.112572655
000030 90 e1 e8 bc eb a5 76 be 79 f9 98 bc 75 f2 e1 bd
       -0.02842787 -0.2408673 -0.018673645 -0.11032573

encoder_variable_selection.flattened_grn.gate_norm.add_norm.norm.weight f4 [8]
000000 11 f5 60 3f b6 fb 92 3f 62 b8 7e 3f f5 4b 92 3f
       0.8787394 1.1483066 0.99500096 1.142943
000010 fe 44 92 3f de b7 4b 3f b5 1e 5e 3f a4 0f 57 3f
       1.1427305 0.79577434 0.86765605 0.8400824

encoder_variable_selection.flattened_grn.gate_norm.add_norm.norm.bias f4 [8]
000000 fe 10 9a bd ff ac 23 3e d2 fe 52 3b 71 45 2d be
       -0.07522772 0.15983962 0.0032195342 -0.16921021
000010 9c a6 e8 bd df 5b dd 3d 48 59 10 be b4 f0 48 be
       -0.11359903 0.10808539 -0.14096558 -0.19623071

encoder_variable_selection.single_variable_grns.time_idx.resample_norm.mask f4 [16]
000000 17 33 aa 3d cd d7 98 3d a9 85 ee bd 1c 66 48 be
       0.08310526 0.07463036 -0.116465874 -0.19570202
000010 db b3 22 3e 04 da 4c bc 9e 8c 5d 3e 3c 04 cd bd
       0.15888922 -0.012503151 0.21635672 -0.10010573
000020 9a 22 24 be c6 74 0b be 50 20 fc 3d c5 8a 98 bd
       -0.16028824 -0.13618764 0.123108506 -0.07448343
000030 36 f4 5b bc 43 cf 20 3e c5 e5 4c be 97 47 12 3d
       -0.013424924 0.15704064 -0.20009525 0.035712805

encoder_variable_selection.single_variable_grns.time_idx.resample_norm.norm.weight f4 [16]
000000 7e 03 8b 3f 94 37 88 3f b1 81 69 3f 92 e9 51 3f
       1.0860441 1.0641961 0.9121352 0.81997025
000010 eb 0b 95 3f fb ce 84 3f 88 9f 94 3f 74 67 66 3f
       1.1644262 1.0375665 1.1611185 0.90001607
000020 f3 b2 56 3f 93 c3 5e 3f 5c d0 8f 3f da f4 72 3f
       0.83866805 0.8701717 1.1235461 0.94904864
000030 dc de 78 3f 66 ba 94 3f c6 fc 5a 3f 5f bd 71 3f
       0.97215056 1.1619384 0.8554195 0.9442958

encoder_variable_selection.single_variable_grns.time_idx.resample_norm.norm.bias f4 [16]
000000 15 17 ac 3d 67 3d bb 3d b1 1c 90 bd a6 ec 0f 3e
       0.0840284 0.09142571 -0.070367225 0.14055118
000010 e4 01 34 be 3a 20 8c bd ed 77 63 3e 30 03 cb bd
       -0.17578846 -0.06842084 0.22213717 -0.09912717
000020 31 e1 0e be 98 72 27 bd 02 9f 1c 3d 08 21 e3 bd
       -0.13953091 -0.04088077 0.03823758 -0.110902846
000030 fe 8c 25 3d 83 b8 12 be b7 db e5 3d de 1c ec 3d
       0.040417664 -0.14328198 0.11223548 0.115289435

encoder_variable_selection.single_variable_grns.time_idx.fc1.weight f4 [8, 8]
000000 15 5a 33 3f 63 40 82 be a0 04 65 3e 0e f5 02 bf
       0.7005933 -0.25439748 0.22365046 -0.51155174
000010 c1 65 f8 be a5 f5 0c 3f 0c 97 c7 3e 2e 13 14 be
       -0.48515132 0.55062324 0.38982427 -0.14460441
000020 6a 47 a8 3e 51 8d f2 be bf e6 8e be ab 57 3b be
       0.32866985 -0.4737344 -0.2791042 -0.18295161
000030 88 b9 18 3d c9 91 30 3f 69 61 8c 3e d4 77 05 3f
       0.03728631 0.6897245 0.27418068 0.5213597
000040 5e 57 fa 3e 7e 67 6f be 07 eb 73 3e 39 b7 2e 3d
       0.4889478 -0.23379323 0.23820125 0.042655203
000050 1b 45 91 be 42 7f 64 bf ab 1c 37 3f 2d f3 c0 be
       -0.28373036 -0.8925668 0.7152812 -0.37685528
000060 37 db 94 3e de 22 13 bf f3 c7 8d 3e da ba 06 3e
       0.29073498 -0.5747508 0.27691612 0.13157216
000070 1e b3 b8 3d 9c 04 78 be 72 ea 8a 3e ec 6d 9b 3d
       0.09018539 -0.24220508 0.27131993 0.07589325
000080 fb 7f 20 3f 0a cd 9a be a1 e6 4a bf ca 30 b4 3c
       0.6269528 -0.30234557 -0.7925816 0.02199592
000090 70 28 34 be 31 04 99 be cf 6b 56 bf 4a 43 4b bf
       -0.1759355 -0.2988601 -0.8375825 -0.7939955
0000a0 88 aa 8b 3e 51 58 d3 be 1f 25 cd 3d 6b ec 68 bf
       0.27278543 -0.41278318 0.10016846 -0.90985745
0000b0 67 d2 d9 bd ee 33 93 be 98 db 7f 3c 4b f2 29 3e
       -0.10635834 -0.28750557 0.01561632 0.16596334
0000c0 05 2d a7 3e e8 01 66 3f 49 9a 88 3f 1d 70 2e 3e
       0.32651535 0.8984666 1.0672084 0.17034955
0000d0 a4 02 6a be 2b c7 3c 3f 62 5e ce 3c c9 1f 04 bf
       -0.2285257 0.73741406 0.02519149 -0.51611
0000e0 34 4b 12 3d e8 5c f5 3d 1b 22 16 be d0 16 22 bf
       0.03571625 0.11980611 -0.14661448 -0.6331606
0000f0 58 ae bc be 0c f4 4a 3f 4a a5 91 3e 06 d0 d6 be
       -0.36851764 0.79278636 0.28446418 -0.41955584

encoder_variable_selection.single_variable_grns.time_idx.fc1.bias f4 [8]
000000 cd 5b d2 bd ed 01 c4 3d 85 4d 63 be e5 e0 19 bc
       -0.10271416 0.0957068 -0.2219754 -0.009391998
000010 84 5a af 3d b1 7c c4 bd 7a c4 ce 3d 01 29 3c bd
       0.08562186 -0.095940955 0.10096069 -0.045937542

encoder_variable_selection.single_variable_grns.time_idx.fc2.weight f4 [8, 8]
000000 3f 2c 3a 3f 7d 2c 05 3e 3f a6 d3 bc 65 e3 a4 3e
       0.72723764 0.13005252 -0.025836108 0.32204738
000010 06 88 9f be 7a 44 85 3d 0f 64 cd be d1 32 d8 3c
       -0.31158465 0.065072015 -0.401154 0.026391419
000020 94 15 f1 be cf 1f 01 bf be 71 a9 3e 9e 2f 90 3e
       -0.47086775 -0.5043916 0.3309459 0.2816133
000030 21 ae c2 be 19 bf 74 bd dc f2 e6 3b b5 66 55 bf
       -0.38023475 -0.059752557 0.007047994 -0.83359843
000040 5b bd be 3e 30 e8 95 bc 72 b2 38 be da 23 7f 3f
       0.37253842 -0.018299192 -0.18036821 0.9966408
000050 55 50 cc 3e 17 b9 86 be b9 f8 9c be 9b 53 1e bf
       0.39905038 -0.26313087 -0.3065851 -0.6184632
000060 46 6a dd be 78 7c 09 bf 5a f2 03 bf 44 17 ad 3e
       -0.43245143 -0.5370555 -0.51541674 0.33806813
000070 9d f1 23 3e a7 4b 6c be 78 1c 1d bf bb 75 9d 3e
       0.16010137 -0.23075734 -0.61371565 0.30753884
000080 6f 4e 55 3d 95 29 ae 3e 1d 7b 6a 3f 95 41 96 3f
       0.052076753 0.340161 0.91594106 1.1738764
000090 ee 26 03 3d b4 f0 26 3f a4 39 64 be 8f 1e fa be
       0.032019548 0.65211034 -0.22287613 -0.4885144
0000a0 f5 27 0c bf 2b 1f 7d be 0b 01 09 be af d7 85 bd
       -0.5474847 -0.24718921 -0.13379304 -0.06535279
0000b0 8d 83 d1 be cd 66 ca 3e b4 69 02 bf 07 31 ba 3e
       -0.40920678 0.39531556 -0.5094254 0.3636553
0000c0 ee 11 a1 3f a6 cd 80 bf 16 8e fb 3e b1 e6 4f be
       1.2583597 -1.0062759 0.4913184 -0.20302846
0000d0 ec 6a 43 bf 14 0e aa 3e 69 4c 57 bd 7b 34 04 bd
       -0.76335025 0.33213866 -0.052563105 -0.03227661
0000e0 44 ce d4 be 83 ec 43 be e1 ad 48 3e 8a 1b 10 3e
       -0.41563618 -0.19133191 0.1959758 0.14073005
0000f0 30 50 91 3f 91 a1 91 bf 64 07 b0 be 9a 82 09 bf
       1.1352596 -1.1377431 -0.3438064 -0.5371491

encoder_variable_selection.single_variable_grns.time_idx.fc2.bias f4 [8]
000000 7d ab 02 be 22 50 19 be 2f 65 c6 bd 7e 94 a3 3d
       -0.1276073 -0.14971974 -0.09687268 0.07987307
000010 84 5f 69 be aa c9 ad bd 13 51 cb bd 38 bc a5 3d
       -0.22790343 -0.0848573 -0.09927573 0.080925405

encoder_variable_selection.single_variable_grns.time_idx.gate_norm.glu.fc.weight f4 [32, 8]
000000 41 f9 86 be cc e7 82 3e e5 ea 9e 3d b9 e8 1a 3e
       -0.2636204 0.25567472 0.07759646 0.15127839
000010 18 eb 8e 3e 03 e7 03 be 1e 05 ea bc 0f 37 6f 3e
       0.27913737 -0.12881093 -0.028566893 0.23360847
000020 b0 82 bb 3e 60 51 a2 be 47 d2 84 3e 77 85 6a be
       0.36623144 -0.3170271 0.2594168 -0.22902475
000030 a5 7f c0 be f8 f2 40 bd c1 52 0a bd 48 2c 02 3e
       -0.37597385 -0.047106713 -0.033770327 0.12712204
000040 f4 71 22 be e1 6f b0 3e ac fb f2 bc b7 88 48 3e
       -0.15863782 0.34460357 -0.029661022 0.19583403
000050 46 eb 80 3d 19 dd 86 be 9e 35 7c 3e d3 2d e0 bd
       0.06294875 -0.2634056 0.24629828 -0.1094624
000060 30 6a c5 bd 56 d4 0b bf 6f 54 81 3e 60 9a aa be
       -0.09639394 -0.54620874 0.2525973 -0.33320904
000070 15 c8 03 bf a0 05 b8 be 06 0a 83 bd b8 21 91 be
       -0.51477176 -0.35941792 -0.06398396 -0.28346038
000080 a5 74 be bd d4 32 99 3d 7b c0 d7 3b 29 b7 e5 bd
       -0.09299592 0.07480398 0.0065842248 -0.11216576
000090 d2 95 f8 3d 2b 35 fd 3d 32 aa 72 3e 35 54 ca 3d
       0.12137951 0.123636566 0.23697737 0.098793425
0000a0 40 0d 4b be d5 fd 04 3e 74 cd 14 3e c5 c5 aa 3e
       -0.19829273 0.12987454 0.14531499 0.3335401
0000b0 4a 5c 66 be cd f2 ba 3d aa 41 60 3d 28 de 6f bd
       -0.22496143 0.09128342 0.054750122 -0.058561474
0000c0 3c 69 7e be 2c cc d8 bc 27 d7 89 3d bb 69 12 be
       -0.24844831 -0.026464544 0.0673049 -0.14298145
0000d0 c5 09 0d bf ba f4 e6 be 2e 3d a3 be bd 29 6d 3e
       -0.5509303 -0.45108587 -0.31882614 0.23160453
0000e0 93 24 5d be 95 d8 aa bd 83 42 be bb 30 4c a6 bd
       -0.21595983 -0.08342091 -0.0058062687 -0.0812
0000f0 be 59 50 bd 9c 2d 27 3e c6 1b 2b bd dd 59 67 be
       -0.050866835 0.16325992 -0.041774534 -0.22592874
000100 33 b9 50 be 27 93 4b bd ea 8d 04 3d 1b 44 71 3e
       -0.20383148 -0.049700882 0.032361902 0.23561136
000110 b0 b4 81 bd be aa cd 3d d1 e8 0f be 55 4f bb 3e
       -0.063332915 0.10042332 -0.14053656 0.36583963
000120 1b 3c d8 be 39 75 cd 3e b5 35 ed 3e cd 1b eb 3d
       -0.42233357 0.40128496 0.46330038 0.11479912
000130 59 2d b4 3d 29 fe 15 be 1d 6e 9e be 9b ac 33 be
       0.08797712 -0.14647736 -0.30943385 -0.17546313
000140 a2 8d 72 3c bf b1 0e 3e 4a b4 5f bd 88 5f 71 3e
       0.014804276 0.13934992 -0.054615296 0.23571599
000150 c4 43 89 3c 02 d7 30 3e 6d 2a 69 3e dc 27 21 3e
       0.016755946 0.17269519 0.2277009 0.15737861
000160 55 73 be be ad a5 c0 bd 22 8e bd 3c 7e f0 1e 3e
       -0.37197366 -0.094066 0.023139063 0.15521428
000170 11 fd ae 3e d1 70 c1 be e2 c9 ec 3d c0 6f 6c 3e
       0.3417745 -0.37781385 0.115619436 0.23089504
000180 bd c5 f3 3e 14 e6 cd be c3 37 a0 be c7 96 38 3e
       0.476118 -0.40214598 -0.31292543 0.18026267
000190 70 db be 3d 3a 70 86 be 9e 2f a7 ba ff 48 2f be
       0.09319198 -0.26257497 -0.001275528 -0.1711769
0001a0 d1 76 a2 be a3 cf 3f 3e f3 29 85 3e 0a 85 91 3e
       -0.31731275 0.18731551 0.26008567 0.28421813
0001b0 15 bb 88 3d b5 08 8a be 7a c2 37 3d 97 82 45 3e
       0.06676308 -0.26959768 0.0448632 0.19288097
0001c0 bd ef eb 3d b0 07 95 be 74 a6 48 3e aa a0 97 3e
       0.11520336 -0.29107428 0.19594747 0.29614764
0001d0 b9 28 28 bd c7 eb be be b9 96 2d be ed a4 99 3e
       -0.04105446 -0.3728926 -0.16952027 0.3000864
0001e0 01 79 a1 be 00 46 93 be 3c 17 cb 3b bd e0 d7 3e
       -0.3153763 -0.28764343 0.006197838 0.4216365
0001f0 cb e2 8b be 0e de 2e be c2 76 33 3e 9d a8 97 3e
       -0.27321467 -0.17076895 0.17525771 0.2962083
000200 4d a1 34 3e e7 d9 33 3e e8 bc 93 3e 31 cf 25 bd
       0.17639656 0.17563592 0.28855062 -0.040480796
000210 e9 d6 b5 3e 4d a3 98 bd 7c 3a a5 be f9 d6 8f be
       0.35515526 -0.07453022 -0.32271183 -0.280937
000220 ba 84 e2 bd 28 b4 00 be 56 15 dd 3d 89 60 07 bf
       -0.11060472 -0.12568724 0.10795085 -0.52881676
000230 39 69 b9 be 86 72 bb 3e 54 0f 14 bc 12 09 d7 3d
       -0.3621309 0.36610812 -0.009036858 0.10499777
000240 c6 ba b5 be de 54 1f bd c1 e6 8a 3e 35 b7 ca 3e
       -0.3549406 -0.038899295 0.27129176 0.395929
000250 1a 6c b4 3e 97 96 4e 3d b1 63 c4 3e 26 b0 d0 be
       0.35238725 0.050436582 0.38357309 -0.4075939
000260 ae 08 e5 3e 1f 43 95 be 76 c9 8c 3d 2a d5 19 bd
       0.44733185 -0.29152772 0.06874363 -0.037556805
000270 c1 33 6b be 06 9a 28 be fe 3d c5 3e 30 cb 18 be
       -0.22968961 -0.16465005 0.3852386 -0.1492126
000280 94 a4 31 3e ed df a3 bd b5 2e 3a be 9d d4 e7 3e
       0.17347938 -0.08001695 -0.1818188 0.452794
000290 df b6 69 3e 94 69 06 3e bc e2 0f 3e 09 79 b5 3e
       0.22823666 0.13126212 0.14051336 0.35443905
0002a0 06 e0 a7 be b2 36 8d 3e 95 52 9b bd 16 2c e1 bd
       -0.32788104 0.27580792 -0.07584111 -0.10994737
0002b0 c2 94 b7 3e 0c 7b 15 3f d9 17 de be 30 c1 27 be
       0.3585568 0.5839088 -0.4337757 -0.16382289
0002c0 19 a4 a1 3d 36 6a 10 bd 00 ef da 3e 0a 94 4b be
       0.07892627 -0.03525754 0.42760468 -0.19880691
0002d0 96 d3 d9 be 3e bf 48 be 89 0c 13 bf 6f 9d bc 3d
       -0.4254424 -0.19604203 -0.57441 0.092097156
0002e0 2c 1c 01 bf fd 4b 02 3f de 0f 6b be a0 7d d9 3e
       -0.5043361 0.508972 -0.22955272 0.42478657
0002f0 c2 91 b2 3d 64 e6 60 be 80 79 6b bd 1f 36 d7 be
       0.08719207 -0.21962887 -0.05748892 -0.4203348
000300 8f 12 3f be 66 a6 3b 3e 8a bc 94 be 1c ce d6 3e
       -0.18659423 0.18325195 -0.29050094 0.41954124
000310 4f ff 9e bc 7c 38 98 3d 41 3d 94 3c 30 5f 4c 3d
       -0.01940885 0.074326485 0.018095614 0.049895465
000320 56 2e b9 bc 27 98 a8 3c 1d db 5b 3e ee 55 07 be
       -0.022605103 0.020580364 0.21470304 -0.13216373
000330 32 3c b5 3e 6f 2e 9c be 3b 4c ed 3e 67 61 60 3e
       0.35397488 -0.30504176 0.46347222 0.21912156
000340 f9 78 fb bd 4e 1b 75 3e d6 b7 fb be c0 ab 7d 3e
       -0.12278933 0.23936197 -0.49163693 0.24772549
000350 27 e1 07 3f 59 ba 78 bd 6b 08 48 3d 73 e0 b3 be
       0.5307793 -0.06072459 0.048836153 -0.3513218
000360 5b 79 8a 3e e8 c2 34 3e 03 23 04 be de 00 eb bd
       0.27045712 0.17652476 -0.12903981 -0.11474775
000370 29 92 83 be f4 87 01 3d 23 21 b2 be 1c 10 6d 3e
       -0.2569745 0.031623796 -0.34790906 0.23150676
000380 8e 20 50 be 25 72 4c 3e ce ad 1c be 60 fb 2a 3e
       -0.20324919 0.19965418 -0.15300676 0.16697454
000390 f3 93 6d 3e 6a 06 22 be 55 c6 56 3d 25 e2 87 be
       0.2320097 -0.1582276 0.052435238 -0.26539722
0003a0 90 6d 0c bc 27 cf 0f be 60 c9 ad be 9e 76 2c 3d
       -0.008571044 -0.14043866 -0.339427 0.04210531
0003b0 60 0c f7 bd ac 95 66 3e ec 6b 74 bc e4 fa c7 3e
       -0.12062907 0.22518033 -0.014918309 0.39058602
0003c0 44 94 86 bd 51 6a 83 3e 92 bd be 3e 73 a9 68 be
       -0.06571248 0.2566705 0.37254006 -0.2272089
0003d0 3e 6c 9e 3e 78 f8 87 be 68 f9 ad 3e cb 42 86 3e
       0.30941957 -0.26556754 0.33979344 0.26222834
0003e0 11 59 b1 3e 9a 84 34 be 82 8a 91 3e 7b a4 c7 3e
       0.34638265 -0.17628708 0.28425986 0.38992676
0003f0 c8 f6 93 bd e3 47 a4 3e 13 05 8b 3e 2b a1 da 3e
       -0.07224804 0.32086095 0.2715231 0.42701086

encoder_variable_selection.single_variable_grns.time_idx.gate_norm.glu.fc.bias f4 [32]
000000 e7 61 a6 3d f7 a1 b6 3d 11 0e 94 bd 4a c4 1a 3e
       0.08124142 0.08917611 -0.072292455 0.15113941
000010 ab b3 2e be 2d f4 74 bd 7d 79 65 3e ca 6f c9 bd
       -0.17060725 -0.059803177 0.22409625 -0.09835775
000020 8d 8b 14 be 17 b8 d5 3b f3 5d e3 3c 88 10 db bd
       -0.1450636 0.0065221894 0.02775476 -0.106965125
000030 25 9b 3e 3d 14 37 0b be ec 76 a9 3d 30 4a f3 3d
       0.046534676 -0.1359523 0.08274636 0.118793845
000040 ea 05 a9 bd a3 5d b2 3d ea 1f 43 be b7 4a 2e 3e
       -0.08253081 0.08709266 -0.19055143 0.17020689
000050 fc d9 21 be dd 43 36 be bd b6 03 3e e9 d6 27 be
       -0.1580581 -0.17799325 0.12862678 -0.16390575
000060 09 50 c3 bd 04 66 08 bd 88 ec 3c be b2 9a e5 bd
       -0.0953675 -0.033300415 -0.18449605 -0.112111464
000070 2e 4e 70 3d 15 66 8f 3c 5b d0 1c 3d 7f fe b3 3d
       0.058668308 0.017504731 0.03828464 0.08788776

encoder_variable_selection.single_variable_grns.time_idx.gate_norm.add_norm.norm.weight f4 [16]
000000 c5 5a 89 3f 45 3a 87 3f c0 0b 5c 3f e6 0f 51 3f
       1.0730826 1.0564657 0.8595543 0.81664884
000010 39 0d 90 3f df be 71 3f e4 b7 a0 3f 10 f1 65 3f
       1.1254035 0.9443187 1.2556119 0.8982096
000020 42 52 57 3f 35 0a 66 3f 36 55 92 3f be d2 6d 3f
       0.8410989 0.89859325 1.1432254 0.9289969
000030 36 3c 7a 3f 19 2b 95 3f 36 9a 7a 3f 19 15 77 3f
       0.97748125 1.1653777 0.9789156 0.9651657

encoder_variable_selection.single_variable_grns.time_idx.gate_norm.add_norm.norm.bias f4 [16]
000000 71 31 a9 3d 6a a8 ad 3d 77 0d 94 bd 40 1d 0c 3e
       0.08261383 0.08479388 -0.07229131 0.13683033
000010 3a 64 24 be c2 d6 38 bd ab bf 5f 3e 36 1c ca bd
       -0.16053858 -0.045126684 0.2185046 -0.09868662
000020 b2 2e 08 be 40 a5 ef 3d 06 01 dc 3d 6f 81 a2 bd
       -0.13299063 0.11701441 0.10742383 -0.07934844
000030 3d ca 3c 3d 3b fc 1d be f8 9f 16 3d ea ce e5 3d
       0.046091307 -0.1542825 0.03677365 0.11221106

encoder_variable_selection.single_variable_grns.T2M.resample_norm.mask f4 [16]
000000 16 cf 4c be 2a 81 b8 3d 75 60 03 be 96 50 04 3e
       -0.20000872 0.09009011 -0.12829764 0.12921366
000010 fd bb 5f 3e a7 7b e3 bc ee cf 76 be 0f e9 93 3d
       0.21849056 -0.027768923 -0.24102756 0.07222187
000020 9a cc 92 3c 4c 3e 2a 3e 23 5b 07 3e 7e 66 8f bd
       0.017919827 0.16625327 0.1321836 -0.07001971
000030 16 29 c2 3d d8 72 dd 3c a7 af c7 bd 1b 95 f3 bd
       0.09480493 0.0270323 -0.097503 -0.11893674

encoder_variable_selection.single_variable_grns.T2M.resample_norm.norm.weight f4 [16]
000000 9c 9f 62 3f ac 9a 8a 3f 09 e0 60 3f 1b a9 8e 3f
       0.88524795 1.0828452 0.8784185 1.1145357
000010 23 da 95 3f 66 17 7e 3f 67 74 42 3f 3b 17 8a 3f
       1.1707195 0.99254453 0.75958866 1.0788339
000020 9b e5 7e 3f f3 a2 8e 3f 96 2d 95 3f 9a 6d 74 3f
       0.995691 1.1143478 1.1654537 0.9547974
000030 aa 71 8d 3f 2c dc 87 3f 74 23 6d 3f 49 54 69 3f
       1.1050313 1.0614066 0.9263222 0.91144234

encoder_variable_selection.single_variable_grns.T2M.resample_norm.norm.bias f4 [16]
000000 2c 3b 1c 3d 37 90 82 3d 73 11 14 be 8a 7b f1 3d
       0.03814237 0.06375163 -0.14459781 0.11791141
000010 b4 36 84 be 16 b0 14 3d c8 13 32 3e 75 f6 88 bd
       -0.25822985 0.03630074 0.17390358 -0.06687633
000020 c2 59 03 bd f5 3f 91 3c 2f 7a 0a 3e 05 a7 31 bd
       -0.03206802 0.017730692 0.13523172 -0.043372173
000030 e5 4a a6 bd 3b 4b 29 bd 31 21 ad 3d 2f 0b 3b 3d
       -0.08119754 -0.04133151 0.084535964 0.045664962

encoder_variable_selection.single_variable_grns.T2M.fc1.weight f4 [8, 8]
000000 20 2e 5b be ea 4e 2b bf b4 6b 3c 3d 8a 89 b7 3d
       -0.21404314 -0.6691729 0.04600115 0.0896178
000010 86 9b 07 be 5f 08 f3 be 6a 11 39 bf 94 54 f7 3e
       -0.13242921 -0.47467324 -0.72292197 0.48306715
000020 89 87 e6 3d 72 7c ec bd 2e 85 a3 3e f4 e2 8e 3f
       0.1125632 -0.115471736 0.31937546 1.1163011
000030 30 72 d1 3d 4d 48 30 bf 30 61 d4 be e5 c5 06 3f
       0.10226858 -0.6886032 -0.41480398 0.52645713
000040 b6 23 a7 3d 94 2a 9c 3f a7 57 34 3f ad d9 d7 be
       0.08161108 1.2200494 0.70446247 -0.4215826
000050 1f 79 2d 3f cc 76 17 bd a3 fc 58 3f cc 7a c9 be
       0.6776294 -0.036978528 0.84760493 -0.393515
000060 1b 8d 93 be 0f 15 a2 3e 37 ae 7e 3f 19 75 3e bf
       -0.28818592 0.3165669 0.9948458 -0.74397427
000070 8f 19 08 bf 22 f8 da 3e 83 61 3d 3f fd a7 b6 3e
       -0.53164 0.42767435 0.73976916 0.3567504
000080 25 69 c1 be 4e b7 1b 3f b3 12 28 be 59 eb d5 3e
       -0.3777553 0.60826576 -0.16413383 0.4178112
000090 34 30 5f bc 97 a0 29 bf c8 11 2e bf a6 63 4f 3e
       -0.013622332 -0.66260666 -0.6799588 0.20252857
0000a0 d0 7d 4a 3f 4d 21 1a 3f 00 83 f7 b9 33 70 52 bf
       0.79098225 0.6020706 -0.00047209114 -0.8220245
0000b0 40 82 a0 3a de 3a 64 bf 86 fa 62 3f bf 7b d7 be
       0.0012245849 -0.89152324 0.8866352 -0.42086598
0000c0 4a 6f fd 3e 78 87 59 3f ad eb cb be 44 21 5e 3e
       0.4949897 0.84972334 -0.39828244 0.21692377
0000d0 be ba 40 bf 6d 8a b2 3c 56 87 b8 3e 1f f6 b0 bd
       -0.75284946 0.021794522 0.36040753 -0.08640694
0000e0 96 ff 7a be 94 96 c0 3e 53 fe 6f 3f 22 61 a2 3d
       -0.24511561 0.37614882 0.9374744 0.07928683
0000f0 64 cd 40 bf 09 2d 4b 3e c9 35 81 be 97 45 f8 be
       -0.753134 0.19841398 -0.25236347 -0.48490593

encoder_variable_selection.single_variable_grns.T2M.fc1.bias f4 [8]
000000 8a 87 3d be ca c7 f4 bd c2 2b ed bd 0c 99 30 3e
       -0.18508735 -0.11952169 -0.11580612 0.17245883
000010 26 c5 02 be 12 bb b1 be 90 05 0b 3e fa 63 27 3e
       -0.12770519 -0.34713036 0.1357634 0.16346732

encoder_variable_selection.single_variable_grns.T2M.fc2.weight f4 [8, 8]
000000 a5 81 62 be 8c cb b6 be 09 3f 0a 3d ed 6c 12 3e
       -0.22119768 -0.3570217 0.03375152 0.14299364
000010 9f 03 9d bf 11 49 b5 bd ff 9b 18 be d8 2f 40 3f
       -1.226673 -0.08851827 -0.14903258 0.75073004
000020 8d 28 ae bf dc 1d 97 be 27 dc 99 be 28 0b 0d bf
       -1.3606125 -0.29514968 -0.30050775 -0.5509515
000030 0f 23 81 3f e7 25 87 3f 52 9e 6e 3f 42 1a 3b 3b
       1.0088824 1.0558442 0.9321033 0.0028549586
000040 72 0f f0 3d 25 13 b6 be 62 67 ab be f9 26 fb 3e
       0.11721696 -0.3556148 -0.33477312 0.4905317
000050 f7 5c 6d be ac 53 57 bf a8 fc 06 3e 8c 5c 5a 3f
       -0.23179995 -0.8411205 0.13182318 0.85297465
000060 34 aa 9b 3e 82 1a 85 3f 3a e9 78 be 27 29 8f 3e
       0.30403292 1.0398715 -0.24307719 0.27961084
000070 b4 28 d5 3e 2c 2b 98 3e a1 69 8f be 3d 80 1f be
       0.41632617 0.29720438 -0.28010276 -0.15576263
000080 68 48 49 bf 13 40 14 3d f3 84 47 3d 7e 7e 70 bf
       -0.7862611 0.03619392 0.048710775 -0.9394301
000090 3d d0 a2 3e 02 ce c7 3e 81 4a bd 3c aa 0e 94 be
       0.31799498 0.3902436 0.023106815 -0.28917438
0000a0 cc 69 6f bf 22 82 da 3e 7f 41 8f bf 78 2f 2f 3e
       -0.9352081 0.42677408 -1.1191863 0.17107952
0000b0 51 d0 1c 3f 08 58 e6 bc 8e 98 08 3e 86 08 2a bf
       0.61255366 -0.028118148 0.13339445 -0.66419256
0000c0 f0 64 81 3e d3 d8 f0 3e 58 ad e0 3e 9d 97 78 be
       0.25272322 0.47040424 0.4388225 -0.24276586
0000d0 4f ac 87 be 30 81 5d bf d4 42 66 bd 3f 6e 22 3e
       -0.2649865 -0.8652525 -0.056216076 0.15862368
0000e0 f5 e4 76 bd af e8 84 be 37 62 09 3e 7a cd 7d 3f
       -0.060276944 -0.25958773 0.13416372 0.9914166
0000f0 de 7a 64 3e 36 b1 5b be 60 c8 0f 3b fc 87 35 3d
       0.22312495 -0.2145432 0.0021939501 0.044319138

encoder_variable_selection.single_variable_grns.T2M.fc2.bias f4 [8]
000000 bf e3 d5 bc b5 1c da 3d 76 2a 77 3e 17 77 8b bd
       -0.026109574 0.10650007 0.24137291 -0.06809824
000010 3e 43 a5 3d 6e 88 58 bc 86 0f 34 3e c2 b9 02 3e
       0.08069466 -0.013216121 0.17584047 0.12766173

encoder_variable_selection.single_variable_grns.T2M.gate_norm.glu.fc.weight f4 [32, 8]
000000 fe 2d 20 bc 8d 48 5e be dd e9 03 bd 0e 87 81 3d
       -0.00977659 -0.21707363 -0.03220545 0.06324588
000010 64 4c b7 be 3b f1 64 be 8e 40 ae be 7d 44 ef 3e
       -0.3580047 -0.22357647 -0.34033626 0.4673194
000020 da 01 a2 3d 71 ff 9d 3e 4d 02 a8 bd 71 ba 39 be
       0.079105094 0.3085895 -0.08203564 -0.18137528
000030 9a e6 ad 3e 03 b2 ea 3b 04 2f a8 3d 96 7d cc be
       0.33964998 0.007162334 0.082120925 -0.39939564
000040 93 8e d1 3e ab 76 08 3e d4 92 92 3e f2 5d c0 3e
       0.40929088 0.13326518 0.28627646 0.37571675
000050 77 c4 c1 be 02 37 89 3e 8d 38 2e 3e 19 31 27 3e
       -0.37845203 0.2679978 0.1701376 0.16327323
000060 85 e1 f5 bc b8 c9 8d 3e 1e 1e ad be 18 a9 c7 3d
       -0.030014763 0.27692962 -0.3381204 0.09749049
000070 da 73 8e 3e 08 04 b9 be dd 2e 2f 3e 01 01 a0 3e
       0.27822763 -0.36135888 0.1710772 0.31250766
000080 62 b0 c0 3e 33 90 c7 be ee bd 6d be ec 9a d4 3e
       0.3763457 -0.38977203 -0.23216984 0.41524446
000090 88 be 64 be 2e 47 63 bd 40 ba 06 3e 46 7e da bd
       -0.22338307 -0.055487804 0.13156986 -0.10668616
0000a0 e6 ef 99 be 93 f4 de bd e3 63 02 3f 32 6b 2e 3c
       -0.3006584 -0.108864926 0.50933665 0.010645675
0000b0 9d 0d e5 be fb bf 1f 3e 7f 8b ce 3e 72 4a 65 3e
       -0.4473695 0.15600578 0.40340802 0.2239168
0000c0 bc ed 70 3d e0 bf a3 bd b8 25 ab 3e 19 50 82 bd
       0.05882047 -0.079955816 0.33427215 -0.06362934
0000d0 4a 58 b8 3d 79 b1 ec be 7d 9a 40 3e 2d d7 b6 bd
       0.09001215 -0.4622915 0.18808933 -0.0892776
0000e0 d2 d9 89 3c 95 72 80 3e 92 d6 e2 3d ae 9a 47 be
       0.016827498 0.2508742 0.11076082 -0.194926
0000f0 e8 bc 14 3e cd 48 ca 3e 73 2f 4c 3e a1 64 42 bd
       0.14525187 0.39508668 0.19939975 -0.04745925
000100 1b af 90 3d 3a ab 3a be 5d 7d 94 3d 19 3c be 3e
       0.07064649 -0.1822938 0.07250474 0.37155226
000110 ca 77 4f be 80 72 a6 3e 7d 20 29 be e8 a6 84 be
       -0.2026054 0.32509232 -0.165163 -0.2590859
000120 6c de ba be e2 28 cb 3e 3a 75 ad be 04 a2 5e be
       -0.3649782 0.3967963 -0.338785 -0.21741492
000130 60 01 c9 3e 79 0a 8c be 06 76 4b 3e 0c b2 92 bd
       0.39258862 -0.2735174 0.19869241 -0.07162866
000140 fe 20 80 3d 17 ac cd 3d 3d 26 c4 3e d5 dd e9 3d
       0.06256293 0.10042589 0.38310423 0.11419264
000150 8c 28 2d be 85 73 1e be 78 c8 08 3d 2d 74 7c 3e
       -0.16909999 -0.15473755 0.033394307 0.24653693
000160 2d 7b 98 3e 0f 2e cf be 38 63 0a bd c7 30 6c 3e
       0.29781476 -0.40464827 -0.03378603 0.23065482
000170 aa 1d 55 be 14 36 af 3e 11 57 93 bd 1c 48 e4 3e
       -0.20812097 0.34220946 -0.07194341 0.44586265
000180 18 97 15 3e c4 da 77 3e e8 51 26 3d ce 1c cf 3e
       0.14608419 0.24204546 0.040605456 0.40451664
000190 f8 00 d9 bd f6 f1 8c bd 69 8e c0 3c e2 bf 50 be
       -0.10595888 -0.06882088 0.023505406 -0.20385697
0001a0 3e b5 0c 3e 07 c6 04 3f 6d a6 de be 67 f4 b6 3d
       0.13741013 0.51864666 -0.43486348 0.08933335
0001b0 72 76 07 3e 16 04 3b be 7f 3a 5f 3e 4d 7b fd bd
       0.13228777 -0.18263277 0.21799658 -0.123770334
0001c0 95 17 2d 3e 12 8c 98 3e 28 31 3e 3e 65 40 2c 3b
       0.16903527 0.29794365 0.18573439 0.00262835
0001d0 26 47 d0 3d 3e 06 02 3e 8c 29 42 3d f2 63 fd 3d
       0.101698205 0.12697694 0.047402903 0.12372579
0001e0 84 ae 39 be f7 41 11 3f 2c ed 50 3e 03 7c 73 3e
       -0.18132979 0.5674128 0.20402974 0.23777775
0001f0 5f ff 56 3e a1 02 04 be e5 10 55 be 0a 79 42 3e
       0.20995854 -0.12891628 -0.20807226 0.18991485
000200 c4 b7 7e 3e fa d9 93 3d ed d3 a2 bc 8a 2e aa bd
       0.24874789 0.0721931 -0.019876445 -0.08309658
000210 3d 19 fc be ec 1a 5e 3b 66 57 18 3d 57 61 09 3e
       -0.49238005 0.0033890558 0.037192725 0.13416038
000220 66 fe 89 bd d6 81 66 bd ec 98 f2 3d 0f af 55 be
       -0.06737976 -0.056276165 0.11845574 -0.20867561
000230 b3 98 59 be 1f ed 60 3e 1a 5f 4d 3e c6 78 c4 3e
       -0.21249656 0.21965455 0.2005581 0.38373393
000240 1d 1b f7 3d 8a 6e 0e 3e 0b 73 84 be f4 7a 5c 3e
       0.12065718 0.13909355 -0.2586902 0.21531278
000250 1a 17 15 be 07 c8 8d be bd 48 2a be 11 5f 44 be
       -0.14559594 -0.2769167 -0.1662931 -0.1917689
000260 bc 8c 3a be e5 5e a2 3d 96 69 09 bf 9b 68 ab 3e
       -0.18217748 0.07928256 -0.53676736 0.33478245
000270 fa 40 a5 be 24 08 cf 3e 72 b3 65 3e 86 0f 4e bd
       -0.32276136 0.40435898 0.22431734 -0.050307773
000280 43 e2 09 3e ef ed 80 3e 9c cc a8 be 69 10 c8 be
       0.13465218 0.2518153 -0.32968605 -0.3907502
000290 07 05 f6 3d 81 b2 49 be dd 30 50 be 58 01 58 be
       0.12012678 -0.19697 -0.2033114 -0.21094263
0002a0 da 0d 89 be 77 40 d2 be 5b ea 22 be 0e 47 4e 3e
       -0.2676838 -0.41064808 -0.15909712 0.20144293
0002b0 0e 0a eb be 5c 44 dc bd d4 aa ae be 2a 03 6e 3e
       -0.4590611 -0.10755226 -0.34114707 0.23243394
0002c0 b2 c1 97 3e db c8 81 be 22 8a 14 3e 90 f2 ba be
       0.29639965 -0.25348553 0.14505818 -0.36513186
0002d0 eb f8 46 bd e6 c8 91 3e 16 72 20 3e 70 a9 b7 3c
       -0.04857723 0.28473586 0.1566852 0.022419661
0002e0 51 cc b4 3e a7 f8 88 be cc 81 aa 3e 7d 61 b1 3d
       0.3531213 -0.26752207 0.33302152 0.086611725
0002f0 fb 49 41 3e da 0e 15 bf dd e5 c8 3e 96 3b 07 3f
       0.18875878 -0.58225787 0.39237872 0.52825296
000300 b1 04 88 3e d3 e9 94 3e 11 8c bb 3d 8b d1 38 3e
       0.2656608 0.29084644 0.09157575 0.18048684
000310 c8 cf a7 3e d1 04 cc 3d 45 0c 4b be de 5b 2b bc
       0.32775712 0.09961856 -0.19828899 -0.010458915
000320 0f 30 b7 3d d0 05 5a 3e f6 72 98 ba 40 7b 40 3d
       0.08944713 0.2129128 -0.0011630941 0.04699254
000330 1b 5a d5 3e 7f d5 2a 3d 6a e2 d3 bd 26 ed 65 be
       0.41670308 0.041707512 -0.103459194 -0.22453746
000340 e9 4d f9 bb 41 06 a6 be a7 79 36 3e c0 13 c2 3e
       -0.0076081646 -0.32426646 0.17819844 0.37905693
000350 59 d4 c6 be fe 21 b7 3d 2a e3 b3 bd 04 de 14 bd
       -0.38833883 0.0894203 -0.087835625 -0.036344543
000360 33 df e1 be 07 d6 0c be b3 2a 7b 3e 9a f3 be bd
       -0.441156 -0.1375352 0.24528007 -0.09323807
000370 da 8c c4 3d 17 44 9b 3d 35 9c 32 be 7c 2b 78 be
       0.09597178 0.075813465 -0.17442401 -0.24235338
000380 dc 53 1e 3e b7 a6 a2 3e f3 03 86 bd b0 37 ba 3e
       0.15461677 0.31767818 -0.06543722 0.3637061
000390 a5 8f a1 be 1c fe 6c be e3 44 bc 3d 23 a9 2f 3e
       -0.31554905 -0.2314381 0.091928266 0.17154364
0003a0 b1 06 0d 3e 56 e7 c5 3d a0 1f 34 3e 97 00 1e 3e
       0.13772084 0.096632645 0.17590189 0.15429913
0003b0 54 4e e8 be 0b 52 47 3d c7 e7 76 3e a7 35 9a 3e
       -0.4537226 0.048662227 0.24111854 0.30119058
0003c0 59 fd 23 3d 66 95 79 be 29 3b 8f bc dd 2b 0a 3e
       0.040036533 -0.24373397 -0.017484264 0.13493295
0003d0 3c 2b 41 3e a3 90 a4 3d 76 dc ed bd f0 28 90 3d
       0.18864149 0.080354 -0.11614315 0.07039058
0003e0 bc df bf 3e 4a 3d ff bd d1 7c 28 be 50 19 c3 3e
       0.37475383 -0.12462862 -0.16453864 0.3810525
0003f0 65 ec a4 3e 2e 56 68 be 2e 0d 4a be bb 1b 95 3d
       0.32211605 -0.22689125 -0.1973159 0.0728068

encoder_variable_selection.single_variable_grns.T2M.gate_norm.glu.fc.bias f4 [32]
000000 3c 67 ad 3c a0 3b 69 3d 02 fc 03 be 10 f8 d5 3d
       0.02116739 0.05694163 -0.12889102 0.10447705
000010 47 a1 89 be ee 63 48 3d 24 39 1d 3e 87 16 80 bd
       -0.26880857 0.048923425 0.15353829 -0.06254297
000020 6c 48 87 bc f8 8d 39 3c f5 1c 05 3e f1 f3 34 bd
       -0.016514026 0.011325352 0.12999327 -0.044177953
000030 f4 b1 8e bd ad 1f 71 bd ed 3e c2 3d 8a 07 d1 3c
       -0.069675356 -0.0588681 0.094846584 0.02551629
000040 42 7f f9 3d b5 6e ab bd 13 e0 c8 3b 4d 4d 93 bd
       0.121824756 -0.08370725 0.0061302274 -0.07192478
000050 18 eb e8 ba dd a0 65 3d 8d 4a 12 be 6e cc 71 bd
       -0.0017770259 0.056061614 -0.14286251 -0.05903285
000060 b2 ab bd 3c bb d0 12 3d a2 13 42 3c cf 59 69 bd
       0.02315316 0.035843592 0.011845501 -0.056970414
000070 e0 c1 87 bd 34 90 bc 3c 25 e7 0f be 73 7d 8e bd
       -0.066287756 0.02301798 -0.14053018 -0.06957521

encoder_variable_selection.single_variable_grns.T2M.gate_norm.add_norm.norm.weight f4 [16]
000000 1e f9 4a 3f ba 49 88 3f f9 df 59 3f 79 5b 8c 3f
       0.7928637 1.06475 0.8510738 1.0965415
000010 4e b6 93 3f cc d7 7f 3f b8 af 3e 3f c8 60 8d 3f
       1.154001 0.99938655 0.74486876 1.104516
000020 be d2 89 3f ff af 8c 3f 65 2d 98 3f d2 f3 6b 3f
       1.0767438 1.099121 1.1888853 0.92168915
000030 c0 a1 8b 3f 32 38 8b 3f 12 a5 6c 3f e5 d9 78 3f
       1.0908737 1.0876524 0.9243938 0.9720748

encoder_variable_selection.single_variable_grns.T2M.gate_norm.add_norm.norm.bias f4 [16]
000000 93 9e 10 3d 53 aa 44 3d ce 74 41 bd 2f cd 0a 3e
       0.03530748 0.048013996 -0.047230534 0.13554834
000010 95 f9 61 be e2 b9 3c 3d 22 1d 80 3e f7 07 a1 bd
       -0.22067864 0.04607571 0.25022227 -0.07862847
000020 a2 ef 62 bd 47 ee f0 3a ee 24 38 3e 35 ad e0 bc
       -0.055404313 0.0018381559 0.17982838 -0.027426342
000030 2d 3c ae bd 3f 55 92 bd c8 1b 1c 3d 6a c8 59 3d
       -0.08507571 -0.07145166 0.03811243 0.053169645
