ai_predict/ai/lightning_logs/version_24/checkpoints/epoch=1-step=16.ckpt (torch, 662004 bytes, 889 tensors)

prescalers.time_idx.weight f4 [8, 1]
0	0x3dad1576	0.08451359
1	0x3f0758a0	0.52869606
2	0xbf1e48da	-0.6182991
3	0xbf0d43fb	-0.55181855
4	0x3eb3919c	0.3507203
5	0x3e984ba6	0.29745215
6	0xbf11428d	-0.56742173
7	0xbd71d403	-0.05904008

prescalers.time_idx.bias f4 [8]
0	0x3e4ed6fa	0.20199195
1	0x3e571d3e	0.21007249
2	0xbe5887f4	-0.21145612
3	0x3f55d48e	0.8352746
4	0xbf2e8f15	-0.68187076
5	0xbef68b82	-0.4815331
6	0x3e57ca96	0.21073374
7	0xbe3b46a1	-0.18288662

prescalers.T2M.weight f4 [8, 1]
0	0xbe86e619	-0.26347426
1	0x3cc9a0bc	0.024612777
2	0xbee463e8	-0.44607472
3	0xbe3e2450	-0.1856854
4	0xbd9ae47f	-0.075631134
5	0x3ed01712	0.406426
6	0xbed7d194	-0.42152083
7	0xbf714423	-0.94244593

prescalers.T2M.bias f4 [8]
0	0x3f90a0fc	1.1299129
1	0x3e8fbf15	0.28075472
2	0xbf1e6561	-0.6187344
3	0x3f3384b5	0.7012437
4	0x3f2f7b29	0.685473
5	0xbf021d12	-0.5082561
6	0xbe157d6a	-0.14598623
7	0x3f1df557	0.61702484

prescalers.T2M_MAX.weight f4 [8, 1]
0	0xbea2a085	-0.31763092
1	0xbf1368a0	-0.5758152
2	0x3f3f5473	0.74738234
3	0xbe8229e1	-0.25422576
4	0x3ddbc47b	0.10730835
5	0xbf3ca687	-0.736916
6	0xbe193866	-0.1496292
7	0xbf0f9989	-0.5609365

prescalers.T2M_MAX.bias f4 [8]
0	0x3df3e7ed	0.11909471
1	0xbee30c11	-0.44345143
2	0xbf6d2c8f	-0.92646116
3	0x3f2d351d	0.6765917
4	0x3f465e80	0.77487946
5	0xbf23445c	-0.63776183
6	0x3f2a4cfd	0.66523725
7	0x3f556a42	0.8336526

prescalers.T2M_MIN.weight f4 [8, 1]
0	0xbf0d0f20	-0.55101204
1	0x3f4fa07e	0.81104267
2	0xbe49a0c9	-0.19690241
3	0x3f69f56d	0.91390115
4	0x3f4701ed	0.77737314
5	0xbf81a3da	-1.0128129
6	0x3f0e35b1	0.55550677
7	0xbe244d20	-0.16045046

prescalers.T2M_MIN.bias f4 [8]
0	0x3f106492	0.5640346
1	0xbf7caf5e	-0.9870509
2	0x3e4a9467	0.19783174
3	0xbf02faeb	-0.5116412
4	0xbefcea22	-0.4939738
5	0x3f8cdd79	1.1005088
6	0xbf315b15	-0.69279605
7	0x3f22fe8c	0.6366966

prescalers.PRECTOTCORR.weight f4 [8, 1]
0	0x3ee639e7	0.4496605
1	0xbe3f6845	-0.1869212
2	0xbe3572e8	-0.17719615
3	0x3f2882fd	0.6582487
4	0x3ed854b7	0.42252132
5	0x3e7b3732	0.24532774
6	0xbf0c20b0	-0.5473738
7	0xbf434a99	-0.762857

prescalers.PRECTOTCORR.bias f4 [8]
0	0xbf143028	-0.5788598
1	0xbde9ae97	-0.114102535
2	0x3f331df1	0.6996756
3	0xbe66ab34	-0.22526246
4	0x3f10d924	0.5658133
5	0x3f475564	0.7786467
6	0xbd25c95c	-0.040475234
7	0x3f0ef6ce	0.55845344

prescalers.RH2M.weight f4 [8, 1]
0	0xbf3f829a	-0.7480866
1	0xbf08c182	-0.5342027
2	0xbf08f695	-0.53501254
3	0x3f7a2c97	0.9772429
4	0xbe148afa	-0.1450614
5	0xbeb84fe5	-0.35998455
6	0x3f151873	0.5824043
7	0x3f141b57	0.5785422

prescalers.RH2M.bias f4 [8]
0	0x3f1b738c	0.60723186
1	0xbf90aebd	-1.1303326
2	0x3f56a5b2	0.8384658
3	0x3f20a894	0.6275723
4	0xbf266759	-0.65001446
5	0x3f587276	0.84549654
6	0xbf4f0663	-0.8086912
7	0xbee612fb	-0.44936356

prescalers.ALLSKY_SFC_SW_DWN.weight f4 [8, 1]
0	0xbf08ad1c	-0.53389144
1	0xbf001c11	-0.50042826
2	0xbf73ab35	-0.95183116
3	0x3f641605	0.890961
4	0xbe73cd1a	-0.23808709
5	0x3dc650cf	0.09683382
6	0x3f234955	0.6378377
7	0x3edf5752	0.43621308

prescalers.ALLSKY_SFC_SW_DWN.bias f4 [8]
0	0xbf5039c9	-0.81338173
1	0xbeb8cef3	-0.3609539
2	0xbd8c6a2c	-0.06856188
3	0x3ec3c374	0.38235056
4	0x3f1ea56a	0.6197115
5	0x3e04b4df	0.12959622
6	0xbf364b64	-0.71208787
7	0x3f1b2f1b	0.6061875

prescalers.numero_casos.weight f4 [8, 1]
0	0xbf4e652d	-0.8062313
1	0x3f75cd7a	0.9601666
2	0x3e9a150a	0.30094177
3	0xbda59227	-0.08084517
4	0xbc1ca80e	-0.009561552
5	0x3f29b47f	0.6629104
6	0x3f8f6346	1.1202171
7	0x3a6d08c4	0.00090421387

prescalers.numero_casos.bias f4 [8]
0	0xbe7bbb7f	-0.24583243
1	0xbd402750	-0.04691249
2	0xbf1beabb	-0.60905045
3	0xbf43fead	-0.7656048
4	0xbe8bd36d	-0.27309743
5	0xbdaf0216	-0.0854532
6	0xbf764fd8	-0.9621558
7	0x3e665ec1	0.22497083

static_variable_selection.single_variable_grns.municipio.mask f4 [16]
0	0xbe191099	-0.14947738
1	0x3e191099	0.14947738
2	0xbe191099	-0.14947738
3	0xbe191099	-0.14947738
4	0xbe191099	-0.14947738
5	0x3e191099	0.14947738
6	0xbe19109b	-0.1494774
7	0x3e191099	0.14947738
8	0xbe191099	-0.14947738
9	0x3e191099	0.14947738
10	0xbe191099	-0.14947738
11	0x3e191099	0.14947738
12	0xbe191099	-0.14947738
13	0xbe191099	-0.14947738
14	0x3e191099	0.14947738
15	0x3e191099	0.14947738

static_variable_selection.single_variable_grns.municipio.norm.weight f4 [16]
0	0x3f800000	1.0
1	0x3f800000	1.0
2	0x3f800000	1.0
3	0x3f800000	1.0
4	0x3f800000	1.0
5	0x3f800000	1.0
6	0x3f800000	1.0
7	0x3f800000	1.0
8	0x3f800000	1.0
9	0x3f800000	1.0
10	0x3f800000	1.0
11	0x3f800000	1.0
12	0x3f800000	1.0
13	0x3f800000	1.0
14	0x3f800000	1.0
15	0x3f800000	1.0

static_variable_selection.single_variable_grns.municipio.norm.bias f4 [16]
0	0x3e191099	0.14947738
1	0xbe191099	-0.14947738
2	0x3e191099	0.14947738
3	0x3e191099	0.14947738
4	0x3e191099	0.14947738
5	0xbe191099	-0.14947738
6	0x3e191099	0.14947738
7	0xbe191099	-0.14947738
8	0x3e191099	0.14947738
9	0xbe191099	-0.14947738
10	0x3e191099	0.14947738
11	0xbe191099	-0.14947738
12	0x3e191099	0.14947738
13	0x3e191099	0.14947738
14	0xbe191099	-0.14947738
15	0xbe191099	-0.14947738

encoder_variable_selection.flattened_grn.resample_norm.mask f4 [8]
0	0xbe190ab7	-0.14945494
1	0x3e191052	0.14947632
2	0x3e190f6c	0.14947289
3	0x3e190f99	0.14947356
4	0xbe190d21	-0.14946415
5	0xbe19105f	-0.14947651
6	0xbe190806	-0.14944467
7	0xbe190ef4	-0.1494711

encoder_variable_selection.flattened_grn.resample_norm.norm.weight f4 [8]
0	0x3f59bc6e	0.85053146
1	0x3f93220d	1.1494766
2	0x3f931f70	1.1493969
3	0x3f9321ea	1.1494725
4	0x3f59bc1d	0.85052663
5	0x3f59bbe0	0.850523
6	0x3f59bc0b	0.85052556
7	0x3f59bc0b	0.85052556

encoder_variable_selection.flattened_grn.resample_norm.norm.bias f4 [8]
0	0xbe190f02	-0.14947131
1	0x3e19107f	0.14947699
2	0xbe18e0f8	-0.14929569
3	0xbe190ce6	-0.14946327
4	0xbe190f9d	-0.14947362
5	0xbe191078	-0.14947689
6	0x3e191009	0.14947523
7	0xbe191035	-0.14947589

encoder_variable_selection.flattened_grn.fc1.weight f4 [8, 64]
0	0x3d84c5c1	0.06483031
1	0xbe4dc8f4	-0.20096189
2	0xbcb8674b	-0.022510191
3	0xbe4ac0ff	-0.19800185
4	0xbdf05fc2	-0.11737014
5	0xbe913ef9	-0.28368357
6	0xbdbdb6ca	-0.0926338
7	0xbe2e0c78	-0.16996944
8	0x3e34cc86	0.17656144
9	0xbdbb7a53	-0.09154191
10	0xbdaabb80	-0.08336544
11	0x3e5612ad	0.20905562
12	0x3edf4525	0.4360744
13	0xbe41d6be	-0.18929574
14	0xbd81e1e9	-0.06341917
15	0xbdca02cc	-0.09863815
16	0xbccb33e3	-0.024805015
17	0xbeb272af	-0.34853122
18	0xbdd8e600	-0.10590744
19	0x3e7b4c95	0.24540932
20	0x3dafeff8	0.08590692
21	0x3d44ea2a	0.04807488
22	0xbd41013b	-0.047120314
23	0x3ecc33d7	0.398833
24	0x3e4ec69d	0.20192952
25	0xbed02641	-0.40654185
26	0xbdc23ee1	-0.094846494
27	0x3e5d977b	0.21639816
28	0x3c8630a7	0.016380621
29	0x3e5b3324	0.21406227
30	0xbda98eba	-0.08279176
31	0x3eea9eb5	0.4582421
32	0xbe41034d	-0.18848915
33	0x3dfa3ba2	0.12218405
34	0x3ebee9ba	0.37287694
35	0x3c9272ac	0.017876945
36	0x3e8486b3	0.25884017
37	0xbd01fc71	-0.031734888
38	0x3e0a4c03	0.13505559
39	0x3d8ecebd	0.06973026
40	0x3ed6f9a4	0.41987336
41	0xbe4c426a	-0.1994721
42	0x3cddc40c	0.027071021
43	0x3eb812f4	0.3595196
44	0x3e8fc65a	0.28081018
45	0x3e870079	0.26367548
46	0xbeb6bcca	-0.3569091
47	0xbe99740a	-0.29971343
48	0xbe3171b6	-0.17328534
49	0xbebcd2d7	-0.36879608
50	0x3ea775d6	0.3270709
51	0xbcbd9c57	-0.023145838
52	0x3ec8a6b8	0.39189696
53	0xbe3bae14	-0.18328124
54	0xbe5a5aa8	-0.21323645
55	0x3e4f9a5c	0.20273727
56	0xbef39b18	-0.47579265
57	0x3e360d3a	0.17778483
58	0xbe83c4ba	-0.25736028
59	0xbed80d5c	-0.42197692
60	0xbdb272fb	-0.08713337
61	0x3ed39002	0.41320807
62	0xbebdacd9	-0.37045935
63	0x3e0b8a0c	0.1362688
64	0x3e8a42d2	0.27004105
65	0x3e05abb1	0.13053776
66	0xbd3fac07	-0.046794917
67	0x3dca3072	0.098725215
68	0xbe995381	-0.2994652
69	0xbe8d0348	-0.27541566
70	0x3ea9bf30	0.33153677
71	0xbd8fb3e4	-0.07016733
72	0x3e484b07	0.1955987
73	0x3eb6046a	0.35550243
74	0xbe7a391d	-0.2443585
75	0x3d125c91	0.03573281
76	0x3ee42f2b	0.44567236
77	0xbde96c29	-0.11397583
78	0x3c2d76b6	0.010587385
79	0xbd19901a	-0.03749094
80	0x3ee48d58	0.44639087
81	0xbe8f162f	-0.27946612
82	0xbf14c521	-0.58113295
83	0x3e17dcc0	0.14830303
84	0x3e9ef589	0.31046703
85	0x3b830c86	0.0039992956
86	0x3e5c6217	0.21521793
87	0x3dcf26da	0.10114832
88	0x3e9ebba9	0.31002548
89	0xbd8c9836	-0.068649694
90	0xbd929324	-0.07156971
91	0x3d8b3936	0.067980215
92	0xbebaff11	-0.36522725
93	0x3f086735	0.5328248
94	0x3c52bd43	0.012862506
95	0x3ded4404	0.115852386
96	0xbea8fbb1	-0.33004525
97	0x3e3219e0	0.17392683
98	0x3e86dc11	0.26339772
99	0xbe73337a	-0.23750106
100	0x3ecad9a0	0.3961916
101	0x3de5b442	0.11216022
102	0xbf0cc482	-0.5498735
103	0xbe117e2c	-0.14208287
104	0x3ea306bb	0.31841072
105	0xbe127381	-0.14301874
106	0x3e813ee0	0.25243282
107	0x3d669a03	0.05629922
108	0x3e31ae4d	0.17351647
109	0x3edc8dfe	0.4307708
110	0xbd5068a8	-0.050881058
111	0xbe5d2483	-0.2159596
112	0x3d3c3489	0.04594854
113	0xbe4cafd3	-0.19988947
114	0x3e2a4b10	0.16630197
115	0x3db427ac	0.08796629
116	0x3eac2db9	0.33628634
117	0xbedf8fea	-0.43664485
118	0x3d388676	0.045050107
119	0x3e855cfc	0.26047504
120	0x3e071766	0.1319252
121	0x3d955d53	0.07293191
122	0xbda249a3	-0.07924201
123	0xbecb052b	-0.3965238
124	0xbefe2754	-0.4963938
125	0xbe116936	-0.14200291
126	0xbee7b116	-0.45252293
127	0xbe0a355f	-0.13496922
128	0xbee7e10f	-0.45288894
129	0xbecf12a5	-0.40443912
130	0x3f135269	0.5754762
131	0xbe9020da	-0.28150064
132	0xbe025f6f	-0.12731718
133	0x3ed4e1ab	0.4157842
134	0xbe8da751	-0.27666715
135	0x3d3b42e0	0.045718074
136	0xbef06659	-0.46953085
137	0xbe449b21	-0.19199802
138	0xbe118c06	-0.14213571
139	0x3c3da9ae	0.011576099
140	0x3df62e20	0.120205164
141	0xbe3a4250	-0.18189359
142	0xba8567ce	-0.0010178031
143	0xbe12c22d	-0.14331885
144	0xbe1e7096	-0.15472636
145	0x3db1c16f	0.08679473
146	0x3e4c3f31	0.1994598
147	0xbc98cd70	-0.018652648
148	0x3e1d6da7	0.1537386
149	0x3e54e9e6	0.2079235
150	0x3cf19a2c	0.02949246
151	0xbea09974	-0.31367075
152	0xbeb099ae	-0.34492248
153	0x3e90eb8c	0.28304708
154	0xbdef9b1a	-0.11699505
155	0x3f01233e	0.504444
156	0x3e636cb4	0.22209436
157	0xbdb7eb7d	-0.08980463
158	0x3d6ee41e	0.05832302
159	0x3e1c84f7	0.15285097
160	0xbdda1fbc	-0.10650584
161	0xbe25c65c	-0.1618895
162	0x3e3b9c9e	0.18321463
163	0x3eb7b6eb	0.35881743
164	0xbe921d04	-0.28537762
165	0xbed0fd3e	-0.40818208
166	0x3ed0caac	0.40779626
167	0xbea32ff9	-0.31872538
168	0xbd95b348	-0.07309586
169	0x3ecb6cb4	0.3973137
170	0xbe7393ac	-0.23786801
171	0xbe13f706	-0.144497
172	0xbdcae994	-0.09907833
173	0xbe36cfc1	-0.1785269
174	0x3eb55b6a	0.35421306
175	0xbe3bab14	-0.1832698
176	0x3e90c632	0.2827621
177	0x3dbc1bfb	0.09185024
178	0xbe830bbc	-0.2559489
179	0x3e64550f	0.22298072
180	0x3d31b25c	0.043382987
181	0x3e377b12	0.17918041
182	0xbdb26f1f	-0.08712601
183	0xbe3325de	-0.17494914
184	0x3de45d8e	0.11150657
185	0xbd11e25a	-0.035616256
186	0x3ecfe509	0.40604427
187	0x3da9bf9d	0.082885005
188	0x3e8d7105	0.2762529
189	0xbdc8bdf6	-0.09801857
190	0x3d043bea	0.0322837
191	0xbe911d85	-0.28342834
192	0xbdb745d1	-0.08948863
193	0xbe2cc572	-0.16872194
194	0xbe183ac2	-0.14866164
195	0xbeb5d7c9	-0.35516194
196	0x3e8148f0	0.2525096
197	0x3d7600a5	0.06005921
198	0xbe7ddb65	-0.24790724
199	0x3e81be60	0.25340557
200	0x3d1fe4ee	0.039036684
201	0xbe006f35	-0.12542422
202	0xbdf5eca4	-0.12008026
203	0xbe4d6466	-0.2005783
204	0xbe3844ba	-0.17994967
205	0x3df6980d	0.1204072
206	0x3caacf95	0.020850936
207	0xbe944420	-0.28958225
208	0xbe6be4fa	-0.23036566
209	0x3ec68218	0.3877113
210	0xbdffae90	-0.12484467
211	0xbe25cc0e	-0.16191122
212	0x3afdd8d6	0.001936699
213	0x3e2cd04d	0.16876335
214	0xbe1bbbcb	-0.15208356
215	0xbe3507af	-0.17678712
216	0xbd9160f2	-0.07098569
217	0x3eb57234	0.35438693
218	0xbe0948e5	-0.13406713
219	0x3e5e7dd1	0.21727683
220	0x3eceb8c8	0.40375352
221	0xbe051443	-0.1299601
222	0x3e2240a5	0.15844972
223	0xbce007ee	-0.027347531
224	0xbe12c000	-0.14331055
225	0x3db72280	0.08942127
226	0x3dbe1994	0.092822224
227	0x3e6151ad	0.22003813
228	0xbe3c529e	-0.18390891
229	0xbdc45907	-0.09587293
230	0x3e36c810	0.17849755
231	0xbdb91cd3	-0.09038701
232	0x3d33f373	0.043933343
233	0x3e8a72cc	0.27040708
234	0xbd888900	-0.06666756
235	0x3ba811db	0.0051290817
236	0x3dc23666	0.09483032
237	0xbe212414	-0.15736419
238	0x3da04aed	0.07826791
239	0xbd0184b7	-0.031620707
240	0x3df6d153	0.12051644
241	0x3d852af2	0.06502332
242	0xbe6dff94	-0.23242027
243	0xbe74986f	-0.23886274
244	0x3e461ee3	0.1934772
245	0x3d9d1e89	0.0767184
246	0x3f2ad7e0	0.6673565
247	0xbced50a4	-0.028969117
248	0x3e4fb033	0.20282058
249	0x3d61c46a	0.055118956
250	0x3e635e71	0.22203995
251	0x3e2c3841	0.16818334
252	0x3e6ee4c2	0.23329452
253	0xbcdf6f95	-0.027274886
254	0x3dfe9696	0.12431066
255	0xbe216d6b	-0.15764396

encoder_variable_selection.flattened_grn.fc1.bias f4 [8]
0	0x3e191050	0.14947629
1	0x3e191013	0.14947538
2	0xbe190f94	-0.14947349
3	0xbe190fb2	-0.14947394
4	0xbe18fdf7	-0.1494063
5	0x3e190e01	0.14946748
6	0xbe19103d	-0.149476
7	0xbe1906f5	-0.1494406

encoder_variable_selection.flattened_grn.context.weight f4 [8, 16]
0	0xbdad1a28	-0.084522545
1	0xbed2d7cc	-0.41180265
2	0xbedb4e74	-0.42833292
3	0xbef4d5b4	-0.47819293
4	0xbcf19ee0	-0.029494703
5	0xbb73e300	-0.003721416
6	0x3eb09abc	0.34493053
7	0x3dd58658	0.10426015
8	0xbe21ca1c	-0.15799755
9	0xbe5edc4c	-0.21763724
10	0x3ec65a9c	0.38741004
11	0x3e8989d6	0.26862973
12	0xbbe12d00	-0.0068718195
13	0xbee25712	-0.44207054
14	0x3d729aa0	0.059229493
15	0x3e0fe738	0.14053047
16	0xbe1cd844	-0.15316874
17	0x3eb96d48	0.36216187
18	0xbe32f2a0	-0.17475367
19	0xbddd17f8	-0.10795587
20	0x3eb53070	0.35388517
21	0xbcd5d700	-0.026103497
22	0xbe86529c	-0.262349
23	0xbdd46188	-0.10370165
24	0xbe37108c	-0.17877406
25	0xbe4c2ecc	-0.19939727
26	0xbe4fcf4c	-0.20293921
27	0x3eeba888	0.46027017
28	0x3ed29d12	0.4113546
29	0x3ee200f6	0.44141358
30	0x3da82c50	0.08211577
31	0x3eeaf720	0.45891666
32	0x3e96b20a	0.29432708
33	0xbe84744e	-0.25869983
34	0x3e958b38	0.29207778
35	0xbe2a198c	-0.16611308
36	0x3ef99c18	0.48751903
37	0x3d2431c0	0.040086508
38	0xbe4dc368	-0.20094073
39	0xbde78b50	-0.113058686
40	0x3dcbeec8	0.09957653
41	0x3d2172e0	0.039416194
42	0xbc418c40	-0.011813223
43	0xbecb148e	-0.3966412
44	0xbef1d51e	-0.47232908
45	0x3e0a3874	0.13498098
46	0x3ef40204	0.47657788
47	0x3e0453dc	0.12922615
48	0x3dcbadc8	0.099452555
49	0x3e0993fc	0.13435358
50	0x3eb4f52a	0.35343295
51	0xbdcecdf8	-0.10097879
52	0x3e7d3b5c	0.24729675
53	0x3d50da50	0.05098945
54	0x3ec2070a	0.37895995
55	0x3ec8a810	0.39190722
56	0x3e58f7fc	0.21188349
57	0x3d110740	0.035407305
58	0x3e98b482	0.29825217
59	0xbd1bb3d0	-0.03801328
60	0xbe96a2e6	-0.29421157
61	0x3e0c5c0c	0.13706988
62	0xbee7c962	-0.4527083
63	0x3e1cab64	0.15299755
64	0xbdc373e0	-0.09543586
65	0x3c8d2100	0.01722765
66	0x3ed268a4	0.4109546
67	0xbefb464e	-0.49077076
68	0xbc8a6a60	-0.016896427
69	0x3e5b860c	0.21437854
70	0x3d5b1f20	0.05349648
71	0x3eea03fe	0.4570617
72	0x3e1c2934	0.15250093
73	0x3d514820	0.051094174
74	0x3cc7f180	0.024407148
75	0xbe60b048	-0.21942246
76	0x3eac2468	0.33621526
77	0xbd60dc40	-0.054897547
78	0xbdf3c348	-0.11902481
79	0x3e2e7af4	0.1703909
80	0x3d795ae0	0.06087768
81	0xbe965eb2	-0.29369122
82	0xbeefbb6a	-0.46822673
83	0xbe763da4	-0.24046952
84	0x3da397e0	0.07987952
85	0x3eee38e0	0.46527767
86	0x3d355bb0	0.044276893
87	0x3ea5ace2	0.32358462
88	0xbe2fe244	-0.17176157
89	0xbed166c2	-0.4089871
90	0xbe3a42b8	-0.18189514
91	0xbe3291a0	-0.17438364
92	0xbe7e8a5c	-0.24857467
93	0xbdff84b0	-0.1247648
94	0x3e1f0498	0.15529096
95	0x3e7ca770	0.24673247
96	0x3e44e5e4	0.19228321
97	0x3e97ec94	0.29672682
98	0x3dd7c810	0.10536206
99	0x3d6a6d40	0.057233095
100	0xbbf26700	-0.0073975325
101	0xbdcf5c88	-0.10125071
102	0x3e09b920	0.13449526
103	0x3e03d358	0.1287359
104	0xbed8b3a4	-0.42324555
105	0xbda80810	-0.08204663
106	0x3ebd1f02	0.3693772
107	0x3e085d2c	0.13316792
108	0x3e5773d8	0.21040285
109	0xbe481950	-0.19540906
110	0xbe327544	-0.17427546
111	0xbd5676a0	-0.052359223
112	0xbea077cc	-0.31341398
113	0xbeb95356	-0.36196393
114	0xbd9b6c28	-0.075889885
115	0xbe91a36a	-0.28444988
116	0x3e3ce4f8	0.1844672
117	0xbe38f608	-0.18062603
118	0xbe8f0a40	-0.27937508
119	0x3dd6b638	0.10483974
120	0xbe9aaa04	-0.30207837
121	0xbd81fc50	-0.06346953
122	0xbe1d847c	-0.1538257
123	0x3e7a01b8	0.24414718
124	0xbe02f40c	-0.12788409
125	0xbe024880	-0.12722969
126	0x3e060ef4	0.13091642
127	0xbca99320	-0.020700037

encoder_variable_selection.flattened_grn.fc2.weight f4 [8, 8]
0	0x3c367c06	0.011137968
1	0xbe802be5	-0.2503349
2	0x3e76fa6d	0.24118967
3	0x3e9b54fa	0.3033827
4	0xbf841803	-1.0319828
5	0xbe10ba94	-0.14133674
6	0xbecf368a	-0.40471298
7	0x3f84c491	1.0372487
8	0x3f0a7790	0.5408869
9	0x3f3bf097	0.73413986
10	0xbdae00bb	-0.08496233
11	0x3ee2a2a4	0.4426471
12	0x3f83e80b	1.0305189
13	0xbf818101	-1.0117494
14	0xbe817fb9	-0.25292757
15	0xbeb58e48	-0.35460114
16	0x3f041900	0.51600647
17	0x3e8847b4	0.26617205
18	0xbf1ddf6a	-0.6166903
19	0x3e24f0a2	0.16107419
20	0xbf804abb	-1.0022806
21	0xbe1ce6af	-0.15322374
22	0xbe95de27	-0.2927105
23	0xbef281dd	-0.47364703
24	0xbf88390a	-1.0642407
25	0xbf28fe61	-0.6601315
26	0x3f093924	0.53602815
27	0xbbbc18c0	-0.005740255
28	0xbe5fe9ac	-0.21866482
29	0xbe5dde33	-0.21666794
30	0x3fb2e98b	1.3977522
31	0x3e3fdcda	0.18736592
32	0xbe221bac	-0.15830868
33	0xbdc4521a	-0.09585972
34	0xbe7304d6	-0.23732314
35	0xbf649e5a	-0.89304125
36	0xbf5e253f	-0.86775583
37	0x3d9d90b5	0.07693616
38	0x3d18f5ba	0.037343718
39	0xbf636467	-0.88825077
40	0xbf264121	-0.6494313
41	0xbf3d06d0	-0.7383852
42	0xbe99f8a2	-0.30072504
43	0x3eac0da4	0.33604157
44	0xbe89081a	-0.26763994
45	0xbf0f2ca7	-0.5592751
46	0x3dbf5c42	0.09343769
47	0xbf0d7bdc	-0.5526712
48	0x3e62ad29	0.22136368
49	0xbe6635eb	-0.22481506
50	0x3f115005	0.56762725
51	0x3ede39af	0.43403384
52	0xbed26605	-0.4109346
53	0xbf850aa3	-1.0393871
54	0xbd1fe2cf	-0.03903466
55	0x3da3b742	0.07993938
56	0x3e5733ab	0.21015804
57	0xbf3aa461	-0.7290707
58	0x3f4d2cc2	0.8014642
59	0xbf0b69d9	-0.54458386
60	0x3c540d53	0.01294263
61	0xbeeeaf06	-0.46617907
62	0x3e982290	0.2971387
63	0xbeee03d6	-0.46487302

encoder_variable_selection.flattened_grn.fc2.bias f4 [8]
0	0xbe190534	-0.14943391
1	0x3e190f07	0.14947139
2	0x3e191025	0.14947565
3	0xbe19102e	-0.14947578
4	0x3e190ecf	0.14947055
5	0xbe190f68	-0.14947283
6	0x3e190e06	0.14946756
7	0x3e190a12	0.14945248

encoder_variable_selection.flattened_grn.gate_norm.glu.fc.weight f4 [16, 8]
0	0xbf0436e9	-0.51646286
1	0xbe58fdd5	-0.21190579
2	0xbf11d89b	-0.5697114
3	0xbe9af326	-0.30263633
4	0x3efe4fd1	0.4967027
5	0x3d8bc50c	0.06824693
6	0xbeda00b6	-0.42578667
7	0x3e409cea	0.18809858
8	0xbed3e94c	-0.4138893
9	0x3e8f4f36	0.2799012
10	0x3efce0cd	0.4939026
11	0xbf11f803	-0.5701906
12	0xbe52134b	-0.20515172
13	0xbe5b0cf6	-0.21391663
14	0x3deb02a1	0.11475111
15	0xbec36352	-0.38161713
16	0xbdc57e06	-0.09643178
17	0xbf19179a	-0.5980164
18	0x3dea4de5	0.114406385
19	0x3ea2a7c9	0.31768635
20	0xbe5cf133	-0.21576385
21	0xbdc41c77	-0.09575742
22	0xbecdba0a	-0.40181
23	0x3f212ad2	0.62955964
24	0xbe8afe3e	-0.27147096
25	0xbf1e115f	-0.61745256
26	0xbf10c38d	-0.56548387
27	0xbf0cc9d1	-0.5499545
28	0xbe964eec	-0.29357088
29	0xbea43aeb	-0.320762
30	0xbdc52d9e	-0.096278414
31	0xbcd6b395	-0.026208678
32	0x3f0ae418	0.54254293
33	0x3ea81e4a	0.3283561
34	0xbf175d11	-0.59126383
35	0xbdc86600	-0.0978508
36	0x3e1c74d3	0.1527894
37	0x3ea8b93d	0.32953826
38	0x3ea36151	0.31910184
39	0xbdde769f	-0.10862469
40	0xbdc60b9b	-0.09670182
41	0xbe3dc984	-0.18533903
42	0xbf23f09b	-0.6403901
43	0x3dc7dccf	0.09758913
44	0xbe5faa82	-0.21842387
45	0xbf04c324	-0.5186026
46	0xbf19a2aa	-0.6001383
47	0x3e803484	0.25040066
48	0xbdf95280	-0.12173939
49	0x3f177d89	0.59175926
50	0x3e95ab20	0.2923212
51	0xbefb175a	-0.49041253
52	0x3e28e869	0.16494907
53	0x3ea6fdc3	0.3261548
54	0xbeff0eec	-0.49816072
55	0x3e948ff6	0.29016083
56	0x3ecefe79	0.40428522
57	0x3d23dfb4	0.04000826
58	0xbf1acb78	-0.6046672
59	0xbe5fbf68	-0.2185036
60	0x3e360f3c	0.17779249
61	0x3e8a1b35	0.26973882
62	0x3e891426	0.26773185
63	0x3f0cbd7c	0.5497663
64	0xbe261344	-0.16218287
65	0xbdb1a9ff	-0.08675002
66	0xbe8d5222	-0.27601725
67	0xbf24737d	-0.6423872
68	0xbf0820a8	-0.5317483
69	0x3ea6fd79	0.3261526
70	0x3e346cef	0.1761968
71	0x3e877fe8	0.26464772
72	0xbda3b9e5	-0.07994441
73	0x3e6758d3	0.22592478
74	0xbe8aa84b	-0.27081522
75	0xbebb7005	-0.36608902
76	0xbe6f725c	-0.23383468
77	0xbe707a0c	-0.23484057
78	0xbf13c87a	-0.5772778
79	0x3d073b0c	0.033015296
80	0x3eb26687	0.34843847
81	0xbf10aafb	-0.56510895
82	0x3f08f0b9	0.53492314
83	0xbf25fb30	-0.64836407
84	0xbf16658d	-0.58748704
85	0x3e6ec0e6	0.23315772
86	0x3e34d1d2	0.17658165
87	0x3e0800eb	0.132816
88	0x3e290f2d	0.16509695
89	0x3efb01e2	0.49024874
90	0x3e541590	0.2071135
91	0x3f0cd725	0.55015785
92	0x3eac0363	0.33596334
93	0x3d2af179	0.041734193
94	0x3cd32039	0.0257722
95	0xbe70c1c5	-0.23511417
96	0x3e005f41	0.12536336
97	0x3e8ac996	0.27106923
98	0xbf09e14f	-0.5385942
99	0x3c84b9c2	0.016201857
100	0x3f1b39d4	0.60635114
101	0x3eaabc3b	0.33346733
102	0xbc9dbe78	-0.019255862
103	0x3f05a067	0.5219788
104	0x3e869dc8	0.26292253
105	0xbe1091f2	-0.14118174
106	0x3f0c5c96	0.54828775
107	0xbec00224	-0.37501633
108	0x3c3e9230	0.0116315335
109	0x3f0db39d	0.55352193
110	0x3e26f718	0.16305196
111	0x3e73969e	0.23787925
112	0x3e4c7d3e	0.19969651
113	0x3e80371a	0.2504204
114	0x3e90da35	0.2829148
115	0xbcb4817c	-0.0220344
116	0x3d0c7180	0.03428793
117	0x3eb8062b	0.35942206
118	0x3ea00017	0.3125007
119	0xbcb1b59f	-0.021693049
120	0x3e099e52	0.134393
121	0x3bff9308	0.00779951
122	0x3d5da9e4	0.0541171
123	0x3d5b0f65	0.05348148
124	0xbe59872d	-0.21242972
125	0xbca8e594	-0.020617284
126	0x3e946763	0.28985128
127	0x3e8fbf82	0.28075796

encoder_variable_selection.flattened_grn.gate_norm.glu.fc.bias f4 [16]
0	0xbe190b19	-0.1494564
1	0x3e19105b	0.14947645
2	0xbe18f700	-0.14937973
3	0xbe190a07	-0.14945231
4	0xbe190ef0	-0.14947104
5	0xbe191036	-0.1494759
6	0x3e190f57	0.14947258
7	0xbe190ebe	-0.1494703
8	0x3e19090f	0.14944862
9	0x3e191053	0.14947633
10	0xbe18903f	-0.14898776
11	0x3e18f015	0.14935334
12	0xbe190c2a	-0.14946046
13	0x3e190f22	0.14947179
14	0x3e1909cd	0.14945145
15	0x3e190b75	0.14945777

encoder_variable_selection.flattened_grn.gate_norm.add_norm.norm.weight f4 [8]
0	0x3f59bc7d	0.85053235
1	0x3f932210	1.149477
2	0x3f59bc19	0.8505264
3	0x3f9321b3	1.1494659
4	0x3f59bc0b	0.85052556
5	0x3f59bbdf	0.85052294
6	0x3f59bc05	0.8505252
7	0x3f59bc11	0.8505259

encoder_variable_selection.flattened_grn.gate_norm.add_norm.norm.bias f4 [8]
0	0xbe190f69	-0.14947285
1	0x3e191083	0.14947705
2	0x3e190f1f	0.14947174
3	0x3e190291	0.14942385
4	0xbe190ff3	-0.1494749
5	0xbe19107e	-0.14947698
6	0x3e191037	0.14947592
7	0xbe19104a	-0.1494762

encoder_variable_selection.single_variable_grns.time_idx.resample_norm.mask f4 [16]
0	0xbe1908cb	-0.1494476
1	0xbe190f36	-0.14947209
2	0x3e190fe4	0.14947468
3	0xbe190f60	-0.14947271
4	0x3e18ce1d	0.14922376
5	0xbe190921	-0.14944889
6	0x3e190ee6	0.1494709
7	0x3e190d2a	0.14946428
8	0xbe190d1a	-0.14946404
9	0xbe190cec	-0.14946336
10	0xbe190c8a	-0.1494619
11	0x3e190f24	0.14947182
12	0x3e190a92	0.14945439
13	0xbe190be5	-0.14945944
14	0xbe190acd	-0.14945526
15	0xbe190a64	-0.1494537

encoder_variable_selection.single_variable_grns.time_idx.resample_norm.norm.weight f4 [16]
0	0x3f59bd4b	0.85054463
1	0x3f59bc0b	0.85052556
2	0x3f932209	1.1494762
3	0x3f59bc05	0.8505252
4	0x3f931f93	1.1494011
5	0x3f59bd3c	0.85054374
6	0x3f9321f7	1.149474
7	0x3f9321dc	1.1494708
8	0x3f59bc40	0.8505287
9	0x3f59bc69	0.85053116
10	0x3f59bc8b	0.8505332
11	0x3f9321fe	1.1494749
12	0x3f9321c3	1.1494678
13	0x3f59bc8a	0.8505331
14	0x3f59bc71	0.85053164
15	0x3f59bcc3	0.8505365

encoder_variable_selection.single_variable_grns.time_idx.resample_norm.norm.bias f4 [16]
0	0xbe190a1a	-0.1494526
1	0xbe190fc5	-0.14947422
2	0x3e191021	0.14947559
3	0xbe191035	-0.14947589
4	0xbe190994	-0.1494506
5	0xbe190fe3	-0.14947467
6	0x3e190fa8	0.14947379
7	0x3e190fba	0.14947405
8	0x3e190f9d	0.14947362
9	0x3e190f2c	0.14947194
10	0x3e190e5a	0.14946881
11	0xbe190fd1	-0.1494744
12	0xbe190fef	-0.14947484
13	0xbe190e75	-0.14946921
14	0x3e191014	0.1494754
15	0x3e190d40	0.1494646

encoder_variable_selection.single_variable_grns.time_idx.fc1.weight f4 [8, 8]
0	0x3e8bcfe0	0.27307034
1	0xbd9d35b7	-0.07676261
2	0xbf105c2c	-0.56390643
3	0xbd895417	-0.06705492
4	0x3eb3e83f	0.35138127
5	0xbf596290	-0.8491602
6	0xbef7a33d	-0.48366728
7	0x3e9e2409	0.30886868
8	0xbf86b1fd	-1.0523068
9	0xbe9706df	-0.2949743
10	0xbf100ea0	-0.56272316
11	0xbefb8836	-0.49127358
12	0x3ec7b5fa	0.39006025
13	0x3ea1b3c3	0.3158246
14	0x3df8a884	0.12141517
15	0x3f0745f5	0.5284112
16	0xbee4ebad	-0.44711056
17	0xbe4f5aee	-0.2024953
18	0x3ed8c37e	0.4233665
19	0xbc34a4da	-0.011025632
20	0xbe9e75c3	-0.3094922
21	0xbe7e0eab	-0.24810283
22	0xbf8836c8	-1.0641718
23	0xbef0646c	-0.46951616
24	0x3ef67fe5	0.4814445
25	0xbedb506f	-0.42834803
26	0x3da98c97	0.082787685
27	0x3e2fa98f	0.17154525
28	0xbeb26fb8	-0.3485086
29	0x3e8a7bf8	0.27047706
30	0xbdd5559c	-0.10416719
31	0x3f03f5ab	0.51546735
32	0xbf2f55cd	-0.68490297
33	0x3efee31d	0.4978265
34	0x3ec28324	0.37990677
35	0x3e231026	0.15924129
36	0x3f856345	1.042092
37	0xbd2d72d4	-0.042345837
38	0xbdc600bf	-0.09668111
39	0x3f3da200	0.7407532
40	0xbf5a689c	-0.8531587
41	0xbe738eff	-0.23785017
42	0x3e9dc237	0.30812237
43	0xbeb327f2	-0.34991413
44	0x3e0040f9	0.12524785
45	0xbe6d5d40	-0.23180103
46	0x3e857069	0.26062325
47	0x3e8c2f22	0.2737971
48	0xbf031619	-0.51205593
49	0xbe390983	-0.18070035
50	0xbd9ec09d	-0.07751582
51	0x3ee347a5	0.44390598
52	0x3f6ae481	0.9175492
53	0xbf555f14	-0.833482
54	0x3f09a160	0.53761864
55	0x3f16388e	0.58680046
56	0x3e996aa2	0.29964167
57	0x3e97a897	0.2962081
58	0x3eccd65a	0.40007287
59	0xbe56117b	-0.20905106
60	0xbe815b75	-0.2526509
61	0xbea05736	-0.31316537
62	0xbf0f07d4	-0.5587132
63	0x3ebae52c	0.3650297

encoder_variable_selection.single_variable_grns.time_idx.fc1.bias f4 [8]
0	0xbe190ba4	-0.14945847
1	0xbe190cc4	-0.14946276
2	0xbe190fdd	-0.14947458
3	0xbe190d8c	-0.14946574
4	0xbe190ed3	-0.14947061
5	0xbe190e30	-0.14946818
6	0x3e190faf	0.14947389
7	0x3e190f0c	0.14947146

encoder_variable_selection.single_variable_grns.time_idx.fc2.weight f4 [8, 8]
0	0xbf84e1b6	-1.0381382
1	0xbcf109b8	-0.02942358
2	0xbf35ac06	-0.7096561
3	0xbe8828b6	-0.2659356
4	0x3e6ea977	0.23306833
5	0x3eddc437	0.43313763
6	0xbf20036d	-0.6250523
7	0xbec1fd11	-0.37888387
8	0xbf5c59c1	-0.86074454
9	0x3d915c3c	0.070976704
10	0x3fb1befe	1.3886411
11	0x3e907a00	0.2821808
12	0xbe2a5aa2	-0.16636136
13	0xbe615c8b	-0.22007959
14	0x3f7bd4b0	0.9837141
15	0x3e381a38	0.17978752
16	0x3c7a8cd6	0.015292367
17	0x3f016d80	0.5055771
18	0x3e33a813	0.17544584
19	0x3eaaa50d	0.3332905
20	0xbf2e91cb	-0.6819121
21	0xbe71864a	-0.23586383
22	0x3e958f41	0.29210857
23	0xbde393e6	-0.11112194
24	0xbde4dc41	-0.111748226
25	0x3ef7722c	0.48329294
26	0x3f73abe9	0.9518419
27	0x3e035377	0.12824808
28	0xbea28ecc	-0.3174957
29	0x3e04850e	0.12941381
30	0xbee699ee	-0.45039314
31	0x3cdd04ea	0.026979882
32	0x3d9b93c6	0.07596545
33	0xbef3e7d7	-0.47637817
34	0x3f46002a	0.77344
35	0x3ec66e9c	0.38756263
36	0x3f2d8045	0.6777385
37	0x3edeec26	0.43539542
38	0x3c0169d8	0.00789877
39	0x3f122ec9	0.5710264
40	0xbe72ba14	-0.23703796
41	0xbe9abeb0	-0.30223608
42	0xbf18e3bc	-0.59722495
43	0x3e55e5ce	0.20888445
44	0x3f02ff27	0.5117058
45	0x3d883d99	0.06652374
46	0x3e72d4af	0.23713945
47	0x3f3c19ce	0.73476875
48	0x3e595c09	0.21226515
49	0xbef7badd	-0.48384753
50	0x3e0f23bd	0.13978477
51	0xbe9fcd5d	-0.31211367
52	0xbfccd9fb	-1.6004022
53	0xbf158901	-0.58412176
54	0x3f6dd563	0.9290373
55	0xbf2e6e4a	-0.6813704
56	0xbe02a685	-0.12758835
57	0x3f2f1ce4	0.6840346
58	0x3f2455a3	0.6419317
59	0xbd7fff44	-0.0624993
60	0x3f371f81	0.71532446
61	0x3f99faf2	1.2029707
62	0x3f79c5f3	0.9756767
63	0xbdcd1036	-0.100128576

encoder_variable_selection.single_variable_grns.time_idx.fc2.bias f4 [8]
0	0xbe190d20	-0.14946413
1	0xbe18ca06	-0.14920816
2	0x3e190e32	0.14946821
3	0xbe190e3f	-0.1494684
4	0x3e1909dc	0.14945167
5	0x3e190fb6	0.149474
6	0x3e190f7a	0.1494731
7	0xbe190dd9	-0.14946689

encoder_variable_selection.single_variable_grns.time_idx.gate_norm.glu.fc.weight f4 [32, 8]
0	0x3ea69332	0.32534176
1	0xbe0e7151	-0.13910414
2	0x3e58571f	0.21126984
3	0xbeb512fc	-0.35366046
4	0xbd8300d1	-0.0639664
5	0xbe5a1088	-0.21295369
6	0xbdc08f22	-0.094023004
7	0x3e24e2c2	0.16102126
8	0x3ee8ae2b	0.4544538
9	0xbb187531	-0.002326321
10	0x3ef3902a	0.47570926
11	0x3d7ecf89	0.06220964
12	0xbcb290d6	-0.021797579
13	0xbc17d475	-0.009266962
14	0x3d8781be	0.06616543
15	0xbdc10332	-0.094244376
16	0xbea99684	-0.33122647
17	0x3db298f9	0.087205835
18	0xbee3bf12	-0.44481713
19	0xbd284f9c	-0.041091546
20	0xbe954bcf	-0.291594
21	0x3e156f51	0.14593245
22	0x3efdc798	0.4956634
23	0xbec5d97f	-0.386425
24	0x3c1a5fd8	0.009422265
25	0x3e2f9a64	0.17148739
26	0xbe0f8cd9	-0.14018573
27	0xbe966e54	-0.2938105
28	0xbd903cf4	-0.07042876
29	0x3d3d118a	0.046159305
30	0xbd9bf43e	-0.07614945
31	0x3e452be5	0.19255026
32	0x3db13427	0.086525254
33	0xbe7283b3	-0.23683052
34	0x3f00196e	0.500388
35	0xbe7bbc87	-0.24583636
36	0x3ebec205	0.372574
37	0x3e47eebc	0.19524664
38	0xbe2c863c	-0.16848081
39	0xbe2e3eaf	-0.170161
40	0xbcf5018c	-0.029907964
41	0xbd85d550	-0.06534827
42	0x3dfc8407	0.1232987
43	0xbd8b8f75	-0.06814472
44	0x3e65e4af	0.22450517
45	0x3d87ef4d	0.0663744
46	0xbf05cb03	-0.52262896
47	0x3da17602	0.07883836
48	0x3e32b008	0.17449963
49	0xbeb16a63	-0.3465148
50	0x3e093e9d	0.13402791
51	0xbe54b3a3	-0.20771651
52	0x3cb11b2b	0.0216194
53	0x3de4991f	0.11162018
54	0x3e766030	0.2406013
55	0xbea18781	-0.31548694
56	0xbe57e354	-0.21082813
57	0xbed9340a	-0.42422515
58	0xbe60cde5	-0.21953543
59	0x3efdfdc6	0.49607676
60	0x3dc8c61a	0.0980341
61	0xbda4a774	-0.08039752
62	0x3ea5bad2	0.32369095
63	0xbde65bfe	-0.11248015
64	0xbef8f605	-0.48625198
65	0x3dfc119a	0.12308045
66	0xbec3658b	-0.3816341
67	0x3ec7aad9	0.38997534
68	0x3e0a8f71	0.13531281
69	0x3e1d2848	0.15347397
70	0x3e7e1c6f	0.24815534
71	0xbc3e8af7	-0.0116298115
72	0xbf084ecf	-0.5324525
73	0xbf04222f	-0.5161466
74	0x3dc34ee2	0.0953653
75	0xbe5670ff	-0.20941542
76	0xbe8308b0	-0.25592566
77	0x3e44c257	0.1921476
78	0x3da77c5a	0.08178015
79	0xbe8f245f	-0.27957436
80	0xbe0a09fb	-0.1348037
81	0x3e5af899	0.21383895
82	0x3ca8d77e	0.020610567
83	0x3eebb313	0.4603506
84	0xbef16090	-0.47143984
85	0x3dfd2014	0.12359634
86	0x3ef81476	0.4845311
87	0x3e0d7984	0.13815886
88	0xbda229c4	-0.079181224
89	0x3e81a9f3	0.25324973
90	0x3de80ca0	0.11330533
91	0x3dfba4b6	0.122872755
92	0xbda93e6f	-0.082638614
93	0x3d0b9794	0.034080103
94	0xbe635a18	-0.22202337
95	0x3eaae3f0	0.33377028
96	0x3e0e2651	0.13881804
97	0x3ef21fe6	0.47289962
98	0xbe22bd4e	-0.15892527
99	0xbe28cde4	-0.16484791
100	0x3e9405c8	0.2891066
101	0x3ef74adf	0.4829931
102	0xbef185a0	-0.4717226
103	0x3e9b2dbb	0.30308327
104	0x3ecc2ef6	0.39879578
105	0x3ed2e7be	0.4119243
106	0x3e49fc0d	0.19725056
107	0xbe12c752	-0.14333847
108	0x3ee7d4c0	0.45279503
109	0x3e302417	0.17201267
110	0x3dce4ce6	0.10073261
111	0xbe3214eb	-0.17390792
112	0xbe32fb1c	-0.17478603
113	0xbe5b914a	-0.21442142
114	0x3e5f78e7	0.21823464
115	0x3e762c98	0.24040449
116	0xbe9aca6f	-0.3023257
117	0xbd094b48	-0.03351906
118	0x3b098ed0	0.0020989664
119	0xbe0a61f1	-0.13513924
120	0xbe8ce2db	-0.27516827
121	0x3df618f4	0.12016478
122	0xbec6bac9	-0.3881438
123	0xbe40aecb	-0.18816678
124	0xbe2e4075	-0.17016776
125	0xbe8ffea2	-0.28123957
126	0x3d45d892	0.04830224
127	0xbe866611	-0.26249745
128	0x3e9fe2a9	0.31227615
129	0x3f01c60a	0.5069281
130	0x3ef091cf	0.46986243
131	0xbe1aec2f	-0.1512916
132	0x3ecc9480	0.39957047
133	0x3eb25daf	0.348371
134	0xbde35bc0	-0.11101484
135	0x3e9e996d	0.3097643
136	0xbe02bf29	-0.12768234
137	0x3cc3f825	0.023922035
138	0x3edbdfaa	0.4294408
139	0xbee2b90b	-0.44281802
140	0xbe27f277	-0.16401087
141	0x3ed018b5	0.4064385
142	0xbec8c020	-0.3920908
143	0xbe2f9d3f	-0.17149828
144	0x3d1e5c1b	0.038662057
145	0xbe36cc5b	-0.17851393
146	0x3e49b8a7	0.19699346
147	0x3e3e7cff	0.1860237
148	0x3ebfff63	0.37499532
149	0x3dc47aea	0.095937565
150	0x3e5ecc28	0.21757567
151	0xbc963fb6	-0.018340927
152	0x3ea799ea	0.32734615
153	0x3e749742	0.23885825
154	0x3ebd6ed8	0.3699863
155	0x3de63df4	0.11242285
156	0xbdae8dd7	-0.085231476
157	0x3e27eec0	0.1639967
158	0xbdac017c	-0.083987206
159	0x3eb589d5	0.3545672
160	0x3e8f414c	0.27979505
161	0xbf051f09	-0.5200048
162	0xbda8998e	-0.08232413
163	0xbdb711aa	-0.08938916
164	0xbe94adb9	-0.2903879
165	0xbb5d3698	-0.0033754464
166	0xbebe1d11	-0.3713155
167	0xbec6d1f8	-0.38832068
168	0xbccd0939	-0.025028812
169	0x3efa02f6	0.48830384
170	0x3ebc0cb0	0.3672843
171	0x3dc00ed2	0.09377827
172	0x3dc8e604	0.09809497
173	0xbe4beb34	-0.19913942
174	0x3e30ae04	0.17253882
175	0x3e34994e	0.17636606
176	0x3eb71c79	0.3576391
177	0xbdd74583	-0.10511305
178	0xbd3b7850	-0.045769036
179	0x3e049156	0.12946066
180	0xbd5505bb	-0.052007418
181	0x3ec89d95	0.39182726
182	0xbe967ddd	-0.293929
183	0x3d9816a4	0.07426193
184	0xbec741ad	-0.38917294
185	0xbdb1fcfb	-0.0869083
186	0xbdf41759	-0.11918516
187	0x3ddbf218	0.10739535
188	0x3e6d2003	0.23156743
189	0x3de7cd16	0.11318414
190	0x3c7ac474	0.015305627
191	0xbe15891d	-0.14603086
192	0x3dfec84f	0.124405496
193	0xbe738145	-0.23779781
194	0x3f00158d	0.50032884
195	0xbeb75d9e	-0.35813612
196	0xbd850b6b	-0.064963184
197	0xbdf09594	-0.1174728
198	0x3ef11b41	0.47091106
199	0x3ddd485e	0.108048186
200	0xbe3aa738	-0.18227851
201	0xbec9c534	-0.39408267
202	0xbdc285cf	-0.09498178
203	0x3e536174	0.20642644
204	0xbe8a3eb3	-0.2700096
205	0x3f036c2d	0.5133694
206	0xbe1417ea	-0.14462247
207	0xbe99748b	-0.29971728
208	0x3eb0f1bd	0.34559432
209	0x3e3e353a	0.18574992
210	0xb906d6b0	-0.00012859213
211	0xbeea7f48	-0.45800233
212	0x3e302440	0.17201328
213	0x3e5a540c	0.21321124
214	0x3eab134d	0.33413163
215	0x3eb8a20d	0.36061135
216	0xbd561d75	-0.052274186
217	0x3ec9ad10	0.3938985
218	0xbdbc11a2	-0.09183051
219	0xbdb5a43f	-0.08869218
220	0x3f04d638	0.5188937
221	0x3e61807c	0.22021669
222	0xbedba582	-0.4289971
223	0x3dfc4e73	0.123196505
224	0xbde4216c	-0.11139187
225	0xbe3c4d0c	-0.18388766
226	0xbf074483	-0.52838916
227	0x3ea2c33f	0.31789586
228	0xbef9ce56	-0.48790234
229	0xbdb2f715	-0.087385334
230	0x3dd33977	0.10313695
231	0xbe9bd642	-0.30436903
232	0x3e3bd52e	0.1834304
233	0xbee0bf4d	-0.4389595
234	0x3e665f93	0.22497396
235	0x3e1b1cbb	0.15147679
236	0xbdd79118	-0.10525721
237	0xbee103ec	-0.43948305
238	0x3eb0e7f9	0.3455198
239	0xbee28f99	-0.4425018
240	0xbd92c995	-0.07167355
241	0x3e7d2037	0.2471932
242	0xbe72f210	-0.23725152
243	0x3d8f1e72	0.06988229
244	0x3ed89615	0.42302004
245	0x3e9c806e	0.30566734
246	0xbe9273f4	-0.2860409
247	0x3ed46cb3	0.4148918
248	0x3c36a524	0.011147771
249	0xbe72dc39	-0.23716821
250	0x3ef972bd	0.4872035
251	0xbd7b6b0f	-0.061381396
252	0xbe80925c	-0.25111663
253	0xbe06293f	-0.13101672
254	0xbe53c31b	-0.20679896
255	0x3da10b1d	0.07863448

encoder_variable_selection.single_variable_grns.time_idx.gate_norm.glu.fc.bias f4 [32]
0	0xbe18fbaf	-0.1493976
1	0xbe190eb7	-0.1494702
2	0x3e190fe0	0.14947462
3	0xbe190fc5	-0.14947422
4	0xbe1906ac	-0.14943951
5	0xbe190f5f	-0.1494727
6	0x3e190ece	0.14947054
7	0x3e190e82	0.1494694
8	0x3e190ede	0.14947078
9	0x3e190e42	0.14946845
10	0x3e190af1	0.1494558
11	0xbe190ef6	-0.14947113
12	0xbe190f75	-0.14947303
13	0xbe190cf7	-0.14946352
14	0x3e190f8d	0.14947338
15	0x3e190af7	0.14945589
16	0xbe18cdad	-0.14922209
17	0xbe190472	-0.14943102
18	0xbe190317	-0.14942585
19	0xbe19089f	-0.14944695
20	0xbe185e1a	-0.14879647
21	0xbe190539	-0.14943399
22	0xbe190947	-0.14944945
23	0x3e190584	0.1494351
24	0xbe18e749	-0.14931978
25	0xbe18ccc7	-0.14921866
26	0xbe19033a	-0.14942637
27	0xbe1902d8	-0.14942491
28	0x3e190b70	0.1494577
29	0x3e187b28	0.1489073
30	0xbe1904fd	-0.14943309
31	0xbe1858a5	-0.14877565

encoder_variable_selection.single_variable_grns.time_idx.gate_norm.add_norm.norm.weight f4 [16]
0	0x3f59bc93	0.85053366
1	0x3f59bbfe	0.8505248
2	0x3f932207	1.1494759
3	0x3f59bbfb	0.8505246
4	0x3f931ef0	1.1493816
5	0x3f59bc6e	0.85053146
6	0x3f9321f1	1.1494733
7	0x3f9321e7	1.1494721
8	0x3f59bc41	0.8505288
9	0x3f59bc98	0.85053396
10	0x3f59bc8f	0.8505334
11	0x3f9321fd	1.1494747
12	0x3f9321ec	1.1494727
13	0x3f59bc7e	0.8505324
14	0x3f59bc51	0.85052973
15	0x3f59bcee	0.8505391

encoder_variable_selection.single_variable_grns.time_idx.gate_norm.add_norm.norm.bias f4 [16]
0	0xbe190cff	-0.14946364
1	0xbe190fe1	-0.14947464
2	0x3e191020	0.14947557
3	0xbe19103d	-0.149476
4	0xbe190bca	-0.14945903
5	0xbe190feb	-0.14947478
6	0x3e190faa	0.14947382
7	0x3e190fb6	0.149474
8	0x3e190f90	0.14947343
9	0x3e190f02	0.14947131
10	0x3e190e14	0.14946777
11	0xbe190fe1	-0.14947464
12	0xbe190ffd	-0.14947505
13	0xbe190eb3	-0.14947014
14	0x3e191015	0.14947541
15	0x3e190cc0	0.1494627

encoder_variable_selection.single_variable_grns.T2M.resample_norm.mask f4 [16]
0	0xbe191004	-0.14947516
1	0xbe191037	-0.14947592
2	0x3e191000	0.1494751
3	0xbe190f1e	-0.14947173
4	0xbe190b77	-0.1494578
5	0xbe18f7a0	-0.14938211
6	0x3e190f44	0.1494723
7	0x3e190f57	0.14947258
8	0x3e190f44	0.1494723
9	0x3e190d47	0.14946471
10	0xbe190ede	-0.14947078
11	0x3e190dca	0.14946666
12	0x3e190e7b	0.1494693
13	0xbe190bd0	-0.14945912
14	0x3e190fd9	0.14947452
15	0xbe190e2d	-0.14946814

encoder_variable_selection.single_variable_grns.T2M.resample_norm.norm.weight f4 [16]
0	0x3f59bbf3	0.8505241
1	0x3f59bbed	0.85052377
2	0x3f9321fe	1.1494749
3	0x3f9321ec	1.1494727
4	0x3f59bc38	0.85052824
5	0x3f9321f3	1.1494735
6	0x3f9321dd	1.1494709
7	0x3f9321ed	1.1494728
8	0x3f9321e1	1.1494714
9	0x3f932147	1.149453
10	0x3f59bbfd	0.8505247
11	0x3f9321fe	1.1494749
12	0x3f932203	1.1494755
13	0x3f59c1a1	0.8506108
14	0x3f9321f7	1.149474
15	0x3f59bc64	0.85053086

encoder_variable_selection.single_variable_grns.T2M.resample_norm.norm.bias f4 [16]
0	0xbe190ff1	-0.14947487
1	0xbe19104a	-0.1494762
2	0x3e19104b	0.14947622
3	0xbe19105f	-0.14947651
4	0x3e190f21	0.14947177
5	0xbe19101b	-0.1494755
6	0x3e191017	0.14947544
7	0x3e190fe9	0.14947475
8	0x3e190ff3	0.1494749
9	0x3e190f96	0.14947352
10	0x3e190ff6	0.14947495
11	0xbe190f8c	-0.14947337
12	0xbe19101d	-0.14947553
13	0xbe190ee9	-0.14947094
14	0x3e19104a	0.1494762
15	0x3e190042	0.14941505

encoder_variable_selection.single_variable_grns.T2M.fc1.weight f4 [8, 8]
0	0xbe9edbf3	-0.31027183
1	0x3e0e96f8	0.13924778
2	0xbe797b1b	-0.24363367
3	0x3e3d8621	0.18508197
4	0x3dc8608d	0.097840406
5	0xbe8420ff	-0.25806424
6	0x3eb62e04	0.35581982
7	0xbf9c5fdb	-1.2216753
8	0xbe2bd806	-0.16781625
9	0x3d911e95	0.07085911
10	0x3d85502a	0.06509431
11	0x3dee5a23	0.11638286
12	0xbf6a9378	-0.9163127
13	0xbf5ad02f	-0.8547391
14	0xbf8aac77	-1.0833882
15	0xbeaf514d	-0.34241715
16	0xbebb514d	-0.36585465
17	0x3eb4dbdf	0.35323998
18	0xbea8aa72	-0.3294254
19	0xbf923c90	-1.1424732
20	0xbce21fab	-0.027602991
21	0xbe2f51e3	-0.17121081
22	0x3eed85e5	0.46391216
23	0xbe97fd43	-0.2968541
24	0x3ec622c9	0.38698414
25	0xbe25ce60	-0.16192007
26	0x3f172f72	0.5905677
27	0xbe03bf5a	-0.12865964
28	0xbed5581f	-0.41668794
29	0x3d6860ea	0.05673305
30	0xbf5a879a	-0.8536316
31	0xbe001f15	-0.12511857
32	0xbecc3cab	-0.39890036
33	0x3d23bbee	0.039974146
34	0xbcbe03eb	-0.023195228
35	0xbcf9bd74	-0.030485846
36	0x3ec4730e	0.3836903
37	0xbf5370a7	-0.8259377
38	0x3effcb1e	0.49959654
39	0x3f25d809	0.6478277
40	0xbd336e3f	-0.04380631
41	0xbe5e43f3	-0.21705608
42	0x3f0700fb	0.5273587
43	0xbea9acc3	-0.3313962
44	0x3e945998	0.28974605
45	0xbe44966a	-0.19198003
46	0xbd8923d7	-0.06696289
47	0x3ee623e6	0.44949263
48	0x3eb465f1	0.35234025
49	0xbe6ac832	-0.22927931
50	0x3e753307	0.23945247
51	0x3f2c2b58	0.6725364
52	0xbe94a44f	-0.29031608
53	0x3e4c867d	0.19973178
54	0xbec4d78d	-0.38445702
55	0xbe1254db	-0.14290182
56	0xbeff7daa	-0.49900562
57	0x3e26aba8	0.16276419
58	0xbf0d5fa2	-0.5522405
59	0xbe9c29c9	-0.3050063
60	0x3f187ca9	0.59565216
61	0xbef78169	-0.4834092
62	0x3d95a46a	0.0730675
63	0xbf777cb9	-0.96674687

encoder_variable_selection.single_variable_grns.T2M.fc1.bias f4 [8]
0	0xbe190fb4	-0.14947397
1	0xbe190eaf	-0.14947008
2	0xbe190ffe	-0.14947507
3	0xbe190fe4	-0.14947468
4	0x3e190f08	0.1494714
5	0xbe19100f	-0.14947532
6	0x3e188567	0.14894639
7	0x3e18e3d1	0.14930655

encoder_variable_selection.single_variable_grns.T2M.fc2.weight f4 [8, 8]
0	0xbea23b16	-0.31685704
1	0xbeb42451	-0.35183957
2	0xbfc8927d	-1.5669705
3	0x3f9eecf2	1.241606
4	0xbf34b13e	-0.7058295
5	0xbec4f1c0	-0.3846569
6	0xbf588ed8	-0.8459296
7	0x3d879eed	0.066221096
8	0xbe746d51	-0.23869826
9	0x3e4a0ee2	0.1973224
10	0x3dff1db3	0.124568366
11	0x3e7ced59	0.24699916
12	0x3f0143aa	0.5049387
13	0x3e5fea64	0.21866757
14	0x3f81daf3	1.0144943
15	0x3e211a5f	0.15732716
16	0x3f2c1d02	0.6723176
17	0xbd0d9e76	-0.03457495
18	0x3cd00d90	0.025397092
19	0xbdfec18a	-0.124392584
20	0xbe77cc27	-0.24198972
21	0xbf40bf4b	-0.7529189
22	0x3e6ea47d	0.23304935
23	0xbd939352	-0.072058335
24	0xbf2302d1	-0.6367617
25	0xbdbe6b7b	-0.09297844
26	0xbea8e668	-0.32988286
27	0x3cda6cf7	0.026663287
28	0x3fb2f496	1.3980892
29	0x3d169516	0.036763273
30	0x3db23cd9	0.08703012
31	0xbf951798	-1.1647825
32	0xbe82445e	-0.25442785
33	0x3f1e4307	0.61821026
34	0xbea432c4	-0.3206998
35	0x3eb2f635	0.34953466
36	0x3c3ff2a6	0.011715567
37	0xbd9b76d7	-0.07591026
38	0x3f434ae8	0.7628617
39	0x3f08e430	0.53473186
40	0x3e0676ce	0.13131258
41	0xbe8aa4c6	-0.27078837
42	0x3f7cbbdb	0.98724145
43	0x3ea2cad5	0.31795374
44	0xbeb1499b	-0.3462647
45	0x3f25660e	0.6460885
46	0xbf3bf759	-0.734243
47	0x3efd558d	0.49479333
48	0x3e8b6ce1	0.27231506
49	0xbe958bb0	-0.29208136
50	0x3e99a291	0.3000684
51	0x3edb788a	0.42865402
52	0xbd3f675c	-0.04672943
53	0x3f17da0f	0.59317106
54	0xbef0b256	-0.4701106
55	0xbf757d92	-0.9589473
56	0xbd98dc9f	-0.07463955
57	0xbdc7ba99	-0.097523876
58	0x3f339211	0.70144755
59	0x3f42df42	0.76121914
60	0x3f23c768	0.63976145
61	0x3e750a4b	0.23929708
62	0x3f9a0471	1.2032605
63	0xbdf73b11	-0.12071813

encoder_variable_selection.single_variable_grns.T2M.fc2.bias f4 [8]
0	0x3e190e2f	0.14946817
1	0xbe190e2f	-0.14946817
2	0xbe190880	-0.14944649
3	0x3e190fe7	0.14947473
4	0x3e18dc42	0.14927772
5	0xbe190df0	-0.14946723
6	0xbe190fc5	-0.14947422
7	0xbe190f2a	-0.14947191

encoder_variable_selection.single_variable_grns.T2M.gate_norm.glu.fc.weight f4 [32, 8]
0	0x3e459d74	0.19298345
1	0x3d93306e	0.071869716
2	0x3e9ba5d1	0.30399945
3	0x3d30e940	0.043191195
4	0xbe57b883	-0.2106648
5	0xbe623877	-0.22091852
6	0x3ca8d219	0.020607995
7	0xbed267f0	-0.41094923
8	0x3d7fd282	0.062456615
9	0x3e028300	0.12745285
10	0x3ecec90c	0.40387762
11	0xbee01863	-0.43768606
12	0x3e047064	0.12933499
13	0xbda35306	-0.0797482
14	0x3da4f38b	0.08054265
15	0x3cbd6fd1	0.023124607
16	0x3de411cd	0.11136208
17	0x3ea0ddf5	0.3141934
18	0xbd78b079	-0.060715172
19	0x3db668fa	0.089067414
20	0x3d919fdd	0.071105696
21	0x3e019312	0.12653759
22	0xbd469b26	-0.048487805
23	0x3e54ed01	0.20793535
24	0x3da9f701	0.082990654
25	0xbe90e356	-0.28298444
26	0x3e37dd38	0.17955482
27	0xbeeacbc4	-0.45858586
28	0xbf0172b0	-0.50565624
29	0xbe9d503e	-0.30725282
30	0x3dd01b33	0.10161438
31	0xbe5fe3b6	-0.21864209
32	0x3bc26640	0.0059325993
33	0xbe0423e1	-0.12904312
34	0x3e06b16a	0.13153616
35	0xbe087bf2	-0.13328531
36	0x3dfbc9b0	0.12294328
37	0xbd5e7399	-0.05430946
38	0x3e86f3ab	0.2635778
39	0x3eab3c7f	0.33444592
40	0x3e159411	0.14607264
41	0xbd116774	-0.03549905
42	0xbd2223a4	-0.03958477
43	0xbef94941	-0.486887
44	0x3e72dc52	0.23716858
45	0xbca30815	-0.019901315
46	0xbe894a3c	-0.2681445
47	0xbebd7466	-0.37002867
48	0xbd506bbc	-0.050883994
49	0x3d0a7fc6	0.03381326
50	0x3d1c1daa	0.038114227
51	0xbdc6d674	-0.097088724
52	0x3e036a86	0.12833604
53	0x3e93f8d7	0.28900787
54	0xbe59924e	-0.21247217
55	0xbd39c5ed	-0.045354772
56	0xbeffef5d	-0.49987307
57	0x3d962782	0.07331754
58	0xbeae68d7	-0.3406436
59	0x3e14d95e	0.14536044
60	0x3e24b56d	0.16084833
61	0xbe61b516	-0.22041735
62	0x3e692463	0.22767787
63	0x3db05329	0.086096115
64	0xbe26e711	-0.16299082
65	0x3eee3340	0.46523476
66	0x3e1995ab	0.149985
67	0x3e451645	0.19246776
68	0x3e4767e0	0.19473219
69	0xbe4a5a4b	-0.19761007
70	0xbde0fd1f	-0.10985779
71	0xbda55570	-0.080729365
72	0x3d59c206	0.05316355
73	0x3efe66d6	0.49687833
74	0xbea102c4	-0.31447423
75	0x3eb46b40	0.35238075
76	0xbdddd3d8	-0.108314216
77	0x3eaa5509	0.33268002
78	0xbe36a19f	-0.17835091
79	0x3d4c6d27	0.049908783
80	0xbe0b4b72	-0.13602999
81	0xbe146114	-0.14490157
82	0x3df3e359	0.119085975
83	0x3e7f9a42	0.24961188
84	0x3ec11dc6	0.37718028
85	0x3ebc1eb5	0.36742178
86	0x3ed88cd2	0.42294937
87	0xbd1b6131	-0.037934486
88	0x3eeec1b7	0.46632168
89	0x3e022238	0.12708366
90	0x3e3b800d	0.18310566
91	0xbdfcaca6	-0.123376176
92	0xbf02e6c2	-0.5113336
93	0x3e23a5fd	0.15981288
94	0xbe32000b	-0.17382829
95	0xbc0c86da	-0.008577073
96	0xbdb81dd6	-0.08990066
97	0xbe7b8ea7	-0.24566136
98	0x3ef55e7e	0.47923654
99	0x3e2fc2df	0.17164181
100	0xbeb916ff	-0.36150357
101	0xbd422d7f	-0.04740667
102	0xbdb8490a	-0.08998306
103	0x3daf6aab	0.08565267
104	0xbdb4328d	-0.08798704
105	0xbee327bb	-0.4436625
106	0x3e27673d	0.16347976
107	0xbe24bfcf	-0.16088794
108	0xbdd5a248	-0.10431343
109	0xbf03280c	-0.5123298
110	0xbeef9b4e	-0.46798176
111	0xbab471b4	-0.0013766796
112	0xbf018ca5	-0.5060523
113	0x3d215a45	0.03939273
114	0x3d7dbb55	0.061946232
115	0x3e84cbb9	0.25936678
116	0xbd2856de	-0.041098468
117	0x3e01b518	0.12666738
118	0x3ee1b5cd	0.44084015
119	0x3e39ce1c	0.1814503
120	0x3ec14711	0.37749532
121	0xbefa779d	-0.48919383
122	0x3e1f0c20	0.15531969
123	0xbe947c34	-0.2900101
124	0xbe9e59e6	-0.30927962
125	0xbe74bba1	-0.238997
126	0xbde837e0	-0.11338782
127	0x3d649731	0.05580825
128	0xbe2c81e3	-0.16846423
129	0xbda9342d	-0.08261905
130	0xbf02e866	-0.5113586
131	0x3d85a9d4	0.06526533
132	0x3d9be08c	0.07611188
133	0x3dad2c87	0.084557585
134	0x3e56d79f	0.2098069
135	0xbdf3959c	-0.1189377
136	0xbe2e09c0	-0.16995907
137	0xbe8b04cd	-0.271521
138	0x3d831aa8	0.06401569
139	0x3e2377f7	0.15963732
140	0xbe7de80d	-0.24795552
141	0xbbe0126a	-0.0068381326
142	0xbed278ec	-0.4110788
143	0x3e5a36a4	0.21309906
144	0x3df403cd	0.119147874
145	0xbea6a6d2	-0.3254915
146	0x3e53c2a9	0.20679726
147	0xbf022f0d	-0.50853044
148	0x3d8e8dee	0.06960665
149	0xbd26a8af	-0.040688213
150	0xbea49c7c	-0.32150638
151	0x3d9200b6	0.07129042
152	0xbee0fa9c	-0.439412
153	0x3ed2a2f7	0.41139957
154	0xbee1f806	-0.4413454
155	0x3e973027	0.29528925
156	0xbe679d67	-0.22618638
157	0xbe0cb70f	-0.13741706
158	0x3e8d1a82	0.27559286
159	0x3e83d9f5	0.25752226
160	0x3e1ed436	0.1551064
161	0xbe45423c	-0.19263548
162	0xbdcdc492	-0.100472584
163	0x3ddfec5c	0.10933754
164	0x3d581e76	0.052763425
165	0x3e5f40a8	0.21802008
166	0xbf07fbe4	-0.5311873
167	0x3e5acb85	0.21366699
168	0x3c9e8d02	0.019354347
169	0x3e7aaebf	0.24480723
170	0xbe9596e8	-0.29216695
171	0x3e189639	0.14901055
172	0x3e1ecd81	0.15508081
173	0xbc3e55bc	-0.01161712
174	0x3e19ff79	0.15038861
175	0x3c1c8aa0	0.009554535
176	0x3edccc06	0.43124408
177	0x3e6084a6	0.21925601
178	0x3e8de7cc	0.2771591
179	0xbe4a174d	-0.19735451
180	0x3e239111	0.15973307
181	0xbe933555	-0.28751627
182	0xbecd4128	-0.40088773
183	0xbdad722e	-0.08469044
184	0xbe7ba2c4	-0.24573809
185	0x3cbcf154	0.023064293
186	0x3e08729c	0.1332497
187	0x3f0636bb	0.5242726
188	0x3dbd6592	0.092478886
189	0x3f05c9e9	0.52261215
190	0x3ea66253	0.3249689
191	0x3e3e2cdc	0.185718
192	0x3ee506b8	0.44731688
193	0xbf02cbe4	-0.5109236
194	0x3e59a23e	0.21253297
195	0xbea5a366	-0.32351226
196	0xbeccc444	-0.3999349
197	0x3e6782ef	0.22608541
198	0x3de789cf	0.11305582
199	0xbe15d10d	-0.14630528
200	0x3e699c7f	0.22813605
201	0x3efd162d	0.4943098
202	0xbda51500	-0.08060646
203	0x3e528508	0.2055856
204	0xbda6b10a	-0.08139236
205	0xbeeeedc4	-0.46665776
206	0xbecbf59e	-0.3983583
207	0xbe4372c3	-0.19086747
208	0x3ec03a17	0.3754432
209	0xbe3c2e02	-0.18376926
210	0x3e355a4d	0.17710228
211	0x3e320da7	0.1738802
212	0x3e568aa5	0.20951326
213	0xbee8bae7	-0.45455095
214	0x3e5f62a6	0.21814975
215	0xbf080f6a	-0.5314852
216	0x3e3946bf	0.18093394
217	0xbe51fe5c	-0.20507187
218	0x3e2b1b57	0.16709648
219	0x3de819dd	0.11333058
220	0xbc92389f	-0.017849265
221	0xbdfe408a	-0.124146536
222	0xbe9cdb1f	-0.30635926
223	0xbcd6e91c	-0.026234202
224	0x3e70acde	0.23503444
225	0x3e18ed48	0.14934266
226	0x3e85e5a7	0.26151773
227	0xbe648c4f	-0.22319148
228	0xbc88573f	-0.016643165
229	0xbf08cf91	-0.5344172
230	0x3e1777ac	0.14791745
231	0xbeb1e00c	-0.34741247
232	0xbed33051	-0.412478
233	0x3d878b7b	0.06618401
234	0xbda47b72	-0.08031358
235	0x3bd63caf	0.0065379958
236	0x3eb73f75	0.357906
237	0x3eb659f0	0.35615492
238	0x3e3700e5	0.17871435
239	0x3e111309	0.14167418
240	0x3dc4638c	0.095892996
241	0xbddc0183	-0.10742476
242	0x3a7dab80	0.00096767396
243	0x3eb8b6aa	0.36076862
244	0x3cdeeef9	0.02721356
245	0x3e0de8e9	0.1385838
246	0xbd376055	-0.044769604
247	0x3d7e4c7c	0.06208466
248	0x3e55da3e	0.20884034
249	0x3ebc51b0	0.36781073
250	0xbc937c34	-0.01800356
251	0x3e0c046b	0.1367356
252	0x3ed374a4	0.41299927
253	0x3e8131a1	0.25233176
254	0xbe2ea1b3	-0.17053871
255	0xbdb35af3	-0.087575816

encoder_variable_selection.single_variable_grns.T2M.gate_norm.glu.fc.bias f4 [32]
0	0xbe190f2e	-0.14947197
1	0xbe191019	-0.14947547
2	0x3e190feb	0.14947478
3	0xbe191039	-0.14947595
4	0x3e190e13	0.14946775
5	0xbe190f7e	-0.14947316
6	0x3e190f7f	0.14947318
7	0x3e190f75	0.14947303
8	0x3e190f0c	0.14947146
9	0x3e190e67	0.149469
10	0x3e190f34	0.14947206
11	0xbe190e61	-0.14946891
12	0xbe190f9a	-0.14947358
13	0xbe190d92	-0.14946583
14	0x3e190fbb	0.14947407
15	0x3e190751	0.14944197
16	0xbe1873f8	-0.14887989
17	0xbe190d92	-0.14946583
18	0xbe190cb1	-0.14946248
19	0x3e190999	0.14945067
20	0xbe18f90a	-0.14938751
21	0x3e1900d7	0.14941727
22	0xbe190d49	-0.14946474
23	0x3e18e4b6	0.14930996
24	0xbe190c8a	-0.1494619
25	0xbe18e65c	-0.14931625
26	0xbe184a31	-0.14872052
27	0xbe18f998	-0.14938962
28	0xbe190975	-0.14945014
29	0x3e1902a4	0.14942414
30	0x3e190b8d	0.14945813
31	0x3e18f80a	0.1493837

encoder_variable_selection.single_variable_grns.T2M.gate_norm.add_norm.norm.weight f4 [16]
0	0x3f59bc2e	0.85052764
1	0x3f59bbed	0.85052377
2	0x3f9321fe	1.1494749
3	0x3f9321fe	1.1494749
4	0x3f9321d3	1.1494697
5	0x3f9321fa	1.1494744
6	0x3f9321a7	1.1494645
7	0x3f9321fd	1.1494747
8	0x3f9321e1	1.1494714
9	0x3f93219a	1.1494629
10	0x3f59bd4d	0.85054475
11	0x3f93220a	1.1494763
12	0x3f932206	1.1494758
13	0x3f9321d0	1.1494694
14	0x3f932206	1.1494758
15	0x3f9321a2	1.1494639

encoder_variable_selection.single_variable_grns.T2M.gate_norm.add_norm.norm.bias f4 [16]
0	0xbe190e51	-0.14946868
1	0xbe19102f	-0.1494758
2	0x3e191051	0.1494763
3	0xbe191065	-0.1494766
4	0xbe190e05	-0.14946754
5	0xbe191037	-0.14947592
6	0x3e191017	0.14947544
7	0x3e191014	0.1494754
8	0x3e19100b	0.14947526
9	0x3e190f91	0.14947344
10	0x3e190ef8	0.14947116
11	0xbe19102d	-0.14947577
12	0xbe19103e	-0.14947602
13	0xbe190f9f	-0.14947365
14	0x3e19104f	0.14947627
15	0x3e190e9e	0.14946982

encoder_variable_selection.single_variable_grns.T2M_MAX.resample_norm.mask f4 [16]
0	0xbe189e96	-0.14904246
1	0xbe181095	-0.14850076
2	0xbe18fb66	-0.14939651
3	0x3e1903c8	0.14942849
4	0xbe18fd8f	-0.14940475
5	0x3e18d261	0.14924003
6	0x3e18e89e	0.14932486
7	0x3e18f992	0.14938954
8	0x3e18e20d	0.14929982
9	0x3e18e0f4	0.14929563
10	0xbe18faa5	-0.14939363
11	0x3e18c44b	0.1491863
12	0xbe18f462	-0.14936975
13	0xbe19044f	-0.1494305
14	0x3e190656	0.14943823
15	0xbe18f820	-0.14938402

encoder_variable_selection.single_variable_grns.T2M_MAX.resample_norm.norm.weight f4 [16]
0	0x3f59f70c	0.8514259
1	0x3f931e02	1.1493533
2	0x3f59bd59	0.85054547
3	0x3f93218f	1.1494616
4	0x3f59bfb3	0.85058135
5	0x3f932089	1.1494304
6	0x3f931bf9	1.1492912
7	0x3f931fc4	1.1494069
8	0x3f931ba6	1.1492813
9	0x3f931ea7	1.1493729
10	0x3f59be90	0.850564
11	0x3f932035	1.1494204
12	0x3f59c73d	0.8506964
13	0x3f59be19	0.8505569
14	0x3f93215f	1.1494559
15	0x3f59c4bf	0.85065836

encoder_variable_selection.single_variable_grns.T2M_MAX.resample_norm.norm.bias f4 [16]
0	0xbe18ddfc	-0.1492843
1	0xbe1907be	-0.1494436
2	0x3e190c0e	0.14946005
3	0xbe190baf	-0.14945863
4	0x3e18eecc	0.14934844
5	0xbe1906f2	-0.14944056
6	0x3e1906e7	0.1494404
7	0x3e1905de	0.14943644
8	0x3e18fc9a	0.1494011
9	0x3e1904a9	0.14943184
10	0x3e19057a	0.14943495
11	0xbe1906e8	-0.14944041
12	0xbe1909e4	-0.14945179
13	0xbe19062f	-0.14943765
14	0x3e19094d	0.14944954
15	0xbe18dabe	-0.14927194

encoder_variable_selection.single_variable_grns.T2M_MAX.fc1.weight f4 [8, 8]
0	0x3bedb632	0.0072543854
1	0x3e1f1d58	0.15538538
2	0x3edfc7e8	0.43707204
3	0x3d3eccb4	0.04658194
4	0xbe948017	-0.29003975
5	0x3ef86a0c	0.48518407
6	0xbf76fc1e	-0.9647845
7	0xbd8b50ec	-0.06802544
8	0x3ee2c2df	0.442893
9	0x3f2f58f4	0.68495107
10	0x3f0c8dea	0.54904044
11	0xbcd41966	-0.025891017
12	0xbdaa796f	-0.08323943
13	0x3f13d466	0.5774597
14	0xbc0e3450	-0.008679464
15	0x3d8c6550	0.06855261
16	0x3ea842d8	0.32863498
17	0xbf411afa	-0.7543179
18	0xbe09f032	-0.13470533
19	0xbe020c4d	-0.12700005
20	0x3ed81c74	0.42209208
21	0xbe472852	-0.19448975
22	0xbedb99c9	-0.42890766
23	0xbf199368	-0.5999055
24	0xbe69c0c4	-0.2282744
25	0xbeb4d643	-0.3531972
26	0x3d642202	0.055696495
27	0x3ea765ef	0.32694957
28	0xbd9272fc	-0.07150838
29	0xbe6581a7	-0.2241274
30	0xbe1394b6	-0.14412197
31	0xbe9fa385	-0.31179443
32	0x3cefb1f4	0.02925966
33	0x3f1187f5	0.5684808
34	0x3e9c5f0b	0.30541262
35	0xbe1a68e5	-0.15079077
36	0x3f022cb2	0.5084945
37	0x3e63271d	0.2218289
38	0xbe685861	-0.22689964
39	0x3f7b2a81	0.9811173
40	0xbef0d42d	-0.47036877
41	0xbd3d0220	-0.046144605
42	0x3f186b81	0.5953904
43	0x3ebd1dc1	0.36936763
44	0xbd9a4ab9	-0.075337835
45	0x3f8784f2	1.0587447
46	0xbe9e737c	-0.30947483
47	0x3f27a7e9	0.65490586
48	0xbed37797	-0.41302177
49	0xbe40718e	-0.18793318
50	0xbe5528ef	-0.20816396
51	0xbe74a14f	-0.2388966
52	0xbe1a8a12	-0.15091732
53	0x3f17df43	0.59325045
54	0xbf1a954a	-0.6038405
55	0x3d89797d	0.06712625
56	0x3e4185de	0.18898723
57	0xbf21290c	-0.6295326
58	0x3f01ffc8	0.50780916
59	0xbe065e20	-0.13121843
60	0x3f892877	1.0715474
61	0xbfba6f55	-1.4565226
62	0x3ebf77f7	0.37396213
63	0xbe801807	-0.2501833

encoder_variable_selection.single_variable_grns.T2M_MAX.fc1.bias f4 [8]
0	0xbe18b678	-0.14913356
1	0x3e18c3de	0.14918467
2	0x3e18f2c3	0.14936356
3	0x3e18ef17	0.14934956
4	0xbe190520	-0.14943361
5	0xbe1904f5	-0.14943297
6	0x3e18e86c	0.14932412
7	0x3e18fed8	0.14940965
