ai_predict/ai/lightning_logs/version_44/checkpoints/epoch=0-step=8.ckpt (torch, 662004 bytes, 889 tensors)

prescalers.time_idx.weight f4 [8, 1]
00000000: 99b5 433f c977 8b3f f2f9 d1bd 22f1 0cbf
00000010: 7c3c dfbe 32e5 0f3f 40ba 44bf ac99 e03a
0.7644897 1.089593 -0.102527514 -0.5505544 -0.43600833 0.562091 -0.76846695 0.0017135642

prescalers.time_idx.bias f4 [8]
00000000: c1d1 823f bd72 613f 1ddd c53e 1f6f 823f
00000010: 359f 0e3f 07a7 6abe 30e5 233f 8b2c 0b3f
1.0220262 0.880657 0.3864526 1.0190161 0.5571168 -0.22915278 0.6402159 0.5436484

prescalers.T2M.weight f4 [8, 1]
00000000: bce3 e53e ccd3 83bf 4b98 8a3f 1a7e 6b3f
00000010: f5f9 93be af91 ab3e 01dc 0dbe 5582 e3be
0.4490031 -1.029901 1.0827726 0.9198929 -0.2890164 0.33509585 -0.13853456 -0.44435373

prescalers.T2M.bias f4 [8]
00000000: 8310 1ebe 7dd1 27be b93c e73e 52bd e53c
00000010: d1a2 db3e 5321 dabc 4fda 27bf ea25 6c3d
-0.15435986 -0.16388507 0.45163515 0.028044377 0.42897657 -0.026627218 -0.6556749 0.057653345

prescalers.T2M_MAX.weight f4 [8, 1]
00000000: 4ae7 2dbf 12e6 8bbf 6653 a63d 7fbe b0be
00000010: 88ed 1a3f eba1 43bf 6b77 aabe 4327 ea3e
-0.67931044 -1.0929587 0.08121376 -0.34520337 0.60518694 -0.7641894 -0.33294234 0.4573308

prescalers.T2M_MAX.bias f4 [8]
00000000: ee14 2d3f 8864 c93e 0cd5 cd3e 03b1 bfbd
00000010: fa3b 28bf 2b7f 64be 2f5f 48bf b5ae 463f
0.6761006 0.39334512 0.40201604 -0.09359934 -0.65716517 -0.22314136 -0.7827024 0.7761033

prescalers.T2M_MIN.weight f4 [8, 1]
00000000: 3940 5d3e ba5d 2abf 314c d13e ccde e93e
00000010: f279 6e3f aece f6be 26f2 4dbe f746 84bf
0.2160653 -0.66549265 0.40878442 0.45677793 0.93154824 -0.4820456 -0.20111904 -1.0334157

prescalers.T2M_MIN.bias f4 [8]
00000000: 1ceb 403f d2ec 723d d43f 4cbd 7399 6e3e
00000010: 80b8 593f cc6e fc3d ccf0 013f 6041 3e3f
0.7535875 0.05930788 -0.04986556 0.23300724 0.8504715 0.1232582 0.5075805 0.74318504

prescalers.PRECTOTCORR.weight f4 [8, 1]
00000000: ac83 80be b274 433d 4b56 b13e 7064 8b3d
00000010: 0f69 1b3e 1fcf 46bc fdbf 793f 9cda 7d3f
-0.25100458 0.04771871 0.3463615 0.06806266 0.15176795 -0.012134342 0.97558576 0.99161696

prescalers.PRECTOTCORR.bias f4 [8]
00000000: 8685 61bf 29a6 55bf 4018 f1be 8d63 35bf
00000010: f8bd aebe 7042 2b3f 13d2 323f 2f54 e5be
-0.88094366 -0.83456665 -0.47088814 -0.7085503 -0.3412931 0.6689825 0.698518 -0.4479079

prescalers.RH2M.weight f4 [8, 1]
00000000: aa87 7ebf fbc8 343f 1b6b 2d3e 39ab bbbe
00000010: c523 25bf 7769 f4be 3b27 0ebf 94be e13d
-0.99425757 0.7061917 0.16935389 -0.3665407 -0.64507705 -0.47736713 -0.5552861 0.11022678

prescalers.RH2M.bias f4 [8]
00000000: 2543 20bf 8496 17be 657f b4be fefb 8b3f
00000010: 95e9 a2be cc14 3bbe 2d35 3d3f b506 3b3e
-0.62602454 -0.14803511 -0.35253444 1.0936277 -0.31818834 -0.18269652 0.73909265 0.18264277

prescalers.ALLSKY_SFC_SW_DWN.weight f4 [8, 1]
00000000: aaf5 c93e a816 6dbe 0c09 603e aff4 c73e
00000010: 1e21 57bf e3b1 5f3f 98d9 513f 197c 8dbf
0.3944524 -0.23153174 0.21878451 0.39053866 -0.8403491 0.8738081 0.81972647 -1.1053497

prescalers.ALLSKY_SFC_SW_DWN.bias f4 [8]
00000000: e64e 9a3e 79e5 9d3e aed4 283f 3320 3abe
00000010: bfee 78be 9827 8dbf 7437 4cbf 7906 77be
0.3013832 0.30839136 0.65949523 -0.18176346 -0.24309824 -1.1027708 -0.79772115 -0.24123563

prescalers.numero_casos.weight f4 [8, 1]
00000000: 4179 8fbd 0aae 30bf 4ffd 2b3f 05bc 603e
00000010: df01 563f 0e7c d93e 6406 1ebd c508 8cbc
-0.07005549 -0.6901556 0.67183393 0.21946724 0.83596605 0.4247746 -0.038580313 -0.017094025

prescalers.numero_casos.bias f4 [8]
00000000: afcd 64be 91e9 40bf ad56 b53e 7757 af3e
00000010: 5853 153f 1877 b33e ef04 433f db9f 3dbf
-0.22344087 -0.75356394 0.3541769 0.34246418 0.583303 0.350518 0.76179403 -0.74072045

static_variable_selection.single_variable_grns.municipio.mask f4 [16]
00000000: 18b9 e83d a6b9 e8bd d2ba e8bd cbb7 e8bd
00000010: d6b1 e83d f2bb e8bd c9ba e8bd 92b5 e83d
00000020: eebd e83d d5b7 e83d 83b5 e8bd ccbb e83d
00000030: 2db9 e83d ffbc e8bd bcb6 e8bd f4bb e83d
0.11363429 -0.11363535 -0.11363758 -0.11363181 0.113620445 -0.11363973 -0.113637514 0.11362757
0.11364351 0.11363188 -0.113627456 0.113639444 0.113634445 -0.11364173 -0.11362979 0.11363974

static_variable_selection.single_variable_grns.municipio.norm.weight f4 [16]
00000000: c04b 763f 5222 7b3f 2ac4 873f 9308 733f
00000010: e968 7d3f 6750 863f 41c3 823f 8e31 7c3f
00000020: 73d7 8d3f adee 603f 0d2c 613f 001b 8f3f
00000030: c033 803f a714 8e3f 9e05 723f 90ec 893f
0.96209335 0.98099244 1.060674 0.9493496 0.98988205 1.0493287 1.0215837 0.98513114
1.1081375 0.8786419 0.8795784 1.1180115 1.0015793 1.1100053 0.9453982 1.0775318

static_variable_selection.single_variable_grns.municipio.norm.bias f4 [16]
00000000: 3fb7 e8bd 40b9 e83d b0bc e83d dca2 e83d
00000010: f8b7 e8bd 04c4 e83d 17bf e83d dda2 e8bd
00000020: dacd e8bd 77b2 e8bd 8113 e83d 08c4 e8bd
00000030: 6bba e8bd 22c6 e83d ec9d e83d 01c1 e8bd
-0.113630764 0.11363459 0.11364114 0.11359188 -0.11363214 0.11365512 0.113645725 -0.11359189
-0.11367388 -0.113621645 0.11331845 -0.11365515 -0.113636814 0.11365916 0.11358246 -0.113649376

encoder_variable_selection.flattened_grn.resample_norm.mask f4 [8]
00000000: a135 acbd aae5 1e3e 8014 14be 6ce5 683d
00000010: 2df3 033e 50d1 f43d d881 2fbd 808c 133e
-0.084086664 0.15517297 -0.14460945 0.05685942 0.12885733 0.11953986 -0.042848438 0.14409065

encoder_variable_selection.flattened_grn.resample_norm.norm.weight f4 [8]
00000000: b6da 6e3f bc99 933f e436 603f f101 883f
00000010: ad72 913f 365c 923f e688 7b3f 4ecb 923f
0.93302476 1.1531291 0.87583756 1.0625592 1.1363121 1.143439 0.98255765 1.1468294

encoder_variable_selection.flattened_grn.resample_norm.norm.bias f4 [8]
00000000: 5b88 82bd 320c 0d3e 8c2a 06be 25d9 783d
00000010: 62f1 01be 4fbe cdbc b167 123e 5448 13be
-0.06373664 0.13774183 -0.13102168 0.06075396 -0.12689736 -0.02511516 0.14297368 -0.1438306

encoder_variable_selection.flattened_grn.fc1.weight f4 [8, 64]
00000000: f860 c6bd 7eeb cc3d d806 0dbe e231 383c
00000010: a6b4 68be 9ce6 613d 6258 d5be 886f 263e
00000020: 9899 a43e fc73 c9be b3c0 543e 53df 843e
00000030: 983f f9bd 437f 8f3e df0f 093e 1a7e 4e3e
00000040: af6c 61be 44c6 91bd 79af 6d3e 61f7 57be
00000050: a6b2 0a3d fe0b 06be 831d 0cbd 98d3 8cbd
00000060: 4002 52be eba4 75be b257 013d 211d 263e
00000070: 7308 eb3e f626 27be 5977 41be 74f0 3abd
00000080: 8448 033b b565 2abe 38c3 983e de84 f53c
00000090: 584a 4a3e 78d9 02be 196f 603d 4ef0 cdbb
000000a0: ef47 333e e8ed b7bd ee6b 943e be03 b13d
000000b0: 6742 edbd 7c5b a93e 3e60 45bc 794c dabe
000000c0: 29ef 0c3e cacb 0e3e 4e4b bfbd 10f3 393d
000000d0: 3a44 293e 7210 d7bb 931c 873e 9764 f3bd
000000e0: fae3 653e e288 cebd 8e93 343c 4b68 953c
000000f0: 3b0a 66bb 858c 82be facd e9bd 433e 2d3e
00000100: 190b 8e3d 4659 9d3e af11 683e f12c 583e
00000110: 4a3e 6ebe 40b5 ca3d f46f c3be 37a5 47be
00000120: 2c59 a73d 5bf6 f83d 5406 993c 1058 0ebb
00000130: 5703 64bd b3bb 8ebd 3255 66bc d845 56be
00000140: aadc 00be 4887 9abe 2a6a 103d b2cf 74bc
00000150: f922 a8bd f129 99be 06c0 673d 0430 b83c
00000160: c90f f13d c1d1 d6be 30aa 523c c33a b53e
00000170: 8a16 94bd 56bc b3bd 1cf1 d5be 91a8 52bc
00000180: a024 793d bdcc bcbe c59c 41be 220d 23bd
00000190: 92e5 b3bd f9bb 343e 96ef 80be a36d b6bd
000001a0: f99c 2f3e 9ea2 4d3e 66d9 eabd b739 593e
000001b0: 3d05 9e3e 72a9 a53e 1f12 4b3e 26e3 b7bd
000001c0: c521 0d3e b4e8 88be cbaf 5dbe 8e3f eb3e
000001d0: 86a0 a43d d28d 183e f7c0 0dbe 3490 52be
000001e0: 1e50 363d f44d 91bd 4e43 a93e f165 b83e
000001f0: e3f0 963e 5021 abbc 2847 a0bd cf4b 0ebd
00000200: bef2 5fbe 8965 f4bd fdb7 e03d 15b5 6e3d
00000210: 2063 25be 4ba5 bdbd c24b 6a3e d7ae 99be
00000220: d3a0 c13d 0b35 1a3e 7bb5 be3d 76d6 543e
00000230: 238e 2a3d e082 f0ba 4611 8b3e ff8f 78be
00000240: 974f 443d 8238 8ebe 535b a13d 26bb 253d
00000250: 945b 9f3d 0011 393e be56 ba3d 56c2 323e
00000260: 7fe8 da3b 3a2f 60bd 05b7 213e 59a5 223e
00000270: 45a0 0cbe 0566 9fbe 67f0 c9be a068 51be
00000280: b92b 73be 542a 553e 1781 8ebd 3acb 9a3d
00000290: caa1 28be de52 9dbd d241 68be 12c9 943e
000002a0: 15f1 023e b08d 81be 0e5d 653e de71 823e
000002b0: 46c1 21bf e017 c7bd 6528 483e 1600 263e
000002c0: 72af b53e e895 91be e3aa 953e 9498 523d
000002d0: 0d12 04be 8a44 17be 947d 2a3e 4065 a8ba
000002e0: 9934 fa3d 1e86 1f3e 2ced 153c 531c a8bd
000002f0: d859 62be 987a 4b3d a5d8 34bd 55fa 1fbe
00000300: adf4 ce3e b78f 453e e39a c83d 7c36 89bd
00000310: f009 c2bc 4ab7 23bc 19ce 2ebd f26b a1bd
00000320: 45f1 d03e c233 80be c1d2 a83c 63f9 71be
00000330: c2f5 42bc 4f9a 0fbe a7f1 2fbd 3c93 60be
00000340: ccef 45bd 4168 aabe 83e7 2abe da16 263e
00000350: c987 acbd 58bf 13be 30f1 f83c c67f dd3d
00000360: 66d2 02be fe08 93be 3a5c f83d a80f a5bc
00000370: 1782 74bd 416a abbd 8d0b babd f29e d93c
00000380: 20b6 043e 3817 b83d b539 db3d 6994 0f3e
00000390: 1d6e 893e 5acb 93bd 5565 af3c a298 f6bd
000003a0: a618 3dbe 6be4 f4be 1efa a6be 9479 e3bd
000003b0: 7fb4 c3bd b58d c53e 1eb3 4a3d 59eb 00be
000003c0: 127c f43d ff24 0d3e 406a 4439 6262 2ebe
000003d0: d40d 6f3e 7f27 ddbe 6f7d b7bd 45f3 dd3e
000003e0: 5551 73be 55ae bb3d 287f 7e3d 22d3 0b3e
000003f0: 7543 a53e f656 f03d 925f 233e 2932 1fbe
-0.09686464 0.10005854 -0.13772142 0.011242362 -0.22725162 0.055151567 -0.41668993 0.16253483
0.32148433 -0.39346302 0.20776634 0.25951633 -0.12170333 0.2802678 0.1338496 0.20165291
-0.22014116 -0.07117894 0.23211469 -0.21090461 0.03386178 -0.13090512 -0.034207832 -0.06876296
-0.20508671 -0.23988692 0.031577773 0.1622205 0.45904884 -0.16323456 -0.18893184 -0.04563947
0.0020032236 -0.1664036 0.2983644 0.029970583 0.19754922 -0.1277827 0.05479345 -0.00628475
0.17507909 -0.08980924 0.28988594 0.08643292 -0.11584931 0.3307761 -0.012046872 -0.4263647
0.13763107 0.13944927 -0.09340535 0.045397818 0.16529933 -0.0065632397 0.26388988 -0.1188442
0.22450247 -0.10084702 0.011021508 0.018238207 -0.0035101313 -0.25497833 -0.1141624 0.16918282
0.069357105 0.30732173 0.22662996 0.21110894 -0.23265949 0.09897852 -0.3817135 -0.19496618
0.08171305 0.121563636 0.018679775 -0.002171997 -0.055667248 -0.069693945 -0.014058398 -0.20925081
-0.12584177 -0.30181336 0.035257496 -0.014942097 -0.082097955 -0.2991481 0.056579612 0.022483833
0.11770589 -0.41956905 0.012857959 0.35396394 -0.072308615 -0.087761566 -0.41785514 -0.012857572
0.060825944 -0.36874953 -0.18907459 -0.039807446 -0.087840214 0.17649831 -0.2518279 -0.0890763
0.17149724 0.20081565 -0.11467247 0.21213423 0.30863371 0.3235584 0.19831131 -0.08978872
0.13782413 -0.26740038 -0.21649091 0.45946926 0.0803843 0.1489785 -0.13843141 -0.20562822
0.04451 -0.070949465 0.33059162 0.36015275 0.29480657 -0.020889908 -0.07826072 -0.034740265
-0.21869943 -0.11933429 0.10972593 0.058278162 -0.16151094 -0.09260043 0.22880462 -0.30016205
0.09454503 0.15059297 0.093119584 0.20784935 0.04163946 -0.0018349551 0.27161616 -0.2427368
0.047927465 -0.27777487 0.07878747 0.04046168 0.07781139 0.18072891 0.09098576 0.17456946
0.0066805477 -0.05473254 0.15792473 0.15883388 -0.13733013 -0.31132522 -0.39441225 -0.20450068
-0.23747148 0.20816928 -0.06958216 0.07558294 -0.16467968 -0.07681821 -0.22681358 0.29059654
0.12787278 -0.2530341 0.22398779 0.254775 -0.63185537 -0.09721351 0.1954666 0.1621097
0.35485417 -0.28434682 0.2923194 0.05141504 -0.12897511 -0.1477224 0.16649467 -0.0012847558
0.122170635 0.15578505 0.009150784 -0.082085274 -0.22104585 0.04967746 -0.04415192 -0.15622838
0.40421048 0.19293104 0.09795167 -0.06699845 -0.02368638 -0.00999243 -0.04267702 -0.07881917
0.40809074 -0.25039488 0.020608308 -0.2363029 -0.011899414 -0.14023708 -0.042955067 -0.21931165
-0.04832439 -0.33282664 -0.16689877 0.16219655 -0.084243365 -0.1442846 0.030388445 0.108153865
-0.12775573 -0.28717798 0.12126966 -0.020149067 -0.059694376 -0.08369876 -0.090842344 0.026565049
0.129601 0.089888036 0.10704366 0.14021458 0.26841822 -0.072165206 0.021410624 -0.12040831
-0.18466434 -0.4783052 -0.326127 -0.111071736 -0.09555911 0.38584676 0.049487226 -0.12589778
0.11937727 0.13783644 0.00018731598 -0.17029718 0.23345119 -0.43194196 -0.089594714 0.43349662
-0.23761494 0.091641106 0.062132984 0.1365476 0.32278028 0.117353365 0.15954426 -0.15546478

encoder_variable_selection.flattened_grn.fc1.bias f4 [8]
00000000: fa1d e7bc e31d 8f3b 32c7 31bc 3b9c 343c
00000010: b6be 0f3e ce2e 143e c8fd 0ebd 091d 34bd
-0.028212536 0.0043675764 -0.0108507145 0.011023576 0.14037594 0.1447098 -0.034909993 -0.043973003

encoder_variable_selection.flattened_grn.context.weight f4 [8, 16]
00000000: 79cb 0fbe c430 23be e88a b43e a55d afbe
00000010: 9212 00bf dd78 ba3e 7edb a83e 2712 a3be
00000020: 614f 4cbe 2482 533d d660 5cbe 63b6 82be
00000030: 2e53 0e3f f0a9 0dbd 674c c03e 2418 b93d
00000040: b78d 483e db8b 8d3d d564 d33e 6cb0 743e
00000050: 8a0d 56be 0c88 d03e bb13 773e 4a8c a93e
00000060: dcd4 28be 1064 933e 2402 8dbe 22bc 243e
00000070: e35c 49be 04ee 01be c4a6 9d3e c969 cd3e
00000080: dd8e 80bd 0b46 2ebe f0e5 0b3f 545b ab3e
00000090: f8dd b33e 8de2 1cbe f314 b83e d24c b2be
000000a0: 304f 90be 515c bcbd 3daf 813e b37b d73d
000000b0: 0764 eb3d 4d9c ee3d 9d41 be3d ebe3 9f3e
000000c0: b5fd 393e 1689 923e 3664 9a3d 5917 b1be
000000d0: d1b8 0cbc 1bb0 79be 425b c7be 08b9 22be
000000e0: 73f9 f83e 0164 8d3e 8eb1 cd3e 0264 b73e
000000f0: 5765 073f 7a80 8b3e beb1 513c 41d6 bebe
00000100: 4abe d43e ec00 d13e 7c97 8bbd c9f7 15be
00000110: 59fc ac3e e003 22be 5aeb b13e 8e01 c13c
00000120: d5b0 bfbe ffe8 813e 0d89 a73d f0ec 81be
00000130: 8220 87be e4b0 d53e b578 cd3e f68c f33b
00000140: 4092 c83b f758 df3e e92f a83d fa0f d43e
00000150: 6ea7 023f 8935 183f fc66 ae3e 8469 d6be
00000160: 94a4 5cbe e4a2 9c3e c6a9 35bc 3553 b2be
00000170: be57 e83d a986 383e fc47 1a3d 1612 55be
00000180: 7ad8 dbbe 4bc0 af3d 3c1d 96bd a69c c43e
00000190: d36a c73e b1b6 ec3d 9cb2 ac3e a28f a33d
000001a0: 1de9 1ebe b835 3ebe 4e80 2d3e efc2 0cbe
000001b0: 65c8 83be e989 17be f7a6 503e bd25 85bd
000001c0: 9298 803e 7843 aebe b343 e7be e7d4 92be
000001d0: 38e5 063f 5ca5 9c3e 8da9 263e 3e83 3dbe
000001e0: 11cf 233e 20ac 8c3e 6846 87bd beb1 03bf
000001f0: 79bd ca3e 8501 b53e cd92 11be 4bc5 1fbd
-0.14042462 -0.15936571 0.35262227 -0.34251133 -0.50028336 0.36420336 0.3297996 -0.31849787
-0.19952156 0.051637784 -0.21521315 -0.25529775 0.5559567 -0.034585893 0.3755829 0.090378076
0.1958531 0.06911441 0.41287866 0.23895425 -0.20903602 0.40728796 0.2412862 0.33114845
-0.1648745 0.2878728 -0.27540696 0.16087392 -0.1966434 -0.12688452 0.30791295 0.4011977
-0.06277249 -0.17018907 0.5464773 0.33468115 0.35130286 -0.15320797 0.35953483 -0.34824234
-0.28185415 -0.091972955 0.2532901 0.10521641 0.11493688 0.11650906 0.092898585 0.31228575
0.18163188 0.28620213 0.07538645 -0.34588125 -0.008588986 -0.24383585 -0.38936812 -0.15890896
0.48627815 0.2761536 0.40174526 0.35818487 0.5288901 0.27246457 0.012798725 -0.37272838
0.4155143 0.40821016 -0.06816003 -0.14645304 0.33786276 -0.1582179 0.34749871 0.023560312
-0.374396 0.25373074 0.08180437 -0.2537608 -0.2639199 0.4173652 0.40131155 0.0074325753
0.00612095 0.43622562 0.08212263 0.4141844 0.5103673 0.5945669 0.34062946 -0.41877377
-0.21547157 0.30593026 -0.01108784 -0.34829107 0.113448605 0.18020119 0.037666306 -0.2080768
-0.42938596 0.08581599 -0.07329795 0.38400763 0.38948688 0.11558283 0.33730018 0.0798638
-0.15518613 -0.1857518 0.16943476 -0.13746236 -0.25738826 -0.14798702 0.20376192 -0.06501339
0.25116402 -0.3403585 -0.45168838 -0.28678057 0.5269351 0.3059491 0.16275616 -0.18507096
0.15996958 0.2747507 -0.06605226 -0.5144309 0.3959768 0.35352722 -0.14216156 -0.039006513

encoder_variable_selection.flattened_grn.fc2.weight f4 [8, 8]
00000000: 70c5 6bbe c81b a73e d67d 50bd 40d1 c93e
00000010: 3206 5ebe f85e 713e 7f60 5d3e b1e8 c63d
00000020: debf dcbb 02de 27bf d56e debc 0db3 06be
00000030: af60 76bf ecd6 86bf 68e4 183f 43a2 993e
00000040: 4102 0fbf 8c4c cfbd 25a9 0d3f d19f 293d
00000050: 5c61 31bd 42f0 103f c964 c03e 9a86 a7be
00000060: 350b 203f 98ae 9bbe 6da6 3bbf 8e8d 9ebe
00000070: af7a aabe 1bb9 76be ca0e 87be 32a9 2bbf
00000080: f4e6 16be 0d18 c03e 8d9c 12bf de02 563f
00000090: a7e6 6dbe c0e7 5b3f aa2c f33d 7f7f 18bf
000000a0: 45c4 9f3e 06c5 573e 75bf 013f e8bf f03d
000000b0: 6fc2 cdbe f988 9fbc 8a4f de3e 6381 abbe
000000c0: e85a 823e d3e6 ca3e 578d 5a3d 9a21 843f
000000d0: 3ab1 2abf e77c a63e 15a8 ba3e e9b3 0bbe
000000e0: ad88 66be f233 a73e 57af 0fbf 577a 0c3e
000000f0: e38a fd3d fba1 bebe 603b f8be 1421 2ebe
-0.23024535 0.32638383 -0.050901257 0.39417458 -0.21682051 0.23571384 0.21618842 0.09712351
-0.0067367395 -0.6557313 -0.027152458 -0.1315424 -0.9624128 -1.0534339 0.5972352 0.30006608
-0.55862814 -0.10122022 0.5533622 0.04141218 -0.04330574 0.56616604 0.37576893 -0.3271988
0.625171 -0.30406642 -0.7330082 -0.30967373 -0.33296725 -0.2409405 -0.2637847 -0.67055047
-0.14736539 0.3751835 -0.5727013 0.83598125 -0.23232518 0.859005 0.11873753 -0.59569544
0.3120443 0.21071252 0.50682765 0.11755353 -0.40187404 -0.019474493 0.43420058 -0.33497152
0.2545998 0.3962923 0.05335745 1.0322754 -0.66676676 0.32517168 0.3645636 -0.13642849
-0.22513075 0.3265682 -0.5612692 0.13718544 0.12380006 -0.37232956 -0.484828 -0.17004806

encoder_variable_selection.flattened_grn.fc2.bias f4 [8]
00000000: cecb 90bc 6ee6 19be 197a 123e 0475 203d
00000010: c6b8 ff3c 1add c1bc 96ce a13b 189c 0fbe
-0.017675307 -0.15029308 0.14304389 0.039174095 0.031216037 -0.023665 0.004937957 -0.14024389

encoder_variable_selection.flattened_grn.gate_norm.glu.fc.weight f4 [16, 8]
00000000: e865 e7be 974c 89be 927d e83e 49ad 55be
00000010: 3b2a 33be 8c80 2d3e ef6a 02bf 7074 29bb
00000020: f5f1 863e d8cd 88be 4e47 0e3f efad 923d
00000030: cab9 003f 9b64 b0be 0a7f d23e fa06 9ebe
00000040: 216d 6bbe 0164 493e 4423 903d c9f9 d03d
00000050: 0902 273e daac a13e dee0 ff3e 1c8c 073f
00000060: b80f 99bd be8f 95be 5db0 973e f981 ab3d
00000070: c931 5cbe 3265 723e 5267 873e 6acd 78bd
00000080: ae1d 453d e8cc e8bd 4a5c 483e 2e58 1d3f
00000090: 34fe 6dbd f6ec 683e 0804 b43e fa76 c73d
000000a0: 4c0d cd3d fd89 303d d034 61be d6d1 ea3e
000000b0: b453 d83e 3d8f 033f 4d87 693e 3b9a 6c3e
000000c0: d1b3 933e 6239 eabe fac5 e9bd 4238 89be
000000d0: e19b f7be 347f e23e 5de4 663d 3e16 c8be
000000e0: 57f7 b53e 7436 633d 4a69 a43e 41e0 243f
000000f0: 4b15 4cbe 79b5 a03e 5d79 7ebd 8268 b6be
00000100: 2927 7cbe 3487 aebe dc8e d1be 8dec 52be
00000110: fad3 393e ba58 80be b382 be3d 7c5d b33e
00000120: c943 223f b7d9 c2bd 7050 c93e 4b48 a0bd
00000130: d9a2 9d3e 0c16 253e e190 7a3c 10e4 f4bd
00000140: 6e7b b1be 9fe1 a83e ca45 58be 5494 d43d
00000150: 0cc8 7cbd 56d1 72be 361c 753d 7606 a43e
00000160: 5cdd e13e 42c0 013f d649 c7be 8b59 8dbe
00000170: b631 243e 2f39 b8be b2f8 69be f1b7 ac3e
00000180: a3a8 b43e d0cc b5be 9b6c ccbe 2eaf 26be
00000190: 9881 8abd 262e e3bd 83b4 9f3e 204e 8f3d
000001a0: b854 803d 002b 0c3f 63e4 c4bd 7618 00bf
000001b0: af30 09bf 81a4 713e 244e a1be ee38 793e
000001c0: b3f0 d33e dcca 593d e6ed 93be 6a1d 7ebd
000001d0: 02b4 dd3e 83c8 193e adaa 9dbe 1d3e f0be
000001e0: fb90 4a3e b826 eb3e 544c 783e d824 ef3e
000001f0: 1a9b bdbe 2704 a5bd 7494 7f3d 1f82 8d3e
-0.45194936 -0.26816246 0.45408303 -0.20866884 -0.17496578 0.16943568 -0.5094442 -0.0025856756
0.26356474 -0.26719546 0.5557755 0.071620815 0.5028349 -0.34451756 0.41112548 -0.30864698
-0.22990848 0.19667055 0.070379764 0.10203893 0.1630937 0.31577188 0.49976248 0.52948165
-0.07473701 -0.2921123 0.29626742 0.083744 -0.21503367 0.23671415 0.26446015 -0.060742773
0.048124008 -0.11367208 0.19566455 0.61462677 -0.058103755 0.22746643 0.35159326 0.0973949
0.10012302 0.043100346 -0.21992803 0.45863217 0.4225136 0.5139044 0.2280552 0.23105709
0.28848127 -0.45746905 -0.11414714 -0.26800734 -0.48361114 0.44237673 0.056370128 -0.3907947
0.35540268 0.055471852 0.3211158 0.64404684 -0.19929998 0.31388453 -0.06212746 -0.35626608
-0.24624313 -0.34087527 -0.40929306 -0.2059805 0.18147269 -0.25067693 0.09302273 0.3503226
0.6338468 -0.09514182 0.3931918 -0.07826289 0.30788305 0.16121691 0.015293331 -0.11957562
-0.34664482 0.32984635 -0.21120372 0.10379854 -0.061714217 -0.23712668 0.059841357 0.3203618
0.44114196 0.5068399 -0.3892352 -0.27607378 0.16034588 -0.35981128 -0.22848776 0.33734086
0.3528491 -0.35507822 -0.3992661 -0.16277763 -0.06762999 -0.110927865 0.31192407 0.06997323
0.06266159 0.5475311 -0.09613874 -0.50037324 -0.5358991 0.2359791 -0.3150493 0.24338123
0.41394576 0.053171977 -0.2889244 -0.06203977 0.43301398 0.15017895 -0.30794278 -0.4692239
0.19781868 0.45927978 0.24247867 0.46707797 -0.37032396 -0.080574326 0.062397435 0.27638337

encoder_variable_selection.flattened_grn.gate_norm.glu.fc.bias f4 [16]
00000000: e41d b3bd 307c 0d3e 16e0 ecbd 6448 d23d
00000010: 697c 07be 6818 5a3b 89ba 0c3e 944f 0ebe
00000020: 9505 553c 0886 183e 3750 6b3d 8603 0abe
00000030: e4bc 97bc 36c7 ed3d d839 fc3d e95f 86bd
-0.087459356 0.13816905 -0.115661785 0.10267714 -0.13231052 0.0033278707 0.13743033 -0.13897544
0.013001819 0.14894879 0.057449546 -0.13477907 -0.018522687 0.11610262 0.1231572 -0.06561262

encoder_variable_selection.flattened_grn.gate_norm.add_norm.norm.weight f4 [8]
00000000: 40c7 653f b1bf 913f 25c7 633f 0018 883f
00000010: 363b 5d3f 0ed2 833f 2ca9 893f 022a 6d3f
0.89757156 1.1386625 0.88975745 1.0632324 0.86418474 1.0298479 1.0754752 0.92642224

encoder_variable_selection.flattened_grn.gate_norm.add_norm.norm.bias f4 [8]
00000000: 80ca c1bd 35a7 0d3e 9f04 0fbe 856b 383d
00000010: c88e f2bd b3c1 0dbe eca3 003e 0b5b 92bd
-0.09462452 0.13833316 -0.13966607 0.045024414 -0.118436396 -0.13843422 0.12562531 -0.07146271

encoder_variable_selection.single_variable_grns.time_idx.resample_norm.mask f4 [16]
00000000: a8b2 efbd b9d7 ed3d de6c 2b3e 4932 05be
00000010: 5687 e8bd fe76 b53d 0994 bd3c 6bf1 e3bd
00000020: 4ae7 b03d 08b5 333e 9897 15be 2aed fbbd
00000030: ad81 c03d 8487 213c 6ab8 13be 539d d83d
-0.11703998 0.116134115 0.16740748 -0.13007464 -0.11353938 0.088605866 0.023141878 -0.11130031
0.08637865 0.17549527 -0.1460861 -0.12301095 0.09399734 0.00985897 -0.14425817 0.10576882

encoder_variable_selection.single_variable_grns.time_idx.resample_norm.norm.weight f4 [16]
00000000: 3e7b 613f 3116 903f bf6d 923f 524c 903f
00000010: 84ae 8e3f 9119 903f e68c 7e3f ed92 653f
00000020: 1fa6 8f3f a98e 8c3f 0a89 903f 254f 5d3f
00000030: 4966 813f 7cdc 5d3f f829 623f f2d1 633f
0.8807868 1.1256772 1.1439742 1.1273291 1.1147008 1.1257802 0.99433744 0.89677316
1.1222571 1.0981036 1.1291821 0.8644889 1.010934 0.8666456 0.8834529 0.88992226

encoder_variable_selection.single_variable_grns.time_idx.resample_norm.norm.bias f4 [16]
00000000: ce90 243e 7d4e e13d 094d b3bd c62e 05be
00000010: be53 e1bd 802d be3d 2c6c 48bd 37ae e5bd
00000020: 88c1 cc3d ce29 89bc 7e7b f3bd 9b29 85bd
00000030: 75d4 af3d 0a4e fc3d a86f de3d d5ae d83d
0.16070864 0.110012986 -0.08754928 -0.13006124 -0.11002301 0.09286022 -0.048931286 -0.112148695
0.09997851 -0.016743567 -0.11888789 -0.06502076 0.08585445 0.12319572 0.108611405 0.105802216

encoder_variable_selection.single_variable_grns.time_idx.fc1.weight f4 [8, 8]
00000000: 09e0 703f 6945 2b3e fa6a cb3c d413 34bf
00000010: 58a9 d7be 3c38 073e 4008 babe d66a 513e
00000020: b5d5 ae3e ad1c 983d 5625 fabe 4aa1 943d
00000030: 1b6e 4c3c 364b 9fbd bac8 933f d8e9 95be
00000040: 825c 3b3e e64e 62bd 5d90 29bd cffa 003e
00000050: aaa0 a6be 3710 02bf 48d6 d53e a9af 443d
00000060: 50d1 d13d 4646 f93d 1689 1cbf 4970 2c3d
00000070: 9c21 143f b465 92be 6fcc c1be cf62 2f3d
00000080: 315a 2dbf e12b 2abf 5366 e1be 45bb 10bf
00000090: b795 88be 81cb 80bf 268a 223f 736b eb3e
000000a0: 869d 443f 9580 9bbe bba9 d2be 66da 883f
000000b0: 470e 64be bc52 e23e dd84 fd3f 7679 723e
000000c0: ab61 75bf 7553 d03d fa0b 89be 5222 96be
000000d0: bfa6 c8bd 22eb 9cbe 03b0 36bf 0069 113e
000000e0: 3b03 903e 6e55 b1be cfe3 09bf 4859 de3e
000000f0: 0436 2cbe a758 2abe f6bb 40bf 6941 05bf
0.9409185 0.16725697 0.024831284 -0.70342755 -0.42121387 0.13205045 -0.3633442 0.20450911
0.3414742 0.074273445 -0.4885661 0.07257326 0.012477423 -0.07778017 1.1545632 -0.2927997
0.18297008 -0.055251025 -0.04139744 0.12595676 -0.32544452 -0.5080599 0.41765046 0.048019085
0.10245001 0.12171607 -0.61146677 0.04209927 0.57863784 -0.28593218 -0.37851283 0.04281884
-0.67715746 -0.66473204 -0.4402338 -0.5653575 -0.26676723 -1.0062104 0.6349205 0.45980415
0.7680286 -0.30371538 -0.4114512 1.069165 -0.22271071 0.44203746 1.9806172 0.23679146
-0.95852154 0.10172168 -0.2676695 -0.2932306 -0.09797429 -0.30648142 -0.7136232 0.1420021
0.28127465 -0.3463549 -0.53863233 0.4342749 -0.1681748 -0.1663538 -0.75286806 -0.5205293

encoder_variable_selection.single_variable_grns.time_idx.fc1.bias f4 [8]
00000000: 2d3f f23d 4136 fdbd 9296 ae3d 0326 64bd
00000010: d0ad 1c3e a389 3fbd 6792 d4bd ac9d debd
0.11828456 -0.12363864 0.08524813 -0.055700313 0.15300679 -0.04676212 -0.103794865 -0.10869917

encoder_variable_selection.single_variable_grns.time_idx.fc2.weight f4 [8, 8]
00000000: 923a 9fbe 2006 103e d01b 303d 0178 133e
00000010: bc34 963b e53d 60be b0c5 8c3f d33a b43e
00000020: 956a 03bf 12af 103e 1c7c 153f fa04 04bc
00000030: f21e 5a3f d0df 043f c3ff a63e da0c bdbe
00000040: af52 f8be d876 28be b122 a3be 1ae0 da3e
00000050: b647 ac3f b324 41bd 2127 7d3e ee78 4abe
00000060: e372 03bd 7fe7 b13e 8908 5d3f 9618 c5bc
00000070: a999 b83e 2402 193d afa6 2b3f b295 26be
00000080: 8b4f 0bbf 6691 30bf 51e6 c5be 8cb7 5dbe
00000090: 14aa 9fbe 035a 183f 66fb cfbe 6b62 d23e
000000a0: f5b1 703d 78f9 993e 1c94 d23d 63ef 1ebf
000000b0: 47fc 8a3f f668 433f 21e6 b5be 7804 d8bd
000000c0: 4e7d 9c3e f49b 2cbd 4e3e 333e c18d 373f
000000d0: 5afd 87bf e137 f53e ade2 a0be 7335 cc3d
000000e0: 4769 ff3e be6f 2d3f 5aa3 6b3e 0f91 583f
000000f0: 7a02 af3e d369 90bd 75e2 46bf 7ed5 9cbc
-0.31099373 0.14064837 0.042995274 0.14401247 0.004583923 -0.21898611 1.099783 0.3520113
-0.51334506 0.14129284 0.583925 -0.008057827 0.8520347 0.5190401 0.32617006 -0.36923867
-0.48500583 -0.16451585 -0.31862405 0.427491 1.3459384 -0.04715414 0.24721958 -0.19772694
-0.032091986 0.3474693 0.8634115 -0.024059575 0.36054733 0.037355557 0.67051214 -0.16268042
-0.5441825 -0.6897186 -0.3865228 -0.21652049 -0.31184447 0.59512347 -0.4062149 0.41090712
0.058763463 0.30073142 0.10282156 -0.62084025 1.0858239 0.7633203 -0.35527137 -0.10547727
0.3056435 -0.042140916 0.17504236 0.71700674 -1.0624192 0.47894195 -0.3142294 0.09971132
0.49885008 0.6774863 0.23011532 0.8459634 0.34181577 -0.07051434 -0.77689296 -0.01914477

encoder_variable_selection.single_variable_grns.time_idx.fc2.bias f4 [8]
00000000: 43b8 dcbd 28c3 04be fa38 93bd 8cd6 e73d
00000010: bcf3 a93d b5c5 153d 5956 dd3d 8071 c93d
-0.10777333 -0.12965071 -0.07188602 0.113202184 0.08298442 0.0365655 0.10807485 0.098361015

encoder_variable_selection.single_variable_grns.time_idx.gate_norm.glu.fc.weight f4 [32, 8]
00000000: fc49 9f3e 5dc9 cebd afd9 c23e f701 f23b
00000010: 5459 213e db24 61be fc77 87be 34e6 2cbe
00000020: e69e 38be 0236 6abe 0598 a6be c87c a53d
00000030: f27e 05bd 9523 b43d 43bc c33e 1f0d 1bbe
00000040: 249a 5ebe 427d bbbe 3a64 68be 0c54 a43d
00000050: dcc9 72be 154a 643e 6512 2ebd 069a 74be
00000060: 0127 f53e b21d 313d 3db5 ac3d 7e53 5abe
00000070: c275 e4be 6db3 56bd 81b2 e9be 3318 9ebe
00000080: eb1d 6b3e 80bd 98bd 0e19 f9bd 43c1 0bbe
00000090: 74de edbc 2eee 74be 22c7 4f3e 976a 5d3d
000000a0: e5c7 cabe 6e4a 113e cfe7 24be a93a a33e
000000b0: f62a 24bc 43b4 d03e e66d 743e 60bc 24be
000000c0: a1de ccbd 89fa 5ebe fabd 113e bfc4 6fbe
000000d0: 3b6e acbe fe1a e8bd 341c 4d3e ddb6 bbbe
000000e0: b2b0 72be b9cf 35bd 88c4 37be c198 9bbd
000000f0: f590 e93c 7473 1fbe 8b68 c33d d0d3 f6be
00000100: 1545 b33c 8798 823e 3645 423d 4f63 5c3e
00000110: a8d3 4bbb 89e3 ba3e b740 71bd e446 15be
00000120: cbd4 5a3e 5023 ffbc 7382 5d3e 226f 2f3e
00000130: 1949 c3bd e04b 11be ce85 b7be e417 61be
00000140: e51b 8c3e 690f 99bd 60f2 883e 0d7b 483e
00000150: 2fa0 2cbe 8fe8 703e 2a73 66be d570 16be
00000160: 92f0 94be 16c0 573e 58ec b03e c435 703d
00000170: a272 063f 544e c23e fcc4 123d 43a0 253e
00000180: 0df4 24be 709e e23d b2eb 94be ea73 5fbd
00000190: 92d4 b53e b687 ef3e ec05 f93d ec71 813b
000001a0: 08c9 e0be a527 d8be d0e7 1f3e 1403 36bd
000001b0: eaa9 b7bd 1993 30be 86a1 aa3e cf93 b03e
000001c0: 230b 49be 0b51 f2be 1ef2 76be de3f 80be
000001d0: e1c2 c7bd 2cda 6cbd ea31 de3e bfff bc3d
000001e0: 43f0 d3be fb30 94bd 6f8e a4be 7d8b c33c
000001f0: 3f34 dc3e 289b 7f3e 2a0c 83bd 10ee b03e
00000200: a54f 3bbe 0bd5 f6be 0ab5 d8be 174b 663d
00000210: f92f 9abe 0fb8 7bbe a71e 27be c7b0 1bbd
00000220: 2922 383e bc16 edbe 1a2e 823e bb69 503e
00000230: 2451 88be 548f 9abe 8556 203e 8dec e1bb
00000240: d6ed 83be 8fc9 f2bd 69aa 07be 904b 923e
00000250: 7344 b23e 0a85 fb3d 2921 853e 37d9 043f
00000260: 1e34 32be 35dc ca3e 641f d7be f7b7 78bd
00000270: 685e f63e c9f1 2b3e 6dd9 8a3e 834e 883e
00000280: 0d22 b43e d6bd febd 646a 6fbe 21a3 ff3e
00000290: ae55 063e c6dc f5be 3b9a d6be cf79 dcbb
000002a0: 225c c2be 8ffa a63d e3dc 68bd 0afd 75bd
000002b0: 1b5c 7abe 9ccd e83e a761 0ebe ff7b de3b
000002c0: 90af a13c 0b7c 9ebe 1313 8b3e 850b 7f3e
000002d0: 58c8 49be 58c5 483e a512 b33e fb3b 5f3e
000002e0: e173 433e e4a8 b3be 4bc2 913e a28b a23e
000002f0: 8d26 6c3e fc06 97bc 3e71 a9bd b7e7 adbe
00000300: 396d be3d f702 45be c731 c03e 2b73 8dbe
00000310: 9eff 9a3e 4e8b 6cbe 33bb 5ebe 2b02 acbc
00000320: 7045 54be b0f9 cfbc 395b bebd 97f8 53be
00000330: 08a9 dbbe 649e c53e d173 6ebc 7cae 87be
00000340: 31f3 78be 880f 0b3e 035d 0cbe 6605 663e
00000350: 4312 b3be efc1 843e be79 c0be 1be4 ed3d
00000360: ba21 913c e841 d7bd f1fa a73d 4372 b03e
00000370: eeef 39be b541 a73e c8cb ecbd d69d 07be
00000380: d608 70be a263 c23e 04c4 2ebe a707 69be
00000390: 60f3 cc3e cfd4 ce3e 1394 aa3d 029a c53e
000003a0: 6f86 ac3d ac23 9139 8495 7dbe 534b 833d
000003b0: 97ef 9f3d 92a8 993d 5e2d e53d 5161 d8bd
000003c0: bbbb 893e 22a9 2cbd 9c28 cebe 6c92 d6be
000003d0: 2848 ea3e 5f8a 843e 012b 503e b45c 963e
000003e0: 4527 653e 97c4 3b3e 8931 9abe e65b 393e
000003f0: b646 5f3e 937c 833e 0f6e 673d f454 e43d
0.31111133 -0.10097001 0.38056704 0.007385488 0.15756732 -0.21986715 -0.26458728 -0.1688469
-0.18029365 -0.22872165 -0.32537857 0.08080441 -0.032591768 0.08795849 0.3822957 -0.15141724
-0.21738487 -0.36619002 -0.22694483 0.08023843 -0.23709816 0.22293885 -0.04249801 -0.2388688
0.4788132 0.04324121 0.08433006 -0.21320912 -0.44621092 -0.052417208 -0.45644 -0.30877838
0.22960632 -0.07458019 -0.12162982 -0.13647942 -0.029036738 -0.23918983 0.20290807 0.05405673
-0.39605632 0.14188549 -0.16104053 0.31880692 -0.010020008 0.4076253 0.23870048 -0.16087484
-0.100034006 -0.21775259 0.14232627 -0.23414896 -0.3367785 -0.11333273 0.2003029 -0.3666295
-0.23700216 -0.044387553 -0.17946064 -0.07597495 0.028511504 -0.15571386 0.09541424 -0.48208475
0.021883527 0.25506994 0.047429286 0.21522258 -0.0031101499 0.3650172 -0.058899608 -0.14577824
0.21370237 -0.031144768 0.21631794 0.17132238 -0.09535427 -0.141891 -0.35844272 -0.2198177
0.27365032 -0.074736424 0.26747417 0.1957819 -0.1685798 0.23526214 -0.22504869 -0.1469148
-0.2908979 0.21069369 0.34555316 0.058645025 0.52518666 0.37950385 0.03583239 0.16174416
-0.16108723 0.11065376 -0.2908607 -0.054553904 0.3551374 0.46783227 0.12159333 0.003950348
-0.43903375 -0.42217746 0.15615773 -0.04443653 -0.089679554 -0.17243613 0.33326358 0.3448777
-0.19633155 -0.47327456 -0.24115798 -0.25048727 -0.09753967 -0.057825252 0.43397456 0.09228467
-0.41394243 -0.07235905 -0.32139918 0.023870224 0.4300861 0.24961531 -0.063988045 0.34556627
-0.182921 -0.48209414 -0.42325622 0.056223955 -0.30114725 -0.24581932 -0.16320287 -0.038010385
0.17981781 -0.46306407 0.25425798 0.20352833 -0.26624405 -0.30187476 0.15658005 -0.006894654
-0.25767392 -0.118548505 -0.132486 0.28573275 0.34817848 0.122812346 0.26001862 0.51893944
-0.17402694 0.3962113 -0.42016137 -0.060722318 0.481189 0.16791452 0.27119008 0.266224
0.3518223 -0.12438552 -0.23380429 0.49929145 0.13118622 -0.4802 -0.41914544 -0.006728388
-0.37960917 0.08153259 -0.05685128 -0.06005577 -0.24449198 0.45469368 -0.13904439 0.006789684
0.019737035 -0.30954012 0.2716299 0.24906738 -0.19705331 0.1960653 0.34975162 0.21800224
0.19087173 -0.3508979 0.28468546 0.31747156 0.23061581 -0.018435948 -0.08273552 -0.33965847
0.09298176 -0.19239412 0.37537977 -0.2762693 0.30273145 -0.23100016 -0.21751098 -0.020997128
-0.20729613 -0.025387615 -0.09294743 -0.20700298 -0.42902398 0.38597405 -0.01455398 -0.2650031
-0.2431152 0.13580143 -0.13707356 0.22462997 -0.3497487 0.2592921 -0.37592882 0.11615773
0.017716277 -0.105106175 0.0820216 0.34462175 -0.18157932 0.32667318 -0.11562306 -0.13243803
-0.2344087 0.3796664 -0.17066962 -0.22756825 0.4002943 0.40396735 0.08329024 0.3859406
0.08424079 0.00027683133 -0.24764067 0.06410851 0.0780937 0.07502855 0.11190294 -0.10565437
0.2690104 -0.042153485 -0.40265357 -0.41908586 0.45758176 0.2588682 0.20328905 0.29367602
0.22378261 0.18336712 -0.30115917 0.18101463 0.21804318 0.2568098 0.056501444 0.11149016

encoder_variable_selection.single_variable_grns.time_idx.gate_norm.glu.fc.bias f4 [32]
00000000: 0192 e9bd b723 e53d 772b 75bd f19a 07be
00000010: 2d3d dbbd 3d0c ba3d 3794 38bd e9ef e7bd
00000020: c2bb da3d ecbb 04bd 78c8 f0bd a587 b3bd
00000030: 9c25 ad3d 76d3 003e e957 e13d 3a51 d13d
00000040: 3066 ce3d 7113 d8bd 3292 083e 7ec3 1c3e
00000050: 0854 dfbd 52db b63d 40ca 3c3a a50d ecbd
00000060: 95dc 833c bf1c 8fbc 64c2 e3bd 35f6 153e
00000070: 7651 be3d 3c64 afbd 1332 ec3d 12eb 9b3d
-0.11404801 0.11188453 -0.059855904 -0.13242699 -0.10705028 0.090843655 -0.045063224 -0.11325056
0.10680343 -0.03240578 -0.117569864 -0.087661065 0.08454439 0.12580666 0.11003096 0.10220571
0.100780845 -0.10550583 0.13337019 0.1530895 -0.109046996 0.08928551 0.00072017685 -0.1152604
0.016096393 -0.017469762 -0.111210614 0.14644702 0.09292881 -0.0856404 0.115329884 0.076131955

encoder_variable_selection.single_variable_grns.time_idx.gate_norm.add_norm.norm.weight f4 [16]
00000000: 0153 623f 316e 6b3f 2b00 833f d84e 943f
00000010: f1b0 8f3f 025a 8f3f f14c 6a3f 03b0 653f
00000020: 0e78 903f 725d 563f d0df 923f e17c 723f
00000030: 0dfc 863f 8f3a 5f3f 9753 613f 6622 573f
0.88407904 0.91965014 1.0234426 1.1586561 1.1225873 1.1199343 0.91523653 0.897217
1.1286638 0.83736336 1.1474552 0.947218 1.054567 0.8719873 0.8801817 0.8403686

encoder_variable_selection.single_variable_grns.time_idx.gate_norm.add_norm.norm.bias f4 [16]
00000000: be72 b53b a037 de3d e99d cdbd cf8a 0ebe
00000010: 3548 dfbd ced2 d43d 9194 03bd c023 d5bd
00000020: b659 ed3d 541d 323e 472e fbbd a2b0 d43d
00000030: 0f65 a43d d163 033e 43eb e13d eeb1 db3d
0.00553736 0.108504534 -0.100398846 -0.13920139 -0.10902444 0.1039177 -0.032124106 -0.104072094
0.11589377 0.17394 -0.12264686 0.103852525 0.08027088 0.12831046 0.11031201 0.10727297

encoder_variable_selection.single_variable_grns.T2M.resample_norm.mask f4 [16]
00000000: 27c6 dfbc bc66 17be 2351 ffbd ce45 12be
00000010: f698 2dbc c049 08be ba3a 043e 7fa2 623c
00000020: b886 0c3e 402e ca3c ce0a cabb 5227 e1bd
00000030: f58f 0f3e efe5 22be a450 5e3c ec5a 113e
-0.027316166 -0.14785284 -0.124666475 -0.14284441 -0.010595551 -0.13309383 0.12913027 0.013832687
0.13723266 0.024680257 -0.006165839 -0.10993828 0.14019759 -0.15908025 0.013569031 0.1419484

encoder_variable_selection.single_variable_grns.T2M.resample_norm.norm.weight f4 [16]
00000000: d0bb 743f 11d7 5b3f 8c27 603f ed02 5c3f
00000010: 1e1a 803f 320e 5e3f 559e 853f a5c6 723f
00000020: 7975 913f 20e8 823f c6fd 933f dfa7 643f
00000030: 0aee 913f 4615 5a3f 3cce 833f e472 913f
0.9559908 0.8587504 0.87560344 0.85941964 1.000797 0.8674041 1.0438944 0.9483436
1.1363975 1.0227089 1.156182 0.8931865 1.1400769 0.8518871 1.0297313 1.1363187

encoder_variable_selection.single_variable_grns.T2M.resample_norm.norm.bias f4 [16]
00000000: 79e6 0a3e 8f7a 9abc 9268 06be c490 16be
00000010: d448 e53c 3e94 103e f093 9e3c 6259 543b
00000020: 7aae 073e 54ad af3c ca6e d53c eb22 ea3d
00000030: 0a99 0cbe 4442 023e bf6b 943d df1b d7bc
0.13564481 -0.018857269 -0.13125828 -0.14703661 0.027988829 0.1411905 0.019357651 0.003240191
0.13250151 0.021444954 0.026053805 0.11432441 -0.13730255 0.12720591 0.072471134 -0.026258407

encoder_variable_selection.single_variable_grns.T2M.fc1.weight f4 [8, 8]
00000000: 0069 ed3e 4c9c 87bd f784 cb3e d28f 9bbe
00000010: ff11 b9be 916e e1be c493 e93e 99ba fdbe
00000020: e935 0abf a6da 8ebf 3bc4 1e3e 36af 0b3e
00000030: c4e9 49bd a6fd 073f ad6b febe e7ae afbe
00000040: 6259 c03e 0349 b8be a879 d83d 991c 333e
00000050: b8a9 843d c398 33be df95 4cbf d2d9 10bf
00000060: 8191 27bf fb73 17bf 8cd7 9abe 6281 05bf
00000070: 6f90 38be 78bf 12be f098 553f 6876 0bbd
00000080: b020 53be 5b4a 273e 531f b7bd d7fd e83d
00000090: ec49 45bf d6eb 093f 9598 923e 98db 91bf
000000a0: c2b9 823e 9085 6a3f dfc0 57be c51e 30bd
000000b0: cf27 d1be a6f3 4a3f 6269 163f fce6 d1be
000000c0: 1852 18bf c8d3 d23d 4b50 9abe 1694 a73d
000000d0: ad2f 43bc 79ed dbbe 3fd4 f5be 0a2e 91be
000000e0: 0379 10bf 1410 6d3e b9fa dd3d 48c8 2ebf
000000f0: aa7c 873e 1e7c 143e d4b4 403d 40eb 6c3f
0.4636917 -0.06621608 0.39749882 -0.30383164 -0.36146542 -0.44029668 0.4562055 -0.49556425
-0.5398851 -1.1160476 0.15504543 0.13641056 -0.049295202 0.5312141 -0.49691525 -0.34313127
0.37568194 -0.35993204 0.10570079 0.17491378 0.06477684 -0.17538743 -0.79916185 -0.5658237
-0.65456396 -0.5916135 -0.30242574 -0.5215055 -0.18023847 -0.14330852 0.8343649 -0.034048468
-0.20617938 0.16336958 -0.089415215 0.11376541 -0.7706592 0.5387548 0.28632036 -1.139514
0.25532347 0.9161005 -0.21069668 -0.042998094 -0.40850684 0.7927803 0.5875455 -0.4099654
-0.59500265 0.102943 -0.30139384 0.08182542 -0.011913222 -0.42954615 -0.48013493 -0.28355438
-0.5643465 0.23150665 0.10838837 -0.68274355 0.264623 0.14500472 0.04704745 0.92546463

encoder_variable_selection.single_variable_grns.T2M.fc1.bias f4 [8]
00000000: 366d 223e b13b 5bbc 2b51 073d 20d4 01bd
00000010: f1f6 0fbe 9052 1cbe fe92 083e 8012 8bb9
0.15861973 -0.013380931 0.033036392 -0.03169644 -0.14059044 -0.1526587 0.13337323 -0.0002652593

encoder_variable_selection.single_variable_grns.T2M.fc2.weight f4 [8, 8]
00000000: 7612 1a3f 7006 593e d60b 3d3e b1cf 74bf
00000010: f4bd 76be 78eb ffbe 5bc4 c73e ff74 a83e
00000020: 5d04 26bf c883 213e a068 2f3e decc 313f
00000030: d60f 37be 0aae d83e 23ea 073f b0ea 7f3d
00000040: 50de be3e 2ae2 d7be 2eed 45be 2edc 093f
00000050: 0055 603e 86a5 a63f 334a 283f 87ea 1c3f
00000060: 3dad 103f db6a a13e f412 c73e 9264 0e3f
00000070: 4df4 1d3f 73de 343f 21d7 18bf 8471 cdbe
00000080: 25ea 493f 1825 d53c e40d 37bd b02a e6bc
00000090: 0366 183e c765 5dbf 9c42 bd3e 85bc f6be
000000a0: fec2 1dbf 797a 69be 4fcf 8bbe 20c6 2dbe
000000b0: 5cf7 a2be d01a 483f 5752 52bf a286 a33e
000000c0: 78f9 203f 5634 0fbf c091 a83d 59a5 3d3f
000000d0: a323 98bd 9a00 343e 1403 b03e 3aa6 a9be
000000e0: c220 abbe 14b6 f03d 1a31 0c3f 175f 8abe
000000f0: e6ac 15bf 6efe fbbd b131 3a3e 6a6b 833e
0.6018442 0.21193862 0.18461546 -0.9562941 -0.24095899 -0.49984336 0.39016995 0.3290176
-0.6485041 0.15772927 0.17129755 0.6945323 -0.17877135 0.4232028 0.5309164 0.062479675
0.37278986 -0.42164737 -0.19328758 0.5385159 0.21907425 1.3019264 0.6573822 0.6129536
0.5651434 0.31526837 0.38881648 0.5562221 0.617009 0.7065193 -0.5970326 -0.40125668
0.788729 0.026018664 -0.04469098 -0.028096527 0.14882664 -0.86483425 0.3696488 -0.48190704
-0.6162566 -0.22800626 -0.273066 -0.1697011 -0.31829345 0.7816591 -0.8215689 0.31938654
0.6288066 -0.55939233 0.082309246 0.74080426 -0.07428672 0.17578354 0.34377348 -0.33134633
-0.3342343 0.11753479 0.54762423 -0.27025673 -0.5846695 -0.12304388 0.18183018 0.25667888

encoder_variable_selection.single_variable_grns.T2M.fc2.bias f4 [8]
00000000: 1ccb 583c c4e3 f63b 94a8 b13a 650f 09be
00000010: d7d9 883d a74f 09bd dd59 823c e682 153e
0.013232019 0.007534476 0.0013554269 -0.13384779 0.06682175 -0.033523228 0.01591199 0.14600715

encoder_variable_selection.single_variable_grns.T2M.gate_norm.glu.fc.weight f4 [32, 8]
00000000: 6ace 803d 0312 f63e 88bf bebd 7c33 e5be
00000010: cc5b 95bc a0e3 813e d06b e4be 1d4a f93d
00000020: d20b ba3d 5366 96be 462c 59be 88ed c13e
00000030: 73ca 7e3e 3668 423e e131 afbe 2f17 42bd
00000040: f871 34be 2b68 97be 1fcd 1dbe 7d95 af3e
00000050: b175 793c 127f b33d f501 02be 099c cbbe
00000060: f2cf a9be 569c 533e b5ee c43e 4db6 fc3e
00000070: 7389 6d3e d681 613e 2a40 cf3e 80ad 40be
00000080: 6533 813e ffbe 55bc 3fcc be3a 39f8 ae3e
00000090: 1e97 5d3e 1e0f 953e bea3 113e f02c c03d
000000a0: 5832 a43d 3ce9 823d a9bd fe3e 0255 03bf
000000b0: 0e0c a6be e162 61be dfd2 45be 5233 4dbe
000000c0: 07e3 65be dbcd e9be 8685 dbbd 8afd 6a3d
000000d0: fe83 8fbd 264e 47bd 724b 31be 35e8 9a3e
000000e0: ccfd a3bd c528 bd3d d78e 823e 43a8 95be
000000f0: 5e66 9fbe d03c 88be 32ab acbe 2a20 9cbe
00000100: 2016 c6bc cd84 8fbc 1a69 b3be 8597 70be
00000110: 4363 033f cdec 3dbd f05c 363e 3df5 e53e
00000120: ebb7 5ebe fa2b ed3d 791d aebd 9c30 3ebd
00000130: 2490 d9bc 688c 96bd 1cc9 b23e a87e 493e
00000140: a2a6 0b3c 0a88 883d 8097 0bbe 66d9 8d3d
00000150: 6b21 9f3d a298 0a3d 1507 edbe 7fbd 343e
00000160: 88e2 07bf 78eb bb3d d3bc 193e 028c f6be
00000170: 46ff bdbd ee35 683e d460 8ebe 3be6 b7bd
00000180: 4aff 9abe 067f 8b3c 7a47 dcbe 0e4e 1cbe
00000190: bb09 ae3e c244 113e de52 c5bd 7263 cfbe
000001a0: 2dbd 4c3e 2cd5 723e 431d 0a3e 9bf8 7d3d
000001b0: 1ee9 bc3d 9053 f53d 3eea 373c 30d4 903e
000001c0: 9c92 bb3d d773 253e 8a36 8dbc d0e6 f5be
000001d0: f032 203a ac9f ca3e adaa e1bd 72b7 c63e
000001e0: 37f6 bcbe 884e b63d 28ee 383e 64ec 4fbe
000001f0: 8fd2 5abe 83e4 023f 7a17 383e 24bb 81bc
00000200: aae7 813e 71b4 cfbd dcbe a1be 5643 50be
00000210: 92a7 a33d 79cd aebe de5f 02bf f89c 15bd
00000220: d6cd 413e 66b1 e13d 4faf 6b3e 1edc 6f3d
00000230: d311 80be 08da 963d 529b 95be 62ab 1f3e
00000240: de45 68bb 6092 943c b935 773e d9d2 373d
00000250: 2d25 9abd f1bc 70be d5f7 90be 51ab 4ebe
00000260: 4b3c 483e c6f1 1fbc 135c 39be d8fb 91bd
00000270: 7e83 993d 366d 483e 4fb9 e3be e85b a33e
00000280: a7f5 073d 2a9f a73c 8fd6 fcbd 4f99 b43e
00000290: 6ebb 763e 9a57 3c3e 0f75 863d 7c83 b03d
000002a0: e2ed e83c f140 153e df85 c33e 0dd8 d0be
000002b0: 2e16 34be 379d 833e e2c8 a43b ba2b cc3d
000002c0: 8cf2 93be c941 dd3d 1296 65bd 20b5 683e
000002d0: eb12 813d 768a b83d e272 333d 9d79 563e
000002e0: 333e 003e 39a6 3fbe 85f1 57be c9c4 9f3e
000002f0: a363 ba3e f117 5f3e bea5 ed3e ae0b 34bc
00000300: 24fe 333e 248a b43e e990 b5bd 85e9 d0be
00000310: f945 8abd 1eb8 c33e 6463 46be e11d 033e
00000320: de39 ee3d 9c34 b3be 80b7 99bd 5b71 a1bd
00000330: 503a 3a3e cd8d a93d a462 3ebe d571 2abd
00000340: befe 253e 03ad fabe 1f4c adbe 8841 313b
00000350: 149a f83c 57e5 46be 1625 df3e 5d8d a7be
00000360: 759c 403e a3bf a33e ace6 d43e 6e95 8e3e
00000370: 8485 4fbe c979 223e a904 443d 36c4 973e
00000380: 3980 e6bc 4696 87bc 9514 843d 33aa 923e
00000390: 78a0 7d3e 1db1 abbe 7642 26bd f418 48be
000003a0: 2083 a93d c6f6 80be 8849 14be 0247 52be
000003b0: 03b5 0e3e 9a0c 6fbd 4bc8 c4bd 50cb f0be
000003c0: 6c46 913e 9ae4 d53e b73c 8e3e 71c3 45be
000003d0: 0979 c6be 0f55 5f3e dc7a 93be 87ce 2abe
000003e0: bf3a a5be 826f 983e 6b1d 0fbe e07d b03d
000003f0: c617 22be ba00 cd3e 91e9 06be 72e6 ac3e
0.0628937 0.48060617 -0.093138754 -0.44765842 -0.018232249 0.25368977 -0.44613504 0.12172339
0.09084286 -0.29374942 -0.21208295 0.37876534 0.24881916 0.18985066 -0.34217742 -0.04738539
-0.176216 -0.2957166 -0.15410279 0.34293738 0.015225814 0.08764471 -0.12696059 -0.39767483
-0.33166462 0.20665106 0.3846337 0.49357834 0.23196964 0.22022185 0.4047864 -0.18816185
0.25234523 -0.013046025 0.001455672 0.34173754 0.21639678 0.29113096 0.14222619 0.09383571
0.08017415 0.06392142 0.49754074 -0.51301587 -0.32431072 -0.22010376 -0.19318722 -0.20039108
-0.22449885 -0.45664868 -0.10718827 0.0573707 -0.070075974 -0.048658513 -0.17313936 0.30255285
-0.08007392 0.09236292 0.25499603 -0.29229936 -0.31132787 -0.26608896 -0.33724362 -0.3049329
-0.024180472 -0.017519379 -0.35041124 -0.234953 0.51323336 -0.04636841 0.1780889 0.44913664
-0.21749847 0.115806535 -0.08501715 -0.046433076 -0.02655799 -0.07350999 0.3491906 0.19677222
0.008523615 0.066665724 -0.13632011 0.06926231 0.07770046 0.03383697 -0.46294466 0.17650412
-0.53080034 0.091757715 0.15013437 -0.48153692 -0.09277205 0.22676823 -0.2780825 -0.0897946
-0.30272895 0.017028343 -0.43023282 -0.1526415 0.339918 0.14186385 -0.09634946 -0.40505558
0.1999404 0.23714131 0.13487725 0.062004667 0.09224151 0.11978829 0.011225281 0.28286886
0.09158823 0.1615747 -0.01723792 -0.48027658 0.0006111106 0.39574945 -0.11018882 0.38811833
-0.36906597 0.089016974 0.180596 -0.2030502 -0.21369384 0.5112993 0.17977706 -0.015836306
0.25372058 -0.10141838 -0.31590927 -0.20338187 0.07990946 -0.34141138 -0.5092753 -0.03652665
0.18926176 0.11020164 0.23016094 0.05855953 -0.250136 0.07365805 -0.29220062 0.15592721
-0.0035442035 0.018136203 0.24141587 0.044878814 -0.07526622 -0.23509575 -0.2831408 -0.2018254
0.1955425 -0.009762233 -0.1810153 -0.071281135 0.07495783 0.1957291 -0.44477317 0.31906056
0.033193257 0.020461638 -0.12345611 0.35273215 0.24094936 0.18392792 0.06565296 0.08618829
0.028433744 0.14575554 0.38188073 -0.40789834 -0.17586586 0.25705883 0.00502883 0.09969278
-0.28895986 0.10803563 -0.05605132 0.22725344 0.063024364 0.09010784 0.043810733 0.2094483
0.12523727 -0.18715753 -0.21088226 0.31204823 0.36404142 0.21786477 0.46415514 -0.010989113
0.17577416 0.35261643 -0.0886553 -0.4080316 -0.067516275 0.38226408 -0.19373852 0.12804367
0.11632131 -0.35001075 -0.07505703 -0.07882949 0.18186307 0.082789995 -0.18592316 -0.041612465
0.16210458 -0.48960122 -0.33847138 0.0027047116 0.030346908 -0.19423424 0.43582982 -0.3272504
0.18809684 0.31982145 0.4158224 0.2784838 -0.20265776 0.1586677 0.047856007 0.29641885
-0.028137313 -0.016551148 0.06449238 0.28645477 0.24768245 -0.33533564 -0.040590726 -0.19540769
0.08276963 -0.25188273 -0.14481175 -0.205349 0.13936238 -0.058361627 -0.09608515 -0.47030115
0.2837404 0.41775972 0.27780697 -0.19312836 -0.38764217 0.21809791 -0.28804672 -0.16680346
-0.32271382 0.29772574 -0.13976066 0.08617759 -0.15829381 0.40039617 -0.13175036 0.33769566

encoder_variable_selection.single_variable_grns.T2M.gate_norm.glu.fc.bias f4 [32]
00000000: 3a0e 0e3e 3983 9abc b3c3 08be 7b81 17be
00000010: 528b e73c 4141 0d3e a43f 7a3c 1644 033b
00000020: 32b7 093e e417 ba3c fe9d df3c 3781 f53d
00000030: 2c03 0dbe a478 ef3d 2f8a 913d 74c2 b7bb
00000040: d025 083e 7b41 033c 97fb 8a3c 4e49 153e
00000050: 096e 0cbe 7a01 fc3d f3d6 02be 5112 1cbe
00000060: b26c 033e 5c53 0bbe e280 0fbd d7dc f63d
00000070: d2f2 7d3b 7c68 09be 3d76 9a3c 1669 1c3e
0.13872615 -0.0188614 -0.13355903 -0.14795487 0.028264675 0.13794424 0.015273962 0.0020029596
0.1344879 0.02271647 0.027297016 0.119875364 -0.13770741 0.11692932 0.071064346 -0.0056078974
0.13295674 0.008011217 0.01696567 0.14578745 -0.1371385 0.12304969 -0.12777309 -0.15241362
0.12834433 -0.13606018 -0.03503502 0.120538406 0.0038749469 -0.13418764 0.018855209 0.15274462

encoder_variable_selection.single_variable_grns.T2M.gate_norm.add_norm.norm.weight f4 [16]
00000000: 6eef 7c3f 7805 5d3f f9bc 633f f15b 613f
00000010: ad6b 7b3f 3b96 5b3f 342b 823f bb18 5c3f
00000020: 3b21 913f ba24 823f af36 953f fef5 923f
00000030: 957d 913f 98fa 7f3f f7f3 913f c722 933f
0.9880284 0.8633647 0.88960224 0.88030916 0.98211175 0.8577611 1.0169435 0.85975236
1.1338266 1.0167458 1.1657313 1.1481321 1.136645 0.9999175 1.1402577 1.1494988

encoder_variable_selection.single_variable_grns.T2M.gate_norm.add_norm.norm.bias f4 [16]
00000000: bb6a 083e d143 8dbc e10b 02be 086a 13be
00000010: da9e ca3c eac9 093e 5dd7 5a3c c487 d9ba
00000020: f1d0 063e 7e9d c63c bcc7 c83c 77a3 d93d
00000030: f1a7 0bbe 8ef5 733c 2b89 d63d 4890 c43d
0.13321964 -0.017244251 -0.12699844 -0.14395916 0.02473395 0.1345593 0.013357011 -0.0016596247
0.13165642 0.02424502 0.024509303 0.106268816 -0.13638283 0.014890088 0.104753815 0.09597832

encoder_variable_selection.single_variable_grns.T2M_MAX.resample_norm.mask f4 [16]
00000000: 3c16 173e c46d d63d a0ae 0fbe b4cd ffbd
00000010: 053c dbbd 1ff3 f73d 0971 eb3d f2d9 e23d
00000020: e9b0 f7bd 0c82 093d c737 f33d 0fd6 dcbd
00000030: 91d0 083e 8a75 b3bd 225d fbbd cc29 693d
0.14754575 0.10470155 -0.14031458 -0.12490407 -0.10704807 0.121069185 0.11496169 0.11076726
-0.1209429 0.033571288 0.11875873 -0.10783016 0.13360812 -0.08762653 -0.12273623 0.056924626

encoder_variable_selection.single_variable_grns.T2M_MAX.resample_norm.norm.weight f4 [16]
00000000: 53cf 903f dc8d 8d3f b190 5d3f 5358 5f3f
00000010: 5796 643f a667 8e3f 457f 663f dae7 8d3f
00000020: 8d7f 5f3f 69d2 883f 00e3 8e3f 305f 643f
00000030: f7d8 913f 1278 8c3f e8ae 613f 1906 8e3f
1.131327 1.1058917 0.86548907 0.8724415 0.892919 1.1125381 0.9003795 1.108638
0.87304 1.0689212 1.1163025 0.89207745 1.1394337 1.0974143 0.8815751 1.1095611

encoder_variable_selection.single_variable_grns.T2M_MAX.resample_norm.norm.bias f4 [16]
00000000: e7e1 f23d 3bb3 de3d 8485 f5bd 37be 09be
00000010: ecb6 d9bd 1569 f23d c875 ccbd 0d74 e2bd
00000020: 6d5d f43d 0ed8 ca3b f4c2 eabd 6a43 e93d
00000030: f6b6 19be 095b f4bd cf9f cd3d 0434 f43d
0.11859494 0.10874029 -0.11988357 -0.13451467 -0.10630593 0.11836449 -0.099834025 -0.11057291
0.11931882 0.0061903065 -0.114629656 0.11389811 -0.150112 -0.11931426 0.10040247 0.11923984

encoder_variable_selection.single_variable_grns.T2M_MAX.fc1.weight f4 [8, 8]
00000000: 54f0 563d ff43 b43e 6f4f 6abf 6b46 dc3e
00000010: 1a2b 57bd 7908 04bf 8986 aa3e 8843 e13e
00000020: 6a18 10bf 6e1c b7be 8e9c 6ebe 6f32 9fbb
00000030: 551e 453d 757e a9bd f2a2 37be 679c a4be
00000040: 27b6 4c3d fd25 013f ab81 c1be 0779 d5bd
00000050: 24ed 5cbe 5f99 2abe 8808 da3e 2c07 adbe
00000060: 67de 583e b27c 413f 32c3 ee3e 21dd f03e
00000070: 25fa dd3c 358f 7abe 1c40 f4be df8b 2a3e
00000080: 5967 99be 260e 1b3f 9372 8b3e 3b45 173e
00000090: bf10 74bd a9cb 12bd 118d 23be 4e09 333d
000000a0: e57f f23d 2dbb b6bd 0156 1c3f 9b65 14bd
000000b0: bbff 523f 0c2f f63e 7af8 0dbf 77d5 923e
000000c0: 7cdf 12bf dc57 423d cd07 9ebd c4dd 173d
000000d0: 8c50 85bc f3e1 21bf a492 75be e509 cbbe
000000e0: 853c 25bf f34e 4d3e 9414 19bf 7d48 83be
000000f0: df18 413f 0d46 d6bd a933 fb3e 05d2 8d3e
0.05247529 0.35208127 -0.91527456 0.43022475 -0.05253134 -0.5157543 0.33305767 0.43996835
-0.5628725 -0.35763878 -0.23301908 -0.004858307 0.04812463 -0.08276073 -0.17933252 -0.32150576
0.0499784 0.5044859 -0.3779424 -0.10423475 -0.21574837 -0.16660069 0.42584634 -0.33794534
0.2117859 0.75580895 0.46633297 0.47043708 0.027096817 -0.24468692 -0.47705162 0.16654919
-0.2996166 0.60568464 0.2723585 0.14772503 -0.059586283 -0.035838757 -0.15971781 0.043710046
0.118408 -0.0892242 0.6106873 -0.03622971 0.82421464 0.4808277 -0.5545727 0.28678486
-0.5737226 0.04744707 -0.07716332 0.037076727 -0.01627376 -0.63235396 -0.2398172 -0.39655986
-0.6454547 0.20049648 -0.59797025 -0.25641242 0.75428575 -0.1046258 0.4906285 0.27699295

encoder_variable_selection.single_variable_grns.T2M_MAX.fc1.bias f4 [8]
00000000: 9f7a e93d 4bf3 edbd d1b1 753d 5d92 4bbd
00000010: a97a e53d 8d21 e23d 7fe3 dcbd 305a e03d
0.11400341 -0.1161867 0.059984032 -0.04970013 0.11205036 0.110415556 -0.10785579 0.10954702

encoder_variable_selection.single_variable_grns.T2M_MAX.fc2.weight f4 [8, 8]
00000000: 6f8b b7be 06de 443f ec83 9dbe 6a2f 963d
00000010: 2858 cabe dc37 2c3f fd78 c5bd c273 b63e
00000020: c627 03bf 97b7 8ebe 8200 2cbe 46e6 b13c
00000030: bbab ba3e df0d 253f 0d3a 843f 6189 c0be
00000040: 5d96 09be a0fe 6d3e f416 5c3e 2f45 b93d
00000050: 0ea6 b53d 85a9 c93e 0ac6 1d3e 8616 92be
00000060: 5a3c 4bbf d6d6 a63e f599 e0be 889a 913e
00000070: 25a4 973d 1c1d b6bd adb8 c03e eab7 dabe
00000080: ffa5 013f fc1c 063f b66e c03e ab28 e9be
00000090: 01ad eabe 94b1 9fbe a4d8 0d3f fdb2 5fbf
000000a0: 5064 353f 2f95 ff3e 8b68 223e 4568 4dbf
000000b0: ad42 263d bcbd b0bc 2122 ec3e e503 273e
000000c0: c480 0a3f 1105 17bf a37c c1be 6686 003f
000000d0: 1e5f e53b 7bac 71bf b49a 08bd 83e3 033e
000000e0: acf7 dc3e c9d5 513d b09c d7be a380 553e
000000f0: bdae 393e 0eb1 433e d03e 6a3c cfb9 69be
-0.35848567 0.7690128 -0.3076471 0.07333262 -0.39520383 0.67272735 -0.09642217 0.3563519
-0.51232564 -0.27874443 -0.16797069 0.021716248 0.36459145 0.6447429 1.0330216 -0.37604812
-0.13436265 0.23241663 0.21493131 0.09046399 0.08869563 0.39387146 0.15407577 -0.2853281
-0.79388964 0.32585782 -0.4386746 0.2843821 0.07404355 -0.08892271 0.37640896 -0.4271844
0.50643915 0.52387977 0.37584466 -0.4553884 -0.45835117 -0.3119017 0.5540869 -0.8738249
0.7085619 0.49918506 0.15860192 -0.8023723 0.04059093 -0.021574847 0.46119788 0.1631008
0.5410273 -0.58992106 -0.37790403 0.50205076 0.0069998642 -0.9440381 -0.03335066 0.12879758
0.4315771 0.051229272 -0.4211173 0.20849852 0.18133064 0.1911051 0.014297202 -0.22824787

encoder_variable_selection.single_variable_grns.T2M_MAX.fc2.bias f4 [8]
00000000: 3fb2 c6bd 1668 f73d 4a2c 603d 313e e6bd
00000010: 77ca debd abbf 11be 40dd c3bd f6a3 fb3d
-0.097019665 0.120804 0.054729737 -0.11242331 -0.10878461 -0.14233272 -0.095636845 0.122871324
