ai_predict/ai/lightning_logs/version_46/checkpoints/epoch=0-step=8.ckpt (torch, 662004 bytes, 889 tensors)

prescalers.time_idx.weight f4 [8, 1]
000000 68 3f c4 bd 7d 06 21 bf ec 82 24 bb 45 c3 36 bf
       -0.09582406 -0.62900525 -0.002510245 -0.7139171
000010 40 08 82 3d 14 48 95 3c 1c 71 2e 3f a1 46 d4 bd
       0.0634923 0.018222846 0.6814134 -0.10365034

prescalers.time_idx.bias f4 [8]
000000 48 59 46 be e6 a2 b9 3e 94 0b d9 3e de 6e 97 3d
       -0.19369996 0.36257094 0.42391646 0.07394193
000010 44 64 60 3e 56 4d 43 3f 85 cc 18 3f fe 97 87 bf
       0.21913248 0.7628988 0.5968707 -1.0593259

prescalers.T2M.weight f4 [8, 1]
000000 62 45 1b 3f 4d 0d e9 be 01 18 e2 3e 32 82 13 3f
       0.60652745 -0.4551796 0.4415894 0.5762054
000010 c0 f9 d2 be a0 e8 1e bc 29 6f 86 be ba f7 2e 3e
       -0.4120617 -0.009699017 -0.26256683 0.17086688

prescalers.T2M.bias f4 [8]
000000 f5 b7 40 3e ba 5f 03 3f 1b 42 4e 3f 9c e7 07 3f
       0.18820174 0.5131794 0.8056962 0.5308778
000010 39 d4 87 bd 58 f7 08 bf 96 60 20 3f f9 33 eb be
       -0.06632275 -0.53502417 0.6264738 -0.4593809

prescalers.T2M_MAX.weight f4 [8, 1]
000000 2b 4d 69 3f 50 41 d6 3d e8 f5 61 be 0a 2a 5f 3f
       0.91133374 0.10461676 -0.22066462 0.8717352
000010 72 b1 29 3f 12 5e 70 3f 32 9a 97 be b9 87 ad 3d
       0.66286385 0.9389354 -0.2960983 0.08473153

prescalers.T2M_MAX.bias f4 [8]
000000 9c e5 52 bd e8 95 05 3f b7 32 a7 3e 7a 3d 77 bf
       -0.051488504 0.52181864 0.3265588 -0.9657818
000010 8f 2a 3f bf f6 b1 56 bf bb 96 24 3f 3a aa ce 3e
       -0.74674314 -0.83865297 0.64292496 0.40364248

prescalers.T2M_MIN.weight f4 [8, 1]
000000 b1 fd 68 be 21 43 90 bf 5b ed 2b 3f 00 94 b1 39
       -0.22753026 -1.1270486 0.6715905 0.0003387034
000010 d6 9a 23 bf 4e 8c ad 3e 52 a2 ed 3d c4 ad ec be
       -0.63908136 0.33896106 0.11603226 -0.46226323

prescalers.T2M_MIN.bias f4 [8]
000000 dc 80 66 bf 2e 8d f8 3e f0 6c a8 be 73 58 82 bf
       -0.90040374 0.48545212 -0.32895613 -1.0183243
000010 8f 24 09 3f 60 df 39 3f a9 88 15 bf 68 b0 28 3e
       0.5357141 0.7260647 -0.5841165 0.16473544

prescalers.PRECTOTCORR.weight f4 [8, 1]
000000 f6 be 17 3f 7c 8f 6f bf 2a f2 29 3f ab b9 51 3e
       0.5927576 -0.93578315 0.6638514 0.20480983
000010 c5 1b 53 3b e2 94 16 bf fb 60 30 bf 09 fb 3c bf
       0.0032212597 -0.5882093 -0.6889798 -0.7382055

prescalers.PRECTOTCORR.bias f4 [8]
000000 75 5d 66 3f c8 7a 27 3f c3 43 53 3f 82 57 e9 be
       0.89986354 0.65421724 0.8252527 -0.45574576
000010 16 fe 1f bf 27 69 d3 be 86 c1 8d 3e 00 cd 22 bf
       -0.6249708 -0.41291162 0.2768671 -0.63594055

prescalers.RH2M.weight f4 [8, 1]
000000 7c e6 30 3e 64 ad 53 bf fd 67 45 bf 56 67 37 3e
       0.17275423 -0.8268645 -0.771118 0.17910513
000010 7d c2 a4 3e e2 f1 ca be e9 7c a4 be 30 9d d8 be
       0.32179633 -0.39637667 -0.3212655 -0.42307425

prescalers.RH2M.bias f4 [8]
000000 b1 c1 93 bf 0d e0 ab bd 54 28 dd 3d 10 fd 7d 3f
       -1.1543485 -0.08392344 0.107987076 0.9921427
000010 bc de 07 3f a2 6f e9 3e cd 78 41 3f d2 1a 79 bf
       0.5307424 0.45592982 0.7557495 -0.9730655

prescalers.ALLSKY_SFC_SW_DWN.weight f4 [8, 1]
000000 88 47 4b be 62 e7 97 bd 7b ec f5 3e 5e 1a b9 3d
       -0.19851506 -0.0741718 0.48031983 0.09038232
000010 fb 43 70 be 4d 91 28 3f f5 1e 9c 3d eb 1b 06 be
       -0.23463432 0.6584671 0.07623092 -0.13096587

prescalers.ALLSKY_SFC_SW_DWN.bias f4 [8]
000000 14 9a 9d 3d eb b8 4e 3f 04 72 cd be 2f 07 d4 3e
       0.07695404 0.8075091 -0.4012605 0.4141173
000010 de cf 0d 3e 72 7c 0b bf 80 7e 0a 3f 0e f3 2d bf
       0.13848826 -0.54486763 0.54099274 -0.67949

prescalers.numero_casos.weight f4 [8, 1]
000000 55 5a a9 3e fc 19 d7 3c c3 bf 75 be 9c c4 d3 bd
       0.3307673 0.026257508 -0.23998933 -0.10340235
000010 94 b2 af be 05 5c de 3d 02 34 77 bf 98 f9 7b ba
       -0.34315932 0.10857395 -0.9656373 -0.00096120825

prescalers.numero_casos.bias f4 [8]
000000 cc 15 36 be 91 bc 96 be 70 f0 05 3f 5c a8 a8 3e
       -0.17781752 -0.2944074 0.52320004 0.32940948
000010 2b f5 77 bf f3 33 e0 be 3c f7 90 3f 66 79 ed be
       -0.9685847 -0.43789634 1.132545 -0.46381682

static_variable_selection.single_variable_grns.municipio.mask f4 [16]
000000 3a ce e7 bd e9 bc e8 3d 68 cc e8 bd 36 7e e8 bd
       -0.113186315 0.11364157 -0.113671124 -0.11352198
000010 8b e0 e8 bd 40 ca e8 3d 87 a1 e8 3d fd 8b e8 bd
       -0.11370953 0.11366701 0.11358934 -0.11354826
000020 da 5d e9 bd d1 9b e8 3d 76 d2 e8 3d 1a c2 e8 bd
       -0.11394854 0.113578446 0.11368267 -0.11365147
000030 d0 00 e9 bd c8 fa e7 3d 4a 4f e8 bd 6a d2 e8 3d
       -0.11377108 0.113271296 -0.11343248 0.11368258

static_variable_selection.single_variable_grns.municipio.norm.weight f4 [16]
000000 eb 38 68 3f 84 e3 8b 3f 44 39 68 3f eb 38 68 3f
       0.9071185 1.0928807 0.9071238 0.9071185
000010 81 e3 8b 3f 8a e3 8b 3f 07 39 68 3f eb 38 68 3f
       1.0928804 1.0928814 0.90712017 0.9071185
000020 7a e3 8b 3f f3 38 68 3f 8a e3 8b 3f 7c 39 68 3f
       1.0928795 0.907119 1.0928814 0.90712714
000030 8a e3 8b 3f ec 38 68 3f eb 38 68 3f 8c e3 8b 3f
       1.0928814 0.90711856 0.9071185 1.0928817

static_variable_selection.single_variable_grns.municipio.norm.bias f4 [16]
000000 7b 18 e6 bd 9e 31 e9 3d 5c a9 e8 bd 44 84 e7 bd
       -0.11235138 0.11386417 -0.11360428 -0.113045245
000010 34 f9 e8 bd 44 58 e9 3d 1a 64 e8 3d c0 b5 e7 bd
       -0.11375657 0.113937885 0.11347218 -0.11313963
000020 fa 1b e9 bd bd 2f e8 3d 9b bd e9 3d be b4 e8 bd
       -0.11382289 0.1133723 0.114131175 -0.11362599
000030 4e 73 e9 bd ee b5 f4 bd dc fd e6 bd c2 72 e9 3d
       -0.11398946 -0.11948763 -0.112788886 0.113988414

encoder_variable_selection.flattened_grn.resample_norm.mask f4 [8]
000000 93 f0 09 3e dd 1c 57 3d 75 10 73 bd 1c e1 7b 3d
       0.13470678 0.05251776 -0.059341867 0.061493978
000010 13 b4 ce bc ad a8 cd bc 25 4a 0c 3d 18 e2 13 be
       -0.02523235 -0.025104845 0.034250397 -0.14441717

encoder_variable_selection.flattened_grn.resample_norm.norm.weight f4 [8]
000000 13 56 93 3f a7 79 93 3f fb 61 71 3f 21 d2 87 3f
       1.1510643 1.15215 0.9429013 1.0611001
000010 57 8e 93 3f e8 9f 7d 3f 3c 29 84 3f a0 04 82 3f
       1.1527814 0.9907212 1.0325084 1.0157661

encoder_variable_selection.flattened_grn.resample_norm.norm.bias f4 [8]
000000 0f 2d 3c 3d d1 fa 82 3d 88 ee c3 bd b6 7e 79 bd
       0.04594141 0.06395496 -0.095669806 -0.060911857
000010 ac 81 1a be 3f 34 33 3b 03 ce cf 3c f8 71 a2 3c
       -0.15088528 0.0027344374 0.025366789 0.019829735

encoder_variable_selection.flattened_grn.fc1.weight f4 [8, 64]
000000 5a c1 8f bd 62 46 77 be 38 ff c8 bd 1c 0a f0 bd
       -0.07019301 -0.24147943 -0.09814304 -0.11720678
000010 5f 3d c5 bd 76 9e 31 3e e2 30 9f 3e 7e b4 9c 3b
       -0.09630846 0.17345604 0.31091982 0.0047822585
000020 a9 a2 a7 bd 6a e9 3e 3e 90 29 8d 3d 1f 85 85 be
       -0.08185322 0.18643728 0.06892693 -0.26078126
000030 7e 20 0b be 62 06 c9 be 68 5f fb 3d 9a d5 12 3e
       -0.13586614 -0.39262682 0.12274057 0.14339295
000040 e2 d4 5b bd fc ce b2 3d 1d a9 f7 bc 71 67 b2 3d
       -0.053669818 0.087308854 -0.030232007 0.08711136
000050 ff ba 80 3e bd e7 c8 3e 2d 0d f2 3b 5c 31 95 be
       0.25142667 0.39239302 0.0073868246 -0.2913922
000060 60 da 5a be 4c b1 0b be 81 25 1f be 34 45 47 bc
       -0.21372366 -0.13641852 -0.1554165 -0.012162495
000070 53 5f c3 3e 37 84 4f 3e 1b 2d 35 be 02 3f 11 bd
       0.38158664 0.2026528 -0.17692988 -0.03546048
000080 ae 9f 8e 3e 27 b9 77 be 2b 7f 9a 3e ba 7d 24 3e
       0.278562 -0.24191724 0.30175146 0.16063586
000090 8e 17 a2 be 80 75 66 3a a6 07 04 be 3c 59 8f 3d
       -0.31658596 0.00087913126 -0.12893543 0.06999442
0000a0 1f a9 cf bd 39 b3 c8 be 70 81 4f be 99 89 a2 3e
       -0.10139679 -0.39199236 -0.2026422 0.31745604
0000b0 7c 00 a8 3e c9 63 02 be 36 79 51 be 5a 75 6d 3c
       0.3281287 -0.12733378 -0.20456395 0.014493311
0000c0 89 7b 36 3e 9c 86 bd 3c 33 81 4e be 91 37 7a 3e
       0.17820562 0.023135476 -0.20166473 0.2443526
0000d0 c4 ab 7d bb fe e1 28 be ad 9a 2b 3d ad 57 a3 3d
       -0.0038707117 -0.16492459 0.041895557 0.07975707
0000e0 52 24 26 be ec 7b b1 be 7b 77 53 3e 08 72 2f be
       -0.16224793 -0.34664857 0.20651047 -0.17133343
0000f0 c4 59 6d 3e 8e 1b fe 3c 7a f2 30 be 8a 07 bb 3b
       0.23178774 0.031018998 -0.17279997 0.005707686
000100 2d 9e 96 3d 9c 43 97 3e 6d 3a fa 3d aa ac bf 3d
       0.073543884 0.2954377 0.12218175 0.09359105
000110 5f 9b fe bd 01 00 41 bd e6 c1 65 3e c2 b6 0c bd
       -0.124319784 -0.047119144 0.22437248 -0.03435398
000120 dc d1 46 be 79 d6 3c be 74 29 7a be 45 bc 96 be
       -0.19415992 -0.1844119 -0.24429876 -0.29440513
000130 7d 3e 85 3d 58 33 9a 3d b7 b2 07 3e 81 05 07 3e
       0.06506059 0.07529324 0.13251768 0.13185693
000140 06 3e 18 bc a5 55 46 bd 5e 1a 2d bd 2a 03 37 3e
       -0.009292131 -0.04842152 -0.042261474 0.178723
000150 6a 31 4f be 95 51 1a be 3b 62 5a be d8 89 c2 3b
       -0.20233694 -0.15070184 -0.21326534 0.0059368424
000160 a5 ee b6 3e d8 d0 8a be 50 e1 5d 3e c6 24 fa 3e
       0.35728946 -0.2711246 0.21667981 0.4885618
000170 8d f4 37 3e 63 ea 04 be a2 0f 52 3e 00 78 57 be
       0.17964382 -0.12980036 0.20513776 -0.2104187
000180 ea c9 86 be 50 5b 00 be 3b dd 95 be 3b ba bc 3e
       -0.26325923 -0.12534833 -0.29270348 0.36860833
000190 4b f9 bb 3e 7a e1 b5 bc 54 a1 9c be b0 15 82 3e
       0.36713633 -0.022202242 -0.30591834 0.2540717
0001a0 e6 f5 75 3d 5b ba 5f bd db 6d d1 bd 9d 77 4e be
       0.06004896 -0.05462108 -0.102260314 -0.20162816
0001b0 20 87 3f bd 3c 41 db bc c0 0b b6 bd c3 4a b8 3d
       -0.046759725 -0.026764505 -0.0888896 0.08998635
0001c0 a5 36 5c 3e a9 57 3b be f7 0b df 3d 64 e4 b5 bb
       0.2150522 -0.18295158 0.10890954 -0.005550908
0001d0 ad a1 4e bd ed 4e e9 3e f9 88 b2 be 2b b8 55 3e
       -0.050447155 0.45568028 -0.34870127 0.20871036
0001e0 86 89 8c 3d 64 3f 9c bc 91 99 53 bd 77 cf c8 bc
       0.06862168 -0.019073196 -0.051660124 -0.02451299
0001f0 fa 58 17 3e 2d 0d 3f 3e 1d 77 a1 3d 2f b2 ec bd
       0.14780036 0.1865737 0.07884047 -0.11557423
000200 6d b8 4e 3e c2 90 aa bd ef 4e 24 3e 67 9d 94 3e
       0.2018754 -0.083283916 0.16045736 0.29026338
000210 83 23 4b bd 05 68 42 be 89 2c 43 be fd 03 4e 3e
       -0.049594413 -0.18984993 -0.19059958 0.20118709
000220 9a a8 45 bb f7 c4 86 be 9d ad 11 bd 8b 90 03 be
       -0.0030160309 -0.26322147 -0.03556596 -0.12848108
000230 ff 7a 23 3d e8 78 26 bd ca 9e d7 3d 7a 1e 54 bd
       0.03991222 -0.04064265 0.105283335 -0.051786877
000240 8c 82 32 3d 55 fd 56 be be 16 bf be 8f be 7f 3e
       0.04358153 -0.20995076 -0.37322038 0.24975036
000250 6b fc e9 3d c6 d1 d2 3e 2a c9 b2 be 80 b6 97 bd
       0.11425098 0.4117567 -0.349191 -0.07407856
000260 0d d5 6f 3e ab d5 e6 bc 82 49 d0 3e 9e a5 8d 3e
       0.23421116 -0.028178057 0.40681082 0.27665418
000270 d5 f8 25 be 8c 58 44 3e 98 f0 f8 bd c6 7e 69 be
       -0.16208203 0.19174403 -0.121552646 -0.22802266
000280 3b b2 5c be 70 f3 66 3a 70 96 6e be 30 44 62 3e
       -0.21552365 0.0008810079 -0.23299575 0.22096324
000290 37 1f 6f 3d f0 e7 ae 3e c8 fa 39 be 7e 7e 69 bc
       0.05837938 0.3416133 -0.18162072 -0.0142513495
0002a0 43 8d 13 3e 56 a0 4c be 89 e3 8c 3d 7f 33 13 be
       0.14409356 -0.19983038 0.068793364 -0.14375113
0002b0 f9 13 c7 be 79 67 4a 3e 1c a8 bd bd ec a4 c2 3e
       -0.38882425 0.19766034 -0.0926058 0.3801645
0002c0 b5 80 89 be ee 3d c1 be 3c 60 27 3e 28 6a 51 be
       -0.26856008 -0.3774256 0.16345304 -0.20450652
0002d0 3d fc 93 be e2 2a c6 bb b8 1d 46 3e 63 8f 23 be
       -0.2890338 -0.0060475925 0.19347274 -0.15972666
0002e0 72 73 68 be 93 42 c8 3d 99 ca 9d bd e9 86 25 be
       -0.22700289 0.09778323 -0.07704658 -0.16164745
0002f0 72 39 a6 3d 9c c0 d8 3d b8 08 c1 3d 84 ee db bd
       0.081164256 0.10583612 0.09425491 -0.107388526
000300 2f 68 f3 3d c0 2a 79 be 9a 19 17 bf 58 f9 4d 3e
       0.11885106 -0.24332714 -0.5902344 0.20114648
000310 40 18 10 3c 11 09 03 bd 7d 06 01 bb d5 15 0f be
       0.008794844 -0.03199107 -0.0019687705 -0.13973172
000320 26 e6 87 be 64 c7 3c be 6a 50 26 3e f7 b0 72 bd
       -0.26542777 -0.18435436 0.16241613 -0.059250798
000330 7d 96 8c 3e 65 bb 40 3d 89 a7 6c 3e aa 5c 41 be
       0.27458563 0.047053713 0.23110785 -0.18883005
000340 2e 96 b3 3e 61 04 df 3d 7a 45 52 3d 8d cf d5 bd
       0.35075516 0.10889507 0.05133579 -0.10439978
000350 13 6d 9f bd 0d aa 64 bc ea ac 87 be 07 f1 43 be
       -0.07784476 -0.013956559 -0.2649911 -0.19134913
000360 12 1d 68 3e 59 b8 87 3e f7 ca 1c 3e 5e ab 15 3f
       0.2266734 0.26507834 0.153118 0.5846461
000370 a9 e0 d5 bd 34 77 5f 3d 1e c5 6a 3e dd 5f 53 3d
       -0.10443241 0.05455704 0.22926757 0.051605094
000380 06 fe b6 be 9c d6 55 3e f5 fd 02 be 4e f1 c4 3d
       -0.3574068 0.20882648 -0.1279219 0.09616338
000390 84 83 95 3c 3f 4f 20 bd 80 5a 9d 3d 76 d4 b1 3d
       0.018251188 -0.039138075 0.07683277 0.08683102
0003a0 d9 a8 a4 3d 2c 40 0c 3e e8 bd 78 be 74 4a 06 be
       0.08040018 0.13696355 -0.24291193 -0.13114339
0003b0 a7 2e 0b be a2 f6 45 be ba 27 01 bf b6 57 8b 3e
       -0.13592015 -0.19332364 -0.5045124 0.27215356
0003c0 bf cd 5a be b7 7b d2 3c 77 dc 51 bd ae 16 f6 3d
       -0.21367548 0.025693757 -0.051235642 0.120160446
0003d0 a1 59 7f 3c 05 5d 1a 3e 54 9d cc 3d d0 e3 34 be
       0.015585334 0.15074547 0.099909455 -0.17665029
0003e0 54 c5 19 be cf 8b 45 3e 65 48 b9 3d 8c b9 88 3e
       -0.15016681 0.19291614 0.09047011 0.2670406
0003f0 fb 08 1a bd 7e 65 21 bc 5c 4f 5b 3c 3e 24 37 3d
       -0.03760622 -0.009850858 0.01338562 0.044712298

encoder_variable_selection.flattened_grn.fc1.bias f4 [8]
000000 61 c4 03 3e da d9 e3 bd 14 0a d6 bd f2 f6 f9 bc
       0.12867881 -0.11125536 -0.10451141 -0.03051326
000010 c6 16 eb bd 25 22 df bd 9a 34 1c be b9 13 14 be
       -0.11478953 -0.108951844 -0.15254441 -0.14460649

encoder_variable_selection.flattened_grn.context.weight f4 [8, 16]
000000 a4 80 e8 be ea ed f7 3e 00 8f 72 3e b7 d0 ac be
       -0.45410645 0.48423702 0.23687363 -0.33752987
000010 35 b3 bb 3e f1 db 2d bd 8a 24 e1 bd b5 39 b3 bd
       0.36660162 -0.04244608 -0.109932974 -0.08751241
000020 cc 78 e6 3e 9c 9f 88 3e 5c 53 cc be f6 fe 20 3e
       0.45014036 0.26684272 -0.39907348 0.1572226
000030 b2 84 a8 3d 01 32 01 3d 9c 8e e0 3e d4 0a ee 3e
       0.082284346 0.031541828 0.43858802 0.46492636
000040 6c f0 92 3c 08 a6 e2 3d 91 d2 ea be 37 fc 8a 3d
       0.017936908 0.11066824 -0.45863774 0.067863874
000050 7c 85 28 3e ba 14 98 be 3a 31 0b 3f f2 72 e0 3e
       0.1645717 -0.29703313 0.5437199 0.43837696
000060 34 d3 d8 bc 38 b4 94 3d a3 4c a1 3d c9 7c 84 be
       -0.026467897 0.072609365 0.078759454 -0.25876454
000070 88 99 ca bc 76 ff f0 3e d0 1c 14 3e 06 6b 5f 3e
       -0.024731413 0.470699 0.14464116 0.2181817
000080 ff 6c 50 3e 5e f4 19 be c7 b2 a3 be ff d7 c3 be
       0.20354079 -0.15034625 -0.31972334 -0.3825073
000090 cb 50 fd be d7 30 bf be 85 f3 c5 3d 84 51 c6 be
       -0.49475703 -0.3734195 0.09665588 -0.38734066
0000a0 2e 07 9d 3d 72 15 de 3c ea b2 35 3e 6c a6 64 be
       0.07667385 0.027109835 0.17744032 -0.2232911
0000b0 3e a6 c0 3d fa 0c 8c be bb 77 35 be 49 9e 11 3f
       0.09406708 -0.2735365 -0.17721455 0.5688215
0000c0 d9 d0 89 3d 7b 41 06 bf f6 de b4 3e 5a 67 99 be
       0.06729288 -0.52443665 0.35326356 -0.29961663
0000d0 e4 13 eb 3e de b9 3d be 94 b4 3f 3d 25 e8 b2 be
       0.45913613 -0.18527934 0.046803072 -0.34942737
0000e0 0e 66 a9 3c 80 74 db bb cf 53 d0 be 0a 67 47 be
       0.020678546 -0.0066972375 -0.4068894 -0.194729
0000f0 a1 52 8b be 09 9e e4 bd bb 2a e6 be 2b e6 42 3e
       -0.27211478 -0.11162955 -0.44954476 0.19033115
000100 dc 1d 9c 3e 86 b7 a9 3c 0a 10 00 bd d2 7f 84 3e
       0.3049153 0.020717394 -0.031265296 0.2587877
000110 22 af ca 3e 46 bf d2 3b 7f 4f bb be 68 6b 3c be
       0.3958674 0.006431493 -0.36584088 -0.18400347
000120 36 6a a2 3c 41 53 3b be ae 1a 58 3e bc 7c b0 3e
       0.019826036 -0.18293478 0.21103927 0.34470165
000130 21 a1 6e 3e 06 05 93 3e b5 1d 3b be 7c 84 8f 3d
       0.23303653 0.2871477 -0.18273051 0.07007691
000140 49 f5 b0 be 94 a8 3e bd 64 31 d0 be 0e f6 a4 bd
       -0.34562138 -0.046547487 -0.40662682 -0.08054744
000150 f8 08 70 3e d0 83 1f 3e 12 9c cf be ff dd 7f 3e
       0.23440921 0.15577626 -0.4054876 0.24987029
000160 10 0a 65 bd e1 df 06 be 0e 87 c4 3d 16 78 9b 3e
       -0.0559178 -0.1317134 0.09596072 0.30365056
000170 ca d1 c4 3e 3c 35 17 3f 9c 0e 7f 3e 7d 5f 19 3d
       0.38441306 0.59065604 0.24907917 0.03744458
000180 e2 2a bd be d4 c2 67 3e d1 1e ed 3e 70 91 7d 3e
       -0.3694678 0.22632915 0.46312574 0.24762511
000190 eb 09 fc 3e c4 72 ab be e3 f5 9b be ce fd 05 3f
       0.49226317 -0.33485997 -0.30461034 0.523404
0001a0 57 e9 be be 9c 8d 9f 3e dc 2f 70 be c2 2a 27 3e
       -0.372874 0.31162727 -0.23455757 0.16324905
0001b0 98 a7 82 be 8b 28 9f 3e 80 eb 1a 3d 3c 56 13 3e
       -0.2551849 0.3108562 0.037822247 0.14388365
0001c0 81 61 55 be c1 b4 d3 bd 58 e8 e7 3c 97 91 ec 3e
       -0.20837976 -0.103372104 0.028309032 0.46204826
0001d0 3a 70 f4 3e 03 9d c0 3d b2 cb 53 3e 25 6f 82 bd
       0.47741872 0.094049476 0.20683172 -0.063688554
0001e0 48 7d 9f 3e a8 0a 12 3e 60 da 91 bb 24 ee 4c 3e
       0.3115027 0.14261878 -0.004451081 0.20012718
0001f0 5b cb bd bd a0 bf 8b 3c 32 bb e7 be 49 ce f5 be
       -0.092673026 0.017059147 -0.45260006 -0.48008946

encoder_variable_selection.flattened_grn.fc2.weight f4 [8, 8]
000000 61 97 17 be df d8 07 3e dd 9e 64 3f 7f e3 77 3e
       -0.1480384 0.13266324 0.89304906 0.24207877
000010 b1 0d 1f 3f 36 cc 4c be e5 60 03 bf 59 a7 02 3f
       0.62130266 -0.19999775 -0.51319724 0.510366
000020 06 9c f9 be dc 28 62 be 46 b3 10 3f 44 37 2c 3f
       -0.4875185 -0.22085899 0.5652355 0.6727183
000030 20 ef b5 bd 6e 4e 9d bd d3 a7 3e bf 00 08 73 3f
       -0.088835 -0.07680975 -0.7447483 0.9493408
000040 ae 1a 5b be 94 d2 3b bd bf 16 5c 3e 95 eb dc 3d
       -0.21396896 -0.04585512 0.21493052 0.10787121
000050 e7 d2 d8 be 28 2d 0f 3d 53 ae 05 bf a5 63 1e bf
       -0.42348406 0.034955174 -0.5221912 -0.61870795
000060 b2 d0 ae 3d 89 64 62 be 7e f0 9c 3e de fb 48 3f
       0.08535899 -0.22108664 0.3065223 0.7850932
000070 e0 fb a0 3e 1c 5d bc be b4 19 78 3f 00 36 37 bb
       0.31442165 -0.36789787 0.9691422 -0.002795577
000080 e3 45 58 3f 07 22 06 3f b3 30 0b bf fe 3f 12 3f
       0.8448164 0.5239567 -0.54371184 0.57128894
000090 c5 22 7e bf 71 d7 6b 3f fc 5f 62 3e 14 7a fe 3e
       -0.99271804 0.9212561 0.22106928 0.49702513
0000a0 3b b9 1e bf 42 dd 4d 3e 2f 57 70 3f 0d 0a e4 bd
       -0.6200139 0.20103934 0.9388303 -0.111347295
0000b0 81 38 8e 3e 97 3c 3f be e9 54 f0 be 8c f5 12 3f
       0.27777484 -0.18675457 -0.4693978 0.57405925
0000c0 d6 ed ee be 2a 3a 58 bf c4 c9 27 be c1 f0 c7 be
       -0.4666583 -0.8446375 -0.16385561 -0.39050868
0000d0 25 f1 52 be 18 80 23 bf 81 f8 eb be ac 80 9c 3e
       -0.20599802 -0.6386733 -0.4608803 0.3056692
0000e0 7e 41 be 3e cf 96 a6 bf ac d0 5a bf b9 e8 73 be
       0.37159342 -1.3014773 -0.8547466 -0.23819245
0000f0 22 09 51 bf 84 4c 98 3e e0 87 fb 3d 29 8b 32 3c
       -0.8165456 0.29745877 0.122817755 0.010897436

encoder_variable_selection.flattened_grn.fc2.bias f4 [8]
000000 f4 0d db bd 94 d6 69 bd e9 3a 07 3e 08 21 a4 3d
       -0.10696021 -0.057089403 0.13206066 0.08014113
000010 98 51 ff bd 83 a1 1b 3e bb 9b 06 3e 78 2d f5 3d
       -0.12466735 0.1519833 0.13145344 0.11971563

encoder_variable_selection.flattened_grn.gate_norm.glu.fc.weight f4 [16, 8]
000000 07 ec dd 3e a0 08 a0 3e 48 de 47 be 1c c4 73 3e
       0.43344137 0.3125658 -0.19518387 0.23805279
000010 a1 88 a3 be 8c f8 62 3e e7 5f f5 be ba ee c8 3e
       -0.31940177 0.22165126 -0.4792473 0.39244634
000020 2a db 04 3f 80 de 03 3e 0a 19 cc be db ea ba 3e
       0.5189692 0.12877846 -0.39862853 0.36507306
000030 a4 2f 58 3e 70 31 26 3e 72 58 bd bd e1 a0 6c be
       0.21111923 0.16229796 -0.09245385 -0.23108245
000040 97 c0 08 3e 7f 46 a5 bd ff 95 2f 3e a2 64 7c bc
       0.13354717 -0.08070087 0.17147063 -0.015404852
000050 a1 11 ca 3e f3 62 00 3f 62 d6 c2 bd d2 27 a3 be
       0.39466575 0.50150985 -0.095135465 -0.31866318
000060 c9 82 6b bd 2e 87 29 3e d7 ea ff be 4f d5 d7 be
       -0.057497773 0.16555473 -0.49983856 -0.4215493
000070 61 ee 13 be cd 71 2d bc 81 a7 cf be 50 29 9d be
       -0.14446403 -0.010586214 -0.40557483 -0.3069558
000080 49 93 ee 3e af b0 e4 be fb 20 4d 3e cb cb b7 be
       0.46596745 -0.4466605 0.20032112 -0.3589767
000090 41 44 a8 be 9c c7 79 be 41 1b 78 be 75 45 d6 be
       -0.32864574 -0.24392551 -0.24229147 -0.41849867
0000a0 10 a6 94 bd 11 aa 9f 3e c5 98 4a 3d 7c 58 8b 3e
       -0.072582364 0.31184438 0.0494621 0.27215946
0000b0 00 87 99 be 08 88 1e 3f 9c e5 6f 3e 2a 37 e6 3d
       -0.2998581 0.6192632 0.23427433 0.112409905
0000c0 13 19 4e 3d fc bf a2 3e bc a5 94 be df 97 7b be
       0.05031688 0.31787097 -0.29032695 -0.24569653
0000d0 80 ff fc bd 57 c5 a8 3e 8d 70 e6 bd 3e 60 19 bd
       -0.1235342 0.32963058 -0.11251936 -0.0374453
0000e0 bd 13 9b 3e 40 9d b8 be ee 71 15 be ed f0 b1 be
       0.30288497 -0.36057472 -0.14594242 -0.34754124
0000f0 6c d9 8c 3e 0f c3 67 3e 0d f7 1d bf 2c 82 4f bb
       0.2750963 0.22633003 -0.61705095 -0.0031663282
000100 0e a2 cf be a4 95 5d bb bb 6e 36 be 32 a2 97 be
       -0.40553325 -0.0033811117 -0.17815678 -0.29615933
000110 ab c6 0a 3f 0a cb 50 3e e7 21 64 3e 07 2d 95 3d
       0.54209393 0.20389953 0.22278558 0.07283979
000120 6c 63 55 be 89 5c 20 bd c2 95 0d bf 7d b2 9f be
       -0.20838708 -0.03915075 -0.5530664 -0.31190863
000130 1c d7 d4 be 8e 1f 01 3f c6 c1 1d 3e 1f 1a 79 be
       -0.41570365 0.50438774 0.1540595 -0.2432637
000140 f7 69 47 be 1e 7b 91 be 18 79 54 3e 8e 6d 37 3e
       -0.19474016 -0.28414243 0.20749319 0.17912886
000150 ba 07 fd be 49 4e 9d 3e 00 18 a8 3d f0 6b 92 3e
       -0.49419957 0.3072379 0.08207703 0.28597975
000160 d8 c5 42 3e 4a bc c5 bd f3 88 21 3f be 73 6c bd
       0.19020784 -0.09655054 0.6309959 -0.057727568
000170 8d 9a 86 3e 90 be 8f 3d 7b 1e 17 3f 49 4d 01 be
       0.26289788 0.07018769 0.59030885 -0.12627138
000180 04 dd c7 be 10 8f 0d bd 1f 37 b4 3e e4 11 9a 3e
       -0.3903581 -0.034560263 0.35198304 0.30091774
000190 1b 30 c4 3e bc 0a 98 3e 1f c5 43 be f0 e0 2d 3e
       0.38317952 0.2969569 -0.19118164 0.16980338
0001a0 f0 29 fe 3e 16 c2 9e bc cf 34 96 be 53 16 dd 3e
       0.4964137 -0.019379657 -0.29337165 0.43181095
0001b0 db c2 26 be b9 5e a6 3e 93 ed aa be a8 8e 0f bf
       -0.16285269 0.32494143 -0.3338438 -0.5607705
0001c0 b7 c2 d0 3e 45 fa f2 3e 88 e4 b3 be 72 88 05 bf
       0.40773556 0.47456565 -0.35135293 -0.52161324
0001d0 41 30 0f 3f d6 0f 12 be a6 1a e4 be 47 ca e4 be
       0.55933005 -0.14263853 -0.4455158 -0.44685575
0001e0 8e 94 b6 3e 81 0d 92 3d 5b be a1 be 99 0a db be
       0.35660213 0.07131482 -0.31590542 -0.42781523
0001f0 e8 56 93 be c1 24 e0 be c0 e1 4c 3e 60 70 97 3e
       -0.28777242 -0.4377804 0.20007992 0.29577923

encoder_variable_selection.flattened_grn.gate_norm.glu.fc.bias f4 [16]
000000 c8 d1 2c 3d e0 3f 13 3e 6a cd 97 bd 1b cd 73 bd
       0.04219225 0.14379835 -0.074122265 -0.059521776
000010 cf c3 16 be 84 07 18 3d 86 f7 a1 bc fe 40 f9 3c
       -0.14723133 0.037116542 -0.019771349 0.030426499
000020 b4 ac 13 be 7b ea c1 3d 54 08 30 3d 68 c5 68 3d
       -0.1442135 0.09468552 0.042976692 0.056828886
000030 0b ac 03 3e 8c bc 57 bd e2 90 1c be 9a 2d 19 be
       0.12858598 -0.052670047 -0.15289643 -0.14958802

encoder_variable_selection.flattened_grn.gate_norm.add_norm.norm.weight f4 [8]
000000 c6 05 7a 3f d4 84 8c 3f 48 2d 60 3f dd 7c 87 3f
       0.9766506 1.0978036 0.87569094 1.058498
000010 08 b4 78 3f 28 c4 76 3f e7 a1 7b 3f 77 1d 60 3f
       0.97149706 0.9639306 0.9829392 0.8754496

encoder_variable_selection.flattened_grn.gate_norm.add_norm.norm.bias f4 [8]
000000 5d 36 a3 3c ce f7 16 3e 8c 95 99 bd 20 f1 6c bd
       0.019923383 0.14742967 -0.07499227 -0.057847142
000010 f2 27 f0 3c 6c b6 95 bc d0 2a b2 3c 96 1e 02 3e
       0.029315922 -0.018275462 0.02174893 0.1270698

encoder_variable_selection.single_variable_grns.time_idx.resample_norm.mask f4 [16]
000000 98 2f c8 3c 20 b7 e8 b9 10 40 1e 3e c4 7a 28 bd
       0.024436757 -0.00044386927 0.15454125 -0.041132703
000010 9c 63 3f bd 9c 34 59 3c 3d 53 c2 3d 46 71 df bd
       -0.046725854 0.013257172 0.09488533 -0.10910277
000020 5e 03 1b 3b 48 4a 17 bd f0 77 5e bd 6d 32 26 bd
       0.002365313 -0.036936074 -0.0543136 -0.040575434
000030 ce 3c 4c 3d f8 f8 fd 3d 02 97 12 be a2 e2 4f 3d
       0.049862675 0.12401003 -0.14315417 0.050753243

encoder_variable_selection.single_variable_grns.time_idx.resample_norm.norm.weight f4 [16]
000000 30 d8 81 3f cc 28 60 3f 88 7f 93 3f f5 ad 7c 3f
       1.01441 0.8756225 1.1523294 0.9870294
000010 5a 5f 78 3f c2 b9 85 3f 08 97 87 3f 13 75 58 3f
       0.97020495 1.0447314 1.0592966 0.8455364
000020 b0 2d 7a 3f 40 90 70 3f 9b 23 73 3f 50 67 7d 3f
       0.97725964 0.9397011 0.94976205 0.9898577
000030 15 12 85 3f 56 14 91 3f 00 91 5a 3f 36 25 87 3f
       1.0396143 1.1334331 0.853775 1.0558231

encoder_variable_selection.single_variable_grns.time_idx.resample_norm.norm.bias f4 [16]
000000 9e 13 e0 bb de c7 ec 3c d0 45 19 3e 6d 54 80 bd
       -0.006838276 0.028903898 0.14968038 -0.06266103
000010 36 9a 72 bc 88 5e d3 bc 35 78 18 3e d0 8d 6f 3d
       -0.014807275 -0.025801912 0.14889605 0.058484852
000020 18 c3 04 3c 6c 92 9b bc 6a 86 82 bd 6c 83 6b bd
       0.008103155 -0.018990718 -0.06373294 -0.05749838
000030 b0 ad 14 3e 21 69 2e 3d c9 25 11 3e a2 68 5f bd
       0.14519382 0.042580727 0.1417457 -0.054543145

encoder_variable_selection.single_variable_grns.time_idx.fc1.weight f4 [8, 8]
000000 df 7d 6a bd 32 e4 18 bf 76 b4 b1 3d 09 d5 1a be
       -0.057248946 -0.597232 0.08676998 -0.15120329
000010 55 91 2e bf c2 f9 80 3e 23 c9 f2 3e da 6d ac be
       -0.6819051 0.2519055 0.4741908 -0.3367756
000020 a2 e3 83 3f 3b d1 ad 3e 03 4c f8 be ec c8 24 bf
       1.0303843 0.33948693 -0.48495492 -0.6436908
000030 32 12 49 3e f2 b4 b1 be 99 5a ba be 04 99 00 bf
       0.19635847 -0.34708363 -0.36397246 -0.50233483
000040 7d 30 c2 3e 7d ff 02 be a8 9e b2 3e 3b 27 e1 be
       0.3792762 -0.12792774 0.3488667 -0.43975243
000050 b0 b1 64 3f b3 2d 70 bf e1 60 ea 3e 7f 07 a1 3e
       0.8933363 -0.9381973 0.45777038 0.31451032
000060 40 82 a2 be 1a 9f d8 be 3d 4e c4 be 67 cb 8b bf
       -0.31739998 -0.42308885 -0.3834094 -1.0921448
000070 42 5a 9b 3e 49 c9 3c be 2d 6d ec 3e 31 89 00 bf
       0.303423 -0.18436159 0.46177045 -0.5020934
000080 ea a8 1c be 23 a9 86 3e 32 5d 38 bf e2 b8 61 be
       -0.1529881 0.26300916 -0.72017205 -0.22043183
000090 b0 32 ef bc b8 e7 ad 3d 3b b2 64 be cd ff 3e 3f
       -0.029198974 0.084914625 -0.22333615 0.7460907
0000a0 37 26 b7 3e fa 98 00 3f b7 4e be 3e 23 fc cb bd
       0.35771343 0.50233424 0.3716943 -0.09960201
0000b0 74 c8 5e 3f 10 d6 59 bf b5 67 ca be cb 57 ec be
       0.8702462 -0.8509226 -0.39532247 -0.4616073
0000c0 e9 8e 9a 3e a3 a1 6d 3d ba e3 a9 3d f9 af 80 3d
       0.30187157 0.058015477 0.082953885 0.06283564
0000d0 ef eb 0c 3f af 8b 0b 3e 4c 5e af 3d e4 1b 11 be
       0.55047506 0.13627504 0.085629076 -0.14170796
0000e0 33 05 32 3f cd 56 d9 bf 62 e6 54 3f 7e 1e 19 3f
       0.69539183 -1.6979614 0.83164036 0.5981215
0000f0 6d e5 b9 be 67 46 27 bf 90 80 a0 3e f0 2d 39 be
       -0.3630785 -0.653418 0.31348085 -0.1808393

encoder_variable_selection.single_variable_grns.time_idx.fc1.bias f4 [8]
000000 e8 ee 57 3d bb 28 04 3d 22 61 1a 3e 4d 44 fe 3d
       0.052718073 0.032265406 0.15076116 0.12415371
000010 d5 cb 03 3b f2 a1 f6 3c 6a 11 2f bd c4 60 13 3e
       0.0020110507 0.030106518 -0.042741217 0.14392382

encoder_variable_selection.single_variable_grns.time_idx.fc2.weight f4 [8, 8]
000000 3a 91 b0 3e 71 0b 6a 3d 90 57 0e bf 64 1c e6 3d
       0.344858 0.057139818 -0.5560236 0.11235884
000010 9f 78 43 3e 25 80 cd be e2 c2 a7 bd e7 02 8f 3e
       0.19088982 -0.4013683 -0.08191468 0.27931902
000020 66 85 25 bf 06 b3 12 bf 33 ef 81 bd 3f 00 50 bf
       -0.64656675 -0.5730442 -0.06344452 -0.81250376
000030 5c e0 c1 3e 28 9c 72 be dd c3 46 3e 68 48 b3 bc
       0.37866485 -0.23692381 0.19410653 -0.021885112
000040 a9 38 41 3e 19 c4 89 be f2 b7 a3 3e f0 88 33 be
       0.1886927 -0.26907423 0.31976277 -0.17532706
000050 f0 5e 0d 3f 02 56 86 bd 24 62 5e bf 7d 0b be 3d
       0.5522299 -0.065593734 -0.868685 0.09279535
000060 23 4f 1f be ef e5 dd be 87 ef 69 bf 05 62 42 3e
       -0.15557532 -0.43339488 -0.91381115 0.18982704
000070 5e 4c c1 be 76 78 54 3e ab 85 5f 3d 07 24 a3 bf
       -0.37753576 0.20749077 0.054570835 -1.274537
000080 f1 2b 1f bf a6 17 6f be 2f 82 71 3d dc cb 74 bf
       -0.62176424 -0.23348865 0.058962043 -0.95623565
000090 72 9b 80 bf ac 14 e8 bd f1 0d 01 bf 11 f5 48 be
       -1.0047438 -0.11332068 -0.504119 -0.19624735
0000a0 6f e2 3a be a8 9e 54 3f 4e 1b 61 be fa a8 7d 3e
       -0.1825044 0.8305459 -0.21983072 0.2477149
0000b0 25 12 8a 3e 58 dc 15 3e b9 2a 7a 3f f7 eb dc be
       0.26966968 0.14634836 0.9772144 -0.43148777
0000c0 a9 2a cc be ae df 7c be 06 fa b3 3e 71 ec 60 bf
       -0.39876297 -0.24694702 0.3515169 -0.8786078
0000d0 48 aa 30 3f 2d f7 d7 3e d4 50 2b 3f 2b 6f 86 be
       0.6900983 0.42180768 0.6692021 -0.2625669
0000e0 d8 fc 74 3f 5c 43 27 bd 8f 56 f7 bc 57 0a 10 3e
       0.9569831 -0.040835723 -0.030192642 0.14066444
0000f0 21 d6 64 bf 86 7c 6f 3e ca e8 33 be 97 b8 5f bd
       -0.89389235 0.23387346 -0.1756927 -0.054619398

encoder_variable_selection.single_variable_grns.time_idx.fc2.bias f4 [8]
000000 9c ee 80 bb 46 92 f4 bc 12 3f 86 bd 87 a0 1e be
       -0.0039346945 -0.029854905 -0.065549985 -0.15490924
000010 b8 2d 3a bd 18 36 31 bd 83 ee 45 3d 28 27 76 3d
       -0.045453757 -0.04326448 0.048323166 0.060095936

encoder_variable_selection.single_variable_grns.time_idx.gate_norm.glu.fc.weight f4 [32, 8]
000000 4c 34 38 be 73 74 0e 3e 66 90 56 be 27 49 69 be
       -0.179887 0.1391161 -0.20953521 -0.22781812
000010 c7 70 00 3f 4b 7e 96 be 87 bb 41 3e 31 d7 ae bd
       0.50172085 -0.2939323 0.18919192 -0.08537138
000020 17 39 5e 3e cf 03 3e be 70 e5 69 3d 7a d0 81 3e
       0.21701466 -0.1855614 0.057103574 0.25354367
000030 60 ba 95 be cd 04 94 bd 10 e3 a7 3e 88 ec 02 3e
       -0.29243755 -0.07227478 0.32790422 0.12785542
000040 8d e1 9f be ee 58 dc 3d 9d 0e 8a be 6a 94 3c be
       -0.3122677 0.107591495 -0.26964274 -0.1841599
000050 d9 39 16 be 49 f0 01 3f d3 d5 f0 3d a9 48 68 be
       -0.14670505 0.5075727 0.11759534 -0.22683968
000060 36 5b 96 bd 55 7c 5e be 1e 8c 2d bd 08 89 05 3e
       -0.07341616 -0.21727116 -0.042369954 0.13040555
000070 5e 42 b7 3e 0f 8a 4a 3e b2 89 b3 3d 42 f7 52 be
       0.35792822 0.19779228 0.08766498 -0.20602134
000080 a6 be 86 bd f1 51 e9 bd 46 84 ca bd 85 5c 9b 3d
       -0.06579332 -0.11392582 -0.098885104 0.07586006
000090 db 50 d4 be 80 9e 9d be 63 8b 78 be fd 59 dd bc
       -0.41467938 -0.30784988 -0.24271922 -0.027020449
0000a0 a2 fe 80 be f7 46 b5 3e 05 a6 9c be 70 aa 9b be
       -0.2519427 0.35405704 -0.30595413 -0.3040347
0000b0 2e af b4 bd 11 92 ce 3d de e5 3d 3e 16 e8 05 3e
       -0.088224754 0.10086454 0.18544719 0.13076815
0000c0 07 df 94 3e 1b c0 5d 3d 9f b1 dd 3d 53 a6 26 3d
       0.29076406 0.054138284 0.10824894 0.040685963
0000d0 6e 41 d5 bd 0c 8d 11 be d8 5c 87 be cb 1e 40 3e
       -0.1041287 -0.14213961 -0.26438022 0.18761747
0000e0 de 14 7b bd d4 a4 fd bd b9 df 02 bf ce b6 9b 3e
       -0.061299197 -0.12384954 -0.51122624 0.30412906
0000f0 85 f4 c3 3d 78 35 3c be 05 9a 8a 3d 9e e2 5c 3e
       0.09568123 -0.18379772 0.06767658 0.21570823
000100 56 ab 70 be 34 40 aa be be 60 b0 3e 3d e8 2e bd
       -0.2350286 -0.33252108 0.34448808 -0.04270195
000110 6b 1d f1 3d de 10 a4 be 08 3d 7f 3e ad da 88 3e
       0.11773189 -0.3204412 0.24925625 0.26729336
000120 09 82 df be 24 52 88 3e b7 42 b7 3d eb 97 f5 bd
       -0.43653896 0.26625168 0.08948272 -0.11991867
000130 da e2 c2 3e 74 24 e8 bd b0 45 02 3f a6 06 23 3e
       0.380637 -0.11335078 0.50887585 0.15920505
000140 61 79 3b be c9 ca df 3e 99 64 f8 3e 0a 95 83 be
       -0.18308021 0.437094 0.4851425 -0.25699645
000150 fe 82 25 bd b2 cd 84 3e ee 1d 83 3e ab c9 f8 be
       -0.040408127 0.25938183 0.25608772 -0.4859136
000160 11 75 2c 3e 7d 1a ba be e0 bb 93 3e be cb 3c 3e
       0.16841532 -0.36348334 0.28854275 0.18437096
000170 1c 91 c4 be 4f 22 c8 be 2e 6c 7b 3e d7 87 09 be
       -0.3839196 -0.39088675 0.24552986 -0.13430725
000180 7a 71 c0 be b9 98 96 be 12 81 d0 bd 8f 21 bb 3d
       -0.37586576 -0.29413393 -0.10180868 0.0913726
000190 ad f4 ca 3e bd 7a 87 3e f0 c8 af be 20 95 91 bc
       0.39639798 0.2646083 -0.3433299 -0.017771304
0001a0 24 5e 34 3e c4 61 70 3e bd 58 84 3e 66 c0 ea bd
       0.17614037 0.23474795 0.25848952 -0.11462478
0001b0 14 91 73 be 31 ff 50 be 51 9e 60 3e 82 8e b4 3e
       -0.23785812 -0.20409848 0.21935393 0.35264975
0001c0 87 35 87 3e 23 de 06 bd fe f8 19 3e 1f 01 ad 3e
       0.26408026 -0.03292669 0.15036389 0.33789918
0001d0 ea 3d 73 3e 1b f5 cf bd a0 db e6 3d bd 90 75 be
       0.23754087 -0.10154172 0.11272359 -0.23980995
0001e0 23 93 d7 bc 68 f8 8e 3e 1f 4c f9 3d d1 59 c1 be
       -0.026315277 0.27923894 0.12172722 -0.37763837
0001f0 e6 bc 3f be e1 4f 28 3d a2 e2 3e be b5 59 b2 be
       -0.18724403 0.041091803 -0.18641141 -0.34834066
000200 d8 b1 b7 be 50 1e 42 3d 8f a1 15 3e 6b d9 c7 3e
       -0.35877872 0.04739219 0.14612411 0.39033064
000210 b8 03 a7 3e a1 02 93 3e 95 1c b4 3e e8 1d 44 bd
       0.32620025 0.28712943 0.35178056 -0.047880083
000220 1f 58 1f be 72 78 cb bd fd 57 dc 3e 8c a5 5a 3b
       -0.1556096 -0.099350825 0.4303588 0.0033362834
000230 37 24 f3 be 18 c8 af be e1 0d a3 3e c2 30 d2 be
       -0.47488567 -0.34332347 0.31846526 -0.41052824
000240 ac 5c 09 3d 4f 3e 3c be ca ce a4 3e 12 2a 9c 3d
       0.033535644 -0.18383144 0.32189018 0.07625212
000250 0d 4d b0 bd b8 ba ba 3d 6f 3d 63 be 12 b0 6b 3d
       -0.08608446 0.09117645 -0.22191404 0.05754096
000260 53 cf 70 be bf b6 e8 3e 6b 31 41 3e 43 b5 8b 3e
       -0.23516588 0.45451924 0.18866508 0.2728673
000270 df 9b 90 3c db c5 85 bd d6 3a bc bd e0 31 0f be
       0.01765245 -0.065318786 -0.091909096 -0.1398387
000280 ed 5c 74 3e 98 ae f3 bd 4e 01 65 3e 58 3e 0a be
       0.23863573 -0.118985355 0.22363779 -0.13500345
000290 60 a2 44 3a 7d cc 9e be 1f 10 3c 3e 7a ee b3 3e
       0.00075010024 -0.31015387 0.18365525 0.3514288
0002a0 94 60 6d be 4a 9c a0 3e 7c 14 bf 3e 1d 5c 72 be
       -0.23181373 0.3136924 0.37320316 -0.23667951
0002b0 a7 ff 3a be 65 90 9a bd 99 bd 66 3e bb eb 65 3e
       -0.18261586 -0.07547072 0.22533263 0.22453205
0002c0 74 b5 29 bd ea e9 35 be d5 07 ac 3b 4b 74 f6 3d
       -0.041432813 -0.17765012 0.005249957 0.120339
0002d0 94 85 0d 3e c5 f5 9b 3e 4b bc d2 bd 0a d6 cf be
       0.13820487 0.30460945 -0.1028982 -0.40592986
0002e0 06 23 f7 bd c3 dc 8a be 1f 82 a7 be 21 de 54 be
       -0.12067227 -0.27121553 -0.32716462 -0.2078786
0002f0 b3 ba 90 be f6 e7 c8 3e e2 76 94 bd 47 84 c2 bb
       -0.2826744 0.39239472 -0.072492376 -0.005936179
000300 d9 34 1b 3e 6b 6a b8 be 60 e0 59 3e 1c b8 d2 be
       0.15156879 -0.3601869 0.21276999 -0.4115609
000310 c7 a4 a8 3e a4 b1 df be 93 55 c6 3c 00 5c b8 be
       0.32938215 -0.43690217 0.024210727 -0.3600769
000320 67 70 a0 be a3 76 b8 3e 38 42 7c be 3c 01 58 3e
       -0.31335756 0.36028013 -0.24634635 0.21094221
000330 6a df cb 3d 08 fc e8 3e f0 40 6d 3a a5 28 cf bc
       0.09954722 0.45504785 0.0009050509 -0.025287936
000340 c5 23 fa 3d 93 29 f8 3d f1 6b 87 be 87 88 99 be
       0.12213854 0.12117305 -0.2644954 -0.29986975
000350 29 e2 8e 3e 44 4e 20 be 50 a9 02 bf 3a fa c7 3e
       0.27906922 -0.15654856 -0.510396 0.39058095
000360 25 b0 46 3e e7 f4 6d be 64 a3 a5 be ec da 43 3e
       0.19403131 -0.23237954 -0.3235122 0.19126481
000370 2e a3 d2 3d f0 e1 c5 bd 31 cd 88 be 86 4c 4c 3d
       0.1028503 -0.09662235 -0.2671905 0.049877666
000380 e6 ba d1 bd fb 4c 73 3e 26 ae 70 3e e8 56 d1 be
       -0.10240726 0.23759834 0.23503932 -0.40886617
000390 e3 5c 0d bd 10 00 67 3e bc a3 04 be 20 7f 43 3e
       -0.03451241 0.22558618 -0.12953085 0.19091463
0003a0 7e 95 b2 bd ac 00 38 3e 59 12 72 3e d6 c8 8e be
       -0.087199196 0.17969006 0.23639812 -0.278876
0003b0 ef 53 54 be f6 ee 38 bd 6e cb 91 bd 13 6f 9f 3d
       -0.20735143 -0.045149766 -0.07118879 0.077848576
0003c0 98 05 f0 be 7a 22 2d be 15 72 23 3d 48 da 40 be
       -0.46879268 -0.16907683 0.03990372 -0.18833268
0003d0 aa f0 69 be 6a d0 84 be ea 60 d5 3c 1e eb b4 3e
       -0.22845712 -0.25940257 0.026047189 0.3533563
0003e0 7b 25 74 bd 8f 30 49 3e 91 a4 19 be 06 12 b2 3c
       -0.059606057 0.1964743 -0.15004183 0.02173711
0003f0 3c 96 8e 3e 22 d5 9c be e6 6b 36 3e 7c 8b 0e bd
       0.27848995 -0.30631357 0.17814597 -0.03480099

encoder_variable_selection.single_variable_grns.time_idx.gate_norm.glu.fc.bias f4 [32]
000000 26 3a d3 bb 07 a9 b7 3c c3 b0 19 3e 5b 49 7b bd
       -0.006446141 0.022419466 0.15008835 -0.061349254
000010 93 44 34 bd dc 9a 0b bd a5 e8 0d 3e e9 89 04 3e
       -0.04401071 -0.034083232 0.13858278 0.12943234
000020 b0 fc df 39 ec c9 b2 bc a1 e3 78 bd b1 ef 6a bd
       0.0004272214 -0.0218248 -0.06076396 -0.057357494
000030 02 fe 11 3e 52 4d 3f 3d 93 a1 b3 3c bd 7d 70 bd
       0.14257053 0.046704598 0.02192763 -0.058713663
000040 4e ee 85 3b 21 d2 10 be 91 6e 1e be 10 e9 00 be
       0.004087246 -0.14142658 -0.15471865 -0.12588906
000050 e3 fd 99 3c 3d 36 1e be 54 59 91 bb af cb 10 bd
       0.01879782 -0.15450378 -0.0044356976 -0.035350498
000060 83 12 4b bd 08 35 1d 3e 5a 82 0d 3e db 58 2a bd
       -0.0495782 0.15352261 0.13819256 -0.041588645
000070 d8 3d 1d 3d d3 fc 54 bd 70 13 98 3d 6d 41 4a 3d
       0.038389057 -0.051998924 0.074255824 0.0493788

encoder_variable_selection.single_variable_grns.time_idx.gate_norm.add_norm.norm.weight f4 [16]
000000 f3 83 83 3f 3f 17 5e 3f 6c bd 90 3f 8a 09 73 3f
       1.0274643 0.8675422 1.1307807 0.9493643
000010 8d ed 75 3f 07 26 59 3f ef 45 87 3f ab 2e 5d 3f
       0.960656 0.8482365 1.0568217 0.86399335
000020 ff 1e 79 3f 1b 3d 75 3f 1e 64 74 3f ab 52 79 3f
       0.9731292 0.95796365 0.95465267 0.97391766
000030 37 94 85 3f 04 13 93 3f 7b c2 5a 3f dd 5c 90 3f
       1.0435857 1.1490178 0.85453004 1.127834

encoder_variable_selection.single_variable_grns.time_idx.gate_norm.add_norm.norm.bias f4 [16]
000000 92 ab c8 bc 1f 22 c5 3c 88 fc 1b 3e 7f 2d 70 bd
       -0.024495874 0.024064122 0.15233052 -0.05863714
000010 a1 e7 50 bd f7 f3 29 bd 2d 0d 1d 3e 93 40 70 3d
       -0.05100215 -0.04149243 0.15337057 0.058655333
000020 64 3e 27 bc 3a 9e 9a bc 17 d4 fa bd 7e eb 59 bd
       -0.010207746 -0.018874276 -0.12247484 -0.0532031
000030 cd a9 1b 3e b6 ff 15 3d a5 f3 10 3e ca 3e 02 be
       0.15201493 0.036620818 0.14155443 -0.12719265

encoder_variable_selection.single_variable_grns.T2M.resample_norm.mask f4 [16]
000000 e6 02 04 bd 38 0d 77 bc b1 8b 02 3e 89 b1 00 be
       -0.032229327 -0.015078835 0.127486 -0.12567724
000010 dc c6 80 bd cc 14 44 bd c6 ff 40 3d 20 85 1d 3e
       -0.062879294 -0.047871396 0.047118925 0.15382814
000020 cd 76 47 bc 6c c9 6c bd ba 75 e9 3d f0 78 60 3c
       -0.01217432 -0.05780928 0.11399408 0.013700709
000030 ff 73 ad 3c 9d 7e 06 3e 06 fc f9 3c 34 b4 46 3d
       0.021173475 0.13134237 0.030515682 0.0485117

encoder_variable_selection.single_variable_grns.T2M.resample_norm.norm.weight f4 [16]
000000 25 38 7e 3f 5a 9e 73 3f f6 e3 87 3f ac e5 5f 3f
       0.9930442 0.951635 1.0616443 0.87459826
000010 71 b6 74 3f 95 b7 71 3f 92 59 86 3f c6 b6 76 3f
       0.95590883 0.9442075 1.0496085 0.9637264
000020 de 79 76 3f a3 68 5f 3f 6d 4a 90 3f c9 bd 81 3f
       0.96279705 0.8726904 1.1272713 1.0136043
000030 fa 21 7f 3f 88 1b 91 3f b8 70 80 3f 72 ee 86 3f
       0.9966122 1.1336527 1.0034399 1.0541518

encoder_variable_selection.single_variable_grns.T2M.resample_norm.norm.bias f4 [16]
000000 f8 73 76 bc 1f ae 12 3d cf 1d 13 3e 20 ef 02 be
       -0.015042298 0.035810586 0.1436684 -0.12786531
000010 2a 5f c6 3b b2 23 aa bc 13 11 7a bc ca 75 13 3e
       0.006053825 -0.020768974 -0.01526286 0.14400402
000020 71 82 4d 3c 86 ad 08 bd c2 8a 25 bd aa ae db 3c
       0.012543307 -0.03336861 -0.040415533 0.026816685
000030 42 73 7a 3d 58 51 fd 3d 1c 8b 9a bb af a7 5f bd
       0.061145075 0.12369031 -0.00471629 -0.054603275

encoder_variable_selection.single_variable_grns.T2M.fc1.weight f4 [8, 8]
000000 fb 52 cf be 4e ce 01 3f 0a 0c 9f 3e a0 79 d9 be
       -0.40492997 0.5070542 0.31063873 -0.42475605
000010 c7 54 d6 3e bb 52 35 3e fc 8c 3b 3e 62 6a 10 3d
       0.41861555 0.1770734 0.183155 0.035257705
000020 c8 b9 8a 3e bc 99 d9 bd 08 7c c1 3e 36 b2 df 3e
       0.27094865 -0.10625026 0.3778994 0.43690652
000030 5c 90 24 bf 8c c9 39 3f 38 4d ff 3e e7 df f4 3e
       -0.64282775 0.7257316 0.498636 0.47827074
000040 a1 f0 3e bf cb 95 1c 3e 0c 00 d4 bf bc d0 c9 3f
       -0.7458592 0.15291516 -1.6562514 1.5766826
000050 43 e4 43 3f d3 03 8e 3e af 8a f7 be e1 83 e7 3e
       0.76520175 0.27737293 -0.48347995 0.45217803
000060 dc ba bd be 14 26 13 3e de fa fc 3c 0e 3d 8c 3e
       -0.37056625 0.14369994 0.030881342 0.2739033
000070 33 d1 ae 3f 89 34 24 3f f4 18 a7 bd 50 3b 0c be
       1.3657593 0.6414266 -0.08159056 -0.13694501
000080 7f 60 31 3e 6a 96 5e be d3 1a 16 bd a2 8e 10 3f
       0.17321967 -0.21737066 -0.036646675 0.5646764
000090 45 fb c3 3d 56 32 9e 3e d6 c2 20 bf 91 67 51 3f
       0.0956941 0.30897778 -0.62797296 0.81798655
0000a0 f4 83 21 be 62 89 f8 3e 34 03 6d be 8a ff d5 3d
       -0.15772992 0.48542315 -0.23145753 0.10449131
0000b0 5c b7 df 3d 45 74 f5 be 3f e0 69 bf df 0f 21 bf
       0.10923645 -0.4794027 -0.913578 -0.6291484
0000c0 5d f0 a2 3e 0d 02 56 3e 74 65 a0 3e 0b 0e b4 3e
       0.31824008 0.2089922 0.31327403 0.35166964
0000d0 38 53 cf 3e dc 00 5d be 72 60 44 bf fd 8c 4b be
       0.40493178 -0.21582359 -0.76709664 -0.19878002
0000e0 72 9e 3c 3e ce 8f 38 be 81 18 86 3e 45 24 31 3f
       0.18419817 -0.18023607 0.2619057 0.6919597
0000f0 90 25 32 bf b9 e5 49 3f 69 a2 1b 3f de c1 43 bd
       -0.69588566 0.78866154 0.60794693 -0.047792308

encoder_variable_selection.single_variable_grns.T2M.fc1.bias f4 [8]
000000 f7 ae 1e be 6d 5b 44 3d 47 72 61 bd dd 52 1c 3e
       -0.15496431 0.047938753 -0.055040624 0.15265985
000010 ba 00 02 3e 56 c0 1d be 26 be 22 bd dd 5a dd bb
       0.1269559 -0.15405402 -0.03973212 -0.0067552165

encoder_variable_selection.single_variable_grns.T2M.fc2.weight f4 [8, 8]
000000 4a 98 05 3e 44 e5 9a bd 67 75 29 3f c1 c3 b6 bf
       0.13046375 -0.0756326 0.66194767 -1.4278489
000010 a1 d9 8b bd 70 8d 51 3e 20 53 6d 3e 56 d1 9d 3c
       -0.06828619 0.2046411 0.23176241 0.019264858
000020 dc d0 80 3f 0d 21 d1 3e b0 bd 51 3f 52 63 30 3f
       1.0063739 0.40845528 0.81930065 0.6890155
000030 19 6b 31 bf 7c d0 12 3f b7 85 8a be 67 32 97 3c
       -0.69304043 0.5734937 -0.2705514 0.01845665
000040 e8 03 eb 3e ce 45 08 3f d0 da 88 be 93 1f 85 bf
       0.45901418 0.53231514 -0.2672944 -1.0400261
000050 4e 77 ea bd f0 93 6c 3e 7a 16 e3 be 70 42 04 bf
       -0.11448537 0.23103309 -0.44353086 -0.51663876
000060 44 ca 2b bf 3b 1c 4a 3f 5d 1a 5f bf 81 c5 8a 3e
       -0.6710551 0.78949326 -0.871496 0.2710381
000070 08 05 71 3d a8 c5 e3 be 5f b1 87 bd 44 e1 fe bd
       0.05884269 -0.44486737 -0.06625628 -0.1244531
000080 c0 78 1c 3f 50 28 98 3e 7e ba 48 3d 8b 15 eb 3d
       0.6112175 0.29718256 0.049005978 0.11478718
000090 64 d2 0a bf 5e ff 80 bc 60 cf 01 be 53 ec 0f 3e
       -0.5422728 -0.015746769 -0.12676764 0.14054994
0000a0 78 d7 0c bf 55 7b 66 3e 04 62 c8 3c cb 73 27 3f
       -0.5501628 0.22507985 0.0244608 0.6541106
0000b0 18 03 81 be 94 73 94 3e a4 e3 d4 be 05 f5 07 bf
       -0.25197673 0.2899443 -0.41579926 -0.53108245
0000c0 b2 c2 b8 bd 02 82 00 3f 39 27 17 bf 28 e8 f0 3e
       -0.0902151 0.50198376 -0.59044224 0.4705212
0000d0 e9 1f a5 3e 33 20 7b be 1a 29 57 bd b1 9e 36 3e
       0.32250908 -0.24524002 -0.052529432 0.17833973
0000e0 ac 9c 2d bf 97 ba e8 3c df 45 8c 3e fd 35 80 3f
       -0.6781719 0.028409285 0.27397057 1.0016476
0000f0 2c c6 40 be d3 57 13 bd 9d 2d 12 bd 4b 77 2a 3e
       -0.18825597 -0.035972428 -0.03568803 0.16647069

encoder_variable_selection.single_variable_grns.T2M.fc2.bias f4 [8]
000000 1c a3 7d bd 4c e0 0a 3e ca 1d c6 bb 07 1c db 3d
       -0.06192313 0.13562125 -0.0060460316 0.10698705
000010 36 d6 00 be 4a 50 22 3d 1d c8 02 3e a4 1a f7 bc
       -0.12581715 0.03962735 0.1277165 -0.03016407

encoder_variable_selection.single_variable_grns.T2M.gate_norm.glu.fc.weight f4 [32, 8]
000000 1c f9 c7 bd 30 a0 7d be 12 29 ac 3c b3 4f 05 be
       -0.09764311 -0.24768138 0.021015678 -0.13018684
000010 7d 8d 8b 3e 4b 53 74 bd c9 26 bb be 20 a6 46 be
       0.27256384 -0.059649747 -0.36553028 -0.19399309
000020 ca 65 7c be 8c 96 95 bc 67 72 ef bd 24 b0 3c be
       -0.24648204 -0.018260263 -0.116917424 -0.18426567
000030 51 9a 36 be d3 eb 1f 3d ea 2d 18 3e 02 de 00 bd
       -0.17832305 0.03904326 0.14861265 -0.031461723
000040 3b 64 08 3d c0 9f 6c 3d 22 f3 8d be c4 52 ae be
       0.033298712 0.057769537 -0.27724558 -0.3404752
000050 2a f9 39 3e 3c 14 45 be 9a 7f 42 3e 3e d8 93 3b
       0.18161455 -0.19246 0.18993989 0.004511862
000060 75 52 09 3e 08 f1 8d bd 42 cc 8d 3e 98 b7 d9 3d
       0.13410361 -0.06930739 0.276949 0.10630721
000070 a6 a0 68 3e 5a 42 3c be ca ff 7c 3c a9 81 24 be
       0.22717533 -0.18384686 0.015441844 -0.16065086
000080 d4 da 6f 3d 16 d2 54 be d8 84 01 3d 31 20 87 3d
       0.0585583 -0.20783266 0.03162083 0.06597937
000090 6b 45 39 be e8 63 51 be 32 df 54 3e ac 58 45 3e
       -0.18092887 -0.20448267 0.20788267 0.19272107
0000a0 22 cd 6b 3e 28 46 34 3e 55 c4 25 be be 9c b6 be
       0.2302747 0.17604887 -0.16188176 -0.3566646
0000b0 00 58 9b 3e 58 b3 bc 3e e2 e7 8b bc d8 e4 0a 3e
       0.30340576 0.36855578 -0.017078344 0.1356386
0000c0 85 72 d0 3d e5 2f 92 be 46 dc c3 bc dd d7 28 be
       0.10178093 -0.28552166 -0.023908745 -0.16488595
0000d0 0d a8 5a bc 06 4a 7c 3c 0b 57 1d be 4c 0f 91 be
       -0.0133457305 0.015398508 -0.15365236 -0.28331983
0000e0 82 f3 96 bd 2b 06 9b 3e 41 01 b0 bd f1 b7 91 be
       -0.07370664 0.30278143 -0.08593989 -0.2846065
0000f0 e6 cd 84 3d 07 66 14 bd 3c 95 92 bd 49 b0 67 be
       0.064845845 -0.036230113 -0.071573704 -0.22625841
000100 21 fb a0 3d c2 48 97 be f3 57 12 be a5 4d be 3d
       0.07860399 -0.29547697 -0.14291362 0.09292153
000110 cb 5f b9 3e be c3 81 bc 6b 70 87 3c 60 d7 80 be
       0.36205897 -0.015840407 0.016533097 -0.25164318
000120 5e 99 fe 3d 55 46 dd be a4 34 20 be 8e 1f a8 3e
       0.12431596 -0.43217722 -0.15645081 0.32836574
000130 81 49 ac bd 62 26 91 be 0b 67 7c be d7 16 fb 3d
       -0.08412457 -0.28349596 -0.24648683 0.12260216
000140 49 6a 5d be f5 3a c0 be d4 ad 2c bd a4 16 c9 3e
       -0.21622576 -0.3754498 -0.042157963 0.39275086
000150 9f f1 ad 3e 43 2a b1 bd 13 77 25 3e c9 9c bb bc
       0.33973405 -0.08650639 0.16158704 -0.02290191
000160 d9 e8 92 be 20 22 c3 3e c0 51 4b bd 07 2d 02 bf
       -0.28693274 0.38111973 -0.04963851 -0.50849956
000170 40 8d d8 bd 35 86 5a be 4b 23 d6 bd 61 6a 54 3e
       -0.10573816 -0.21340258 -0.1045595 0.20743705
000180 0c fd 91 be 3b 2e 98 be 25 77 82 be d8 f2 b6 3e
       -0.28513372 -0.2972277 -0.25481525 0.3573215
000190 ae 60 52 3e 5a e2 27 be dc 0d 79 3d 54 11 99 3e
       0.20544693 -0.1639494 0.060804233 0.29896033
0001a0 c8 d8 82 3d 54 e3 5b 3e aa 26 90 bd 0f e8 1d 3e
       0.06389004 0.21473438 -0.070386246 0.15420555
0001b0 5c ce 43 be 5b fd 8f be 2a 8e 80 be ea ab 47 be
       -0.19121689 -0.28122982 -0.25108463 -0.19499174
0001c0 0a ea ca be 4c 5c 4d be 30 f9 1f 3e 16 6b 30 3e
       -0.39631683 -0.2005474 0.15622401 0.1722835
0001d0 a4 99 ea bd 5c ff 62 be 64 67 ed 3e 53 ed 5e bd
       -0.11455086 -0.22167724 0.46367943 -0.05442555
0001e0 16 f2 c5 be c9 1f c1 bd 93 40 5b be 1d 7d 2d 3c
       -0.3866126 -0.09429891 -0.21411352 0.010588911
0001f0 e5 ae 83 be 41 2b 59 bd 4e fc 80 bc 52 1e 43 3e
       -0.2571937 -0.053019766 -0.015745308 0.19054535
000200 e5 c1 e4 3d 72 ea 2a 3e 56 4e fd 3d f1 af 3b be
       0.11169795 0.16690996 0.12368457 -0.18328835
000210 ba 41 8e be c7 d0 17 3d c8 1f 46 be 7b de 82 be
       -0.2778452 0.03706434 -0.19348061 -0.25560364
000220 d3 70 2b be 4e 67 30 be d4 2a b9 bc bf bc 3b be
       -0.16742258 -0.17226908 -0.02260343 -0.1833372
000230 36 be 6c bd 38 11 d0 bd 12 b5 ef bd c8 b2 85 3e
       -0.057798587 -0.10159534 -0.11704458 0.26112962
000240 0f 63 0b be 3d 19 3e 3d d2 87 d0 be 70 08 d9 bc
       -0.13612007 0.046410788 -0.40728623 -0.026493281
000250 94 01 ad 3e ec 0c 91 be a8 17 f3 3d e6 78 d2 3d
       0.33790267 -0.2833017 0.118697464 0.10276966
000260 4a 2e 34 3e 88 a0 f7 be 0f f9 1e be 08 3e 93 bb
       0.17595783 -0.48364663 -0.15524696 -0.0044934787
000270 16 53 e6 be 5d 09 01 3c dd 2e 4a bd 3f 7a 4f bc
       -0.44985265 0.007875768 -0.0493611 -0.012663423
000280 49 c2 c8 3d f1 b6 48 be ca 6e a5 3e 64 7d 9d 3e
       0.09802682 -0.19601037 0.32311088 0.30759728
000290 3f d4 c7 3b e0 57 9c be ad 2f 50 be be 1c 2d 3e
       0.0060982998 -0.30535793 -0.20330687 0.16905496
0002a0 cd ce a4 bd 94 87 4e 3e 6f 99 7c 3e 73 e7 ac 3d
       -0.080472566 0.20168906 0.24667905 0.08442583
0002b0 d8 f1 35 bd d3 e9 12 3d e4 29 f6 3d 2d a9 e1 be
       -0.044420093 0.035867523 0.12019709 -0.44074383
0002c0 8d 12 fe be 33 21 35 3d 0b 99 62 bd 74 6b 52 bb
       -0.49623528 0.044221114 -0.055321734 -0.0032107504
0002d0 86 b4 b7 be 26 7d 08 bd 7b 80 6d 3e 11 d0 be 3e
       -0.35879916 -0.033322476 0.23193543 0.37268117
0002e0 d0 aa b3 3e f6 93 9e 3e cd f2 7d 3d 77 7d 39 3e
       0.35091257 0.3097226 0.06199913 0.18114267
0002f0 88 78 7e 3d 0e 6a c2 3d 6e e5 de be 15 1e e0 3d
       0.062126666 0.094928846 -0.43534416 0.10943238
000300 c3 de 7e bc f6 62 bb be 6e 07 85 3e e5 d7 f2 3e
       -0.01555604 -0.3659894 0.2598223 0.4743034
000310 d0 77 24 be b4 49 87 3c c1 b2 83 bd bf e4 b0 be
       -0.1606133 0.016514637 -0.06430579 -0.3454952
000320 8b 2e b8 3d 6a 48 a4 3d 14 d5 a0 be 89 4e 4b be
       0.08993252 0.080216244 -0.31412566 -0.19854178
000330 7f 30 95 3e 9a 7d ba 3d 1a 3c 85 3e 9a 42 45 bc
       0.29138562 0.09105988 0.26022416 -0.012039805
000340 27 1b 4f 3e e5 cf d3 3e 63 cf cd 3c 54 d4 17 be
       0.20225202 0.41369548 0.025123304 -0.1482709
000350 6c 1a 0f 3d ee e8 9d 3c fb 2d 91 3d f8 c0 eb 3e
       0.034937307 0.019276109 0.07088848 0.4604566
000360 5c 7d 0f 3d 18 92 0f bd 8d d0 84 be d2 5a fe be
       0.03503166 -0.035051435 -0.25940362 -0.49678665
000370 b8 f3 26 3d 7e e4 81 be 0c c1 e5 be 7c db b7 3e
       0.040759772 -0.25369638 -0.44873846 0.3590964
000380 52 33 79 3e 9d de 50 3d d4 aa 52 3e f5 f3 a8 be
       0.24335983 0.05099355 0.20572978 -0.32998624
000390 70 f7 1d 3e b9 35 35 3e 70 56 c7 3d 2b 65 a1 be
       0.15426421 0.17696275 0.097332835 -0.31522498
0003a0 62 89 bb be 5e a6 98 3d f6 fa 35 bd ea 79 cd 3d
       -0.36628252 0.07453607 -0.044428788 0.10033019
0003b0 a9 8c 3b be dd 58 d4 3d 30 e0 92 bd f2 c5 91 3a
       -0.18315376 0.10368512 -0.071716666 0.0011121614
0003c0 e3 ee 2f be d0 12 a3 3e 08 c2 72 be 87 a9 d6 3d
       -0.17180972 0.3185029 -0.2370683 0.104815535
0003d0 72 02 79 be e7 ea b8 3d ec 88 3c bd 84 f6 a7 bd
       -0.24317339 0.09029179 -0.046029016 -0.08201316
0003e0 91 44 ad bd bb ea 80 be 6c 14 52 3e a3 65 43 be
       -0.08460344 -0.25179085 0.20515603 -0.1908174
0003f0 ae 61 c3 bd a5 51 02 be f1 2c ba 3e fc ba 28 3e
       -0.09540115 -0.12726457 0.36362413 0.16477579

encoder_variable_selection.single_variable_grns.T2M.gate_norm.glu.fc.bias f4 [32]
000000 bb d4 9e bc 06 62 2c 3d 4c 2a 16 3e e2 f8 03 be
       -0.019388547 0.04208567 0.14664572 -0.1288791
000010 b2 13 1b 3c 5c 95 b6 bc 64 06 14 bc c4 8f 11 3e
       0.009465145 -0.022288017 -0.009034727 0.14214998
000020 86 03 80 3c 35 dd fb bc 03 6b 14 bd 0b 4b 39 3d
       0.01562668 -0.030745128 -0.036234867 0.045237582
000030 f8 a8 46 3d 02 0b 02 3e 18 3f 2a 3c 4a c7 5c bd
       0.048500985 0.12699512 0.010391019 -0.053900994
000040 62 92 4a bd 85 c9 4b bd 62 cf 10 3e 86 29 06 be
       -0.049456008 -0.04975273 0.1414161 -0.13101777
000050 cc df 22 bd 43 73 9c 3c 38 8f 1e be a8 5f 04 3e
       -0.03976421 0.01909793 -0.15484321 0.12927115
000060 00 1e 1e be 13 11 e9 3c 3f 4b 6a 3b 5b 75 c9 3d
       -0.15441132 0.028450524 0.0035750417 0.09836837
000070 9b 45 fb bc 14 55 1e be ca c3 19 3e c0 b6 c3 38
       -0.030672839 -0.15462142 0.15016094 9.3323644e-05

encoder_variable_selection.single_variable_grns.T2M.gate_norm.add_norm.norm.weight f4 [16]
000000 73 8e 7d 3f 3f 5d 73 3f b6 f1 87 3f 7c e5 5e 3f
       0.99045485 0.9506416 1.0620639 0.87068915
000010 ce 24 5a 3f 3b a5 76 3f 5a 65 82 3f b4 c5 91 3f
       0.8521241 0.9634587 1.018718 1.1388459
000020 99 a8 70 3f b0 10 5d 3f f5 63 85 3f 41 7e 86 3f
       0.9400726 0.8635359 1.042113 1.050728
000030 39 d4 5b 3f 70 03 90 3f 21 86 88 3f 6a c7 86 3f
       0.858707 1.1251049 1.0665933 1.0529606

encoder_variable_selection.single_variable_grns.T2M.gate_norm.add_norm.norm.bias f4 [16]
000000 6d 8d f3 bc 8f 4e 06 3d b4 1d 0c 3e 97 fc 03 be
       -0.029730523 0.032789763 0.13683206 -0.12889324
000010 7a 49 b2 bb 72 23 cc bc fe 7c ff bc 3e 88 12 3e
       -0.005440888 -0.024919245 -0.03118753 0.14309785
000020 8a 2b e2 3a 38 9e 26 bd 53 41 38 bd 5b c8 c0 3b
       0.0017255407 -0.040678233 -0.044984173 0.0058832592
000030 be 03 66 3d 89 b0 7c 3d 18 05 24 bd 9f 0f 66 bd
       0.056155913 0.061691795 -0.04004392 -0.05616724
